tmp/experiments/RN5 False,True,True/pyt_network_save/model save35000.pt (torch_old, 314943 bytes, 33 tensors)

pi.pi_net.0.weight f4 [64, 5]
0	0x3e35a1bb	0.17737477
1	0xbee1c389	-0.44094494
2	0x3f160e2b	0.5861537
3	0xbd5d397b	-0.054009896
4	0x3e47e864	0.19522244
5	0xbe2e7fb9	-0.1704091
6	0xbf1a5743	-0.602894
7	0x3e9290e4	0.28626168
8	0x3dd7a5e4	0.10529688
9	0xbe0679fe	-0.13132474
10	0x3d2f45a8	0.04279104
11	0xbf010f72	-0.5041419
12	0x3ea0457c	0.31303012
13	0xbd5c03e3	-0.053714644
14	0x3e268f21	0.16265537
15	0x3f1be4c7	0.6089596
16	0xbe1ac988	-0.1511594
17	0x3df206ed	0.11817727
18	0x3dcc9578	0.099894464
19	0x3e8c906a	0.2745393
20	0x3f198a20	0.5997639
21	0x3e3044b3	0.17213707
22	0xbe94ed60	-0.29087353
23	0xbea0ed4c	-0.31431043
24	0x3e1f57dc	0.1556086
25	0xbe9785bf	-0.29594228
26	0xbea61a7b	-0.32442078
27	0xbd320f9d	-0.04347192
28	0x3bb0cbd2	0.005395391
29	0x3f2fc05f	0.6865291
30	0xbe0c5b48	-0.13706696
31	0xbe305ef8	-0.17223728
32	0x3e1feb2e	0.15617058
33	0x3e635296	0.22199473
34	0xbe7fc672	-0.24978045
35	0x3d881f5e	0.06646608
36	0xbd06ec93	-0.03294046
37	0x3f0bc886	0.5460285
38	0xbc041fd6	-0.008064231
39	0x3e6f6daf	0.23381685
40	0x3e80c199	0.25147703
41	0x3e2d139c	0.16902012
42	0x3e4968ff	0.19668959
43	0x3e67bcce	0.22630617
44	0xbefde1c9	-0.49586323
45	0xbf05a4c3	-0.5220453
46	0xbed5bf9f	-0.41747758
47	0xbe980ba4	-0.2969638
48	0xbe504f4b	-0.20342748
49	0xbf09d419	-0.5383926
50	0xbe983783	-0.29729852
51	0xbde98eca	-0.11404188
52	0x3cd38d22	0.025824133
53	0xbea761b2	-0.32691723
54	0x3e50fe3c	0.20409483
55	0x3ef5f39a	0.48037416
56	0x3e936068	0.2878449
57	0x3f2884ab	0.65827435
58	0xbf0170e0	-0.5056286
59	0xbe06242d	-0.13099737
60	0xbe026370	-0.12733245
61	0x3aaf65e6	0.0013381809
62	0x3e6ee459	0.23329295
63	0x3f239f23	0.639147
64	0x3d8d61ed	0.069034435
65	0xbf11a47a	-0.56891596
66	0xbee419b0	-0.44550848
67	0x3dd2f1e2	0.10300042
68	0x3e2a88a4	0.16653687
69	0x3eb88492	0.36038643
70	0x3f1deb11	0.6168681
71	0xbe9d6404	-0.30740368
72	0x3e8153f5	0.25259367
73	0xbd2647fd	-0.040595997
74	0x3ef806fc	0.4844283
75	0x3dd3eda8	0.10348064
76	0xbebd98f9	-0.3703077
77	0xbe5cb9ab	-0.21555202
78	0xbe875cb3	-0.2643791
79	0x3f79022b	0.97268933
80	0xbf0b1e95	-0.5434354
81	0xbed8d028	-0.4234631
82	0x3e7a7660	0.24459219
83	0xbe8651ed	-0.2623438
84	0x3f33610d	0.7006996
85	0xbc9a2981	-0.018818619
86	0xbda1b840	-0.07896471
87	0x3b0d9b88	0.0021607596
88	0xbe5f0dee	-0.21782658
89	0xbe9c2906	-0.30500048
90	0x3ec4b4b4	0.38419116
91	0x3da3a1c4	0.07989839
92	0xbd585d21	-0.05282319
93	0xbd7f4cc4	-0.06232907
94	0xbe0ba78b	-0.13638131
95	0xbf293c1d	-0.6610735
96	0xbf2c5c14	-0.67328
97	0x3e1d9a40	0.15390873
98	0x3d62b32d	0.055346657
99	0x3e9a5318	0.3014152
100	0xbf7c7cd2	-0.9862796
101	0x3ea0d548	0.3141272
102	0xbdd6962a	-0.1047786
103	0xbdc4b20a	-0.09604271
104	0x3e5aa5da	0.2135233
105	0x3e4d2e75	0.20037253
106	0xbec88abb	-0.39168343
107	0x3f6257e6	0.8841537
108	0xbe2a4b79	-0.16630353
109	0x3e44ae9f	0.19207238
110	0xbf3310ad	-0.6994732
111	0x3dbdf393	0.09274974
112	0x3e889f54	0.26684058
113	0xbd30a799	-0.043128584
114	0x3f0079ec	0.5018604
115	0xbed3ff27	-0.41405603
116	0xbed0136a	-0.40639812
117	0x3e5361f0	0.20642829
118	0xbe88e58a	-0.26737624
119	0x3e8367ef	0.25665233
120	0x3eefa9d7	0.46809265
121	0x3dab8a6a	0.0837601
122	0xbec0f17a	-0.37684232
123	0x3e40cd42	0.188283
124	0x3db8860c	0.090099424
125	0x3e2cd61f	0.16878556
126	0x3e194357	0.14967094
127	0x3f337623	0.7010214
128	0xbe17f535	-0.14839633
129	0x3e0e06cc	0.1386978
130	0x3e7149d4	0.2356332
131	0xbe8b4d4d	-0.27207413
132	0x3dd9337a	0.106055215
133	0x3f077dc8	0.529263
134	0xbebf8f90	-0.37414217
135	0x3ecc5ef3	0.3991619
136	0xbd4a8348	-0.049441606
137	0x3c985c2d	0.01859864
138	0xbf34cd2a	-0.70625556
139	0x3ed4c4a7	0.41556284
140	0xbee0c8a1	-0.43903068
141	0x3e062549	0.1310016
142	0xbe5b2025	-0.21398981
143	0x3e976d42	0.29575545
144	0x3de1ac58	0.110192
145	0x3ec000d8	0.37500644
146	0x3e8892a9	0.26674393
147	0x3f56c6a8	0.83896875
148	0x3e703fe6	0.23461875
149	0x3e862eb6	0.26207513
150	0xbe17c7b4	-0.14822274
151	0xbdaa2c91	-0.083092816
152	0xbcbb8314	-0.022889651
153	0xbf189c38	-0.5961337
154	0x3f3b76da	0.7322823
155	0x3c2ead0f	0.010661378
156	0xbece923d	-0.40345946
157	0x3d8d252e	0.06891857
158	0xbd89cb41	-0.06728221
159	0x3eb155a2	0.34635645
160	0xbf99d57d	-1.2018276
161	0xbe591418	-0.21199071
162	0x3d0828e6	0.03324213
163	0x3d815d7e	0.0631666
164	0x3df93238	0.121677816
165	0xbdc8eced	-0.09810815
166	0xbea61386	-0.3243677
167	0xbd4c3014	-0.04985054
168	0x3d10ed54	0.035382584
169	0x3ec199fe	0.378128
170	0xbdeb82b7	-0.11499541
171	0xbe92005b	-0.28515896
172	0xbe119c44	-0.14219767
173	0xbe155195	-0.14581902
174	0x3e40648d	0.18788357
175	0xbec3c170	-0.3823352
176	0x3e456fba	0.19280902
177	0x3f1dd5ad	0.6165417
178	0x3caa8e28	0.020819739
179	0x3effb8a8	0.4994557
180	0xbd6ff59c	-0.05858384
181	0xbed6cc81	-0.419529
182	0xbf50075c	-0.8126123
183	0xbf36dece	-0.7143372
184	0xbead2b14	-0.33821929
185	0x3e62fc2d	0.2216651
186	0xbe3cbc4e	-0.18431208
187	0x3c785ed3	0.015159327
188	0x3d7e9312	0.062151976
189	0x3eb93498	0.36172938
190	0x3e70ccb3	0.23515587
191	0x3e60f4ac	0.21968335
192	0xbd9645f0	-0.07337558
193	0x3e25928d	0.16169186
194	0xbe70a1e2	-0.23499253
195	0x3e644a21	0.22293903
196	0x3db1e38c	0.08685979
197	0xbefe9793	-0.49725017
198	0x3e8aaa34	0.2708298
199	0xbede07a2	-0.43365198
200	0x3f6f6e02	0.93527234
201	0xbdcaad8b	-0.09896382
202	0x3d9edc5e	0.077568755
203	0xbd53f95d	-0.051751483
204	0x3d92502f	0.071442
205	0xbefcb59b	-0.49357304
206	0xbe22f483	-0.15913586
207	0x3d142e0c	0.036176726
208	0xbec2ec48	-0.38070893
209	0x3e471f96	0.19445643
210	0xbeb0b72f	-0.34514758
211	0xbea32280	-0.3186226
212	0xbee2402c	-0.44189584
213	0xbdfdc0af	-0.12390267
214	0x3ed77ff6	0.42089814
215	0x3f184898	0.5948577
216	0x3e24a199	0.1607727
217	0x3ea1d4a8	0.31607556
218	0xbeaa5154	-0.33265173
219	0xbece4589	-0.40287426
220	0x3d4373e3	0.04771794
221	0xbf71df16	-0.9448103
222	0x3e8d202f	0.27563617
223	0xbd85bb03	-0.0652981
224	0x3f098b81	0.5372849
225	0x3f0f610f	0.56007475
226	0x3ecba941	0.39777568
227	0xbe9e943a	-0.30972463
228	0xbe9eefa0	-0.31042194
229	0x3dcfb9b8	0.10142845
230	0x3eaf1cda	0.342017
231	0x3d82cdb6	0.063868925
232	0xbeb121ac	-0.34596002
233	0xbe079d63	-0.13243632
234	0x3ec43eae	0.3832907
235	0x3e315bf4	0.17320234
236	0xbf1420fa	-0.5786282
237	0x3ec1ed64	0.37876427
238	0x3e0bf1bb	0.13666432
239	0x3e9b2138	0.3029878
240	0xbf5c30f6	-0.8601221
241	0x3e554bb0	0.20829654
242	0xbf06d462	-0.5266782
243	0x3e23e647	0.16005813
244	0x3dd12e7e	0.10213946
245	0xbe3cd88d	-0.18441983
246	0x3eb080dc	0.34473312
247	0x3f100412	0.5625621
248	0x3edd5b96	0.43233937
249	0x3ef66955	0.48127237
250	0xbde858be	-0.11345051
251	0xbeece5b5	-0.46269003
252	0x3ecb878d	0.39751855
253	0xbdbce716	-0.09223764
254	0x3db8078e	0.08985816
255	0xbeaf3510	-0.3422017

pi.pi_net.0.bias f4 [64]
0	0xbd9cf46f	-0.076638095
1	0x3d10f4d5	0.03538974
2	0x3cb2cfe6	0.02182765
3	0xbe507e2d	-0.20360632
4	0xbcd85ff4	-0.026412942
5	0x3e1bfff2	0.15234354
6	0x3d17cd50	0.037061036
7	0x3e164ffa	0.14678946
8	0x3e7f08fe	0.24905774
9	0xbec4c975	-0.3843495
10	0xbd397c9d	-0.045284856
11	0x3e19b4ff	0.15010451
12	0x3dcb3cf9	0.09923739
13	0x3e156f40	0.1459322
14	0xbd471731	-0.0486061
15	0x3c2388b6	0.009981325
16	0xbc609c3d	-0.013709125
17	0xbda02efa	-0.0782146
18	0xbd34bf43	-0.044127714
19	0xbd18635d	-0.037204135
20	0x3e555d51	0.20836379
21	0xbd8ad469	-0.06778795
22	0x3d9518a4	0.072800905
23	0x3da5c307	0.08093839
24	0xbe3eb805	-0.18624885
25	0xbdbf1ebf	-0.09332036
26	0x3d8db577	0.06919377
27	0xbdb94fd3	-0.090484284
28	0x3d53b321	0.051684503
29	0x3e68b93d	0.22726913
30	0x3d7375ae	0.0594384
31	0x3e312e0e	0.17302725
32	0x3da45862	0.0802467
33	0x3ca72a3d	0.020405883
34	0x3d592ef5	0.053023297
35	0xbd6126b0	-0.054968536
36	0xbe941086	-0.28918856
37	0x3e2b5332	0.16730955
38	0xbd250cb4	-0.040295318
39	0x3cbb1083	0.022835022
40	0xbe1985c1	-0.1499243
41	0x3e4606aa	0.1933848
42	0x3d796181	0.060884003
43	0xbe7c9e94	-0.24669868
44	0x3da69f17	0.08135813
45	0x3c142471	0.009041891
46	0xbc6cdab5	-0.014456441
47	0x3d4a5837	0.049400534
48	0x3e7f3416	0.24922213
49	0x3e8789ac	0.26472223
50	0x3db64b4e	0.08901082
51	0x3e6df591	0.23238207
52	0xbe788d61	-0.24272682
53	0x3cee891a	0.02911811
54	0x3dbd3a61	0.092396505
55	0x3dc68803	0.09693911
56	0x3c0aef62	0.008479925
57	0x3e788d58	0.24272668
58	0xbe0b7099	-0.13617171
59	0xbea4c322	-0.32180125
60	0xbe63612e	-0.2220504
61	0x3d17b5a8	0.037038475
62	0x3c880319	0.01660304
63	0x3e966bd9	0.29379156

pi.pi_net.2.weight f4 [64, 64]
0	0xbf2bce99	-0.6711212
1	0xbe8e4486	-0.27786654
2	0xbe9fc4a2	-0.31204706
3	0xbd2cc1a8	-0.042176872
4	0x3e1835ae	0.14864227
5	0xbe94fa06	-0.29097003
6	0xbc05e500	-0.008172274
7	0x3cf6d4a2	0.030130688
8	0xbebb909c	-0.36633766
9	0xbd5db07a	-0.05412338
10	0xbe39fb52	-0.18162277
11	0x3e4a5901	0.19760515
12	0xbe270fa8	-0.16314566
13	0xbe4b6e51	-0.19866301
14	0xbe509113	-0.20367841
15	0xbe6b532e	-0.2298095
16	0xbf057521	-0.5213185
17	0x3d9346d4	0.07191244
18	0x3cfff37e	0.031244036
19	0x3d3c2058	0.045929283
20	0x3d8898b1	0.066697486
21	0xbe1afb08	-0.15134823
22	0xbe036e92	-0.12835148
23	0xbea171f1	-0.31532243
24	0x3e25a0b0	0.16174579
25	0xbe80adff	-0.25132748
26	0x3d883d9d	0.06652377
27	0xbea3a195	-0.31959215
28	0x3e9db2e5	0.30800548
29	0x3e424205	0.18970497
30	0xbee7bae6	-0.4525978
31	0xbd2e3d95	-0.042539198
32	0xbe4346ef	-0.19070028
33	0xbe861979	-0.2619131
34	0xbe700def	-0.23442815
35	0xbe0b4778	-0.13601482
36	0x3da477d3	0.08030667
37	0xbf280533	-0.65632933
38	0xbdca4fee	-0.09878527
39	0x3ef5d4e8	0.48013997
40	0x3c884976	0.016636591
41	0xbd9d34fe	-0.07676123
42	0xbc3e33c3	-0.011609021
43	0x3e082bc5	0.13297947
44	0xbedbee3b	-0.42955193
45	0x3e8caf9a	0.27477723
46	0xbf37f8cf	-0.71864027
47	0xbf096df2	-0.5368339
48	0xbe6eb7f5	-0.23312362
49	0x3ed90738	0.4238832
50	0x3e874371	0.2641864
51	0x3eb5f2a4	0.35536683
52	0x3ddee7f6	0.10884087
53	0xbe6623e3	-0.22474627
54	0x3f1cfb03	0.61320513
55	0xbe8ee05c	-0.27905548
56	0xbe6b569a	-0.22982255
57	0xbdeb41a0	-0.11487126
58	0xbed107ba	-0.40826207
59	0x3d7bac76	0.06144377
60	0x3e35b93f	0.17746447
61	0x3e9db35e	0.3080091
62	0x3dd1f608	0.10252005
63	0x3f0bfaca	0.5467955
64	0x3e1069e7	0.14102899
65	0x3e8835f2	0.26603657
66	0x3dcf3c97	0.101189785
67	0xbe944cb5	-0.28964773
68	0xbe709ef6	-0.23498139
69	0x3e394c43	0.18095498
70	0x3e832415	0.25613466
71	0x3ec35291	0.3814893
72	0x3d7b28ac	0.061318085
73	0xbe901086	-0.28137606
74	0x3d5bc7c5	0.053657312
75	0xbebf83ad	-0.37405148
76	0x3e7d5ef8	0.24743259
77	0x3ea18bfa	0.31552106
78	0x3de2ad95	0.110682644
79	0x3ea68178	0.32520652
80	0x3dacf503	0.0844517
81	0xbef58381	-0.47951892
82	0x3da4db4f	0.08049642
83	0xbe00d215	-0.1258014
84	0x3e819c19	0.25314406
85	0xbe7d9d96	-0.24767146
86	0xbdca6dff	-0.09884261
87	0xbd9c51af	-0.076327674
88	0xbe54a606	-0.20766458
89	0xbe6526bb	-0.22378056
90	0x3e7f4e06	0.24932107
91	0xbec1ef96	-0.37878102
92	0x3eaaacf3	0.33335075
93	0x3e69a1c0	0.22815609
94	0x3c79ccf9	0.015246623
95	0xbcc46c7c	-0.02397751
96	0xbe2bb16c	-0.167669
97	0x3e40a8e2	0.18814424
98	0xbce56791	-0.028003486
99	0xbd07e53e	-0.033177607
100	0xbe984d7b	-0.29746613
101	0x3e86997b	0.2628897
102	0x3e20add1	0.15691306
103	0x3dfa171c	0.12211439
104	0xbdf694b5	-0.12040082
105	0xbcec715e	-0.028862651
106	0x3ee0d461	0.43912032
107	0xbeb19eb6	-0.346914
108	0x3da98a29	0.08278305
109	0xbdf5b9eb	-0.11998352
110	0x3d5f7346	0.054553293
111	0x3ec5817c	0.3857535
112	0x3f4ce517	0.80037063
113	0x3c207053	0.009792405
114	0x3e73f2d6	0.23823103
115	0x3e57fb01	0.21091844
116	0xbef028c6	-0.46906108
117	0x3e4c1f29	0.19933762
118	0x3d76e23c	0.060274348
119	0x3ef6325c	0.48085296
120	0x3eff8e8c	0.49913442
121	0x3db840e1	0.0899675
122	0x3e6afce8	0.22948039
123	0x3e216868	0.15762484
124	0xbe5e5f2d	-0.21715994
125	0xbe791a4e	-0.2432644
126	0xbefca29c	-0.4934281
127	0x3e6346e1	0.22195007
128	0xbf04fa9b	-0.51944894
129	0xbd36fa58	-0.04467234
130	0xbdab84f3	-0.083749674
131	0xbf17cd89	-0.59297997
132	0xbebad718	-0.36492229
133	0x3e2b9373	0.16755466
134	0xbe522fe2	-0.20526078
135	0xbda9c5b3	-0.08289661
136	0x3ea5ebbe	0.3240642
137	0xbe903f28	-0.28173184
138	0x3d0dee80	0.03465128
139	0xbe5b69c8	-0.21427071
140	0x3c39939a	0.011326695
141	0x3e627df6	0.22118363
142	0xbec50593	-0.38480815
143	0xbd179483	-0.037006866
144	0xbe8b76f6	-0.27239197
145	0x3e9a60b6	0.3015191
146	0x3cca1f4a	0.024673123
147	0xbe357180	-0.17719078
148	0x3ef5d93b	0.48017296
149	0xbe5eefa5	-0.21771105
150	0xbe43615e	-0.19080111
151	0xbe2d034b	-0.16895787
152	0xbe20527d	-0.15656467
153	0xbcee9dd5	-0.029127995
154	0x3e054932	0.13016203
155	0xbdeb804d	-0.11499081
156	0xbc29c39d	-0.010361579
157	0x3dcff829	0.10154755
158	0x3d5732f4	0.052538827
159	0x3d5b132a	0.053485073
160	0xbe9b95d2	-0.3038774
161	0xbd0569f6	-0.032571755
162	0xbe827d8e	-0.25486416
163	0xbe56586e	-0.20932171
164	0xbe5b6e8a	-0.21428886
165	0x3e6fbb82	0.23411372
166	0x3d8a61a5	0.067569055
167	0xbccf316e	-0.025292125
168	0xbe217213	-0.15766172
169	0x3e6e65b0	0.23280978
170	0x3c204b04	0.00978351
171	0xbe2ca821	-0.16861011
172	0xbdc28368	-0.0949772
173	0x3c830ab2	0.01599631
174	0x3cd64a68	0.026158527
175	0xbebf67c8	-0.37383866
176	0x3f59b343	0.85039157
177	0xbd9f45f1	-0.07777012
178	0xbe21d04d	-0.15802117
179	0x3f37c858	0.71790075
180	0xbe6a31dc	-0.22870582
181	0x3e669828	0.2251898
182	0x3df41b91	0.119193204
183	0x3e0f2503	0.13978963
184	0xbd8b7a56	-0.06810443
185	0x3e1a3fd2	0.15063408
186	0xbe31cef8	-0.17364109
187	0xbf035381	-0.5129929
188	0xbde184fc	-0.11011693
189	0x3e2804bb	0.16408055
190	0x3ef6c415	0.48196474
191	0x3e9f7971	0.3114734
192	0xbeee6d95	-0.4656798
193	0x3e4857a7	0.19564687
194	0xbf0fe197	-0.562036
195	0xbc274505	-0.010209327
196	0xbd41e6d0	-0.04733926
197	0xbda3360d	-0.07969294
198	0xbdba900a	-0.091095045
199	0x3e1e8da1	0.15483715
200	0x3e024fcd	0.12725754
201	0xbc282cc7	-0.010264582
202	0xbe5f4cb5	-0.21806605
203	0x3ebca79a	0.3684662
204	0x3c987200	0.018609047
205	0xbf2b8f01	-0.6701508
206	0x3e3415ab	0.1758639
207	0xbd885bbb	-0.06658121
208	0xbf3a0f8f	-0.7267999
209	0x3e8b7ab4	0.27242053
210	0x3e93401c	0.2875985
211	0xbf00623a	-0.5014988
212	0x3db699fb	0.08916088
213	0xbe6a992b	-0.22909991
214	0x3d31519d	0.043290723
215	0xbe5fe5b7	-0.21864973
216	0xbe8d733d	-0.27626982
217	0x3e249ae1	0.16074707
218	0x3d59d24d	0.053179074
219	0xbe6e7980	-0.23288536
220	0xbf0917e0	-0.53552055
221	0x3df7867f	0.120862
222	0xbebd9435	-0.37027135
223	0xbefa81a1	-0.48927024
224	0xbed3682d	-0.41290417
225	0xbe1d672e	-0.15371391
226	0xbe27fc8f	-0.16404937
227	0x3e82cfbd	0.25549117
228	0x3ef0e90f	0.4705281
229	0xbe5aca62	-0.21366265
230	0xbeb7e93a	-0.35920125
231	0x3d625a2b	0.055261772
232	0x3f298f45	0.66234237
233	0x3ca4c35d	0.020112688
234	0xbe38db0a	-0.18052307
235	0x3ef2ae94	0.47398818
236	0xbf031df5	-0.51217586
237	0x3e46f001	0.19427492
238	0xbd29a538	-0.04141733
239	0xbefb756d	-0.49113026
240	0xbe98c540	-0.2983799
241	0xbda7cb56	-0.0819308
242	0x3d8c562a	0.06852372
243	0xbdf68e0b	-0.12038811
244	0x3ccc9012	0.024971042
245	0xbf1bc60b	-0.60849065
246	0x3eaa844c	0.3330406
247	0xbddbd05c	-0.10733101
248	0xbd8dcc37	-0.069237165
249	0xbec47404	-0.38369763
250	0xbe7ccd22	-0.24687627
251	0xbe051fd4	-0.13000423
252	0xbece15de	-0.40251058
253	0x3ea0ab50	0.313807
254	0x3f222413	0.63336295
255	0xbe42032e	-0.18946525

pi.pi_net.2.bias f4 [64]
0	0x3e1ed633	0.15511398
1	0x3dd038c6	0.10167079
2	0x3e0ac276	0.13550743
3	0x3cd084fc	0.025454037
4	0x3d88fb6f	0.06688582
5	0x3e01aaf2	0.12662867
6	0xbe399631	-0.181237
7	0x3e134f81	0.14385797
8	0xbe9e750e	-0.3094868
9	0xbe569b4b	-0.20957677
10	0x3e5fcf58	0.21856439
11	0xbda569c2	-0.08076812
12	0x3f0b26e1	0.543562
13	0xbd8745ae	-0.06605087
14	0x3be47b93	0.006972739
15	0xbd739e65	-0.05947723
16	0x3d379cf0	0.0448274
17	0x3df6e3de	0.12055181
18	0xbe97f382	-0.2967797
19	0xbdf6ac93	-0.12044635
20	0xbc6b6312	-0.014366882
21	0x3d159700	0.036520958
22	0x3ce27a42	0.027646188
23	0x3d8d4c55	0.06899325
24	0x3e5772f1	0.2103994
25	0x3e4d9c2c	0.20079106
26	0x3dec7338	0.11545414
27	0x3d066717	0.032813158
28	0xbdacb142	-0.08432247
29	0xbc327b6c	-0.010893684
30	0xbea519bf	-0.32246205
31	0x3d715dc3	0.05892731
32	0x3e0ecb59	0.13944758
33	0xbcdfa515	-0.027300397
34	0xbd1465b8	-0.03622982
35	0xbe262bd3	-0.16227655
36	0xbb5f27e0	-0.0034050867
37	0x3d8a0019	0.067383
38	0x3dcf4414	0.10120407
39	0x3dc367b4	0.09541264
40	0x3de0e0a6	0.10980348
41	0x3d63c18b	0.0556045
42	0xbec91863	-0.39276418
43	0x3db7ac86	0.08968453
44	0x3defeec2	0.11715461
45	0x3dcf3536	0.10117571
46	0xbb9bdb4b	-0.0047563664
47	0x3ca16028	0.019699171
48	0xbdc81026	-0.09768705
49	0x3d0f7707	0.035025623
50	0xbd91d245	-0.07120184
51	0xbde0cf3f	-0.10977029
52	0xbea70ecd	-0.3262848
53	0x3e05f255	0.13080724
54	0x3e2e3753	0.17013292
55	0xbe6822d4	-0.22669536
56	0x3e129ef5	0.1431845
57	0xbdab93a4	-0.083777696
58	0x3dba0b26	0.09084158
59	0xbdb6d415	-0.0892717
60	0x3d04085f	0.032234546
61	0x3eddb7c2	0.4330426
62	0xbc9cc2f7	-0.019135935
63	0xbd8610d7	-0.06546181

pi.pi_net.4.weight f4 [256, 64]
0	0xbe895ac4	-0.2682706
1	0xbf234ef3	-0.6379234
2	0xbec33ba7	-0.3813145
3	0x3e8b39d4	0.27192557
4	0xbf096cac	-0.53681445
5	0xbea4513d	-0.3209323
6	0x3f2ee65e	0.6832026
7	0x3ea74da8	0.32676435
8	0x3f5e4037	0.86816734
9	0x3f2a586a	0.6654116
10	0x3e2fde2b	0.17174594
11	0x3eebcaf4	0.46053278
12	0xbf38f969	-0.7225557
13	0xbdd2a4b0	-0.10285318
14	0x3e8376a3	0.2567645
15	0xbeaea5b8	-0.34110808
16	0x3eeab37b	0.45840058
17	0xbf2e78d0	-0.68153095
18	0x3f1c00ea	0.60938895
19	0x3e9dcb74	0.30819285
20	0x3a1bbd77	0.0005941013
21	0x3e2958e6	0.16537818
22	0x3e83e405	0.25759903
23	0xbf0dcb1e	-0.5538806
24	0xbea05b1e	-0.31319517
25	0x3c266403	0.010155681
26	0x3dae9af8	0.08525652
27	0x3ee0e0b1	0.43921426
28	0xbe2e0006	-0.16992196
29	0xbe61424a	-0.21997944
30	0x3e99a2ac	0.3000692
31	0xbf05a232	-0.52200615
32	0x3ed0e401	0.40798953
33	0xbe30f2aa	-0.17280069
34	0xbe97824b	-0.29591593
35	0x3f1cacf0	0.6120138
36	0x3f2be005	0.671387
37	0x3daf6c4f	0.0856558
38	0x3e79a79e	0.24380347
39	0xbc486e35	-0.012233307
40	0xbe765b0b	-0.24058168
41	0xbd7d679b	-0.061866384
42	0x3f3c86f4	0.7364342
43	0x3e575f25	0.21032389
44	0xbef54e93	-0.4791151
45	0x3d8ab401	0.06772614
46	0xbef59e9c	-0.47972572
47	0xbe129fc0	-0.14318752
48	0x3de2ac8e	0.110680684
49	0x3f00114c	0.5002639
50	0xbf2b7693	-0.66977805
51	0x3f0c5998	0.5482421
52	0x3f034ee6	0.51292264
53	0x3e71bb64	0.2360664
54	0x3dad0ffa	0.08450313
55	0xbd93ae91	-0.0721103
56	0xbf10bd86	-0.5653919
57	0x3ee9132b	0.45522436
58	0xbf01526c	-0.5051639
59	0x3f41636f	0.7554235
60	0xbd474ad3	-0.048655342
61	0xbf2584bb	-0.64655656
62	0xbf8cf412	-1.1011984
63	0x3cefb84a	0.02926268
64	0x3e95116b	0.2911485
65	0xbf365351	-0.7122088
66	0xbede4caa	-0.43417865
67	0x3dc126e5	0.09431247
68	0x3d8c84df	0.06861281
69	0xbf0c4ea9	-0.54807526
70	0x3f458544	0.7715647
71	0x3e99c452	0.30032593
72	0x3f816797	1.0109738
73	0x3f245529	0.64192444
74	0x3ebc9076	0.36828965
75	0x3f7b3a4a	0.9813582
76	0xbe7a1731	-0.2442291
77	0xbf0316c8	-0.51206636
78	0xb9b3dc7f	-0.00034305823
79	0xbece81db	-0.40333447
80	0x3f45ba67	0.7723755
81	0xbf48a472	-0.78375924
82	0x3efd7104	0.49500287
83	0x3e8d6511	0.2761617
84	0xbde3332e	-0.11093746
85	0x3c65d1e7	0.014027095
86	0xbe93af29	-0.28844574
87	0xbea293aa	-0.31753284
88	0xbeae21b0	-0.34010077
89	0x3e86edf6	0.26353425
90	0x3ded8c3e	0.11599015
91	0x3f39ab3e	0.7252692
92	0xbe1498f8	-0.14511478
93	0xbee1d537	-0.44107983
94	0x3eb70fca	0.35754234
95	0xbe089d4b	-0.13341253
96	0x3f013aa1	0.50480086
97	0xbea4e66d	-0.3220705
98	0xbe89b491	-0.26895574
99	0x3f677350	0.9041033
100	0x3ddb7a92	0.10716738
101	0xbdeaa156	-0.11456554
102	0xbe07e240	-0.13269901
103	0x3e70a374	0.23499852
104	0xbf27bb67	-0.6552033
105	0xbe1dd395	-0.15412743
106	0x3ed2747d	0.41104499
107	0x3e46830a	0.19385925
108	0xbe918195	-0.28419176
109	0x3a2e4998	0.00066485396
110	0xbedbb87f	-0.42914197
111	0xbefcb793	-0.49358806
112	0x3e78bce6	0.24290809
113	0x3e98797d	0.29780188
114	0xbb0a8753	-0.0021137788
115	0x3ed3406b	0.41260085
116	0x3f6818e0	0.90662956
117	0x3e35e91e	0.17764708
118	0x3eb086ce	0.34477848
119	0xbe7aba0c	-0.24485034
120	0xbeff57c2	-0.4987164
121	0x3ea0f16e	0.31434196
122	0xbe27a4a0	-0.16371393
123	0x3f717229	0.9431482
124	0xbeaf486b	-0.34234938
125	0xbf016071	-0.5053778
126	0xbef0f022	-0.47058207
127	0xbb77c891	-0.0037808756
128	0x3d810ebf	0.06301641
129	0xbf053121	-0.5202809
130	0xbe829117	-0.2550132
131	0x3e88d9f2	0.2672878
132	0x3e54e369	0.20789875
133	0xbf2ed2c5	-0.6829036
134	0x3f439e96	0.7641386
135	0xbda3610f	-0.07977497
136	0x3f59490f	0.84877104
137	0x3f708ffd	0.9396971
138	0x3f3ead57	0.74483246
139	0x3f4a2d47	0.7897534
140	0xbeb8246a	-0.35965282
141	0xbe1d010a	-0.15332428
142	0x3e9b8c9a	0.30380708
143	0xbe9d8c94	-0.30771315
144	0x3f058e38	0.52170134
145	0xbefd1383	-0.4942895
146	0x3eea8382	0.45803457
147	0x3e9d66b8	0.3074243
148	0xbe8b5e1e	-0.27220243
149	0x3d2bd54b	0.04195146
150	0xbe780adf	-0.24222897
151	0xbec5ef93	-0.38659343
152	0xbefc61db	-0.49293408
153	0x3d8b764c	0.06809673
154	0xbdce6388	-0.10077578
155	0x3f6ec719	0.9327255
156	0xbe8baa98	-0.2727859
157	0xbe7b404c	-0.24536246
158	0x3e0555e3	0.13021044
159	0xbd240dd2	-0.040052243
160	0x3f48ef4f	0.78490156
161	0xbe408f2f	-0.1880462
162	0xbeb10e00	-0.34580994
163	0x3f0cb438	0.5496249
164	0x3f070771	0.5274573
165	0xbe83d235	-0.25746313
166	0xbd94b91a	-0.07261868
167	0x3db9dabb	0.09074923
168	0xbeefb001	-0.46813968
169	0xbe2cf153	-0.16888933
170	0x3edd75ca	0.43253928
171	0x3e92752a	0.28605014
172	0xbe2eefd6	-0.17083678
173	0x3e02d5c3	0.12776856
174	0xbf07c5ae	-0.5303601
175	0xbeeed9b5	-0.46650472
176	0x3e61b228	0.22040617
177	0x3e86e003	0.26342782
178	0xbe3e945f	-0.18611287
179	0x3ea9f320	0.33193302
180	0x3f6477c7	0.89245266
181	0x3e81f460	0.25381756
182	0x3ea65334	0.32485354
183	0xbf103f97	-0.5634703
184	0xbf36ff3a	-0.71483195
185	0x3ef417d8	0.4767444
186	0xbe921ce7	-0.28537676
187	0x3f6899b0	0.9085951
188	0xbede4f38	-0.43419814
189	0xbf42ecb8	-0.76142454
190	0xbf2f0015	-0.683595
191	0xbdc56f07	-0.096403174
192	0x3e6a09c7	0.22855292
193	0xbf4c6b26	-0.79850996
194	0xbf1f54ff	-0.6223907
195	0x3e88da5c	0.26729095
196	0xbe2c542a	-0.16828981
197	0xbee0d523	-0.4391261
198	0x3f32c4d0	0.6983156
199	0x3d897d52	0.06713356
200	0x3f612cfd	0.8795927
201	0x3f1d3baf	0.61419195
202	0x3e8faf1a	0.2806328
203	0x3e4989de	0.19681498
204	0xbf1cc49c	-0.612375
205	0xbda571ef	-0.08078372
206	0x3e11a8b6	0.14224514
207	0xbed82f3a	-0.4222353
208	0x3eef26be	0.46709245
209	0xbf30b0ad	-0.69019586
210	0x3f5c34e2	0.8601819
211	0x3e53828b	0.20655267
212	0x3db6f360	0.08933139
213	0xbc18fccd	-0.009337616
214	0xbe515f9e	-0.20446631
215	0xbea1a1f5	-0.31568876
216	0xbf0e6d27	-0.55635303
217	0x3b380189	0.0028077087
218	0x3dd1c3ce	0.10242425
219	0x3effe300	0.49977875
220	0xbeb8c956	-0.36091107
221	0xbeb696bc	-0.35661876
222	0x3e6f7a06	0.23386392
223	0xbee99906	-0.4562456
224	0x3ea7f00a	0.32800323
225	0xbe17bc00	-0.1481781
226	0xbef8c36d	-0.48586598
227	0x3ec3206d	0.38110676
228	0x3eeb56ee	0.4596476
229	0xbec1a5a5	-0.3782169
230	0x3e068357	0.1313604
231	0x3e0f7cd1	0.14012457
232	0xbe7543f8	-0.2395171
233	0xbdf7cc55	-0.1209952
234	0x3f2bf438	0.67169523
235	0x3e3fe1fa	0.18738547
236	0xbf07ff50	-0.5312395
237	0x3d024c84	0.031811252
238	0xbf16017f	-0.5859603
239	0xbe367bfa	-0.17820731
240	0xbd138b1b	-0.036021333
241	0x3e9caab7	0.30598995
242	0xbf0cb6a1	-0.5496617
243	0x3ee8f9e2	0.45503145
244	0x3edb75ad	0.42863217
245	0x3e208163	0.15674357
246	0x3e0416bb	0.12899296
247	0xbddefc86	-0.10888009
248	0xbf3af877	-0.7303538
249	0x3ea7215a	0.32642633
250	0xbf47430e	-0.7783669
251	0x3f4ed358	0.80791235
252	0xbe144144	-0.14478022
253	0xbefe1252	-0.49623352
254	0xbedb5a0f	-0.42842147
255	0x3e2fae06	0.17156228

pi.pi_net.4.bias f4 [256]
0	0xbf2ac907	-0.66712993
1	0xbf514ec6	-0.81760824
2	0xbf5df1ce	-0.8669709
3	0xbf256f61	-0.64623076
4	0xbf452310	-0.77006626
5	0xbf22db7a	-0.63616145
6	0xbf2e0f6c	-0.6799228
7	0xbf15f30e	-0.58574
8	0xbf1cedc1	-0.61300284
9	0xbf3ed1da	-0.7453896
10	0xbf43e8ba	-0.7652699
11	0xbf36bc43	-0.71381015
12	0xbf353947	-0.70790523
13	0xbf31b7e4	-0.6942122
14	0xbf3702ed	-0.7148884
15	0xbf47aff9	-0.7800289
16	0xbf4c5f7a	-0.79833186
17	0xbf164e00	-0.5871277
18	0xbf3e81a2	-0.74416554
19	0xbf041fae	-0.5161084
20	0xbf371e79	-0.7153087
21	0xbf1c7937	-0.6112246
22	0xbf15ff96	-0.5859312
23	0xbef1faa7	-0.47261545
24	0xbf398644	-0.724705
25	0xbf244f21	-0.6418324
26	0xbf4f81cf	-0.8105745
27	0xbf4281f9	-0.7597957
28	0xbf10f872	-0.566291
29	0xbf336871	-0.7008124
30	0xbf436e15	-0.76339847
31	0xbde18916	-0.11012475
32	0x3d4de0b5	0.050263125
33	0xbf4793bb	-0.77959794
34	0xbf59dae3	-0.8509962
35	0xbf2180fe	-0.6308745
36	0xbf35bfaa	-0.7099558
37	0xbcb5891d	-0.022160107
38	0xbf314ee5	-0.6926101
39	0xbf43e729	-0.765246
40	0xbe6cc4dd	-0.23121972
41	0xbf49a27b	-0.7876355
42	0xbf4404a0	-0.7656956
43	0xbf1700cc	-0.5898559
44	0xbf367992	-0.7127925
45	0xbf248a50	-0.6427355
46	0xbf497c82	-0.7870561
47	0xbf49b35d	-0.7878931
48	0xbf307509	-0.6892858
49	0xbf353eaa	-0.7079874
50	0xbf30566d	-0.68881875
51	0xbf0ff167	-0.56227726
52	0xbf3b9be5	-0.7328475
53	0xbf474c4a	-0.7785078
54	0xbf2ba8de	-0.67054546
55	0xbf348776	-0.70519197
56	0xbf1fab39	-0.6237064
57	0xbf4638f5	-0.7743066
58	0xbf4452f4	-0.76689076
59	0xbf38e560	-0.72225
60	0xbf1c35ce	-0.610196
61	0xbf3d9454	-0.74054456
62	0xbf55c3b8	-0.8350177
63	0xbf46525d	-0.77469426
64	0x3e212198	0.15735471
65	0xbf392d4e	-0.72334754
66	0xbd311eab	-0.043242138
67	0xbf297d9d	-0.66207296
68	0xbf4c08bf	-0.79700845
69	0xbf2ba7f6	-0.67053163
70	0xbf291770	-0.6605139
71	0xbf30d0df	-0.6906871
72	0xbf4d1a70	-0.80118465
73	0xbf0df7e3	-0.5545637
74	0x3e4b62dd	0.19861932
75	0xbf46575a	-0.7747704
76	0xbf2ff58d	-0.68734056
77	0xbf594d53	-0.8488361
78	0xbf475651	-0.77866083
79	0xbf1bae79	-0.608131
80	0xbf3978d3	-0.7244999
81	0xbf40d0f2	-0.75318825
82	0xbf47ac49	-0.7799726
83	0xbf45915a	-0.77174914
84	0xbf482201	-0.78176886
85	0xbf3083ec	-0.68951297
86	0xbf38fbe7	-0.7225937
87	0xbf22b968	-0.6356416
88	0xbf2a0f28	-0.66429377
89	0xbf0b5324	-0.5442374
90	0xbf4dd349	-0.8040052
91	0xbf310f48	-0.6916394
92	0xbf284c85	-0.6574176
93	0xbf437f33	-0.76365966
94	0xbf3069ce	-0.68911445
95	0xbf3b8e59	-0.7326408
96	0xbf3a0ebc	-0.7267873
97	0xbf1956d9	-0.59898144
98	0xbf0a3043	-0.5397989
99	0xbf31e5b7	-0.6949114
100	0xbf326c17	-0.6969618
101	0x3d794121	0.060853127
102	0xbf32fee7	-0.699202
103	0xbf4234e2	-0.7586194
104	0xbeee9758	-0.4659984
105	0xbf1e4b2a	-0.6183344
106	0xbf4edaff	-0.8080291
107	0xbf45dc13	-0.7728893
108	0xbf405cb0	-0.7514143
109	0xbf4216f1	-0.75816256
110	0xbf56052f	-0.8360166
111	0xbf1c2b2d	-0.6100338
112	0xbf52c1fe	-0.8232726
113	0xbf4c5c1a	-0.79828036
114	0xbf322d13	-0.6960003
115	0xbd15c394	-0.03656347
116	0xbf4f002c	-0.8085964
117	0xbf11a2ea	-0.5688921
118	0xbf3b9333	-0.73271483
119	0xbf383534	-0.7195618
120	0xbf3f3b95	-0.7470029
121	0xbf22d7e9	-0.636107
122	0xbf43cb49	-0.76482064
123	0xbf360b23	-0.71110743
124	0xbf471655	-0.7776845
125	0xbf58a59a	-0.8462769
126	0xbf3fed84	-0.74971795
127	0xbf268748	-0.6505017
128	0x3da82077	0.08209317
129	0xbf4b3429	-0.79376465
130	0xbf49db60	-0.78850365
131	0xbf1fd702	-0.6243745
132	0xbf2cf922	-0.67567647
133	0xbe8b12a5	-0.27162662
134	0xbf3d588d	-0.7396324
135	0xbf4b861e	-0.7950152
136	0xbf2744e1	-0.65339476
137	0xbf48b914	-0.78407407
138	0xbf154b4d	-0.58318025
139	0xbf3442f3	-0.70414656
140	0xbf316758	-0.69298315
141	0xbf5623b3	-0.8364822
142	0xbf4c85a6	-0.7989143
143	0xbf13f65b	-0.57797784
144	0xbf4e05c6	-0.8047756
145	0xbf417713	-0.7557232
146	0xbf406524	-0.7515433
147	0xbf31d574	-0.6946633
148	0xbf2303e4	-0.6367781
149	0xbf3bc860	-0.73352623
150	0xbf3ce328	-0.7378411
151	0xbf41f757	-0.75768036
152	0xbf307ea9	-0.6894327
153	0xbf06fea0	-0.52732277
154	0xbf31feec	-0.69529605
155	0xbf458979	-0.7716289
156	0xbf435beb	-0.7631213
157	0xbf2b8d65	-0.67012626
158	0xbf30a96d	-0.69008523
159	0xbf4e727d	-0.80643445
160	0xbe055d12	-0.13023785
161	0xbdd712e7	-0.10501652
162	0xbf2d8470	-0.6778021
163	0xbf2fc2f8	-0.68656874
164	0xbeb4d19e	-0.35316175
165	0xbf2dff23	-0.6796743
166	0xbf228809	-0.63488823
167	0xbe1d5352	-0.15363815
168	0xbf2bbb82	-0.6708299
169	0xbf298298	-0.66214895
170	0xbf52815c	-0.82228637
171	0xbf49041c	-0.78521895
172	0xbf2e97ef	-0.6820058
173	0xbf1b9d8f	-0.6078729
174	0xbf31995a	-0.6937462
175	0xbf303fb9	-0.68847233
176	0xbf400777	-0.7501139
177	0xbf46e1e9	-0.7768846
178	0xbf53ced2	-0.8273746
179	0xbf4e031d	-0.804735
180	0xbf29d4f3	-0.6634056
181	0xbf1e1b99	-0.6176086
182	0xbf542b0c	-0.82878184
183	0xbf505602	-0.8138124
184	0xbf2fd46a	-0.68683493
185	0xbf32b6ca	-0.69810164
186	0xbf23f477	-0.640449
187	0xbf5a6d28	-0.8532281
188	0xbf275a8c	-0.6537254
189	0xbf185a8b	-0.5951316
190	0xbf577b5c	-0.84172606
191	0xbf203f0f	-0.6259622
192	0xbf3399bb	-0.7015645
193	0xbf2dd32c	-0.6790035
194	0xbf4891e2	-0.783476
195	0xbf191c1c	-0.59808517
196	0xbf4838fd	-0.7821196
197	0xbcc4d15f	-0.024025617
198	0xbf0f744c	-0.5603683
199	0xbf2e976d	-0.6819981
200	0xbf537bed	-0.8261097
201	0xbf20096a	-0.62514365
202	0xbf41d799	-0.757196
203	0xbf340b0a	-0.70329344
204	0xbf2609f6	-0.6485895
205	0xbf527382	-0.822075
206	0xbf00e413	-0.50348014
207	0xbf526886	-0.8219074
208	0xbf21e57f	-0.6324081
209	0xbf3218ba	-0.6956898
210	0xbecc3553	-0.39884433
211	0xbf4853e1	-0.7825299
212	0xbf467716	-0.7752546
213	0xbf4001e7	-0.750029
214	0xbf3fff46	-0.7499889
215	0xbf240fdd	-0.64086705
216	0x3eb2ff0c	0.3496021
217	0xbf3b55a4	-0.7317755
218	0xbf47a04e	-0.7797898
219	0xbf3319db	-0.6996133
220	0xbf43ecff	-0.765335
221	0xbf3d58ec	-0.7396381
222	0xbf516c05	-0.8180545
223	0xbf337f39	-0.70116
224	0xbf3a1e37	-0.72702354
225	0xbf1b73e3	-0.60723704
226	0xbf03e3c2	-0.51519406
227	0xbf283a79	-0.6571422
228	0xbf4a211a	-0.7895676
229	0xbf46fd31	-0.7773009
230	0xbf43a31e	-0.7642077
231	0xbf219106	-0.63111913
232	0xbf3b28cc	-0.73109126
233	0xbf25d233	-0.64773864
234	0xbf5cf483	-0.86310595
235	0xbf447376	-0.7673868
236	0xbf38e400	-0.722229
237	0xbf3b120b	-0.73074406
238	0xbf1b042a	-0.6055323
239	0xbf484684	-0.782326
240	0xbf65e2ea	-0.8979937
241	0xbf38d081	-0.7219315
242	0xbf513d4f	-0.81734174
243	0xbf47c5bf	-0.7803611
244	0xbea0b966	-0.31391448
245	0xbf3642ff	-0.7119598
246	0xbf34f35d	-0.7068384
247	0xbf306fa1	-0.6892033
248	0xbf3435cd	-0.70394593
249	0xbf352588	-0.70760393
250	0xbf4cb03e	-0.79956424
251	0xbf4d4548	-0.8018384
252	0xbf45d57e	-0.7727889
253	0xbf41a50a	-0.75642455
254	0xbf260ac0	-0.64860153
255	0xbf553b8f	-0.83294004

v.v_net.0.weight f4 [64, 5]
0	0x3ecc92f2	0.3995586
1	0x3dcd4138	0.10022205
2	0x3eea8b21	0.45809272
3	0x3f0dba40	0.5536232
4	0x3f425ab6	0.75919664
5	0x3d505470	0.050861776
6	0x3ee9b703	0.4564744
7	0xbf208069	-0.6269594
8	0xbef15b75	-0.4714009
9	0x3d49c85a	0.049263336
10	0x3f8eba6a	1.1150639
11	0x3dd0bd27	0.10192328
12	0x3d736a50	0.05942756
13	0xbeb0c96f	-0.34528682
14	0xbea85492	-0.32877022
15	0xbe2be5a7	-0.16786824
16	0x3da6bb28	0.08141166
17	0xbdb93030	-0.09042394
18	0xbec0215d	-0.37525454
19	0xbe4d6819	-0.20059241
20	0x3f9028bc	1.1262431
21	0x3f53af99	0.82689816
22	0x3f1d1a52	0.61368287
23	0x3edfe117	0.43726417
24	0x3eaa8201	0.3330231
25	0x3f6f5f85	0.93505126
26	0x3e8e334b	0.27773508
27	0x3ec4aa0b	0.38410982
28	0x3ef898cf	0.48554084
29	0x3e81b6e4	0.25334847
30	0x3fb7eae0	1.4368553
31	0x3fbe651a	1.4874604
32	0x3f220262	0.63284886
33	0x3f002fbe	0.5007285
34	0x3d907791	0.070540555
35	0xbf1b232b	-0.6060054
36	0x3d38bbe0	0.045101047
37	0xbe2d0d6b	-0.1689965
38	0xbd88a725	-0.06672505
39	0x3e0e284f	0.13882564
40	0x3eb2c32e	0.34914535
41	0x3e339d0f	0.17540382
42	0xbf2a1622	-0.6644002
43	0xbf2e8511	-0.68171793
44	0xbe976da0	-0.29575825
45	0x3edc554e	0.43033832
46	0x3eb531d7	0.35389587
47	0xbe0946d9	-0.13405932
48	0x3bd7444e	0.006569422
49	0xbd8ba8b6	-0.068192884
50	0xbec864b3	-0.39139327
51	0x3e108abd	0.14115424
52	0xbed47972	-0.41498905
53	0xbe1f1e48	-0.15538895
54	0xbe0c1413	-0.13679533
55	0x3f2f733e	0.6853522
56	0x3e782982	0.24234584
57	0xbed5c58a	-0.41752273
58	0xbcbc74ad	-0.023004854
59	0x3c28cb99	0.010302448
60	0xbee47c80	-0.44626236
61	0x3e3d826d	0.18506785
62	0xbe48b91f	-0.19601868
63	0x3e49ec2a	0.19718996
64	0xbf322daa	-0.6960093
65	0xbf6c6960	-0.9234829
66	0xbf85b1bb	-1.0444864
67	0xbd246eda	-0.04014478
68	0xbe15ba95	-0.14621957
69	0xbe63a2f1	-0.22230126
70	0xbf9f7f6b	-1.246076
71	0xbdc4f42a	-0.09616883
72	0x3e04dfd5	0.1297601
73	0x3f2cbc55	0.6747487
74	0x39f6429d	0.00046970407
75	0x3da21761	0.079146154
76	0xbea21978	-0.31660056
77	0xbdea4d33	-0.11440506
78	0x3d182d84	0.037152782
79	0xbf34ee6a	-0.7067629
80	0xbed45033	-0.41467437
81	0xbbaad6eb	-0.0052136085
82	0xbede8388	-0.43459725
83	0xbe3841b3	-0.17993812
84	0xbe9604f3	-0.2930065
85	0xbfaafdf9	-1.3358756
86	0xbd8cd412	-0.06876387
87	0x3eb37370	0.3504901
88	0x3eaf6fb6	0.34264916
89	0x3e152f41	0.14568807
90	0xbe8077cd	-0.250914
91	0x3ebb7e01	0.3661957
92	0x3e9f5f97	0.31127617
93	0x3f16b46b	0.58869046
94	0x3eed0d21	0.4629908
95	0xbf2bea9e	-0.6715487
96	0xbf10f5a2	-0.56624806
97	0x3d816da7	0.06319743
98	0xbf673648	-0.903172
99	0xbed28248	-0.41115022
100	0x3e3b9a18	0.18320501
101	0x3db5c352	0.08875145
102	0x3e509fc8	0.20373452
103	0x3e09645a	0.13417187
104	0x3e467315	0.19379838
105	0x3e73ccf6	0.23808655
106	0x3d6b488c	0.057442233
107	0x3e782241	0.24231817
108	0x3e822804	0.25421154
109	0x3debd5da	0.11515398
110	0xbf21ee40	-0.63254166
111	0x3e4b376b	0.19845359
112	0xbeb54c4c	-0.35409772
113	0xbe3de872	-0.18545702
114	0x3dc6ccc2	0.09707023
115	0xbdea8f6f	-0.11453139
116	0xbef58fd2	-0.4796129
117	0xbf563858	-0.83679724
118	0xbe520d28	-0.20512831
119	0xbc941d47	-0.018080367
120	0x3f25da63	0.64786357
121	0xbe2b7f2c	-0.16747731
122	0x3d9d7fa5	0.07690362
123	0x3dc68caa	0.09694798
124	0x3eb8abc2	0.3606854
125	0xbf2d7ed3	-0.67771643
126	0xbf593075	-0.84839565
127	0x3e963189	0.29334667
128	0xbe46c068	-0.19409335
129	0xbf2cd1be	-0.6750754
130	0xbf3f9805	-0.7484134
131	0xbe303c2a	-0.17210451
132	0x3e891dd3	0.26780567
133	0xbe24b496	-0.16084513
134	0x3e82183a	0.25409108
135	0xbf6b846f	-0.9199895
136	0xbf30334d	-0.6882828
137	0xbe8aae9c	-0.2708634
138	0x3d754b5e	0.05988633
139	0x3e29eb24	0.16593605
140	0x3e0a8e04	0.13530737
141	0x3f6618f6	0.8988184
142	0xbf1e9515	-0.6194623
143	0xbef68ab5	-0.481527
144	0xbe950a11	-0.29109243
145	0x3d9f2d56	0.07772319
146	0x3f262f3f	0.6491584
147	0x3f46950b	0.7757117
148	0x3ee47acf	0.44624946
149	0x3f3475dc	0.7049234
150	0xbf4f0302	-0.80863965
151	0xbee21996	-0.44160146
152	0x3e3dbb81	0.18528558
153	0x3ee8aa7e	0.45442575
154	0x3e41ae61	0.18914177
155	0x3e2beb91	0.1678908
156	0x3ef9466d	0.48686543
157	0x3cc2c1d0	0.023774058
158	0xbe598799	-0.21243133
159	0x3d930ca1	0.07180143
160	0x3ce4b086	0.027916204
161	0x3e5ca4c3	0.21547227
162	0xbefca167	-0.4934189
163	0xbf6d5aa5	-0.9271644
164	0xbeedab93	-0.46419963
165	0x3e83ea7b	0.25764832
166	0x3dd46a72	0.10371865
167	0x3ef6a942	0.48176008
168	0x3e02e03c	0.12780851
169	0xbdbf1183	-0.09329512
170	0xbed5c7b2	-0.41753918
171	0xbf256cb3	-0.64618987
172	0xbe9b0a28	-0.30281186
173	0x3e318d36	0.17339024
174	0x3dfba016	0.12286393
175	0xbe29e38f	-0.16590713
176	0x3f59b5ac	0.85042834
177	0xbe4b11c2	-0.19830993
178	0xbe7ba1ad	-0.24573393
179	0xbf253f2d	-0.64549524
180	0xbf1d2f3e	-0.6140021
181	0xbf56cd73	-0.8390724
182	0x3f5a6e57	0.85324615
183	0xbd0015dc	-0.031270847
184	0x3cac8528	0.021059588
185	0x3d5f4e64	0.05451812
186	0xbf1d97bd	-0.6155966
187	0xbf31af5b	-0.69408196
188	0xbed17466	-0.40909117
189	0x3dae9a94	0.08525577
190	0xbf063420	-0.52423286
191	0xbf26de60	-0.6518307
192	0xbecd6c54	-0.4012171
193	0x3f0d5fea	0.5522448
194	0xbe9746f1	-0.29546311
195	0x3ec1f04a	0.37878639
196	0x3edcf990	0.4315915
197	0xbebd4b1e	-0.36971372
198	0xbee113ab	-0.43960318
199	0x3cd09a33	0.025464153
200	0xbe589028	-0.21148741
201	0x3d0c0bb1	0.034190837
202	0x3e9e6da7	0.30943033
203	0xbd19421a	-0.037416555
204	0xbf4d5dbe	-0.80221164
205	0x3f907be2	1.1287806
206	0x3e1cdc38	0.15318382
207	0x3f585ac2	0.84513485
208	0x3eae2fee	0.34020942
209	0x3ee4cffc	0.4468993
210	0xbeec617a	-0.4616812
211	0x3eb3bcd1	0.35104993
212	0xbed5a3b7	-0.41726467
213	0xbe1a2857	-0.15054451
214	0xbe9ff2c6	-0.3123991
215	0x3f26bd60	0.65132713
216	0xbe3f9389	-0.18708624
217	0x3e4e550c	0.2014963
218	0x3ddb05ca	0.106944636
219	0x3db782f2	0.08960523
220	0x3da2e9c8	0.079547465
221	0xbf74986d	-0.95545083
222	0x3e41bb97	0.18919216
223	0x3f70ba6a	0.94034445
224	0x3e33665a	0.17519513
225	0xbf35b7b0	-0.7098341
226	0x3e74a3e8	0.2389065
227	0xbe69436d	-0.22779627
228	0xbe9e6aa8	-0.30940747
229	0x3dad0f6e	0.084502086
230	0xbee945fb	-0.45561203
231	0xbe92c177	-0.28663227
232	0x3bc51904	0.006014945
233	0x3daf65d1	0.08564342
234	0x3d63525d	0.05549847
235	0x3eb232e5	0.34804454
236	0x3c385f50	0.011253193
237	0x3eb79842	0.3585835
238	0x3c763b05	0.01502872
239	0x3e9e6658	0.30937457
240	0xbfa68855	-1.3010355
241	0xbec65595	-0.3873717
242	0xbf0005b7	-0.5000872
243	0xbebec847	-0.37262174
244	0xbecb8acc	-0.3975433
245	0x3eb5e322	0.3552485
246	0x3f5a8a8a	0.85367644
247	0xbe9f2493	-0.3108259
248	0x3ec13f35	0.37743536
249	0xbc7aa937	-0.015299133
250	0xbe0bcdac	-0.13652676
251	0xbdcab0c5	-0.09896997
252	0x3ddaf497	0.10691183
253	0x3e2144be	0.1574888
254	0xbe172495	-0.14760049
255	0xbf3c2797	-0.7349791

v.v_net.0.bias f4 [64]
0	0x3f03b025	0.5144065
1	0x3e7e6a84	0.2484532
2	0xbcf227e3	-0.029560035
3	0x3e4dc422	0.2009435
4	0x3fa48810	1.2854023
5	0x3f1becd7	0.60908264
6	0x3fac3156	1.3452556
7	0x3dc5fc17	0.09667223
8	0xbdb2ea6f	-0.08736121
9	0x3d7e0fd7	0.062026825
10	0x3e2436c1	0.16036512
11	0x3da6de97	0.081479244
12	0x3e9ddc53	0.30832157
13	0xbf64bcfd	-0.89350873
14	0x3aad8b78	0.0013240417
15	0xbd81978f	-0.06327736
16	0xbd88a304	-0.06671718
17	0x3d2db8b4	0.042412475
18	0x3f1e0968	0.617331
19	0xbf2c521d	-0.67312795
20	0xbe67c47e	-0.2263355
21	0xbe361cc2	-0.17784408
22	0x3e382262	0.17981866
23	0xbf011a22	-0.504305
24	0xbe25d0e4	-0.16192967
25	0xbee20285	-0.44142547
26	0x3dfa9f70	0.122374415
27	0xbf0299ff	-0.5101623
28	0x3efb1c06	0.49044818
29	0x3f3e9e62	0.74460423
30	0xbd06cb83	-0.032908928
31	0xbe6c2505	-0.23060997
32	0xbce79193	-0.028267657
33	0xbe2ff3c4	-0.17182833
34	0xbea3ce34	-0.31993258
35	0x3e9ef1d6	0.3104388
36	0xbe887c27	-0.2665722
37	0xbdde9638	-0.10868496
38	0xbf133a0c	-0.5751045
39	0xbe437a04	-0.19089514
40	0x3ee96c7f	0.45590588
41	0x3e482aa1	0.19547512
42	0x3ea9bcae	0.33151764
43	0xbe7590f3	-0.23981075
44	0xbeb3b3b8	-0.35098052
45	0x3ea4756c	0.32120836
46	0xbe6007f7	-0.21878038
47	0xbdfc6230	-0.12323415
48	0xbefbdda8	-0.49192548
49	0x3f04fe8f	0.51950926
50	0xbea56ff0	-0.32311964
51	0x3e85b4aa	0.26114398
52	0x3d20924b	0.039202016
53	0xbe084de5	-0.13310964
54	0xbeb007e1	-0.3438101
55	0xbf714248	-0.9424176
56	0xbe0fa2fb	-0.14027016
57	0x3e224e6b	0.15850227
58	0xbd00ea08	-0.03147319
59	0xbe77d3d4	-0.242019
60	0xbf68d9c9	-0.90957314
61	0x3e6fa0f7	0.23401247
62	0xbf8e4e0e	-1.111757
63	0x3f152da4	0.5827277

v.v_net.2.weight f4 [64, 64]
0	0xbea538d8	-0.3226993
1	0xbe882d2f	-0.26596972
2	0xbd34d89f	-0.0441519
3	0x3effa7e2	0.49932772
4	0xbebbcd68	-0.3668015
5	0xbf19dde5	-0.6010421
6	0xbee741bb	-0.45167336
7	0x3cd16d44	0.025564797
8	0x3e98f72b	0.29876074
9	0xbdea5437	-0.11441844
10	0x3d7018a5	0.058617253
11	0xbec556a5	-0.38542667
12	0xbd6f5264	-0.058428183
13	0x3dd3b4a1	0.103371866
14	0x3f369be0	0.71331596
15	0x3d9f6145	0.077822246
16	0x3eb17917	0.34662697
17	0xbd1ba7e7	-0.03800192
18	0xbd42d3d1	-0.047565285
19	0x3ed100bc	0.40820873
20	0xbec7cb07	-0.39022085
21	0x3d3a5417	0.04549035
22	0x3e92b236	0.2865159
23	0x3e9914f8	0.2989881
24	0xbf14826e	-0.5801152
25	0x3e1ef741	0.15524007
26	0x3e974e26	0.2955181
27	0x3efdf824	0.4960338
28	0xbf2a6144	-0.66554666
29	0xbeb62997	-0.35578606
30	0x3ecc0107	0.39844534
31	0xbf002687	-0.5005879
32	0xbd1f8ee1	-0.03895462
33	0xbf4b551f	-0.7942676
34	0x3e9a8675	0.30180708
35	0xbf3159b7	-0.6927752
36	0x3f007725	0.501818
37	0x3f0c6c77	0.54853004
38	0x3dc29cc7	0.09502559
39	0x3dbad229	0.09122116
40	0xbee85d97	-0.45383903
41	0xbe6f551e	-0.23372313
42	0xbdccd218	-0.1000101
43	0xbddc1f20	-0.10748124
44	0x3e5d96fd	0.21639629
45	0x3d5fb046	0.054611467
46	0x3ea098e7	0.31366655
47	0xbe1c48e4	-0.1526218
48	0x3eef1a35	0.46699682
49	0xbe5232be	-0.20527169
50	0x3f10daf0	0.5658407
51	0xbde1d8d6	-0.11027686
52	0x3ea9db9b	0.33175358
53	0xbea27833	-0.3173233
54	0x3e2a8ba6	0.16654834
55	0x3e041e99	0.12902297
56	0x3de87355	0.11350123
57	0xbc87f5a6	-0.016596626
58	0x3ec4dd48	0.38450074
59	0x3d1743fb	0.036930066
60	0x3e42a060	0.1900649
61	0xbed9bc61	-0.42526534
62	0x3f1f40e2	0.6220838
63	0xbf3591a8	-0.7092538
64	0xbe6b82fe	-0.22999188
65	0xbf22956a	-0.6350924
66	0xbcc0e95f	-0.02354878
67	0x3da7942f	0.08182561
68	0xbebc6174	-0.367931
69	0xbf220fa4	-0.63305116
70	0xbf03aada	-0.51432574
71	0x3e087bd0	0.1332848
72	0x3e8c5c5f	0.27414224
73	0xbe729e05	-0.23693092
74	0x3e85b3d1	0.26113752
75	0xbeece054	-0.462649
76	0xbe864d96	-0.26231068
77	0x3ecfeaef	0.40608928
78	0xbebf6e9d	-0.3738908
79	0x3f1243e8	0.57134867
80	0x3ee05a4c	0.4381889
81	0x3e6ccc02	0.23124698
82	0xbd87c42b	-0.06629213
83	0xbcc4a567	-0.024004651
84	0xbf17b00b	-0.59252995
85	0x3e5017e0	0.20321608
86	0x3e4edb5a	0.20200863
87	0x3eebc2cb	0.46047053
88	0xbea3eda4	-0.32017243
89	0x3f13795e	0.57607067
90	0x3e606943	0.21915154
91	0x3ef61442	0.4806233
92	0xbe8e99d7	-0.27851745
93	0xbf04c53e	-0.5186347
94	0x3da28a01	0.079364784
95	0xbe7d371a	-0.24728051
96	0x3e4f0d77	0.2021998
97	0xbed70109	-0.41992977
98	0x3f56a728	0.8384881
99	0xbf05f07a	-0.52320063
100	0x3e04a84a	0.12954822
101	0x3e5ee93b	0.21768658
102	0x3ddb546e	0.10709463
103	0xbe80517d	-0.2506217
104	0xbe237ced	-0.15965624
105	0xbeb7827e	-0.35841745
106	0xbeceb5f0	-0.40373182
107	0x3df22f61	0.11825443
108	0x3f298597	0.66219467
109	0xbd93db9b	-0.07219621
110	0x3e92a230	0.28639364
111	0x3ca01a52	0.0195438
112	0xbe6b8f90	-0.23003983
113	0xbcbec01f	-0.02328497
114	0x3ec14a9b	0.37752232
115	0xbec85f22	-0.3913508
116	0xbe984077	-0.29736683
117	0xbd608756	-0.054816566
118	0xbe2b3c86	-0.16722307
119	0x3f1370c6	0.57593954
120	0x3d0fe60e	0.035131507
121	0x3e3e5e9e	0.18590781
122	0x3ea01a0e	0.31269878
123	0xbe60fe7a	-0.21972075
124	0x3f52df8b	0.8237235
125	0xbe8d0d7a	-0.27549344
126	0x3f762ccb	0.961621
127	0xbed7800b	-0.42089877
128	0xbca527a2	-0.0201605
129	0xbd3e1d83	-0.046414863
130	0xbe8ba77f	-0.27276227
131	0x3e2e7488	0.1703664
132	0xbf11c8fe	-0.56947315
133	0xbe4ee618	-0.20204961
134	0xbf14e9ff	-0.5816955
135	0x3ee3411c	0.44385612
136	0xbc543983	-0.012953165
137	0xbf15287a	-0.5826489
138	0x3eacf8ca	0.3378356
139	0xbee29cc0	-0.44260216
140	0x3e9cba68	0.30610967
141	0x3e941f3a	0.28930074
142	0x3e4fbfd1	0.20288016
143	0x3ec08b75	0.37606397
144	0x3ea85e63	0.3288451
145	0x3e14c1c3	0.14527039
146	0xbd1cb5df	-0.038259383
147	0x3c73deff	0.014884709
148	0xbee117ca	-0.43963462
149	0xbe88bdaf	-0.26707217
150	0x3e755aa1	0.23960353
151	0x3e2444df	0.16041897
152	0xbf011818	-0.5042739
153	0xbd8148e5	-0.06312732
154	0xbdeda6d1	-0.11604083
155	0x3ed47c8a	0.41501266
156	0x3e864d58	0.26230884
157	0xbe3d7ed2	-0.1850541
158	0x3f04b0c2	0.5183221
159	0xbf04cdab	-0.51876324
160	0xbdc7775d	-0.097395636
161	0xbf103f26	-0.56346357
162	0x3efc38e6	0.4926216
163	0xbc971c6b	-0.018446168
164	0x3ec6f11f	0.38855836
165	0x3e7c85c3	0.24660401
166	0xbe262815	-0.16226228
167	0x3dd47f72	0.10375871
168	0xbe0953d2	-0.13410881
169	0x3c82d42a	0.015970308
170	0x3d0a9b5b	0.033839565
171	0xbcd28030	-0.02569589
172	0x3e0d407a	0.13794127
173	0x3e12a0aa	0.14319101
174	0x3f101615	0.56283695
175	0xbed47952	-0.4149881
176	0x3e01c0b5	0.12671168
177	0x3d9731e1	0.073825605
178	0x3ee7838f	0.4521756
179	0xbe8df85e	-0.27728552
180	0xbea7c282	-0.32765585
181	0xbeceea45	-0.40413108
182	0x3d969f86	0.073546454
183	0x3f1d45d7	0.6143469
184	0xbe537b63	-0.20652537
185	0x3e9845bd	0.29740706
186	0xba955870	-0.0011394154
187	0xbec06e71	-0.3758426
188	0x3f242d10	0.6413126
189	0xbf131b36	-0.57463396
190	0x3f5b27ca	0.8560759
191	0xbe824b2f	-0.25447986
192	0xbdcc8486	-0.09986214
193	0xbdde2f73	-0.10848894
194	0x3f39d7dc	0.72595
195	0x3de4b4f5	0.11167327
196	0xbde84352	-0.11340965
197	0x3e13548d	0.14387722
198	0xbee09303	-0.4386216
199	0xbf2712a6	-0.6526283
200	0x3ca7ecbe	0.02049863
201	0x3ebe6ec2	0.37193877
202	0xbdadf4f6	-0.08493988
203	0x3ecd3524	0.40079606
204	0xbf64b18d	-0.8933342
205	0x3f26b840	0.65124893
206	0xbf30059f	-0.6875858
207	0x3e55889a	0.2085289
208	0xbe4a69ed	-0.1976697
209	0xbf7165d9	-0.9429603
210	0xbec461c1	-0.3835583
211	0x3e893621	0.2679911
212	0x3f242625	0.64120704
213	0xbdfb6d24	-0.12276676
214	0xbe92a979	-0.28644922
215	0x3ea86c41	0.3289509
216	0x3f10c330	0.5654783
217	0x3e47689c	0.19473499
218	0xbf85b516	-1.0445888
219	0x3eb8f86b	0.36127028
220	0xbf1a9cad	-0.6039532
221	0xbf16cda5	-0.5890754
222	0xbcd6efcd	-0.026237393
223	0x3e0c370f	0.13692878
224	0x3e93743f	0.28799626
225	0x3e91bdff	0.28465268
226	0x3dcc5428	0.09976989
227	0x3de2cc20	0.1107409
228	0x3e471d1a	0.19444695
229	0x3e9b0391	0.30276158
230	0x3f1e0328	0.61723566
231	0x3e34092e	0.17581627
232	0xbe04f615	-0.12984498
233	0xbdc52904	-0.09626964
234	0x3bc2c469	0.005943824
235	0x3f13fa65	0.57803947
236	0x3de28532	0.11060561
237	0xbf7ea4e2	-0.9947034
238	0xbe6ee423	-0.23329215
239	0x3dc557bb	0.09635874
240	0xbdcc9040	-0.09988451
241	0xbda6dd1b	-0.08147641
242	0xbea60555	-0.32425943
243	0xbf8f147a	-1.1178124
244	0x3e91980b	0.28436312
245	0xbe9a3b01	-0.3012314
246	0x3dbd8246	0.09253363
247	0x3e8c3e48	0.27391267
248	0x3ebe5eaa	0.37181598
249	0xbf2cee7a	-0.67551386
250	0xbe8d48cc	-0.27594602
251	0x3f2a2683	0.66465014
252	0x3ecbdf37	0.39818737
253	0x3e35f7ab	0.17770259
254	0xbe732fc8	-0.23748696
255	0xbe78c7e3	-0.24295

v.v_net.2.bias f4 [64]
0	0xbe9bae86	-0.30406588
1	0xbea46360	-0.32107067
2	0xbe8ddea2	-0.27708918
3	0xbe9a9f61	-0.3019972
4	0xbeb4a21e	-0.35279936
5	0x3eae45e0	0.34037685
6	0xbe21e960	-0.15811682
7	0x3b970f1e	0.0046099564
8	0xbe976d13	-0.29575405
9	0x3d553ccb	0.05205993
10	0x3eb3ef55	0.35143533
11	0xbddf7a05	-0.10911945
12	0x3e899734	0.2687317
13	0x3e833e7f	0.25633618
14	0x3e7b776f	0.24557279
15	0x3ece377e	0.40276712
16	0x3df37a70	0.118885875
17	0xbeab696c	-0.33478868
18	0xbeda68f6	-0.42658204
19	0xbeba13b5	-0.3634316
20	0xbaa11a8b	-0.0012291236
21	0xbe5ebd23	-0.21751837
22	0x3e87e180	0.2653923
23	0x3e110996	0.14163813
24	0x3e0b8a25	0.13626917
25	0xbd71f53e	-0.05907177
26	0x3d588dc0	0.05286956
27	0xbe9dce87	-0.3082163
28	0xbe96d038	-0.29455733
29	0x3eb636e3	0.3558875
30	0x3ea1b70f	0.31584975
31	0xbe956b26	-0.2918331
32	0xbea7f237	-0.32801983
33	0x3e9fe029	0.31225708
34	0xbe94daed	-0.29073277
35	0xbe2b7b43	-0.1674624
36	0x3eacd014	0.337525
37	0xbdbb71cf	-0.09152567
38	0xbe8dc7b7	-0.27691433
39	0xbcdcf575	-0.026972512
40	0x3e93ed61	0.28892043
41	0x3e58be8d	0.2116644
42	0x3e8eb2e5	0.2787086
43	0x3ed048a5	0.40680423
44	0x3e82fbdb	0.25582775
45	0xbe22f700	-0.15914536
46	0xbe7968d7	-0.243564
47	0xbd5dfba5	-0.054195065
48	0xbe3fb170	-0.18720031
49	0x3e1d38dd	0.15353723
50	0xbe45892e	-0.19290611
51	0x3e823432	0.25430447
52	0xbe855505	-0.26041427
53	0xbe91fd07	-0.28513357
54	0x3db24a17	0.08705538
55	0xbe9cf098	-0.30652308
56	0x3ea5fe0d	0.32420388
57	0x3e9506ac	0.29106653
58	0xbe9ff6ff	-0.3124313
59	0xbe80539f	-0.25063798
60	0xbe82450f	-0.25443313
61	0x3e07db89	0.1326734
62	0x3d32b90e	0.043633513
63	0xbe9b64fd	-0.30350485

v.v_net.4.weight f4 [1, 64]
0	0xc08ea646	-4.457797
1	0xc0921788	-4.5653725
2	0xc089c090	-4.304756
3	0x409bcbea	4.868642
4	0xc08ff748	-4.4989357
5	0x40950586	4.6569242
6	0xc08a7096	-4.3262434
7	0xc08d7850	-4.4209366
8	0xc08bc52a	-4.367818
9	0x40968b43	4.7044997
10	0x4096852a	4.7037554
11	0xc09f7d53	-4.9840484
12	0xc09948a9	-4.7901196
13	0x408ab3fe	4.3344717
14	0x408aa73a	4.3329134
15	0x4097f02c	4.748068
16	0xc0a4e6ed	-5.153189
17	0xc0a31374	-5.0961246
18	0xc099d782	-4.807557
19	0xc08b27ff	-4.3486323
20	0xc08fecf3	-4.4976745
21	0x4093c848	4.6181984
22	0x40979457	4.736858
23	0x408f6574	4.4811344
24	0xc0a5d1db	-5.181867
25	0x40addc62	5.433152
26	0x40b73fbe	5.726531
27	0xc098ad58	-4.77116
28	0xc092cb19	-4.587292
29	0x409b4a88	4.852848
30	0x408a978c	4.3309994
31	0xc0966dd5	-4.700907
32	0xc0913378	-4.537533
33	0xc0a043a9	-5.0082593
34	0xc08d967f	-4.424621
35	0x4098d15c	4.7755566
36	0x408cfc9f	4.4058375
37	0xc08b8469	-4.3599133
38	0xc0a5408e	-5.16413
39	0xc09a31f2	-4.818597
40	0x40971d76	4.7223463
41	0xc0ae417e	-5.4454947
42	0x40929ea4	4.5818653
43	0x40a0c986	5.0246
44	0x4088fff5	4.2812448
45	0xc0961c27	-4.6909366
46	0xc0a7bd5f	-5.2418666
47	0xc095b70a	-4.6785936
48	0xc09b6893	-4.8565154
49	0x4090f753	4.530191
50	0xc0881e28	-4.253681
51	0x40a3bab2	5.11654
52	0xc08c0ae7	-4.376331
53	0xc096f606	-4.717532
54	0x40953bc6	4.6635466
55	0x409a2fec	4.81835
56	0x4095b11b	4.6778693
57	0x408f7969	4.4835706
58	0xc0967bd8	-4.7026176
59	0x40a29028	5.080097
60	0x409e8d3e	4.9547415
61	0x4095ed67	4.68523
62	0x40a404fe	5.1256094
63	0xc08d4d4d	-4.415686
