tmp/experiments/RN5 False,True,True/pyt_network_save/model save53000.pt (torch_old, 314943 bytes, 33 tensors)

pi.pi_net.0.weight f4 [64, 5]
000000 73 11 1c 3e 7d e3 dd be d5 0e 1b 3f 0e 99 a5 bd
       0.15241031 -0.43337622 0.60569507 -0.080858335
000010 1e 45 8c 3e 05 d2 41 be d1 c1 0f bf 86 5a ab 3e
       0.27396482 -0.18927772 -0.56155115 0.334675
000020 12 5c 00 3e d3 11 b6 bd 98 ee c5 3d 91 55 ea be
       0.12535122 -0.088901184 0.09664649 -0.45768407
000030 ec fe c0 3e f1 6b 1c bd 4d a0 85 3e 4d cc 14 3f
       0.3769449 -0.03818888 0.26098862 0.5812424
000040 1b ab 4b be 72 a5 88 3d 81 61 6e 3d df 59 ad 3e
       -0.1988949 0.06672181 0.058198456 0.3385763
000050 44 39 07 3f 77 60 c7 3d 35 8d b5 be d7 e6 c7 be
       0.52821755 0.09735196 -0.35459295 -0.39043304
000060 c7 bd 86 3d 37 83 6f be 96 f8 86 be a2 d4 e0 3c
       0.06579166 -0.23389898 -0.2636153 0.027445141
000070 6a d2 80 3d cd bd 53 3f be 53 90 bd b6 71 92 bd
       0.06290133 0.8271149 -0.070472226 -0.07150595
000080 a5 e6 75 3e 1a 37 8f 3e 99 1d 49 be 82 dd 51 3d
       0.24013765 0.27971727 -0.19640197 0.051236637
000090 b5 bb dd bd 45 35 f3 3e 97 be 9c 3b 44 ad c1 3e
       -0.10826818 0.4750158 0.0047834623 0.37827504
0000a0 c3 63 46 3e 42 a0 ce 3d 70 f5 ee 3d ae 1e 17 3e
       0.19373994 0.100891605 0.11667907 0.14757797
0000b0 df 9b 15 bf b4 38 e4 be bb ca 7e be b4 3c f3 bd
       -0.58440965 -0.4457451 -0.24882023 -0.118768126
0000c0 43 a1 56 be 82 28 22 bf 88 13 8c be 83 55 95 bd
       -0.20959954 -0.6334306 -0.2735865 -0.07291701
0000d0 a5 0c cf 3d a4 12 9e be cd d3 8b 3e 89 a8 e4 3e
       0.10109834 -0.30873597 0.2731003 0.44659832
0000e0 04 4f 68 3e 7b 13 0c 3f df 3f 20 bf a3 b3 7d be
       0.22686392 0.54717225 -0.6259746 -0.24775557
0000f0 ce cc b9 bd d4 52 f0 bc 23 45 60 3e c9 ef 31 3f
       -0.090722665 -0.02933637 0.21901374 0.6950651
000100 8e 8e 97 3e 9f a2 33 bf 12 10 f3 be 1a 08 a6 3d
       0.29600948 -0.70170015 -0.47473198 0.08107014
000110 8d b0 0a 3e 69 b4 b4 3e 99 0b 1c 3f a3 cc b5 be
       0.13543911 0.35293892 0.60955197 -0.35507688
000120 c2 33 5d 3e b9 65 c3 bc 72 2c 1f 3f 2f 7b 01 3e
       0.21601775 -0.023852216 0.62177193 0.12644647
000130 b3 7c a0 be 7a d9 12 be 55 46 80 be cd 40 89 3f
       -0.31345138 -0.14340773 -0.2505366 1.0722901
000140 0b f6 1b bf 77 4c d1 be 93 2b 8e 3e a0 37 8b be
       -0.60922307 -0.4087865 0.2776762 -0.27190876
000150 4e 93 40 3f a0 8b ac bd 9d 06 2d bd 22 3d bf 3c
       0.7522477 -0.08425069 -0.042242635 0.02334458
000160 47 93 65 be 1d bf c7 be 45 cf ad 3e 90 82 09 3d
       -0.22419463 -0.39012995 0.33947197 0.03357178
000170 58 d7 c3 bd 2a 8f 06 be e8 ec 69 be 58 83 52 bf
       -0.09562558 -0.1314055 -0.22844279 -0.82231665
000180 57 b9 30 bf 3e 8e 2d 3e 90 2b 2b 3d c4 8f 9c 3e
       -0.69032806 0.16948792 0.04178959 0.30578434
000190 76 be 72 bf 03 b0 b1 3e ed d9 97 bd 26 b9 a6 bd
       -0.9482187 0.347046 -0.07414613 -0.08140783
0001a0 fa be 75 3e 96 5a 17 3e 5a ad da be af dd 5d 3f
       0.23998633 0.1478065 -0.42710382 0.8666639
0001b0 f2 e5 47 be e4 40 8f 3e 95 5b 2a bf d7 78 c8 3d
       -0.19521311 0.27979195 -0.66545993 0.09788673
0001c0 89 ed 88 3e b5 a5 a2 bd bf 4e 14 3f a3 68 15 bf
       0.26743725 -0.07941762 0.57932657 -0.5836279
0001d0 6d 26 d8 be dc cd 55 3e 30 f6 96 be 67 3a 73 3e
       -0.42216817 0.2087931 -0.294847 0.23752747
0001e0 20 95 a9 3e 1e 98 81 bd 4d 6a 0d bf 44 c8 32 3d
       0.33121586 -0.06327842 -0.5524033 0.04364802
0001f0 7d 37 7a bd 34 a6 06 3e 21 a2 66 3d e7 dc 18 3f
       -0.061088074 0.13149339 0.056306962 0.5971207
000200 77 f9 1e be 03 1d 6d 3e aa 90 c5 3e d8 1a 52 be
       -0.15524851 0.23155598 0.38586932 -0.20518053
000210 9e 04 26 3e 0f 4f 2f 3f df de 90 be ac 3e a3 3e
       0.16212699 0.6848001 -0.28295037 0.31883752
000220 a0 cf a9 bd d6 8f 21 bd 49 86 52 bf 66 06 b1 3e
       -0.082915545 -0.039443813 -0.8223615 0.34575194
000230 96 70 b9 be dd 04 23 3e 8f 36 2a be 0e ee d2 3e
       -0.3621871 0.15919824 -0.16622375 0.41197246
000240 3e 0a 86 3e 5a d0 f4 3e e6 26 52 3e 5d b4 32 3f
       0.2617969 0.4781521 0.20522651 0.6980646
000250 8c 7e 38 3e a7 ae 96 3e 33 6d 2b be 21 30 6f bd
       0.18017024 0.29430124 -0.16740875 -0.05839551
000260 31 46 2e 3d 63 5a 19 bf 70 8e 4d 3f 75 08 05 3d
       0.04254741 -0.59903544 0.8029547 0.03247877
000270 11 98 ba be 18 fd eb 3d 53 5c a8 bd 76 ce d5 3e
       -0.36444142 0.11522883 -0.082207344 0.4175908
000280 e5 82 ad bf b2 48 54 be 90 8c 70 3d 11 40 53 3d
       -1.3555571 -0.20730856 0.0587278 0.05157477
000290 49 33 01 3e 8a 95 9e bd 7f c9 88 be a0 34 b4 3c
       0.1261722 -0.07743366 -0.2671623 0.02199775
0002a0 87 43 3e 3d a3 f2 f3 3e f7 18 89 be fa 25 a6 be
       0.046451118 0.47646055 -0.2677686 -0.3245085
0002b0 51 df 43 be cf 46 8c be e3 64 c9 3d 16 60 f0 be
       -0.19128157 -0.27397773 0.09833696 -0.46948308
0002c0 18 2c b2 3d 7b b6 f4 3e 52 ae bd bc 8e aa 17 3f
       0.086998165 0.47795472 -0.023154411 0.5924462
0002d0 dd 27 de 3d 63 c9 9d be 6e e5 36 bf 67 44 32 bf
       0.10847447 -0.30817708 -0.7144383 -0.69635624
0002e0 0f df f9 be a7 49 19 3e f7 f3 7a be 10 35 33 bd
       -0.48802993 0.14969502 -0.24507128 -0.043751776
0002f0 25 43 a2 3d 17 6b e1 3e be 7f 7f 3e 2f f6 47 3e
       0.07922963 0.44027016 0.24951074 0.19527505
000300 a1 df ca bd 30 9a 3a 3e 55 c2 88 be df 4e 76 3e
       -0.09905935 0.1822288 -0.26710764 0.24053524
000310 1b 5e c1 3d e8 2f 02 bf fc 4d 97 3e a6 c1 0d bf
       0.09441777 -0.5085435 0.29551685 -0.5537361
000320 e4 47 70 3f 4a b6 15 be dd 4a 56 3d 7f e6 6d bd
       0.93859696 -0.14620319 0.05231749 -0.058081146
000330 86 55 70 3d 83 bd 18 bf 1c 7f 14 be 63 82 73 3d
       0.05867531 -0.5966417 -0.14501613 0.05945052
000340 79 8c cc be a1 ea 18 3e 8a c2 ef be e9 f1 89 be
       -0.39950922 0.14933254 -0.4682811 -0.26942375
000350 f5 72 c3 be 52 46 e3 bd 1f 1c e4 3e 82 cc 15 3f
       -0.38173643 -0.11097397 0.44552705 0.5851518
000360 a4 71 05 3e 4f cc 98 3e 05 86 b6 be 4e 39 e3 be
       0.13031632 0.29843375 -0.35649124 -0.44379658
000370 c3 67 86 bd ce 87 76 bf 63 c3 95 3e 1a 07 be bd
       -0.0656276 -0.9630097 0.2925063 -0.09278698
000380 19 ef 0a 3f f3 0b 3d 3f a5 66 e4 3e 66 90 88 be
       0.54271084 0.7384636 0.44609562 -0.26672667
000390 85 21 8a be 68 16 f1 3d a2 a5 9c 3e 0e 98 14 3d
       -0.26978698 0.11771852 0.30595118 0.036277823
0003a0 5f e2 b0 be ff 8c ee bd bc b8 c8 3e 16 1e 23 3e
       -0.34547707 -0.116479866 0.3920344 0.15929446
0003b0 26 d2 12 bf 30 0f d2 3e 3e eb 0a 3e b7 6e ce 3e
       -0.5735191 0.41027212 0.135663 0.40318844
0003c0 b5 48 4d bf a8 5d 97 3e 3b 6b dc be 3a c8 82 3e
       -0.8018907 0.29563642 -0.4305056 0.25543386
0003d0 a1 01 3a 3e 4f 96 90 be 96 09 13 3e 20 ee a8 3e
       0.18164684 -0.28239676 0.14359125 0.32994175
0003e0 a9 72 96 3e 22 83 02 3f 6d c9 cf bd 1c 7a d6 be
       0.29384354 0.5098134 -0.10145841 -0.41890037
0003f0 2c b2 ed 3e 2f fb c0 bd 25 8f 22 3e a0 f5 9f be
       0.46424997 -0.094229095 0.15874918 -0.31242085

pi.pi_net.0.bias f4 [64]
000000 86 87 fd bd e0 36 b1 3d df 50 b0 3c 1a e5 a7 be
       -0.12379365 0.08653045 0.021522937 -0.32791978
000010 75 28 99 bd 08 83 08 3e cc ed f7 3d 64 11 31 bd
       -0.0747842 0.13331234 0.12105903 -0.043229476
000020 ed 4c 50 3e 70 60 0a be 85 3a aa 39 1d 6b b6 3d
       0.20341845 -0.1351335 0.00032468527 0.08907149
000030 5e a3 28 bd 23 8c 0a 3e c9 5f 57 be 35 e1 97 b8
       -0.041171424 0.1353002 -0.21032633 -7.242189e-05
000040 4e e7 33 bc 05 74 32 3d 51 5e 4e bd 11 c2 25 bd
       -0.01098044 0.043567676 -0.050382916 -0.04046828
000050 54 41 6d 3e 93 fa 36 be 33 62 c1 bb 36 d5 dc 3d
       0.23169452 -0.17869024 -0.005901599 0.10782854
000060 7f 7a ab be c1 d6 88 be 97 16 d4 3d ec cb 91 bd
       -0.33491895 -0.26726344 0.10355871 -0.07118973
000070 02 1d de bc 6e ef da 3d 0b 99 3c 3d 3c aa 2e 3e
       -0.027113441 0.10690199 0.04604439 0.17057127
000080 ce 60 da 3d b8 2a 93 bb b4 a8 d6 3d b6 b0 8d be
       0.10662995 -0.0044911765 0.10481396 -0.27673882
000090 ce 9c 0c be 93 df 47 3b d6 03 c3 bd 20 1c ea 3d
       -0.13731691 0.003049825 -0.09522216 0.11431146
0000a0 65 e9 5a be a2 9b 8c 3e c3 f4 e8 3d 90 eb 86 be
       -0.21378095 0.27462488 0.113748096 -0.26351595
0000b0 b3 d5 ae 3d 27 5d 35 3d 34 cf b4 bd 26 52 34 bc
       0.08536854 0.04427829 -0.08828583 -0.011005914
0000c0 d1 f0 b9 3e 75 0c d9 b9 69 d2 1a 3e bb b8 a9 3e
       0.3631654 -0.00041398747 0.15119328 0.3314875
0000d0 f1 b6 0a be 0a 70 07 3d 24 4d d2 3d cc 00 cb 3d
       -0.13546349 0.033065833 0.1026862 0.09912261
0000e0 2c 3f 1c be db 51 89 3e d6 78 80 be 0d 84 a9 be
       -0.15258473 0.26820263 -0.2509219 -0.3310856
0000f0 13 94 9e be 24 5b b3 3d 7c 2f 21 3d 15 25 a7 3e
       -0.30972347 0.08757618 0.039351925 0.3264548

pi.pi_net.2.weight f4 [64, 64]
000000 4f 5b 83 bf 7b 6c 7e be 54 25 f5 be bc 65 aa bd
       -1.026224 -0.2484607 -0.47880042 -0.083201855
000010 7e e5 74 3e a4 3f 9e be 2c 7f 80 bc 58 bf b6 bd
       0.2391567 -0.3090793 -0.01568564 -0.08923215
000020 6d 5a e0 be c6 d7 98 3c 51 22 3e be 49 ba d4 3d
       -0.4381899 0.018657576 -0.18567778 0.103870936
000030 b0 cb 89 be 89 39 4d be 95 4f 9c be d5 c6 04 be
       -0.26913214 -0.20041479 -0.30529466 -0.12966473
000040 5f 27 0a bf 54 f8 1e 3e 2d 92 64 3d ef d6 a4 3d
       -0.53966326 0.15524417 0.055803467 0.08048808
000050 20 b9 38 3d da 00 ee be 15 bb 88 be 3c 3f 92 be
       0.045098424 -0.46485025 -0.26705232 -0.2856387
000060 48 49 a2 3e 2c 8a c4 be f1 34 7e 3c 15 c1 82 be
       0.31696534 -0.38386667 0.015515552 -0.25537935
000070 bc ea 89 3e ca 5e e3 3d 3f df c8 be d8 54 42 bd
       0.269369 0.11102064 -0.39232823 -0.047444195
000080 83 2c 46 be b0 cc 3f be a7 bd 13 be a6 21 98 be
       -0.19352917 -0.18730426 -0.14427815 -0.29713172
000090 86 8d 25 3e 9e 1b 32 bf cf d4 c6 bd b3 54 2e 3f
       0.16167268 -0.6957339 -0.09708559 0.6809799
0000a0 73 57 63 bc a2 44 23 bd 7d f7 8b 3d 48 9b 48 3d
       -0.01387583 -0.039860375 0.06834314 0.048976213
0000b0 fe 7c bf be c5 73 83 3e 02 cf fe be e0 4f 3f bf
       -0.3740005 0.25674263 -0.4976731 -0.74731255
0000c0 ea 68 e6 bd d7 19 a9 3e 23 cb 98 3d bc e3 da 3e
       -0.112504795 0.33027527 0.0746062 0.42751873
0000d0 9e a5 38 3e b9 c1 6b be 9b 2b 13 3f 31 da eb be
       0.18031928 -0.23023118 0.5748841 -0.46064904
0000e0 b9 c8 c3 be ba da f3 bd df d0 0b bf b2 aa 36 3e
       -0.38239077 -0.11906953 -0.54615587 0.17838553
0000f0 e0 36 85 3e 27 53 72 3e ed c3 c1 3e 1e 0d 1e 3f
       0.2601843 0.23664533 0.37844792 0.61738765
000100 8d a9 65 3e af 1c 32 3e e3 6a 6b 3d cb 5e 99 3d
       0.2242796 0.17393754 0.057474982 0.074887834
000110 88 90 08 be 1c b1 8b 3e ea b7 fd 3d 1f d8 f4 3e
       -0.13336384 0.2728356 0.123885944 0.47821137
000120 14 82 0b 3d 33 c8 a0 be 49 b2 72 3c f8 27 ac be
       0.0340596 -0.3140274 0.014813014 -0.33624244
000130 78 b3 ba 3e 51 43 5e 3e b4 e9 d1 3e 27 0b ef 3e
       0.3646505 0.21705367 0.40998614 0.46688196
000140 30 12 82 3a 58 16 16 bf be 21 4c 3e 1a de 32 be
       0.0009923633 -0.58627844 0.19934747 -0.17467538
000150 9f 44 87 3d b9 70 c9 bd 41 85 f3 bc e6 26 37 be
       0.06604885 -0.09835953 -0.029726626 -0.17885932
000160 21 9b 4d 3d c2 3d 86 bd 34 cc 65 3e a9 f3 83 be
       0.05019677 -0.06554748 0.22441179 -0.25771835
000170 92 e1 9e 3e 75 e2 82 3e fc b3 a1 3d f2 bf ab bd
       0.31031471 0.25563398 0.078956574 -0.0838622
000180 72 6f 87 be 2e 12 22 3e db 68 0f be 79 cb 37 3e
       -0.26452214 0.15827248 -0.14004843 0.17948712
000190 cb 12 a8 be 4b 6d ba 3e 0b 42 9a 3e b4 96 23 bd
       -0.32826838 0.3641151 0.30128512 -0.039938644
0001a0 d5 36 12 3e cf 8f 5b be 54 cd b2 3e b7 a6 55 be
       0.1427873 -0.21441577 0.34922278 -0.20864378
0001b0 34 dc 31 3c 7a 17 5c bd 65 ef 9d 3e 3d 8d d2 3e
       0.010855723 -0.053733326 0.30846706 0.4112338
0001c0 ce e4 16 3f ab 04 9a 3d c6 53 a1 3d 42 e6 67 bd
       0.5894288 0.075204216 0.07877307 -0.056616075
0001d0 5a 0f e2 be 0b ce 03 3e 5e 87 cf 3d 0c 37 a4 3e
       -0.44152337 0.12871568 0.10133241 0.32073247
0001e0 e5 4e 31 3f 82 ef d3 bd 5b 70 0f 3f a0 71 d5 3e
       0.6926101 -0.10348417 0.56030816 0.41688251
0001f0 78 1c 81 bd f1 3d c3 be 4e e1 f7 be 7a 54 21 bd
       -0.06304258 -0.38133195 -0.4841408 -0.039387204
000200 e7 ca 04 bf 87 58 ac bd 19 2c 98 3c 35 e9 12 bf
       -0.51872104 -0.08415323 0.018575715 -0.57387096
000210 a4 d0 c7 be 0a 11 76 3e 50 5e 13 be 93 da cb 3b
       -0.39026368 0.24029937 -0.14391446 0.0062211244
000220 30 4b a8 3e 03 c5 c2 be 26 ab dc 3d c6 45 60 be
       0.32869864 -0.38040933 0.107748315 -0.21901616
000230 4e e9 d6 3d b5 ba 47 3e cf 75 ab be 51 68 5a bc
       0.10493718 0.19504817 -0.33488318 -0.013330535
000240 34 98 95 be 68 90 61 3e 6a 76 cf bd d4 70 7b be
       -0.29217684 0.22027743 -0.101300076 -0.2455476
000250 00 d6 05 3f 7a 49 25 be e4 8c 12 be 07 1e 78 be
       0.52279663 -0.1614131 -0.14311558 -0.24230205
000260 94 43 5b be 95 17 31 3d e4 f7 52 3e b8 e7 5f be
       -0.21412498 0.04323538 0.20602375 -0.21865737
000270 52 e1 e0 3d de 19 4d 3e 6d aa 77 3d 05 69 3f 3e
       0.109804764 0.20029399 0.060465265 0.18692406
000280 3c 5a bb be 5b 83 dc 3d a2 53 a8 be ff 81 08 be
       -0.3659228 0.107672416 -0.32876307 -0.1333084
000290 3b f4 a1 be 88 c6 9e 3e 20 06 ad 3d 29 01 7c bd
       -0.31631646 0.31010842 0.08448434 -0.061524544
0002a0 eb b5 14 be 9d 99 28 3e 34 cc 6d bd 2a 03 84 be
       -0.14522521 0.16464849 -0.05805607 -0.25783664
0002b0 6d 92 da bd 66 d2 48 3d d1 2e a9 3d c0 9e 92 be
       -0.1067246 0.049028777 0.08260883 -0.28636742
0002c0 b9 6d 6b 3f 1b eb 98 3c a6 ed 83 bd 54 ff 38 3f
       0.919643 0.018666795 -0.06441812 0.722646
0002d0 03 54 af be 1b 28 96 3e 77 98 c7 3d 23 79 58 3e
       -0.34243783 0.29327473 0.09745877 0.2113996
0002e0 25 e7 27 bd 78 b7 8d 3e 89 61 d4 bd ed c2 fa be
       -0.04099192 0.27679038 -0.10370166 -0.48976842
0002f0 c6 e6 3f be 79 ae 12 3d d4 84 dd 3e be 73 b8 3e
       -0.18740377 0.03581092 0.43265402 0.36025804
000300 8c 8c 06 bf 80 66 8c 3e 77 81 0d bf e1 8e 9d bd
       -0.5255821 0.2742195 -0.5527567 -0.076932676
000310 4b 49 f8 bd a1 71 1a be 42 e5 af 3c 6c 6b 9a 3d
       -0.121233545 -0.15082408 0.021471623 0.0754002
000320 ad d8 30 3e 69 c3 da 3c ed 76 8f be ea 8e 82 3e
       0.17270155 0.026704507 -0.2802042 0.2549966
000330 49 fd 0f bd 13 9e 3b bf 65 92 a7 3d 6f 16 64 be
       -0.03515366 -0.7328808 0.081822194 -0.22274183
000340 95 73 48 bf 87 85 aa 3e 83 3d 82 3e a4 be ee be
       -0.78301364 0.33304998 0.25437555 -0.46629822
000350 08 d3 2d 3e d2 2c ae be b3 f3 10 bd 9e 32 32 be
       0.16975033 -0.3401857 -0.03538866 -0.17402121
000360 7c 80 cd be 4c ea 81 3d 5a 3a 22 3e 84 40 aa be
       -0.40137088 0.06343517 0.15842572 -0.33252347
000370 39 75 09 bf bb ba a3 3d e2 59 f1 be ff 2f 12 bf
       -0.5369449 0.079946004 -0.47138888 -0.57104486
000380 2f 42 ca be 19 72 46 be 6c 1a cc bd 81 33 1e 3e
       -0.3950362 -0.19379462 -0.09965977 0.15449335
000390 57 0a 01 3f 43 18 94 be 80 07 bd be 3f 96 45 3e
       0.504064 -0.2892476 -0.36919785 0.19295596
0003a0 10 a3 1e 3f 2d b3 04 3d 2d 6f 01 be 08 6f de 3e
       0.61967564 0.032397438 -0.12640066 0.43444085
0003b0 3c dd 01 bf f8 46 08 3e 67 cd de bd 01 12 1c bf
       -0.507282 0.13308322 -0.10879021 -0.6096497
0003c0 6c 4d 56 be 18 ed 04 be e5 f4 9b 3d e2 a1 56 bd
       -0.20927972 -0.12981069 0.07615069 -0.052400477
0003d0 d4 8f 57 3d 1a c0 28 bf 34 5a bf 3e 84 f0 7d bd
       0.0526274 -0.65918124 0.37373507 -0.06199695
0003e0 55 d5 55 be af 72 89 be b6 89 9f be 5e 2d 13 be
       -0.20882161 -0.2684531 -0.31159753 -0.14372775
0003f0 ec 37 0b bf 38 06 a5 3e 4e 3d 3f 3f 0a e4 0a be
       -0.54382205 0.32231307 0.7470292 -0.13563552

pi.pi_net.2.bias f4 [64]
000000 72 ac ab 3d c6 9c 80 3d ad b1 7b 3e 6b 47 5f 3c
       0.08382501 0.06279902 0.24579497 0.013627867
000010 fb 7a 0e 3e 53 c9 35 bd 2e b1 02 3c 65 a9 82 3e
       0.13914101 -0.04438145 0.007976813 0.25519863
000020 bc 21 d6 be 53 1c a2 be 70 e4 5a 3d 35 2b d1 bd
       -0.41822612 -0.31662235 0.05344051 -0.10213319
000030 00 f7 12 3f b4 46 11 3e d2 b6 5e 3c 43 ce 12 3d
       0.5740814 0.14187127 0.013593392 0.035841238
000040 97 f2 b8 3d 30 04 1a 3e ac 76 c3 bd b9 63 2d bd
       0.09030645 0.1504066 -0.09544119 -0.04233143
000050 ea cd c4 3d 78 97 22 3d b8 2c 27 3d 61 2a d9 3d
       0.096095875 0.039695233 0.04081413 0.10603786
000060 ff 41 90 3e 86 9d 0c 3e f3 d4 9a 3e 40 99 98 3d
       0.2817535 0.13731965 0.30240592 0.07451105
000070 c6 d0 c7 3d 8b 49 a0 bd 21 45 d0 be 11 75 93 bd
       0.09756617 -0.07826527 -0.4067774 -0.07200063
000080 03 c0 cf 3d 36 99 e6 3c 76 2e 53 bc ff fc 6f bd
       0.10144045 0.028149229 -0.012889495 -0.058590885
000090 12 a1 94 bd 5b d8 04 bd 5e 07 e9 3d 85 dd 39 3d
       -0.07257284 -0.032432895 0.11378358 0.045377273
0000a0 8f aa 6f 3b 21 2e f1 3c 0f f8 03 bf 2c d1 ab 3b
       0.0036570167 0.029440941 -0.5155038 0.005243441
0000b0 0d df 4f 3e 6a c7 04 3e c7 72 82 3d 3f fd 09 bd
       0.20299931 0.12966695 0.06369548 -0.03368878
0000c0 c6 f9 ea bd 92 0b 17 be 59 bf 81 3c c5 66 10 be
       -0.11473422 -0.14750507 0.015838312 -0.14101703
0000d0 47 0c ee be 76 3b 29 3e 9c 17 35 3e 08 29 d7 bd
       -0.46493742 0.16526589 0.17684788 -0.10505873
0000e0 9a 34 8c 3e e4 9f 5f bd eb 49 06 3e 1b 28 fc 3d
       0.27383882 -0.054595843 0.13114135 0.12312337
0000f0 6b da dc bb a4 47 1d 3f 59 b8 04 bd b2 20 8d bd
       -0.0067399046 0.6143744 -0.03240237 -0.06891002

pi.pi_net.4.weight f4 [256, 64]
000000 14 70 6f be 64 27 4d bf bf 7c c8 be 26 6d b2 3e
       -0.23382598 -0.8013823 -0.39157674 0.348489
000010 4c 8a 30 bf 82 b7 c8 be 6e 32 57 3f af df 20 3e
       -0.68961024 -0.39202505 0.84061325 0.15710329
000020 c9 9b 60 3f 66 23 5a 3f 09 27 4d 3e a8 bf c5 3e
       0.8773771 0.85210264 0.20034422 0.38622785
000030 0c ce 4c bf f1 d1 8e bc 4e d5 b3 3e 94 0f fa be
       -0.800019 -0.017434092 0.35123676 -0.4884001
000040 7b dc b7 3e fa 35 2e bf a2 01 1c 3f 7f ea ce 3e
       0.359104 -0.6805111 0.6093999 0.4041328
000050 a2 09 79 3d c8 70 57 3e 01 a2 ad 3e 8e aa 01 bf
       0.060800202 0.21039116 0.33912662 -0.5065087
000060 9d 9a b2 be f3 80 09 bd cd 0c a6 3d 8c 29 f5 3e
       -0.34883586 -0.03357024 0.0810791 0.4788326
000070 b8 cd cd bd b5 99 99 be e7 17 a9 3e 57 2f 15 bf
       -0.10049003 -0.30000082 0.3302605 -0.5827536
000080 b2 6f df 3e 06 6e 64 be 24 c4 8d be 34 3c 32 3f
       0.43639904 -0.22307596 -0.27688706 0.6962311
000090 cf c0 3f 3f 0d 6e 20 3e 9a b2 85 3e aa fe d8 bb
       0.7490358 0.15666981 0.26112825 -0.006622155
0000a0 7b 7a bc be 36 22 10 3c c7 78 4e 3f 8f c1 08 3e
       -0.36812195 0.008797219 0.8065304 0.13355087
0000b0 d7 fd ea be 0a b2 c8 3d e2 4b df be a8 d6 c4 bd
       -0.4589679 0.09799583 -0.43612581 -0.09611255
0000c0 3d 9e 32 3e 36 19 d4 3e 0b 24 0d bf 61 d7 12 3f
       0.17443176 0.41425484 -0.5513312 0.5735989
0000d0 72 5d 33 3f dc 30 84 3e d3 4d b2 3d 81 c2 09 3d
       0.7006446 0.25818527 0.0870625 0.03363276
0000e0 e1 e4 28 bf 73 81 d7 3e b6 cd f7 be be 7d 3c 3f
       -0.6597424 0.4209095 -0.48399132 0.7362937
0000f0 7a a6 8d bd f2 0c 42 bf 4a 27 8a bf 65 92 dc b8
       -0.069165185 -0.75801 -1.079324 -0.000105176856
000100 14 b0 86 3e eb ca 6d bf c0 ac 07 bf 85 0c 19 3e
       0.26306212 -0.92887753 -0.5299797 0.14946182
000110 f4 20 1b be 52 f3 1f bf cc 42 7a 3f 88 8e 89 3d
       -0.1514929 -0.6248065 0.97758174 0.06716639
000120 c0 7e 8d 3f c3 d9 62 3f 2e 55 b3 3e 5d e9 6d 3f
       1.1054306 0.8861353 0.35025924 0.9293421
000130 a5 77 c9 be e2 42 d4 be 22 5c f6 3d e7 01 1a bf
       -0.39349094 -0.41457278 0.12029292 -0.6015915
000140 07 46 2a 3f 54 2f 5e bf 6f 8f 13 3f da 59 cd 3e
       0.66513103 -0.86790967 0.5764074 0.40107614
000150 19 88 93 bd 1f 86 a2 bb 6e c8 3b be 3b 95 9d be
       -0.07203693 -0.004959836 -0.18338177 -0.30777916
000160 40 93 ec be 5a 2b 5e 3e 97 a8 db 3c 5c 71 35 3f
       -0.46206093 0.21696225 0.026813788 0.708761
000170 96 99 a8 bd 50 09 0b bf 4e 5d f1 3e be 29 3d be
       -0.08232419 -0.54311085 0.47141498 -0.18472955
000180 cc 48 f1 3e ef 20 a4 be 7b 43 a5 be b8 aa 79 3f
       0.47125852 -0.32056376 -0.32278046 0.9752612
000190 a3 53 40 3e 6e a1 cb bd 64 24 1d be ff 05 34 3e
       0.18781905 -0.099429 -0.15345913 0.17580412
0001a0 31 67 50 bf 47 35 cf bd 43 bc 0c 3f 9b 40 ea 3d
       -0.8140746 -0.10117584 0.54974765 0.11438104
0001b0 11 78 ae be 1c 92 02 bd df d1 e6 be 4c 17 fc be
       -0.34075978 -0.031877622 -0.45081994 -0.49236524
0001c0 60 a2 8b 3e cf d1 4b 3e 0a c2 0e 3e 5e b8 04 3f
       0.2727232 0.19904254 0.13941208 0.5184382
0001d0 4c e8 93 3f 0c d6 19 3e 4e 8e 85 3e e8 ac de bd
       1.1555266 0.15023059 0.26085132 -0.10872823
0001e0 c6 8d 26 bf fa db b2 3e 74 8a 5d be c1 cc 67 3f
       -0.6506008 0.34933454 -0.21634847 0.90546805
0001f0 0c 4d 9e be e1 6c 2e bf 95 04 06 bf 37 0f 06 3d
       -0.30918157 -0.68134886 -0.5235074 0.032729354
000200 8e c0 09 3d 9d eb 36 bf b6 b6 b1 be 0a 95 a0 3e
       0.0336309 -0.7145327 -0.3470971 0.31363708
000210 a4 81 20 3c 1c 7d 3e bf ad cf 72 3f a4 60 92 be
       0.009796534 -0.7440965 0.9484814 -0.28589356
000220 65 72 70 3f 0c bd 93 3f 75 b0 3b 3f 9c 70 3f 3f
       0.9392455 1.1542068 0.7331613 0.74781203
000230 9c 79 fa be 0b b7 8f bd 38 6d d0 3e db c8 f7 be
       -0.48920906 -0.070173346 0.40708327 -0.48395428
000240 2c af dd 3e d9 28 13 bf 83 c6 08 3f 34 89 d3 3e
       0.43297708 -0.57484204 0.53427905 0.41315615
000250 7e e3 76 be 68 d2 b8 3c 5a 4b 1d be 6d 7a c4 be
       -0.24110219 0.022561267 -0.15360776 -0.38374653
000260 f3 04 1b bf 6e 66 fa 3c 8e b1 3e be 13 da 69 3f
       -0.60554427 0.03056642 -0.18622419 0.9134838
000270 92 13 61 be 37 bd aa be b6 81 6f 3e 30 48 a3 bd
       -0.21980122 -0.33347484 0.23389325 -0.07972753
000280 64 56 3f 3f cf 28 3b be f8 99 cc be 7e 3c 1d 3f
       0.74741197 -0.18277286 -0.3996122 0.6142043
000290 b6 41 17 3f c0 6a 7a be 6e 61 b0 bd 6a ee 1e 3d
       0.5908464 -0.24454784 -0.08612333 0.038801588
0002a0 9b 6b 1b bf e9 48 03 be 96 85 0d 3f 7d bc 61 3e
       -0.6071107 -0.12820782 0.5528196 0.22044559
0002b0 a3 d7 68 be 17 eb bc 3d b5 48 0d bf 62 48 f0 be
       -0.22738509 0.09224527 -0.5518907 -0.46930224
0002c0 fb 5e 79 3e 64 87 37 3e 4d 14 81 bd 7a 67 db 3e
       0.24352638 0.17922741 -0.063027 0.42852384
0002d0 de 55 8e 3f 6c 7c 6e 3e d1 5e 7c 3e 7d 8d e4 be
       1.1119955 0.2328965 0.24645545 -0.44639197
0002e0 69 93 57 bf 2c e6 02 3f 3d 4b ad be 13 05 61 3f
       -0.84209305 0.51132464 -0.33846465 0.8789837
0002f0 85 c1 cd be 99 2a 69 bf 0c 5d 3c bf e5 26 6d bd
       -0.40186706 -0.91080624 -0.7357948 -0.05789842
000300 bc b1 89 3e c5 14 79 bf 52 c7 1f bf a3 9d b3 3e
       0.26893413 -0.97297317 -0.62413514 0.35081205
000310 d0 49 ab be cc 9f 04 bf 71 a1 5d 3f ab 59 df bd
       -0.33454752 -0.5180633 0.86574465 -0.10905775
000320 cf 98 61 3f 50 3d 50 3f 1f 2c 9e 3e ed 59 eb 3d
       0.8812379 0.81343555 0.30893037 0.11491761
000330 a2 08 32 bf c5 5b 37 3c da a9 7d 3e 1c f8 14 bf
       -0.6954442 0.011191313 0.24771824 -0.58191085
000340 d7 a8 b5 3e 75 7f 2e bf 7d 52 5a 3f a0 4f 9f 3e
       0.35480377 -0.68163234 0.8528212 0.31115437
000350 7a 78 1f 3e b7 a5 39 3d c8 75 e4 bd 7c e2 85 be
       0.15573302 0.045324054 -0.111552775 -0.26149356
000360 15 62 15 bf 3c 2d 3b bd 57 fd d9 3d db b5 0b 3f
       -0.58352786 -0.045697436 0.10644024 0.54574364
000370 e6 63 92 be 9f d4 e3 be d4 49 85 3e 17 1b 06 bf
       -0.2859184 -0.44498155 0.2603289 -0.52385086
000380 a7 d5 b9 3e 90 c3 51 be 70 c3 e9 be 15 1d f1 3e
       0.36295816 -0.20484757 -0.4565692 0.470925
000390 11 b3 0b 3f 31 63 98 be 31 00 17 3e 6e ac 16 3e
       0.5457011 -0.29763177 0.14746167 0.14714214
0003a0 0e ff be be 59 4d 24 bd 4e 94 3d 3f f6 e6 d2 3d
       -0.37303966 -0.040112827 0.7405442 0.102979586
0003b0 fa 23 01 bf 2a 77 90 3d 79 56 09 bf 15 1f 00 be
       -0.5044552 0.07053979 -0.5364757 -0.12511857
0003c0 24 2e 0b 3d 23 1d 5a 3e e1 c9 d6 be 8c 7a f4 3e
       0.03397955 0.21300177 -0.41950896 0.47749746
0003d0 33 b7 20 3f 82 7d 34 3e f2 65 0d 3e 49 60 b7 3b
       0.6277954 0.17626002 0.1380842 0.005596195
0003e0 62 1f 55 bf f7 1d 92 3e 26 26 40 bf b3 22 48 3f
       -0.8325101 0.28538486 -0.7505821 0.78177947
0003f0 b7 bb 2d be 6f 93 1d bf cb f9 cc be 17 1d 0b 3e
       -0.16966139 -0.6155309 -0.40034327 0.13585316

pi.pi_net.4.bias f4 [256]
000000 69 9a 5f bf 1b af 8a bf b2 08 8d bf 4b f8 5c bf
       -0.87344986 -1.0834688 -1.1018279 -0.86316365
000010 f2 8d 7b bf 05 e8 5e bf cd 1b 6b bf c7 f6 48 bf
       -0.98263466 -0.87072784 -0.91839296 -0.7850155
000020 36 3f 50 bf 35 1a 74 bf f2 40 7e bf 96 6e 6b bf
       -0.8134645 -0.9535249 -0.9931785 -0.91965616
000030 08 e3 70 bf 5d 3e 65 bf e2 f8 72 bf 01 de 7e bf
       -0.9409642 -0.89548284 -0.94911015 -0.995575
000040 57 b0 7c bf 37 c9 4f bf 5f 7b 71 bf 9d 1b 39 bf
       -0.98706573 -0.81166404 -0.94328874 -0.7230776
000050 57 fd 77 bf a3 ae 56 bf bd b7 4e bf 2e e5 31 bf
       -0.9687094 -0.83860224 -0.8074911 -0.69490325
000060 9b ae 71 bf 02 7f 55 bf d1 c0 86 bf d7 13 77 bf
       -0.9440705 -0.83396924 -1.0527593 -0.9651465
000070 e3 a9 3e bf 88 90 63 bf 61 73 7e bf fa bf c6 bb
       -0.74477977 -0.8889241 -0.99394804 -0.006065366
000080 e9 d0 17 3e 7f 6d 7d bf 65 38 83 bf fa 5c 5e bf
       0.14825787 -0.989952 -1.0251585 -0.8686062
000090 95 dc 6d bf 9f ac 7f 3e 70 5e 6c bf 2c 7b 7c bf
       -0.92914706 0.24968193 -0.923316 -0.98625445
0000a0 3c ac 1e bf 9f d4 7f bf 7b 75 80 bf cb 1e 4f bf
       -0.6198156 -0.9993381 -1.0035852 -0.8090636
0000b0 7a 3e 71 bf 08 43 5a bf c6 76 84 bf ac 9b 82 bf
       -0.94235957 -0.8525853 -1.0348747 -1.0203757
0000c0 3c 79 67 bf 66 ad 6e bf bf 24 68 bf fa 8f 4b bf
       -0.90419364 -0.93233335 -0.9068107 -0.79516566
0000d0 3f 0c 6c bf 42 e1 7e bf f2 30 63 bf df 65 70 bf
       -0.92206186 -0.99562466 -0.8874656 -0.9390544
0000e0 6f 3a 56 bf a9 28 7f bf 01 94 80 bf be 93 70 bf
       -0.8368291 -0.9967142 -1.0045167 -0.93975437
0000f0 c5 72 59 bf 32 21 73 bf dc e4 83 bf a8 06 7d bf
       -0.8494075 -0.9497253 -1.0304217 -0.9883828
000100 56 81 80 3e 3f 98 72 bf 46 af 78 3e 2d a2 6b bf
       0.25098675 -0.9476356 0.24285612 -0.92044336
000110 07 51 86 bf 43 db 62 bf 38 11 63 bf be 18 63 bf
       -1.0493478 -0.88615817 -0.8869815 -0.8870963
000120 a0 6a 82 bf 69 9e 53 bf f2 b7 64 3e d2 51 73 bf
       -1.0188789 -0.8266359 0.22335795 -0.9504672
000130 47 cc 67 bf d7 3b 88 bf 11 73 80 bf 5c 97 54 bf
       -0.9054608 -1.0643262 -1.0035115 -0.83043456
000140 df a2 6f bf 31 97 74 bf 4d 87 83 bf b7 f8 7c bf
       -0.93607897 -0.955432 -1.0275666 -0.9881701
000150 92 94 80 bf 78 ea 6a bf 67 fb 78 bf fc 47 59 bf
       -1.004534 -0.9176402 -0.9725861 -0.84875464
000160 34 19 68 bf 36 d0 3f bf ab 8c 83 bf ef a9 73 bf
       -0.90663457 -0.7492708 -1.0277303 -0.95181173
000170 b8 e5 59 bf 37 58 7f bf 0b 7b 6b bf 60 8c 72 bf
       -0.8511615 -0.9974398 -0.91984624 -0.94745445
000180 8e 81 71 bf 43 96 4a bf 9d cd 48 bf a3 a8 6b bf
       -0.9433831 -0.7913553 -0.7843874 -0.92054194
000190 1b 3d 6a bf 6d 39 ea 3d 78 68 6e bf 00 3b 73 bf
       -0.9149949 0.11436734 -0.93128157 -0.950119
0001a0 69 00 43 bf b4 f1 53 bf 0e 1d 85 bf 00 3a 81 bf
       -0.761725 -0.82790685 -1.0399492 -1.0095825
0001b0 e8 34 7b bf aa d8 7a bf e5 fb 84 bf 5a 86 55 bf
       -0.98127604 -0.97986853 -1.0389372 -0.8340813
0001c0 35 bc 89 bf 4f f5 7f bf eb a6 67 bf 02 ea aa 3d
       -1.0760561 -0.99983686 -0.9048907 0.08345415
0001d0 fe 0c 84 bf 3c 24 5a bf d7 e9 75 bf 4f 4d 70 bf
       -1.0316465 -0.8521154 -0.96059936 -0.93867964
0001e0 01 e6 7d bf 7b 3e 5b bf 43 0b 79 bf 5b c2 6f bf
       -0.99179083 -0.8564221 -0.9728281 -0.9365594
0001f0 a0 17 7c bf 91 71 8a bf 75 dc 79 bf 27 77 60 bf
       -0.9847355 -1.0815908 -0.97602016 -0.8768181
000200 2c 2e 8b 3e e2 1a 85 bf f5 08 82 bf 7f f4 62 bf
       0.27183664 -1.0398829 -1.0158983 -0.8865432
000210 16 75 6c bf 1b b9 24 bf a6 4e 78 bf e7 37 83 bf
       -0.9236616 -0.6434495 -0.9699501 -1.0251435
000220 0b 57 76 bf 5f 9b 84 bf 0d 7a 50 bf 73 49 68 bf
       -0.9622657 -1.0359915 -0.81436235 -0.90737075
000230 54 f5 64 bf af 2f 87 bf 48 5b 82 bf bf 55 4e bf
       -0.8943684 -1.0561427 -1.0184107 -0.8059959
000240 9e 82 83 bf 05 4c 77 bf 60 78 7a bf d4 3d 6d bf
       -1.0274236 -0.9660037 -0.9783993 -0.9267247
000250 c3 71 59 bf 71 9f 72 bf 7b fc 75 bf 3a c0 6e bf
       -0.8493921 -0.9477454 -0.9608838 -0.93262064
000260 9d fb 6b bf d3 c9 48 bf 96 98 69 bf 90 20 81 bf
       -0.92180806 -0.7843296 -0.9124845 -1.0088062
000270 7a c3 7c bf 8a 43 5f bf bf 20 70 bf 25 b7 86 bf
       -0.98735774 -0.8721243 -0.93799967 -1.0524641
000280 bf a4 1f bf 45 78 53 3d 23 87 64 bf 7a 98 67 bf
       -0.6236076 0.05162837 -0.892687 -0.90467036
000290 d8 17 1b bf 81 93 6a bf b3 3e 59 bf ef 57 12 bd
       -0.6058326 -0.91631323 -0.84861296 -0.03572839
0002a0 e9 9f 6c bf 61 c8 5d bf b1 8b 84 bf 2e 4b 82 bf
       -0.92431504 -0.8663388 -1.035513 -1.0179193
0002b0 57 9d 62 bf ae ff 4e bf de 53 64 bf 4e ed 66 bf
       -0.8852133 -0.80858886 -0.8919047 -0.9020585
0002c0 00 00 7a bf 34 6f 82 bf 0c f2 85 bf 34 36 86 bf
       -0.9765625 -1.0190187 -1.0464492 -1.0485291
0002d0 25 46 6d bf 03 83 54 bf 70 41 87 bf 26 c5 86 bf
       -0.9268516 -0.8301241 -1.0566845 -1.0528915
0002e0 73 3a 66 bf 00 d9 6b bf a5 94 5a bf f3 7d 89 bf
       -0.89932936 -0.9212799 -0.85383064 -1.0741562
0002f0 50 ca 5e bf ca 84 53 bf 02 fd 88 bf dd ce 61 bf
       -0.87027454 -0.82624495 -1.0702212 -0.88206273
000300 58 a0 64 bf 53 66 64 bf d2 e3 7b bf 57 6e 58 bf
       -0.89307165 -0.89218634 -0.983945 -0.84543365
000310 3a 2d 77 bf 7f 96 0f bf da 80 4a bf 41 38 64 bf
       -0.96553385 -0.56089014 -0.7910286 -0.89148337
000320 64 35 8a bf f0 0f 5f bf 85 c4 7d bf e0 fa 6c bf
       -1.0797544 -0.87133694 -0.9912799 -0.92570305
000330 26 f7 64 bf 5a e3 87 bf c4 38 3c bf 7c 92 87 bf
       -0.8943962 -1.0616257 -0.7352412 -1.0591578
000340 31 23 5b bf 46 31 6c bf a4 f1 2c bf a2 79 82 bf
       -0.8560057 -0.92262685 -0.67556214 -1.0193369
000350 ba c8 82 bf 8f c6 78 bf 3a 71 79 bf b7 f7 59 bf
       -1.0217507 -0.97177976 -0.97438395 -0.8514361
000360 1f 49 ae 3e 50 f3 7a bf 36 13 77 bf e7 a5 71 bf
       0.34040162 -0.98027515 -0.9651369 -0.9439377
000370 6a b4 84 bf 17 98 71 bf 6b b3 85 bf bf ab 6a bf
       -1.0367558 -0.94372696 -1.0445379 -0.91668314
000380 1f 53 69 bf 63 af 4f bf d2 63 4d bf e6 c4 5a bf
       -0.9114246 -0.81126994 -0.8023044 -0.85456693
000390 11 dd 82 bf 40 31 81 bf 6d 44 7e bf 1d 5d 61 bf
       -1.0223714 -1.0093155 -0.9932316 -0.88032705
0003a0 e3 42 72 bf 32 11 60 bf 9d 40 8b bf 9f 93 77 bf
       -0.9463331 -0.8752624 -1.0879093 -0.96709627
0003b0 30 62 6b bf d7 29 76 bf 87 0e 56 bf 3a a4 7d bf
       -0.919467 -0.9615759 -0.83615917 -0.99078715
0003c0 a8 01 8e bf f7 51 74 bf d2 e9 89 bf b3 3a 83 bf
       -1.1094255 -0.9543757 -1.0774481 -1.0252289
0003d0 0f 15 3f bf 5c 9b 68 bf 37 d2 6e bf 46 c0 71 bf
       -0.7464151 -0.9086206 -0.9328951 -0.9443401
0003e0 bc 28 72 bf e3 ad 70 bf 65 46 86 bf c4 0e 82 bf
       -0.94593406 -0.9401533 -1.0490233 -1.0160756
0003f0 86 14 75 bf c3 3e 7f bf 7d 1a 5c bf 18 0f 89 bf
       -0.9573444 -0.9970514 -0.8597792 -1.0707731

v.v_net.0.weight f4 [64, 5]
000000 76 88 b1 3e b3 48 22 3c 2a d6 0f 3f 99 3c 49 3f
       0.34674424 0.009905028 0.56186163 0.7860809
000010 9d 3e 74 3f ae 70 bf 3b 27 ad c3 3e c6 ba 21 bf
       0.9540804 0.00584229 0.38218042 -0.6317562
000020 30 8d c3 be 72 87 51 3e 54 84 97 3f 53 27 72 3d
       -0.38193655 0.20461825 1.1837258 0.059119534
000030 4a 31 7c 3d 8a c3 b2 be 3e 07 a6 be 20 c6 75 be
       0.061570443 -0.3491481 -0.324274 -0.2400136
000040 ee e5 9a 3d 3e 8b 74 bd 87 3f bb be ab 52 36 be
       0.07563387 -0.059703104 -0.36571905 -0.17804973
000050 9e ac a8 3f c0 22 61 3f cf cd 15 3f a5 7b c5 3e
       1.3177679 0.8794365 0.58517164 0.38570896
000060 27 c2 6c 3e 2a 9d 81 3f 54 45 94 3e 89 26 bd 3e
       0.23120938 1.0126088 0.28959143 0.36943462
000070 b4 be f2 3e 03 23 3c 3e e4 29 ed 3f db 68 db 3f
       0.4741112 0.18372731 1.8528409 1.7141374
000080 13 08 10 3f a3 85 18 3f 04 cd 99 3d c6 b3 2d bf
       0.5626232 0.59578913 0.07509807 -0.6785244
000090 e4 fd 7c 3d 23 1c 2e be f5 5b 8c bd 9f cd ec 3d
       0.061765566 -0.17002921 -0.06853477 0.115626566
0000a0 b8 12 fa 3e ec 31 87 3e fe 9b 2b bf 47 c3 21 bf
       0.48842406 0.26405275 -0.670349 -0.63188595
0000b0 f7 3a 6b be 57 fe fe 3e 83 57 a4 3e e2 f5 ff bd
       -0.22971712 0.4980342 0.32098016 -0.1249807
0000c0 2b 55 b5 3c 32 bb b7 bc 12 bb eb be 71 a0 18 3e
       0.022135338 -0.022428129 -0.4604116 0.14904954
0000d0 df 9c cd be 63 28 2b be 29 1a 1d be 51 ec 44 3f
       -0.40158746 -0.16714625 -0.1534201 0.7692309
0000e0 c2 e7 57 3e e5 46 ce be 72 e5 a6 ba 25 08 6f 3d
       0.21084502 -0.40288463 -0.0012733175 0.058357377
0000f0 f4 b5 0a bf f0 7d 2e 3e e4 6d 48 be 90 47 34 3e
       -0.5418389 0.17040229 -0.1957317 0.17605424
000100 58 6c 2d bf 77 94 a3 bf 90 41 a1 bf 6a 7c 1a be
       -0.67743444 -1.2779683 -1.2598133 -0.15086523
000110 65 43 60 be 17 08 73 be d8 ce a8 bf c0 16 82 bd
       -0.21900709 -0.23733555 -1.3188124 -0.063519955
000120 75 fd f4 3d 83 2f 28 3f a1 06 3d ba f4 30 4e bc
       0.119624056 0.656975 -0.00072107656 -0.0125849135
000130 79 bf 9f be 23 88 ae bd 1a 78 a0 bb b8 44 4d bf
       -0.3120077 -0.0852206 -0.0048971297 -0.8018298
000140 58 3e fa be b4 6c 8b 3b 19 4d d6 be ab 23 53 be
       -0.4887569 0.004254902 -0.41855696 -0.20619075
000150 a2 e2 ab be 8b 51 b5 bf 52 54 2a bd 68 ae a8 3e
       -0.33571345 -1.416551 -0.04158432 0.3294556
000160 03 68 a7 3e 05 a7 fc 3d 52 2f 6e be 53 1e b6 3e
       0.32696542 0.12336544 -0.23260239 0.3557001
000170 d8 7d ac 3e ca 99 2c 3f 98 f5 12 3f 76 94 36 bf
       0.3368976 0.67422163 0.57405996 -0.71320283
000180 80 b9 0e bf de 2a 60 bd 53 33 71 bf d0 f6 f2 be
       -0.557518 -0.05472838 -0.9421894 -0.47453928
000190 21 84 88 3e 41 e7 d0 3d 8d da 5a 3e 5b 09 27 3e
       0.26663306 0.10200358 0.21372433 0.16312163
0001a0 28 3b 65 3e 47 a9 a2 3e 36 54 73 3d 1c 54 77 3e
       0.22385848 0.31769773 0.05940648 0.24153179
0001b0 3e 58 94 3e 59 ff 38 3e 79 a4 31 bf a6 2e 5a 3e
       0.28973573 0.18066157 -0.6939159 0.21306857
0001c0 8b 37 ac be bd 27 3e be dc c3 a8 3d 21 f8 1c be
       -0.33636126 -0.18569846 0.08240482 -0.15329029
0001d0 76 f3 00 bf bb bc 67 bf 3a 49 66 be 7a 75 a3 bd
       -0.5037149 -0.90522355 -0.22488871 -0.07981391
0001e0 d3 d7 39 3f e4 7d 33 be 6e 4e 97 3d f8 e3 db 3d
       0.72594947 -0.17528492 0.07388006 0.10736841
0001f0 7e 41 bc 3e 95 95 6d bf fd ac 64 bf 6e 15 86 3e
       0.36768717 -0.9280637 -0.8932646 0.26188225
000200 19 e8 86 be e6 b1 2d bf ac 37 55 bf cb 31 17 be
       -0.2634895 -0.67849576 -0.83288074 -0.14765088
000210 77 f1 74 3e fb fa 28 be a2 2d 4e 3e b7 0f 7a bf
       0.23920237 -0.16501991 0.20134595 -0.9768023
000220 51 25 48 bf cf 1b b3 be d6 90 68 3d d3 7d 3a 3e
       -0.7818194 -0.34982154 0.05677875 0.1821206
000230 54 8d d9 3d 93 b6 6e 3f f9 59 29 bf 49 b3 cd be
       0.10622659 0.93247336 -0.6615291 -0.40175846
000240 a6 86 4e be 36 9d dc 3d 74 86 1a 3f 9e 8d 4c 3f
       -0.20168552 0.10772173 0.6036141 0.7990359
000250 24 4e 38 3f d6 bb 68 3f 43 c4 5e bf 4c 97 c8 be
       0.71994233 0.90911615 -0.8701822 -0.3917793
000260 e8 86 48 3e 48 73 ed 3e 41 79 54 3e 80 c7 73 3e
       0.19582713 0.46377015 0.2074938 0.23806572
000270 91 30 ec 3e b6 b9 30 3d ad 8b 4f be f2 e0 b5 3d
       0.46130803 0.043145858 -0.20268126 0.088807955
000280 4a fe 09 3e 9f 57 95 3e 74 1b 01 bf ad 43 60 bf
       0.1347591 0.29168412 -0.50432515 -0.87603265
000290 34 53 b6 be 43 9a a4 3e c0 28 c7 3d 7d de ee 3e
       -0.35610354 0.32148942 0.09724569 0.4665412
0002a0 f8 04 17 3e 56 c6 61 bd a7 20 ec be 63 67 33 bf
       0.14747989 -0.05512079 -0.46118662 -0.7007963
0002b0 c4 78 9f be 5a 8f 53 3e 44 fe 3e 3e ca 1e 8c be
       -0.31146824 0.20660153 0.18651682 -0.2736724
0002c0 ff 63 50 3f cf 0b 78 be f5 f4 73 be 35 93 1d bf
       0.8140258 -0.24223255 -0.23823912 -0.61552745
0002d0 e9 d6 13 bf 90 c3 47 bf fd 9f 67 3f 73 96 88 bc
       -0.577498 -0.7803278 0.904785 -0.016673302
0002e0 4b 58 0f bd c1 c9 2a bd 3e d9 23 bf a1 a2 45 bf
       -0.034996312 -0.041696314 -0.6400336 -0.77201277
0002f0 a1 63 e4 be 12 fa 30 3d a4 bb 16 bf e1 69 3b bf
       -0.4460726 0.043207236 -0.58880067 -0.73208433
000300 86 c4 e0 be 74 8c 17 3f c6 f9 71 be a0 47 f3 3e
       -0.43899935 0.5919869 -0.23630437 0.47515583
000310 ad ec dc 3e cb 0b af be 41 c7 d3 be 67 4a 71 3d
       0.4314932 -0.34188685 -0.41362956 0.058908846
000320 75 aa a1 be 50 3b 67 bc 77 12 87 3e bd 0f 0d bd
       -0.3157536 -0.014113262 0.26381275 -0.034438837
000330 dd 28 42 bf 2b 1b bb 3f 9a fc 60 3e 73 ab 44 3f
       -0.758436 1.4617666 0.2197136 0.7682411
000340 15 0b 83 3e 08 de 8b 3e f7 f4 0e bf 99 24 ae 3e
       0.25594392 0.27317834 -0.55842537 0.34012297
000350 11 3b d7 be 0b 5b 25 be 85 65 9f be f9 87 39 3f
       -0.42037252 -0.16148011 -0.3113214 0.724731
000360 15 e4 46 be 91 73 48 3e 9f 52 cf 3d 06 3f b4 3d
       -0.19422944 0.19575335 0.101231806 0.08801083
000370 fa 83 4b 3e 92 c9 6c bf d6 6b 7c 3e b0 ee 72 3f
       0.19874564 -0.9249507 0.24650511 0.9489546
000380 db d4 19 3e 79 ea 46 bf f0 90 7e 3e 4b 6a 60 be
       0.15022604 -0.77701527 0.24859977 -0.21915548
000390 06 7a 98 be bd 39 95 3d 8d 85 02 bf 05 48 7a be
       -0.29780596 0.07286403 -0.5098503 -0.24441536
0003a0 c8 33 b4 3b 30 7d 9b 3d 2f dd be 3c 89 3b d8 3e
       0.005499337 0.07592237 0.023298828 0.42232922
0003b0 e0 64 24 3c 70 ca b6 3e 03 54 4d 3d 9c 5a b0 3e
       0.010033816 0.35701323 0.050128948 0.3444413
0003c0 2b 52 d7 bf e5 77 e2 be 57 45 ea be a0 4f 94 be
       -1.6821951 -0.44232097 -0.45756027 -0.28967
0003d0 97 cf 93 be 21 5e e7 3e 6f 8c 6c 3f b2 36 ad be
       -0.28869316 0.45189002 0.92401785 -0.33830792
0003e0 15 9b c8 3e aa 0f 39 bd 91 3c 7e bd 33 d2 1a 3c
       0.39180818 -0.045180954 -0.06206948 0.009449529
0003f0 f0 99 0c 3e b2 9c 95 3e d1 4e d2 bd 1b 8f 4c bf
       0.13730597 0.29221112 -0.10268939 -0.7990586

v.v_net.0.bias f4 [64]
000000 96 ef 02 3f 44 ff 05 3e 7e 9c a9 bd 41 96 61 3e
       0.5114683 0.13085657 -0.08281802 0.22029974
000010 69 9e b0 3f e5 8c 1c 3f 9a 3c d4 3f f2 1a 10 3e
       1.3798343 0.6115249 1.6580994 0.14072779
000020 75 f8 aa bd 9b b9 6b 3c e7 ca 46 3e 8f 28 30 3d
       -0.08348171 0.0143875135 0.19413339 0.04300743
000030 d4 f1 a6 3e 74 86 9b bf 66 f5 37 3d 46 c8 5e bd
       0.32606375 -1.2150407 0.044911765 -0.054390214
000040 57 59 37 bd b9 cb a1 3d 37 70 2c 3f b8 c7 2c bf
       -0.044762935 0.07900185 0.67358726 -0.67492247
000050 90 9e 85 be 07 74 51 be 73 d7 5d 3e 5b 57 07 bf
       -0.26097536 -0.20454417 0.21664219 -0.5286767
000060 e5 98 43 be 92 d4 f8 be a5 6e 34 3e b9 65 14 bf
       -0.19101293 -0.48599678 0.17620333 -0.57967716
000070 ea e0 21 3f e4 11 5f 3f 8c 07 2e 3c ec eb ab be
       0.63233817 0.87136674 0.0106219165 -0.33578432
000080 fc 03 70 bd 4a 2c 5a be cd 6b c4 be f2 b3 a9 3e
       -0.05859755 -0.21305957 -0.38363495 0.331451
000090 7c f8 6c be 5e 3b 29 be 8a d0 28 bf 83 cb 7d be
       -0.23141664 -0.16526553 -0.65943205 -0.24784665
0000a0 86 f7 ea 3e 1e 40 87 3e f1 5b b0 3e 08 20 92 be
       0.4589197 0.26416105 0.34445146 -0.28540063
0000b0 c3 74 ba be d2 79 bd 3e e7 22 29 be 4a c2 17 be
       -0.36417207 0.37007004 -0.1651722 -0.14820209
0000c0 47 51 0e bf ab 8c 28 3f 53 90 53 be c1 c0 9e 3e
       -0.5559277 0.6583964 -0.20660524 0.31006435
0000d0 62 c2 04 bc 91 57 1a be 48 f8 c2 be 90 17 91 bf
       -0.008102985 -0.15072466 -0.3808005 -1.1335316
0000e0 b4 a6 3e be a4 4c 5e 3e 8f 85 c9 3d 5f 83 8d be
       -0.1861828 0.21708924 0.098399274 -0.2763929
0000f0 2f 62 74 bf d9 5c 4f 3e 6b 37 8c bf 0b 87 23 3f
       -0.95462316 0.20250262 -1.0954412 0.63877934

v.v_net.2.weight f4 [64, 64]
000000 1e 2c b9 be 41 47 8b be bc a0 4d bd bd 4f f9 3e
       -0.3616647 -0.272028 -0.050202116 0.48693648
000010 6f e0 e3 be 82 ea 28 bf a6 e9 04 bf 69 8a 47 3d
       -0.44507167 -0.6598283 -0.5191902 0.048715983
000020 bb 8f a2 3e ae da 20 be e6 14 64 3d a9 91 cd be
       0.31750283 -0.1570842 0.055683993 -0.40150192
000030 60 34 b0 bd 4a 64 30 3e 86 0a 36 3f 05 03 be 3d
       -0.0860374 0.17225757 0.7110981 0.0927792
000040 a4 96 bf 3e 1e 90 28 bd 9f 33 e3 bd 1c a5 e9 3e
       0.37419617 -0.041153066 -0.1109383 0.4563378
000050 35 b3 c3 be 90 24 34 3d 96 e0 8e 3e df da f6 3e
       -0.38222662 0.04398018 0.2790572 0.4821386
000060 2b c8 0f bf 35 84 46 3e b4 bc 99 3e 1a 0d 10 3f
       -0.5616481 0.1938637 0.30026782 0.5626999
000070 e9 a5 34 bf 92 b6 dd be 6b 30 d1 3e 01 0e 05 bf
       -0.7056566 -0.43303353 0.40857252 -0.51974493
000080 b5 27 b0 bc 72 e1 51 bf d6 e5 ba 3e 93 08 3a bf
       -0.021503309 -0.8198463 0.36503476 -0.72669333
000090 f0 32 08 3f 8a e9 2b 3f 4b 79 25 3e d1 36 dc 3d
       0.53202724 0.6715323 0.16159551 0.10752643
0000a0 06 30 fb be c6 d1 96 be 3d 80 f9 bd 92 e1 a3 bd
       -0.49060076 -0.2945692 -0.12182663 -0.080020085
0000b0 0d fc 7a 3e 61 90 d5 3c 8d 57 bb 3e 66 25 20 be
       0.24510212 0.026069822 0.36590233 -0.15639266
0000c0 33 a2 10 3f 84 dc 8a be 59 53 18 3f 8b f1 0d be
       0.56497496 -0.27121365 0.5950218 -0.13861673
0000d0 e6 3f a6 3e 87 60 a4 be c5 2b 44 3e 99 5b 53 3e
       0.32470626 -0.32104895 0.19157322 0.2064041
0000e0 9b 95 e9 3d ec 7a 50 bb 02 58 c5 3e d7 0d 80 3d
       0.11405488 -0.0031811548 0.38543707 0.0625264
0000f0 65 48 79 3e dc 05 e4 be c0 b7 32 3f ce 8f 53 bf
       0.24344023 -0.4453572 0.6981163 -0.82641304
000100 eb 67 58 be 01 ee 2c bf 1c 11 9b bd 33 22 0b 3d
       -0.21133392 -0.67550665 -0.07571623 0.03396816
000110 df 4a e8 be e1 54 28 bf 81 68 17 bf 02 c7 07 3e
       -0.45369622 -0.65754515 -0.59143835 0.13259509
000120 a0 d1 73 3e 58 5a 9a be 6b 50 61 3e 50 3d 03 bf
       0.23810434 -0.30147052 0.22003333 -0.5126543
000130 be c7 a1 be c3 ee f7 3e 00 f8 a6 be bd 86 09 3f
       -0.31597704 0.48424348 -0.32611084 0.5372122
000140 33 98 d2 3e 98 4e 8e 3e ac ef c0 bd b8 a6 58 3b
       0.41131744 0.27794337 -0.09420714 0.0033058356
000150 a0 eb 0b bf c6 b1 7a 3e 83 ff 2b 3e 28 3e 1d 3f
       -0.5465641 0.24481878 0.16796689 0.6142297
000160 dd 54 8b be 65 c1 16 3f 71 c7 88 3e 66 6c 0e 3f
       -0.27213183 0.58888847 0.26714662 0.5563415
000170 c2 97 ac be 04 a2 14 bf a4 40 04 3e ec c5 95 be
       -0.33709532 -0.58059716 0.12915283 -0.29252565
000180 7b c1 28 3e ed a0 d2 be 38 6e 69 3f b7 55 14 bf
       0.16480057 -0.41138402 0.91183805 -0.5794329
000190 81 99 3a 3e 17 32 9f 3e b3 68 3b 3e 3a d3 92 be
       0.1822262 0.31092903 0.18301658 -0.28676778
0001a0 a8 57 61 be 57 b8 c3 be 3e 52 e8 be 07 30 2c 3e
       -0.22006094 -0.38226578 -0.45375246 0.16815196
0001b0 92 ee 36 3f b0 4c fa bd 5b 60 b6 3e ed 56 71 3d
       0.7145778 -0.12221658 0.35620388 0.05892079
0001c0 3b 66 1f be b7 35 ca bd 30 9e dd 3e ca 98 e2 be
       -0.15566342 -0.098735265 0.4328475 -0.44257194
0001d0 77 65 b3 be d4 d1 49 bc f2 3b e7 bd fb 33 29 3f
       -0.3503835 -0.012318093 -0.112907305 0.6609494
0001e0 1b 69 11 bc 80 0b 12 3e 63 67 b8 3e 6a dd 2b be
       -0.008875157 0.142622 0.36016378 -0.16783682
0001f0 16 23 5e 3f d9 6c a8 be 46 01 86 3f 30 64 09 bf
       0.86772287 -0.32895544 1.0469139 -0.536685
000200 3a 02 0e be 6a e9 a4 bd fb 9b 8f be 99 d0 06 3e
       -0.13868037 -0.08052333 -0.2804869 0.13165511
000210 62 49 3a bf ea b3 a6 be 9e e0 39 bf 9c 24 be 3e
       -0.72768223 -0.3255914 -0.72608364 0.37137306
000220 49 36 14 3d bf c9 31 bf 75 cb a1 3e e1 e9 01 bf
       0.036184583 -0.69448465 0.31600538 -0.50747496
000230 9b 25 6b 3e 40 0a df 3e c4 a4 4a 3e c3 37 e5 3e
       0.22963564 0.43562508 0.19789416 0.44769105
000240 7b ab cd 3e 34 ee 0b 3e 6f b6 58 be c9 3c 0d 3e
       0.40169892 0.13665086 -0.21163343 0.13792719
000250 01 93 d1 be f5 9a 86 be 21 93 3a 3e 91 94 c5 3e
       -0.40932468 -0.26290098 0.18220188 0.3858991
000260 23 5f e8 be 4c 02 7c 3d 38 37 f8 bd aa 31 0f 3f
       -0.45385084 0.061525628 -0.12119907 0.55935156
000270 7f 91 1d 3e 78 bb bd be 19 9f 0c 3f 99 0e f5 be
       0.15387534 -0.3705709 0.54930264 -0.478627
000280 f4 8c 48 bd 11 60 17 bf d1 c7 21 3f 97 86 e7 bd
       -0.04896255 -0.5913096 0.6319552 -0.11304968
000290 e1 1b f7 3e ba b2 e2 3e f3 9f 87 bc e1 e0 13 3e
       0.48263457 0.44276983 -0.016555762 0.14441253
0002a0 be 3d 68 be 95 1d 15 be 4e b1 12 bd 9d 91 80 3d
       -0.22679803 -0.14562066 -0.035813622 0.062777735
0002b0 4a 91 61 3e 56 33 46 3d 2c 4b 30 3f d7 2f d8 be
       0.2202808 0.0483888 0.68864703 -0.42224
0002c0 63 28 89 3e 08 86 8c bd 0f fa 09 3f db c3 c0 be
       0.26788625 -0.06861502 0.53897184 -0.37649426
0002d0 c5 ee be be 7c 14 d5 be 37 ae 14 3e 75 6b 45 3f
       -0.37291542 -0.4161719 0.14519583 0.7711709
0002e0 bf c3 45 be 39 15 a5 3e f1 de f7 3c e1 de 9a be
       -0.19312952 0.32242754 0.030257674 -0.30248168
0002f0 6f 3a 45 3f 1f 40 23 bf 66 85 81 3f 7c 97 e5 be
       0.7704229 -0.63769716 1.0118835 -0.44842136
000300 9f c2 e4 bd ec 6b 1d bd 1a 5e 50 3f 3b 4a e0 3d
       -0.111699335 -0.038433 0.8139359 0.10951658
000310 34 b4 1b be 70 6b e6 3d 0d 50 f4 be 96 14 39 bf
       -0.15205461 0.11250961 -0.47717324 -0.72297037
000320 1d c2 d4 3c 65 f8 c7 3e 0f c0 e0 bd 85 ef d0 3e
       0.025971467 0.39056697 -0.10974132 0.4080774
000330 dc 0a 68 bf cd 34 30 3f 42 65 48 bf 08 16 5a 3e
       -0.9064157 0.6883057 -0.7827951 0.21297467
000340 27 96 45 be a4 a4 86 bf 8e 99 c9 be 6e 4e 97 3e
       -0.1929556 -1.0518994 -0.39374965 0.29552025
000350 f8 29 2e 3f 7c 1b c1 bd c9 c2 b3 be 19 08 b5 3e
       0.6803279 -0.0942907 -0.35109547 0.3535774
000360 f5 e7 1d 3f e4 f9 61 3e a0 49 8c bf 51 35 c7 3e
       0.61682063 0.22067982 -1.0959969 0.38907865
000370 67 16 29 bf b6 c9 1c bf 1a a9 3f bd d6 ce 6e 3e
       -0.6604981 -0.61245286 -0.046792127 0.23321089
000380 17 88 8d 3e 6f 26 a1 3e c2 10 cf 3d ec b8 31 3e
       0.2764289 0.31474635 0.10110618 0.17355698
000390 46 35 75 3e 69 e0 9f 3e 0a 18 24 3f a2 7a 6f 3e
       0.23946103 0.312259 0.6409918 0.23386624
0003a0 2d eb b3 bd 0e 43 fd bd ec 93 40 bd 45 e1 30 3f
       -0.087850906 -0.12366305 -0.04701607 0.69093734
0003b0 49 8f ed bb ba 86 90 bf 0e 6b 76 be a1 b2 e6 3d
       -0.007249747 -1.1291115 -0.24064276 0.112645395
0003c0 09 87 85 bd 95 6c d2 bd 27 97 c9 be 5c 9a 99 bf
       -0.065198965 -0.10274617 -0.39373133 -1.2000232
0003d0 19 06 a5 3e 33 41 9c be db 2b d4 3d 86 d5 9f 3e
       0.32231215 -0.30518493 0.10359927 0.31217593
0003e0 74 80 f5 3e ea 58 37 bf ad 08 a0 be 6e 0d 3c 3f
       0.47949564 -0.7162005 -0.3125662 0.7345799
0003f0 95 8a de 3e e1 e5 02 3e d4 65 4d be ab 49 8c be
       0.43465105 0.12783004 -0.20058376 -0.27399954

v.v_net.2.bias f4 [64]
000000 b2 11 bd be db 07 cb be bc 5e d6 be 0e 54 ae be
       -0.36927563 -0.3965443 -0.41869152 -0.34048504
000010 5d 1e ca be 09 d5 d4 3e b8 d2 95 be 67 2f 87 bd
       -0.3947629 0.41568783 -0.29262328 -0.06600838
000020 9f 33 b6 be e5 5d 2f 3e 4b 07 d5 3e a9 76 89 be
       -0.3558626 0.17125662 0.41607127 -0.26848343
000030 fc a3 92 3e d4 d0 b3 3e a9 f7 bd 3e 31 ee f9 3e
       0.28640735 0.3512026 0.37103012 0.48814538
000040 70 f0 e1 3d 9c cd c6 be c0 11 f9 be 76 78 f8 be
       0.11032188 -0.38828743 -0.48646355 -0.48529404
000050 77 9e 73 bc 64 e5 78 be 82 d5 d4 3e 70 4b 73 3e
       -0.014869324 -0.24306256 0.41569144 0.23759246
000060 5e 5d 1b 3e d4 e5 a4 bd 5b 80 8d 3d a0 86 d6 be
       0.15172336 -0.08051649 0.069092475 -0.41899586
000070 02 ab ef be a2 c4 03 3f 91 dd c4 3e 8d da dd be
       -0.46810156 0.5147191 0.38450292 -0.43330804
000080 ad b5 ef be 5a 06 c9 3e 90 86 c9 be 7b fd 42 be
       -0.46818295 0.39262658 -0.39360476 -0.19042008
000090 c9 db c9 3e af 9b 83 be 0c 42 c7 be 48 21 67 bd
       0.39425495 -0.25704715 -0.38917577 -0.056428224
0000a0 da 25 de 3e 02 7c 6c 3e 2d 9f be 3e 3f e7 f6 3e
       0.43388253 0.2309418 0.37230816 0.48223302
0000b0 a8 b2 a5 3e 4a af a2 be 25 fb c8 be 8f f5 3a be
       0.32362866 -0.3177436 -0.39254108 -0.18257736
0000c0 2b c5 94 be db 85 97 3e a7 24 97 be 85 ba d7 3e
       -0.29056677 0.2959431 -0.2952015 0.4213449
0000d0 28 02 c2 be e9 8e c9 be 5d 7e 07 3e 71 33 ae be
       -0.3789227 -0.39366844 0.13231798 -0.34023622
0000e0 14 3f de 3e 1b 4a b8 3e 81 97 c0 be 86 9e 97 be
       0.434075 0.35994038 -0.37615588 -0.2961313
0000f0 b9 14 9e be ce 65 8d 3e 58 44 80 3d 01 8d dc be
       -0.30875185 0.27616733 0.062630355 -0.43076327

v.v_net.4.weight f4 [1, 64]
000000 6a 5c 8f c0 b0 cd 92 c0 a4 76 8a c0 80 84 a0 40
       -4.480031 -4.5876083 -4.3269825 5.0161743
000010 6c ad 90 c0 aa bb 95 40 c5 24 8b c0 47 2a 8e c0
       -4.5211697 4.679158 -4.3482385 -4.442661
000020 52 7b 8c c0 96 3d 97 40 4c 3b 97 40 13 33 a0 c0
       -4.3900537 4.726268 4.7259884 -5.0062346
000030 90 88 9d c0 1a 6a 8b 40 50 5d 8b 40 50 a6 98 40
       -4.92292 4.356702 4.3551407 4.770302
000040 42 df a5 c0 9c c9 a3 c0 aa 8d 9a c0 28 de 8b c0
       -5.183503 -5.1183605 -4.829793 -4.3708687
000050 35 6d 90 c0 d0 8c 97 40 50 4a 98 40 57 1a 90 40
       -4.513331 4.735939 4.7590714 4.5032153
000060 41 b8 a7 c0 47 bb b0 40 e5 4d b8 40 38 63 99 c0
       -5.241242 5.522861 5.7595086 -4.7933617
000070 3a 81 93 c0 a4 00 9c 40 b2 4d 8b 40 80 23 97 c0
       -4.6095247 4.875078 4.3532343 -4.7230835
000080 92 e9 91 c0 dd 92 a5 c0 9a 4c 8e c0 34 06 9c 40
       -4.559762 -5.1741776 -4.446851 4.875757
000090 c2 b2 8d 40 89 38 8c c0 86 f6 a5 c0 30 82 9a c0
       4.428071 -4.3819013 -5.186343 -4.828392
0000a0 8a d3 97 40 6c c3 b1 c0 9b 54 93 40 8a 7f a1 40
       4.7445726 -5.555105 4.604078 5.0468187
0000b0 d2 b5 89 40 6f d1 96 c0 24 73 a8 c0 29 72 96 c0
       4.303445 -4.7130656 -5.2640553 -4.7014356
0000c0 d2 1a 9c c0 68 ad 91 40 42 d4 88 c0 9e 70 a4 40
       -4.878274 4.5524178 -4.2759104 5.138747
0000d0 e8 c0 8c c0 a8 ab 97 c0 cd e9 95 40 3d af 9e 40
       -4.398548 -4.739704 4.68479 4.9588914
0000e0 40 67 96 40 71 2f 90 40 f4 31 97 c0 b4 6c a6 40
       4.7001038 4.505791 -4.724848 5.2007694
0000f0 c3 9a a3 40 f3 a2 96 40 29 a2 a4 40 64 03 8e c0
       5.112642 4.7073913 5.144795 -4.437914
