tmp/experiments/RN5 False,True,True/pyt_network_save/model save3000.pt (torch_old, 314919 bytes, 33 tensors)

pi.pi_net.0.weight f4 [64, 5]
00000000: 594f 883e 24a4 9abe 0636 143f 7680 64bc
00000010: cba3 043e 9017 54bb 13c8 0cbf d5c0 083e
00000020: 4669 543d 90ca 9bbe ee20 483e aecd b5be
00000030: bc7f 863e 81df 01be d2a4 20be 8715 553e
00000040: 0d9f 8dbe 2a35 e93d 7f6c 033e b01e c73d
00000050: 8c32 e53e 1f33 2b3d a218 3cbe deca 90be
00000060: f9b2 503e fe19 2c3d 222f 7ebe 6f51 14bc
00000070: 16a2 093d 28a6 283f f654 803d 4703 a9bd
00000080: 7ab6 083e b4bf cf3e d529 153d 1d12 c93d
00000090: 4b48 0f3c 4776 e23e a387 133c f089 403e
000000a0: c333 bdbd 477d 14be c07e cdbc 9011 6c3d
000000b0: 33e2 03bf 940c fdbe 0390 67be b91a f1bc
000000c0: 6d25 c03d 26dd 03bf 7deb 1cbe 7b78 c6bd
000000d0: 1aad 3bbd 4ef6 fbbe 5638 cbbd 5cb1 603e
000000e0: 0f6a 363e aa8f 3b3f 98e7 d3be 6f61 043e
000000f0: fcf2 bbbc 4863 f23c 539a 943d fcbb 1b3f
00000100: ef3e 883d c7df 8fbe 73e7 c8be 97dc 4b3d
00000110: bcee 0e3e 9f76 763e 9a27 bf3e 2cf2 b4be
00000120: 2f7a 833e f27c 693c 7de1 f73e 00ae 8a3e
00000130: 01d5 c2be 3682 85be 400c a9be 0e13 723f
00000140: 0ddb 92be 4735 b6be b7ad 1e3e eab7 b2be
00000150: f63f 063f 6e49 2e3d 9f70 993c 4d01 65bd
00000160: e90c 90be d8d7 9dbe d378 3d3d b888 873c
00000170: bcbf 81bd 6370 81bd a8e6 f3bd 7d58 e5be
00000180: 7cde 1cbf 6717 523c 2d6f 9cbc 5cc2 0b3e
00000190: 0551 3abf 31df a43e 04ee 3abe 560f 24be
000001a0: 81ab b53e 9042 633e 5e76 98be 3caa 633f
000001b0: 35c6 f5bd 5c17 ef3d 8dc3 13bf b380 ff3d
000001c0: 82f0 653e 000e 1f3d bd99 213f 3bbb c0bd
000001d0: 9cc3 94be e7e9 003e 4625 b8be 6dac c83d
000001e0: a2a0 c23e 5dc8 d93d 5d17 8dbe cd15 583e
000001f0: 19c6 68bc 7427 963d 98ef 013e 3553 433f
00000200: 02b4 01bb cc71 a13e dada 8a3e ddb6 87be
00000210: 835c e33c 8c6c 233f 39c4 63be 374c bd3e
00000220: e285 69bd c0a3 113e 6500 32bf 9011 773e
00000230: 3be9 f6bd f5d6 783e 2a85 41be 2baf 9e3e
00000240: 0ae5 443e f77e a13e 1d8e fd3d 01f6 193f
00000250: d652 923d 3dcc cb3e 0a0e f23d eebd 99bd
00000260: 19f1 0cbd 7d93 3dbf 94ef ff3e a9ef 353d
00000270: f512 11bf 2ba4 32be 335a 3bbe a092 f73d
00000280: 1dc3 5dbf 8d24 30be 5dbf c0bd e21b 8abd
00000290: b815 f8bd c50b 3fbe 2c92 9cbe 9202 8bbe
000002a0: 6e54 45be 9037 823c 795e b63d 28b0 34be
000002b0: fdf7 96be 1dec 29be 2eec 3e3d 568a d8be
000002c0: 5805 2e3e efdc 173f c537 1a3e d2a1 2a3f
000002d0: e2e5 33be aadf b4be c311 cebe db08 f5be
000002e0: b591 0abe faee 273e e246 b7be a0b2 b3bd
000002f0: f0f2 4ebd ccf0 803d 310e eb3d 34e7 123e
00000300: 6105 d93d c220 b63e 64ba bdbc 7de5 793e
00000310: ccec 783d dec6 c8be 6863 803e 4335 d8be
00000320: e16e 063f ef48 3cbe 4714 033e b6ac 46bc
00000330: 5c9f 853d b659 a4be 98c1 6ebe 04e9 52be
00000340: bb64 1abf 0401 b23c 3f97 993d c740 30be
00000350: eab9 f2be fea7 1fbe 5baf b83e 91ad 823e
00000360: 32a8 fe3d 5477 c23e 523c 81be 3511 bcbe
00000370: c69e ae3e 7cf5 49bf ef0f 4e3e 33d1 81bd
00000380: 43d2 c83e 15d3 603e 1790 253e 43d3 b6be
00000390: 86eb c5be 67f8 1f3e 2711 943e 0337 4c3d
000003a0: 9fe6 43be 903f acbd 31e3 e83e 147b 603e
000003b0: accd fabe 69a3 903e 3fbc bd3d b981 173e
000003c0: 6d5f f1be 54ce 873e 08bd 0abf 6851 f23d
000003d0: 6658 0f3e bc72 92be e9ef 2a3e eae2 2a3e
000003e0: 954d 883e 0fae e53e b0a0 d8bd 0481 0dbf
000003f0: a92a 283e b41d 38be 6a47 efbd 26e2 85bd
0.26623037 -0.30203354 0.57894933 -0.013946643 0.12953107 -0.0032362677 -0.5499279 0.1335481
0.05185821 -0.3042798 0.19543812 -0.35508484 0.2626933 -0.12682916 -0.15687874 0.20808993
-0.2766041 0.11387093 0.12834357 0.0972265 0.44765127 0.0417968 -0.18368772 -0.28279775
0.20380773 0.042016976 -0.24822667 -0.009052618 0.033601843 0.65878534 0.06266205 -0.08252578
0.1335086 0.40575945 0.036416847 0.09817908 0.008745263 0.44230863 0.009004506 0.18802619
-0.092383884 -0.14500915 -0.025084853 0.057633936 -0.5151703 -0.4942366 -0.2261353 -0.029431688
0.093821384 -0.5150932 -0.15324207 -0.096909486 -0.04581938 -0.49211353 -0.099228546 0.21942657
0.17813896 0.7326609 -0.4138763 0.12927793 -0.022943012 0.029588357 0.072559975 0.60833716
0.06652629 -0.28100416 -0.39239082 0.049770918 0.13958257 0.24068688 0.373349 -0.35341012
0.25679156 0.014250981 0.4841422 0.27085876 -0.38053134 -0.26075906 -0.33017159 0.94560325
-0.28682747 -0.35587522 0.15495954 -0.3490594 0.52441347 0.042550497 0.01873046 -0.055909444
-0.2813485 -0.30828738 0.046257805 0.016544685 -0.063353986 -0.06320264 -0.119092286 -0.44794074
-0.61276984 0.012822962 -0.019095981 0.13648361 -0.72779876 0.32201532 -0.18254858 -0.16021475
0.3548241 0.2219336 -0.29777807 0.8893163 -0.120006956 0.11674377 -0.5772026 0.12475719
0.22455028 0.03883171 0.6312521 -0.094107114 -0.29055488 0.12589227 -0.35965937 0.097985126
0.38013178 0.106339194 -0.27556887 0.21102066 -0.014207386 0.07331744 0.12689054 0.7629884
-0.001979113 0.31532133 0.27120095 -0.265067 0.027754074 0.63837504 -0.22242822 0.3697221
-0.057012446 0.14222622 -0.6953185 0.24127793 -0.12056204 0.2430075 -0.18898454 0.30993018
0.19227996 0.3154218 0.123806216 0.60141 0.07144706 0.3980426 0.11819084 -0.07506929
-0.034409616 -0.74053174 0.4998747 0.04441801 -0.5666955 -0.17445438 -0.18296127 0.120885134
-0.86625844 -0.17201443 -0.094115 -0.067435995 -0.121135175 -0.18656833 -0.3058027 -0.27150398
-0.19270489 0.015895635 0.08904738 -0.17645323 -0.29486075 -0.16593976 0.046611957 -0.42293042
0.16994226 0.5932149 0.15060337 0.6665317 -0.17568162 -0.35326892 -0.40247926 -0.4785832
-0.13532145 0.16399756 -0.35796267 -0.087743044 -0.050524652 0.06295928 0.11477316 0.1434601
0.10596729 0.35571867 -0.023160167 0.24403949 0.060772702 -0.39214224 0.2507584 -0.42228135
0.5251294 -0.18387197 0.12800704 -0.012126138 0.06524536 -0.32099694 -0.23316038 -0.20596701
-0.6030995 0.021729 0.07499551 -0.1721221 -0.47407466 -0.15591428 0.36071286 0.25523046
0.124344245 0.37981665 -0.25241333 -0.36731878 0.3410551 -0.78890204 0.20123266 -0.0633873
0.39222917 0.21955521 0.16168247 -0.35708055 -0.38656253 0.15622102 0.28919336 0.04985715
-0.19130944 -0.08410561 0.45485833 0.2192195 -0.4898504 0.28249672 0.09264421 0.14795579
-0.47143117 0.26524603 -0.5419469 0.11831933 0.13998565 -0.2860316 0.16693081 0.16688123
0.2662169 0.4485936 -0.10577524 -0.5527499 0.16422524 -0.17980081 -0.11683543 -0.06537275

pi.pi_net.0.bias f4 [64]
00000000: 0fab 2e3d d33e 49bd a474 783d 6f9a 8cbd
00000010: 3e6c 253c df72 6b3d 12d8 dd3b 5b25 013e
00000020: 10b5 16bd 87be d3bd 7754 39bd 4327 1a3e
00000030: 7e64 d83c c2e5 2d3c b006 433d 36ac f1bd
00000040: 1f86 39bd 003a 82bd ed11 533d de63 bcbd
00000050: 7364 693d d66d 2d3d 82b6 003c 1d02 863c
00000060: b8f2 9bbd 1bca 5f3d 0783 603d f170 10bd
00000070: 8856 903c f6eb 563d ca87 02ba 07f0 69bd
00000080: 1fce a1bc eb63 383d 1c20 743d edc8 f8bb
00000090: 28d7 20be e28f 423c 3f5d 913b b385 c53b
000000a0: 1aec afbc c64e 5ebc ebba 10bd a280 f5bd
000000b0: 7a76 a83d 52e5 57bd cce2 5e3d ac5e 1d3e
000000c0: 8aa4 423d 15cb 203d 790a 75bd 41e8 293d
000000d0: 00ca 44be b47b a9bc 9d15 e23c 0717 bfbd
000000e0: ab00 d03c 62d6 c43d 100e 0fbd 1ac7 b73b
000000f0: 0441 ccbd f7f0 09bd 92f6 3bbd db04 8f3d
0.042643603 -0.04913218 0.060658112 -0.06865393 0.010096608 0.057482596 0.0067701424 0.12611906
-0.03679377 -0.103390746 -0.045246568 0.1505404 0.026415106 0.010613861 0.0476138 -0.11800425
-0.045293923 -0.06358719 0.051530767 -0.09198736 0.05698056 0.042341076 0.007856013 0.01635843
-0.07614654 0.054636102 0.054812457 -0.03526396 0.017619386 0.052471124 -0.00049793406 -0.057113674
-0.019751607 0.045017164 0.059600934 -0.0075923116 -0.15707076 0.011875125 0.0044361646 0.006027901
-0.021474887 -0.013568586 -0.03533451 -0.119874254 0.082257226 -0.05270893 0.05441551 0.15368146
0.047520198 0.039256174 -0.05982444 0.04148126 -0.19217682 -0.020688869 0.027598197 -0.09330564
0.025390944 0.09611203 -0.03492552 0.0056084516 -0.09973338 -0.033677068 -0.045889445 0.06983348

pi.pi_net.2.weight f4 [64, 64]
00000000: d1de c5be 2942 d1bd 60ab edbd 4b76 e63d
00000010: 7205 a93d 61a3 17be d803 5b3d 8e55 c2bd
00000020: 6234 b7be c3cc 1c3e 8ad9 7f3b df0d e13d
00000030: 045a 7ebe beac cf3d e6b5 0cbe a2f8 923d
00000040: fab6 4cbe 4579 2b3e eb43 1ebe 7e0d 843e
00000050: dcb3 d2bd 6b9c ac3d 9af0 09be 4730 eebd
00000060: 4c9e 4b3e d9e5 96be 7f0e 8fbd c5d0 62be
00000070: 93d8 0f3d e29b b83d f39c 65be 2352 6a3e
00000080: 8cd7 38bb 88e2 fbbd df67 bfbd a6cc 2bbe
00000090: de62 4e3e c29e 33bf e4a4 86be 02dc ce3e
000000a0: 9d75 6e3d 1350 aa3d 731f 8a3d eb53 c93d
000000b0: 9715 02be d491 0f3e 0454 17bf 5579 70be
000000c0: 044f d4be 1d9a 963e 753e fe3e 6222 8b3e
000000d0: c289 393e d2ff de3d 669f b73e 9b6e 48be
000000e0: d51a 13be 0026 5b3d c8f1 f0bd 8e8d 913c
000000f0: 39a7 d03e 71b6 5a3e 2aa0 8fbe 4a0f 8e3e
00000100: bd5a 07be 8c53 2b3e b3cd 9c3c 552c c2be
00000110: 2e42 e6bc fe66 b3bd 3ffd 98bc 90f3 a43e
00000120: f5ea 453e 5d05 9ebe 61c4 b33d 318b c9be
00000130: c6d0 363d 1f9a 043e dc20 09bd 5e01 a03e
00000140: e873 4e3d af33 e3be fa21 2b3d fd64 0bbe
00000150: 46fd 473e e9b2 c8be 6d54 b2be 27b2 cdbd
00000160: 41c0 9dbd bacd 89be 4d41 b2bd 7c7f edbd
00000170: 775e 1a3e 8f68 0f3e 3609 793d 05a0 97bd
00000180: 03db 90be 6073 443e f977 48bc 3dc2 68be
00000190: bdd6 28be baa2 9e3e 3e2f 2e3e 268f bf3e
000001a0: 2c6c 213e 5f98 933c f687 cc3e fdd7 08bc
000001b0: 1570 693d a71d 2fbd a52a 9e3d 9aa5 013d
000001c0: d73a 193f 4e5b 51bd 3829 f83d 8820 7b3d
000001d0: 8ffe 2fbe 60df 4f3e 56b7 843d f943 6e3e
000001e0: cb6e ac3e 5507 c3bd 4fc5 6a3d 2721 c83d
000001f0: dfbf 88be 5ef9 d03d 6f0f 2dbe 92ee e0bd
00000200: bb7f 85be a19c 27bd be7e 06be 3586 a3be
00000210: a53d b8be 7adc 863e ac2a 54be da15 d5bd
00000220: 897a a73e dfa2 69be ecbd 883d 283a 44be
00000230: 7b44 2b3d f622 753e 899b 85be f681 bf3d
00000240: 71ea 61be 95a8 833e ce5d a1bd f54f 29be
00000250: a6d9 d83e bafd 5d3d a873 5abd d2b5 4cbe
00000260: 90d1 4cbd 8cff 9f3d 1121 7e3d f753 10bd
00000270: 38b1 a2bd 765a a73d b82f 253e a32e 963d
00000280: 3401 c6be b871 9fbd a319 7bbe fdbd febd
00000290: 29b5 1bbe 4f1d 6f3e 4ba5 e43d ff99 2cbe
000002a0: 293e 723d 3caa 543e 98d7 dfbd a832 d4bc
000002b0: ae6f dcbc b2a8 0abd c32b 1c3e 2bd3 74be
000002c0: 2052 043f 1acd c1bd d1ad 09be d391 f03e
000002d0: 6337 46be a615 ab3e da73 3e3d ca9a 853d
000002e0: 50c6 953d 44de e73d 2b96 1e3e b7ae 0bbf
000002f0: 5f28 913d b1df 243e 7acb 803e ccc3 81bc
00000300: b364 0cbe bd7a a83e b716 a4be 97e3 0d3e
00000310: b1a4 8bbe f19b ad3d ed80 0ebe fcb3 b53d
00000320: 5924 063e c6e3 003e f1ab c8bd 7b03 8e3e
00000330: 5b7d 19bd 5c14 8f3c 07fb 4e3e dbc6 b73e
00000340: 96e0 4bbe 1da4 a43e 67f6 f13d d1fc 8ebe
00000350: 0fea c13d 536e 6d39 56b1 813d 6bac f1bc
00000360: 558c 43be 7d58 013e 0b75 f6bd 845d 95be
00000370: 7723 1abf d363 6a3d 9b73 36be 1999 30bd
00000380: dc90 2bbd 4fd9 5b3e eeab 29bd 5085 7d3e
00000390: 2f87 073f 72ab f1bd 97e4 03bf d6d1 92bc
000003a0: 4f11 003f 9560 093e ac4c b5bc ad37 293e
000003b0: 5206 7dbe 9604 993c e615 f9bc c76d 42bd
000003c0: e9a1 62be fff1 20be 8887 963e 2a6d 1dbe
000003d0: cb6c 403c 344d 3dbe 78db cf3d 2bdb 533e
000003e0: fd6e 00bd 3f27 293d 5210 cabc 0ec1 593d
000003f0: 0fdb 75be c5c5 c03d 57ea 013e 6593 bf3c
-0.38646558 -0.10217697 -0.11604953 0.11253031 0.08252992 -0.14808418 0.053470463 -0.094889745
-0.35782152 0.15312485 0.0039039575 0.10988974 -0.24839026 0.1014037 -0.13741264 0.07176329
-0.19991675 0.1674548 -0.15455596 0.25791544 -0.10288212 0.08428272 -0.13470688 -0.11630302
0.19884604 -0.29472235 -0.06985187 -0.22149952 0.03511865 0.09014107 -0.22423153 0.22882895
-0.0028204648 -0.12299067 -0.09345984 -0.16777286 0.20154902 -0.7016412 -0.26297677 0.40402228
0.058217634 0.08316054 0.0674428 0.09830459 -0.12703548 0.14020473 -0.5911257 -0.23483784
-0.41466534 0.29414454 0.49657026 0.2717467 0.18118957 0.108886376 0.358638 -0.19573443
-0.14365704 0.053503036 -0.11764866 0.017767694 0.4075258 0.21358658 -0.28051883 0.2774604
-0.13218208 0.1673109 0.019141054 -0.37924448 -0.028107729 -0.087598786 -0.018675445 0.32217073
0.1932791 -0.30863467 0.08777691 -0.39364007 0.044632696 0.12949418 -0.033478603 0.31251043
0.050403506 -0.4437537 0.04178045 -0.13612743 0.1953021 -0.39198998 -0.34830037 -0.100437455
-0.07702685 -0.2691477 -0.087038614 -0.11596581 0.15075098 0.1400473 0.0607998 -0.07403568
-0.28292093 0.19184637 -0.012235635 -0.22730346 -0.16488166 0.30983526 0.17010209 0.374139
0.1576392 0.018016992 0.3994748 -0.008352277 0.056991655 -0.042752888 0.077229775 0.03165207
0.5985541 -0.051112466 0.12117237 0.06131032 -0.1718695 0.20300055 0.06480281 0.23268117
0.33678278 -0.09522883 0.057317074 0.09771948 -0.26708886 0.10203813 -0.16900419 -0.10983004
-0.26074013 -0.040920857 -0.13134286 -0.3193833 -0.3598453 0.26340085 -0.20719403 -0.104045585
0.32710674 -0.22816037 0.0667685 -0.1916281 0.041813355 0.23939118 -0.26095226 0.0935096
-0.22062089 0.25714555 -0.0787922 -0.16534407 0.42353553 0.05419705 -0.053332955 -0.19991234
-0.050004542 0.078124136 0.062043253 -0.035236325 -0.07943958 0.08171551 0.16131485 0.07333114
-0.38672793 -0.07785362 -0.24521498 -0.12438581 -0.15205826 0.23351024 0.1116434 -0.1685562
0.05914131 0.20768064 -0.10929793 -0.025903061 -0.026908722 -0.033852287 0.15251069 -0.23908679
0.5168781 -0.09462948 -0.13445212 0.46986255 -0.19357066 0.33414954 0.046497203 0.06523664
0.07313216 0.11321691 0.15486972 -0.5456347 0.07087778 0.16100956 0.2515524 -0.015840434
-0.13710289 0.32906142 -0.3204858 0.1385635 -0.27274087 0.08477009 -0.13916369 0.0887222
0.13099803 0.12586889 -0.0979842 0.2773703 -0.037473064 0.017465763 0.20212947 0.35893902
-0.19909891 0.32156458 0.11814576 -0.2792726 0.09468471 0.0002264318 0.06332652 -0.02950116
-0.19096501 0.12631412 -0.12034043 -0.2917291 -0.60210365 0.057224106 -0.17817537 -0.043114755
-0.041886196 0.21469615 -0.04142373 0.24757886 0.5294065 -0.11800279 -0.51520675 -0.017922323
0.5002641 0.1341575 -0.022131287 0.16525145 -0.24709442 0.018678945 -0.03040595 -0.047467973
-0.22132076 -0.15717314 0.29400277 -0.15373674 0.011744688 -0.18486482 0.10149282 0.20689075
-0.031355847 0.041297194 -0.024665985 0.053162627 -0.24009345 0.094127215 0.1268705 0.023385713

pi.pi_net.2.bias f4 [64]
00000000: a964 293c 029d e7bb 72b9 41bb 15ab 3fbd
00000010: aefb 853d ae16 e33d 275f 9a3b 3b02 4a3d
00000020: 663e f2bd 681c 28bd e2ae 8abd ab10 8cbd
00000030: 925c 573d 7ae3 37bd 5c4a 2d3c e9c7 a0bd
00000040: 853a 583c 950b 963d 8206 8a3c 8a07 a6bd
00000050: be5f 893b abce c73d aa25 083d baa4 0c3e
00000060: 99ad 8c3d ce5f b93c e28d 933c 28ce 40bc
00000070: 25f5 203d 1051 973b 96b8 1ebd 5433 55bc
00000080: 42aa 88bd 8d93 cd3c 5a48 67bc cfc3 ccbd
00000090: 8f4d 14be b2cd 9a3d d964 c8b9 23d5 25bd
000000a0: ff95 0d3e 9198 a0bb f984 58bc 78e3 ccbc
000000b0: c910 2ebc 8f19 993c cb97 163d 2b91 bf3d
000000c0: 1685 8ebd b929 853c 8f85 17bd bf63 eebc
000000d0: 7884 b6bd 1321 69bb 6209 b23c e31c 4e3d
000000e0: 2f4b c13d 8e5e 06bb e990 32bd cafc 29bd
000000f0: ba90 6f3d 87ba 9d3c d892 8ebd 889b aa3d
0.010338941 -0.0070682773 -0.0029559997 -0.046794016 0.06542145 0.1108831 0.00471105 0.049318533
-0.11828308 -0.041042715 -0.067716375 -0.06839117 0.052578516 -0.044894673 0.010576811 -0.0785063
0.013197546 0.07326428 0.016848806 -0.08106907 0.0041923216 0.09756216 0.033239044 0.13734713
0.068690486 0.022628691 0.018011991 -0.0117679015 0.039296288 0.0046178177 -0.038750254 -0.013012726
-0.06673099 0.025094772 -0.014116371 -0.09998285 -0.14482711 0.075587645 -0.0003822211 -0.040486466
0.1382675 -0.004901 -0.013215297 -0.02501081 -0.010624119 0.018688945 0.036765855 0.093538605
-0.06958978 0.016255246 -0.036992606 -0.029100297 -0.08911985 -0.0035572692 0.02173299 0.050320517
0.09438168 -0.0020503136 -0.04359523 -0.041500844 0.05848763 0.019253982 -0.06961602 0.083304465

pi.pi_net.4.weight f4 [256, 64]
00000000: e3bb 7bbe 45b5 d33b 6803 f83d d3d6 0d3d
00000010: 7a14 d4be cf84 1c3e 4676 a2bd da78 4b3d
00000020: ea5d 063e 99b5 4f3d 8380 8bbe d254 a63d
00000030: be07 24be 827b 0f3e 0043 913d f94d 073b
00000040: a11e 063c bc35 aa3a 9b15 54be 6e0e 393e
00000050: 853d 373e 07af 3d3d 4d79 d63e 8e57 70be
00000060: a28b 4c3e 5e53 0ebe 8642 01bd 5485 0cbe
00000070: b7f3 2a3e 10aa 103e 4202 bcbd d290 74be
00000080: 1bb8 10be e381 e1bd dd08 893e 0542 013e
00000090: 80e8 543e 75a5 373e 2f31 cc3d af5d 31be
000000a0: c237 3e3e acbc 1c3e 1afc 103e e18e 3dbe
000000b0: 1d18 4bbe 8518 fa3c 28f0 cf3d 41b7 5a3e
000000c0: d466 983d 42e5 b9b9 83e9 e9be a6f8 863d
000000d0: 7257 53be f9a4 123c 61b3 13bd 1405 443e
000000e0: c5c7 0a3d 0f84 f23d f08b e5bd 166c 493c
000000f0: 2c0e b53d 2d6a d23b b2eb e5be e4a1 0bbe
00000100: 94b6 8c3e 1c05 2fbe e590 d7bc e98c 373c
00000110: 2be5 193e b908 6ebd 9781 333d 9b75 af3d
00000120: 2f33 983d 64f5 a43c 4d06 71bc b75d 723e
00000130: 960f 633e 4050 62be 9c8d fcbd ff87 4fbe
00000140: 44eb 4b3e 1964 3fbd 2272 92bd a1f9 bb3d
00000150: 3e41 a13d cd75 2dbd cf7a 85bd 4534 ff3d
00000160: 07d1 583e 9e2d fa3d 80bf 113c 750d c73c
00000170: 019a 0c3e 52a9 38be f63c b63d 3cde a03d
00000180: 1f9b b6bd 62c4 78be 09ee 0a3e 86cb 1e3e
00000190: de97 a1be a930 9abc 7815 4cbe f1d8 e73d
000001a0: 2396 7dbe bb08 c23c ccd2 bdbd adbb 7bbc
000001b0: eb6b 4fbc 398f 953c 121e c63d 8906 65bd
000001c0: 41e5 1b3e 50df 08be 1bfa fe3d 908f 023d
000001d0: a524 6cbb 7910 5b3b fe13 e33d bb5a 103e
000001e0: f338 393d 3cd2 953a c1d8 103e 41fa 0b3e
000001f0: da9f 5dbe 6d27 db3d 7a5b 4b3e 11a0 0cbe
00000200: 6b7d d43c 3cfb 873d c7e0 033e ce1d 763d
00000210: 9ca3 af3e b575 05be dca7 6fbd 2422 a6be
00000220: d4b1 9fbd 6dbd 6e3e cdd7 8b3e ab3e 3c3e
00000230: 026a c83d f712 813d 145b 053e 8bdb d8bd
00000240: 8205 87bd 6b82 8e3e 9eb7 61be 688e c23c
00000250: bb86 a5bd f171 70bc 73d4 dc3c df20 a03d
00000260: 2f80 f33d 0a87 b33d 0dcb 1abe 012f 2b3e
00000270: ea9d 923c 90af 2c3d e6d0 34be 1d38 6b3e
00000280: 784e e63d 5b61 53bd 04de d13d 1000 15be
00000290: 2feb 093e aa69 04be 4971 bebd 4a4e 4ebd
000002a0: c3e2 b13d 7102 5a3c 0083 3abd 0d4f 943d
000002b0: 8f5c 9d3d 3aa2 b53c d313 9cbc 5437 d53c
000002c0: cb28 463e 41cd c7bd c38e 09bd 2da4 78bd
000002d0: a093 ae3c e1a9 c63d b024 973d 3e97 2fbe
000002e0: f100 f5bd 21b2 2f3e 00c9 10bd 4802 7d3c
000002f0: 7a3a e7bd b8db 2dbe 1332 d8bd 9877 3dbe
00000300: 780b cf3d a5cc 50be 4175 3fbe dc00 a63d
00000310: 8261 c03c 3b70 763b 94d5 2dbc 9b72 3dbe
00000320: a138 503e d21f dd3c ece2 c6bd 459b 1abe
00000330: c6b7 33bd f48a 193e 7b56 d13c 17f0 07be
00000340: 33d7 a8bb d359 8cbd 9096 3f3e f98f 253e
00000350: 4ef1 283e 1d5d 28bc 08b5 b6bd a293 7bbd
00000360: feef d5bd 3ba2 06be e2eb 763b caa3 0cbd
00000370: 654c 05be a573 a6bd 5a75 56be 13f5 1ebe
00000380: e974 3abe 8e1c 003c c359 4dbc dce2 5dbd
00000390: 742e e93c ac5d 88be 9e3a a2bd 9f2a 9f3d
000003a0: 90b2 073e 9861 df3c da98 a33d 7b13 86bd
000003b0: cb12 18be 2686 39bd b8f8 e4bc 5238 023e
000003c0: a88e 52be d544 f0bd b953 ccbe ec01 36bc
000003d0: b3bb 84be 9fb0 833d b0eb 283d 942f fb3d
000003e0: 4725 26be e684 00be 3646 b1be a5d9 f23d
000003f0: c4c2 e13c 961f b13d bc59 273d 9ad5 ff3d
-0.24583392 0.006460818 0.12110025 0.0346287 -0.41421872 0.15285037 -0.07932715 0.0496758
0.13121763 0.050710294 -0.27246484 0.08121647 -0.16018578 0.14011958 0.07092857 0.002064584
0.008186013 0.0012985985 -0.20711367 0.1807191 0.17894562 0.046309497 0.4188942 -0.234709
0.1997514 -0.1389899 -0.031557582 -0.13722736 0.16694532 0.14127374 -0.09180118 -0.2388337
-0.1413273 -0.11011102 0.26764575 0.1262284 0.20791817 0.1793421 0.099703185 -0.17320894
0.18575957 0.15306348 0.14158669 -0.18511535 -0.19833417 0.03052927 0.10153228 0.21358968
0.07441488 -0.0003545676 -0.45685968 0.06590395 -0.20638826 0.008950465 -0.03605974 0.19142562
0.03388192 0.118415944 -0.112083316 0.012293836 0.08840594 0.0064213485 -0.44906384 -0.13635975
0.27483046 -0.17091793 -0.026314208 0.011203029 0.15028827 -0.058113787 0.04382476 0.08567353
0.074316375 0.020136543 -0.014710975 0.23668562 0.22173914 -0.22100925 -0.12331697 -0.20266722
0.19913965 -0.04672632 -0.07150675 0.09178472 0.07873772 -0.04234867 -0.065175645 0.124611415
0.21173488 0.12215732 0.008895755 0.024298409 0.13730623 -0.1803334 0.08898346 0.07854888
-0.08916306 -0.24293664 0.13567366 0.15507326 -0.31561178 -0.018822031 -0.19930065 0.11320675
-0.24764304 0.023685804 -0.09268722 -0.01536457 -0.012660007 0.01825677 0.09673704 -0.055914436
0.15224172 -0.13366437 0.124500476 0.031875193 -0.0036032584 0.0033426567 0.110877976 0.14097111
0.045220327 0.0011430453 0.14145185 0.13669683 -0.2164301 0.10700879 0.19859114 -0.13732935
0.02593871 0.06639716 0.12878715 0.060087018 0.34304512 -0.13033183 -0.058509693 -0.32447922
-0.0779759 0.23314448 0.2731308 0.18383281 0.097858444 0.063024454 0.13023025 -0.105887495
-0.065928474 0.27833876 -0.220427 0.023749545 -0.080823384 -0.014675603 0.026956772 0.0781877
0.118896835 0.08765991 -0.1511652 0.1671715 0.017897565 0.042159617 -0.17657813 0.22970624
0.112454355 -0.051606517 0.10247424 -0.14550805 0.13468622 -0.12930933 -0.09298951 -0.05036763
0.086858295 0.013306246 -0.045535088 0.0724164 0.0768367 0.022172082 -0.019052422 0.026027359
0.19351499 -0.09755946 -0.033583414 -0.060703445 0.021310627 0.097003706 0.073800445 -0.17147538
-0.1196307 0.17157795 -0.03534794 0.015442438 -0.112904504 -0.16978347 -0.10556426 -0.18502653
0.10109609 -0.20390566 -0.18697073 0.08105633 0.023483995 0.0037603516 -0.010610003 -0.1850075
0.20334102 0.026992712 -0.09711251 -0.15098293 -0.043876432 0.14994413 0.025553932 -0.13275181
-0.005152607 -0.0685307 0.18709779 0.16168202 0.164983 -0.010276106 -0.08921248 -0.06142009
-0.104461655 -0.13147824 0.0037677218 -0.03433589 -0.13017423 -0.08127526 -0.20943204 -0.15523176
-0.1820866 0.007819308 -0.012533608 -0.054171428 0.028464533 -0.26633966 -0.079213366 0.07771801
0.1325171 0.027268216 0.079881385 -0.06546684 -0.14850919 -0.04529395 -0.02795063 0.12716797
-0.20562232 -0.11731879 -0.39907625 -0.011108857 -0.25924453 0.06430172 0.041240394 0.12264934
-0.16225158 -0.12550697 -0.3462388 0.11857919 0.027558692 0.08648603 0.04085706 0.12491913

pi.pi_net.4.bias f4 [256]
00000000: 5954 dc3d 8071 dcbc cd77 033c 82a9 3b3d
00000010: f3a6 e1bc 05c7 813d 8a65 733d 972a 0e3e
00000020: e046 863c dc6e 043d 9f04 813d 72c5 383d
00000030: 6e5e 803d 6263 2c3d f58f ba3d 5df3 ef3b
00000040: 8223 d03c 1330 ac3c 2cc7 ff3c b3a0 0b3e
00000050: 6192 b23d 5bd0 533e 06ea 813d 67f1 a53d
00000060: 91b2 d53c 2119 933d 7d67 0b3d 1f6e ae3d
00000070: 8acb 913d dbbb 133e 9268 9f3c d102 e4bb
00000080: d776 e33d 8d3f 083d a690 b7bc 53a4 cc3d
00000090: fdf7 c63c e4dd 393d f704 0c3c f82a 9f3c
000000a0: 9fc9 2b3e 4b35 4a3d fad5 a53a f2a9 1a3e
000000b0: d168 963d 68bc ad3d f83a 82bc ea08 7e3d
000000c0: 32db f73d d3b3 b03d 0aa0 5a3c e6e8 0c3d
000000d0: f82a fa3c d861 8abc 00ba ba3d ec26 bbb9
000000e0: 4341 b03d 8b69 8a3c 68b6 e6bb 3631 913d
000000f0: 26a2 263c fe62 a13d 2438 a23a b0c0 3abd
00000100: 1d91 a23d 265f 653d a239 d43c 6420 74bd
00000110: f3bd eb3c a9c1 f83c 3f0d ad3c 99f0 953d
00000120: b2e4 1cba 03cd 193e 089b 593d 8b8a b13d
00000130: 7e17 ed3c 1ebd 87bd 861c a33d da5a bc3d
00000140: 4a1d 983d 3f19 893b 0b19 9bbb 56e2 5f3d
00000150: 5978 43bd fa72 0f3e 37d9 953c e399 283d
00000160: b833 9e3d 140d fc3d a6a1 5f3c d9a1 c63d
00000170: 866e f33c ffd7 143d da0a 1f3d a898 693d
00000180: 6edd a93d 3c94 5a3d 376c 093e d732 153e
00000190: 149f a33d 4d51 e43d b67e 8b3c 36b5 02bb
000001a0: 5ae1 873d ae47 fe3c 639f aa3c d955 283d
000001b0: cc5d 9b3c b0a7 163d 6ac3 cabc 12bb 9e3b
000001c0: 7f84 393b b0e0 163b 5542 533d cded db3c
000001d0: c5de c0ba 6dda 73bc 7812 8dbc ed39 a83d
000001e0: a643 fc3a 2d2a de3d 70b8 293d 401c b1bc
000001f0: c103 4f3d 99aa 7bbd 23a5 a83c cf0c d83c
00000200: dfba b53d f4e2 0cbc 8c7b 88bc 8730 a53d
00000210: 8137 093d a6f9 803d b5e1 983d 5eef 2d3c
00000220: b97f 153d 6a1b 07bd 52ab 913c 3416 58bd
00000230: d634 533c 1364 2b3d 1338 edbb 8892 183e
00000240: afad e1bc 45c4 893d 2f7f 373c 2b2a f83c
00000250: 5a3d ef3d 7b25 bd3d d3b7 733c b612 723d
00000260: 4e8a 253d f5d1 ae3d 3773 463d 7637 ce3d
00000270: 1ed1 1c3e 6138 293d 7e4d ba3d d7cb e23c
00000280: e092 db3d 3b38 0e3d b836 253c c2ac 6a3d
00000290: 8f67 133c af8d e33d b949 f53d 014e 6d3b
000002a0: d4f5 973d 686d ba3c 5169 8bbc ae96 bd3d
000002b0: 76b0 b63d 01af 543d d374 d53c 3fdf 23bd
000002c0: 07c1 a43c de01 653d ff09 31bc 9fd3 bd3c
000002d0: 2b42 173d de31 043e a7ad b7bc a86e b53b
000002e0: 02f1 9cbb aacd 3dbc d7af 313d 033f ceba
000002f0: e24a b13d 72c9 333e b869 4dbc 0b59 263b
00000300: 6195 083e 9824 3c3d 1f6f 5d3d 5d82 eb3d
00000310: 46be 1d3d bbd0 c83d caeb 0b3e 79b6 a63c
00000320: ffeb 143c 024c 2c3c efc0 b03d 8d2c 1e3d
00000330: c90d 143d 9adf 033d def4 063e ad2f 0c3d
00000340: 5103 b63d c641 00bd 41a8 1a3e 7eb0 cebc
00000350: a2d3 6ebd 8c6f c93c 59a0 e23c f65a c23d
00000360: 3a4c 2b3d efb8 1b3d ea3f d43b 1a07 973d
00000370: 2f99 533d 0b27 afbc 118b f13c 718d 12ba
00000380: ed4a 053c d8fd c83d cba9 9a3d 133e 8a3d
00000390: 5c8e b03c 5131 803d fcc0 9b3c 9788 c53d
000003a0: d8ef 3abd 796d cc3d 5f35 7a3d 629c 873c
000003b0: c9cc 513d bed0 b5bc daaa b93d 4c93 d93d
000003c0: 156e 013c 443d 063c ce66 9dbc a5b5 af3d
000003d0: 99aa 843d 09d6 623d f408 a23d 984e 48bd
000003e0: 3382 153c 9426 cd3c 50ad 963d 1f69 90bc
000003f0: e11c a03d 1a66 95bc 9924 ac3d 31df b23b
0.107582755 -0.02690959 0.008024168 0.045815952 -0.027545428 0.06336788 0.059423007 0.13883434
0.016391218 0.032332286 0.062997095 0.045110174 0.06268011 0.042086966 0.09109489 0.0073227123
0.025407556 0.021019017 0.031222902 0.1363552 0.08719326 0.2068495 0.063434646 0.081026845
0.026086124 0.07182527 0.03403424 0.08517098 0.071189 0.1442713 0.019459043 -0.0069583436
0.11106651 0.03326373 -0.022407841 0.0999228 0.024288172 0.045377627 0.008546106 0.019429669
0.16776131 0.04936723 0.0012652271 0.15103891 0.07344211 0.08483201 -0.01589726 0.06202022
0.12102355 0.08628049 0.01334382 0.034401797 0.030538067 -0.016892359 0.09117508 -0.00035696418
0.08606198 0.01689603 -0.0070407875 0.07089464 0.010170495 0.078802094 0.001237635 -0.045593917
0.079378344 0.055998944 0.025906388 -0.059601203 0.028777098 0.030365782 0.02112448 0.07321281
-0.0005985006 0.15019612 0.053126365 0.08669003 0.028941866 -0.06627868 0.07964425 0.09197016
0.074274614 0.004183918 -0.00473321 0.05465921 -0.047722194 0.14008704 0.018292053 0.041162383
0.07724708 0.12307182 0.01364938 0.09698839 0.029715788 0.036338802 0.03882871 0.05703035
0.082941875 0.053364024 0.13420187 0.14570175 0.07989326 0.111483194 0.017028194 -0.0019944436
0.06634779 0.031040039 0.020827955 0.041097496 0.018965624 0.036781013 -0.024751384 0.004844078
0.0028307734 0.0023022108 0.05157693 0.02684679 -0.0014714828 -0.01488362 -0.01722072 0.082141735
0.0019246235 0.10847888 0.04143566 -0.021619916 0.05054069 -0.06144199 0.020586556 0.026373295
0.088735335 -0.008599032 -0.016660474 0.080658965 0.0335002 0.06297617 0.07464925 0.010616152
0.03649876 -0.03298513 0.017781887 -0.05275555 0.012891015 0.041843485 -0.0072393506 0.14899647
-0.02754864 0.067268886 0.0111997565 0.030293545 0.11681624 0.092356645 0.01487537 0.059099875
0.0404151 0.0853614 0.04844972 0.10069172 0.15314147 0.041313533 0.09096812 0.027685089
0.107213736 0.034721594 0.010083847 0.05729366 0.008996858 0.111110084 0.11976952 0.0036209824
0.07419935 0.022757247 -0.017017992 0.092572555 0.08920376 0.05192471 0.026056683 -0.040007826
0.020111574 0.055909984 -0.010805606 0.023172198 0.036928337 0.12909648 -0.022421671 0.005536873
-0.0047894726 -0.011584679 0.043380585 -0.0015735332 0.08656861 0.17557314 -0.012537412 0.0025382664
0.13338234 0.045933336 0.05406105 0.11499474 0.038511537 0.09805437 0.13664165 0.020350682
0.009089469 0.010516169 0.08630549 0.038616706 0.03614596 0.032195665 0.13179347 0.034225155
0.08887351 -0.031312726 0.15103246 -0.025230642 -0.058307298 0.024589323 0.02766435 0.09490006
0.041820742 0.038018163 0.0064773457 0.073744014 0.05165976 -0.021380922 0.029485257 -0.00055905344
0.0081355395 0.09814042 0.07551917 0.06750121 0.021552257 0.06259406 0.01901292 0.09645193
-0.04563889 0.09981818 0.061086055 0.016554061 0.05122069 -0.022194263 0.090657905 0.10623798
0.007899781 0.008193318 -0.01921406 0.08579568 0.064778514 0.0553799 0.07911864 -0.048903078
0.00912528 0.02504281 0.073572755 -0.01762825 0.07818008 -0.018237162 0.08405418 0.0054587354

v.v_net.0.weight f4 [64, 5]
00000000: fe9a fb3e 362d 583c 6a82 61bb 643c 2bbe
00000010: 21ae 163e 6d4e ed3e 094b 543f 194a 09be
00000020: 013b 8dbb 0823 b93e ddbe 583f 82a3 e53e
00000030: eb41 913e 01af 5bbe c93d 49be a0e3 df3e
00000040: 9a66 e63e cf65 a93c d023 b7be 2bac 6abd
00000050: ae40 b5bd 9354 3ebe 3789 c53e f2af 103f
00000060: 684e ad3e ba21 4cbd 380d fbbe 82b4 763d
00000070: 577e 093f 6659 203e af32 013f 9aee 133f
00000080: 36fb cf3e e254 c53e ac87 ec3d 24f7 663d
00000090: 92bf 043f 2830 6b3d 73ca 433d 172d 8a3e
000000a0: 63f1 153d 48f0 9b3e dcbf 593d 4c1c 1a3e
000000b0: 3402 863e 2b9d 593d 16da 0d3f 573e 46ba
000000c0: 1109 243e a654 e6bb 0011 8d3e 02cc 133f
000000d0: 57b9 90be f528 1bbd 8e74 683d 5a7f b53e
000000e0: 2832 033f 4761 56be 8048 5f3e 0a6d 2c3e
000000f0: e1f0 783e 7da1 203f 46ac bb3c c7e8 e83e
00000100: dea5 e6be b402 18bf b89a 2abf 3901 963e
00000110: f3b4 b93d 8e87 68be 58e8 82bf b735 f9be
00000120: 977e e7bd 1fd0 113f 93aa 0fbe d52b 423f
00000130: 1e51 293e 4319 683e ec04 c33e 199f 75be
00000140: 9db1 913e 1ff4 dc3e 74a5 8bbe 6a77 42be
00000150: aba1 10be 9512 94bf 9c6a f8be 2073 923d
00000160: afe0 013e 5364 81bd e1e2 ddbd c68f 9d3e
00000170: cd68 a83c ca95 c63c 5a1c 043c c916 0ebf
00000180: 05bc cdbe 4447 c23e e3ba 11bf 5f79 b8be
00000190: 275c fcbe ee22 aebe e8fe cb3b c9f3 8c3b
000001a0: f3cd 59bc e911 bbbe dc5c b2be d94c 083d
000001b0: 6e3f 683d 0241 25be 69b3 353d f3f4 213f
000001c0: 6b1b 8fbe 5d64 10be 4457 863e 15fc f5bd
000001d0: aeb9 abbe c423 26bf d1bb ba3d 2bee 113e
000001e0: 9c63 d83c f479 06bf 037f aebd 87ac c43b
000001f0: 2c8e 593e f392 cfbe 646d 3abf 1ebd 483e
00000200: 2758 c3bd 0c09 0ebf 3e6e 1fbf dbf2 10bf
00000210: 4fa2 7e3c c490 c2be 3da6 8c3d bcc6 67bf
00000220: b994 eebe 37f0 e8bd a7a0 313e 0639 083e
00000230: 182f bf3e c230 6b3f 6614 43be 9d78 f6bd
00000240: b14d e43d 3299 5bbc a806 153f 4fc1 d73e
00000250: 3abf 87be 4a61 563e 9c36 15bf 5fe0 58bf
00000260: b40b 0cbc 289f a73e 0ece 473d 8deb 39be
00000270: 8be6 513f 2aef 103e ed72 76be d65f dc3d
00000280: 604c 47be 5faa dd3e b861 8a3e f4f4 8bbb
00000290: e07f 383e 7c72 d5be 9f51 a6be fb41 a63e
000002a0: 170f 173d 6c6a 9bbe 7670 c8be 3bc8 17bf
000002b0: 52f8 bdbe 3ab5 f53c d0af afbd 9b2f 0c3e
000002c0: 3a6e 733f 2d21 113e 53a6 763d 7de0 a7be
000002d0: 9cc5 03bf 3da3 8fbf 80d0 133f fcc4 63be
000002e0: e3cb 85bd acdf d43e cd66 88bc dd86 d5bd
000002f0: ab3d 2d3e 8d03 233f 297c ddbe ae5f c9be
00000300: a7ec 82be 0b73 203f c954 8fbe 7069 013e
00000310: 00b9 473f da3c 6cba 1ca4 62bd 468e c03e
00000320: c960 083e 5258 9c3e 24bc 123f 65d6 163e
00000330: 01ac 2fbf 33c1 1b3d 9254 1cbf 2d1d a03e
00000340: 0b93 95be 4c6d 89be 17a2 2d3e ecab 3a3f
00000350: ece9 8abe def6 293d b054 bebd 3e60 d7bd
00000360: c7d7 2cbf f44f 7cbd a89e 17be ba59 50be
00000370: af9e cdbe 23fa 96bf 499e 53be 04d0 1a3f
00000380: 9dc3 4dbe 7119 4ebd 4ab4 1f3f 01de adbd
00000390: 84b4 4abe 0ca0 a43e 8115 f9bd 9330 fabe
000003a0: ad2d ebbd a246 88bc 6cd7 3fbc 8425 b6be
000003b0: 8c4e efbe 4fad 023e 3f64 46be ab82 693d
000003c0: a73c 3fbf 5ac5 07be 0fdf c0be 8db3 b6bd
000003d0: fe3b d8bd d57b dc3e 3e47 4f3f 299f b9be
000003e0: a897 803e dc6e c83d 115d 6dbd b921 c2be
000003f0: 80ef 4cbe 023c 19be da2a bbbe 2e5e cebd
0.49141687 0.013194373 -0.0034410008 -0.16722256 0.14714862 0.46348897 0.82926995 -0.13407172
-0.0043100123 0.3615954 0.84666234 0.4485131 0.28370604 -0.21453477 -0.19652475 0.43728352
0.45000154 0.020678429 -0.3576951 -0.0572931 -0.08850227 -0.1858695 0.3858125 0.5651847
0.33848882 -0.04983685 -0.49033523 0.06023074 0.53708404 0.15659103 0.5046796 0.5778595
0.40621346 0.38541323 0.11549315 0.056388035 0.51854813 0.057418972 0.047800492 0.26987526
0.036607157 0.30456758 0.053161487 0.15049857 0.26173556 0.053128403 0.554109 -0.000756239
0.16019084 -0.007029134 0.27552032 0.57733166 -0.28266403 -0.037880857 0.05675178 0.35448724
0.5124841 -0.20935546 0.21805 0.1683847 0.24310638 0.6274641 0.022909295 0.45490095
-0.45048422 -0.59379125 -0.6664233 0.29297808 0.090677164 -0.2270796 -1.0227156 -0.48673794
-0.11303442 0.5695819 -0.14029913 0.7584813 0.1653485 0.22665887 0.38089693 -0.23986472
0.2845582 0.43155 -0.27274668 -0.18990865 -0.14124171 -1.1568171 -0.48518836 0.071508646
0.12683366 -0.063179635 -0.10834289 0.30773753 0.020557785 0.024241347 0.0080634 -0.5550352
-0.4018251 0.37944996 -0.5692579 -0.360301 -0.49289057 -0.34011024 0.0062254556 0.0043015224
-0.013293731 -0.36537102 -0.3483647 0.033276413 0.056701116 -0.1613808 0.044360552 0.6326439
-0.27950606 -0.14100786 0.26238453 -0.120109715 -0.335401 -0.64898324 0.091178544 0.1425101
0.026414685 -0.52529836 -0.08520319 0.006002012 0.2124564 -0.405418 -0.72823167 0.19603392
-0.09538298 -0.55482554 -0.6227759 -0.5662057 0.015541627 -0.38001072 0.06867645 -0.9053762
-0.4659784 -0.11373942 0.1734644 0.13303003 0.37340617 0.91871274 -0.1905075 -0.12034724
0.11147631 -0.013403224 0.5821328 0.4213967 -0.26513082 0.2093555 -0.5828645 -0.84717363
-0.008547712 0.32738614 0.048780493 -0.18156262 0.81992406 0.14153734 -0.24067278 0.10760467
-0.19462729 0.43294045 0.27027678 -0.004271144 0.1801753 -0.41688907 -0.32484147 0.32472214
0.036879625 -0.3035463 -0.391483 -0.592899 -0.37103516 0.029993642 -0.085784554 0.13690035
0.9509007 0.14172812 0.060217213 -0.32788458 -0.514734 -1.1221691 0.5774002 -0.22243112
-0.06533029 0.41576898 -0.016650582 -0.10426114 0.16918056 0.63677293 -0.4325879 -0.3933081
-0.25571176 0.6267554 -0.27994373 0.12637877 0.7801666 -0.0009011753 -0.05533229 0.37608546
0.1331817 0.30536133 0.5731833 0.14730223 -0.6862183 0.038026046 -0.61066544 0.3127226
-0.29213747 -0.268412 0.16956364 0.7291858 -0.27131593 0.041495197 -0.092934966 -0.105164036
-0.6751675 -0.061599687 -0.14806616 -0.20346728 -0.40160128 -1.1795086 -0.2066585 0.60473657
-0.20094152 -0.05031723 0.62384474 -0.084896095 -0.19795424 0.32153356 -0.12162305 -0.48865184
-0.11483321 -0.016635243 -0.011709075 -0.35575497 -0.46739614 0.12761424 -0.19374178 0.05700938
-0.74701923 -0.13258877 -0.3767018 -0.08920965 -0.105583176 0.43063226 0.8096808 -0.36254242
0.25115705 0.0978677 -0.057950083 -0.37916353 -0.20013237 -0.14964297 -0.3655613 -0.10076557

v.v_net.0.bias f4 [64]
00000000: ed35 c43e 5498 cb3e 06f2 bb3e ba7d da3e
00000010: fec8 923e 91fc 64bd 73ee bb3e e2d7 af3e
00000020: 1e1b af3e 141a bc3e 1f59 c63e 5a0e da3e
00000030: ba72 cb3e 9a85 dcbe 5297 ddbe e37e cb3e
00000040: 6727 aa3e 475b dcbe 1e29 ee3e eb4f c7be
00000050: bf8b d3be b69c debe 6ad4 b43e 8f5e c5be
00000060: 75e4 bcbe 61f6 a2be e3f7 d4be bc29 cbbe
00000070: f53e cb3e 0af9 e23e 6d95 d4be 30bc d83e
00000080: 5575 cb3e 9e8f e7be 0733 babe 0f8f d03e
00000090: 3b02 c2be 65df c53e 57a0 d6be bc71 a63e
000000a0: 558c e93e 5ead b0be 0bac e33e 7ae1 d3be
000000b0: 3dc6 e8be 923c c73e e5b9 dcbe 21ff d3be
000000c0: 5c87 cebe f157 c63e 8c53 afbe e5b8 b13e
000000d0: 1e54 d73e bcc4 c8be ac7e edbe a9b0 a6be
000000e0: 288f c33e e4fe d83e 7621 bbbe 272d d1be
000000f0: 2a78 8bbe 1c65 fe3e c307 a1be 98ae dc3e
0.38322392 0.39764655 0.36708087 0.42674047 0.2866897 -0.05590493 0.3670536 0.34344393
0.34200376 0.36738646 0.3873987 0.42589074 0.39735967 -0.4307068 -0.4327951 0.39745244
0.33233187 -0.4303839 0.46515745 -0.3892816 -0.41317555 -0.43478936 0.3531831 -0.38548705
-0.3689305 -0.31828597 -0.41595373 -0.39680278 0.3969647 0.44330627 -0.41520253 0.42331076
0.39737955 -0.4522676 -0.36367056 0.40734145 -0.37892327 0.38647 -0.41919205 0.32508647
0.45614877 -0.3450727 0.44467196 -0.41382962 -0.45463744 0.389134 -0.43110576 -0.41405585
-0.40337646 0.3873897 -0.3424343 0.34711376 0.42056364 -0.39212596 -0.46385705 -0.32556656
0.38195157 0.42381966 -0.36548966 -0.4085476 -0.27240115 0.49686515 -0.31451234 0.43101954

v.v_net.2.weight f4 [64, 64]
00000000: b0fb 243e 68ef 803e f853 f63e d1e7 1e3f
00000010: f587 3e3e f052 2fbe 7b7c e43d e486 b1bc
00000020: 5461 663e 12e9 ff3e 1f9c 543e 850c 0e3e
00000030: ede0 b83e 28ac e3be b801 413e b8ac 743e
00000040: a907 a13d a371 03bf 24a7 d03e b074 8abd
00000050: 8329 12bf 203a b5be 0b97 c23e b2e9 81be
00000060: e0e4 34bf 616a b9be 8dab cfbc 4d4d 9abd
00000070: b6af 86bd ca2a 483e 6ccf 11be 7d0a bc3d
00000080: 344f 2a3e 1b14 4bbf 0998 87be afa5 b5bd
00000090: e766 febd 0c1e 863e b2b2 edbe 46e1 b43e
000000a0: 035d b13d 629a ddbe 78b1 6b3e 293e c6be
000000b0: ee37 bfbe dc22 c83e 95a9 debe 8127 04bf
000000c0: f52d 58bd 1880 a33e e070 a13c e693 883d
000000d0: 7efa 6a3f 38a0 96be a69d 99be bd22 d9be
000000e0: 0b9c f53e 6d7c 503e 9dc0 64be 3094 44be
000000f0: 3e44 bebe c3a7 563e f5dc 893d 74f4 2bbe
00000100: b99e 8a3e b6ff d7bd 9854 ed3e 5438 773e
00000110: dba2 633e 0774 5abe 1eec b03d 2a75 123e
00000120: 3325 c43e 8903 9f3e 0fac ee3e 5277 c23b
00000130: dca5 b03d 3703 35be 0f85 62bf aea6 323f
00000140: 6ae9 203e b150 58be 6980 d63e 77e8 05bf
00000150: 5d47 59bf bba7 54be b94a c13e 2f8c 15be
00000160: 4cbf febe 965d 4c3c 3212 debd 7ff2 d3bd
00000170: 8532 9e3e da0b ba3d c634 cebe 6be8 b63e
00000180: 0165 cc3e d1f3 f2be 0973 7f3e b9d8 c03c
00000190: 439f e6be c633 86bd d8c7 f9be 4802 1c3d
000001a0: 6ba3 8b3e 7106 0ebf 80f1 86bd 6f47 33be
000001b0: d675 db3d 34c7 a43e 87ea bbbe 66d1 a2be
000001c0: 5093 42bf 767b 0a3f 85c4 62be 6a20 e1bd
000001d0: 9841 8a3e 47ab 88bd 0528 0ebf ca07 4fbc
000001e0: 7b71 bc3e 304e eb3e 441e 9ebe 6475 e6be
000001f0: c72e 773e 859b 903e 9dc1 be3e 4f81 163e
00000200: 7abe d13e a3f7 e13e b66e ab3e 88f0 3a3e
00000210: 4db7 56bd 22cf 773e 2aee 8ebd c0d1 853e
00000220: c782 8ebd 532c 873e f9ef b73e e5da 913e
00000230: 22a0 223f 96f3 59be 59df a4be 0bd6 b63e
00000240: a4f2 a2bb f1d6 04bf 5f31 c63e 3c62 dcbe
00000250: 9cdb f4be c57a f4be 116b 8e3e 74a1 aebe
00000260: e17f 0cbf 9cbc 0abf 377f afbe ee86 bcbd
00000270: bc9a 443f d29b 993e 39a0 f6bd 288b b43d
00000280: d2ca d63d bdad eebe e45e f63b 95fb fd3e
00000290: 48c6 6fbe 6d32 e53d a978 29bf 4940 de3e
000002a0: e1fb d23e dcce a1bd 830d 9e3e e9c0 0abe
000002b0: 7597 bbbe 5c13 f13e 60fd abbe 6b54 05bf
000002c0: 3210 a2be 70bb 103f b1ce 09bd 464f a2bd
000002d0: ac2d b53e 9f63 81be 2edf b0be bb17 ff3d
000002e0: b1ef 483d 61f1 a63e 0569 2dbf 2857 03bf
000002f0: a764 173e 7ba8 fe3d 3282 b43e 36cf 773e
00000300: ed65 67bd d84b acbe facb 69be 6c98 c8bd
00000310: 42be 9cbd f9c7 493e 03f9 c1be 8095 27bf
00000320: 0711 cfbe b236 85be c6f3 9ebe a58a 8abe
00000330: 4661 5cbf b83f 1d3f bc62 1f3e 2afd 2bbd
00000340: f30f 90be 0359 8e3e cd67 acbe ece8 623e
00000350: 6ddd 3b3f dffc 203e 1a2f 96be adf2 8b3e
00000360: 424a e73e 4395 4b3e 16a1 8fbe 2611 a63e
00000370: 82df 13bf 3d5a 09bf ad54 f23e 6a09 77be
00000380: b314 95be 308a c03e 761f db3d 0ccf 9e3d
00000390: a324 d63e 9ef6 893d 05fd 1a3f bfad ccbe
000003a0: 0522 15be 0764 a33e 8663 43bd 5797 973e
000003b0: 72d1 633e 056a 2ebf 2175 6b3e 4c9a db3e
000003c0: fe41 f7bd 3543 c7bd f44c 77be afc1 3abf
000003d0: d140 a3be 46fa 99bd 56ac de3e cf9f 613e
000003e0: 3cff 17be 7267 5abf 30cd ab3d 7014 b53e
000003f0: e811 b13e 0b1d 2fbe b0ae 95be 4e73 48be
0.16111636 0.25182652 0.48110938 0.62072474 0.18606551 -0.17121482 0.11156555 -0.021670766
0.22498065 0.49982506 0.2076268 0.13871963 0.36109105 -0.44467282 0.18848312 0.23894012
0.07862789 -0.5134527 0.40752518 -0.067605376 -0.5709459 -0.35395908 0.38005862 -0.25373608
-0.70661736 -0.36213973 -0.025350356 -0.07534275 -0.06576483 0.19547573 -0.14239281 0.09181688
0.16631776 -0.79327554 -0.2648318 -0.08869492 -0.12421971 0.261948 -0.46425396 0.3532812
0.08660319 -0.43281847 0.23016918 -0.387193 -0.37347358 0.39089096 -0.43488756 -0.5162278
-0.052778203 0.31933665 0.019707143 0.066688344 0.9178847 -0.29419112 -0.3000309 -0.42409316
0.47970614 0.20359965 -0.22339101 -0.19197154 -0.3716144 0.20962434 0.06731597 -0.1679247
0.2707422 -0.1054682 0.46353602 0.24142581 0.22230093 -0.21333323 0.08638786 0.14302507
0.3830963 0.31057385 0.46615645 0.0059346342 0.08625385 -0.17677008 -0.8848428 0.69785583
0.1571404 -0.21124531 0.41894844 -0.5230784 -0.84874517 -0.20767109 0.3775232 -0.14604257
-0.49755323 0.0124734845 -0.10843314 -0.10348987 0.30897918 0.09084292 -0.40274638 0.35724196
0.3992081 -0.47451642 0.24946226 0.023540841 -0.45043382 -0.06552844 -0.4878528 0.038088113
0.27273116 -0.5547858 -0.06589031 -0.17507719 0.10715835 0.3218323 -0.36702368 -0.31800383
-0.7600603 0.54094636 -0.22145279 -0.109925106 0.2700317 -0.066732936 -0.55529815 -0.012636134
0.3680533 0.4595809 -0.30882466 -0.45011437 0.24138938 0.28243652 0.3725709 0.14697765
0.40965635 0.44134244 0.33482903 0.18255818 -0.052420903 0.24200109 -0.0697902 0.2613659
-0.069585375 0.26401004 0.35925272 0.28487316 0.63525593 -0.21284327 -0.3220165 0.35710177
-0.0049727727 -0.51890475 0.38709542 -0.43043697 -0.478238 -0.47749916 0.2781606 -0.34107554
-0.5488263 -0.54194045 -0.34276745 -0.09205423 0.76798606 0.30001694 -0.12042279 0.088156044
0.10487904 -0.46616927 0.007518636 0.49606004 -0.23415482 0.111912586 -0.6619974 0.4340842
0.41207793 -0.079007834 0.30869684 -0.13550152 -0.3663899 0.47085083 -0.33591747 -0.52081937
-0.3165298 0.56536007 -0.033644382 -0.079252765 0.35386407 -0.25271317 -0.34545273 0.12455698
0.049056713 0.32606032 -0.6773837 -0.51304865 0.1478449 0.12434479 0.3525558 0.24200138
-0.05649369 -0.33651614 -0.22831717 -0.09794697 -0.07653476 0.1970519 -0.37885293 -0.65462494
-0.40442678 -0.26018292 -0.3104536 -0.27058902 -0.8608593 0.6142535 0.15565008 -0.041989483
-0.28137168 0.27802286 -0.33672944 0.22159165 0.73384744 0.15721463 -0.2933281 0.27333584
0.45173842 0.19881158 -0.28052586 0.32434958 -0.5776292 -0.5365332 0.47330227 -0.24124685
-0.29117355 0.3760543 0.1069936 0.07754335 0.41824827 0.067364916 0.6054233 -0.39976308
-0.14563759 0.31912252 -0.047702335 0.2960765 0.22247866 -0.6813052 0.229939 0.42891157
-0.12073134 -0.097296156 -0.24150449 -0.7295179 -0.31885388 -0.07518439 0.43490857 0.22033618
-0.14843458 -0.85314095 0.08388746 0.35367155 0.34583974 -0.17100923 -0.29234838 -0.19575235

v.v_net.2.bias f4 [64]
00000000: 096d 893e 7c47 903e 25f7 753e f460 79be
00000010: 6844 8e3e 54f2 73be 9b45 7e3e 9019 973e
00000020: d4c2 803e 804e 86be e585 7cbe 2bd2 813e
00000030: 8e40 803e 8699 98be 520e 82be 0ae5 6bbe
00000040: 8c3f 883e c393 673e 90ca 403e e78e 4a3e
00000050: 824f 813e 662f 89be 55c6 65be 6a67 9bbe
00000060: f580 8a3e 31cd 53be ac9f 58be 021c 7d3e
00000070: 428c 543e c6f0 69be 89de 86be c22b 583e
00000080: daf9 733e 99f8 843e 1561 683e 8d58 90be
00000090: c0a2 76be a15e 8a3e 8851 823e eec4 6e3e
000000a0: a450 5ebe 38aa 7f3e 6451 79be 6aff 43be
000000b0: 4531 8dbe dab8 7a3e 5e7a 603e ad1b 6a3e
000000c0: 528c 2a3e df07 9ebe adf1 9b3e 426d 5abe
000000d0: 56c7 643e 7525 703e c457 70be 4468 8cbe
000000e0: 0f32 7dbe fddc 80be a7b1 6d3e 90fd 93be
000000f0: ee95 4bbe 8b69 5cbe 2df6 3dbe d8f4 453e
0.26841 0.28179538 0.2402006 -0.24353391 0.27786565 -0.2382291 0.2483124 0.2951169
0.25148642 -0.26231766 -0.24660452 0.25355658 0.2504925 -0.2980463 -0.2540155 -0.2303659
0.26610982 0.2261496 0.18827271 0.19781075 0.25255972 -0.26793975 -0.22438939 -0.30352336
0.2705151 -0.20683743 -0.2115466 0.24717715 0.20756629 -0.22845754 -0.26341656 0.21110442
0.2382578 0.25970915 0.22693284 -0.2819256 -0.24085522 0.2702532 0.25452828 0.2331731
-0.2171045 0.24967277 -0.24347454 -0.19140401 -0.27576652 0.24484578 0.2192168 0.2286212
0.1665509 -0.3086538 0.3045782 -0.21330741 0.22341666 0.23451789 -0.2347098 -0.27423298
-0.24726127 -0.251686 0.232123 -0.2890439 -0.19881412 -0.21524636 -0.1855094 0.19331682

v.v_net.4.weight f4 [1, 64]
00000000: b98b 3dc0 802d 44c0 f878 31c0 9146 3840
00000010: 8394 40c0 1e03 4940 c2b2 31c0 558e 3bc0
00000020: a8ad 37c0 eb5b 3b40 4777 4d40 ef83 42c0
00000030: 9b59 31c0 5d78 3440 dfec 3640 420e 5040
00000040: ed74 44c0 0276 5ac0 f485 53c0 90a6 35c0
00000050: 739c 3fc0 7fa8 3340 bf83 4a40 c829 3740
00000060: a344 43c0 020e 5440 8504 5240 aaa1 4bc0
00000070: 3f61 2fc0 1811 4e40 8195 3640 faf7 4ac0
00000080: be70 40c0 fae7 3bc0 d23a 3bc0 4838 3240
00000090: c8e4 3940 4cdd 32c0 1402 65c0 f402 48c0
000000a0: 13cc 4f40 8c2a 62c0 e638 4140 086e 6140
000000b0: 4468 3440 d117 3ac0 1c74 66c0 2f4b 3fc0
000000c0: 6861 45c0 4b0b 3b40 1110 35c0 66a8 5e40
000000d0: 3f88 3ac0 22c0 45c0 962f 4c40 e3a3 3940
000000e0: b1e1 4940 78af 3c40 ef4c 4dc0 6a89 4040
000000f0: 56b8 4440 43b2 4640 659a 4540 21da 40c0
-2.961653 -3.065277 -2.7730083 2.879307 -3.0090644 3.1408153 -2.7765355 -2.9305623
-2.8699741 2.9274852 3.210405 -3.0393026 -2.771094 2.8198464 2.8582075 3.2508702
-3.0696366 -3.4134526 -3.3050508 -2.8382912 -2.993924 2.8071592 3.1642911 2.8619251
-3.0510643 3.313355 3.2815259 -3.1817422 -2.7403104 3.2197933 2.852875 -3.1713853
-3.0068812 -2.9360337 -2.925465 2.7846851 2.9045887 -2.794757 -3.5782518 -3.1251802
3.2468307 -3.5338469 3.0190978 3.5223408 2.8188639 -2.9077036 -3.6008368 -2.9889638
-3.0840702 2.9225643 -2.8291056 3.4790282 -2.9145658 -3.0898519 3.1904044 2.9006279
3.1544 2.9482098 -3.2078207 3.008387 3.073751 3.1046302 3.0875485 -3.0133135
