tmp/experiments/RN5 False,True,True/pyt_network_save/model save15000.pt (torch_old, 314943 bytes, 33 tensors)

pi.pi_net.0.weight f4 [64, 5]
0.05671069 -0.46045613 0.5303394 -0.030443182 0.029058924 -0.15874617 -0.53915966 0.21283357
0.15570335 -0.24774338 -0.036446847 -0.4817022 0.17100835 -0.13128097 -0.13009886 0.48806992
-0.15527548 0.17108732 0.1705451 0.12988554 0.66227436 0.17287242 -0.15085346 -0.2970651
0.26070172 -0.16054611 -0.2642092 -0.027020952 0.012095301 0.6686126 -0.13008429 -0.16860329
0.11904604 0.32780117 -0.10377626 0.010925378 -0.04271169 0.4224307 -0.035292145 0.10302511
0.09925371 -0.019190988 0.10061519 0.19457743 -0.3393604 -0.31339794 -0.14120631 0.042002268
0.13070978 -0.5118233 -0.108031176 -0.08848371 -0.0326172 -0.43244195 0.06030588 0.3234486
0.1740138 0.66625637 -0.4681635 0.009865058 -0.18085131 -0.033471793 0.05459188 0.60474473
-0.010090882 -0.5416797 -0.43509537 0.033277147 0.17268836 0.2882117 0.49481636 -0.3334526
0.3232283 0.031183 0.42594352 0.14441833 -0.35069063 -0.21908693 -0.27422127 0.95411825
-0.49536994 -0.407815 0.17154221 -0.26582167 0.54876643 -0.12490646 -0.1090301 -0.05798838
-0.18587172 -0.25734833 0.27960894 0.12636003 -0.0044898195 -0.003640033 -0.07643971 -0.65365535
-0.60072595 0.09545556 0.113749065 0.19624734 -0.88053125 0.29437655 -0.14651155 -0.13644542
0.33745322 0.045163013 -0.44710588 0.8344705 -0.16268249 0.028421823 -0.71490943 0.091408156
0.24922882 0.05419325 0.56894445 -0.38173902 -0.40033972 0.1311425 -0.2792523 0.15333164
0.45735902 0.05404539 -0.3416276 0.14700173 0.017323354 -0.019513018 0.021301301 0.68165785
-0.13730967 0.13231257 0.17491707 -0.2451543 0.06925926 0.6141177 -0.2876871 0.48696095
0.0004126487 0.13680069 -0.68104494 0.33601996 -0.30460936 0.21651843 -0.18470782 0.3161738
0.14487721 0.33540788 0.22809817 0.6944275 0.10753353 0.31001362 0.0792572 0.016502177
0.056050476 -0.61543447 0.65796727 0.014171645 -0.43769285 -0.069452375 -0.12584645 0.21301633
-1.0782903 -0.16959178 -0.015147967 0.046354506 0.039683517 -0.15868779 -0.33811775 -0.18761373
-0.00032202213 0.12309123 -0.10482486 -0.30470386 -0.30036744 -0.14058179 0.09069738 -0.46687877
0.19168107 0.6809258 0.18735494 0.5306947 -0.18610075 -0.4865037 -0.68840796 -0.66436034
-0.2845449 0.31902444 -0.16593504 0.053342666 0.031389993 0.23281513 0.26786527 0.20579253
0.107466094 0.29247713 -0.03215363 0.32850212 0.1227289 -0.41458383 0.28079706 -0.27226865
0.7450342 -0.14653793 0.12668614 -0.012017157 0.06855517 -0.5070705 -0.25975382 -0.1321098
-0.5075988 0.1453734 -0.091523916 -0.13138862 -0.40764743 -0.090423495 0.4131093 0.4672338
0.14774854 0.37360537 -0.29456913 -0.38198525 0.10549541 -0.84385455 0.2196055 -0.0051596006
0.40957692 0.54548985 0.37838942 -0.2167114 -0.30750954 0.2550939 0.29998076 -0.0030716767
-0.23272403 -0.06617219 0.44555345 0.083157845 -0.5756077 0.3206739 0.17492251 0.1472829
-0.6557935 0.28221 -0.55080384 0.13573632 0.1680267 -0.29313424 0.27611947 0.29300296
0.26842022 0.39672068 -0.1386177 -0.4723225 0.24426472 -0.15129414 -0.03645146 -0.1810706
00000000: 7849 683d e8c0 ebbe 53c4 073f fb63 f9bc
00000010: fb0c ee3c 5b8e 22be 5e06 0abf 0bf1 593e
00000020: b370 1f3e 71b0 7dbe 4a49 15bd aca1 f6be
00000030: d01c 2f3e 856e 06be a338 05be 4de4 f93e
00000040: 8900 1fbe 8431 2f3e 60a3 2e3e b700 053e
00000050: d08a 293f 7805 313e 5479 1abe eb18 98be
00000060: b27a 853e 3366 24be 6e46 87be 0b5b ddbc
00000070: 5f2b 463c 322a 2b3f d134 05be 57a6 2cbe
00000080: 69ce f33d 8ed5 a73e a688 d4bd 5b00 333c
00000090: 74f2 2ebd d648 d83e 7f8e 10bd d4fe d23d
000000a0: 8745 cb3d 6b36 9dbc 560f ce3d 4e3f 473e
000000b0: a5c0 adbe b275 a0be 6398 10be 920a 2c3d
000000c0: c9d8 053e da06 03bf 733f ddbd f336 b5bd
000000d0: 9d99 05bd 0869 ddbe 4c03 773d 0e9b a53e
000000e0: ac30 323e c78f 2a3f 20b3 efbe 0da1 213c
000000f0: 1631 39be b819 09bd bc9b 5f3d 8dd0 1a3f
00000100: 3a54 25bc 85ab 0abf d2c4 debe 9e4d 083d
00000110: 38d5 303e 7c90 933e 9258 fd3e 4dba aabe
00000120: 2e7e a53e 7e73 ff3c 4515 da3e 66e2 133e
00000130: b98d b3be 5358 60be bb66 8cbe 1841 743f
00000140: 21a1 fdbe 21cd d0be c3a8 2f3e c719 88be
00000150: f57b 0c3f f5ce ffbd 2c4b dfbd 3985 6dbd
00000160: 2855 3ebe 29c3 83be e728 8f3e 8664 013e
00000170: 561f 93bb 9f8d 6ebb 6c8c 9cbd f555 27bf
00000180: 2dc9 19bf 347e c33d 45f5 e83d 10f5 483e
00000190: 7f6a 61bf 86b8 963e 2007 16be 59b8 0bbe
000001a0: abc6 ac3e dafc 383d 10eb e4be dc9f 553f
000001b0: 3d96 26be e2d4 e83c 4e04 37bf 3334 bb3d
000001c0: d735 7f3e bef9 5d3d 58a6 113f 4c73 c3be
000001d0: 54f9 ccbe 384a 063e 28fa 8ebe f802 1d3e
000001e0: f62a ea3e b35e 5d3d d0e9 aebe 9f87 163e
000001f0: b5e9 8d3c c4d9 9fbc 1180 ae3c 2181 2e3f
00000200: e89a 0cbe f27c 073e 761d 333e bb09 7bbe
00000210: cdd7 8d3d d136 1d3f b94b 93be f252 f93e
00000220: c558 d839 7b15 0c3e f658 2ebf cf0a ac3e
00000230: c2f5 9bbe 02b7 5d3e 0c24 3dbe 88e1 a13e
00000240: b15a 143e 95ba ab3e 9192 693e 00c6 313f
00000250: 8a3a dc3d 1bba 9e3e 9951 a23d 932f 873c
00000260: 2f95 653d 1d8d 1dbf 8b70 283f 3030 683c
00000270: 4719 e0be 0c3d 8ebd e4dd 00be f420 5a3e
00000280: 6b05 8abf 78a9 2dbe 2e2f 78bc 39de 3d3d
00000290: 2f8b 223d 0d7f 22be c51d adbe d01d 40be
000002a0: 14d5 a8b9 4117 fc3d 6bae d6bd 2502 9cbe
000002b0: c3c9 99be acf4 0fbe 8cbf b93d bc0a efbe
000002c0: 0b48 443e 2751 2e3f f9d9 3f3e 9cdb 073f
000002d0: 3291 3ebe 0317 f9be 813b 30bf 8513 2abf
000002e0: deaf 91be 2c57 a33e e0ea 29be d77d 5a3d
000002f0: cb92 003d 1767 6e3e a325 893e 47bb 523e
00000300: 2f17 dc3d 90bf 953e 86b3 03bd 6e31 a83e
00000310: 4a59 fb3d 5544 d4be a2c4 8f3e cc66 8bbe
00000320: 90ba 3e3f 0a0e 16be 03ba 013e 9ce3 44bc
00000330: a766 8c3d 5fcf 01bf 74fe 84be cb47 07be
00000340: fff1 01bf c4dc 143e e470 bbbd bd8a 06be
00000350: 2ab7 d0be f42f b9bd 1083 d33e 4539 ef3e
00000360: 654b 173e 3449 bf3e c4d1 96be 9293 c3be
00000370: fa0d d83d da06 58bf 44e0 603e de11 a9bb
00000380: 11b4 d13e 39a5 0b3f 42bc c13e 98e9 5dbe
00000390: e471 9dbe ab9b 823e 1497 993e 2f4e 49bb
000003a0: 354f 6ebe 4985 87bd 951f e43e a94e aa3d
000003b0: 075b 13bf 5f2f a43e e31e 333e 54d1 163e
000003c0: 15e2 27bf d47d 903e 7b01 0dbf 76fe 0a3e
000003d0: 310f 2c3e b115 96be 885f 8d3e 7c04 963e
000003e0: 606e 893e f91e cb3e ccf1 0dbe 41d4 f1be
000003f0: 8820 7a3e daec 1abe 204e 15bd 926a 39be

pi.pi_net.0.bias f4 [64]
0.004663636 0.067713656 0.09362355 -0.09869026 -0.003059135 0.18137176 0.03564789 0.17007232
0.07254974 -0.13412213 -0.1360778 0.07680476 0.04738809 0.14894614 0.021261882 0.005406332
0.012248482 -0.09583215 0.029468099 0.039145082 0.104895845 -0.018964266 0.071888916 0.0880293
-0.22052512 -0.10857893 0.14946082 -0.050077107 0.08910562 0.15696397 0.095159635 0.12933055
0.090380475 0.049698442 -0.026809521 0.030063594 -0.29792455 0.1800975 -0.0344436 -0.034391597
-0.13510907 0.058118314 0.17667168 -0.20673113 0.16027807 -0.0077733304 -0.059560157 0.13925637
0.20571631 0.17052951 0.058651548 0.19935265 -0.21385887 0.05910298 -0.016986467 0.07851275
0.098732315 0.19743899 -0.07550886 -0.15036054 -0.14843465 -0.08689813 -0.06674562 0.23704225
00000000: 6ad1 983b 75ad 8a3d b4bd bf3d 1e1e cabd
00000010: c57b 48bb 85b9 393e 8603 123d 7027 2e3e
00000020: f594 943d 5057 09be fb57 0bbe d04b 9d3d
00000030: 041a 423d 5685 183e 662d ae3c 9a27 b13b
00000040: dbad 483c a543 c4bd 1567 f13c 9856 203d
00000050: a2d3 d63d f35a 9bbc 7f3a 933d b548 b43d
00000060: 56d1 61be a15e debd 420c 193e a71d 4dbd
00000070: 027d b63d 2abb 203e 0ee3 c23d 3a6f 043e
00000080: 6619 b93d 9890 4b3d a49f dbbc ed47 f63c
00000090: 9189 98be 7b6b 383e bb14 0dbd 34de 0cbd
000000a0: 085a 0abe 780d 6e3d 6ce9 343e 53b1 53be
000000b0: ef1f 243e 6cb7 febb 5af5 73bd 3999 0e3e
000000c0: 4ca7 523e 4a9f 2e3e 9b3c 703d 1a23 4c3e
000000d0: d2fd 5abe f715 723d 3427 8bbc 4bcb a03d
000000e0: 2b34 ca3d 722d 4a3e 64a4 9abd 1df8 19be
000000f0: 41ff 17be a6f7 b1bd edb1 88bd 34bb 723e

pi.pi_net.2.weight f4 [64, 64]
-0.5372854 -0.25376895 -0.22216412 0.08295077 0.28690892 -0.22937728 -0.07159009 -0.041076522
-0.42381644 0.028736817 -0.09966318 0.16845421 -0.223724 -0.13552731 -0.15475045 0.049952876
-0.37143424 0.12828217 0.03652009 0.12096428 -0.09369313 -0.036276508 -0.1614191 -0.26204744
0.2517491 -0.28977308 -0.12397695 -0.16922966 0.13974741 0.11554729 -0.17238301 0.099588454
-0.19908111 -0.1867354 -0.1492126 -0.18166089 0.16685878 -0.7105118 -0.16378622 0.4666458
0.12576525 -0.008317732 0.06234815 0.18886784 -0.3196576 0.31989932 -0.4623696 -0.43950447
-0.385974 0.34002241 0.31965038 0.2325536 0.19203104 -0.051257472 0.5106014 -0.42922303
-0.20891055 -0.15770397 -0.26637477 0.16008285 0.34953958 0.30843768 -0.065164655 0.23879857
-0.13660707 0.09797735 -0.037921023 -0.47194585 -0.036290362 0.030126384 0.021603959 0.41204205
0.13837928 -0.38137445 0.007344674 -0.2988233 0.109927446 0.19614951 -0.00397331 0.21766976
-0.011403331 -0.5288265 0.17744696 -0.22252053 0.29604596 -0.4360717 -0.29059345 -0.14925614
-0.24285704 -0.23276739 0.026114168 -0.21154794 0.23093495 0.24940506 0.0917653 -0.11148823
-0.26567116 0.10622566 -0.09353616 -0.16589949 -0.30786085 0.31642407 0.2123503 0.3291476
-0.07573596 -0.04913328 0.4099597 -0.23407201 -0.020992259 0.0515276 0.061773065 0.13605914
0.8323563 0.043045502 0.0815099 0.14846146 -0.36095613 0.07672226 0.16859204 0.2732686
0.3466872 -0.065388836 0.0031983869 0.063144006 -0.4085283 -0.0062382934 -0.26617762 0.13323466
-0.36966106 -0.062919766 -0.06735142 -0.45821476 -0.23851132 0.20907009 -0.3437943 -0.13605015
0.2461 -0.2360074 0.10790729 -0.21253923 -0.06781848 0.1877361 -0.32101202 0.15694985
-0.19762181 0.3290305 -0.0015456117 -0.15350111 0.3821189 -0.13035549 -0.14756048 -0.14603056
-0.034984313 -0.006009979 -0.070421405 0.1061773 -0.12184243 0.04274926 0.26424566 0.120138764
-0.38245645 -0.02851143 -0.20095913 -0.22450371 -0.12255213 0.22704008 0.03820628 -0.097810715
0.033105236 0.26494956 0.009861679 -0.017131392 -0.017000984 0.08670179 0.28188026 -0.38688654
0.5622299 -0.1495568 -0.13484961 0.53043044 -0.12356559 0.34175256 0.018199347 -0.013243721
-0.013639288 0.086925864 -0.009795021 -0.45304564 0.12118284 0.22278896 0.41933447 -0.09625023
-0.19976889 0.23202191 -0.36203933 0.13430923 -0.1511097 0.09017303 -0.10762389 0.14485946
0.03612359 0.04035473 -0.18659607 0.3269915 0.036442198 -0.15385018 0.26716188 0.29734486
-0.3205759 0.26810628 0.18393989 -0.36763012 0.11657701 -0.07325587 0.10100771 -0.121157765
-0.24589665 0.16175862 -0.035562962 -0.26681343 -0.52724016 0.09355843 -0.1499954 -0.12493521
-0.17568527 0.15554003 -0.110103674 0.2788661 0.49778724 -0.20425224 -0.43406662 -0.07144933
0.5893708 0.06233234 -0.07475274 0.24283512 -0.33973736 0.12044299 0.058371637 -0.21542245
-0.22238064 -0.10648882 0.18622361 -0.22486183 0.0016892626 -0.24708007 0.16196471 0.04200876
0.01481566 -0.094587214 -0.05227357 -0.062327266 -0.29698494 0.10205947 0.24438563 -0.12612723
00000000: 898b 09bf 01ee 81be fe7e 63be 18e2 a93d
00000010: bae5 923e e1e1 6abe d39d 92bd db3f 28bd
00000020: 78fe d8be 7969 eb3c 361c ccbd 437f 2c3e
00000030: e717 65be acc7 0abe e776 1ebe 639b 4c3d
00000040: a12c bebe 675c 033e 1796 153d 1fbc f73d
00000050: 2fe2 bfbd ad96 14bd 0c4b 25be 152b 86be
00000060: 42e5 803e 235d 94be a1e7 fdbd 8a4a 2dbe
00000070: f219 0f3e 0fa4 ec3d 2c85 30be 08f5 cb3d
00000080: ebdb 4bbe 9137 3fbe 30cb 18be 5005 3abe
00000090: 07dd 2a3e 1ae4 35bf 93b7 27be 33ec ee3e
000000a0: 9bc8 003e 1947 08bc c660 7f3d 9266 413e
000000b0: 29aa a3be d8c9 a33e b5bb ecbe bb06 e1be
000000c0: 629e c5be 6b17 ae3e 37a9 a33e 8822 6e3e
000000d0: c9a3 443e 5bf3 51bd c6b6 023f 1fc3 dbbe
000000e0: a6ec 55be 267d 21be 4662 88be c2ec 233e
000000f0: daf6 b23e 8beb 9d3e 0c75 85bd 9d87 743e
00000100: b9e2 0bbe 59a8 c83d 1353 1bbd e3a2 f1be
00000110: 34a5 14bd 9bcb f63c c9fa b03c 2df7 d23e
00000120: 4cb3 0d3e 8343 c3be 97ab f03b 5eff 98be
00000130: a421 e13d 6bdb 483e 8a32 82bb d2e4 5e3e
00000140: 09d5 3abc 2c61 07bf a8b4 353e 6cdc 63be
00000150: 5693 973e ca44 dfbe aac8 94be 9ad6 18be
00000160: 84af 78be 935a 6ebe 61ed d53c 06a0 58be
00000170: 367a 6c3e 0a64 7f3e 72ef bb3d f153 e4bd
00000180: 0d06 88be d78c d93d e38f bfbd 8ee1 29be
00000190: f09f 9dbe 5602 a23e 5b72 593e 0986 a83e
000001a0: 741b 9bbd fa3f 49bd 3de6 d13e 93b0 6fbe
000001b0: f5f7 abbc 9b0e 533d c105 7d3d 1653 0b3e
000001c0: 4d15 553f 7b50 303d aaee a63d 4806 183e
000001d0: 3ecf b8be 8f20 9d3d 64a3 2c3e dde9 8b3e
000001e0: fc80 b13e 95ea 85bd 079c 513b a551 813d
000001f0: 9f2a d1be 996a ccbb 6f48 88be ab6e 083e
00000200: 3744 bdbe 14dc 80bd 8bef 89bd 209b eabe
00000210: 503c 74be 7816 563e ce05 b0be bb50 0bbe
00000220: a301 7c3e edab 71be 7ffe dc3d e2a3 59be
00000230: 6ae4 8abd e43d 403e b05b a4be 76b7 203e
00000240: 5f5d 4abe b076 a83e 1f96 caba 652f 1dbe
00000250: 17a5 c33e e97b 05be 181a 17be 0989 15be
00000260: b64b 0fbd 5cef c4bb 1939 90bd 7c73 d93d
00000270: 8688 f9bd d919 2f3d 354b 873e 500b f63d
00000280: 55d1 c3be cd90 e9bc 3bc8 4dbe 4de4 65be
00000290: 9cfc fabd 327d 683e 307e 1c3d fc50 c8bd
000002a0: 5b99 073d 78a7 873e e192 213c 2257 8cbc
000002b0: a645 8bbc b590 b13d 9c52 903e fe15 c6be
000002c0: 4cee 0f3f 6b25 19be 0416 0abe 4aca 073f
000002d0: f50f fdbd 31fa ae3e cc16 953c 31fc 58bc
000002e0: 5277 5fbc 3006 b23d 4c7b 20bc 99f5 e7be
000002f0: b52e f83d ca22 643e 02b3 d63e d71e c5bd
00000300: 3790 4cbe 2797 6d3e 385d b9be 5c88 093e
00000310: 80bc 1abe a3ac b83d ea69 dcbd 0a56 143e
00000320: 54f6 133d 004b 253d 0a13 3fbe 6e6b a73e
00000330: 6a44 153d e78a 1dbe 71c9 883e 963d 983e
00000340: 8622 a4be 3a45 893e bd5a 3c3e 043a bcbe
00000350: edbf ee3d 2c07 96bd 21dd ce3d 9021 f8bd
00000360: 55cc 7bbe 0da4 253e 78aa 11bd c59b 88be
00000370: 36f9 06bf 909b bf3d 6598 19be 08de ffbd
00000380: d7e6 33be e345 1f3e 097e e1bd 8ac7 8e3e
00000390: f8dd fe3e 8027 51be fb3d debe 0754 92bd
000003a0: 01e1 163f 3250 7f3d f717 99bd c5a9 783e
000003b0: 0ef2 adbe d0aa f63d 1917 6f3d b497 5cbe
000003c0: c0b7 63be cf16 dabd 67b1 3e3e 2e42 66be
000003d0: 3f6a dd3a 8f02 7dbe 14da 253e 6111 2c3d
000003e0: 62bd 723c f1b6 c1bd d01c 56bd e04a 7fbd
000003f0: 690e 98be 8e04 d13d 3a40 7a3e 7f27 01be

pi.pi_net.2.bias f4 [64]
0.056736737 0.19868353 0.017167732 -0.01567734 -0.02030042 0.16870031 -0.13294308 -0.070862584
-0.29970887 -0.15353197 -0.00019827373 -0.036104668 0.29924157 -0.018683987 -0.05717922 -0.011604423
0.04338953 0.16751629 -0.06155979 -0.09573547 -0.027024528 0.03606566 -0.04596918 0.0014449027
0.060518876 -0.009994347 0.035664354 -0.15573575 -0.012583513 0.064623244 -0.07902387 0.017391939
-0.1317504 0.08113687 0.051304743 -0.10885703 -0.21135753 0.004858896 0.031268157 0.066136695
-0.028188031 -0.02961321 -0.17540748 0.01807999 0.20657574 0.10176537 0.10958227 0.06858394
-0.14065847 -0.019072426 -0.046468843 -0.14820658 -0.14277507 -0.024700262 0.020055523 -0.09516169
0.07613357 -0.1523451 0.021783814 -0.22378626 -0.024492254 0.15979733 -0.0035434978 0.041526265
00000000: c864 683d b273 4b3e 58a3 8c3c c46d 80bc
00000010: 114d a6bc c6bf 2c3e 3b22 08be 6720 91bd
00000020: 7173 99be 7c37 1dbe b3e7 4fb9 7de2 13bd
00000030: 3136 993e 290f 99bc c234 6abd 7a20 3ebc
00000040: 38b9 313d 6489 2b3e 1e26 7cbd f510 c4bd
00000050: 8b62 ddbc 96b9 133d 2e4a 3cbd e462 bd3a
00000060: a4e2 773d 54bf 23bc c914 123d 3179 1fbe
00000070: 142b 4ebc 3159 843d 44d7 a1bd 8a79 8e3c
00000080: 94e9 06be 162b a63d ec24 523d 6ff0 debd
00000090: 1c6e 58be 6037 9f3b 0a13 003d ad72 873d
000000a0: 96ea e6bc 6797 f2bc 059e 33be 7d1c 943c
000000b0: 9788 533e 5d6a d03d ab6c e03d bd75 8c3d
000000c0: c608 10be c73d 9cbc 1d56 3ebd 77c3 17be
000000d0: a133 12be 3458 cabc 7b4b a43c 22e4 c2bd
000000e0: ebeb 9b3d 5b00 1cbe f873 b23c 3a28 65be
000000f0: fba3 c8bc e9a1 233e 073a 68bb 7217 2a3d

pi.pi_net.4.weight f4 [256, 64]
-0.25889447 -0.47011244 -0.27888212 0.28418604 -0.5241655 -0.25363415 0.44591168 0.3973751
0.61604905 0.49656558 0.1819636 0.3482012 -0.52242225 -0.14175391 0.2913089 -0.27863824
0.3926045 -0.47038558 0.42072004 0.2267684 -0.003742349 0.12175791 0.25498745 -0.5340645
-0.2190321 0.0040152255 0.034996774 0.36684906 -0.18992423 -0.18607885 0.18252788 -0.51879144
0.34807473 -0.0997735 -0.20684381 0.5186827 0.60191095 -0.001956354 0.3540167 -0.04696747
-0.21978337 -0.02088654 0.48991466 0.20550564 -0.2444926 0.061088793 -0.28103325 -0.010692093
0.20588076 0.50742304 -0.71794057 0.4276275 0.27291667 0.22811642 0.10496307 -0.11742231
-0.35336816 0.2389229 -0.33642966 0.5151003 0.038585633 -0.4383228 -1.0313876 -0.0041914643
0.34083337 -0.57009256 -0.30567184 0.12683693 0.05579415 -0.52043045 0.5465666 0.3594327
0.765026 0.5008223 0.359169 0.86693555 -0.058821484 -0.5196713 0.021726707 -0.35685322
0.68892914 -0.5787033 0.30271482 0.23011546 -0.09125241 -0.03516128 -0.26757863 -0.2741028
-0.22125454 0.23682645 0.10656421 0.6982329 -0.1340549 -0.4077826 0.2669542 -0.1606202
0.4944018 -0.2831546 -0.17433974 0.84379447 0.07254687 -0.20157678 -0.045943566 0.1984065
-0.6677278 -0.08907232 0.17428198 0.16344288 -0.06119196 0.023231544 -0.24848218 -0.3695268
0.33561325 0.27835697 -0.0215734 0.32009384 0.6789187 0.1513761 0.39717898 -0.25666177
-0.29550114 0.11101957 -0.0040865093 0.71686286 -0.2942755 -0.31541875 -0.37544063 -0.07198738
0.09092853 -0.35137492 -0.13385859 0.28684384 0.22915041 -0.6219656 0.52340657 -0.0044031725
0.589075 0.779382 0.76671755 0.686749 -0.15795192 -0.19319452 0.3210402 -0.23945497
0.4559863 -0.2706764 0.25768778 0.2281514 -0.28216773 0.015064176 -0.24389832 -0.36742172
-0.3831194 0.07192315 -0.1075843 0.88663626 -0.3003956 -0.21636215 0.015621139 -0.032710847
0.75416756 -0.13104054 -0.2570098 0.46655005 0.47211853 -0.32585353 0.037913457 0.076873034
-0.442769 -0.1225547 0.18330048 0.29238242 0.06597815 0.12818564 -0.34239572 -0.34874043
0.30485958 0.2821164 -0.23657651 0.21510269 0.6502844 0.25629908 0.39003578 -0.6139673
-0.5003491 0.2682932 -0.12007836 0.6689142 -0.35901374 -0.5531726 -0.60783637 -0.14635047
0.23866557 -0.63556117 -0.5261512 0.27646527 -0.15598887 -0.36949176 0.470116 0.13035879
0.63473254 0.44580796 0.28714243 0.07869681 -0.41651565 -0.11693809 0.17773259 -0.36326677
0.398008 -0.48289523 0.6816248 0.1236236 0.08485792 -0.05395428 -0.2117039 -0.29513988
-0.46673685 -0.0060446607 0.048770122 0.42435294 -0.37650785 -0.32341453 0.11321128 -0.45612776
0.26221666 -0.072772 -0.3983514 0.2919592 0.38556644 -0.4656639 0.24003015 0.10647927
-0.22279163 -0.08150195 0.4352704 0.1767866 -0.30131438 0.02298861 -0.39004588 -0.044264004
0.060707316 0.30707756 -0.59728944 0.3306301 0.19843985 0.14491342 0.14360668 -0.1495499
-0.5272942 0.11474772 -0.6130881 0.5763394 -0.05807194 -0.29662386 -0.3549926 0.13987882
00000000: d18d 84be 94b2 f0be a3c9 8ebe d580 913e
00000010: b62f 06bf 56dc 81be 894e e43e c074 cb3e
00000020: 64b5 1d3f d83d fe3e aa54 3a3e 6d47 b23e
00000030: 77bd 05bf f027 11be 7126 953e aca9 8ebe
00000040: 7503 c93e 61d6 f0be 9e68 d73e fa35 683e
00000050: 3342 75bb 365c f93d b78d 823e 73b8 08bf
00000060: f349 60be 2792 833b c758 0f3d a4d3 bb3e
00000070: 7f7b 42be 748b 3ebe 97e8 3a3e 84cf 04bf
00000080: da36 b23e 0c56 ccbd ddce 53be 64c8 043f
00000090: d616 1a3f 2c36 00bb ad41 b53e f660 40bd
000000a0: e40e 61be 401a abbc 18d6 fa3e 1270 523e
000000b0: 455c 7abe 3e38 7a3d 97e3 8fbe e32d 2fbc
000000c0: 68d2 523e 7ae6 013f f4ca 37bf fef1 da3e
000000d0: bcbb 8b3e 5a97 693e e1f6 d63d 1c7b f0bd
000000e0: acec b4be 34a8 743e 8240 acbe 9ddd 033f
000000f0: f80b 1e3d d96b e0be 8204 84bf 8d58 89bb
00000100: b681 ae3e 96f1 11bf 0581 9cbe 8ae1 013e
00000110: 6888 643d ee3a 05bf caeb 0b3f 9007 b83e
00000120: bed8 433f e435 003f 00e5 b73e 7def 5d3f
00000130: ccee 70bd 2e09 05bf 35fc b13c 77b5 b6be
00000140: a95d 303f e625 14bf 70fd 9a3e 63a3 6b3e
00000150: 8be2 babd 4605 10bd 1100 89be 3457 8cbe
00000160: 8d90 62be a282 723e 563e da3d 64bf 323f
00000170: b045 09be e2c8 d0be 39ae 883e 9f79 24be
00000180: 3c22 fd3e a4f9 90be 1e86 32be ea02 583f
00000190: 7493 943d 256a 4ebe 522f 3cbd 132b 4b3e
000001a0: 36f0 2abf 8c6b b6bd fa76 323e 925d 273e
000001b0: 6ca4 7abd 1450 be3c 1d72 7ebe 9e32 bdbe
000001c0: 80d5 ab3e ce84 8e3e b3ba b0bc 57e3 a33e
000001d0: 9ecd 2d3f 5602 1b3e 0b5b cb3e 2c69 83be
000001e0: ed4b 97be 3a5e e33d 20e8 85bb 5384 373f
000001f0: 47ab 96be 917e a1be c139 c0be 1f6e 93bd
00000200: bd38 ba3d 6ae7 b3be 3a12 09be 32dd 923e
00000210: 68a6 6a3e 2339 1fbf f9fd 053f 7d48 90bb
00000220: 9fcd 163f 9485 473f 9a47 443f c8ce 2f3f
00000230: 26be 21be c9d4 45be 625f a43e af33 75be
00000240: 0977 e93e 1996 8abe a7ef 833e 85a0 693e
00000250: 4a78 90be bccf 763c 7bc0 79be b31e bcbe
00000260: 3a28 c4be 724c 933d 2855 dcbd 98fa 623f
00000270: 74cd 99be 0a8e 5dbe ceef 7f3c cffb 05bd
00000280: 2011 413f 7e2f 06be ca96 83be a6df ee3e
00000290: 85b9 f13e 46d6 a6be 244b 1b3d 9c6f 9d3d
000002a0: 9eb2 e2be f5fd fabd 1fb3 3b3e 26b3 953e
000002b0: 8d1f 873d 1943 033e 7e4e afbe 1b8e b2be
000002c0: 8e16 9c3e 9071 903e 1d41 72be e143 5c3e
000002d0: 0a79 263f a239 833e c5b2 c73e f62c 1dbf
000002e0: e116 00bf ba5d 893e a5eb f5bd f63d 2b3f
000002f0: a6d0 b7be b89c 0dbf 2a9b 1bbf e6dc 15be
00000300: bf64 743e 23b4 22bf d8b1 06bf db8c 8d3e
00000310: 8cbb 1fbe 062e bdbe 0bb3 f03e c67c 053e
00000320: d57d 223f f140 e43e 5504 933e cb2b a13d
00000330: 8a41 d5be 3d7d efbd 88ff 353e 1afe b9be
00000340: b4c7 cb3e 0b3e f7be f77e 2e3f 5f2e fd3d
00000350: fdc9 ad3d 2aff 5cbd e8c8 58be 931c 97be
00000360: 22f8 eebe 4a12 c6bb 2ec3 473d ca44 d93e
00000370: a3c5 c0be 9796 a5be 51db e73d 9489 e9be
00000380: 4341 863e 7d09 95bd b7f4 cbbe ad7b 953e
00000390: f768 c53e 806b eebe 77ca 753e ce11 da3d
000003a0: 7d23 64be 7fea a6bd c3db de3e 8c07 353e
000003b0: e145 9abe 9c52 bc3c 18b4 c7be 2c4e 35bd
000003c0: 3ca8 783d 4539 9d3e f6e7 18bf 5948 a93e
000003d0: d133 4b3e 2f64 143e a10d 133e 9c23 19be
000003e0: c1fc 06bf da00 eb3d 57f3 1cbf fb8a 133f
000003f0: d8dc 6dbd 15df 97be 97c1 b5be 653c 0f3e

pi.pi_net.4.bias f4 [256]
-0.4095859 -0.5683323 -0.6050799 -0.39838922 -0.44736105 -0.33696982 -0.42067397 -0.2602059
-0.3251739 -0.41252163 -0.5192687 -0.4030314 -0.43816763 -0.41033602 -0.41281378 -0.56914794
-0.4203353 -0.32072073 -0.42190528 -0.18452802 -0.46317527 -0.3675774 -0.33233812 -0.19743909
-0.43641162 -0.33702683 -0.5196836 -0.3993342 -0.28010175 -0.2837631 -0.4775256 -0.45392606
-0.35080346 -0.5606959 -0.48478365 -0.36084294 -0.46455482 -0.32001054 -0.45699623 -0.46948603
0.25280464 -0.4898014 -0.5065616 -0.21952346 -0.4365044 -0.3486793 -0.5609761 -0.5719765
-0.3863202 -0.43805334 -0.4154255 -0.28601176 -0.41024673 -0.50084645 -0.4324956 -0.44234768
-0.333345 -0.5435119 -0.49105972 -0.41397133 -0.33086032 -0.46058738 -0.5530634 -0.5013159
-0.27307656 -0.40688676 -0.32242262 -0.3919485 -0.5487075 -0.37837282 -0.35161883 -0.3796748
-0.5960138 -0.2622696 -0.097220264 -0.40778917 -0.34441453 -0.63596326 -0.5047465 -0.27274683
-0.4566305 -0.48076904 -0.56786084 -0.39362308 -0.5377868 -0.39297572 -0.47989956 -0.31801602
-0.35925338 -0.24367008 -0.5776428 -0.41844437 -0.365378 -0.48006228 -0.41399077 -0.5067559
-0.4637223 -0.31440875 -0.25459096 -0.3841736 -0.47674653 -0.29794937 -0.425242 -0.42599362
0.03847319 -0.35745117 -0.55986226 -0.550052 -0.35833058 -0.5027081 -0.49792764 -0.33763343
-0.572758 -0.5633165 -0.3887416 -0.42679602 -0.5226943 -0.06432177 -0.5302315 -0.47172564
-0.50562114 -0.3523552 -0.47330827 -0.45641407 -0.52722627 -0.5946674 -0.46277663 -0.33442298
-0.051483188 -0.5756671 -0.55351603 -0.35027945 -0.38887566 0.22241034 -0.32528546 -0.572354
-0.4472181 -0.5157022 -0.31196427 -0.46348324 -0.37828088 -0.6117268 -0.5496907 -0.2956502
-0.5991871 -0.4518603 -0.5144748 -0.40279946 -0.358998 -0.3515915 -0.43690822 -0.3807847
-0.42780203 -0.26376438 -0.4083092 -0.5059158 -0.4727321 -0.39436588 -0.44122025 -0.5781275
0.30416808 -0.30342615 -0.35869285 -0.3851739 0.0027749022 -0.45272353 -0.35442525 -0.43002334
-0.37028807 -0.40388736 -0.58604294 -0.5315439 -0.3050602 -0.30666426 -0.32235062 -0.39669225
-0.48915136 -0.5203389 -0.5844354 -0.55369043 -0.38884747 -0.31131467 -0.5610448 -0.5825369
-0.3860543 -0.42561045 -0.35511434 -0.60116416 -0.35134712 -0.29952812 -0.6301544 -0.3493183
-0.31483567 -0.39943227 -0.4301474 -0.34353814 -0.39312622 0.2832 -0.29122502 -0.3427691
-0.582883 -0.37341136 -0.461711 -0.43762004 -0.40126732 -0.54748625 -0.24446088 -0.5715529
-0.33543056 -0.43387023 0.06872081 -0.5473782 -0.5542469 -0.55059415 -0.54454404 -0.32956305
0.21271199 -0.49845436 -0.44731066 -0.39839017 -0.50908476 -0.4436377 -0.5144674 -0.40500924
-0.39856488 -0.30409673 -0.11919209 -0.368582 -0.56162095 -0.5147433 -0.5627881 -0.36246333
-0.42891943 -0.29492092 -0.59415334 -0.483464 -0.41993776 -0.47764748 -0.32568967 -0.54837865
-0.53712827 -0.4366458 -0.5768074 -0.5004385 0.18381146 -0.40191272 -0.4128484 -0.41727093
-0.4735165 -0.45883518 -0.527544 -0.54584116 -0.4116503 -0.47180465 -0.41080067 -0.6349114
00000000: 3eb5 d1be 3a7e 11bf 84e6 1abf acf9 cbbe
00000010: 820c e5be 4f87 acbe 9462 d7be b539 85be
00000020: 327d a6be 0936 d3be cbee 04bf 225a cebe
00000030: 8257 e0be 9017 d2be 545c d3be aeb3 11bf
00000040: 3036 d7be 8235 a4be f803 d8be eaf4 3cbe
00000050: 4f25 edbe 1b33 bcbe 3928 aabe 792d 4abe
00000060: 5871 dfbe c88e acbe fc09 05bf 8875 ccbe
00000070: 7f69 8fbe 6649 91be 3c7e f4be ff68 e8be
00000080: 839c b3be c489 0fbf 9035 f8be 68c0 b8be
00000090: 21da edbe 6cd8 a3be 69fb e9be 7960 f0be
000000a0: 9c6f 813e 40c7 fabe 05ae 01bf c2ca 60be
000000b0: 817d dfbe 1886 b2be 219c 0fbf 0d6d 12bf
000000c0: c3cb c5be 8748 e0be a7b2 d4be 2270 92be
000000d0: dc0b d2be 7937 00bf 1070 ddbe 657b e2be
000000e0: 32ac aabe 9923 0bbf 2e6c fbbe 0df4 d3be
000000f0: 8666 a9be 1cd2 ebbe 9095 0dbf 3d56 00bf
00000100: b1d0 8bbe 7653 d0be 9414 a5be 79ad c8be
00000110: 1878 0cbf 15ba c1be 6207 b4be bc64 c2be
00000120: 5c94 18bf 3348 86be 6b1b c7bd bec9 d0be
00000130: 1a57 b0be 7dce 22bf 1137 01bf 79a5 8bbe
00000140: 79cb e9be 5c27 f6be 545f 11bf f788 c9be
00000150: 65ac 09bf 1d34 c9be 65b5 f5be ffd2 a2be
00000160: 0ff0 b7be a684 79be 66e0 13bf 573e d6be
00000170: d312 bbbe b9ca f5be 99f6 d3be c1ba 01bf
00000180: 026d edbe 2ffa a0be bf59 82be 67b2 c4be
00000190: 1f18 f4be d28c 98be 52b9 d9be d61b dabe
000001a0: 1096 1d3d d703 b7be 2253 0fbf 35d0 0cbf
000001b0: 1b77 b7be 7ab1 00bf 5ff0 febe 4ade acbe
000001c0: 45a0 12bf 8335 10bf 2409 c7be 0285 dabe
000001d0: 4bcf 05bf 22bb 83bd 40bd 07bf 0686 f1be
000001e0: 6370 01bf e767 b4be 7655 f2be 1baf e9be
000001f0: 4df8 06bf 1f3c 18bf 0ff1 ecbe 7d39 abbe
00000200: 09e0 52bd eb5e 13bf 3ab3 0dbf d457 b3be
00000210: b61a c7be 89bf 633e d18b a6be cb85 12bf
00000220: c5f9 e4be 0f05 04bf c8b9 9fbe ad4d edbe
00000230: 08ae c1be 219a 1cbf 88b8 0cbf 775f 97be
00000240: 5364 19bf 3c5a e7be 9fb4 03bf bb3b cebe
00000250: 96ce b7be cd03 b4be 6fb2 dfbe 36f6 c2be
00000260: de08 dbbe 200c 87be e70d d1be b383 01bf
00000270: f109 f2be 53ea c9be 9fe7 e1be 2a00 14bf
00000280: ebbb 9b3e ac5a 9bbe 97a6 b7be 8335 c5be
00000290: 22db 353b 61cb e7be 3a77 b5be 052c dcbe
000002a0: 6696 bdbe 53ca cebe e906 16bf 4313 08bf
000002b0: da30 9cbe 1903 9dbe 240b a5be 3f1b cbbe
000002c0: 0c72 fabe ee34 05bf 8f9d 15bf a8be 0dbf
000002d0: 0417 c7be a364 9fbe a2a0 0fbf 2321 15bf
000002e0: e9a8 c5be 9de9 d9be 8cd1 b5be e5e5 19bf
000002f0: c5e3 b3be c05b 99be cc51 21bf d9d9 b2be
00000300: 2432 a1be 6382 ccbe 483c dcbe 3be4 afbe
00000310: d747 c9be 97ff 903e 721b 95be 6e7f afbe
00000320: d237 15bf c62f bfbe 6265 ecbe bc0f e0be
00000330: e972 cdbe 0f28 0cbf f453 7abe 4a51 12bf
00000340: 8ebd abbe 3d24 debe 7fbd 8c3d fa20 0cbf
00000350: 20e3 0dbf bdf3 0cbf 3d67 0bbf 7dbc a8be
00000360: 2cd1 593e 6935 ffbe e705 e5be ccf9 cbbe
00000370: 6153 02bf 7b24 e3be 23b4 03bf 5f5d cfbe
00000380: b210 ccbe 91b2 9bbe fc1a f4bd c8b6 bcbe
00000390: 64c6 0fbf 38c6 03bf e212 10bf cb94 b9be
000003a0: 549b dbbe e0ff 96be 6f1a 18bf 9888 f7be
000003b0: 1502 d7be 368e f4be ccc0 a6be 8b62 0cbf
000003c0: 3d81 09bf 0a90 dfbe a6a9 13bf bd1c 00bf
000003d0: 1239 3c3e 81c7 cdbe de60 d3be 89a4 d5be
000003e0: c170 f2be 72ec eabe 200d 07bf 3fbc 0bbf
000003f0: d4c3 d2be 6190 f1be 7754 d2be 8e89 22bf

v.v_net.0.weight f4 [64, 5]
0.5207496 0.2569944 0.24737126 0.21316832 0.47481617 0.21242473 0.5234736 -0.57316834
-0.421462 0.09264896 0.9996204 0.15661532 0.010101459 -0.41454616 -0.43012673 -0.06892359
0.08280728 -0.18599983 -0.45408508 -0.25871357 0.91192514 0.70739394 0.57443887 0.5192728
0.39002174 0.75171536 0.17628494 0.39601853 0.56882715 0.33655474 1.1837157 1.3945417
0.58751523 0.46012908 0.09479706 -0.48870337 0.0470545 -0.22600065 -0.13203809 0.12586163
0.12616862 0.015632417 -0.499612 -0.51788586 -0.2259977 0.25434753 0.3476092 -0.22485481
-0.08659822 -0.23638667 -0.2783466 0.16597928 -0.519422 -0.23669145 -0.21969306 0.5232859
0.2503942 -0.48657444 -0.098107815 -0.12450354 -0.33130774 0.20689677 -0.2896122 0.1436091
-0.77494514 -0.47561207 -0.74978113 0.26492468 -0.011541055 -0.24541931 -1.1300068 -0.14931767
0.18452145 0.7716953 0.11816256 0.24392958 -0.26568547 -0.12691067 0.074609846 -0.5901901
-0.25011685 0.036227982 -0.4929433 -0.24537085 -0.3165858 -1.2173531 -0.10976706 0.39826292
0.41942105 0.2641009 -0.19739383 0.46204364 0.15276201 0.3273494 0.27127907 -0.56456673
-0.55705243 0.3165944 -0.7019686 -0.3241398 0.03834338 0.04096328 0.2535063 0.17371547
0.216025 0.12449502 0.027627695 0.31087425 0.30092755 0.12405432 -0.5330764 0.20381494
-0.46359536 -0.27640265 0.03122879 -0.10892872 -0.48825854 -0.742511 -0.0996337 0.042026367
0.5179808 -0.18699096 0.13559367 0.15553255 0.4230899 -0.3084145 -0.705883 0.38571814
0.043798868 -0.373592 -0.5698772 -0.17278728 0.3435393 -0.11153731 0.3866648 -0.86281586
-0.60967344 -0.2153302 0.041145544 0.10931561 0.30729714 0.9088996 -0.38568026 -0.2976751
-0.03837631 -0.0036191214 0.72120255 0.48524994 -0.099928245 0.3307444 -0.6566795 -0.47248283
0.28558183 0.57174355 0.33241642 -0.052557446 0.50345314 -0.14843847 -0.3617047 -0.11083473
-0.18813998 0.046658773 -0.3125158 -0.7565314 -0.43094826 0.13009074 0.070165455 0.54459643
0.17874692 -0.076081246 -0.3453006 -0.58325773 -0.25364003 0.15333281 0.06675161 -0.04825933
0.8266915 -0.11061068 -0.19243738 -0.57823056 -0.59591043 -0.88952667 0.8294133 -0.004846392
0.10328308 0.16364698 -0.5848107 -0.48731586 -0.22732565 0.17412075 -0.39617446 -0.5528146
-0.29708937 0.54366755 -0.3736934 0.23247622 0.43803355 -0.39989918 -0.47486055 -0.035024967
-0.040336832 0.07615487 0.32128632 -0.09521067 -0.89986455 0.7603555 0.10522342 0.77802944
0.29395035 0.43236935 -0.3723486 0.33625826 -0.5162639 -0.224114 -0.40942073 0.5373025
-0.19542697 0.28547817 0.19260857 0.17162964 -0.010955655 -0.9273987 0.11143976 0.92511696
0.14206694 -0.61317676 0.23887317 -0.31677324 -0.39825132 0.034416176 -0.32083684 -0.29572397
0.056779735 0.15714097 0.17567259 0.21202275 -0.03206806 0.4306888 0.0684578 0.3708981
-0.86369 -0.28394097 -0.297469 -0.23132268 -0.326521 0.24712361 0.7650387 -0.359494
0.3280746 0.075305246 -0.1868424 -0.21925145 -0.0105178775 0.06407921 -0.14644115 -0.60870135
00000000: d94f 053f c594 833e e44e 7d3e cc48 5a3e
00000010: 1b1b f33e de85 593e 5e02 063f 29bb 12bf
00000020: dec9 d7be bdbe bd3d 1fe7 7f3f c45f 203e
00000030: 9780 253c 653f d4be 9239 dcbe d027 8dbd
00000040: dd96 a93d bd76 3ebe d77d e8be 1b76 84be
00000050: ed73 693f c517 353f 6d0e 133f 10ef 043f
00000060: eeb0 c73e 6b70 403f 0a84 343e f1c2 ca3e
00000070: a89e 113f e750 ac3e ff83 973f 5880 b23f
00000080: 6667 163f 0a96 eb3e f624 c23d 5437 fabe
00000090: 38bc 403d b76c 67be fe34 07be dfe1 003e
000000a0: 5932 013e 8e0f 803c 25cd ffbe 2b94 04bf
000000b0: f16b 67be d739 823e d5f9 b13e 5740 66be
000000c0: 685a b1bd 590f 72be 7283 8ebe 79f6 293e
000000d0: d7f8 04bf 3e5f 72be 38f7 60be 11f6 053f
000000e0: ab33 803e 4920 f9be c0ec c8bd b6fb febd
000000f0: 2ba1 a9be bfdc 533e 0d48 94be 440e 133e
00000100: ce62 46bf 6d83 f3be a8f1 3fbf 35a4 873e
00000110: b116 3dbc 334f 7bbe 10a4 90bf bbe6 18be
00000120: 31f3 3c3e d38d 453f 36ff f13d adc8 793e
00000130: ed07 88be dff4 01be 0ccd 983d b316 17bf
00000140: 510f 80be cb63 143d 1063 fcbe 7f42 7bbe
00000150: 8917 a2be 3ad2 9bbf 8dcd e0bd 1ee9 cb3e
00000160: 5bbe d63e 3c38 873e 9c21 4abe fc90 ec3e
00000170: a56d 1c3e 579a a73e 17e5 8a3e 7287 10bf
00000180: fd9a 0ebf a918 a23e 37b4 33bf a7f5 a5be
00000190: f30d 1d3d 1dc9 273d 94cb 813e 78e2 313e
000001a0: a835 5d3e 3ff7 fe3d 7a53 e23c e92a 9f3e
000001b0: 2d13 9a3e 3110 fe3d b277 08bf ddb4 503e
000001c0: 5f5c edbe a684 8dbe 85d3 ff3c 0516 dfbd
000001d0: 06fd f9be 3315 3ebf c10c ccbd d723 2c3d
000001e0: 649a 043f 8f7a 3fbe 11d9 0a3e ed43 1f3e
000001f0: 3d9f d83e 81e8 9dbe c0b4 34bf d97c c53e
00000200: 7166 333d 7347 bfbe 79e3 11bf 26ef 30be
00000210: 62e4 af3e ac6d e4bd eef8 c53e 80e1 5cbf
00000220: 8f13 1cbf 857f 5cbe 3b88 283d dde0 df3d
00000230: 0d56 9d3e a5ad 683f e277 c5be df68 98be
00000240: 7a30 1dbd c82e 6dbb bba0 383f ae72 f83e
00000250: 2ea7 ccbd 5457 a93e 261c 28bf 45e9 f1be
00000260: c837 923e c95d 123f 7c32 aa3e 7a46 57bd
00000270: 4ee2 003f 4100 18be 5c31 b9be 52fd e2bd
00000280: c4a7 40be 451d 3f3d 1202 a0be 0bac 41bf
00000290: 40a5 dcbe 8236 053e e8b2 8f3d ac6a 0b3f
000002a0: 6f09 373e 7cd0 9bbd 3ecb b0be 6150 15bf
000002b0: 1bdd 81be 4703 1d3e 11b5 883d 93ab 45bd
000002c0: 0ea2 533f da87 e2bd 4e0e 45be eb06 14bf
000002d0: 968d 18bf 05b8 63bf 6e54 543f 7cce 9ebb
000002e0: 1486 d33d 1393 273e 27b6 15bf 7781 f9be
000002f0: 0ec8 68be b64c 323e 61d7 cabe 4285 0dbf
00000300: 191c 98be cc2d 0b3f be54 bfbe 3f0e 6e3e
00000310: ef45 e03e 96bf ccbe ec20 f3be 5776 0fbd
00000320: 3c38 25bd 16f7 9b3d a47f a43e d0fd c2bd
00000330: 865d 66bf a8a6 423f 607f d73d f02c 473f
00000340: a980 963e 845f dd3e 7aa4 bebe 0b2a ac3e
00000350: df29 04bf 247e 65be 989f d1be a88c 093f
00000360: 021e 48be 322a 923e 2e3b 453e aebf 2f3e
00000370: 597f 33bc 006a 6dbf 873a e43d 77d4 6c3f
00000380: ff79 113e 27f9 1cbf 2b9b 743e 1a30 a2be
00000390: 99e7 cbbe faf7 0c3d ba44 a4be 2269 97be
000003a0: de91 683d 90e9 203e 84e3 333e 7e1c 593e
000003b0: cc59 03bd 3e83 dc3e 9a33 8c3d 5be6 bd3e
000003c0: ca1a 5dbf b660 91be db4d 98be dadf 6cbe
000003d0: c32d a7be f90d 7d3e 94d9 433f 990f b8be
000003e0: 65f9 a73e a339 9a3d 9d53 3fbe 7483 60be
000003f0: 2d53 2cbc f63b 833d abf4 15be dad3 1bbf

v.v_net.0.bias f4 [64]
0.5205286 0.20342161 0.063333794 0.13660046 1.1567336 0.54938656 1.2101314 -0.037532877
-0.06808011 0.09688389 0.11748378 0.1301978 0.22766158 -0.46202785 -0.10372864 -0.021869475
-0.054386668 -0.052751612 0.56012964 -0.5496983 -0.16198954 -0.14844584 0.10723559 -0.48170042
-0.12504092 -0.2479749 0.015232323 -0.47261956 0.25595874 0.54016095 -0.07676241 -0.07051822
-0.0025203014 -0.1401544 -0.24574302 0.18244076 -0.28122538 -0.002861824 -0.46047223 -0.09286162
0.2925888 0.08370727 0.25776222 -0.14699057 -0.26955414 0.2204254 -0.24837284 -0.10533708
-0.35085815 0.3088741 -0.37174174 0.17202502 0.116632834 -0.11715798 -0.247679 -0.6439019
-0.028257344 0.08574266 -0.108404756 -0.20044333 -0.74348015 0.26623213 -1.1093886 0.5141923
00000000: 5d41 053f c14d 503e 26b5 813d fee0 0b3e
00000010: d90f 943f 99a4 0c3f 96e5 9a3f 13bc 19bd
00000020: 966d 8bbd 106b c63d 569b f03d 9252 053e
00000030: 1e20 693e ea8e ecbe ae6f d4bd 9d27 b3bc
00000040: 8ec4 5ebd 1312 58bd a864 0f3f 07b9 0cbf
00000050: 96e0 25be 3002 18be 559e db3d 70a1 f6be
00000060: ba0a 00be 22ed 7dbe fe90 793c 31fb f1be
00000070: 060d 833e fd47 0a3f 9c35 9dbd db6b 90bd
00000080: a42b 25bb a384 0fbe 0fa4 7bbe c0d1 3a3e
00000090: c6fc 8fbe 708d 3bbb 04c3 ebbe 3c2e bebd
000000a0: 33ce 953e b86e ab3d 69f9 833e b284 16be
000000b0: 0003 8abe 32b7 613e 7355 7ebe f8ba d7bd
000000c0: aea3 b3be bf24 9e3e ef54 bebe 5427 303e
000000d0: 32dd ee3d 86f0 efbd 909f 7dbe c1d6 24bf
000000e0: f27b e7bc d999 af3d 5003 debd 0441 4dbe
000000f0: b754 3ebf 944f 883e 7200 8ebf 1ba2 033f

v.v_net.2.weight f4 [64, 64]
-0.2356738 -0.21474908 -0.024424538 0.47853583 -0.23171128 -0.50674134 -0.32516035 -0.30916536
0.20644534 0.021561142 -0.0040804096 -0.3419303 -0.00076314353 -0.014470497 0.7294724 0.02524592
0.25795892 -0.00090423366 0.014675639 0.32643768 -0.36690053 0.09532262 0.21027486 0.14478362
-0.56062376 0.061503734 0.31992033 0.36857554 -0.56946534 -0.23583806 0.37186822 -0.3855952
-0.13637553 -0.6979919 0.17846602 -0.58149195 0.40585795 0.41200757 -0.026246533 0.0075823367
-0.28988957 -0.1382185 -0.07746709 -0.11545116 0.13065347 0.10896519 0.1499837 -0.08841482
0.37835217 -0.09882156 0.46102 -0.05634522 0.40443474 -0.2537821 0.110510126 0.0104431985
0.08605587 -0.059334245 0.25265062 -0.05106292 0.08822877 -0.32842186 0.49829498 -0.5787105
-0.14877905 -0.5645648 0.049422447 0.12078649 -0.21104328 -0.58105624 -0.36982238 -0.11755563
0.2344645 -0.09836755 0.26911962 -0.40134418 -0.18954022 0.26905707 -0.41750634 0.5292298
0.38180208 0.21355328 0.006734811 -0.09263424 -0.6274689 0.18898116 0.20939468 0.27864042
-0.36237958 0.46894217 0.1922785 0.3418849 -0.17292848 -0.3663163 0.009721069 -0.07590801
0.16681807 -0.37741747 0.7027257 -0.41155607 0.023456205 0.053550523 -0.03534835 -0.26551875
-0.01103287 -0.29255062 -0.34203202 0.06351181 0.57214075 0.00712662 0.1316695 0.02292268
-0.3076364 0.09955179 0.23784176 -0.29911503 -0.2088084 -0.065006025 -0.240978 0.44616953
0.061845154 0.17032474 0.15740171 -0.32775146 0.7158201 -0.18115202 0.8228711 -0.2883836
0.07737996 0.027911253 -0.27258605 0.15542632 -0.41949517 -0.077117905 -0.43680412 0.17286421
-0.11618348 -0.4353339 0.2713974 -0.36189774 0.383278 0.14748988 0.2404514 0.3133549
0.2280255 0.19387425 0.0561278 -0.08481156 -0.41530827 -0.2029854 0.21315664 -0.01344776
-0.51029825 -0.1841804 -0.09250224 0.26675665 0.37972802 -0.038751584 0.48876813 -0.4263595
-0.20921874 -0.4616881 0.3499772 0.10293807 0.2607594 0.108426414 -0.30585486 0.0012682605
0.010287244 0.11758587 0.0983945 -0.107839435 0.03305359 0.25879163 0.41734737 -0.3340548
0.017191846 0.20958553 0.32291436 -0.18984453 -0.2506369 -0.32559147 0.0018491823 0.4779597
-0.24235451 0.24277377 -0.113036476 -0.48066133 0.51810086 -0.48459607 0.7140872 -0.1095348
-0.039125163 -0.15044872 0.6261345 0.14715174 -0.020211907 0.2238025 -0.34237823 -0.5080869
-0.11313657 0.35888886 -0.076726995 0.42187947 -0.76580375 0.58799225 -0.58122385 0.22710745
-0.24959967 -0.7527542 -0.32824185 0.20692311 0.5313347 -0.1818058 -0.17488681 0.26148084
0.428276 0.17586459 -0.93466896 0.29677925 -0.48921528 -0.519118 -0.08816396 0.007807529
0.1729435 0.23535542 0.08815329 0.19837694 0.12626122 0.2848876 0.56732816 0.1217645
0.08031892 -0.021560276 0.09889415 0.3552565 0.08306259 -0.7267875 -0.23229337 0.07387684
-0.1737864 -0.07090377 -0.32412884 -0.8906661 0.1832377 -0.23541355 -0.0006436134 0.19041331
0.26548684 -0.5832055 -0.2353937 0.4183434 0.31946355 0.34364793 -0.32794505 -0.1755119
00000000: 7954 71be 2fe7 5bbe f815 c8bc a602 f53e
00000010: b945 6dbe cdb9 01bf 6b7b a6be ec4a 9ebe
00000020: 6866 533e fea0 b03c f5b4 85bb 7d11 afbe
00000030: b20d 48ba aa15 6dbc b4be 3a3f 88d0 ce3c
00000040: 3113 843e 180a 6dba 1772 703c d722 a73e
00000050: 63da bbbe 8138 c33d 4b52 573e 2842 143e
00000060: 0a85 0fbf 57eb 7b3d 99cc a33e efb5 bc3e
00000070: 7bc8 11bf 887f 71be 8365 be3e bc6c c5be
00000080: 07a6 0bbe 99af 32bf ccbf 363e a8dc 14bf
00000090: 9dcc cf3e a8f2 d23e f802 d7bc 4075 f83b
000000a0: 686c 94be 2789 0dbe 11a7 9ebd a871 ecbd
000000b0: 06ca 053e 2429 df3d 5495 193e d412 b5bd
000000c0: 60b7 c13e f562 cabd d00a ec3e 3fca 66bd
000000d0: 1212 cf3e baef 81be 2253 e23d f319 2b3c
000000e0: 0f3e b03d 7708 73bd 6c5b 813e 5a27 51bd
000000f0: 49b1 b43d e926 a8be 8520 ff3e 5f26 14bf
00000100: 8959 18be 5287 10bf 316f 4a3d e85e f73d
00000110: bb1b 58be 1ac0 14bf 5c59 bdbe 02c1 f0bd
00000120: 7617 703e ed74 c9bd 0cca 893e fc7c cdbe
00000130: d516 42be d9c1 893e 64c3 d5be 9b7b 073f
00000140: 907b c33e b6ad 5a3e b0af dc3b 05b7 bdbd
00000150: cda1 20bf 4784 413e 8f6b 563e f5a9 8e3e
00000160: d189 b9be 3019 f03e a8e4 443e 8a0b af3e
00000170: 2a14 31be cf8d bbbe 1e45 1f3c a975 9bbd
00000180: 5bd2 2a3e dd3c c1be d5e5 333f 7ab7 d2be
00000190: 3a27 c03c cb57 5b3d 6ec9 10bd 13f2 87be
000001a0: 36c3 34bc 32c9 95be d21e afbe 7b12 823d
000001b0: d177 123f 6c86 e93b 5fd4 063e 58c8 bb3c
000001c0: 8582 9dbe cfe1 cb3d ca8c 733e 9b25 99be
000001d0: dfd1 55be e121 85bd f0c2 76be 5570 e43e
000001e0: 5851 7d3d 9c69 2e3e ea2d 213e 0acf a7be
000001f0: fc3f 373f ea7f 39be aea7 523f 04a7 93be
00000200: 6279 9e3d 24a6 e43c 6690 8bbe 1428 1f3e
00000210: 12c8 d6be feef 9dbd caa4 dfbe 5103 313e
00000220: 9bf1 edbd 16e4 debe 9af4 8a3e a94a b9be
00000230: 043d c43e 9607 173e e438 763e 0e70 a03e
00000240: 847f 693e f986 463e 44e6 653d afb1 adbd
00000250: 49a3 d4be 68db 4fbe bc45 5a3e fe53 5cbc
00000260: e8a2 02bf c999 3cbe d071 bdbd 5494 883e
00000270: b66b c23e fbb9 1ebd d13f fa3e cb4b dabe
00000280: 703d 56be 6262 ecbe 3630 b33e 32d1 d23d
00000290: 4282 853e ab0e de3d 0299 9cbe c33b a63a
000002a0: d48b 283c dcd0 f03d 0e83 c93d ecda dcbd
000002b0: 3463 073d 5680 843e 8eae d53e 3b09 abbe
000002c0: ead5 8c3c 979d 563e 0855 a53e 9b66 42be
000002d0: 7b53 80be edb3 a6be 4360 f23a 22b7 f43e
000002e0: c82b 78be b099 783e ab7f e7bd 3e19 f6be
000002f0: 42a2 043f fa1c f8be 6bce 363f c853 e0bd
00000300: b541 20bd 3b0f 1abe 5a4a 203f f2ae 163e
00000310: 7193 a5bc 7c2c 653e 334c afbe fc11 02bf
00000320: 25b4 e7bd 48c0 b73e 0b23 9dbd 9600 d83e
00000330: b70b 44bf a986 163f 16cb 14bf db8e 683e
00000340: 0e97 7fbe 80b4 40bf 510f a8be a7e3 533e
00000350: 8d05 083f 4d2b 3abe 8715 33be d1e0 853e
00000360: fe46 db3e d915 343e 7746 6fbf 73f3 973e
00000370: 6d7a fabe ebe4 04bf 4e8f b4bd 4dd6 ff3b
00000380: 1a18 313e 0301 713e b689 b43d 5323 4b3e
00000390: 9f4a 013e cadc 913e 6b3c 113f ab5f f93d
000003a0: 3f7e a43d 2d9f b0bc 0489 ca3d 2ee4 b53e
000003b0: b81c aa3d bf0e 3abf 50de 6dbe be4c 973d
000003c0: 10f5 31be ff35 91bd 37f4 a5be b202 64bf
000003d0: aaa2 3b3e 4010 71be 2ab8 28ba b5fb 423e
000003e0: e4ed 873e f54c 15bf 0c0b 71be 1b31 d63e
000003f0: ba90 a33e 9ff2 af3e 6ae8 a7be 64b9 33be

v.v_net.2.bias f4 [64]
-0.17807831 -0.17519294 -0.13089134 -0.20428173 -0.17560263 0.18943782 -0.02648742 -0.0032737595
-0.1776941 -0.06632713 0.18065651 -0.0095800245 0.15702747 0.09694751 0.099905714 0.23835258
0.15521838 -0.19055808 -0.28888878 -0.21922672 -0.016569046 -0.17353708 0.11616112 0.011144501
0.12977721 -0.048971184 0.020321675 -0.1363881 -0.14142323 0.19735438 0.15324162 -0.14577577
-0.15780842 0.19109654 -0.15361321 -0.18346025 0.19463372 0.06959661 -0.12006605 0.019023193
0.15156385 0.18767014 0.15233733 0.23913695 0.12816738 -0.017802399 -0.08531907 0.078784674
-0.01708478 0.021908 -0.05078047 0.095593214 -0.12309365 -0.14541526 0.09674016 -0.20643163
0.15376411 0.15393785 -0.17888227 -0.19943538 -0.15532953 0.07142736 -0.018007116 -0.17006952
00000000: 295a 36be c765 33be 6108 06be 3b2f 51be
00000010: 2dd1 33be fdfb 413e 25fc d8bc 928c 56bb
00000020: 71f5 35be 85d6 87bd 05fe 383e 89f5 1cbc
00000030: cfcb 203e 6b8c c63d 5e9b cc3d b312 743e
00000040: 91f1 1e3e a821 43be 3be9 93be f87c 60be
00000050: cfbb 87bc b4b3 31be e2e5 ed3d 6d97 363c
00000060: 51e4 043e 0296 48bd a479 a63c 52a9 0bbe
00000070: 40d1 10be 4417 4a3e 5feb 1c3e 3e46 15be
00000080: 8898 21be d0ae 433e c84c 1dbe 01dd 3bbe
00000090: 104e 473e ab88 8e3d 30e5 f5bd 87d6 9b3c
000000a0: 8e33 1b3e 9a2c 403e 51fe 1b3e 51e0 743e
000000b0: 4f3e 033e 56d6 91bc c4bb aebd dc59 a13d
000000c0: 61f5 8bbc 6878 b33c 2fff 4fbd 60c6 c33d
000000d0: 8618 fcbd bde7 14be b41f c63d d062 53be
000000e0: 5774 1d3e e2a1 1d3e ea2c 37be ca38 4cbe
000000f0: b40e 1fbe 8248 923d a983 93bc b426 2ebe

v.v_net.4.weight f4 [1, 64]
-4.2599425 -4.367515 -4.107116 4.5497813 -4.301082 4.459074 -4.1280465 -4.222436
-4.1699643 4.5003233 4.5059085 -4.778494 -4.5079036 4.136636 4.135085 4.5502152
-4.8380685 -4.898264 -4.6096954 -4.150655 -4.296013 4.3405223 4.5391264 4.2835736
-4.8228245 5.119001 5.3755236 -4.573447 -4.388595 4.6550574 4.133146 -4.5034237
-4.3397703 -4.653621 -4.2268047 4.4653974 4.2079883 -4.1540694 -4.966476 -4.607586
4.5244665 -5.148285 4.384102 4.826802 4.0835166 -4.489253 -5.044187 -4.4493413
-4.6442018 4.3321867 -4.055859 4.9186063 -4.178646 -4.519995 4.465066 4.510488
4.480027 4.2857833 -4.5047755 4.7892866 4.645622 4.4862013 4.885832 -4.217932
00000000: 7351 88c0 afc2 8bc0 7f6d 83c0 cf97 9140
00000010: 77a2 89c0 bcb0 8e40 f518 84c0 321e 87c0
00000020: 5970 85c0 a602 9040 6730 9040 6ce9 98c0
00000030: bf40 90c0 525f 8440 9e52 8440 5d9b 9140
00000040: 75d1 9ac0 94be 9cc0 a082 93c0 2ad2 84c0
00000050: f078 89c0 8fe5 8a40 8640 9140 0913 8940
00000060: 9454 9ac0 dbce a340 4a04 ac40 ae59 92c0
00000070: 5f6f 8cc0 3bf6 9440 bb42 8440 0c1c 90c0
00000080: 66df 8ac0 77ea 94c0 fc41 87c0 89e4 8e40
00000090: d7a7 8640 23ee 84c0 5fed 9ec0 5871 93c0
000000a0: 6ec8 9040 c0be a4c0 904a 8c40 2975 9a40
000000b0: 2bac 8240 f6a7 8fc0 fb69 a1c0 0161 8ec0
000000c0: 4d9d 94c0 46a1 8a40 99c9 81c0 3965 9d40
000000d0: 78b7 85c0 cda3 90c0 d2e1 8e40 eb55 9040
000000e0: 625c 8f40 2325 8940 1f27 90c0 d641 9940
000000f0: efa8 9440 f68e 8f40 bc58 9c40 4df9 86c0
