tmp/experiments/RN2 False,True,True/pyt_network_save/model save13000.pt (torch_old, 314943 bytes, 33 tensors)

pi.pi_net.0.weight f4 [64, 5]
0.10410435 -0.09494244 0.07346742 -0.22542408 -0.5957491 0.27495715 -0.17311582 0.10215773
-0.17365403 -0.07045617 0.2755077 0.0029452026 -0.05847229 -0.019332875 -0.39892697 0.3616614
-0.47804216 0.35608006 -0.049759798 0.4391532 -0.16999678 -0.23908693 -0.16912198 0.14952375
0.336279 -0.46498144 0.4434279 -0.26998135 0.13890201 -0.029340928 -0.26841095 -0.030901728
-0.2933234 0.25912488 -0.47988665 -0.4511137 0.12188059 -0.10479366 0.32188448 -0.10279607
-0.6623887 -0.5697258 -0.42337418 -0.22765273 -0.23410848 0.41326806 -0.3760802 -0.014772404
-0.40789434 -0.31682622 0.4980099 -0.20976709 -0.22367196 0.14522532 0.2074654 -0.46674472
0.28806922 0.23104186 -0.0635035 0.6128044 0.029025642 -0.19170618 0.17957176 -0.37302384
-0.05621422 -0.1876845 0.10933113 -0.2987702 0.0005687594 -0.19126898 -0.05476922 0.1234298
-0.45142266 -0.14082712 0.0076199924 -0.2237389 -0.4696924 0.30108652 0.015838983 0.3456018
-0.36002314 -0.20357987 0.3913029 0.24942261 0.65796083 -0.01702099 -0.06302432 0.063700914
0.16491087 0.18257059 -0.42818832 0.042995527 -0.08550191 0.53637683 0.10042178 0.14621906
-0.3520502 -0.382928 -0.3820019 -0.42010316 0.078072116 -0.66693974 0.14466049 0.25685778
0.22265144 0.117062934 -0.17677394 0.18230063 0.37952715 0.46174017 -0.7953635 0.12618345
-0.36459735 0.2857416 -0.008392679 0.28800508 -0.34735665 0.1863451 0.15532981 0.07553991
0.26091257 -0.5366171 -0.9384912 -0.5880179 -0.44574982 -0.17178118 0.14980753 0.12805675
-0.21944676 0.7717883 -0.3139759 0.32875928 0.051636863 -0.7647143 -0.08932012 -0.7065668
-0.33883673 0.18040277 -0.29873726 -0.6720341 0.028904175 -0.045051314 -0.35189846 -0.69567657
0.18259148 -0.0069508664 -0.1240194 0.33198845 0.33959827 -0.333593 -0.66233146 0.00023536597
0.51220745 -0.0121381655 0.5077985 0.3295135 0.40375468 0.34100547 0.5067033 0.56692874
-0.32715407 -0.205023 -0.095060736 0.04021466 -0.38330114 -0.54345924 -0.26861867 0.121019855
-0.17335625 0.1510489 0.10583763 0.34968442 0.0391003 -0.5823824 -0.08896577 -0.133551
0.1195759 0.25669616 0.023758028 -0.07796917 -0.08667519 0.40703186 -0.083904795 -0.61630917
-0.5114634 0.13941376 -0.19214907 -0.24375108 0.32837608 -0.25542042 -0.22321934 -0.25475603
-0.06668315 -0.25102177 0.09525082 0.29699767 0.28576538 -0.34570456 0.333355 0.38808337
-0.27721903 -0.09733114 0.3420958 0.2381635 -0.12308671 0.030128619 -0.34899652 -0.42167923
-0.49841788 0.145087 -0.040738914 0.25765407 0.4881712 0.07707276 0.02346337 0.29148096
-0.35412487 0.11172783 -0.34185824 -0.049936768 0.18929987 -0.002187244 0.010816777 -0.16459857
-0.22938958 0.42067373 0.1099743 -0.17919141 -0.3366339 0.17588691 -0.014499258 0.15033124
-0.36197627 -0.040505327 0.040820766 0.31598863 -0.19634488 0.29093447 0.076987736 -0.6983501
0.5914531 -0.27298483 -0.24379754 -0.544537 -0.36591068 0.005130514 0.5564903 0.0043622428
0.664898 0.097763985 0.42722845 -0.20523725 0.25079525 -0.50856686 -0.2686061 0.32241216
00000000: a934 d53d 2f71 c2bd 1676 963d 92d5 66be
00000010: 0383 18bf 2fc7 8c3e 4645 31be 1238 d13d
00000020: 5dd2 31be 534b 90bd 580f 8d3e 4d04 413b
00000030: a480 6fbd fa5f 9ebc 2840 ccbe af2b b93e
00000040: f1c1 f4be 2050 b63e eed0 4bbd b0d8 e03e
00000050: a313 2ebe 34d3 74be 502e 2dbe c11c 193e
00000060: c32c ac3e 0c12 eebe fb08 e33e ff3a 8abe
00000070: 543c 0e3e 635c f0bc 296d 89be 9f25 fdbc
00000080: 7c2e 96be 04ac 843e b4b3 f5be 60f8 e6be
00000090: 889c f93d 0f9e d6bd 0bce a43e bf86 d2bd
000000a0: 4e92 29bf 8dd9 11bf 80c4 d8be cc1d 69be
000000b0: 22ba 6fbe df97 d33e 958d c0be f407 72bc
000000c0: 87d7 d0be 0c37 a2be 27fb fe3e 2fcd 56be
000000d0: 430a 65be f2b5 143e cf71 543e 2af9 eebe
000000e0: cf7d 933e 3d96 6c3e 1f0e 82bd c0e0 1c3f
000000f0: 2fc7 ed3c a04e 44be a9e1 373e fbfc bebe
00000100: e240 66bd 5e30 40be 00e9 df3d 68f8 98be
00000110: cc18 153a 04dc 43be b155 60bd c3c8 fc3d
00000120: df20 e7be fc34 10be 21b1 f93b cf1b 65be
00000130: 867b f0be 0328 9a3e c1c0 813c b8f2 b03e
00000140: f454 b8be 3e77 50be db58 c83e a468 7f3e
00000150: 1f70 283f 9a6f 8bbc e512 81bd a075 823d
00000160: 65de 283e c9f3 3a3e 803b dbbe 141c 303d
00000170: a01b afbd fe4f 093f efa9 cd3d 73ba 153e
00000180: ec3f b4be 240f c4be c195 c3be c317 d7be
00000190: 46e4 9f3d 90bc 2abf e121 143e dd82 833e
000001a0: bdfe 633e b1be ef3d 3a04 35be 04ad 3a3e
000001b0: 6251 c23e 3569 ec3e f19c 4bbf 3c36 013e
000001c0: 81ac babe b94c 923e 7281 09bc 6775 933e
000001d0: bbd8 b1be 40d1 3e3e c70e 1f3e abb4 9a3d
000001e0: 5596 853e bd5f 09bf f640 70bf 5788 16bf
000001f0: 5239 e4be 68e7 2fbe 2567 193e 4f21 033e
00000200: a7b6 60be eb93 453f 73c1 a0be 2353 a83e
00000210: 2d81 533d 51c4 43bf 78ed b6bd 90e1 34bf
00000220: 027c adbe 81bb 383e 17f4 98be 6d0a 2cbf
00000230: 73c8 ec3c ba87 38bd 092c b4be dc17 32bf
00000240: 43f9 3a3e 18c4 e3bb e2fd fdbd 64fa a93e
00000250: d3df ad3e b4cc aabe 8e8e 29bf 92cc 7639
00000260: 0720 033f 28df 46bc 15ff 013f feb5 a83e
00000270: efb8 ce3e 4598 ae3e 4fb7 013f 3e22 113f
00000280: bd80 a7be 8df1 51be 34af c2bd 21b8 243d
00000290: 0c40 c4be 2520 0bbf 6388 89be 42d9 f73d
000002a0: 4d84 31be 90ac 1a3e 66c1 d83d d609 b33e
000002b0: a327 203d 0317 15bf b033 b6bd 98c1 08be
000002c0: 36e4 f43d ae6d 833e 32a0 c23c 4dae 9fbd
000002d0: c382 b1bd 7b66 d03e 47d6 abbd 70c6 1dbf
000002e0: 44ef 02bf 7bc2 0e3e bac2 44be e299 79be
000002f0: e920 a83e 77c6 82be 9c93 64be 626f 82be
00000300: 2d91 88bd ed85 80be dd12 c33d 1410 983e
00000310: d74f 923e 3000 b1be 82ad aa3e ddb2 c63e
00000320: a7ef 8dbe 8c55 c7bd 2e27 af3e 22e1 733e
00000330: e314 fcbd 4bd0 f63c acaf b2be 57e6 d7be
00000340: a130 ffbe b091 143e d9dd 26bd 3ceb 833e
00000350: 93f1 f93e 53d8 9d3d 4136 c03c fe3c 953e
00000360: db4f b5be 8fd1 e43d 0b08 afbe 7f8a 4cbd
00000370: d3d7 413e dd57 0fbb da38 313c 878c 28be
00000380: 1ae5 6abe 8c62 d73e 353a e13d f47d 37be
00000390: 475b acbe b31b 343e 4c8e 6dbc 6ff0 193e
000003a0: f454 b9be eae8 25bd ad33 273d 43c9 a13e
000003b0: a20e 49be 5df5 943e bfab 9d3d 12c7 32bf
000003c0: 7869 173f abc4 8bbe 10a6 79be c766 0bbf
000003d0: a558 bbbe df1d a83b 2676 0e3f 25f1 8e3b
000003e0: c136 2a3f 7c38 c83d b0bd da3e b729 52be
000003f0: 3c68 803e 7031 02bf bd86 89be 3513 a53e

pi.pi_net.0.bias f4 [64]
0.019719187 0.005649391 -0.092130765 -0.09098168 0.11191388 0.15436625 0.055692732 0.13377964
-0.27831072 -0.19433104 -0.087762535 0.123534665 -0.102132 0.18632644 0.23816524 0.08198102
0.17385411 0.010486273 0.050211098 -0.10763172 0.011002977 -0.0494482 0.26436213 -0.16156675
-0.18249021 -0.06187167 -0.017050236 -0.1609787 0.071281224 -0.036174975 0.029920595 0.071838394
0.21456935 0.20167017 -0.13602103 0.14362277 -0.008602291 0.14326882 0.08969827 -0.06774741
0.025785157 -0.028658083 0.12471516 -0.057730418 -0.1418778 0.098215856 0.07388874 -0.16574804
-0.027885634 0.021241372 -0.17146753 -0.24946222 -0.17459974 0.028933028 -0.086858876 0.07393154
-0.10846801 0.0046931803 0.23751593 0.15708429 -0.09654257 -0.039669998 0.15374279 0.029516764
00000000: 228a a13c 871e b93b 0eaf bcbd 9a54 babd
00000010: 1b33 e53d 3012 1e3e 101e 643d 88fd 083e
00000020: be7e 8ebe b7fe 46be d8bc b3bd beff fc3d
00000030: 952a d1bd 5ccc 3e3e 97e1 733e aae5 a73d
00000040: d006 323e 9ece 2b3c 27aa 4d3d 056e dcbd
00000050: d545 343c 328a 4abd 795a 873e c171 25be
00000060: b7de 3abe 266d 7dbd f0ac 8bbc 9ad7 24be
00000070: e4fb 913d 362c 14bd 091c f53c 0220 933d
00000080: 11b8 5b3e a082 4e3e 1949 0bbe d911 133e
00000090: a0f0 0cbc 10b5 123e bab3 b73d 27bf 8abd
000000a0: 653b d33c 5bc4 eabc a96a ff3d bb76 6cbd
000000b0: 6a48 11be 6525 c93d fb52 973d dbb9 29be
000000c0: 6a70 e4bc 6302 ae3c 2f95 2fbe 0673 7fbe
000000d0: 46ca 32be f504 ed3c 11e3 b1bd 6b69 973d
000000e0: 7a24 debd 40c9 993b 6037 733e b4da 203e
000000f0: 1cb8 c5bd 027d 22bd c06e 1d3e 24cd f13c

pi.pi_net.2.weight f4 [64, 64]
0.10645281 -0.24206872 -0.036452934 -0.07250141 -0.08963944 -0.21457747 -0.4867762 0.10767067
-0.29461452 -0.27578637 0.15986484 0.42941234 -0.18216713 -0.19348681 0.3002005 0.23999259
0.10474056 0.32028443 0.0032954887 -0.30371383 0.23766108 0.50064236 0.3489722 -0.21760863
-0.29284427 0.2504812 -0.1239071 -0.32366705 -0.26257515 0.58130777 -0.07580137 0.09961362
-0.028773246 -0.03988989 0.14340335 0.2017147 -0.12185061 -0.55112344 -0.52016157 0.24463508
0.09623648 -0.59878343 0.55665797 -0.33562896 -0.24597546 -0.15099624 -0.3889289 0.035995454
0.14616388 0.31558618 0.07048233 0.01866328 0.039649498 0.018225672 0.089066364 -0.4591801
-0.66646534 0.03963126 0.35369828 -0.37816468 -0.0015256433 -0.16769865 -0.25613236 -0.40988877
-0.052155815 -0.006541298 -0.16197373 0.039105535 -0.1553669 -0.005405808 0.40039796 -0.035498586
-0.13965464 -0.39688298 -0.46308026 0.22153918 -0.0756442 -0.02328687 0.1757427 -0.074958965
0.05800295 0.10912372 0.122500725 -0.012828667 0.25274095 -0.093088806 0.37767932 -0.02104261
-0.1557704 -0.15132423 0.09148882 -0.20278631 -0.2363762 -0.008968698 -0.095014825 0.11773364
0.14750369 -0.06464913 -0.119955555 -0.16981657 0.059125297 0.10666316 0.31293643 0.12621933
0.109645784 -0.020791588 0.20743448 0.077379376 -0.21759482 0.094157435 -0.23080109 -0.28287178
-0.1355814 0.17095777 -0.47311598 -0.14593425 -0.114276126 -0.033765808 0.014485951 0.3124909
0.10091571 -0.118728794 0.16956715 0.008060069 -0.56205165 0.009715961 0.32074738 -0.19767322
-0.5729954 -0.2142406 -0.08757495 0.09525448 -0.2665167 -0.12521277 -0.28705874 0.17837027
-0.23834772 -0.25654027 -0.31554848 0.24334456 0.17011903 -0.5393728 -0.31783098 0.3119754
-0.020329379 0.33141747 -0.37233987 -0.13346368 0.120908484 -0.06064431 -0.2348643 -0.33244866
-0.18275082 0.17740588 -0.44406348 -0.09440724 0.13043381 0.18219489 -0.20622881 -0.050086092
-0.5619105 -0.111406595 0.11430006 0.06708474 -0.3062147 0.019037902 -0.46912825 0.10319649
0.15232673 0.37819198 0.67624354 -0.14513847 0.40452766 -0.089615956 -0.34318122 -0.020448294
-0.047987957 0.5056885 -0.22479421 0.07095406 -0.26501864 -0.53071535 0.25357115 0.07657147
-0.37808374 -0.12065209 0.27219734 -0.121480815 0.27431923 0.0863298 -0.16645008 -0.51183605
-0.08705644 0.20519464 -0.05018358 0.107383676 -0.24877107 -0.05074909 -0.10804135 0.4164898
0.34759134 -0.038963556 0.12886101 -0.041779302 -0.5108637 -0.20236374 -0.047629807 0.51111555
0.00687407 -0.0053152097 0.16340302 -0.18108112 -0.47687754 0.048999734 0.1621482 -0.1441673
-0.211219 0.09854502 -0.3230682 -0.24172363 0.09783744 0.25336063 -0.021583024 -0.1353255
-0.073932506 0.37449917 -0.0930576 -0.073870026 -0.039780516 0.02672321 -0.12598558 -0.1795994
-0.0040832716 -0.09093924 0.2065007 -0.41644076 -0.43474972 -0.07938586 0.35628235 0.03159582
0.27489477 -0.16562149 -0.08293774 -0.24676304 0.11488003 0.09670593 0.18132757 -0.19603902
-0.18061557 -0.1717509 -0.1352238 0.17955701 -0.38378242 -0.04384141 -0.071570225 0.0056753764
00000000: ee03 da3d dde0 77be ac4f 15bd 9f7b 94bd
00000010: e294 b7bd 32ba 5bbe bb3a f9be 7182 dc3d
00000020: b7d7 96be df33 8dbe 9cb3 233e efdb db3e
00000030: 058a 3abe 6821 46be e1b3 993e 9ec0 753e
00000040: 3882 d63d 52fc a33e 20f9 573b 6180 9bbe
00000050: 6d5d 733e 192a 003f 7cac b23e ccd4 5ebe
00000060: afef 95be 123f 803e 01c3 fdbd b0b7 a5be
00000070: 4070 86be 96d0 143f c03d 9bbd 3a02 cc3d
00000080: dfb5 ebbc 9563 23bd 54d8 123e 4c8e 4e3e
00000090: d08c f9bd 6d16 0dbf 4f29 05bf 9e81 7a3e
000000a0: a217 c53d df49 19bf 2381 0e3f 8fd7 abbe
000000b0: fee0 7bbe c29e 1abe b021 c7be f86f 133d
000000c0: fcab 153e 8394 a13e 0a59 903d bce3 983c
000000d0: 8367 223d 014e 953c 6d68 b63d a719 ebbe
000000e0: 799d 2abf 6354 223d f117 b53e cd9e c1be
000000f0: 18f8 c7ba 32b9 2bbe c823 83be f1dc d1be
00000100: 56a1 55bd 6258 d6bb 71dc 25be 202d 203d
00000110: 8018 1fbe 3423 b1bb f600 cd3e f766 11bd
00000120: a001 0fbe 3f34 cbbe db18 edbe 2bdb 623e
00000130: 59eb 9abd 1bc4 bebc e5f5 333e 1684 99bd
00000140: 8094 6d3d 427c df3d a9e1 fa3d 542f 52bc
00000150: 4367 813e 58a5 bebd 2f5f c13e 8d61 acbc
00000160: 4782 1fbe bdf4 1abe 7e5e bb3d 37a7 4fbe
00000170: 9a0c 72be 72f1 12bc 2297 c2bd 561e f13d
00000180: 350b 173e c366 84bd 42ab f5bd 65e4 2dbe
00000190: 5e2d 723d 3772 da3d 3439 a03e a43f 013e
000001a0: f88d e03d 1f53 aabc b469 543e 1479 9e3d
000001b0: 2dd1 5ebe 9dd5 c03d 1f57 6cbe 92d4 90be
000001c0: dad5 0abe 8e0f 2f3e 423c f2be ca6f 15be
000001d0: 9a09 eabd 044e 0abd 7b56 6d3c cffe 9f3e
000001e0: e5ac ce3d 1528 f3bd 03a3 2d3e 610e 043c
000001f0: 9ee2 0fbf b22f 1f3c 0039 a43e d96a 4abe
00000200: d4af 12bf e361 5bbe 7f5a b3bd c814 c33d
00000210: e074 88be c737 00be 5df9 92be b2a6 363e
00000220: 6d11 74be 3f59 83be 928f a1be 512f 793e
00000230: af33 2e3e 5614 0abf beba a2be 3dbb 9f3e
00000240: cc89 a6bc 8daf a93e 55a3 bebe b4aa 08be
00000250: de9e f73d 2b66 78bd 4480 70be b636 aabe
00000260: 0823 3bbe e3a9 353e 4a5c e3be 9558 c1bd
00000270: 7190 053e 4c91 3a3e a52d 53be 1327 4dbd
00000280: 5ed9 0fbf 2429 e4bd 2616 ea3d b963 893d
00000290: 2cc8 9cbe 60f5 9b3c 9431 f0be ae58 d33d
000002a0: 8afb 1b3e 61a2 c13e 4c1e 2d3f 2e9f 14be
000002b0: 401e cf3e 9288 b7bd 73b5 afbe 2e83 a7bc
000002c0: 058f 44bd cd74 013f 7430 66be 5d50 913d
000002d0: 86b0 87be f6dc 07bf 14d4 813e 81d1 9c3d
000002e0: 3194 c1be 7118 f7bd 735d 8b3e efca f8bd
000002f0: 9273 8c3e aecd b03d e471 2abe b007 03bf
00000300: a64a b2bd 8b1e 523e 4c8d 4dbd f9eb db3d
00000310: d8bd 7ebe 47de 4fbd c944 ddbd 273e d53e
00000320: 7ef7 b13e 4098 1fbd 24f4 033e c620 2bbd
00000330: f7c7 02bf 7138 4fbe 7917 43bd 78d8 023f
00000340: e13f e13b 362b aebb 1f53 273e 546d 39be
00000350: 4b29 f4be f2b3 483d 2e0a 263e 98a0 13be
00000360: cb49 58be f9d1 c93d 3269 a5be 6686 77be
00000370: ff5e c83d 7cb8 813e e2ce b0bc c592 0abe
00000380: ed69 97bd 5bbe bf3e fc94 bebd 2b49 97bd
00000390: e5f0 22bd a2ea da3c 5d02 01be e8e8 37be
000003a0: f7cc 85bb 5a3e babd eb74 533e b937 d5be
000003b0: 8497 debe 0e95 a2bd a46a b63e 9e6a 013d
000003c0: 02bf 8c3e ae98 29be 43db a9bd 73af 7cbe
000003d0: 3946 eb3d c20d c63d efad 393e 74be 48be
000003e0: 4af3 38be 78df 2fbe 1c78 0abe cbdd 373e
000003f0: 217f c4be 0d93 33bd 6993 92bd 82f8 b93b

pi.pi_net.2.bias f4 [64]
0.035378363 0.14901647 0.16520998 0.07741654 -0.094705224 0.14450483 0.045487374 -0.1419176
0.035230204 0.2622274 0.1262004 -0.00078940194 0.06263296 -0.12749286 -0.06142002 0.07780852
0.07063694 -0.03773139 0.05152544 -0.08765131 0.2350931 -0.13408892 -0.07570123 -0.05050419
-0.14255877 0.020622803 0.15020989 0.23134032 0.09432788 -0.032717876 0.16859618 -0.055769026
-0.11449598 0.12525058 -0.06728122 -0.011461453 0.00032191694 0.051043287 0.11194224 0.008724493
-0.015461737 -0.00068849407 -0.009185059 0.034797262 -0.15409559 0.14506468 0.0777666 0.09625361
-0.07295005 -0.12475442 -0.06825923 -0.12041098 0.11422002 -0.11136602 -0.012001378 -0.0029644533
-0.038490847 -0.024083313 -0.089712776 -0.045333013 0.075647764 0.039602462 0.014391421 -0.00979708
00000000: e7e8 103d c697 183e ce2c 293e 908c 9e3d
00000010: d0f4 c1bd 13f9 133e f850 3a3d d952 11be
00000020: 8c4d 103d ab42 863e ad3a 013e deef 4eba
00000030: b645 803d 7d8d 02be 8f93 7bbd 135a 9f3d
00000040: 1aaa 903d 3b8c 1abd 570c 533d 8882 b3bd
00000050: 3fbc 703e 9b4e 09be 3f09 9bbd 7bdd 4ebd
00000060: edfa 11be 27f1 a83c 9fd0 193e 7ae4 6c3e
00000070: fa2e c13d 2e03 06bd 7aa4 2c3e 106e 64bd
00000080: de7c eabd b041 003e bcca 89bd d1c8 3bbc
00000090: f6c6 a839 c412 513d f941 e53d 2df1 0e3c
000000a0: 3a53 7dbc 0e7c 34ba ee7c 16bc 9387 0e3d
000000b0: 3ccb 1dbe d68b 143e 1844 9f3d 9d20 c53d
000000c0: d666 95bd 3f7f ffbd 7fcb 8bbd 089a f6bd
000000d0: 30ec e93d de13 e4bd 6ea1 44bc 4647 42bb
000000e0: 94a8 1dbd 5e4a c5bc 55bb b7bd 1caf 39bd
000000f0: 37ed 9a3d 3136 223d ffc9 6b3c ef83 20bc

pi.pi_net.4.weight f4 [256, 64]
0.2649033 -0.049578268 -0.17888822 -0.32698998 -0.00414118 0.048295695 0.07114295 -0.46720448
-0.40588808 -0.4082521 -0.054177474 0.25492746 0.2318905 0.26161 -0.28116217 0.28619662
0.07318279 -0.23930305 -0.24867429 -0.33023292 -0.3169694 -0.3002496 0.09660421 -0.41742042
0.052706234 0.19523951 0.2233355 -0.5137724 -0.4386625 0.3528891 -0.09235608 -0.021232132
0.18083672 -0.011898472 0.13260321 0.498087 0.108166985 0.067833275 -0.086394064 0.1721378
-0.032259528 -0.31939894 0.045956887 -0.25730556 0.2136639 0.19211803 -0.14372328 0.0798823
0.08255644 -0.08580166 0.15923333 0.23615532 0.4086612 0.43382022 -0.01946536 -0.09363835
0.2682596 0.22286908 0.014578511 -0.08426737 -0.19205615 -0.19293365 -0.093364395 0.22366504
0.01818195 -0.11215981 -0.48373094 0.09034541 -0.063135855 -0.15944292 0.23903283 -0.39281222
-0.28840098 -0.31170174 -0.1544615 0.018276315 0.42293605 0.5452077 -0.14731674 0.19404596
-0.0731215 -0.36242294 -0.51390415 -0.46225294 -0.34833574 0.20738868 -0.1521913 -0.15725096
-0.10676492 0.082461886 0.40555108 -0.27382725 -0.26546183 0.28901148 -0.39655787 -0.03759935
0.3841947 0.14520794 0.35060546 0.53739715 -0.023998061 0.120326094 0.18778609 0.1204345
-0.05039823 -0.5243034 0.24171968 -0.17790456 0.4848643 0.14990251 0.16569908 0.1911663
-0.09367429 -0.34763902 -0.12894146 0.35374898 0.3398853 0.62328976 0.08327054 -0.19539988
0.27463928 -0.12833323 0.027001396 0.20654373 -0.26386768 -0.22143711 -0.26854867 0.14871044
0.031666536 0.29175675 0.34317797 -0.21582139 -0.23297521 0.22677995 -0.06628967 -0.333582
-0.12800796 0.21186097 -0.19162337 0.39315194 -0.052946016 -0.2675034 -0.31540242 0.035387706
0.21891582 -0.28605568 -0.20360254 0.034927994 0.26079127 -0.23707461 0.04603775 -0.26573044
-0.052517295 0.26409677 0.21402472 0.1967406 -0.4422475 0.17522708 0.14176174 -0.11645677
0.10358264 -0.141686 0.011589549 0.16170402 0.23155603 0.18367693 0.13973051 0.5731667
0.23726423 -0.5118252 -0.07478706 0.112948075 -0.0025306235 0.28081584 -0.02289888 0.30320847
-0.14158379 -0.67387587 -0.086708605 0.37100565 0.07183587 0.1239512 0.13497 0.0048566237
0.25742966 0.26344693 -0.05886543 -0.08173763 -0.2795602 -0.18027489 -0.18018243 0.334777
0.08305277 -0.015202151 0.06898829 -0.21862519 -0.23968357 -0.008202766 0.41232616 -0.41449338
-0.4255398 -0.06858931 -0.16197808 0.29788613 0.33098996 0.0135707455 -0.41216183 0.2698197
-0.0064374865 -0.2743346 -0.32659212 -0.19294202 0.33494094 -0.17341954 0.026093598 -0.35655323
-0.00788336 0.063418604 0.23333985 -0.040761035 -0.16483796 0.1391407 0.029678198 0.04754476
0.052183393 -0.028634518 0.2625684 0.24397904 0.4221956 0.08581022 0.28130275 0.19668348
-0.111082666 -0.74438924 0.34701872 -0.38107467 0.2997608 0.050094385 -0.2186541 0.09967604
-0.062113058 -0.12015498 0.052473795 0.14566489 0.2927109 -0.046017688 0.0062802294 -0.1453585
0.16223 0.14881262 -0.095374614 0.091485925 -0.38270584 -0.61343306 -0.07151069 0.18724015
00000000: 68a1 873e 9512 4bbd 792e 37be 3b6b a7be
00000010: bcb2 87bb b5d1 453d 65b3 913d 6d35 efbe
00000020: 90d0 cfbe 6b06 d1be 33e9 5dbd da85 823e
00000030: b474 6d3e bff1 853e 7df4 8fbe 5d88 923e
00000040: dce0 953d dc0b 75be 79a4 7ebe 4a14 a9be
00000050: d049 a2be 51ba 99be 6ed8 c53d 21b8 d5be
00000060: 7ee2 573d deec 473e 10b2 643e 9786 03bf
00000070: 5f98 e0be e1ad b43e 2f25 bdbd 02ef adbc
00000080: 432d 393e cff1 42bc 23c9 073e 4205 ff3e
00000090: a786 dd3d 2cec 8a3d 5fef b0bd e444 303e
000000a0: 9122 04bd 4288 a3be 4a3d 3c3d 8ebd 83be
000000b0: b6ca 5a3e 97ba 443e 322c 13be 5599 a33d
000000c0: 5a13 a93d c8b8 afbd 100e 233e b3d2 713e
000000d0: 0a3c d13e af1d de3e d275 9fbc 77c5 bfbd
000000e0: 5359 893e cb37 643e b5da 6e3c 5f94 acbd
000000f0: 5eaa 44be 6690 45be d535 bfbd 7308 653e
00000100: 50f2 943c 0bb4 e5bd 95ab f7be 0407 b93d
00000110: 5f4d 81bd 0145 23be 06c5 743e af1e c9be
00000120: 4ba9 93be 5f97 9fbe 282b 1ebe 36b8 953c
00000130: 138b d83e bb92 0b3f 33da 16be fcb3 463e
00000140: bac0 95bd 808f b9be 398f 03bf 6bac ecbe
00000150: 1059 b2be b35d 543e 09d8 1bbe 6506 21be
00000160: 91a7 dabd c7e1 a83d 64a4 cf3e 1633 8cbe
00000170: 9dea 87be 50f9 933e a209 cbbe c701 1abd
00000180: 2bb5 c43e 64b1 143e 8f82 b33e dc92 093f
00000190: 9597 c4bc 876d f63d ff4a 403e 5da6 f63d
000001a0: 606e 4ebd bf38 06bf 5d85 773e 9d2c 36be
000001b0: 2240 f83e 0b80 193e 05ad 293e 19c1 433e
000001c0: 4ed8 bfbd befd b1be 3b09 04be 961e b53e
000001d0: 7205 ae3e eb8f 1f3f bf89 aa3d e816 48be
000001e0: 859d 8c3e c969 03be 0832 dd3c 3380 533e
000001f0: aa19 87be 69c0 62be 367f 89be 8d47 183e
00000200: c5b4 013d 2461 953e 06b5 af3e 4800 5dbe
00000210: 0e91 6ebe 0139 683e e1c2 87bd 43cb aabe
00000220: 8514 03be 15f2 583e eb38 44be 364b c93e
00000230: ecdd 58bd 35f6 88be 6d7c a1be b3f2 103d
00000240: 782b 603e e475 92be 2f7d 50be a810 0f3d
00000250: 6f86 853e b0c3 72be 1492 3c3d d20d 88be
00000260: 601c 57bd b137 873e 4c29 5b3e 5e76 493e
00000270: 446e e2be ba6e 333e fd29 113e e380 eebd
00000280: 2323 d43d 2316 11be 17e2 3d3c bd95 253e
00000290: 061d 6d3e ce15 3c3e 8415 0f3e 0ebb 123f
000002a0: 65f5 723e fa06 03bf f529 99bd 5251 e73d
000002b0: d1d8 25bb 18c7 8f3e 6f96 bbbc 243e 9b3e
000002c0: 57fb 10be 2183 2cbf 4894 b1bd 74f4 bd3e
000002d0: af1e 933d 20da fd3d 9335 0a3e 5024 9f3b
000002e0: d2cd 833e 84e2 863e e11c 71bd 0f66 a7bd
000002f0: 8422 8fbe fb99 38be be81 38be e467 ab3e
00000300: 9217 aa3d 7112 79bc bc49 8d3d 48df 5fbe
00000310: 9c6f 75be e564 06bc 6a1c d33e 7a38 d4be
00000320: 5ae0 d9be 8d78 8cbd 95dd 25be 8884 983e
00000330: 8477 a93e d557 5e3c e006 d3be cf25 8a3e
00000340: 8df1 d2bb 9675 8cbe 1537 a7be 9892 45be
00000350: 617d ab3e e494 31be 3ec2 d53c 258e b6be
00000360: 3529 01bc 9de1 813d a4f0 6e3e 0bf5 26bd
00000370: 48cb 28be e67a 0e3e b11f f33c 4bbe 423d
00000380: 41be 553d f092 eabc 5e6f 863e a4d5 793e
00000390: 062a d83e 45bd af3d ea06 903e 6567 493e
000003a0: 4f7f e3bd 4b90 3ebf 70ac b13e 381c c3be
000003b0: 3f7a 993e c52f 4d3d dce6 5fbe f422 cc3d
000003c0: 436a 7ebd d013 f6bd c3ee 563d 2d29 153e
000003d0: 34de 953e 0b7d 3cbd 62ca cd3b dcd8 14be
000003e0: 9f1f 263e 5662 183e c453 c3bd f95c bb3d
000003f0: 05f2 c3be f309 1dbf 3274 92bd e2bb 3f3e

pi.pi_net.4.bias f4 [256]
0.21780549 0.31904867 0.26372218 0.30887046 0.304941 0.24204455 0.1854453 0.47586104
0.28838307 0.28054604 0.45004264 0.27228355 0.40597844 0.2919549 0.35602817 0.36191303
0.35210177 0.20250547 0.30264655 0.38634676 0.24195501 0.289709 0.3329476 0.35769522
0.21845359 0.3501164 0.253501 0.27967593 0.3830567 0.26183483 0.43334994 0.30494404
0.23472135 0.27591586 0.28918883 0.3132073 0.42809424 0.42269304 0.3974082 0.30066302
0.23394395 0.23989022 0.2520517 0.34488574 0.2606054 0.26114392 0.23779334 0.28541782
0.23810469 0.36551967 0.33435997 0.2731299 0.30329505 0.25865218 0.44302008 0.28500634
0.31774658 0.23556228 0.32879245 0.28505135 0.23165622 0.27657482 0.35655388 0.30783287
0.22824247 0.16996229 0.35940742 0.34741613 0.1939246 0.41456532 0.34133437 0.32626903
0.32970747 0.10991755 0.26418152 0.15130271 0.3788397 0.389756 0.24609561 0.37325326
0.32887486 0.30308548 0.34229487 0.25646654 0.35261863 0.33681214 0.40431452 0.2432898
0.26826948 0.2912978 0.30095398 0.3062077 0.36785215 0.28574976 0.24168485 0.2662073
0.31604558 0.31352696 0.2917479 0.2819786 0.26056373 0.23631944 0.35427424 0.17650877
0.33091134 0.24755609 0.3727538 0.4007598 0.21904941 0.3573207 0.39865348 0.33033007
0.24003749 0.35373202 0.37170777 0.34402603 0.29711396 0.17647457 0.2297366 0.35563558
0.15800565 0.1966343 0.3826897 0.23007092 0.30938935 0.29022443 0.29957387 0.23155679
0.28499576 0.3532891 0.210122 0.116640896 0.35945234 0.39825457 0.3194334 0.27751347
0.29321456 0.27680147 0.25044313 0.3644196 0.34695053 0.38881484 0.37851855 0.38596946
0.2812324 0.34316003 0.31243676 0.33123899 0.35087156 0.30639964 0.23582089 0.27323312
0.35303572 0.2693483 0.23864305 0.22170603 0.3033408 0.35077253 0.31749696 0.40723574
0.35886484 0.3809486 0.41160992 0.3064045 0.2899357 0.35856754 0.34677824 0.28398952
0.31203064 0.29555148 0.24140911 0.25402886 0.32104594 0.24656674 0.2033182 0.2730975
0.28750336 0.25438505 0.2977195 0.3265953 0.25392622 0.3186338 0.35164496 0.37162387
0.2873975 0.29843748 0.30926946 0.27714995 0.2622477 0.45076898 0.21598506 0.3428021
0.34211293 0.2356666 0.3062949 0.2941944 0.36500162 0.2739156 0.30317238 0.37974173
0.42377406 0.33069453 0.27317363 0.33541346 0.27783716 0.31363463 0.24002859 0.36647037
0.34666336 0.27436396 0.35212114 0.27925017 0.21254414 0.2440572 0.28088862 0.33046776
0.3100013 0.33020973 0.2916067 0.32543415 0.35270566 0.22156249 0.3124215 0.2615808
0.27718705 0.3072718 0.13314691 0.31357026 0.3129635 0.35534117 0.30789363 0.20827974
0.3029193 0.28273544 0.31728303 0.26901367 0.24078982 0.33333313 0.34933817 0.29683912
0.22763422 0.242188 0.36640078 0.28235638 0.29479918 0.37488794 0.17674275 0.28181526
0.27110004 0.35074243 0.26143613 0.30920705 0.32330492 0.33965147 0.31966102 0.27513263
00000000: 6708 5f3e 595a a33e 9806 873e 4524 9e3e
00000010: 3a21 9c3e 87da 773e 5fe5 3d3e 0fa4 f33e
00000020: f2a6 933e bba3 8f3e fd6b e63e c068 8b3e
00000030: 68dc cf3e 1d7b 953e 5349 b63e aa4c b93e
00000040: af46 b43e 985d 4f3e 7df4 9a3e 3ecf c53e
00000050: 0ec3 773e bd54 943e 1c78 aa3e d423 b73e
00000060: 4cb2 5f3e 7542 b33e e2ca 813e af31 8f3e
00000070: 0220 c43e 370f 863e 0be0 dd3e a021 9c3e
00000080: cb5a 703e d844 8d3e 8f10 943e b55c a03e
00000090: 2b2f db3e 396b d83e 1679 cb3e 81f0 993e
000000a0: 018f 6f3e c8a5 753e ec0c 813e dd94 b03e
000000b0: 126e 853e a8b4 853e 1980 733e 4922 923e
000000c0: b7d1 733e 6525 bb3e 3b31 ab3e afd7 8b3e
000000d0: 7d49 9b3e 0f6e 843e 87d3 e23e 5aec 913e
000000e0: aeaf a23e 3d37 713e 7c57 a83e 40f2 913e
000000f0: 4a37 6d3e 379b 8d3e 3b8e b63e 459c 9d3e
00000100: 65b8 693e 980a 2e3e 4004 b83e 87e0 b13e
00000110: 2c94 463e e841 d43e 61c3 ae3e bc0c a73e
00000120: 6bcf a83e 741c e13d cd42 873e 19ef 1a3e
00000130: 47f7 c13e 198e c73e 7d00 7c3e 0d1b bf3e
00000140: 4962 a83e 052e 9b3e 4641 af3e 954f 833e
00000150: 6e8a b43e a472 ac3e 5002 cf3e f620 793e
00000160: 9e5a 893e fc24 953e a416 9a3e 41c7 9c3e
00000170: 1e57 bc3e cb4d 923e 3c7c 773e 534c 883e
00000180: bad0 a13e 9b86 a03e fb5f 953e 805f 903e
00000190: 9c68 853e b9fd 713e 6f63 b53e b7be 343e
000001a0: 366d a93e 587f 7d3e 96d9 be3e 6330 cd3e
000001b0: 7d4e 603e bdf2 b63e 4f1c cc3e 0621 a93e
000001c0: 63cc 753e 5d1c b53e 7b50 be3e 2e24 b03e
000001d0: 521f 983e c0b5 343e 1240 6b3e de15 b63e
000001e0: 3ccc 213e 805a 493e e8ef c33e b697 6b3e
000001f0: 4868 9e3e 4c98 943e bf61 993e 391d 6d3e
00000200: f7ea 913e 4fe2 b43e 392a 573e 6ce1 ee3d
00000210: 230a b83e 06e8 cb3e c68c a33e 3f16 8e3e
00000220: 3820 963e ecb8 8d3e 153a 803e 3595 ba3e
00000230: 80a3 b13e bd12 c73e 2fcd c13e ca9d c53e
00000240: b1fd 8f3e acb2 af3e b6f7 9f3e 2898 a93e
00000250: 70a5 b33e 6ae0 9c3e 087b 713e 36e5 8b3e
00000260: 19c1 b43e 05e8 893e d85e 743e e806 633e
00000270: 7c4f 9b3e 7598 b33e f68e a23e 3481 d03e
00000280: 22bd b73e b20b c33e 89be d23e 0de1 9c3e
00000290: 7472 943e 2a96 b73e eb8c b13e 1367 913e
000002a0: 7bc2 9f3e 8652 973e f333 773e 1210 823e
000002b0: 2260 a43e fe7b 7c3e a532 503e 6fd3 8b3e
000002c0: a433 933e c23e 823e b16e 983e 8037 a73e
000002d0: 9e02 823e f823 a33e cf0a b43e 7c45 be3e
000002e0: c425 933e cccc 983e 9158 9e3e 99e6 8d3e
000002f0: 5545 863e 31cb e63e 302b 5d3e c283 af3e
00000300: 6d29 af3e 9652 713e afd2 9c3e a6a0 963e
00000310: 7ee1 ba3e aa3e 8c3e 6939 9b3e 826d c23e
00000320: eaf8 d83e cb50 a93e 6add 8b3e 50bb ab3e
00000330: ac40 8e3e b894 a03e 0eca 753e 01a2 bb3e
00000340: dc7d b13e 6f79 8c3e 3949 b43e e1f9 8e3e
00000350: 2ca5 593e 21ea 793e a2d0 8f3e 1233 a93e
00000360: 7eb8 9e3e 4011 a93e 794d 953e 4e9f a63e
00000370: d695 b43e 47e1 623e b6f5 9f3e ebed 853e
00000380: 76eb 8d3e bb52 9d3e aa57 083e 488c a03e
00000390: c03c a03e 47ef b53e 3ca4 9d3e 4947 553e
000003a0: 3d18 9b3e b3c2 903e ec72 a23e 29bc 893e
000003b0: 9b91 763e a4aa aa3e 74dc b23e 4cfb 973e
000003c0: f218 693e 2200 783e e298 bb3e 0491 903e
000003d0: ebef 963e 50f1 bf3e 0dfc 343e 174a 903e
000003e0: a0cd 8a3e 8394 b33e f5da 853e 6350 9e3e
000003f0: 3988 a53e cce6 ad3e 9caa a33e 2fde 8c3e

v.v_net.0.weight f4 [64, 5]
0.28243244 0.56975096 0.34659857 -0.08177515 0.020120827 0.32440987 -0.5729579 -0.09057909
-0.06107599 -0.14605027 0.15409182 0.5429279 0.25952083 -0.0009200446 -0.3793309 0.24812253
0.62757033 0.18850921 0.027668687 -0.16732614 -0.7823353 -0.100624986 -0.18101291 0.14417177
-0.020649852 -0.26432884 -0.40060067 -0.22824888 -0.06483758 0.19517422 0.8510119 0.41236058
-0.6440523 0.011381438 0.49829596 0.22841774 0.5232636 -0.07839328 -0.32686666 0.34430048
0.019527713 0.005677848 0.12670688 0.1155478 -0.16917333 -0.8182341 -0.8156733 0.2754543
0.3665826 -0.1535809 0.519168 -0.001059821 0.2774575 0.1984377 0.1698873 0.13174117
0.6665194 -0.06905229 -0.21438152 -0.50660634 -0.58226645 -0.5415454 0.22688615 -0.16127479
-0.15280859 0.13841242 0.14544116 0.2011321 0.061263002 0.22605163 0.2936763 0.44319874
0.06768463 -0.33699337 0.2669545 0.5457462 0.7397217 0.3420584 -0.34802112 0.007119689
-0.22526516 0.32584882 0.13366757 0.115682915 -0.15418702 0.1944608 0.2103467 0.03637432
0.3334003 0.4145972 0.52417946 0.2828199 0.4146501 -0.29482695 0.1930694 -0.8343819
-0.52042174 0.19574438 0.24726948 -0.47010687 0.7957675 0.3539777 -0.034719773 0.18658623
-0.17468187 -0.29336932 -0.7160622 -0.506688 0.25716302 0.25555372 0.59469754 0.27660722
-0.037968777 0.07167151 -0.2709304 -0.9378846 -0.32417652 -0.2147952 0.19158849 -0.45887434
-0.26491523 -0.45429265 0.18035759 -0.04342273 -0.008018476 -0.4757006 -0.32340908 0.05051063
-0.28001887 -0.31548354 0.2998298 0.5581987 0.13032478 -0.05952343 -0.020196889 0.3951604
-0.009168857 0.3826224 0.03520085 0.46468893 -0.065908894 -0.8309172 -0.2774218 0.26216227
-0.102228 0.7787297 0.21301396 -0.025838898 -0.005961669 -0.077264644 -0.8008573 -0.32163247
-0.029695295 0.1386885 0.16223848 -0.6866221 -0.31214198 0.31944257 -0.19186658 -0.028233696
0.31476468 0.47989222 0.09954249 0.1488349 -0.19677874 0.25660077 0.7888814 -0.04461375
0.41721562 -0.4241483 -0.25709552 0.50868756 0.46888947 0.19307621 -0.2623339 0.6346095
0.33569932 -0.30689532 0.42922986 0.05513825 -0.5685686 -0.6158568 -0.25665286 -0.21232896
-0.07553886 0.30890533 0.42641142 -0.02968812 0.022939919 0.056440644 0.33100575 0.75549865
0.23824169 -0.23541632 -0.3498288 -0.55327135 -1.0019023 0.06816938 -0.06342032 -0.34683686
-0.37736186 -0.6945455 -0.153416 0.22202386 -0.000446305 -0.73313606 -0.59096205 -0.23924923
0.68500197 -0.20046951 -0.30325413 -0.45742938 -0.14309448 0.18842366 -0.43166113 0.19940707
0.94344205 0.13474993 0.094885506 -0.06883507 0.7635338 0.46463442 0.03679823 -0.18793507
0.02212924 -0.61216134 -0.2761004 0.14236028 -0.12554103 0.3238766 -0.48471174 -0.56203926
-0.59838545 -0.4630659 0.41129705 0.83094954 0.60256493 -0.19760999 -0.28610042 0.11575478
-0.78661215 -0.5506839 -0.25538573 -0.121540934 0.1090989 -0.51939756 -0.36539513 0.21928509
-0.54657435 -0.1450177 0.36391804 0.667012 0.3485475 0.097031325 -0.22459447 0.39451897
00000000: fc9a 903e 33db 113f 5e75 b13e bb79 a7bd
00000010: 6fd4 a43c 0d19 a63e 5ead 12bf 8881 b9bd
00000020: d12a 7abd 348e 15be 3fca 1d3e 53fd 0a3f
00000030: eadf 843e 262f 71ba a937 c2be d513 7e3e
00000040: 73a8 203f 8f08 413e 71a9 e23c 8b57 2bbe
00000050: 2047 48bf 7914 cebd 735b 39be c4a1 133e
00000060: e129 a9bc 1c56 87be 881b cdbe 13ba 69be
00000070: 91c9 84bd c0db 473e eadb 593f ed20 d33e
00000080: 9de0 24bf 3679 3a3c a620 ff3e 57e6 693e
00000090: 9af4 053f a88c a0bd 115b a7be 2748 b03e
000000a0: 95f8 9f3c 3e0d ba3b 73bf 013e 53a4 ec3d
000000b0: c63b 2dbe ca77 51bf f7cf 50bf 5908 8d3e
000000c0: b7b0 bb3e 5044 1dbe 32e8 043f b1e9 8aba
000000d0: e90e 8e3e 4133 4b3e f0f6 2d3e 28e7 063e
000000e0: 04a1 2a3f 496b 8dbd d486 5bbe f4b0 01bf
000000f0: 6a0f 15bf b8a2 0abf d854 683e 3825 25be
00000100: db79 1cbe fcbb 0d3e 87ee 143e 93f5 4d3e
00000110: eaee 7a3d 147a 673e bd5c 963e f2ea e23e
00000120: 3d9e 8a3d 658a acbe 43ae 883e 06b6 0b3f
00000130: 675e 3d3f 4722 af3e d32f b2be 484c e93b
00000140: e9ab 66be a8d5 a63e 27e0 083e 2aeb ec3d
00000150: 34e3 1dbe bb20 473e 2065 573e 3dfd 143d
00000160: 72b3 aa3e 1646 d43e a030 063f c5cd 903e
00000170: 054d d43e 8ff3 96be fcb3 453e 0d9a 55bf
00000180: 5c3a 05bf 3771 483e 3634 7d3e d9b1 f0be
00000190: 6bb7 4b3f 913c b53e 5236 0ebd 7610 3f3e
000001a0: cedf 32be 8134 96be da4f 37bf 4eb6 01bf
000001b0: dfaa 833e f0d7 823e 193e 183f 769f 8d3e
000001c0: 2685 1bbd 83c8 923d 64b7 8abe 3519 70bf
000001d0: 77fa a5be 46f3 5bbe c62f 443e 94f1 eabe
000001e0: f8a2 87be 0c99 e8be a9af 383e 08dc 31bd
000001f0: ed5f 03bc 078f f3be e095 a5be 3ce4 4e3d
00000200: a25e 8fbe 0f87 a1be 4b83 993e 1ce6 0e3f
00000210: dc73 053e d7ce 73bd f273 a5bc 7752 ca3e
00000220: f938 16bc 15e7 c33e c42e 103d b5eb ed3e
00000230: 3efb 86bd fdb6 54bf 3b0a 8ebe 223a 863e
00000240: ea5c d1bd d45a 473f 5520 5a3e 19ac d3bc
00000250: 1b5a c3bb ed3c 9ebd fc04 4dbf 03ad a4be
00000260: 8c43 f3bc 5c04 0e3e d821 263e 77c6 2fbf
00000270: 13d1 9fbe fa8d a33e ac78 44be 5a4a e7bc
00000280: d628 a13e 6fb4 f53e efdc cb3d 2d68 183e
00000290: 5e80 49be 2d61 833e 22f4 493f e8bc 36bd
000002a0: 499d d53e f729 d9be 06a2 83be 5939 023f
000002b0: 4812 f03e c5b5 453e a150 86be c575 223f
000002c0: c8e0 ab3e 6221 9dbe 04c4 db3e a5d8 613d
000002d0: b68d 11bf cba8 1dbf 0168 83be c36c 59be
000002e0: 1eb4 9abd d728 9e3e 9952 da3e 8034 f3bc
000002f0: 7fec bb3c 4e2e 673d 9679 a93e 5c68 413f
00000300: a1f5 733e fa10 71be c31c b3be 31a3 0dbf
00000310: 563e 80bf 639c 8b3d 83e2 81bd 9a94 b1be
00000320: 9335 c1be bccd 31bf 1519 1dbe 395a 633e
00000330: 0bfe e9b9 ceae 3bbf 4a49 17bf c0fd 74be
00000340: 4a5c 2f3f e147 4dbe 2044 9bbe 2f34 eabe
00000350: 5c87 12be 22f2 403e b002 ddbe 5e31 4c3e
00000360: 6b85 713f e3fb 093e 5553 c23d 67f9 8cbd
00000370: f376 433f 90e4 ed3e beb9 163d 0d72 40be
00000380: 6148 b53c 9bb6 1cbf 085d 8dbe e5c6 113e
00000390: d48d 00be 27d3 a53e 232c f8be cee1 0fbf
000003a0: ca2f 19bf f916 edbe 8795 d23e 1cb9 543f
000003b0: b241 1a3f 465a 4abe c17b 92be d810 ed3d
000003c0: 6a5f 49bf 9ff9 0cbf ebc1 82be 74ea f8bd
000003d0: 3e6f df3d 3df7 04bf 1215 bbbe 458c 603e
000003e0: 4cec 0bbf 857f 14be 7753 ba3e 4cc1 2a3f
000003f0: d174 b23e 5cb8 c63d 18fc 65be 64fe c93e

v.v_net.0.bias f4 [64]
0.38151097 -0.39071196 0.43288958 0.47215688 -0.46484676 -0.4781584 0.42705315 0.42466155
0.27409694 -0.42684376 0.3870192 0.4360753 -0.45757282 0.41618252 0.48328078 0.42912942
0.4440326 0.3753866 0.4134044 -0.47456872 0.4733354 -0.4455813 0.42942622 -0.4088941
-0.38704166 -0.4042377 0.41348195 0.36537975 -0.3728691 0.25226194 -0.44576678 -0.45108154
0.45588166 0.4141721 0.4598911 0.40136898 -0.40270883 0.43053833 0.43057513 -0.3829285
-0.40515807 -0.3896665 -0.4230456 0.4229673 0.44938794 -0.21675274 -0.43076593 0.40093327
-0.45314696 -0.40510094 0.43237454 0.48311856 -0.30801263 -0.40036094 -0.43415073 -0.4339475
-0.4041184 -0.45291346 -0.46927088 0.50327706 -0.46386763 0.45421723 0.39414936 -0.40015998
00000000: 6855 c33e 660b c8be b4a3 dd3e 8cbe f13e
00000010: 6500 eebe 2ed1 f4be b6a6 da3e 3d6d d93e
00000020: 6f56 8c3e 448b dabe 6127 c63e 4345 df3e
00000030: fc46 eabe e015 d53e 9470 f73e dab6 db3e
00000040: 3e58 e33e ac32 c03e bea9 d33e acfa f2be
00000050: 0459 f23e 3b23 e4be c1dd db3e 915a d1be
00000060: 532a c6be 3ef8 cebe e8b3 d33e 0e13 bb3e
00000070: b3e8 bebe 7a28 813e 8b3b e4be 29f4 e6be
00000080: 5269 e93e 5e0e d43e d976 eb3e 3c80 cd3e
00000090: da2f cebe 856f dc3e 5874 dc3e 340f c4be
000000a0: e170 cfbe 5e82 c7be 6f99 d8be 2c8f d83e
000000b0: 2d16 e63e 6ef4 5dbe 5a8d dcbe 2047 cd3e
000000c0: e102 e8be 6469 cfbe 3260 dd3e 515b f73e
000000d0: d5b3 9dbe 1cfc ccbe 0149 debe 5e2e debe
000000e0: 9be8 cebe 46e4 e7be 4644 f0be c4d6 003f
000000f0: 0f80 edbe 298f e83e f2cd c93e c5e1 ccbe

v.v_net.2.weight f4 [64, 64]
-0.22106574 0.52958274 -0.5576819 -0.2731025 0.5223168 0.3663091 0.052146927 -0.43940935
-0.12751718 0.16625287 -0.26212388 -0.3565962 0.5479537 -0.41136274 -0.112367816 -0.36962602
-0.09439649 -0.04014707 -0.552207 0.60024524 -0.86230725 0.7063493 -0.5075814 -0.029549528
-0.008740399 0.2478892 -0.5739047 -0.1289219 -0.055597354 -0.054634582 0.3872745 0.47497267
-0.3689919 -0.4652477 -0.048433233 -0.13967645 -0.02256444 -0.36903507 -0.6790245 0.20680137
0.773425 0.45171592 0.21388681 -0.19789444 -0.49449068 0.3073022 0.3992712 -0.45683652
0.37184107 0.41131005 -0.40010384 -0.37760496 0.32116732 0.53566056 0.062104438 0.039383464
0.0733384 0.44484824 0.46744502 -0.39548412 0.115634635 -0.26167122 -0.03909889 0.27543604
-0.7083661 -0.02980391 -0.55222213 -0.3518914 0.379435 0.17138954 -0.43959227 -0.56164765
-0.12146437 -0.032085575 -0.110886455 -0.07439926 0.68604445 -0.48717698 -0.41085565 -0.34926063
0.024834374 -0.11768841 -0.28987995 0.391735 -0.5440015 0.59923834 -0.3748008 0.23865947
-0.13208762 0.20050311 -0.36262643 0.33644623 0.6537318 -0.024556752 0.7227437 0.41843742
-0.26992014 -0.17798921 -0.57086575 -0.4544573 0.11977919 -0.567174 -0.45631438 0.04696281
0.54989415 0.34751037 0.48372823 0.073087744 -0.13916084 0.7076213 -0.11066448 -0.22293347
0.18274449 0.32654136 -0.66297376 -0.35664815 0.14372806 0.11397822 0.5037841 0.06677486
0.22963277 0.61571455 0.3339507 -0.30841866 0.55005246 -0.31353182 -0.28460148 0.023241632
-0.10135116 -0.19297329 0.3852323 0.5381441 -0.21990447 -0.48052645 0.31614187 0.16745156
0.20941587 -0.49995992 0.52685493 -0.019276863 -0.17019318 0.46548647 0.33505622 0.35713205
0.29500857 -0.23273562 0.08764341 -0.53674304 0.5665327 -0.061934546 0.713488 -0.11565589
-0.43599945 -0.2543511 0.30107728 0.092862055 -0.30508077 0.08784299 -0.4634944 -0.47665155
0.23582195 0.40365407 0.45195326 0.58994085 -0.19069006 0.2475061 0.37242436 -0.4129269
-0.59558135 0.06144279 -0.07889582 0.052774653 0.5421974 -0.25969216 -0.25508934 0.50466835
-0.31239176 -0.11560522 0.3149961 0.49051532 -0.36002302 -0.7289136 -0.09184561 -0.43871692
-0.45784792 0.0005605618 -0.4372541 0.25013828 -0.10829503 0.3015088 0.13064754 -0.5041615
0.47410586 -0.12131159 0.17219843 -0.19777414 -0.5452848 -0.47041595 0.45554554 0.57729113
0.18120436 -0.5133468 0.08005114 0.17340796 -0.055968467 -0.06526993 0.6523922 0.20411655
0.15597135 0.31673273 0.57908505 -0.5291337 0.10295982 -0.50924253 0.3701687 -0.2299592
-0.37555847 -0.27636114 0.31083712 0.03251225 -0.29422233 0.05440448 -0.43873018 -0.13299657
0.539502 0.31914175 0.2698137 0.19747265 0.339586 0.27457985 0.46110424 -0.26179102
-0.15125014 -0.27782488 -0.4003058 0.27759752 0.73491037 -0.114448994 -0.16085823 0.31586084
-0.10880942 -0.2326076 0.37311387 0.3018551 -0.3965443 0.012673387 -0.35472393 -0.7694406
-0.45347613 -0.65121055 -0.38047197 0.45010862 -0.47759977 0.59822243 0.2407808 -0.42922005
00000000: 0f5f 62be bc92 073f 3ec4 0ebf 17d4 8bbe
00000010: 8eb6 053f de8c bb3e 0498 553d 43fa e0be
00000020: dd93 02be 313e 2a3e 1a35 86be c793 b6be
00000030: b246 0c3f 239e d2be 1921 e6bd 9f3f bdbe
00000040: f252 c1bd 4171 24bd 705d 0dbf aca9 193f
00000050: 2bc0 5cbf 4fd3 343f dbf0 01bf da11 f2bc
00000060: e433 0fbc abd6 7d3e 6beb 12bf 1a04 04be
00000070: 0dba 63bd 83c8 5fbd d848 c63e 9e2f f33e
00000080: 82ec bcbe f234 eebe ed61 46bd 5807 0fbe
00000090: 0fd9 b8bc 2af2 bcbe 8dd4 2dbf bdc3 533e
000000a0: 2eff 453f 4f47 e73e 2505 5b3e d7a4 4abe
000000b0: e22d fdbe b756 9d3e 466d cc3e 7ae6 e9be
000000c0: f461 be3e 3b97 d23e 69da ccbe 7055 c1be
000000d0: 0b70 a43e 0d21 093f 3961 7e3d 8e50 213d
000000e0: 7132 963d 26c3 e33e f454 ef3e e57c cabe
000000f0: dad1 ec3d c5f9 85be 2826 20bd f405 8d3e
00000100: 7b57 35bf 5427 f4bc 6e5e 0dbf 1c2b b4be
00000110: 4e45 c23e bd80 2f3e 3d12 e1be 24c8 0fbf
00000120: 50c2 f8bd 2a6c 03bd 7018 e3bd a45e 98bd
00000130: 9ca0 2f3f 436f f9be ac5b d2be 4ad2 b2be
00000140: 7571 cb3c 9f06 f1bd 256b 94be 7d91 c83e
00000150: af43 0bbf af67 193f e4e5 bfbe 2663 743e
00000160: fa41 07be b050 4d3e 2caa b9be ae42 ac3e
00000170: f85a 273f 3e2b c9bc bb05 393f 6e3d d63e
00000180: f932 8abe ce42 36be 4224 12bf a1ae e8be
00000190: cb4e f53d 5132 11bf 0aa2 e9be 135c 403d
000001a0: ddc5 0c3f e1ec b13e 3aab f73e 07af 953d
000001b0: 2e80 0ebe ab26 353f 0fa4 e2bd ac48 64be
000001c0: 5f21 3b3e 6e30 a73e a6b8 29bf 969a b6be
000001d0: 732d 133e 6a6d e93d fff7 003f 42c1 883d
000001e0: da24 6b3e 789f 1d3f 96fb aa3e 0de9 9dbe
000001f0: 3dd0 0c3f 3e87 a0be 49b7 91be 3c65 be3c
00000200: 3291 cfbd ca9a 45be 2b3d c53e d0c3 093f
00000210: a32e 61be 9007 f6be 59dd a13e 6c78 2b3e
00000220: 1d71 563e bffa ffbe f7df 063f 83ea 9dbc
00000230: 1f47 2ebe 3e54 ee3e 7d8c ab3e 03da b63e
00000240: 5d0b 973e 3f52 6ebe 637e b33d fe67 09bf
00000250: 4908 113f 14af 7dbd 26a7 363f ffdc ecbd
00000260: 523b dfbe 4f3a 82be cd26 9a3e 762e be3d
00000270: 8c33 9cbe 07e7 b33d 234f edbe ac0b f4be
00000280: 4f7b 713e bfab ce3e 6b66 e73e 5d06 173f
00000290: 4144 43be 3d72 7d3e 68ae be3e 286b d3be
000002a0: 0578 18bf 6fab 7b3d 2294 a1bd 3c2a 583d
000002b0: 73cd 0a3f 5ff6 84be 129b 82be f231 013f
000002c0: d0f1 9fbe 6ec2 ecbd 2b47 a13e d324 fb3e
000002d0: f054 b8be 159a 3abf 8d19 bcbd 819f e0be
000002e0: 0b6b eabe aaf2 123a c5df dfbe 2012 803e
000002f0: c9c9 ddbd 5d5f 9a3e 78c8 053e ba10 01bf
00000300: 01be f23e 3672 f8bd c954 303e 4e85 4abe
00000310: c997 0bbf 5cda f0be 443d e93e 5ac9 133f
00000320: a38d 393e b26a 03bf daf1 a33d db91 313e
00000330: 313f 65bd 3eac 85bd 2d03 273f ee03 513e
00000340: f4b6 1f3e cb2a a23e eb3e 143f 4e75 07bf
00000350: 99dc d23d b85d 02bf c086 bd3e 6d7a 6bbe
00000360: 3349 c0be 357f 8dbe 0b26 9f3e 912b 053d
00000370: 4fa4 96be 3bd7 5e3d 3ea1 e0be 4130 08be
00000380: ce1c 0a3f 8c66 a33e 0525 8a3e 4536 4a3e
00000390: 37de ad3e bb95 8c3e db15 ec3e 7909 86be
000003a0: 51e1 1abe 103f 8ebe e2f4 ccbe 4321 8e3e
000003b0: 1623 3c3f 3c64 eabd 05b8 24be 83b8 a13e
000003c0: 79d7 debd b030 6ebe c808 bf3e c08c 9a3e
000003d0: db07 cbbe 0aa4 4f3c 609e b5be 0ffa 44bf
000003e0: 062e e8be bcb5 26bf 39cd c2be a374 e63e
000003f0: f587 f4be 1b25 193f 3e8f 763e bbc2 dbbe

v.v_net.2.bias f4 [64]
-0.27685702 -0.2863995 0.33450943 0.30137 -0.27681056 -0.30448732 0.3068613 -0.26494902
0.26562685 -0.2870869 0.27648968 -0.29418868 -0.2668544 -0.2963514 0.29580694 0.31606638
-0.29814878 0.26400253 0.30816528 0.2683541 -0.32133743 -0.30449635 -0.3176621 -0.30440757
0.2992512 0.35838553 -0.28168926 -0.2578709 -0.24953552 0.2584567 -0.31345597 0.2696659
0.27420378 -0.28815567 -0.28757665 -0.31102338 0.29895592 0.24217416 0.26197106 -0.2659759
0.28366864 -0.2048133 0.27326864 0.27713996 0.33975142 0.30178863 0.22583246 0.29398233
0.32331502 0.25973284 -0.31279343 0.29357493 -0.2326575 -0.23786892 0.2667398 0.28217158
-0.2924337 0.27099386 -0.26643652 -0.28238365 -0.24762526 0.30385175 0.31093195 -0.26957175
00000000: 34c0 8dbe f5a2 92be d244 ab3e 2b4d 9a3e
00000010: 1dba 8dbe c3e5 9bbe ed1c 9d3e 66a7 87be
00000020: 3e00 883e 0efd 92be 0e90 8d3e e69f 96be
00000030: 24a1 88be 5fbb 97be 0274 973e 74d3 a13e
00000040: f5a6 98be 572b 873e d7c7 9d3e b565 893e
00000050: 5786 a4be f2e6 9bbe 9ba4 a2be 4fdb 9bbe
00000060: 7437 993e 4f7e b73e 9339 90be a807 84be
00000070: 3d86 7fbe 7054 843e 4d7d a0be a611 8a3e
00000080: 7064 8c3e 2489 93be 3f3d 93be 753e 9fbe
00000090: c010 993e 81fc 773e 1221 863e fe2d 88be
000000a0: 043d 913e 94ba 51be dee9 8b3e 4ae5 8d3e
000000b0: e6f3 ad3e 0a84 9a3e a040 673e da84 963e
000000c0: 8c89 a53e b4fb 843e 7626 a0be 744f 963e
000000d0: c53d 6ebe e993 73be 1e92 883e cb78 903e
000000e0: dfb9 95be b5bf 8a3e 5e6a 88be 9794 90be
000000f0: 7a91 7dbe 7592 9b3e 7932 9f3e 4f05 8abe

v.v_net.4.weight f4 [1, 64]
3.1304457 3.140395 -3.050463 -3.0555465 3.3467748 3.04826 -3.0031984 3.3554113
-3.2204964 3.1647341 -2.9670184 3.245887 3.1470401 3.472812 -3.2800133 -2.9973643
3.0961316 -3.7534988 -3.1867836 -3.3836262 3.4105442 3.170491 3.0115092 3.1430957
-3.1169784 -2.9961798 3.1776578 3.0204265 3.1470816 -3.0810826 3.2822711 -3.4952304
-3.4034474 3.175927 3.4286578 3.430032 -3.1468155 -3.4625332 -3.296264 3.4774177
-3.5130475 3.3541791 -3.0058296 -3.186991 -3.131274 -3.116247 -3.2157767 -3.0291631
-3.2634537 -3.5998833 3.1749222 -3.1349127 3.086552 3.2762043 -3.1437118 -3.1762435
3.1545117 -3.5106838 3.52259 2.951976 3.1994383 -3.06158 -3.202523 3.2074268
00000000: 3959 4840 3bfc 4840 c93a 43c0 138e 43c0
00000010: 8f31 5640 b116 4340 6734 40c0 0fbf 5640
00000020: 9d1c 4ec0 018b 4a40 a1e3 3dc0 9dbc 4f40
00000030: 1b69 4940 8d42 5e40 bdeb 51c0 d1d4 3fc0
00000040: 0527 4640 5339 70c0 43f4 4bc0 558d 58c0
00000050: 5b46 5a40 53e9 4a40 91bc 4040 7b28 4940
00000060: 937c 47c0 69c1 3fc0 bf5e 4b40 ab4e 4140
00000070: c969 4940 7530 45c0 bb10 5240 dbb1 5fc0
00000080: 15d2 59c0 6342 4b40 216f 5b40 a585 5b40
00000090: 6d65 49c0 259a 5dc0 fdf5 52c0 038e 5e40
000000a0: c5d5 60c0 dfaa 5640 835f 40c0 a9f7 4bc0
000000b0: cb66 48c0 9770 47c0 49cf 4dc0 cfdd 41c0
000000c0: 6ddc 50c0 7d64 66c0 ed31 4b40 69a2 48c0
000000d0: 118a 4540 55ad 5140 9332 49c0 9347 4bc0
000000e0: 85e3 4940 0baf 60c0 1d72 6140 2ded 3c40
000000f0: 99c3 4c40 edf0 43c0 23f6 4cc0 7b46 4d40
