tmp/experiments/RN2 False,True,True/pyt_network_save/model save36000.pt (torch_old, 314943 bytes, 33 tensors)

pi.pi_net.0.weight f4 [64, 5]
0.14565314 -0.07811018 0.09642525 -0.08606022 -0.49529308 0.2734788 -0.21911699 0.10811642
-0.10172982 0.03727616 0.14279462 -0.19669604 -0.12159824 0.14157313 -0.1995898 0.26241988
-0.5648717 0.32572857 -0.08757698 0.5359605 -0.20715006 -0.26965037 -0.15504247 0.1502951
0.30065355 -0.49244905 0.43320784 -0.29926994 0.11308954 -0.020977756 -0.20074251 0.027572466
-0.2838932 0.2781291 -0.53866076 -0.36312535 0.25692934 -0.12233495 0.20446059 -0.2951803
-0.78031814 -0.6092546 -0.3486726 -0.053107098 0.003052813 0.2664863 -0.5882054 -0.047890816
-0.13252264 -0.012108791 0.44197872 -0.2432499 -0.2111117 0.2202854 0.32636094 -0.4147695
0.38202062 0.17749906 -0.38977692 0.34373018 0.041620236 -0.1628819 0.20040208 -0.3083755
0.047278333 -0.16377662 0.13847768 -0.3109489 0.004175779 -0.24576291 -0.013372347 0.18646665
-0.43203586 -0.109675616 -0.0556549 -0.1362641 -0.31667677 0.39348564 -0.05864839 0.26310667
-0.23383714 0.00027255793 0.41393888 0.024287034 0.44445693 0.0059090233 0.019882273 0.010843631
-0.049595077 -0.11133057 -0.42474288 0.081721805 -0.07942563 0.44937465 -0.036283676 0.1827518
-0.297514 -0.2798997 -0.15122375 -0.27107546 0.061679393 -0.67090195 0.103565656 0.14222206
0.0860004 0.08444768 -0.18969731 0.19635874 0.34168434 0.51849955 -0.7455755 0.20046358
-0.36034903 0.24775416 -0.08722134 0.14185609 -0.46119958 0.14039639 0.09992407 0.08074059
-0.0022910798 -0.8380851 -1.1415288 -0.6000437 -0.27380264 -0.19109389 0.19798425 0.074485205
-0.49954826 0.5821969 -0.21190701 0.40058047 0.1554648 -0.59156245 0.08461804 -0.86633
-0.5664477 0.15253097 -0.08461471 -0.49457827 0.06293335 -0.044395357 -0.30510512 -0.61304224
0.23365615 -0.20550303 -0.32529935 0.17806062 0.2783194 -0.33750302 -0.6547282 0.04741529
0.471753 -0.22090685 0.40237892 0.5909555 0.75694036 0.56293124 0.41565847 0.46052727
-0.22802529 -0.1221139 -0.0641017 0.06382874 -0.45157853 -0.4801568 -0.14092635 0.22587618
-0.080006376 0.2529403 0.156712 0.38420424 0.092764355 -0.47239244 0.0820166 -0.1813787
0.08978927 0.19772647 -0.114795566 -0.24042885 -0.1602103 0.30475566 -0.14004683 -0.49890375
-0.4190769 0.19401583 -0.1560133 -0.23873012 0.38120028 -0.31269455 -0.14087047 -0.13804677
-0.046428878 -0.26615462 0.07570676 0.16924667 0.19619995 -0.39817885 0.22664645 0.46064988
-0.17033005 -0.02925237 0.34547642 0.11694168 -0.20972185 0.13901494 -0.24406151 -0.33914754
-0.3017174 0.39790103 -0.09441315 0.16827017 0.45719206 -0.03129936 -0.061899077 0.3449651
-0.34887558 0.119116426 -0.30939722 -0.054231014 0.21903247 -0.018861068 0.043252885 -0.044056863
-0.0928236 0.38633552 0.03420991 -0.15795593 -0.2532406 0.29968503 0.02811255 0.20986974
-0.37814775 -0.009048098 0.020950459 0.35641706 -0.21453746 0.31912425 0.20313676 -0.51840883
0.5246388 -0.3459944 -0.2553189 -0.38781238 -0.11768647 -0.024950845 0.5042006 -0.16039023
0.37811595 -0.25489974 0.14359629 -0.57446903 0.15785688 -0.29123127 -0.082675874 0.2672494
00000000: 1926 153e 3bf8 9fbd 9a7a c53d 5740 b0bd
00000010: 0e97 fdbe 6a05 8c3e 3460 60be 246c dd3d
00000020: b957 d0bd e3ae 183d c138 123e b06a 49be
00000030: 8008 f9bd 8cf8 103e 4561 4cbe e65b 863e
00000040: 6f9b 10bf e5c5 a63e 8f5b b3bd b534 093f
00000050: 251f 54be 9d0f 8abe 74c3 1ebe f5e6 193e
00000060: 43ef 993e 4822 fcbe 6bcd dd3e e939 99be
00000070: 7d9b e73d 8bd9 abbc 728f 4dbe a7df e13c
00000080: 735a 91be f066 8e3e ace5 09bf 91eb b9be
00000090: 3e8c 833e bf8a fabd 1e5e 513e df21 97be
000000a0: eec2 47bf 1cf8 1bbf 3785 b2be d486 59bd
000000b0: b411 483b e470 883e a194 16bf 2929 44bd
000000c0: 04b4 07be f363 46bc 094b e23e 8016 79be
000000d0: aa2d 58be 7f92 613e c818 a73e ab5c d4be
000000e0: 3598 c33e 50c2 353e d790 c7be 67fd af3e
000000f0: fb79 2a3d 83ca 26be 3436 4d3e 65e3 9dbe
00000100: eda6 413d 0fb5 27be 18cd 0d3e b234 9fbe
00000110: f9d4 883b 46a9 7bbe b017 5bbc 1df1 3e3e
00000120: ce33 ddbe 9c9d e0bd 64f6 63bd d188 0bbe
00000130: 7523 a2be f376 c93e 4b39 70bd ebb5 863e
00000140: 0173 6fbe 1be6 8e39 ccef d33e 9af5 c63c
00000150: dc8f e33e 7ba0 c13b 26e0 a23c 7ca9 313c
00000160: 3524 4bbd 4801 e4bd e677 d9be c35d a73d
00000170: e8a9 a2bd 6f14 e63e 319e 14bd 4a23 3b3e
00000180: c153 98be 034f 8fbe 66da 1abe 67ca 8abe
00000190: 88a3 7c3d 3bc0 2bbf 3b1a d43d a9a2 113e
000001a0: fa20 b03d e8f2 ac3d 0340 42be 4412 493e
000001b0: 40f1 ae3e 63bc 043f 09de 3ebf 5346 4d3e
000001c0: ab7f b8be 44b3 7d3e 1aa1 b2bd b942 113e
000001d0: 5a22 ecbe 12c4 0f3e fea4 cc3d 535b a53d
000001e0: f125 16bb bf8c 56bf 9e1d 92bf 779c 19bf
000001f0: dc2f 8cbe 1eae 43be 62bc 4a3e b38b 983d
00000200: cac4 ffbe db0a 153f 27fe 58be e218 cd3e
00000210: 2a32 1f3e a370 17bf 394c ad3d cec7 5dbf
00000220: b702 11bf 1431 1c3e 7a4a adbd 5d39 fdbe
00000230: 33e3 803d e8d7 35bd bd36 9cbe 56f0 1cbf
00000240: 8f43 6f3e 636f 52be a38d a6be 8655 363e
00000250: e17f 8e3e 32cd acbe 449c 27bf 8936 423d
00000260: 9c89 f13e 6835 62be 9c04 ce3e dc48 173f
00000270: d8c6 413f 431c 103f 30d1 d43e 3bca eb3e
00000280: 767f 69be da16 fabd c147 83bd a4b8 823d
00000290: 4d35 e7be 1dd7 f5be ff4e 10be 164c 673e
000002a0: 62da a3bd 6481 813e 1c79 203e 6bb6 c43e
000002b0: 3dfb bd3d 6cdd f1be 52f8 a73d 57bb 39be
000002c0: 70e3 b73d cf78 4a3e f019 ebbd fb32 76be
000002d0: 2b0e 24be ef08 9c3e 7068 0fbe 5070 ffbe
000002e0: 3f91 d6be 16ac 463e f3c1 1fbe ab75 74be
000002f0: af2c c33e 8019 a0be 5940 10be 225c 0dbe
00000300: 352c 3ebd 6b45 88be 250c 9b3d 004f 2d3e
00000310: a4e8 483e 19de cbbe 0216 683e 4dda eb3e
00000320: 006b 2ebe aba2 efbc 49e2 b03e 1f7f ef3d
00000330: 53c1 56be ef59 0e3e 43eb 79be bfa4 adbe
00000340: b47a 9abe afb9 cb3e ae5b c1bd 044f 2c3e
00000350: 1415 ea3e c233 00bd e389 7dbd 449f b03e
00000360: d29f b2be 50f3 f33d 5069 9ebe 5721 5ebd
00000370: 0c4a 603e 8782 9abc f029 313d f874 34bd
00000380: 4d1a bebd c5cd c53e b11f 0c3d 33bf 21be
00000390: c0a8 81be 5170 993e 4a4c e63c 18e8 563e
000003a0: 959c c1be 793e 14bc 4ca0 ab3c 4c7c b63e
000003b0: b5af 5bbe 4164 a33e 1503 503e 71b6 04bf
000003c0: ba4e 063f 2e26 b1be 29b9 82be 588f c6be
000003d0: 9b05 f1bd b765 ccbc 4a13 013f 563d 24be
000003e0: 6a98 c13e 3882 82be e80a 133e 6710 13bf
000003f0: 3ca5 213e 441c 95be f851 a9bd ead4 883e

pi.pi_net.0.bias f4 [64]
0.07595262 -0.25557378 -0.48110065 -0.17481427 0.22742797 0.22373706 0.21437395 0.4593542
-0.3582261 -0.43821195 -0.3127852 0.25994784 0.0378613 0.32494503 0.42388573 0.34813747
0.44736272 0.23973747 0.3165732 -0.023402456 0.22304922 -0.10741514 0.5231699 -0.21993105
-0.43133283 0.037619185 -0.039487325 -0.410763 0.1467237 -0.16608281 0.1938464 0.38327253
0.41002423 0.5052037 -0.2969261 0.15801166 -0.18550979 0.23485418 0.40613917 -0.2626962
0.26542705 0.13002935 -0.028039712 -0.03192795 -0.26435494 -0.18776064 0.18306236 -0.39810142
-0.06928301 -0.021144897 -0.6262277 -0.439006 -0.3245398 0.27833351 -0.15312599 0.2261772
-0.42124423 0.24194764 0.64257437 0.21910292 -0.3390453 -0.12895556 0.42200127 -0.010933694
00000000: 0c8d 9b3d 91da 82be d352 f6be 8302 33be
00000010: e1e2 683e 541b 653e d884 5b3e 7930 eb3e
00000020: 6969 b7be 515d e0be 6225 a0be e217 853e
00000030: 7314 1b3d 325f a63e 8d07 d93e 133f b23e
00000040: ba0c e53e bd7d 753e e215 a23e 82b6 bfbc
00000050: 0467 643e 78fc dbbd 76ee 053f 9b35 61be
00000060: a8d7 dcbe 9316 1a3d 76bd 21bd 874f d2be
00000070: bd3e 163e 9d11 2abe ac7f 463e 4c3c c43e
00000080: b2ee d13e 0855 013f b306 98be cfcd 213e
00000090: 47f6 3dbe 9d7d 703e 79f1 cf3e 1e80 86be
000000a0: 0ee6 873e 6a26 053e 8ab3 e5bc e2c6 02bd
000000b0: 8859 87be 5344 40be b374 3b3e f3d3 cbbe
000000c0: 40e4 8dbd 1038 adbc 7550 20bf 65c5 e0be
000000d0: 152a a6be bb81 8e3e 0fcd 1cbe ff9a 673e
000000e0: 53ad d7be 1fc1 773e c17f 243f 845c 603e
000000f0: 5897 adbe ed0c 04be 8d10 d83e 3d23 33bc

pi.pi_net.2.weight f4 [64, 64]
0.27390036 -0.33471352 -0.2090511 -0.16258158 -0.25842184 -0.12619793 -0.41416135 0.26940346
-0.48070008 -0.41303596 -0.06719414 0.52383226 -0.059915394 -0.08798598 0.39818802 0.19561316
-0.03160204 0.4923554 -0.121218495 -0.18355928 0.13229358 0.35008472 0.4492866 -0.37730575
-0.32289317 0.20871374 0.020353863 -0.3379927 -0.19956717 0.46653458 -0.119142026 0.14557752
0.11786213 0.028243309 0.30121684 0.43235746 0.06728272 -0.52655166 -0.35632694 0.033962537
0.23911516 -0.5785539 0.69341856 -0.22530526 -0.24127269 -0.1768816 -0.3326461 0.046701644
0.23591791 0.37282836 -0.04891939 -0.07718198 -0.07181348 0.1559789 -0.013060112 -0.40609834
-0.8130471 -0.07744391 0.34035695 -0.38608277 -0.15693077 0.019206781 -0.46600813 -0.25926405
0.09424419 0.26069176 -0.15465032 -0.15258089 -0.39466304 -0.10964867 0.45428154 0.021905117
-0.45793158 -0.41774178 -0.5865876 0.17075957 -0.08745577 0.041225966 0.20878683 -0.26612514
-0.060840953 0.10970379 -0.08605381 -0.005676803 0.015593651 -0.22316442 0.27058214 -0.15171741
-0.2348474 -0.33899984 0.25815502 -0.18644772 -0.19163412 -0.085124806 -0.2221536 0.17351991
0.21264201 -0.19189665 0.13955946 0.059326217 0.23187716 0.06639044 0.24731287 0.035444234
0.07974383 -0.1772711 0.47047898 0.18467297 -0.14357285 0.25168175 -0.22052126 -0.16436324
-0.049760472 0.29479408 -0.41876042 -0.14774005 -0.14641967 -0.18799426 -0.0850751 0.37154412
0.031388327 -0.3813056 0.18020897 -0.036597148 -0.53333724 0.13404761 0.15713827 -0.06358032
-0.4092627 -0.100567825 -0.26338175 0.0763692 -0.49396122 -0.13348743 -0.36904782 0.19074288
-0.3111627 -0.28601396 -0.39083925 0.37963837 0.40232593 -0.51351815 -0.26276317 0.18601494
-0.16093807 0.4046663 -0.6099507 0.022712179 0.025006372 -0.27585086 -0.24946836 -0.39725628
-0.13449113 0.1520065 -0.17490119 -0.06954534 0.41745466 0.06821959 -0.325767 -0.03771061
-0.589602 -0.18606952 0.39695212 0.1639436 -0.02591731 -0.15558873 -0.38582167 0.06155464
0.108184844 0.5045881 0.7627359 0.08457286 0.45059252 0.044195876 -0.31735843 -0.037193585
0.07113023 0.49267697 -0.29264632 0.09140401 -0.3928703 -0.6000576 0.11656032 0.09017359
-0.52990574 -0.40117672 0.23339555 -0.16375174 0.19714631 0.34325603 -0.40724707 -0.34359893
-0.09798405 0.24117424 -0.25354278 0.119140886 -0.16108412 0.08721643 -0.10262326 0.4468842
0.29347628 -0.04175419 0.0756939 0.08633774 -0.3938154 -0.13332883 0.068327196 0.4360104
0.007898584 0.1280422 0.08858746 -0.085997984 -0.47177863 0.049320325 0.33221972 -0.16747864
-0.12581845 0.27098206 -0.22084151 -0.2970497 0.30997747 0.16967955 0.012586851 -0.17420018
-0.019051688 0.4469531 -0.075280204 -0.028773192 0.049481682 -0.024077743 0.08028146 -0.104380146
-0.060138837 0.058716338 0.1640784 -0.33321404 -0.4633205 0.15919214 0.41741744 -0.22930336
0.38017288 -0.2506112 -0.1306194 -0.3169536 -0.030911203 -0.018102475 0.11750022 -0.21110032
-0.26363844 -0.13563414 -0.19191046 0.2546722 -0.4807808 0.034519013 -0.059696488 -0.02518219
00000000: ab3c 8c3e 925f abbe 7e11 56be c97b 26be
00000010: de4f 84be 083a 01be f50c d4be 40ef 893e
00000020: 521e f6be 7379 d3be 159d 89bd df19 063f
00000030: d869 75bd fe31 b4bd 4ddf cb3e d14e 483e
00000040: 2471 01bd 0216 fc3e 6741 f8bd f7f6 3bbe
00000050: f877 073e 4e3e b33e e508 e63e 382e c1be
00000060: 4152 a5be 0eb9 553e 25bd a63c 610d adbe
00000070: 565b 4cbe 9fdd ee3e bc00 f4bd 4612 153e
00000080: b361 f13d 835e e73c 1839 9a3e f55d dd3e
00000090: 86cb 893d 17cc 06bf 7c70 b6be 4d1c 0b3d
000000a0: 9bda 743e 1c1c 14bf e183 313f 6cb6 66be
000000b0: 3010 77be 7320 35be 9750 aabe 394a 3f3d
000000c0: 7794 713e 5ce3 be3e b35f 48bd 9611 9ebd
000000d0: f212 93bd efb8 1f3e 14fa 55bc 1fec cfbe
000000e0: db23 50bf ea9a 9ebd 4443 ae3e a4ac c5be
000000f0: 76b2 20be 8a57 9d3c 9e98 eebe 42be 84be
00000100: 1903 c13d 6479 853e a75c 1ebe 2a3e 1cbe
00000110: 4611 cabe 7b8f e0bd 9797 e83e 5c72 b33c
00000120: 0276 eabe 40e2 d5be 9b2a 16bf 99db 2e3e
00000130: 031c b3bd 8fdc 283d 37cc 553e 8e41 88be
00000140: 5d34 79bd 61ac e03d fb3c b0bd 7a04 babb
00000150: 837c 7f3c 3785 64be be89 8a3e cf5b 1bbe
00000160: d67b 70be 6391 adbe e52c 843e 27ec 3ebe
00000170: bc3b 44be ea55 aebd 3c7c 63be 34af 313e
00000180: d4be 593e 8e80 44be ade8 0e3e 0c00 733d
00000190: 3571 6d3e b6f7 873d 963f 7d3e f92d 113d
000001a0: bc50 a33d 8e86 35be 9fe2 f03e e91a 3d3e
000001b0: c304 13be 6edc 803e 53d0 61be d64e 28be
000001c0: a3d1 4bbd 40ef 963e c467 d6be 2b49 17be
000001d0: 0aef 15be 9181 40be db3b aebd 083b be3e
000001e0: 0c91 003d 7d3a c3be b388 383e e4e6 15bd
000001f0: ca88 08bf c743 093e dbe8 203e 6636 82bd
00000200: e18a d1be 81f6 cdbd f9d9 86be 7567 9c3d
00000210: 7ce8 fcbe eeb0 08be d6f3 bcbe 1a52 433e
00000220: b850 9fbe 6c70 92be 151c c8be f65f c23e
00000230: aafd cd3e ed75 03bf e588 86be b37a 3e3e
00000240: f3cc 24be 6c30 cf3e bb25 1cbf e40e ba3c
00000250: 2ada cc3c 533c 8dbe a274 7fbe 2d65 cbbe
00000260: 0bb8 09be 98a7 1b3e 4c19 33be ca6d 8ebd
00000270: 9ebc d53e b6b6 8b3d efca a6be 7176 1abd
00000280: 28f0 16bf 0289 3ebe 4f3d cb3e d5e0 273e
00000290: 8a50 d4bc a752 1fbe 6b8a c5be b820 7c3d
000002a0: 0490 dd3d b02c 013f a942 433f 8934 ad3d
000002b0: 10b4 e63e bc06 353d ce7c a2be 4d58 18bd
000002c0: baac 913d 2840 fc3e bdd5 95be 0732 bb3d
000002d0: 4c26 c9be 609d 19bf 2db7 ee3d eeac b83d
000002e0: e7a7 07bf 0967 cdbe 3eff 6e3e 89ae 27be
000002f0: b9e0 493e 41bf af3e b082 d0be 33ec afbe
00000300: ddab c8bd 61f6 763e 5cd0 81be 2300 f43d
00000310: 3cf3 24be 879e b23d 252c d2bd 02ce e43e
00000320: 8642 963e 7106 2bbd 6705 9b3d d7d1 b03d
00000330: 2ca2 c9be 5a87 08be 21ef 8b3d c13c df3e
00000340: 1069 013c 7f1d 033e 586d b53d b61f b0bd
00000350: f88c f1be 1c04 4a3d b418 aa3e 857f 2bbe
00000360: 8dd6 00be 29be 8a3e 4724 62be e616 98be
00000370: 5eb5 9e3e 7ac0 2d3e 1439 4e3c 8861 32be
00000380: 4912 9cbc 09d7 e43e 822c 9abd c2b5 ebbc
00000390: 4ead 4a3d b03e c5bc 9b6a a43d 42c5 d5bd
000003a0: 2454 76bd 8b80 703d 2b04 283e 089b aabe
000003b0: 5838 edbe 4403 233e bdb7 d53e 80ce 6abe
000003c0: 05a6 c23e 1c50 80be 18c1 05be be47 a2be
000003d0: 7e39 fdbc a44b 94bc f5a3 f03d af2a 58be
000003e0: 9efb 86be ade3 0abe 2d84 44be 6564 823e
000003f0: e728 f6be cf63 0d3d 4e84 74bd e14a cebc

pi.pi_net.2.bias f4 [64]
0.19367616 0.3094197 0.22074823 0.16095959 0.01937125 0.059771698 -0.16385753 -0.19566342
0.051173948 0.34495178 0.25767726 -0.05741816 -0.089094184 -0.26602602 -0.09939862 0.11382526
0.33335286 0.24665594 0.30182442 -0.006417749 0.16556041 -0.20453092 -0.30598703 0.12913696
-0.16342273 -0.13981017 0.26945263 0.2539161 0.13154852 0.023757178 0.24177797 0.13695769
-0.13675119 0.011448625 -0.44651362 -0.05053988 -0.15889563 0.2904075 0.05863017 -0.0850277
0.17787924 -0.002901166 -0.037175767 0.19163574 -0.33850023 0.1919548 0.1611552 0.15902272
-0.023022145 0.0010015329 -0.03407667 0.0010568408 0.020771092 -0.13883305 -0.21645181 -0.11143717
-0.09737857 -0.2942133 0.005561232 0.0030572899 0.07153214 0.073715605 0.12312345 0.043440774
00000000: 0b53 463e 426c 9e3e d30b 623e 97d2 243e
00000010: 75b0 9e3c 2bd3 743d 45ca 27be fe5b 48be
00000020: c69b 513d 859d b03e 46ee 833e 4e2f 6bbd
00000030: 0377 b6bd 9034 88be 8191 cbbd 381d e93d
00000040: 3aad aa3e 6093 7c3e bb88 9a3e fb4b d2bb
00000050: ab88 293e 8e70 51be 55aa 9cbe 7b3c 043e
00000060: 4a58 27be 662a 0fbe b2f5 893e 4b01 823e
00000070: a8b4 063e 6a9e c23c a594 773e a33e 0c3e
00000080: 8108 0cbe 0393 3b3c 6f9d e4be e802 4fbd
00000090: 89b5 22be 4bb0 943e 3026 703d 0123 aebd
000000a0: fa25 363e 7d21 3ebb 9e45 18bd 293c 443e
000000b0: e74f adbe cd8f 443e de05 253e dad6 223e
000000c0: f098 bcbc de45 833a fa93 0bbd b185 8a3a
000000d0: 2328 aa3c 402a 0ebe 8ba5 5dbe 2c39 e4bd
000000e0: 6a6e c7bd 20a3 96be ff3a b63b d05c 483b
000000f0: 717f 923d 35f8 963d 2628 fc3d f4ee 313d

pi.pi_net.4.weight f4 [256, 64]
-0.016292017 0.30056748 -0.6136766 -0.38240695 0.18719886 0.12498356 0.30142143 -0.79377335
-0.75319767 0.1621383 -0.24174398 0.49850002 0.29522538 0.53296375 -0.09797718 0.22156553
-0.15155666 -0.483376 -0.50830454 -0.5896258 -0.18421271 -0.31381282 -0.27123883 -0.65230787
-0.26587057 0.51251847 0.6010425 -0.31288236 -0.3880692 0.67041695 0.23067872 -0.40742812
-0.1215942 0.29164457 0.5009129 0.7796048 -0.096689194 0.385712 0.25446123 0.4688015
-0.41658238 -0.6157726 -0.43807304 -0.44019932 -0.23611178 0.03148022 0.06999464 0.41311052
-0.2577614 -0.2471006 -0.109191746 0.43257082 0.6600178 0.90258455 0.14789063 -0.4058582
0.22519876 0.21591884 0.13855954 0.15901999 -0.52249426 -0.48729506 -0.17893967 -0.044668373
-0.26605758 0.08162363 -0.83098793 -0.10741923 0.18080707 -0.2563609 0.24441306 -0.6392738
-0.55837524 -0.37186953 -0.35818362 0.21244512 0.22669302 0.88642323 0.16956468 -0.10478383
-0.3170416 -0.6282184 -0.7649782 -0.6937607 -0.5622486 0.5630952 -0.39637107 -0.40397182
-0.36918327 0.3449485 0.6513688 -0.5112439 -0.53435916 0.5511583 -0.5987941 -0.36097363
0.16903554 0.42435017 0.74032116 0.8058416 -0.27493113 0.2597322 0.46910477 0.39755607
-0.33616006 -0.7759439 -0.13864201 -0.2651732 0.43326157 -0.12420615 0.45156467 0.47367072
-0.12076798 -0.36837596 -0.3753058 0.540526 0.50754464 0.9332722 0.31302997 -0.45268843
0.4098152 -0.04494844 0.2795192 0.335941 -0.5507499 -0.40291017 -0.24914284 -0.13484395
-0.058666714 0.5381188 -0.038987402 -0.29497644 -0.2409359 0.4310309 -0.28399193 -0.60248274
-0.2697894 0.5711628 -0.03236058 0.46841848 -0.29862767 0.2296933 -0.3602879 0.24728905
0.43362534 -0.12768288 -0.14502802 -0.10193517 0.3895754 -0.39094242 -0.18641798 -0.46443385
-0.3478123 0.60846263 0.4564232 0.31350714 -0.25463283 0.42283487 0.47934854 -0.3279955
-0.20174289 -0.053079594 0.030283092 0.5315249 0.08970489 0.42208937 0.39594322 0.49820992
0.04415129 -0.75296736 -0.40232992 0.12642176 -0.22723277 0.4980746 0.21937676 0.555622
-0.1473351 -0.67686135 -0.13129915 0.5411558 0.42251 0.7003011 -0.28327516 -0.24359605
-0.22694333 0.0046509616 -0.17952442 -0.020217013 -0.52097666 -0.35836473 -0.13671969 0.4225968
-0.1641966 0.4145195 -0.5128662 -0.1293178 -0.025975483 0.3045432 0.083346345 -0.83990556
-0.80836916 0.50831485 0.12019425 0.38129255 -0.17280193 0.6095735 -0.24375156 0.4861122
0.093242735 -0.44441175 -0.57652587 -0.266535 0.21654111 -0.46754086 -0.34655982 -0.4354722
-0.500941 0.5679081 0.6914709 -0.07896585 0.015910827 0.5374803 0.3774651 -0.15698615
-0.39845505 -0.0064957147 0.16895439 0.6086855 0.24273339 0.50201005 0.72168505 0.21799617
-0.48746738 -1.1134104 -0.21141751 -0.08187606 -0.13391083 0.3010061 0.23088275 0.556698
0.032118805 -0.34092632 -0.1913972 0.33678964 0.6030859 0.6911517 -0.3407201 -0.52977556
-0.18486503 -0.13191207 -0.0760028 0.09136539 -0.6506761 -0.61255765 0.10755625 -0.10177885
00000000: d676 85bc fbe3 993e e919 1dbf d8ca c3be
00000010: 0fb1 3f3e 61f7 ff3d e953 9a3e bb34 4bbf
00000020: 90d1 40bf 9507 263e bc8b 77be 653b ff3e
00000030: c827 973e 5070 083f 42a8 c8bd 13e2 623e
00000040: ab31 1bbe 0f7d f7be 3f20 02bf b7f1 16bf
00000050: 42a2 3cbe 13ac a0be d1df 8abe a6fd 26bf
00000060: 3020 88be 6934 033f ecdd 193f 1e32 a0be
00000070: 02b1 c6be 72a0 2b3f 0b37 6c3e 6b9a d0be
00000080: 6106 f9bd 7052 953e d43b 003f 2e94 473f
00000090: fc04 c6bd 0b7c c53e be48 823e c006 f03e
000000a0: 494a d5be 46a3 1dbf 1c4b e0be ce61 e1be
000000b0: 49c7 71be 67f1 003d 5a59 8f3d 3983 d33e
000000c0: 4df9 83be f107 7dbe ec9f dfbd ec79 dd3e
000000d0: edf6 283f c80f 673f a470 173e a5cc cfbe
000000e0: 819a 663e d419 5d3e 8de2 0d3e 23d6 223e
000000f0: 2fc2 05bf bd7e f9be f63b 37be 2ff6 36bd
00000100: b338 88be 4a2a a73d a0bb 54bf 9dfe dbbd
00000110: 7d25 393e bc41 83be 6b47 7a3e 73a7 23bf
00000120: aef1 0ebf af65 bebe d863 b7be 378b 593e
00000130: 3722 683e a2ec 623f 5da2 2d3e e898 d6bd
00000140: 4753 a2be ecd2 20bf 9cd5 43bf 4d9a 31bf
00000150: 86ef 0fbf 0227 103f 26f1 cabe 65d5 cebe
00000160: 9705 bdbe 179d b03e 1bc0 263f e1e0 02bf
00000170: c3cb 08bf b618 0d3f 924a 19bf 89d1 b8be
00000180: a717 2d3e 6d44 d93e b085 3d3f a34b 4e3f
00000190: c6c3 8cbe 9efb 843e 802e f03e 788c cb3e
000001a0: 2c1d acbe 42a4 46bf 2cf8 0dbe c8c4 87be
000001b0: 76d4 dd3e cb5f febd 7c33 e73e f884 f23e
000001c0: 3455 f7bd c69b bcbe 1528 c0be e95f 0a3f
000001d0: 72ee 013f edea 6e3f 7745 a03e c7c6 e7be
000001e0: 4cd3 d13e db1b 38bd 241d 8f3e 7500 ac3e
000001f0: f2fd 0cbf 3e4a cebe 4d1f 7fbe 8814 0abe
00000200: 824c 70bd 27c2 093f 41b1 1fbd 2707 97be
00000210: e7b7 76be 15b0 dc3e 6467 91be 4f3c 1abf
00000220: d621 8abe ba37 123f 878c 04bd 8cd4 ef3e
00000230: bae5 98be b834 6b3e a877 b8be 5739 7d3e
00000240: 2404 de3e 4dbf 02be 3a82 14be 63c3 d0bd
00000250: 6d76 c73e 9b29 c8be 5be4 3ebe 46ca edbe
00000260: 7414 b2be 35c4 1b3f 4db0 e93e 0284 a03e
00000270: 3c5f 82be d07d d83e 2c6d f53e 07ef a7be
00000280: b095 4ebe fd69 59bd 3f14 f83c 0412 083f
00000290: 33b7 b73d 191c d83e 12b9 ca3e 5f15 ff3e
000002a0: fcd7 343d 78c2 40bf 30fe cdbe b574 013e
000002b0: b5af 68be a203 ff3e 4da4 603e 3e3d 0e3f
000002c0: 03df 16be c946 2dbf 4973 06be 3089 0a3f
000002d0: 3b53 d83e ef46 333f 7109 91be 3e71 79be
000002e0: d563 68be 1867 983b 40d5 37be 269e a5bc
000002f0: ba5e 05bf 957b b7be 3f00 0cbe 9c5e d83e
00000300: 2723 28be e63b d43e 334b 03bf e36b 04be
00000310: 89ca d4bc 16ed 9b3e 7db1 aa3d 0d04 57bf
00000320: 48f1 4ebf ec20 023f 6728 f63d c738 c33e
00000330: fdf2 30be 020d 1c3f 029a 79be b3e3 f83e
00000340: 0cf6 be3d f089 e3be 3397 13bf 4777 88be
00000350: f4bc 5d3e 8461 efbe 4a70 b1be 36f6 debe
00000360: ab3d 00bf 6d62 113f 3d04 313f d9b8 a1bd
00000370: 6c57 823c 4f98 093f 1b43 c13e fac0 20be
00000380: 4d02 ccbe 01da d4bb 6102 2d3e d0d2 1b3f
00000390: 1a8f 783e bb83 003f 5ac0 383f 633a 5f3e
000003a0: 5395 f9be 3b84 8ebf d57d 58be a3ae a7bd
000003b0: ec1f 09be 791d 9a3e 876c 6c3e c383 0e3f
000003c0: 028f 033d e58d aebe a1fd 43be b16f ac3e
000003d0: d663 1a3f 51ef 303f dd72 aebe 5f9f 07bf
000003e0: 424d 3dbe f513 07be 5ba7 9bbd c71d bb3d
000003f0: b592 26bf 94d0 1cbf 7446 dc3d 6e71 d0bd

pi.pi_net.4.bias f4 [256]
0.5219936 0.5768405 0.5034074 0.7083897 0.5845683 0.33751842 0.83688974 1.0287547
0.39148197 0.6201367 0.6416397 0.53873616 1.0437576 0.48508197 0.56921434 0.7187944
0.63169646 0.95722365 0.63796276 0.931038 0.558096 0.92996293 0.56491846 0.9133066
0.43544242 0.92909414 0.49594492 0.5676659 0.4780042 0.5397343 0.6074785 0.59863585
0.9524708 0.5672763 0.8217893 0.69954765 0.73508525 1.0234277 0.62933975 0.469843
0.8445335 0.3171724 0.524833 0.5183852 0.89808804 0.4374671 0.4458228 0.36141914
0.48679715 0.625618 0.61571723 0.4181762 0.9847366 0.46125662 0.7072645 0.62786645
0.37370756 0.90609145 0.5733713 0.34400746 0.5627512 0.40620658 0.6689109 0.5733293
0.40313002 0.8378028 0.93547314 0.6052994 0.9326152 0.48504356 0.88215625 0.8498045
0.44951552 0.32285845 0.43696758 0.47266808 0.560401 0.55792195 0.8346224 0.5778048
0.7488822 0.4960849 0.8910544 0.88640356 0.5751099 0.6236821 0.4104342 0.9466472
0.46235365 0.9486758 0.9013817 1.0004891 0.8993418 0.4808209 0.8077106 0.913571
0.61822337 0.41380525 0.6196871 0.5595852 0.4282637 0.5593054 0.39013967 0.39880055
0.9425996 0.92567956 0.5210064 0.5244207 0.28130794 0.4807536 0.7040625 0.53867763
0.53079987 0.4433944 0.6287617 0.55232805 0.45133835 0.81149745 0.8132546 0.5940951
0.46472302 0.74417186 0.5841767 0.46050805 0.401315 0.44360626 0.5568499 0.92882633
0.49347368 0.50442165 0.36458164 0.7864503 0.39276764 0.5968085 0.961414 0.7535209
0.8054413 0.54027194 0.6353019 0.6547341 1.0041529 0.9214928 0.62706995 0.6336037
0.48078248 0.9686799 0.6721551 0.4722906 0.4349396 0.8149894 0.8536933 0.94771343
1.0278323 0.5965314 0.8182547 0.94132406 0.9710585 0.58678806 0.42341754 0.97631884
0.8917229 0.56117636 0.6240241 0.5533989 0.52675027 0.6337593 0.6392876 0.84695256
0.46867713 0.5011097 0.50600594 0.82767916 0.662016 0.43746316 0.57920146 0.8807329
0.4303888 0.48922217 0.5286319 0.6141433 1.046042 0.46165162 1.0282483 1.0157046
0.5587765 0.89927477 0.8701234 0.88226485 0.56350374 0.69368887 0.84483075 0.53308004
0.49091786 0.87113243 0.5109473 0.88658077 1.0000337 0.5107556 0.4417912 0.96049297
0.50755 0.99011827 0.46097335 0.93745345 0.45400143 0.84428644 0.40269426 0.55222064
0.49023175 0.3847116 0.74163026 0.5306907 0.40794858 0.91648877 0.9198696 0.969242
0.575173 0.87144583 0.98197645 0.4934647 0.9880356 0.9410534 1.0208023 0.87680334
0.8571739 0.49907935 0.5172062 0.87551284 0.89433485 0.52992755 0.873352 0.36505848
0.9790661 0.8394591 0.5529507 0.9083063 0.8934016 0.8793567 0.53949803 0.5762964
0.82121235 0.45262957 0.65549994 0.9180443 0.52114224 0.5312607 0.8860865 0.5039475
0.37969843 0.47289246 0.49247754 0.53184223 0.47882447 0.9408779 0.51986045 0.861529
00000000: 5fa1 053f d2ab 133f 4fdf 003f 0759 353f
00000010: 45a6 153f 37cf ac3e 683e 563f 3cae 833f
00000020: 5370 c83e 47c1 1e3f 8042 243f 9dea 093f
00000030: d999 853f aa5c f83e 08b8 113f e902 383f
00000040: dcb6 213f 9c0c 753f 8751 233f 8258 6e3f
00000050: 61df 0e3f 0d12 6e3f 7f9e 103f 76ce 693f
00000060: 4ff2 de3e 1dd9 6d3f 7eec fd3e 8d52 113f
00000070: f7bc f43e 072c 0a3f b683 1b3f 3340 193f
00000080: 20d5 733f 0539 113f c960 523f 8e15 333f
00000090: 8c2e 3c3f aeff 823f 691c 213f 438f f03e
000000a0: 5933 583f 6c64 a23e 755b 063f e4b4 043f
000000b0: 19e9 653f b0fb df3e e342 e43e ee0b b93e
000000c0: 7a3d f93e 8028 203f a59f 1d3f 311b d63e
000000d0: b317 7c3f d429 ec3e 490f 353f dbbb 203f
000000e0: 9956 bf3e 9cf5 673f 76c8 123f bf21 b03e
000000f0: 7610 103f 4ffa cf3e bf3d 2b3f b6c5 123f
00000100: 0f67 ce3e 3f7a 563f 2b7b 6f3f e7f4 1a3f
00000110: dfbf 6e3f a157 f83e fed4 613f ca8c 593f
00000120: e626 e63e b44d a53e 37ba df3e 8d01 f23e
00000130: 7176 0f3f f9d3 0e3f d0a9 553f 04eb 133f
00000140: beb6 3f3f d7fe fd3e 241c 643f 58eb 623f
00000150: 673a 133f a1a9 1f3f 6e24 d23e 7957 723f
00000160: 9eb9 ec3e 6bdc 723f f3c0 663f 0710 803f
00000170: 443b 663f 282e f63e 1fc6 4e3f cadf 693f
00000180: e343 1e3f 48de d33e d0a3 1e3f fa40 0f3f
00000190: 6145 db3e a42e 0f3f 63c0 c73e 962f cc3e
000001a0: 354e 713f 56f9 6c3f ad60 053f 6f40 063f
000001b0: 9807 903e 5625 f63e 713d 343f c7e6 093f
000001c0: 80e2 073f 9704 e33e 87f6 203f 5f65 0d3f
000001d0: d215 e73e 4cbe 4f3f 7431 503f 9e16 183f
000001e0: 2df0 ed3e 0c82 3e3f 9b8c 153f b6c7 eb3e
000001f0: 2979 cd3e 5c20 e33e b78d 0e3f 90c7 6d3f
00000200: 95a8 fc3e c721 013f 72aa ba3e cf54 493f
00000210: d718 c93e 71c8 183f 3a1f 763f bfe6 403f
00000220: 6731 4e3f 434f 0a3f 25a3 223f a79c 273f
00000230: 1588 803f f4e6 6b3f a887 203f da33 223f
00000240: 1f29 f63e 68fb 773f 5b12 2c3f 13d0 f13e
00000250: 67b0 de3e 25a3 503f a58b 5a3f 599d 723f
00000260: 0290 833f 48b6 183f 2479 513f 9dfa 703f
00000270: 4a97 783f be37 163f 2fca d83e 08f0 793f
00000280: f447 643f 41a9 0f3f 0bc0 1f3f 8dab 0d3f
00000290: 1bd9 063f 0d3e 223f 5aa8 233f e2d1 583f
000002a0: 73f6 ef3e ba48 003f 9b89 013f c8e2 533f
000002b0: e179 293f 2cfb df3e 8c46 143f b677 613f
000002c0: ec5b dc3e 547b fa3e 6c54 073f 7f38 1d3f
000002d0: b4e4 853f 9a5d ec3e a49d 833f 9c02 823f
000002e0: fa0b 0f3f df36 663f 68c0 5e3f 1cdc 613f
000002f0: c841 103f 9895 313f d446 583f ef77 083f
00000300: 9659 fb3e 8902 5f3f 71cd 023f f5f6 623f
00000310: 1b01 803f e1c0 023f 7532 e23e dee2 753f
00000320: ccee 013f 6478 7d3f b304 ec3e f3fc 6f3f
00000330: e072 e83e 2823 583f f12d ce3e 555e 0d3f
00000340: a8ff fa3e ebf8 c43e 7bdb 3d3f 59db 073f
00000350: a3de d03e 029f 6a3f 937c 6b3f 3e20 783f
00000360: 8a3e 133f 1317 5f3f cf62 7b3f 68a7 fc3e
00000370: e7ef 7c3f e0e8 703f a6a9 823f 2f76 603f
00000380: c06f 5b3f 5487 ff3e a067 043f 9c21 603f
00000390: 21f3 643f 55a9 073f ff93 5f3f f2e8 ba3e
000003a0: 13a4 7a3f cbe6 563f 2d8e 0d3f c386 683f
000003b0: f8b5 643f 851d 613f 8b1c 0a3f 2988 133f
000003c0: f93a 523f 10bf e73e d8ce 273f f404 6b3f
000003d0: 9469 053f b400 083f 91d6 623f b402 013f
000003e0: d567 c23e f61e f23e 0426 fc3e d026 083f
000003f0: 7b28 f53e 60dd 703f 9315 053f 2a8d 5c3f

v.v_net.0.weight f4 [64, 5]
0.5963014 0.8563111 0.38561466 -0.25282264 -0.22242515 0.9134958 -0.18026787 0.025786173
0.043909356 -0.052304223 -0.49897307 0.09240209 0.04770215 -0.17706826 -0.50193524 -0.06652712
0.4959392 0.3110744 0.096864566 -0.14256 -0.11645334 0.4029165 0.026134955 0.33219314
0.17343001 0.36051854 0.03599367 -0.010239508 0.12585701 0.3607767 0.46129727 0.23852792
-0.65911096 0.04066618 0.6542773 -0.112460084 0.45098102 0.23494357 0.020895807 0.77478594
-0.4989508 -0.37015805 0.13284284 0.13030694 -0.15758836 -0.8264261 -0.6194394 0.5568162
0.5766953 0.014495598 1.3835946 0.74871045 0.44246212 0.2781125 0.35784882 0.48281056
0.9842613 0.28892234 -0.013733981 -0.38988623 -0.51493484 -0.2856625 0.56949157 0.11951625
0.1609274 -0.4765084 -0.5023551 -0.2887434 -0.43473628 -0.2425784 -0.30393326 0.026131388
-0.09864629 -0.49348408 0.11685838 0.46943167 0.66668224 0.36407155 -0.23654291 0.017896036
-0.7891514 -0.040210854 0.06043165 0.07369718 -0.16798429 1.0064125 0.9527278 0.21244851
0.43906337 0.6281836 0.75383425 0.4135691 0.57620823 -0.2440564 0.16656056 -0.65002805
-0.18410312 0.5887244 0.50258434 -0.25833824 0.5629217 0.048977714 -0.3069345 0.017207699
-0.3288597 0.43636748 -0.14249872 -0.13206363 0.49082822 0.460274 -0.072882324 -0.20408554
-0.208758 -0.088948645 -0.43535048 -0.43870413 -0.16363393 -0.50622505 -0.24006712 -0.9763505
0.38487038 0.042318255 0.34669963 0.117804505 0.17839518 -0.66608316 -0.46669927 -0.020383889
-0.20709091 -0.18206018 -0.31365708 0.09848803 -0.12527509 -0.2902764 -0.20301798 1.2215917
0.6667206 0.4553725 0.03198779 0.52632034 0.5435908 -0.36974242 0.05755074 0.54549044
0.23341848 -0.004503046 -0.3902006 -0.24529417 -0.17160968 -0.23778005 0.120751016 0.44114172
0.3721186 0.44475985 0.4276145 -0.43784168 -0.26739448 0.102736704 -0.43234137 -0.28154975
-0.16140027 0.3159754 0.40741906 0.5132838 0.19431332 -0.40164572 0.34493822 -0.3143014
0.15329227 -0.63978416 -0.4780564 0.22148092 0.05418379 -0.23575667 -0.63513875 -0.03697994
-0.17709458 -0.49893415 0.28102925 -0.10151485 -0.50590247 -0.64059246 -0.25461358 -0.031948056
0.12532501 -0.308579 -0.04286053 -0.21524686 -0.16462488 -0.13811462 0.21274826 0.7445125
0.48477566 -0.10887739 -0.30031332 -0.5653645 -1.0179963 -0.008556131 0.017101271 -0.132796
-0.3757828 -0.46417227 0.13411897 0.46069217 0.2494702 -0.67363924 -0.5820551 -0.43138608
0.61820734 -0.2097579 -0.08164376 -0.34174693 -0.17236872 0.20697308 -0.43714994 -0.034612436
0.80213696 0.15629928 0.015948746 -0.20479485 0.80457425 0.27078226 -0.23331529 -0.41634336
-0.20615129 0.19465186 0.34521085 0.3668997 0.060801048 0.5203396 -1.20365 -1.2418325
-0.61939806 -0.45322514 0.31577775 -0.11753057 -0.18331178 -0.7107609 -0.67623085 -0.21499924
-0.43743756 -0.14143856 0.038846336 0.072802566 0.35408238 -0.9167312 -0.7293385 -0.031804353
-0.6142853 -0.1324246 0.23600335 0.3793473 0.041877974 -0.12730436 -0.47507626 -0.30395275
00000000: 35a7 183f 3437 5b3f 496f c53e f871 81be
00000010: 6bc3 63be dcda 693f 2498 38be 863d d33c
00000020: 4cda 333d f43c 56bd 6679 ffbe 4f3d bd3d
00000030: 5463 433d 6251 35be d47e 00bf 5f3f 88bd
00000040: beeb fd3e 2545 9f3e ee60 c63d 40fb 11be
00000050: 177f eebd 124b ce3e f918 d63c 3815 aa3e
00000060: a397 313e e395 b83e 196e 133d 9cc3 27bc
00000070: a9e0 003e b9b7 b83e 282f ec3e aa40 743e
00000080: 7fbb 28bf 9591 263d b87e 273f 7951 e6bd
00000090: fce6 e63e 0c95 703e af2d ab3c 5f58 463f
000000a0: 7b76 ffbe 5b85 bdbe f407 083e 2f6f 053e
000000b0: d85e 21be a990 53bf 9593 1ebf 828b 0e3f
000000c0: 4ea2 133f f27e 6d3c a119 b13f 7dab 3f3f
000000d0: 658a e23e c364 8e3e f637 b73e f232 f73e
000000e0: 8cf8 7b3f a1ed 933e 7e04 61bc 2b9f c7be
000000f0: c5d2 03bf 5b42 92be 33ca 113f f0c4 f43d
00000100: 27ca 243e e9f8 f3be 589a 00bf 2dd6 93be
00000110: c195 debe 7966 78be 249d 9bbe 7e11 d63c
00000120: 1107 cabd f2a9 fcbe 7253 ef3d 5959 f03e
00000130: b0ab 2a3f 9667 ba3e 4e38 72be b59a 923c
00000140: d305 4abf 23b4 24bd 2e87 773d 8cee 963d
00000150: 1304 2cbe 20d2 803f f8e5 733f 1a8c 593e
00000160: eacc e03e a4d0 203f 48fb 403f 54bf d33e
00000170: 6282 133f ece9 79be da8e 2a3e 3d68 26bf
00000180: 8785 3cbe a4b6 163f 5ea9 003f e944 84be
00000190: a31b 103f db9c 483d 8526 9dbe 29f7 8c3c
000001a0: 4c60 a8be 8f6b df3e 2feb 11be b03b 07be
000001b0: d64d fb3e 09a9 eb3e 5443 95bd cdfb 50be
000001c0: a8c4 55be b52a b6bd 42e6 debe d49d e0be
000001d0: a78f 27be f797 01bf 28d4 75be 1bf2 79bf
000001e0: bb0d c53e e855 2d3d 9d82 b13e 7d43 f13d
000001f0: 3aad 363e 6d84 2abf 35f3 eebe 1dfc a6bc
00000200: a40f 54be fc6d 3abe a997 a0be 18b4 c93d
00000210: 1d48 00be 1c9f 94be f2e3 4fbe 1e5d 9c3f
00000220: 34ae 2a3f 9626 e93e a105 033d eebc 063f
00000230: c428 0b3f e14e bdbe 53ba 6b3d 43a5 0b3f
00000240: 4105 6f3e 4a8e 93bb 5fc8 c7be 652e 7bbe
00000250: 73ba 2fbe 9d7c 73be 4f4c f73d 54dd e13e
00000260: 5486 be3e 90b7 e33e 4af0 da3e c92c e0be
00000270: eee7 88be 9f67 d23d d95b ddbe 4a27 90be
00000280: 1d46 25be 87c7 a13e 3b99 d03e 9166 033f
00000290: 12fa 463e 82a4 cdbe be9b b03e 1dec a0be
000002a0: a6f8 1c3e e5c8 23bf cfc3 f4be e5cb 623e
000002b0: d2ef 5d3d 326a 71be 7498 22bf 4778 17bd
000002c0: 4858 35be 4c74 ffbe 11e3 8f3e 05e7 cfbd
000002d0: d382 01bf defd 23bf b65c 82be f7db 02bd
000002e0: 3355 003e 11fe 9dbe 868e 2fbd ac69 5cbe
000002f0: 6d93 28be eb6d 0dbe aeda 593e 5f98 3e3f
00000300: 8434 f83e 1cfb debd abc2 99be babb 10bf
00000310: b44d 82bf 042f 0cbc f717 8c3c adfb 07be
00000320: 9a66 c0be fda7 edbe 7c56 093e d8df eb3e
00000330: 1e75 7f3e 9f73 2cbf 9001 15bf a3de dcbe
00000340: d642 1e3f c6ca 56be d834 a7bd 74f9 aebe
00000350: 6d81 30be c0f0 533e 1ed2 dfbe c5c5 0dbd
00000360: d958 4d3f eb0c 203e f2a6 823c beb5 51be
00000370: 94f8 4d3f f9a3 8a3e 34ea 6ebe f52a d5be
00000380: 5319 53be d152 473e 7abf b03e 47da bb3e
00000390: 850a 793d fa34 053f 3411 9abf 5ef4 9ebf
000003a0: df90 1ebf 200d e8be 9fad a13e deb3 f0bd
000003b0: 15b6 3bbe 6df4 35bf 771d 2dbf c328 5cbe
000003c0: d1f7 dfbe 45d5 10be 561d 1f3d 8319 953d
000003d0: 494a b53e e5ae 6abf eeb5 3abf 4845 02bd
000003e0: cd41 1dbf 509a 07be ddaa 713e cf39 c23e
000003f0: 3d88 2b3d 135c 02be 323d f3be b29f 9bbe

v.v_net.0.bias f4 [64]
0.6076506 -0.048082627 0.042772166 0.3157508 -0.02094954 -0.14069444 0.3897881 0.37383583
-0.13692793 -0.15621959 1.1120172 0.6758691 -0.22199507 -0.16036037 0.1048775 0.3503425
0.13362895 1.0928913 0.4361249 -0.23412162 0.27249634 -0.04818875 -0.023764916 -0.33397803
0.13937312 -0.50679076 -0.04178686 1.001433 -0.051905673 -0.35500515 0.24647748 -0.3881665
0.29430568 0.10665001 0.23926762 -0.088060044 -0.40352592 -0.0340661 0.3503368 -0.3936026
-0.12608781 -0.3263871 -0.36830574 0.2785194 0.15996894 0.3794919 -1.1778724 -0.30663002
-0.07302195 -0.7283032 0.24400233 0.056920156 0.047698896 -0.0343917 -0.17146845 -0.25085026
-0.66549444 -0.1323757 0.06820403 0.003914775 -0.051865578 0.019340793 0.7171748 -0.12468229
00000000: fd8e 1b3f 4af2 44bd de31 2f3d 17aa a13e
00000010: 5f9e abbc 3412 10be 4e92 c73e 6967 bf3e
00000020: d636 0cbe 07f8 1fbe 9456 8e3f c205 2d3f
00000030: ad52 63be 8235 24be 04ca d63d 1860 b33e
00000040: 07d6 083e dde3 8b3f c34b df3e 94bd 6fbe
00000050: a484 8b3e 9161 45bd a4ae c2bc 2bff aabe
00000060: d4b7 0e3e 0abd 01bf b328 2bbd f52e 803f
00000070: 0b9b 54bd 3cc3 b5be 9864 7c3e c2bd c6be
00000080: 3caf 963e 526b da3d 9202 753e d358 b4bd
00000090: f39a cebe e588 0bbd 585f b33e 4886 c9be
000000a0: 2a1d 01be 361c a7be 9292 bcbe 189a 8e3e
000000b0: e6ce 233e c34c c23e 86c4 96bf 9cfe 9cbe
000000c0: 888c 95bd 1472 3abf bfdb 793e 1c25 693d
000000d0: eb5f 433d 50de 0cbd 6d95 2fbe 726f 80be
000000e0: d85d 2abf 7f8d 07be 8eae 8b3d 8347 803b
000000f0: 0071 54bd 9570 9e3c c598 373f 6e59 ffbd

v.v_net.2.weight f4 [64, 64]
-0.19240741 0.650609 -0.5316658 -0.20856611 0.38977998 0.2938761 0.16271994 -0.4064353
-0.19186084 -0.47588274 -0.23297839 -0.3339087 0.026516292 -0.22916727 -0.027912878 -0.030070497
-0.24090698 -0.009193277 -0.5227025 0.11548468 -0.095953174 0.47672528 -0.38768163 -0.056576125
-0.104253806 0.23987307 -0.41053215 -0.10107366 -0.1910262 -0.020181337 0.23805612 0.38725325
-0.34274277 -0.30058432 -0.04198412 0.075753585 -0.05558495 -0.24088427 -0.6484406 0.17237255
-0.043735772 0.3985932 0.16530536 -0.14290233 0.43109423 0.28955612 0.36751726 -0.25476885
-0.0074052513 0.38068962 0.035895087 -0.1771912 -0.7735136 0.46263465 -0.74964756 -0.072491504
0.043444134 0.49719426 0.36540955 -0.21761586 -0.052117106 -0.0467581 -0.01509618 -0.5808173
-0.28263074 -0.17064048 -0.3672985 0.06893337 0.19086346 -0.19245747 0.046913624 -0.23232675
-0.47679225 -0.5492962 0.27257478 0.36295357 0.11151111 -0.6326812 -0.0987927 0.18317448
-0.094150655 0.24656661 0.093271665 -0.21065454 -0.0014674992 0.17826596 -0.22675088 -0.06864881
-0.2235002 -0.28097498 0.06437423 0.7120873 0.14690447 -0.09400055 0.48311922 0.03168583
0.030440735 0.2701662 -0.20737645 -0.1894436 -0.28805417 -0.32833412 -0.039351817 -0.41307804
-0.0014171918 -0.11285887 0.0024758936 0.55711323 0.40795308 0.8197493 -0.51750565 0.1540219
-0.30091554 -0.06513465 -0.16414872 0.06284585 -0.3227975 -0.25081423 -0.0049062045 -0.35109618
-0.17584191 0.46087787 0.16946012 0.01676883 0.25646397 0.21481343 0.21292225 -0.5296687
-0.5330131 -0.057987936 0.13561812 0.10964094 0.037503473 -0.020082332 -0.17718863 -0.15840794
0.5642925 0.06809567 0.13325208 -0.45715606 0.37751853 0.6147893 -0.05288162 -0.15214407
0.41251457 -0.6073583 -0.3103396 0.049549494 0.050442133 0.36358482 0.5364914 0.18750378
-0.31477034 0.24088648 -0.21900244 -0.29416013 0.19582617 0.15522666 -0.16725734 -0.09240861
-0.06052871 -0.07940857 0.04349339 0.30628073 0.22883281 -0.05011347 -0.054890294 0.052356444
-0.043525573 0.53318137 0.41178927 -0.43649104 -0.061732717 -0.37525904 0.15855323 0.042141106
0.16497478 0.28405833 -0.15771054 0.03768434 0.13021001 -0.28103244 0.38997892 -0.017335344
-0.044317223 0.13746041 -0.23437282 -0.10192573 0.2551305 -0.25628728 -0.37284106 0.028062144
0.4070417 -0.1720076 0.17479609 -0.29317367 -0.4872495 -0.45466676 0.3648946 0.49395978
0.26369026 -0.10536835 0.012014828 0.10940436 0.25130373 -0.2680206 0.59433186 -0.07278835
0.26882008 0.2460269 0.5188565 -0.3566459 -0.19221412 -0.39164472 0.3051056 -0.16058
-0.30699575 -0.25266364 0.21123235 -0.033047654 -0.21575394 0.07211032 -0.35251135 -0.024435764
0.47035924 0.23846306 0.30387235 0.039487533 0.40408581 0.17756799 0.3930911 -0.19684449
0.31119427 -0.20372391 -0.31284776 0.18058884 0.22242984 -0.14529882 -0.088074036 0.18721335
0.231347 -0.16557029 0.012131888 0.17984642 0.2405572 0.05171971 0.21966264 -0.6573172
-0.38594878 -0.6533183 -0.29904762 0.34376746 -0.39476076 0.44245118 0.19803686 0.13046396
00000000: 7306 45be 508e 263f 401b 08bf 5b92 55be
00000010: 3e91 c73e ee76 963e 0ea0 263e 4a18 d0be
00000020: 2b77 44be e7a6 f3be e391 6ebe 15f6 aabe
00000030: b238 d93c d3aa 6abe 8ca9 e4bc 6756 f6bc
00000040: 52b0 76be 669f 16bc d5cf 05bf 3b83 ec3d
00000050: 1983 c4bd 5615 f43e 357e c6be 5ebc 67bd
00000060: 0583 d5bd 49a1 753e 4531 d2be b5ff cebd
00000070: 5f9c 43be 5553 a5bc fcc4 733e 0f46 c63e
00000080: fb7b afbe 30e6 99be 8af7 2bbd b224 9b3d
00000090: 0bad 63bd 5eaa 76be 3400 26bf 6e82 303e
000000a0: 4824 33bd 6814 cc3e cf45 293e fd54 12be
000000b0: 62b8 dc3e b340 943e 392b bc3e 1071 82be
000000c0: c0a7 f2bb c0e9 c23e ba06 133d 9c71 35be
000000d0: fd04 46bf 73de ec3e e7e8 3fbf 6d76 94bd
000000e0: 7af2 313d 3f90 fe3e f616 bb3e b1d6 5ebe
000000f0: bf78 55bd 6c85 3fbd f855 77bc 71b0 14bf
00000100: fab4 90be 61bc 2ebe 8d0e bcbe f02c 8d3d
00000110: b671 433e 9213 45be 8028 403d 10e7 6dbe
00000120: 1d1e f4be ad9e 0cbf ec8e 8b3e 0dd5 b93e
00000130: f05f e43d 65f7 21bf d453 cabd 1792 3b3e
00000140: 0fd2 c0bd f57b 7c3e 3705 bf3d d3b5 57be
00000150: 1a59 c0ba 5a8b 363e 6231 68be bf97 8cbd
00000160: 3ddd 64be f4db 8fbe a3d6 833d 5a4b 363f
00000170: 206e 163e 5c83 c0bd 675b f73e 00c9 013d
00000180: d95e f93c 3953 8a3e 7e5a 54be 81fd 41be
00000190: d67b 93be 691b a8be 5f2f 21bd f77e d3be
000001a0: 11c1 b9ba 8d22 e7bd 9a42 223b f99e 0e3f
000001b0: 3adf d03e 17db 513f 407b 04bf ebb7 1d3e
000001c0: 9a11 9abe 5165 85bd 9a16 28be 53b5 803d
000001d0: b745 a5be b96a 80be 3ac4 a0bb e1c2 b3be
000001e0: e70f 34be 2ff8 eb3e f486 2d3e c95e 893c
000001f0: 3f4f 833e 0df8 5b3e 4a08 5a3e 5e98 07bf
00000200: 8c73 08bf c284 6dbd 7adf 0a3e 6e8b e03d
00000210: 3e9d 193d b483 a4bc f070 35be b135 22be
00000220: 7975 103f be75 8b3d 3c73 083e 5c10 eabe
00000230: 1c4a c13e d562 1d3f 669a 58bd a8cb 1bbe
00000240: 1c35 d33e d57b 1bbf d5e4 9ebe 69f4 4a3d
00000250: 699c 4e3d ca27 ba3e 8057 093f fe00 403e
00000260: 9429 a1be f2aa 763e 2d42 60be 289c 96be
00000270: a886 483e bdf3 1e3e 8245 2bbe ba40 bdbd
00000280: f4ec 77bd f6a0 a2bd 2026 323d d4d0 9c3e
00000290: 2653 6a3e c843 4dbd a5d4 60bd b673 563d
000002a0: df47 32bd 937e 083f 0bd6 d23e c17b dfbe
000002b0: 72db 7cbd f421 c0be c75b 223e 279c 2c3d
000002c0: 26ef 283e 1870 913e df7e 21be e55a 1a3d
000002d0: c655 053e 7ce3 8fbe 51ab c73e da02 8ebc
000002e0: fa85 35bd 6cc2 0c3e 6eff 6fbe 70be d0bd
000002f0: 77a0 823e 1638 83be 06e5 bebe 95e2 e53c
00000300: c567 d03e c322 30be bffd 323e dc1a 96be
00000310: c478 f9be 15ca e8be 77d3 ba3e 4ce8 fc3e
00000320: 6902 873e 5dcb d7bd d7d9 443c 650f e03d
00000330: e2aa 803e ff39 89be 2226 183f 0f12 95bd
00000340: c9a2 893e 7aee 7b3e c8d3 043f 4b9a b6be
00000350: c7d3 44be a885 c8be cd36 9c3e 156f 24be
00000360: 8c2e 9dbe 215d 81be 4b4d 583e fa5c 07bd
00000370: 9aee 5cbe 93ae 933d 5e7c b4be 832d c8bc
00000380: edd2 f03e a92f 743e 2895 9b3e aebd 213d
00000390: 56e4 ce3e 62d4 353e 3d43 c93e 9a91 49be
000003a0: db54 9f3e 009d 50be 952d a0be 48ec 383e
000003b0: a6c4 633e 37c9 14be 2960 b4bd dbb4 3f3e
000003c0: 3ae6 6c3e 428b 29be d4c4 463c a929 383e
000003d0: a054 763e 0cd8 533d 3eef 603e f145 28bf
000003e0: 149b c5be de3f 27bf c51c 99be 4a02 b03e
000003f0: 151e cabe f688 e23e 2dca 4a3e 5898 053e

v.v_net.2.bias f4 [64]
-0.24140362 0.1441724 -0.09734071 0.22550747 -0.07370626 0.092430785 -0.019206693 -0.026592204
-0.15131772 -0.20019816 0.0053100283 0.18312657 -0.034796253 0.070483334 -0.055006467 0.028733294
-0.1122496 0.115853906 -0.06320224 0.034847848 -0.23159659 -0.034785457 -0.2608452 -0.13403845
0.09998986 -0.032832213 0.14990757 0.0006939281 0.19833633 0.10389269 0.08899324 0.09717592
0.014850676 0.17280439 0.115941666 -0.18443976 0.122160584 -0.0067336317 -0.035669737 -0.0075335787
0.007833 0.22285247 -0.18985409 0.00879624 0.25537533 0.0387839 -0.25724232 -0.08999777
0.14262629 0.14296009 -0.057673775 -0.13257034 0.042196706 0.22946587 -0.015221111 0.0067227683
-0.03947471 0.20466942 -0.0005013533 -0.14057295 -0.015056514 0.25461152 -0.09673906 -0.059341308
00000000: 8332 77be eea1 133e 915a c7bd 6eeb 663e
00000010: 4ff3 96bd 5a4c bd3d 5b57 9dbc e5d7 d9bc
00000020: 08f3 1abe bf00 4dbe bfff ad3b 8885 3b3e
00000030: 8486 0ebd 9159 903d 764e 61bd 1662 eb3c
00000040: 1ee3 e5bd d044 ed3d 2d70 81bd 9ebc 0e3d
00000050: a827 6dbe 327b 0ebd 818d 85be 6041 09be
00000060: 7cc7 cc3d 127b 06bd 5f81 193e bae8 353a
00000070: ae18 4b3e b1c5 d43d 1642 b63d 2b04 c73d
00000080: 4050 733c a2f3 303e d372 ed3d c7dd 3cbe
00000090: 542f fa3d cca5 dcbb 6e1a 12bd 3ddc f6bb
000000a0: fc55 003c 7033 643e 1c69 42be 1b1e 103c
000000b0: 8ec0 823e dedb 1e3d 44b5 83be c050 b8bd
000000c0: a00c 123e 2164 123e 563b 6cbd 85c0 07be
000000d0: 74d6 2c3d 1af9 6a3e f761 79bc ab4a dc3b
000000e0: 3cb0 21bd dc94 513e 406d 03ba 5bf2 0fbe
000000f0: 99af 76bc 715c 823e 211f c6bd df0f 73bd

v.v_net.4.weight f4 [1, 64]
3.1558976 2.9813116 -2.8815835 -2.9327476 2.981843 2.8851204 -2.8945959 3.054968
-3.0647318 2.9886355 -2.815749 3.096394 2.9854915 3.3180346 -3.1220624 -2.8216116
2.8961742 -3.6086483 -3.1267767 -3.3609107 3.6798618 3.006182 3.0988688 2.9896626
-3.2738378 -2.842732 3.0208623 3.0666354 3.0037956 -2.8857965 3.1276288 -3.5544024
-3.410721 2.9946516 3.2770221 3.3809164 -2.9279282 -3.138339 -3.120506 3.674199
-3.520214 3.1982446 -2.8732002 -3.034183 -3.041003 -2.9168866 -3.0521116 -2.8576663
-3.3438277 -3.5606322 3.1556504 -2.9798899 2.8335738 3.3388946 -2.936878 -3.0319407
3.2506304 -3.7442923 3.2682242 2.6059256 3.0631967 -2.865619 -3.0396957 3.2221
00000000: 3afa 4940 cfcd 3e40 dd6b 38c0 23b2 3bc0
00000010: 84d6 3e40 d0a5 3840 0f41 39c0 9984 4340
00000020: 9124 44c0 ce45 3f40 3b35 34c0 522b 4640
00000030: 4b12 3f40 ae5a 5440 dfcf 47c0 4995 34c0
00000040: eb5a 3940 18f4 66c0 1c1d 48c0 2919 57c0
00000050: db82 6b40 4965 4040 de53 4640 a256 3f40
00000060: 8f86 51c0 52ef 35c0 cf55 4140 c143 4440
00000070: 303e 4040 e4b0 38c0 122b 4840 547b 63c0
00000080: 4149 5ac0 5fa8 3f40 bbba 5140 ef60 5840
00000090: 2d63 3bc0 8cda 48c0 5fb6 47c0 1426 6b40
000000a0: 304b 61c0 0ab0 4c40 83e2 37c0 0e30 42c0
000000b0: cb9f 42c0 45ae 3ac0 cc55 43c0 01e4 36c0
000000c0: 4601 56c0 66e1 63c0 2df6 4940 84b6 3ec0
000000d0: 4659 3540 73b0 5540 cff5 3bc0 510b 42c0
000000e0: 540a 5040 7ca2 6fc0 962a 5140 7cc7 2640
000000f0: 6a0b 4440 4d66 37c0 608a 42c0 e336 4e40
