tmp/experiments/RN2 False,True,True/pyt_network_save/model save30000.pt (torch_old, 314943 bytes, 33 tensors)

pi.pi_net.0.weight f4 [64, 5]
0	0x3dfa57a1	0.12223745
1	0xbdca66a4	-0.098828584
2	0x3da42689	0.080151625
3	0xbdb50095	-0.08838002
4	0xbef27eda	-0.47362405
5	0x3e91d48d	0.28482476
6	0xbe5c74d1	-0.21528937
7	0x3dd427c5	0.10359148
8	0xbe2249c0	-0.15848446
9	0xbd251202	-0.040300377
10	0x3e19bdb6	0.15013775
11	0xbe4a4e30	-0.19756389
12	0xbe12bf0b	-0.1433069
13	0x3da5cfca	0.08096273
14	0xbe626a9f	-0.22110985
15	0x3e849875	0.25897565
16	0xbf13464d	-0.57529145
17	0x3ea2e107	0.31812307
18	0xbe02c3c7	-0.12769996
19	0x3ee9fa92	0.45698982
20	0xbe6f6e76	-0.23381981
21	0xbe90b043	-0.28259477
22	0xbe1d5ab2	-0.15366629
23	0x3e3d9699	0.1851448
24	0x3eb77139	0.3582857
25	0xbefd9fba	-0.49535924
26	0x3edb59ab	0.4284185
27	0xbe99db0c	-0.30049932
28	0x3e110413	0.1416171
29	0x3d3deea2	0.046370156
30	0xbe6258bd	-0.22104163
31	0x3c8901e3	0.016724532
32	0xbe8f62fe	-0.28005213
33	0x3ea8f663	0.33000478
34	0xbeecf52e	-0.46280807
35	0xbe97ce78	-0.2964971
36	0x3ea5f85e	0.32416052
37	0xbd4525f8	-0.048131913
38	0x3e98fc6a	0.29880077
39	0xbe146637	-0.14492117
40	0xbf36e771	-0.714469
41	0xbf18011e	-0.59376705
42	0xbec312cd	-0.3810028
43	0xbdf0f6cd	-0.117658235
44	0xbd3fd687	-0.04683545
45	0x3e8481a6	0.25880164
46	0xbf1508cd	-0.58216554
47	0xbdd5e463	-0.10443952
48	0xbe72e896	-0.23721537
49	0xbdfcad8f	-0.12337791
50	0x3ee1b541	0.44083598
51	0xbe86e1fc	-0.26344287
52	0xbe5e012f	-0.21680139
53	0x3e30c4a1	0.17262508
54	0x3e91df93	0.28490886
55	0xbec5574c	-0.38543165
56	0x3ed89ba9	0.4230626
57	0x3e88e111	0.26734212
58	0xbe872922	-0.2639857
59	0x3eeb259a	0.45927125
60	0xbd11269f	-0.035437223
61	0xbe6dd769	-0.23226704
62	0x3e024f75	0.12725623
63	0xbeaf6253	-0.34254703
64	0xbd30bcad	-0.043148685
65	0xbe4492c9	-0.19196619
66	0x3df14220	0.117801905
67	0xbea3378e	-0.31878322
68	0x3d2f97a0	0.04286921
69	0xbe312961	-0.17300941
70	0x3b34121b	0.0027476612
71	0x3e53a224	0.2066732
72	0xbed375ae	-0.4130072
73	0xbd679d34	-0.056546405
74	0x3d72d565	0.05928554
75	0xbe2db061	-0.16961814
76	0xbeb15595	-0.34635606
77	0x3ebc426f	0.36769435
78	0xbd458f22	-0.048232205
79	0x3e68a78a	0.22720161
80	0xbe87599a	-0.26435548
81	0xbc60e16e	-0.013725622
82	0x3ee3586b	0.44403395
83	0x3df2a4d1	0.118478425
84	0x3f074a8e	0.52848136
85	0x3d1b9975	0.037988145
86	0x3d64a307	0.055819537
87	0x3da007e7	0.07814007
88	0x3ccaba86	0.024747144
89	0xbce2e14e	-0.027695324
90	0xbee0d55a	-0.43912774
91	0x3d94a131	0.07257307
92	0xbd9574f6	-0.07297699
93	0x3efc0295	0.4922072
94	0x3cec9f5a	0.028884578
95	0x3dd4177e	0.10356043
96	0xbec1136d	-0.37710133
97	0xbeb7c620	-0.35893345
98	0xbe7f86b2	-0.24953726
99	0xbe9487cb	-0.29009852
100	0x3d19d1cb	0.03755359
101	0xbf2ab5ca	-0.6668364
102	0x3de62c8f	0.112389676
103	0x3e550ff4	0.20806867
104	0x3e3ba3b2	0.18324164
105	0x3e0bc5c1	0.13649656
106	0xbe0ea8c1	-0.13931562
107	0x3e6a00c3	0.22851853
108	0x3eaa5725	0.3326961
109	0x3ef408fb	0.47663102
110	0xbf3df429	-0.74200684
111	0x3e54f7d8	0.2079767
112	0xbeaf503c	-0.342409
113	0x3e9f35d8	0.31095767
114	0x3c296f6a	0.010341505
115	0x3de0b872	0.1097268
116	0xbef81ee0	-0.48461056
117	0x3e0137aa	0.1261889
118	0x3dc3a098	0.09552115
119	0x3c346d42	0.011012377
120	0x3dc89349	0.097937174
121	0xbf42544b	-0.7590987
122	0xbf8f5d57	-1.120036
123	0xbf0f480f	-0.5596933
124	0xbe9aab88	-0.30208993
125	0xbe19fa9a	-0.15037003
126	0x3e6e3e09	0.23265852
127	0x3dea0afb	0.114278756
128	0xbeef75f9	-0.46769693
129	0x3f1724bf	0.59040445
130	0xbe56d617	-0.20980106
131	0x3ec68e54	0.38780463
132	0x3e076285	0.13221176
133	0xbf21a763	-0.63146037
134	0xbc2a8c12	-0.010409372
135	0xbf4c6211	-0.7983714
136	0xbef0a5a0	-0.47001362
137	0x3e62ebb0	0.2216022
138	0xbdb92574	-0.09040347
139	0xbef8d51b	-0.48600087
140	0x3c88f694	0.01671914
141	0xbda984c0	-0.08277273
142	0xbeb36926	-0.3504116
143	0xbf1c785d	-0.6112116
144	0x3e831255	0.25599924
145	0xbe726078	-0.23669612
146	0xbea9b2e0	-0.33144283
147	0x3e2fc7b5	0.17166026
148	0x3e90012a	0.28125888
149	0xbeaa5816	-0.3327033
150	0xbf2b535a	-0.6692406
151	0x3d17ef7c	0.037093624
152	0x3ef582d3	0.47951373
153	0xbe562bf3	-0.20915203
154	0x3e9bf235	0.30458227
155	0x3f1991ac	0.599879
156	0x3f3a2864	0.7271788
157	0x3f12f3a7	0.57403034
158	0x3eda22c9	0.42604664
159	0x3ee9d49c	0.4567002
160	0xbe7fbd3c	-0.24974531
161	0xbe0afc22	-0.13572744
162	0xbd80dc2d	-0.06291995
163	0x3dde28bf	0.108476155
164	0xbec20065	-0.37890926
165	0xbf081bfb	-0.53167695
166	0xbe42b9f7	-0.19016252
167	0x3e393078	0.18084896
168	0xbdbc4e7a	-0.09194656
169	0x3e7506d2	0.23928383
170	0x3e2a3681	0.16622354
171	0x3ec2c1da	0.38038522
172	0x3dadd933	0.08488693
173	0xbf04b4ca	-0.5183836
174	0xbbfa727f	-0.0076430435
175	0xbe1cf221	-0.1532674
176	0x3dfd0905	0.12355236
177	0x3e706f32	0.23479918
178	0xbdcda94d	-0.10042057
179	0xbe88f990	-0.267529
180	0xbe38052f	-0.17970727
181	0x3e9a97d0	0.3019395
182	0xbe03ae15	-0.12859376
183	0xbeec1fd1	-0.46118024
184	0xbea6547d	-0.32486334
185	0x3e4b0dcc	0.19829482
186	0xbe16e63c	-0.14736265
187	0xbe5f9c07	-0.21836863
188	0x3ed693e3	0.41909704
189	0xbe5e1480	-0.21687508
190	0xbe4caf21	-0.19988681
191	0xbe3cb636	-0.18428883
192	0xbdbd83a4	-0.09253624
193	0xbe83161a	-0.256028
194	0x3dd79f79	0.10528464
195	0x3e5783dd	0.21046396
196	0x3e62039e	0.22071692
197	0xbec0cc73	-0.37655982
198	0x3e51fbae	0.20506164
199	0x3ed4d337	0.41567394
200	0xbe45947a	-0.1929492
201	0xbd0ad19b	-0.0338913
202	0x3eb04d8e	0.3443417
203	0x3e14984c	0.14511222
204	0xbe564041	-0.20922948
205	0x3e10d291	0.14142825
206	0xbe561e4e	-0.20909998
207	0xbea1e816	-0.3162238
208	0xbe732c03	-0.23747258
209	0x3efd4630	0.4946761
210	0xbc352344	-0.011055771
211	0x3e708643	0.23488717
212	0x3f07a4f6	0.52986085
213	0xbd1921cb	-0.037385743
214	0xbdddc65a	-0.10828848
215	0x3ea80e37	0.32823345
216	0xbebacb1c	-0.36483085
217	0x3e00216b	0.12512748
218	0xbe98913a	-0.297983
219	0xbdba7f58	-0.0910632
220	0x3e368bfb	0.17826836
221	0xbd6641a3	-0.05621494
222	0x3c3d4ca0	0.011553913
223	0xbdd3aec1	-0.10336066
224	0xbe4705c5	-0.19435795
225	0x3ecb9a02	0.39765936
226	0x3cae8867	0.021305276
227	0xbe371fa2	-0.1788316
228	0xbe98139e	-0.29702467
229	0x3e77ab94	0.24186546
230	0x3c28de7a	0.010306949
231	0x3e434feb	0.19073455
232	0xbec12a38	-0.37727523
233	0x3cdb2691	0.026751788
234	0x3db5d330	0.088781714
235	0x3e9a2607	0.30107138
236	0xbe88fc3b	-0.26754937
237	0x3e7b28ee	0.24527332
238	0x3dc07598	0.09397429
239	0xbf23a5d6	-0.6392492
240	0x3efaf7b7	0.49017116
241	0xbec6db34	-0.38839114
242	0xbea8816e	-0.32911247
243	0xbef0e172	-0.47047
244	0xbe1b0692	-0.15139225
245	0x3d873250	0.06601393
246	0x3f1bc8bc	0.6085317
247	0xbd265e29	-0.040617142
248	0x3ef19d78	0.47190452
249	0xbe02e186	-0.12781343
250	0x3e211437	0.15730368
251	0xbf0e20ce	-0.55518806
252	0x3dda0811	0.1064607
253	0xbeb2226d	-0.3479189
254	0xbe307e1b	-0.17235605
255	0x3e85e5f1	0.26151994

pi.pi_net.0.bias f4 [64]
0	0x3ce48ff0	0.027900666
1	0xbe585bf7	-0.21128832
2	0xbeed202a	-0.46313602
3	0xbe1bb32d	-0.15205069
4	0x3e43b28b	0.19111077
5	0x3e229d89	0.15880407
6	0x3e393131	0.18085171
7	0x3eecd22f	0.46254107
8	0xbeaa06bb	-0.3320826
9	0xbedbe7d3	-0.42950305
10	0xbe8fc9b8	-0.28083587
11	0x3ea1db3c	0.31612575
12	0xbc774fdb	-0.015094723
13	0x3e8c9aab	0.27461752
14	0x3ec38b90	0.38192415
15	0x3eb436f1	0.35198167
16	0x3ee28592	0.4424253
17	0x3e86998e	0.26289028
18	0x3e8da876	0.27667588
19	0xbdca5282	-0.09879018
20	0x3e4b0787	0.1982709
21	0xbd05ad9a	-0.032636262
22	0x3ef6ce83	0.4820443
23	0xbe60c044	-0.21948344
24	0xbec0148a	-0.3751567
25	0x3dc97612	0.09836973
26	0xbd645862	-0.05574835
27	0xbe9bb264	-0.3040954
28	0x3dc9fc1a	0.09862538
29	0xbe3058c5	-0.17221363
30	0x3e652322	0.22376683
31	0x3eafb65c	0.34318817
32	0x3ebebf26	0.3725521
33	0x3ecb5d84	0.39719784
34	0xbe88d090	-0.2672162
35	0x3e446a86	0.1918126
36	0xbe4bb149	-0.19891848
37	0x3e4ec91b	0.20193903
38	0x3ea802ab	0.32814535
39	0xbe576563	-0.2103477
40	0x3e7b4a5a	0.24540082
41	0x3e146f97	0.14495693
42	0x3d2933f5	0.041309316
43	0xbc3d8034	-0.011566211
44	0xbe8365de	-0.25663656
45	0xbe1c9100	-0.15289688
46	0x3e188cfb	0.1489753
47	0xbec69d56	-0.38791913
48	0xbe0499cb	-0.12949292
49	0x3d97fd15	0.074213184
50	0xbf14b1d7	-0.5808386
51	0xbed0695d	-0.40705386
52	0xbed1b53a	-0.40958577
53	0x3e75e1dc	0.2401194
54	0xbde397ed	-0.11112962
55	0x3e2eac15	0.17057832
56	0xbee69f22	-0.45043284
57	0x3e1f1165	0.15533979
58	0x3f0ee933	0.55824584
59	0x3e3f68cd	0.18692322
60	0xbec56123	-0.38550672
61	0xbe5af00e	-0.21380636
62	0x3ecf41fa	0.40480024
63	0xbd81ad56	-0.06331889

pi.pi_net.2.weight f4 [64, 64]
0	0x3ea55eb9	0.3229883
1	0xbead00da	-0.33789712
2	0xbe4a9a02	-0.19785312
3	0xbe79312c	-0.24335164
4	0xbe9ff965	-0.3124496
5	0xbdefe834	-0.11714211
6	0xbeb2e767	-0.3494217
7	0x3e876e2d	0.26451245
8	0xbeef0397	-0.46682426
9	0xbed31a5b	-0.41231045
10	0xbd89dd79	-0.06731696
11	0x3f06b431	0.526187
12	0xbd4901f6	-0.049074136
13	0xbd913b27	-0.070913605
14	0x3ec8d99c	0.39228523
15	0x3e305a61	0.17221977
16	0xbd35a866	-0.04435005
17	0x3efd28b6	0.49445122
18	0xbde086f9	-0.10963244
19	0xbe394fc2	-0.18096831
20	0x3d59ab72	0.05314202
21	0x3e9ca94b	0.3059791
22	0x3edfd5d6	0.4371783
23	0xbec12c90	-0.3772931
24	0xbe9d2885	-0.30694976
25	0x3e2fdbb7	0.17173658
26	0x3dc07db2	0.093989745
27	0xbea7ef7c	-0.327999
28	0xbe4ad8da	-0.19809285
29	0x3ef2b8e6	0.4740669
30	0xbe0b3b36	-0.13596806
31	0x3e078131	0.13232876
32	0x3ddfbf96	0.10925214
33	0x3c40306e	0.011730297
34	0x3eabdf7b	0.3356894
35	0x3eda6079	0.42651728
36	0x3db982c7	0.09058147
37	0xbf0b26b6	-0.54355943
38	0xbecc9726	-0.39959067
39	0x3cf7ef87	0.030265583
40	0x3e78f2f4	0.2431143
41	0xbf238614	-0.6387646
42	0x3f360dc7	0.7111477
43	0xbe7e24ee	-0.24818775
44	0xbe789a25	-0.24277551
45	0xbe4f15cf	-0.20223163
46	0xbea6467a	-0.32475644
47	0x3d5e63af	0.054294284
48	0x3e715629	0.23568024
49	0x3ed20f92	0.41027504
50	0xbd2e69ab	-0.04258124
51	0xbd8d167e	-0.06889056
52	0xbd806b9a	-0.06270523
53	0x3e1f6a3e	0.15567872
54	0xbd8831ea	-0.06650145
55	0xbeb343fb	-0.35012802
56	0xbf4ea48d	-0.80719835
57	0xbdc98131	-0.098390944
58	0x3ea6d169	0.32581642
59	0xbebc9938	-0.36835647
60	0xbe1a4977	-0.15067087
61	0x3d01e606	0.031713508
62	0xbef81a68	-0.48457646
63	0xbe6c36fa	-0.23067847
64	0x3dcc49ba	0.09975
65	0x3e814f42	0.2525578
66	0xbe31576f	-0.1731851
67	0xbd9e5502	-0.07731058
68	0xbeb91b1b	-0.36153492
69	0xbdb120da	-0.08648844
70	0x3ee2ce62	0.44298083
71	0x3cf80e2c	0.030280195
72	0xbef45137	-0.47718212
73	0xbedbb8e2	-0.42914492
74	0xbf21d5da	-0.63216937
75	0x3e43b46b	0.19111793
76	0xbd115ad9	-0.03548703
77	0x3d98f1ea	0.074680164
78	0x3e868110	0.26270342
79	0xbe724b05	-0.2366143
80	0xbd19cf94	-0.037551478
81	0x3e122fc9	0.14276041
82	0xbd99d431	-0.075111754
83	0xbc0b8582	-0.008515717
84	0x3dca652a	0.09882577
85	0xbe5ccb33	-0.2156189
86	0x3e9c8dc9	0.30576923
87	0xbe182022	-0.14856008
88	0xbe8428cf	-0.25812384
89	0xbe9f39c7	-0.31098768
90	0x3e79e800	0.24404907
91	0xbe53e457	-0.20692573
92	0xbe27dfdb	-0.16393988
93	0xbdd80538	-0.105478704
94	0xbe4929d9	-0.1964487
95	0x3e48c6c6	0.19607076
96	0x3e87897f	0.2647209
97	0xbe361546	-0.17781553
98	0x3d901213	0.070346974
99	0x3dd19d35	0.10235063
100	0x3e5b148d	0.21394558
101	0x3dcb5d9f	0.09929966
102	0x3eb4879e	0.35259718
103	0xbd133166	-0.035935782
104	0x3dad805d	0.08471749
105	0xbe0aed9a	-0.135672
106	0x3eece6ae	0.46269745
107	0x3e4a6528	0.1976515
108	0xbe2b33aa	-0.16718927
109	0x3e71e7a7	0.23623525
110	0xbe491a4d	-0.19638939
111	0xbe419f0b	-0.18908326
112	0xbd56bd5f	-0.052426692
113	0x3e8208de	0.2539739
114	0xbeddcf1a	-0.43322068
115	0xbe34ac09	-0.17643751
116	0xbe3e45ac	-0.18581265
117	0xbe211b6c	-0.15733117
118	0xbde698ad	-0.11259589
119	0x3eb9ffdc	0.36328018
120	0x3cc55cea	0.024092156
121	0xbe9d5731	-0.30730584
122	0x3e514dff	0.2043991
123	0xbd6f6671	-0.058447305
124	0xbf0c28cb	-0.54749745
125	0x3e039a68	0.1285187
126	0x3e37bb2b	0.17942493
127	0xbd97f630	-0.074200034
128	0xbeeba0cc	-0.46021116
129	0xbe387f7c	-0.18017381
130	0xbeae7100	-0.34070587
131	0xbcd225d1	-0.025652798
132	0xbede6636	-0.43437356
133	0xbd9f6d2f	-0.07784497
134	0xbe93eeb2	-0.28893048
135	0x3e8df465	0.2772552
136	0xbecc6aac	-0.39925134
137	0xbebd8a4a	-0.3701957
138	0xbef2f393	-0.47451457
139	0x3ee5f14d	0.4491066
140	0x3e67e598	0.22646177
141	0xbee07561	-0.43839553
142	0xbe4dd0b3	-0.20099144
143	0x3e8d8cb0	0.276464
144	0xbd6447f1	-0.05573267
145	0x3efacd02	0.48984534
146	0xbf009bb4	-0.50237584
147	0xbdd15aee	-0.102224216
148	0xbd11f4f3	-0.035633992
149	0xbe4527b3	-0.19253425
150	0xbe38d41f	-0.18049668
151	0xbef3ca63	-0.47615346
152	0xbe76e22c	-0.24109715
153	0x3e09e835	0.13467486
154	0xbe830b3d	-0.25594512
155	0xbe17f895	-0.1484092
156	0x3e8c62ac	0.2741903
157	0x3c0d36b7	0.008619002
158	0xbe731659	-0.23738994
159	0x3d67c2c2	0.05658222
160	0xbefae44e	-0.49002308
161	0xbdd7c628	-0.10535842
162	0x3e96b7fd	0.29437247
163	0x3e83d1af	0.25745913
164	0xbe14b7eb	-0.14523284
165	0xbcf72183	-0.030167347
166	0xbeb2774a	-0.34856635
167	0xbaeb8fd8	-0.0017971946
168	0x3e51ab70	0.20475554
169	0x3ebd1b14	0.3693472
170	0x3f5b22cc	0.8559997
171	0xbd161025	-0.03663649
172	0x3ec113c8	0.37710404
173	0xbd7f787b	-0.06237076
174	0xbe8243f4	-0.2544247
175	0xbdc431ec	-0.09579834
176	0xbd5baf53	-0.053634
177	0x3f1d4f19	0.6144882
178	0xbebf88e0	-0.37409115
179	0x3b7788c4	0.0037770728
180	0xbeeb1eb5	-0.45921865
181	0xbf0132c4	-0.5046809
182	0x3e0b1ba6	0.13584766
183	0x3de418c0	0.11137533
184	0xbf1c0267	-0.60941166
185	0xbe8b7590	-0.2723813
186	0x3eabdba3	0.33566007
187	0xbdb8ab44	-0.09017041
188	0x3df66ca9	0.12032444
189	0x3e6043d7	0.21900879
190	0xbe920b52	-0.28524262
191	0xbedac3df	-0.42727563
192	0xbdfd80db	-0.12378093
193	0x3e7023c9	0.23451151
194	0xbe9233e5	-0.28555217
195	0x3dff0e08	0.12453848
196	0xbe77b7d2	-0.24191216
197	0xbd2106cd	-0.039313126
198	0xbe179509	-0.14802946
199	0x3ee5af9a	0.44860536
200	0x3e8dbbaf	0.27682254
201	0xbd8e42be	-0.06946324
202	0x3d75f420	0.06004727
203	0x3e132f47	0.14373504
204	0xbed40533	-0.41410217
205	0xbe49a4bf	-0.19691752
206	0x3b188ef1	0.002327856
207	0x3f01bc7b	0.50678223
208	0x3d9e5948	0.07731873
209	0x3e191992	0.1495116
210	0x3dcec63d	0.10096405
211	0xbe23c201	-0.15991975
212	0xbf071c0d	-0.5277718
213	0x3d962057	0.07330387
214	0x3e5da8df	0.2164645
215	0xbe3c7565	-0.18404157
216	0xbe2f2dc2	-0.17107299
217	0x3e95ceb0	0.29259253
218	0xbe7001d3	-0.23438196
219	0xbea4c132	-0.32178646
220	0x3e82659b	0.25468144
221	0x3e0069ab	0.12540309
222	0x3d956748	0.0729509
223	0xbe0f8c92	-0.14018467
224	0xbdba8b1d	-0.09108565
225	0x3eeeb0a0	0.4661913
226	0x3c7a2104	0.015266661
227	0xbcae3662	-0.021266166
228	0x3c006a1c	0.007837798
229	0xbdc07f7a	-0.09399314
230	0x3b98b7a6	0.0046605645
231	0xbe02cd54	-0.12773639
232	0xbcdc0814	-0.02685932
233	0x3ce469fa	0.027882565
234	0x3e57db6e	0.210798
235	0xbeb2bbc9	-0.34908894
236	0xbf004da4	-0.5011847
237	0x3e2f84a9	0.1714045
238	0x3eb8d74b	0.36101755
239	0xbe6997c2	-0.22811797
240	0x3ea072a4	0.31337464
241	0xbe5cba1a	-0.21555367
242	0xbe1cbf34	-0.15307313
243	0xbe7ea0c5	-0.24866016
244	0xbd8f1d25	-0.06987981
245	0xbd213576	-0.039357625
246	0x3e196d19	0.14983024
247	0xbe862443	-0.2619954
248	0xbe93b91b	-0.28852162
249	0xbe90dbf9	-0.28292826
250	0xbe15f54e	-0.14644358
251	0x3e2992c4	0.16559893
252	0xbef9b89b	-0.48773655
253	0xbcc6a46d	-0.024248326
254	0xbc711bc8	-0.014716096
255	0xbd78b12d	-0.060715843

pi.pi_net.2.bias f4 [64]
0	0x3e2f67ff	0.17129515
1	0x3eaa7842	0.33294874
2	0x3e9974b6	0.29971856
3	0x3e31dc53	0.17369203
4	0xbdb272f6	-0.08713333
5	0x3dd1dcad	0.10247169
6	0xbe2d8b7b	-0.16947739
7	0xbe3e5121	-0.18585636
8	0x3e3d5c1d	0.1849217
9	0x3e761362	0.24030831
10	0x3ea7547f	0.32681653
11	0xbe00dcdb	-0.1258425
12	0xbdef588c	-0.11686811
13	0xbe701f93	-0.23449545
14	0xbe237005	-0.15960701
15	0x3e52713a	0.20551005
16	0x3e5b3480	0.21406746
17	0x3e3cb7f6	0.1842955
18	0x3e8638de	0.2621526
19	0xbcbe511d	-0.023232037
20	0x3e157674	0.14595968
21	0xbe877f5c	-0.26464355
22	0xbe7414b5	-0.23836024
23	0x3df6b4a3	0.120461725
24	0xbe1432ee	-0.14472553
25	0xbdaaa5a2	-0.08332373
26	0x3e689374	0.22712499
27	0x3ea7d4c3	0.32779512
28	0x3e6639d3	0.22482996
29	0x3c585b9e	0.013205437
30	0x3e550d39	0.20805825
31	0x3df7a5fe	0.12092207
32	0xbe001a92	-0.12510136
33	0xbd794a36	-0.06086179
34	0xbecda894	-0.40167677
35	0xbddebd73	-0.10875978
36	0xbe70a902	-0.23501971
37	0x3e3eedae	0.18645355
38	0x3d54a7ee	0.051917963
39	0xbe458372	-0.19288424
40	0x3e22fc79	0.15916623
41	0xbd539e14	-0.051664427
42	0xbd4f0470	-0.05054134
43	0x3dfc6566	0.12324028
44	0xbec69bd2	-0.38790756
45	0x3e8a1068	0.26965642
46	0x3e58d215	0.2117389
47	0x3dd6b5c2	0.10483886
48	0xbcd6903f	-0.026191829
49	0xbd9e65f3	-0.07734289
50	0x3d8c9599	0.06864471
51	0xbda01c22	-0.07817866
52	0xbbbacb8e	-0.005700535
53	0xbdefb608	-0.117046416
54	0xbe16c973	-0.14725284
55	0xbd60c352	-0.054873772
56	0xbd4c359b	-0.04985581
57	0xbe7b0ee2	-0.24517396
58	0xbca65bc4	-0.02030743
59	0x3d07b3c5	0.033130426
60	0x3e8657d5	0.26238886
61	0x3e86ed16	0.26352757
62	0x3e431b51	0.19053389
63	0x3de76848	0.11299187

pi.pi_net.4.weight f4 [256, 64]
0	0xbc793b2f	-0.015211864
1	0x3e9a5bbf	0.30148122
2	0xbf1cbb51	-0.6122332
3	0xbec37fb9	-0.38183382
4	0x3e4039dc	0.18772072
5	0x3e00dc84	0.1258412
6	0x3e99d8c7	0.300482
7	0xbf4b7021	-0.7946797
8	0xbf40b876	-0.75281465
9	0x3e264e57	0.16240822
10	0xbe7660fb	-0.24060433
11	0x3eff8128	0.49903226
12	0x3e96b70a	0.29436523
13	0x3f081586	0.5315784
14	0xbdca2361	-0.09870029
15	0x3e640f1d	0.2227139
16	0xbe1ba92d	-0.15201254
17	0xbef75b27	-0.4831173
18	0xbf02384e	-0.50867164
19	0xbf170b62	-0.59001744
20	0xbe3d74a3	-0.18501525
21	0xbea14e41	-0.31505015
22	0xbe8b601a	-0.27221757
23	0xbf2706f0	-0.6524496
24	0xbe88b031	-0.26696923
25	0x3f034f1c	0.51292586
26	0x3f1a2480	0.60211945
27	0xbe9f5616	-0.31120366
28	0xbec706b0	-0.3887229
29	0x3f2bdbd3	0.671323
30	0x3e6c4d41	0.23076345
31	0xbed07971	-0.40717652
32	0xbdfad9ee	-0.12248598
33	0x3e9509cf	0.29109046
34	0x3efff0d7	0.49988434
35	0x3f476e87	0.77903026
36	0xbdc7e492	-0.09760393
37	0x3ec5e1e3	0.386489
38	0x3e82b71d	0.2553033
39	0x3eef88a1	0.46783927
40	0xbed4ab9c	-0.41537178
41	0xbf1dde5d	-0.61667424
42	0xbee0c197	-0.43897697
43	0xbee0e812	-0.43927056
44	0xbe72b9bd	-0.23703666
45	0x3d055cfa	0.032559372
46	0x3d913674	0.07090464
47	0x3ed3fad6	0.4140231
48	0xbe83fe2e	-0.2577986
49	0xbe7d949e	-0.24763724
50	0xbde15158	-0.11001843
51	0x3edded92	0.43345314
52	0x3f28bbe3	0.6591169
53	0x3f66d197	0.9016356
54	0x3e180161	0.14844276
55	0xbed04196	-0.40675038
56	0x3e67601f	0.22595261
57	0x3e5c1c90	0.2149527
58	0x3e0ed22f	0.13947366
59	0x3e235283	0.15949444
60	0xbf05811e	-0.5215014
61	0xbef905c7	-0.4863722
62	0xbe364932	-0.1780136
63	0xbd396728	-0.045264393
64	0xbe88312f	-0.26600024
65	0x3da73de3	0.08166101
66	0xbf54b27b	-0.8308484
67	0xbddbf050	-0.10739195
68	0x3e39284c	0.18081778
69	0xbe833d3e	-0.25632662
70	0x3e7a3ebe	0.24437997
71	0xbf23a9bc	-0.6393087
72	0xbf0eeee5	-0.55833274
73	0xbebe6116	-0.37183446
74	0xbeb75e4c	-0.3581413
75	0x3e5989d9	0.21243991
76	0x3e6819b8	0.22666061
77	0x3f62e80a	0.88635314
78	0x3e2d9107	0.16949855
79	0xbdd68e92	-0.10476412
80	0xbea252d6	-0.31703824
81	0xbf20d057	-0.628179
82	0xbf43d52a	-0.7649714
83	0xbf3199f1	-0.6937552
84	0xbf0ff15d	-0.56227666
85	0x3f1027e9	0.563109
86	0xbecaf62a	-0.39640933
87	0xbeceddbb	-0.40403542
88	0xbebd094e	-0.3692116
89	0x3eb09a0a	0.34492522
90	0x3f26c1c8	0.65139437
91	0xbf02de00	-0.51119995
92	0xbf08cc8d	-0.5343712
93	0x3f0d1afe	0.5511931
94	0xbf194875	-0.59876186
95	0xbeb8cf2c	-0.3609556
96	0x3e2d0e74	0.16900045
97	0x3ed94167	0.4243271
98	0x3f3d832b	0.7402827
99	0x3f4e4967	0.80580753
100	0xbe8cc873	-0.2749668
101	0x3e84fdce	0.25974888
102	0x3ef03195	0.46912828
103	0x3ecb76a4	0.39738953
104	0xbeac13a4	-0.33608735
105	0xbf46a701	-0.7759858
106	0xbe0e0140	-0.13867664
107	0xbe87c0ee	-0.2651438
108	0x3eddcfb2	0.4332252
109	0xbdfe4cc0	-0.12416983
110	0x3ee737f8	0.45159888
111	0x3ef289a2	0.4737063
112	0xbdf773be	-0.12082623
113	0xbebc9cb7	-0.36838314
114	0xbec02b53	-0.37533054
115	0x3f0a6211	0.5405589
116	0x3f01ec8a	0.50751555
117	0x3f6ee391	0.9331599
118	0x3ea045db	0.31303295
119	0xbee7cb28	-0.45272183
120	0x3ed1d5c9	0.40983418
121	0xbd384535	-0.044987876
122	0x3e8f21da	0.27955514
123	0x3eac0441	0.33596995
124	0xbf0cfbd7	-0.5507178
125	0xbece4577	-0.40287372
126	0xbe7f156d	-0.24910517
127	0xbe0a18d4	-0.13486034
128	0x3bdd6a9f	0.006757095
129	0x3f1728b2	0.5904647
130	0x3c9624f3	0.018328166
131	0xbe81b525	-0.25333515
132	0xbe524485	-0.2053395
133	0x3ef73b23	0.48287305
134	0xbeac820c	-0.33692968
135	0xbf278e2d	-0.6545132
136	0xbe6aedcc	-0.22942275
137	0x3f1dc506	0.6162876
138	0x3cb1283e	0.021625634
139	0x3f02d2df	0.51103014
140	0xbeb2b35a	-0.3490246
141	0x3e2f9586	0.17146882
142	0xbec98253	-0.39357242
143	0x3e9c1617	0.30485603
144	0x3ed65803	0.41864023
145	0xbdac250b	-0.08405503
146	0xbe16ab83	-0.14713864
147	0xbdfecc8d	-0.12441359
148	0x3eb4c245	0.35304466
149	0xbee5c79b	-0.4487885
150	0xbe751154	-0.23932391
151	0xbee48f2d	-0.44640484
152	0xbed38022	-0.41308695
153	0x3f23121b	0.636995
154	0x3f029e30	0.51022625
155	0x3ebf1579	0.3732107
156	0xbe9b7a9e	-0.30366987
157	0x3ef3360b	0.4750217
158	0x3f0473d9	0.5173927
159	0xbe9dcfaf	-0.30822513
160	0xbe8170aa	-0.25281268
161	0xbdac8da5	-0.08425454
162	0xbcb99db7	-0.022658212
163	0x3ef3df18	0.47631145
164	0x3d17d4f2	0.037068315
165	0x3ef25a6d	0.47334614
166	0x3ee45ea9	0.4460347
167	0x3eeb3c4d	0.45944443
168	0x3de284da	0.11060496
169	0xbf4e9849	-0.8070112
170	0xbee8aa08	-0.45442224
171	0x3e350c45	0.17680462
172	0xbe8f2328	-0.2795651
173	0x3f0cafd9	0.5495582
174	0x3e8b0845	0.27154747
175	0x3f1b9ccb	0.6078612
176	0xbddfc425	-0.109260835
177	0xbf38533e	-0.7200202
178	0xbe3ef38f	-0.18647598
179	0x3f17fcfb	0.5937039
180	0x3eb73ec7	0.35790083
181	0x3f2b725a	0.6697136
182	0xbe811728	-0.2521298
183	0xbe977bcf	-0.29586646
184	0xbe3a85b0	-0.1821506
185	0xbd43872d	-0.047736336
186	0xbe029dcb	-0.12755506
187	0x3ae79115	0.0017667139
188	0xbeef3315	-0.4671866
189	0xbe9cc794	-0.30621016
190	0xbdad7ff1	-0.084716685
191	0x3ec71c76	0.388889
192	0xbe1895af	-0.1490085
193	0x3edb1691	0.42790654
194	0xbefde54a	-0.49588996
195	0xbdf55828	-0.11979705
196	0xbc8096dd	-0.015696937
197	0x3ea262be	0.3171596
198	0x3d8e8dfd	0.06960676
199	0xbf5a61fc	-0.8530576
200	0xbf4d79b5	-0.80263835
201	0x3f045276	0.51688325
202	0x3e09f98d	0.13474102
203	0x3ec8b355	0.3919932
204	0xbe3e2a72	-0.18570879
205	0x3f17c97a	0.59291804
206	0xbe7b1bb0	-0.2452228
207	0x3f00884b	0.50207967
208	0x3db5e2e8	0.088811696
209	0xbee064ca	-0.43826896
210	0xbf142656	-0.57870996
211	0xbe89c379	-0.26906946
212	0x3e52cb85	0.20585449
213	0xbef8fbaf	-0.4862952
214	0xbeb86c05	-0.36019912
215	0xbedd761d	-0.43254176
216	0xbf051be2	-0.5199567
217	0x3f12b3a5	0.57305366
218	0x3f34c091	0.70606333
219	0xbd7102db	-0.058840614
220	0x3b41cf76	0.002957312
221	0x3f0cf976	0.5506815
222	0x3ec37359	0.3817394
223	0xbe1a7c2c	-0.1508643
224	0xbed2b413	-0.4115301
225	0xbc61fe82	-0.01379359
226	0x3e1edb21	0.15513279
227	0x3f197926	0.5995048
228	0x3e6acf5b	0.22930662
229	0x3f03b6f2	0.5145103
230	0x3f3c1620	0.7347126
231	0x3e579cca	0.21055904
232	0xbef14ad9	-0.47127417
233	0xbf905f28	-1.1279039
234	0xbe660b10	-0.22465158
235	0xbd8d11b1	-0.0688814
236	0xbe16ba91	-0.14719607
237	0x3ea0c3a3	0.3139926
238	0x3e79f5ce	0.24410173
239	0x3f11e640	0.5699196
240	0x3d29603c	0.041351542
241	0xbeb40926	-0.3516323
242	0xbe5273eb	-0.20552032
243	0x3eb3310c	0.34998357
244	0x3f159d0b	0.58442754
245	0x3f2efb76	0.6835245
246	0xbeaa48c3	-0.33258638
247	0xbf0b0469	-0.54303604
248	0xbe312bb3	-0.17301826
249	0xbe14ac2c	-0.14518803
250	0xbd80a0da	-0.0628068
251	0x3dbd3995	0.092394985
252	0xbf22e91f	-0.63636965
253	0xbf1971fd	-0.5993956
254	0x3df70114	0.120607525
255	0xbde4eea4	-0.111783296

pi.pi_net.4.bias f4 [256]
0	0x3f05dcf5	0.5229028
1	0x3f13ae22	0.5768758
2	0x3f0e3336	0.5554689
3	0x3f38b736	0.7215456
4	0x3f173f73	0.5908119
5	0x3eca3370	0.3949237
6	0x3f2ba419	0.6704727
7	0x3f67d726	0.90562665
8	0x3ece229c	0.4026078
9	0x3f1ed854	0.6204884
10	0x3f399b31	0.7250243
11	0x3f1eae1e	0.6198443
12	0x3f4ed07f	0.8078689
13	0x3f1394e8	0.5764909
14	0x3f200556	0.6250814
15	0x3f38074f	0.7188615
16	0x3f21ba26	0.63174665
17	0x3f2e879f	0.6817569
18	0x3f2bcbcd	0.6710785
19	0x3f501c66	0.8129333
20	0x3f1d04fe	0.6133574
21	0x3f5e4df4	0.868377
22	0x3f244858	0.6417289
23	0x3f53d12c	0.82741046
24	0x3edef354	0.4354502
25	0x3f58c06b	0.84668607
26	0x3f07f2fe	0.5310515
27	0x3f1cb036	0.61206377
28	0x3f010c1a	0.5040909
29	0x3f0bd075	0.54614955
30	0x3f273a6d	0.65323526
31	0x3f1bf4b5	0.6092027
32	0x3f2d254c	0.67635036
33	0x3f118251	0.5683947
34	0x3f04fdbc	0.5194967
35	0x3f3658c7	0.71229213
36	0x3f3c40c6	0.73536336
37	0x3f53de76	0.82761323
38	0x3f34f203	0.7068178
39	0x3efdfca4	0.49606812
40	0x3f278f72	0.65453255
41	0x3ebb3462	0.36563402
42	0x3f08774a	0.5330702
43	0x3f065615	0.524751
44	0x3f3593db	0.70928735
45	0x3f0700ea	0.5273577
46	0x3f009b1f	0.50236696
47	0x3ebbe4f7	0.36698124
48	0x3f08f77e	0.53502643
49	0x3f202ad6	0.6256536
50	0x3f1dcc0b	0.6163947
51	0x3ef49df7	0.47776768
52	0x3f36d25d	0.7141474
53	0x3f022a96	0.5084623
54	0x3f364a8f	0.7120752
55	0x3f20c88e	0.6280602
56	0x3edd76dd	0.43254748
57	0x3f58982d	0.846072
58	0x3f12c81b	0.57336587
59	0x3eb3f60a	0.3514865
60	0x3f14dc47	0.58148617
61	0x3eda7621	0.4266825
62	0x3f2b3dbe	0.66891086
63	0x3f15ee46	0.585667
64	0x3ee3528f	0.44398925
65	0x3f056295	0.5210355
66	0x3f0e2f1f	0.5554065
67	0x3f1af5d7	0.6053137
68	0x3f2e0395	0.67974216
69	0x3ef9c9a2	0.48786646
70	0x3f3929ea	0.7232958
71	0x3f243b78	0.6415324
72	0x3f04e04f	0.5190477
73	0x3ebdfb46	0.3710577
74	0x3ef54a97	0.4790847
75	0x3ef27314	0.47353423
76	0x3f1ba936	0.6080507
77	0x3f152f05	0.5827487
78	0x3f3cba2b	0.7372157
79	0x3f206e50	0.62668324
80	0x3f1b1474	0.60578084
81	0x3f0693f5	0.52569515
82	0x3f350b49	0.70720345
83	0x3f45a14a	0.7719923
84	0x3f15474f	0.58311933
85	0x3f2f5f4b	0.6850478
86	0x3ed9508a	0.4244426
87	0x3f62bca3	0.88569087
88	0x3f08af1c	0.53392196
89	0x3f39ff74	0.72655416
90	0x3f29ece9	0.6637712
91	0x3f66852b	0.9004695
92	0x3f55cefd	0.83518964
93	0x3ef62e19	0.48082045
94	0x3f17aedd	0.59251195
95	0x3f4e2667	0.8052735
96	0x3f433654	0.76254773
97	0x3ed5a76e	0.417293
98	0x3f224d54	0.63399243
99	0x3f1c6271	0.6108771
100	0x3ef12c31	0.47104028
101	0x3f1b2005	0.6059573
102	0x3ed7d914	0.42157805
103	0x3f041665	0.5159667
104	0x3f468f01	0.77561957
105	0x3f4115e4	0.7542403
106	0x3f1449c1	0.5792504
107	0x3f09d13e	0.53834903
108	0x3ea96f60	0.33092785
109	0x3f003369	0.50078446
110	0x3f346e11	0.7048045
111	0x3f147302	0.5798799
112	0x3f07e2d2	0.53080475
113	0x3f062784	0.52404046
114	0x3f211f11	0.6293803
115	0x3f0d64a6	0.552317
116	0x3ef4bf14	0.4780203
117	0x3f277e41	0.65427023
118	0x3f3c5278	0.7356334
119	0x3f1e8841	0.61926657
120	0x3f0950f1	0.5363913
121	0x3f0d4ff8	0.5520015
122	0x3f251ad4	0.6449406
123	0x3f03819e	0.51369655
124	0x3ee0578b	0.4381679
125	0x3ee9eb57	0.45687363
126	0x3f33a792	0.70177567
127	0x3f46686f	0.77503103
128	0x3f0c73e7	0.5486435
129	0x3f06c0b9	0.5263782
130	0x3eccd01d	0.40002528
131	0x3f195ada	0.59904253
132	0x3eca401f	0.39502046
133	0x3f206ee1	0.6266919
134	0x3f2ffe18	0.6874709
135	0x3f4a2702	0.7896577
136	0x3f3dbb1e	0.74113643
137	0x3f1bc332	0.6084472
138	0x3f22b588	0.63558245
139	0x3f279f46	0.65477407
140	0x3f42bb91	0.76067454
141	0x3f436cf9	0.76338154
142	0x3f212c36	0.62958086
143	0x3f25d214	0.6477368
144	0x3f0e7374	0.5564492
145	0x3f3866e0	0.72031975
146	0x3f2c3921	0.6727467
147	0x3f0d2f18	0.55149984
148	0x3eeb7a71	0.45991853
149	0x3f2cd32b	0.67509717
150	0x3f260ba7	0.6486153
151	0x3f3fee47	0.7497296
152	0x3f5ab0cf	0.8542604
153	0x3f18c0e7	0.59669346
154	0x3f30392b	0.6883723
155	0x3f4f41d1	0.809598
156	0x3f3880bf	0.7207145
157	0x3f294009	0.66113335
158	0x3ef2138c	0.47280538
159	0x3f49ca0c	0.78823924
160	0x3f53d9de	0.82754314
161	0x3f23d5e1	0.6399823
162	0x3f3924f5	0.72322017
163	0x3f169713	0.5882427
164	0x3f126d57	0.5719809
165	0x3f2258ab	0.63416547
166	0x3f257aea	0.64640677
167	0x3f322280	0.6958389
168	0x3f07f87a	0.5311352
169	0x3f13c6f6	0.57725465
170	0x3f0be034	0.5463898
171	0x3f2fe759	0.68712384
172	0x3f29ceee	0.66331375
173	0x3ef502a4	0.47853577
174	0x3f193285	0.5984271
175	0x3f33aa71	0.7018195
176	0x3ee8ebfb	0.4549254
177	0x3efa7d54	0.48923743
178	0x3f100d9a	0.56270754
179	0x3f1d3982	0.61415875
180	0x3f5999d6	0.8500036
181	0x3f057752	0.52135193
182	0x3f4e9ca5	0.8070777
183	0x3f6417e6	0.89098966
184	0x3f1fa072	0.62354195
185	0x3f40b9b4	0.7528336
186	0x3f38054b	0.71883076
187	0x3f2e28e8	0.6803117
188	0x3f104168	0.563498
189	0x3f379bcd	0.7172211
190	0x3f443be8	0.7665391
191	0x3f0c632c	0.54838824
192	0x3f0a5190	0.54030704
193	0x3f1d07db	0.6134011
194	0x3f0bdd95	0.5463498
195	0x3f3a713a	0.7282902
196	0x3f3848de	0.71986187
197	0x3f1fd0ed	0.6242817
198	0x3ef35478	0.47525382
199	0x3f3505c3	0.70711917
200	0x3f12cddb	0.5734536
201	0x3f64aeba	0.8932911
202	0x3f09fa07	0.53897136
203	0x3f3713c5	0.7151454
204	0x3f126d5e	0.5719813
205	0x3f18c995	0.5968259
206	0x3eea6d9a	0.45786744
207	0x3f17134b	0.59013814
208	0x3efbc512	0.4917379
209	0x3ee76ae1	0.4519873
210	0x3f3decad	0.74189264
211	0x3f07dc42	0.5307046
212	0x3ee245d5	0.44193903
213	0x3f2939a5	0.66103584
214	0x3f3848a3	0.71985835
215	0x3f38754f	0.72054
216	0x3f24faa3	0.6444494
217	0x3f2400cf	0.64063734
218	0x3f486079	0.78272206
219	0x3f0c6498	0.54840994
220	0x3f50e1dd	0.8159464
221	0x3f34f8b8	0.70692015
222	0x3f4f3221	0.80935866
223	0x3f46fbac	0.7772777
224	0x3f2a1859	0.664434
225	0x3f0a43b6	0.5400957
226	0x3f0f1bef	0.55902
227	0x3f3aabc8	0.7291837
228	0x3f2f283e	0.6842078
229	0x3f07ac7c	0.52997565
230	0x3f4ecfda	0.80785906
231	0x3eced036	0.40393227
232	0x3f4642a9	0.77445465
233	0x3f2c225a	0.67239916
234	0x3f141d9c	0.5785768
235	0x3f2fc41e	0.68658626
236	0x3f346d19	0.7047897
237	0x3f45085b	0.76965874
238	0x3f0a21af	0.5395765
239	0x3f1766ed	0.5914143
240	0x3f25fa26	0.6483482
241	0x3f0c4777	0.54796547
242	0x3f35be58	0.70993567
243	0x3f37a536	0.71736467
244	0x3f064015	0.5244153
245	0x3f16d714	0.58921933
246	0x3f21cab2	0.63199914
247	0x3f0f1f44	0.5590708
248	0x3ed15c13	0.4089056
249	0x3ef734af	0.48282382
250	0x3f0c99fc	0.5492246
251	0x3f083f28	0.5322137
252	0x3f1090b8	0.56470823
253	0x3f46d00f	0.7766122
254	0x3f13208a	0.57471526
255	0x3f395697	0.7239775

v.v_net.0.weight f4 [64, 5]
0	0x3f512e00	0.81710815
1	0x3f89cef1	1.0766279
2	0x3eed8783	0.4639245
3	0xbcac44ab	-0.021028837
4	0x3e044b65	0.12919386
5	0x3f368e2e	0.713107
6	0xbe4ce3fa	-0.20008841
7	0x3e0b065e	0.13576648
8	0x3df43a8f	0.11925232
9	0x3d67a3dc	0.056552753
10	0xbe58dadb	-0.21177237
11	0x3e420c29	0.18949951
12	0x3ce7bb3b	0.02828752
13	0xbe3fb913	-0.18722944
14	0xbf128edb	-0.5724923
15	0x3dcd703e	0.10031174
16	0x3f0d5ca6	0.55219495
17	0x3e5dc4b6	0.2165707
18	0x3dc96dc3	0.098353885
19	0xbddae3eb	-0.10688003
20	0xbecbda79	-0.3981512
21	0x3e909973	0.28242072
22	0x3d6a1b24	0.05715479
23	0x3eae63aa	0.34060413
24	0x3e47051d	0.19435544
25	0x3da16a4d	0.078816034
26	0xbd8281a2	-0.06372382
27	0xbb93ad78	-0.004506763
28	0x3dfd6041	0.123718746
29	0x3ecf51a2	0.40491968
30	0x3f4c1682	0.79721844
31	0x3ec687f4	0.387756
32	0xbf1f78cd	-0.622937
33	0x3d9d12c3	0.07669594
34	0x3f17dcdc	0.5932138
35	0x3e80d640	0.2516346
36	0x3f2389a4	0.638819
37	0x3e3859b0	0.18002963
38	0x3c94a12c	0.018143259
39	0x3f3c2b7c	0.7350385
40	0xbec77d20	-0.3896265
41	0xbecbfa8a	-0.39839584
42	0xbc466feb	-0.012111644
43	0x3d6b03f8	0.05737683
44	0xbe6287fd	-0.22122188
45	0xbf350749	-0.7071424
46	0xbf24ea3d	-0.6441992
47	0x3efe8931	0.49714044
48	0x3f1704c2	0.58991635
49	0x3d190098	0.037354082
50	0x3f8b29db	1.0872148
51	0x3f07fd84	0.5312121
52	0x3ecc179e	0.39861768
53	0x3e62488c	0.22097987
54	0x3e774223	0.24146323
55	0x3f092f7f	0.535881
56	0x3f877bb0	1.0584621
57	0x3e636067	0.22204743
58	0x3d898273	0.06714334
59	0xbe453690	-0.19259095
60	0xbea6d2a3	-0.32582578
61	0xbe84f65c	-0.25969207
62	0x3f02330d	0.5085915
63	0x3e0b640f	0.13612388
64	0x3e183ba5	0.14866503
65	0xbea3ddc8	-0.32005143
66	0xbe9adcd4	-0.30246603
67	0xbcd05776	-0.02543233
68	0xbddcaf15	-0.10775582
69	0x3ccbeed4	0.024894156
70	0xbd861218	-0.0654642
71	0x3db38caf	0.08767068
72	0xbe335a35	-0.1751488
73	0xbf0ba546	-0.5454906
74	0x3d34df21	0.044158105
75	0x3ead3cd9	0.33835486
76	0x3f078cc4	0.52949166
77	0x3e133ba7	0.14378224
78	0xbf05bc9a	-0.5224091
79	0xbe489dc7	-0.19591437
80	0xbf188087	-0.5957112
81	0xbc9cffbd	-0.019164914
82	0xbd24e05f	-0.04025304
83	0x3bd60455	0.006531278
84	0xbe8c98ee	-0.27460426
85	0x3f432bf5	0.7623895
86	0x3f421dbd	0.75826627
87	0x3e4ae516	0.19813952
88	0x3ebf327d	0.37343207
89	0x3ef53b63	0.4789687
90	0x3f3e86e6	0.7442459
91	0x3ef1a94f	0.47199485
92	0x3f12685a	0.5719048
93	0xbe04678c	-0.12930125
94	0x3ec77db5	0.38963094
95	0xbf20c069	-0.62793595
96	0xbe993438	-0.29922652
97	0x3eca2913	0.39484462
98	0x3ed76570	0.42069578
99	0xbe94c67c	-0.29057682
100	0x3efdac7f	0.49545667
101	0x3d8d80a7	0.06909304
102	0xbe7bd5d5	-0.24593289
103	0x3bc4b3e7	0.0060028913
104	0xbec20505	-0.37894455
105	0x3c4289da	0.011873687
106	0xbecf53eb	-0.40493712
107	0xbe85217f	-0.26002118
108	0x3ef7af5d	0.4837598
109	0x3f008d40	0.5021553
110	0x3e53b12e	0.20673057
111	0xbdb1fb82	-0.086905494
112	0xbe83aee8	-0.2571938
113	0xbdbaef71	-0.09127701
114	0xbee4fbd1	-0.4472337
115	0xbf73fb2d	-0.9530514
116	0xbeeabf00	-0.45848846
117	0xbee00789	-0.4375575
118	0xbda615bd	-0.08109615
119	0xbf481d3d	-0.78169614
120	0x3e1b43c1	0.15162565
121	0xbd53bc78	-0.05169341
122	0x3ed8307b	0.42224488
123	0x3e09a8ba	0.1344327
124	0x3e357b94	0.17722923
125	0xbf08dad9	-0.53458935
126	0xbe9c1deb	-0.30491576
127	0x3e3b4299	0.18287124
128	0xbdcba95f	-0.09944414
129	0xbe1d150d	-0.15340061
130	0x3b0aafe8	0.0021161977
131	0x3e74d512	0.23909405
132	0xbe059d83	-0.13048367
133	0xbe9aa1dc	-0.30201614
134	0xbe8704dd	-0.26370898
135	0x3f74b3f7	0.95587105
136	0x3ef07e73	0.46971473
137	0x3edf561f	0.43620393
138	0xbce3bf64	-0.027801223
139	0x3ee0261e	0.4377908
140	0x3e725912	0.2366679
141	0xbf0d3b61	-0.5516873
142	0xbd67ecfa	-0.056622483
143	0x3eec65c3	0.46171388
144	0x3e00f55f	0.12593602
145	0x3eac8ac1	0.3369961
146	0xbe58331d	-0.21113248
147	0xbe8a2fcc	-0.2698959
148	0xbe3f7a46	-0.18698987
149	0xbe86c39c	-0.26321113
150	0xbee327a6	-0.44366187
151	0x3d2745b9	0.040837977
152	0x3e676b99	0.22599639
153	0x3eb7bd74	0.3588673
154	0x3ec721a1	0.38892844
155	0xbf13a9f8	-0.57681227
156	0xbe88c4fb	-0.26712784
157	0x3e85858e	0.26078457
158	0xbea74c6f	-0.32675502
159	0xbe33cf6e	-0.17559597
160	0x3e91a820	0.28448582
161	0x3f0fb794	0.56139493
162	0x3eb7483c	0.35797298
163	0x3ef0900c	0.469849
164	0x3e0c3e4f	0.13695644
165	0xbdc44a1c	-0.09584448
166	0x3ee7578a	0.45183975
167	0xbe962317	-0.29323646
168	0x3e3a54e7	0.1819645
169	0xbf2cfe87	-0.6757588
170	0xbf03fdca	-0.51559126
171	0x3e4e316f	0.20136045
172	0x3d9b4f02	0.07583429
173	0xbe84a04a	-0.2590354
174	0xbf30fe0f	-0.6913766
175	0x3e847683	0.25871667
176	0xbd2fa9f2	-0.04288668
177	0xbf0cd6fc	-0.5501554
178	0x3e653246	0.22382459
179	0xbe35a553	-0.17738847
180	0xbf36d8c4	-0.7142451
181	0xbf4b8a6b	-0.79508084
182	0xbe879233	-0.2647873
183	0xbe4e2903	-0.20132832
184	0xbe072870	-0.1319902
185	0xbd9d2fe1	-0.07675148
186	0x3d47186a	0.048607267
187	0xbe8c2435	-0.27371374
188	0xbe365a64	-0.17807919
189	0xbe2604ce	-0.1621277
190	0x3eeb0928	0.45905423
191	0x3f71015b	0.94142693
192	0x3f0907e2	0.53527653
193	0x3dc4a297	0.09601324
194	0xbb94288e	-0.004521436
195	0xbf05f7c1	-0.5233117
196	0xbf733211	-0.9499827
197	0x3e13ce8d	0.14434262
198	0x3ca6b1b9	0.020348417
199	0xbe92524a	-0.28578407
200	0xbe0c8a11	-0.13724543
201	0xbed4b812	-0.41546685
202	0x3dffe697	0.124951534
203	0x3f0139d4	0.50478864
204	0x3e8d30ac	0.27576196
205	0xbf498dad	-0.78731805
206	0xbf28cd99	-0.6593872
207	0xbeba2f03	-0.36363992
208	0x3f06cdaa	0.5265757
209	0xbecda7fb	-0.4016722
210	0xbe865e42	-0.26243788
211	0xbec55bdf	-0.38546655
212	0xbdb8c345	-0.0902162
213	0x3e73fd95	0.23827203
214	0xbec0d89c	-0.3766526
215	0x3dc4d795	0.096114315
216	0x3f5c5680	0.8606949
217	0x3db6845f	0.089119665
218	0x3d86dd3a	0.06585164
219	0xbdcf9710	-0.10136235
220	0x3f115094	0.5676358
221	0x3e6a0c65	0.2285629
222	0xbe600628	-0.21877348
223	0xbee3e7c9	-0.44512776
224	0xbe5c6956	-0.21524557
225	0xbe2d0448	-0.16896164
226	0x3e0d137c	0.13776964
227	0x3eb758e3	0.35810003
228	0x3c7b9fa1	0.015357883
229	0x3ef2d7ad	0.47430173
230	0xbf8d71de	-1.1050375
231	0xbf94172c	-1.1569571
232	0xbf313398	-0.6921935
233	0xbefd5e74	-0.49486125
234	0x3e8fe929	0.28107575
235	0x3f01d9bd	0.5072287
236	0x3e8a4274	0.27003825
237	0xbef1e7f0	-0.47247267
238	0xbf0a0b77	-0.53923744
239	0xbe17438c	-0.14771861
240	0xbf0ac799	-0.5421081
241	0xbea12953	-0.3147684
242	0xbdb7249d	-0.0894253
243	0x3c9f24d4	0.01942674
244	0x3e8694ab	0.262853
245	0xbf80a194	-1.004931
246	0xbf5446b0	-0.8292036
247	0x3db3b143	0.08774044
248	0xbf0b62a8	-0.5444741
249	0xbe38496a	-0.17996755
250	0x3d6d71d8	0.057969898
251	0x3ebab65f	0.36467263
252	0x3dcdc98d	0.100482084
253	0xbe1a1dff	-0.15050505
254	0xbefae7e4	-0.49005044
255	0x3d1ea7dc	0.038734302

v.v_net.0.bias f4 [64]
0	0x3f655bd9	0.89593273
1	0xbdb3f3c5	-0.0878673
2	0x3e000128	0.12500441
3	0x3eeb5c61	0.45968917
4	0xbe1afbe9	-0.15135159
5	0xbe61b85b	-0.22042982
6	0x3eec2520	0.46122074
7	0x3f0f79ed	0.5604542
8	0xbde17c10	-0.11009991
9	0xbe1be34f	-0.1522343
10	0x3f6ddab1	0.9291182
11	0x3f627706	0.88462865
12	0xbe27e4c8	-0.16395867
13	0x3c6f83ae	0.014618797
14	0x3e3dbd1b	0.1852917
15	0x3e86b8fa	0.26313
16	0x3e360794	0.17776328
17	0x3f724894	0.94641995
18	0x3f1c3724	0.6102164
19	0xbe9205b5	-0.2851998
20	0x3e794590	0.24342942
21	0xbe4409a5	-0.19144304
22	0x3df52794	0.119704396
23	0xbf12af5e	-0.5729884
24	0xbbca49ca	-0.006173347
25	0xbee0ace5	-0.43881908
26	0x3dcc4c69	0.099755116
27	0x3f56df75	0.8393472
28	0xbe238e25	-0.15972193
29	0xbe243055	-0.16034062
30	0xbdd191db	-0.10232898
31	0xbee37950	-0.44428492
32	0x3f0c3f71	0.54784304
33	0x3e22686c	0.15860146
34	0x3dabafb2	0.083831206
35	0x3da0b651	0.07847274
36	0xbf1f7ff8	-0.6230464
37	0x3dce6781	0.100783356
38	0x3f2257b1	0.63415056
39	0xbeca835a	-0.39553338
40	0xbdbc787a	-0.092026666
41	0xbf004a96	-0.5011381
42	0xbee34f9d	-0.44396678
43	0x3ee14fb6	0.44006127
44	0x3e114f20	0.1419034
45	0x3e301292	0.17194584
46	0xbf83a192	-1.0283682
47	0x3daf9397	0.085730724
48	0xbe8b1721	-0.27166083
49	0xbf615de4	-0.8803389
50	0x3e4b8d20	0.19878054
51	0x3e516344	0.20448023
52	0x3dc98fc3	0.098418735
53	0xbdc9fc4b	-0.09862574
54	0xbe1e489b	-0.15457384
55	0xbea7339f	-0.3265657
56	0xbf5b4034	-0.8564484
57	0xbe0ff70b	-0.14059083
58	0xbde93102	-0.113863006
59	0x3e5e470d	0.21706791
60	0xbe14176c	-0.1446206
61	0x3e2f0aaf	0.17093919
62	0x3eed90b6	0.46399468
63	0xbe06ed5b	-0.13176481

v.v_net.2.weight f4 [64, 64]
0	0xbe7f8381	-0.24952509
1	0x3ead556b	0.3385423
2	0xbec9f14d	-0.3944191
3	0xbe87e895	-0.26544634
4	0x3eaa6c82	0.3328591
5	0x3e094d88	0.13408482
6	0x3d4956f9	0.04915521
7	0xbeecd727	-0.46257898
8	0xbd8e643f	-0.06952714
9	0xbdd8db70	-0.105887294
10	0xbe94f351	-0.29091886
11	0xbec7878c	-0.38970602
12	0x3e33f42a	0.1757361
13	0xbe1d0cbc	-0.15336889
14	0x3dcddd21	0.100519426
15	0xbde49659	-0.11161489
16	0x3d1f37bd	0.038871516
17	0xbd8b2288	-0.06793696
18	0xbf13e679	-0.5777355
19	0x3eacb28b	0.33729967
20	0xbef85d9b	-0.48508915
21	0x3ec11f0f	0.37719008
22	0xbeac093e	-0.336008
23	0xbba5a7a7	-0.005055386
24	0xbe288f97	-0.16461025
25	0x3ea0f77b	0.31438813
26	0xbea27dd2	-0.31736618
27	0xbe22237b	-0.15833847
28	0xbeb51db7	-0.35374233
29	0x3ce46294	0.027879037
30	0x3e4e7cbd	0.20164771
31	0x3ef13c6a	0.47116405
32	0xbec989f9	-0.39363077
33	0xbe4f3da9	-0.20238365
34	0x3e2f1ffb	0.17102043
35	0x3df85b16	0.12126748
36	0x3b0db2ed	0.002162154
37	0xbe222958	-0.15836084
38	0xbf33a1a6	-0.7016853
39	0x3e67e75d	0.22646852
40	0x3ed65ac1	0.41866115
41	0x3ee833f4	0.45352137
42	0x3e6ddd8d	0.23229046
43	0xbe4cd607	-0.2000352
44	0xbe3b65c1	-0.18300535
45	0x3e78d5ba	0.2430028
46	0x3eda7112	0.4266439
47	0xbe6bef68	-0.23040545
48	0x3e91a731	0.2844787
49	0x3ee0ffbf	0.4394512
50	0xbe3a8f87	-0.18218814
51	0xbdef4dd6	-0.11684768
52	0xbd604589	-0.054753814
53	0x3e9cd915	0.3063437
54	0xbea5e8e7	-0.32404253
55	0x3b4c4492	0.00311688
56	0x3dcca623	0.099926256
57	0x3e88fc06	0.2675478
58	0x3ea1fe52	0.31639344
59	0xbe4e14ad	-0.20125075
60	0xbde59b50	-0.11211264
61	0x3d6d5f43	0.057952177
62	0xbde098d2	-0.10966648
63	0xbdbc39b6	-0.09190695
64	0xbebccc06	-0.36874408
65	0xbe064a8a	-0.13114372
66	0xbeade2ae	-0.33962005
67	0xbb7bbc28	-0.003841171
68	0x3e2bbf1e	0.16772124
69	0xbe389502	-0.18025592
70	0xbd54ee17	-0.051984873
71	0xbe852621	-0.26005653
72	0xbeb2be61	-0.34910873
73	0xbef2addf	-0.47398278
74	0x3e5c370f	0.21505378
75	0x3e8eb3a3	0.27871427
76	0x3e2c5a54	0.16831332
77	0xbf106079	-0.56397206
78	0xbdf8d982	-0.12150861
79	0x3db6eeda	0.08932276
80	0x3c8c0515	0.017092267
81	0x3e4ba5ac	0.19887418
82	0x3c909981	0.017651321
83	0xbd9626d2	-0.07331623
84	0xbd7cba43	-0.06170107
85	0x3e1901c0	0.14942074
86	0xbe595181	-0.21222498
87	0xbd50b795	-0.050956327
88	0xbe5b2a94	-0.21402961
89	0xbe541b51	-0.20713545
90	0x3d4dbce7	0.05022898
91	0x3f2757f7	0.653686
92	0x3e552c98	0.20817792
93	0xbdca39ea	-0.098743275
94	0x3efb9050	0.4913354
95	0x3d974d1b	0.073877536
96	0x3cab0182	0.020874742
97	0x3e754499	0.23951949
98	0xbe32ff63	-0.17480235
99	0xbe57e80c	-0.21084613
100	0xbe517248	-0.20453751
101	0xbeadd8a2	-0.3395434
102	0xbe014b38	-0.1262635
103	0xbea2d2b8	-0.3180139
104	0x3d04a047	0.032379415
105	0xbc4d7f4c	-0.012542557
106	0x3d9125ed	0.07087312
107	0x3eeba144	0.46021473
108	0x3eb84a51	0.359942
109	0x3f519bf9	0.8187862
110	0xbee40fc1	-0.4454327
111	0x3df75e73	0.12078562
112	0xbe523943	-0.20529656
113	0xbbd66dbf	-0.0065438445
114	0xbe7fd525	-0.24983652
115	0x3d8c909e	0.06863521
116	0xbeb6ecb1	-0.35727456
117	0xbe6d8bce	-0.23197863
118	0x3ce25771	0.027629586
119	0xbe92e472	-0.28689915
120	0xbdd0457c	-0.10169503
121	0x3f067b14	0.5253155
122	0x3e43fb04	0.19138724
123	0x3d2b7db4	0.041867927
124	0x3e7c9e61	0.24669792
125	0x3e4c0719	0.19924583
126	0x3de318d1	0.11088718
127	0xbeed5775	-0.46355787
128	0xbee2480e	-0.44195598
129	0xbd547bac	-0.051875755
130	0x3e13acfd	0.14421459
131	0x3e45035a	0.1923956
132	0x3ccaa8bd	0.024738664
133	0xbd6e25ef	-0.058141645
134	0xbd92068a	-0.071301535
135	0xbe0ed94a	-0.13950077
136	0x3edb2deb	0.4280847
137	0xbca0c1e6	-0.019623708
138	0x3e4ac850	0.19802976
139	0xbebd9d1e	-0.37033933
140	0x3e9b1af7	0.3029401
141	0x3f0a7b0c	0.54094005
142	0x3a12fae4	0.00056068436
143	0xbd61e322	-0.05514825
144	0x3e92ebd5	0.2869555
145	0xbf0dd135	-0.5539735
146	0xbe64d169	-0.22345509
147	0xbdb96a21	-0.090534456
148	0x3dfddceb	0.123956524
149	0x3eb4b449	0.35293797
150	0x3f0cff2e	0.55076873
151	0x3e38b56d	0.18037958
152	0xbeb52118	-0.3537681
153	0x3e2134f0	0.1574285
154	0xbe34f4cc	-0.17671508
155	0xbe699ecb	-0.22814481
156	0x3de32a3b	0.11092039
157	0x3e33edf8	0.17571247
158	0xbe595164	-0.21222454
159	0xbe09b3f9	-0.1344756
160	0xbd822de4	-0.06356409
161	0xbcd425de	-0.025896963
162	0x3d1bb458	0.038013786
163	0x3eaa306e	0.33240074
164	0x3e0b4d4a	0.13603702
165	0xbb893cde	-0.004188164
166	0x3d2a5f52	0.04159481
167	0xbd4f259e	-0.050572984
168	0xbdd026ef	-0.10163676
169	0x3ed5f2e9	0.41786888
170	0x3ea9d735	0.33172002
171	0xbea8b94e	-0.32953876
172	0x3bc6653a	0.0060545476
173	0xbec9a3bb	-0.3938273
174	0x3da8f1f8	0.08249277
175	0x3de93fc8	0.113891184
176	0x3d7a6719	0.061133478
177	0x3e607b5b	0.21922056
178	0xbd930e16	-0.07180421
179	0x3d5c3931	0.05376548
180	0x3e08bbec	0.13352937
181	0xbea9d3f5	-0.33169523
182	0x3eabef49	0.33580998
183	0xbdb77e5b	-0.08959647
184	0xbdff8122	-0.12475802
185	0x3de68336	0.11255495
186	0xbe93d380	-0.288723
187	0xbdd5b54c	-0.1043497
188	0x3e702cb2	0.2345455
189	0xbe56bb94	-0.20969993
190	0xbe8b841c	-0.2724923
191	0xbd42b6ed	-0.047537733
192	0x3efc57f8	0.49285865
193	0x3d60b1a1	0.0548569
194	0x3a4b1c94	0.0007748094
195	0xbe5bb29d	-0.21454854
196	0xbec5efeb	-0.38659605
197	0xbe86cc32	-0.26327664
198	0x3eeab3a7	0.4584019
199	0x3f17f0ac	0.5935161
200	0x3e11c71c	0.1423611
201	0xbe9b8366	-0.30373687
202	0x3dcb5a43	0.099293254
203	0x3e445b3a	0.19175425
204	0x3e9a6778	0.30157065
205	0xbe93417c	-0.28760898
206	0x3ef42430	0.4768386
207	0xbd7ce009	-0.061737094
208	0x3cbde520	0.023180544
209	0x3eabbc34	0.33542025
210	0x3f18e2b0	0.597209
211	0xbe849e16	-0.2590186
212	0xbe70182f	-0.23446725
213	0xbe5e328e	-0.21698973
214	0x3e5bcea8	0.21465552
215	0xbe7d8b3f	-0.2476015
216	0xbe7deef8	-0.2479819
217	0xbeabad39	-0.33530596
218	0x3dae661d	0.0851557
219	0x3d574a71	0.052561227
220	0x3ab0c5db	0.00134867
221	0xbba06241	-0.0048945253
222	0xbe8fe928	-0.28107572
223	0xbe03579f	-0.12826394
224	0x3f0e704d	0.5564011
225	0x3d609353	0.054828
226	0x3c42b27b	0.011883373
227	0xbcb03ad0	-0.021512419
228	0x3ea43cb6	0.3207757
229	0x3dc626bb	0.09675356
230	0x3ef3050e	0.47464794
231	0xbe8d9c8b	-0.27658495
232	0x3e15eb81	0.14640619
233	0xbe8c7cc0	-0.27438927
234	0xbecc99ed	-0.39961186
235	0x3e83e812	0.25762993
236	0x3ef2ad14	0.47397673
237	0xbd8da981	-0.06917096
238	0xbe370693	-0.17873602
239	0x3e01e706	0.12685785
240	0x3a83fa79	0.0010069154
241	0xbe81123d	-0.25209227
242	0x3e18e976	0.14932808
243	0x3d84cd2f	0.06484448
244	0xbdacb0d1	-0.084321626
245	0x3e5b514d	0.21417733
246	0xbc9374a5	-0.017999956
247	0xbf3d3352	-0.73906434
248	0xbef170e1	-0.47156432
249	0xbefd73d3	-0.4950243
250	0xbe800a41	-0.25007823
251	0x3e82fb83	0.25582513
252	0xbe939206	-0.28822345
253	0x3ea6c1bc	0.32569683
254	0x3e978946	0.2959692
255	0xbde9ef4d	-0.11422596

v.v_net.2.bias f4 [64]
0	0xbe9a8803	-0.30181894
1	0x3d912811	0.0708772
2	0xbcb8de51	-0.022566946
3	0x3ea2fedd	0.3183507
4	0xbe41e14a	-0.18933597
5	0x3d3bdfa4	0.045867577
6	0x3e7bd07a	0.24591246
7	0xbe10c436	-0.14137349
8	0xbdc2cb54	-0.09511438
9	0xbe89da94	-0.26924574
10	0x3e42cc2f	0.19023202
11	0x3dc4b40f	0.09604656
12	0xbde52c2a	-0.11190064
13	0x3d60073c	0.0546944
14	0xbd8a65e4	-0.06757715
15	0x3d80ef72	0.062956706
16	0xbe8670cf	-0.2625794
17	0x3e830241	0.25587657
18	0xbb85e3b3	-0.0040859818
19	0x3e4985c8	0.1967994
20	0xbe9a9425	-0.3019115
21	0xbdf628cd	-0.12019501
22	0xbea824e2	-0.3284064
23	0xbe8fd207	-0.28089926
24	0x3e5648f4	0.20926267
25	0xbcbecaf7	-0.02329014
26	0x3db34c55	0.087547936
27	0xbe697b8a	-0.22801033
28	0x3e01df9f	0.12682961
29	0x3e8de8f7	0.277168
30	0x3d9a1b62	0.07524754
31	0x3e76b819	0.24093665
32	0x3e236142	0.1595507
33	0x3cbe8ea3	0.023261374
34	0x3d9e4c57	0.077294044
35	0xbe95483b	-0.2915667
36	0x3e8797c0	0.26482964
37	0x3e009ce5	0.1255985
38	0x3dc64460	0.0968101
39	0xbc8e902a	-0.017402727
40	0x3e3e4ce1	0.18584014
41	0x3e1a6443	0.1507731
42	0xbe0c980b	-0.13729875
43	0x3dd8ae23	0.10580089
44	0x3e917d1f	0.28415772
45	0x3e5b00af	0.2138698
46	0xbe109ede	-0.14123103
47	0xbd660956	-0.056161247
48	0x3ea62655	0.3245112
49	0x3e745ab9	0.23862733
50	0xbe72ad0d	-0.23698826
51	0xbda7b669	-0.08189089
52	0xbe466825	-0.19375665
53	0x3e0a69e1	0.13516952
54	0x3dabad09	0.08382613
55	0x3daeb543	0.08530667
56	0xbe73b106	-0.23797998
57	0x3e81bbab	0.25338492
58	0xbe07d17c	-0.13263506
59	0xbe994c97	-0.29941246
60	0xbdd913fa	-0.10599513
61	0x3e75650d	0.23964329
62	0xbd2b7bdf	-0.04186618
63	0xbe6feafd	-0.23429485

v.v_net.4.weight f4 [1, 64]
0	0x4047811e	3.1172557
1	0x402badfa	2.6824937
2	0xc0254da9	-2.582865
3	0xc045455f	-3.082359
4	0x403da7d4	2.9633684
5	0x402584c9	2.5862296
6	0xc03e8a38	-2.9771862
7	0x404479f7	3.0699441
8	0xc031058c	-2.7659636
9	0x4042305b	3.0342014
10	0xc02c09be	-2.6880946
11	0x40330c88	2.7976398
12	0x402e605d	2.7246315
13	0x40413a34	3.0191774
14	0xc034aee9	-2.8231757
15	0xc02140ee	-2.519588
16	0x403f8981	2.9927676
17	0xc072c1e1	-3.7930834
18	0xc03035cb	-2.7532833
19	0xc04e17fd	-3.2202141
20	0x405c056c	3.437831
21	0x402e5841	2.7241366
22	0x40408a73	3.0084503
23	0x403de5de	2.967155
24	0xc03f0eca	-2.9852777
25	0xc022d0b4	-2.5439882
26	0x402e3622	2.722054
27	0x40416891	3.0220072
28	0x402d1d2b	2.7049053
29	0xc04a2516	-3.1585135
30	0x40350ca4	2.8288965
31	0xc06121b0	-3.5176811
32	0xc04a4f06	-3.1610732
33	0x402c918e	2.696384
34	0x403e9742	2.977982
35	0x405e9c59	3.4782927
36	0xc0469438	-3.1027966
37	0xc045fdae	-3.0936084
38	0xc036b5b0	-2.8548393
39	0x4045f45f	3.0930402
40	0xc05633ef	-3.3469198
41	0x403990cd	2.899463
42	0xc024c0ea	-2.5742745
43	0xc0309424	-2.7590418
44	0xc0357f24	-2.835885
45	0xc0356b45	-2.8346722
46	0xc0303760	-2.7533798
47	0xc023c557	-2.5589197
48	0xc05283a3	-3.2892845
49	0xc0637768	-3.554163
50	0x4041b6c6	3.0267806
51	0xc02b97a1	-2.6811297
52	0x40409fa7	3.0097444
53	0x404291fd	3.0401604
54	0xc02b7889	-2.679232
55	0xc0300fc7	-2.750963
56	0x40476901	3.115784
57	0xc0607b3d	-3.5075219
58	0x4047011a	3.1094422
59	0x4032e928	2.7954807
60	0x4032ae10	2.791874
61	0xc02feea3	-2.7489402
62	0xc02f6b13	-2.7409103
63	0x404a4243	3.1602943
