tmp/experiments/RN2 False,True,True/pyt_network_save/model save44000.pt (torch_old, 314943 bytes, 33 tensors)

pi.pi_net.0.weight f4 [64, 5]
0	0x3e7cdb76	0.24693093
1	0x3d44e73e	0.048072092
2	0x3e442012	0.19152859
3	0xbd660ef9	-0.056166623
4	0xbee73c99	-0.4516342
5	0x3df63504	0.12021831
6	0xbeba52ed	-0.36391392
7	0xbd15a6af	-0.036535915
8	0xbe7638d5	-0.24045117
9	0xbd560339	-0.052249167
10	0x3e398c0d	0.18119831
11	0xbe168305	-0.14698417
12	0xbddf42a0	-0.109013796
13	0x3dab8573	0.08375063
14	0xbe5e0552	-0.21681717
15	0x3e4c40c5	0.19946583
16	0xbf22b242	-0.6355325
17	0x3e8f48a7	0.27985117
18	0xbe10068c	-0.14064997
19	0x3f026992	0.5094234
20	0xbe50c6ae	-0.2038829
21	0xbe5fe855	-0.21865971
22	0xbdd6ee1b	-0.10494634
23	0x3e4ca806	0.19985971
24	0x3ed6c803	0.41949472
25	0xbf00eeda	-0.5036446
26	0x3ee38637	0.44438335
27	0xbea4168c	-0.32048452
28	0x3d2685cd	0.040654946
29	0xbd618656	-0.055059753
30	0xbd8d342c	-0.068947166
31	0x3e2d9381	0.169508
32	0xbe357c42	-0.17723182
33	0x3e9f60a7	0.31128427
34	0xbef189d0	-0.47175455
35	0xbeac478f	-0.33648345
36	0x3e9599d3	0.2921892
37	0xbdd8c495	-0.1058437
38	0x3e4a8a06	0.19779214
39	0xbe97b19c	-0.29627693
40	0xbf30f970	-0.6913061
41	0xbeea0358	-0.45705676
42	0xbe4fdcfe	-0.20299146
43	0x3d5580c8	0.05212477
44	0x3df33604	0.11875537
45	0x3e9ec181	0.31007007
46	0xbf0b81c0	-0.5449486
47	0xbc6ceb6f	-0.014460429
48	0xbe2253f5	-0.1585234
49	0xbd1a74e0	-0.037709117
50	0x3e71f780	0.2362957
51	0xbec692a9	-0.38783768
52	0xbebbedfd	-0.36705008
53	0x3db6dc5f	0.08928751
54	0x3e757ba2	0.23972943
55	0xbedc91e4	-0.43080056
56	0x3ebf6818	0.37384105
57	0x3e5771ac	0.21039456
58	0xbe8b0a30	-0.2715621
59	0x3ed999d7	0.42500183
60	0x3e823cca	0.25437003
61	0x3d9d3c99	0.07677574
62	0x3ee7f431	0.4530349
63	0xbd21abda	-0.03947053
64	0x3e88c7e7	0.26715013
65	0xbe295641	-0.1653681
66	0x3e36afba	0.17840472
67	0xbe93b1b3	-0.2884651
68	0xbc830d86	-0.01599766
69	0xbe44ab48	-0.19205964
70	0x3db17a02	0.08665849
71	0x3e9733a5	0.2953159
72	0xbea73510	-0.3265767
73	0xbdc77d08	-0.09740645
74	0xbcc434e4	-0.023951001
75	0xbda48caa	-0.08034642
76	0xbe8a0356	-0.2695567
77	0x3f01fdd4	0.50777936
78	0x3de194df	0.11014723
79	0x3ede2120	0.43384647
80	0xbe9057cb	-0.2819198
81	0xbd615e87	-0.05502179
82	0x3ec70ae3	0.38875493
83	0x3d4cf18b	0.05003504
84	0x3eecb00b	0.4622806
85	0x3d2cef24	0.04222025
86	0x3bcf6f70	0.006330423
87	0xba883482	-0.0010391625
88	0xbd7b2abb	-0.061320048
89	0xbe35195a	-0.17685452
90	0xbebac295	-0.3647658
91	0x3e2ae85c	0.166902
92	0x3bfd9524	0.007738726
93	0x3efcd4e5	0.49381176
94	0x3db7deff	0.0897808
95	0x3ebcd3bb	0.36880288
96	0xbdc779f9	-0.09740061
97	0xbe01c757	-0.12673698
98	0xbda3d1af	-0.07998978
99	0xbe4d5fc8	-0.20056069
100	0x3e39ac21	0.18132068
101	0xbf0c108c	-0.5471275
102	0x3e6ea944	0.23306757
103	0x3e9d578f	0.30730864
104	0x3e71117d	0.23541827
105	0x3b2599c0	0.0025268644
106	0xbe8998e9	-0.26874474
107	0x3df9306c	0.12167439
108	0x3eb7578a	0.35808975
109	0x3f0773fb	0.5291135
110	0xbf420004	-0.75781274
111	0x3e6062b1	0.21912648
112	0xbeb2a33f	-0.34890172
113	0x3e6122a5	0.21985872
114	0xbd60c1d8	-0.054872364
115	0x3dc07a5d	0.09398339
116	0xbf014793	-0.5049984
117	0x3dcedfc0	0.10101271
118	0x3dbb01bd	0.09131191
119	0x3d6ec492	0.058292933
120	0x3e144391	0.144789
121	0xbf2e5051	-0.68091303
122	0xbf82a1e7	-1.0205659
123	0xbf1bb35f	-0.60820574
124	0xbe8590c2	-0.26087004
125	0xbe5f5c3b	-0.21812527
126	0x3e3b3bc0	0.18284512
127	0x3d8b8dab	0.068141304
128	0xbed62efd	-0.41832724
129	0x3f2c130f	0.6721658
130	0xbe9b2f1c	-0.3030938
131	0x3eb27a92	0.3485914
132	0x3d631ff9	0.055450413
133	0xbf32f0bc	-0.6989858
134	0x3c6c97f8	0.014440529
135	0xbf66c73a	-0.90147746
136	0xbf08ce7f	-0.5344009
137	0x3e2ecb10	0.1706965
138	0xbdc55e39	-0.09637112
139	0xbee650e1	-0.4498358
140	0x3db29536	0.08719866
141	0x3a1fcd27	0.0006095939
142	0xbe88bb6d	-0.26705495
143	0xbf230ab6	-0.6368822
144	0x3e784da2	0.24248365
145	0xbe8c2514	-0.27372038
146	0xbecf07bb	-0.40435585
147	0x3e07f646	0.1327754
148	0x3e5e58bc	0.21713537
149	0xbed237bc	-0.41058147
150	0xbf3412f4	-0.7034142
151	0xbca5621c	-0.020188384
152	0x3ed6c30d	0.41945687
153	0xbe50f346	-0.20405301
154	0x3ed8e80c	0.42364538
155	0x3edaf6ad	0.42766324
156	0x3f0ba29c	0.54545
157	0x3ec210a4	0.3790332
158	0x3eb9a545	0.36258903
159	0x3eed4382	0.46340567
160	0xbe1baa9c	-0.15201801
161	0xbd048561	-0.032353763
162	0x3bee9eb8	0.0072821043
163	0x3d9a12c0	0.075231075
164	0xbed5a57e	-0.41727823
165	0xbf0d7ac6	-0.5526546
166	0xbe3fd6b9	-0.18734254
167	0x3e3e2922	0.18570378
168	0xbe014eae	-0.1262767
169	0x3e87ad14	0.26499236
170	0x3d97c002	0.074096695
171	0x3e8cb9ef	0.27485606
172	0x3b2b3af8	0.0026127677
173	0xbf0a0722	-0.53917134
174	0xbd24e490	-0.040257037
175	0xbde98927	-0.11403113
176	0x3dc6e474	0.09711543
177	0x3e5292fc	0.20563883
178	0xbdcc0a80	-0.0996294
179	0xbe89d5bb	-0.26920876
180	0xbdf60ebb	-0.12014528
181	0x3ec5ba2e	0.38618606
182	0xbdc9b5fa	-0.098491624
183	0xbf041f2d	-0.5161007
184	0xbec6b94a	-0.3881324
185	0x3eafbac7	0.34322187
186	0xbc11871c	-0.00888231
187	0xbdf6caa1	-0.12050367
188	0x3ed2e48e	0.41189998
189	0xbe84949c	-0.2589463
190	0xbdd08004	-0.10180667
191	0xbd769ac1	-0.06020618
192	0x3c6c6e11	0.014430539
193	0xbe6cc421	-0.23121692
194	0x3e269714	0.16268569
195	0x3d819702	0.063276306
196	0x3da42b24	0.08016041
197	0xbefd85a4	-0.49516022
198	0x3e3d61f9	0.18494405
199	0x3edebf80	0.43505478
200	0xbe015db1	-0.12633397
201	0xbd3e4beb	-0.04645912
202	0x3ebae4d7	0.36502716
203	0x3e2c6d31	0.16838528
204	0xbe6d4e5b	-0.23174421
205	0x3d383856	0.0449756
206	0xbe821e92	-0.25413948
207	0xbeb77797	-0.35833427
208	0xbea46764	-0.3211013
209	0x3ee2a7d2	0.44268662
210	0xbe0a74c3	-0.13521104
211	0x3ca39e2e	0.019972887
212	0x3ea99674	0.331226
213	0xbe27fecc	-0.16405791
214	0xbe7bee90	-0.24602723
215	0x3eac4655	0.3364741
216	0xbebd0720	-0.36919498
217	0x3dec325b	0.11533042
218	0xbe97abcb	-0.29623255
219	0xbc98c33b	-0.01864778
220	0x3ea2b094	0.31775343
221	0x3c8b91b8	0.017037258
222	0x3d95de99	0.07317848
223	0xbc21e482	-0.009881141
224	0xbdfb2aff	-0.1226406
225	0x3e70d8ef	0.23520254
226	0xbd638011	-0.055542056
227	0xbe7ca6f0	-0.24673057
228	0xbea9b109	-0.3314288
229	0x3e8bd0cf	0.27307746
230	0x3cbd00c8	0.023071662
231	0x3e99dae4	0.30049813
232	0xbe972557	-0.29520676
233	0x3d2bacb9	0.041912768
234	0x3e1d1294	0.15339118
235	0x3eb63cc6	0.3559324
236	0xbe700cee	-0.23442432
237	0x3e996c1f	0.29965302
238	0x3e2b698f	0.16739486
239	0xbf1776ed	-0.5916584
240	0x3ee43ae1	0.4457617
241	0xbead7582	-0.33878714
242	0xbe8d513f	-0.27601048
243	0xbedf4128	-0.43604398
244	0xbdd07171	-0.10177887
245	0x3d1a8bce	0.037730984
246	0x3f0036b1	0.5008345
247	0xbe216823	-0.15762381
248	0x3ea7c52d	0.3276762
249	0xbeb5cf9f	-0.35509965
250	0x3e5430de	0.20721766
251	0xbefd65a1	-0.494916
252	0x3e701045	0.23443706
253	0xbe708309	-0.23487486
254	0xbd5c6b30	-0.05381316
255	0x3e5ed58f	0.21761154

pi.pi_net.0.bias f4 [64]
0	0x3e590b93	0.21195821
1	0xbec89614	-0.39177
2	0xbec77c4a	-0.38962013
3	0xbe5e58e4	-0.21713597
4	0x3eac6d22	0.33677012
5	0x3e86d844	0.26336873
6	0x3eb77f68	0.3583939
7	0x3ef6eeb0	0.4822898
8	0xbe55dc32	-0.20884779
9	0xbebc7513	-0.3680807
10	0xbebba823	-0.36651716
11	0x3e598f02	0.2124596
12	0x3e88df1d	0.26732722
13	0x3ed7eeae	0.42174286
14	0x3f0e99e8	0.5570359
15	0x3ebad9ca	0.36494285
16	0x3eb085b0	0.34476995
17	0x3e395631	0.18099286
18	0x3eec8e87	0.4620249
19	0x3e2c9953	0.16855364
20	0x3ebcd7e9	0.36883476
21	0xbe59f8d8	-0.21286333
22	0x3f1c6981	0.61098486
23	0xbe87ec42	-0.26547438
24	0xbe8e066c	-0.27739275
25	0xbc29cba4	-0.010363493
26	0xbd9127ec	-0.070876926
27	0xbea4005e	-0.3203153
28	0x3e6f0af5	0.23344024
29	0xbe4b1612	-0.19832638
30	0x3de18e04	0.110134155
31	0x3e405153	0.18781023
32	0x3f097587	0.5369496
33	0x3f076201	0.5288392
34	0xbeeaa63c	-0.45829952
35	0x3debc490	0.11512101
36	0xbd77491e	-0.060372464
37	0x3ec74acb	0.3892425
38	0x3f059b29	0.5218988
39	0xbed2303d	-0.41052428
40	0x3e3f5c60	0.18687582
41	0x3e4bd0b7	0.19903837
42	0xbe69cdfb	-0.22832482
43	0xbdc31075	-0.09524623
44	0xbea0bf40	-0.31395912
45	0xbe447b70	-0.19187713
46	0x3eb49a82	0.3527413
47	0xbed34d53	-0.4126993
48	0x3c939373	0.018014645
49	0xbd94a252	-0.07257523
50	0xbeff616c	-0.49879014
51	0xbf0bc9bf	-0.54604715
52	0xbe8e3a48	-0.2777884
53	0x3e8caef9	0.27477244
54	0xbe6ed69b	-0.23324053
55	0x3ebe21fb	0.371353
56	0xbead3991	-0.33832982
57	0x3ebee155	0.3728129
58	0x3ebb2d65	0.3655807
59	0x3eb86850	0.36017084
60	0xbea86286	-0.32887667
61	0xbc99bce2	-0.018766824
62	0x3ed504c9	0.41605213
63	0xbc1f7c65	-0.009734248

pi.pi_net.2.weight f4 [64, 64]
0	0x3df909e1	0.121600874
1	0xbe6341cb	-0.22193067
2	0xbdbee408	-0.09320837
3	0xbce19738	-0.027537927
4	0xbe8f3ce0	-0.2797613
5	0xbe704367	-0.23463212
6	0xbf0a0f94	-0.5393002
7	0x3e23d4b0	0.15999103
8	0xbebf689a	-0.37384492
9	0xbe9a811d	-0.3017663
10	0x3d3443e3	0.044010054
11	0x3ecce7da	0.4002064
12	0xbe2e82cf	-0.17042087
13	0xbe43e2b9	-0.19129457
14	0x3e89525f	0.26820657
15	0x3dbd3833	0.09239235
16	0xbe1bb5a1	-0.15206005
17	0x3ebdbdb2	0.3705879
18	0xbe6dd79e	-0.23226783
19	0xbe1e6cee	-0.15471241
20	0x3e6f898f	0.23392318
21	0x3efda088	0.49536538
22	0x3eb44636	0.35209817
23	0xbe837ba6	-0.25680274
24	0xbe6a474d	-0.22878762
25	0x3e70712b	0.2348067
26	0xbde3f514	-0.11130729
27	0xbe654123	-0.22388129
28	0xbe7d4361	-0.24732734
29	0x3f1939b8	0.59853697
30	0xbe10731a	-0.14106408
31	0x3d2e6957	0.04258093
32	0x3c41f4cf	0.011838152
33	0xbda2a765	-0.07942084
34	0x3eb10627	0.34575006
35	0x3eb2112b	0.34778723
36	0x3d920d1c	0.07131407
37	0xbf21c26a	-0.6318728
38	0xbeebfa78	-0.4608953
39	0x3e019a7a	0.12656584
40	0x3e19a306	0.15003595
41	0xbf103515	-0.56330997
42	0x3f3c594c	0.73573756
43	0xbe2fe137	-0.17175756
44	0xbe3ba53a	-0.18324748
45	0xbdc3c7c3	-0.09559586
46	0xbeebdf7a	-0.46068937
47	0x3e479bb3	0.19492988
48	0x3ea22238	0.31666732
49	0x3e8b0ab6	0.2715661
50	0x3d817a0b	0.06322106
51	0x3c8bbee9	0.017058806
52	0x3d732d18	0.059369177
53	0x3df5c854	0.120011
54	0x3e20ce70	0.1570375
55	0xbf07fc38	-0.5311923
56	0xbf3119a7	-0.6917977
57	0xbe354eda	-0.1770586
58	0x3e5b2d72	0.21404055
59	0xbf03528f	-0.5129785
60	0xbdc10c69	-0.09426195
61	0x3d3b2055	0.04568513
62	0xbf0bece2	-0.5465833
63	0xbea1a5d6	-0.31571835
64	0x3e70172d	0.23446341
65	0x3eacce83	0.33751306
66	0xbdb075d1	-0.08616222
67	0xbe33fd63	-0.17577128
68	0xbf072076	-0.52783906
69	0xbe4f9735	-0.20272525
70	0x3eeebe62	0.46629626
71	0xbd2e737c	-0.042590603
72	0xbece0bd3	-0.40243396
73	0xbeb071c0	-0.34461784
74	0xbf0d5cf7	-0.5521998
75	0x3dbe60c7	0.092958026
76	0xbdb2ed0c	-0.08736619
77	0x3d05a59a	0.032628633
78	0x3e1f8966	0.15579757
79	0xbeb80b4a	-0.35946113
80	0xbe11f27e	-0.1425266
81	0x3dbc3818	0.091903865
82	0xbe3f228b	-0.18665521
83	0x3dcc2a8e	0.09969054
84	0xbd85411f	-0.065065615
85	0xbec460a4	-0.3835498
86	0x3e5d1388	0.21589482
87	0xbdbf88fb	-0.09352299
88	0xbe2a9394	-0.16657859
89	0xbec0533b	-0.375635
90	0x3ed5567c	0.41667545
91	0xbe000777	-0.12502848
92	0xbdaef922	-0.08543612
93	0xbcc20f66	-0.023688983
94	0xbea1cc01	-0.31600955
95	0x3dd3676a	0.10322459
96	0x3e468754	0.19387561
97	0xbe8a731c	-0.27040946
98	0x3e7658c6	0.24057302
99	0x3dd02e10	0.10165036
100	0x3eb1cd9b	0.34727177
101	0x3c9ae601	0.018908503
102	0x3e5caae4	0.21549565
103	0x3c42c0fc	0.011886831
104	0x3c4139b7	0.011793545
105	0xbe21f599	-0.15816344
106	0x3eeb94bb	0.4601191
107	0x3ea32a31	0.31868127
108	0xbd5602fb	-0.052248936
109	0x3ea7f863	0.32806692
110	0xbe909df9	-0.28245524
111	0xbd934f7d	-0.071928956
112	0x3d3a4523	0.04547609
113	0x3e68a2db	0.22718374
114	0xbeb1d501	-0.34732822
115	0xbdc4d79f	-0.09611439
116	0xbdc6ee44	-0.09713414
117	0xbe8d89ef	-0.27644297
118	0xbe7ae683	-0.24501996
119	0x3eda8c60	0.42685223
120	0x3dc4eb09	0.09615142
121	0xbef413e3	-0.47671422
122	0x3de88bf0	0.11354816
123	0xbe00c735	-0.12575991
124	0xbef8b3a6	-0.4857456
125	0x3e807d0a	0.25095397
126	0x3d832e92	0.06405367
127	0x3d70cf82	0.058791645
128	0xbeaf3449	-0.34219578
129	0xbcc3cb8d	-0.023900772
130	0xbe3b634f	-0.18299602
131	0x3e04d8fc	0.12973398
132	0xbf1cc6fd	-0.6124113
133	0xbe58afd6	-0.21160826
134	0xbec6e3c8	-0.38845658
135	0x3deb3c47	0.11486106
136	0xbe7d67e1	-0.24746658
137	0xbe5ca272	-0.21546343
138	0xbe9c9d59	-0.30588797
139	0x3e92520a	0.28578216
140	0x3ecacb8e	0.39608425
141	0xbf1c4d12	-0.610551
142	0xbeb3d737	-0.35125133
143	0x3dcc05f0	0.0996207
144	0xbe73d15d	-0.23810335
145	0x3ea7c97d	0.3277091
146	0xbf2e6673	-0.68125075
147	0x3dc16fa6	0.094451234
148	0x3b9459e9	0.0045273197
149	0xbe7764a5	-0.24159487
150	0xbec8259e	-0.390912
151	0xbea706fd	-0.3262252
152	0xbd6e2027	-0.05813613
153	0x3d3f2f3c	0.046675906
154	0xbe8e3c2f	-0.2778029
155	0xbaf1ee56	-0.001845787
156	0x3ec6a6f4	0.3879925
157	0x3e0945b2	0.13405493
158	0xbee6a275	-0.4504582
159	0xbde36a45	-0.11104254
160	0xbf2ee30e	-0.6831521
161	0xbe9d403f	-0.30713078
162	0x3ee685ba	0.450239
163	0x3db713d1	0.089393266
164	0x3c4c9f2a	0.01248912
165	0xbe3b0a8c	-0.18265742
166	0xbf065740	-0.5247688
167	0x3dd27e23	0.10277965
168	0x3d405719	0.046958063
169	0x3efc0af4	0.49227107
170	0x3f385296	0.72001016
171	0x3e2a0f00	0.16607285
172	0x3f0df034	0.55444646
173	0x3de903f4	0.11377707
174	0xbec82204	-0.39088452
175	0x3dbf98a0	0.09355283
176	0x3e09b328	0.13447249
177	0x3eecbfed	0.46240178
178	0xbe61b5b1	-0.22041966
179	0x3e3b26a5	0.1827646
180	0xbe8e19de	-0.2775411
181	0xbf2b95f0	-0.6702566
182	0x3df17256	0.11789386
183	0x3d3cd0c0	0.046097517
184	0xbee99d4a	-0.45627815
185	0xbee20c99	-0.44150236
186	0x3e1d0da4	0.15337235
187	0xbe5b47ae	-0.21414062
188	0x3e902861	0.28155807
189	0x3ecc1dcf	0.39866492
190	0xbef68791	-0.48150304
191	0xbe7aa425	-0.24476679
192	0xbdca0d9e	-0.098658785
193	0x3e9016e8	0.28142476
194	0xbe64c239	-0.22339715
195	0x3e205db6	0.15660748
196	0xbe040598	-0.12892759
197	0x3d4d9fe4	0.05020131
198	0xbd75f24b	-0.06004552
199	0x3ed3d5f1	0.41374162
200	0x3ea967c9	0.33086994
201	0xbb3dac76	-0.0028941906
202	0x3d954b01	0.072896965
203	0x3d6a787a	0.0572438
204	0xbeda15a2	-0.4259463
205	0xbdd3d24d	-0.10342846
206	0x3d25e10c	0.040497825
207	0x3ed308ab	0.4121755
208	0xbd0c897d	-0.034310807
209	0x3e037776	0.1283854
210	0x3d1c60a5	0.038178105
211	0xbcb22963	-0.02174825
212	0xbee9e8de	-0.45685476
213	0xbd8dd626	-0.06925611
214	0x3eb51e65	0.35374752
215	0xbdfff4dd	-0.12497876
216	0xbdb4c1d3	-0.088260315
217	0x3eb27d09	0.3486102
218	0xbe2fa1ca	-0.17151561
219	0xbe7f2096	-0.24914774
220	0x3ee84059	0.45361593
221	0x3e6c56d3	0.23079996
222	0x3d814c7b	0.063134156
223	0xbe6038d5	-0.2189668
224	0x3d3373e0	0.04381168
225	0x3ee38d44	0.44443715
226	0xbd676615	-0.056493837
227	0x3cb9fec6	0.022704493
228	0x3e036007	0.128296
229	0xbd9e98e6	-0.07744007
230	0x3de8e3fd	0.1137161
231	0xbe115612	-0.1419299
232	0xbdbc9f88	-0.09210116
233	0x3e06b518	0.1315502
234	0x3e4b5a13	0.1985858
235	0xbe942aec	-0.28938997
236	0xbeee2cf4	-0.46518672
237	0x3e2bba14	0.16770202
238	0x3eb928a6	0.36163825
239	0xbe635a5a	-0.22202435
240	0x3ee1c499	0.44095305
241	0xbeaaf01e	-0.3338632
242	0xbdad322c	-0.08456835
243	0xbe96898e	-0.2940182
244	0xbc99abd5	-0.018758694
245	0xbd3881ac	-0.04504554
246	0x3e142e97	0.14470898
247	0xbe3243e3	-0.17408709
248	0xbe699e5f	-0.2281432
249	0xbe51b6ec	-0.20479935
250	0xbe6e44cf	-0.23268436
251	0x3e4060a4	0.18786865
252	0xbefdca70	-0.4956851
253	0x3ddfe840	0.1093297
254	0xbe0418a3	-0.12900023
255	0xbcbd7603	-0.023127561

pi.pi_net.2.bias f4 [64]
0	0x3da60ba2	0.081076875
1	0x3e7dd608	0.24788678
2	0x3e10f946	0.1415759
3	0x3e074255	0.13208897
4	0x3e10e4fd	0.14149852
5	0x3e266a7e	0.16251561
6	0xbd9cc80a	-0.07655342
7	0xbe9ff30f	-0.31240126
8	0x3d5e4ee6	0.054274462
9	0x3e927223	0.28602704
10	0x3de57cef	0.1120547
11	0x3bcd5e07	0.0062673124
12	0xbe7043a2	-0.234633
13	0xbe2e2392	-0.17005756
14	0xbbb36eb9	-0.0054758457
15	0x3dcb8392	0.099372044
16	0x3e80b674	0.251392
17	0xbd21bef3	-0.039488744
18	0x3e4238d4	0.1896699
19	0xbda680f9	-0.08130068
20	0xbc442d88	-0.011973746
21	0xbd4bfa5a	-0.0497993
22	0xbe6b36bc	-0.22970098
23	0x3db0b00c	0.08627328
24	0xbe2841e4	-0.16431385
25	0xbe07c370	-0.13258147
26	0x3e06bcdd	0.13157983
27	0x3dae4cb2	0.08510722
28	0x3d709cc8	0.05874327
29	0x3de10100	0.10986519
30	0x3e4117f1	0.18856789
31	0x3da57e5b	0.08080741
32	0xbe48de28	-0.19615996
33	0x3dde0a70	0.108418345
34	0xbec392d6	-0.38197964
35	0xbc9bfa41	-0.019040229
36	0xbe81e10e	-0.25367016
37	0x3ecc014c	0.3984474
38	0x3e28d62b	0.16487949
39	0xbd119d1c	-0.03555022
40	0x3caf637b	0.02140974
41	0x3cbdd77d	0.023174042
42	0xbdbb4644	-0.091442615
43	0x3e3ecacc	0.18632048
44	0xbe45f915	-0.19333299
45	0x3ddf4010	0.10900891
46	0x3ea48c83	0.32138452
47	0x3e8d0b80	0.27547836
48	0xbd1f4275	-0.038881738
49	0xbc3fede4	-0.011714432
50	0xbdd2e7c7	-0.10298114
51	0x3d382a8f	0.044962462
52	0xbd6819c6	-0.056665204
53	0xbe064208	-0.13111126
54	0xbb2e386d	-0.0026583925
55	0xbe23eb66	-0.16007766
56	0xbd2d9fc9	-0.04238871
57	0xbeaa1c28	-0.33224607
58	0x3e434827	0.19070493
59	0xbd264b48	-0.040599138
60	0x3e2186c4	0.15774065
61	0x3c51eef1	0.012813316
62	0xbc9b81d6	-0.018982809
63	0x3cd68a0b	0.02618887

pi.pi_net.4.weight f4 [256, 64]
0	0x3d4f3e4f	0.05059653
1	0x3de65453	0.11246552
2	0xbef64ea9	-0.48106888
3	0xbf095687	-0.53647655
4	0xbb423808	-0.0029635448
5	0xbd432241	-0.04764009
6	0x3efdcbf5	0.4956967
7	0xbf191f5e	-0.5981349
8	0xbf1cc3fc	-0.6123655
9	0xbd093256	-0.03349527
10	0xbdc65bf4	-0.096855074
11	0x3eaa5210	0.33265734
12	0x3efb5453	0.49087772
13	0x3f084ddf	0.5324382
14	0xbe91cfdc	-0.28478897
15	0x3cfc36b6	0.030787807
16	0xbeb06130	-0.34449148
17	0xbe9c5e02	-0.30540472
18	0xbf31f8a7	-0.6952004
19	0xbf47a228	-0.77981806
20	0x3beca639	0.0072219637
21	0xbe7085f4	-0.23488599
22	0xbd9cb152	-0.07651009
23	0xbf54b58e	-0.8308953
24	0xbd954ae5	-0.072896756
25	0x3f34bd30	0.7060118
26	0x3ed8f3cd	0.42373505
27	0xbe5da8c9	-0.21646418
28	0xbe484ce2	-0.19560578
29	0x3ef354a7	0.47525522
30	0x3d143918	0.03618726
31	0xbec23861	-0.3793364
32	0x3d97b1df	0.07406973
33	0x3de0f660	0.10984492
34	0x3f323c62	0.69623387
35	0x3f176237	0.5913424
36	0x3dc9915e	0.0984218
37	0x3e4afdab	0.19823329
38	0x3d718b22	0.058970578
39	0x3e996fc4	0.29968083
40	0xbefdfdce	-0.496077
41	0xbf0b3455	-0.5437673
42	0xbe7898ee	-0.24277088
43	0xbf22ab23	-0.63542384
44	0xbd407e84	-0.046995655
45	0xbdef7be7	-0.11693554
46	0xbe00b068	-0.12567294
47	0x3e5eaebb	0.21746342
48	0xbee5238f	-0.44753692
49	0xbdd19e00	-0.10235214
50	0x3d9f464c	0.0777708
51	0x3e7359f5	0.23764785
52	0x3f4f62b9	0.81010014
53	0x3f431595	0.76204807
54	0x3dff955e	0.124796614
55	0xbe57e1b8	-0.21082199
56	0x3eb661e8	0.35621572
57	0x3ed2b98b	0.41157183
58	0xbd618a76	-0.055063687
59	0x3eb56093	0.35425243
60	0xbf34705d	-0.7048395
61	0xbf2e76f6	-0.6815027
62	0xbc572cb5	-0.013133218
63	0x3e0f7bed	0.14012118
64	0xbe36d58a	-0.17854896
65	0xbdc8780c	-0.09788522
66	0xbf2e6ab1	-0.6813155
67	0xbe856420	-0.26052952
68	0xbad6654b	-0.0016357092
69	0xbedc9e4a	-0.43089515
70	0x3edc189d	0.42987528
71	0xbee80f68	-0.45324254
72	0xbed2e63b	-0.41191277
73	0xbf0ee774	-0.5582192
74	0xbe5b4756	-0.21413931
75	0x3d5473b2	0.05186815
76	0x3ed352f6	0.41274232
77	0x3f5d3aee	0.86418045
78	0xbc393c83	-0.011305931
79	0xbe936a77	-0.28792164
80	0xbf002984	-0.5006335
81	0xbeea4f9e	-0.45763868
82	0xbf71e93c	-0.9449651
83	0xbf6039a1	-0.87587935
84	0xbec25ec3	-0.37962922
85	0x3f190e3d	0.5978735
86	0xbe582787	-0.21108828
87	0xbf140f18	-0.5783553
88	0xbe3a6274	-0.1820162
89	0x3f07870e	0.5294045
90	0x3ef68730	0.48150015
91	0xbec8ba74	-0.39204752
92	0xbeb36c06	-0.35043353
93	0x3ebb38ed	0.36566868
94	0xbf49005c	-0.78516173
95	0xbeb1e303	-0.3474351
96	0x3eb5ccb2	0.35507733
97	0x3e7d7231	0.24750592
98	0x3f6d17d1	0.92614466
99	0x3f1ff6a9	0.6248575
100	0xbdb73624	-0.089458734
101	0x3d9cab7b	0.07649895
102	0x3e90fcb5	0.283178
103	0x3e6f5091	0.23370577
104	0xbec6d3b3	-0.3883339
105	0xbf3d2981	-0.73891455
106	0x3d407664	0.046987906
107	0xbee6d07b	-0.45080933
108	0x3f1da73a	0.6158329
109	0xbe85facd	-0.26167908
110	0x3e87f30e	0.26552624
111	0x3e9344b2	0.28763348
112	0xbe9ab8bc	-0.30219066
113	0xbe6ccf70	-0.23126006
114	0xbe4992be	-0.19684884
115	0x3eb5c8f2	0.35504872
116	0x3f28662d	0.6578091
117	0x3f4bc15e	0.7959193
118	0x3e8b4f4e	0.27208942
119	0xbe88c47b	-0.26712403
120	0x3f0c21b7	0.54738945
121	0x3e107ce8	0.14110148
122	0x3dc155de	0.09440206
123	0x3f059217	0.5217604
124	0xbf3a4ab6	-0.7277025
125	0xbf16713c	-0.5876653
126	0xbdb4c406	-0.08826451
127	0x3d3441bd	0.044008005
128	0xbd8a43d7	-0.06751221
129	0x3ea29bb7	0.31759426
130	0x3d0f0108	0.034913093
131	0xbee9e442	-0.4568196
132	0xbeebc27e	-0.46046823
133	0x3e75ce27	0.24004422
134	0xbd797014	-0.0608979
135	0xbebbf7a4	-0.36712372
136	0xbe20ff3c	-0.15722364
137	0x3eac1603	0.33610544
138	0x3dbd1da3	0.092341684
139	0x3e8de281	0.2771187
140	0xbd8186d3	-0.06324544
141	0x3ea3acea	0.3196786
142	0xbf0ec378	-0.5576701
143	0x3ce2a904	0.027668484
144	0x3e4dbf38	0.20092475
145	0x3c9769a1	0.018482985
146	0xbebbe896	-0.36700886
147	0xbea4c038	-0.321779
148	0x3f189d4e	0.5961503
149	0xbe822507	-0.25418875
150	0x3d2068bf	0.039162394
151	0xbf27943b	-0.65460557
152	0xbdff86bc	-0.124768704
153	0x3f572951	0.8404742
154	0x3e758bd4	0.23979121
155	0x3eb307b2	0.3496681
156	0xbd0965e6	-0.033544444
157	0x3e433b35	0.19065554
158	0x3e8284b5	0.25491872
159	0xbe9f069b	-0.31059727
160	0x3d09bc14	0.03362663
161	0xbe83bb5c	-0.2572888
162	0x3e877d34	0.2646271
163	0x3ea6ac78	0.32553458
164	0x3ea53516	0.32267064
165	0x3e5af076	0.21380791
166	0x3e24c4f1	0.16090752
167	0x3e981e62	0.2971068
168	0xbdb6da2e	-0.08928333
169	0xbf1fa9cd	-0.6236847
170	0xbe2d5a37	-0.16928945
171	0xbdda5aba	-0.10661836
172	0xbba03f61	-0.004890368
173	0x3e9a0fb3	0.30090103
174	0xbc82f68b	-0.015986701
175	0x3ea3fcd1	0.3202882
176	0xbebf927e	-0.37416452
177	0xbf025844	-0.5091593
178	0x3db86c3c	0.09005019
179	0x3e9d2987	0.30695745
180	0x3f17db1b	0.59318703
181	0x3f121683	0.570656
182	0xbe4d328d	-0.20038815
183	0xbc177926	-0.009245193
184	0xbd93243a	-0.07184644
185	0x3e75cc1d	0.24003644
186	0xbed100c9	-0.40820912
187	0x3e5854a1	0.21126033
188	0xbf38870c	-0.72081065
189	0xbf14cfb9	-0.5812946
190	0x3d058235	0.03259488
191	0x3f209fa9	0.6274362
192	0xbe0077a0	-0.12545633
193	0x3e3e546f	0.18586896
194	0xbebf40e1	-0.37354186
195	0xbe9e96d7	-0.30974457
196	0xbe82f68a	-0.2557872
197	0x3db8aaf5	0.090169825
198	0x3ea0e3f3	0.3142391
199	0xbf174687	-0.5909199
200	0xbf2053c9	-0.62627846
201	0x3e84e526	0.25956076
202	0x3e7ef08a	0.24896446
203	0x3e432ef6	0.19060883
204	0x3d9c1dbb	0.07622858
205	0x3f2eb416	0.6824354
206	0xbef5e249	-0.48024204
207	0x3e852147	0.2600195
208	0xbe1cda62	-0.15317681
209	0xbe889950	-0.26679468
210	0xbf4e0625	-0.80478126
211	0xbf0219dd	-0.50820714
212	0x3ee2c7ef	0.44293162
213	0xbebc0354	-0.3672129
214	0xbdee61e5	-0.11639766
215	0xbf25563e	-0.6458472
216	0xbe88c08d	-0.26709405
217	0x3f508f48	0.8146863
218	0x3eef3c9c	0.4672593
219	0x3d00225c	0.031282768
220	0x3e7ba193	0.24573354
221	0x3e95c2cd	0.29250184
222	0x3e12ba35	0.14328845
223	0xbe5319cb	-0.20615308
224	0xbe190c2d	-0.14946051
225	0xbe68b484	-0.22725111
226	0x3ed5ed4e	0.41782612
227	0x3ec5e35c	0.38650024
228	0x3efa5596	0.48893422
229	0x3e8c1076	0.2735631
230	0x3ef22f11	0.47301534
231	0xbb3ce75d	-0.0028824427
232	0xbf15166d	-0.58237344
233	0xbf8117c8	-1.0085382
234	0x3d10c405	0.03534319
235	0xbea87d4b	-0.3290809
236	0x3dc56b2d	0.09639583
237	0x3db6c211	0.08923734
238	0xbc94797d	-0.018124336
239	0x3e9d900f	0.3077397
240	0xbe574694	-0.21023017
241	0xbe387c12	-0.18016079
242	0x3d3a439c	0.045474634
243	0x3db5c194	0.08874813
244	0x3f49fb35	0.78898937
245	0x3f0bfa74	0.54679036
246	0xbe7640c1	-0.24048139
247	0xbe9031d8	-0.28163028
248	0x3c6d3f5c	0.014480438
249	0x3defd897	0.11711233
250	0xbea355fd	-0.3190154
251	0x3eadea01	0.33967593
252	0xbf5b133f	-0.8557624
253	0xbf58302a	-0.8444849
254	0x3e92153e	0.28531832
255	0x3deac92d	0.114641525

pi.pi_net.4.bias f4 [256]
0	0x3ea717c7	0.32635328
1	0x3ec817a2	0.3908053
2	0x3e893a3c	0.26802242
3	0x3eeb3614	0.45939696
4	0x3eafa93a	0.34308797
5	0x3e68be30	0.22728801
6	0x3f90dea5	1.1317946
7	0x3f95af0e	1.1694047
8	0x3ea997b5	0.33123556
9	0x3eba01aa	0.36329395
10	0x3eefe2e5	0.46852794
11	0x3ec00554	0.37504065
12	0x3f9a3d18	1.2049894
13	0x3e9ad499	0.30240324
14	0x3ec0f6c0	0.37688255
15	0x3ef65daf	0.4811835
16	0x3edeae60	0.43492413
17	0x3f8fc1c9	1.1231014
18	0x3eb6db4d	0.35714188
19	0x3f8f57e8	1.1198702
20	0x3e9c3e78	0.3051641
21	0x3f8d19db	1.1023515
22	0x3eb7830e	0.35842174
23	0x3f472ef8	0.77806044
24	0x3e91cd7d	0.28477088
25	0x3f986580	1.1905975
26	0x3e87993f	0.26484105
27	0x3ea91c4b	0.33029398
28	0x3ed4f7c5	0.41595283
29	0x3e902c25	0.2815868
30	0x3eda7690	0.4266858
31	0x3ea56d62	0.32310015
32	0x3f97dd20	1.1864357
33	0x3eb1c10b	0.34717593
34	0x3f2d56b9	0.67710453
35	0x3edb3ef2	0.4282146
36	0x3f080bf2	0.5314323
37	0x3f94ae59	1.1615707
38	0x3eec642c	0.46170175
39	0x3eb2e1a2	0.3493777
40	0x3f7d0cf0	0.98847866
41	0x3e24e716	0.16103777
42	0x3e926ac3	0.28597078
43	0x3ef2736f	0.47353694
44	0x3f8ebce5	1.1151396
45	0x3e65b3f2	0.22431925
46	0x3e84cebe	0.25938982
47	0x3e90a6bd	0.2825221
48	0x3e93a829	0.28839234
49	0x3eeafc9e	0.45895857
50	0x3ebb26b3	0.36552963
51	0x3ea529ff	0.32258603
52	0x3f9660ac	1.1748252
53	0x3ea5d266	0.32387084
54	0x3efc5197	0.49280998
55	0x3ec6520d	0.38734475
56	0x3e7a3252	0.24433258
57	0x3f9096e4	1.1296048
58	0x3ece50a4	0.402959
59	0x3e838407	0.25686666
60	0x3e9b9efe	0.3039474
61	0x3e94f4b2	0.29092938
62	0x3f06a2dd	0.5259226
63	0x3e964ee3	0.2935706
64	0x3e7f3118	0.24921072
65	0x3f8247e2	1.0178187
66	0x3f83fa8b	1.0310835
67	0x3ee3764c	0.4442619
68	0x3f661ea2	0.8989049
69	0x3ee63346	0.44960994
70	0x3f83f038	1.0307684
71	0x3f1e4136	0.61818254
72	0x3e81498a	0.25251418
73	0x3e3485e4	0.176292
74	0x3e5d6690	0.21621156
75	0x3e4f84c5	0.20265491
76	0x3ec0b0b6	0.3763482
77	0x3ea406dd	0.32036486
78	0x3f8890bb	1.0669168
79	0x3eccc38a	0.39992934
80	0x3f5f10c2	0.87134945
81	0x3eb8b462	0.3607512
82	0x3f905eef	1.1278971
83	0x3f86c43d	1.0528637
84	0x3e980dca	0.2969802
85	0x3ecbef4b	0.39831004
86	0x3eb74b78	0.35799766
87	0x3f4eac67	0.80731815
88	0x3e9a3a0b	0.30122408
89	0x3f996651	1.198435
90	0x3f81aec2	1.0131457
91	0x3f9db9b5	1.2322298
92	0x3f92806a	1.1445439
93	0x3eb5f9ed	0.3554224
94	0x3f2348f8	0.63783216
95	0x3f8ee519	1.1163665
96	0x3eb51978	0.35370994
97	0x3eb16aab	0.34651694
98	0x3e8e57c8	0.27801347
99	0x3ea68330	0.32521963
100	0x3e93f209	0.28895596
101	0x3e954c1f	0.29159638
102	0x3e97f3fa	0.29678327
103	0x3e6158c8	0.22006524
104	0x3f98a55f	1.1925467
105	0x3f8a816a	1.0820744
106	0x3ebceaa6	0.36897773
107	0x3ed838a3	0.4223071
108	0x3e1d6ecc	0.15374297
109	0x3eaf8098	0.34277797
110	0x3ef2d20e	0.47425884
111	0x3ea1f1d1	0.31629804
112	0x3ec68245	0.38771263
113	0x3e853f20	0.26024723
114	0x3ec8a77c	0.3919028
115	0x3ec6b90a	0.3881305
116	0x3ea62da3	0.32456693
117	0x3f477d94	0.7792599
118	0x3f366a05	0.7125552
119	0x3e99be9c	0.30028236
120	0x3e9b32f4	0.30312312
121	0x3f6c8fe3	0.92407054
122	0x3ed3c578	0.41361594
123	0x3e8e49a2	0.27790552
124	0x3e82c5e7	0.25541613
125	0x3e9c3c25	0.30514637
126	0x3ece1240	0.402483
127	0x3f8b303d	1.0874096
128	0x3e8ebeef	0.27880046
129	0x3ecf6aee	0.40511268
130	0x3e728a77	0.23685633
131	0x3f239459	0.63898236
132	0x3ea85951	0.32880643
133	0x3eb4a0ea	0.35279018
134	0x3f8b2da4	1.0873303
135	0x3eeb428e	0.45949215
136	0x3f2f4fc9	0.6848112
137	0x3eaabbce	0.3334641
138	0x3ec8ca0a	0.39216644
139	0x3ee735eb	0.45158324
140	0x3f8ea251	1.1143285
141	0x3f7b6127	0.9819512
142	0x3ecaac6d	0.39584675
143	0x3eb14083	0.3461953
144	0x3ea39090	0.3194623
145	0x3f817d1d	1.0116307
146	0x3ed72eb6	0.42027825
147	0x3e98ddb4	0.29856646
148	0x3eac5b53	0.33663425
149	0x3f8977ba	1.0739663
150	0x3f2c91ce	0.6740998
151	0x3f8acfc7	1.0844659
152	0x3f8c9178	1.0981894
153	0x3ea9bf81	0.33153918
154	0x3f3975db	0.7244546
155	0x3f4fd3dc	0.81182647
156	0x3f85ea27	1.0462083
157	0x3ee85ac4	0.4538175
158	0x3e939fd3	0.28832874
159	0x3f92ce96	1.1469295
160	0x3f37d628	0.7181115
161	0x3ecdcccc	0.4019531
162	0x3ee71cda	0.451392
163	0x3ece844d	0.40335312
164	0x3ea4b51e	0.3216943
165	0x3ed07e95	0.40721574
166	0x3ec577bf	0.38567922
167	0x3f87e802	1.0617678
168	0x3ea48824	0.32135117
169	0x3ead4fd6	0.33849972
170	0x3e8394f6	0.25699586
171	0x3f87718f	1.058153
172	0x3eb959c8	0.3620131
173	0x3ea72c2d	0.3265089
174	0x3ea35696	0.31901997
175	0x3f875566	1.0572937
176	0x3e437cdc	0.19090599
177	0x3ea5cb22	0.3238154
178	0x3eaaefb6	0.3338601
179	0x3ecb9b85	0.3976709
180	0x3f990073	1.1953262
181	0x3eb1a1b3	0.3469368
182	0x3f518b1a	0.8185288
183	0x3f5b5029	0.8566919
184	0x3e98d0d4	0.29846823
185	0x3f8f099b	1.1174806
186	0x3f784a28	0.96988153
187	0x3f820b1f	1.0159644
188	0x3ece1c9b	0.402562
189	0x3ef97a38	0.48726058
190	0x3f844495	1.033343
191	0x3eb8569a	0.36003572
192	0x3eb62668	0.35576177
193	0x3f631ca5	0.88715583
194	0x3e81bd65	0.2533981
195	0x3f8cd6db	1.1003069
196	0x3f97c1a0	1.1855965
197	0x3ead9fa2	0.33910853
198	0x3ea1a434	0.3157059
199	0x3f9b4bc6	1.2132499
200	0x3ea4c1e6	0.32179183
201	0x3f9a64c4	1.2062001
202	0x3e8e400a	0.27783233
203	0x3f8a3b41	1.0799333
204	0x3e728397	0.2368301
205	0x3f83a7e3	1.028561
206	0x3e703870	0.23459029
207	0x3edb5456	0.4283778
208	0x3eeec4ba	0.46634465
209	0x3e82d004	0.25549328
210	0x3efcf91e	0.4940881
211	0x3ec7fe63	0.3906127
212	0x3e98b239	0.29823473
213	0x3f288b84	0.65837884
214	0x3f8d275a	1.1027634
215	0x3f87f070	1.0620251
216	0x3ed311a6	0.41224402
217	0x3f882dda	1.0638993
218	0x3f93b0ed	1.1538368
219	0x3eb15c2e	0.3464064
220	0x3f52769b	0.8221223
221	0x3f90e113	1.1318687
222	0x3f58f7d0	0.8475313
223	0x3f4a3e12	0.7900096
224	0x3f5a9309	0.8538061
225	0x3ed83ad3	0.4223238
226	0x3e8adc3b	0.27121148
227	0x3f88a0bc	1.0674052
228	0x3f8d0ff7	1.1020497
229	0x3ea54af2	0.3228374
230	0x3f89e720	1.0773659
231	0x3e88c71f	0.26714417
232	0x3f8d3490	1.1031666
233	0x3f89500c	1.0727553
234	0x3eaaf939	0.33393267
235	0x3f8b70e0	1.0893822
236	0x3f8e634b	1.1124052
237	0x3f7cc527	0.9873833
238	0x3eba438a	0.36379653
239	0x3edd5855	0.43231454
240	0x3f7cb7de	0.9871806
241	0x3e8e9fd3	0.2785631
242	0x3ee7b3ec	0.45254457
243	0x3f951828	1.1647997
244	0x3e99f362	0.300685
245	0x3ec00776	0.37505692
246	0x3f83c9a5	1.0295912
247	0x3e6beaff	0.23038863
248	0x3e8d8173	0.27637824
249	0x3ec56c50	0.38559198
250	0x3e91d80d	0.28485146
251	0x3e949efd	0.29027548
252	0x3e8ec656	0.27885693
253	0x3f92dd31	1.1473752
254	0x3e960980	0.29304123
255	0x3f8a7474	1.0816789

v.v_net.0.weight f4 [64, 5]
0	0x3f28a0c4	0.6587031
1	0x3f6fc0bd	0.9365347
2	0x3ee5e821	0.44903663
3	0xbe4a3c7f	-0.1974964
4	0xbe4b81ce	-0.19873735
5	0x3f7c858c	0.98641276
6	0xbe5170f9	-0.20453252
7	0x3affa4fe	0.0019504128
8	0x3cdf1daa	0.027235825
9	0xbd52cf4b	-0.05146722
10	0xbf16168d	-0.5862816
11	0x3db177e5	0.08665446
12	0x3d82393a	0.06358571
13	0xbe03a938	-0.1285752
14	0xbedfcc11	-0.43710378
15	0xbddc6ea6	-0.10763292
16	0x3f00d9b9	0.5033222
17	0x3ea82e43	0.32847795
18	0x3dee5ee6	0.11639194
19	0xbe2765fe	-0.163475
20	0xbc1d9660	-0.009618372
21	0x3edb178b	0.427914
22	0x3cffe41b	0.031236699
23	0x3e978b54	0.29598486
24	0x3e1ec167	0.15503465
25	0x3eeaed37	0.45884106
26	0x3d2a2938	0.041543216
27	0xbc8ba73e	-0.01704752
28	0x3db85fed	0.090026714
29	0x3ea0e745	0.31426445
30	0x3e8c5df9	0.27415445
31	0x3e2a267d	0.16616245
32	0xbf3a80a8	-0.72852564
33	0xbb26eef1	-0.002547201
34	0x3f2406bd	0.6407278
35	0xbe70936e	-0.2349374
36	0x3eba4355	0.36379495
37	0x3e65f205	0.22455604
38	0x3da94d57	0.082667045
39	0x3f559333	0.83427733
40	0xbf0dfa5c	-0.55460143
41	0xbeaf859e	-0.3428163
42	0x3e1bb611	0.15206172
43	0x3e07151c	0.13191646
44	0xbe3bd69f	-0.1834359
45	0xbf66675a	-0.9000145
46	0xbf15c6b8	-0.58506346
47	0x3f08fd16	0.5351118
48	0x3ef4f6f2	0.47844654
49	0xbe030714	-0.12795669
50	0x3fbf1699	1.4928771
51	0x3f5bdbe1	0.85882384
52	0x3ee1ad66	0.44077605
53	0x3e78165a	0.24227276
54	0x3e9d210e	0.3068928
55	0x3f1e27c5	0.61779433
56	0x3f902470	1.126112
57	0x3ecc043a	0.39846975
58	0x3c1345ad	0.00898878
59	0xbee32570	-0.443645
60	0xbf2457c1	-0.641964
61	0xbe98dad8	-0.29854465
62	0x3f079714	0.529649
63	0x3d91bca4	0.071160585
64	0x3dc7cd06	0.09755902
65	0xbf1619b8	-0.58632994
66	0xbf1bc28c	-0.6084373
67	0xbed01241	-0.40638927
68	0xbf062097	-0.5239348
69	0xbe800710	-0.25005388
70	0xbeceadc4	-0.40366948
71	0x3c9235b4	0.017847873
72	0xbdc1ddc3	-0.09466126
73	0xbee934e9	-0.4554818
74	0x3e1b8f19	0.15191306
75	0x3f08fbf0	0.53509426
76	0x3f33d130	0.7024107
77	0x3ec448eb	0.38336882
78	0xbe91d808	-0.2848513
79	0xbd8ab090	-0.06771958
80	0xbf5cbdcb	-0.862271
81	0xbcfebb75	-0.031095246
82	0x3d97894a	0.07399233
83	0x3db87f70	0.09008682
84	0xbe1e8901	-0.1548195
85	0x3f97f216	1.1870754
86	0x3f819c6d	1.0125862
87	0x3e1e12c3	0.15436845
88	0x3eb607f3	0.3555294
89	0x3f0d979b	0.55309457
90	0x3f53999e	0.82656276
91	0x3ef34b47	0.4751837
92	0x3f2e4ae5	0.6808303
93	0xbe0f1bba	-0.1397542
94	0x3e3fc145	0.1872607
95	0xbf424c75	-0.75897914
96	0xbe28f829	-0.16500916
97	0x3f11b97c	0.5692365
98	0x3ee2aab3	0.44270858
99	0xbeb21908	-0.34784722
100	0x3f2f3815	0.6844495
101	0x3d447f43	0.04797293
102	0xbe8aba80	-0.27095413
103	0x3da429ef	0.08015811
104	0xbe685728	-0.22689497
105	0x3f063d64	0.52437425
106	0xbe14d660	-0.14534903
107	0xbe20111f	-0.15631531
108	0x3ed868fd	0.422676
109	0x3ec006a9	0.3750508
110	0xbe294243	-0.16529183
111	0xbe6e7387	-0.23286258
112	0xbe51ee54	-0.20501071
113	0xbd5020e1	-0.050812606
114	0xbecce77b	-0.40020356
115	0xbe9a050e	-0.3008198
116	0x3a9b49e0	0.0011847578
117	0xbf008bf2	-0.5021354
118	0xbedb9b11	-0.42891744
119	0xbf8ede6f	-1.1161631
120	0x3edfb89d	0.43695536
121	0x3d2bdd66	0.04195919
122	0x3ea6dffd	0.32592764
123	0x3da00b75	0.07814685
124	0x3e10f304	0.14155203
125	0xbf3a1d0d	-0.7270058
126	0xbf0a7811	-0.54089457
127	0xbdbcb4e7	-0.09214192
128	0xbe80f934	-0.25190127
129	0xbe393c0c	-0.18089312
130	0xbecc3eb5	-0.39891592
131	0x3dc95cd2	0.09832157
132	0xbdd61113	-0.104524754
133	0xbe6c28be	-0.23062417
134	0xbe0d793e	-0.13815781
135	0x3fa12a0f	1.259096
136	0x3f2ad9df	0.66738695
137	0x3ecde090	0.4021039
138	0xbcbefd56	-0.02331416
139	0x3f0077b7	0.5018267
140	0x3f20e70a	0.6285254
141	0xbec806b6	-0.3906762
142	0x3ca2e69f	0.01988536
143	0x3ee4f9c6	0.44721812
144	0x3de61f44	0.11236432
145	0xbd5fe0b7	-0.054657664
146	0xbececd6d	-0.40391102
147	0xbe55926d	-0.20856638
148	0xbddccae9	-0.107808895
149	0xbe61eb92	-0.22062519
150	0x3e27ed9f	0.16399239
151	0x3eecd495	0.46255937
152	0x3ea70ab5	0.32625356
153	0x3eb67151	0.3563333
154	0x3ed6a70f	0.4192433
155	0xbecf30f5	-0.4046704
156	0xbe85399d	-0.26020518
157	0x3d600d50	0.054700196
158	0xbf0759f0	-0.5287161
159	0xbea3ff01	-0.3203049
160	0xbe7cd8ba	-0.2469205
161	0x3e8356dc	0.25652206
162	0x3eded07a	0.4351843
163	0x3f23c79b	0.6397645
164	0x3e8a8dc4	0.27061284
165	0xbefeb747	-0.49749205
166	0x3eb080a9	0.3447316
167	0xbe99adb9	-0.30015352
168	0x3e43376b	0.19064109
169	0xbf0eb059	-0.55737835
170	0xbf0cfc5b	-0.55072564
171	0x3e8ea3d4	0.27859366
172	0x3dc10bcd	0.09426079
173	0xbe2fb862	-0.1716018
174	0xbf0f697e	-0.56020343
175	0xbdcc9eb1	-0.099912055
176	0xbe234371	-0.15943696
177	0xbef24574	-0.47318614
178	0x3e95f065	0.2928497
179	0xbdf0110f	-0.11722004
180	0xbf08ae84	-0.5339129
181	0xbf2d2bbc	-0.6764486
182	0xbe951dc9	-0.29124287
183	0xbd702f6c	-0.058638975
184	0x3e16f2ba	0.1474103
185	0xbecbf089	-0.3983195
186	0xbd8bf533	-0.068338774
187	0xbe57fcbb	-0.21092503
188	0xbe09f724	-0.13473183
189	0xbdbd46ed	-0.09242044
190	0x3e7d2c74	0.24723989
191	0x3f4ca7be	0.79943454
192	0x3f096089	0.53662926
193	0xbd8bc43a	-0.068245366
194	0xbe955338	-0.29165053
195	0xbf1f446c	-0.6221378
196	0xbf8913f5	-1.0709215
197	0xbd69948f	-0.057026442
198	0xbc2dffde	-0.0106200855
199	0xbdaca446	-0.0842977
200	0xbef93007	-0.48669454
201	0xbeea1c30	-0.4572463
202	0x3dc19a6c	0.09453282
203	0x3ec0222a	0.37526065
204	0x3e070455	0.13185246
205	0xbf3a4757	-0.72765106
206	0xbf25db84	-0.6478808
207	0xbefcb349	-0.49355534
208	0x3f15f46e	0.58576095
209	0xbe4aaee0	-0.19793272
210	0x3b6908e6	0.0035558282
211	0xbea4ff09	-0.32225826
212	0xbe3be0ef	-0.18347524
213	0x3e2451bb	0.16046803
214	0xbefe306d	-0.4964632
215	0xbd9f1296	-0.07767217
216	0x3f5176ee	0.818221
217	0x3e1ee56c	0.15517205
218	0xbbebcde0	-0.007196173
219	0xbe8e5380	-0.2779808
220	0x3f642fe7	0.89135593
221	0x3e7d47aa	0.24734369
222	0xbe5922e2	-0.21204713
223	0xbea8e01c	-0.32983482
224	0xbda1b308	-0.078954756
225	0x3e761815	0.24032624
226	0x3ebe3100	0.3714676
227	0x3eaf04c5	0.34183326
228	0x3c1ef3b5	0.009701659
229	0x3f06aa7f	0.52603906
230	0xbfa2f472	-1.2730849
231	0xbfa53d63	-1.2909359
232	0xbf3db4a7	-0.7410378
233	0xbf166326	-0.5874504
234	0x3e8e699c	0.2781495
235	0xbe35ecbf	-0.17766093
236	0xbe5f217d	-0.21790119
237	0xbf2d59b9	-0.6771503
238	0xbf15ce15	-0.5851758
239	0xbe4e8bc6	-0.20170507
240	0xbf0d9813	-0.5531017
241	0xbdab4976	-0.08363621
242	0x3d0f9510	0.035054266
243	0xbbe9a8bd	-0.007130711
244	0x3e6869ff	0.22696684
245	0xbf786612	-0.97030747
246	0xbf448f5a	-0.7678124
247	0xbdfdc77d	-0.12391565
248	0xbf3af559	-0.7303062
249	0xbe0fc032	-0.1403816
250	0x3eabc95c	0.33552063
251	0x3eb72645	0.35771385
252	0x3d8a194a	0.06743105
253	0xbd871743	-0.06596234
254	0xbeca6115	-0.39527193
255	0xbed906bf	-0.4238796

v.v_net.0.bias f4 [64]
0	0x3f369573	0.7132179
1	0xbdd57bb7	-0.10423987
2	0x3da65f2f	0.081236236
3	0x3eb9f807	0.36322042
4	0xbd4e01f3	-0.050294828
5	0xbe3b17fd	-0.1827087
6	0x3ecb39ef	0.39692637
7	0x3ed00b47	0.40633604
8	0xbda65ed2	-0.08123554
9	0xbdcabe87	-0.098996215
10	0x3f9a85d1	1.2072088
11	0x3f5a5958	0.8529258
12	0xbe40e73d	-0.1883821
13	0xbeb62d5c	-0.3558148
14	0x3e11e5e0	0.14247847
15	0x3e99c641	0.30034068
16	0x3e34799e	0.17624518
17	0x3f907b78	1.128768
18	0x3f077139	0.5290714
19	0xbe1fe048	-0.156129
20	0x3e6e7b28	0.23289168
21	0xbdca5c39	-0.09880871
22	0x3bac0bb4	0.0052504186
23	0xbeb0a70a	-0.3450244
24	0x3dbd9fad	0.09258971
25	0xbf1cc073	-0.61231154
26	0x3bc82467	0.006107855
27	0x3f7a36e7	0.97740024
28	0xbe00f62e	-0.1259391
29	0xbe9c9261	-0.30580428
30	0x3e49e8ff	0.19717787
31	0xbedd4e12	-0.43223625
32	0x3ea683b9	0.3252237
33	0x3e217051	0.15765502
34	0x3eaa0ea6	0.332143
35	0xbce4c81a	-0.027927447
36	0xbef21e36	-0.47288674
37	0xbbc95de9	-0.006145228
38	0x3ed94aba	0.42439824
39	0xbef379a7	-0.4755375
40	0xbdb53f70	-0.0884999
41	0xbed510c8	-0.41614366
42	0xbed7f2b2	-0.4217735
43	0x3ea8994b	0.32929453
44	0x3dd7e04f	0.1054083
45	0x3eaf3c68	0.34225774
46	0xbfa183b7	-1.2618321
47	0xbe8b449f	-0.2720079
48	0x3d392d5c	0.045209274
49	0xbf4fe370	-0.8120642
50	0x3e3fa1c3	0.18714051
51	0x3da85656	0.08219592
52	0x3df4ea4a	0.119587496
53	0xbd9c26e2	-0.07624604
54	0xbdff0d12	-0.12453665
55	0xbe9bd1b8	-0.3043344
56	0xbf315ce1	-0.69282347
57	0xbe3c7e85	-0.18407638
58	0x3d1436ce	0.03618508
59	0x3d284401	0.04108048
60	0xbdbf808c	-0.0935069
61	0x3d6459aa	0.055749573
62	0x3f6fcd2d	0.9367245
63	0xbd57eb16	-0.05271443

v.v_net.2.weight f4 [64, 64]
0	0xbe6047fc	-0.2190246
1	0x3f6d5e77	0.92722267
2	0xbf13835f	-0.5762233
3	0xbe5cbd81	-0.21556665
4	0x3ebd18b4	0.3693291
5	0x3ebb8219	0.36622694
6	0x3e0c2f81	0.13689996
7	0xbee8e888	-0.45489907
8	0xbe61deb4	-0.22057611
9	0xbef3b1a8	-0.47596478
10	0xbe86d51e	-0.2633447
11	0xbeb94e0c	-0.36192358
12	0xbd14fedd	-0.03637587
13	0xbe5108d5	-0.20413525
14	0xbe03dd8f	-0.12877487
15	0xbd54576c	-0.051841184
16	0xbed9f0e8	-0.4256661
17	0xbd219d99	-0.039456937
18	0xbf0c1385	-0.54717284
19	0x3d7d883c	0.0618975
20	0x3d0b2f7b	0.033980828
21	0x3efe86d9	0.49712256
22	0xbebb1e5a	-0.36546594
23	0xbb2daa23	-0.0026499114
24	0xbdd08a67	-0.10182648
25	0x3e85179b	0.25994572
26	0xbee526ef	-0.44756266
27	0xbe062f54	-0.13103992
28	0xbd8c97f5	-0.06864921
29	0x3b2bb4bb	0.0026200253
30	0x3e526dc9	0.20549692
31	0x3ece5dfd	0.40306082
32	0xbec15e96	-0.37767476
33	0xbec0d35d	-0.37661257
34	0xbe84a29b	-0.25905308
35	0x3d943495	0.07236592
36	0xbd155bdf	-0.03646457
37	0xbe880303	-0.26564798
38	0xbf2b5188	-0.6692128
39	0x3e48acc0	0.19597149
40	0xbcc0b1a0	-0.023522198
41	0x3ed5beff	0.4174728
42	0x3e38fd3a	0.18065348
43	0xbe202e96	-0.15642771
44	0x3f0036aa	0.5008341
45	0x3e853903	0.2602006
46	0x3ecbce91	0.39806035
47	0xbe5fe890	-0.2186606
48	0xbe42148c	-0.1895315
49	0x3ed19303	0.40932474
50	0x3ce225e9	0.027605968
51	0xbe2f95cf	-0.17146991
52	0xbf71c90c	-0.944474
53	0x3f135a40	0.57559586
54	0xbf456355	-0.77104694
55	0xbd806baf	-0.06270539
56	0x3d936bbb	0.07198282
57	0x3f3fc9f6	0.7491754
58	0x3eb8a7ef	0.36065623
59	0xbe0c213e	-0.13684556
60	0xbd5a3e51	-0.053282086
61	0xbdd483e5	-0.103767194
62	0xbd232988	-0.03983453
63	0xbf316f45	-0.6931041
64	0xbe72d9ee	-0.23715946
65	0xbe125e74	-0.14293844
66	0xbeb0236e	-0.3440203
67	0x3dd63018	0.10458392
68	0x3e3af3f4	0.18257123
69	0xbe6b4dc5	-0.22978885
70	0x3dbc01bd	0.09180019
71	0xbe76b787	-0.24093448
72	0xbf07f267	-0.5310425
73	0xbf1bd512	-0.60871994
74	0x3e9ababd	0.30220595
75	0x3ecfe3c5	0.40603462
76	0x3d562fd4	0.052291706
77	0xbf1d92ad	-0.61551934
78	0xbdc309e3	-0.0952337
79	0x3e6547cd	0.22390671
80	0xbdce4c64	-0.10073164
81	0x3e89abf8	0.26889014
82	0x3df44755	0.11927668
83	0xbe762c2e	-0.2404029
84	0x3d8f0908	0.069841444
85	0x3e1ce5e5	0.15322073
86	0xbe5eb9c5	-0.21750553
87	0xbd88dada	-0.066823676
88	0xbe784ac0	-0.24247265
89	0xbe9f0386	-0.31057376
90	0x3d991313	0.07474341
91	0x3f3d050c	0.73835826
92	0x3dfc41f4	0.12317267
93	0xbd9a0d8f	-0.07522117
94	0x3ef04555	0.46927896
95	0x3d28161f	0.04103672
96	0x3c9f73f6	0.019464474
97	0x3ea1c77d	0.3159751
98	0xbe09e79c	-0.13467258
99	0xbe3e1083	-0.18560986
100	0xbeaa04be	-0.33206743
101	0xbea2344b	-0.3168052
102	0x3c005b1a	0.00783422
103	0xbeea0f09	-0.45714596
104	0xbd949cf4	-0.07256499
105	0xbe263b05	-0.16233452
106	0xbb4097a3	-0.0029387258
107	0x3f1bfe18	0.6093459
108	0x3ef5136b	0.47866377
109	0x3f4b4cbf	0.7941398
110	0xbf0da997	-0.553369
111	0x3e2be780	0.16787529
112	0xbebd3e2f	-0.36961505
113	0xbdb1ae7f	-0.086758606
114	0xbdbd05a2	-0.0922959
115	0x3da0807e	0.07837008
116	0xbeafa6e6	-0.3430702
117	0xbe87c8d8	-0.2652042
118	0xbdb0ded7	-0.08636253
119	0xbeb8ad6a	-0.36069804
120	0xbe57742c	-0.2104041
121	0x3efa4787	0.48882696
122	0x3e24e7a7	0.16103993
123	0x3d009b23	0.03139795
124	0x3e800db5	0.25010458
125	0x3e638f03	0.22222523
126	0x3e7da3d7	0.24769531
127	0xbf1d0c7e	-0.61347187
128	0xbf1211e7	-0.57058567
129	0xbdad4769	-0.08460886
130	0x3df0789f	0.11741757
131	0x3d969e4a	0.0735441
132	0x3d5219ca	0.051294126
133	0x3bbeab4b	0.0058187596
134	0xbe5ecb0e	-0.21757147
135	0xbe0c6ad8	-0.13712633
136	0x3f1cead1	0.612958
137	0x3df7a645	0.1209226
138	0x3de9771a	0.1139967
139	0xbefba803	-0.4915162
140	0x3ed98021	0.42480567
141	0x3f14a408	0.5806279
142	0xbd5ed957	-0.05440649
143	0xbe438931	-0.19095303
144	0x3ed98be0	0.4248953
145	0xbf1cf31d	-0.6130846
146	0xbeab0ff4	-0.3341061
147	0x3d9ec1ba	0.07751794
148	0xbb7a8197	-0.0038224214
149	0x3ec3dde3	0.38255224
150	0x3f066b4c	0.5250747
151	0x3e36fa84	0.17869002
152	0xbe92fe72	-0.2870975
153	0x3e8428e8	0.2581246
154	0xbe70e2bb	-0.23523991
155	0xbe9e1bfb	-0.30880722
156	0x3e611116	0.21979174
157	0x3df6ecf8	0.12056917
158	0xbe0fa9ea	-0.14029661
159	0xbde1d962	-0.110277906
160	0xbd0665b0	-0.03281182
161	0xbded153e	-0.11576317
162	0xbc24c313	-0.010056275
163	0x3e9d6811	0.3074346
164	0x3e892885	0.26788726
165	0xbd88fead	-0.066892006
166	0xbdc8ff1a	-0.09814282
167	0x3db85513	0.090006016
168	0x3c973404	0.01845742
169	0x3f14b683	0.5809099
170	0x3ecf0b5c	0.40438354
171	0xbef8c1fa	-0.48585492
172	0xbdfb3235	-0.122654356
173	0xbeaa85b3	-0.3330513
174	0x3e3dc7dd	0.18533273
175	0x3c7dd8bf	0.015493571
176	0x3e69651d	0.22792478
177	0x3e95cbfb	0.29257187
178	0xbe5ef6c7	-0.21773826
179	0x3cd5a6b5	0.026080469
180	0x3e17ee96	0.14837107
181	0xbe888110	-0.26660967
182	0x3ee95fc3	0.45580873
183	0xbcb69211	-0.022286447
184	0xbc83d101	-0.016090872
185	0x3df58aa8	0.11989337
186	0xbe5ec623	-0.2175527
187	0xbde5898d	-0.11207876
188	0x3e8588e8	0.26081014
189	0xbe893147	-0.26795408
190	0xbec970a8	-0.39343762
191	0x3dc06109	0.09393508
192	0x3edf1177	0.43568012
193	0xbeebbd12	-0.46042687
194	0x3e559e87	0.20861255
195	0xbe91bf03	-0.28466043
196	0xbeed8e2f	-0.4639754
197	0xbf047c83	-0.5175249
198	0x3ece1af6	0.40254945
199	0x3f08e710	0.53477573
200	0x3e97e19c	0.29664314
201	0xbd16f68f	-0.03685623
202	0x3d34bd73	0.044125985
203	0x3e0eed34	0.13957673
204	0x3ecea82e	0.40362686
205	0xbe95b3a2	-0.2923861
206	0x3f2cc887	0.6749348
207	0xbd4a3a47	-0.049371984
208	0x3eed5a9b	0.4635819
209	0x3e8e4cc3	0.2779294
210	0x3f0b86c9	0.5450254
211	0xbdbefdf6	-0.09325783
212	0xbeb3d65a	-0.35124475
213	0xbec58431	-0.38577417
214	0x3e92892e	0.28620285
215	0xbe4dfeca	-0.20116726
216	0xbe9f3cf1	-0.31101182
217	0xbe8c846c	-0.2744478
218	0x3e745436	0.23860249
219	0xbab4f68e	-0.0013806389
220	0xbe9a60e4	-0.30152047
221	0x3d4bb734	0.049735263
222	0xbea605b1	-0.32426217
223	0xbd2485f6	-0.040166818
224	0x3f00165b	0.5003411
225	0x3e9dcc05	0.30819717
226	0x3eef6799	0.46758726
227	0x3d4f24d0	0.050572217
228	0x3ec40737	0.38286754
229	0x3e4dd718	0.20101583
230	0x3ed4dc17	0.41574165
231	0xbe63fc33	-0.22264175
232	0x3eb41ed5	0.35179773
233	0xbe65ae90	-0.22429872
234	0xbea76685	-0.32695404
235	0x3e471d8d	0.19444866
236	0x3dc6353d	0.09678123
237	0xbdf2888b	-0.1184245
238	0xbdf6b342	-0.120459095
239	0x3e20883f	0.15676974
240	0x3ef05ff7	0.46948215
241	0xbe486133	-0.19568329
242	0x3af6b354	0.0018821754
243	0x3e3157f7	0.17318712
244	0x3f0eab00	0.55729675
245	0xbd47200c	-0.048614547
246	0x3e93aed3	0.28844318
247	0xbf2b1a3f	-0.66836923
248	0xbed54828	-0.41656613
249	0xbf69a79a	-0.91271365
250	0xbe9891b5	-0.29798666
251	0x3e8ed2c0	0.27895164
252	0xbec7f454	-0.39053595
253	0x3efaf6f4	0.49016535
254	0x3e65e385	0.22450073
255	0x3e89a986	0.2688715

v.v_net.2.bias f4 [64]
0	0xbe8b5865	-0.27215877
1	0x3e3bad6b	0.18327872
2	0xbe011af9	-0.12607946
3	0x3e842bb6	0.258146
4	0xbcdb8b18	-0.026799724
5	0x3e0eade1	0.13933517
6	0xbdab984e	-0.08378659
7	0x3d072f26	0.03300395
8	0xbe3e380f	-0.18576072
9	0xbe6ea259	-0.23304118
10	0xbd384554	-0.04498799
11	0x3e574692	0.21023014
12	0x3c9d3b6d	0.019193375
13	0x3dd6b7aa	0.1048425
14	0xbda7601d	-0.08172629
15	0xbceac7fb	-0.028659811
16	0xbdb904f3	-0.09034147
17	0x3dfe5faa	0.1242059
18	0xbd3fe30d	-0.046847392
19	0xbc6ed09e	-0.014576105
20	0xbe961c9c	-0.29318702
21	0x3c070b67	0.008242465
22	0xbeab6b63	-0.33480367
23	0xbe0d6514	-0.1380809
24	0x3e022ae7	0.12711678
25	0xbd5ffff1	-0.054687444
26	0x3e465fa5	0.19372423
27	0x3dab7406	0.08371739
28	0x3e6b4f3e	0.22979447
29	0x3dc3e49f	0.095650904
30	0x3dbba712	0.091627255
31	0x3e03f4f9	0.12886418
32	0xbbe4ef52	-0.006986537
33	0x3e53a625	0.20668848
34	0x3e1f3ea7	0.15551244
35	0xbe2aff93	-0.16699056
36	0x3ddc1536	0.10746233
37	0xbd923ea1	-0.07140852
38	0xbda6fb08	-0.08153349
39	0x3d82cb43	0.06386425
40	0xbd80ecf7	-0.062951975
41	0x3e8d5449	0.27603367
42	0xbe6e7891	-0.2328818
43	0xbd627ab7	-0.05529281
44	0x3e957e26	0.29197806
45	0xbcde31c9	-0.027123349
46	0xbe969ad7	-0.29415008
47	0xbdfcb8a1	-0.12339903
48	0x3e1bde27	0.15221463
49	0x3e1fa6b1	0.15590931
50	0xb96045cd	-0.00021388308
51	0xbe286d3e	-0.16447923
52	0x3dedc710	0.11610234
53	0x3e864a2b	0.2622846
54	0xbd9d3989	-0.076769896
55	0xbd2c65b3	-0.042089175
56	0x3c98b0cc	0.01863899
57	0x3e84e86f	0.25958583
58	0x3d7fffcb	0.062499803
59	0xbdf1eaa5	-0.11812333
60	0x3d345f55	0.04403623
61	0x3e9b3ac5	0.30318275
62	0xbe07697e	-0.13223836
63	0xbc96cc28	-0.018407896

v.v_net.4.weight f4 [1, 64]
0	0x40573445	3.3625653
1	0x4046e44a	3.1076837
2	0xc0408255	-3.0079548
3	0xc047b103	-3.120179
4	0x404701ca	3.1094842
5	0x4040bc73	3.011502
6	0xc0414f78	-3.0204754
7	0x404bb250	3.1827583
8	0xc04c3b09	-3.1911032
9	0x404b497a	3.1763597
10	0xc03c4dc2	-2.942246
11	0x404e41c5	3.2227643
12	0x40472d86	3.1121535
13	0x405c715c	3.444419
14	0xc04fe8d5	-3.248586
15	0xc03cadaa	-2.9480996
16	0x40447aab	3.069987
17	0xc07145e4	-3.7698908
18	0xc0503ca1	-3.2537005
19	0xc05f6486	-3.4905105
20	0x407a7ca3	3.9138572
21	0x40488031	3.1328242
22	0x40562610	3.3460732
23	0x404e710f	3.2256505
24	0xc0639822	-3.5561604
25	0xc03e061a	-2.9691224
26	0x40496c4d	3.1472352
27	0x404c57b5	3.1928532
28	0x404854a6	3.1301665
29	0xc045eb91	-3.0925028
30	0x40504200	3.2540283
31	0xc076beb7	-3.8553903
32	0xc063b7d9	-3.5580962
33	0x4047bed7	3.121023
34	0x4059d174	3.403409
35	0x4065135c	3.5793066
36	0xc04a05d8	-3.1566067
37	0xc050f6e2	-3.2650685
38	0xc04fce52	-3.2469678
39	0x407359f7	3.802366
40	0xc0696747	-3.6469285
41	0x4054c679	3.3246138
42	0xc03ff924	-2.9995813
43	0xc04a47f6	-3.1606421
44	0xc055dc29	-3.3415625
45	0xc042cdb0	-3.0438042
46	0xc04b6c45	-3.1784832
47	0xc03efa9b	-2.9840457
48	0xc06520a4	-3.5801172
49	0xc071b4a7	-3.7766511
50	0x40520ff1	3.282223
51	0xc046cd0e	-3.1062655
52	0x403d8096	2.9609733
53	0x405dc6ec	3.4652662
54	0xc0440bd5	-3.0632222
55	0xc04a26b3	-3.158612
56	0x40584925	3.3794644
57	0xc07ef2a0	-3.9835587
58	0x405942ea	3.394709
59	0x40329143	2.790116
60	0x404c2b7a	3.1901536
61	0xc0460742	-3.094193
62	0xc04aa0f1	-3.166073
63	0x40570544	3.3596964
