tmp/experiments/RN2 False,True,True/pyt_network_save/model save19000.pt (torch_old, 314943 bytes, 33 tensors)

pi.pi_net.0.weight f4 [64, 5]
0.18254328 -0.059158195 0.09103081 -0.19552824 -0.63692397 0.38397643 -0.11580866 0.1486261
-0.12225341 -0.037632097 0.29079622 -0.022869598 -0.10763837 -0.028849531 -0.35713574 0.24546905
-0.5769653 0.2639513 -0.11167767 0.45378894 -0.24113992 -0.27793208 -0.2000321 0.11867839
0.32309696 -0.5012238 0.4189206 -0.2546136 0.13742773 0.0150060505 -0.1657991 0.037737492
-0.26473707 0.25727296 -0.5547208 -0.40078557 0.1827765 -0.04114576 0.34994584 -0.11472165
-0.63450104 -0.5456376 -0.39711934 -0.17042454 -0.15679212 0.42185828 -0.4162676 -0.10658171
-0.40680733 -0.37501743 0.468144 -0.23492503 -0.23868053 0.13889179 0.22846474 -0.55275244
0.26639402 0.2286796 -0.10404297 0.67925686 0.021679519 -0.1854651 0.14007322 -0.39121187
-0.10101582 -0.1418882 0.15360089 -0.26807818 0.025027413 -0.21918659 0.004798309 0.18655308
-0.38589114 -0.08018919 0.012876033 -0.27454895 -0.47718662 0.30841467 0.029618522 0.36679494
-0.4254987 -0.20788246 0.40183985 0.249927 0.70156753 -0.08010951 -0.09380413 0.050271917
0.11964174 0.12810582 -0.47092682 0.02387202 -0.08513183 0.5007085 0.03754479 0.18090308
-0.32425755 -0.4478115 -0.41432038 -0.4746033 0.056410495 -0.6589768 0.13724367 0.2387352
0.18730989 0.038905226 -0.2161818 0.1472693 0.34776032 0.49229062 -0.7665357 0.16546367
-0.31946445 0.3005307 -0.034298614 0.1675299 -0.4646298 0.10012569 0.0788741 0.02323017
0.29266018 -0.56168383 -1.0205286 -0.6559579 -0.4851926 -0.28386042 0.095824406 0.09599327
-0.25873697 0.7738025 -0.19342369 0.39832824 0.1074065 -0.72878826 -0.16784643 -0.61496514
-0.28450316 0.17644784 -0.29340878 -0.73662627 0.06730663 -0.019017862 -0.32437724 -0.63031834
0.193599 -0.16455087 -0.28690884 0.18380648 0.20265187 -0.40772942 -0.77965295 -0.086095326
0.44412598 -0.10189356 0.4453973 0.35598814 0.4922857 0.45144346 0.57479304 0.6188136
-0.23303044 -0.12077386 -0.030812645 0.10164348 -0.4087887 -0.6274158 -0.3108112 0.09965078
-0.17521636 0.13123007 0.20325649 0.41803288 0.08890197 -0.5079859 -0.016022675 -0.15835808
0.096021496 0.2750503 0.048241388 -0.07086427 -0.013721213 0.44662845 -0.05510688 -0.56455433
-0.47823903 0.19036914 -0.17833006 -0.21557446 0.32798252 -0.30356324 -0.20153116 -0.20704928
-0.060174108 -0.23758951 0.08306222 0.21209498 0.22940274 -0.3884516 0.28415972 0.4242379
-0.2875958 -0.110143796 0.33491704 0.22572407 -0.15405685 0.08439577 -0.29196134 -0.42644584
-0.4801522 0.15137655 -0.047824074 0.24840692 0.54418826 0.08530044 0.07102716 0.39986134
-0.28612596 0.16836792 -0.28333646 -0.083402544 0.26112515 0.038718026 0.014863333 -0.14210266
-0.24241033 0.48080045 0.13197203 -0.15471673 -0.30475914 0.20659061 0.034956697 0.2023621
-0.32180035 -0.013928897 0.046922773 0.35514414 -0.19217016 0.27187884 0.09066866 -0.67002755
0.6085756 -0.30150935 -0.27982405 -0.56527084 -0.38209292 0.025906423 0.57534397 0.061770666
0.66409266 0.11263951 0.42393228 -0.25272843 0.18558972 -0.5114587 -0.3123168 0.27968845
00000000: a0ec 3a3e dd4f 72bd 5c6e ba3d 8e38 48be
00000010: 730d 23bf 8f98 c43e 172d edbd 7131 183e
00000020: ff5f fabd 1d24 1abd 3ee3 943e 0659 bbbc
00000030: 8171 dcbd da55 ecbc 7fda b6be 3d5c 7b3e
00000040: ffb3 13bf a024 873e 43b7 e4bd 0657 e83e
00000050: 62ed 76be 1d4d 8ebe 37d5 4cbe a80d f33d
00000060: f76c a53e 3450 00bf c37c d63e b75c 82be
00000070: dbb9 0c3e f0db 753c 3dc7 29be a192 1a3d
00000080: 9e8b 87be 48b9 833e 2f02 0ebf c433 cdbe
00000090: c329 3b3e 7588 28bd 1a2c b33e 2ff3 eabd
000000a0: a96e 22bf e8ae 0bbf 3a53 cbbe c583 2ebe
000000b0: 1d8e 20be cffd d73e 0721 d5be 8347 dabd
000000c0: 0d49 d0be 4902 c0be 92b0 ef3e 3090 70be
000000d0: ab68 74be a639 0e3e a9f2 693e 2f81 0dbf
000000e0: cc64 883e fc2a 6a3e 7b14 d5bd c7e3 2d3f
000000f0: 3f99 b13c 90ea 3dbe 5b6f 0f3e ec4c c8be
00000100: 62e1 cebd 244b 11be 8d49 1d3e 8b41 89be
00000110: 4a06 cd3c 7372 60be 223b 9d3b c507 3f3e
00000120: 8693 c5be 3b3a a4bd fff5 523c ae91 8cbe
00000130: ce51 f4be 87e8 9d3e 8ba2 f23c 8ccc bb3e
00000140: f7da d9be 24df 54be f4bd cd3e ddec 7f3e
00000150: ee99 333f 7410 a4bd 611c c0bd ede9 4d3d
00000160: bb06 f53d 2c2e 033e 521d f1be 418f c33c
00000170: 9959 aebd 6f2e 003f 91c8 193d a83e 393e
00000180: 1605 a6be 8d47 e5be cd21 d4be 34ff f2be
00000190: b10e 673d b4b2 28bf 9b89 0c3e 0077 743e
000001a0: 2ace 3f3e 165b 1f3d c35e 5dbe c3cd 163e
000001b0: a40d b23e 840d fc3e af3b 44bf 4f6f 293e
000001c0: d890 a3be 29df 993e b47c 0cbd f58c 2b3e
000001d0: f5e3 edbe b30e cd3d bf88 a13d 334d be3c
000001e0: 8ed7 953e 83ca 0fbf aea0 82bf dbec 27bf
000001f0: 2a6b f8be 2756 91be 963f c43d 1f98 c43d
00000200: 2c79 84be ec17 463f dc10 46be aef1 cb3e
00000210: f0f7 db3d de91 3abf efdf 2bbe 5b6e 1dbf
00000220: 66aa 91be beae 343e ad39 96be 8a93 3cbf
00000230: 0fd8 893d 59cb 9bbc c614 a6be 8b5c 21bf
00000240: d13e 463e 0680 28be b7e5 92be c437 3c3e
00000250: f983 4f3e e9c1 d0be 5697 47bf bf52 b0bd
00000260: 7b64 e33e 92ad d0bd 1d0b e43e 1444 b63e
00000270: df0c fc3e 9923 e73e a325 133f 916a 1e3f
00000280: 889f 6ebe 4958 f7bd cd6a fcbc 752a d03d
00000290: c14c d1be 529e 20bf a522 9fbe b515 cc3d
000002a0: eb6b 33be 2d61 063e 7822 503e 6808 d63e
000002b0: 3c12 b63d 5d0b 02bf fc41 83bc 9f28 22be
000002c0: eba6 c43d 65d3 8c3e c398 453d 4921 91bd
000002d0: f0ce 60bc 7cac e43e c0b7 61bd a286 10bf
000002e0: bfdb f4be 21f0 423e 289c 36be 8dbf 5cbe
000002f0: 53ed a73e a46c 9bbe 2f5e 4ebe ba04 54be
00000300: 2079 76bd aa4a 73be 861c aa3d 6d2f 593e
00000310: 8de8 6a3e 21e3 c6be 627d 913e b635 d93e
00000320: c23f 93be 1293 e1bd 3f7a ab3e 3624 673e
00000330: 14c1 1dbe b1d7 ac3d f57b 95be 1c57 dabe
00000340: 82d6 f5be 7402 1b3e 2de3 43bd 625e 7e3e
00000350: ec4f 0b3f ffb1 ae3d b076 913d a0ba cc3e
00000360: 1a7f 92be a468 2c3e 7a11 91be f4ce aabd
00000370: 32b2 853e cb96 1e3d 5685 733c 5c83 11be
00000380: 6a3a 78be 7a2b f63e ad23 073e 106e 1ebe
00000390: 6409 9cbe 7d8c 533e c12e 0f3d 0338 4f3e
000003a0: 04c3 a4be 0736 64bc 1832 403d 74d5 b53e
000003b0: 41c8 44be b433 8b3e 7eb0 b93d ed86 2bbf
000003c0: 9ccb 1b3f 6f5f 9abe 1945 8fbe 97b5 10bf
000003d0: afa1 c3be b539 d43c be49 133f 3d03 7d3d
000003e0: fa01 2a3f 8baf e63d a70d d93e 9f65 81be
000003f0: 3b0b 3e3e f5ee 02bf fde7 9fbe 5333 8f3e

pi.pi_net.0.bias f4 [64]
0.0577613 -0.01974714 -0.20181806 -0.16570818 0.12597206 0.11403045 0.17670643 0.25961384
-0.23527563 -0.22808582 -0.14941846 0.119267985 -0.023708163 0.27845684 0.32729572 0.1401745
0.19811626 0.028153164 0.13943407 -0.034383487 0.14028485 -0.078398176 0.38329244 -0.1992432
-0.16959675 -0.06605416 0.0197707 -0.10594967 0.14863256 -0.20282461 0.00075377553 0.12261795
0.35042858 0.21438815 -0.14926991 0.10933456 -0.03529089 0.14118043 0.2576126 -0.1594349
0.07848831 0.10136703 0.05410852 0.044943757 -0.1284691 0.041948088 0.13936067 -0.2377209
-0.033848662 0.0008786593 -0.25580776 -0.33889574 -0.22429726 0.0743593 -0.1951797 0.13018236
-0.1717485 0.15961345 0.27877593 0.18479629 -0.16075814 -0.027198313 0.25497454 0.08447456
00000000: 1d97 6c3d c1c4 a1bc 65a9 4ebe 68af 29be
00000010: d2fe 003e cc88 e93d 88f2 343e 1bec 843e
00000020: 18ec 70be 548f 69be 2701 19be c642 f43d
00000030: 9f37 c2bc e591 8e3e 4e93 a73e e789 0f3e
00000040: fdde 4a3e 77a1 e63c cec7 0e3e b3d5 0cbd
00000050: d5a6 0f3e 398f a0bd e83e c43e 6906 4cbe
00000060: c5aa 2dbe 6747 87bd 2af6 a13c 24fc d8bd
00000070: 2233 183e 41b1 4fbe 0599 453a 1f1f fb3d
00000080: 606b b33e 9188 5b3e 36da 18be ccea df3d
00000090: 2e8d 10bd 9a91 103e cce5 833e e742 23be
000000a0: 7bbe a03d 8499 cf3d e5a0 5d3d f216 383d
000000b0: 678d 03be c2d1 2b3d 90b4 0e3e 1c6d 73be
000000c0: e5a4 0abd d455 663a 3cf9 82be be83 adbe
000000d0: 2eae 65be b049 983d 30dd 47be 864e 053e
000000e0: d7de 2fbe b571 233e b8bb 8e3e 3d3b 3d3e
000000f0: c89d 24be ffce debc 068c 823e 0001 ad3d

pi.pi_net.2.weight f4 [64, 64]
0.11198174 -0.2807714 -0.07465596 -0.07645883 -0.112972796 -0.17945902 -0.49860442 0.12438581
-0.2890922 -0.30009544 0.1270205 0.49544677 -0.15366203 -0.22050886 0.25011832 0.24440284
0.1419308 0.32869524 0.052524168 -0.3634 0.22969149 0.50048923 0.35357618 -0.21268971
-0.32077023 0.25069472 -0.1032073 -0.28209117 -0.33688435 0.60741585 -0.021109527 0.123576626
-0.05752572 -0.036374863 0.16036315 0.22761373 -0.107839786 -0.6240417 -0.5293441 0.2297181
0.16110225 -0.6610904 0.57955235 -0.38499084 -0.24681799 -0.19904207 -0.4307474 0.052440267
0.019359635 0.3428426 0.049738392 0.04932387 0.05090317 0.07088799 0.10919809 -0.49637645
-0.6777363 0.03077052 0.3792161 -0.44600728 -0.042387214 -0.18059185 -0.28639507 -0.41352567
0.034529585 0.11466591 -0.116262935 -0.061639603 -0.24721423 0.089521796 0.4261805 0.02020748
-0.2866211 -0.41965422 -0.5818844 0.21793091 -0.066555075 0.07648086 0.2920926 -0.18960981
0.008379776 0.02586838 0.01569685 -0.02630944 0.12409274 -0.18038864 0.428786 -0.17504984
-0.22699127 -0.22816513 0.1939452 -0.24347988 -0.14907025 -0.13484788 -0.1644215 0.17943925
0.23321003 -0.11276605 -0.0060409214 -0.060380533 0.16611479 0.14393781 0.37009788 0.059005212
-0.015601004 -0.019528115 0.2717473 0.11547555 -0.23666498 0.258076 -0.12649232 -0.2914928
-0.077272974 0.19047205 -0.45778275 -0.23637637 -0.1721775 -0.16736586 -0.08279756 0.36622846
0.09710128 -0.19380444 0.21238557 0.07893732 -0.51659083 0.08825854 0.23116446 -0.1351725
-0.6311076 -0.253146 -0.20068288 0.11165929 -0.24893726 -0.08955789 -0.4037394 0.1637899
-0.24516031 -0.31557375 -0.30600622 0.4097848 0.16127987 -0.5698819 -0.33092272 0.31931615
0.045479633 0.36480346 -0.34891543 -0.22984418 0.108805545 -0.03407577 -0.24509306 -0.33688208
-0.229161 0.249171 -0.43051255 -0.16152114 0.1268573 0.13145308 -0.13458928 0.029291827
-0.63825595 -0.12221663 0.13254242 0.07040803 -0.30956602 -0.094679706 -0.49127495 0.17836477
0.12753336 0.35782513 0.69691515 -0.20592354 0.3881348 -0.08182852 -0.34545925 -0.098209
-0.18173198 0.541534 -0.3157663 0.10420198 -0.33620486 -0.55801195 0.29082504 0.0011476305
-0.49093634 -0.19421712 0.36583644 -0.15185289 0.22913484 0.050716728 -0.1503091 -0.5855047
-0.17886123 0.17026672 -0.098320164 0.2794214 -0.14028363 -0.15296629 -0.15933308 0.33071682
0.40211716 -0.008009297 0.20699255 -0.011479432 -0.46445027 -0.33330995 -0.18090373 0.65989685
0.09274823 0.12794709 0.19522834 -0.17179526 -0.34607452 0.15880364 0.121882126 -0.0028460978
-0.181228 0.16691358 -0.4602861 -0.21827891 0.06520059 0.35403404 0.13249874 -0.16195747
-0.15937239 0.45300376 -0.21515462 -0.12491846 -0.167913 -0.015332268 -0.11252042 -0.14348315
0.073638074 -0.06994902 0.17105214 -0.4529228 -0.43080384 -0.1826246 0.20390695 0.059759807
0.23713413 -0.20488463 -0.053943474 -0.14553393 0.12841177 0.18938592 0.3332764 -0.273578
-0.13697319 -0.12629041 -0.15815307 0.05437975 -0.398187 -0.12803818 0.0087639205 -0.09697053
00000000: af56 e53d 45c1 8fbe 39e5 98bd 7296 9cbd
00000010: 485e e7bd 1bc4 37be 1449 ffbe fdbd fe3d
00000020: e503 94be 1ca6 99be a911 023e 33ab fd3e
00000030: 9459 1dbe 13cd 61be 820f 803e bd44 7a3e
00000040: 4f56 113e be4a a83e 9523 573d 910f babe
00000050: 3f34 6b3e 1020 003f f007 b53e 55cb 59be
00000060: ff3b a4be 0f5b 803e 595e d3bd 416e 90be
00000070: 1b7c acbe 9b7f 1b3f e3ed acbc be15 fd3d
00000080: 17a0 6bbd cffd 14bd 3d36 243e 9313 693e
00000090: 1bdb dcbd 32c1 1fbf 1883 07bf 393b 6b3e
000000a0: fdf7 243e 383d 29bf 8b5d 143f 851d c5be
000000b0: dbbd 7cbe afd1 4bbe ec8a dcbe 9bcb 563d
000000c0: 1998 9e3c 1189 af3e 7cba 4b3d d407 4a3d
000000d0: d87f 503d b92d 913d 40a3 df3d 0e25 febe
000000e0: 2080 2dbf 7512 fc3c 9d28 c23e 115b e4be
000000f0: 379e 2dbd 12ed 38be 60a2 92be a3b9 d3be
00000100: e56e 0d3d f6d5 ea3d 431b eebd cf79 7cbd
00000110: ba25 7dbe 3457 b73d 5534 da3e 288a a53c
00000120: 00c0 92be ebdc d6be 60f6 14bf 4829 5f3e
00000130: 074e 88bd ffa1 9c3d 298d 953e 1329 42be
00000140: 544b 093c ede9 d33c ae96 803c e586 d7bc
00000150: 5624 fe3d cdb7 38be d789 db3e 4440 33be
00000160: 6670 68be 1fa4 69be 9299 463e ca52 79be
00000170: dfa5 18be 9015 0abe 1c5e 28be ecbe 373e
00000180: 9cce 6e3e e3f1 e6bd ecf2 c5bb 9451 77bd
00000190: ff19 2a3e 6f64 133e 787d bd3e 73af 713d
000001a0: 5a9b 7fbc 6df9 9fbc 7622 8b3e 727e ec3d
000001b0: 4e58 72be 8a22 843e 3487 01be 8b3e 95be
000001c0: 4b41 9ebd 1b0b 433e 8062 eabe a60c 72be
000001d0: 4c4f 30be f561 2bbe c491 a9bd 4c82 bb3e
000001e0: 09dd c63d ac74 46be 9a7b 593e e4a9 a13d
000001f0: 4c3f 04bf e5c0 b43d 60b6 6c3e a96a 0abe
00000200: 4590 21bf 5a9c 81be d07f 4dbe a0ad e43d
00000210: 69e9 7ebe 216a b7bd eeb6 cebe 8ab8 273e
00000220: 4e0b 7bbe e292 a1be d9ac 9cbe 50cf d13e
00000230: 8d26 253e c8e3 11bf b46e a9be 687d a33e
00000240: da48 3a3d 85c7 ba3e 0ba5 b2be 465c 6bbe
00000250: 71d5 de3d 0993 0bbd adf9 7abe cf7b acbe
00000260: 2ea9 6abe af26 7f3e 246c dcbe cc65 25be
00000270: e1e6 013e a39b 063e c6d1 09be 6af5 ef3c
00000280: be64 23bf b64c fabd 33b9 073e 1632 903d
00000290: 707f 9ebe 6fe7 c1bd 6488 fbbe 41a5 363e
000002a0: 1b98 023e db34 b73e 0869 323f 9fdd 52be
000002b0: 9bb9 c63e b695 a7bd 09e0 b0be cd21 c9bd
000002c0: f317 3abe f9a1 0a3f 1fac a1be d967 d53d
000002d0: 0b23 acbe dfd9 0ebf 05e7 943e 176c 963a
000002e0: 025c fbbe dae0 46be ea4e bb3e 537f 1bbe
000002f0: 53a2 6a3e 58bc 4f3d a1ea 19be a3e3 15bf
00000300: 6627 37be 665a 2e3e 155c c9bd 5210 8f3e
00000310: 83a6 0fbe 32a3 1cbe 3628 23be b753 a93e
00000320: 4de2 cd3e 6d39 03bc dbf5 533e 3a14 3cbc
00000330: 6dcc edbe 9aa7 aabe d43e 39be 00ef 283f
00000340: c9f2 bd3d 9004 033e f0e9 473e 19eb 2fbe
00000350: ae30 b1be 6c9d 223e 569d f93d 9985 3abb
00000360: d593 39be 65eb 2a3e 9faa ebbe 8284 5fbe
00000370: e387 853d f343 b53e c0ad 073e 2ed8 25be
00000380: 8432 23be 1cf0 e73e 7e51 5cbe 40d5 ffbd
00000390: 63f1 2bbe 3134 7bbc 1b71 e6bd 3fed 12be
000003a0: 8fcf 963d 6f41 8fbd 4b28 2f3e 7fe5 e7be
000003b0: 5292 dcbe f101 3bbe fccc 503e b3c6 743d
000003c0: 4ad3 723e 47cd 51be d5f3 5cbd d906 15be
000003d0: 607e 033e 62ee 413e 34a3 aa3e 6a12 8cbe
000003e0: b342 0cbe 4652 01be e1f2 21be 4dbd 5e3d
000003f0: 2bdf cbbe 711c 03be 8c96 0f3c 7c98 c6bd

pi.pi_net.2.bias f4 [64]
0.011819763 0.32284385 0.15408732 0.00381965 -0.020618105 0.10069271 0.030445736 -0.2097393
0.06624289 0.21417701 0.18968451 -0.025428863 0.04303729 -0.020290887 -0.015367559 0.09055128
0.14354113 0.032830413 0.16042046 -0.1511371 0.09778674 -0.13208441 -0.19265169 -0.07360198
-0.1693739 0.09703628 0.27767077 0.14205913 0.13957435 0.068506606 0.123608135 -0.031048948
-0.15042587 0.049416468 -0.10803997 -0.0063651446 -0.16462262 0.16085537 0.12777263 -0.078332216
-0.025998302 -0.10490519 -0.06188921 -0.0062744035 -0.24632658 0.18321216 0.167693 0.11330712
-0.107607014 -0.033296973 -0.077923395 -0.010833492 0.092480026 -0.10798277 -0.07151113 -0.09207914
-0.09135384 -0.00706453 -0.07116911 0.075019725 0.13132551 -0.041560136 0.10714948 0.0597251
00000000: aea7 413c ca4b a53e 11c9 1d3e 1853 7a3b
00000010: 4de7 a8bc fb37 ce3d 5669 f93c e6c5 56be
00000020: 5aaa 873d 3851 5b3e a83c 423e 3150 d0bc
00000030: df47 303d 1339 a6bc 37c8 7bbc f372 b93d
00000040: 72fc 123e 2f79 063d 4345 243e afc3 1abe
00000050: 6a44 c83d 2341 07be 7c46 45be a3bc 96bd
00000060: 5a70 2dbe f5ba c63d dd2a 8e3e f377 113e
00000070: 94ec 0e3e 314d 8c3d 4326 fd3d 5d5a febc
00000080: 3d09 1abe ec68 4a3d 0f44 ddbd b492 d0bb
00000090: d592 28be 45b7 243e d4d6 023e a46c a0bd
000000a0: 64fa d4bc 88d8 d6bd 8a7f 7dbd 8399 cdbb
000000b0: 093d 7cbe f89b 3b3e b7b7 2b3e 900d e83d
000000c0: 1161 dcbd 6862 08bd 4d96 9fbd f57e 31bc
000000d0: 2b66 bd3d 1226 ddbd 6d74 92bd fd93 bcbd
000000e0: b917 bbbd 937d e7bb 1cc1 91bd f1a3 993d
000000f0: 327a 063e f63a 2abd 3071 db3d 4ea2 743d

pi.pi_net.4.weight f4 [256, 64]
0.1149133 0.33155137 -0.45716095 -0.58401126 0.28025433 0.12013892 0.41298497 -0.8080344
-0.7164329 -0.0646234 -0.35714447 0.6123628 0.48440397 0.3980831 -0.24858259 0.0565197
-0.27400628 -0.53393525 -0.5666556 -0.6841049 -0.23781578 -0.29759404 -0.22091776 -0.7412064
-0.3050106 0.55159354 0.58199507 -0.2026131 -0.4743609 0.71183616 0.090143405 -0.421015
0.025140708 0.34574044 0.4640195 0.8288791 -0.13907266 0.3747444 0.25239128 0.37264514
-0.3302079 -0.66925687 -0.40253958 -0.5868922 -0.21546695 -0.119554184 0.047291394 0.44589496
-0.26661646 -0.26782182 -0.16869925 0.3707296 0.5002373 0.81586725 0.28157943 -0.4420958
0.4019814 0.3978575 0.19863626 0.28542063 -0.5412797 -0.60096115 -0.3797001 -0.10576761
-0.15497217 -0.008777067 -0.6566107 -0.06683295 0.09248318 -0.26377428 0.35678363 -0.5356052
-0.4635682 -0.3011248 -0.28852537 0.18065509 0.42196175 0.6982752 0.03785071 0.04711003
-0.22558352 -0.5403474 -0.67955667 -0.6265797 -0.47612754 0.3985936 -0.29873386 -0.31884593
-0.28504312 0.2518281 0.5556772 -0.34387723 -0.42609218 0.4628605 -0.50232035 -0.20688835
0.30739272 0.30890357 0.51599574 0.70057154 -0.19159947 0.17060308 0.3715142 0.27164617
-0.22265123 -0.6949487 -0.02424542 -0.30838615 0.412009 0.01639205 0.31208313 0.38391492
-0.20741582 -0.40077963 -0.30466378 0.4440014 0.3503521 0.7973273 0.23602475 -0.3649432
0.380941 -0.023534669 0.19021833 0.3650215 -0.4287174 -0.38830942 -0.36159617 -0.027982252
0.1943834 0.48912093 0.3555084 -0.3113193 -0.23470259 0.39931032 -0.10490781 -0.5366113
-0.16939299 0.40625194 -0.07589931 0.5805744 -0.13478269 -0.20198932 -0.45927498 0.24429889
0.19935936 -0.1501396 -0.16298722 -0.16971663 0.4419678 -0.41063523 -0.1331216 -0.47275865
-0.2568868 0.46635395 0.40449023 0.3723 -0.4590451 0.37168437 0.3305893 -0.3473405
-0.080451064 0.042249244 0.060692478 0.31314594 0.13544239 0.36417636 0.3229515 0.41974247
0.31876203 -0.7186546 -0.31364086 -0.028536439 -0.18707061 0.4402556 0.14349946 0.49663028
-0.3554774 -0.6976184 -0.2250852 0.4655569 0.2289458 0.402367 -0.023856625 -0.18795848
0.11034711 0.124995925 -0.23289415 0.10762512 -0.42586294 -0.38742772 -0.2187154 0.39338863
0.26384437 0.21524405 0.0089377565 -0.29988575 -0.17392913 0.14213464 0.42466745 -0.6170766
-0.5097502 0.18813804 -0.08300397 0.51314235 0.30074233 0.1240277 -0.48671144 0.37866834
0.026463063 -0.22612242 -0.4062387 -0.3858719 0.44822466 -0.36266208 -0.13460636 -0.5144485
-0.23728892 0.27081034 0.47178993 0.13298045 -0.11292898 0.3366448 0.26944876 -0.25458494
-0.077710375 0.18267865 0.3510178 0.37286258 0.44343656 0.29169583 0.4852857 0.13190502
-0.17472547 -0.92813355 0.08404812 -0.4881931 0.051535796 0.058012687 -0.03502324 0.3350185
-0.27534947 -0.09392018 -0.07798488 0.1136343 0.40136707 0.3300877 -0.07641584 -0.32564804
0.09927457 0.17736325 -0.34372178 0.25966123 -0.5624125 -0.8150259 -0.15108354 0.10995099
00000000: aa57 eb3d 1ac1 a93e 0011 eabe c381 15bf
00000010: 7f7d 8f3e 650b f63d c472 d33e 58db 4ebf
00000020: 2668 37bf 4659 84bd a4db b6be cfc3 1c3f
00000030: cc03 f83e 8cd1 cb3e 6f8c 7ebe 3381 673d
00000040: 8d4a 8cbe fbaf 08bf 5710 11bf 8021 2fbf
00000050: fb85 73be 3f5e 98be 4438 62be b4bf 3dbf
00000060: 592a 9cbe 3c35 0d3f a1fd 143f cf79 4fbe
00000070: 6fdf f2be e53a 363f 1b9d b83d 478f d7be
00000080: e3f3 cd3c e404 b13e f793 ed3e 6c31 543f
00000090: 1069 0ebe 7fde bf3e 6e39 813e 58cb be3e
000000a0: 0311 a9be 6b54 2bbf ab19 cebe 913e 16bf
000000b0: 5ea3 5cbe d3d8 f4bd 9fb4 413d 584c e43e
000000c0: f481 88be f11f 89be 7fbf 2cbe 45d0 bd3e
000000d0: 8d0f 003f addc 503f 2e2b 903e 615a e2be
000000e0: 82d0 cd3e fab3 cb3e 4e67 4b3e a722 923e
000000f0: 4e91 0abf 97d8 19bf 0d68 c2be b09c d8bd
00000100: 06b1 1ebe b0cd 0fbc a417 28bf b7df 88bd
00000110: d267 bd3d 6c0d 87be 58ac b63e 6c1d 09bf
00000120: d058 edbe 082d 9abe 99b9 93be a6fd 383e
00000130: 5f0b d83e 2ac2 323f 5909 1b3d 72f6 403d
00000140: 5eff 66be 3554 0abf 6df7 2dbf 8767 20bf
00000150: fdc6 f3be 7614 cc3e a5f3 98be c63f a3be
00000160: 2cf1 91be 9def 803e dc40 0e3f ad10 b0be
00000170: c128 dabe 0dfc ec3e 1198 00bf 8ada 53be
00000180: 9462 9d3e 9c28 9e3e 4c18 043f a858 333f
00000190: a732 44be 93b2 2e3e 1c37 be3e 3515 8b3e
000001a0: affe 63be 28e8 31bf 559e c6bc cae4 9dbe
000001b0: d8f2 d23e 9f48 863c 5cc9 9f3e 7f90 c43e
000001c0: d064 54be fd32 cdbe e4fc 9bbe 2754 e33e
000001d0: 5a61 b33e a41d 4c3f 79b0 713e d6d9 babe
000001e0: b30a c33e c7cb c0bc 98c8 423e 19e4 ba3e
000001f0: d980 dbbe 7ed0 c6be 2223 b9be 093b e5bc
00000200: 710c 473e 0f6e fa3e 3205 b63e 3e65 9fbe
00000210: e055 70be 6772 cc3e e8d9 d6bd 5c5f 09bf
00000220: 5b75 2dbe 4100 d03e 1971 9bbd 86a0 143f
00000230: 7904 0abe 4ad6 4ebe 1726 ebbe 7d29 7a3e
00000240: dc24 4c3e 32be 19be 1fe6 26be 32ca 2dbe
00000250: 9a49 e23e c83e d2be 0751 08be 6c0d f2be
00000260: ab86 83be f2c5 ee3e 5819 cf3e 1b9e be3e
00000270: f607 ebbe 6a4d be3e 0043 a93e 9dd6 b1be
00000280: 87c3 a4bd 8b0d 2d3d ad98 783d aa54 a03e
00000290: 69b1 0a3e 5375 ba3e e659 a53e 7ce8 d63e
000002a0: c734 a33e bff9 37bf 8995 a0be 40c5 e9bc
000002b0: 708f 3fbe 2f69 e13e 86f1 123e 5346 fe3e
000002c0: 2201 b6be 1f97 32bf bc7c 66be 795d ee3e
000002d0: c570 6a3e 0c03 ce3e f86e c3bc 3078 40be
000002e0: aafd e13d ddfd ff3d ce7b 6ebe 8f6a dc3d
000002f0: b50a dabe ed5c c6be eef6 5fbe 3c6a c93e
00000300: 9c16 873e f068 5c3e ab6f 123c a08a 99be
00000310: 7a1a 32be be8b 113e 036e d93e bbf8 1dbf
00000320: fd7e 02bf 42a7 403e fcfd a9bd 4c5d 033f
00000330: e6fa 993e 3c02 fe3d 3e32 f9be d1e0 c13e
00000340: 11c9 d83c a38c 67be 85fe cfbe 0091 c5be
00000350: b47d e53e d8ae b9be 40d6 09be e6b2 03bf
00000360: defb 72be a7a7 8a3e 738e f13e 072c 083e
00000370: 4f47 e7bd b55c ac3e 30f5 893e f558 82be
00000380: 9e26 9fbd 1d10 3b3e 9bb8 b33e d8e7 be3e
00000390: 1e0a e33e 2859 953e 5e77 f83e 1c12 073e
000003a0: 3ceb 32be 299a 6dbf 6c21 ac3d 72f4 f9be
000003b0: 3317 533d b69e 6d3d 8774 0fbd 8b87 ab3e
000003c0: 9bfa 8cbe 3959 c0bd 89b6 9fbd 1ab9 e83d
000003d0: fc7f cd3e 4101 a93e e87f 9cbd 57bb a6be
000003e0: 7750 cb3d b69e 353e 4dfc afbe 51f2 843e
000003f0: 44fa 0fbf 8aa5 50bf a5b5 1abe fc2d e13d

pi.pi_net.4.bias f4 [256]
0.56515497 0.48953953 0.45352086 0.5098426 0.46990034 0.38546425 0.4121411 0.63725394
0.45836502 0.43074346 0.6130976 0.5046116 0.5288838 0.39374897 0.6358512 0.50595003
0.42943543 0.48154476 0.37046605 0.5321966 0.41108266 0.5080661 0.4752531 0.48495808
0.30797803 0.5872577 0.34675553 0.45994034 0.54197836 0.4781896 0.53212196 0.44698706
0.5402021 0.32326007 0.40350774 0.4118361 0.58136815 0.5910371 0.56867003 0.46471035
0.41100097 0.35912004 0.42808536 0.5746192 0.40151295 0.35413218 0.3948579 0.47375613
0.47860566 0.5056784 0.49141803 0.44162172 0.39078888 0.43520612 0.58985233 0.45560056
0.3671505 0.5200409 0.47629505 0.43491074 0.37846395 0.4671012 0.48402238 0.3443965
0.49953324 0.4065238 0.47101808 0.40790668 0.39169973 0.58522934 0.49396035 0.43649682
0.4005268 0.34810707 0.30658728 0.29618737 0.50617146 0.4237267 0.44810355 0.48664054
0.43571505 0.53835124 0.5131082 0.39915866 0.39622262 0.50199735 0.55732757 0.4853396
0.41627827 0.530411 0.41451973 0.5268395 0.44841143 0.329808 0.49407357 0.47657424
0.40071198 0.6151569 0.3176245 0.3597981 0.51535136 0.37844744 0.48531014 0.34443462
0.6400272 0.36716545 0.5081656 0.6316152 0.31114084 0.5093697 0.59333754 0.43124047
0.4120643 0.40741244 0.45134157 0.41694582 0.5062697 0.3918622 0.42635477 0.42249125
0.43598977 0.3392513 0.5775008 0.46417052 0.42289022 0.4894988 0.455838 0.38194
0.37826094 0.46977073 0.38605425 0.35939512 0.5292877 0.48459876 0.551447 0.46376804
0.4253045 0.50497097 0.43739715 0.4656174 0.55024105 0.5428341 0.5077203 0.47378474
0.40647548 0.49366796 0.461826 0.48846447 0.5040217 0.52134687 0.43772084 0.44444168
0.56291974 0.44303522 0.35024786 0.4175434 0.55694556 0.5718893 0.43314165 0.5423176
0.4828285 0.46940404 0.5597151 0.5419255 0.4947881 0.48157373 0.39609003 0.43390545
0.42919403 0.39807424 0.37157476 0.37127665 0.40339106 0.5399204 0.30603245 0.43063152
0.3126568 0.32374305 0.4752421 0.46808192 0.5293093 0.44766074 0.5609867 0.5599529
0.39364085 0.5133702 0.41364008 0.48464587 0.371968 0.55470675 0.40101993 0.5452671
0.46272385 0.38098237 0.40864438 0.47954196 0.5182875 0.4358116 0.53918236 0.5506557
0.49614882 0.49335587 0.44636437 0.57966554 0.37288782 0.53621435 0.48302338 0.5336013
0.6632911 0.42718795 0.49258742 0.39140788 0.45797053 0.5067601 0.4172451 0.5482671
0.5500239 0.37049758 0.44844902 0.4486866 0.5147814 0.43707705 0.5149445 0.5245067
0.4475543 0.40694776 0.24431013 0.36788854 0.49336812 0.47572476 0.47958893 0.4205208
0.5927372 0.4452693 0.42215508 0.48740244 0.37892595 0.47632548 0.44132745 0.60203564
0.40956494 0.35691392 0.65652126 0.47006553 0.41435814 0.49603155 0.46736732 0.35221136
0.4494817 0.4197243 0.39127314 0.40392372 0.43350568 0.48229018 0.3944364 0.40115464
00000000: ffad 103f eda4 fa3e e333 e83e 0b85 023f
00000010: c796 f03e 925b c53e 2904 d33e 1323 233f
00000020: d2ae ea3e 688a dc3e f7f3 1c3f 3a2e 013f
00000030: ee64 073f 7799 c93e 25c7 223f f185 013f
00000040: f6de db3e 098d f63e baad bd3e 093e 083f
00000050: 6d79 d23e 9f10 023f 6054 f33e 6d4c f83e
00000060: 4caf 9d3e 8556 163f f189 b13e 4d7d eb3e
00000070: 18bf 0a3f 44d5 f43e 2539 083f 7ddb e43e
00000080: af4a 0a3f 5882 a53e 9198 ce3e 2edc d23e
00000090: 8bd4 143f 354e 173f 5c94 113f 84ee ed3e
000000a0: b86e d23e 95de b73e 012e db3e 3e1a 133f
000000b0: 1b93 cd3e d050 b53e d12a ca3e 2a90 f23e
000000c0: cd0b f53e 2474 013f 259b fb3e 3e1c e23e
000000d0: 7b15 c83e 56d3 de3e 9000 173f 7a44 e93e
000000e0: 26fb bb3e 6721 053f f2dc f33e 9fac de3e
000000f0: 07c6 c13e e327 ef3e c8d1 f73e bd54 b03e
00000100: d2c2 ff3e e323 d03e 4829 f13e 25d9 d03e
00000110: de8c c83e 97d1 153f 5fe8 fc3e 837c df3e
00000120: d911 cd3e 173b b23e 02f9 9c3e dfa5 973e
00000130: 7494 013f b5f2 d83e d46d e53e f328 f93e
00000140: 0b16 df3e 63d1 093f 0f5b 033f 865e cc3e
00000150: b1dd ca3e e682 003f 05ad 0e3f 6f7e f83e
00000160: 6d22 d53e 04c9 073f ee3b d43e f4de 063f
00000170: 2f96 e53e 98dc a83e 36f7 fc3e 8a01 f43e
00000180: 1f2a cd3e ec7a 1d3f ae9f a23e 7537 b83e
00000190: 11ee 033f ddc3 c13e 927a f83e bc59 b03e
000001a0: d3d8 233f 1cfd bb3e 2417 023f 89b1 213f
000001b0: da4d 9f3e 0d66 023f f8e4 173f 8dcb dc3e
000001c0: 18fa d23e 5d98 d03e 3e16 e73e ec79 d53e
000001d0: e49a 013f 2aa2 c83e 2c4b da3e c650 d83e
000001e0: 0d3a df3e 59b2 ad3e 18d7 133f c2a7 ed3e
000001f0: 1185 d83e 969f fa3e 9963 e93e a48d c33e
00000200: 6bab c13e ca85 f03e e7a8 c53e a302 b83e
00000210: 667f 073f 541d f83e a12b 0d3f 0173 ed3e
00000220: 83c1 d93e c745 013f 85f2 df3e 6765 ee3e
00000230: 99dc 0c3f 2df7 0a3f f5f9 013f ea93 f23e
00000240: 8e1d d03e 0cc2 fc3e 7574 ec3e 0418 fa3e
00000250: 9107 013f fd76 053f f21c e03e dc8d e33e
00000260: 821b 103f 83d5 e23e b053 b33e 40c8 d53e
00000270: fc93 0e3f 5667 123f bec4 dd3e 54d5 0a3f
00000280: 4c35 f73e ba55 f03e 7d49 0f3f a1bb 0a3f
00000290: de54 fd3e d590 f63e 50cc ca3e db28 de3e
000002a0: 52bf db3e 63d0 cb3e 0c3f be3e f917 be3e
000002b0: 4689 ce3e 3938 0a3f 49b0 9c3e bc7b dc3e
000002c0: 8d14 a03e a6c1 a53e ef52 f33e 6fa8 ef3e
000002d0: d080 073f ca33 e53e d39c 0f3f 1359 0f3f
000002e0: 4b8b c93e 3b6c 033f a2c8 d33e 8123 f83e
000002f0: 9772 be3e 4301 0e3f 7c52 cd3e a096 0b3f
00000300: 24ea ec3e 1f10 c33e d639 d13e 8686 f53e
00000310: 7dae 043f b322 df3e db07 0a3f c6f7 0c3f
00000320: 3807 fe3e 2499 fc3e df89 e43e f664 143f
00000330: 27eb be3e 5845 093f d74e f73e 189a 083f
00000340: 72cd 293f 61b8 da3e 6b34 fc3e 9d66 c83e
00000350: 1d7b ea3e 08bb 013f 26a1 d53e 3c5b 0c3f
00000360: 5ece 0c3f dcb1 bd3e 1c9b e53e 40ba e53e
00000370: b7c8 033f 90c8 df3e 67d3 033f 1246 063f
00000380: d625 e53e 755b d03e 6f2c 7a3e e35b bc3e
00000390: bf9a fc3e 3292 f33e ae8c f53e 814e d73e
000003a0: a0bd 173f 56fa e33e b624 d83e d08c f93e
000003b0: 9502 c23e efe0 f33e acf5 e13e 021f 1a3f
000003c0: 7fb2 d13e 6cbd b63e c711 283f 6eac f03e
000003d0: c026 d43e d9f7 fd3e c54a ef3e 0c55 b43e
000003e0: 7722 e63e 1ae6 d63e f454 c83e 17cf ce3e
000003f0: 75f4 dd3e bdee f63e 91f3 c93e 2464 cd3e

v.v_net.0.weight f4 [64, 5]
0.28266704 0.56985277 0.34558427 -0.08261364 0.019334737 0.32368067 -0.5732833 -0.087852046
-0.058751293 -0.14385042 0.15501435 0.5433432 0.25622138 -0.0037574398 -0.3820232 0.2488263
0.627884 0.1858668 0.025418006 -0.16945544 -0.7833439 -0.10108214 -0.17750305 0.14720602
-0.017765768 -0.26531455 -0.40104657 -0.22479449 -0.061855257 0.19800751 0.85128224 0.41247755
-0.6452453 0.010399784 0.49737716 0.22903064 0.52353424 -0.080802076 -0.3288991 0.34238335
0.019636676 0.005724541 0.1261952 0.11513292 -0.16956005 -0.81852305 -0.81579816 0.27673742
0.3676368 -0.15259436 0.51907873 -0.0010981476 0.2778778 0.19877848 0.17020492 0.13168772
0.66649675 -0.06879222 -0.21417247 -0.5064119 -0.58267874 -0.54172486 0.22863704 -0.15982178
-0.15144473 0.13865252 0.14554466 0.20005068 0.06037745 0.22522384 0.29444477 0.44354197
0.064823344 -0.33943442 0.26464373 0.546494 0.7400557 0.33927897 -0.3503932 0.004874096
-0.22499686 0.3259653 0.1325105 0.114726 -0.15508418 0.19470415 0.21045208 0.03530502
0.33251974 0.41377273 0.52493966 0.28316027 0.41185737 -0.29721603 0.19080602 -0.83507043
-0.52072793 0.19836421 0.24949501 -0.4680032 0.7962197 0.3541751 -0.03661873 0.18500648
-0.17616577 -0.29399064 -0.7163358 -0.50421065 0.25924698 0.25751784 0.5952402 0.2768459
-0.040152036 0.06983834 -0.27265692 -0.93866473 -0.32452402 -0.21185759 0.19408898 -0.45650914
-0.26509735 -0.45437106 0.18118244 -0.042748075 -0.0073880046 -0.47625813 -0.3236535 0.052797668
-0.27810654 -0.31368467 0.30074123 0.5586108 0.12712774 -0.06228311 -0.022818644 0.3955763
-0.008987739 0.3808501 0.033731222 0.46331003 -0.06664611 -0.83124423 -0.27459437 0.26455998
-0.09996255 0.77897596 0.21312015 -0.026954493 -0.006874 -0.078117214 -0.8010061 -0.3216966
-0.02901319 0.13924488 0.16275805 -0.6873234 -0.31245518 0.32205635 -0.18963678 -0.026123093
0.31586158 0.48039085 0.0957838 0.1455762 -0.19987892 0.25722557 0.7891566 -0.047105506
0.41511965 -0.42612368 -0.25666165 0.5088782 0.4671387 0.1916072 -0.26371717 0.6353891
0.33604613 -0.30985263 0.42671636 0.052761696 -0.5691019 -0.6160919 -0.25453508 -0.21054554
-0.0738576 0.3097985 0.4268105 -0.03300158 0.02011107 0.053762432 0.3315968 0.7557592
0.2358909 -0.23739499 -0.35169405 -0.5538585 -1.0021626 0.07043727 -0.06149948 -0.34502283
-0.37810105 -0.69487405 -0.15060125 0.22441447 0.0018133922 -0.73334455 -0.5910522 -0.23831947
0.68576497 -0.19975546 -0.30425113 -0.45787922 -0.1395588 0.191469 -0.4287701 0.20001166
0.94371015 0.1324279 0.092916824 -0.070694886 0.76377064 0.4647371 0.035761777 -0.1887894
0.021328969 -0.61259973 -0.27629164 0.1442069 -0.12400581 0.3253182 -0.4851093 -0.56221217
-0.59669334 -0.46166217 0.41261426 0.83128315 0.60270983 -0.19905603 -0.28729495 0.11463507
-0.7874758 -0.55107117 -0.25223485 -0.11884152 0.11165731 -0.5199606 -0.36564296 0.2215444
-0.5446763 -0.14322953 0.3644763 0.6672591 0.3463837 0.09520015 -0.22632337 0.3950312
00000000: bcb9 903e dfe1 113f 6cf0 b03e 5731 a9bd
00000010: e263 9e3c 79b9 a53e b2c2 12bf c6eb b3bd
00000020: 32a5 70bd 864d 13be 15bc 1e3e 8a18 0b3f
00000030: 732f 833e 613f 76bb 8b98 c3be 52cc 7e3e
00000040: 01bd 203f de53 3e3e 6c39 d03c ba85 2dbe
00000050: 3a89 48bf 2704 cfbd 5cc3 35be 2dbd 163e
00000060: 8489 91bc 4fd7 87be fa55 cdbe 8730 66be
00000070: f05b 7dbd 7bc2 4a3e a2ed 593f 4230 d33e
00000080: cc2e 25bf db63 2a3c 38a8 fe3e 0287 6a3e
00000090: 5706 063f 8f7b a5bd 7665 a8be df4c af3e
000000a0: 18dd a03c ee94 bb3b 5139 013e cfca eb3d
000000b0: 26a1 2dbe ba8a 51bf 26d8 50bf 87b0 8d3e
000000c0: e43a bc3e b241 1cbe 58e2 043f b8ef 8fba
000000d0: 0046 8e3e 968c 4b3e 334a 2e3e 25d9 063e
000000e0: 889f 2a3f efe2 8cbd 0750 5bbe 36a4 01bf
000000f0: 6f2a 15bf 7bae 0abf d41f 6a3e 52a8 23be
00000100: 5414 1bbe edfa 0d3e a909 153e 16da 4c3e
00000110: 584e 773d 14a1 663e 77c1 963e ef17 e33e
00000120: 1ac2 843d 59ca adbe 627f 873e 08e7 0b3f
00000130: 4a74 3d3f f9b5 ad3e bd66 b3be e1b6 9f3b
00000140: 9465 66be ece4 a63e d5b0 073e 77f5 ea3d
00000150: 63ce 1ebe 8660 473e c080 573e ff9b 103d
00000160: 0740 aa3e 05da d33e 7262 063f 62fa 903e
00000170: f8de d23e b32c 98be a762 433e 2dc7 55bf
00000180: 6d4e 05bf fd1f 4b3e 9f7b 7f3e 1e9e efbe
00000190: 0ed5 4b3f 7056 b53e 85fd 15bd 5772 3d3e
000001a0: cd64 34be f185 96be c861 37bf f313 01bf
000001b0: 05bc 843e 61d9 833e a961 183f bfbe 8d3e
000001c0: 7676 24bd 6707 8f3d b099 8bbe 554c 70bf
000001d0: 0328 a6be 32f1 58be 43bf 463e 91bb e9be
000001e0: d7ba 87be 53a3 e8be e487 393e 9b18 2fbd
000001f0: 1317 f2bb 1bd8 f3be e9b5 a5be 5e42 583d
00000200: fb63 8ebe 479b a0be c1fa 993e 1e01 0f3f
00000210: c62d 023e 931c 7fbd 2aee babc fa88 ca3e
00000220: 4f41 13bc c9fe c23e c029 0a3d f936 ed3e
00000230: c17d 88bd 6ccc 54bf a297 8cbe 6874 873e
00000240: 2ab9 ccbd f86a 473f 2b3c 5a3e abcf dcbc
00000250: 4b3f e1bb ebfb 9fbd bc0e 4dbf 6bb5 a4be
00000260: 12ad edbc 3696 0e3e 0caa 263e 6df4 2fbf
00000270: 20fa 9fbe 92e4 a43e 2530 42be 1900 d6bc
00000280: 9cb8 a13e caf5 f53e 4c2a c43d ed11 153e
00000290: 0fad 4cbe 12b3 833e 2b06 4a3f b4f1 40bd
000002a0: 908a d43e e22c dabe 2869 83be d745 023f
000002b0: ce2c ef3e ae34 443e f005 87be dca8 223f
000002c0: 3d0e ac3e 01a5 9ebe 917a da3e a61c 583d
000002d0: aab0 11bf 33b8 1dbf 6c52 82be 4099 57be
000002e0: a742 97bd e99d 9e3e e886 da3e aa2c 07bd
000002f0: f8bf a43c ff35 5c3d 0ec7 a93e 6f79 413f
00000300: 628d 713e ac17 73be 3e11 b4be acc9 0dbf
00000310: dd46 80bf 6a41 903d e1e6 7bbd d5a6 b0be
00000320: 7696 c1be 44e3 31bf 3737 1abe e8cc 653e
00000330: 58af ed3a 78bc 3bbf 324f 17bf 050a 74be
00000340: 4b8e 2f3f b28c 4cbe cec6 9bbe 256f eabe
00000350: 81e8 0ebe 7310 443e c187 dbbe dbcf 4c3e
00000360: fd96 713f 2e9b 073e 2d4b be3d 7bc8 90bd
00000370: 7986 433f 05f2 ed3e f17a 123d 0252 41be
00000380: 17ba ae3c 56d3 1cbf 1976 8dbe f9aa 133e
00000390: c2f6 fdbd 1b90 a63e 3f60 f8be 23ed 0fbf
000003a0: e5c0 18bf fc5e ecbe 2d42 d33e f9ce 543f
000003b0: 314b 1a3f 58d5 4bbe 5318 93be cbc5 ea3d
000003c0: 0498 49bf 0013 0dbf ed24 81be 2f63 f3bd
000003d0: 96ac e43d 231c 05bf 8e35 bbbe 89dc 623e
000003e0: e86f 0bbf c3aa 12be a39c ba3e 7ed1 2a3f
000003f0: 3459 b13e 4cf8 c23d 50c1 67be 8841 ca3e

v.v_net.0.bias f4 [64]
0.38240084 -0.39315674 0.4358659 0.4745245 -0.4680245 -0.48128313 0.42809623 0.42680556
0.27453965 -0.42796463 0.38665548 0.43585172 -0.45911324 0.4171249 0.48584774 0.43162322
0.44504806 0.37632215 0.41591448 -0.47691157 0.47500888 -0.44778174 0.43136278 -0.41152504
-0.38775977 -0.40626034 0.4163734 0.3669379 -0.3753947 0.25323316 -0.44635937 -0.45342612
0.4592914 0.4163852 0.46144328 0.4040149 -0.40459123 0.43351206 0.43266395 -0.38495246
-0.40767515 -0.3904782 -0.42623848 0.42504126 0.45029533 -0.21837936 -0.43225428 0.40220135
-0.4559818 -0.40710586 0.43430462 0.48496968 -0.3077039 -0.40347913 -0.43663904 -0.4358608
-0.40537527 -0.4562357 -0.47021663 0.50426465 -0.46527842 0.45649144 0.39480248 -0.40288275
00000000: 0bca c33e d74b c9be d129 df3e e0f4 f23e
00000010: e8a0 efbe be6a f6be 6e2f db3e 4286 da3e
00000020: 7690 8c3e 2e1e dbbe b5f7 c53e f527 df3e
00000030: e410 ebbe 6591 d53e 09c1 f83e b8fd dc3e
00000040: 57dd e33e 4cad c03e bef2 d43e c12d f4be
00000050: 5d34 f33e a643 e5be 95db dc3e 69b3 d2be
00000060: 7388 c6be 5b01 d0be e52e d53e 49df bb3e
00000070: bc33 c0be c7a7 813e 3789 e4be 7827 e8be
00000080: 3e28 eb3e 7130 d53e 4b42 ec3e 0adb ce3e
00000090: 9526 cfbe 4bf5 dd3e 2186 dd3e 7d18 c5be
000000a0: ccba d0be c2ec c7be ee3b dabe 029f d93e
000000b0: 1c8d e63e d79e 5fbe 6f50 ddbe 56ed cd3e
000000c0: 7276 e9be 2e70 d0be 2d5d de3e f24d f83e
000000d0: 5e8b 9dbe d194 cebe 278f dfbe 2629 dfbe
000000e0: 598d cfbe ba97 e9be 3cc0 f0be 7d17 013f
000000f0: f938 eebe 3fb9 e93e 8d23 ca3e a646 cebe

v.v_net.2.weight f4 [64, 64]
-0.22106574 0.52958274 -0.5576819 -0.2731025 0.5223168 0.3663091 0.052146927 -0.43940935
-0.12751718 0.16625287 -0.26212388 -0.3565962 0.5479537 -0.41136274 -0.112367816 -0.36962602
-0.09439649 -0.04014707 -0.552207 0.60024524 -0.86230725 0.7063493 -0.5075814 -0.029549528
-0.008740399 0.2478892 -0.5739047 -0.1289219 -0.055597354 -0.054634582 0.3872745 0.47497267
-0.3689919 -0.4652477 -0.048433233 -0.13967645 -0.02256444 -0.36903507 -0.6790245 0.20680137
0.773425 0.45171592 0.21388681 -0.19789444 -0.49449068 0.3073022 0.3992712 -0.45683652
0.37184107 0.41131005 -0.40010384 -0.37760496 0.32116732 0.53566056 0.062104438 0.039383464
0.0733384 0.44484824 0.46744502 -0.39548412 0.115634635 -0.26167122 -0.03909889 0.27543604
-0.7083661 -0.02980391 -0.55222213 -0.3518914 0.379435 0.17138954 -0.43959227 -0.56164765
-0.12146437 -0.032085575 -0.110886455 -0.07439926 0.68604445 -0.48717698 -0.41085565 -0.34926063
0.024834374 -0.11768841 -0.28987995 0.391735 -0.5440015 0.59923834 -0.3748008 0.23865947
-0.13208762 0.20050311 -0.36262643 0.33644623 0.6537318 -0.024556752 0.7227437 0.41843742
-0.26992014 -0.17798921 -0.57086575 -0.4544573 0.11977919 -0.567174 -0.45631438 0.04696281
0.54989415 0.34751037 0.48372823 0.073087744 -0.13916084 0.7076213 -0.11066448 -0.22293347
0.18274449 0.32654136 -0.66297376 -0.35664815 0.14372806 0.11397822 0.5037841 0.06677486
0.22963277 0.61571455 0.3339507 -0.30841866 0.55005246 -0.31353182 -0.28460148 0.023241632
-0.10135116 -0.19297329 0.3852323 0.5381441 -0.21990447 -0.48052645 0.31614187 0.16745156
0.20941587 -0.49995992 0.52685493 -0.019276863 -0.17019318 0.46548647 0.33505622 0.35713205
0.29500857 -0.23273562 0.08764341 -0.53674304 0.5665327 -0.061934546 0.713488 -0.11565589
-0.43599945 -0.2543511 0.30107728 0.092862055 -0.30508077 0.08784299 -0.4634944 -0.47665155
0.23582195 0.40365407 0.45195326 0.58994085 -0.19069006 0.2475061 0.37242436 -0.4129269
-0.59558135 0.06144279 -0.07889582 0.052774653 0.5421974 -0.25969216 -0.25508934 0.50466835
-0.31239176 -0.11560522 0.3149961 0.49051532 -0.36002302 -0.7289136 -0.09184561 -0.43871692
-0.45784792 0.0005605618 -0.4372541 0.25013828 -0.10829503 0.3015088 0.13064754 -0.5041615
0.47410586 -0.12131159 0.17219843 -0.19777414 -0.5452848 -0.47041595 0.45554554 0.57729113
0.18120436 -0.5133468 0.08005114 0.17340796 -0.055968467 -0.06526993 0.6523922 0.20411655
0.15597135 0.31673273 0.57908505 -0.5291337 0.10295982 -0.50924253 0.3701687 -0.2299592
-0.37555847 -0.27636114 0.31083712 0.03251225 -0.29422233 0.05440448 -0.43873018 -0.13299657
0.539502 0.31914175 0.2698137 0.19747265 0.339586 0.27457985 0.46110424 -0.26179102
-0.15125014 -0.27782488 -0.4003058 0.27759752 0.73491037 -0.114448994 -0.16085823 0.31586084
-0.10880942 -0.2326076 0.37311387 0.3018551 -0.3965443 0.012673387 -0.35472393 -0.7694406
-0.45347613 -0.65121055 -0.38047197 0.45010862 -0.47759977 0.59822243 0.2407808 -0.42922005
00000000: 0f5f 62be bc92 073f 3ec4 0ebf 17d4 8bbe
00000010: 8eb6 053f de8c bb3e 0498 553d 43fa e0be
00000020: dd93 02be 313e 2a3e 1a35 86be c793 b6be
00000030: b246 0c3f 239e d2be 1921 e6bd 9f3f bdbe
00000040: f252 c1bd 4171 24bd 705d 0dbf aca9 193f
00000050: 2bc0 5cbf 4fd3 343f dbf0 01bf da11 f2bc
00000060: e433 0fbc abd6 7d3e 6beb 12bf 1a04 04be
00000070: 0dba 63bd 83c8 5fbd d848 c63e 9e2f f33e
00000080: 82ec bcbe f234 eebe ed61 46bd 5807 0fbe
00000090: 0fd9 b8bc 2af2 bcbe 8dd4 2dbf bdc3 533e
000000a0: 2eff 453f 4f47 e73e 2505 5b3e d7a4 4abe
000000b0: e22d fdbe b756 9d3e 466d cc3e 7ae6 e9be
000000c0: f461 be3e 3b97 d23e 69da ccbe 7055 c1be
000000d0: 0b70 a43e 0d21 093f 3961 7e3d 8e50 213d
000000e0: 7132 963d 26c3 e33e f454 ef3e e57c cabe
000000f0: dad1 ec3d c5f9 85be 2826 20bd f405 8d3e
00000100: 7b57 35bf 5427 f4bc 6e5e 0dbf 1c2b b4be
00000110: 4e45 c23e bd80 2f3e 3d12 e1be 24c8 0fbf
00000120: 50c2 f8bd 2a6c 03bd 7018 e3bd a45e 98bd
00000130: 9ca0 2f3f 436f f9be ac5b d2be 4ad2 b2be
00000140: 7571 cb3c 9f06 f1bd 256b 94be 7d91 c83e
00000150: af43 0bbf af67 193f e4e5 bfbe 2663 743e
00000160: fa41 07be b050 4d3e 2caa b9be ae42 ac3e
00000170: f85a 273f 3e2b c9bc bb05 393f 6e3d d63e
00000180: f932 8abe ce42 36be 4224 12bf a1ae e8be
00000190: cb4e f53d 5132 11bf 0aa2 e9be 135c 403d
000001a0: ddc5 0c3f e1ec b13e 3aab f73e 07af 953d
000001b0: 2e80 0ebe ab26 353f 0fa4 e2bd ac48 64be
000001c0: 5f21 3b3e 6e30 a73e a6b8 29bf 969a b6be
000001d0: 732d 133e 6a6d e93d fff7 003f 42c1 883d
000001e0: da24 6b3e 789f 1d3f 96fb aa3e 0de9 9dbe
000001f0: 3dd0 0c3f 3e87 a0be 49b7 91be 3c65 be3c
00000200: 3291 cfbd ca9a 45be 2b3d c53e d0c3 093f
00000210: a32e 61be 9007 f6be 59dd a13e 6c78 2b3e
00000220: 1d71 563e bffa ffbe f7df 063f 83ea 9dbc
00000230: 1f47 2ebe 3e54 ee3e 7d8c ab3e 03da b63e
00000240: 5d0b 973e 3f52 6ebe 637e b33d fe67 09bf
00000250: 4908 113f 14af 7dbd 26a7 363f ffdc ecbd
00000260: 523b dfbe 4f3a 82be cd26 9a3e 762e be3d
00000270: 8c33 9cbe 07e7 b33d 234f edbe ac0b f4be
00000280: 4f7b 713e bfab ce3e 6b66 e73e 5d06 173f
00000290: 4144 43be 3d72 7d3e 68ae be3e 286b d3be
000002a0: 0578 18bf 6fab 7b3d 2294 a1bd 3c2a 583d
000002b0: 73cd 0a3f 5ff6 84be 129b 82be f231 013f
000002c0: d0f1 9fbe 6ec2 ecbd 2b47 a13e d324 fb3e
000002d0: f054 b8be 159a 3abf 8d19 bcbd 819f e0be
000002e0: 0b6b eabe aaf2 123a c5df dfbe 2012 803e
000002f0: c9c9 ddbd 5d5f 9a3e 78c8 053e ba10 01bf
00000300: 01be f23e 3672 f8bd c954 303e 4e85 4abe
00000310: c997 0bbf 5cda f0be 443d e93e 5ac9 133f
00000320: a38d 393e b26a 03bf daf1 a33d db91 313e
00000330: 313f 65bd 3eac 85bd 2d03 273f ee03 513e
00000340: f4b6 1f3e cb2a a23e eb3e 143f 4e75 07bf
00000350: 99dc d23d b85d 02bf c086 bd3e 6d7a 6bbe
00000360: 3349 c0be 357f 8dbe 0b26 9f3e 912b 053d
00000370: 4fa4 96be 3bd7 5e3d 3ea1 e0be 4130 08be
00000380: ce1c 0a3f 8c66 a33e 0525 8a3e 4536 4a3e
00000390: 37de ad3e bb95 8c3e db15 ec3e 7909 86be
000003a0: 51e1 1abe 103f 8ebe e2f4 ccbe 4321 8e3e
000003b0: 1623 3c3f 3c64 eabd 05b8 24be 83b8 a13e
000003c0: 79d7 debd b030 6ebe c808 bf3e c08c 9a3e
000003d0: db07 cbbe 0aa4 4f3c 609e b5be 0ffa 44bf
000003e0: 062e e8be bcb5 26bf 39cd c2be a374 e63e
000003f0: f587 f4be 1b25 193f 3e8f 763e bbc2 dbbe

v.v_net.2.bias f4 [64]
-0.27685702 -0.2863995 0.33450943 0.30137 -0.27681056 -0.30448732 0.3068613 -0.26494902
0.26562685 -0.2870869 0.27648968 -0.29418868 -0.2668544 -0.2997752 0.29580694 0.31606638
-0.2992211 0.26400253 0.30816528 0.2683541 -0.32283905 -0.30449635 -0.3176621 -0.30440757
0.2992512 0.35838553 -0.28168926 -0.2578709 -0.24953552 0.2584567 -0.31345597 0.2696659
0.27420378 -0.28815567 -0.28757665 -0.31102338 0.29895592 0.24217416 0.26197106 -0.2659759
0.28366864 -0.2048133 0.27326864 0.27713996 0.33975142 0.30178863 0.22583246 0.29398233
0.32540238 0.25973284 -0.31279343 0.29357493 -0.2326575 -0.23786892 0.2667398 0.28217158
-0.2924337 0.27099386 -0.26643652 -0.28238365 -0.24762526 0.30385175 0.31093195 -0.26957175
00000000: 34c0 8dbe f5a2 92be d244 ab3e 2b4d 9a3e
00000010: 1dba 8dbe c3e5 9bbe ed1c 9d3e 66a7 87be
00000020: 3e00 883e 0efd 92be 0e90 8d3e e69f 96be
00000030: 24a1 88be 237c 99be 0274 973e 74d3 a13e
00000040: 8233 99be 572b 873e d7c7 9d3e b565 893e
00000050: 294b a5be f2e6 9bbe 9ba4 a2be 4fdb 9bbe
00000060: 7437 993e 4f7e b73e 9339 90be a807 84be
00000070: 3d86 7fbe 7054 843e 4d7d a0be a611 8a3e
00000080: 7064 8c3e 2489 93be 3f3d 93be 753e 9fbe
00000090: c010 993e 81fc 773e 1221 863e fe2d 88be
000000a0: 043d 913e 94ba 51be dee9 8b3e 4ae5 8d3e
000000b0: e6f3 ad3e 0a84 9a3e a040 673e da84 963e
000000c0: 249b a63e b4fb 843e 7626 a0be 744f 963e
000000d0: c53d 6ebe e993 73be 1e92 883e cb78 903e
000000e0: dfb9 95be b5bf 8a3e 5e6a 88be 9794 90be
000000f0: 7a91 7dbe 7592 9b3e 7932 9f3e 4f05 8abe

v.v_net.4.weight f4 [1, 64]
3.1837618 3.193711 -3.103779 -3.1088626 3.400091 3.101576 -3.0565145 3.4087274
-3.2738125 3.2180502 -3.0203345 3.2992032 3.2003562 3.526128 -3.3333294 -3.0506804
3.1494477 -3.8067951 -3.2400997 -3.4369423 3.4638603 3.223807 3.0648253 3.1964118
-3.1702945 -3.049496 3.230974 3.0737426 3.2003977 -3.1343987 3.3355873 -3.5485466
-3.4567635 3.229243 3.481974 3.4833481 -3.2001317 -3.5158494 -3.34958 3.5307338
-3.5663598 3.4074953 -3.0591457 -3.240307 -3.18459 -3.169563 -3.2690928 -3.0824792
-3.3167698 -3.6531875 3.2282383 -3.1882288 3.139868 3.3295205 -3.197028 -3.2295597
3.2078278 -3.563998 3.575898 3.0052922 3.2527544 -3.114896 -3.255839 3.260743
00000000: c1c2 4b40 c365 4c40 51a4 46c0 9bf7 46c0
00000010: 179b 5940 3980 4640 ef9d 43c0 9728 5a40
00000020: 2586 51c0 89f4 4d40 294d 41c0 2526 5340
00000030: a3d2 4c40 15ac 6140 4555 55c0 593e 43c0
00000040: 8d90 4940 88a2 73c0 cb5d 4fc0 ddf6 5bc0
00000050: e3af 5d40 db52 4e40 1926 4440 0392 4c40
00000060: 1be6 4ac0 f12a 43c0 47c8 4e40 33b8 4440
00000070: 51d3 4c40 fd99 48c0 437a 5540 631b 63c0
00000080: 9d3b 5dc0 ebab 4e40 a9d8 5e40 2def 5e40
00000090: f5ce 4cc0 ad03 61c0 855f 56c0 8bf7 6140
000000a0: 3d3f 64c0 6714 5a40 0bc9 43c0 3161 4fc0
000000b0: 53d0 4bc0 1fda 4ac0 d138 51c0 5747 45c0
000000c0: f545 54c0 d3cd 69c0 759b 4e40 f10b 4cc0
000000d0: 99f3 4840 dd16 5540 1b9c 4cc0 1bb1 4ec0
000000e0: 0d4d 4d40 8b18 64c0 83db 6440 b556 4040
000000f0: 212d 5040 755a 47c0 ab5f 50c0 03b0 5040
