tmp/experiments/RN3 False,True,True/pyt_network_save/model save42000.pt (torch_old, 314943 bytes, 33 tensors)

pi.pi_net.0.weight f4 [64, 5]
00000000: 9dbe e1be a958 bfbc 1736 1c3f a202 9bbe
00000010: 4d02 58be e1ca 9d3e d120 6cbc 54c3 65be
00000020: dc36 e6be 3ffd 643e b186 e53e 44c8 c23d
00000030: 7915 2f3f 50c1 e7bd 4441 d5bd d21f 843f
00000040: 151e 12bd 0619 f53d 26b3 72be e372 3d3d
00000050: f5dc c43e 8908 cf3e e4a9 1d3f a11e 33be
00000060: 513d e8bd 660a 18be 8f7a 0c3e eb3c 11bf
00000070: f58f 61be f76a 15be 9539 5d3e 4130 8cbe
00000080: 2359 093f ad0d 253f ed8a 3ebe a544 54bc
00000090: e693 363e 96c6 95be 78e5 6fbe 8c61 d9be
000000a0: 57e9 983c cb55 593e ac34 0a3f 297c 15be
000000b0: 2e8e a03d c967 20bd 9988 583e 9c98 8ebe
000000c0: c7f0 b53a 5d23 ccbd 5069 d53e e719 613e
000000d0: 12f2 893e 0bbd 083d 4df4 8dbe 9db5 2a3f
000000e0: add2 333f 0a97 54bf d7ad 3abe a162 223e
000000f0: b05e 53be 3072 b0be 6cfa 363f aa8f 4ebe
00000100: fb6d 533c 64c0 b63e aa21 9abe a735 003f
00000110: baf8 1dbe 506a 743c 072b dfbe e4ad 1bbe
00000120: 553f babd 6465 d8bc 65b3 533e 171b d6be
00000130: 0da6 c9bd 7299 94bd 54c8 5bbc 6b99 2bbf
00000140: 41d4 493e c71e 203e 60af babe 334e a83d
00000150: 753e 65be 7f02 a5be ac2e 593e eddb 8d3e
00000160: 4783 15be 2252 0dbe d565 013f f177 b03e
00000170: 9e92 69be 3c96 b3be 00e2 01be c9b9 94bf
00000180: 0e95 00bf 902c 073f aea5 3cbe 4d28 e93c
00000190: 8991 1bbf 7c95 7c3e 0ce8 093f d7e3 60be
000001a0: 6bc1 a0be e76b 6e3e ad9f 343e e1a9 153f
000001b0: b97f 92bd 006e 92be f983 d53e 1f69 a73e
000001c0: cdbc 28bf 8ffa 0d3e 4aad ddbd 6e53 8a3e
000001d0: 916c d8be e975 103f 2676 e8bc 28e8 803e
000001e0: 8182 e93e 65ad 9abe e303 3e3f a08c 3d3e
000001f0: fd46 013e af79 f43e 064a 373e 0894 133f
00000200: b2f6 933d eba8 2f3d eb71 0d3f d943 f23b
00000210: d900 b23e 6740 df3d 7e23 cf3c af11 f9be
00000220: e0d9 113c 9a26 cdbe e3f4 fabc 8424 1cbe
00000230: 6678 493f eff4 603e eebd bc3e d346 b4be
00000240: db77 96bc 222e b83e d4c3 0a3f 8504 44bf
00000250: 7cd2 f7bd ada1 bcbe 46f6 d4be 4752 b3bd
00000260: f517 0e3f 2fc1 233f 2a01 80be 4478 29be
00000270: 8fa7 f63e 4593 043d 1c8c c73e 883f 18be
00000280: a307 eb3d 33eb 093e f00e 26bf 7caa ed3d
00000290: d224 853c cddd 10bf 4087 7abf 51e5 ddbd
000002a0: dd7d 0a3d 37ed b7bd 0c83 693f d144 3f3e
000002b0: 9bb2 4b3e 893b fcbd 789b e03d fa78 47bf
000002c0: ba3e 3bbe 0eb6 19be d003 9c3e 829a 36be
000002d0: d13d 22be 010b a6be 77dd 06be ebe7 8f3c
000002e0: 0a55 3e3c 396e 6a3e a517 66bd 3a83 903e
000002f0: d40a 81be bd45 063d 2709 003f f0c4 0cbf
00000300: 6331 233d 30f9 9d3d a5c4 123f 3d32 783d
00000310: 6d00 883e 3ae8 18bf f36b a3be 1971 e73d
00000320: d66b 80be 3f0a ccbe 9210 0e3f 887e 483d
00000330: f7b2 dd3e c6a4 6d3e 90b1 b53e f5c2 eb3d
00000340: 691c 25be 17b6 19bf 2dd8 b7bd 1844 9c3e
00000350: 4a7e 22bf 65a1 87be 9f90 6f3e 783a 2fbe
00000360: e514 07bf 7ba7 0b3f a5e4 5e3e c5e1 9f3d
00000370: b670 c1be 525c 39be 2ee0 603e 7d46 c0be
00000380: 0770 acbe cf76 a13e e763 283c 390f bdbe
00000390: c2de 773d 7775 abbe a810 733e 6d51 bebd
000003a0: fc72 4c3f d01f 10be aa4b 3f3e dd15 933e
000003b0: 1a9b b3bc 0c8a 943e 977b 06bf 79ce a2bd
000003c0: 61c2 acbe 664f 1bbe 152a 223f a0d6 51bd
000003d0: 079c 633e b65d d9be d0d8 b43e 4dc6 fcbe
000003e0: 5c1e d13d 8c2e e0be c5cb a3be 1509 11bd
000003f0: 1a5e 713f 3fdd a63d 9487 cebe c70a fe3e
-0.4409074 -0.023357706 0.61020035 -0.30275446 -0.21094628 0.30818847 -0.014412121 -0.22437793
-0.4496373 0.2236223 0.44829324 0.09510854 0.6839214 -0.11316168 -0.10412839 1.0322211
-0.03567322 0.119676635 -0.23701152 0.046252143 0.38449827 0.404362 0.6158736 -0.17492153
-0.1133982 -0.14847717 0.13718627 -0.5673358 -0.22027571 -0.14591585 0.21603997 -0.27380565
0.53651637 0.6447399 -0.18607683 -0.012955819 0.17829856 -0.29253072 -0.23427379 -0.42457235
0.018665953 0.21224134 0.5398662 -0.14598145 0.078396186 -0.039161477 0.21145858 -0.27850807
0.0013880961 -0.099676825 0.4168191 0.21982537 0.26942497 0.03338341 -0.2772545 0.6668337
0.7024334 -0.8304297 -0.18230377 0.15857936 -0.20641589 -0.34462118 0.71475863 -0.20171991
0.012904639 0.35693657 -0.3010381 0.50081867 -0.15426913 0.014917925 -0.43587515 -0.15203053
-0.09094111 -0.026415534 0.20673902 -0.41817543 -0.09846125 -0.0725583 -0.013414461 -0.6703097
0.19709875 0.1563674 -0.36461926 0.0821804 -0.22387107 -0.32228467 0.2120921 0.27706853
-0.1460086 -0.13800862 0.5054601 0.34466508 -0.22809836 -0.35075557 -0.12683868 -1.1619197
-0.5022744 0.5280237 -0.18422577 0.0284616 -0.60768944 0.24666399 0.538697 -0.21961914
-0.31397566 0.23283349 0.17639036 0.5846234 -0.071532674 -0.28599548 0.4170225 0.3269739
-0.6591309 0.13865112 -0.10824068 0.27016777 -0.4227033 0.56429917 -0.02837665 0.2517712
0.4560738 -0.30210415 0.7422468 0.18510675 0.12624736 0.47749087 0.17899331 0.5764775
0.07224788 0.042885702 0.5525195 0.007393342 0.34766272 0.10900956 0.025285479 -0.48646304
0.008902043 -0.40068513 -0.03063435 -0.15248305 0.7869934 0.21968435 0.36863655 -0.35210285
-0.018367698 0.35972697 0.5420506 -0.76569396 -0.121006936 -0.368421 -0.41594142 -0.087559275
0.55505306 0.6396665 -0.25000888 -0.16549784 0.48174712 0.03236701 0.38974082 -0.14867985
0.11476066 0.13468628 -0.6486654 0.11604783 0.016252909 -0.5658844 -0.97862625 -0.10834754
0.03381144 -0.08980792 0.91215587 0.18678595 0.19892351 -0.12316043 0.10967153 -0.7791897
-0.18285647 -0.15010855 0.3047166 -0.17832378 -0.15843894 -0.3243027 -0.1317042 0.017566642
0.011616955 0.22893609 -0.056174893 0.28225118 -0.25203574 0.03278135 0.50013965 -0.54988
0.03984202 0.07713544 0.57331306 0.060594786 0.26562825 -0.5972935 -0.31918296 0.113008685
-0.25082272 -0.39851567 0.55494034 0.048948795 0.43300602 0.23207387 0.35487032 0.115117945
-0.16124119 -0.6004347 -0.08976779 0.305207 -0.6347395 -0.26490322 0.23395012 -0.17112148
-0.5276626 0.5455243 0.21766908 0.07806734 -0.37781304 -0.18101624 0.21960518 -0.37553778
-0.3367922 0.31535956 0.010277725 -0.36925676 0.060515173 -0.33488056 0.23736823 -0.092928745
0.7986295 -0.14074636 0.18681207 0.28727618 -0.021924544 0.2901157 -0.52532333 -0.07949538
-0.3374205 -0.15167007 0.6334546 -0.051230073 0.22227488 -0.42454308 0.35321665 -0.4937004
0.10210869 -0.43785512 -0.319914 -0.035409052 0.9428421 0.08147668 -0.40337813 0.49617597

pi.pi_net.0.bias f4 [64]
00000000: c3af a83d 8bf3 0c3e c820 d3bc 7dce 54be
00000010: d4c9 1dbe 5001 463e 8379 f6bd 2c8e f2bd
00000020: 38cf 45be 755b 603c c0df fdbd 2e0d 9a3d
00000030: e823 bf3a 2e6e 18be 7d2c 623e 1416 e1bd
00000040: 5988 aebd b791 63bd f488 f23d 491a 093d
00000050: 1fab e3bc 9b46 8fbd 9c55 0a3e b504 11bd
00000060: fe1d 64be 07a5 3cbe 5f93 453c 2116 8b3d
00000070: 2353 00be 0fd3 e73d f303 03be c5f6 4c3e
00000080: 9eb1 d63d 5c44 83be 95d2 89be 3829 413e
00000090: 3def 663e 3d93 4dbe 542b 993d df62 a63d
000000a0: 261b f1bd c733 51be c9d8 703e 6012 90bd
000000b0: 7e16 a8bd 50fe 05be f170 0fbe 05f8 dcbd
000000c0: 57ab 103e c64f d1bb ad36 78be 81e0 e2bd
000000d0: eb62 b33d 2b75 803d af4d 413c 1627 bebd
000000e0: f9b0 f1bd 6c3f ee3d ced0 90be 8172 52be
000000f0: f771 66be f780 253b 038c 623e ab2c 59be
0.08236649 0.1376478 -0.025772467 -0.20781894 -0.15409023 0.19336438 -0.12034895 -0.118435234
-0.19317329 0.01369368 -0.123961926 0.07522045 0.0014582844 -0.1488578 0.22087283 -0.10990539
-0.085221 -0.055558886 0.11842528 0.033472333 -0.027791558 -0.06995889 0.1350922 -0.03540488
-0.22277066 -0.18422328 0.012059062 0.0679133 -0.12531714 0.11319553 -0.12794475 0.2001601
0.104830965 -0.25638092 -0.26918474 0.1886338 0.225522 -0.20075698 0.07478967 0.08124327
-0.11772756 -0.20429908 0.23520197 -0.07034755 -0.08207415 -0.13085294 -0.14007927 -0.107894935
0.14127861 -0.0063876836 -0.24239607 -0.11077977 0.087591015 0.06272348 0.011798306 -0.09284799
-0.11801333 0.116331905 -0.28284305 -0.20551492 -0.22504412 0.002525387 0.22123723 -0.21208446

pi.pi_net.2.weight f4 [64, 64]
00000000: 46fd 0d3e 9cde f6be ef3b cb3d 7755 083f
00000010: cb7f 9f3e a6fe 44bf 77fe 243e 78bd ba3e
00000020: ce08 823e db91 c0be 3637 04be f5b7 a5be
00000030: 8016 133f 30b1 c83d 809c cdbe f1a4 a4bd
00000040: 0b7a 18be 608d 743e 7a4b 4d3e 07ad 0a3f
00000050: b50c e03e a42a 633e 4eef 3fbd 4526 643e
00000060: 5565 5c3f cad4 793e c205 acbe 915c 15bd
00000070: e6bc 23be d10b 0fbe 2694 773d 3610 9ebe
00000080: 1cf5 e8be cda3 213e e95c 0a3d aee7 60be
00000090: 0155 b23d 3ca5 c43e b970 613c 5f7a d9be
000000a0: 9dd5 613e a777 0c3e 22e1 d4be f5c5 49be
000000b0: 4537 093f d67c 443e a959 8d3e d379 cc3c
000000c0: 9983 953c 4298 c4be 9ef9 2b3f a0df 94bd
000000d0: 7f2e 52bd f2ad 203f 7f0c 82be 2460 493e
000000e0: 2c2c 973e 5054 58be 9c27 893e ab51 f83e
000000f0: 4e6b 8d3e a06e 67be d2d0 2bbf 1183 723f
00000100: 65ce c93d 5436 c1bc 8368 06be 861e 76be
00000110: b682 0abe 5c9d 8b3e 6ddf cdbe f232 04bf
00000120: 341a fbbd 1bff 20be e77b 233e 1296 18bf
00000130: 4730 d33b 9b17 92be 3e20 eb3e e60d bebd
00000140: f1e3 66be e4bc dc3e 0b9b 6abc 2460 2b3f
00000150: f340 ae3d 5c9b 0a3d 2d4d 9c3d 5ae3 da3d
00000160: 896e 5dbe 2a81 c0bc 1175 40be 697d 053e
00000170: 3a2e e2bc 375b 39be e00c 2dbd 69f6 6a3e
00000180: 9d04 813e 6943 ba3d aac7 07bf 7a25 5a3e
00000190: bf38 79be b919 d7be 8e6b 65be 1363 843e
000001a0: 4d26 f23c d1fb 683e 68c6 de3e ecfe 273e
000001b0: 54cd 05bc 5c3d 4dbe 0918 a8bd 1146 a7be
000001c0: e6ff c93e 5f2b 093f ebde 05bf 28b5 c6be
000001d0: b0ed 16be 6563 a23e 33e7 23be fe5c f13d
000001e0: ec2c 82bd d53d 923e 02ba d0bd 2e3c b5be
000001f0: ffbb 813b 129c 973e bc16 a03e 3f7e f7be
00000200: 6cc9 37be 130f 73be f9fd fe3c bfdb 6dbf
00000210: aa1d c3bd e8af ad3d 5b3b 1d3f 858f febd
00000220: 0ff5 6abe 20b5 28bc 3c7f ddbe 0cb5 7bbe
00000230: 697d 8e3c 5358 0f3e 3021 a83f 9e92 47be
00000240: 3c0a a9bc 8559 59be e433 b83d 3506 3b3f
00000250: 36e0 59be 59b7 e5bd 9808 e3be f7f9 a13e
00000260: 0e9a fa3d a123 063e 1029 0fbf fc78 8a3e
00000270: ca47 53be 54df 8abe e60a 693e 5267 0e3e
00000280: 4428 cabe c113 253e 5c19 21bf cc67 453f
00000290: 46de 6f3e 6921 8bbe 67f7 1e3f 1e9c 043e
000002a0: 75bf d43d 079c 32bf 63a0 a3be 5c0a db3e
000002b0: 82e2 713e 82b4 1cbe 6595 1c3e 1a1b 20bf
000002c0: 9fbd 01be 8320 66be 2881 d03e 6017 69be
000002d0: 8439 6fbe 60b9 90bd 2622 d8be 0727 4c3e
000002e0: 1ec3 90be a9f9 f4be d3ba 743e 71e9 b23e
000002f0: c3f7 043f 8a6b d93e 0c09 bebe d3cb 473f
00000300: 6c24 d63b 37e4 81ba 26d4 93bd 391c 833e
00000310: 532d 0f3e db57 4ebe 4164 e83e 005e cb3e
00000320: 224f a73e 6e81 f93d 3165 87bd 3c44 21be
00000330: ecd7 643f 6846 cabe cf42 b33d ed83 a93e
00000340: 1a6d a73d 4e52 90be bb0d 82be 2935 c73d
00000350: d22e 913e acd2 ff3e faf8 dcbe dc9c 2b3e
00000360: 0c61 023f c6f5 9bbc 7e70 5c3e 3a6a 183e
00000370: a53b 2d3e c6d5 c7be 662e 853e dc54 b4be
00000380: a841 40bf d515 afbe 4db3 3a3e 23c7 ba3c
00000390: cf82 5d3e 2dac 083f f8ca 60be 2d76 e2be
000003a0: 9e2a ab3e 3ffd 83be fa68 2dbe 14ee c73e
000003b0: e95f f6bd fff1 7abd a88e 513e 1b26 523e
000003c0: 0510 4b3d 7a0e 57be 0a20 483f cbc2 1b3d
000003d0: 2cfc 8a3d f2de cd3e 970a 073e 4577 5abd
000003e0: 0534 df3d bb40 d2be bf37 8d3e f8f9 903e
000003f0: f72b f93d e590 0c3e d8d0 babe f072 28be
0.13866147 -0.48216712 0.09923541 0.5325541 0.31152186 -0.7695106 0.16112696 0.36472678
0.25397342 -0.3761128 -0.12911686 -0.3236691 0.5745621 0.09799421 -0.40158463 -0.080392726
-0.14890306 0.23882055 0.20048323 0.5417027 0.43759695 0.22184235 -0.046859078 0.22280224
0.8609212 0.24397579 -0.33598143 -0.03646523 -0.15990028 -0.13969351 0.06044402 -0.30871743
-0.45499504 0.15785141 0.033780012 -0.21963379 0.087076195 0.38407314 0.013759785 -0.42476174
0.22054143 0.13717519 -0.41578013 -0.19704421 0.5359996 0.19188246 0.27607468 0.024960434
0.018251227 -0.38397413 0.6717776 -0.072692156 -0.051313873 0.6276542 -0.2540016 0.19665581
0.29525888 -0.21125913 0.26788032 0.48499808 0.2762093 -0.22600794 -0.6711551 0.9473124
0.0985382 -0.023585476 -0.13125806 -0.24035081 -0.13526425 0.27268493 -0.40209523 -0.51640236
-0.12260857 -0.15722315 0.15965234 -0.5960399 0.006444964 -0.28533635 0.45923036 -0.09279995
-0.2254789 0.43112862 -0.014319192 0.66943574 0.08508482 0.03383957 0.076319076 0.10687895
-0.21624197 -0.02349909 -0.18794657 0.13036121 -0.027609933 -0.18101202 -0.042248607 0.2294556
0.25198832 0.09094889 -0.5303904 0.21303359 -0.24338053 -0.42011812 -0.2240431 0.25856838
0.029559279 0.2275231 0.43510747 0.16405839 -0.00816663 -0.20042938 -0.08207709 -0.32670644
0.39453048 0.53581804 -0.5229327 -0.38810086 -0.14739108 0.31716457 -0.16006164 0.11785315
-0.063562244 0.285628 -0.10191728 -0.35397476 0.0039591785 0.2961126 0.31267345 -0.48338506
-0.1794793 -0.23736219 0.031126963 -0.9291343 -0.09527142 0.08480817 0.61418694 -0.12429718
-0.22945045 -0.01029709 -0.43261135 -0.24580783 0.017393785 0.13998537 1.3135128 -0.19489524
-0.020634763 -0.21225555 0.08994272 0.73056346 -0.21276936 -0.112166114 -0.44342494 0.3163602
0.12236415 0.13099529 -0.5592203 0.2704543 -0.20632854 -0.2712351 0.22758064 0.13906601
-0.39483845 0.16120817 -0.6292932 0.77111506 0.23424634 -0.27173927 0.62096256 0.12950179
0.1038808 -0.6976933 -0.31958303 0.4278134 0.23621562 -0.15303233 0.15291364 -0.62541354
-0.12669991 -0.2247334 0.40723538 -0.22762823 -0.23361784 -0.070666075 -0.42213553 0.19936763
-0.28273863 -0.47846726 0.23899393 0.34943727 0.51940554 0.42464858 -0.37116277 0.78045386
0.0065351035 -0.0009909932 -0.072181985 0.2560747 0.13982134 -0.20150702 0.45388988 0.39720154
0.3267756 0.1218289 -0.066110976 -0.15748686 0.8939197 -0.3950684 0.08752977 0.33108464
0.08175106 -0.28187793 -0.254011 0.09726936 0.28356034 0.49965417 -0.43158704 0.16759056
0.5092933 -0.019038092 0.21527287 0.14884272 0.16917284 -0.39030284 0.26011962 -0.35220993
-0.75100183 -0.34196344 0.1823246 0.022800034 0.21631931 0.5338772 -0.21952426 -0.44230786
0.33430952 -0.2577915 -0.16934577 0.39048827 -0.12030012 -0.06126594 0.20464575 0.20522349
0.049575824 -0.21001616 0.7817389 0.038027566 0.06786379 0.40209156 0.13187633 -0.0533364
0.10898594 -0.4106501 0.27581593 0.2831571 0.12166589 0.13727148 -0.3648746 -0.16450095

pi.pi_net.2.bias f4 [64]
00000000: cc28 14be 315b 543e aa04 4fbe 60db 02be
00000010: 1f6d 483e f41a 2c3f 0fea 593e bc20 5abe
00000020: d78b 5ebe c8d2 63bd 9936 83bd 0572 ca3d
00000030: 02d2 78be 0426 863d f834 57be 8897 d9bd
00000040: 137b f33e adbf 93be 9a52 b9bd d1a1 8bbd
00000050: 97af 3bbd cad3 eb3d e2d0 033e 9ebd eabe
00000060: 7551 66be bc98 633e b396 ccbd 90ff 663e
00000070: cdd4 5c3e bf62 51bd 9d9b 61bd 40ef cd3d
00000080: 20b2 5f3e 696b 8cbd 310c dbbe ce11 373e
00000090: 46f9 d93d 7e68 523e 2f5a 783d a50f c43e
000000a0: c04a cd3d a9bf abbd 8ede 0bbe 02a7 e63d
000000b0: 65be 3bbe 5960 4a3e 3302 cabd 1b6d c03d
000000c0: 9cae 9d3e 2867 de3d 3a42 4dbe d79b b1be
000000d0: 15d3 a2bd 2276 d63d 0c04 df3c 029f 91bc
000000e0: 5024 e33d bfc9 ea3d 8513 a4be d6d7 ab3d
000000f0: 35c3 17be 54ad 47bd 09ba 66bd 9922 a73e
-0.14468688 0.20737912 -0.20216623 -0.12778997 0.19572876 0.6722863 0.21280693 -0.2130155
-0.21733032 -0.05562094 -0.06406898 0.09885029 -0.24298862 0.0655022 -0.210163 -0.106246054
0.47554836 -0.28857175 -0.09048958 -0.068179734 -0.045821752 0.11515005 0.12872651 -0.4584779
-0.22492011 0.22226232 -0.09989681 0.22558427 0.21565552 -0.051119562 -0.055080045 0.10055399
0.21845293 -0.06856424 -0.4278274 0.17877886 0.10643248 0.20547673 0.06063288 0.38293186
0.10024023 -0.08386166 -0.13659117 0.11262323 -0.18334348 0.19763316 -0.09863701 0.0939581
0.3079728 0.10859519 -0.20044795 -0.3468921 -0.07950417 0.10471751 0.02722361 -0.017776016
0.110909104 0.11464261 -0.32046142 0.08390777 -0.1482056 -0.048749283 -0.05632976 0.32643583

pi.pi_net.4.weight f4 [256, 64]
00000000: d496 b83f 5c1a 33bf b0c5 a2be aa28 833f
00000010: e8ee f4be bf7c 12be 13be d4bd 6a97 633f
00000020: e808 483f 6bdf 1d3f e47b 653f 759f eabe
00000030: 5781 e5bd a834 86be a99c 8d3f 63a0 273f
00000040: d9bd c9bc c4e7 62be 334e 1e3f c1cf 033f
00000050: 19c4 2d3f 641c 0bbf f5e6 07bf a244 31bc
00000060: 1269 833f cd92 c1bc da82 8cbe 9da5 a6bf
00000070: 0bce 453e b508 de3e e2c6 08bf a9e8 a13d
00000080: b358 2fbf d27a 0b3f e31d ea3d 7718 83bf
00000090: 4630 f8be 86e8 823e 9454 12bf 09b6 ce3e
000000a0: d251 ddbe 9ff2 bf3f b139 a6be 07ec b2be
000000b0: f38e 5e3f b8f3 b5be 39df aa3e 6611 b0be
000000c0: 5537 f5bc ce33 bdbe cd27 923f 9a88 e9bd
000000d0: 030b cdbe 1721 0abf fb21 953e f97c be3e
000000e0: 0e34 5abf ddb0 1abf 31d1 3bbe 7f02 1cbf
000000f0: 534a 6fbd 0390 b8be 795b 503e b71f 7b3e
00000100: a302 323e 5e47 86bd 6e5b f53e 4709 b5be
00000110: 2206 bfbe 640b 45bf b65c 58bd 8739 50be
00000120: 757a 38bc 7bf8 73be fa63 2fbd e206 7a3e
00000130: 8b08 703f d105 2a3e 46d4 75bd ca8d 8abe
00000140: 29d3 0bbf aeec 163f fb58 02bf 8205 b1be
00000150: 534b 2fbe 70c2 0b3d 832f 9e3e 1364 a03e
00000160: e97f f43e 1b2a 89bf 3a6a 9a3e d1a1 b8be
00000170: 60a1 30bf cc1b a6be a7dd ff3e 2cbd d2be
00000180: c138 ab3e 7db8 5ebe 9d92 183e fc2d fc3e
00000190: 96f6 9c3d 9ba1 54bf c47b 183f d30a e2be
000001a0: 4958 b33d d04d 3fbe de12 013f 9ea3 323e
000001b0: b527 123a 76c3 573e 2baf 113e c37d cd3d
000001c0: df2b b0be 9814 1e3e 075b 3cbe 8e1f 0b3f
000001d0: bd5c ff3e 60f2 c83e d328 0fbe 0e4e d7be
000001e0: 6dd0 b73e fd0a 9cbd aecf bb3e b863 983e
000001f0: 5765 de3b 472c 093f bb15 39be 5edb f8be
00000200: b1d2 b73e 5772 003f 6401 b13e c7e4 38bf
00000210: ae4e d6be 0f03 77bf 7caf edbd 992b 67be
00000220: 8346 793d 1533 2d3e 8ba8 d0bd f808 3c3e
00000230: e773 2d3f 4228 183e 4352 61bd 0865 74be
00000240: 79ad 54bf dd46 f53e 3678 64bf 6483 f6bd
00000250: e0ac 7ebe e7b4 ae3d f28f efbd 279b 063f
00000260: 91a7 a43d 1f24 47bf c589 e33e 1f66 9bbd
00000270: 7c5d 45bf 8a2f c2be 4300 323f 6506 3fbe
00000280: 46e5 223e 06d6 0bbe e7d7 923e 8bcb 903e
00000290: ef70 f7bd 2945 52bf 5b4c 073f d7d6 b3be
000002a0: 5332 fd3d 233e 72bc e241 d53e 867b 07bd
000002b0: 82dc 7f3e bdcd 443e a3e8 81be 478b c93e
000002c0: 47da dfbe 3f31 27bd 67fa 18be 0459 573f
000002d0: e88d 0a3f 0dc3 fd3e 784d aabd 11a9 6bbe
000002e0: 2853 9b3e acc9 b5be ba1d 943e 699b 133e
000002f0: b92e 83be 87e8 6e3f 71b1 c1bd 3a2d 11bf
00000300: 964c 193e 283f 2dbd 210f 9b3e 343e a3be
00000310: b7e9 debe a193 88bf 750a 09be 07b9 9cbe
00000320: 9930 b7bd 351d 5d3d e0e2 613d 6f83 063e
00000330: c663 163f 2726 7bbc bf2d b0bc 10e4 303d
00000340: aa23 24bf e5fa 113f c9e3 3fbf 86c1 98be
00000350: 2e22 77be 58b1 80be 7217 113e eb92 dc3e
00000360: 0c11 803e a505 70bf 7a1a b03e 512c 72be
00000370: 13bb 2abf abc5 89be ca3f 153f 4981 58be
00000380: e47a 093e 35cc adbe a513 a03e 1fad f33e
00000390: b7ee 453e 9592 2fbf 764a 163f 4329 eabe
000003a0: 9308 333e e943 61bd 081b c83e 06ee 33be
000003b0: ec07 8b3d 7858 d13d d473 77be aed2 893e
000003c0: caca 21bf 6b09 26bd 408e e1be d168 253f
000003d0: b817 3b3f b51e f03e 9ebb 15bf 0b03 3ebe
000003e0: 88c2 95bb f6b1 95be 68bd 0a3e 9323 133e
000003f0: d3d6 5c3a dd1d 1d3f 4abf 64bd 2fd3 14bf
1.4421029 -0.69962096 -0.3179145 1.0246785 -0.4783852 -0.143054 -0.10387816 0.88902915
0.7813859 0.61669034 0.8964217 -0.4582478 -0.1120631 -0.2621205 1.1063434 0.65479106
-0.02462666 -0.22158724 0.6183807 0.5148888 0.67877346 -0.54340196 -0.5308679 -0.010819586
1.026644 -0.02362957 -0.27443582 -1.3019291 0.1931688 0.43366018 -0.5342847 0.079057045
-0.6849472 0.54484284 0.11431482 -1.0241841 -0.4847433 0.25568026 -0.57160306 0.40373257
-0.43226486 1.4995917 -0.3246589 -0.349457 0.86936873 -0.35537505 0.3337343 -0.34388274
-0.02993361 -0.36953586 1.1418396 -0.11403008 -0.40047464 -0.5395674 0.29127488 0.37204722
-0.8523568 -0.6042612 -0.18341519 -0.6094131 -0.05842049 -0.36047372 0.20347394 0.24523817
0.17383818 -0.06556581 0.47921318 -0.3535864 -0.37309366 -0.76970506 -0.05282279 -0.20334445
-0.011259665 -0.23825257 -0.042819954 0.24416688 0.93763036 0.16603781 -0.060016893 -0.270613
-0.5461908 0.58954895 -0.50917023 -0.34574515 -0.17118578 0.034120977 0.30895624 0.3132635
0.47753838 -1.0715975 0.3015917 -0.36060956 -0.6899624 -0.32443082 0.49973795 -0.41159952
0.33441737 -0.21750064 0.14899679 0.49253833 0.0766422 -0.8305909 0.5956385 -0.44148883
0.087570734 -0.18682027 0.50419414 0.17445228 0.0005575375 0.21070656 0.14226978 0.10033753
-0.3440847 0.15437543 -0.18394099 0.54345024 0.4987544 0.39247417 -0.13980417 -0.42051739
0.35901204 -0.07619283 0.36681885 0.2976358 0.006786983 0.53583187 -0.18074696 -0.48604864
0.35902932 0.5017447 0.34571373 -0.72224087 -0.41856903 -0.9648904 -0.116057366 -0.22575225
0.06085826 0.16914017 -0.10188397 0.18362796 0.6775498 0.14859107 -0.05501009 -0.23866665
-0.830772 0.47905627 -0.8924593 -0.120367795 -0.24870634 0.08530598 -0.11697377 0.52580494
0.08039773 -0.7778949 0.44441047 -0.075878374 -0.7709577 -0.37926894 0.6953165 -0.18654783
0.15907773 -0.13655862 0.28680345 0.2828029 -0.12082087 -0.8213678 0.52850884 -0.35124847
0.12363114 -0.014785322 0.41651827 -0.033076786 0.24986461 0.19219108 -0.253728 0.39364073
-0.4372122 -0.04081845 -0.14939271 0.841202 0.5412278 0.49562874 -0.08315557 -0.23013712
0.3033688 -0.35505426 0.2892893 0.14414753 -0.25621584 0.9332356 -0.094576724 -0.56709635
0.14970621 -0.04229656 0.3028498 -0.31883395 -0.43537685 -1.0670053 -0.13382895 -0.30609915
-0.08944816 0.053982932 0.055148005 0.13136075 0.5874599 -0.01532892 -0.021506188 0.043186247
-0.6411692 0.5702346 -0.7495695 -0.29835147 -0.24134132 -0.25135303 0.141691 0.4308084
0.25013006 -0.9375861 0.343952 -0.23649718 -0.666917 -0.2690862 0.5830046 -0.21143068
0.13425785 -0.3394486 0.31264988 0.47593018 0.19329344 -0.6858304 0.5870737 -0.45734605
0.1748374 -0.054996405 0.39083123 -0.17571267 0.0678862 0.10221952 -0.24165279 0.26918548
-0.63200057 -0.040536325 -0.4405384 0.6461306 0.73083067 0.46898428 -0.58489406 -0.18555848
-0.004570309 -0.29237336 0.13548815 0.14369039 0.0008424345 0.6137369 -0.05584649 -0.5813474

pi.pi_net.4.bias f4 [256]
00000000: ae39 f13d afeb 65bf 5980 6bbf f93d 64bf
00000010: 391c 71bf 6f52 81bf 494f 76bf 783c 7cbf
00000020: c2d2 5cbf 4f93 62bf a869 71bf 5a5d 5fbf
00000030: 6134 7abf d576 68bf 72cc 67bf fcfe 64bf
00000040: 1ad4 76bf 959e 3bbf 01f4 6bbf 5c15 5ebf
00000050: e91f 6bbf bc9c 8e3d 7a92 58bf 4c80 5fbf
00000060: 61d1 6cbf c02b 79bf d713 76bf 876a ffbe
00000070: cd62 49bf b570 60bf aae1 80bf 1255 70bf
00000080: 2d12 67bf 123b adbd 750f 6fbf c71d 7abf
00000090: 9d99 82bf f89d 5fbf b551 52bf 3ee8 71bf
000000a0: 6033 70bf 3286 ccbd b61b 72bf b0e7 2ebf
000000b0: cf99 6abf c25f 85bf bf5e 78bf 9159 63bf
000000c0: e927 4abf 14b9 6dbf 8399 01bf 6d3f 82bf
000000d0: e629 62bf ec53 65bf eb64 4cbf 464d 5bbf
000000e0: cfdf 68bf 958c 6dbf 1eab 72bf 7566 65bf
000000f0: 9ac3 61be 8a59 72bf 316a 43bf 4f3c 83bf
00000100: ec97 66bf 6d2e 47bf c966 6dbf e78e 34bf
00000110: 202e 68bf 1ee1 6dbf 157f 6ebf 7349 69bf
00000120: 3d76 7fbf b8ba 55bf 42d5 65bf 661f 6abf
00000130: 9a02 75bf f55e 5fbf 29d9 69bf 7580 7dbf
00000140: 1ee6 6bbf e5cf 6cbf f93e 62bf 8e68 7fbf
00000150: 6088 7abf 9826 70bf 7d19 5abf cb4b 6cbf
00000160: 71a0 75bf b189 17be 542e 77bf 464c 5b3c
00000170: b2fd 83bf a3e7 6bbf 9550 69bf 4e0f 6dbf
00000180: de08 5dbf d88a f03e 6b33 83bf 8251 5fbf
00000190: 7539 71bf 68d0 7bbf d757 70bf 6470 4dbf
000001a0: c733 4cbf 3568 64bf 8652 78bf 9c5c 0bbf
000001b0: 3f30 4dbf a067 86bf 3d5a 5dbf f7e3 72bf
000001c0: 6318 d6bd 2d13 78bf 1ab1 3cbf 1b9c 69bf
000001d0: 3a52 52bf 37d3 6dbe 1dff 59bf 214d 56bf
000001e0: 817a 67bf 8316 19bf 56d8 5ebf d8da 6dbf
000001f0: f4c3 5bbf 33f5 66bf cf37 7abf 283b 7fbf
00000200: afec 69bf 3196 74bf 152b 47bf b467 6ebf
00000210: 2cf8 60bf 58d1 6bbf bd44 0eb9 eb8a 6abf
00000220: 4849 6bbf c7f4 18bf 7f4c 82bf a1d6 4dbf
00000230: ff3c 62bf 0eac 73bf ecfc 68bf 896e 84bf
00000240: 85fb 1fbf fcde 50bf bc4e 65bf c67f 69bf
00000250: 3533 8bbf a2f6 5ebf 8679 52bf f2b6 5cbf
00000260: 9d32 67bf 2a77 60bf 5c39 71bf 16f8 76bf
00000270: ae59 43bd 1dff 84bf fa43 81bf bd7a 74bf
00000280: af45 f4be 3dcd 5dbf f949 45bf b22c 58bf
00000290: 2104 6dbf 4fd8 7d3c d55a 59bf a52e 6dbf
000002a0: 199a 7fbf ac6a 64bf c8fd 1abe 11b9 67bf
000002b0: 9d13 65bf 9461 6fbf ae7d 32be 089a 0dbe
000002c0: 19d9 57bf a494 66bf 5475 82bf ed4f 6abf
000002d0: 3ee0 7f3d 97a8 49bf f749 41bf 0e32 70bf
000002e0: cd66 5ebf 4df2 67bf e9cc 6bbf 25f1 79bf
000002f0: fd56 55bf c52f 57bf cc8e 73bf e505 45bf
00000300: 0b33 30bf 2e68 53bf 22d4 4ebf 636b 5ebf
00000310: d68e 6dbf bfe8 62bf db0e 3ebf 7932 58bf
00000320: 80b9 49bf 6714 83bf 372e 63bf b11f 04bf
00000330: 41c6 63bf 8425 66bf 03e7 61bf 67b2 83bf
00000340: eb29 4cbf 0fc0 85bf c1f2 5dbf 1f68 72bf
00000350: a9c4 3fbf 22b1 ba3c 6274 25bf 5243 70bf
00000360: cd9a 53bf dec3 4cbf 4277 74bf eaf7 41bf
00000370: 142d 1fbf 4b6b 4fbf 526b 3fbf 04ba 57bf
00000380: 72b6 52bf 4f90 77bf 2aee 72bf 7b7e 81bf
00000390: 144c 16bf 9ae3 6fbf ff74 5dbf 6879 64bf
000003a0: f606 49bf dbe9 58bf 91f0 2abf c4d2 64bf
000003b0: 82dc 6ebf 902d 68bf 91c3 4bbf f129 48bf
000003c0: c9df 0dbf 7c97 3cbf de14 60bf ed1b 5abf
000003d0: b063 43bf d5df 4abf 3d06 7ebf d41b 5bbf
000003e0: 89c7 7ebf bf55 72bf c419 7bbf 7b14 78bf
000003f0: d3b6 36bc c2a4 74bf f687 59bf 368b 75bf
0.1177858 -0.8981275 -0.9199272 -0.8915706 -0.9418369 -1.0103282 -0.9621473 -0.9852977
-0.8625909 -0.88506025 -0.94301844 -0.8725182 -0.97736174 -0.90806323 -0.90546334 -0.89451575
-0.9641739 -0.7328885 -0.92169195 -0.8675134 -0.91845566 0.069634885 -0.84598505 -0.8730514
-0.92506987 -0.9733238 -0.96124023 -0.4988596 -0.78666383 -0.8767198 -1.0068867 -0.93879807
-0.9026211 -0.084585324 -0.9338296 -0.97701687 -1.0203129 -0.87350416 -0.82155925 -0.94495
-0.9382839 -0.09986533 -0.94573534 -0.6832228 -0.91640943 -1.0419848 -0.9701957 -0.8880854
-0.7896715 -0.9286053 -0.50624865 -1.0175606 -0.8834518 -0.8958118 -0.7984149 -0.85664785
-0.90966505 -0.92792636 -0.94792354 -0.8960946 -0.22047272 -0.94667876 -0.7633391 -1.025278
-0.90075564 -0.77805215 -0.9273496 -0.7053055 -0.9069538 -0.92921627 -0.9316266 -0.911277
-0.9978979 -0.83488035 -0.8977853 -0.9145416 -0.95707095 -0.8725427 -0.91346985 -0.99024135
-0.92148006 -0.9250472 -0.8837734 -0.9976891 -0.9786434 -0.9380889 -0.8519514 -0.9230315
-0.9594794 -0.14798619 -0.96555066 0.013384884 -1.0311797 -0.92150325 -0.91138583 -0.9260148
-0.86341655 0.4698093 -1.0250067 -0.87233746 -0.942283 -0.9836488 -0.9388403 -0.8024962
-0.79766506 -0.8922151 -0.9700092 -0.54438186 -0.8015174 -1.0500374 -0.8646582 -0.94879097
-0.1045387 -0.9690426 -0.73707736 -0.91253823 -0.8215672 -0.23225103 -0.85154897 -0.8371144
-0.904213 -0.59799975 -0.8704885 -0.92912054 -0.85845876 -0.90217894 -0.9774141 -0.9969964
-0.91376776 -0.95541674 -0.7780011 -0.9312699 -0.8787868 -0.9211631 -0.00013567782 -0.9161822
-0.91908693 -0.597485 -1.0179595 -0.8040562 -0.8837432 -0.9518441 -0.9101093 -1.0346233
-0.62493163 -0.8159025 -0.89573264 -0.9121059 -1.0875002 -0.8709508 -0.8221668 -0.8621665
-0.90311605 -0.8768183 -0.9422815 -0.964723 -0.047692947 -1.0390354 -1.009887 -0.95499784
-0.47709414 -0.86641294 -0.77066 -0.844432 -0.92584425 0.0154934665 -0.84904224 -0.926493
-0.9984451 -0.8922527 -0.15135872 -0.90516764 -0.8948305 -0.9350827 -0.17430755 -0.1382829
-0.8431564 -0.9007056 -1.0192056 -0.9152821 0.062469713 -0.7877287 -0.75503486 -0.9382638
-0.8687561 -0.90604097 -0.92109543 -0.9763358 -0.8333586 -0.84057266 -0.95139766 -0.7696212
-0.68827885 -0.8258084 -0.8079244 -0.8688261 -0.92796075 -0.8863639 -0.7424142 -0.84452015
-0.78798676 -1.0240601 -0.88742393 -0.5161086 -0.88974386 -0.89900994 -0.8824312 -1.0288819
-0.7975146 -1.0449237 -0.8669854 -0.94690126 -0.74909455 0.022789542 -0.6463071 -0.9385272
-0.8265808 -0.7998637 -0.95494473 -0.7576891 -0.6217816 -0.8102309 -0.7477313 -0.8426821
-0.8230964 -0.9670457 -0.9489466 -1.0116724 -0.58709836 -0.9370667 -0.86506647 -0.8924775
-0.78526247 -0.84731835 -0.66773325 -0.893841 -0.9330522 -0.9069452 -0.79595286 -0.78189
-0.55419594 -0.73668647 -0.8753184 -0.8519886 -0.76323986 -0.7924779 -0.9922827 -0.8558934
-0.99523216 -0.9466209 -0.9808619 -0.9690625 -0.011151987 -0.955639 -0.84973085 -0.95915544

v.v_net.0.weight f4 [64, 5]
00000000: c191 0abe 27f2 343e ebcf 76bd c438 d6be
00000010: c695 9fbe 3566 58bf 81a0 44be b979 513f
00000020: f6df 60be 6afa d23e dc4e c6be f310 a6be
00000030: 79ec eb3e a195 063e ef74 e43e a109 d43e
00000040: a9ca 69be 45f8 d43d e196 a53e cda6 e63e
00000050: 08da db3e 0f71 243f 44c6 2a3f 7d9c b4be
00000060: a449 46be 777f abbe d68a 86bd 1340 cdbe
00000070: b1e2 dcba dfed 2f3a 2c2a 58bf cf1b 24bb
00000080: 8f8d 353f fc10 3bbe 5496 283e 3b76 1e3f
00000090: dc1f a9bb 2f06 7a3e cb01 2bbe 5636 d23e
000000a0: ff44 9f3e 34b2 343e f4d3 58bd 2f3b 223f
000000b0: 4f14 bebe fa7a 2f3e 28d5 953e bf1b b53e
000000c0: 8181 993e d99a 4a3f 71b8 bfbd ec83 dabd
000000d0: 65e1 48bd b9df 17bf 731a 4bbf 8699 2d3f
000000e0: 36f9 15bd 6f7b 36bf 19e3 6d3e 2930 d1bd
000000f0: 4976 333f 398b 66bd 3b4b 2dbe 0eac 95be
00000100: 5b00 563d 68a3 e13e af62 093e 0402 343d
00000110: f602 233e 130f b03d c1bc 68bf 1204 113e
00000120: 136d 2cbf 3853 10bf 1f19 c6be 31ff 01bf
00000130: d053 4b3c 7c0a 92be b8e3 61bc 9059 b5bd
00000140: 63ea a6bf 141f be3e 73ba 933e ddd7 e63d
00000150: 8b8b 2d3e fa13 0cbf fc0c d1bd 7a64 97be
00000160: add2 69be 3bf4 23bf 88fc 163f 718b 123f
00000170: 2e41 0e3e 4069 d43d b16b f53e 4a96 eebe
00000180: 7c35 b93e 58b8 dfbe 9e87 c3be 5eff 60bd
00000190: d220 abbe 72f0 863e 86c9 b8be 1aac e1be
000001a0: 2220 43bd 5735 10bf 57a1 a63e 6c8b f1be
000001b0: f948 3dbe 21cc 183d cb83 8abc 5bc0 3a3f
000001c0: 4910 843e b938 c6be f599 6fbe ccb8 913d
000001d0: dd33 65be 0bf4 393f 9cfd 743f 77ca 1b3f
000001e0: 7157 1a3f 3fd3 98be 4a12 6a3e 8de7 0d3f
000001f0: 399d 853d 4df0 d1be 4736 22be b5ae ca3e
00000200: 2b7a 233c 97c6 ba3e 1f7d 363f 0f7e d13e
00000210: 4cf0 1bbe 79ec 05bf 0bb3 ec3d fdbb 0bbf
00000220: 0561 ddbe 748e 803e 751a 9d3e f8da 753c
00000230: f398 41be 6f1d 933c 4eb5 c2be c735 0c3e
00000240: 94b4 d63e 0a18 0dbf 4e57 02be 38ee 27be
00000250: a875 d43e da0b c73e b90e 6bbf fedc 0abe
00000260: 2bc4 e23e f7e8 f63d 87e7 bcbd b112 f43e
00000270: c6ba 80be b659 ee3e 4041 a83d 37da ce3d
00000280: 1816 80bf 9e5a 34be a21c 1f3e d234 1e3f
00000290: 63fa df3c ff77 aabe 619d abbe f5ae 5fbe
000002a0: acf9 e1be 3b4b 80be e5e0 15be a69c 95be
000002b0: b0fc 343d 1720 9d3d 4f01 cabc a0cc 3e3f
000002c0: 5cc1 c4bd 63b9 f33c bf82 893e 4a18 453c
000002d0: 190e df3e c702 243e 1ceb a03e 43cb bcbe
000002e0: 1d13 c73e 29ef d13e ec26 c3bd a046 2c3e
000002f0: a4dd ae3e 0463 f63d 92e9 0b3f b5b3 babd
00000300: 13bb 1a3e 3233 7d3e f265 9c3d e154 29bf
00000310: 4eee 213e 9140 b7be 7fb3 56bd 72ad 8a3d
00000320: e32d eb3e 7ddd a43d 8143 fcbc 7b8b ef3e
00000330: bd3a 4e3e f2c1 ff3e 7cfa 733e e403 523f
00000340: 635d 063e f362 bf3d 7788 4dbf bab2 16be
00000350: 1a0c 81be 65c2 92be a9cd d0be 42f9 343f
00000360: c2ba 9bbd 9326 003e 944d 213e 7ed8 013d
00000370: 0eb6 48bf 8e78 60bc 2364 063e 0698 21be
00000380: 96d2 d3be cd6c a23f 8189 353f def9 2a3f
00000390: 20d1 2f3e c130 853e abcd 78be 50ea 0cbd
000003a0: cb96 e3be 18cb 1dbe eef2 88bd 1d56 1e3f
000003b0: 5f85 74bc ff70 3fbe cdd9 c0be 65e5 8b3e
000003c0: 77e7 1a3e 5ae9 36bd 1806 b23e bac1 203e
000003d0: 114e 50be 1258 24bf c866 7b3d 0e35 9abc
000003e0: a3a3 8bb9 e574 9b3e 47a8 1b3f a363 953e
000003f0: a14e f5be 990c 8ebe e79a bdbe 7adc 86bf
-0.13532163 0.17670499 -0.06025688 -0.41840184 -0.31168956 -0.84530956 -0.19201852 0.8182636
-0.21960434 0.41206676 -0.3873204 -0.32434806 0.46078852 0.13143016 0.44620463 0.41413596
-0.22831215 0.10398916 0.32341674 0.45049134 0.42939782 0.64235014 0.6670878 -0.3527564
-0.19364029 -0.33495685 -0.065694496 -0.40087947 -0.0016852227 0.0006711166 -0.8443935 -0.002504099
0.70919126 -0.18268198 0.16463596 0.61899155 -0.0051612686 0.24416421 -0.16699903 0.4105708
0.31107327 0.17646104 -0.05293651 0.63371557 -0.3712487 0.17136756 0.29264188 0.3537273
0.29981616 0.7914253 -0.09361351 -0.10669693 -0.049043078 -0.5932575 -0.79337233 0.67812383
-0.03661462 -0.71282095 0.23231162 -0.10214264 0.70102364 -0.056285117 -0.1692323 -0.2923283
0.052246433 0.44069982 0.13416551 0.043947235 0.15919098 0.08596625 -0.90913016 0.14161709
-0.67353934 -0.5637698 -0.3869104 -0.50780016 0.012410119 -0.28523624 -0.013787203 -0.08854973
-1.3040279 0.37133086 0.28853187 0.112716414 0.16947763 -0.5471798 -0.10207555 -0.29568845
-0.22834273 -0.6404454 0.5897908 0.5724402 0.13892052 0.10371637 0.47933725 -0.46599036
0.36173618 -0.4369533 -0.38189405 -0.054931037 -0.33423477 0.2635532 -0.3609125 -0.44076616
-0.047638066 -0.5633139 0.32544968 -0.47176683 -0.18484868 0.037304047 -0.016908547 0.7294976
0.25793675 -0.3871515 -0.23398574 0.07115325 -0.22383066 0.72638005 0.9569948 0.6085581
0.60289675 -0.29848668 0.22858539 0.55431443 0.065241285 -0.41003647 -0.15841018 0.39586416
0.009977858 0.36479637 0.7128467 0.40916488 -0.15228385 -0.52313954 0.11557587 -0.5458372
-0.43238083 0.25108683 0.30684248 0.0150058195 -0.18906002 0.017958371 -0.3802895 0.1369239
0.41934645 -0.55114806 -0.12728617 -0.16399467 0.41496015 0.3887623 -0.9181934 -0.13560864
0.4429029 0.12056153 -0.09223848 0.4767051 -0.25142497 0.4655282 0.082155704 0.10100215
-1.0006742 -0.17612693 0.15538266 0.6179935 0.027341073 -0.33294675 -0.33518508 -0.21844085
-0.44135797 -0.25057396 -0.14636572 -0.29221076 0.044186294 0.07672136 -0.024658827 0.7453098
-0.09607193 0.029751485 0.26857564 0.012029717 0.43565443 0.16016684 0.31429374 -0.36873826
0.3888177 0.41002777 -0.09528908 0.16823816 0.34153473 0.120306045 0.54653275 -0.09116308
0.15110426 0.2472656 0.07636632 -0.6614514 0.15813562 -0.35791448 -0.052417275 0.06771363
0.45933446 0.08050058 -0.030793907 0.46786103 0.20139594 0.49952656 0.23826021 0.82037187
0.13121562 0.09345045 -0.80286354 -0.14716616 -0.25204545 -0.28663936 -0.40781906 0.7069284
-0.076039806 0.12514715 0.1575225 0.031700604 -0.78402793 -0.0137006175 0.13124137 -0.15780649
-0.41371602 1.2689453 0.7091294 0.6678752 0.17169619 0.2601376 -0.24297206 -0.034403145
-0.44450983 -0.15409505 -0.0668696 0.6185015 -0.014924376 -0.18695448 -0.3766617 0.27323452
0.1512736 -0.044656135 0.34770274 0.15698901 -0.2034228 -0.64196885 0.061377317 -0.018824127
-0.00026634065 0.3036262 0.60803646 0.2917758 -0.47911552 -0.27743986 -0.37032244 -1.0536034

v.v_net.0.bias f4 [64]
00000000: 5d3c 663e 3037 45be 0b64 e7bc 4ace a8be
00000010: a3af 4a3f e88f 8c3e b85b f4bd aded bdbe
00000020: 4a1d 77be 6cc1 183e 4b12 0c3e 014b 073e
00000030: a8a4 df3c c839 3fbe b237 41bf 6df7 cd3e
00000040: b205 96be 15d2 6bbf f3e2 133f 086a 7e3e
00000050: 1671 193f 88df 363e 663b 0f3f bc1d 333e
00000060: 9d21 31be 2527 8e3c 4577 8a3b ff39 6f39
00000070: 2f3d c63d 1416 33bc 4bb3 90bd aed4 93bd
00000080: a178 f4bd 128c 683d 87cb 3b3e 190f 76be
00000090: d216 06be f79b 28be 3667 85be e578 833e
000000a0: e69a 45be f30c ffbc 1b98 1039 1a25 a8be
000000b0: 15fa b33e 9eb1 943f bfc4 5f3e 7865 65bd
000000c0: 25b9 41be fde4 47bd 949e 5c3d b29a 86bf
000000d0: c0f6 2d3f bacc 9d3e c23d 5a3e 4636 03bf
000000e0: 2be7 35bf 17df 1d3f 9519 213f 26e7 46bf
000000f0: 4972 bd3e 00b9 823f 0be9 cbbe ebdb 4abe
0.22483964 -0.19259334 -0.028245946 -0.32969886 0.7917425 0.27453542 -0.119315565 -0.37095395
-0.24132267 0.14917535 0.13678853 0.13212205 0.027300194 -0.18674386 -0.7547561 0.40227833
-0.2930122 -0.92117435 0.5776817 0.24845135 0.5993818 0.17858708 0.5595001 0.17491812
-0.17297979 0.01735265 0.004225644 0.00022814421 0.096796386 -0.010930557 -0.070654474 -0.072183
-0.11937071 0.056774206 0.18339358 -0.24029197 -0.13094643 -0.16465746 -0.26055306 0.25678173
-0.1929737 -0.031134104 0.00013789574 -0.32840806 0.35151735 1.1616704 0.21852396 -0.05600497
-0.18918283 -0.048802365 0.05386217 -1.0515959 0.67954636 0.30820256 0.21312621 -0.5125469
-0.7105586 0.61668533 0.6292966 -0.77696455 0.37001255 1.0212708 -0.39826235 -0.19810455

v.v_net.2.weight f4 [64, 64]
00000000: 5e44 c43e db80 1a3c f8df 9e3d 0e5a 0e3d
00000010: 80a0 363f ae7c f43e d580 50bc d55c e5be
00000020: d938 7abe c3b1 af3e a270 31be c1aa 293d
00000030: f9ea 993e 27ed 623d a344 10bf 7161 163f
00000040: 1dd0 4ebf db59 14bf 5242 5e3e e4c4 e3bb
00000050: a9e1 163f e9f1 bc3d 5d6a 243f ec4d 3e3e
00000060: 6d15 99be 8514 ed3d be89 3c3f ccbb 71bd
00000070: 6e50 69bc 3d62 833d b952 57be 087e 373d
00000080: 368d f4be afdb e9be 8f2a 1b3e bbbd 313c
00000090: b000 2e3e 2bc6 d73e ecc0 9c3e 6431 533e
000000a0: f1d8 6bbd b442 113f 54fd 22be c046 0cbe
000000b0: c2ec 963e bbd0 763f 273c 3fbe da66 073e
000000c0: a0b4 563e 3df8 f8be ac62 313e 1d05 ebbe
000000d0: 2ea7 183f f094 e33d 9c16 383e 9791 dabe
000000e0: e74d 13bf 3e9e fb3c 0a97 943e 7160 dcbe
000000f0: 53bc 0f3f 1ed1 523e 4638 06bf eb6a 6abc
00000100: fca7 bf39 77d7 8fbe bb94 853e e778 df39
00000110: 32c6 21be 95a3 c7bd f57f 073e 775f d53e
00000120: c944 573e 3390 c43e 2ef4 11be 80e3 98bc
00000130: 3300 713e 16eb 29be 29d9 e0be 8469 14be
00000140: fce3 18bf 80a5 d8be 8d99 0e3f 159f a4be
00000150: 3502 04bd c6f3 1c3e c060 c8be f9f0 2fbe
00000160: 5c2b c93e 9f35 f5bd e528 f93e 7801 9fbd
00000170: 82f8 b63d ce3c d3bd 8854 0dbf 10fa 16be
00000180: cc28 97be 1dec cebe 5da8 adbe d7ba e63d
00000190: ea7d e63e ba16 233c deb9 c33e 067c 31bd
000001a0: d2df 313e 5496 923e 5d62 1bbe 93f0 d83e
000001b0: 8f1e 40bd 5388 f5bd b3bf c9bd 65c1 b3bd
000001c0: 2b56 b5bd 7f1d a4bd 9740 943d 32d0 cfbe
000001d0: 62be 473e f760 98bd ec2b 0a3e bc1e bf3e
000001e0: 3afe 96be 8cec 123e dde9 a53d 1fac 84be
000001f0: 670a 333e 6e96 ab3e c0a1 3abd 184a 633f
00000200: 24db 463f 1ad7 71be f11c eb3d 967d 49be
00000210: c36a 943e aa8d 2bbe 77dd 373e 2e6e 20be
00000220: 0149 da3e 180c 4b3e bd20 96bd 2733 9fbd
00000230: 7030 6b3d 1c1c ad3e b9ef 37bf 6f92 673f
00000240: d216 6dbf 3857 cbbe 13f9 f43e ad2b 58be
00000250: 3e49 e53e c07b 1b3b 533f 433e 09a7 8ebd
00000260: edf8 4abe f4ee 5bbe 5b39 ae3e 8bea f2be
00000270: 3ad3 e1be 3c46 e8be 66aa 9abe 1aaf 693e
00000280: bcea a1be d582 2fbe a443 fabd a713 493c
00000290: 6fc2 b23e 4c0b a53e 9266 07be 75ce 1d3e
000002a0: 2bf9 50be f60a 2d3f 8e57 d9be 4f39 b3bd
000002b0: f704 f03e c561 343f 1c6b f33c f24a 22be
000002c0: c99c 5d3e 77e2 03be ca95 12bd d072 f6be
000002d0: c920 413f 48ac 053f 26e0 ea3d 6b36 81be
000002e0: a0a9 7cbe 1414 c53e b8a5 803e bb16 0cbf
000002f0: 5963 483f 3b49 223f d63e b7be c1f3 ec3e
00000300: ac56 073e 1e8a 94be 36f5 903e 897c 5f3e
00000310: 669f de3d d824 a83e 8cf7 68be 17bc c1be
00000320: 88ee 223e ed86 113d 163a 88be cb48 543e
00000330: 7f60 983e a889 ebbd d1eb 06be dca9 51be
00000340: 3a09 ecbe 7b9f 0bbf 231a 4e3e 9bc7 f9bd
00000350: e9f6 1a3e a3b5 9ebb 1010 443e 283b f5bd
00000360: 500f f43e db93 6ebe aca0 143e 422f 18be
00000370: c672 b43e 5482 05bf 9e04 8dbe 5dcc 013f
00000380: 7891 6fbe b37c 01be 1192 d53e 3a8e a1bd
00000390: 4852 ad3e 981d df3e f160 a6be 09d0 3abc
000003a0: 95ed f33c e5a2 6d3e 6205 16bb 7052 c33d
000003b0: a8fd 593d 9c0c fe3e b653 b9be b2a5 ae3d
000003c0: aab5 a33e cae0 a3be 434a 4b3d b618 38bf
000003d0: f75b 363f 0391 45bd 31e9 2a3d 87ec b73b
000003e0: fd6c 523d 5d78 c53e 3670 e73d 8d1b c4be
000003f0: e61e d63e b835 a83d 3084 0abe 2551 743e
0.3833341 0.009430136 0.077575624 0.03475385 0.71338654 0.47751373 -0.012726028 -0.44797388
-0.24435748 0.3431531 -0.17328122 0.04142261 0.30062082 0.055401947 -0.5635473 0.58742434
-0.80786306 -0.5794961 0.21704987 -0.0069509614 0.5893808 0.09225828 0.642248 0.18584412
-0.2989916 0.115761794 0.7364768 -0.059016988 -0.014240367 0.06415222 -0.2102765 0.044797927
-0.47763985 -0.45675418 0.15152954 0.010848458 0.1699245 0.42143378 0.30615938 0.2062431
-0.05757994 0.56742406 -0.1591695 -0.13698864 0.29477507 0.9641225 -0.1867529 0.13222829
0.2096734 -0.4862689 0.17322797 -0.4590234 0.59630096 0.11112392 0.17977375 -0.426892
-0.57540745 0.030715104 0.29021484 -0.4304233 0.56146735 0.20587584 -0.52429616 -0.014307718
0.00036555517 -0.28094074 0.26090035 0.00042623954 -0.15798262 -0.09747998 0.13232405 0.41674396
0.21022333 0.38391265 -0.14253303 -0.018663168 0.23535232 -0.16593584 -0.4391568 -0.14493376
-0.59722877 -0.42313766 0.5570305 -0.3215262 -0.032228667 0.15327367 -0.39136314 -0.17181768
0.39290893 -0.11973118 0.48664013 -0.07763952 0.08934118 -0.10314332 -0.5520711 -0.14743829
-0.29523313 -0.40414515 -0.33917513 0.112661056 0.4501794 0.009954149 0.38227743 -0.04333117
0.17370537 0.28630316 -0.15174241 0.42371044 -0.046904143 -0.119888924 -0.09851017 -0.087771215
-0.08854326 -0.080134384 0.07238882 -0.40588528 0.19506219 -0.074403696 0.13493317 0.37328136
-0.29490834 0.14348048 0.081012465 -0.25912568 0.17484437 0.33513206 -0.045564413 0.88784933
0.7767813 -0.23617211 0.114801295 -0.19676813 0.28987703 -0.1675326 0.17955576 -0.1566703
0.42633823 0.19828832 -0.07330463 -0.077734284 0.05741924 0.33810508 -0.7185016 0.90457815
-0.92612946 -0.3971498 0.4784628 -0.21110411 0.44782442 0.0023724884 0.19067125 -0.06965453
-0.1982152 -0.21477872 0.34028134 -0.47444567 -0.44106466 -0.45366085 -0.3020813 0.22820702
-0.316244 -0.17139752 -0.12219933 0.012272752 0.34913966 0.3223518 -0.13222721 0.15410788
-0.2040755 0.6759485 -0.4244961 -0.08751165 0.46878788 0.70461684 0.02971416 -0.15848902
0.2164184 -0.12879358 -0.03578738 -0.4813447 0.7544065 0.52216005 0.11468534 -0.2523683
-0.24674082 0.3849188 0.25126433 -0.54722184 0.7827659 0.6339299 -0.35790128 0.4627972
0.13216656 -0.29011625 0.2831208 0.2182485 0.108702466 0.3284061 -0.22750682 -0.37838814
0.15911305 0.035529066 -0.26606816 0.20730893 0.2976112 -0.11500865 -0.13175894 -0.20474952
-0.4610079 -0.5454022 0.20127158 -0.12196275 0.15133251 -0.00484343 0.19146752 -0.11974174
0.47667933 -0.2329859 0.14514416 -0.14861777 0.35243815 -0.5215199 -0.27542585 0.5070246
-0.23395336 -0.12645225 0.41713002 -0.07888456 0.33851838 0.43577266 -0.32495835 -0.0114021385
0.029776374 0.2320667 -0.0022891392 0.09537208 0.05322042 0.49618995 -0.3619668 0.085276976
0.31974536 -0.32007438 0.04963137 -0.71912706 0.7123408 -0.048233997 0.041726295 0.005612913
0.05137347 0.38568392 0.113006994 -0.3830227 0.4182045 0.08213371 -0.13526988 0.23859079

v.v_net.2.bias f4 [64]
00000000: 6e3a d63e 819c 71bc 0bed b13e 894a 383e
00000010: 2a87 5a3d ff74 46be 15f5 86be 3a96 8cbe
00000020: c6e2 e1be bfb7 a2be b78e b4be 8cf7 97be
00000030: 9527 353e 148d 0dbe 1138 4cbe 9f12 a9be
00000040: 3a3c b1be 5c9b ce3e b05a d63e 10eb cf3e
00000050: 4a02 e3bd 9a5e 333e b223 afbe ce9f 033f
00000060: 7a29 3ebd 81ca ddbd e983 a9be 2176 b93e
00000070: ed6e 083d a0a9 c93c 68b7 723d 12ec a5be
00000080: e457 b9be 1f37 0ebf 2e7d 7c3e 2df7 383e
00000090: 4329 b23e 2a0a 1e3f 317e d73e 9e81 973e
000000a0: ef0c ab3e 2c48 503e a8ab 2d3e 1f4b c4be
000000b0: 99f6 5b3e c13f 71be 4b1e c0be 7108 623e
000000c0: db96 02be 81b1 8d3e fd06 babe 4eee 34be
000000d0: 090d 903e ecbd cebe 4c46 813e f8ae 33be
000000e0: 5447 1cbf d7ab c93e 0d68 82be 56ac d43e
000000f0: aa15 a83e 2f73 c93e bee0 49be c64d 0b3f
0.41841453 -0.014746786 0.34751162 0.17997183 0.05335156 -0.19380568 -0.26358858 -0.27458364
-0.44118327 -0.31780812 -0.35265133 -0.2968105 0.1769088 -0.13823348 -0.19943263 -0.3302202
-0.34616262 0.40352905 0.41866064 0.40609026 -0.11084421 0.17516556 -0.3420692 0.5141572
-0.046426274 -0.1082964 -0.33108452 0.36222938 0.033308912 0.024617016 0.05925694 -0.3240667
-0.36199868 -0.5555286 0.24657127 0.1806304 0.34797105 0.6173426 0.42088464 0.29591078
0.33408305 0.20340031 0.16960013 -0.38338563 0.21480788 -0.23559476 -0.37523112 0.22073533
-0.1275286 0.27674487 -0.36333457 -0.17669031 0.28134945 -0.40379274 0.25248945 -0.17547214
-0.6104634 0.39388916 -0.2547001 0.41537732 0.32829028 0.3934569 -0.19714639 0.5441555

v.v_net.4.weight f4 [1, 64]
00000000: f2c4 6640 423d 6440 1a7f 7740 5e8f 6e40
00000010: 50ca 8fc0 64f5 6940 188f 70c0 afcb 9140
00000020: 9c4f 8440 f17b 6cc0 911a 67c0 76b9 6340
00000030: 7977 6f40 6b55 62c0 a0b1 5dc0 a0c1 6bc0
00000040: 2f28 7cc0 a444 6840 2d07 6840 bc16 7140
00000050: 043f 70c0 e9be 6340 8263 74c0 b40a 80c0
00000060: 0b09 82c0 d1ba 7f40 5f47 77c0 7a97 5d40
00000070: 7f49 6c40 b4dd 8140 f571 8140 99f7 7dc0
00000080: 6669 72c0 5235 7440 34dd 7e40 de8d 6540
00000090: 3444 6e40 76bc 88c0 8ee0 7ac0 e8c5 7640
000000a0: 53bf 6140 0325 7c40 4f12 6840 6ea4 8c40
000000b0: 7ef5 7440 bbeb 6ac0 b8f5 6ac0 ce96 6640
000000c0: 6428 6640 8121 8fc0 cee7 64c0 ff51 69c0
000000d0: cafe 5f40 00b9 7240 3885 6d40 eb67 6740
000000e0: 8e3e 8440 7a09 6440 a5aa 7ec0 d289 6640
000000f0: a661 8440 fc03 7c40 b83e 7fc0 23a4 83c0
3.6057706 3.5662389 3.8671327 3.7275004 -4.4934464 3.6556025 -3.7587337 4.5561137
4.134718 -3.6950648 -3.6109965 3.5581946 3.741667 -3.5364635 -3.4639664 -3.683693
-3.9399526 3.6291895 3.625438 3.7670126 -3.7538462 3.5585272 -3.8185735 -4.0013065
-4.063604 3.9957774 -3.8637311 3.4623704 3.6919858 4.0583134 4.045161 -3.9682372
-3.787683 3.8157544 3.9822512 3.586784 3.7229128 -4.2730055 -3.9199557 3.8558292
3.5273025 3.939759 3.6261175 4.395072 3.8274837 -3.6706378 -3.6712475 3.6029544
3.5962152 -4.47284 -3.5766482 -3.6456296 3.499926 3.7925415 3.711256 3.6157176
4.132636 3.5630784 -3.9791653 3.602162 4.13692 3.9377432 -3.988203 -4.113786
