tmp/experiments/RN3 False,True,True/pyt_network_save/model save63000.pt (torch_old, 314943 bytes, 33 tensors)

pi.pi_net.0.weight f4 [64, 5]
000000 38 c4 0a bf b7 ca ef bb bb 8f 08 3f 08 a2 da be
       -0.54205656 -0.0073178667 0.53344315 -0.42701745
000010 e7 26 a3 be 5a 23 ca 3e a7 7b 96 bc ac 30 e2 bd
       -0.31865618 0.39480096 -0.018369509 -0.1104444
000020 aa 1d ad be 1c 70 ae 3e 32 74 01 3f 60 fb 17 3c
       -0.33811694 0.34069908 0.50567925 0.009276241
000030 47 71 11 3f 8e 58 aa bd d3 2d 86 be a3 10 b4 3f
       0.5681347 -0.08317672 -0.26206836 1.4067577
000040 c7 5b 5a 3c c6 7e 20 3e 6a bb 47 bd e0 d1 83 3d
       0.0133275455 0.1567336 -0.048762716 0.06436515
000050 37 77 14 3f 9f 01 f4 3e 03 d8 21 3f bd 62 c4 bd
       0.5799441 0.47657487 0.6322023 -0.09589145
000060 11 1f 15 be 92 9b 14 be f8 5b db 3d 65 3b 1f bf
       -0.14562632 -0.1451247 0.10710901 -0.62200004
000070 ef e9 a7 be 87 c9 63 be d2 3a 82 3e c1 65 79 be
       -0.32795665 -0.22244845 0.254355 -0.24355222
000080 2d d3 14 3f 46 a8 3b 3f c9 3f 09 be 75 80 1f 3e
       0.5813473 0.7330364 -0.13403238 0.15576346
000090 c4 22 9d 3e 17 cc 82 be 02 4a 0e be c2 59 d8 be
       0.30690587 -0.25546333 -0.13895419 -0.4225598
0000a0 ab c2 7f bd 14 a3 1f 3e 54 86 0d 3f 3f 1f dd bd
       -0.06244151 0.15589553 0.55283093 -0.10796975
0000b0 d0 f8 36 3e a6 8d ea 3d 3c ab 8c 3e 6e bb a6 be
       0.17868352 0.114527985 0.2747439 -0.32564873
0000c0 de 13 c7 bc e0 3a 52 be 34 b8 40 3f ed 8b 8b 3e
       -0.024301466 -0.20530272 0.7528107 0.27255192
0000d0 1d bc 91 3e 49 8b 2b 3e 3f 5e a0 be b9 b7 5c 3f
       0.28463832 0.16752352 -0.31321904 0.8621784
0000e0 20 ed 32 3f 8d 6c 3f bf be 22 37 bd 11 5f 48 3e
       0.69893074 -0.7477501 -0.044710867 0.19567515
0000f0 32 95 81 be c5 6e 8f be 68 df 39 3f 67 3c 46 be
       -0.2530914 -0.28014198 0.72606516 -0.19358979
000100 df 61 e4 3c 65 66 ea 3e 7d 3a 91 be b8 e4 17 3f
       0.0278787 0.45781246 -0.28364936 0.5933337
000110 cd 88 1a 3d 16 e2 32 3e f7 ba 52 bf 56 a7 82 be
       0.03772812 0.17469057 -0.82316536 -0.25518292
000120 f1 5b 0d be da ec 51 be 2d c1 45 3e e8 71 7b be
       -0.13804604 -0.20500508 0.19311972 -0.2455517
000130 cc f1 7b 3c f0 f6 18 bd 34 e6 9f 3d 30 4b 31 bf
       0.015377473 -0.037344873 0.0780758 -0.6925535
000140 e7 9d a9 3e 3d 67 7a 3e 81 75 c7 be 53 5e 3a 3d
       0.33128282 0.24453445 -0.38956836 0.04550011
000150 26 71 a7 be 09 d4 a1 be 31 c1 80 3e 24 0a 6e 3e
       -0.32703513 -0.31607082 0.25147393 0.23246056
000160 2d ea 3f be 42 57 85 be 41 3a 6a 3f d4 ee a2 3e
       -0.18741675 -0.26043135 0.9149514 0.31822836
000170 cd 93 54 be b3 ec 3f be 0f 20 f1 bd c9 a9 bc bf
       -0.20759507 -0.18742637 -0.11773693 -1.4739314
000180 48 ab 00 bf d9 ad 05 3f 84 da 85 be 1e 58 cf 3d
       -0.50261354 0.52218395 -0.26143277 0.10124229
000190 e7 ef 15 bf 16 b8 a6 3e dd 68 0a 3f fd 5a 62 be
       -0.58569187 0.3256232 0.5406626 -0.22105022
0001a0 7c 26 bc be db c1 b8 3e ce 09 8d 3e 60 8f 1f 3f
       -0.3674811 0.360854 0.27546543 0.6232815
0001b0 6e 05 8c 3c 67 0c a1 be 1a 48 0a 3f 99 5b 98 3e
       0.017092433 -0.31454775 0.5401627 0.29757383
0001c0 80 c7 28 bf 44 1d 4b 3e 54 ee 03 be 12 ad 03 3e
       -0.6592941 0.19835383 -0.12883884 0.1285899
0001d0 d9 f1 e9 be 51 15 21 3f 68 18 31 3d 20 2d ca 3e
       -0.45692328 0.6292315 0.043236166 0.39487553
0001e0 0d d7 11 3f 1a 00 47 be a7 62 5e 3f e2 31 af 3e
       0.56968766 -0.19433632 0.8686928 0.34217745
0001f0 45 a6 6e 3e b4 d8 01 3f 86 74 89 3d 08 e4 07 3f
       0.23305614 0.5072129 0.06711678 0.53082323
000200 e5 a3 a7 3d 56 02 3e 3c 30 66 10 3f 6a 2c 1f be
       0.08185557 0.011597237 0.56405926 -0.15544286
000210 8c 5b 77 3e 63 14 d6 3d 05 f0 f1 bd 76 41 cd be
       0.24156016 0.10453107 -0.11813358 -0.40089005
000220 32 c6 3e 3d ad 70 ef be c8 86 2d be 05 8c 97 be
       0.046575733 -0.46765652 -0.16945946 -0.29599014
000230 f7 3a 97 3f 3e d6 65 3e 1f bd af 3e 3c df 81 be
       1.181487 0.22445008 0.34323975 -0.25365627
000240 61 d7 c9 bd f7 36 08 3f a5 a8 03 3f 2f 54 3b bf
       -0.098555334 0.5320887 0.51429206 -0.7317533
000250 fb 0b 1a bd c7 d9 af be 2c 8b d9 be 91 53 ba bc
       -0.03760908 -0.34345838 -0.42488992 -0.022744926
000260 36 00 14 3f 21 b1 26 3f d7 12 81 be ed 36 48 be
       0.5781282 0.6511403 -0.25209686 -0.19552203
000270 0f 50 ad 3e a1 88 c5 bd 56 f5 96 3e c5 6d bd be
       0.33850142 -0.096452005 0.2948405 -0.3699781
000280 51 e1 c7 3d e1 a0 40 3d 6b 6c 31 bf 72 0b 61 3d
       0.097597726 0.047028426 -0.6930606 0.054942556
000290 21 a4 fb 3a 2b 72 df be 54 53 4c bf dc ea f7 3d
       0.0019198694 -0.4364179 -0.7981465 0.12105343
0002a0 3f 7b 9f 3e 58 6d 6f 3e b5 cc a9 3f 51 30 7d 3e
       0.31148717 0.23381555 1.3265597 0.24725462
0002b0 d4 38 60 3e 90 9a 6a 3c 95 84 7a 3d 0a 5a 95 bf
       0.21896678 0.014319077 0.061161596 -1.1668103
0002c0 9d f6 2e be 49 e9 00 be ff 00 2f 3e 3b 9c 09 be
       -0.17086263 -0.12588991 0.17090224 -0.13438503
0002d0 9d da a3 be c3 c5 bb be 29 85 d8 bd d9 3d 6d bd
       -0.32002726 -0.36674318 -0.10572273 -0.05792031
0002e0 dd 7d e6 3d 81 f4 cd 3e 73 fb 84 3d e7 48 b0 3e
       0.11254475 0.40225604 0.06493273 0.3443062
0002f0 40 ed ef bd 2e 56 29 3d 55 c4 ce 3e ec 55 24 bf
       -0.11715174 0.041341953 0.40384164 -0.64193606
000300 1e 33 03 3d 89 73 6a 3d ad fb 23 3f 1e a1 a0 3c
       0.03203117 0.05723909 0.640559 0.019608077
000310 54 3a 32 3e 8d a7 28 bf 13 39 c9 be f6 bd ad 3d
       0.17405063 -0.6588066 -0.39301357 0.08483498
000320 12 00 ca be ae 51 e7 be c9 15 10 3f df da 87 3a
       -0.3945318 -0.45179504 0.5628324 0.0010364911
000330 db 8a 00 3f 07 b0 a9 3e 0c 58 f2 3e c4 a4 13 3e
       0.50211877 0.3314211 0.473328 0.14418322
000340 bc 49 8d bd 30 f9 24 bf 21 1a 30 be 31 2f 49 3e
       -0.06898829 -0.6444273 -0.17197467 0.19646908
000350 82 68 3d bf 56 3f dd be 51 c6 17 3e ac ff e5 be
       -0.7398759 -0.43212384 0.14821745 -0.44921625
000360 df d1 0b bf a8 17 08 3f 13 28 dd 3d 50 d5 04 3e
       -0.5461711 0.53161097 0.10798659 0.12971997
000370 fb bc a2 be a8 15 b9 bd 2a 38 85 3e 07 c3 aa be
       -0.31784806 -0.09037334 0.26019412 -0.3335192
000380 9c e4 b1 be 2f 26 f1 3e ac 7c df 3d 40 df c6 be
       -0.34744728 0.47099444 0.10912451 -0.388422
000390 82 2e 91 3d 31 b0 d6 be fb c9 a4 3e 6a 13 17 39
       0.07088949 -0.41931298 0.3218535 0.00014407714
0003a0 36 f7 66 3f 8f 05 db b7 2c 2b 89 3e f4 3a d9 3e
       0.90220964 -2.6109423e-05 0.2679075 0.4242779
0003b0 ad bf be 3d d2 4b a2 3e 05 91 e3 be c6 a6 0b be
       0.09313903 0.3169847 -0.4444658 -0.13637838
0003c0 d7 51 e3 be af 35 18 be b8 74 2a 3f d5 ae 86 bd
       -0.44398376 -0.14864229 0.6658435 -0.06576315
0003d0 f9 40 8a 3e 26 9b 8a be 7e 0d dd 3e 68 ed fe be
       0.27002695 -0.27071494 0.43174356 -0.49790502
0003e0 b6 f0 ae 3d 57 f0 0e bf 88 1a a4 be c0 b9 35 3d
       0.08542006 -0.5583548 -0.32051492 0.044366598
0003f0 4e 46 77 3f 1b 1d f8 3d 4e bd d5 be 2a 27 0f 3f
       0.9659165 0.121149264 -0.4174599 0.55919135

pi.pi_net.0.bias f4 [64]
000000 d8 6d 81 3d bf 9c 10 3e f6 f1 ee bd a3 ed 31 be
       0.06319779 0.14122294 -0.11667244 -0.17375807
000010 36 bc 07 be 6e b6 2c 3e 45 33 d2 bd ea 11 91 bc
       -0.1325539 0.16866466 -0.10263685 -0.017708737
000020 ff 69 5c be 8f a5 7d 3b cb cf d6 bd ca 3c 75 3d
       -0.2152481 0.0038703417 -0.10488852 0.059872426
000030 79 58 41 3d 45 b7 03 be 3d 29 2a 3e 97 e3 0c bd
       0.047203515 -0.1286288 0.16617294 -0.034396734
000040 69 4d 50 bd 17 9b 75 bd e7 fc a6 3d ef 24 90 3d
       -0.050855074 -0.05996236 0.08153706 0.070382945
000050 84 fb 37 3c 1e be c9 bb cf 85 c8 3d 25 53 98 bc
       0.0112294 -0.006156697 0.09791147 -0.018594334
000060 cb 47 0c be bc ee 93 be bc c6 17 be 54 db 9f 3d
       -0.13699262 -0.28893077 -0.14821905 0.078055054
000070 0f 44 19 be 89 e4 79 3d 8d ac a4 bd 74 53 a8 3d
       -0.14967369 0.061008964 -0.08040724 0.082190424
000080 d6 32 08 3d 0d f0 d2 bd 3a 8d 7d be 7f 41 5b 3e
       0.033251606 -0.10299692 -0.24760905 0.21411704
000090 80 bd 53 3e ee f4 f5 bd 94 4d 03 3d 46 81 ab 3b
       0.20677757 -0.12009607 0.032056406 0.0052339165
0000a0 b8 29 fa bd 45 72 01 be 05 61 0d 3e df 61 6e bd
       -0.122149885 -0.12641247 0.13806541 -0.058198806
0000b0 61 c6 3e bc b2 18 ab bd 40 dd 72 bd 7d eb 29 bd
       -0.011643977 -0.0835432 -0.05929303 -0.041484345
0000c0 69 91 0c 3e b8 e2 05 3d d3 95 3c be 51 2c 17 be
       0.13727345 0.03268692 -0.18416528 -0.14762999
0000d0 f6 3c fe 3d 86 f2 87 3d 86 b6 5b bd 20 9c 28 bd
       0.12413971 0.066380545 -0.053640865 -0.041164517
0000e0 9e ef 11 be ea 60 02 3d a1 a2 e0 bd d2 bd 2c be
       -0.14251563 0.031830706 -0.10968519 -0.16869286
0000f0 f8 92 33 be b2 7d 1b bc 9e cc 3b 3e 64 23 32 be
       -0.17536533 -0.009490417 0.18339774 -0.17396313

pi.pi_net.2.weight f4 [64, 64]
000000 84 2d d3 bd 96 a8 bd be 0c 47 a6 3c fc 05 2a 3f
       -0.10311416 -0.37042683 0.02029755 0.6641538
000010 8c be b6 3e 60 73 87 bf a0 c6 97 3e 5a c5 08 3e
       0.3569225 -1.0582085 0.29643726 0.13356534
000020 ff da b9 3e ea 0a 13 bf 0b 53 0d bb c1 e1 15 be
       0.36299893 -0.5743853 -0.002156439 -0.146369
000030 ad 34 01 3f cd 40 5b 3e c1 0b 07 bf 79 fa 85 be
       0.50471 0.21411438 -0.5275231 -0.26167658
000040 ef ab ae be b5 76 fc bb ab 02 ad 3e ca 04 b9 3e
       -0.3411555 -0.0077045807 0.33791098 0.36136466
000050 27 be 98 3e 9c 68 95 3e 4d 43 e4 3d a2 50 e9 3e
       0.29832575 0.29181373 0.11145649 0.4556933
000060 41 71 87 3f 92 17 b3 3e 2d 13 84 be 1b 61 37 be
       1.0581437 0.3497892 -0.2579588 -0.17908137
000070 26 ad 54 bd ed 56 1d be 57 ef 43 3e 5b d6 83 be
       -0.05192294 -0.15365191 0.1913427 -0.25749478
000080 ab 54 02 bf 5a 62 f2 3d 68 85 56 3e f5 e6 a4 be
       -0.50910443 0.11835165 0.20949328 -0.32207456
000090 3a ea 7a bd 2f 07 be 3e 05 13 2d 3e 69 04 0e bf
       -0.061258532 0.37114856 0.16901787 -0.5547548
0000a0 1a 59 41 3e 02 da 8c 3d 78 5e 15 bf 2d 82 9f be
       0.18881646 0.06877519 -0.5834727 -0.31154004
0000b0 39 b5 bb 3e 5b b7 5b 3c 39 54 c4 3e 4b b2 bd bd
       0.366617 0.013410415 0.38345507 -0.09262522
0000c0 03 28 e2 3d 5d e5 17 bf ac 2c 26 3f 6f 32 d3 3d
       0.11042788 -0.59334356 0.64911914 0.10312354
0000d0 be 4b 0e be 9f 15 20 3f f6 53 9b bd ed 59 9a 3d
       -0.13896081 0.6253299 -0.07584374 0.07536683
0000e0 a5 62 cc 3e a9 05 12 be 03 fc 63 3e 14 f1 23 3f
       0.3991901 -0.14259972 0.22264104 0.6403973
0000f0 2d e3 59 3e 64 f2 85 be 7c 92 4b bf e3 c4 8d 3f
       0.21278067 -0.26161492 -0.7952039 1.107571
000100 e8 04 a8 3e 79 2e 00 3e 54 68 75 be 56 61 c5 be
       0.32816243 0.12517728 -0.2396558 -0.38550824
000110 bf c3 e2 bd 1d 75 51 3e 05 6a d1 be d1 f2 1e bf
       -0.11072492 0.20454831 -0.409012 -0.6208926
000120 6b 4f b4 3c 3f 5c 86 be 7a fd 98 bd 78 4d 26 bf
       0.022010526 -0.26242253 -0.07470222 -0.6496196
000130 a6 55 7c 3e ac e2 88 be bd 70 2e 3f b4 60 44 be
       0.24642047 -0.26735437 0.68140775 -0.19177514
000140 eb 9a be be d5 90 0e 3f 2e bf 0b be 4d bb 6b 3f
       -0.37227568 0.55689746 -0.13647148 0.92082673
000150 b9 51 89 3e b4 ee d7 3c 71 2d ac be 90 74 5a 3e
       0.26820162 0.02635894 -0.3362842 0.21333528
000160 7e db 2f be ce 24 8f 3c 3e c1 da be 99 98 be 3d
       -0.17173573 0.017473605 -0.42725557 0.093064494
000170 eb b3 70 be 83 c0 c6 be 92 b8 c7 ba 49 33 42 3e
       -0.23506133 -0.3881875 -0.0015237501 0.18964876
000180 9d e1 d7 3d 9b 7f 82 3d 87 f0 45 bf 20 10 72 3e
       0.10541079 0.06371995 -0.7732014 0.23638964
000190 d2 d7 11 3c 16 a0 8e be 4e 6e 0b bd 8a 67 5e 3e
       0.008901553 -0.2785651 -0.03404074 0.21719185
0001a0 15 3e 95 3e 25 f4 a5 bc f9 83 fe 3e 50 8c a7 3e
       0.29148927 -0.020258019 0.49710062 0.32724237
0001b0 5a 28 b8 bc 30 c0 a6 be 33 37 58 3c 3d d1 9c be
       -0.022480179 -0.32568502 0.013196754 -0.30628386
0001c0 68 4f 02 3f 2a 81 cd 3e 47 a3 fd be ff 7d 9c be
       0.50902414 0.40137607 -0.49538633 -0.30564877
0001d0 24 c5 9b be 97 26 bb 3e 1e 27 39 be a6 ef 88 bd
       -0.30423844 0.3655288 -0.18081328 -0.06686334
0001e0 ff 0e 94 3c 6c 03 a8 3e 27 54 89 bd 42 1f a0 be
       0.018073557 0.3281511 -0.06705504 -0.31273848
0001f0 1d 1d ac 3d ac 8c 1a 3e 3d 22 76 3e e1 c0 ac be
       0.084039904 0.15092725 0.24036498 -0.33740905
000200 9a 87 e6 3c e1 6d 04 bf 4b 9e 51 3e 86 5b 96 bf
       0.028140832 -0.5173016 0.2047054 -1.1746681
000210 40 6c b1 be 65 14 a5 3e 3a 83 b8 3e a9 7d 24 3e
       -0.346529 0.32242122 0.36037618 0.1606356
000220 dd 88 e7 be 7d eb 3e 3e 8d da 2b bf bb f8 1d bf
       -0.45221606 0.18644519 -0.6713036 -0.6170766
000230 53 ab db bd 47 12 ca bd 86 63 bc 3f 96 2d f3 3d
       -0.10726037 -0.098667674 1.4717872 0.11873929
000240 64 bc 74 3e 16 8f 92 3d c5 db 39 be 0e ed 82 3f
       0.2389999 0.07156198 -0.18150242 1.0228593
000250 ab 17 96 be 22 a7 b4 be 0a 86 f8 be 0e 2b d5 3d
       -0.29314932 -0.35283762 -0.48539764 0.10408603
000260 db 0d e7 bd 91 50 6b 3d dc d7 04 bf 82 35 07 3f
       -0.112819396 0.05744988 -0.51891875 0.5281602
000270 1f d0 cf be 0a 77 5c bd 63 44 23 bd 7d e6 d2 bd
       -0.4058847 -0.053824462 -0.03986014 -0.102978684
000280 39 8f 52 be 9e 84 e0 3e 6b 19 5d bf 6e fd 83 3f
       -0.20562448 0.4385118 -0.8636691 1.0311716
000290 f4 9c 94 3e 3f 8a 08 bf 94 2a a2 3e 83 66 bd 3e
       0.29025996 -0.53335947 0.3167311 0.36992273
0002a0 4e 6c cb bd de 24 b6 be 8b d8 d3 bd c9 4e 00 3f
       -0.09932767 -0.35575002 -0.10344037 0.50120217
0002b0 75 3d 0b 3f ae d6 03 3e f4 05 bf bd 21 d2 a4 be
       0.5439065 0.12874863 -0.09327307 -0.32191566
0002c0 94 b5 c8 be 27 d8 3e 3d c9 14 a7 3e 5a d2 e0 be
       -0.39201033 0.046592858 0.32633045 -0.43910486
0002d0 7c 7d bf 3c 9f 5e 85 be e3 90 3d bf 0c 72 00 3f
       0.023375265 -0.26048753 -0.74049205 0.5017402
0002e0 e6 59 03 bf 26 fa 3d bf c7 41 ee 3e b8 50 a2 3d
       -0.5130905 -0.7420982 0.4653456 0.07925552
0002f0 ce 2a ca 3e ca 4c 18 3f 27 67 09 be ce 14 07 3f
       0.39485782 0.5949217 -0.13418256 0.5276612
000300 b2 fd 21 bd 50 e2 ba 3d 7b e5 d2 bd 4d af 82 3e
       -0.039548583 0.09125197 -0.10297676 0.2552437
000310 4b 2c 34 3e 55 a9 f8 be 0e 7e 15 3f ee 47 13 3e
       0.17595021 -0.4856669 0.5839547 0.14382908
000320 78 90 05 3f a8 b7 11 be 6f 5e 31 bd 84 c5 c6 bd
       0.52173567 -0.14230216 -0.04330295 -0.09705642
000330 4f 99 84 3f 58 ed 9d be 0f aa c3 3d 3e 1f 1a 3e
       1.0359286 -0.3084514 0.095539205 0.1505098
000340 fc 0b 31 be a6 97 bc be 00 31 59 be e3 fc 54 3d
       -0.17289728 -0.3683445 -0.21210098 0.051998984
000350 ff ec a6 3e b7 6f 0e 3f ce b9 e9 be 65 74 e7 3e
       0.3260269 0.55639213 -0.4564957 0.4520599
000360 11 ec 2a 3f 1b 74 4f 3d 2c 2b 61 3e 46 0d da 3c
       0.6676646 0.050647836 0.21989125 0.026617657
000370 98 7e 4b 3e a7 a0 fe be 04 28 f8 3e 4d 3d 8d be
       0.1987251 -0.49731943 0.4846803 -0.2758583
000380 97 03 75 bf 51 e1 c4 be 6f 23 5a 3e 97 04 6f 3c
       -0.957086 -0.38453153 0.2130258 0.014588497
000390 12 b0 2f 3e c2 03 08 3f df 92 c5 bd 2d 0c 22 bf
       0.17157009 0.53130734 -0.09647154 -0.6329983
0003a0 83 31 cd 3e 6f 57 af be 6a 00 9c be 5f 4c c1 3e
       0.40076837 -0.34246394 -0.30469066 0.3775358
0003b0 66 f5 85 be 51 e3 ad be 8a 38 ac 3e 38 08 f8 3d
       -0.26163787 -0.3396249 0.33636886 0.121109426
0003c0 fe a4 7d 3e 1e d8 da be 58 df 6a 3f b3 6c 2c 3e
       0.24769971 -0.4274301 0.91747046 0.1683834
0003d0 12 93 62 bd 7c 75 00 3f 32 f7 51 3e 05 58 3a be
       -0.05531604 0.50179267 0.20504454 -0.1819764
0003e0 7d 18 3c 3e d3 14 93 be 71 5d 76 3e e5 1f d4 3e
       0.18368717 -0.28726825 0.24059083 0.41430584
0003f0 72 a5 dc 3d 8c 06 a1 3d eb de 1c bf 16 c1 07 3d
       0.10773744 0.07862577 -0.61277646 0.033143125

pi.pi_net.2.bias f4 [64]
000000 6b 1e d7 bd aa 3d 81 3e ea 1e f8 be c2 fe 92 bd
       -0.10503849 0.25242358 -0.48461086 -0.071774974
000010 bb 2f 20 3e e6 c4 4d 3f b6 20 57 3e df 75 f4 bd
       0.15643208 0.8037857 0.21008572 -0.119365446
000020 a4 84 4f be dc 67 49 bd 33 62 c0 3c 50 7e 02 3e
       -0.20265442 -0.049171314 0.023484325 0.12743497
000030 ec 2e 89 be 49 fe 05 3d 3b 3c 5c be 46 3b d5 3d
       -0.2679361 0.03271321 -0.21507351 0.10411696
000040 62 83 0b 3f 00 e5 a5 be 19 86 a2 bd da 2d 02 be
       0.5449735 -0.32401276 -0.07935733 -0.12712803
000050 76 55 40 3e 2d 72 06 3e d4 21 f4 3d be 5b 07 bf
       0.18782601 0.13129492 0.11920515 -0.5287436
000060 e5 43 33 be 76 29 8e 3e ff 45 b9 bd 40 26 3f 3e
       -0.17506368 0.27766007 -0.09046554 0.18666935
000070 d7 8f 4c 3e 8b ca 81 bd ec 87 11 3d 05 6a 4a 3e
       0.19976746 -0.0633746 0.035530016 0.19767006
000080 d8 69 d4 3d 2c 8d fc bd de 77 0d bf a0 17 0b 3e
       0.103717506 -0.12331614 -0.5526103 0.13583231
000090 bd df f4 3d 16 96 d0 3e dc b6 e1 3c b9 9e e3 3e
       0.11956737 0.40739506 0.027553014 0.44457033
0000a0 6a 8f 64 3d a3 b3 84 bd 84 da 55 be 72 e3 fb 3d
       0.055800833 -0.064795755 -0.20884138 0.12299241
0000b0 6d 0c 1b be 8f 56 6d 3e 1f 6a e0 bd 90 55 d3 39
       -0.15141459 0.2317755 -0.10957741 0.00040308805
0000c0 94 45 f6 3e cc 62 14 3e 75 a9 04 be e1 64 c5 be
       0.4809996 0.14490813 -0.12955268 -0.38553527
0000d0 6c dd 81 be fd 97 aa bd fd 77 24 3d d6 81 5b bd
       -0.25364244 -0.08329771 0.040153492 -0.053590618
0000e0 e0 a1 67 3d 16 3e 80 3d 4b ce ea be 22 54 27 3d
       0.05655086 0.06261842 -0.45860514 0.04085172
0000f0 48 c0 07 be 13 db 94 be 8d cf 5b 3d ce 2c 4a 3e
       -0.13256943 -0.2907339 0.053664733 0.19743654

pi.pi_net.4.weight f4 [256, 64]
000000 5f 0a c2 3f 28 f1 81 bf 4a e0 da be 02 aa 7f 3f
       1.5159415 -1.015172 -0.42749244 0.99868786
000010 65 1a 03 bf a2 7e 10 be 0e a9 80 bb 9d ea 4f 3f
       -0.5121215 -0.14110807 -0.003926403 0.81217366
000020 cb fb 0b 3f 27 b6 3d 3f 73 fc 3e 3f 0d 9e e0 be
       0.5468108 0.7410607 0.74603957 -0.43870583
000030 40 b1 29 be 22 83 49 be b9 0f 91 3f b3 f0 39 3f
       -0.16571522 -0.1967893 1.1332923 0.726329
000040 7d 14 c7 bb 8b 5e aa be f7 12 12 3f 6e 90 b5 3e
       -0.0060754404 -0.33275256 0.5706019 0.35461754
000050 92 c1 3a 3f 6b fc 3e bf 3a d3 e8 be 00 e2 cf bc
       0.72951615 -0.7460391 -0.45473653 -0.02537632
000060 fb 40 87 3f c4 2f 82 3d 8f d8 85 be 86 78 a5 bf
       1.0566705 0.06356767 -0.26141784 -1.2927406
000070 10 27 d6 3e 4c 14 df 3e af 61 02 bf ae d4 9e 3e
       0.41826677 0.43570173 -0.50930303 0.31021637
000080 2c d9 0c bf a6 a3 4c 3f 31 b4 e5 3d a7 46 85 bf
       -0.5501888 0.7993721 0.112160094 -1.0412186
000090 84 fc a6 be 54 6b c5 3e f6 e7 04 bf f8 c4 f7 3e
       -0.3261453 0.38558447 -0.51916444 0.48392463
0000a0 b2 63 bd be f3 c4 c0 3f bf 97 c4 be 90 14 80 be
       -0.36990124 1.5060104 -0.38397023 -0.25015688
0000b0 c4 2b 5f 3f f8 8f 9e be cd 7b c4 3e b6 44 d7 be
       0.87176156 -0.30969214 0.38375703 -0.4204461
0000c0 1b 82 cf bc 48 ba 08 bf d3 5a 89 3f bd 49 1d be
       -0.025330594 -0.5340924 1.0730842 -0.1536016
0000d0 75 f5 f1 be ff be 21 bf 2a f5 e8 3e b3 3d 08 3f
       -0.4725758 -0.6318206 0.45499545 0.53219146
0000e0 34 e8 57 bf c1 33 26 bf 98 44 75 be dc 6a 43 bf
       -0.8433869 -0.6492272 -0.23951948 -0.7633493
0000f0 9c 11 03 3c 31 c8 d0 be 60 67 d2 3c da 6b e8 3e
       0.007999804 -0.40777734 0.025684059 0.45394784
000100 51 13 57 3e 9e 2d 04 be 29 4d d9 3e 9a 3b c4 be
       0.21003462 -0.12908027 0.4244168 -0.38326722
000110 d5 56 e9 be 86 a2 5b bf 4a 48 b3 bb 1b 19 fb bd
       -0.4557406 -0.85794866 -0.005471264 -0.12260648
000120 19 36 22 bd 5e f0 2d be 73 09 a9 bd f6 22 7b 3e
       -0.039602373 -0.16986224 -0.082537554 0.24525055
000130 9e d2 70 3f 56 69 80 3e b5 44 e0 bc 64 94 1d be
       0.94071376 0.25080365 -0.027376512 -0.15388638
000140 e5 ad 29 bf 1e 96 18 3f af 83 17 bf 0f fa d1 be
       -0.66280967 0.5960406 -0.5918531 -0.41011092
000150 f1 25 c6 bd e0 3f db bc cf 93 7b 3e e9 f3 d5 3e
       -0.096752055 -0.026763856 0.24568103 0.4178765
000160 2c e6 05 3f e7 3b 93 bf 43 46 c7 3e 1e 7a ca be
       0.5230434 -1.1502656 0.38920793 -0.39546293
000170 22 e7 24 bf 96 23 bf be 58 2c 0f 3f d6 05 b3 be
       -0.6441518 -0.37331837 0.5592704 -0.3496539
000180 9c cf bb 3e 72 42 1e be 59 72 74 3e c4 31 14 3f
       0.3668183 -0.15455034 0.23871745 0.57888436
000190 85 0d 1c 3e 23 92 43 bf be 11 2f 3f 09 3a e4 be
       0.15239532 -0.7639486 0.6838645 -0.44575527
0001a0 a7 c0 26 3e f7 65 6f be fa 02 0a 3f dd 7f 6f 3e
       0.16284429 -0.2337874 0.5391079 0.2338862
0001b0 38 27 cb 3b 25 01 55 3e ed 70 63 3e d8 ac 94 3d
       0.0061997436 0.20801218 0.22211047 0.0725953
0001c0 52 29 dd be 46 f6 f5 3d 1d 56 61 be 77 96 14 3f
       -0.43195587 0.120098636 -0.22005506 0.5804209
0001d0 c6 29 e0 3e 27 fc 9e 3e da 7f a8 bd 43 b1 bc be
       0.4378187 0.31051752 -0.08227511 -0.3685399
0001e0 0f 98 e7 3e f7 c1 fc bd 9a 6a c6 3e f4 3a 64 3e
       0.452332 -0.12341683 0.38753206 0.22288114
0001f0 51 32 be 3d e3 d8 e4 3e 80 5b 6b be aa 99 00 bf
       0.09286941 0.4469672 -0.22984123 -0.5023447
000200 7e 79 cb 3e ac 2f e0 3e ee d6 95 3e ee d2 3f bf
       0.3974113 0.4378637 0.2926554 -0.7493123
000210 f5 b5 fc be 5e c8 85 bf 8e d2 87 bd bf 39 11 be
       -0.49357572 -1.0451772 -0.06631957 -0.14182185
000220 fd eb ef 3c 3c 93 6a 3e 9e cb 10 be 68 3e 4b 3e
       0.029287333 0.22907728 -0.14140174 0.19848025
000230 72 15 2b 3f a4 29 6c 3e 68 7c ac bc d6 0a f1 bd
       0.668296 0.2306276 -0.021055415 -0.11769645
000240 ee 80 73 bf 86 7a f2 3e dc c9 7a bf 57 b6 45 be
       -0.95118606 0.47359103 -0.9796426 -0.19307838
000250 f2 dd 24 be 22 ab fc 3c a8 6e 32 be d4 5a 1f 3f
       -0.1610029 0.030843321 -0.17425025 0.6224797
000260 c9 cc 02 3e 9c 37 5c bf 43 c0 06 3f b0 8d e6 bd
       0.12773432 -0.86022353 0.5263712 -0.112574935
000270 98 61 38 bf 90 56 df be 26 8e 43 3f cb a8 ff bd
       -0.72023916 -0.4362073 0.76388776 -0.124833666
000280 3d 18 47 3e 2b 8f 9d bd 3d a4 bd 3e 5b 9e bb 3e
       0.1944284 -0.07693323 0.37039366 0.36644253
000290 82 f9 56 bd ba 5d 3e bf 35 bb 1c 3f 35 8d b0 be
       -0.052484043 -0.74361765 0.61223155 -0.34482732
0002a0 bf 81 4c 3e e4 d3 8b bd c9 43 e2 3e f0 78 c1 3c
       0.19971369 -0.06827524 0.4419234 0.023617238
0002b0 d3 e7 82 3e 9c 7d 4b 3e bf 75 34 be 81 f8 b7 3e
       0.25567493 0.19872135 -0.17623042 0.3593178
0002c0 74 89 04 bf e2 fc 87 bd f9 a2 3e be 71 c2 5d 3f
       -0.51772237 -0.066400304 -0.18616857 0.8662482
0002d0 82 cd f5 3e 30 9c cf 3e 28 4c f6 bc b8 59 3e be
       0.48008353 0.4054885 -0.030065611 -0.18588912
0002e0 d3 b0 c7 3e 3a eb ce be a8 3e 9a 3e 2e 87 9c 3d
       0.39002094 -0.4041384 0.30125928 0.07642971
0002f0 67 8c 36 be 3d 7e 56 3f cb c2 18 be 76 19 15 bf
       -0.17826997 0.83786374 -0.14918058 -0.58241975
000300 19 f8 42 3e e5 f6 d4 bd 22 33 7d 3e 11 f1 ae be
       0.19039954 -0.10398654 0.24726537 -0.34168294
000310 41 7d 03 bf c9 56 93 bf fe 3f b5 bd c4 07 64 be
       -0.51363 -1.151086 -0.08850096 -0.22268587
000320 f2 cf eb bd 6f 24 f0 3d 5c 14 bf 3c b8 eb 0f 3e
       -0.11514272 0.11725699 0.023325138 0.14054763
000330 12 d4 13 3f 2f cd 82 3d 8f 0f 6e 3c cb f8 22 3e
       0.5774547 0.06386792 0.014530077 0.1591522
000340 fa c5 41 bf 39 70 10 3f 9f 05 57 bf a5 0a bf be
       -0.75692713 0.5642124 -0.8399295 -0.3731281
000350 9c e7 23 be 11 86 9e be 83 a5 ad 3d 82 99 06 3f
       -0.1600632 -0.3096166 0.084788345 0.52577984
000360 84 c5 96 3e cb 20 82 bf 4a 5d dc 3e f8 4e 8b be
       0.29447567 -1.0166258 0.43039924 -0.27208686
000370 60 82 1d bf b0 3b a4 be c0 17 27 3f 78 46 19 be
       -0.6152706 -0.32076788 0.65270615 -0.14968288
000380 b8 63 27 3e b5 fe 8d be 8a f2 cb 3e d8 b2 0f 3f
       0.16346633 -0.2773339 0.3983348 0.5613227
000390 ab 8e 81 3e a0 e3 1e bf 09 19 2c 3f 38 1e e7 be
       0.2530416 -0.6206608 0.672257 -0.45140243
0003a0 77 68 79 3e 00 e3 dd bd 94 75 d4 3e 6e 1d f6 bd
       0.24356256 -0.108343124 0.41495955 -0.12017332
0003b0 a9 cf 9e 3d 4b 33 cd 3d 75 c4 28 be de 5e 6f 3e
       0.07754452 0.10019549 -0.16481192 0.23376033
0003c0 8d 50 37 bf 75 26 8b bd 7d f9 f0 be 59 51 2b 3f
       -0.71607286 -0.067944445 -0.47065344 0.66921
0003d0 3a f3 2a 3f 45 86 c5 3e 5e 4e 07 bf de 99 0d be
       0.66777384 0.38579002 -0.52853954 -0.13828227
0003e0 56 c1 ac 3d 7d 27 ae be dd 53 1f 3e 90 9a 95 3d
       0.084353134 -0.34014502 0.15559335 0.07304871
0003f0 0b 1b a8 3d e3 7a 06 3f 74 98 e0 bd 0f f4 18 bf
       0.08208283 0.5253126 -0.10966578 -0.59747404

pi.pi_net.4.bias f4 [256]
000000 57 2b f5 3d bc 67 82 bf 94 ad 85 bf 8a 6d 81 bf
       0.11971157 -1.0187907 -1.0443597 -1.0111554
000010 22 2d 88 bf de a0 8f bf d0 89 88 bf a6 a0 8b bf
       -1.0638773 -1.1220968 -1.0667057 -1.0908401
000020 81 8c 78 bf ee 42 81 bf 17 65 88 bf 58 bb 7f bf
       -0.9708939 -1.009855 -1.065585 -0.9989524
000030 58 df 8b bf 16 aa 83 bf c1 7f 83 bf 63 98 80 bf
       -1.0927534 -1.0286281 -1.0273362 -1.0046505
000040 fe 04 8b bf fd 23 5e bf ff 14 87 bf 2c 04 77 bf
       -1.0860898 -0.86773664 -1.0553282 -0.9649074
000050 8d 3c 84 bf f3 09 3d be a3 cd 76 bf 26 4b 7f bf
       -1.0330979 -0.18460827 -0.96407527 -0.9972404
000060 8f c3 85 bf 74 d9 8b bf 93 b9 8b bf 91 8f 18 bf
       -1.0450305 -1.0925736 -1.0916008 -0.59594065
000070 78 67 61 bf d3 4d 81 bf cc 2b 8f bf c1 2b 86 bf
       -0.88048506 -1.0101875 -1.1185241 -1.0482103
000080 61 fc 81 bf 8a d6 8b be 54 bc 86 bf bf 98 8d bf
       -1.0155145 -0.27312118 -1.0526223 -1.106224
000090 f9 75 93 bf 7d 77 77 bf 35 96 6e bf 1f 4f 89 bf
       -1.1520377 -0.966667 -0.9319795 -1.0727271
0000a0 32 26 88 bf f8 bf 34 be 8c 09 8a bf 23 ce 43 bf
       -1.0636656 -0.17651355 -1.0784163 -0.76486415
0000b0 4c 09 83 bf d2 6b 93 bf bb 02 8c bf d2 30 82 bf
       -1.0237212 -1.1517279 -1.0938333 -1.0171149
0000c0 7c e5 66 bf 73 b7 88 bf 3f 29 1d bf d7 f1 91 bf
       -0.90193915 -1.0680984 -0.6139106 -1.1401929
0000d0 45 d4 81 bf 8f ff 82 bf 1d 1a 71 bf 3f 30 79 bf
       -1.0142905 -1.023424 -0.9418047 -0.9733924
0000e0 e8 61 84 bf f4 93 88 bf b7 1f 87 bf b8 21 81 bf
       -1.0342379 -1.0670152 -1.0556554 -1.0088415
0000f0 f3 38 ea be e6 79 88 bf 43 f9 62 bf 8e 53 93 bf
       -0.45746574 -1.06622 -0.88661593 -1.1509874
000100 4d c0 82 bf d9 fd 65 bf 17 77 88 bf 53 bd 53 bf
       -1.0214936 -0.89840466 -1.0661343 -0.8271076
000110 78 1b 83 bf a2 cf 85 bf 31 40 86 bf ca 47 85 bf
       -1.0242758 -1.045399 -1.048834 -1.0412533
000120 28 30 92 bf 20 ce 76 bf db fc 80 bf 25 d0 84 bf
       -1.1420946 -0.9640827 -1.0077165 -1.0376021
000130 f2 1f 8b bf 38 de 7e bf ce c1 83 bf 78 d5 8f bf
       -1.0869124 -0.9955783 -1.029352 -1.123702
000140 15 58 85 bf de 06 86 bf c8 49 81 bf af e0 92 bf
       -1.0417506 -1.0470846 -1.0100641 -1.1474818
000150 5e 67 8b bf ed 49 88 bf 06 8c 7a bf 57 f0 84 bf
       -1.089092 -1.064756 -0.9786991 -1.0385846
000160 4d 3d 8a bf b0 60 75 be 02 18 8c bf 46 d8 0c 3e
       -1.0799958 -0.23962665 -1.0944827 0.13754377
000170 45 62 95 bf 57 9f 83 bf f5 b0 84 bf 9e ac 87 bf
       -1.1670614 -1.0283002 -1.0366503 -1.0599554
000180 a8 75 79 bf 5e 14 ec 3e e5 81 92 bf 5a ba 7b bf
       -0.97445154 0.4610929 -1.1445891 -0.98331225
000190 c4 47 88 bf a5 e5 8d bf 10 9c 87 bf 21 c4 6c bf
       -1.0646901 -1.1085707 -1.0594501 -0.9248677
0001a0 96 d9 61 bf 50 ab 81 bf 1e e7 8b bf 48 05 28 bf
       -0.88222635 -1.0130405 -1.0929906 -0.6563306
0001b0 9e 99 69 bf 7e 11 97 bf 50 44 7c bf 94 99 8a bf
       -0.91250026 -1.1802213 -0.98541737 -1.0828118
0001c0 77 9c 94 be 49 b1 8c bf 17 13 56 bf 39 9a 85 bf
       -0.29025623 -1.0991603 -0.8362288 -1.043769
0001d0 79 53 75 bf 27 0e aa be e2 f6 78 bf 57 99 73 bf
       -0.95830494 -0.33213922 -0.97251713 -0.95155853
0001e0 34 4f 82 bf 7d 4a 31 bf 6b 22 7e bf e1 88 84 bf
       -1.0180421 -0.69254285 -0.9927127 -1.0354272
0001f0 06 59 79 bf 43 06 83 bf 74 6e 8d bf eb bb 8e bf
       -0.97401464 -1.0236286 -1.1049333 -1.1151098
000200 8c 0d 86 bf 2d ca 89 bf f7 a7 63 bf 2d d0 85 bf
       -1.0472884 -1.0764824 -0.8892817 -1.0454155
000210 47 3c 7c bf 0b ae 83 bf 2c 87 85 3e c6 9c 83 bf
       -0.98529476 -1.0287489 0.2607969 -1.0282218
000220 19 a5 85 bf cf 54 37 bf dd ae 91 bf cd e2 67 bf
       -1.0441009 -0.7161378 -1.1381489 -0.90580446
000230 32 67 80 bf 2e 01 8a bf 82 bc 86 bf 98 17 93 bf
       -1.0031493 -1.078161 -1.0526278 -1.1491575
000240 55 4c 3f bf d3 14 6e bf 3f b2 82 bf e1 32 84 bf
       -0.7472585 -0.93000525 -1.0210646 -1.0328027
000250 26 1d 9b bf 63 6e 7d bf 28 32 74 bf 40 83 7d bf
       -1.211827 -0.9899656 -0.9538903 -0.99028397
000260 c6 62 82 bf 10 59 85 bf 4b ab 85 bf 10 10 8c bf
       -1.0186393 -1.0417805 -1.04429 -1.0942402
000270 d2 96 64 be aa 85 95 bf 68 03 91 bf e3 b7 8b bf
       -0.22323158 -1.1681416 -1.1329165 -1.0915493
000280 1d 31 14 bf 31 77 80 bf 53 bd 63 bf 68 c1 7a bf
       -0.5788744 -1.0036374 -0.8896076 -0.97951365
000290 77 df 86 bf 5c 72 3e be 3a bc 7c bf 4e ef 84 bf
       -1.0536946 -0.18598312 -0.9872471 -1.038553
0002a0 99 ab 8f bf 2b fa 80 bf 6d 59 9b 3d 2d 71 82 bf
       -1.1224242 -1.0076345 0.07585416 -1.0190789
0002b0 a1 c8 82 bf 23 2c 88 bf 5d 42 cf be 41 f6 95 be
       -1.0217477 -1.063847 -0.4048032 -0.2928944
0002c0 43 6c 72 bf e3 6d 82 bf 16 bf 8f bf 35 5b 83 bf
       -0.94696444 -1.0189785 -1.123019 -1.0262209
0002d0 d2 72 9f bd 0a 7a 6b bf 0a 9e 5c bf 25 d5 89 bf
       -0.07785572 -0.9198309 -0.8617865 -1.0768172
0002e0 db d8 81 bf e2 dd 81 bf 04 67 83 bf 04 0a 8c bf
       -1.0144304 -1.0145838 -1.0265813 -1.0940557
0002f0 8b 3e 77 bf 17 df 74 bf 6f 39 89 bf 91 33 60 bf
       -0.9657981 -0.9565291 -1.0720652 -0.87578684
000300 a3 ce 49 bf 6b b1 6f bf 83 c7 6c bf 68 fe 7b bf
       -0.7883093 -0.93630093 -0.9249193 -0.9843507
000310 4a ff 86 bf 81 bf 81 bf 9c 98 5c bf 86 d8 74 bf
       -1.0546658 -1.0136567 -0.86170363 -0.9564289
000320 e1 0b 6b bf cc 6e 95 bf 68 da 81 bf 56 cd 20 bf
       -0.91815 -1.1674438 -1.0144777 -0.6281332
000330 e3 e4 81 bf 28 fc 83 bf f6 6d 7e bf 79 b8 93 bf
       -1.0147976 -1.0311327 -0.9938654 -1.1540672
000340 3b 90 65 bf 6c 6e 94 bf a8 60 7c bf f0 59 89 bf
       -0.89673203 -1.1596198 -0.98584986 -1.0730572
000350 65 ac 5d bf 16 7f 31 be 7c cf 44 bf 11 ab 87 bf
       -0.8659118 -0.17333636 -0.76879096 -1.059908
000360 60 f6 71 bf 67 42 67 bf 34 7c 8a bf a6 8c 5d bf
       -0.94516563 -0.90335697 -1.0819154 -0.8654274
000370 8f 01 36 bf 7f 7b 6c bf 0c 5b 5f bf e6 22 77 bf
       -0.7109613 -0.9237594 -0.872483 -0.96537626
000380 21 52 71 bf f1 d3 8a bf 48 49 8b bf 8f 85 91 bf
       -0.94265944 -1.0845929 -1.0881739 -1.1368884
000390 b8 ec 33 bf f6 80 88 bf b9 6d 7a bf d8 48 80 bf
       -0.7028308 -1.0664356 -0.97823673 -1.002223
0003a0 bf f6 69 bf 17 8e 77 bf 96 e4 48 bf b9 b5 81 bf
       -0.9139213 -0.96701187 -0.78473794 -1.0133582
0003b0 bf fb 88 bf bc 03 85 bf 6a 07 6f bf e9 e7 63 bf
       -1.0701827 -1.0391765 -0.9337069 -0.8902574
0003c0 d2 cb 29 bf 11 e1 58 bf 19 38 7f bf 80 b1 7b bf
       -0.6632663 -0.84718424 -0.99694973 -0.9831772
0003d0 d4 44 5d bf 83 96 69 bf 13 97 8f bf 6f 8c 7a bf
       -0.8643315 -0.9124529 -1.1217979 -0.97870535
0003e0 a2 54 8e bf 71 50 88 bf ae a1 8e bf 26 b8 8a bf
       -1.1119578 -1.0649549 -1.1143091 -1.0837448
0003f0 8e e7 93 3e fa 05 8b bf 3e 1b 77 bf d2 9e 89 bf
       0.288876 -1.0861199 -0.96525943 -1.0751593

v.v_net.0.weight f4 [64, 5]
000000 84 40 19 be 23 ac 9b 3d e8 e3 5d 3d 66 73 b8 be
       -0.14966017 0.07601192 0.054172426 -0.36025542
000010 41 03 7c be 1a 90 61 bf da 77 27 be ba 6d 4f 3f
       -0.24610616 -0.88110507 -0.16354313 0.81026804
000020 d8 d0 60 be e1 46 d2 3e 22 b5 f7 be 13 2f 8d be
       -0.21954668 0.410697 -0.4838038 -0.27574977
000030 22 75 de 3e 69 94 25 3e b4 de e7 3e 02 04 f1 3e
       0.4344874 0.16169895 0.45287097 0.4707337
000040 70 11 3d be 45 da 85 3d 8d 3c aa 3e fd a8 ec 3e
       -0.18463683 0.06535772 0.33249322 0.46222678
000050 b5 ee 15 3f 52 56 37 3f 47 39 46 3f 41 35 90 be
       0.58567363 0.7161609 0.7743115 -0.2816563
000060 14 5f 88 bd 38 0b ca be 0c b9 97 bd 2f 9b d0 be
       -0.0665876 -0.39461684 -0.07408342 -0.40743396
000070 ab 0b ca bc 31 97 05 bc bf b9 6b bf 2d 9f f6 3c
       -0.024663767 -0.008153723 -0.920803 0.030105198
000080 92 48 2e 3f 5d 42 5d be f1 cd da 3d 25 eb 2d 3f
       0.68079484 -0.21607347 0.106838115 0.6793693
000090 0e ad 5b 3c 7d 53 77 3e 72 a5 0a be 7c d2 df 3e
       0.013407959 0.24152942 -0.13539675 0.43715274
0000a0 bd 3a bc 3e d2 65 42 3e de 8b 34 bd 6e ae 23 3f
       0.36763564 0.18984154 -0.0440787 0.63938034
0000b0 ed 10 bb be 1c b4 8c 3e eb 52 9b 3e 7a 67 a2 3e
       -0.3653635 0.27481163 0.303367 0.3171957
0000c0 0d e1 64 3e a3 1a 49 3f ca 29 8c 3c 1f 3a 2e bd
       0.22351475 0.7855627 0.01710977 -0.042535897
0000d0 55 1e b4 3d 66 8a 07 bf 3e 65 4c bf 95 b3 40 3f
       0.08794848 -0.52945554 -0.79841983 0.7527402
0000e0 bc cf 6f bd f1 ea 2f bf 66 5d 82 3e 55 09 59 bd
       -0.05854772 -0.6871787 0.25461882 -0.052987415
0000f0 de 68 44 3f d3 f8 90 bd 85 f5 15 be e9 04 81 be
       0.76722515 -0.070787095 -0.1464444 -0.2519906
000100 52 53 96 3d b9 ea 00 3f 60 8d 14 3e 00 4d 09 3d
       0.07340111 0.5035816 0.14507055 0.0335207
000110 d0 96 2b 3e 4d 31 e9 3d 6b e0 36 bf de c3 a3 3e
       0.16756749 0.113863565 -0.71436185 0.31985372
000120 c1 b5 49 bf 4e 67 42 bf c6 fb 26 bf 32 35 13 bf
       -0.7879296 -0.7593888 -0.65227926 -0.57503045
000130 9e 76 9b bb 11 e4 97 be fc c9 13 bd 39 2b dd bd
       -0.004744365 -0.29666188 -0.0360813 -0.1079926
000140 fa cf ad bf aa 11 d1 3e cf 41 93 3e 5d 63 f3 3d
       -1.3579094 0.4083379 0.28761145 0.118841864
000150 2b 94 37 3e fa 43 f3 be 6c 25 ac bc 84 47 bd be
       0.17927615 -0.475128 -0.021013938 -0.36968625
000160 72 c2 97 be dc af 47 bf 2c 0a 40 3f 9a 58 1c 3f
       -0.29640538 -0.78002715 0.7501552 0.61072695
000170 54 eb 36 3e 86 85 e2 3d 17 bf e4 3e f5 59 03 bf
       0.17863208 0.11060624 0.4467704 -0.5130914
000180 12 ce a7 3e 4b b4 dc be ad 2c b5 be 4a 42 1d bd
       0.32774407 -0.43106303 -0.35385647 -0.038393296
000190 12 71 d8 be 73 f1 70 3e b9 64 ca be 0b 55 ec be
       -0.42273766 0.23529606 -0.3952997 -0.46158633
0001a0 ec 73 50 bd 48 4a 1a bf 9d da a3 3e 35 db eb be
       -0.0508918 -0.60269594 0.32002726 -0.4606568
0001b0 98 37 38 be b9 ab 29 3d e3 c6 a4 bc 7d 6e 3e 3f
       -0.17989957 0.041423533 -0.020114368 0.7438734
0001c0 d0 09 83 3e 78 f8 c6 be 53 6a 44 be da f3 97 ba
       0.25593424 -0.38861442 -0.19181184 -0.0011593059
0001d0 eb 4b 98 be d3 18 6d 3f e6 69 9b 3f 38 0e 2d 3f
       -0.2974542 0.92616004 1.2141693 0.6759982
0001e0 af a8 33 3f e6 74 85 be b6 86 58 3e 7b b0 0d 3f
       0.70179266 -0.2606575 0.21145138 0.5534741
0001f0 49 d3 99 3d a3 35 fb be 5e 53 07 be 4b 39 b9 3e
       0.075110026 -0.4906436 -0.13215396 0.36176524
000200 ae d7 b9 bb 7f d4 b3 3e 20 7f 3e 3f c4 17 c2 3e
       -0.005671463 0.3512306 0.7441273 0.37908757
000210 9f 6f 32 be 22 d7 ff be ac 15 02 3e 7f 9d 17 bf
       -0.17425393 -0.4996882 0.1270358 -0.59224695
000220 c7 8c d2 be 84 6d 80 3e e1 db 96 3e 1a 36 bb 3b
       -0.4112303 0.25083554 0.2946463 0.0057132365
000230 15 16 87 be ce f0 c9 3c 0e df d5 be d4 19 f2 3d
       -0.26384035 0.024650957 -0.4177174 0.118213326
000240 92 b6 ce 3e cc 70 21 bf 46 3e db bd c6 67 35 be
       0.40373665 -0.6306274 -0.10705237 -0.17715368
000250 44 f6 d1 3e 77 c8 c5 3e b4 44 76 bf e1 20 db bd
       0.41008198 0.38629505 -0.9619858 -0.106996305
000260 4a 70 de 3e 4f 7f af 3d 2f 7e f2 bd 68 20 e1 3e
       0.43445045 0.08569204 -0.11840474 0.43970037
000270 60 3d 96 be 7f da d9 3e 7a 0f 86 3d 34 00 98 3d
       -0.293437 0.42549512 0.06545921 0.07421914
000280 aa 03 86 bf 10 cf 11 be 36 f4 20 3e 10 14 1d 3f
       -1.0469868 -0.14239144 0.15718159 0.6135874
000290 30 32 3b 3d 88 ab c9 be b8 ac b9 be 57 1c 59 be
       0.04570216 -0.3938868 -0.36264586 -0.21202217
0002a0 d4 de e9 be 6d 48 7c be 54 57 04 be 0a 56 ba be
       -0.45677817 -0.24637003 -0.12923938 -0.36393768
0002b0 ba 74 08 3e a2 1a 7c 3c d7 3c 99 bc ec 64 4c 3f
       0.13325778 0.015387209 -0.018705769 0.79841495
0002c0 7b 8b c6 bd 77 64 da 3c ed d3 8e 3e e8 0d f0 3c
       -0.096945725 0.026659233 0.27896062 0.029303506
0002d0 44 1d f2 3e cd 56 1a 3e a9 30 9b 3e 89 8f b2 be
       0.47287953 0.15072174 0.30310562 -0.34875134
0002e0 23 b9 cd 3e 17 cd ed 3e 88 d0 b9 bd 45 3e 13 3e
       0.4018031 0.46445534 -0.09072977 0.14379223
0002f0 79 b1 ae 3e 2c b1 04 3e 13 c7 1b 3f d5 1c b7 bd
       0.34119776 0.1295821 0.6085064 -0.08941046
000300 c5 60 17 3e 01 f7 76 3e 71 b3 98 3d 29 9a 38 bf
       0.14783008 0.24117662 0.07456101 -0.7211023
000310 ad c7 20 3e c2 67 b8 be 46 54 83 bd 86 46 54 3d
       0.1570117 -0.3601666 -0.06412558 0.05182507
000320 62 f7 07 3f 66 50 bf 3d 69 a1 31 bd e4 1f f4 3e
       0.5311185 0.09341507 -0.043366823 0.4768058
000330 c2 e5 72 3e 93 f5 0d 3f 2a 8d 68 3e da dd 49 3f
       0.23720458 0.5545284 0.227101 0.78854144
000340 ad d6 11 3e e6 ca 84 3d 3e 17 76 bf dd 40 24 be
       0.14242049 0.06484012 -0.96129215 -0.16040368
000350 19 46 6e be 0e 22 9b be 92 b9 d6 be e5 89 42 3f
       -0.23268928 -0.3029942 -0.41938454 0.7599166
000360 1a 62 a7 bd 44 df fb 3d 28 f7 26 3e af 96 0a 3d
       -0.08173008 0.12298444 0.1630522 0.03383511
000370 40 64 58 bf 74 c7 d4 bc dc a0 0a 3e b8 02 45 be
       -0.8452797 -0.025974013 0.13537925 -0.19239318
000380 8d fa ea be d7 14 c4 3f 6d 9b 3f 3f 41 d5 18 3f
       -0.4589428 1.531886 0.74846536 0.597004
000390 b3 af 28 3e ca 9a 96 3e 90 45 94 be 27 62 2f bd
       0.16473274 0.2941497 -0.28959322 -0.042818215
0003a0 7f c0 db be bd 9e 2d be d4 6f 81 bd 29 96 30 3f
       -0.429203 -0.16955085 -0.06320158 0.68979126
0003b0 30 a3 f2 bc 46 f0 21 be 47 d3 a4 be 74 05 9e 3e
       -0.02961883 -0.15814313 -0.32192442 0.30863535
0003c0 69 14 22 3e 8c d5 e2 bc 8f c3 bb 3e 75 21 a2 3d
       0.15828098 -0.027689718 0.36672637 0.07916538
0003d0 8a e8 f0 be 02 d2 35 bf a6 e1 a4 3d ac e7 d3 bc
       -0.47052413 -0.7102357 0.080508515 -0.025867306
0003e0 b6 c5 3e bc 06 0e 93 3e 37 b8 2b 3f 3b f6 84 3e
       -0.011643818 0.28721637 0.67077965 0.2596911
0003f0 e5 be ea be 5d 94 8d be de 64 b5 be 1d 30 83 bf
       -0.45848766 -0.27652255 -0.35428518 -1.0249058

v.v_net.0.bias f4 [64]
000000 5b f0 7c 3e f5 6d 10 be 4a 08 a9 bb 5b 6b c9 be
       0.24701063 -0.14104445 -0.005158459 -0.39339718
000010 84 ab 71 3f 35 66 a3 3e ff 54 b3 bd eb 11 d2 be
       0.9440234 0.31913915 -0.08756446 -0.41029295
000020 c1 95 8d be 5c ca 47 3e 1f bc 45 3e 10 63 bd 3d
       -0.27653316 0.19510788 0.19310044 0.0924741
000030 e5 1e 79 bc 9f a7 64 be 13 9b 3a bf 3a fe e1 3e
       -0.01520512 -0.22329567 -0.72892874 0.44139272
000040 26 4e 82 be 01 37 7e bf b4 1d 26 3f d9 aa 88 3e
       -0.25450248 -0.9930268 0.64889073 0.26692846
000050 a8 24 1e 3f d5 d6 5e 3e 71 58 22 3f c5 d7 4d 3e
       0.61774683 0.2176164 0.634162 0.20101841
000060 c5 e6 48 be 27 ae 85 3d 94 91 7d bd 6d 95 79 3d
       -0.19619282 0.065273575 -0.061906412 0.06093352
000070 02 e2 fc 3d dc c7 d5 3c 0b 49 86 bc 80 b4 e8 bd
       0.12347795 0.026096277 -0.016392251 -0.11362553
000080 5d 86 8b bd 66 20 ad 3d 43 14 81 3e cb 68 8e be
       -0.06812737 0.08453445 0.2521077 -0.27814326
000090 61 41 37 be b7 f5 4d be 17 f9 99 be a4 2f 96 3e
       -0.17896034 -0.20113264 -0.30072853 0.29333222
0000a0 71 6c 66 be 45 3a 75 bd 5b c7 07 3c e0 cb c0 be
       -0.22502305 -0.059870023 0.008287276 -0.37655544
0000b0 99 ad c7 3e df d2 a3 3f 97 59 88 3e 12 81 d0 bd
       0.38999632 1.2798728 0.26630852 -0.10180868
0000c0 c2 67 3f be f2 f5 2e bc 82 a4 34 3c 6f f0 81 bf
       -0.18691924 -0.010678755 0.01102555 -1.01515
0000d0 06 51 3c 3f 05 a2 b1 3e 9b fe 7e 3e 00 38 1c bf
       0.7356113 0.34693924 0.24901812 -0.6102295
0000e0 2b 4b 4f bf 62 b9 26 3f 3f c5 1c 3f 59 ab 6c bf
       -0.8097407 0.6512662 0.61238474 -0.92448956
0000f0 fb cc a1 3e b9 b4 90 3f 8b bf e0 be 4c 91 83 be
       0.316017 1.1305152 -0.43896136 -0.2569679

v.v_net.2.weight f4 [64, 64]
000000 5d a5 1f 3f 73 d5 a0 be 4f fc 35 be 02 14 78 be
       0.623617 -0.3141285 -0.1777203 -0.24226382
000010 b8 79 30 3f ab 31 39 3f fd 18 a4 be 95 28 37 bf
       0.6893573 0.7234141 -0.32050315 -0.715463
000020 b6 3f ef be 51 3e fa 3d b5 13 b8 3d 21 49 aa 3e
       -0.46728295 0.12218917 0.08988134 0.33258918
000030 8c a5 1b 3f 09 52 5b be fe 17 c1 be a5 d3 5d 3f
       0.6079948 -0.21418013 -0.37713617 0.8665107
000040 ee 20 9c bf 8c a0 e7 be 25 b4 1d 3e 1c fe 7b 3e
       -1.2197549 -0.45239675 0.15400751 0.24608654
000050 44 8a 6a 3f bf 29 a2 3e 74 14 20 3f 5a d3 e0 bc
       0.91617227 0.31672475 0.6253121 -0.02744453
000060 f9 85 0a bf d1 34 1c be e8 8a 75 3f 5a 00 10 be
       -0.54110676 -0.15254523 0.9591508 -0.14062634
000070 f6 17 16 3c fa 82 75 be 3e 7f db be b2 24 46 be
       0.009160986 -0.23975745 -0.42870516 -0.19349936
000080 97 e2 55 bf a4 ab 6b be b2 9f 01 3f 3f 4f 75 be
       -0.83548874 -0.23014694 0.506343 -0.23956011
000090 04 48 9c bd 50 9c 2c 3e 06 5d 4f 3d 38 5c e0 3e
       -0.076309234 0.16856503 0.050625823 0.43820357
0000a0 6f 16 9f be 2a dd b6 3e 08 d4 7f 3d 43 2d c6 be
       -0.31071803 0.3571561 0.062458068 -0.38706407
0000b0 28 d5 13 3f 17 9d 6f 3f f7 d9 76 3d 4a 52 c0 3e
       0.57747126 0.93599075 0.06026646 0.37562782
0000c0 6e d7 97 bd 60 36 06 bf bc e1 e1 3e 2c 2a df be
       -0.07414137 -0.5242672 0.44117534 -0.43586862
0000d0 ce dd e4 3e 45 56 be 3e 17 72 e1 3e fe d2 d0 be
       0.44700474 0.37175193 0.44032356 -0.40785974
0000e0 fe cb f7 be 38 09 ff 3b 69 e8 ca 3d 91 93 c8 be
       -0.4839782 0.0077830814 0.0990761 -0.39175084
0000f0 3d 1d 62 3f 04 dc 30 3e 1e f6 50 bf 0d 86 8f be
       0.88325864 0.1727143 -0.81625545 -0.2803196
000100 c9 68 dc 3d 0e ef bf be 99 17 52 3e 33 03 20 be
       0.10762174 -0.37487072 0.20516814 -0.1562622
000110 e3 20 46 3d a4 6d 06 3d ae 72 6c 3d d1 63 52 3e
       0.048371207 0.032819405 0.057726555 0.2054589
000120 97 06 2c 3e a3 6e b5 3e 1d c4 cd bd 79 9d 5a 3d
       0.16799389 0.35435972 -0.10047171 0.053372834
000130 d5 04 91 3e dc 3f 90 be 91 9b f5 be 16 01 38 3d
       0.28324 -0.2817372 -0.4797025 0.04492291
000140 5c 32 35 bf 0b 44 01 bf c3 3c 3a 3f 8a e1 50 be
       -0.7077997 -0.5049445 0.72748965 -0.20398536
000150 cb f5 13 3e b6 1f 8d 3e b2 3d 3c be 68 32 4a be
       0.14449231 0.27563256 -0.1838291 -0.19745791
000160 e6 02 a5 3e 57 38 42 be f3 fc 13 3f 6b 45 3c be
       0.32228774 -0.18966804 0.57807845 -0.18385856
000170 c5 8a 92 3c 69 5f 2d be aa 90 27 bf 1d 3f 68 be
       0.017888436 -0.16930927 -0.65455115 -0.22680326
000180 d5 bd bb be 56 4a c2 be 9c 12 4e be ff 22 65 bd
       -0.36668268 -0.3794734 -0.20124286 -0.055941578
000190 48 5c a0 3e 5d df 97 bd c9 f8 60 3e a6 3b f0 3d
       0.31320405 -0.0741565 0.21969904 0.11730127
0001a0 88 c5 ef 3d 2d 8f 89 3e ca 39 05 be ec 6e 7a 3e
       0.11707598 0.26867047 -0.13010326 0.24456376
0001b0 0d c2 15 3e b7 03 ac 3d 7a c7 11 bd b0 aa a8 bd
       0.14624806 0.08399146 -0.035590626 -0.08235681
0001c0 1a ba 8f be db b2 52 be dd c7 fa 3d 2a 8b 1d bf
       -0.28071672 -0.2057604 0.12245152 -0.6154047
0001d0 6e 8a a6 3e 8f 06 d2 3d 17 14 71 3e 48 5a 20 3e
       0.32527488 0.10255157 0.2354282 0.1565944
0001e0 77 17 f9 be 45 1c b1 3e 45 c9 f4 3d 6c 26 de be
       -0.48650715 0.3459188 0.119524516 -0.4338869
0001f0 0c 85 9a 3e a5 3a 06 3f c5 d1 68 be 08 34 54 3f
       0.30179632 0.52433234 -0.2273627 0.82891893
000200 83 f0 43 3f 3a 8b 78 be fa ea fc 3d 26 5b 57 be
       0.76538867 -0.2427186 0.12349506 -0.21030864
000210 d9 7a e2 3e 5c 1a 70 be 28 17 39 3e 6b 54 50 be
       0.4423435 -0.23447555 0.1807524 -0.20344703
000220 2e 33 03 3f c2 1d 64 3e cd 8f 9c bd a5 04 c3 bd
       0.5124997 0.22276977 -0.07644615 -0.0952237
000230 ec df 9a 3d 72 78 be 3e cf 5c 43 bf b4 c1 73 3f
       0.07562241 0.37201267 -0.7631349 0.9521744
000240 50 76 82 bf 82 7b 00 bf 12 af 26 3f b0 34 80 be
       -1.0192356 -0.5018846 0.65110886 -0.25040197
000250 c6 1a 05 3f d5 74 8a bd b4 e9 b4 3e d8 37 40 bd
       0.5199398 -0.06760565 0.3533455 -0.046928257
000260 d3 19 1f be ca 0d 5d be 43 de cf 3e be 7d 06 bf
       -0.15537195 -0.21587291 0.4059926 -0.5253562
000270 7d 8c 04 bf 22 94 fc be 9d 33 c2 be 1f fc 91 3e
       -0.5177687 -0.49331766 -0.37930003 0.28512666
000280 39 62 b9 be 03 54 54 be 26 f3 e9 bc c6 39 18 3c
       -0.3620775 -0.20735173 -0.028558325 0.009291118
000290 9f a6 c4 3e 8a 27 b9 3e 4a 15 eb bd e8 e8 10 3e
       0.38408372 0.36162978 -0.1147867 0.14151347
0002a0 08 f0 2a be a9 bb 38 3f a8 82 ed be 59 f5 f7 bd
       -0.16693127 0.72161347 -0.46388745 -0.12107343
0002b0 f5 d7 06 3f 25 ab 5a 3f 54 11 ce bc a1 ca 3a be
       0.52673274 0.85417396 -0.025154747 -0.1824136
0002c0 cc a9 28 3e 6e 3c 86 be fd e4 2c bd 1e 7f 2f bf
       0.16471022 -0.2621798 -0.042210568 -0.6855334
0002d0 c5 1a 5d 3f ac e8 0a 3f 57 20 b6 3d 6f e1 d7 be
       0.8636897 0.5426128 0.08892887 -0.4216418
0002e0 3c e8 d3 be be e4 07 3f da c1 96 3e cf 28 3f bf
       -0.41388118 0.5308341 0.29444772 -0.74671644
0002f0 cf 03 43 3f 7b 48 4a 3f 8e 71 ca be d3 08 fe 3e
       0.76177686 0.79016846 -0.3953976 0.49616107
000300 db 7a 1d 3e 6e 52 9c be 94 12 98 3e ed b1 25 3e
       0.15378897 -0.3053164 0.29701674 0.16181155
000310 88 86 7d 3e 6c ad bb 3e 92 98 74 be e9 84 f6 be
       0.24758351 0.36655748 -0.23886326 -0.48148277
000320 fc bc 0d 3e 89 6f 76 3d 3d 04 94 be 9b 43 61 3e
       0.13841623 0.060164962 -0.28909484 0.21998446
000330 af 34 9b 3e 39 9d 01 be f7 52 2f be 4c fd c9 bd
       0.30313632 -0.12657632 -0.17121492 -0.09862766
000340 bd 1c 05 bf 45 a7 1a bf b7 90 bb 3e 2a af ba bd
       -0.51996976 -0.60411483 0.36633846 -0.09115441
000350 63 45 82 3e 75 d5 e2 3c ce 77 a8 3e 77 84 c7 bd
       0.25443563 0.027689675 0.32903904 -0.097420625
000360 cf fc f9 3e f6 8b 6b be 42 c3 51 3e 57 e8 4e be
       0.4882569 -0.2300261 0.20484641 -0.20205818
000370 ec 7f b3 3e 83 19 05 bf 5a 44 b3 be c1 52 04 3f
       0.35058534 -0.5199205 -0.35013086 0.5168877
000380 32 ff 81 be 41 06 24 be c3 9b 03 3f 8c 7b 1d be
       -0.2539001 -0.1601801 0.5140955 -0.1537916
000390 0c 1f b6 3e 91 d7 e1 3e f2 db c7 be 57 4c 97 3d
       0.35570562 0.44109777 -0.39034992 0.073876075
0003a0 35 9b 66 3d 4a c3 83 3e a0 d1 2a bd 66 65 0c 3b
       0.05630036 0.2573493 -0.04170382 0.0021422743
0003b0 de bd 12 3e d1 70 24 3f 83 92 bf be 95 33 be 3d
       0.14330241 0.64234644 -0.37416467 0.09287182
0003c0 b8 e1 20 3e e2 64 bd be 75 94 15 3d 9f cf 65 bf
       0.15711105 -0.3699103 0.036518533 -0.8976993
0003d0 69 93 4b 3f 72 11 5a 3d 31 cf 39 3d 2d 56 16 be
       0.79521805 0.053239293 0.04536361 -0.14681311
0003e0 1f 83 df bd 2e ca 04 3f 52 30 1d 3e 35 53 0e bf
       -0.10913681 0.51871 0.15350464 -0.55595714
0003f0 7b bb e8 3e b8 86 78 3e c7 33 6f be a4 cd 7b 3e
       0.45455536 0.24270141 -0.23359595 0.24590164

v.v_net.2.bias f4 [64]
000000 bd 24 c9 3e 7a cd 42 3e 95 fb fc 3e d5 de a1 3e
       0.39285842 0.19023696 0.49410692 0.3161532
000010 35 95 b2 3b db b2 36 be 23 ec e3 be 37 b5 93 be
       0.005449916 -0.17841665 -0.44516096 -0.28849193
000020 ea 32 ff be 38 68 e7 be ae b7 fa be 97 ff 8a be
       -0.49843532 -0.451967 -0.4896826 -0.27148125
000030 e6 a6 ba 3e 7f 6e a4 be 21 26 d1 be 10 81 fe be
       0.36455458 -0.32115552 -0.40849403 -0.49707842
000040 af 88 00 bf 21 82 06 3f c6 cb 02 3f 20 1a 0f 3f
       -0.5020856 0.5254231 0.51092184 0.5589924
000050 25 b2 a2 be 6e 85 af 3e ec bb 08 bf b1 3a 0d 3f
       -0.31776538 0.34281486 -0.53411746 0.5516768
000060 dd 32 4f be f0 d4 01 be 00 9b 03 bf d9 de 02 3f
       -0.20234247 -0.12678885 -0.51408386 0.5112129
000070 55 ec 25 3d 26 cd 74 3e 34 43 86 3e 17 0a f6 be
       0.040508587 0.23906383 0.26223147 -0.48054573
000080 47 5a 0e bf fb 06 21 bf b0 33 8f 3e cc a6 b9 3e
       -0.556065 -0.62901276 0.27969122 0.36260068
000090 c3 cd f3 3e 57 b1 31 3f 40 12 f4 3e f1 2b 01 3f
       0.4761792 0.69411224 0.47670174 0.50457674
0000a0 92 8d 00 3f 27 6f a7 3e 9e 9e aa 3e 02 6e e2 be
       0.5021602 0.3270199 0.3332414 -0.44224554
0000b0 d3 b4 ae 3e 2e 08 d1 be e5 6b 10 bf e5 64 d7 3e
       0.34122333 -0.40826553 -0.56414634 0.42069164
0000c0 4f 8c d2 bd 04 6f a7 3e e4 dc 02 bf 1d b2 a7 be
       -0.10280668 0.32701886 -0.511183 -0.32753077
0000d0 91 d7 de 3e 58 07 c3 be cb 9d af 3e a1 1d 11 be
       0.4352384 -0.3809154 0.34300074 -0.14171459
0000e0 19 2d 28 bf f7 50 12 3f 7e 05 e3 be 15 2e 14 3f
       -0.65693814 0.5715479 -0.44340128 0.57882816
0000f0 25 c9 06 3f 86 53 fd 3e c2 30 c9 be 48 7b 12 3f
       0.5265067 0.49477786 -0.39295012 0.5721936

v.v_net.4.weight f4 [1, 64]
000000 01 e0 62 40 bf 56 60 40 01 9b 73 40 c6 ac 6a 40
       3.544922 3.5052946 3.8063357 3.6667953
000010 aa 72 8d c0 fa 31 65 40 f9 aa 6c c0 e3 b7 8d 40
       -4.420247 3.5811753 -3.6979353 4.428697
000020 1a b8 84 40 db 97 68 c0 ab 36 63 c0 dc 4f 5f 40
       4.1474733 -3.6342685 -3.5502117 3.4892492
000030 57 93 6b 40 48 71 5e c0 76 cd 59 c0 89 dd 67 c0
       3.680868 -3.4756641 -3.4031653 -3.6228964
000040 1c 44 78 c0 89 60 64 40 0f 23 64 40 ae 32 6d 40
       -3.879157 3.568392 3.5646398 3.7062182
000050 c9 5a 6c c0 ed da 5f 40 6b 7f 70 c0 71 7f 82 c0
       -3.693041 3.4977372 -3.757777 -4.078057
000060 45 17 80 c0 73 d8 75 40 48 63 73 c0 66 b3 59 40
       -4.0028405 3.841336 -3.8029346 3.4015746
000070 7e 97 67 40 ae d3 7f 40 19 01 7f 40 7f 13 7a c0
       3.6186213 3.997295 3.984442 -3.90744
000080 4d 85 6e c0 6f 16 7b 40 c7 f9 7a 40 b9 a9 61 40
       -3.726886 3.9232442 3.9214952 3.525984
000090 1c 60 6a 40 3f 54 8c c0 e6 30 7e c0 c4 e1 72 40
       3.662116 -4.385284 -3.9717345 3.7950296
0000a0 3e db 5d 40 f8 40 78 40 1f 2e 64 40 b4 22 8e 40
       3.4665065 3.8789654 3.565315 4.441736
0000b0 64 11 71 40 a3 07 67 c0 9d 11 67 c0 aa b2 62 40
       3.7666864 -3.609841 -3.61045 3.5421548
0000c0 a3 db 5e 40 3a 91 8d c0 bd 03 61 c0 58 6e 65 c0
       3.4821556 -4.423978 -3.5158532 -3.5848598
0000d0 a7 1a 5c 40 bf a3 6e 40 14 a1 69 40 b8 6a 62 40
       3.4391267 3.7287443 3.6504564 3.5377636
0000e0 e3 04 87 40 61 25 60 40 8a c6 7a c0 b7 a5 62 40
       4.2193465 3.5022814 -3.9183679 3.5413644
0000f0 f0 6f 82 40 e2 1f 78 40 60 5a 7b c0 9e df 86 c0
       4.0761642 3.876946 -3.927391 -4.214797
