tmp/experiments/RN3 False,True,True/pyt_network_save/model save45000.pt (torch_old, 314943 bytes, 33 tensors)

pi.pi_net.0.weight f4 [64, 5]
000000 20 9f ee be a0 bf dd 3b f3 4e 1f 3f 2d a2 a4 be
       -0.46605778 0.0067672282 0.6222984 -0.3215498
000010 d8 1c 4f be 55 a3 9e 3e fb 59 54 bd c7 30 80 be
       -0.20225847 0.30983987 -0.051843625 -0.25037214
000020 50 29 e3 be f8 00 51 3e ce 49 e8 3e 70 33 17 3c
       -0.44367456 0.20410526 0.45368809 0.009228572
000030 86 fb 1a 3f 53 77 15 be a6 d8 23 be 24 94 89 3f
       0.60540044 -0.145963 -0.16000614 1.0748334
000040 92 b5 33 bd 13 32 e1 3d 5a 90 56 be 75 44 2f 3d
       -0.04387433 0.10995879 -0.20953503 0.042789895
000050 fe 82 c5 3e 9b e3 d9 3e 42 a8 23 3f 1c 6b 2b be
       0.38576502 0.42556462 0.63928616 -0.16740078
000060 b5 ec c3 bd b0 82 18 be f2 ef 08 3e 2e 07 10 bf
       -0.09566633 -0.14893603 0.13372782 -0.56260955
000070 04 fa 5a be 0c ae f1 bd 2f 9b 74 3e f7 77 7e be
       -0.21384436 -0.11800775 0.23887323 -0.2485045
000080 6f c4 10 3f 6e 81 2a 3f c1 bd 36 be 66 eb 79 3b
       0.56549734 0.66603744 -0.17845823 0.0038134693
000090 10 bf 58 3e 8b b7 88 be 10 ac 54 be fc 8e d0 be
       0.21166635 -0.26702532 -0.20768762 -0.40734088
0000a0 d8 0e 21 3d 32 44 50 3e b3 78 08 3f c8 c6 e1 bd
       0.039320797 0.20338514 0.5330917 -0.11024243
0000b0 50 11 76 3d ec 94 85 bd 5b 84 57 3e 61 4b 93 be
       0.060075104 -0.06522545 0.21046583 -0.28768447
0000c0 fa ed dc bc 9f 35 f5 bd 01 b9 dc 3e 32 a5 6c 3e
       -0.026968945 -0.11973118 0.43109897 0.23109892
0000d0 60 ad 8f 3e f7 42 81 3d 3b d5 80 be 85 42 32 3f
       0.28061962 0.06311601 -0.25162682 0.6963275
0000e0 e1 ab 2c 3f f3 84 58 bf 22 bb 24 be 82 a0 1c 3e
       0.67449766 -0.84577864 -0.1608701 0.15295604
0000f0 42 10 60 be 9f 72 a5 be 56 ca 39 3f 8f 8e 59 be
       -0.21881202 -0.3231401 0.72574365 -0.21245788
000100 ef d5 3c 3c 4d 3d d5 3e 4e 08 9e be f7 f4 f9 3e
       0.011525615 0.4164833 -0.3086571 0.48819706
000110 34 d4 f9 bd 0e 94 1e 3c 98 bf fa be ff e1 26 be
       -0.12198678 0.009678854 -0.489743 -0.16297148
000120 85 48 c7 bd 6d ca 83 bd cc 38 49 3e 1d 1e bf be
       -0.09730629 -0.06435094 0.19650573 -0.37327662
000130 f1 2b 5d bd 25 0c 08 bd e6 6d a9 3c 55 cf 25 bf
       -0.053996984 -0.033214707 0.020682286 -0.6476949
000140 ef c4 1d 3e 39 a2 29 3e d2 72 bb be 7a 47 80 3d
       0.15407155 0.1656579 -0.36611038 0.06263633
000150 5f 40 72 be 13 9f a8 be 6a a7 7c 3e b9 4e 97 3e
       -0.23657368 -0.32933864 0.24673238 0.29552248
000160 be 00 15 be db 12 03 be 2f 52 fe 3e cc f8 92 3e
       -0.14551064 -0.12800162 0.49672076 0.28705442
000170 fb bb 90 be 28 24 bb be 67 ce 31 be 9e a1 98 bf
       -0.28268418 -0.36551023 -0.17363892 -1.1924322
000180 0b 2b fc be ad 33 09 3f 37 62 4e be b3 18 eb 3c
       -0.4925159 0.53594476 -0.20154653 0.028698301
000190 50 49 1e bf b0 05 8e 3e d3 e3 0e 3f 4f f4 66 be
       -0.61830616 0.27738714 0.5581638 -0.22554134
0001a0 4b 7a 9c be 29 3a 5d 3e d6 8e 31 3e 26 95 12 3f
       -0.30562052 0.21604218 0.17339644 0.5725883
0001b0 67 b0 b6 bd 5c 8f 9d be 4a 9e db 3e 8a 66 9a 3e
       -0.08920365 -0.30773437 0.42894202 0.30156356
0001c0 17 fe 2c bf 25 36 19 3e 8a cf e5 bd 26 c5 96 3e
       -0.6757521 0.14962061 -0.112212256 0.29447287
0001d0 8d 6d dd be f9 e0 0d 3f 81 5d 0f bc 7c f2 70 3e
       -0.43247643 0.55421406 -0.00875032 0.2353
0001e0 20 a0 f8 3e 4a 19 8e be 20 9b 44 3f 22 a7 53 3e
       0.48559666 -0.2775367 0.767992 0.20669225
0001f0 e2 35 03 3e 98 25 00 3f cf 3a ca 3d 3c 27 02 3f
       0.12813523 0.50057364 0.09874498 0.50841117
000200 9a 63 40 3d 3b 35 fd bb bb 61 15 3f 9c bf fd 3b
       0.046969987 -0.007727293 0.5835225 0.007743789
000210 6a 40 b9 3e 83 b5 29 3e 36 57 81 3d 8a 48 00 bf
       0.36181957 0.16573147 0.06315462 -0.50110686
000220 04 01 6f 3d df d9 b6 be c3 ad 22 bd ab 1f f8 bd
       0.058350578 -0.35713097 -0.039716493 -0.12115415
000230 d3 40 52 3f 94 9d 53 3e 91 10 b6 3e 1c 07 ad be
       0.82130164 0.2066558 0.35559514 -0.33794487
000240 ca 15 bc bc 28 6b c0 3e 28 d4 01 3f 96 c8 4a bf
       -0.022959609 0.37581754 0.5071435 -0.7921232
000250 c6 43 e8 bd 85 5d c5 be b6 ba db be 4e e2 5e bd
       -0.11341052 -0.38547912 -0.42915887 -0.05441504
000260 71 88 14 3f e7 7a 23 3f 12 06 75 be 88 2f 1a be
       0.58020693 0.6385941 -0.23928097 -0.15057194
000270 91 3f e8 3e fe 38 84 3c 89 a3 c8 3e fd b2 22 be
       0.45360997 0.016140457 0.39187267 -0.15888591
000280 a4 03 00 3e 91 0e e4 3d da ee 29 bf 4a ca f7 3d
       0.12501389 0.11135591 -0.66380084 0.120991305
000290 c5 a8 80 3c 8c c5 06 bf 63 e7 7e bf 8d 54 f9 bd
       0.015705476 -0.5264518 -0.9957182 -0.1217433
0002a0 33 e7 1a 3d b5 b2 f2 bd 0b 8e 77 3f d3 b6 46 3e
       0.037818145 -0.11850492 0.96701115 0.1940568
0002b0 9f 36 54 3e 4a d6 b5 bd c4 26 fa 3d 93 3f 4d bf
       0.20723961 -0.08878763 0.12214425 -0.8017513
0002c0 47 55 0f be 9d d0 e5 bd 83 8d 98 3e 6d 06 1f be
       -0.13997374 -0.112214305 0.29795465 -0.15529795
0002d0 c6 29 f9 bd b7 ea 92 be 5d 68 c4 bd 8d 97 a7 3c
       -0.12166171 -0.28694698 -0.09590218 0.020458007
0002e0 47 08 27 3d 1c 8d 5f 3e 3a 63 37 bd 53 2e 92 3e
       0.04077938 0.21831173 -0.044772364 0.28550968
0002f0 74 94 7f be ad 9d ae 3c a8 6a fd 3e f3 cc 16 bf
       -0.24958974 0.02131542 0.49495435 -0.5890648
000300 eb 4e 19 3c 52 68 8b 3d 43 1a 0d 3f bd e8 67 3d
       0.009357194 0.06807007 0.551182 0.05661844
000310 ac d7 70 3e 93 f2 1e bf 6e d8 a8 be 19 fd d8 3d
       0.23519772 -0.6208889 -0.32977623 0.105951495
000320 40 25 81 be 80 0f c2 be 13 be 12 3f 0d 24 59 3d
       -0.25223732 -0.3790245 0.5732128 0.053012896
000330 ba 58 df 3e fe 36 61 3e f7 0c c0 3e fc d9 f7 3d
       0.4362238 0.21993634 0.3750989 0.12102124
000340 12 eb 1a be f3 f7 19 bf 75 29 b6 bd 80 91 94 3e
       -0.15128735 -0.60143965 -0.08894626 0.29017258
000350 a6 96 25 bf f5 2d 8c be 81 06 75 3e 41 78 38 be
       -0.64682996 -0.27378812 0.23928262 -0.18014623
000360 ee 76 fc be c1 54 15 3f ec cf 5c 3e 55 44 d7 3d
       -0.49309486 0.5833245 0.21563691 0.1051108
000370 4b cc b6 be 4a d3 19 be 64 1e 7a 3e 77 e0 b9 be
       -0.35702738 -0.15022007 0.24425656 -0.36304066
000380 f8 ef ab be 3d 0a 91 3e 01 ae b4 3c 5d ba bc be
       -0.3358152 0.28328124 0.022055628 -0.36860934
000390 53 31 51 3d b7 37 af be fb e3 81 3e 25 75 94 bd
       0.05107243 -0.34222195 0.25369248 -0.07248906
0003a0 c4 b5 51 3f 63 eb 03 be 96 31 3c 3e b5 6e 89 3e
       0.8191798 -0.12882762 0.1837829 0.26842275
0003b0 24 8b 0f bc 47 fa 96 3e 8e 47 05 bf 97 df a6 bd
       -0.008761201 0.2948782 -0.5206231 -0.08148115
0003c0 56 33 b1 be 47 c1 f6 bd 59 08 28 3f af 86 64 bd
       -0.3460948 -0.120485835 0.6563774 -0.055792507
0003d0 16 be 7d 3e 25 d6 e3 be 72 07 bd 3e eb 79 f3 be
       0.24779543 -0.44499317 0.36919743 -0.47553954
0003e0 52 87 c1 3d 1b b9 d7 be b1 bd ab be a5 52 5c bc
       0.094496384 -0.42133412 -0.3354316 -0.013447438
0003f0 40 25 74 3f 0c 86 91 3d 1a 78 cf be 42 c5 08 3f
       0.9536934 0.071056455 -0.40521318 0.5342599

pi.pi_net.0.bias f4 [64]
000000 59 d2 cb 3d 47 fa ea 3d 5b 6c d5 bd 72 ad 5c be
       0.0995223 0.11473518 -0.10421058 -0.21550539
000010 6a 4d 10 be 6f bd 4d 3e 66 0e e2 bd c8 c7 be bd
       -0.14092031 0.20091794 -0.110379025 -0.09315449
000020 6a eb 48 be b3 5c 33 3c 39 c1 f9 bd d8 d9 64 3d
       -0.19621053 0.010947394 -0.121950574 0.055871814
000030 ce 1f 0f 3c bf 86 25 be f1 60 5f 3e 8f 47 9a bd
       0.00873561 -0.16164683 0.21814324 -0.0753318
000040 c9 6d 8c bd b2 f7 ff bc b6 12 93 3d 4e b4 30 3d
       -0.06856877 -0.03124604 0.07181303 0.043140702
000050 cf cd 87 bb 85 2a 9e bd f8 2f f5 3d e9 62 37 bd
       -0.0041444073 -0.07722954 0.1197204 -0.044772062
000060 b9 6a 5a be 8f 4e 85 be 52 29 8d 3c 48 9b e6 3d
       -0.21329774 -0.26036498 0.017231617 0.11260086
000070 03 c0 10 be c5 b4 ad 3d 1b 0b d7 bd d6 26 41 3e
       -0.14135747 0.08481745 -0.10500165 0.18862471
000080 88 75 ba 3d 25 b0 89 be 1a 51 88 be 3f 31 67 3e
       0.091044486 -0.268922 -0.26624376 0.2257738
000090 14 26 80 3e 09 02 48 be 29 83 23 3d 79 1e 75 3d
       0.2502905 -0.19532026 0.039920006 0.059843514
0000a0 f5 2b d1 bd 4c bb 44 be 6e 81 69 3e 21 32 23 bd
       -0.10213462 -0.19212073 0.2280328 -0.03984273
0000b0 d2 7a 87 bd 1b fd f3 bd c2 54 07 be 4a 2f ca bd
       -0.06615223 -0.119135104 -0.13215926 -0.09872301
0000c0 c2 b5 1e 3e 5b fe 3f 3c 55 a3 6c be dd 9f 02 be
       0.15499023 0.011718358 -0.23109181 -0.12756296
0000d0 90 32 ea 3d 52 83 85 3d 2a c0 a3 3b ff 40 9b bd
       0.11435425 0.06519188 0.004997273 -0.075807564
0000e0 ac 17 09 be 8f 80 da 3d 7e bf 90 be 27 bf 4d be
       -0.13387936 0.10669052 -0.28271097 -0.2009245
0000f0 b8 c4 51 be 17 5a fe 3b d4 31 54 3e 2b bd 60 be
       -0.20485198 0.0077622044 0.20722133 -0.21947162

pi.pi_net.2.weight f4 [64, 64]
000000 ee 5b b2 3d 40 ec f8 be 48 82 e9 3d 51 bf 1b 3f
       0.087089404 -0.48617744 0.11401802 0.608388
000010 6f 43 a6 3e ab bf 48 bf 41 df 38 3e 38 dc ba 3e
       0.32473323 -0.7841746 0.18053915 0.3649614
000020 0b dc 84 3e 65 d9 bd be ce 9d 64 bd 45 52 85 be
       0.2594913 -0.3707992 -0.055814557 -0.2603933
000030 07 ad 01 3f 2f 57 0c 3e 56 a7 fa be 03 5b b4 bd
       0.50654644 0.13705133 -0.48955792 -0.088064216
000040 60 bb 04 be 33 09 4f 3e 6a 43 76 3e 11 f8 ef 3e
       -0.12962103 0.20218353 0.24049154 0.46868947
000050 2e cf c9 3e d9 ea 77 3e 6d 73 1a 3d 62 04 66 3e
       0.39415878 0.24210681 0.037707735 0.2246261
000060 1e 01 62 3f 49 4a 8d 3e c2 00 a2 be 1c 2f 7d bd
       0.88282955 0.27595738 -0.31641203 -0.061812505
000070 2f ed ec bd 2a fb ba bd c0 34 69 3d 40 88 9b be
       -0.11568677 -0.09129937 0.056935072 -0.30377388
000080 ba 88 dc be 0f d6 1f 3e be 83 ec 3d 49 e1 91 be
       -0.43073064 0.15609 0.11548565 -0.2849219
000090 2c bf 41 bc 06 46 c9 3e e0 a6 e9 3c 88 31 d7 be
       -0.011825364 0.39311236 0.028521955 -0.42029977
0000a0 b9 fc 32 3e ce 76 2c 3e 52 bb e7 be 90 6d 82 be
       0.17479219 0.16842195 -0.45260102 -0.25474215
0000b0 ab 5b 02 3f cc 12 52 3e 1e 22 8e 3e 90 70 a2 3c
       0.50921124 0.20514983 0.27760404 0.019829065
0000c0 0a 96 e2 39 ef fb c7 be 9a 2b 2a 3f 15 ba 80 bc
       0.00043217867 -0.39059398 0.6647278 -0.01571373
0000d0 30 e4 0f bd b3 d6 1e 3f 01 0d 59 be 98 40 46 3e
       -0.035129726 0.62046355 -0.21196367 0.19360578
0000e0 ff 1a a3 3e 32 81 5a be 52 cd 83 3e 07 8d 01 3f
       0.31856534 -0.21338347 0.25742584 0.50605816
0000f0 c4 dc 82 3e 93 0c 7c be f6 fe 2a bf 8f 64 74 3f
       0.25559056 -0.24614172 -0.6679529 0.9546594
000100 95 ef f9 3d b3 f2 d9 3a ef 5a 31 be 72 dc 93 be
       0.122039 0.0016628116 -0.17319845 -0.28879124
000110 19 88 35 be 3b cb aa 3e 9a 4d ee be 53 3c ed be
       -0.17727698 0.33358178 -0.4654358 -0.46335086
000120 26 c6 23 be 61 10 ce bd 4c 1c 83 3d 8b 50 21 bf
       -0.15993556 -0.10061718 0.064018816 -0.63013524
000130 4f 29 35 3a d7 e6 b8 be 8a a6 ea 3e c6 43 12 bd
       0.00069107575 -0.36113617 0.45830184 -0.035709165
000140 4e 31 3f be fa cb ed 3e 06 e3 76 3c c7 2f 47 3f
       -0.18671152 0.46444684 0.015068775 0.7780728
000150 da e4 04 3e ee 0b 55 3a f8 94 48 3d fe e2 46 3d
       0.12977925 0.0008127083 0.048970193 0.04855632
000160 e5 11 93 be 84 e5 ab bd 5e bd 7f be 16 9e 47 3e
       -0.2872459 -0.08393386 -0.24974582 0.19493899
000170 03 65 c1 bd 79 72 09 be 51 ca a8 bd 6d 4e 43 3e
       -0.094430946 -0.13422574 -0.08241714 0.19072886
000180 c6 24 8e 3e 20 45 05 3e 12 24 2f bf 96 e1 a0 3e
       0.2776243 0.1301465 -0.68414414 0.31422108
000190 ba 69 53 be 66 ba c9 be 52 1d a5 be df 13 9f 3e
       -0.206458 -0.39400023 -0.32248932 0.31069848
0001a0 03 9d 90 bc 54 24 91 3e cf b6 fe 3e ef cb e8 3d
       -0.017652994 0.2834803 0.49748847 0.11367022
0001b0 ea 81 78 3d a1 3b 25 be 0a 87 05 be 1c b6 8d be
       0.06067077 -0.16136028 -0.13039795 -0.27678
0001c0 7e 5d b7 3e 1e 83 18 3f f9 e2 06 bf 5c fb f9 be
       0.35813516 0.5957507 -0.5269008 -0.48824584
0001d0 32 be 98 bd e3 97 8e 3e 32 e4 7f be 97 4a 2d 3e
       -0.07458152 0.27850255 -0.24989393 0.16922985
0001e0 e6 e7 f7 bd 33 54 7d 3e e0 69 6a bd c0 3d d6 be
       -0.12104778 0.2473915 -0.057229877 -0.41843987
0001f0 3b 57 0f bd 46 b3 b3 3e 7b b1 ac 3e ef af 02 bf
       -0.0349953 0.35097712 0.33729157 -0.51049703
000200 f5 7e 05 be fa bf 18 be 9f ac 40 3d 85 27 6b bf
       -0.13036712 -0.14916983 0.047039624 -0.91857177
000210 f3 d2 b8 bd 04 1b bc 3d 55 2e 16 3f 3c 52 eb bd
       -0.0902461 0.0918484 0.5866445 -0.11490294
000220 99 40 66 be 8a f0 c2 bb ca 06 e8 be 9a 10 8a be
       -0.2248558 -0.0059490846 -0.4531768 -0.2696579
000230 17 84 b7 3d 2c 24 1e 3e 88 71 ab 3f 0d 95 3f be
       0.08960741 0.15443486 1.3394022 -0.18709202
000240 7a 67 ca bc 60 11 53 be 17 db 23 3e ba 18 44 3f
       -0.024707545 -0.20612097 0.16001545 0.7660023
000250 ed da 44 be 9a db c6 bd 9c 8a ff be 78 3f a4 3e
       -0.19224139 -0.097098544 -0.49910438 0.32079673
000260 4b 14 ea 3d b9 a4 03 3e 50 ca 11 bf f5 61 8d 3e
       0.11429652 0.12855805 -0.5694933 0.27613798
000270 eb a8 37 be ff 7e 8e be bf c4 46 3e 55 e6 fb 3d
       -0.17935531 -0.27831265 0.1941099 0.12299792
000280 0d 69 dc be 82 08 29 3e b8 a5 23 bf e6 45 3d 3f
       -0.43048897 0.16507152 -0.6392474 0.7393478
000290 b6 f6 6b 3e 6a 76 75 be 36 8c 1f 3f 2b 7c 12 3e
       0.23043332 -0.23970953 0.6232332 0.14305179
0002a0 63 36 df 3d 6e dc 30 bf c0 95 93 be d5 45 d8 3e
       0.10899045 -0.6908635 -0.28825188 0.42240778
0002b0 50 0b 84 3e 8c 13 1b be 26 4b 24 3e c7 64 13 bf
       0.2578988 -0.15144175 0.16044292 -0.5757565
0002c0 a6 29 fe bd 5c 0b 68 be 4d 6e d0 3e 92 09 4f be
       -0.124102876 -0.22660583 0.40709153 -0.20218495
0002d0 c8 a6 64 be d9 93 98 bd 06 68 dd be 0d b9 38 3e
       -0.22329247 -0.07450075 -0.43243426 0.18039341
0002e0 2a fd 80 be e4 43 f8 be 1d 8a 79 3e 44 a2 aa 3e
       -0.2519315 -0.48489296 0.24369092 0.33326924
0002f0 ca df e6 3e 76 b6 b8 3e c5 c0 b0 be 94 10 4f 3f
       0.45092613 0.36076707 -0.3452207 0.8088467
000300 11 a7 9e 3d ca 9a 92 bb ac 02 6f bd 0b e0 72 3e
       0.07746709 -0.0044740187 -0.058352157 0.23718278
000310 79 ff 17 3e 54 58 4c be ee cf e7 3e aa 50 cb 3e
       0.14843549 -0.1995557 0.45275825 0.3970998
000320 6c a8 ad 3e 91 6e f8 3d 2a f4 63 bd 50 87 2e be
       0.33917558 0.12130464 -0.055652775 -0.17043805
000330 04 42 71 3f 6d d2 c8 be 27 f6 c0 3d 3a 7c a9 3e
       0.94241357 -0.39223042 0.0942195 0.3310259
000340 0a bf 8b 3d 2e 1b 60 be 51 6d 85 be 72 37 d0 3d
       0.06823547 -0.21885368 -0.26059964 0.10166825
000350 bd 27 b6 3e 09 cf 03 3f 9a d7 e7 be 82 e2 28 3e
       0.35577193 0.51487786 -0.45281678 0.16492656
000360 36 56 02 3f 5d 01 02 bc e4 20 64 3e e9 4d 11 3e
       0.509128 -0.007934895 0.22278172 0.14189877
000370 f9 17 32 3e a9 9a c8 be e0 7c 86 3e cc bb ae be
       0.17391957 -0.39180496 0.26267147 -0.34127653
000380 30 5a 48 bf e7 73 b3 be 9f 87 34 3e 08 ea 10 3d
       -0.78262615 -0.35049364 0.1762986 0.03537944
000390 8b 82 57 3e fe 23 08 3f 31 09 7c be 45 cc e2 be
       0.21045892 0.5317992 -0.24612881 -0.4429647
0003a0 a1 ff a3 3e 11 65 73 be 29 5a 27 be 10 b0 c4 3e
       0.32030967 -0.23769023 -0.16342987 0.38415575
0003b0 f9 24 f2 bd 5c 8d 90 bd 8e fc 57 3e fb 26 5f 3e
       -0.11823458 -0.07058212 0.21092436 0.21792214
0003c0 0a d7 75 3d 27 1d 56 be e5 81 58 3f be 8a 0c 3d
       0.06001953 -0.20909558 0.84573203 0.034312002
0003d0 1c 96 c1 3d 44 95 d1 3e 17 51 05 3e 95 90 7d bd
       0.09452459 0.40934193 0.13019215 -0.061905462
0003e0 13 c1 f1 3d cb ba cc be 88 a0 87 3e 77 5c 94 3e
       0.11804404 -0.39986262 0.26489663 0.28976795
0003f0 90 70 f3 3d dc ed f2 3d ee a1 c7 be 7a 05 26 be
       0.11886704 0.11861774 -0.3899073 -0.16213027

pi.pi_net.2.bias f4 [64]
000000 2e a2 1a be 01 86 2f 3e e6 7a 50 be ba 56 f1 bd
       -0.15100929 0.17140962 -0.20359382 -0.1178412
000010 dc 39 4d 3e 88 47 2b 3f b1 1a 3c 3e fe 18 9d be
       0.20041603 0.66906023 0.18369557 -0.3068313
000020 c8 2d 5e be 56 20 86 bd 4c ff 28 bd 83 21 ac 3d
       -0.21697152 -0.06549136 -0.041259095 0.08404829
000030 f3 fb 4a be 9a f4 2a 3d a4 9d 67 be 15 8c 33 be
       -0.19822673 0.041737176 -0.22618729 -0.17533906
000040 ca 52 cb 3e 52 a5 80 be 4d 2e c8 bd 2b 49 7e bd
       0.397116 -0.2512613 -0.09774456 -0.062081497
000050 5b e0 6a bc 08 bf ef 3d cc d4 f3 3d 4a 5d d9 be
       -0.014335717 0.11706358 0.11905822 -0.42453986
000060 78 e0 59 be a8 42 63 3e 4c 7a 00 be 12 99 4f 3e
       -0.21277034 0.22193396 -0.12546653 0.20273235
000070 58 89 45 3e 86 33 b5 bc 06 a0 c0 3b a4 47 ba 3d
       0.19290674 -0.022119295 0.0058784513 0.090956956
000080 6e 16 43 3e 14 b1 41 bd 27 15 f3 be 74 1e 31 3e
       0.19051525 -0.047288015 -0.47477075 0.17296773
000090 ac f4 ae 3d 60 18 62 3e 23 22 7b 3d 73 f0 c1 3e
       0.08542761 0.22079611 0.061311852 0.3787876
0000a0 d7 b2 d1 3d 13 b0 ab bd 07 c8 fd bd 37 60 c3 3d
       0.10239189 -0.08383193 -0.12391668 0.09539836
0000b0 2e 2d 3f be ed 85 57 3e 46 6a c4 bd ff 08 eb 3d
       -0.18669578 0.21047182 -0.095905825 0.11476325
0000c0 4b e2 b7 3e 61 2d ab 3d 20 a5 33 be bb d6 8a be
       0.35914835 0.08358265 -0.17543459 -0.2711695
0000d0 21 33 a2 bd c3 9e 9b 3d 14 0b f6 3c 9a bc dc bc
       -0.07919908 0.07598641 0.03003458 -0.026945401
0000e0 65 4b de 3d eb d4 f2 3d 06 9b ab be 5a cb b4 3d
       0.10854224 0.11857017 -0.3351671 0.08827849
0000f0 c2 1b 29 be c6 e3 22 bd e7 47 a6 bc 88 df 9f 3e
       -0.16514495 -0.039768003 -0.020297958 0.31225228

pi.pi_net.4.weight f4 [256, 64]
000000 02 c2 b9 3f 0f b7 3d bf 3c 4b 90 be 51 6e 83 3f
       1.4512331 -0.7410745 -0.281824 1.0268041
000010 9a 4d ea be 43 60 00 be 43 e6 dc bd ae be 56 3f
       -0.4576233 -0.12536721 -0.107861064 0.83884704
000020 4a 54 49 3f 0e ac 1b 3f f3 86 66 3f 09 0a ef be
       0.7864424 0.6080941 0.90049666 -0.46687344
000030 74 e5 07 be 8c 2b 9b be 5e 29 8f 3f e2 70 17 3f
       -0.13271123 -0.3030666 1.1184499 0.5915662
000040 55 2e e9 bb b6 fc 79 be 0c 22 22 3f ff 1f 04 3f
       -0.007116119 -0.24412808 0.633332 0.5161132
000050 83 ff 26 3f a0 c8 07 bf 89 24 03 bf 57 77 eb bc
       0.6523363 -0.53040504 -0.51227623 -0.02874343
000060 39 ce 83 3f 80 18 b7 bc 95 39 96 be 0d 59 a6 bf
       1.0297309 -0.02235055 -0.29340807 -1.2995926
000070 d8 73 2c 3e 06 aa e9 3e 15 45 0d bf e6 18 1c 3d
       0.16841066 0.4563753 -0.55183536 0.038109683
000080 7a f5 2f bf c9 e4 14 3f d2 dc c5 3d ef 41 85 bf
       -0.6873394 0.581616 0.09661259 -1.0410746
000090 c8 72 00 bf 53 73 86 3e 70 4e 16 bf 8d cd da 3e
       -0.5017514 0.2625986 -0.58713436 0.42734948
0000a0 b0 7b e3 be be dd c1 3f bf 7c b3 be cb 0c bb be
       -0.44430304 1.5145795 -0.3505611 -0.36533198
0000b0 b1 32 61 3f 77 d8 b2 be 09 88 78 3e 05 8b bc be
       0.87967974 -0.34930775 0.24270643 -0.36824813
0000c0 66 61 3b bc 91 7d bb be aa f6 92 3f 64 99 0a be
       -0.011436796 -0.36619237 1.1481526 -0.13535076
0000d0 07 d1 be be 9a 95 10 bf c7 17 91 3e a9 dd b9 3e
       -0.3726885 -0.56478274 0.28338453 0.36301926
0000e0 79 38 5e bf ed ca 1b bf e4 76 4d be 89 3a 19 bf
       -0.8680492 -0.60856515 -0.20064884 -0.5985494
0000f0 da cc 9d bd 7d 9b ac be a1 d2 64 3e 66 df 88 3e
       -0.07705088 -0.33712378 0.22345974 0.2673294
000100 c6 fd 21 3e 3c 0b bb bd 8b d2 e4 3e 01 ba c5 be
       0.15819463 -0.09133002 0.44691882 -0.38618472
000110 e2 d6 d3 be 9f 25 50 bf d6 a0 b0 bc 77 b5 41 be
       -0.4137488 -0.81307405 -0.021561068 -0.1891688
000120 b4 bd 40 bd 85 84 50 be 99 af b5 bd de 8a 7b 3e
       -0.047055915 -0.20363052 -0.08871383 0.24564692
000130 54 e7 74 3f 89 65 5a 3e e7 75 9b bd b7 9d 6a be
       0.9566548 0.21327795 -0.075908475 -0.22911726
000140 c6 47 16 bf fc 55 1e 3f 15 92 0d bf 47 a6 c6 be
       -0.5870327 0.6184995 -0.5530103 -0.38798735
000150 da e0 10 be ae 9f e4 b8 63 a1 92 3e 6c 22 b6 3e
       -0.14148274 -0.0001090163 0.28638753 0.35573137
000160 69 38 f5 3e a4 0a 8c bf 3d 5a b0 3e b8 4a b5 be
       0.478946 -1.0940747 0.34443846 -0.35408568
000170 09 f3 26 bf e3 de b1 be 9b b7 0a 3f 56 f7 bc be
       -0.6521459 -0.34740362 0.5418641 -0.36907452
000180 83 bc be 3e 68 fa 3b be 38 f2 44 3e 91 a7 09 3f
       0.37253198 -0.18357241 0.19233024 0.5377131
000190 51 35 03 3e bb 84 50 bf 1d 92 23 3f e7 2e ea be
       0.12813307 -0.8145253 0.63894826 -0.4573891
0001a0 1e 44 0b 3e 15 d2 70 be 9e b8 09 3f b5 de 61 3e
       0.13600203 -0.2351764 0.5379733 0.22057612
0001b0 3f 1d ea bc 92 28 5c 3e 58 60 30 3e 51 e9 e4 3d
       -0.028578399 0.21499851 0.17224252 0.11177314
0001c0 1c e9 c5 be 55 10 0d 3e 0f c9 66 be 3a 02 12 3f
       -0.3865441 0.13775761 -0.22537635 0.5703465
0001d0 de 42 ed 3e c8 bc b9 3e cf 05 d6 bd 17 57 c8 be
       0.46340078 0.3627684 -0.10450327 -0.39128944
0001e0 82 f0 ce 3e 2c d5 9c bd 2e 7a c8 3e 10 3f 84 3e
       0.40417868 -0.07657847 0.39155716 0.25829363
0001f0 3c 1f 42 3d a8 e3 00 3f 39 86 5b be 9f 89 fd be
       0.04739307 0.50347376 -0.2143792 -0.4951906
000200 f7 96 af 3e 02 a1 f3 3e a9 27 a0 3e 60 19 41 bf
       0.34294865 0.47583777 0.31280258 -0.75429344
000210 47 b0 ea be 8b f2 80 bf c9 3c ab bd 36 9a 58 be
       -0.45837614 -1.0074018 -0.08361203 -0.21152577
000220 26 80 ce 3c 40 fd 4e 3e 0e c1 13 be 47 fc 41 3e
       0.02520759 0.20213795 -0.14429113 0.18943892
000230 af ce 31 3f 93 6d 44 3e 52 3e 93 bd 8e c4 4a be
       0.69456 0.19182424 -0.07189621 -0.19801542
000240 f6 e4 5e bf 88 22 01 3f 95 6b 6f bf 9e 47 24 be
       -0.87068117 0.50443316 -0.9352353 -0.16042945
000250 03 61 60 be bb f7 57 3d 91 52 0c be 71 3b 11 3f
       -0.21912007 0.05272649 -0.13703372 0.56731325
000260 18 08 a5 3d 65 c5 4c bf 65 fb f8 3e 1a 83 8b bd
       0.080581844 -0.799887 0.486293 -0.06812115
000270 d1 cb 3b bf 92 16 cf be 77 ba 3c 3f 6f 7e 16 be
       -0.73357874 -0.40446907 0.7372202 -0.14696668
000280 a0 75 4a 3e 42 e4 d2 bd ce 98 a8 3e da 33 a7 3e
       0.19771433 -0.10297443 0.3292908 0.32656747
000290 9b 0b 98 bd 85 5c 4e bf aa 32 12 3f 34 cd ba be
       -0.074240886 -0.80609924 0.5710856 -0.36484683
0002a0 25 41 2d 3e bb 4c 78 bd ce 50 e3 3e c4 38 27 3c
       0.16919382 -0.06062005 0.44397587 0.010206405
0002b0 63 cc 61 3e 04 f9 4b 3e c3 2e 66 be 21 c6 cd 3e
       0.22050624 0.1991921 -0.22478776 0.40190223
0002c0 81 10 f5 be 69 c5 5a bd e5 68 42 be ae f8 5c 3f
       -0.47864154 -0.05341092 -0.18985327 0.86316955
0002d0 1c 86 01 3f 13 4e ee 3e bd 50 47 bd 69 cb 4e be
       0.5059526 0.4654394 -0.048660982 -0.20194782
0002e0 39 c6 b1 3e c8 50 b5 be 44 90 a0 3e de 3b d8 3d
       0.34721544 -0.35413194 0.31360066 0.10558294
0002f0 bd 74 5d be 30 b3 66 3f 24 81 fe bd 57 3a 13 bf
       -0.21626563 0.9011717 -0.12426975 -0.57510895
000300 bb 71 0d 3e 57 c1 82 bd 9a 2d 8d 3e 9e 59 b0 be
       0.13812916 -0.06384533 0.27573854 -0.34443372
000310 cf ab f0 be 62 55 8d bf fa bc db bd f2 60 95 be
       -0.4700608 -1.1041682 -0.10729404 -0.29175526
000320 7f f3 f0 bd f0 bd a8 3d 55 2f ae 3c a3 84 0c 3e
       -0.11765193 0.08239353 0.021262804 0.13722472
000330 31 53 1a 3f 32 06 a2 3c a4 fb 0b bd 8a c2 a0 3d
       0.6028319 0.019778345 -0.03417553 0.078496054
000340 d7 0e 2d bf df 7b 17 3f 00 3a 49 bf c4 8f a9 be
       -0.6760077 0.5917339 -0.78604126 -0.33117497
000350 64 9e 5e be 4c e4 8e be db 76 ff 3d 01 1d ef 3e
       -0.21740109 -0.27908552 0.12473842 0.46701816
000360 40 16 80 3e 57 06 75 bf 52 bf c2 3e 43 88 6b be
       0.25016975 -0.957128 0.3803659 -0.23001198
000370 18 e6 22 bf 89 e8 94 be 96 72 1e 3f 76 da 36 be
       -0.63632345 -0.2908366 0.61893594 -0.17856774
000380 9e 04 29 3e 78 71 9f be a6 16 b3 3e 84 66 03 3f
       0.16505668 -0.31141257 0.34978217 0.513283
000390 f0 48 6d 3e 65 1c 2d bf 5d a0 1f 3f 31 ad f0 be
       0.23172355 -0.6762145 0.6235407 -0.47007135
0003a0 7c ba 59 3e 7b 21 be bd 7f 92 d3 3e 1d 2e 0f be
       0.21262544 -0.0928373 0.41322705 -0.13982435
0003b0 61 b3 38 3d 76 0a de 3d 57 d2 5d be af 92 8c 3e
       0.045092944 0.10841839 -0.2166227 0.2745566
0003c0 8a 0e 2b bf 8b f2 4c bd a0 22 f2 be 11 0a 2a 3f
       -0.6681906 -0.050035994 -0.47292042 0.6642161
0003d0 71 b1 33 3f b0 5a e3 3e 4c 3c 0e bf b5 aa 25 be
       0.7019263 0.44405127 -0.55560756 -0.16178401
0003e0 e0 a1 07 3d e5 8c 95 be b6 57 21 3e e1 11 e2 3d
       0.03311336 -0.29209056 0.15756115 0.110385664
0003f0 e2 f5 11 3d 2a 2a 16 3f 6a 7d a3 bd 0a 14 17 bf
       0.035634883 0.5865809 -0.07982905 -0.5901495

pi.pi_net.4.bias f4 [256]
000000 a4 b9 0a 3e 7d 05 71 bf 52 62 76 bf f7 c0 6d bf
       0.13547379 -0.94149 -0.96243775 -0.92872566
000010 66 b5 7a bf fa fc 85 bf e9 d3 7d bf 2d 0a 82 bf
       -0.9793304 -1.0467827 -0.99151474 -1.0159355
000020 72 ea 64 bf 38 9f 6d bf 69 bd 7b bf 26 1a 6a bf
       -0.89420235 -0.92821074 -0.9833589 -0.9144615
000030 e6 4b 81 bf 9a 89 73 bf fe 88 70 bf b2 2d 6d bf
       -1.0101287 -0.9513184 -0.93959033 -0.9264785
000040 f2 4c 80 bf e0 ce 46 bf 6b e5 78 bf 66 6e 66 bf
       -1.0023482 -0.77659416 -0.97225064 -0.90012205
000050 d4 bf 74 bf 96 7b 18 3e 21 52 61 bf f0 5b 6a bf
       -0.95605206 0.14890894 -0.88015944 -0.91546535
000060 52 9d 76 bf 27 91 81 bf 09 e0 80 bf 08 76 06 bf
       -0.963338 -1.0122422 -1.006837 -0.5252385
000070 43 d3 4f bf f3 cf 6b bf 8c 91 85 bf c9 70 79 bf
       -0.81181735 -0.9211418 -1.0435042 -0.9743772
000080 97 fb 6f bf 1e 01 68 bd 73 7d 79 bf 1c d6 82 bf
       -0.9374327 -0.05664169 -0.97457045 -1.0221591
000090 a3 31 88 bf 11 fa 66 bf 55 53 5b bf d5 20 7d bf
       -1.0640148 -0.9022532 -0.8567403 -0.9887822
0000a0 7f 39 7b bf aa 10 d3 3c 77 6e 7d bf 5f 67 33 bf
       -0.9813461 0.025764782 -0.9899668 -0.70079607
0000b0 20 bc 73 bf 93 1b 89 bf e1 91 81 bf 7d 98 6e bf
       -0.9520893 -1.071154 -1.0122644 -0.9320143
0000c0 71 bb 52 bf 3a e9 78 bf 4c 0f 09 bf 17 39 87 bf
       -0.8231726 -0.97230875 -0.53538966 -1.0564297
0000d0 36 d6 6d bf f8 bf 6f bf 3b 81 58 bf c1 e6 64 bf
       -0.92904985 -0.93652296 -0.8457219 -0.894146
0000e0 be 57 73 bf a5 9b 79 bf 15 e7 7a bf c1 8d 6e bf
       -0.9505576 -0.9750312 -0.98008853 -0.9318505
0000f0 54 26 61 be 25 e1 7b bf 27 69 4f bf c9 4f 89 bf
       -0.21987277 -0.9839042 -0.81019825 -1.0727473
000100 e2 7e 72 bf f6 a5 51 bf fb ca 79 bf 46 1a 3e bf
       -0.9472486 -0.8189386 -0.9757535 -0.7425884
000110 0f 21 71 bf d3 1d 77 bf c9 d2 77 bf 05 7f 74 bf
       -0.9419107 -0.96529883 -0.9680601 -0.95506316
000120 66 7a 86 bf 37 18 61 bf 75 14 6e bf f7 36 74 bf
       -1.0506103 -0.87927574 -0.92999965 -0.9539637
000130 e7 51 7f bf 17 e4 69 bf b1 f3 72 bf 9c 24 85 bf
       -0.9973435 -0.9136366 -0.94903094 -1.0401797
000140 e0 0f 76 bf 08 b1 76 bf b3 e2 6c bf 5f 00 86 bf
       -0.96117973 -0.9636388 -0.92533416 -1.0468863
000150 49 2c 82 bf 13 38 7b bf ea 95 65 bf 3a 89 75 bf
       -1.0169765 -0.9813244 -0.89681876 -0.95912516
000160 d0 a4 7f bf e5 36 f6 bd 21 75 80 bf 02 b0 d3 3c
       -0.9986086 -0.12022189 -1.0035745 0.025840763
000170 9e 97 8a bf 22 81 74 bf 12 fe 73 bf 4d 84 78 bf
       -1.082752 -0.9550954 -0.95309556 -0.97076875
000180 9d 4b 66 bf 82 dc e8 3e ec 88 88 bf e0 28 67 bf
       -0.89959127 0.45480734 -1.0666785 -0.90296745
000190 6a 9b 7b bf 22 98 83 bf 89 63 7a bf 33 33 58 bf
       -0.9828402 -1.0280802 -0.9780813 -0.84453124
0001a0 a4 39 54 bf de b8 6e bf 8e 5d 81 bf fc f1 11 bf
       -0.8290045 -0.93250835 -1.0106676 -0.57009864
0001b0 cd 88 56 bf ff 9c 8c bf f1 51 67 bf e2 39 7e bf
       -0.8380249 -1.0985411 -0.9035941 -0.9930707
0001c0 20 03 91 bd a7 c0 81 bf 8f 7c 44 bf 6f 2b 77 bf
       -0.07080674 -1.0136918 -0.7675256 -0.9655065
0001d0 20 4b 5e bf 7b 5e 84 be 32 53 64 bf ad 24 5f bf
       -0.8683338 -0.25853333 -0.89189446 -0.8716534
0001e0 6e 14 70 bf 88 2e 1e bf d8 c5 68 bf 17 1b 76 bf
       -0.93781173 -0.6178975 -0.90926886 -0.96135086
0001f0 47 10 65 bf 94 22 70 bf 97 eb 82 bf c9 a9 84 bf
       -0.8947796 -0.9380276 -1.0228146 -1.0364314
000200 1a 74 75 bf ed c3 7d bf 30 2d 4f bf 90 e1 77 bf
       -0.9588028 -0.99127084 -0.80928326 -0.96828556
000210 21 3c 6a bf 6e 23 76 bf 60 96 44 3d 70 00 73 bf
       -0.91498 -0.9614781 0.04799497 -0.9492254
000220 f1 f3 73 bf fa b5 20 bf 83 3d 88 bf 71 07 55 bf
       -0.952941 -0.62777674 -1.0643772 -0.8321448
000230 75 83 6a bf 0a e8 7f bf d4 dc 75 bf 96 63 89 bf
       -0.9160684 -0.9996344 -0.9604008 -1.0733516
000240 da 57 26 bf fa f2 59 bf 4b 04 71 bf 4d 9f 73 bf
       -0.649778 -0.8513638 -0.94147176 -0.9516495
000250 f0 f2 90 bf ef 59 68 bf 1d c5 5d bf db 3f 66 bf
       -1.1324139 -0.9076223 -0.86628896 -0.89941186
000260 b8 44 70 bf d9 51 71 bf c1 6c 78 bf d5 fe 80 bf
       -0.93854856 -0.94265515 -0.97040945 -1.0077769
000270 89 52 af 3c e5 b9 8a bf cb 69 87 bf ec 25 80 bf
       0.02140166 -1.083798 -1.057916 -1.0011573
000280 5f bf 01 bf 83 f6 69 bf ac 1c 4e bf ee d4 62 bf
       -0.50682634 -0.9139177 -0.805125 -0.88606155
000290 e1 7a 77 bf 67 bd a7 3c 07 3f 64 bf c6 0b 76 bf
       -0.96671873 0.020476056 -0.8915867 -0.96111715
0002a0 8e 88 85 bf c6 7e 6d bf 0b ae fb bd 75 a1 71 bf
       -1.0432298 -0.92771566 -0.122890554 -0.9438699
0002b0 5e 87 6f bf 49 39 79 bf 2e c0 3f be 19 07 21 be
       -0.9356593 -0.97353035 -0.18725654 -0.15725364
0002c0 88 2b 5e bf 47 42 70 bf 9c fe 86 bf 72 ce 73 bf
       -0.86785173 -0.9385113 -1.0546451 -0.95236886
0002d0 fa 5e 6b 3d 79 e6 53 bf dd 5d 49 bf ec 9e 7c bf
       0.057463624 -0.8277355 -0.7865885 -0.98679996
0002e0 60 15 6b bf 92 39 71 bf f8 c4 73 bf 61 da 81 bf
       -0.9182949 -0.9422847 -0.95222425 -1.0144769
0002f0 16 b8 60 bf 97 fe 60 bf ed d3 7c bf 68 a1 4a bf
       -0.8778089 -0.87888473 -0.98760873 -0.79152536
000300 90 a8 38 bf e5 57 5c bf 05 7f 58 bf f1 df 67 bf
       -0.72132206 -0.86071616 -0.84568816 -0.9057608
000310 74 9b 78 bf ba 03 6d bf 28 9a 47 bf 37 84 61 bf
       -0.971122 -0.9258381 -0.779696 -0.8809237
000320 ea 07 56 bf 99 d5 89 bf a4 b0 6e bf 4e fd 0a bf
       -0.83605826 -1.076831 -0.9323828 -0.5429276
000330 27 21 6f bf 24 62 71 bf 24 34 6a bf 67 8b 88 bf
       -0.9340996 -0.94290376 -0.9148581 -1.0667542
000340 9f a6 54 bf 0a 7c 8a bf 41 08 67 bf 96 f3 7b bf
       -0.83066744 -1.0819104 -0.9024697 -0.9841856
000350 89 f7 49 bf 1a 8c 1f 3c 6f ee 2c bf 17 2f 7b bf
       -0.78893334 0.009737993 -0.6755132 -0.9811873
000360 58 03 5e bf 2c 94 55 bf f8 89 7e bf 80 68 49 bf
       -0.8672385 -0.8342922 -0.99429274 -0.7867508
000370 bc 0c 24 bf 00 b2 58 bf 98 ef 49 bf 27 6e 61 bf
       -0.6408193 -0.84646606 -0.78881216 -0.88058704
000380 cf 62 5c bf e7 7f 80 bf 04 ea 7f bf 0e 33 87 bf
       -0.8608827 -1.0039033 -0.99966455 -1.0562456
000390 fa e9 1d bf 05 49 7b bf 48 e9 66 bf a7 87 6c bf
       -0.61685145 -0.98158294 -0.9019971 -0.9239449
0003a0 91 c4 53 bf 81 42 63 bf 55 a4 34 bf 0f 09 6f bf
       -0.8272181 -0.8877335 -0.7056325 -0.933732
0003b0 09 b9 7b bf c7 76 72 bf 70 d6 57 bf 55 32 51 bf
       -0.98329216 -0.9471249 -0.8431158 -0.81717426
0003c0 a9 9e 13 bf 44 cf 44 bf 54 90 6a bf 91 60 66 bf
       -0.5766397 -0.7687876 -0.9162648 -0.899911
0003d0 c1 f2 4b bf cf d3 54 bf ae 8f 84 bf 25 b4 65 bf
       -0.7966729 -0.83135694 -1.0356348 -0.89728004
0003e0 34 d3 83 bf f0 71 7b bf af f2 83 bf 77 6e 80 bf
       -1.0298829 -0.9822073 -1.0308436 -1.0033711
0003f0 2a 88 a3 3b 77 1b 81 bf b5 9c 63 bf 09 0e 7f bf
       0.0049905973 -1.0086507 -0.8891099 -0.9963079

v.v_net.0.weight f4 [64, 5]
000000 fd 71 01 be bc 3e 2b 3e 13 63 4a bd 86 20 d2 be
       -0.1264114 0.1672315 -0.04941089 -0.41040438
000010 e0 77 9e be 4e e2 5a bf 33 7e 46 be dc 73 50 3f
       -0.30950832 -0.85501564 -0.19384079 0.8142679
000020 ee 2a 5f be f2 f2 d4 3e b1 07 d0 be 5c ff a6 be
       -0.2179372 0.41591603 -0.40630868 -0.326167
000030 10 d2 e6 3e 71 51 08 3e 15 e1 e5 3e c5 3e d7 3e
       0.4508214 0.13312317 0.44898286 0.42040077
000040 d0 40 5b be 7b 8b c6 3d 82 f2 a0 3e b8 4a e2 3e
       -0.21411443 0.096945725 0.3143502 0.4419763
000050 84 40 f1 3e 59 51 29 3f 13 f1 32 3f 2b 0e 9f be
       0.47119534 0.6613975 0.698991 -0.31065497
000060 86 ca 17 be 52 c0 af be ca 49 93 bd af 17 cf be
       -0.1482335 -0.34326416 -0.071918085 -0.40447757
000070 03 5d 41 bb 6b 77 5f 3b e2 ea 5c bf 24 82 c8 bb
       -0.0029504902 0.0034098278 -0.862959 -0.0061190296
000080 5d 30 33 3f 02 41 3d be d1 06 24 3e 0c ab 20 3f
       0.6999567 -0.1848183 0.16018225 0.62760997
000090 d2 05 48 3b 57 6d 7b 3e 40 73 28 be 9b 9d d1 3e
       0.0030521047 0.24553429 -0.16450214 0.40940556
0000a0 92 8a a3 3e d2 85 3b 3e bd e8 49 bd 7c 66 21 3f
       0.31941658 0.18312767 -0.049294222 0.63047004
0000b0 18 23 bf be 00 ab 46 3e 32 f5 94 3e 04 31 a9 3e
       -0.37331462 0.19401169 0.2909332 0.33045208
0000c0 d3 dd 8f 3e d3 79 48 3f a9 a5 ac bd 30 62 c0 bd
       0.28098926 0.7831089 -0.08430035 -0.09393728
0000d0 55 e4 af bc 3c 66 12 bf 6e 3b 47 bf 84 05 33 3f
       -0.021471182 -0.5718725 -0.7782506 0.6993029
0000e0 42 5c e1 bc b8 85 33 bf be 1f 75 3e c6 79 c4 bd
       -0.027509812 -0.70125914 0.2393789 -0.09593539
0000f0 6e 28 37 3f 91 29 49 bd 54 b8 25 be e8 40 92 be
       0.71546066 -0.049111906 -0.16183597 -0.28565145
000100 64 67 5e 3d 89 95 e5 3e c4 5c 0c 3e 78 f8 31 3d
       0.05429782 0.4484065 0.13707262 0.04344985
000110 c6 c1 20 3e e0 c0 ab 3d 77 c9 63 bf 93 73 14 3e
       0.15698919 0.08386397 -0.88979286 0.14497213
000120 a3 88 24 bf b9 5b 0e bf 52 27 ca be 50 cb 04 bf
       -0.6427099 -0.5560871 -0.39483124 -0.5187273
000130 00 88 4b 3b 09 e9 93 be 41 1f 6a bc 96 0e b3 bd
       0.0031056404 -0.2888873 -0.014289678 -0.087430164
000140 58 c8 a8 bf 42 b0 bc 3e 7a 07 91 3e 45 35 e5 3d
       -1.318614 0.36853224 0.28326017 0.11191801
000150 94 7d 2f 3e f9 67 0f bf 80 cd e3 bd 9d df 88 be
       0.17137748 -0.56018025 -0.111231804 -0.26733103
000160 73 c4 3a be bc 68 1b bf af 5d 21 3f 04 9e 14 3f
       -0.18239002 -0.60706687 0.63033575 0.5805361
000170 f2 94 06 3e c8 74 d0 3d 00 80 ed 3e 27 ef f2 be
       0.13142756 0.10178524 0.4638672 -0.47448084
000180 2d c8 b3 3e 8c 27 e1 be 7c ed be be 23 aa 3d bd
       0.3511366 -0.43975484 -0.3729056 -0.046304833
000190 c5 5c b1 be ff 15 80 3e f5 3f bb be 41 d7 de be
       -0.3464109 0.25016782 -0.36572233 -0.435236
0001a0 49 09 39 bd be 55 11 bf 8b ed a4 3e 1d c4 f1 be
       -0.04517487 -0.5677146 0.3221248 -0.47219935
0001b0 3f 4a 3b be 72 8b 31 3d db bf e2 bb c3 97 3b 3f
       -0.18290041 0.043345876 -0.0069198436 0.73278445
0001c0 00 3c 88 3e 8e a4 bd be ff a7 5a be 7d 7b 15 3d
       0.26608276 -0.37039608 -0.21353148 0.03649472
0001d0 ce ea 79 be 0b 8d 3d 3f 4e 4d 7c 3f f7 46 1f 3f
       -0.24405977 0.7404334 0.9855546 0.6221766
0001e0 05 49 1e 3f cc 84 93 be 84 a1 67 3e 2f d9 0b 3f
       0.6183017 -0.28812253 0.22620207 0.5462827
0001f0 b8 93 7f 3d 50 06 db be 1a 71 2d be e1 4c c4 3e
       0.062396735 -0.42778254 -0.16937676 0.38339904
000200 03 c3 b8 3b e1 c7 b9 3e c2 e9 37 3f c9 3e d2 3e
       0.0056384816 0.36285308 0.7184106 0.41063526
000210 3c 50 1d be 9e 5b 05 bf e2 05 e2 3d d1 06 0e bf
       -0.15362638 -0.5209292 0.11036278 -0.5547915
000220 e2 14 e0 be ce 4f 7b 3e 79 de 9b 3e 63 c8 8b 3c
       -0.43765932 0.24542162 0.3044317 0.017063325
000230 2c 5f 54 be 53 2a c9 3b e8 02 ca be a6 e1 04 3e
       -0.2073943 0.0061390786 -0.39455342 0.12976703
000240 cb 89 d4 3e 86 25 11 bf b5 e1 07 be 52 d7 2e be
       0.41511378 -0.5669788 -0.13269694 -0.17074326
000250 3f 9a d4 3e af c5 c7 3e d6 b9 6d bf f6 0f 0e be
       0.4152393 0.39018008 -0.9286169 -0.13873276
000260 b2 88 e0 3e e7 90 ec 3d 1d 21 bd bd aa a8 ef 3e
       0.4385429 0.115510754 -0.092348315 0.46808368
000270 e7 1e 87 be 7d ca e8 3e 08 1f 95 3d 12 e6 b7 3d
       -0.26390764 0.45466986 0.07281309 0.08979429
000280 bd 2d 81 bf db dc 35 be cc 8a 1c 3e c8 b8 1e 3f
       -1.0092083 -0.17760031 0.15287322 0.62000704
000290 8c 36 08 3d e1 5e ad be 6d a4 ab be a0 8f 5e be
       0.033255145 -0.3386145 -0.33523884 -0.21734476
0002a0 a6 0d e4 be b1 e6 7e be 90 9b fd bd 66 c0 9d be
       -0.44541663 -0.2489269 -0.12383187 -0.3081085
0002b0 ce f2 53 3d 0e 58 78 3d ad b1 36 bd e9 10 41 3f
       0.05174523 0.06063085 -0.04460304 0.7541643
0002c0 2b 14 bb bd 65 40 03 3d 81 ac 89 3e b6 bb 40 3c
       -0.09134706 0.032043833 0.26889423 0.011763504
0002d0 b2 62 e1 3e 42 03 26 3e c9 5f a1 3e 50 83 ba be
       0.4402061 0.1621218 0.3151839 -0.36428308
0002e0 d6 8d c5 3e b8 43 d6 3e 65 fa bd bd e6 5a 27 3e
       0.38584775 0.4184854 -0.092762746 0.16343269
0002f0 dc ba ab 3e 7e 01 f0 3d e0 8b 0e 3f 2c 04 ab bd
       0.33541 0.117190346 0.5568218 -0.08350405
000300 ef e8 1e 3e 2b f5 7a 3e 91 e5 94 3d b2 cd 2b bf
       0.15518545 0.24507587 0.07270349 -0.6711074
000310 a5 bf 1c 3e ec ab b8 be f0 1c 55 bd 2a 6e 8e 3d
       0.15307482 -0.36068666 -0.05202955 0.06954606
000320 46 2c f0 3e 9a cd ac 3d 37 49 fe bc 64 3e ee 3e
       0.46908778 0.08437653 -0.031040771 0.46531975
000330 d5 a8 4d 3e 6e b0 00 3f d9 a9 6c 3e a1 0f 4e 3f
       0.20083936 0.5026921 0.23111667 0.804926
000340 6f 81 ff 3d 50 d0 ad 3d eb a6 51 bf 60 d3 13 be
       0.124758594 0.08486998 -0.8189532 -0.14436102
000350 17 be 7b be 3f 51 95 be 39 c2 d2 be 49 43 37 3f
       -0.24584232 -0.29163548 -0.41163805 0.71587044
000360 26 9e 8f bd 93 58 03 3e 9c a6 20 3e b3 47 ea 3c
       -0.07012586 0.12826757 0.15688556 0.028598642
000370 68 1b 4b bf 69 74 a8 bc 3c 54 05 3e 28 ba 22 be
       -0.79338694 -0.020563321 0.13020414 -0.15891325
000380 ea e8 d3 be 7e 28 ae 3f 00 8b 39 3f e0 4b 22 3f
       -0.41388637 1.3606107 0.7247772 0.63397026
000390 27 eb 0a 3e 40 20 68 3e 81 b5 7e be 17 0c 18 bd
       0.13566266 0.22668552 -0.24873926 -0.037120905
0003a0 a2 d0 e1 be 85 d5 19 be 33 02 77 bd 67 2d 22 3f
       -0.44104487 -0.15022857 -0.06030483 0.6335053
0003b0 44 a6 be bb 8b 6b 37 be 85 c9 bc be 33 32 8d 3e
       -0.0058181603 -0.17912118 -0.36872497 0.2757736
0003c0 52 be ff 3d 23 8f 29 bd a3 8b b6 3e 2f 30 33 3e
       0.124874726 -0.04139627 0.3565341 0.1749885
0003d0 25 65 67 be bc 32 28 bf e7 27 69 3d 78 4d c5 bc
       -0.22597177 -0.65702415 0.05692282 -0.024084792
0003e0 18 d1 f7 ba c7 bc 9b 3e 66 a3 1e 3f f8 dd 96 3e
       -0.0018906919 0.30417463 0.61968076 0.29466224
0003f0 47 9d f2 be c1 d6 90 be 1f 72 be be ac 05 89 bf
       -0.47385618 -0.28288844 -0.37196442 -1.0704856

v.v_net.0.bias f4 [64]
000000 a7 97 60 3e 12 27 3d be 35 6c ba bc 68 f1 b0 be
       0.21932851 -0.18471935 -0.022756675 -0.34559178
000010 79 90 53 3f 96 c5 90 3e f1 4c ea bd 10 3e c2 be
       0.8264232 0.28275746 -0.11440457 -0.37937975
000020 4c 98 7d be 35 36 1b 3e d5 e7 16 3e c8 30 07 3e
       -0.24765128 0.15157397 0.14736874 0.13202202
000030 ef 59 b1 3c eb 50 48 be f5 cc 47 bf 7a 49 d2 3e
       0.021649329 -0.19562118 -0.78047115 0.41071683
000040 40 d0 92 be 84 96 76 bf dc 32 18 3f 80 80 80 3e
       -0.28674507 -0.9632342 0.59452605 0.25098038
000050 49 13 1b 3f 64 49 3e 3e c6 92 14 3f 8d 00 32 3e
       0.605763 0.18582684 0.5803646 0.17383023
000060 c9 f6 33 be 01 3d af 3c 89 8f ef bb ca 4b 29 3c
       -0.1757461 0.021391394 -0.007310812 0.010333011
000070 c5 68 cd 3d 74 38 87 bb e6 4a 7c bd 5b 0e a8 bd
       0.10029749 -0.004126603 -0.061594866 -0.08205863
000080 2b 0c e2 bd c0 16 82 3d 5e 5e 4b 3e 6b 34 7d be
       -0.11037477 0.063519955 0.19860217 -0.24727027
000090 47 f2 0e be d8 04 31 be 86 54 88 be 57 11 87 3e
       -0.13959609 -0.17287004 -0.26626986 0.26380417
0000a0 fa c0 4c be d6 fb 1d bd 31 a0 94 3b aa 48 ac be
       -0.1999549 -0.038570248 0.004535698 -0.33649188
0000b0 8c 0a b8 3e 70 d1 97 3f a9 0a 69 3e 05 56 82 bd
       0.35945547 1.186079 0.22757973 -0.06364063
0000c0 6f 5b 3c be 87 91 2d bd f4 0b 37 3d a9 5c 8d bf
       -0.18394254 -0.042375114 0.044689134 -1.1043903
0000d0 04 6e 31 3f 0f 84 a2 3e a3 fe 63 3e a1 fc 07 bf
       0.69308496 0.31741378 0.22265105 -0.53119856
0000e0 fb ce 3a bf 4a 9c 21 3f d8 bc 1e 3f 8a e6 4c bf
       -0.7297208 0.63129103 0.620069 -0.80039275
0000f0 50 3a ac 3e 9a 71 86 3f f3 90 d0 be dc 73 54 be
       0.3363824 1.0503418 -0.40735587 -0.20747322

v.v_net.2.weight f4 [64, 64]
000000 ca d3 c7 3e 14 97 b8 bc bc 05 83 3d 4e 17 da 3c
       0.3902877 -0.022532977 0.06397578 0.02662244
000010 11 93 49 3f ba 23 f5 3e ba 6a 35 bd 2d 72 ea be
       0.7874003 0.4787882 -0.044291236 -0.45790234
000020 9b 74 69 be 20 9d ac 3e ab ae 24 be 60 2b 91 3d
       -0.22798388 0.33713627 -0.16082256 0.07088351
000030 49 66 a5 3e 11 c2 74 3d de 99 12 bf 1e 0c 19 3f
       0.323046 0.05975539 -0.5726603 0.59784114
000040 0b 97 5d bf 65 18 1e bf 4b 37 8a 3e 1d d9 37 bb
       -0.865586 -0.61755973 0.2699531 -0.0028052994
000050 25 3c 1b 3f c9 2c bb 3d 08 71 37 3f f9 55 30 3e
       0.6063865 0.091394015 0.71656847 0.17220296
000060 90 67 9a be 5e f4 cd 3d 90 07 49 3f 5a c0 dd bd
       -0.30157137 0.10056375 0.78527164 -0.10827704
000070 bd b3 68 bd 6b 7e 1e 3d d8 fb 8d be aa b8 39 3d
       -0.056812037 0.03869478 -0.27731204 0.045342125
000080 f2 ad 02 bf 8e 9b e8 be 0e 68 1a 3e a7 ca 8a 3c
       -0.5104667 -0.4543118 0.15078756 0.016942335
000090 80 0c 2d 3e d4 8a d7 3e 48 59 9d 3e ed 75 53 3e
       0.168993 0.42098105 0.3073218 0.20650454
0000a0 b7 05 71 bd 8c b2 10 3f 28 17 21 be af 82 0e be
       -0.05884334 0.5652244 -0.1573149 -0.1391704
0000b0 77 82 98 3e ef c1 84 3f 89 3b 3c be fb 49 0d 3e
       0.29787037 1.0371684 -0.18382086 0.13797753
0000c0 ec cd 4e 3e d9 e6 10 bf bb f0 3f 3e 70 65 08 bf
       0.2019574 -0.56602246 0.18744175 -0.5327978
0000d0 02 dc 1b 3f 08 62 f7 3d 6b 8d 3d 3e 70 f1 00 bf
       0.6088258 0.12079245 0.18510978 -0.50368404
0000e0 84 eb 1c bf 6e 47 d7 3d 80 ae 97 3e 9d 99 00 bf
       -0.6129687 0.10511671 0.2962532 -0.50234395
0000f0 36 9b 15 3f 88 c8 8e 3e 29 f9 06 bf dc e9 66 bc
       0.5843996 0.27887368 -0.5272394 -0.014093842
000100 b9 aa 58 3d 3b c0 ac be c0 80 57 3e 8d bd 58 bd
       0.05289719 -0.3374041 0.21045208 -0.052915145
000110 7c 3a e4 bd 62 04 ff bc a5 2d 9d 3d 6e 00 b6 3e
       -0.111439675 -0.03113002 0.07674722 0.35547203
000120 94 65 22 3e 93 d3 b4 3e 3d 3e c3 bd 2c 83 22 3d
       0.15859061 0.35317668 -0.095333554 0.039675876
000130 6e 62 90 3e 8c 87 68 be 13 a1 ef be 03 00 b0 bd
       0.28200096 -0.22707957 -0.46802577 -0.08593752
000140 50 75 27 bf 6f e5 ea be 9b 1d 17 3f f0 2b 89 be
       -0.6541338 -0.4587817 0.5902955 -0.26791334
000150 0f de a9 3c 0f c0 55 3e 61 7a af be 66 f8 58 be
       0.020735769 0.20874046 -0.34273055 -0.21188506
000160 88 61 af 3e a0 c0 2c be 11 9a 08 3f 65 76 01 be
       0.34254098 -0.16870356 0.53360087 -0.1264282
000170 aa 7d 74 3d 93 5b 19 be 1f df 1a bf 26 e8 4d be
       0.059690155 -0.14976339 -0.60496706 -0.20108089
000180 a1 e0 b0 be 23 d9 bc be b3 ab 8d be f9 fe 71 3d
       -0.34546378 -0.36884412 -0.2767006 0.05908105
000190 9a 9e b4 3e cd db 2d bd 57 95 a7 3e 4c 15 94 3c
       0.35277253 -0.042445946 0.32731125 0.018076561
0001a0 50 f4 fd 3d 31 84 7a 3e b2 5c f7 bd a0 73 bc 3e
       0.124001145 0.2446449 -0.12078227 0.36806965
0001b0 a1 e9 f2 3b 1d 04 99 bd 6c cc 28 bd 1e 58 66 bd
       0.0074131046 -0.07471488 -0.041210577 -0.05623638
0001c0 11 7b 1c be 93 42 06 be c8 5b fb 3d 33 b0 e3 be
       -0.15281321 -0.13111334 0.12273365 -0.44470367
0001d0 6d 28 66 3e a2 7a 81 bc 21 31 43 3e f3 27 a8 3e
       0.22476359 -0.015805546 0.1906171 0.3284298
0001e0 df 45 a8 be 2a 21 43 3e db be df 3d d0 dd 99 be
       -0.32865807 0.1905562 0.10925075 -0.30052042
0001f0 cf 5a 6b 3e 2a bb c1 3e 7d 4e d4 bd be 21 55 3f
       0.2298386 0.37838107 -0.10366533 0.8325461
000200 b4 e8 49 3f 80 39 84 be 45 57 d7 3d 1c b3 55 be
       0.788707 -0.2582512 0.10514692 -0.20869106
000210 c9 73 b1 3e 26 a7 30 be de 35 24 3e a2 8e 31 be
       0.3465865 -0.17251262 0.16036174 -0.17339566
000220 1a 34 e1 3e c3 84 47 3e 4f 32 82 bd 9a 34 7a bd
       0.43985063 0.19484238 -0.06357252 -0.06108532
000230 7f 37 a3 3d a5 dd af 3e 22 5f 39 bf 59 06 6c 3f
       0.079695694 0.3434879 -0.72410786 0.92197186
000240 0b 80 7d bf c0 b3 d5 be d8 df 01 3f d5 f0 53 be
       -0.99023503 -0.417387 0.50732183 -0.20697339
000250 5f 22 f3 3e 65 d4 1c bb a6 2f 82 3e 99 c1 a1 bd
       0.4748716 -0.0023930308 0.25426978 -0.07898254
000260 97 b0 4c be 32 bb 67 be d9 42 ce 3e 6e 0c 08 bf
       -0.19989239 -0.22630003 0.40285376 -0.53143966
000270 c3 8a f2 be d8 e2 f5 be 67 be c2 be a9 06 71 3e
       -0.47371492 -0.4802463 -0.3803589 0.23537697
000280 37 25 b5 be d6 bc 2e be 95 6a ff bd 1c db 35 3c
       -0.35379955 -0.17064223 -0.12471501 0.011099603
000290 fc ea b6 3e 34 bf a5 3e 29 38 09 be fa d9 1e 3e
       0.35726154 0.3237244 -0.1340033 0.15512839
0002a0 be 7d 50 be 62 cb 2c 3f 65 8e d9 be 5a ea c6 bd
       -0.20360467 0.6749784 -0.4249145 -0.09712668
0002b0 35 92 f7 3e 42 61 41 3f b6 eb d9 3c 33 8b 15 be
       0.48353735 0.7553903 0.026601654 -0.14603882
0002c0 97 ed 51 3e 06 08 55 be 4e 56 cb bc 51 02 05 bf
       0.2050079 -0.20803842 -0.024821427 -0.5195666
0002d0 07 02 44 3f 71 ec 08 3f c8 31 f1 3d f8 fa 9d be
       0.76565593 0.5348578 0.11777073 -0.30855536
0002e0 c2 e9 89 be 4a 03 e2 3e 4f 99 82 3e 4b 53 17 bf
       -0.26936156 0.44143134 0.2550759 -0.5911147
0002f0 3e e6 4d 3f 01 82 2e 3f bb 2a bd be 02 96 ed 3e
       0.80429447 0.6816712 -0.36946663 0.4640351
000300 8e 36 31 3e 84 04 a4 be ab 49 86 3e fa 3e 34 3e
       0.17305967 -0.32034695 0.2622808 0.17602149
000310 aa 1b 15 3e d8 fd bd 3e 19 99 80 be 64 c5 da be
       0.14561334 0.3710773 -0.25116804 -0.42728722
000320 70 d1 fa 3d aa 45 d2 3c b5 b0 80 be c7 e0 6e 3e
       0.12246978 0.025667984 -0.25134817 0.23327933
000330 b2 d6 a3 3e 04 dc 16 be 97 90 09 be 62 95 23 be
       0.31999737 -0.14732367 -0.13434063 -0.15974954
000340 25 5d 00 bf 39 06 10 bf fc a3 61 3e 86 fe a5 bd
       -0.5014213 -0.56259495 0.22035211 -0.08105187
000350 6d 3e 46 3e 71 88 16 3d 57 76 6d 3e 96 d3 08 be
       0.19359751 0.036751214 0.23189674 -0.13361964
000360 72 e1 e5 3e c4 85 81 be 82 c5 43 3e 0c 66 47 be
       0.44898564 -0.25297368 0.19118312 -0.19472522
000370 b4 9a ac 3e 3b fe 0b bf 30 62 a5 be 58 ec f9 3e
       0.3371178 -0.546848 -0.32301474 0.48813128
000380 a3 e2 8a be 3d e0 ef bd b5 ec ea 3e 7a a4 f7 bd
       -0.27126035 -0.11712692 0.45883718 -0.12091918
000390 87 5e a6 3e 6d a0 d1 3e e7 5c bc be 54 79 0d 3d
       0.32493994 0.40942708 -0.3678963 0.034539536
0003a0 ed 0c 3c 3c 90 fb 61 3e ea c4 bb 3b e9 16 5c 3d
       0.011477691 0.2206862 0.005730261 0.053732786
0003b0 65 d5 c7 3d 91 9e 07 3f 08 f6 ad be fd 0c c9 3d
       0.09757499 0.5297633 -0.3397677 0.098169304
0003c0 6d 0c 8a 3e 05 a9 b5 be 4a 5e 91 3d 87 7b 3e bf
       0.26962605 -0.35480514 0.07098062 -0.7440724
0003d0 af a4 37 3f 5e 3a e8 ba 4c 8b 8e 3d 26 8a ef bc
       0.7173566 -0.001771759 0.069601625 -0.029240679
0003e0 71 26 13 3d dc 6d d8 3e 7e 1f e9 3d 65 09 d2 be
       0.035925332 0.42271316 0.1138296 -0.41022792
0003f0 c2 67 e9 3e 5c a5 e6 3d 10 04 38 be 18 12 61 3e
       0.45586973 0.112620085 -0.179703 0.21979558

v.v_net.2.bias f4 [64]
000000 8c 04 fc 3e 96 71 11 3d d6 eb ce 3e 9c 86 5f 3e
       0.4922222 0.035508715 0.40414304 0.21828693
000010 39 95 4e 3d f5 22 4a be d4 50 a6 be 66 68 90 be
       0.05043528 -0.19739898 -0.32483542 -0.2820465
000020 8d 43 e5 be bb 0b be be 5f 49 d2 be b9 15 9a be
       -0.447781 -0.37118325 -0.41071603 -0.30094698
000030 cf ce 6a 3e 90 ce 4e be db f8 83 be 75 42 c6 be
       0.22930454 -0.20195985 -0.257758 -0.38722578
000040 9a 5c d2 be 21 a0 f3 3e 3c e4 fe 3e 0b 58 f1 3e
       -0.41086274 0.47583106 0.49783504 0.47137484
000050 84 d3 27 be a5 ef 63 3e 75 81 d0 be 90 1d 04 3f
       -0.1638928 0.22259386 -0.40723768 0.5160761
000060 15 5a ba bd 9c e2 e5 bd 8d c5 c7 be b6 4c da 3e
       -0.09099213 -0.11224863 -0.39017907 0.4263665
000070 96 b8 fb 3c 53 47 9f 3d 05 6f ed 3d 42 44 c3 be
       0.030727666 0.07777276 0.11593441 -0.38138014
000080 f5 bc de be 73 26 10 bf 71 78 9d 3e 84 d9 77 3e
       -0.43503538 -0.5630867 0.30755952 0.2420407
000090 1b ae cc 3e d9 85 1f 3f 90 d4 dd 3e 0e 3f b8 3e
       0.39976582 0.6231361 0.43326235 0.35985607
0000a0 8a 49 ce 3e bb 6b 73 3e 62 52 66 3e 0f 00 cb be
       0.4029048 0.23771565 0.22492364 -0.39648482
0000b0 06 b9 77 3e 88 ad 97 be b2 d0 e3 be 76 e8 8e 3e
       0.24191675 -0.2962458 -0.4449516 0.2791173
0000c0 4d 70 00 be 45 52 8f 3e 63 80 d9 be 55 ab 65 be
       -0.1254284 0.27992454 -0.42480764 -0.22428639
0000d0 2a 58 a9 3e d0 eb ce be 73 24 8e 3e a8 59 2a be
       0.33075076 -0.40414286 0.27762184 -0.16635764
0000e0 f6 0e 1d bf a9 98 ec 3e 47 ab 9a be a4 42 f7 3e
       -0.61350954 0.4621022 -0.302088 0.4829303
0000f0 40 85 c8 3e 2b b0 d7 3e b1 93 7d be e8 08 0c 3f
       0.39164162 0.42126593 -0.24763371 0.5470109

v.v_net.4.weight f4 [1, 64]
000000 3a fa 65 40 dc 62 63 40 63 b4 76 40 51 c4 6d 40
       3.5933976 3.552909 3.85476 3.7151072
000010 d8 3c 8f c0 4b fd 68 40 5d c4 6f c0 20 50 91 40
       -4.476177 3.6404598 -3.74636 4.541031
000020 86 8b 84 40 34 b1 6b c0 d7 4f 66 c0 a4 2c 63 40
       4.1420317 -3.6826906 -3.598623 3.5495996
000030 b9 ac 6e 40 a4 8a 61 c0 d6 e6 5c c0 e9 f6 6a c0
       3.7292922 -3.524087 -3.451589 -3.6713202
000040 79 5d 7b c0 ec 79 67 40 76 3c 67 40 07 4c 70 40
       -3.92758 3.6168165 3.6130652 3.7546403
000050 36 74 6f c0 1e f4 62 40 ca 98 73 c0 fb 97 80 c0
       -3.741468 3.5461497 -3.8062005 -4.0185523
000060 67 a3 81 c0 a7 2b 7e 40 a8 7c 76 c0 c3 cc 5c 40
       -4.0511966 3.9714143 -3.8513584 3.4499977
000070 60 ea 6a 40 0e 76 81 40 59 0c 81 40 e0 2c 7d c0
       3.670555 4.045661 4.0327573 -3.955864
000080 af 9e 71 c0 36 7e 75 40 5d 12 7e 40 14 c3 64 40
       -3.7753103 3.8358283 3.9698708 3.5744066
000090 7c 79 6d 40 42 63 89 c0 e5 b8 7b c0 27 fb 75 40
       3.7105398 -4.2933664 -3.93316 3.8434541
0000a0 9d f4 60 40 3f 5a 7b 40 8b 47 67 40 28 fc 8c 40
       3.51493 3.9273832 3.6137416 4.405781
0000b0 b0 2a 74 40 00 21 6a c0 00 2b 6a c0 07 cc 65 40
       3.8151054 -3.6582642 -3.6588745 3.5905778
0000c0 84 9e 64 40 6b fe 8e c0 19 1d 64 c0 0a 87 68 c0
       3.572175 -4.468557 -3.564276 -3.6332421
0000d0 0d 34 5f 40 42 69 72 40 7b ba 6c 40 a5 11 67 40
       3.487552 3.7876744 3.6988819 3.610452
0000e0 de cc 84 40 c3 3e 63 40 e0 df 7d c0 1a bf 65 40
       4.150008 3.5507057 -3.9667892 3.589789
0000f0 0e fc 83 40 47 39 7b 40 c3 73 7e c0 5f 42 84 c0
       4.1245184 3.925371 -3.9758155 -4.133102
