tmp/experiments/RN3 False,True,True/pyt_network_save/model save74000.pt (torch_old, 314943 bytes, 33 tensors)

pi.pi_net.0.weight f4 [64, 5]
-0.5759991 0.06266414 0.59321094 -0.459601 -0.2783053 0.39954218 0.002766783 -0.100328125
-0.29109856 0.36900634 0.69442517 -0.05431919 0.50805473 -0.07350682 -0.2745508 1.624025
-0.055976808 0.09814996 -0.016221177 0.07184607 0.7845975 0.4262472 0.5932263 -0.097263455
-0.122578606 -0.080574475 0.15951289 -0.56444174 -0.24111474 -0.13890359 0.21675308 -0.3055882
0.5294961 0.6756356 -0.21008004 0.35386923 0.33802906 -0.22398838 -0.0772997 -0.33275613
-0.21616349 0.11328762 0.5023866 -0.18514845 0.13150659 0.28624508 0.2835213 -0.3229019
0.017197035 -0.15702718 0.9817584 0.19589499 0.21601954 0.17433096 -0.31813443 0.9345036
0.6362601 -0.79781866 0.0011132209 0.16786197 -0.32988957 -0.29668504 0.7042337 -0.26780012
-0.0027293495 0.41371363 -0.36813122 0.5193901 0.03815496 0.13611512 -1.0704596 -0.17775445
-0.07380564 -0.21234274 0.19876912 -0.13814488 0.024050668 -0.018233318 0.097464986 -0.6521935
0.5194437 0.2524374 -0.3844437 0.10594237 -0.26791546 -0.31874895 0.31459457 0.2833401
-0.20186488 -0.20307648 1.0881836 0.24668717 -0.26473895 -0.17002593 -0.11951036 -1.7330446
-0.4330126 0.5775604 -0.27864653 0.10687438 -0.5869464 0.34851295 0.56482124 -0.24019374
-0.3410659 0.44025862 0.20586433 0.5632653 0.014241622 -0.31374368 0.68260336 0.27262008
-0.68639493 0.24760614 -0.13448644 0.003056882 -0.49220672 0.605469 -0.012096229 0.33383667
0.5379382 -0.20820697 0.8614735 0.28280315 0.18069604 0.66150934 0.014748077 0.48355168
0.16965497 0.04662673 0.65056235 -0.25730026 0.1472552 0.0711701 -0.19715434 -0.3621527
0.08841883 -0.44883868 -0.23026451 -0.30165985 1.4119635 0.14258334 0.27609333 -0.24968782
-0.11665328 0.725356 0.5427099 -0.6971758 0.0760933 -0.28631064 -0.49491906 -0.06658085
0.5332231 0.5647026 -0.31360102 -0.17924926 0.25350276 -0.17700787 0.23912847 -0.44911268
0.12816907 0.067396455 -0.6809279 0.11032391 0.03425765 -0.4335961 -0.79375225 0.12031628
0.325224 0.25591898 1.584076 0.17338999 0.15484628 0.023265257 0.058472246 -1.3901575
-0.102385096 -0.06599288 0.14922252 -0.12696461 -0.60596913 -0.33797333 -0.08682422 -0.10058085
0.065238945 0.5918648 0.04498242 0.34465685 -0.08236868 0.07850517 0.32194507 -0.64331216
0.024798932 0.0538082 0.5954212 0.059475143 0.21580061 -0.62063915 -0.32431114 0.14089589
-0.60588616 -0.4719746 0.54559386 -0.076734334 0.43423405 0.5256545 0.46937504 0.14782071
-0.03816183 -0.5846671 -0.14099523 0.24498364 -0.70173126 -0.37035802 0.21149066 -0.62792814
-0.5359198 0.543794 0.058893405 0.11112868 -0.37059885 -0.06573253 0.28495032 -0.39476383
-0.3559513 0.62418765 0.10385207 -0.4023553 0.09717692 -0.39601043 0.2788039 -0.024342762
0.8842051 -0.06630142 0.21120124 0.65097046 0.087479286 0.319667 -0.3968354 -0.076529674
-0.59034276 -0.18878548 0.611387 -0.1791288 0.20221832 -0.15470703 0.4541828 -0.49282554
0.10981499 -0.5061227 -0.33864793 0.032137215 0.9600056 0.0858591 -0.4311222 0.56008065
00000000: ad74 13bf 0e56 803d acdc 173f d350 ebbe
00000010: 087e 8ebe cb90 cc3e eb52 353b d578 cdbd
00000020: df0a 95be 66ee bc3e d9c5 313f cd7d 5ebd
00000030: e00f 023f be8a 96bd ec91 8cbe 0de0 cf3f
00000040: f047 65bd d902 c93d 46e2 84bc 0824 933d
00000050: 62db 483f 133d da3e aedd 173f 1032 c7bd
00000060: 7e0a fbbd 3b04 a5bd 5957 233e 417f 10bf
00000070: c8e6 76be be3c 0ebe 85f4 5d3e 0e76 9cbe
00000080: 0e8d 073f 74f6 2c3f 391f 57be 592e b53e
00000090: 2512 ad3e 365d 65be 4e4f 9ebd 035f aabe
000000a0: f659 5dbe 5703 e83d 699c 003f 8e97 3dbe
000000b0: aaa9 063e b78e 923e b429 913e 6653 a5be
000000c0: cce0 8c3c bccb 20be 8554 7b3f b298 483e
000000d0: 3a34 5d3e d183 323e 84e2 a2be a13b 6f3f
000000e0: f1e1 223f d83d 4cbf 7fe9 913a 02e4 2b3e
000000f0: 49e7 a8be 1ae7 97be a948 343f 191d 89be
00000100: e3de 32bb 46d2 d33e b27b bcbe c0f6 043f
00000110: 6048 1c3d c361 0b3e d204 89bf 4305 36be
00000120: 6927 97bd 6070 59be 228a 4b3e da75 0dbe
00000130: e805 c53c 0a5e 95bc b99b c73d 27f6 26bf
00000140: 43fa 043f 7a3f 813e ced5 c4be 50f8 d83d
00000150: 372c 89be 1033 a3be 8a12 a13e f411 913e
00000160: abb5 4ebe 48f3 4fbe 9a49 8b3f 909b 7c3e
00000170: dd8b 87be 471b 2ebe d9c1 f4bd 68d4 ddbf
00000180: d4b3 ddbe 00db 133f c2aa 8ebe f4e0 da3d
00000190: 1f42 16bf 4a70 b23e 2098 103f 59f5 75be
000001a0: 31a0 aebe 9469 e13e 19ce 523e 2832 103f
000001b0: b155 693c 03a3 a0be 18bf 2e3f dc94 8b3e
000001c0: 94b7 2fbf 778c 7d3e d0b6 09be f855 483b
000001d0: 8502 fcbe 0400 1b3f 432f 46bc a4ec aa3e
000001e0: 51b6 093f 3534 55be 8789 5c3f 93cb 903e
000001f0: 6208 393e ad58 293f eba1 713c 1694 f73e
00000200: 08ba 2d3e acfb 3e3d 418b 263f dcbc 83be
00000210: 11ca 163e a1c1 913d d4e2 49be 146c b9be
00000220: ee14 b53d 2fce e5be 76ca 6bbe 2973 9abe
00000230: 38bb b43f 5e01 123e 1b5c 8d3e 2aae 7fbe
00000240: eae7 eebd eeb0 393f 09ef 0a3f 1d7a 32bf
00000250: ced6 9b3d 4f97 92be 0866 fdbe 8a5b 88bd
00000260: 4f81 083f 5990 103f 5090 a0be 1e8d 37be
00000270: 1dcb 813e 8d41 35be 18de 743e 19f2 e5be
00000280: c13e 033e 2707 8a3d 4a51 2ebf 81f1 e13d
00000290: c051 0c3d 4f00 debe 5933 4bbf 6268 f63d
000002a0: c383 a63e d007 833e 01c3 ca3f 258d 313e
000002b0: 0690 1e3e c896 be3c 9880 6f3d aef0 b1bf
000002c0: 47af d1bd 4627 87bd cacd 183e 0303 02be
000002d0: cb20 1bbf d70a adbe e6d0 b1bd 55fd cdbd
000002e0: ff9b 853d 7484 173f 7c3f 383d dd76 b03e
000002f0: e9b0 a8bd 52c7 a03d fcd5 a43e 1bb0 24bf
00000300: 2127 cb3c fd65 5c3d 866d 183f 359c 733d
00000310: d6fa 5c3e 35e2 1ebf 1c0c a6be 0347 103e
00000320: 5b1b 1bbf a8a6 f1be 0aac 0b3f e426 9dbd
00000330: ed53 de3e 4b91 063f ed51 f03e 505e 173e
00000340: 944f 1cbd beac 15bf 0e61 10be fedc 7a3e
00000350: a9a4 33bf 919f bdbe 0291 583e e6bf 20bf
00000360: 0a32 09bf 1536 0b3f 363a 713d 6f97 e33d
00000370: 22bf bdbe c79e 86bd 02e5 913e 7c1e cabe
00000380: 403f b6be c3ca 1f3f 65b0 d43d 8401 cebe
00000390: b104 c73d e1c1 cabe 63bf 8e3e 796a c7bc
000003a0: 445b 623f 0ac9 87bd 2345 583e 00a6 263f
000003b0: 5728 b33d 65ab a33e 022e cbbe 97bb 9cbd
000003c0: b420 17bf fb50 41be dc83 1c3f 8a6d 37be
000003d0: 5212 4f3e 856b 1ebe a68a e83e a153 fcbe
000003e0: aee6 e03d 4291 01bf 4363 adbe 50a2 033d
000003f0: edc2 753f e5d6 af3d 0dbc dcbe 7261 0f3f

pi.pi_net.0.bias f4 [64]
0.10250965 0.19059533 -0.18820553 -0.24991196 -0.20508704 0.23328777 -0.1799733 -0.010765172
-0.24772696 -0.0014360714 -0.1894243 0.017294198 0.014855969 -0.1976932 0.2527805 -0.063437454
-0.05380275 -0.037919004 0.0048827436 0.14653228 -0.0031480973 -0.08729688 0.07105081 -0.03686427
-0.17593963 -0.33289897 -0.2461157 0.07752392 -0.23975927 0.08566953 -0.14723329 -0.016947247
0.08239468 -0.101403065 -0.3336343 0.28825253 0.25854227 -0.17369309 0.06838473 0.068504095
-0.12591134 -0.16243528 0.2126837 -0.042253256 -0.013101312 -0.103805654 -0.10768324 -0.06739944
0.09334737 0.032869652 -0.22721758 -0.20993625 0.09467642 -0.0043367515 -0.015876733 -0.08757919
-0.1574587 -0.0522818 -0.07693213 -0.21966746 -0.20331089 -0.03769058 0.22867875 -0.21867777
00000000: 94f0 d13d 6c2b 433e f3b8 40be ece8 7fbe
00000010: 5602 52be fde2 6e3e ec4a 38be 6760 30bc
00000020: 23ac 7dbe 8f3a bcba 72f8 41be 90ac 8d3c
00000030: 7366 733c 1670 4abe 726c 813e 7feb 81bd
00000040: 4660 5cbd f550 1bbd 6cff 9f3b 8f0c 163e
00000050: 4f50 4ebb b5c8 b2bd 1683 913d fdfe 16bd
00000060: 8529 34be bc71 aabe c105 7cbe dcc4 9e3d
00000070: 7483 75be 8273 af3d 53c4 16be f4d4 8abc
00000080: 8bbe a83d 69ac cfbd 1dd2 aabe d695 933e
00000090: a75f 843e 9adc 31be 4b0d 8c3d e04b 8c3d
000000a0: e7ee 00be 6f55 26be c1c9 593e c011 2dbd
000000b0: e3a6 56bc 0f98 d4bd 0889 dcbd b808 8abd
000000c0: e82c bf3d 54a2 063d baab 68be 87f9 56be
000000d0: b6e5 c13d 4f1b 8ebb ec0f 82bc b85c b3bd
000000e0: da3c 21be 7125 56bd 988e 9dbd 82f0 60be
000000f0: bb30 50be 7061 1abd c32a 6a3e 11ed 5fbe

pi.pi_net.2.weight f4 [64, 64]
-0.060452078 -0.43577757 -0.047331475 0.52063596 0.30744767 -1.0535051 0.26804444 0.06294384
0.4425505 -0.6341804 -0.06966304 -0.20310609 0.5663908 0.15840077 -0.4421942 -0.27538237
-0.4511104 -0.026029715 0.27371827 0.44111216 0.30207014 0.24175316 0.039784793 0.48082787
1.004531 0.26506665 -0.29902306 -0.15107016 -0.13317397 -0.2212143 0.23587446 -0.24946079
-0.49190694 0.14931272 0.10847323 -0.19319099 0.011270826 0.26268843 0.17213255 -0.52859545
0.24505094 0.011098181 -0.53517014 -0.26148584 0.38365978 -0.07620308 0.34090075 -0.16433662
0.18040054 -0.6071723 0.6416135 0.10618429 -0.15954567 0.7017138 -0.15679185 0.041687742
0.3060847 -0.14917845 0.27052656 0.59582543 0.2914924 -0.16627851 -0.83441734 1.0858157
0.45207274 0.18478437 -0.35072207 -0.72299504 -0.08864293 0.19513059 -0.41807047 -0.6543159
0.101716466 -0.3056404 -0.1584007 -0.6602707 0.3847223 -0.3243414 0.8797243 -0.22439723
-0.47702974 0.67735285 -0.23418236 1.1642958 0.40376496 0.052125845 -0.49044496 0.23888852
-0.15512137 -0.030352015 -0.5541845 0.08001468 -0.41205797 -0.52280927 0.021271853 0.19484466
0.042305887 -0.006119236 -1.0149404 0.4260536 0.08807529 -0.30360988 -0.072275296 0.19260778
0.3969952 -0.17938428 0.50049686 0.32629922 -0.024654612 -0.40221196 0.052639585 -0.27491724
0.59521306 0.37751025 -0.4560229 -0.36774945 -0.30988246 0.3838965 -0.1842588 -0.12309669
0.0174877 0.3694926 -0.05285499 -0.29812822 0.04610278 0.13414189 0.19227609 -0.28750783
0.02283763 -0.7182452 0.26340398 -0.9819099 -0.5536289 0.46505973 0.22487205 0.28565675
-0.4060462 0.24943727 -0.8348596 -0.7306001 -0.19788301 -0.07374717 1.5538546 0.28207934
0.40763512 0.010377325 -0.1680018 1.0915414 -0.4694433 -0.55644196 -0.54741776 -0.02708216
-0.27153027 -0.048728548 -0.27616873 0.6853041 -0.32557642 -0.06693905 -0.17924611 -0.22587366
-0.077363744 0.6031182 -0.70528835 0.8753174 0.38852134 -0.61338913 0.34779745 0.5202518
-0.030298362 -0.31563202 0.014528863 0.5783643 0.7119363 0.30344224 -0.25281194 -0.27033985
-0.5576326 0.14023384 0.24668743 -0.3508348 0.08513585 -0.18563798 -0.9259144 0.6838705
-0.66792345 -0.90504926 0.5813811 -0.07831234 0.43102273 0.7363611 -0.00744634 0.49184135
0.0018864699 0.026567124 -0.12624146 0.2087337 0.14260827 -0.47166976 0.55884767 0.097486995
0.60428554 -0.18376802 -0.07720393 -0.15126473 1.0701625 -0.29408124 0.13121903 0.18906234
-0.20931855 -0.37454718 -0.25412324 0.107383385 0.335164 0.5212762 -0.5083481 0.4832266
0.6237283 0.04205964 0.24794415 0.06928783 0.16444546 -0.5382145 0.5178336 -0.28290483
-0.93523616 -0.35851336 0.16961119 0.052371494 0.20087351 0.4912864 -0.09313005 -0.6033313
0.44134194 -0.37219387 -0.29443046 0.41731194 -0.20865642 -0.36034927 0.29721022 0.069721036
0.25228816 -0.44219562 0.937717 0.22198518 -0.08107661 0.5483905 0.14908276 -0.18214665
0.14984189 -0.30673316 0.27253562 0.36971325 0.16259553 0.107799284 -0.66799384 0.019440603
00000000: 999c 77bd 3d1e dfbe a6de 41bd 6648 053f
00000010: c869 9d3e 41d9 86bf 1f3d 893e b3e8 803d
00000020: fb95 e23e a659 22bf 7fab 8ebd 0bfb 4fbe
00000030: fdfe 103f d033 223e 4767 e2be ebfe 8cbe
00000040: f1f7 e6be 453c d5bc cd24 8c3e 74d9 e13e
00000050: f0a8 9a3e 248e 773e 61f5 223d 122f f63e
00000060: 7994 803f d1b6 873e 8d19 99be 23b2 1abe
00000070: c25e 08be 0086 62be 1389 713e a672 7fbe
00000080: 3adb fbbe 6fe5 183e 3627 de3d dcd3 45be
00000090: 45a9 383c 197f 863e 8443 303e 0852 07bf
000000a0: a2ee 7a3e 25d5 353c e900 09bf 79e1 85be
000000b0: 0e6f c43e 5c10 9cbd 8b8a ae3e dc47 28be
000000c0: ebba 383e a56f 1bbf c840 243f 2677 d93d
000000d0: f15f 23be 84a3 333f 0b8e 20be c4c0 2a3d
000000e0: 22b7 9c3e 3cc2 18be 7582 8a3e 0488 183f
000000f0: 7e3e 953e ea44 2abe 609c 55bf 02fc 8a3f
00000100: 1476 e73e 1d38 3d3e d891 b3be 3416 39bf
00000110: 6d8a b5bd 50d0 473e 550d d6be 3f81 27bf
00000120: b950 d03d e67c 9cbe cb33 22be 8007 29bf
00000130: 52fa c43e 1310 a6be 9d35 613f 63c8 65be
00000140: 3e3d f4be ff66 2d3f 80cd 6fbe a507 953f
00000150: 48ba ce3e e981 553d 9a1b fbbe 319f 743e
00000160: 23d8 1ebe caa4 f8bc 09df 0dbf bdde a33d
00000170: 43f9 d2be d4d6 05bf 4f42 ae3c 5c85 473e
00000180: f048 2d3d df83 c8bb 91e9 81bf b323 da3e
00000190: d160 b43d c172 9bbe 1205 94bd f93a 453e
000001a0: f442 cb3e 83b0 37be 9020 003f b110 a73e
000001b0: 78f8 c9bc baee cdbe 9b9c 573d f4c1 8cbe
000001c0: e25f 183f 0649 c13e d57b e9be a849 bcbe
000001d0: eaa8 9ebe 158e c43e 57ae 3cbe 1e1a fcbd
000001e0: 5d42 8f3c 222e bd3e 797e 58bd 43a4 98be
000001f0: 45d6 3c3d 7e5c 093e 06e4 443e 3a34 93be
00000200: fb15 bb3c ebde 37bf e3dc 863e 725e 7bbf
00000210: a0ba 0dbf 4f1c ee3e dc44 663e 9a41 923e
00000220: 4ae5 cfbe 7c6c 7f3e 5cb9 55bf 9c08 3bbf
00000230: d8a1 4abe c208 97bd b5e4 c63f b46c 903e
00000240: 8db5 d03e a805 2a3c aa08 2cbe a1b7 8b3f
00000250: df5a f0be fb72 0ebf 9223 0cbf 68db ddbc
00000260: 0406 8bbe 9697 47bd fd65 8dbe 1770 2f3f
00000270: f4b1 a6be 5717 89bd 4b8c 37be 6d4b 67be
00000280: e270 9ebd f465 1a3f c78d 34bf cd14 603f
00000290: 45ec c63e 1207 1dbf 8212 b23e 392f 053f
000002a0: 4534 f8bc 859a a1be 780a 6e3c af0f 143f
000002b0: 7541 363f c85c 9b3e 9170 81be fc69 8abe
000002c0: 03c1 0ebf 7699 0f3e a19b 7c3e 9ea0 b3be
000002d0: b45b ae3d e217 3ebe ba08 6dbf 2312 2f3f
000002e0: 08fd 2abf 4fb1 67bf 64d5 143f 3862 a0bd
000002f0: 03af dc3e 2982 3c3f 6d00 f4bb a1d2 fb3e
00000300: 6d43 f73a 4ca3 d93c 7145 01be 49be 553e
00000310: e707 123e b37e f1be a410 0f3f 43a7 c73d
00000320: 75b2 1a3f af2d 3cbe 181d 9ebd 24e5 1abe
00000330: 16fb 883f d191 96be 485e 063e 8f99 413e
00000340: 9a57 56be a6c4 bfbe 711c 82be d2eb db3d
00000350: 9e9a ab3e 5b72 053f 1a23 02bf 7a69 f73e
00000360: a8ac 1f3f bb46 2c3d 12e5 7d3e c7e6 8d3d
00000370: 6464 283e 6dc8 09bf be90 043f e7d8 90be
00000380: a36b 6fbf 108f b7be 8eae 2d3e 7e83 563d
00000390: c9b1 4d3e e489 fb3e f8ba bebd ec73 1abf
000003a0: 92f7 e13e 3290 bebe 97bf 96be e9a9 d53e
000003b0: 07aa 55be b37f b8be f02b 983e e7c9 8e3d
000003c0: ea2b 813e 7767 e2be 390e 703f 1550 633e
000003d0: 7e0b a6bd 5263 0c3f 27a9 183e a784 3abe
000003e0: 2770 193e 210c 9dbe ca89 8b3e 0e4b bd3e
000003f0: 717f 263e dfc5 dc3d a501 2bbf e641 9f3c

pi.pi_net.2.bias f4 [64]
-0.14340372 0.3051521 -0.7147668 -0.12518756 0.1097357 0.8987032 0.26228514 -0.20132647
-0.1899378 -0.1301631 -0.01851017 0.06401634 -0.33754718 0.047398 -0.26096436 0.23497576
0.77978164 -0.46562883 -0.14184694 -0.04722597 0.26136774 0.22377723 0.1877076 -0.7376441
-0.24443848 0.2695744 -0.21164525 0.26287562 0.19810134 -0.13449189 0.03618585 0.2000604
0.18874109 -0.14444265 -0.7536466 0.16861045 0.19995148 0.5922731 0.17325237 0.4532533
0.114337675 -0.0909577 -0.26795134 0.11992612 -0.18057123 0.29298127 -0.17811616 0.075536124
0.5812115 0.22881058 -0.19406727 -0.41014463 -0.30381617 -0.21403721 -0.007608946 -0.12358925
0.11998364 0.14139241 -0.6830715 0.118288614 -0.22548103 -0.3359351 -0.054878518 0.15051892
00000000: 6dd8 12be e53c 9c3e f5fa 36bf 2b31 00be
00000010: 1cbd e03d 6a11 663f 3d4a 863e 8728 4ebe
00000020: 0e7f 42be 7a49 05be a4a2 97bc 001b 833d
00000030: fcd2 acbe 6824 423d 1f9d 85be 7c9d 703e
00000040: c59f 473f e766 eebe 5340 11be 0570 41bd
00000050: fed1 853e dc25 653e 6c36 403e 3ed6 3cbf
00000060: 154e 7abe a805 8a3e 88b9 58be a297 863e
00000070: 14db 4a3e 3eb8 09be 9d37 143d a2dc 4c3e
00000080: 5845 413e c6e8 13be fcee 40bf 38a8 2c3e
00000090: 15c0 4c3e 369f 173f 1269 313e d110 e83e
000000a0: df29 ea3d 0848 babd eb30 89be d39b f53d
000000b0: aae7 38be a401 963e 1564 36be afb2 9a3d
000000c0: 47ca 143f 524d 6a3e 92b9 46be 7afe d1be
000000d0: cb8d 9bbe 922c 5bbe 7754 f9bb 5c1c fdbd
000000e0: fcb9 f53d 2cc9 103e c6dd 2ebf 4d41 f23d
000000f0: 80e4 66be afff abbe 4cc8 60bd a221 1a3e

pi.pi_net.4.weight f4 [256, 64]
1.5362271 -1.1780496 -0.45458898 1.0176513 -0.5577116 -0.11493344 0.08556482 0.8579396
0.46858507 0.8591885 0.7679488 -0.41388592 -0.19355382 -0.05347098 1.1347959 0.7515731
0.02023158 -0.35956573 0.67075765 0.31802785 0.7555071 -0.8809852 -0.53716236 -0.05199472
1.0716033 0.16709486 -0.30953988 -1.2952598 0.5910196 0.31984934 -0.49267992 0.37876457
-0.59028316 0.9878919 0.0859466 -1.0700116 -0.24267912 0.41201696 -0.55597895 0.51824695
-0.4346088 1.5358393 -0.4110157 -0.15029238 0.8799618 -0.41505617 0.5115819 -0.43571585
0.0025150906 -0.67443717 1.0920192 -0.18313347 -0.5053578 -0.65782845 0.5794693 0.6633151
-0.9195279 -0.66070676 -0.26562625 -0.89165705 -0.042799953 -0.4339542 0.05982623 0.6170752
0.28225788 -0.075799026 0.41420487 -0.31105497 -0.3901371 -0.8218543 0.009052571 -0.050392587
0.02881139 -0.2353072 -0.010355978 0.29215577 0.8697869 0.19956695 0.04486317 -0.08177383
-0.65511626 0.5240413 -0.51967365 -0.33882374 -0.02521507 0.040717803 0.28960717 0.36407387
0.59522927 -1.2203566 0.3177929 -0.4676694 -0.7163216 -0.43284285 0.48707813 -0.39076683
0.29461506 -0.22314656 0.2078029 0.50669384 0.08302199 -0.69604385 0.61167336 -0.39124948
0.09061979 -0.16156049 0.46743774 0.16491199 0.07843902 0.26098216 0.16559303 0.0006010618
-0.39111885 0.18056616 -0.14783221 0.51079875 0.50826687 0.23845088 -0.15339065 -0.43725282
0.3801204 -0.19563799 0.31711718 0.291853 0.024338005 0.37520033 -0.2533161 -0.57419443
0.47979906 0.5013018 0.28024134 -0.6669529 -0.4167982 -1.0002714 -0.043823246 -0.05944153
0.10828861 0.15208012 -0.05906368 0.2551622 0.5871813 0.17146914 0.06135321 -0.035399362
-0.9415306 0.39139184 -0.89729035 -0.11161934 -0.079263665 0.10935271 -0.1207798 0.5593324
0.2101328 -0.95314467 0.4445635 -0.19497068 -0.80258447 -0.50733083 0.68152684 -0.17536135
0.112044826 -0.15592925 0.3309689 0.28405768 -0.13312435 -0.66548437 0.5298657 -0.27819458
0.117323644 0.014131628 0.35999274 -0.057825297 0.33805737 0.2624803 -0.2429627 0.27716294
-0.46643862 0.005182739 -0.10377468 0.7862747 0.5623851 0.32324934 -0.11159567 -0.26547995
0.30764067 -0.48651433 0.22055875 0.1563154 -0.25749385 0.7559248 -0.17251088 -0.6644785
0.25523916 -0.052999955 0.23507881 -0.27685967 -0.4522031 -1.115309 -0.06547025 -0.1578655
-0.053768344 0.0554507 0.08812591 0.18853138 0.5136737 0.01765833 0.079376414 0.22390415
-0.74929047 0.4995424 -0.7751339 -0.30897722 -0.09571157 -0.24696423 0.13049111 0.47534448
0.35929924 -1.0824441 0.36584872 -0.33690763 -0.6800707 -0.37825617 0.58790183 -0.18172164
0.098644376 -0.33999595 0.3661224 0.49651927 0.19073427 -0.5585008 0.60744673 -0.40128136
0.17873497 -0.04350109 0.35043797 -0.18257882 0.1423843 0.15166987 -0.21827427 0.16907719
-0.6760149 -0.010264239 -0.40583873 0.6064204 0.73146796 0.3210816 -0.5928979 -0.20156679
0.019508429 -0.40496007 0.09187345 0.13656116 0.01929384 0.46080476 -0.13881335 -0.6621132
00000000: 17a3 c43f 54ca 96bf e3bf e8be 6642 823f
00000010: 30c6 0ebf 3962 ebbd 9c3c af3d eea1 5b3f
00000020: 62ea ef3e c7f3 5b3f 4b98 443f dbe8 d3be
00000030: f932 46be 6304 5bbd fe40 913f 1867 403f
00000040: b3bc a53c 0019 b8be c6b6 2b3f 8cd4 a23e
00000050: ea68 413f 3f88 61bf 7983 09bf 6af8 54bd
00000060: 4c2a 893f ea1a 2b3e 037c 9ebe 13cb a5bf
00000070: 0f4d 173f 4bc3 a33e 8b40 fcbe 6eed c13e
00000080: cc1c 17bf 7ce6 7c3f c504 b03d 24f6 88bf
00000090: e080 78be e3f3 d23e a354 0ebf d5ab 043f
000000a0: 0b85 debe 6296 c43f a670 d2be 3fe6 19be
000000b0: 2d45 613f 3e82 d4be 08f7 023f 2616 dfbe
000000c0: 38d4 243b eaa7 2cbf 49c7 8b3f 5787 3bbe
000000d0: 215f 01bf 7267 28bf 1a58 143f 05cf 293f
000000e0: 2e66 6bbf 1424 29bf 2a00 88be a343 64bf
000000f0: 014f 2fbd 3f2f debe 590c 753d a4f8 1d3f
00000100: 1b84 903e 853c 9bbd a912 d43e 9942 9fbe
00000110: 0dc0 c7be 0b65 52bf 3c51 143c 7568 4ebd
00000120: dd05 ec3c 5ff4 70be 1fac 29bc 7195 953e
00000130: 5baa 5e3f 475b 4c3e 71c2 373d 0a79 a7bd
00000140: b3b5 27bf 9227 063f 5509 05bf 4e7a adbe
00000150: d68f cebc b6c7 263d 6447 943e e467 ba3e
00000160: f260 183f a534 9cbf c0b5 a23e 5d72 efbe
00000170: da60 37bf 949d ddbe 4e62 f93e 9712 c8be
00000180: c9d7 963e 8880 64be 49ca 543e b0b6 013f
00000190: 6f07 aa3d ee2f 32bf a096 1c3f da51 c8be
000001a0: de96 b93d 1d70 25be 0054 ef3e b0de 283e
000001b0: a3a4 a03d 749f 853e 3891 293e 9390 1d3a
000001c0: bb40 c8be 56e6 383e 5461 17be b5c3 023f
000001d0: c71d 023f 782c 743e 7012 1dbe 9adf dfbe
000001e0: 249f c23e 5355 48be 2f5d a23e c26d 953e
000001f0: 7f60 c73c 421a c03e a6b2 81be 68fe 12bf
00000200: 39a8 f53e 5155 003f cb7b 8f3e 6dbd 2abf
00000210: 9366 d5be e508 80bf 0180 33bd f678 73bd
00000220: 6bc6 dd3d e4ba 1b3e c2ec 71bd 9fa4 823e
00000230: 8451 163f 9b95 2f3e 814d 7b3d ecfe 10bd
00000240: 2608 71bf 8364 c83e d2b4 65bf ae98 e4bd
00000250: fd54 a2bd 50f4 df3d 665b f7bd 6830 0f3f
00000260: 0d2d 573e 4a01 74bf d49d e33e 65a6 47be
00000270: 2d76 4dbf 6fe0 01bf 8b78 2e3f ed91 33be
00000280: c277 e53d ebab 1fbe c174 a93e 0270 913e
00000290: c051 08be 2f5d 2abf 47a5 073f 856f 8ebe
000002a0: 6147 f03d 5888 673c f850 b83e 38da 6cbd
000002b0: db15 ad3e d163 863e 37cb 78be 4de8 8d3e
000002c0: 0bd1 eebe f7d3 a93b d287 d4bd 4c49 493f
000002d0: 78f8 0f3f f080 a53e 458c e4bd fdec 87be
000002e0: 1483 9d3e 6818 f9be 27da 613e 2511 203e
000002f0: 3cd6 83be 4a84 413f b1a6 30be 431b 2abf
00000300: b5ae 823e 7b16 59bd 80b8 703e 8dc0 8dbe
00000310: 2a87 e7be 72c2 8ebf 4415 86bd 7ea7 21be
00000320: 323c 5cbd 4620 633d 5b7b b43d 5f0e 413e
00000330: 1f80 033f 34a8 903c 1a90 a23d 2147 653e
00000340: 80d1 3fbf 05c4 ff3e 2d6f 46bf 4332 9ebe
00000350: 6d04 c4bd 31e4 7cbe 769f 053e 5a60 f33e
00000360: 12f6 b73e 878d 8abf 8650 bb3e 287f acbe
00000370: 1d19 2ebf cbaa c1be bc80 163f 3d15 3abe
00000380: 1006 ca3d f313 aebe 6574 bb3e c637 fe3e
00000390: d84f 433e e9f9 0ebf a181 1b3f c074 cdbe
000003a0: 4d06 373e 332e 32bd 9b6c b33e f1f5 3abe
000003b0: 31cd 113e 594f 1b3e 4a83 5fbe 9222 2d3e
000003c0: 500f 2dbf 572b 28bc 18ca cfbe 5e3e 1b3f
000003d0: 7c41 3b3f cf64 a43e 28c8 17bf 8667 4ebe
000003e0: 24d0 9f3c ed56 cfbe 2628 bc3d b0d6 0b3e
000003f0: 1d0e 9e3c 9aee eb3e 1625 0ebe 4080 29bf

pi.pi_net.4.bias f4 [256]
0.14579578 -1.0909358 -1.1266923 -1.075936 -1.1414089 -1.1901783 -1.139558 -1.1608812
-1.0348693 -1.0741832 -1.1487099 -1.085483 -1.1643181 -1.1114551 -1.1154313 -1.0671456
-1.1699884 -0.9287717 -1.1374629 -1.0136757 -1.105376 -0.21811412 -1.0214034 -1.0802082
-1.1397403 -1.1837015 -1.1828032 -0.621872 -0.9356892 -1.0937972 -1.1999329 -1.1220553
-1.0840966 -0.3279404 -1.1126465 -1.1873318 -1.2337995 -1.0201665 -0.99831563 -1.1631806
-1.1533936 -0.20539561 -1.1424404 -0.80392325 -1.0837255 -1.2309988 -1.1751584 -1.1010896
-0.93752724 -1.1603812 -0.64734066 -1.2258037 -1.098762 -1.0943902 -1.0248039 -1.0458038
-1.13446 -1.1480194 -1.1243532 -1.0730884 -0.517062 -1.1275603 -0.9584346 -1.2371589
-1.0811559 -0.96127486 -1.1549739 -0.8792562 -1.096128 -1.1268055 -1.1290209 -1.1307155
-1.2328024 -1.0472401 -1.0824499 -1.1157817 -1.1752504 -1.0605516 -1.1037706 -1.2042893
-1.1187423 -1.121139 -1.0885226 -1.2393227 -1.1633952 -1.1484829 -1.0534635 -1.1086911
-1.1467636 -0.3710271 -1.1673034 0.2649874 -1.2620958 -1.0897607 -1.1131761 -1.1445808
-1.0356263 0.5729002 -1.2209044 -1.0586482 -1.1446834 -1.1834494 -1.1445271 -1.0059124
-0.9027948 -1.0808166 -1.1622986 -0.68571407 -0.9695577 -1.248958 -1.0614288 -1.1645098
-0.35752764 -1.1856723 -0.87728083 -1.1149904 -1.0516714 -0.38467 -1.0428228 -1.0196642
-1.0864747 -0.72252285 -1.0669616 -1.1082819 -1.0395796 -1.1038411 -1.1733375 -1.1841094
-1.1099677 -1.1478297 -0.95230705 -1.1178097 -1.0359205 -1.097786 0.28569865 -1.1019158
-1.1171805 -0.7611099 -1.2103133 -0.9646862 -1.0824103 -1.1490258 -1.1421068 -1.2168559
-0.815065 -1.0095212 -1.0819592 -1.1010314 -1.2893387 -1.0759228 -1.0277311 -1.0786686
-1.0826275 -1.1340898 -1.1041662 -1.1873748 -0.24326554 -1.2497226 -1.2200828 -1.1727418
-0.63062114 -1.0873402 -0.9629243 -1.0637071 -1.1352215 -0.19275565 -1.0694419 -1.110285
-1.1943651 -1.0782989 0.24264465 -1.0858313 -1.1004524 -1.15318 -0.46127433 -0.3678347
-1.0108355 -1.1051278 -1.198354 -1.0915452 -0.10086231 -0.9918936 -0.9081533 -1.1635593
-1.1035117 -1.0846099 -1.0876654 -1.1696658 -1.0359813 -1.013949 -1.1429123 -0.9225979
-0.8403534 -0.9910378 -0.9801975 -1.059943 -1.1386606 -1.0914599 -0.9137483 -1.0173427
-0.98965985 -1.2563689 -1.0994709 -0.6767659 -1.0864059 -1.1242898 -1.0690944 -1.243186
-0.9573151 -1.2289331 -1.0727738 -1.1501695 -0.92809737 -0.19301195 -0.8351082 -1.1268178
-1.0048084 -0.9614974 -1.1554159 -0.9270363 -0.7607414 -0.9722282 -0.9196531 -1.0156841
-1.0181302 -1.1676165 -1.1762103 -1.2143246 -0.76373965 -1.1483265 -1.0485014 -1.0738262
-0.9792036 -1.0379633 -0.8134811 -1.0900981 -1.1464975 -1.129263 -1.0104692 -0.9460244
-0.7142861 -0.9072397 -1.0737456 -1.0531179 -0.90861666 -0.97794324 -1.207965 -1.0567957
-1.1905456 -1.1388031 -1.1897445 -1.1565723 0.3452258 -1.1757925 -1.0466372 -1.1484215
00000000: 7d4b 153e c9a3 8bbf 7437 90bf 45b8 89bf
00000010: b019 92bf c357 98bf 09dd 91bf c197 94bf
00000020: 9976 84bf d67e 89bf ed08 93bf 1bf1 8abf
00000030: 6008 95bf 2944 8ebf 74c6 8ebf 3a98 88bf
00000040: 2ec2 95bf fbc3 6dbf 6298 91bf 20c0 81bf
00000050: f67c 8dbf 4f59 5fbe 59bd 82bf 4344 8abf
00000060: 03e3 91bf 8883 97bf 1866 97bf 0133 1fbf
00000070: 5489 6fbf 8c01 8cbf 6797 99bf 829f 8fbf
00000080: adc3 8abf cee7 a7be 336b 8ebf 7dfa 97bf
00000090: 24ed 9dbf d194 82bf 9d91 7fbf 1ae3 94bf
000000a0: 67a2 93bf 3a53 52be 7d3b 92bf eacd 4dbf
000000b0: 84b7 8abf 5e91 9dbf 976b 96bf 81f0 8cbf
000000c0: c901 70bf 5f87 94bf 1eb8 25bf 23e7 9cbf
000000d0: 3ca4 8cbf fa14 8cbf c62c 83bf e6dc 85bf
000000e0: fc35 91bf 4df2 92bf ceea 8fbf f65a 89bf
000000f0: 2d5e 04bf e553 90bf f85b 75bf 395b 9ebf
00000100: 5163 8abf 1c16 76bf 2fd6 93bf ef16 61bf
00000110: ec4d 8cbf 2a3b 90bf c283 90bf 49bb 90bf
00000120: 78cc 9dbf f70b 86bf b88d 8abf efd1 8ebf
00000130: 9b6e 96bf 28c0 87bf 5b48 8dbf 2726 9abf
00000140: f332 8fbf 7c81 8fbf b554 8bbf 20a2 9ebf
00000150: 22ea 94bf 7d01 93bf e4d7 86bf 97e9 8dbf
00000160: 26c9 92bf 44f7 bdbe 336a 95bf 6eac 873e
00000170: 5b8c a1bf 477d 8bbf 8e7c 8ebf a081 92bf
00000180: 678f 84bf 96a9 123f 9846 9cbf c981 87bf
00000190: fc84 92bf 457b 97bf dd7f 92bf bdc1 80bf
000001a0: 8f1d 67bf 3358 8abf 33c6 94bf f58a 2fbf
000001b0: ef34 78bf dbdd 9fbf e6dc 87bf a80e 95bf
000001c0: dd0d b7be 1cc4 97bf 7a95 60bf 01b8 8ebf
000001d0: 2b9d 86bf 77f3 c4be 387b 85bf 5b84 82bf
000001e0: 9a11 8bbf 42f7 38bf 3392 88bf 2edc 8dbf
000001f0: f210 85bf aa4a 8dbf ec2f 96bf e690 97bf
00000200: 6c13 8ebf 15ec 92bf 65ca 73bf 6314 8fbf
00000210: 0b99 84bf 4084 8cbf 1847 923e 940b 8dbf
00000220: c5ff 8ebf 19d8 42bf 8ceb 9abf adf5 76bf
00000230: 6c8c 8abf 4713 93bf 8e30 92bf efc1 9bbf
00000240: 1aa8 50bf fe37 81bf a47d 8abf 99ee 8cbf
00000250: 0d09 a5bf d7b7 89bf b18c 83bf d011 8abf
00000260: 8a93 8abf db29 91bf 5155 8dbf e6fb 97bf
00000270: 9a1a 79be e9f6 9fbf ac2b 9cbf 671c 96bf
00000280: 6370 21bf f72d 8bbf 3582 76bf 8e27 88bf
00000290: f04e 91bf bd61 45be 79e3 88bf d21d 8ebf
000002a0: f5e0 98bf b305 8abf d777 783e 85fc 8abf
000002b0: a0db 8cbf 679b 93bf 262c ecbe d454 bcbe
000002c0: 0f63 81bf d474 8dbf aa63 99bf c1b7 8bbf
000002d0: e690 cebd bdec 7dbf bc7c 68bf 83ef 94bf
000002e0: df3f 8dbf 7fd4 8abf 9f38 8bbf 9cb7 95bf
000002f0: 099b 84bf 15c9 81bf f34a 92bf 602f 6cbf
00000300: 6721 57bf a7b4 7dbf 39ee 7abf 36ac 87bf
00000310: a1bf 91bf f5b4 8bbf 69eb 69bf 4938 82bf
00000320: 595a 7dbf b2d0 a0bf 76bb 8cbf 8840 2dbf
00000330: 590f 8bbf bae8 8fbf 16d8 88bf b820 9fbf
00000340: 9a12 75bf ae4d 9dbf a750 89bf c138 93bf
00000350: ca97 6dbf eda4 45be a7c9 55bf 913b 90bf
00000360: 909d 80bf b224 76bf abe4 93bf 4052 6dbf
00000370: f3bf 42bf f3e3 78bf 636e 6bbf f001 82bf
00000380: 1752 82bf 7574 95bf 0f8e 96bf fd6e 9bbf
00000390: 7184 43bf 5dfc 92bf 4b35 86bf 2373 89bf
000003a0: 16ad 7abf fbdb 84bf 4c40 50bf 5688 8bbf
000003b0: 6ec0 92bf b18b 90bf 0e57 81bf a82e 72bf
000003c0: 74db 36bf dc40 68bf 7f70 89bf 91cc 86bf
000003d0: 1a9b 68bf 7d5a 7abf 999e 9abf 1545 87bf
000003e0: cc63 98bf 4dc4 91bf 8c49 98bf 900a 94bf
000003f0: 70c1 b03e 5e80 96bf 35f8 85bf 7aff 92bf

v.v_net.0.weight f4 [64, 5]
-0.10580863 0.03612584 0.08083454 -0.3268771 -0.25109753 -0.91280764 -0.15511781 0.80492306
-0.2246988 0.39164087 -0.53086567 -0.27102986 0.41765127 0.1629133 0.4546695 0.48124638
-0.19164504 0.039567564 0.31685 0.45074597 0.6925984 0.79209554 0.8549769 -0.20431858
0.024431774 -0.41381773 -0.0690788 -0.40965253 -0.03584881 -0.024853075 -0.9638773 0.033518065
0.6616879 -0.23370701 0.075275026 0.69864315 0.0052932184 0.2350072 -0.13070475 0.4494208
0.39156142 0.18873417 -0.046218954 0.6407874 -0.3630467 0.3273942 0.34689647 0.34284237
0.18984824 0.75502527 0.08143465 -0.0019339471 0.14625198 -0.5258817 -0.8448713 0.79778343
-0.063210286 -0.6580346 0.28880504 -0.005036982 0.80330205 -0.075543165 -0.13152401 -0.22979392
0.107960954 0.5207544 0.13572104 0.025841473 0.16013943 0.09945862 -0.6088474 0.38736114
-0.86874473 -0.8177552 -0.71567535 -0.6028665 -0.0033087842 -0.29961288 -0.03836871 -0.11633135
-1.3987086 0.4125516 0.2808005 0.11186388 0.16511658 -0.41369608 -0.0065609235 -0.49056736
-0.32500547 -0.8201542 0.8274752 0.6495964 0.27922058 0.11378541 0.41235292 -0.5120119
0.32381913 -0.41216803 -0.32433593 0.0024212156 -0.45865437 0.21248245 -0.41044104 -0.46915233
-0.06547466 -0.6142855 0.32444578 -0.4554313 -0.18448056 0.029591778 -0.0090065235 0.76716274
0.26774287 -0.36734334 -0.15674932 -0.06638083 -0.31786573 0.97241867 1.32559 0.79482377
0.7236705 -0.24678399 0.20421696 0.5471515 0.05688246 -0.5355475 -0.14004047 0.33501694
-0.024659488 0.32251588 0.76576173 0.35537836 -0.1784191 -0.49031508 0.14078915 -0.62079775
-0.39747348 0.251483 0.29240993 0.0041331635 -0.3023456 0.014900832 -0.4326144 0.111153916
0.3919824 -0.67286986 -0.10895295 -0.19165254 0.39926878 0.37046093 -0.99206764 -0.093657285
0.43195426 0.07601148 -0.13845433 0.42666772 -0.31619316 0.40231237 0.078972794 0.1104704
-1.0815046 -0.13575587 0.15353405 0.6040803 0.03472288 -0.4178675 -0.35408908 -0.19361317
-0.45151076 -0.2531385 -0.09367651 -0.3846095 0.16498628 -0.02216506 -0.074516855 0.8205755
-0.108046055 0.023653442 0.28147408 0.03907041 0.49400905 0.13831118 0.29743582 -0.34722513
0.39983147 0.48430496 -0.103196315 0.13057707 0.33384594 0.12030182 0.6347214 -0.093496226
0.14735878 0.24076976 0.07277518 -0.747272 0.16236788 -0.36332443 -0.06808948 0.04527782
0.5554816 0.08386448 -0.052536014 0.47771403 0.24600585 0.56927323 0.19384035 0.7688277
0.12146753 0.028135521 -1.0622144 -0.15629497 -0.21911769 -0.2937298 -0.40433884 0.78484553
-0.08646034 0.1242456 0.16840719 0.05036472 -0.8674942 -0.01710935 0.14118302 -0.2030155
-0.4889782 1.6580017 0.7493626 0.622276 0.1799063 0.30180088 -0.29967204 -0.02830811
-0.42060435 -0.17361635 -0.072226085 0.7306739 -0.031183688 -0.13103104 -0.29046375 0.34345338
0.14222887 -0.0035928981 0.3443916 0.10540809 -0.4947639 -0.7468763 0.08727458 -0.03484068
-0.019467805 0.27517155 0.7135084 0.2655868 -0.44146398 -0.2669819 -0.33407453 -0.9480325
00000000: 32b2 d8bd b0f8 133d 948c a53d 6f5c a7be
00000010: db8f 80be c3ad 69bf 34d7 1ebe 700f 4e3f
00000020: 7117 66be 2785 c83e d0e6 07bf 6dc4 8abe
00000030: 63d6 d53e bed2 263e 71ca e83e ed65 f63e
00000040: 993e 44be 9911 223d 2a3a a23e 2dc8 e63e
00000050: 214e 313f c6c6 4a3f c4df 5a3f e438 51be
00000060: 2525 c83c ebdf d3be 3079 8dbd fabd d1be
00000070: 34d6 12bd ad98 cbbc aac0 76bf 3d4a 093d
00000080: 6164 293f e450 6fbe cb29 9a3d 47da 323f
00000090: bc72 ad3b baa5 703e 77d7 05be 7c1a e63e
000000a0: bd7a c83e 8843 413e 1650 3dbd a50a 243f
000000b0: 42e1 b9be 36a0 a73e 6a9c b13e 0989 af3e
000000c0: 9467 423e 5649 413f 36c7 a63d 7f7c fdba
000000d0: 14c3 153e 2fa0 06bf 7c49 58bf 893b 4c3f
000000e0: 6574 81bd f574 28bf 41de 933e 440d a5bb
000000f0: 34a5 4d3f 60b6 9abd 3bae 06be 194f 6bbe
00000100: a21a dd3d 2950 053f 75fa 0a3e 7fb1 d33c
00000110: 97fb 233e f6b0 cb3d 6cdd 1bbf 3354 c63e
00000120: 0e66 5ebf 6858 51bf 8036 37bf 7555 1abf
00000130: 30d8 58bb dc66 99be 8228 1dbd 213f eebd
00000140: e208 b3bf f739 d33e 15c5 8f3e e418 e53d
00000150: 5214 293e f9cf d3be 04fd d6bb a52b fbbe
00000160: 1e67 a6be a0f5 51bf 6ad5 533f f34b 263f
00000170: 00f6 8e3e 5308 e93d ec1f d33e 3613 03bf
00000180: 9fcb a53e b007 d3be 5c0f a6be 42ad 1e3b
00000190: bfd4 eabe 0095 593e 5425 d2be bc34 f0be
000001a0: 9417 86bd d141 1dbf c21d a63e 4b2e e9be
000001b0: 79e8 3cbe 756a f23c 1990 13bc c764 443f
000001c0: 9815 893e 6d14 bcbe e582 20be acf2 87bd
000001d0: 4cbf a2be 6ef0 783f efac a93f 9279 4b3f
000001e0: 7842 393f f1b4 7cbe 401e 513e 1f12 0c3f
000001f0: 95fd 683d a419 09bf c566 0fbe 5787 ab3e
00000200: b202 cabc cd20 a53e f608 443f 27f4 b53e
00000210: 7fb3 36be 940a fbbe 082b 103e 9aec 1ebf
00000220: a581 cbbe 61c2 803e c1b6 953e 7d6f 873b
00000230: 0bcd 9abe 9f22 743c a27f ddbe aaa4 e33d
00000240: ebb1 c83e 3341 2cbf b922 dfbd 9040 44be
00000250: f56c cc3e 0ead bd3e 25f8 7dbf 64cf bfbd
00000260: 1c29 dd3e e8ab 9b3d f9c6 0dbe 3174 da3e
00000270: 12e4 a1be e3fb cd3e 7dbc a13d 4e3e e23d
00000280: be6e 8abf 9603 0bbe 0838 1d3e 02a5 1a3f
00000290: 9439 0e3d bbf2 d5be 2a4b b5be 8842 46be
000002a0: 6b2c e7be 5f9b 81be 78d9 bfbd 89eb c4be
000002b0: 2af2 283e 8093 b5bc 4b9c 98bd 3c11 523f
000002c0: 4047 ddbd ddc4 c13c 5f1d 903e 4b08 203d
000002d0: c1ee fc3e 72a1 0d3e 8249 983e 7ec7 b1be
000002e0: b6b6 cc3e d2f6 f73e 9758 d3bd ffb5 053e
000002f0: dbed aa3e cd60 f63d 1a7d 223f f37a bfbd
00000300: 38e5 163e 598c 763e 270b 953d 384d 3fbf
00000310: c443 263e a905 babe 7f72 8bbd 3c75 393d
00000320: 0b34 0e3f 24c1 ab3d 0130 57bd ef96 f43e
00000330: f5e8 7b3e e4bb 113f 167e 463e e4d1 443f
00000340: f8c3 f83d 777c e63c a4f6 87bf ca0b 20be
00000350: 6360 60be c163 96be 8005 cfbe a3eb 483f
00000360: 1e12 b1bd 7a74 fe3d ef72 2c3e 3d4b 4e3d
00000370: 1a14 5ebf e828 8cbc 4892 103e 4ce3 4fbe
00000380: 5a5b fabe 6639 d43f 3ad6 3f3f 7b4d 1f3f
00000390: 5b39 383e a585 9a3e 9d6e 99be 69e6 e7bc
000003a0: 7459 d7be 7cc8 31be 45eb 93bd 720d 3b3f
000003b0: ef74 ffbc 002d 06be aab7 94be 1fd9 af3e
000003c0: 72a4 113e d476 6bbb 1954 b03e 32e0 d73d
000003d0: b251 fdbe 4933 3fbf 04bd b23d 1ab5 0ebd
000003e0: f27a 9fbc 49e3 8c3e 7da8 363f fefa 873e
000003f0: 9107 e2be dab1 88be d10b abbe 42b2 72bf

v.v_net.0.bias f4 [64]
0.25290236 -0.1113122 0.011066159 -0.42147413 1.0597442 0.34935993 -0.061229035 -0.44297424
-0.3056237 0.239203 0.23016477 0.073326655 -0.044628847 -0.24840994 -0.7291579 0.47329205
-0.22818841 -1.0317813 0.678466 0.27823964 0.62404525 0.24141566 0.6934264 0.21492764
-0.21453689 0.08089787 -0.09726005 0.09281143 0.1452677 0.050713275 0.018821744 -0.12455352
-0.03887538 0.11753627 0.24364187 -0.3089304 -0.20478676 -0.22836912 -0.3296984 0.32213816
-0.25161684 -0.104850635 0.029483384 -0.4086899 0.4222439 1.275766 0.29975212 -0.12739758
-0.14848289 0.020769924 -0.013999488 -1.0212846 0.7465256 0.37395188 0.2814088 -0.68838525
-0.8341914 0.662295 0.60608107 -0.97554487 0.31793967 1.1134809 -0.47390893 -0.29021797
00000000: 6b7c 813e a7f7 e3bd d64e 353c 75cb d7be
00000010: b3a5 873f 4edf b23e 4ccb 7abd 85cd e2be
00000020: b67a 9cbe a2f1 743e 50b0 6b3e 492c 963d
00000030: bdcc 36bd 2d5f 7ebe 18aa 3abf 5653 f23e
00000040: 39aa 69be 6911 84bf f3af 2d3f 6d75 8e3e
00000050: 6ec1 1f3f ab35 773e 6484 313f fe15 5c3e
00000060: 8faf 5bbe c8ad a53d 4730 c7bd eb13 be3d
00000070: 0ec1 143e b9b8 4f3d 0f30 9a3c ea15 ffbd
00000080: ca3b 1fbd dbb6 f03d 417d 793e 202c 9ebe
00000090: 9fb3 51be 98d9 69be 3bce a8be 4bef a43e
000000a0: ecd3 80be eebb d6bd 2387 f13c cd3f d1be
000000b0: 5a30 d83e 4d4c a33f 1c79 993e 8374 02be
000000c0: e60b 18be b025 aa3c 1c5e 65bc 74b9 82bf
000000d0: 4d1c 3f3f 9f76 bf3e d014 903e 043a 30bf
000000e0: 918d 55bf 2a8c 293f 2128 1b3f 4fbd 79bf
000000f0: fdc8 a23e 8b86 8e3f 31a4 f2be 7397 94be

v.v_net.2.weight f4 [64, 64]
0.47054937 -0.21907544 -0.09566793 -0.11306874 0.73807144 0.62566614 -0.31371188 -0.5848665
-0.40707308 0.17297694 0.03644667 0.28991523 0.71555877 -0.13296805 -0.42488694 0.72686017
-1.4541845 -0.5003155 0.20271301 0.14995746 0.7887436 0.20148729 0.681062 0.020710984
-0.46251494 -0.08329349 1.0472863 -0.1848868 -0.12341528 -0.31974578 -0.5123047 -0.09822344
-0.9071516 -0.28388703 0.38649338 -0.117612936 0.019579945 0.24811068 0.1631405 0.29943374
-0.24338949 0.41597834 0.004733106 -0.22713773 0.46391425 0.98310536 -0.015618679 0.4626552
0.028910173 -0.73579717 0.37408862 -0.4830685 0.49500054 0.22552252 0.35649315 -0.45961604
-0.53175294 0.04781458 0.14653063 -0.43937147 0.8100211 0.21994917 -0.7010982 -0.22120291
0.13262866 -0.37500685 0.20801014 -0.22503504 0.13539676 0.020552421 0.09691584 0.11199165
0.20222893 0.3720188 -0.09836023 -0.0099634575 0.28219035 -0.30508643 -0.5012885 0.11822214
-0.73305833 -0.52544826 0.7661837 -0.19413964 0.21561055 0.28939068 -0.08530314 -0.1748232
0.33146238 -0.19183844 0.5839488 -0.19661978 -0.059156638 -0.19337842 -0.64917326 -0.23325872
-0.37507358 -0.40656814 -0.13258494 -0.12753513 0.3417627 -0.083081916 0.15688482 0.14632878
0.12569928 0.34815434 -0.15617071 0.16914108 0.22928533 0.16294923 -0.051998697 -0.15794927
-0.19537023 -0.26612085 0.11663928 -0.6495815 0.373615 0.15209219 0.24739973 0.069253266
-0.52075505 0.44123635 0.13907003 -0.49811214 0.29638702 0.6008565 -0.30043027 0.79499406
0.7630073 -0.22662169 0.13895412 -0.21187279 0.5135007 -0.2577619 0.17668526 -0.20944376
0.52455276 0.2521017 -0.08065858 -0.09543449 0.09026742 0.37397793 -0.80011755 0.9638023
-1.0447048 -0.53257746 0.68591905 -0.2742293 0.5283366 -0.09527997 0.42733485 -0.014141779
-0.13908856 -0.20052962 0.42614254 -0.5377203 -0.58691996 -0.5007714 -0.40656558 0.3163324
-0.36375645 -0.23249632 0.0034710094 -0.0005181994 0.40320492 0.3751808 -0.11347303 0.13322322
-0.15834123 0.76176286 -0.4889205 -0.14067057 0.5394849 0.9193606 -0.048173573 -0.24625687
0.20799805 -0.2978858 -0.05900448 -0.71986437 0.9068736 0.53732175 0.078021 -0.49178407
-0.4555789 0.59580475 0.33099502 -0.80076545 0.7492521 0.85400164 -0.40897557 0.4941341
0.17250654 -0.30245364 0.29038295 0.122596614 0.3288804 0.3595378 -0.2287412 -0.52995753
0.12754892 0.065945335 -0.2747042 0.19538635 0.32439792 -0.15405904 -0.18383244 -0.05152096
-0.5518108 -0.61117685 0.3977878 -0.086054474 0.30336577 0.028518677 0.41796085 -0.07855992
0.47936097 -0.24161549 0.22959864 -0.22411057 0.28091952 -0.5545316 -0.3659048 0.51555157
-0.27790934 -0.16887605 0.57626337 -0.20786582 0.37816566 0.42292267 -0.4286638 0.09705185
0.043271035 0.31004068 -0.051516417 -0.056876834 0.19328117 0.71370053 -0.38172385 0.03418611
0.21758042 -0.42928573 0.04199779 -0.90983427 0.8170522 0.087231144 0.05855126 -0.22539148
-0.13867967 0.60448325 0.1614156 -0.613712 0.45836502 0.3128685 -0.28401133 0.20683487
00000000: d9eb f03e 5055 60be 8ced c3bd 9590 e7bd
00000010: 40f2 3c3f a82b 203f d89e a0be d0b9 15bf
00000020: e26b d0be de20 313e 1a49 153d c56f 943e
00000030: dc2e 373f c728 08be c88a d9be 8213 3a3f
00000040: b822 babf ad14 00bf 0094 4f3e 738e 193e
00000050: 1aeb 493f af52 4e3e 145a 2e3f 15aa a93c
00000060: c2ce ecbe c795 aabd 7a0d 863f f752 3dbe
00000070: 26c1 fcbd b8b5 a3be 6726 03bf 5f29 c9bd
00000080: 163b 68bf a459 91be 76e2 c53e 0ddf f0bd
00000090: 1f66 a03c ba10 7e3e 4e0e 273e 614f 993e
000000a0: 183b 79be 1dfb d43e 2c18 9b3b cb96 68be
000000b0: 2b86 ed3e cbac 7b3f 7de5 7fbc 24e1 ec3e
000000c0: 07d5 ec3c 345d 3cbf 8b88 bf3e c154 f7be
000000d0: b670 fd3e 60ef 663e 4586 b63e cb52 ebbe
000000e0: f620 08bf 39d9 433d 200c 163e 4cf5 e0be
000000f0: 8b5d 4f3f 5b3a 613e 2c7b 33bf 0483 62be
00000100: cfcf 073e e600 c0be 9c00 553e 966f 66be
00000110: 73a5 0a3e 8d5d a83c d07b c63d e15b e53d
00000120: 1a15 4f3e 4079 be3e 1771 c9bd c53d 23bc
00000130: 417b 903e 4a34 9cbe 7154 00bf 731e f23d
00000140: b6a9 3bbf c783 06bf 9d24 443f 8bcc 46be
00000150: 03c9 5c3e 042b 943e 6ab3 aebd da04 33be
00000160: 70b5 a93e 4c71 44be ab7d 153f b256 49be
00000170: 3b4e 72bd fe04 46be 3830 26bf 60db 6ebe
00000180: a509 c0be b329 d0be 59c4 07be 9298 02be
00000190: 85fb ae3e da26 aabd 6aa6 203e 36d7 153e
000001a0: 50b7 003e 4941 b23e 37eb 1fbe 5233 2d3e
000001b0: c6c9 6a3e 2adc 263e 96fc 54bd 74bd 21be
000001c0: 220f 48be fe40 88be 93e0 ee3d f94a 26bf
000001d0: 774a bf3e 0ebe 1b3e 5b56 7d3e a8d4 8d3d
000001e0: 3450 05bf bbe9 e13e 6068 0e3e 8e08 ffbe
000001f0: 0ac0 973e bbd1 193f ffd1 99be bb84 4b3f
00000200: 7254 433f 840f 68be fd49 0e3e 2ef5 58be
00000210: c874 033f 5ef9 83be fbec 343e 6d78 56be
00000220: 1749 063f 7913 813e 5330 a5bd 2873 c3bd
00000230: 20de b83d 097a bf3e 81d4 4cbf bfbb 763f
00000240: e3b8 85bf ff56 08bf 6498 2f3f c867 8cbe
00000250: 1141 073f 2522 c3bd a2cb da3e ecb2 67bc
00000260: 3b6d 0ebe a357 4dbe 5b2f da3e 0aa8 09bf
00000270: 6340 16bf 8e32 00bf 5d29 d0be 52f6 a13e
00000280: 493e babe 8413 6ebe e079 633b c6d7 07ba
00000290: e070 ce3e b317 c03e 8c64 e8bd ab6b 083e
000002a0: 3424 22be e402 433f ca53 fabe f20b 10be
000002b0: af1b 0a3f 375b 6b3f a751 45bd c32a 7cbe
000002c0: 71fd 543e 7d84 98be aeae 71bd 0849 38bf
000002d0: de28 683f eb8d 093f 79c9 9f3d 1fcb fbbe
000002e0: a341 e9be a986 183f 2e78 a93e f7fe 4cbf
000002f0: fcce 3f3f da9f 5a3f 3f65 d1be 25ff fc3e
00000300: 8ea5 303e 34db 9abe 13ad 943e ef13 fb3d
00000310: 0363 a83e 5715 b83e 223b 6abe 4cab 07bf
00000320: 2f9c 023e 590e 873d 07a6 8cbe 5c13 483e
00000330: 7c17 a63e a7c1 1dbe 923e 3cbe a407 53bd
00000340: 7943 0dbf 1676 1cbf d8aa cb3e 543d b0bd
00000350: c252 9b3e 00a0 e93c f7fe d53e 06e4 a0bd
00000360: cd6e f53e 0d6a 77be e81b 6b3e 3e7d 65be
00000370: afd4 8f3e c8f5 0dbf e057 bbbe 30fb 033f
00000380: 224a 8ebe d8ed 2cbe ff85 133f c7da 54be
00000390: ee9e c13e 5289 d83e d279 dbbe 1fc3 c63d
000003a0: f83c 313d a7bd 9e3e e102 53bd aff7 68bd
000003b0: 80eb 453e 14b5 363f 4f71 c3be bc06 0c3d
000003c0: 67cd 5e3e 57cb dbbe e005 2c3d e6ea 68bf
000003d0: 552a 513f 3ea6 b23d 72d3 6f3d 06cd 66be
000003e0: 0b02 0ebe 6abf 1a3f 224a 253e 3b1c 1dbf
000003f0: d2ae ea3e 4d30 a03e ef69 91be 85cc 533e

v.v_net.2.bias f4 [64]
0.43971443 0.27376077 0.5631897 0.38914883 0.005181539 -0.17696837 -0.51895684 -0.30331707
-0.52321255 -0.4942446 -0.5607231 -0.26178122 0.45790642 -0.41148013 -0.48714802 -0.58501256
-0.57237643 0.56184745 0.5471441 0.63607675 -0.4184988 0.40609357 -0.6101812 0.56535196
-0.2657592 -0.13489898 -0.52732766 0.583383 0.02515484 0.30251893 0.3538577 -0.5381432
-0.57058513 -0.64565474 0.25012675 0.4654172 0.5462407 0.7058233 0.50687695 0.5944447
0.58594614 0.35016614 0.39284983 -0.4530476 0.36776194 -0.4932603 -0.56980795 0.5080701
-0.10564779 0.35561296 -0.62033755 -0.3886597 0.45359272 -0.37131763 0.2542755 -0.113306314
-0.6774228 0.5723453 -0.5096762 0.62378275 0.6130138 0.47241998 -0.47056907 0.5833688
00000000: 4022 e13e 5f2a 8c3e 332d 103f 843e c73e
00000010: e6c9 a93b 3237 35be 5bda 04bf 604c 9bbe
00000020: 42f1 05bf a10d fdbe 8d8b 0fbf 3008 86be
00000030: b672 ea3e 86ad d2be 776b f9be 62c3 15bf
00000040: 4387 12bf 3cd5 0f3f a311 0c3f edd5 223f
00000050: 7a45 d6be 7feb cf3e d634 1cbf e8ba 103f
00000060: 9711 88be f522 0abe f2fe 06bf 9758 153f
00000070: 8611 ce3c c3e3 9a3e d62c b53e c1c3 09bf
00000080: de11 12bf a149 25bf 9d10 803e 2a4b ee3e
00000090: 6ed6 0b3f d6b0 343f b0c2 013f 872d 183f
000000a0: 9100 163f fa48 b33e 9d23 c93e dbf5 e7be
000000b0: 4b4b bc3e 9d8c fcbe efde 11bf e210 023f
000000c0: de5d d8bd e712 b63e 71ce 1ebf 67fe c6be
000000d0: 4e3d e83e 581d bebe 6630 823e 240d e8bd
000000e0: 956b 2dbf 3985 123f 247a 02bf 3ab0 1f3f
000000f0: 79ee 1c3f 08e1 f13e 6eee f0be a857 153f

v.v_net.4.weight f4 [1, 64]
3.4774365 3.4381263 3.7391572 3.5996177 -4.354491 3.525901 -3.6307573 4.39526
4.1695356 -3.5670905 -3.483033 3.4679928 3.6136897 -3.4084857 -3.3359869 -3.555718
-3.8119788 3.5012136 3.4974608 3.6390405 -3.6258626 3.430559 -3.6905985 -4.133146
-3.935651 3.8071406 -3.7357562 3.3343964 3.5232506 3.9301167 3.9172633 -3.840262
-3.6597075 3.9909084 3.8516521 3.4588058 3.5949378 -4.455134 -4.011702 3.7278514
3.3993282 3.8117876 3.4981368 4.4765687 3.6995091 -3.5426626 -3.543272 3.4749765
3.4259624 -4.422547 -3.4486747 -3.5176833 3.3719485 3.705156 3.5832775 3.5078409
4.2793975 3.435103 -3.8511891 3.4741864 4.009023 3.809767 -3.8602128 -4.2762527
00000000: 528e 5e40 430a 5c40 5a4e 6f40 2360 6640
00000010: fe57 8bc0 5da8 6140 545e 68c0 f8a5 8c40
00000020: d66c 8540 364b 64c0 03ea 5ec0 98f3 5d40
00000030: b146 6740 a124 5ac0 cf80 55c0 e290 63c0
00000040: 76f7 73c0 e213 6040 66d6 5f40 0ae6 6840
00000050: 220e 68c0 478e 5b40 c432 6cc0 bb42 84c0
00000060: b5e1 7bc0 31a8 7340 a116 6fc0 c066 5540
00000070: f07c 6140 0887 7b40 71b4 7a40 dac6 75c0
00000080: a638 6ac0 0b6b 7f40 7881 7640 135d 5d40
00000090: 7613 6640 7590 8ec0 dd5f 80c0 1e95 6e40
000000a0: 988e 5940 54f4 7340 79e1 5f40 0d40 8f40
000000b0: c2c4 6c40 fcba 62c0 f8c4 62c0 0466 5e40
000000c0: f842 5b40 8185 8dc0 16b7 5cc0 b921 61c0
000000d0: 01ce 5740 4721 6d40 6b54 6540 7780 6040
000000e0: d3f0 8840 bad8 5b40 e279 76c0 1259 5e40
000000f0: eb49 8040 39d3 7340 ba0d 77c0 10d7 88c0
