tmp/experiments/RN3 False,True,True/pyt_network_save/model save18000.pt (torch_old, 314943 bytes, 33 tensors)

pi.pi_net.0.weight f4 [64, 5]
000000 19 2e 94 be fa 12 c1 3d 9a e3 e2 3e 3d f2 25 be
       -0.2894142 0.094274476 0.4431427 -0.16205688
000010 55 ca b1 3c d3 26 1a 3e 7c a3 f2 bd 72 69 76 bd
       0.021702925 0.15053873 -0.118475884 -0.060159154
000020 d8 62 0b bf 6f a1 c0 3c 27 28 1f 3f f7 da b6 3e
       -0.544477 0.023514478 0.6217064 0.35713932
000030 99 b6 37 3f be d1 8f 3d a1 b4 6b 3d d1 e3 53 3f
       0.71762997 0.07022427 0.057545308 0.82769495
000040 c6 b8 30 3d 68 d2 a8 bd 6e f3 7a bd f5 8b 3d 3e
       0.043144964 -0.08243257 -0.06126731 0.1851042
000050 1b fc 95 3e 61 6b ff 3e 4f ef db 3e 6f 2a 37 bb
       0.29293904 0.4988661 0.42956015 -0.0027948876
000060 15 28 58 3d e9 d2 fd bd 74 40 11 3e c3 86 72 be
       0.0527726 -0.123937435 0.14184743 -0.2368422
000070 e3 f6 a3 be 88 50 93 be eb 33 4b 3e b7 cf 91 be
       -0.32024297 -0.28772378 0.19844024 -0.28478786
000080 de 4d 54 3e 9f 27 3f 3f 94 ae 3a bd 5f d8 dd bd
       0.20732829 0.7466983 -0.045576647 -0.10832285
000090 10 e8 16 3e 38 91 93 bd 03 1a 8b be 33 74 de be
       0.14736962 -0.07205433 -0.27168283 -0.43448028
0000a0 27 cf cc 3d 5f c1 a4 3e 65 a1 b3 3e df f8 6d 3d
       0.10000449 0.3217878 0.35084072 0.05809867
0000b0 09 a6 9a 3e 74 10 1a be 75 9d 19 3e 60 86 84 bd
       0.302048 -0.15045339 0.15001471 -0.064709425
0000c0 39 47 a5 bd 08 23 47 be 43 1d f4 3e 62 a3 d1 3e
       -0.08070225 -0.19446957 0.47678575 0.40944964
0000d0 22 71 3b 3e 61 f5 6a 3e 19 7a d5 bd 45 7c f6 3e
       0.18304875 0.22945167 -0.10423679 0.48141685
0000e0 35 e9 1e 3f 0e 7d 22 bf 52 c0 89 be d7 d0 a4 bc
       0.62074596 -0.6347207 -0.2690454 -0.020119114
0000f0 72 56 2f be 92 aa a2 be 5c 97 de 3e 4c ed ad bd
       -0.1712282 -0.3177076 0.43474853 -0.084925264
000100 4e 53 58 3e 94 d3 7e 3e 6d 44 af be b7 ec 34 3e
       0.21125528 0.24885398 -0.34231892 0.17668425
000110 51 53 84 bd 9d c8 61 3d 62 20 9d be 60 d7 41 be
       -0.06461204 0.05512296 -0.3068877 -0.18929815
000120 a1 46 e3 3d b1 9e 39 be a7 b4 b6 3d b7 0f df be
       0.11097456 -0.18126942 0.089211755 -0.43566677
000130 5d 58 6b bd 2b 00 82 3e 66 55 76 3c 28 8d 25 bf
       -0.057457317 0.25390753 0.015035009 -0.6466851
000140 6d 8f c0 3d b5 d7 d7 3d ee 1c 13 be af 6d 5b bc
       0.09402356 0.1053919 -0.14366505 -0.01339285
000150 26 f3 a9 be d0 73 68 be 0f bc a2 3e 11 cf f2 3d
       -0.3319332 -0.22700429 0.31784102 0.11855901
000160 ca d2 8a bc c1 3a c3 3d f9 2b 83 3e e9 80 82 3e
       -0.016946215 0.09532691 0.25619486 0.25488976
000170 3f a8 70 3c 70 3b f8 be 20 fc a7 be 3b 60 6b bf
       0.0146885505 -0.48482847 -0.32809544 -0.9194371
000180 8f 82 fe be d9 6c a2 3e 2e fb b1 bd d9 4b 8f 3e
       -0.49708983 0.3172367 -0.08690487 0.27987555
000190 14 85 0a bf 17 d6 a6 3e 83 9f ac 3e c3 59 93 bd
       -0.5410931 0.32585213 0.33715448 -0.07194855
0001a0 4e 4f 88 bd e6 de 8a 3d 4e 5d 98 3e f3 d4 e6 3e
       -0.06655751 0.06780796 0.29758686 0.45084342
0001b0 2b 67 fd 3d 44 48 ac bd 6a 6e ba 3e 53 01 9e 3e
       0.12373193 -0.08412221 0.36412364 0.30860385
0001c0 2e 0f c4 be f8 81 80 3d 6f 5c 89 be 26 a6 99 3e
       -0.3829283 0.062747896 -0.26828334 0.30009574
0001d0 90 7d d7 be e5 17 74 3e d1 97 59 3d 56 5b ae 3e
       -0.42087984 0.2383724 0.0531233 0.3405406
0001e0 d9 ce d0 3e a6 3e a3 be 85 94 cd 3e ae fc 8d 3e
       0.40782812 -0.31883734 0.40152374 0.27731842
0001f0 75 46 7d 3e e5 05 37 3f 05 40 e1 3e 3b 74 13 3f
       0.24733908 0.7149337 0.43994156 0.5759923
000200 93 9a 83 3e d3 8d 72 3e 1b b3 08 3f 09 cc c8 3d
       0.25703868 0.23686914 0.53398293 0.098045416
000210 02 93 3b 3e b9 5a 58 3e 8e 60 b3 bc 38 c7 09 bf
       0.18317798 0.21128358 -0.021896627 -0.5381961
000220 9a 90 1b be d0 0e 9b be b6 47 7f be f6 93 ab be
       -0.1519188 -0.3028474 -0.249297 -0.33511323
000230 50 b0 20 3f 2b dd a6 3e fd 10 62 3e de 43 64 be
       0.6276903 0.32590613 0.22076793 -0.22291514
000240 b6 c5 7e 3d 80 32 96 3e 75 e0 fb 3e 26 23 02 bf
       0.06220027 0.29335403 0.49194685 -0.5083488
000250 c0 9d 5c be c6 07 11 bf c8 2b c1 be 04 0c 46 bd
       -0.21544552 -0.56652486 -0.37728715 -0.048351303
000260 a5 27 96 3e 3c a6 44 3f 66 fb 87 bd 26 ec 6d bd
       0.2932712 0.76816154 -0.06639747 -0.058086537
000270 88 57 04 3f f2 66 9b 3c 09 76 9f 3e cd 96 21 bd
       0.5169606 0.018969987 0.3114474 -0.039450455
000280 d5 cc ee 3d bf e9 0d 3e 8d 9d ac be a3 a0 4d 3d
       0.11660162 0.13858698 -0.33713952 0.050202023
000290 b8 9b f1 bd ef a4 0d bf 14 d0 6e bf c7 4b c0 be
       -0.11797279 -0.55329794 -0.9328625 -0.37557814
0002a0 cb c3 e5 3d a7 ee b4 3d a1 bb 37 3f c9 a3 7b 3e
       0.11218985 0.08834582 0.71770674 0.24574198
0002b0 4e dc ab bc 55 e4 eb 3c e1 e1 69 3e 41 4f 27 bf
       -0.020979073 0.0287954 0.22840072 -0.65355307
0002c0 aa f7 86 be ca d2 52 3d 2c b0 09 3e 5d 03 8d be
       -0.26360828 0.051470555 0.1344611 -0.27541628
0002d0 9f 47 dc bd 5f 09 03 bf 41 6d 5f bd dd 7a 9a be
       -0.10755848 -0.51186174 -0.054547552 -0.30171862
0002e0 7e c4 84 be 90 86 1d 3e 6a 77 94 bd 03 a0 92 bc
       -0.25931162 0.15383363 -0.07249339 -0.017898565
0002f0 76 c6 40 be f4 38 d2 3d 95 68 de 3e cf 54 2f bf
       -0.18825707 0.10264769 0.43439165 -0.6848878
000300 5b 3c bc bd ec 38 59 bc 7a d7 c3 3e 83 a7 1d 3d
       -0.091911994 -0.0132582 0.38250333 0.03848983
000310 e1 e1 69 3e 12 43 b1 be e6 04 d9 be 67 d3 9d bd
       0.22840072 -0.34621483 -0.4238655 -0.077063374
000320 10 5d 47 be 7b b3 b8 be c4 4a 8e 3e cf e2 06 3e
       -0.19469094 -0.36074433 0.27791417 0.13172458
000330 0f fd 1a 3f fb 15 08 3e 97 1d d8 3e fe 75 d7 bd
       0.60542387 0.13289635 0.42210075 -0.10520552
000340 be b3 34 3c f0 ab e6 be 74 9f c4 bd 17 dc a0 3e
       0.011029182 -0.45053053 -0.09600726 0.31417915
000350 58 63 aa be c4 a6 ab be d1 27 d4 3d c1 ab a6 bd
       -0.33278918 -0.3352567 0.10359157 -0.08138228
000360 39 d6 f1 be 91 88 a4 3e 78 37 97 3e 3d 87 7c 3e
       -0.4723375 0.32135442 0.29534507 0.24660964
000370 d9 1e f3 be 5d 05 91 be c6 82 13 3d bc b0 83 be
       -0.47484472 -0.28324404 0.036013387 -0.25720775
000380 e9 ec c0 bd 1b b6 8c 3e 72 65 89 3b 6a 24 cd bd
       -0.09420187 0.27482685 0.0041930014 -0.10016711
000390 6a 06 a9 3c 77 54 c2 be a4 79 47 3e 9e cc b7 bd
       0.020632941 -0.37955067 0.19479996 -0.089745745
0003a0 c3 de f6 3e db 9f 53 bd 8d 26 a2 3e 10 e9 43 3e
       0.4821683 -0.051666122 0.31670037 0.19131875
0003b0 d8 3d 6f 3d 65 d9 66 3d 5b cb b8 be 73 35 a9 3d
       0.05840859 0.056359667 -0.36092648 0.08262148
0003c0 aa 5c 82 be 5e 01 de bd 6a 1e bc 3e ee 31 35 3d
       -0.25461322 -0.108401045 0.36741954 0.04423707
0003d0 9c 1e cb 3e dd 79 dc be 3b 85 be 3e d1 b7 2e be
       0.3967179 -0.43061724 0.37211022 -0.17062308
0003e0 4c 5a dc 3c 6e 13 f2 be 7c 34 a8 be 29 90 2f bd
       0.026898526 -0.4728045 -0.32852542 -0.04286209
0003f0 85 2d 23 3f 82 a2 23 3e 23 70 8d be f2 89 f2 3e
       0.6374133 0.1597996 -0.27624616 0.4737087

pi.pi_net.0.bias f4 [64]
000000 c9 21 36 3e b7 df 25 3d 65 05 89 3e 04 56 41 3c
       0.17786326 0.040496554 0.26761928 0.011800293
000010 a8 7c 61 3d 58 60 0d 3e 26 10 99 bd 0c 9e f0 bd
       0.055050522 0.13806283 -0.07473783 -0.11748895
000020 53 79 cb ba 25 00 a2 bd 37 e6 2a 3e 04 8c 30 3d
       -0.0015523828 -0.07910184 0.16689382 0.04310228
000030 7c 70 64 3d ed ef c0 bd 8b 76 20 3d 39 84 38 bd
       0.055771336 -0.09420762 0.03917555 -0.045047972
000040 61 68 23 be 01 cb be 3d 03 78 8a 3d ce 15 d7 bc
       -0.15957786 0.09316064 0.06761172 -0.026255514
000050 c7 a0 8e 3d 67 43 26 3e 6e cc db 3d d8 57 23 3b
       0.069642596 0.1623665 0.10732351 0.0024924185
000060 99 ae 27 be 3b d7 ee 3d 28 d8 14 3e 6d 01 26 be
       -0.16375197 0.11662146 0.14535582 -0.16211481
000070 18 b2 e5 3d 68 1f 4d 3d 92 ef 81 bd 82 a5 3b 3e
       0.11215609 0.05007878 -0.063445225 0.18324855
000080 41 ff 62 3d 3d a1 37 be 9f 61 8c bd a3 76 ab bc
       0.05541921 -0.17932601 -0.06854557 -0.020930594
000090 80 8e d6 bd f0 7c ee bd 31 17 19 bd 7b 01 b4 3b
       -0.104763985 -0.11644924 -0.037375633 0.0054933405
0000a0 42 ce 66 bd aa b5 ad bc 55 3c 45 3e 4a 91 c6 bc
       -0.056349047 -0.021204788 0.19261296 -0.024239201
0000b0 3a 30 2b be 0e ea 17 be c3 0b 76 bd b7 2b b1 3d
       -0.16717616 -0.14835379 -0.06006981 0.08650916
0000c0 7d 6a 34 3e 89 49 2e bd 08 a8 54 be 0c 87 bf 3d
       0.17618747 -0.042550597 -0.20767224 0.0935193
0000d0 23 1f ec 3c 70 27 26 3e 30 eb 27 3e 3e 87 5c be
       0.02882344 0.16225982 0.1639831 -0.21535966
0000e0 dc 3f c6 3d 50 36 17 3e 0b f9 29 be 19 5b ca bd
       0.09680149 0.14766812 -0.16598909 -0.09880657
0000f0 56 8f 18 be 1a 11 6c be a3 84 23 3e 03 3d 0b be
       -0.14898428 -0.23053399 0.15968566 -0.13597493

pi.pi_net.2.weight f4 [64, 64]
000000 d4 4a be 3c c7 a8 e6 be 94 82 b2 3d bb a1 01 3f
       0.02322904 -0.45050642 0.08716312 0.50637406
000010 e0 98 82 3e 4a 10 2f bf d6 9a 1b 3e 77 22 68 3e
       0.2550726 -0.6838423 0.15195784 0.22669397
000020 b2 e6 35 3e 79 17 d7 be d1 02 11 be 72 0c 87 be
       0.17763785 -0.42010096 -0.1416123 -0.26376683
000030 f9 99 85 3e b0 a3 de bc ec 3d bd be d3 af 70 be
       0.26094034 -0.027177662 -0.36961305 -0.23504572
000040 42 58 46 be e3 8d 81 3e 63 be 16 3e 2a 01 05 3f
       -0.19369605 0.25303563 0.14721064 0.519549
000050 63 55 6c 3e 4e 62 3c 3e dc 71 0a 3d dd 2a 4c 3e
       0.23079447 0.18396875 0.03379999 0.19938226
000060 ee e3 1d 3f f9 7d 77 3e a4 c9 a2 be d9 b6 a0 bd
       0.6167592 0.24169149 -0.31794465 -0.078473754
000070 b0 c2 59 be 7b 4c fe bd 72 b5 3e bc 9f 0b 81 be
       -0.21265674 -0.12416931 -0.01163994 -0.2520418
000080 ef 2d 83 3d 64 92 01 3e 5d 0f 22 bb 00 40 5c be
       0.064052455 0.126535 -0.0024728396 -0.21508789
000090 e3 8b 52 3d 98 29 7f 3e 87 72 16 3e 8a d2 9c be
       0.051402938 0.2491821 0.14692126 -0.3062938
0000a0 5a ef 75 3e 07 3a b9 3c 2d 1d d2 bd 3d 0f 2a be
       0.24017087 0.022610677 -0.10259471 -0.16607375
0000b0 79 53 d0 3e 86 4e 06 3e 66 87 8f 3d 2f bb ad bd
       0.40688685 0.13115892 0.07008247 -0.08482968
0000c0 05 31 88 bc fb d0 e7 be e4 cf 3a 3e 56 f8 2a bd
       -0.016624937 -0.45276627 0.18243366 -0.041740738
0000d0 3a 80 46 be 1e 0f 24 3f 67 bc 34 be 56 bc 23 3e
       -0.19384852 0.64085567 -0.17649995 0.15989813
0000e0 5f 43 87 3e 35 80 72 be e4 18 87 3e 52 38 e7 3e
       0.26418588 -0.2368172 0.26386178 0.45160156
0000f0 d2 b9 a2 3e 8d 45 3b be 53 e1 de be 4e ae 2d 3f
       0.31782395 -0.1828825 -0.43531284 0.6784409
000100 b6 6f 93 3d 16 9b aa bd bf 71 33 be 4f b7 90 bd
       0.071990415 -0.083303615 -0.1752386 -0.07066213
000110 57 64 ff bd c6 f7 05 3e eb e1 a7 be 2e 23 c9 be
       -0.1247031 0.130828 -0.3278955 -0.39284652
000120 dd 8a 02 be 52 62 91 bd 38 7c 1c 3e ef 8c 09 bf
       -0.12748285 -0.07098831 0.1528176 -0.5373067
000130 ce 4e 27 3e 01 49 b0 3b fd 6d d4 3e 2a 07 1e bd
       0.16338655 0.0053797965 0.41490164 -0.03858105
000140 0d ab ee bd e5 15 af 3e e9 50 cb bc ab 05 1c 3f
       -0.11653719 0.34196392 -0.024818854 0.6094615
000150 40 39 c9 3d 24 c4 5e 3c ef ce ba bd d2 01 38 3e
       0.09825373 0.013596568 -0.09121501 0.17969444
000160 3e 7d 07 bc 14 0b 90 bd d5 89 6c be ce 46 4b 3e
       -0.008269606 -0.07033363 -0.23099454 0.19851229
000170 f4 cc 13 3d 76 3c 94 be 82 20 7f 3d c7 66 0b 3e
       0.03608413 -0.28952378 0.06228686 0.13613425
000180 36 37 af bd 6e 7f 24 3e cd a4 dc be ca 5e 25 3e
       -0.085554525 0.16064236 -0.43094483 0.1614944
000190 48 18 4a be 40 59 38 be 1a 0b 42 be bd ae fc 3d
       -0.19735825 -0.18002796 -0.18949547 0.12338016
0001a0 4c da 0b 3e 82 d0 73 3e ae 82 d2 3d ba a2 87 3e
       0.13657492 0.23810008 0.102788314 0.26491338
0001b0 6d df d5 3d 5f 79 c5 bd 47 24 76 3d 40 65 30 be
       0.10443006 -0.0964229 0.06009319 -0.17226124
0001c0 b8 fc a0 3e b5 3a 0b 3f 12 01 1f be aa 9f c8 be
       0.3144281 0.54386455 -0.15527752 -0.39184314
0001d0 5f 47 54 be 62 4f 6d 3e ff 58 63 be cd 17 1b 3e
       -0.20730351 0.23174813 -0.22201918 0.15145798
0001e0 f7 44 43 bd 30 29 5d 3e c7 dd b7 bd 91 91 99 be
       -0.047673192 0.21597743 -0.089778475 -0.2999387
0001f0 ee 98 0e 3d 29 a8 8a 3e 62 c7 04 3e 0b a8 4b be
       0.034813814 0.2708142 0.12966684 -0.19888322
000200 29 59 8d be 34 2d 05 3d f6 45 6b 3b f4 96 bb be
       -0.27607086 0.032513812 0.0035899854 -0.36638606
000210 f7 9b 06 be 50 4b f1 3e 9d 94 b1 3e 6d c8 4e bc
       -0.13145433 0.4712777 0.34683695 -0.012621027
000220 7d 95 ba be c7 3d 65 3d 55 95 c9 be ba 51 42 be
       -0.36442176 0.05596712 -0.39371744 -0.18976489
000230 8b 8f 8d be fb f5 88 3e 9d 3d 33 3f 12 f0 36 bd
       -0.27648577 0.26750168 0.7001589 -0.044662543
000240 de 6e ab 3d e9 bb 8d be b8 db fd 3b 72 1a 2e 3f
       0.083707556 -0.27682427 0.00774714 0.680091
000250 48 da 60 be 28 b4 01 be 71 60 67 be 2e e5 02 3e
       -0.21958268 -0.1266638 -0.22595383 0.12782738
000260 b1 4a 8e be 60 03 b9 3d 45 c5 11 bf fb 17 a2 3e
       -0.2779136 0.09033847 -0.56941634 0.3165892
000270 b1 0c 29 be fb 34 21 3e 23 2e 13 be ef 61 bd 3d
       -0.16508748 0.15742867 -0.14373069 0.09247195
000280 71 2f 10 bd 8b cd 24 3e 88 3b 34 be 44 f0 26 3f
       -0.035201494 0.16094033 -0.17600834 0.65210366
000290 9b aa 85 3e 61 b4 46 be 0d 3c 1e 3e d3 e8 ea 3e
       0.26106724 -0.19404747 0.15452595 0.45880756
0002a0 6c bb 9d be 2a da 72 be 83 2f b8 be 61 1f 48 3d
       -0.30807054 -0.23716035 -0.3597375 0.04885805
0002b0 63 6d 96 3e 07 7b 0a bd fc e6 88 bd 86 32 70 be
       0.2938033 -0.033808734 -0.06684682 -0.23456773
0002c0 12 a4 83 be 0b 19 c9 bd 06 6f 0d 3e 88 38 66 be
       -0.25711113 -0.0981923 0.13811883 -0.22482502
0002d0 d3 02 02 3e fc ee 12 be 83 de d4 be 4f 6d 76 3e
       0.1269639 -0.14348978 -0.41576013 0.24065135
0002e0 63 ce ac be 54 0b 15 bf f1 96 6f 3e b6 3a 22 3e
       -0.3375121 -0.5822041 0.23397423 0.15842709
0002f0 d2 af 79 3e 04 c8 a4 3e fa c2 75 3a 22 61 ca 3e
       0.24383476 0.3218385 0.0009375062 0.3952723
000300 b3 fb 1b be 09 72 84 3d e6 1a fa bd 64 42 91 3e
       -0.15232734 0.06467063 -0.12212162 0.28370965
000310 86 8c 82 3d 3c ab 1b be af 07 d8 3e 5a 4f 89 3e
       0.06374459 -0.1520204 0.42193362 0.26818353
000320 d1 42 5e 3e b2 19 b1 3d 42 a2 ce bd 15 12 b6 bd
       0.21705176 0.08647479 -0.10089542 -0.088901676
000330 8a f8 15 3f 2c db e7 be 9c 8e a5 3d d0 4f 3f 3e
       0.58582366 -0.45284402 0.08083841 0.1868279
000340 87 fb 74 3d 57 02 a4 be 34 ab a4 be cd 99 a4 3d
       0.059810188 -0.32033035 -0.32161868 0.08037148
000350 c9 9e 47 3d fd b6 de 3e 3e 73 b8 be 65 63 38 3e
       0.048735414 0.43498984 -0.36025423 0.18006666
000360 73 22 92 3e 19 33 64 bd e0 81 4d 3e e1 6d 0d 3e
       0.28541908 -0.055712793 0.20069075 0.13811447
000370 b0 61 e6 3d d6 83 ba be 08 fb 1f 3e fa 7c ab be
       0.11249101 -0.36428708 0.15623105 -0.33493787
000380 24 66 9c be 73 80 a8 be 82 26 38 3e 3f b2 9d 3c
       -0.30546677 -0.329105 0.1798344 0.019250033
000390 9c 45 4e 3e 8f 57 e5 3e a1 0b 8f bd ef dc a3 be
       0.20143741 0.44793364 -0.0698464 -0.32004496
0003a0 c0 49 ba 3e 5d da c2 be 5b ba 62 3d 45 56 c9 3e
       0.36384392 -0.38057223 0.055353504 0.3932363
0003b0 9a 9e 5a be 31 66 ee bd 28 11 8c bc 79 5b d6 3d
       -0.21349564 -0.11640585 -0.017098024 0.10466666
0003c0 66 6b 89 bb 95 b6 92 be 2d 08 9d 3e ce 34 80 3d
       -0.004193711 -0.28654924 0.306703 0.06260072
0003d0 65 0b aa bd b0 78 c5 3e c8 19 3d 3e de 8b 72 bd
       -0.083029546 0.3856864 0.18466866 -0.05921542
0003e0 8d 55 76 3d ca ae f5 be ab 9a 9c 3e 7b 13 64 3e
       0.06014018 -0.47984916 0.30586752 0.22273056
0003f0 79 e4 1b 3e d3 d2 3b 3e 50 d5 de bd 47 8a cf be
       0.15223874 0.18342142 -0.1088053 -0.40535185

pi.pi_net.2.bias f4 [64]
000000 f5 5d 39 bd 34 a7 8f 3d 8b ee 60 be 0c be 9c bd
       -0.04525562 0.07014313 -0.21965997 -0.07653436
000010 b1 1b 91 3b 7e 0d 88 3e 66 5f 18 3e 62 93 bf bd
       0.00442835 0.26572794 0.14880142 -0.09354283
000020 8f f1 01 be 3d eb 30 3e d2 1c 5c 3c 21 3e 1b be
       -0.12689804 0.17277236 0.013434606 -0.15160419
000030 1b a0 0c be 64 41 25 bd a5 66 f0 bd e6 d1 94 3d
       -0.1373295 -0.040345564 -0.11738328 0.072665974
000040 40 53 62 3e 6f 64 71 be 7a ea 43 bd 09 1a b6 bc
       0.2210207 -0.23573469 -0.047831036 -0.022229211
000050 8e 12 f7 3d 8a 00 3a bd bc 07 07 be 5f f3 72 be
       0.12064086 -0.04541067 -0.13186544 -0.23725651
000060 c0 cb 1c be b3 e8 ff 3d 8e 62 27 bd 25 51 e4 3d
       -0.153121 0.12495556 -0.040865473 0.111482896
000070 75 c4 95 3e b3 75 fb 3d 88 30 92 bd 8f 39 da 3d
       0.29251447 0.12278309 -0.07138163 0.1065551
000080 f5 15 02 3e 49 88 e8 3d 5a af 76 bd be 61 0d 3e
       0.12703688 0.11354119 -0.060225822 0.13806817
000090 f0 6b 8b 3d 80 08 55 3e 9d e2 82 3d f6 c8 8f 3e
       0.06807697 0.20804024 0.06390879 0.2808301
0000a0 99 50 a6 3d cc 5d 4a bd bb ed 31 be ee 24 4d 3d
       0.081208415 -0.049405858 -0.17375843 0.050084047
0000b0 05 ef 04 be 9b f3 a3 bd 9a c9 65 3d 9b 1a 2c bd
       -0.12981804 -0.080054484 0.056100465 -0.04201756
0000c0 4c cf 49 3d 86 18 2d bd 7a ca df bd c3 03 5e be
       0.04926996 -0.042259715 -0.10927291 -0.21681122
0000d0 71 bf 63 be d7 d5 23 be 7a 31 74 3e 00 5f 08 3e
       -0.22240998 -0.15999542 0.23846999 0.1331749
0000e0 a7 41 a1 3d ea 8c c8 3d ad 57 46 be f9 9e db bd
       0.0787385 0.09792502 -0.19369383 -0.10723681
0000f0 8a b8 c3 bc 69 2f 86 be 3c 4b 20 3d 30 2d 66 3e
       -0.023891706 -0.26208046 0.03913425 0.22478175

pi.pi_net.4.weight f4 [256, 64]
000000 6b 64 15 3f 0c e6 de be 68 39 bd be fb 87 b5 3e
       0.5835635 -0.43534887 -0.3695786 0.35455307
000010 a4 43 80 be 0d 5c a2 bd 92 8d b6 3d ad 55 d7 3e
       -0.25051606 -0.079277135 0.08913721 0.42057553
000020 57 d3 3d 3e ce 3b df 3e 1f 00 01 3f 7f a1 ae be
       0.18537651 0.43600315 0.5039081 -0.34107587
000030 9d 11 34 be ae 8a ae bd 04 17 a6 3e 81 59 e3 3e
       -0.17584844 -0.08522545 0.32439435 0.44404224
000040 51 0e 21 3d a9 15 91 be d1 6e ef 3e fd 72 a4 3e
       0.039320294 -0.28336838 0.46764234 0.3211898
000050 05 d8 13 3f 37 c5 ca be 00 e4 e9 be 52 c9 98 bd
       0.57751495 -0.39603588 -0.45681763 -0.07460274
000060 2c 66 d9 3e 6b 74 a4 3d dc 98 61 be 56 4c 38 bf
       0.42460763 0.080300175 -0.22030967 -0.7199148
000070 4b 96 f1 3d d0 28 a0 3e 38 54 cb be ee f0 3f 3e
       0.11796244 0.31281137 -0.3971269 0.18744251
000080 5c a9 88 be d7 69 c8 3e 37 91 d3 3d ff a1 36 bf
       -0.2669171 0.3914325 0.10330432 -0.71340936
000090 31 4f 38 be b0 d3 94 3e 27 ef cc be e3 b2 ee 3e
       -0.17998959 0.29067755 -0.4002621 0.46620855
0000a0 33 01 aa bd c7 7d 64 3f 2e 16 a4 be 16 84 40 bd
       -0.0830101 0.8925442 -0.32048172 -0.047000967
0000b0 f3 55 1c 3e 31 13 c1 be 1a b9 66 3e b4 8c 36 be
       0.15267162 -0.37709954 0.22531548 -0.17827111
0000c0 0f 3b 29 3d 28 f7 85 be a4 8d c5 3e c2 e9 35 be
       0.04131609 -0.26165128 0.38584626 -0.17764953
0000d0 e0 63 b6 be 24 9f ef be 3e 0b 83 3e 3f 6f 86 3e
       -0.35623074 -0.46801102 0.25594515 0.2625675
0000e0 81 f3 eb be 19 ab 12 bd 23 ce 7d be 2a f3 01 bf
       -0.46084216 -0.035807703 -0.24785666 -0.50761664
0000f0 16 41 5d bd 95 16 95 be 74 dd f1 3d e6 39 9e 3e
       -0.05401715 -0.2911879 0.11809817 0.30903548
000100 65 13 58 3e c7 ad 7e 3e c2 40 15 3e 87 ad 9f be
       0.21101148 0.24870978 0.14575484 -0.31187078
000110 cc 00 f6 bc 17 e2 b9 be 0e 99 a2 be 2d fb 2f be
       -0.030029677 -0.36305305 -0.31757396 -0.1718566
000120 d1 6e a7 3e 1a e1 e3 be 5b ce 88 3e 12 4f 09 3e
       0.32701734 -0.44507676 0.26719937 0.13409069
000130 5e 5c 09 3f c0 ad 4c be ae 6e 5e 3e 81 33 b3 be
       0.53656566 -0.19988155 0.21721908 -0.35000232
000140 f7 56 0f be b0 2d 41 3e 5e a1 09 be b7 52 a9 be
       -0.13998018 0.18865085 -0.13440463 -0.3307092
000150 ea 28 df be d2 c3 61 3e 94 bc af 3e f5 25 c0 bd
       -0.43585902 0.22047356 0.3432356 -0.0938224
000160 f7 d6 d0 3e 97 fb 43 bf c6 23 a5 3d fc 84 72 be
       0.40789005 -0.7655577 0.08063464 -0.23683542
000170 44 17 0e bf 6b a8 2d be 18 5d f3 3d 73 db ce be
       -0.5550425 -0.16958778 0.118829906 -0.404018
000180 15 85 ba bc ae 79 76 be 2e 30 0f be a6 34 f2 3d
       -0.022768537 -0.24069855 -0.13983223 0.11826448
000190 ef df 95 be e9 1e 0a bf ef b7 6c 3e dd 4b 31 bd
       -0.2927241 -0.53953415 0.2311704 -0.04328524
0001a0 ed 18 95 be 90 44 35 3e f3 a2 79 3e d9 40 48 be
       -0.2912058 0.17701936 0.24378566 -0.19555987
0001b0 72 70 67 3e dc 30 14 be 26 62 1c be 68 59 9e 3e
       0.22601488 -0.14471763 -0.15271816 0.30927587
0001c0 8b df 08 be 91 27 4f 3e 93 8c d3 3d 00 aa 0e 3e
       -0.13366525 0.20229937 0.10329547 0.13932037
0001d0 b8 55 a2 3e 03 ab 86 3e 0e 06 be be ba d0 26 bf
       0.31706023 0.26302347 -0.37113994 -0.6516224
0001e0 ac 17 f1 bc 72 97 5c 3c f8 e8 0d bd b0 2d 11 3f
       -0.029430233 0.013463842 -0.034646004 0.5671034
0001f0 c2 10 96 be 47 7a e0 3e 4f dc 6d be 09 19 b2 bd
       -0.2930966 0.4384329 -0.23228572 -0.08696181
000200 d7 1a d7 3e 91 9a 45 3f 05 da 3e 3d 2d fa 2b bf
       0.42012665 0.77188975 0.04659464 -0.6717861
000210 97 0b f4 bd 3a cb 1a bf b4 ba ae be 42 de 36 be
       -0.11916273 -0.6046635 -0.34126818 -0.17858222
000220 71 02 b1 3e 84 84 0f 3d b3 1e 20 3e 76 5a 51 3d
       0.34572175 0.035038486 0.15636711 0.05111166
000230 ef fd a4 3e 2a 55 1d be a1 d4 30 3e 40 75 97 be
       0.32224986 -0.15364519 0.17268611 -0.29581642
000240 58 30 f1 be 1e 66 fe 3d 01 6c 12 bf 66 3f cb bd
       -0.47107196 0.12421821 -0.5719605 -0.09924202
000250 12 f1 e9 be 41 45 5e 3e 94 98 01 be 5b b9 28 3e
       -0.45691735 0.21706106 -0.1265586 0.16476957
000260 ab 19 1e 3d bc 01 00 bf 82 4a 97 3e ba 49 a7 3c
       0.038598698 -0.50002646 0.29549032 0.020420898
000270 d2 52 23 bf 92 58 52 be 49 24 b9 3e b1 56 39 be
       -0.6379825 -0.205416 0.36160496 -0.18099476
000280 15 b2 20 be e5 78 b9 bd eb bc 52 3d 89 ab 36 bd
       -0.15692933 -0.09056262 0.051449697 -0.044597182
000290 c6 98 e3 be 93 1f 0f bf af c1 58 3e 87 77 0d 3b
       -0.44452494 -0.55907553 0.21167634 0.0021586136
0002a0 cc 33 55 be 95 02 9b 3e a1 8d 3d 3e 15 ec af be
       -0.2082054 0.30275407 0.18511058 -0.34359804
0002b0 94 b0 da 3e cd 5b 01 be 10 db ff be b9 27 15 3f
       0.42712843 -0.12632675 -0.4997182 0.58263737
0002c0 a6 15 97 be d0 44 1f bd f2 c6 ba 3d 7a 94 f7 3e
       -0.29508704 -0.038883984 0.09119977 0.48355466
0002d0 66 27 bb 3e 42 03 b6 3e 43 8f 85 be e9 f7 d0 be
       0.36553496 0.3554936 -0.26085863 -0.4081414
0002e0 db a4 1a bd 14 d9 96 be 59 fd 87 bd 66 f9 ba 3e
       -0.037754875 -0.29462492 -0.06640119 0.365184
0002f0 22 75 03 bf 6e 87 55 3f 08 f5 e6 bd b2 a5 59 be
       -0.51350605 0.83409774 -0.11277205 -0.21254614
000300 14 e6 56 3e ef 99 56 3e ff 16 72 3c 3d 68 84 be
       0.20986205 0.20957159 0.0147759905 -0.25860777
000310 38 89 1d be 90 90 39 bf 16 a3 ad be d2 a4 80 be
       -0.15384376 -0.7248621 -0.33913487 -0.25125748
000320 43 1e 32 3e 19 c3 b8 bd 9c 78 98 3e bd 80 33 3c
       0.17394356 -0.09021587 0.29779518 0.010955987
000330 5b 3d 7f 3e c0 b1 98 be fc aa 40 3e 7a ac b0 bc
       0.24925749 -0.29823112 0.18815225 -0.021566618
000340 5c 3d 99 be 99 21 6e 3e 34 e7 e4 be 9f 68 85 be
       -0.29929626 0.23255004 -0.44707644 -0.26056382
000350 6e d9 e2 be de a4 02 be a8 c3 0c 3e a2 bf b4 3d
       -0.4430651 -0.12758204 0.13746512 0.088256136
000360 31 3f 6a 3e f3 09 2f bf 77 53 55 3e 17 28 27 be
       0.22875668 -0.68374556 0.2083262 -0.16323887
000370 9d 9f 0f bf 9f d1 e4 bd 85 59 86 3e 56 da 5d be
       -0.56102926 -0.111727946 0.26240173 -0.2166532
000380 1b 34 28 be 16 1c a1 be f7 73 ba 3d c3 68 26 3e
       -0.16426127 -0.3146674 0.0910415 0.16250901
000390 e2 76 e3 bd 40 14 e5 be e6 cb 90 3e 5e 2b f9 bd
       -0.111066595 -0.44742012 0.28280562 -0.12166475
0003a0 aa aa 0d be 59 81 7c 3e be 8a 41 3e e5 8e ef be
       -0.13834634 0.24658717 0.18900582 -0.46788707
0003b0 32 17 6e 3e b8 1d 4e be ee 27 f4 be 09 eb e0 3e
       0.23251036 -0.20128524 -0.47686714 0.43929318
0003c0 f5 1f 00 bf 56 78 1e bd 28 69 60 be 47 a4 9c 3e
       -0.5004876 -0.03868898 -0.21915114 0.30594084
0003d0 81 92 14 3f 8b 6e b2 3e 26 c3 45 bf 86 d9 bc be
       0.5803605 0.34849963 -0.772509 -0.36884707
0003e0 a4 35 a8 be 9a eb 82 be 1d b4 4f be 7e b2 b9 3e
       -0.32853425 -0.25570375 -0.20283552 0.3626899
0003f0 c2 a4 75 be a4 3a 0a 3f 88 ab 83 bd 2d a7 7a be
       -0.23988631 0.5399573 -0.06429201 -0.24477835

pi.pi_net.4.bias f4 [256]
000000 7d 2a 3a 3e 8b 13 fa be 8a d3 0d bf cb e5 0b bf
       0.1818027 -0.48843035 -0.5540091 -0.5464751
000010 37 11 15 bf 5f 38 15 bf e1 65 17 bf ad 44 14 bf
       -0.5822939 -0.5828914 -0.5913983 -0.5791729
000020 3c 60 fa be 20 c0 04 bf 48 31 17 bf 0d 75 04 bf
       -0.48901546 -0.5185566 -0.5905957 -0.51741105
000030 fa 34 1a bf a9 b5 03 bf 22 02 0e bf 5f e5 11 bf
       -0.60237086 -0.51449066 -0.55472004 -0.5699062
000040 15 8c 1a bf d4 3a bf be 43 53 07 bf 05 4c f5 be
       -0.6037 -0.3734957 -0.5286142 -0.4790956
000050 98 5d 04 bf 81 a7 35 3e fa ca f8 be f6 1f fb be
       -0.5170531 0.17739679 -0.4859236 -0.49047822
000060 02 75 fe be d5 88 0c bf b1 fd 0c bf 5c d4 f4 3d
       -0.49698645 -0.5489629 -0.550746 0.11954567
000070 24 7c d0 be e6 63 04 bf 93 70 22 bf 25 a4 09 bf
       -0.40719712 -0.5171493 -0.63453025 -0.5376609
000080 99 b9 05 bf b8 6c cb bd 3a d5 13 bf 74 0d 1e bf
       -0.52236325 -0.09932846 -0.5774723 -0.6173928
000090 5f 7f 2b bf 46 c0 e4 be 69 ec da be ef 5c 11 bf
       -0.6699123 -0.44677943 -0.42758492 -0.5678243
0000a0 03 e7 f9 be 83 8a 2e 3e 95 44 16 bf 1b a5 3a be
       -0.4880906 0.17045026 -0.586984 -0.18227045
0000b0 52 56 02 bf 68 02 2a bf 7b 6f 1e bf b5 94 06 bf
       -0.50912964 -0.6640992 -0.61888856 -0.5257066
0000c0 fb 5c d8 be 23 a3 0f bf 51 a3 d4 bd 5f be 24 bf
       -0.42258438 -0.561083 -0.10382713 -0.64352983
0000d0 f8 6f f9 be fb e5 0a bf 08 32 f0 be 90 12 01 bf
       -0.48718238 -0.5425717 -0.4691317 -0.5041895
0000e0 c1 93 01 bf 98 84 13 bf 16 ed 06 bf b4 24 0a bf
       -0.5061608 -0.57624197 -0.52705514 -0.53962255
0000f0 c2 8a 12 be 10 8f 14 bf ce b0 dd be e6 10 25 bf
       -0.14310744 -0.58030796 -0.43298954 -0.6447891
000100 23 f2 08 bf 7f 87 da be 38 27 0c bf 5f 8d c5 be
       -0.5349447 -0.426815 -0.54747343 -0.3858442
000110 af 96 07 bf e5 9d 0a bf ef d0 09 bf 94 ca 07 bf
       -0.529643 -0.5414718 -0.5383443 -0.53043485
000120 80 4b 20 bf d3 b7 f6 be c8 d1 0b bf c4 71 0d bf
       -0.62615204 -0.48187122 -0.54616976 -0.5525172
000130 c7 77 1d bf f7 9a 0e bf 20 d3 06 bf c7 7f 18 bf
       -0.6151089 -0.5570521 -0.526659 -0.5956997
000140 54 bb 0a bf da 53 0f bf 50 80 09 bf 60 f4 1e bf
       -0.5419209 -0.5598732 -0.53711414 -0.62091637
000150 34 65 15 bf f5 14 12 bf 4e 24 ee be ac 1a 09 bf
       -0.5835755 -0.5706323 -0.46512073 -0.53556323
000160 6a 74 12 bf 8c 28 31 be 99 a6 18 bf 8c 79 5f bd
       -0.57208884 -0.17300624 -0.5962921 -0.054559276
000170 54 87 20 bf 57 b4 0a bf 38 f0 0c bf 51 9e 16 bf
       -0.62706494 -0.54181427 -0.55054045 -0.5883532
000180 e0 a3 f2 be e6 27 b5 3e 85 13 26 bf 14 41 fe be
       -0.47390652 0.35382003 -0.64873534 -0.49659026
000190 3b e0 16 bf 20 de 24 bf 8e 10 0f bf c1 0a ee be
       -0.589359 -0.64401436 -0.55884635 -0.4649258
0001a0 0b 31 bd be 7f ff 07 bf ad 38 19 bf ed d4 e8 3c
       -0.3695148 -0.5312423 -0.59852105 0.028421843
0001b0 5f 4a d5 be 97 8c 2f bf 59 26 07 bf ed 71 15 bf
       -0.41658303 -0.685739 -0.5279289 -0.5837696
0001c0 b3 11 0b bd 7a 4c 13 bf 3c 2b bc be 2a 6b 08 bf
       -0.033952426 -0.5753857 -0.36751735 -0.5328852
0001d0 18 ac e6 be 7d 38 24 3e 08 40 dd be 71 67 fd be
       -0.45053172 0.16037174 -0.43212914 -0.49492982
0001e0 cb 4f 0b bf 52 e7 07 3e 12 1c 01 bf ec 28 07 bf
       -0.5441863 0.13271835 -0.50433457 -0.52796817
0001f0 43 59 fa be 2b 3a 01 bf 50 e2 1a bf d1 82 24 bf
       -0.48896226 -0.5047938 -0.60501575 -0.6426211
000200 69 52 0f bf 5a 97 17 bf 5e 10 e6 be 96 e0 16 bf
       -0.5598512 -0.5921532 -0.44934362 -0.5893644
000210 42 04 04 bf 87 2d 09 bf 8b 10 77 3e 87 a0 05 bf
       -0.51568997 -0.53585094 0.24127404 -0.5219807
000220 18 2d 0e bf c8 8f 31 3d ba de 23 bf 3e 75 f2 be
       -0.5553756 0.04335001 -0.6401173 -0.47355074
000230 2f fa 03 bf fd 57 0c bf 10 5a fc be c5 52 1f bf
       -0.51553625 -0.5482176 -0.49287462 -0.6223567
000240 a6 64 2f 3e bb fc 01 bf b0 48 f6 be 57 d1 06 bf
       0.17128238 -0.5077626 -0.4810233 -0.5266318
000250 56 23 27 bf c9 df 01 bf ba 43 e3 be b5 f6 05 bf
       -0.65288293 -0.50732094 -0.4438761 -0.5232957
000260 0a 2f 03 bf b7 df 02 bf 20 ee 15 bf 53 8f 0f bf
       -0.5124365 -0.5112261 -0.58566475 -0.5607807
000270 25 ed b1 3d 67 9d 2c bf da 77 1a bf 02 3e 18 bf
       0.0868781 -0.67427677 -0.6033913 -0.59469616
000280 9d 55 77 3e f5 69 fb be b6 2a d7 be 72 a7 ff be
       0.24153753 -0.49104276 -0.42024773 -0.49932438
000290 6f 67 0a bf 13 89 0c bd 25 a2 f8 be 0b 94 06 bf
       -0.5406408 -0.03431041 -0.48561206 -0.52569646
0002a0 9e de 20 bf 7e 7e 12 bf 74 2e 16 3e c1 21 f9 be
       -0.62839687 -0.5722426 0.14666158 -0.48658565
0002b0 77 31 0a bf 08 66 15 bf c0 07 7c bd d2 0b 2f be
       -0.5398173 -0.5835881 -0.06153083 -0.17094353
0002c0 a4 ff 02 bf c9 aa f8 be 46 34 1a bf 4d 05 09 bf
       -0.51171327 -0.485678 -0.6023601 -0.53523713
0002d0 02 d0 1c 3e 5e 43 eb be bf dc c4 be e9 82 16 bf
       0.15313724 -0.45949835 -0.38449666 -0.58793503
0002e0 e5 8a 08 bf 15 8a fd be 33 9c 10 bf f5 34 17 bf
       -0.53336936 -0.4951941 -0.5648834 -0.5906518
0002f0 93 e6 01 bf 71 5d f5 be a7 59 21 bf aa a0 f5 bd
       -0.50742453 -0.47922853 -0.63027424 -0.11993535
000300 b6 91 93 be 26 2d f2 be 79 7b dc be 22 1b 08 bf
       -0.28822106 -0.4730007 -0.43062952 -0.531664
000310 df e5 08 bf d6 56 07 bf 60 66 c2 be b2 3f ef be
       -0.53475755 -0.52866876 -0.3796873 -0.46728283
000320 1d de c1 be 4d 19 21 bf 00 08 fc be 07 1e 36 3e
       -0.3786477 -0.6292923 -0.49224854 0.17784892
000330 84 6e 05 bf 07 3f 03 bf b3 50 02 bf 03 dd 23 bf
       -0.5212176 -0.5126805 -0.5090439 -0.6400911
000340 d3 0b ce be 10 35 29 bf ef 49 fa be 12 39 1d bf
       -0.40243396 -0.6609659 -0.48884532 -0.6141521
000350 15 a8 a9 be 81 89 64 3e e9 e8 d9 3d bf 4a 0f bf
       -0.3313605 0.22318079 0.10640127 -0.5597343
000360 89 80 f2 be 5d 02 b9 be f0 ad 1c bf db 19 e5 be
       -0.4736369 -0.36134616 -0.6120291 -0.4474629
000370 69 54 04 3c 3c d5 e6 be bc 97 c1 be 21 fd 00 bf
       0.008076766 -0.4508456 -0.37811077 -0.50386244
000380 96 3c e0 be 93 be 1b bf f2 0c 0d bf 40 7a 24 bf
       -0.43796223 -0.6083767 -0.5509788 -0.6424904
000390 98 d8 90 3d d8 b0 0d bf c6 c1 f7 be b0 c5 07 bf
       0.07072562 -0.5534797 -0.48390025 -0.5303602
0003a0 a8 ae db be 10 b5 ed be 56 73 f8 bb 82 33 ff be
       -0.4290669 -0.46427202 -0.0075821085 -0.49843985
0003b0 8e ca 12 bf ce 2d 03 bf 64 d9 e0 be 9c bb d0 be
       -0.57340324 -0.5124177 -0.43915856 -0.40768135
0003c0 e3 69 80 bd 07 bb b4 be 88 6c 04 bf 5f b4 f6 be
       -0.06270196 -0.3529894 -0.51728106 -0.48184487
0003d0 ee b3 d6 be 8d 92 dc be 41 4d 18 bf 30 62 fe be
       -0.4193415 -0.4308056 -0.5949288 -0.49684286
0003e0 5a db 11 bf 83 b2 1c bf c1 1f 27 bf 47 ed 0c bf
       -0.5697533 -0.6120989 -0.6528283 -0.55049556
0003f0 99 71 17 bd 20 1a 0b bf a3 62 ec be 24 26 14 bf
       -0.03697357 -0.5433674 -0.46169004 -0.578707

v.v_net.0.weight f4 [64, 5]
000000 00 9f 43 3e 89 ba c1 3e 4a 21 83 3d 2c 5c a6 be
       0.19103622 0.37837628 0.06402834 -0.32492197
000010 ee d7 3c be 27 81 49 bf 27 57 61 be f4 d5 5d 3f
       -0.18441746 -0.78712696 -0.22005902 0.8665459
000020 6a 60 1e be ea d3 e9 3e d2 d0 b8 be 4e 87 d5 be
       -0.15466467 0.4566949 -0.36096817 -0.41704792
000030 52 40 f6 3e 89 e7 4d 3e f6 c3 fd 3e 89 0f 9b 3e
       0.48095948 0.20107855 0.4956357 0.3028529
000040 62 5c 80 be a0 5e db 3d c5 89 95 3e e1 7a ca 3e
       -0.25070482 0.10711408 0.29206672 0.39546874
000050 95 b7 aa 3e 78 6c 18 3f bb 06 0a 3f 20 4f 91 be
       0.33343187 0.5954051 0.5391652 -0.2838068
000060 6e dd 8b 3c 6f a0 52 be 3a 05 ea bb 1c 69 c5 be
       0.01707336 -0.20569013 -0.0071417363 -0.38556755
000070 0c 56 74 bc 46 03 bb bb a2 e1 39 bf 1b 63 5e bc
       -0.014913093 -0.0057071773 -0.72609913 -0.013573433
000080 81 40 46 3f e4 a7 02 be 09 8e 62 3e 16 1e f8 3e
       0.77442175 -0.12759358 0.22124495 0.48460454
000090 c8 e4 86 bd f0 79 68 3e 74 de 34 be 1b 7e bf 3e
       -0.06586605 0.22702765 -0.17662984 0.37400898
0000a0 46 d9 4b 3e 47 05 24 3e 66 7c 04 bd 40 81 31 3f
       0.19907102 0.16017638 -0.032345198 0.69337845
0000b0 47 e8 98 be 8e b4 83 3d 78 78 af 3e a3 b0 c0 3e
       -0.29864714 0.064309224 0.34271598 0.37634763
0000c0 61 09 63 3e 7b b6 33 3f a3 95 67 3d d7 31 16 be
       0.22171547 0.7020032 0.05653919 -0.1466745
0000d0 91 54 15 be 68 5c 23 bf d1 6d 4d bf 50 e5 14 3f
       -0.14583041 -0.63812876 -0.8024569 0.58162403
0000e0 9c a1 0c 3d ab 92 48 bf ec bb 81 3e f3 ce 1e bd
       0.03433381 -0.783488 0.25338686 -0.03877158
0000f0 34 01 1e 3f 7a 6c 85 bc 03 9f 66 be 77 5b c9 be
       0.61720586 -0.016287077 -0.22521596 -0.39327595
000100 ad a8 73 3b 73 e2 9e 3e e6 58 b9 3d 35 81 7c 3d
       0.0037179396 0.31032142 0.09050159 0.06164666
000110 3f 3b 4c 3e 5e 5f f2 3d ca 91 6c bf aa 4a 8f bd
       0.19944476 0.11834596 -0.92409956 -0.06996663
000120 00 2f d5 be 62 5c 84 be d6 a7 02 be df ce b9 be
       -0.4163742 -0.25851732 -0.12759337 -0.36290643
000130 f2 cb 68 3d 2a ed 84 be d5 c1 49 bc 45 bd c7 bd
       0.056835122 -0.25962192 -0.01231428 -0.09752897
000140 91 3d a2 bf 2e fa 96 3e 9a 61 8f 3e 45 7a f6 3d
       -1.2675039 0.29487747 0.28004152 0.1203504
000150 15 a7 f1 3d a9 e6 04 bf fe b1 82 be ef d5 3a be
       0.117994465 -0.5191446 -0.25526422 -0.18245672
000160 2b 11 f6 bc 29 65 eb be 48 92 c9 3e a8 c7 0c 3f
       -0.030037483 -0.45975617 0.39369416 0.5499215
000170 5d 84 f5 3d 04 fd 26 3d 76 49 f1 3e 99 d7 b6 be
       0.11988137 0.04076864 0.4712636 -0.35711363
000180 fc 83 d4 3e 98 35 d9 be f8 59 c9 be ad 52 5d bd
       0.41506946 -0.424237 -0.39326453 -0.054033924
000190 a5 5c 39 be fe 0d 90 3e f4 68 68 be bb ef 9b be
       -0.18101747 0.28135675 -0.22696286 -0.30456337
0001a0 31 4e 05 bd 04 15 00 bf 98 7c b4 3e 43 b8 00 bf
       -0.032545272 -0.5003207 0.35251307 -0.5028116
0001b0 bb 3d 72 be 9d 85 5d bc d4 ed d5 3c 81 11 38 3f
       -0.23656361 -0.013520625 0.026114382 0.7190171
0001c0 26 98 8a 3e c8 cf 8a be 09 3e 3b bd 8a 91 14 3c
       0.27069205 -0.2711165 -0.04571346 0.009067902
0001d0 9f 20 61 be f4 79 01 3f c4 45 2f 3f 99 96 2a 3f
       -0.219851 0.5057671 0.6846583 0.66636044
0001e0 1c fd d2 3e a1 ea aa be 8e 3b 61 3e c3 5c 0c 3f
       0.41208732 -0.33382133 0.21995375 0.54829043
0001f0 9e 29 8a 3d f5 32 b1 be f0 c9 54 be ad 4b f0 3e
       0.06746219 -0.3460919 -0.20780158 0.46932736
000200 37 7f 0f 3e 70 be f5 3e f7 25 2d 3f f0 b7 e7 3e
       0.14013372 0.47996855 0.67636055 0.4525752
000210 d1 57 49 be 47 0c 28 bf f8 26 db 3c 3a 62 02 bf
       -0.19662406 -0.65643734 0.02675198 -0.5093113
000220 8c 05 f9 be f4 1c 97 3e 70 34 d8 3e 34 16 b1 3d
       -0.48637044 0.29514277 0.42227507 0.08646813
000230 c4 65 bd bd f8 60 af 3b b9 33 9c be 7d 22 af 3e
       -0.09247926 0.0053521357 -0.3050821 0.34206
000240 2d e5 18 3f b3 16 ec be ed 60 37 be 3c b0 13 be
       0.59724694 -0.46111068 -0.17908068 -0.14422697
000250 9d 2d f6 3e 34 a7 e3 3e ba 07 61 bf 8f f9 39 be
       0.48081675 0.44463503 -0.87902415 -0.18161605
000260 d7 54 fd 3e f4 d3 6d 3e bd ee 3e bd fb 66 f8 3e
       0.4947879 0.23225385 -0.046614397 0.48516068
000270 b4 5c 5e be 39 d8 ff 3e 98 0f 09 3e 89 ae 3c 3e
       -0.21715051 0.49969652 0.13384855 0.18425955
000280 82 0e 75 bf eb 18 77 be 43 94 41 3e d1 6d 34 3f
       -0.9572526 -0.24130599 0.18904214 0.70480067
000290 e6 a5 44 3d 7a 73 86 be d5 b4 8e be 2c 32 80 be
       0.048009776 -0.26259977 -0.2787234 -0.25038278
0002a0 02 81 d9 be 98 ed 4f be 0a f9 94 bd bf e8 8c be
       -0.42481238 -0.20305479 -0.07274063 -0.2752132
0002b0 c6 6a 87 bc e4 cd 76 3d dd 6a 77 bd c5 f7 24 3f
       -0.016530406 0.060254946 -0.060404647 0.64440566
0002c0 fe ce fb bd e9 f5 26 3d b0 94 9b 3e 18 b0 14 3d
       -0.1229534 0.040761862 0.30386877 0.03630075
0002d0 64 8d b3 3e 83 e3 d5 3d c7 0a aa 3e b8 26 be be
       0.3506881 0.10443785 0.33211347 -0.37138915
0002e0 63 d4 be 3e ab fa 9b 3e 2b 4e fc bd ed 30 56 3e
       0.37271413 0.30464682 -0.12319597 0.20917101
0002f0 3d 19 cc 3e 7c 02 24 3e 43 82 e0 3e 65 e6 04 be
       0.39863005 0.16016573 0.43849382 -0.12978514
000300 d4 12 21 3e d5 f1 94 3e 35 89 cb 3d f2 8d 0e bf
       0.15729839 0.29090753 0.099382795 -0.5568534
000310 f7 b5 40 3e 22 5d bd be 99 25 a1 bd 7a 42 70 3d
       0.18819414 -0.36985117 -0.07868499 0.058657147
000320 ad dd ad 3e 1e df cb 3c 91 8a 8b bc 96 de 00 3f
       0.33958188 0.024886664 -0.017033847 0.5033964
000330 f5 ae 41 3e 02 d9 cb 3e c3 bc 47 3e 1d 8f 75 3f
       0.18914397 0.39814 0.195056 0.959215
000340 63 fe 3e 3e a5 23 59 3c b1 82 0a bf 96 37 07 be
       0.18651728 0.013253127 -0.5410567 -0.13204798
000350 bd 7e 9b be 13 5b 9e be cd 00 f3 be c9 a8 1a 3f
       -0.3037013 -0.3092886 -0.47461548 0.60413796
000360 fc 16 e7 bd 97 98 03 3e 4b ed 43 3e 16 af 6a 3d
       -0.11283681 0.12851177 0.19133489 0.05729588
000370 76 ac 28 bf a4 0a 14 3d 38 ee 10 3e b3 b9 20 be
       -0.65888155 0.03614296 0.14153373 -0.15695839
000380 c8 b8 bd be 55 bf 80 3f 97 b8 42 3f 83 dc 13 3f
       -0.3705504 1.005839 0.7606291 0.5775835
000390 77 a8 3f 3d c6 00 41 3e d4 43 0a be e5 5c 09 3c
       0.04679152 0.18847951 -0.13502437 0.008383964
0003a0 a1 65 e7 be c9 83 2e be 26 32 6e bd d9 02 08 3f
       -0.45194724 -0.1704246 -0.058153294 0.53129345
0003b0 14 78 12 3c 41 4e 86 be 9a 61 f7 be 79 07 66 3e
       0.008939762 -0.26231578 -0.48316652 0.22463788
0003c0 d2 59 d7 3d bf 5b e9 bd 7e 4f d1 3e 80 85 88 3e
       0.10515179 -0.11394452 0.4088096 0.26664352
0003d0 df c6 93 bd 40 bc 0c bf a0 dd ec 3c f4 d0 a3 bc
       -0.07215666 -0.54974747 0.028914273 -0.019997098
0003e0 aa f7 bd 3c 0a eb a5 3e 8f d8 0c 3f cc 9d ab 3e
       0.023189384 0.32405883 0.5501794 0.33518827
0003f0 2e 2e 04 bf 45 55 b6 be 24 1a dd be d5 ed 5f bf
       -0.51632965 -0.3561193 -0.43184006 -0.8747228

v.v_net.0.bias f4 [64]
000000 96 c4 a5 3e 18 d1 7e be 30 17 09 be 22 5b 86 be
       0.32376546 -0.2488445 -0.13387752 -0.26241404
000010 b1 5f 26 3f e2 9f 74 3e 7f 7f 13 be 57 c5 ae be
       0.64989763 0.23889115 -0.14404105 -0.34134933
000020 32 99 39 be 88 61 8f 3d 6f 2a 13 3e cf 4f 3b 3e
       -0.18124846 0.070010245 0.14371656 0.18292163
000030 61 62 d0 3d 1b 1f 1c be c8 d5 1b bf dc de bc 3e
       0.10175014 -0.15246241 -0.6087308 0.36888778
000040 08 a4 b5 be ca 9e 3e bf e2 7c 03 3f 13 bb 60 3e
       -0.35476708 -0.7446104 0.5136243 0.21946363
000050 0c dc 13 3f 4e 1f fb 3d d4 75 f8 3e c1 e0 2b 3d
       0.5775764 0.1226183 0.48527396 0.04196239
000060 92 66 34 be 63 3e ab bd 58 d7 c0 3d 72 1f e0 bd
       -0.17617252 -0.08361509 0.094160736 -0.10943498
000070 e5 ca 95 3d 38 02 83 bd 2c ef 22 be f2 cb d9 bc
       0.0731409 -0.063969076 -0.1591155 -0.026586507
000080 92 ac 43 be 79 5b bb 3c 1f 7e da 3d 12 24 48 be
       -0.19108799 0.022870766 0.10668587 -0.1954501
000090 fa 80 9c bd 99 39 00 be 0e 0b 58 be 86 27 5f 3e
       -0.07641788 -0.12521972 -0.21097967 0.2179242
0000a0 ba 42 1e be c8 99 03 3c a1 b5 2b 3a 5a 82 8f be
       -0.15455142 0.00803227 0.0006550197 -0.28029138
0000b0 fd 40 a1 3e 17 f2 62 3f 5c bf 32 3e ec 97 18 3d
       0.31494895 0.8865065 0.1745581 0.03725426
0000c0 a6 b0 17 be ee 48 c8 bd 31 82 e2 3d b4 b8 50 bf
       -0.1481348 -0.09779535 0.11059988 -0.81531835
0000d0 08 72 09 3f b6 90 8f 3e 2b cc 2d 3e 9e 55 d8 be
       0.5368962 0.28040093 0.16972415 -0.4225282
0000e0 09 01 11 bf 10 b5 0a 3f df 80 13 3f 9d 1e 07 bf
       -0.56642205 0.5418253 0.57618517 -0.5278109
0000f0 59 24 10 3f 88 68 3c 3f b1 43 b9 be c3 e3 27 be
       0.5630546 0.73597 -0.36184457 -0.16395478

v.v_net.2.weight f4 [64, 64]
000000 1b 47 26 3e 28 29 8c 3d 1c cd 23 3d c9 8f 13 3e
       0.16238062 0.068437874 0.03999053 0.14410318
000010 53 bb fa 3e 7d 42 ae 3e 08 e4 16 bd 92 69 5a be
       0.48971042 0.34035102 -0.03683856 -0.21329334
000020 8d 3a a9 be e7 a2 6b 3e 52 91 96 bd 06 e8 a5 3c
       -0.33052483 0.23011361 -0.073519364 0.020252239
000030 51 bc 98 3e 81 6b ce 3d f6 14 d2 be 36 68 be 3e
       0.29831174 0.100790985 -0.41031617 0.37188882
000040 5b 99 15 bf 7e 11 ca be 25 63 cc 3c 8f 59 b5 bd
       -0.58437127 -0.3946647 0.02494962 -0.088549726
000050 7e 35 c9 3e 6b ab a2 3d a9 61 d1 3e 71 c3 50 3d
       0.39298624 0.07942852 0.4089482 0.050967637
000060 76 2d 8f be f5 46 b3 3d 3d f3 1c 3f 91 ca b2 3d
       -0.2796437 0.08753768 0.6130865 0.08730043
000070 01 03 5f 3c 71 fb 96 3d 5e c1 0b bd a5 b0 8a bc
       0.013611556 0.073721774 -0.034119956 -0.016929934
000080 1b ae c7 be 10 cc b5 be 03 33 13 bd c0 14 2f 3e
       -0.3900002 -0.3550725 -0.03593732 0.17097759
000090 e2 c4 b4 3d bb d4 cc 3e b9 16 d8 3e 93 de 16 3d
       0.08826615 0.4000605 0.42204836 0.036833357
0000a0 05 41 b6 bd 7a 9d e9 3e 82 a0 63 bd 84 d1 56 3d
       -0.0889912 0.45627958 -0.055572994 0.052445903
0000b0 9a bd 98 3d d3 12 3e 3f 1f 75 2f be fe a4 49 3e
       0.07458039 0.74247473 -0.17134522 0.19691846
0000c0 b9 ea 6d 3e 15 44 9c be f6 20 6d 3e a9 ff 65 be
       0.23234071 -0.30520692 0.23157105 -0.22460808
0000d0 57 78 d4 3e 77 6f ad bd f4 3a 1f 3e e3 c6 40 be
       0.41498062 -0.08468526 0.15549833 -0.1882587
0000e0 43 da c3 be 8d a3 3e be fe 7c 0f 3e 31 9a 61 be
       -0.38252458 -0.18617077 0.14012524 -0.22031476
0000f0 bf 4c b7 3e 31 d3 8b bc 57 53 a3 be e5 fe 31 bd
       0.3580074 -0.017068477 -0.3189952 -0.043455977
000100 23 1c 9f bd 99 55 8d be 0c a7 3f 3e 3d ab 4e 3c
       -0.077690385 -0.27604368 0.18716067 0.012614069
000110 5f 72 6d be be a0 31 be 05 45 89 3d 24 14 f4 3e
       -0.2318816 -0.17346475 0.067026176 0.47671616
000120 f4 fc 0d 3e 65 24 3b 3e c8 6d fa 3a 5f 74 fb ba
       0.13866025 0.18275602 0.0019106204 -0.0019184462
000130 8b ac 8a 3e 58 86 49 be d5 f6 a1 be f6 a8 57 be
       0.27084765 -0.19680154 -0.3163363 -0.21060547
000140 d4 d9 06 bf 86 9d a9 be 81 d0 ec 3e 38 b9 bd be
       -0.5267613 -0.33127993 0.46252826 -0.37055373
000150 82 06 ac bd 04 2c d1 3d f4 33 ef be 72 95 b0 be
       -0.08399679 0.102134734 -0.46719325 -0.34489018
000160 39 0a d6 3e 82 65 4f be 9a d6 e4 3e cb 15 b9 bc
       0.41804674 -0.20253566 0.44694978 -0.0225934
000170 6c 53 7c bd 74 12 31 be 2a 0a f0 be b5 d1 5c be
       -0.061602995 -0.17292196 -0.46882755 -0.21564372
000180 ba 85 90 be 80 9d 4d be 9e d6 7a be 4d 23 2e 3e
       -0.28227025 -0.20079613 -0.24495932 0.17005654
000190 98 39 4c 3e 4d 7f 3b bd 53 17 d9 3e 38 0b 21 be
       0.19943845 -0.0457757 0.42400607 -0.15726936
0001a0 47 9a a2 3d 12 9b 0d 3e e0 f7 b8 3d 08 ac f5 3e
       0.07939582 0.13828686 0.090316534 0.47982812
0001b0 af 69 a4 bd f2 7b 4c be f8 ab 70 bd fa 7b b8 bc
       -0.0802797 -0.19969156 -0.058757752 -0.022520054
0001c0 37 57 60 bd bf ce 72 bd dc 2a 27 3e 9c 65 a1 be
       -0.054770675 -0.0592792 0.16324943 -0.31522834
0001d0 ab 08 cf 3d 20 5f 25 be d6 02 21 3e 8b 9e e5 3e
       0.10109075 -0.16149569 0.15723738 0.4484752
0001e0 7b b3 45 be 74 93 64 3d 2c 1e 12 be 2c 81 35 be
       -0.19306748 0.055804685 -0.14269322 -0.17725056
0001f0 bb 05 f5 3d 49 98 81 3e 59 f4 bd 3b 46 81 44 3f
       0.119639836 0.25311497 0.005796951 0.76759756
000200 e0 74 09 3f ae e5 5b be fa 86 1e 3d 61 e3 23 be
       0.5369396 -0.21474335 0.038702942 -0.16004707
000210 e6 86 92 3d 3e 9e a5 be c9 e4 03 3e 6c 13 d6 3d
       0.07154636 -0.32347292 0.12880243 0.10452923
000220 a0 2f 89 3e 65 58 5f 3d b9 0c 40 3d 5a 2d 62 bd
       0.26794147 0.05452766 0.046887133 -0.055219032
000230 14 0f c8 3d 6a 22 ae 3e 2b b4 06 bf b4 5d 31 3f
       0.09768501 0.3401063 -0.52618665 0.69283605
000240 dd 46 2c bf ed c3 47 be b4 08 8b 3e c9 42 5c be
       -0.6729563 -0.19508334 0.27155077 -0.21509852
000250 80 5d 82 3e af 6b a0 3d 78 bf 0e bd f5 f7 68 be
       0.2546196 0.07833039 -0.034850568 -0.22750838
000260 f0 c1 85 be cc 80 8b be b7 84 a4 3e cf 38 cc be
       -0.26124525 -0.27246702 0.32132503 -0.39887092
000270 06 39 fc be 6f 0b 01 bf 2a 57 36 be a6 dd ed 3d
       -0.49262255 -0.5040807 -0.17806688 0.11614542
000280 77 65 a4 be f5 d6 0c bd e4 8a 06 bf 84 ef 11 3e
       -0.32108662 -0.034384686 -0.5255568 0.14251524
000290 eb 26 82 3e 58 e2 75 3e 3e 54 9b bd 0a d6 c2 bb
       0.25420317 0.24012125 -0.07584427 -0.0059459256
0002a0 72 30 98 be af 91 09 3f 66 28 90 be b8 d1 ae 3d
       -0.2972446 0.5373792 -0.28155822 0.085360944
0002b0 fb 1a 6c 3e 5a f2 f3 3e d3 8d b3 3d bd 25 77 bd
       0.23057167 0.47645837 0.08767285 -0.060338724
0002c0 85 bc 31 3e a1 13 da bc cd 07 48 3d 13 0b 81 be
       0.1735707 -0.026620688 0.048835564 -0.2520376
0002d0 17 2f 0d 3f 78 b7 a7 3e 6f 2d 16 3e 90 dd c0 bc
       0.5514998 0.32757163 0.14665769 -0.02354315
0002e0 53 5e 14 bd 0a 3b 30 3e 8b 54 7e 3d 19 c2 a8 be
       -0.036222767 0.17210022 0.062092345 -0.32960585
0002f0 af 53 18 3f b9 74 d0 3e 79 2e 1d be 8c 59 ce 3e
       0.5950269 0.40714052 -0.15349759 0.40302694
000300 c5 88 8c bd c6 f5 98 be 41 17 2b 3e 1b 3d ab 3e
       -0.06862024 -0.2987501 0.1670809 0.33445057
000310 fb be 82 bd 28 a8 db 3d c9 da 9d be 88 4c 17 be
       -0.06384083 0.10725433 -0.30830982 -0.14775288
000320 ce 67 90 3d 52 2e c7 bd e6 ca ec bd 11 63 72 3e
       0.07051049 -0.09725632 -0.11562137 0.23670603
000330 3d ef ba 3e 8b 43 8b bd 90 99 aa bb fa 3c c8 be
       0.3651065 -0.06799992 -0.0052062944 -0.3910902
000340 fb c8 87 be 96 8c d4 be a9 ec 83 3d e7 fb 84 be
       -0.26520523 -0.4151351 0.06441624 -0.25973436
000350 52 77 ee 39 6e 2c 18 bd c1 1c 6e 3c 32 c5 8c be
       0.00045483798 -0.037151746 0.014533223 -0.27494198
000360 0d e8 01 3f 8d 72 a4 be b5 60 4b 3d 53 d7 8c bc
       0.50744706 -0.32118645 0.049652774 -0.017192518
000370 5b f7 6e 3e f5 34 20 bf b6 2e d6 bd 79 f7 c4 3e
       0.23336546 -0.62580806 -0.10458128 0.38470057
000380 0f e6 77 be 8e 0b 38 3c fe ec b6 3d d5 43 ab 3d
       -0.24208854 0.011233224 0.089319214 0.08362547
000390 cb ed 66 3e 5d f1 b1 3e 48 57 11 be 02 0f 37 be
       0.22551648 0.34754458 -0.14193451 -0.17876819
0003a0 73 91 b5 bd d8 fb eb 3d be ef 0e 3e f9 4d 83 3e
       -0.08865633 0.11522645 0.13958642 0.25645426
0003b0 51 fb 18 be 57 cf ab 3e e5 4f 96 be 82 05 43 3e
       -0.1493962 0.33556625 -0.2935783 0.1904507
0003c0 dc ac ab 3e 2d fe 84 be de 8e 3c 3e 1d 06 12 bf
       0.3353032 -0.2597517 0.18413875 -0.5704058
0003d0 e6 64 14 3f 85 51 78 be 93 22 8d 3d 62 fa 3a 3e
       0.5796646 -0.24249847 0.0689136 0.18259576
0003e0 fc 84 42 3e 1e e8 5f 3e 46 7f c3 bc c8 e7 6c be
       0.18996042 0.2186589 -0.0238644 -0.23135293
0003f0 e7 e5 8a 3e 10 5c 9a bd b9 b0 44 3d ff b1 17 3e
       0.27128527 -0.07537091 0.0480201 0.14813994

v.v_net.2.bias f4 [64]
000000 96 83 4d 3e 58 b2 b3 bd 1d fd 06 3e a9 15 2a 3c
       0.20069727 -0.08774251 0.13182493 0.010381141
000010 7c d8 b3 3d bd ac 69 be 30 8a 97 bd 02 71 8b be
       0.087815255 -0.228198 -0.07399404 -0.27234656
000020 12 e8 be be 0d 25 19 be 2b 3b de bd 93 49 9d be
       -0.3728643 -0.1495554 -0.10851129 -0.30720195
000030 65 1a 02 bc ce 48 b4 3d 45 54 12 bc 9e ae 00 be
       -0.007940863 0.08802949 -0.008931224 -0.12566611
000040 cf de ef bd aa 92 2c 3e d7 0f 66 3e ee 6e 37 3e
       -0.11712419 0.16852823 0.2246698 0.1791341
000050 16 a0 92 3d 4f a0 36 bc a7 4a 05 be e1 54 ea 3e
       0.0715944 -0.011146619 -0.13016759 0.45767882
000060 c4 70 f5 3d 54 5d f1 bd b2 3b 14 be d1 dc e5 3d
       0.11984399 -0.11785379 -0.14475897 0.11223758
000070 43 42 e9 3c 16 c3 9c bd 50 87 0e be 7c 42 d2 bd
       0.028473979 -0.07654397 -0.13918805 -0.10266587
000080 31 79 2a be 87 83 d3 be 71 ad 5e 3d 11 05 fe bc
       -0.16647793 -0.41311285 0.054364625 -0.031008275
000090 a3 d8 07 3e 6f 44 ec 3e 40 ab b4 3e 60 81 bb 3d
       0.13266234 0.4614596 0.35286903 0.09155536
0000a0 3d 20 03 3e 5e dc 3e 3d dc 8e 35 bc 4e 2d 92 be
       0.12805267 0.046596877 -0.011081424 -0.2855019
0000b0 6d c6 72 3d b8 1f 82 bc 6a e6 19 be e8 03 91 3b
       0.059271265 -0.015884265 -0.15029302 0.0044255145
0000c0 bf d9 12 be b5 c3 88 3e 17 30 29 be d9 0c 53 3c
       -0.14340876 0.26711813 -0.16522251 0.012881481
0000d0 b0 1c ba 3d 28 e7 d3 be bb a1 bc 3d 30 0f 36 be
       0.09087503 -0.41387296 0.09210535 -0.17779231
0000e0 2a 2e f8 be 3f ab 10 3e a2 b3 8a bd ee 18 4c 3e
       -0.4847272 0.14127825 -0.067725435 0.19931385
0000f0 d8 0a fa 3d a6 be 70 3e 4b b6 3b bc 35 c4 d7 3e
       0.122090995 0.23510227 -0.011457036 0.42141882

v.v_net.4.weight f4 [1, 64]
000000 6a d9 65 40 09 0b 64 40 7d 93 76 40 31 c4 6d 40
       3.591395 3.5631735 3.852752 3.7150996
000010 89 bc 91 c0 2d e6 6b 40 f6 a3 6f c0 9d 36 93 40
       -4.5542645 3.6859238 -3.7443824 4.6004167
000020 0f 59 81 40 17 91 6b c0 bc 30 66 c0 42 78 64 40
       4.0421214 -3.6807306 -3.5967245 3.56984
000030 89 8f 6e 40 5d 6f 61 c0 fc ca 5c c0 2b d6 6a c0
       3.7275107 -3.522422 -3.4498892 -3.6693218
000040 e4 3d 7b c0 31 59 67 40 7b 1b 67 40 46 2b 70 40
       -3.9256525 3.6148188 3.6110523 3.7526412
000050 2e 55 6f c0 f4 de 62 40 f7 77 73 c0 09 e9 76 c0
       -3.739574 3.544858 -3.804197 -3.8579733
000060 0d 97 81 c0 1f b3 82 40 b0 5c 76 c0 47 ac 5c 40
       -4.049689 4.0843654 -3.8494072 3.448015
000070 f1 a2 6b 40 14 95 81 40 bf fe 80 40 f6 0c 7d c0
       3.6818202 4.049448 4.031097 -3.953916
000080 e2 7d 71 c0 6d 2d 68 40 ae f6 7d 40 72 a5 64 40
       -3.7733083 3.6277726 3.9681811 3.572598
000090 90 58 6d 40 9c 9f 82 c0 38 d0 75 c0 36 db 75 40
       3.7085304 -4.0819836 -3.8408337 3.8415046
0000a0 f0 d3 60 40 8b 3c 7b 40 d9 2a 67 40 2d 12 8a 40
       3.5129356 3.9255702 3.6119902 4.3147187
0000b0 9c 0f 74 40 c2 03 6a c0 44 0a 6a c0 f2 ad 65 40
       3.8134527 -3.6564794 -3.6568766 3.5887418
0000c0 15 92 6c 40 96 32 8f c0 3e fc 63 c0 1e 93 68 c0
       3.6964161 -4.474925 -3.5622706 -3.6339793
0000d0 39 14 5f 40 0e b2 6f 40 1b 9a 6c 40 2d f1 6e 40
       3.4856093 3.7452426 3.6969059 3.7334702
0000e0 00 af 7e 40 1d 1e 63 40 61 cb 7d c0 5a 9e 65 40
       3.9794312 3.548713 -3.9655383 3.58779
0000f0 7a ec 83 40 70 18 7b 40 97 65 7e c0 0b 06 7c c0
       4.122617 3.9233665 -3.9749506 -3.9378688
