tmp/experiments/RN4 False,True,True/pyt_network_save/model save48000.pt (torch_old, 314943 bytes, 33 tensors)

pi.pi_net.0.weight f4 [64, 5]
000000 74 5f 19 be 4b cf b5 be a1 f6 cd 3d 38 0d 01 3f
       -0.14977819 -0.35509714 0.10056806 0.50410795
000010 7d 5d af bd 2d d8 d0 3e 2d e7 96 bd 6f 8f e3 be
       -0.08562753 0.4078993 -0.07368312 -0.4444537
000020 31 c7 4d be 8a 5a 68 3d 15 b6 03 3f fa 1c 28 be
       -0.20095517 0.05672697 0.5144971 -0.16417304
000030 60 8d ee 3e 69 08 b1 be 4c 94 b8 3e b7 52 a0 bc
       0.46592236 -0.3457673 0.36050642 -0.019570692
000040 a6 42 26 be 4c 88 a5 be 33 d3 b1 be fe 15 3e 3e
       -0.16236362 -0.3233055 -0.34731445 0.18563077
000050 60 87 d3 3e 30 29 a0 3e 79 2c 32 3e 20 e8 64 be
       0.4131422 0.31281424 0.17399777 -0.22354174
000060 ce 6a 9a bd 6b 9d 9e be b3 5b ca 3e d2 37 cc 3d
       -0.075399026 -0.30979475 0.39523086 0.099715844
000070 f5 64 07 bf c8 8f 27 be 7f 30 31 bf 48 6b bd be
       -0.52888423 -0.16363442 -0.69214624 -0.36995912
000080 aa b6 61 3e f6 d6 7f 3e a6 c4 1e be 99 53 b9 3e
       0.22042337 0.24984345 -0.15504703 0.36196592
000090 de b9 1d bf 7d 01 1e bf f2 68 08 3f 8b 91 3d 3e
       -0.61611736 -0.6172102 0.53285134 0.18512551
0000a0 a9 c7 b0 be 75 16 d1 bc 3e 5f 9c 3e c8 ab 76 be
       -0.3452733 -0.025523404 0.30541414 -0.24088967
0000b0 40 ca 46 be 55 2b 60 be 83 4d 26 bc 39 06 85 3e
       -0.1941309 -0.2189153 -0.010150316 0.2598131
0000c0 cb 93 29 3e fa 3d e7 be 0b 52 b3 3e 40 99 2b be
       0.16560285 -0.45164472 0.3502353 -0.16757679
0000d0 5a 01 34 bb dd 59 22 3d 3d 70 c4 3d cc 55 17 3d
       -0.0027466626 0.03963648 0.0959172 0.036947057
0000e0 4d 2f 3d 3e e7 2f 95 3b e7 c4 8b 3e 04 82 ce 3d
       0.18475075 0.0045528295 0.27298662 0.10083392
0000f0 7f 47 32 bf d6 c8 2c 3e 4a 22 a4 3e 41 c9 80 be
       -0.69640344 0.16873488 0.3205741 -0.25153545
000100 45 97 ab 3e 46 fd c5 be ba 0d 08 3e 23 38 1e bf
       0.33513847 -0.38669795 0.13286486 -0.6180441
000110 a9 8b 5e 3e 7a f0 ce bd 8c 7b a8 be db c0 f0 be
       0.21732964 -0.10104461 -0.3290676 -0.47022137
000120 50 0a a8 be 47 36 e8 bd 97 1c 83 3e 47 4c 82 be
       -0.32820368 -0.113384776 0.2560775 -0.2544882
000130 73 59 48 be 21 c3 58 3e 49 c1 08 3f a8 aa 26 be
       -0.19565372 0.21168186 0.5341993 -0.16276038
000140 c4 19 27 bf c6 8c 9c 3d d2 a8 a0 3e f9 51 fc bb
       -0.6527369 0.07644038 0.313788 -0.0077002016
000150 ec b3 c4 be d1 78 5b be b2 52 c9 bc 5e f4 9e 3e
       -0.3841852 -0.21432807 -0.024575565 0.31045812
000160 a6 e2 56 3d 21 73 19 bf ad 7b 62 be 52 bb 17 be
       0.052462243 -0.599413 -0.22117491 -0.14817551
000170 2d e8 17 3c e7 59 e1 3e b1 d2 67 3d 7a 54 de 3e
       0.009271664 0.44013903 0.056597415 0.43423826
000180 1f b1 cd 3d 34 9f 1d bd 16 86 19 3e 71 e8 21 3d
       0.10043549 -0.038481906 0.14992556 0.039528314
000190 bc 6b d6 3e 6f 7f 3b be 77 1d c9 bd ca d2 41 3e
       0.4187907 -0.18310331 -0.09820073 0.18928066
0001a0 41 ce 52 3d 47 22 66 3f 93 2a 26 3e 12 0c ab bb
       0.05146623 0.89896053 0.16227178 -0.0052199448
0001b0 4d e9 1c 3e 6c 41 0d bf 9e c3 89 3e 06 c1 9e bc
       0.15323372 -0.5517795 0.26907057 -0.01937915
0001c0 aa 99 32 be a4 8a 0f 3e e1 3d a0 3e a4 50 c3 3e
       -0.1744143 0.14017731 0.3129721 0.3814746
0001d0 98 0a 47 bd c5 b1 e3 3d ca 66 b1 bd 7d 1e 38 3e
       -0.048594087 0.11117891 -0.086621836 0.1798038
0001e0 f7 dd 37 bf 5d 0c 60 bc 60 a3 c9 be 03 89 36 bc
       -0.71823066 -0.013674823 -0.39382458 -0.011141065
0001f0 58 44 78 3d e9 79 10 be e1 b7 1c 3e 08 20 0e 3e
       0.060612053 -0.14109005 0.15304519 0.13879406
000200 4c eb 8c bd dd a1 18 bf 3d c7 f4 3e b4 9a 28 3e
       -0.06880817 -0.59621984 0.47808257 0.16465265
000210 26 29 93 3d 12 e1 50 3e d8 e0 83 bc 3c 05 c4 3d
       0.07185583 0.20398358 -0.016098425 0.09571311
000220 48 10 d7 3e 79 fd 72 3e 82 c1 ca be 11 3a 9a be
       0.4200461 0.23729505 -0.3960076 -0.30122426
000230 a9 cc 27 be ef c4 06 3e 39 8b 0f be 2c 49 af be
       -0.16386665 0.13161062 -0.14017953 -0.34235513
000240 c0 ed 14 3e e4 ed 6e be 1e bf bd 3e ad 27 e2 bc
       0.1454382 -0.23332936 0.37059873 -0.02760681
000250 30 7d db 3e 2f a3 83 be d2 22 20 3e c6 c1 98 3f
       0.42868948 -0.25710437 0.15638283 1.1934135
000260 74 55 8f 3e 90 c9 ca 3e 13 88 3e bc 47 ee 06 be
       0.27994883 0.39606905 -0.011629122 -0.13176833
000270 56 d3 89 be b0 5a 08 bf 33 4d d5 3e e3 2a 02 3c
       -0.2691905 -0.5326338 0.4166046 0.007944795
000280 33 d4 71 be ab f2 d1 be 23 ce 25 3f 70 83 85 3d
       -0.23616104 -0.41005453 0.64767665 0.0651921
000290 e2 8a 00 be 2f a2 b7 be a9 51 af be 00 76 78 3c
       -0.1255298 -0.35865924 -0.3424199 0.015164852
0002a0 72 f2 17 3e e1 a5 53 bd a2 cd 3a 3f a3 77 88 3e
       0.1483858 -0.051671866 0.7297002 0.26653776
0002b0 5d 38 01 3f c1 20 f4 be 94 c8 2b be 8d 83 60 bf
       0.5047663 -0.4768124 -0.16775733 -0.8770073
0002c0 03 66 83 bd ce 14 60 3d e1 1c ba be 09 be f6 3d
       -0.064159416 0.05470734 -0.36350158 0.12047965
0002d0 5f 93 1b 3a b1 fc d4 3e 5c 7e 69 be dc 87 df 3e
       0.0005934741 0.41599038 -0.22802109 0.4365834
0002e0 67 00 04 3f 76 f9 ba be ef ff 19 3f f5 16 06 3f
       0.51563114 -0.3651845 0.6015615 0.5237878
0002f0 47 52 25 be 92 39 70 be 31 27 f6 3e 4e 71 f5 ba
       -0.16144668 -0.23459461 0.48076776 -0.0018725784
000300 9e 55 90 be f0 34 e3 3e 44 6d 35 bb ce 7a 9f 3b
       -0.2819032 0.44376326 -0.0027683536 0.0048669344
000310 10 1f ba bc 7d e1 0d 3f bb c4 2b bf 53 27 4c 3e
       -0.02271989 0.5542219 -0.6709706 0.19936876
000320 f4 b7 f9 3d a4 b3 b6 be e2 18 41 3e a1 45 94 3c
       0.121932894 -0.3568393 0.18857148 0.018099608
000330 5f 16 b5 bd 8e 56 56 bf 22 75 bc be 7b 5d 18 bc
       -0.088421576 -0.8372582 -0.36808115 -0.009299631
000340 40 34 44 3e 85 8f 1a be b1 3a ae be 49 5d 81 be
       0.19160557 -0.15093811 -0.34029153 -0.25266483
000350 fd 31 8e 3d 99 b8 a5 be e8 17 91 3e 60 35 46 3f
       0.06943128 -0.323674 0.28338552 0.77425194
000360 c8 c3 b6 3f c5 a9 71 3e b5 ac 68 be d4 6b 03 3d
       1.4278498 0.23599918 -0.22722133 0.032085255
000370 d2 7c 96 3e c6 9a ba bd e8 55 e4 3e 6e e8 c7 bd
       0.29392105 -0.09111552 0.4459679 -0.09761129
000380 14 37 0f be a9 b7 91 bd 69 5b 8b bd e9 36 b4 bc
       -0.13985854 -0.071151085 -0.068045445 -0.02199884
000390 97 69 78 3e 57 7f 66 3e e7 06 10 bf 59 c4 00 bf
       0.2425903 0.22509514 -0.5626053 -0.502996
0003a0 de e9 c0 3e 60 be 09 bf 3d 93 35 3d fd 4c 9d bd
       0.37678427 -0.53806114 0.04432987 -0.076807
0003b0 cc 8f 03 3e fd 92 ad bd 05 86 4f be 81 59 06 be
       0.12847823 -0.084753014 -0.20265968 -0.1312008
0003c0 d2 c0 e9 3e 48 c2 79 be 1f 37 4a 3f d2 8f e5 bd
       0.45654923 -0.24390519 0.7899036 -0.11209072
0003d0 6b 37 b8 3d aa 1c 0d 3e 83 7b f3 3e 6a 63 51 3e
       0.08994945 0.13780466 0.4755517 0.2044808
0003e0 c6 ad 07 bf 90 53 b0 be 87 c8 aa 3c a6 63 72 3b
       -0.5299953 -0.34438753 0.020847572 0.0036985665
0003f0 1d a2 31 3d 64 b4 da 3c f2 27 9a bc 7d b5 12 bf
       0.043367494 0.026697345 -0.018817876 -0.5730818

pi.pi_net.0.bias f4 [64]
000000 f1 39 bc 3d 7f 9f 1c 3e af 97 bd be 11 99 8f 3e
       0.09190739 0.15295218 -0.37029788 0.28046468
000010 e2 25 49 bd 4e e1 42 3e b6 d4 fc 3d bd ee d2 be
       -0.049108393 0.1903126 0.12345259 -0.41197768
000020 af 24 a7 3e a9 3f b0 bd 67 b1 11 bf 3a b2 fd be
       0.32645175 -0.08605892 -0.5691132 -0.4955004
000030 98 d4 57 3d 3d ad d1 3e 5b 9d c0 be ae ec 32 be
       0.05269298 0.40952483 -0.37620053 -0.17473099
000040 87 99 dd 3e 62 96 71 3b 24 ce 95 be a1 c0 80 be
       0.43281195 0.0036863317 -0.29258835 -0.25146964
000050 ed e2 51 be 52 da af be 17 46 a1 be d5 19 42 be
       -0.20496722 -0.34346253 -0.31498787 -0.18955167
000060 e3 5c 35 3e e5 b9 76 be 56 4b e4 be 8e 84 d5 3c
       0.17711215 -0.2409435 -0.44588727 0.026064184
000070 05 1b 04 3f b1 f9 24 be f8 99 45 3f 2f 05 40 3e
       0.5160373 -0.16110875 0.7718806 0.18751977
000080 3b e9 2f be 24 e2 fa bd e4 08 3c be cb 43 9e 3e
       -0.17178814 -0.12250164 -0.18362767 0.30911097
000090 8e 8f b3 3e 78 89 86 3e 3f 12 7e be 00 26 83 be
       0.3507046 0.26276755 -0.24811648 -0.2561493
0000a0 01 75 59 3e a0 d9 10 3e b0 c6 79 3e 1a c2 00 3f
       0.2123604 0.14145517 0.243922 0.50296175
0000b0 42 78 21 be 18 d2 56 be 3d c8 4e be d3 23 03 bd
       -0.15768531 -0.20978582 -0.20193572 -0.032016587
0000c0 3d 48 8f be e8 c3 b2 3d 47 cf e2 bd b8 2a aa 3e
       -0.279848 0.087287724 -0.11074691 0.33235717
0000d0 fa b0 9a 3e ba b0 54 bd 34 31 ea be e6 75 ca 3d
       0.30213147 -0.051926352 -0.45740664 0.098857686
0000e0 e1 52 4c bf 71 ad fc bd 1d 43 8a 3d 4b 68 b2 bd
       -0.79813963 -0.12337769 0.06751082 -0.087112986
0000f0 a2 b1 f1 bd 35 b4 45 3b b5 72 92 3e 0a f6 c6 bd
       -0.11801459 0.0030167226 0.2860314 -0.09714897

pi.pi_net.2.weight f4 [64, 64]
000000 7d 1b 32 bf f1 8c b3 3e cb 01 d4 3e ab e2 98 3e
       -0.69573194 0.35068467 0.41407618 0.29860434
000010 e3 69 03 be 38 29 42 3c 69 70 f7 be ca 33 72 be
       -0.12833361 0.011850648 -0.4832795 -0.23652568
000020 70 0d be bd c6 90 a8 be 64 3e a5 be 52 ee c1 bb
       -0.09279907 -0.32922953 -0.32274163 -0.0059183026
000030 56 77 53 be 2c 16 1a be 69 e5 e4 bc 39 92 51 be
       -0.20650992 -0.1504752 -0.027941423 -0.20465936
000040 bb 7f 15 bc bd 6b 4b 3e 90 ce 52 be 0c 67 1f 3f
       -0.009124692 0.19865318 -0.2058661 0.6226661
000050 58 08 08 3e 74 dc 48 3f e4 86 5b 3e b7 5c 90 3e
       0.13284433 0.78461385 0.21438175 0.28195736
000060 94 2c 5a be d7 2c 88 3e c0 f7 90 3e ad 45 71 be
       -0.21306068 0.2659671 0.28314018 -0.23561735
000070 b1 bc 48 be b5 2b 61 be 2e c4 02 3f 49 84 79 be
       -0.1960323 -0.21989329 0.51080596 -0.24366869
000080 53 3c 12 be d7 0f 8e be da 8c 96 3f 26 4b 14 bf
       -0.14280824 -0.2774646 1.1761734 -0.5792717
000090 f0 ae 1c 3e 2e 9b a7 3d 31 1e a4 3e 7e 13 aa be
       0.15301108 0.08183895 0.32054284 -0.33217996
0000a0 5e dc 44 be bc 23 08 bf 31 db 0f 3d be ed e3 3c
       -0.19224688 -0.53179526 0.035121147 0.027823325
0000b0 38 4e 93 bd a9 62 f4 3e 14 56 a0 3e 21 20 35 3e
       -0.071926534 0.47731522 0.31315672 0.17688037
0000c0 4d 38 52 be 64 b7 76 3e 74 74 a6 3d 37 77 98 be
       -0.2052929 0.24093395 0.081276804 -0.29778454
0000d0 3f 3a 02 3b fd 86 fe 3b 5a 98 96 3d 40 53 6d 3e
       0.0019871143 0.0077675567 0.073532775 0.23176289
0000e0 04 16 74 be 34 ef 94 be f6 9b d6 3e 0a 23 af be
       -0.23836523 -0.29088748 0.41915864 -0.3420642
0000f0 74 94 46 3d 48 27 7b bd 63 82 c9 3d 6e 5b 8f 3e
       0.04848142 -0.06131676 0.098393224 0.27999443
000100 c6 ff cc 3e ef 79 22 3e 2f f8 60 be e4 7b 8d be
       0.4003889 0.15866826 -0.21969675 -0.27633584
000110 9c 7b 2f bf b8 e5 bd 3e 3b bf 01 3f 1d 4c 74 3e
       -0.6854799 0.37089324 0.5068242 0.2385716
000120 24 bc 38 3e 0a 9d d1 3e fd 8c e6 bd 95 40 a4 bd
       0.1804052 0.40940124 -0.1125736 -0.080201305
000130 59 a2 dc bc a9 2b 99 be f4 a9 f7 bd 6f c9 89 3c
       -0.026932882 -0.29916123 -0.12092963 0.016819684
000140 7d 01 b9 bb ee 2e 71 3d 68 ff 84 3e b0 48 f8 be
       -0.0056459294 0.058882646 0.2597611 -0.48492956
000150 fe 40 a8 3d 9e 8d 55 be c7 3f 88 bd 6d 9a 22 bf
       0.08215521 -0.20854804 -0.066527896 -0.63516885
000160 f0 41 bd 3a 6f d4 ba be 01 4e 09 bf f4 bd 5d 3a
       0.0014439207 -0.364902 -0.5363465 0.0008458786
000170 bb 98 9a 3e 9e c2 a3 be 8f d7 d9 be c4 d0 fa 3c
       0.3019465 -0.3198442 -0.4254727 0.030617125
000180 0a 34 b5 3d 94 3d 28 3e 12 b0 44 bf 51 25 26 be
       0.08847816 0.1642974 -0.7683116 -0.16225173
000190 9e 1e 9f be d6 b8 d7 be d5 d9 b7 be f2 13 ac 3e
       -0.31078047 -0.42133206 -0.3590838 0.33608967
0001a0 e4 b1 85 3e d8 68 3f 3f 85 2c fb 3b 35 b5 d5 be
       0.26112282 0.74769354 0.0076652193 -0.41739812
0001b0 a3 b7 94 be c6 0a b4 3d 39 dd 94 3e 71 dc b9 bd
       -0.29046354 0.08791117 0.2907503 -0.09075249
0001c0 82 8f fc bc 49 e6 33 be 8b 24 04 3e 9f 4c a7 bc
       -0.030830149 -0.17568316 0.12904565 -0.020422278
0001d0 d9 ab 9a 3e d6 de 44 bd 90 83 a7 3e e8 9c ea 3e
       0.30209234 -0.048064075 0.32717562 0.45822835
0001e0 00 c8 9a 3e 1c d3 97 3d fe 15 c9 be 52 d1 aa be
       0.30230713 0.07413313 -0.3927459 -0.33362824
0001f0 8d 06 b3 3d c9 f0 b2 3d 68 49 51 be 38 f4 94 be
       0.08741484 0.087373324 -0.20438159 -0.29092574
000200 de c9 09 3e 1e d8 e1 be 74 d4 97 3b 6f bc 0b bf
       0.13455912 -0.44110197 0.0046334807 -0.545844
000210 d4 b8 47 3e 01 f0 ae be fa e2 80 bd 98 b6 35 3d
       0.195041 -0.34167483 -0.06293292 0.044363588
000220 f4 22 83 be db 8f db bd ce c7 31 be 13 56 ff 3d
       -0.25612605 -0.10720798 -0.17361376 0.12467589
000230 2e 10 3d 3e f8 f5 0c 3d 99 f9 4e 3e 82 2c 3b 3e
       0.18463203 0.03441426 0.20212401 0.18278697
000240 af 5b 50 3e 2a e9 8b be c6 07 52 3d db a0 f5 3d
       0.20347475 -0.27326328 0.051276945 0.11993571
000250 a9 a4 9a 3d 78 45 0d bd d8 cd 96 3e 7a d2 de 3d
       0.07550938 -0.03449008 0.2945392 0.10879989
000260 3b 24 66 be b4 90 d0 be c6 f5 0f 3e ef 23 98 be
       -0.22474758 -0.407354 0.14058599 -0.29714915
000270 33 e1 bf bd 53 f7 32 3e 5e 25 42 bc cb 54 ac 3e
       -0.09369125 0.17477159 -0.011849729 0.33658442
000280 c8 0d d5 be 3e 09 8d 3d 03 5d 98 bd f4 82 07 bf
       -0.41612077 0.068865284 -0.074396156 -0.52934194
000290 43 43 66 3e c3 ec 06 3f fa 2a 15 3f 7c 14 f6 be
       0.22486596 0.5270502 0.582687 -0.48062503
0002a0 05 51 93 3e 58 9e c8 3d 8c 05 14 bd 7e b4 88 3e
       0.2877275 0.09795827 -0.036138102 0.26700205
0002b0 20 47 67 3c 6d bd 5c 3e 08 e8 c8 be cf ec 50 bf
       0.014116079 0.21556635 -0.39239526 -0.8161134
0002c0 65 51 cf bd 60 31 e9 be c7 4b f1 be a3 02 a2 3e
       -0.10122947 -0.45545483 -0.47128126 0.31642637
0002d0 3f a6 85 be 92 60 66 3e 08 a3 65 bd e7 17 dd be
       -0.26103398 0.22497776 -0.05606368 -0.431823
0002e0 8e 47 ef be 42 30 48 3e ad ab a6 3d f6 61 a4 bc
       -0.4673428 0.19549659 0.08138213 -0.020066243
0002f0 0c d3 4f 3e 43 85 6e be 56 b1 af 3d 06 53 b3 be
       0.20295352 -0.23293023 0.08578746 -0.3502428
000300 71 d4 f0 be 00 43 ba 3e 5d f9 83 3c 41 d6 7e bd
       -0.4703708 0.36379242 0.016110117 -0.062216047
000310 78 e1 3c be 6b b0 bb be 06 6b 2e 3e 59 2d 22 3e
       -0.18445385 -0.36658034 0.17033014 0.15837611
000320 8b 4c ab bd 0d 37 05 3f a0 04 6c 3e c3 d1 3f 3d
       -0.08364209 0.52037126 0.2304864 0.046830904
000330 a6 8d f9 be a8 61 cd be e6 e0 18 3f 46 9a 99 3e
       -0.48740882 -0.40113568 0.5971817 0.30000514
000340 ab ce 95 ba 7d 7f 2c bf 87 95 c6 3d 76 18 d0 be
       -0.001142939 -0.6738203 0.09696489 -0.40643662
000350 6d fe 7d 3d b0 67 08 bf 33 e4 14 be 4e 34 70 be
       0.062010217 -0.53283215 -0.14540176 -0.23457453
000360 32 1e 0f 3e af 1a 8c ba 71 a1 8f 3c 9d 6c 10 bf
       0.13976362 -0.0010689105 0.017533036 -0.5641573
000370 07 dc c8 be db 95 5e 3e 96 be b7 be 6b eb 5a 3e
       -0.39230368 0.21736853 -0.35887593 0.21378867
000380 08 df 25 3d 5a 01 68 3e 71 d1 ff be 98 82 a5 3e
       0.040495902 0.22656766 -0.4996448 0.32326198
000390 25 df 90 be 69 2c 03 3e 16 5b 9f 3b f0 50 2b 3e
       -0.28295246 0.1280991 0.004863153 0.16730094
0003a0 df 4b 64 be 8f 15 05 3f a6 8f 3a 3d 79 5a 48 be
       -0.22294568 0.5198602 0.04554715 -0.19565763
0003b0 89 ea 63 3e eb a4 b9 3e d0 72 f9 3c 31 8b 4d 3e
       0.22257437 0.36258635 0.030450255 0.20072629
0003c0 5a ff 8c 3e 43 70 a1 be e7 a0 0e 3d 10 ca 20 be
       0.27538568 -0.3153096 0.034821417 -0.1570208
0003d0 70 da c3 bd 93 e1 02 bf 35 ec 24 3e 73 33 2a bf
       -0.09563148 -0.5112545 0.16105731 -0.66484755
0003e0 06 87 11 3f 97 e1 89 3e ac 91 1e be 64 ba fe 3d
       0.56846654 0.26929924 -0.15485257 0.12437895
0003f0 84 05 37 3e 0f 74 47 be 3f fe 43 bf 34 98 09 bc
       0.17873198 -0.19477867 -0.76559824 -0.008398104

pi.pi_net.2.bias f4 [64]
000000 f7 fe d7 3d 1e ab 99 be 31 c6 03 3e 47 6b c1 be
       0.105466776 -0.30013365 0.12868573 -0.3777716
000010 f8 6a 97 3e 99 3e 2d be c7 11 e5 be f5 8c 9b bd
       0.29573798 -0.1691841 -0.44740126 -0.07595245
000020 60 ef 53 3e d2 28 46 3e a9 03 6d be b0 aa 92 3e
       0.20696783 0.19351509 -0.23145927 0.2864585
000030 98 f0 88 bd 57 41 3e be 0d 8d 32 3f 72 0e 0e 3c
       -0.066865146 -0.18579613 0.69746476 0.008670436
000040 e7 1c 3b 3d 07 cd 02 be 5b 0e 77 bb db a1 7d 3e
       0.04568186 -0.12773524 -0.0037697766 0.24768774
000050 8e dc 71 bd d0 fc bf bd af 06 03 be 8e 7c 83 3e
       -0.059048228 -0.09374392 -0.12795518 0.25680965
000060 a4 b5 ca 3d e8 2c d1 bd fc 9d 72 be a4 ff 1e bd
       0.098979264 -0.10213643 -0.23693079 -0.038818017
000070 6b 74 89 bd 39 b2 ed bc 93 02 a6 3d 29 fc f0 bd
       -0.06711658 -0.029015647 0.0810596 -0.11766846
000080 8c f1 4a bd 8f 68 71 be 7e 45 99 bd c0 11 93 bb
       -0.049546763 -0.23575042 -0.07483958 -0.0044882
000090 05 f2 24 3d 02 e5 a9 be 7c 56 cb be b6 45 f4 3d
       0.04026987 -0.33182532 -0.3971442 0.11927359
0000a0 8b f9 b9 bd ec 1f 2e bf 75 69 8a bc c4 4d 99 3c
       -0.090808 -0.6801746 -0.016895989 0.01871384
0000b0 7f fa 3f bf 2e e2 8c be ec 31 59 be f7 6b 60 bc
       -0.749916 -0.2751631 -0.2121045 -0.013697616
0000c0 d4 18 81 3e 88 78 08 3e a7 13 94 be 86 ff a8 3c
       0.25214255 0.13327229 -0.28921244 0.020629656
0000d0 3f ec 2e be e0 e5 07 be 14 ec 77 3c 74 88 b7 be
       -0.17082308 -0.13271284 0.015131969 -0.35846293
0000e0 96 22 2a 3e 08 d9 3f 3f ad 01 b5 bd 1a cd c2 3d
       0.16614756 0.7494054 -0.0883821 0.09511776
0000f0 b0 7b a8 3d 89 61 83 be 98 70 18 be 92 9c f1 3e
       0.082267165 -0.2566035 -0.14886701 0.47189766

pi.pi_net.4.weight f4 [256, 64]
000000 7d 3a 82 be 90 db 8a 3d 51 88 88 3d c3 de 8c 3e
       -0.25435248 0.067801595 0.06666625 0.27513704
000010 7b 94 0f bc 58 cc 71 3e 82 8d 8f 3e f2 5a 90 bd
       -0.008763428 0.23613107 0.2803765 -0.070485964
000020 0a 06 ca 3c f6 cb 4a bd 18 b3 ee 3d 20 7d e3 be
       0.024661083 -0.04951092 0.11655253 -0.444314
000030 9b d9 1a 3d 62 90 73 3e 99 77 99 be f9 9b 4a be
       0.03780518 0.23785546 -0.29974058 -0.19786061
000040 9f ba c9 bd 96 2b dd 3d 08 1f 05 3c c8 c0 c1 be
       -0.09850048 0.10799329 0.008125074 -0.37842393
000050 d0 cf 53 3e 43 06 38 3e 27 b1 87 3d eb 85 48 be
       0.20684743 0.17971139 0.06625586 -0.19582336
000060 70 3a aa 3d e5 ec 67 3e 58 ab c4 3e 7c 26 fe 3d
       0.08311927 0.22648962 0.38411975 0.12409684
000070 46 2f 8c 3e ce aa af bd 6c 32 6c 3e 82 53 d7 3d
       0.27379817 -0.085775 0.2306611 0.10513975
000080 10 1f 85 3e bc f2 ad 3e e6 ed 17 3d bd 0e 29 be
       0.2600026 0.33974254 0.037092112 -0.16509528
000090 15 f1 f6 bc a4 45 89 3d 12 07 8a 3e 7d d6 b5 be
       -0.030144254 0.06702736 0.2695852 -0.35515204
0000a0 7f 62 56 3d ac eb 14 3e bf 61 f0 bd 2e 53 22 3e
       0.052340027 0.14543027 -0.117373936 0.15852043
0000b0 5c 78 e7 3e 7c bb 84 3e 64 8e 56 3e 93 ac 0e be
       0.45209014 0.2592429 0.20952755 -0.1393302
0000c0 69 f3 89 be 97 8d 90 be b2 a2 17 be 8f 2f 72 3e
       -0.2694352 -0.28233024 -0.14808157 0.23650955
0000d0 9c 15 2d 3e b6 e3 65 3d eb d4 a9 3e a3 c9 9b 3a
       0.16902775 0.056125365 0.33170256 0.0011885654
0000e0 fb 6c 4c be 3a 4f 85 be 65 f1 2c 3e 2d d7 8b 3c
       -0.19963448 -0.26037008 0.1688896 0.017070377
0000f0 b0 b7 54 be 52 5f 3c 3e 7f 0a 82 be cd f0 e1 bd
       -0.20773196 0.18395737 -0.25398633 -0.11032257
000100 b2 52 38 3e 42 fc 2b be 60 96 ba 3e 3e 30 d8 39
       0.18000296 -0.16795447 0.36442852 0.00041234674
000110 f6 f8 13 bf e8 69 10 be 62 da 37 3e 59 71 99 be
       -0.5780176 -0.141029 0.179544 -0.2996929
000120 e8 a7 00 be 6c 28 0c 3d 04 21 9f bc 28 ef b0 bd
       -0.12564051 0.034218237 -0.019424923 -0.086393654
000130 d3 61 9f 3c 9a 52 21 be c2 34 0a be f4 c1 df bb
       0.019455826 -0.15754166 -0.13496688 -0.006828541
000140 0f b3 bd 3d 5a 4c a4 3d 6b 33 5e be 9c 21 05 be
       0.09262668 0.080223754 -0.21699302 -0.13001102
000150 88 10 fb 3c 4a 7b 3d 3d 64 c6 5d 3d 4d 94 d1 bd
       0.030647531 0.046260156 0.05414428 -0.10233364
000160 99 1f 57 be 5d 4b ed bd 1c bf 98 3e 12 2d ff be
       -0.21008147 -0.1158664 0.29833305 -0.49839073
000170 79 37 9b 3e 8e e2 b1 be ef 88 7c bc e7 c1 4d be
       0.3031576 -0.3474316 -0.015413507 -0.20093499
000180 47 e0 53 bc f6 0d ba 3e d3 b7 cb 3d 7a 6e 72 3e
       -0.01293189 0.36338776 0.09947171 0.23674956
000190 39 02 0f be 58 d5 8f 3e 4f ed 09 bd 2c b9 09 3e
       -0.13965692 0.28092456 -0.03367358 0.13449544
0001a0 a0 a0 d6 bd b8 ff 07 be 80 65 20 3e 0f 41 e5 3d
       -0.104798555 -0.13281143 0.15663719 0.111940496
0001b0 16 f1 b0 bc f1 8a 98 3d f1 0a e1 bd 1e de a5 be
       -0.021599334 0.07448376 -0.10988415 -0.32396024
0001c0 e3 f9 0e be e4 e5 97 bd 82 5e fc 3d 6b 2c 76 bd
       -0.13962512 -0.07416895 0.123227134 -0.060100954
0001d0 0e 08 65 3e 1d 7a 8e 3e a0 59 a0 bd 76 42 83 3e
       0.22366354 0.2782754 -0.078295946 0.25636643
0001e0 4d 99 28 3d ca 5b 4f bd 79 6f fa 3c eb 3d 0d 3e
       0.041161824 -0.050624646 0.030570732 0.13793151
0001f0 b1 21 bf be ff ec d5 3d 48 bb b1 be 6e 16 3e be
       -0.37330392 0.10445594 -0.34713197 -0.18563244
000200 15 28 dc 3d 2e f8 23 3e d5 04 6b bd 35 d5 22 bd
       0.107498325 0.16012642 -0.057377655 -0.03975411
000210 52 54 33 3d 80 2b ee bc 3f 35 02 3d 24 f3 86 3e
       0.043781586 -0.029073477 0.03178906 0.26357377
000220 75 77 d4 3d 7c 3e 2e 3d 00 2f 72 be b0 2a 8b be
       0.10374347 0.04254006 -0.23650742 -0.27181005
000230 83 08 89 3e dc d0 11 bf 35 4b 79 3c 08 db 2d 3e
       0.26764306 -0.5695932 0.015215685 0.16978085
000240 bf 96 86 be 7c b7 6d be 99 88 e2 3d ec e9 a1 bc
       -0.26286885 -0.23214525 0.1106121 -0.019764863
000250 ed d1 b1 bd 7b 04 dd 3e dd 23 08 be 2b 4c b1 bd
       -0.08682618 0.4316748 -0.13294931 -0.08657106
000260 03 f5 28 3f 69 8e 32 be 50 10 16 3f 01 34 fa be
       0.6599886 -0.17437138 0.5861864 -0.488678
000270 b9 bf 99 3e 9f a7 3f 3e 59 d1 ec 3e 0e e4 43 3f
       0.30029085 0.18716286 0.4625347 0.7651986
000280 ce 1c d7 3e 6f 56 ca 3d 41 a2 d2 bd 10 87 ba bd
       0.42014164 0.09879767 -0.10284854 -0.091077924
000290 08 12 a0 be 88 ba 66 be b8 89 19 bc 3d d3 cf be
       -0.31263757 -0.22532094 -0.009371214 -0.4059085
0002a0 66 c8 df be dc f1 60 39 80 cd 3a bd b7 80 5d be
       -0.4370758 0.00021452404 -0.045606136 -0.21631132
0002b0 6c ad 31 bd 94 3a 09 3e 15 52 9d 3d 16 3d 29 bf
       -0.04337828 0.13401252 0.076816715 -0.66108835
0002c0 78 73 8c 3d 32 24 a3 3d e3 9b b8 3e 92 d7 2e 3e
       0.068579614 0.07965888 0.36056432 0.17074421
0002d0 3b ca 52 be 31 1c 00 3f 0e 48 04 3e c0 06 03 be
       -0.20584957 0.50043017 0.12918112 -0.12795544
0002e0 95 a6 44 3e e1 d3 22 be 57 62 13 3f d9 10 8b be
       0.19204171 -0.15901138 0.5757193 -0.2716129
0002f0 41 c8 da be eb 7e 8b 3e e4 1e 13 be 34 23 65 3e
       -0.42730907 0.27245268 -0.14367253 0.2237671
000300 68 aa 3a 3f dc 2c 81 bf 29 74 d2 3e 6e 82 36 bf
       0.7291627 -1.0091815 0.41104248 -0.7129277
000310 61 49 35 3f ff 4b 7f bf 58 8c 31 bf cc 62 1f 3e
       0.7081509 -0.99725336 -0.6935477 0.15565032
000320 36 8a 7b 3f 7c 7f 87 3f a4 a8 a3 be a8 63 0c 3f
       0.9825777 1.058578 -0.319646 0.54839563
000330 9d eb 58 3f 4e c3 e7 be e3 e1 26 3f 88 3e 4e 3f
       0.8473452 -0.45266193 0.65188426 0.80564165
000340 c3 f4 f8 3c 24 18 ec be 44 f2 d4 be 42 84 5e 3f
       0.030390149 -0.46112168 -0.41591084 0.8692056
000350 38 43 18 bf 43 6a 1b bf a7 33 79 bf 8a 63 2c 3f
       -0.5947757 -0.6070902 -0.9734444 0.67339385
000360 b6 a7 95 3e 78 fb 58 bf 4f 8a 7c be 7d 67 26 3f
       0.29229516 -0.8475871 -0.24662136 0.6500166
000370 bc 83 1f 3d 0d 64 58 3f 78 3b 8c 3f b5 6e d0 be
       0.03894399 0.84527665 1.0955648 -0.40709463
000380 d8 61 8a 3f c9 a1 db be 93 a6 6b bf 30 43 4b 3f
       1.081111 -0.4289687 -0.9205105 0.79399395
000390 31 73 01 3f d1 c2 61 bf 31 99 72 bf 24 29 37 3f
       0.50566393 -0.8818789 -0.94765 0.7154715
0003a0 56 06 58 3f 3e fa 2d bf c4 b0 82 3f d6 60 8a bf
       0.8438467 -0.67959964 1.0210195 -1.0810802
0003b0 f5 3c 1b bf 39 0e 67 bf 46 b2 61 bf e0 bd 79 3d
       -0.6063989 -0.9025608 -0.8816265 0.060972095
0003c0 20 5e 74 3f f0 e4 5a 3f 52 ff ae 3d ea ab 51 bf
       0.95456123 0.8550558 0.08544792 -0.81902945
0003d0 3e 50 75 bf 96 fe 8c 3e 19 e0 10 bf a8 0b 66 bf
       -0.95825565 0.27537984 -0.56591946 -0.89861536
0003e0 d2 a5 37 3f 66 22 2f 3f d4 44 e8 3e f9 a8 4c bf
       0.71737397 0.6841186 0.45365012 -0.7994533
0003f0 64 da 7e 3e ec 10 c3 be 3f 9b 6a bf 63 c9 10 3f
       0.24887997 -0.38098848 -0.91643137 0.5655729

pi.pi_net.4.bias f4 [256]
000000 41 b7 2b be 87 ab 23 3d 70 f1 47 3c b4 45 58 3f
       -0.16769125 0.039958503 0.012203559 0.8448136
000010 8b 2e 82 be 6e 26 35 be 6d 7f 44 3f c8 c0 80 be
       -0.25426134 -0.17690441 0.76756936 -0.2514708
000020 1e 32 4b be b7 2b 3a be 27 0b 6e be ee 0b 40 3f
       -0.19843337 -0.18180738 -0.23246442 0.75018203
000030 71 a2 40 3f 82 1e 58 be 9d 1e 54 be 97 49 01 be
       0.75247866 -0.21105388 -0.20714803 -0.12625729
000040 82 62 31 bd 11 dc 0c bd 67 5b 81 be 3f bc 4f 3f
       -0.043306835 -0.03438956 -0.25265047 0.81146616
000050 e4 8f 1d be da 7c 38 be da 5b 53 be 22 a2 4e be
       -0.15386921 -0.18016377 -0.20640507 -0.20179036
000060 71 40 4c be a7 ab 26 3f 7a 59 6c be ed ad 2b 3f
       -0.19946457 0.6510567 -0.23081008 0.67062265
000070 92 24 47 3f bd b1 62 be 25 32 64 be 7d fc 9a be
       0.77790177 -0.22138114 -0.22284754 -0.30270758
000080 9f 18 14 bd 9c bb 3e 3f 31 e0 c8 bc 7b af 07 be
       -0.036156293 0.7450502 -0.024520965 -0.13250534
000090 39 f7 36 be 1d 61 15 3d 64 4b 1e be 6a d9 4b be
       -0.17867745 0.036469568 -0.15458447 -0.19907156
0000a0 60 04 39 3f 6d 6e 71 be b5 04 b4 bd 3f e8 33 be
       0.722723 -0.2357728 -0.0878996 -0.17569064
0000b0 56 a4 1e be 50 81 4b 3d f0 58 3a be fd 47 3a 3f
       -0.15492377 0.04968387 -0.1819799 0.72766095
0000c0 3f e4 fa bd dd 5b d3 bd c7 be 21 3c 79 25 3f 3f
       -0.12250566 -0.10320256 0.009872145 0.74666554
0000d0 db 6a 27 bd 67 5a 36 be 53 85 13 be 80 fd 13 be
       -0.04087339 -0.17807923 -0.14406328 -0.14452171
0000e0 f5 fb 1a bd 9a 7e 53 3f 35 bd fb bd 91 1b 30 3f
       -0.03783794 0.82615054 -0.12291948 0.68792063
0000f0 41 f0 62 be 9f e0 4f be a7 ae 24 be 56 c6 3d 3f
       -0.22161962 -0.2030053 -0.1608225 0.7413076
000100 61 64 4f be db 7d d9 bd ac 97 25 be b6 0c 31 3f
       -0.20253135 -0.10619708 -0.1617114 0.6916002
000110 f5 82 57 3f e2 d6 31 3f f8 df 5f 3f 0e 18 00 be
       0.841842 0.6946851 0.87451124 -0.12509176
000120 74 3f 4c 3f 1b f8 82 be bd 7f 5b be 31 90 8d 3d
       0.7978432 -0.25579914 -0.21435447 0.06912268
000130 8f d7 c0 bd 70 0c 29 3d c2 5a 41 be 79 3a 89 be
       -0.094161145 0.041271627 -0.18882278 -0.26802424
000140 e5 e4 78 be 59 11 b8 bd d7 e6 44 3f 84 fe 2d 3f
       -0.24306066 -0.08987684 0.76914734 0.67966485
000150 b6 d8 38 be 85 18 b2 3d 33 45 3b be 6c dc 8c be
       -0.18051419 0.08696083 -0.18288116 -0.2751192
000160 bc 78 25 3f fb ea 38 be b7 aa 56 3f a3 55 09 bd
       0.6463735 -0.18058388 0.8385424 -0.033528935
000170 59 77 00 be 29 72 67 3f 23 95 27 be 5f 29 db bd
       -0.12545528 0.9040857 -0.16365485 -0.1070125
000180 76 65 31 3f 51 8b 60 3f 6b 62 02 be 25 13 a5 bc
       0.6929544 0.8771258 -0.12732856 -0.02015073
000190 0c 21 68 3e 5c ac 41 be 90 94 a1 bb 0d ac 7c be
       0.22668856 -0.18913406 -0.00493104 -0.24675007
0001a0 d5 af 4b 3f ef e3 36 be 24 39 46 3f dd b3 74 be
       0.79565173 -0.17860387 0.7743094 -0.23896737
0001b0 1f 85 8d bd 8c 81 56 be 10 9f c1 bd 10 1d 73 be
       -0.069101565 -0.20947856 -0.09454167 -0.23741555
0001c0 ee d1 c2 3d 99 24 5c be ad 2a 51 be 44 d9 39 3f
       0.09512697 -0.21498336 -0.20426436 0.72597146
0001d0 1a 94 3e 3f 89 c3 c9 bd 38 9d 7f be 40 68 89 be
       0.74444735 -0.098517485 -0.24962318 -0.2683735
0001e0 8a 76 58 3f 7d d3 9e 3e 2a 65 28 3f 0f c3 32 bc
       0.84555876 0.31020728 0.65779364 -0.010910763
0001f0 ed 4c 07 be 34 62 e4 bd e1 b8 57 be fa 21 65 be
       -0.13212939 -0.11151543 -0.2106662 -0.22376242
000200 67 89 68 bd d1 39 5c be ff 39 4f be 56 c7 41 be
       -0.056771662 -0.2150643 -0.20236968 -0.18923697
000210 6e a4 50 be 4c 2e 39 3f 4d a2 a9 bd a5 60 4c be
       -0.20375225 0.7233627 -0.082829095 -0.19958742
000220 49 db 0b be 3d 36 44 bc 5b 99 46 3f 10 de 48 3f
       -0.1365787 -0.011975822 0.7757775 0.7846384
000230 dd a3 af bd 07 3d 3d 3f 3a 35 39 3d 24 5c 7c bd
       -0.08576176 0.73921245 0.045216776 -0.06161131
000240 92 67 b9 3d b0 cb 77 be 65 af 9b 3d 0a 90 39 3f
       0.090529576 -0.24198794 0.07601813 0.7248541
000250 21 6c 7b 3e df 6f 54 be e1 62 0c be 9f 30 83 be
       0.24552967 -0.207458 -0.13709594 -0.25623032
000260 58 77 02 be af b6 2f be ce 34 24 3f 6b 50 5f be
       -0.12740839 -0.17159532 0.64143074 -0.21808021
000270 d1 f4 c5 bd b0 25 18 be 4b 9a 43 be ef 65 f6 bc
       -0.09665836 -0.14858127 -0.19101827 -0.030077903
000280 91 1b 59 3f 18 c6 63 3d fd 3c 62 3d 91 bb 3a be
       0.8480769 0.05560884 0.055233944 -0.18235613
000290 72 99 45 3f 32 93 86 be 43 8f f5 bd bf 75 62 be
       0.77187264 -0.26284176 -0.11990216 -0.22115229
0002a0 84 a8 35 3f ec a7 35 3f 86 5a 55 bd 21 20 4b 3f
       0.7096026 0.70959353 -0.052088283 0.793459
0002b0 19 b9 51 3f 62 d7 49 3f 83 74 45 3f a4 57 4e be
       0.8192306 0.78844273 0.7713091 -0.2015062
0002c0 21 37 2e 3f 5f 6d 4e 3d b5 4a 48 be 64 f0 51 be
       0.6805287 0.050397273 -0.19559748 -0.20501858
0002d0 77 80 c4 3b 6a eb 46 3f 94 41 35 3f 0a 72 95 bd
       0.0059967595 0.77702963 0.7080319 -0.07297142
0002e0 52 5a 61 3f b1 63 3c 3f b0 52 3c be 73 cd 26 be
       0.8802844 0.73589617 -0.18390918 -0.1628931
0002f0 a9 6f 8d be b0 82 37 be a2 20 23 be e5 bb 01 be
       -0.27624252 -0.17920947 -0.15930417 -0.12669332
000300 5e d7 44 3f aa 32 84 be 2e ff 1d be d1 f4 f3 bc
       0.76891124 -0.25819904 -0.15429375 -0.029779823
000310 75 01 b4 3d 16 a6 4d 3f 86 7f 35 be b9 53 fb bd
       0.087893404 0.8033155 -0.17724428 -0.12271828
000320 97 ea 49 3f c3 b2 e9 3d fc c3 f7 bd d5 31 36 3f
       0.7887358 0.11411049 -0.12097928 0.7116979
000330 62 1c 3b 3f 51 04 63 be 99 e8 86 be fd 89 28 3f
       0.73090184 -0.22169615 -0.26349333 0.65835553
000340 cc 4a 57 bd 89 1d 31 3f 2f 45 f4 bd 0b 26 63 be
       -0.052561566 0.6918569 -0.11927258 -0.22182481
000350 9a 64 6e 3d bb 09 67 be 6f 51 3f be 42 ec 2e be
       0.05820141 -0.22562306 -0.18683408 -0.17082313
000360 0e aa 5c be 78 52 49 3f 3a cc c8 b9 30 29 bf bd
       -0.21549246 0.7864146 -0.00038299133 -0.09334028
000370 e5 b8 4d be e5 8b 16 be b4 47 83 3d 83 39 1a be
       -0.20090063 -0.14701803 0.06410161 -0.15061001
000380 9a e8 62 bd 72 fc 43 be 76 db d2 bd 50 53 06 be
       -0.055397607 -0.19139269 -0.10295765 -0.13117719
000390 b9 29 85 be 0a 21 61 3f 04 62 1d bd fd 1a 31 3f
       -0.26008394 0.8794104 -0.038423553 0.69181806
0003a0 0b 80 47 3f e3 67 79 bd 71 d6 22 be 49 8c 06 3b
       0.77929753 -0.06089009 -0.15902115 0.0020530394
0003b0 cc 2b 55 3d c5 5f e7 bd f7 6f 41 3f 9a 76 14 be
       0.05204372 -0.112975635 0.7556147 -0.14498368
0003c0 e0 94 3d 3f 37 b2 3d 3f b0 55 2b be cb 36 b3 be
       0.7405529 0.7410006 -0.16731906 -0.3500274
0003d0 dd 66 2a 3c f6 f6 85 3d 03 50 3f be 4c 41 1c be
       0.010400501 0.06541245 -0.18682866 -0.15259284
0003e0 23 da 32 be b5 c1 8d be 7d b6 31 3f 43 c0 4c 3f
       -0.17466025 -0.2768685 0.6941908 0.7998087
0003f0 df e2 28 be 6a 9e 33 3f 26 42 66 be e1 50 4e 3f
       -0.16492794 0.70163596 -0.22486171 0.8059216

v.v_net.0.weight f4 [64, 5]
000000 90 32 4e bf a7 15 6e be 31 7b b2 bb 7f 31 a0 3e
       -0.805459 -0.23250447 -0.0054468145 0.31287763
000010 81 77 67 3e 79 32 f3 bc 51 24 4e bf 41 33 cd 3e
       0.22604181 -0.029687153 -0.80524164 0.40078166
000020 6f f5 6d 3f 59 b1 82 3f 2b 2f eb be a2 dc 4e bf
       0.92952627 1.0210372 -0.45934424 -0.8080541
000030 fb 33 06 bd d6 1a 85 3d 2f 1c 37 be 73 c4 16 3f
       -0.032764416 0.06499259 -0.17881845 0.5889351
000040 34 60 77 3f c6 91 ba 3e 36 4b aa bc 78 b0 e6 3e
       0.9663117 0.3643934 -0.020787816 0.4505651
000050 a1 6a eb 3e 5c 5c 9f be 43 39 cf 3e 6b 95 a4 3e
       0.4597979 -0.31125152 0.40473375 0.32145247
000060 dd f3 0c 3e 56 fe 72 bf 40 f2 50 3d 7c e6 78 3d
       0.13764901 -0.94919336 0.051012278 0.060766682
000070 fa 0a b9 bb ac 3d 30 3e d6 af 44 3f 0e 63 0f 3b
       -0.0056470605 0.17211026 0.76830804 0.002187911
000080 06 7b da bd a2 35 77 3d 1f c0 46 3f 7f 1f 19 3f
       -0.10667996 0.060353883 0.77636904 0.59813684
000090 9b c8 36 be e5 bc 4e 3e 0a 23 b2 3e ba 72 25 bd
       -0.17849962 0.20189245 0.34792358 -0.040392615
0000a0 e4 c1 41 bf 5e f3 c0 be dc 0d 2d 3d 01 ea ce 3e
       -0.7568648 -0.37685674 0.042249545 0.40412906
0000b0 9a 29 93 3e c7 fd a9 be 5a 15 af be b9 2f c1 be
       0.28742677 -0.3320143 -0.34195977 -0.37731722
0000c0 fe 0b 1b be f7 ae ef 3d 30 06 32 bf 4b 5f 85 bf
       -0.15141293 0.11703294 -0.6954069 -1.0419706
0000d0 cc 9e 13 be 91 2c 8d 3e 82 30 b5 bd d6 f6 a4 be
       -0.14416045 0.27573064 -0.08847143 -0.3221957
0000e0 00 52 c1 bd 45 54 dc be ea c8 ec 3d c0 a9 ce be
       -0.094394684 -0.43033043 0.11561759 -0.40363884
0000f0 ce 89 db 3e f8 a4 3d 3f 3d 0e b0 3e c9 57 c6 be
       0.42878574 0.7407985 0.34385863 -0.3873885
000100 7b c1 71 3e fb d0 69 bf d0 74 3d bf 61 96 ff be
       0.23608963 -0.91334504 -0.74006367 -0.49919418
000110 dc cd ad be aa 4d 5f bf f1 cc 16 3f ee 9b 50 bd
       -0.3394612 -0.8722788 0.58906466 -0.050929956
000120 f7 52 83 3e 65 03 a5 3e f9 7d ac be c9 4f 51 3f
       0.25649235 0.32229152 -0.3368986 0.8176237
000130 17 80 e1 3d 63 e3 05 3e b0 3f 8a be c4 36 81 be
       0.11010759 0.13075022 -0.27001715 -0.25237095
000140 b0 d6 ca 3d 5b 3c 63 be 71 7e 41 be ff 59 72 3e
       0.0990423 -0.22190993 -0.1889589 0.23667143
000150 b5 61 cb 3e 62 e8 5a be fc 9d 10 bf 11 d9 38 be
       0.39722982 -0.2137771 -0.56491065 -0.18051554
000160 73 c1 d7 be 3b ab 20 bf df 56 4d 3d 31 88 1c 3f
       -0.42139778 -0.62761277 0.050131675 0.6114531
000170 96 19 9a 3d 27 4e d1 3e a9 34 7d 3f b8 22 c1 be
       0.075244114 0.40879938 0.9890848 -0.377218
000180 83 5d a1 3d e2 d5 b3 be e2 86 9e be 14 8f ed bb
       0.07879164 -0.35124117 -0.30962282 -0.0072497223
000190 b8 46 50 3f c0 19 2e 3d 44 34 94 bd fb a3 0d be
       0.8135791 0.042505026 -0.072365314 -0.13832085
0001a0 49 4d 94 3d c9 14 12 bf db 33 44 bd 04 37 5f be
       0.072413035 -0.57062966 -0.047901016 -0.2179833
0001b0 c3 e7 f1 3e 86 3b d0 3d 50 d7 cf be 51 50 67 3d
       0.47247133 0.10167603 -0.40593958 0.05647308
0001c0 7b 05 e2 bd 19 fc 14 bf 0d b0 1e 3e 17 c1 be 3e
       -0.110362016 -0.5819717 0.15496846 0.3725669
0001d0 4f 20 93 3f fc 57 76 3d 68 ec 0b 3e 5d af fb be
       1.1494235 0.060142502 0.136644 -0.4915723
0001e0 9e 45 06 3f db e9 92 3e 14 3c 1b be 4f a4 91 bd
       0.5244998 0.28694043 -0.15159637 -0.071114175
0001f0 a1 ed dc bc 5b 4d 3f 3f 8d 28 ee bc f3 8d 9b 3c
       -0.026968779 0.7472741 -0.02907207 0.018988585
000200 cb 8a 26 be 70 92 8e 3d 7f 77 8d 3e 41 46 0e 3d
       -0.16263883 0.069615245 0.2763023 0.034734968
000210 a3 c3 1a 3e 86 8d c8 3e d2 1d 6a 3e 7e b8 09 3f
       0.15113692 0.39170474 0.22862938 0.5379714
000220 87 ba f3 bd b9 84 31 bb bd 97 c4 3d b5 41 11 3f
       -0.11900812 -0.0027087166 0.09599254 0.56740886
000230 e2 a7 6d 3f 4a 42 4a 3e 46 9a 2c be 53 f4 a2 bd
       0.92834294 0.1975185 -0.16855726 -0.079567574
000240 b1 34 40 bf 28 3e c7 be e1 f0 3f bf 26 90 21 3e
       -0.750804 -0.3891461 -0.7497693 0.15777645
000250 5f 0a 6c 3e 9c eb 58 bf 62 9d fe be 67 c2 18 3e
       0.23050831 -0.8473451 -0.4972945 0.14917909
000260 cd 24 6e be de 04 b9 be 4a 05 05 3e d5 03 49 3f
       -0.23256226 -0.36136526 0.12990299 0.7852147
000270 e0 74 94 bc fc 51 81 3d 7a a4 3a 3d 98 dc 12 3e
       -0.018122137 0.063144654 0.045567013 0.14341962
000280 b9 86 95 3f db 67 6c 3f 8d f8 f2 3e 88 2b 74 be
       1.1681739 0.9234597 0.47455254 -0.23844731
000290 f4 5b 3a 3e 80 cf 30 3f 7c f2 46 3f e0 c9 fb bd
       0.1819914 0.6906662 0.7771375 -0.12294364
0002a0 1c 95 28 3f ca 4e 5f 3d 1c 95 ed 3d b2 72 15 3f
       0.6585252 0.0545185 0.11600706 0.58378136
0002b0 c8 3b 2e bf d5 fe b7 bd 01 d7 01 be ab 63 12 3f
       -0.6805997 -0.08984152 -0.12679674 0.5718333
0002c0 14 01 c0 3e a8 5c 46 be 3b 71 b8 be fe a0 08 bf
       0.37500823 -0.19371283 -0.36023888 -0.53370655
0002d0 04 a0 19 3f dc 93 b0 be 8e 63 11 bd e0 84 43 be
       0.6000979 -0.34487808 -0.035495333 -0.19093657
0002e0 ff e0 2d 3f b3 55 2a bf ba d3 9d be be 29 e7 be
       0.6792144 -0.66537017 -0.30825597 -0.45149034
0002f0 c0 f3 31 bf 59 d4 97 bd b4 39 d1 be 93 cd 4a 3e
       -0.6951256 -0.07413549 -0.40864336 0.19804983
000300 f2 33 6d 3e 37 77 cd be 93 ba 27 bf 74 ce 46 3f
       0.23164347 -0.40130016 -0.65519065 0.7765877
000310 bc 4e 3c 3f a5 e2 14 3e 53 55 f0 3d fd cb e6 3e
       0.7355764 0.14539583 0.11735024 0.45077506
000320 a6 5a 53 3f 0b cc f8 be d8 8a 23 3d 94 05 47 3e
       0.82560194 -0.48593172 0.039927334 0.19435722
000330 80 27 a5 3e 28 51 8f 3f c3 38 41 3e fb cd f3 be
       0.322567 1.1196642 0.18869309 -0.47618088
000340 37 4f c1 be 44 37 cd bc 5e c8 8c 3f 94 35 0a 3e
       -0.3775575 -0.025050767 1.0998647 0.13497001
000350 fc fb 15 bf 51 bd bb ba 9d 36 91 bd 87 0c 07 bf
       -0.5858762 -0.0014323388 -0.07090495 -0.5275349
000360 69 7b e3 be 18 a4 d3 3e 0c 56 fe 3e 78 46 9a 3e
       -0.44430092 0.4133613 0.49675024 0.30131888
000370 3c 22 fc 3e 7f 42 01 be e7 d3 a1 3e 18 ea bc 3d
       0.4924487 -0.12623022 0.3160698 0.09224337
000380 8e d8 9b 3e d3 53 2f bf aa f1 48 bd 3d aa 5d 3d
       0.30438656 -0.6848728 -0.049058594 0.05411743
000390 4e 04 98 be 7f ec 7b bd ae db 2f 3d 20 99 fe 3d
       -0.29690784 -0.061504837 0.042934112 0.1243155
0003a0 72 a2 88 3e 82 72 78 3f e6 3f a2 3f 35 69 e2 be
       0.26686436 0.97049725 1.267575 -0.44220892
0003b0 6a 4f 82 be d4 7d bb bd a5 9c 51 bb da 2c 99 be
       -0.25451213 -0.09154859 -0.0031984237 -0.29917032
0003c0 f3 c1 8c 3f a0 62 8d 3f 91 f6 48 3f 53 ae 0a 3f
       1.0996689 1.1045723 0.7850123 0.5417225
0003d0 1a ea 2f be 90 22 e9 be 2a 81 b1 3d b9 dc 46 3e
       -0.17179146 -0.45534182 0.08667214 0.19420137
0003e0 8e 63 b7 be 90 37 ae be fb 1f a0 3f 9c d8 1f 3f
       -0.35818142 -0.34026766 1.250976 0.62439895
0003f0 d5 a0 4b 3d f2 f6 a6 3e 11 7b 8f 3e ce b6 ee be
       0.04971393 0.3261028 0.2802358 -0.46623844

v.v_net.0.bias f4 [64]
000000 af 4e a6 3c 8b 80 3f be 5d da 0f bf 90 ed 6a 3f
       0.020301191 -0.18701379 -0.5619257 0.9176874
000010 e8 6d a3 be a7 ce e6 3c 00 7e 69 bd 7c f7 bb be
       -0.3191979 0.028174711 -0.05700493 -0.36712253
000020 4c 45 8f 3e 21 ce 28 bf db ca 1f bf 4d 69 89 3e
       0.27982557 -0.6593953 -0.6241891 0.2683815
000030 be f1 0e 3f bc 75 6e bf 68 d4 3b be 85 8f a1 3d
       0.5583762 -0.931484 -0.18342745 0.07888702
000040 e4 89 2e be a2 43 02 bf a3 7a 2a 3f 04 13 a1 3e
       -0.17044789 -0.5088445 0.6659338 0.3145982
000050 98 d3 10 3e d2 60 29 3d 75 5c 9b 3e bb a1 33 3f
       0.14143217 0.0413521 0.30343977 0.70168656
000060 b7 cf 1f 3d c5 26 7e 3c f6 d8 61 be 05 c8 53 bd
       0.03901645 0.015512173 -0.2205542 -0.051704425
000070 50 62 3e 3c ed 7c 18 bf e5 84 09 3f d1 ee 8b be
       0.011620119 -0.5956562 0.53718406 -0.2733064
000080 ac 1e 7b 3f 3e 74 54 3f 67 c2 63 3e 9d f3 31 be
       0.98093677 0.8298987 0.22242127 -0.17378087
000090 65 c0 d2 be b1 40 02 bf f3 fa 92 3d ec da 19 3f
       -0.4116241 -0.5087996 0.07176771 0.60099673
0000a0 39 8c a8 be 7f ec b4 3c 1e 1e a3 3d c5 30 2e 3e
       -0.3291948 0.022085426 0.07964729 0.17010792
0000b0 a7 b5 01 be c7 05 70 3e f2 9a 11 3f 1c c8 c2 be
       -0.12666951 0.23439704 0.5687705 -0.38043296
0000c0 d1 60 af 3f a5 56 0a 3f 9f 29 0a 3f d2 b6 43 bb
       1.3701421 0.5403846 0.5396976 -0.0029863608
0000d0 5a 70 77 bf f6 ce 48 be 6f f8 2b be cc 27 31 3e
       -0.9665581 -0.196102 -0.16793989 0.17300338
0000e0 7a 1d 38 be 77 2d 3d 3d d4 d8 3b 3d 23 75 d7 bc
       -0.17979994 0.046185937 0.04586108 -0.026300972
0000f0 e6 a5 82 3e bc 75 9c bd f1 cc 89 3c 88 f6 89 bd
       0.25517195 -0.076396435 0.016821356 -0.06736475

v.v_net.2.weight f4 [64, 64]
000000 cb 1b f2 be e6 28 8f bd 44 d9 8a bc 8e 0d 45 3f
       -0.4728683 -0.06990223 -0.016949303 0.7697381
000010 cf bd 62 3e 6c ab 08 bf b8 e0 a5 3e 69 22 91 3d
       0.22142719 -0.5338657 0.3239801 0.07086641
000020 61 81 c7 bb 85 29 1d bf 6b 5c 68 bd 61 ed b9 bd
       -0.006088421 -0.6139148 -0.05672876 -0.090784796
000030 ed 4e 44 3e 5c 4e 0a bf 4b 2c 8b 3e 75 1a df 3e
       0.19170733 -0.54025817 0.2718223 0.43574873
000040 1a e9 8d be 45 88 6a be 5c bf e0 3e fb af 97 be
       -0.27716905 -0.22903545 0.43895996 -0.2962645
000050 6e d2 39 3f a8 31 5f be a5 ea 71 3e c8 42 26 3e
       0.72586715 -0.21796286 0.23624666 0.16236413
000060 53 a3 16 3f a9 64 46 3e 44 df 21 3f e8 ea 82 3e
       0.58842963 0.19374336 0.632313 0.25569844
000070 c4 28 90 bd 53 e3 8c bf 26 51 ce 3e 0a d8 a1 bc
       -0.070390254 -1.1006874 0.40296286 -0.019756336
000080 5c 05 24 3f 93 b3 14 3f 79 5e 1b 3f 54 73 b9 3e
       0.6407068 0.5808651 0.6069103 0.362208
000090 0e 96 be be e6 53 e2 be 75 04 e0 bd 45 50 d2 3e
       -0.37223858 -0.44204634 -0.1093835 0.41076866
0000a0 af 17 35 bf 6c 0c 3e be 8e 6f e1 3e 09 ee 3d 3e
       -0.70739263 -0.18559426 0.44030422 0.18547834
0000b0 30 38 9a 3e c6 66 82 be cf fa 00 3e fc 93 48 bf
       0.30120993 -0.25469035 0.12595676 -0.78350806
0000c0 ec 61 fc 3e 62 33 eb 3e 9a a6 0c 3f 63 16 e9 bb
       0.49293458 0.4593764 0.54941714 -0.0071132644
0000d0 20 0f 45 bf ee f6 20 be 14 0c 6b 3d e4 12 82 3d
       -0.76976204 -0.15719196 0.057384565 0.06351259
0000e0 dc a6 ac be dc 5e ab 3e 51 a5 87 3a a2 cc ed be
       -0.33721054 0.3347081 0.0010348951 -0.46445185
0000f0 f8 44 c5 be c9 54 30 3c 12 1b 8f be 7b ac 12 bf
       -0.3852918 0.010762402 -0.2795034 -0.57294434
000100 7e 77 05 3f a9 63 4a 3e 98 70 8d 3e 2f 1d 0f bf
       0.52135456 0.1976458 0.27624965 -0.55903906
000110 b1 b2 ef bc eb 58 e0 bd d0 0c eb be 16 22 09 be
       -0.029260011 -0.1095446 -0.45908213 -0.13391909
000120 f1 4a 62 bd 15 a6 b8 3e 1c 9d 14 3e 72 e9 0d 3f
       -0.05524725 0.3606421 0.14513057 0.55434334
000130 dc 2e ad be c4 6e 1a 3f 4c ba dc be 95 d8 5e bf
       -0.33824813 0.60325265 -0.43110883 -0.8704923
000140 e2 6e 47 be e0 73 e8 3e e7 9f d6 be ef 9d ea bd
       -0.19475892 0.45400906 -0.4191887 -0.11455905
000150 41 3f 35 bf 60 73 86 be 6e 53 c5 3e ca 69 be be
       -0.7079964 -0.262599 0.38540214 -0.37190086
000160 51 fe 0e bf 48 10 f3 be d9 2c 61 be c2 57 21 be
       -0.55856806 -0.4747336 -0.21989764 -0.15756133
000170 74 e0 96 3e a6 40 e2 3e 31 f7 a8 be 98 8c 35 3d
       0.2946812 0.44189948 -0.33001092 0.044323534
000180 4f f1 f4 be 36 62 f8 be dc 14 0d bf 6a a0 76 3e
       -0.47840354 -0.4851243 -0.55109954 0.2408463
000190 f9 f9 1b 3f ea b0 36 3e 9b df dd bd 82 ec a9 be
       0.60928303 0.17840925 -0.10833665 -0.33188254
0001a0 b5 b5 71 3d 8b e7 97 bc c1 0a a3 be 96 2b d1 bd
       0.05901118 -0.018543025 -0.31844142 -0.102133915
0001b0 43 2d 9a be 87 77 37 3e d9 98 35 be c0 bd 01 3f
       -0.30112657 0.1791669 -0.17734088 0.5068016
0001c0 10 47 d5 be 30 8a af be ac a4 0b bf 37 6d 84 3d
       -0.4165578 -0.34285116 -0.54548144 0.064661436
0001d0 8d ee f9 3e f6 b1 f7 3e 3f 36 f6 be 7d e2 af be
       0.48814812 0.4837796 -0.4808826 -0.34352484
0001e0 28 42 be 3d b5 b4 3f be 3a 30 3c 3e 8c c3 a1 be
       0.09289962 -0.18721278 0.18377772 -0.31594503
0001f0 69 94 e2 3e 95 b0 48 3e 15 2d 51 3f f1 c6 ac 3e
       0.44253853 0.1959861 0.81709415 0.3374553
000200 37 72 a6 be c1 58 25 bd e4 95 16 3e 80 c6 a1 3e
       -0.32509014 -0.040367845 0.14705616 0.31596756
000210 00 e9 a9 3e c5 dc 82 be a4 50 b2 3e 63 d1 1e be
       0.33185577 -0.2555906 0.3482715 -0.15509562
000220 4c 7d 66 be 5e 5c 4e be 46 57 1a bd 6c 55 11 3d
       -0.22508734 -0.20152423 -0.037680887 0.035481855
000230 07 0e 9a 3e 26 13 06 bf 08 b6 3d 3e 2d f6 0b 3f
       0.30088827 -0.5237297 0.1852647 0.5467251
000240 66 f9 7c be a7 ac ae be a5 97 68 3e 7b d9 72 3e
       -0.24704513 -0.34116098 0.22714098 0.23715775
000250 b3 3e e6 3e 93 02 4c be a1 04 85 be d4 88 b4 3e
       0.4496971 -0.19922857 -0.25980094 0.35260642
000260 e2 b5 c2 3d 03 c1 c9 bc 05 a2 ce 3e 29 2e fd 3e
       0.09507348 -0.024628168 0.40357986 0.4944928
000270 61 e2 ef 3e a1 12 9c be 9a 63 74 3e b9 d1 3d bd
       0.468524 -0.30482963 0.2386612 -0.046342585
000280 01 7b 0d 3f 4d 4e 52 bd 5b 87 9a 3e 7f 29 48 be
       0.55265814 -0.051344205 0.30181393 -0.1954708
000290 9f fa f8 3d 90 d8 35 bf 82 7b a3 bd b5 8a ed 3e
       0.12157177 -0.71033573 -0.079825416 0.46394888
0002a0 60 2f 56 be cc 32 e7 3e 29 50 c8 3e b3 7d c4 3d
       -0.2091651 0.45155942 0.39123657 0.09594288
0002b0 9a 0c 35 3d 52 a7 ed 3d 01 9c b2 3e 98 d8 a4 be
       0.04420147 0.116041794 0.34884647 -0.32196498
0002c0 a9 bb 08 3f cc df 78 3e ce 37 a4 3e 80 08 5b bb
       0.53411347 0.24304122 0.32073826 -0.0033421814
0002d0 70 2b c6 be 96 89 0a bd f4 33 a8 3e 73 9e 3f 3f
       -0.38705015 -0.03382262 0.32852137 0.7485115
0002e0 32 a2 38 3d 3c 2b b6 3e ac 4a bb 3e 9e 9c 01 3f
       0.045076557 0.3557986 0.36580408 0.50629604
0002f0 b8 d3 6b be e1 ea 5d be ae 13 aa be fe 65 09 bf
       -0.23029983 -0.2167163 -0.3321814 -0.5367125
000300 f5 1e 0a bf 9e 3d da be ca 56 ad be 78 a5 22 3f
       -0.53953487 -0.42625135 -0.33855277 0.63533735
000310 ee b1 73 be e9 9d 7c be a7 56 88 3e c3 2e bd be
       -0.23798344 -0.24669613 0.2662861 -0.3694974
000320 37 71 a9 3e b8 1a 02 bf 33 23 9b be c7 61 57 3d
       0.3309419 -0.5082202 -0.30300292 0.052583482
000330 33 d9 ac 3e a0 d9 ce be 9d f1 61 3f 79 66 e6 3e
       0.3375946 -0.4040041 0.882593 0.45000055
000340 ea 55 0d be 7c 63 98 be 8e 11 bb 3e 8c 32 7c 3e
       -0.13802305 -0.297634 0.3653683 0.24628657
000350 02 25 23 3e af 7a 07 be b9 28 d4 be e7 45 3b 3f
       0.15932086 -0.13230394 -0.4143732 0.7315354
000360 26 fa 13 3e 8d 6f 07 bd 5f 1d 26 be 68 c6 00 3f
       0.14450893 -0.033065367 -0.16222142 0.50302744
000370 03 9e 44 bc 26 b2 36 bf f0 58 19 3e d6 e0 81 bb
       -0.012000564 -0.7136558 0.14975333 -0.00396357
000380 fb 8e 7e 3e a0 e5 2a 3f 1f dc a8 3e da f2 d3 bd
       0.2485923 0.6675663 0.3298044 -0.10349055
000390 55 0b 7e be fc 25 4d bf c5 8b 67 bd bc 0b 02 3e
       -0.2480901 -0.80136085 -0.05652978 0.12699789
0003a0 56 2c 1c bf bb 14 76 be 7e 4e 11 3f 07 9d 35 be
       -0.6100515 -0.24031346 0.56760395 -0.17735682
0003b0 1e e2 62 3e 79 73 16 3d 45 07 6f 3e 31 8d f4 be
       0.2215657 0.036731217 0.23342617 -0.4776397
0003c0 98 94 be 3e d6 a9 ae 3e 12 a9 b8 3e b6 21 3a 3e
       0.37222743 0.3411395 0.3606649 0.18176922
0003d0 23 d1 4d bf bc a2 98 be d1 6f 39 3f c1 3d c2 3e
       -0.8039724 -0.29811656 0.72436243 0.3793774
0003e0 84 d1 fd 3d fd d7 e0 3e 53 b8 14 3e b6 86 8f 3d
       0.123934776 0.43914786 0.14523439 0.07008116
0003f0 74 c7 bf be 7c 2e 94 be d6 fa 72 be 5c 0d 4d bf
       -0.37456858 -0.28941715 -0.23728499 -0.8009851

v.v_net.2.bias f4 [64]
000000 89 77 e9 3e 68 ab 9f be 0b c1 36 3e e4 39 95 3e
       0.4559901 -0.3118546 0.17847078 0.2914573
000010 b3 30 f6 3e 6f 2c 94 3e 44 ae ac be 64 64 59 bd
       0.4808403 0.2894015 -0.33726704 -0.053074256
000020 4a 92 7a 3e d5 98 c6 3e 2b 3f 80 3e cb c5 72 be
       0.24469867 0.38788477 0.25048193 -0.23708265
000030 42 7c d1 3e 50 a5 ae 3e b1 55 a2 bd f1 07 8e be
       0.40915114 0.34110498 -0.079265006 -0.27740434
000040 6c 7f b5 be f4 5b 10 be 69 44 c1 be 26 6f f4 be
       -0.35448778 -0.14097577 -0.37747505 -0.4774105
000050 30 e7 9b 3e 6d b3 c2 3e 4d 7f 63 be 5f 52 37 3e
       0.3044982 0.38027516 -0.2221653 0.17902516
000060 23 88 e7 be 4d e6 99 be b3 fd a2 3e ea 60 24 bd
       -0.45221052 -0.30058518 0.31834182 -0.040131487
000070 a5 fc 1c 3e b3 1e 7a 3d d7 4d 27 3e a9 ca 9c 3e
       0.15330751 0.061064433 0.16338287 0.30623367
000080 04 f0 e2 be 3c 13 27 be 85 b8 cf 3e de 58 80 3e
       -0.44323742 -0.16315931 0.40570465 0.250678
000090 fa 3c bf 3e 60 10 ce be 32 55 bc be 0e d3 c1 3e
       0.3735121 -0.40246868 -0.3678375 0.37856334
0000a0 89 c7 d8 be 71 06 f4 be 78 9b 9c 3e b3 71 69 3d
       -0.42339733 -0.47661164 0.30587363 0.056993198
0000b0 8b 67 8e 3e 64 aa 31 3d 06 79 4c 3e 10 fe c3 be
       0.27813372 0.043375388 0.19968042 -0.38279772
0000c0 fd fa 7a 3e 4b 13 04 be bc bf 83 be 0c b1 cd 3e
       0.24509807 -0.12897985 -0.2573222 0.4017414
0000d0 5b f7 e0 3e 43 c3 b7 be 09 e5 a2 be 0d 2d 01 bd
       0.43938717 -0.3589116 -0.31815365 -0.031537104
0000e0 16 7d bd be a2 d8 c4 be a0 03 02 3e 04 96 9d 3e
       -0.37009495 -0.38446528 0.12696695 0.30778515
0000f0 08 38 e7 3e 4d 65 e8 3e 65 36 04 be 93 a8 df 3e
       0.45159936 0.45389786 -0.12911375 0.436833

v.v_net.4.weight f4 [1, 64]
000000 12 fc 74 40 83 34 6c c0 65 86 65 40 f4 2f 58 40
       3.8278852 -3.690705 3.5863278 3.3779268
000010 73 ea 5b 40 56 e4 88 c0 1d fa 4a c0 5c c1 83 40
       3.4361846 -4.277873 -3.1715157 4.1173534
000020 df 52 68 40 e1 d1 56 40 47 76 8b c0 0a af 88 40
       3.630058 3.35656 -4.358188 4.271367
000030 ca 54 7c 40 42 c9 59 40 b5 ef 8c 40 e7 82 56 c0
       3.942675 3.4029088 4.404261 -3.3517396
000040 25 ae 5e c0 79 77 70 c0 9a 27 8a 40 38 d3 83 40
       -3.479379 -3.757292 4.317334 4.1195335
000050 77 cf 60 40 2d ea 6a 40 4c d0 6c c0 b2 1c 72 c0
       3.5126626 3.670543 -3.7002134 -3.7830014
000060 45 a6 5c c0 95 c9 53 c0 5b 7e 53 40 8e aa 73 40
       -3.4476483 -3.3091786 3.3045871 3.8072848
000070 e4 f9 6c 40 63 c6 63 40 a6 ef 73 40 a2 34 60 40
       3.702752 3.5589836 3.811502 3.5032125
000080 95 2b 85 c0 fa 9f 86 c0 3d a1 64 40 b7 86 86 c0
       -4.16157 -4.2070284 3.5723412 -4.2039447
000090 9b 93 62 40 40 b2 86 40 f3 15 5e c0 5c 10 58 40
       3.5402591 4.209259 -3.4700897 3.3759985
0000a0 c3 94 63 c0 75 6a 6d c0 22 bb 5f 40 ee 5f 79 c0
       -3.5559547 -3.7096226 3.4957967 -3.89648
0000b0 7f c6 60 40 6b 05 6d 40 00 10 84 c0 26 81 5d c0
       3.5121152 3.7034557 -4.126953 -3.4610076
0000c0 2e bd 5a 40 89 f8 6f c0 7c 19 81 40 b3 da 75 40
       3.4177966 -3.7495444 4.034361 3.8414733
0000d0 33 45 5a 40 c1 77 5a c0 75 4f 56 c0 93 82 5e c0
       3.4104736 -3.4135592 -3.3485997 -3.4767196
0000e0 a1 5b 61 c0 bd a9 5d c0 e9 de 75 c0 f1 76 56 40
       -3.5212176 -3.463485 -3.8417304 3.3510096
0000f0 64 8a 90 c0 5e 32 5e 40 97 55 5f c0 a1 4b 80 40
       -4.5168934 3.4718242 -3.489599 4.009232
