tmp/experiments/RN4 False,True,True/pyt_network_save/model save37000.pt (torch_old, 314943 bytes, 33 tensors)

pi.pi_net.0.weight f4 [64, 5]
00000000: a779 13be 5a88 bfbe 6949 093e 6bab ca3e
00000010: 53b8 94bd 5f19 d73e 1c37 19bb edff cabe
00000020: fabd 43be 477e e53d 1164 da3e 95ad 6ebe
00000030: e67e d73e 6f4e acbe d5cf 973e 82f3 af3d
00000040: c93c a7bd ff47 76be e82d b1be 826e 8f3e
00000050: 0008 f63e 0466 bf3e 96b9 593e 6f49 56bd
00000060: 8614 04bd 5dec 9cbe 4cec d03e 4fe7 693d
00000070: 4d6b 01bf 8358 f6bd 07d9 25bf c593 b6be
00000080: 9e52 863e 357e 363e cbe3 f9bd 4b0b 5a3e
00000090: dc56 2ebf 6b74 23bf 1c58 013f bab6 773d
000000a0: 919e 91be a317 3c3b 5694 953e e1c5 70be
000000b0: d4d4 debd 9122 19be a2ef 7a3d 0923 833e
000000c0: bbd9 6d3e fecf b6be cc21 773e 1c73 73be
000000d0: e1f6 21bd 58b5 b4bc d58f 55bc c1e8 d8bc
000000e0: 0f9b 0d3e d069 91bb d6f6 7e3e c3ba 9a3b
000000f0: fdf1 23bf 190a 693e 336c e43e 6114 66be
00000100: dbb8 e43e 8a2a 90be 1254 543e 3d38 0ebf
00000110: 6705 643e b943 c0bc 3634 bbbe 350b fabe
00000120: 31f8 92be 8d49 7ebe 23df 3b3e d6e5 81be
00000130: 4027 55be 33b9 853e f346 f13e b088 30be
00000140: a79f 15bf a9e7 e63d a400 a93e e21b 383c
00000150: a1c4 93be b313 49be ff85 ecbb 2abc 863e
00000160: ff4b 993d d511 0cbf 0de3 61be d952 2cbe
00000170: 7c05 0b3d 0313 c03e ad50 f6bc b44b c53e
00000180: 9c4a 8f3d d1cc 35bd 6dde 333e bbc1 65bd
00000190: 65fa c23e d8d5 45be 4d22 90bd 1191 543e
000001a0: ea29 35bd 2db3 5b3f a6b3 193e 58f5 f9bc
000001b0: 08a1 6f3e 1034 11bf f4dc 783e af3b 16bd
000001c0: a1a6 13be 12a6 193e 9245 7b3e 294c af3e
000001d0: f7c2 33bd 9869 033e 2c8b 993c 792a 2f3e
000001e0: 4fa9 24bf d143 483d 3678 a9be 4b2c 18bd
000001f0: e88c 1c3e db90 04be d175 303e e108 0d3e
00000200: bf1d 913b c9ca 11bf ea79 c13e ed69 ce3d
00000210: 1a73 4b3c ab2d 503e a5d5 d3bd ff4c cf3d
00000220: a738 e43e 0373 343e 0d1c 99be c80d 9ebe
00000230: 7493 b3bd a7bb 353e 60a0 d2bd 07ad 92be
00000240: 46ed 683e 8f26 a4be a63e aa3e 4e00 a8bd
00000250: 6843 d83e d8be b5be d0cb 2e3d 948e 873f
00000260: 8409 9a3e cf4a 103f 340a 283e 8f16 a1bd
00000270: 98e5 78be dbd9 e6be 7c5a b13e f1d7 b83c
00000280: aeb7 25be f8ea c2be 70ca 213f 5ff8 093e
00000290: d4d2 13be 426a b3be 7fcf b7be faa1 883c
000002a0: f0f8 253c 89c2 a8bd 0898 273f 5a7b 683e
000002b0: ae6b db3e c76a d0be 759b 60be b00d 47bf
000002c0: 2db3 36bb 03cd e93d fa78 c3be 054a 4e3e
000002d0: 738f 1d3e 50ab f23e 94b3 47be 32a0 ec3e
000002e0: 595d 253f 595d b5be ba49 143f 079e 003f
000002f0: 6ec1 cebd 6728 0ebe d641 cd3e fd45 66bd
00000300: 356a a7be 411f e03e c211 cbbd 8850 debd
00000310: f689 c1bd ad3b e03e 57a1 2abf 3f49 053e
00000320: dfdb 763e f9b1 8bbe 2886 853e de55 e53b
00000330: b94b bb3b cf69 52bf 5221 c6be 80b7 03bd
00000340: 6124 823d f28d 1ebe edea 60be ffb2 40be
00000350: a1a0 0d3e 3a4a 9ebe ed54 cb3e 5899 583f
00000360: e094 bb3f 3d20 723e 3118 aebd 51ae 5b3d
00000370: d068 7e3e 6ef7 04be a214 d03e d506 1cbd
00000380: f418 22be ffc2 18be dfa6 00be eb31 f8bb
00000390: a00c 403e 8441 0d3e 87a8 13bf b5c0 f2be
000003a0: 56df de3e 4e05 20bf 7d7d 8b3c 1cb1 07be
000003b0: 5375 bc3d 10e5 31be 2a60 21be c7eb 23be
000003c0: 1238 453e 95d8 edbe 1b86 173f 025f 92be
000003d0: 1307 f5bd a709 3e3e b722 063f 7ad0 293e
000003e0: 0804 d9be acfb 8fbe fbda d0bb 9fbe bebc
000003f0: d66e 8a3d fa63 17bd 7df8 54bd 5fcc ffbe
-0.14401875 -0.37408715 0.1340691 0.39583907 -0.072617196 0.42011544 -0.0023378795 -0.3964838
-0.19115439 0.11205726 0.4265447 -0.23308404 0.42089003 -0.3365359 0.2965075 0.08591367
-0.08165891 -0.24050902 -0.34605336 0.28013998 0.4805298 0.3738252 0.21262202 -0.052316125
-0.032246135 -0.3064908 0.4080528 0.05710536 -0.50554353 -0.12028601 -0.6478428 -0.35659614
0.26234907 0.17821582 -0.12201651 0.2129337 -0.68101287 -0.63849515 0.5052507 0.060476996
-0.2844129 0.0028700612 0.29214734 -0.23512985 -0.108804375 -0.14954592 0.061263688 0.25612667
0.23227589 -0.3570556 0.24133986 -0.2377438 -0.039542083 -0.022059128 -0.0130347805 -0.026478173
0.13828681 -0.0044376627 0.24898848 0.0047219708 -0.6404112 0.22757758 0.446138 -0.22468711
0.44672284 -0.28157455 0.20735195 -0.5555456 0.22267686 -0.023469793 -0.3656327 -0.48836675
-0.2870498 -0.24832745 0.18346839 -0.25370663 -0.20815754 0.26117858 0.47124442 -0.17239642
-0.58446735 0.112746544 0.330083 0.0112371165 -0.28860953 -0.19636421 -0.007218122 0.26315433
0.07485198 -0.5471471 -0.22059269 -0.16828479 0.033940777 0.37514505 -0.030067766 0.3853432
0.069966525 -0.04438478 0.17565317 -0.05609296 0.3808166 -0.19319856 -0.07037792 0.20758463
-0.044229425 0.85820276 0.15009937 -0.030512497 0.23401272 -0.56720066 0.24303037 -0.036678012
-0.14419033 0.15004757 0.24538258 0.34237793 -0.043887105 0.1283325 0.01874312 0.17106046
-0.64320844 0.0488928 -0.33099526 -0.037151616 0.15288126 -0.12945883 0.17232443 0.13772918
0.004428595 -0.5695005 0.37788326 0.100787975 0.012417579 0.20329921 -0.10343484 0.10122108
0.44574472 0.17621998 -0.29904214 -0.3086989 -0.08768359 0.17747365 -0.10284495 -0.28647634
0.22746763 -0.32060668 0.33250922 -0.08203183 0.42238927 -0.35497165 0.04267484 1.0590386
0.30085385 0.5636415 0.16410142 -0.07865631 -0.24306333 -0.45088086 0.34639347 0.022563906
-0.1618335 -0.38069892 0.6319952 0.13473652 -0.14435893 -0.35042006 -0.35900494 0.016678799
0.010130152 -0.0824023 0.65466356 0.22703305 0.4285559 -0.40706465 -0.21934302 -0.7775526
-0.0027877793 0.11416056 -0.38178235 0.20145424 0.15386753 0.47396326 -0.19502097 0.4621597
0.6459556 -0.3542278 0.57925 0.5024113 -0.100954875 -0.138826 0.4008929 -0.05621909
-0.32698217 0.43773845 -0.099154964 -0.10855204 -0.09450142 0.4379553 -0.66652435 0.13016222
0.24107312 -0.2728422 0.26078916 0.0069987616 0.005715814 -0.821927 -0.38697296 -0.03215742
0.06354595 -0.15483835 -0.21964617 -0.18818282 0.13830806 -0.30916005 0.3971323 0.84608984
1.4654808 0.2364511 -0.08500708 0.053633038 0.2484467 -0.12985012 0.40640742 -0.038092453
-0.15829831 -0.14918135 -0.12563656 -0.00757431 0.18754816 0.13794523 -0.5767903 -0.4741265
0.43529767 -0.62508094 0.01702761 -0.13251156 0.09202065 -0.17372537 -0.1575934 -0.1600791
0.1925967 -0.464543 0.59189004 -0.2858811 -0.1196424 0.1855837 0.5239672 0.16583434
-0.42385888 -0.28121698 -0.0063737608 -0.023284255 0.067594215 -0.03696058 -0.05199479 -0.4996061

pi.pi_net.0.bias f4 [64]
00000000: 6a0e 9f3d fcfc 343e 14a5 b6be 3146 9e3e
00000010: 077a 933d 7e7e 273e f7be 8a3d 89e1 dbbe
00000020: 6655 9f3e 71e9 00bb 7c09 11bf c36a f6be
00000030: 536b f23d d061 d63e 1345 d3be f033 3cbe
00000040: a0a0 dc3e 1145 713c 65f9 95be e7d0 64be
00000050: f4ed 3fbe e4b4 9abe 40be 97be 1e62 03be
00000060: 5aba 203e 4fb8 89be 84cd e1be 20b9 453d
00000070: 461f fe3e 8b8a 03be bf4a 2a3f 67aa 153e
00000080: 0994 15be 708e 50be 6810 2cbe b214 9c3e
00000090: fffc b83e 3746 a93e 278f 7cbe dd64 81be
000000a0: bcb9 773e 4ee2 803d 1778 913e 1be9 1b3f
000000b0: 5219 21be 0deb 73be 8211 7cbe 90b6 79bd
000000c0: 9e8b ccbe f951 fa3d 1404 e0bd 1ca6 9f3e
000000d0: 4c76 a03e 1389 1bbd ffd2 c0be e919 fe3d
000000e0: 8cf7 58bf 45c7 2fbe 8182 ca3d c792 12be
000000f0: 9b82 d2bd 1e89 0b3d 0b34 cc3e 7ec1 11be
0.07766421 0.17674631 -0.3567282 0.30912927 0.07201009 0.16356847 0.06774705 -0.42945507
0.3111984 -0.0019670392 -0.56655097 -0.48128328 0.11836877 0.418715 -0.41263637 -0.18379188
0.43091297 0.014725939 -0.29291835 -0.22345315 -0.18743116 -0.30216134 -0.29637337 -0.12830397
0.15696087 -0.2689843 -0.44102108 0.048272252 0.49633235 -0.12845819 0.66520303 0.14615785
-0.14607252 -0.20366836 -0.16803133 0.3048454 0.3613052 0.33061382 -0.24663983 -0.25272265
0.24191946 0.06293164 0.28411934 0.60902566 -0.15732315 -0.23820134 -0.24616054 -0.06096512
-0.3995027 0.12222666 -0.10938278 0.3118142 0.31340253 -0.03797252 -0.37660977 0.12407286
-0.84752727 -0.17165859 0.09888173 -0.14313804 -0.10278817 0.034066312 0.39883456 -0.14233968

pi.pi_net.2.weight f4 [64, 64]
00000000: 887c 09bf fecd b93e c264 0f3e def7 cc3e
00000010: 8cdd 02be 4b0d d13c a64c c6be a1aa 95be
00000020: 603e 05bd 1ac0 a8be 4c99 d0be 6f73 e3bd
00000030: 4c36 2dbe b74d b33d 7069 d2bd 37a9 5bbe
00000040: bd74 993d 966d fd3d 62e6 85be d187 f43e
00000050: 64af 463d 6393 2e3f bf88 053e e661 173e
00000060: 1de0 4abc aedc 503e 708b 213e dff1 acbe
00000070: 77c0 d8bd 8467 19bd 47f6 173f 03a1 0d3d
00000080: 6a02 aebe 02cd abbe adfc 523f 3eec f2be
00000090: d8af 723e a34c 113e d27b 963e a02a 10bf
000000a0: 29f5 1abe 5874 05bf 5e79 d03d e3dc d83d
000000b0: 77d2 b9be 659e ea3e 1404 4d3e a840 f83d
000000c0: 5f2e d3be 4887 2f3e 4e02 9bbc a5f1 3ebe
000000d0: dbaa 8e3d c481 e03d e01f 11bb dc03 e53d
000000e0: 0f68 a5be 5856 90be 1b0e f43e 32af cabe
000000f0: 8175 c3bd c87f 85be f34b 183e 3147 393e
00000100: d93e 613e 21eb 9a3d f432 4c3c c7f3 dcbe
00000110: 82e8 41bf efc6 8e3e b344 d03e df0f cf3e
00000120: 7985 853c a325 8d3e 92db a53d 07de d23d
00000130: 3485 ebbd 5137 09bf bf16 8d3d 77b1 a63d
00000140: fe20 43be 90c2 323c 4f67 cc3e e1d1 92be
00000150: df52 7c3e 0059 28bd 316d d03d dfbb eebe
00000160: 4804 ebbd 7b61 55be 11a3 aabe 1873 12bd
00000170: e9bf f13d 0779 96be 245a 21bf 5fc6 67be
00000180: 8b95 6a3e 5bdc a33e 1046 1ebf d923 aebe
00000190: 3ea5 f6be 8d2d 16bf 89f2 6ebe 58fc 1d3f
000001a0: 4649 773d a5c5 433f cd09 26be 422d 1abf
000001b0: a8fc 9fbc bc48 603e 61c7 fc3e c9ea 363d
000001c0: 5748 383e c1d7 6dbe fd54 8d3e 2dd5 61be
000001d0: 6edd 193e db41 25be 0735 023f 8210 bc3e
000001e0: 0ba6 053f 8129 063e 6834 08bf 969e 3ebe
000001f0: 1d6b 6b3e 7965 6d3d a00f bcbe e270 e7bd
00000200: d876 eb3d 806b d4be 9d74 023d 0483 06bf
00000210: 0fc0 363e 234e c2be 2e7d d1bd 15c3 da3d
00000220: a1ac 9abe 36ca 6ebd 80c7 edbd d2c5 1e3e
00000230: effe ce3d 85f4 81bb c45e 853e b7ae 213e
00000240: 1d1f 203e ebbc 43be d74a 9b3d 8f42 183e
00000250: 8477 0a3e 6983 a23d b9c5 a83e 633a b63d
00000260: 2bf7 71be 6286 99be 02bc 2a3e 99de 9ebe
00000270: 3b63 10be f3d9 393e dc9d 95bd b93d be3e
00000280: 5ac2 cbbe e7b5 d83d 332a 4dbd 428a 16bf
00000290: 26dd 1d3e c856 ec3e 77ef 1b3f d351 e7be
000002a0: 3201 853e 7219 d83d 8f99 c9bd 8bfe 563e
000002b0: 71d7 a23d 1216 5a3e e67a b8be c888 36bf
000002c0: bc7b b7bd d6ed f0be 5379 debe af60 913e
000002d0: 7125 88be 19f0 613e af53 e6bb 61a9 bbbe
000002e0: cc88 cfbe fcc8 f33d ebac ed3c cd20 d93c
000002f0: 6e97 553e e794 4dbe f456 ff3c b951 90be
00000300: a599 e5be 0d4c 8c3e 448c 6e3d 10d5 f23b
00000310: 8f4c 93bd 3cfd 7bbe f137 8b3e d52c 5a3d
00000320: 8b40 8b3c 78e5 003f 2896 133e d298 ddbc
00000330: b739 bcbe 6367 cfbe 302d 033f f966 7a3e
00000340: f2f0 ad3d 18ee 33bf 6e57 20bb 8ec0 fcbe
00000350: 3ae3 ebbc 8850 1bbf d64a 68be 7326 26be
00000360: d137 953d c4a0 95bd eb85 65bd ef4e c6be
00000370: 098a 9ebe 4456 b63d ccfc 8dbe 8417 153c
00000380: 767c 8b3d 0e31 103e ee61 acbe 6e52 d93e
00000390: 191f 55be df63 6a3e cbc5 0cbe 6e11 4b3e
000003a0: d7e5 cebd 7776 e53e 0f25 133e 2c93 e6bd
000003b0: 86a8 753e 3005 923e b285 5abc b839 d83d
000003c0: e903 8b3e 9835 10be ddcd bd3c 1eca 8abd
000003d0: 4d99 3e3a 02fb 24bf 1e16 843d 5772 25bf
000003e0: de06 fa3e ba6c 9a3e d2af 54bd 6dc8 ec3c
000003f0: 5368 443e 8c98 dfbd b175 2abf bb04 8abd
-0.53705645 0.36289972 0.1400328 0.40032858 -0.12779826 0.025519034 -0.38730353 -0.29231742
-0.03253019 -0.32959062 -0.40741956 -0.111060016 -0.16915244 0.08755057 -0.10274017 -0.21451269
0.07492969 0.123744175 -0.2615233 0.4775987 0.04850711 0.68193644 0.13040446 0.14783439
-0.012382534 0.20396683 0.15775847 -0.33778283 -0.10583585 -0.037452236 0.59360164 0.03457738
-0.33986217 -0.33554846 0.824168 -0.47445863 0.23699892 0.14189391 0.29391342 -0.5631504
-0.15132584 -0.5213065 0.10179399 0.10589006 -0.36293384 0.4582397 0.20021087 0.12121707
-0.41246316 0.1714145 -0.018921997 -0.18646868 0.06966182 0.10962251 -0.0022144243 0.11182377
-0.32305953 -0.28190875 0.47667012 -0.39586788 -0.095438965 -0.26074052 0.14872722 0.18093564
0.2199663 0.075643785 0.01246332 -0.43154737 -0.75745404 0.2788615 0.40677413 0.40441796
0.016298996 0.27567777 0.0809852 0.102962546 -0.11500016 -0.5360003 0.06889104 0.081393175
-0.19055554 0.010910645 0.39922568 -0.2867575 0.24640988 -0.041100502 0.101770766 -0.4662771
-0.11475426 -0.20837967 -0.33327535 -0.035754293 0.11804182 -0.29389212 -0.6302817 -0.22634266
0.22908609 0.32004055 -0.61825657 -0.34011725 -0.48172945 -0.58663255 -0.23334707 0.6171317
0.060372613 0.76473457 -0.16214676 -0.6022531 -0.019529656 0.21902746 0.49370864 0.044657502
0.17996345 -0.23226835 0.27603903 -0.22053976 0.15025875 -0.16138403 0.50862163 0.36731344
0.52206486 0.1310177 -0.53204966 -0.18615183 0.22990079 0.0579581 -0.3673067 -0.113008276
0.11497277 -0.41488266 0.031849492 -0.52543664 0.17846702 -0.3795024 -0.10228954 0.1068174
-0.3020983 -0.058298312 -0.11610317 0.1550515 0.101072185 -0.0039659166 0.26048863 0.15789305
0.15636869 -0.19115035 0.07582634 0.1486914 0.13522154 0.07935221 0.3296335 0.08897855
-0.23629443 -0.29985338 0.16673282 -0.31029204 -0.14100353 0.18149547 -0.073055 0.37156466
-0.39796716 0.1058157 -0.050089072 -0.58804715 0.15416393 0.4615996 0.6091227 -0.45179614
0.25977474 0.10551728 -0.09843742 0.20995538 0.079512484 0.21297482 -0.36031264 -0.7130246
-0.08959147 -0.47056454 -0.43451938 0.28394076 -0.26591066 0.22064246 -0.007029019 -0.36652663
-0.40534055 0.11903569 0.029013118 0.026504898 0.20858547 -0.20076333 0.031169392 -0.2818735
-0.44843784 0.27401772 0.058239236 0.007410653 -0.07192337 -0.2460832 0.27191117 0.05326541
0.01699855 0.5035014 0.14412749 -0.02705041 -0.36762783 -0.40508565 0.51240826 0.24453343
0.08493222 -0.7028518 -0.0024466175 -0.49365658 -0.028794874 -0.60669756 -0.22684798 -0.16225605
0.07286037 -0.07306054 -0.056035917 -0.38732097 -0.30964687 0.089031726 -0.2773193 0.009099845
0.068108484 0.14081213 -0.33668464 0.424457 -0.20812644 0.2288966 -0.13747327 0.19830868
-0.10102432 0.44816944 0.14369605 -0.112585396 0.23990068 0.28519583 -0.0133375395 0.10557884
0.2715142 -0.14082944 0.023169452 -0.06776832 0.00072707684 -0.6444551 0.06449531 -0.64627594
0.48833364 0.30161077 -0.051925488 0.028904164 0.19180422 -0.10917768 -0.6658583 -0.067391835

pi.pi_net.2.bias f4 [64]
00000000: 6ea7 423e 8b05 febe 6507 923d f4d7 97be
00000010: 35ca 843e 90fa 4abe 5fe6 03bf 53d0 9fbd
00000020: 1017 d83d 011d 6e3e 96ad 6cbe 97e6 8e3e
00000030: 6fab a5bd c213 b0bd ec4b 233f 3455 413c
00000040: 683e db3d 1603 06be db6d 903c 2197 9e3e
00000050: fb37 05be c870 37be 0d8c 8dbe 58a8 043f
00000060: 1193 7f3d 9248 77bd e518 07be 651e 21bd
00000070: 88a9 4ebe 676f 333d f55f a53d aa44 24be
00000080: 9ae4 d4bd ddab 91be e529 fdbd 9f7d 4c3d
00000090: 589d c53c 385f e6be 3449 9fbe 45fc 893d
000000a0: a7ed adbd adca 37bf 2e07 8e3c 3520 4cbc
000000b0: f2ae 30bf a712 dcbe 5fa7 aebe ba01 de3d
000000c0: a595 d33e 698d 3b3e 591e 77be e51b 723d
000000d0: bfaa 3cbe 6458 e7bd c174 17be a6a4 0bbf
000000e0: e2cc 113e 830f 2e3f 6808 efbd 5884 873d
000000f0: 16a0 b43d 0117 adbe 343d 84bd 92f2 c33e
0.19009182 -0.49613604 0.07130317 -0.29656947 0.25935522 -0.19822145 -0.51523393 -0.078034066
0.10551274 0.23253252 -0.23113093 0.279103 -0.08089339 -0.085975185 0.6378772 0.011800099
0.107052624 -0.13087115 0.017630508 0.30974677 -0.13009636 -0.17914116 -0.27645913 0.5181937
0.062396113 -0.060371943 -0.1319309 -0.039335627 -0.20181859 0.043807413 0.08074943 -0.16041818
-0.10395165 -0.28451434 -0.123615064 0.04992449 0.024122879 -0.4499452 -0.31110537 0.0673757
-0.08492594 -0.71793634 0.017337408 -0.012458851 -0.69016945 -0.4298298 -0.3411207 0.10840173
0.41325107 0.18315662 -0.2413267 0.059108634 -0.1842451 -0.11296156 -0.14790632 -0.5454811
0.14238313 0.6799242 -0.11671525 0.066170394 0.088195965 -0.33806613 -0.06456986 0.38271004

pi.pi_net.4.weight f4 [256, 64]
00000000: 7d3a 82be a2db 8a3d 5188 883d c3de 8c3e
00000010: 8694 0fbc 58cc 713e 828d 8f3e f25a 90bd
00000020: c305 ca3c 27cc 4abd 29b3 ee3d 207d e3be
00000030: d1d9 1a3d 5f90 733e 9977 99be f99b 4abe
00000040: b0ba c9bd a52b dd3d 991f 053c c8c0 c1be
00000050: dacf 533e 4c06 383e 38b1 873d f485 48be
00000060: 703a aa3d e5ec 673e 58ab c43e 8826 fe3d
00000070: 462f 8c3e cfaa afbd 6c32 6c3e 9453 d73d
00000080: 101f 853e bcf2 ad3e eded 173d bd0e 29be
00000090: e7f0 f6bc b645 893d 1207 8a3e 7dd6 b5be
000000a0: 8862 563d b5eb 143e ae61 f0bd 2b53 223e
000000b0: 5c78 e73e 7cbb 843e 6d8e 563e 93ac 0ebe
000000c0: 69f3 89be 978d 90be a9a2 17be 862f 723e
000000d0: a515 2d3e c2e3 653d ebd4 a93e 3ec2 9b3a
000000e0: fb6c 4cbe 3a4f 85be 6ef1 2c3e f6d6 8b3c
000000f0: b0b7 54be 5b5f 3c3e 7f0a 82be dff0 e1bd
00000100: aa50 383e 3dfa 2bbe 0797 ba3e c419 d639
00000110: d8f9 13bf ab67 10be 2cdc 373e a56f 99be
00000120: 99aa 00be 2325 0c3d 5c23 9fbc 1af1 b0bd
00000130: 5b5e 9f3c ae55 21be 8c36 0abe a9f9 dfbb
00000140: f0b0 bd3d c54e a43d df30 5ebe 6623 05be
00000150: b411 fb3c 787d 3d3d 89ca 5d3d 5696 d1bd
00000160: 091d 57be 7447 edbd 63c0 983e b22d ffbe
00000170: af38 9b3e bce2 b1be ce62 7cbc 20c0 4dbe
00000180: 92e8 53bc 200f ba3e 94b9 cb3d eb70 723e
00000190: 3901 0fbe 85d6 8f3e caeb 09bd b9b5 093e
000001a0: 22a4 d6bd eefd 07be 5f67 203e 6440 e53d
000001b0: a9f3 b0bc e78c 983d 3308 e1bd 6bdf a5be
000001c0: cffb 0ebe dbe9 97bd 7560 fc3d 172d 76bd
000001d0: d009 653e c278 8e3e 3e57 a0bd a343 833e
000001e0: 6598 283d 2c5d 4fbd e66c fa3c fc3c 0d3e
000001f0: 6023 bfbe f2ee d53d d7ba b1be 3818 3ebe
00000200: 262c dc3d 08f6 233e 5002 6bbd 52e0 22bd
00000210: 0860 333d 6330 eebc 7b29 023d 83f3 863e
00000220: 9f7b d43d 5748 2e3d 3231 72be 2f2a 8bbe
00000230: 0a08 893e 00d1 11bf 8f88 793c 49d9 2d3e
00000240: 4d96 86be 6fb9 6dbe af85 e23d 20cf a1bc
00000250: a6d6 b1bd 0804 dd3e 0326 08be 2d47 b1bd
00000260: fbf4 283f 278e 32be 5810 163f 6034 fabe
00000270: 41bf 993e 6da9 3f3e aad1 ec3e 0de4 433f
00000280: 521c d73e 6751 ca3d e2a3 d2bd 1288 babd
00000290: 0512 a0be c3bc 66be 7dc6 19bc 56d3 cfbe
000002a0: 69c8 dfbe 3f93 4f39 fcd4 3abd 617f 5dbe
000002b0: 30b9 31bd 5a38 093e 994d 9d3d 393d 29bf
000002c0: 5978 8c3d 0e25 a33d 639b b83e ced9 2e3e
000002d0: 6ecc 52be 3b1c 003f ec45 043e fc08 03be
000002e0: d7a7 443e a3d1 22be 5562 133f 5f10 8bbe
000002f0: 5cc8 dabe 6a7e 8b3e ad20 13be 7225 653e
00000300: 86db f13e 9104 42bf aae2 eb3d a2c6 ecbe
00000310: dc7f ea3e f702 38bf 5a04 e3be 3c06 003f
00000320: 6b71 323f 1e19 533f 3701 34be bbad 983e
00000330: ae15 4f3f 7bc5 dfbe 2dae cd3e 19d3 023f
00000340: 60ad 0dbe f963 5fbe 4941 36be e586 1e3f
00000350: d7c6 e3be e380 dcbe 07ce 24bf 74c9 d83e
00000360: 8216 1a3f aa27 15bf 19ba 853b 5805 b43e
00000370: 5074 47bd bfa2 153f ea64 5d3f e0b0 99be
00000380: 281f 703f a046 34be e5cc 27bf e8b0 313f
00000390: 1338 803e 9ce1 23bf 0c94 32bf bf7b e83e
000003a0: 63bc 1a3f dede dbbe 3f36 513f cf4b 4dbf
000003b0: 7b64 b6be 1a0a 27bf 37e7 22bf 7ae6 d4bd
000003c0: 9973 343f 7a79 193f f924 a93e 5a85 52bf
000003d0: d218 47bf ecfb debd 7ef3 02bf 3f05 26bf
000003e0: 2c3f eb3e a22f de3e e25d 313f 2e7a 40bf
000003f0: a293 553e 91a7 15be dc76 2bbf 137d a13e
-0.25435248 0.06780173 0.06666625 0.27513704 -0.008763438 0.23613107 0.2803765 -0.070485964
0.02466095 -0.0495111 0.11655266 -0.444314 0.037805382 0.23785542 -0.29974058 -0.19786061
-0.09850061 0.1079934 0.008125209 -0.37842393 0.20684758 0.17971152 0.06625599 -0.19582349
0.08311927 0.22648962 0.38411975 0.12409693 0.27379817 -0.08577501 0.2306611 0.10513988
0.2600026 0.33974254 0.037092138 -0.16509528 -0.030144168 0.067027494 0.2695852 -0.35515204
0.05234006 0.1454304 -0.11737381 0.15852039 0.45209014 0.2592429 0.20952769 -0.1393302
-0.2694352 -0.28233024 -0.14808144 0.23650941 0.16902788 0.05612541 0.33170256 0.001188345
-0.19963448 -0.26037008 0.16888973 0.017070275 -0.20773196 0.1839575 -0.25398633 -0.11032271
0.17999521 -0.16794677 0.3644335 0.00040836458 -0.57803106 -0.14102046 0.17955083 -0.2996799
-0.12565078 0.034215104 -0.01942604 -0.086397365 0.019454172 -0.1575534 -0.1349737 -0.0068351817
0.09262264 0.080228366 -0.2169833 -0.13001785 0.03064809 0.046262234 0.05414823 -0.102337524
-0.2100717 -0.11585894 0.2983428 -0.4983955 0.30316684 -0.34743297 -0.015404416 -0.20092821
-0.012933867 0.36339664 0.099475056 0.23675887 -0.1396531 0.28093353 -0.03367213 0.13448228
-0.104805246 -0.1328046 0.15664433 0.11193922 -0.021600561 0.0744875 -0.10987892 -0.32397017
-0.13963245 -0.07417651 0.12323085 -0.060101595 0.22367024 0.27826506 -0.0782914 0.2563754
0.04116096 -0.050625965 0.030569505 0.13792795 -0.37331676 0.10445966 -0.3471286 -0.18563926
0.10750608 0.16011822 -0.057375252 -0.03976471 0.043792754 -0.029075807 0.03177784 0.2635766
0.10375141 0.042549457 -0.23651579 -0.2718062 0.26763946 -0.56959534 0.015230312 0.16977419
-0.26286545 -0.23215269 0.11060654 -0.019752085 -0.08683519 0.43167138 -0.1329575 -0.08656154
0.6599881 -0.1743704 0.5861869 -0.48868084 0.30028728 0.18716975 0.4625371 0.7651985
0.42013794 0.098788075 -0.102851644 -0.091079846 -0.31263748 -0.22532944 -0.009385702 -0.40590924
-0.43707588 0.00019795912 -0.045613274 -0.21630622 -0.0433895 0.13400403 0.07680816 -0.66109043
0.06858892 0.07966052 0.3605605 0.17075273 -0.20585796 0.50043076 0.12917298 -0.12796396
0.19204651 -0.15900283 0.5757192 -0.27160928 -0.42730987 0.27244884 -0.14367934 0.22377566
0.47237796 -0.7578822 0.11517842 -0.46245295 0.45800674 -0.71879524 -0.44339257 0.5000951
0.6970431 0.824602 -0.17578588 0.29820046 0.80892456 -0.43705353 0.40171948 0.5110336
-0.13835669 -0.2181548 -0.17798342 0.6192458 -0.4448764 -0.43067083 -0.6437687 0.42341197
0.60190594 -0.5826365 0.0040810225 0.35160327 -0.04869491 0.58451456 0.8648211 -0.30017757
0.9379754 -0.17605066 -0.6554702 0.6941056 0.2504278 -0.6401613 -0.6975715 0.4540691
0.60443705 -0.42943472 0.817234 -0.801938 -0.35623536 -0.6524979 -0.63634056 -0.103955224
0.7048889 0.59950984 0.3303602 -0.8223473 -0.7777225 -0.10887894 -0.5115279 -0.64851755
0.45946634 0.43395716 0.6928388 -0.7518643 0.20857099 -0.14614703 -0.6697824 0.31540737

pi.pi_net.4.bias f4 [256]
00000000: 4ab7 2bbe 25aa 233d ca2e 483c 2b3b 183f
00000010: a62e 82be 9226 35be b387 fe3e 01c1 80be
00000020: 3232 4bbe b72b 3abe 630b 6ebe 532c 1a3f
00000030: 6597 fb3e ac1e 58be dd1e 54be c849 01be
00000040: 5b62 31bd 7ad3 0cbd 9e5b 81be dd7f 203f
00000050: 1f90 1dbe 3078 38be fc5b 53be 4ba2 4ebe
00000060: 8b40 4cbe e374 0c3f e058 6cbe 2784 083f
00000070: 9325 253f d8b1 62be 5032 64be 8afc 9abe
00000080: e701 14bd 7232 123f 5f89 c8bc 92af 07be
00000090: 51f7 36be 8a76 153d ad48 1ebe cbd9 4bbe
000000a0: c3a3 063f 926e 71be cb03 b4bd 6fe8 33be
000000b0: 92a4 1ebe 3ec6 4b3d 2159 3abe 2bbb 203f
000000c0: 6be4 fabd 295b d3bd a96f 223c 67e2 133f
000000d0: 2f42 27bd a25a 36be f182 13be acfd 13be
000000e0: 9dc2 1abd a716 133f 3abb fbbd 5c46 143f
000000f0: 77f0 62be e4e0 4fbe e0ae 24be 5db5 0f3f
00000100: b963 4fbe 927b d9bd f397 25be b541 d63e
00000110: a6ed 263f 6d83 253f ce19 223f 3b18 00be
00000120: 1967 3c3f 2af8 82be e07f 5bbe 2697 8d3d
00000130: 6bd7 c0bd 4e1e 293d d25a 41be 793a 89be
00000140: 26e5 78be c40e b8bd fde3 073f f04b 073f
00000150: 7ad8 38be bb18 b23d 5b45 3bbe 77dc 8cbe
00000160: ea01 043f 15eb 38be b71e 1e3f 1b40 09bd
00000170: 9577 00be 2dd1 283f 3095 27be a025 dbbd
00000180: 000f 193f 8ab4 113f 7a62 02be 0702 a5bc
00000190: bd65 043f 77ac 41be ddd4 9fbb 3aac 7cbe
000001a0: 684d 183f fee3 36be 6869 113f 22b4 74be
000001b0: a185 8dbd a881 56be 7899 c1bd 4b1d 73be
000001c0: 0dfc c23d dc24 5cbe 1f2b 51be 29f8 133f
000001d0: fe9d 163f b2c3 c9bd 5a9d 7fbe 4868 89be
000001e0: 23d2 283f 4177 a03e af75 fb3e 0898 32bc
000001f0: f74c 07be c760 e4bd fdb8 57be 1522 65be
00000200: 8c87 68bd 293a 5cbe 173a 4fbe 93c7 41be
00000210: 22a4 50be 1858 183f ea96 a9bd 0461 4cbe
00000220: d0da 0bbe e595 43bc dadb 193f 0a06 213f
00000230: 98a3 afbd 3a3a 0d3f e440 393d 8e44 7cbd
00000240: d395 b93d cacb 77be f1d1 9b3d 2110 113f
00000250: d036 803e e76f 54be d762 0cbe b730 83be
00000260: e575 02be b6b6 2fbe 8a8a 083f 8f50 5fbe
00000270: b6f4 c5bd a725 18be 9b9a 43be 7f40 f6bc
00000280: 50ce 133f d323 643d 0441 623d adbb 3abe
00000290: 52eb 123f 3c93 86be 168d f5bd 3574 62be
000002a0: c4ea e23e be51 093f 204a 55bd 26ec 193f
000002b0: 07de 073f 2f00 233f f178 103f c157 4ebe
000002c0: 4705 fa3e 8e73 4e3d c44a 48be 99f0 51be
000002d0: b520 c53b 3490 103f bbd6 0a3f f66d 95bd
000002e0: 648a 2a3f 8f22 193f ce52 3cbe b2cd 26be
000002f0: aa6f 8dbe de82 37be c420 23be 17bc 01be
00000300: a956 3b3f ba32 84be 7aff 1dbe 6ef2 f3bc
00000310: 291e b53d 482e 1a3f c57e 35be 1453 fbbd
00000320: cc64 ff3e 3cbc e93d 38c4 f7bd 882c 193f
00000330: 40a1 113f 5104 63be a7e8 86be 2b4c 0b3f
00000340: c841 57bd 4e25 083f 2f45 f4bd 3e26 63be
00000350: 597d 6e3d 160a 67be 7651 3fbe 74ec 2ebe
00000360: 66a9 5cbe aab7 263f f3d9 b1b9 ae27 bfbd
00000370: f2b8 4dbe 4a8c 16be 9f4e 833d 8f39 1abe
00000380: eed7 62bd b5fc 43be 73d8 d2bd ae51 06be
00000390: c029 85be 25db 223f 9a5f 1dbd ddc7 083f
000003a0: 56bb 0e3f 8667 79bd 95d6 22be 9b74 073b
000003b0: e663 553d e75f e7bd 484c ff3e b176 14be
000003c0: beba 133f f97f 0a3f ee55 2bbe d336 b3be
000003d0: 4573 2b3c ed24 863d dc4f 3fbe 7b41 1cbe
000003e0: 53da 32be d3c1 8dbe 37db e43e efb1 2f3f
000003f0: 3ae3 28be 3db6 fc3e 6242 66be 217d 163f
-0.16769138 0.039957184 0.012218187 0.59465283 -0.25426215 -0.17690495 0.49712905 -0.2514725
-0.19843367 -0.18180738 -0.23246531 0.60223883 0.49138942 -0.2110545 -0.20714898 -0.12625802
-0.04330669 -0.034381367 -0.2526521 0.62695104 -0.15387009 -0.18014598 -0.20640558 -0.20179097
-0.19946496 0.54865855 -0.23080778 0.5332665 0.6451046 -0.22138155 -0.22284818 -0.30270797
-0.036134627 0.57108223 -0.024479566 -0.13250569 -0.17867781 0.03649 -0.15457411 -0.199073
0.5259363 -0.23577335 -0.08789786 -0.17569135 -0.15492466 0.049749605 -0.18198062 0.62785596
-0.122505985 -0.10320122 0.009914317 0.5776734 -0.040834602 -0.17808011 -0.14405419 -0.14452237
-0.037783254 0.5745644 -0.1229157 0.5791986 -0.22162043 -0.20300633 -0.16082335 0.56136113
-0.20252885 -0.10619272 -0.16171245 0.41847005 0.6520637 0.64653665 0.63320625 -0.12509243
0.73594815 -0.2557996 -0.21435499 0.06913595 -0.09416088 0.041288666 -0.18882301 -0.26802424
-0.24306163 -0.08987191 0.5308226 0.52850246 -0.1805133 0.08696123 -0.18288176 -0.2751195
0.5156542 -0.18058427 0.6176562 -0.0335084 -0.12545617 0.65944177 -0.16365504 -0.10700536
0.59788513 0.56916106 -0.12732878 -0.020142568 0.5171774 -0.18913446 -0.00487767 -0.24675074
0.5949311 -0.1786041 0.5680146 -0.2389684 -0.06910253 -0.20947897 -0.094531 -0.23741643
0.09520731 -0.21498436 -0.20426606 0.5780054 0.58834827 -0.09851779 -0.24962369 -0.26837373
0.65945643 0.31340984 0.49113223 -0.010900505 -0.13212954 -0.11151271 -0.21066661 -0.22376283
-0.056769893 -0.21506561 -0.20237003 -0.18923788 -0.20375112 0.5950942 -0.08280738 -0.19958884
-0.13657689 -0.011937593 0.6010109 0.6289984 -0.08576125 0.5516697 0.0452279 -0.061588816
0.0906178 -0.24198833 0.076084025 0.56665236 0.2504182 -0.20745812 -0.1370958 -0.25623104
-0.12740286 -0.17159542 0.53336394 -0.21808074 -0.096658155 -0.14858113 -0.19101946 -0.030060051
0.5773668 0.055698227 0.055237785 -0.18235655 0.5739032 -0.26284206 -0.11989801 -0.22114642
0.44319737 0.53640354 -0.052072644 0.6012596 0.5307316 0.63672155 0.5643454 -0.20150663
0.4883215 0.05040317 -0.19559771 -0.20501937 0.006015862 0.56470037 0.542339 -0.07296364
0.6661742 0.5981836 -0.18390962 -0.16289404 -0.27624255 -0.17921016 -0.15930468 -0.12669407
0.7317911 -0.2581995 -0.15429488 -0.029778685 0.08843643 0.6022687 -0.1772414 -0.12271705
0.4988159 0.11412856 -0.12097973 0.59833574 0.5688667 -0.22169615 -0.26349375 0.544131
-0.05255297 0.5318192 -0.11927258 -0.22182557 0.05822501 -0.22562441 -0.18683419 -0.17082387
-0.21548995 0.65124 -0.00033922456 -0.0933374 -0.20090082 -0.14701954 0.0641148 -0.1506102
-0.055381708 -0.19139369 -0.10295191 -0.13117096 -0.26008415 0.6361564 -0.03842125 0.5342997
0.557546 -0.060889743 -0.15902169 0.0020668868 0.052097224 -0.11297589 0.49862885 -0.14498402
0.5770682 0.5410152 -0.16731998 -0.35002765 0.010464494 0.06550012 -0.18682808 -0.15259354
-0.17466097 -0.2768694 0.44698498 0.6863088 -0.1649293 0.49357787 -0.2248626 0.5878468

v.v_net.0.weight f4 [64, 5]
00000000: 4c84 41bf 2823 81be 70eb ca3a d198 ad3e
00000010: bc68 713e cfb0 f4bd ff46 59bf 09ab 9d3e
00000020: 625f 533f e719 5c3f c66c dbbe 0e99 42bf
00000030: 0617 d9bc 8a44 583d c352 64be fb92 ea3e
00000040: b5de 703f 72e4 a23e 3955 22bd e544 ef3e
00000050: d919 d53e 37c0 a1be 7d2c d33e 6e2a a53e
00000060: 76d2 fe3d 7af2 65bf a238 3b3d 7f2a 893d
00000070: 43b1 363c a9a3 443e 01d2 353f 123f 03bc
00000080: a23b e6bd b110 1c3d 6b41 3d3f a8a3 0d3f
00000090: 1613 39be ce2c 553e 1042 b53e b893 5abd
000000a0: fd8c 37bf cd55 c4be 86d1 6c3d d709 e03e
000000b0: 730e a43e 0498 93be 2696 9cbe 86c1 b0be
000000c0: 35e0 afbd fc56 3c3e 37c6 29bf b1ea 7cbf
000000d0: 3f79 0fbe 93d9 833e c0e2 fcbd ff63 87be
000000e0: 8c83 abbd 4cff ddbe 9dec 063e 410f d0be
000000f0: b737 bd3e 8fb7 303f 6e26 af3e 5e2c b5be
00000100: 8256 9c3e 80c9 61bf def2 3dbf e7a4 d8be
00000110: e630 46be ce08 52bf 7e0f 0a3f 96eb 40bd
00000120: a692 883e 2c9d a53e 8ef3 b9be d04e 443f
00000130: 8f62 fa3d ae55 003e 670e 9abe 78f9 8bbe
00000140: cb6e 573c 9ea4 87be 16ad 80be ca54 493e
00000150: d8de ba3e bed8 4dbe ffac 0fbf 96a3 08be
00000160: d1b7 a3be 3013 11bf ad8b 6a3d 42c4 253f
00000170: 5e3a 193d e0ae ab3e 7a20 753f 8a97 aabe
00000180: 12eb aa3d 75c1 b9be cca7 a2be 6e07 303b
00000190: de85 453f 73fa 633d 1c86 9bbd 8cdc 20be
000001a0: 48c5 603d e02f 09bf eef7 82bd 4813 61be
000001b0: 9e5c fa3e eb2a fa3d 1a96 babe 3fb5 7e3d
000001c0: 8b04 e7bd 901d 19bf 555d 323e bbd9 893e
000001d0: b12e 873f 0dde 223d 6e2c ac3d 0002 00bf
000001e0: b529 fb3e d07b 9e3e 60bc 17be fd25 b4bd
000001f0: 65e6 45bd ff45 343f 5b40 6fbc 998c ad3c
00000200: f680 3bbe 6034 663d b8b2 673e 9e9e f33c
00000210: a14f 1b3e 4740 c93e c52d 573e 0241 f63e
00000220: a49b 0dbe 790f 9ebb 75c6 b53d b836 123f
00000230: 05ea 623f ea9b 583e a127 3abe f7ad bdbd
00000240: 8a14 3ebf 46b3 9abe be61 3fbf af02 423e
00000250: 73ea 753e 672f 59bf 9aef e9be 5e4d 1e3e
00000260: 1ffa 70be 2886 b8be 6780 193e 339c 3d3f
00000270: 07c9 94bc e243 803d 6b3e 1d3d 72cf 0d3e
00000280: a350 913f 3d6f 5e3f d59d ef3e a0bc 5ebe
00000290: 5430 693e 1e26 123f 2d53 423f 8e80 0ebe
000002a0: 5f1d 233f a2e0 1f3d 127f 1c3e 9622 1f3f
000002b0: 6add 1abf 81f9 01bd 4577 e4bd 0ae8 093f
000002c0: f596 bd3e f413 5cbe 8fae c6be a044 10bf
000002d0: 0792 093f f26d c0be e89b 6abd 6f51 68be
000002e0: cbbd 293f f9d0 2cbf 6a5b a3be 155c d9be
000002f0: a0ae 15bf c7f8 85bb 69ec b2be e1c0 4b3e
00000300: 2320 6e3e 5186 bfbe 2a6c 18bf b36b 333f
00000310: 7803 393f 4381 e13d 06e2 9f3d 0ae9 df3e
00000320: c92d 473f 8ead ffbe 992a 2d3d ff27 3d3e
00000330: 32e3 a03e 05a3 893f 9e8a 533e 7293 f9be
00000340: daf2 d1be 2a5e 44bd 9bfa 863f 1752 1c3e
00000350: 258b 19bf 8e90 c6bc 669f bfbd d3c5 03bf
00000360: 2277 e6be dcae ca3e 2df0 fe3e 276e a03e
00000370: 08b5 e23e bb84 08be 134c a73e 7d4e b43d
00000380: 353c 973e 4b02 24bf d690 4fbd 25f1 593d
00000390: 61fb 97be bc43 45bd 12de 383e d51e 953e
000003a0: 6d07 4d3e 088b 453f b3ef 9a3f f8d2 c2be
000003b0: 0402 87be 0830 a9bd 016c ae3c e1ef 88be
000003c0: 658e 653f d21f 753f 2b2a 313f 8c41 e13e
000003d0: de85 5bbe 9565 d1be b18f d73d a60c 433e
000003e0: b3e2 b7be e740 b5be dad9 843f 735a 113f
000003f0: 5cf1 543d 2a99 b33e 485d bf3e 6a5b d7be
-0.75592494 -0.25222135 0.0015481543 0.33905652 0.23575109 -0.11947786 -0.84873956 0.30794552
0.8256742 0.85977024 -0.42856425 -0.7601479 -0.026500236 0.05279974 -0.22297196 0.45815262
0.94089824 0.31814915 -0.039632056 0.4673225 0.41621283 -0.3159196 0.4124488 0.32258934
0.12442486 -0.89823115 0.045708306 0.066975586 0.011150661 0.19203056 0.71023566 -0.008010643
-0.11241843 0.038101856 0.73927945 0.55327845 -0.18073687 0.20817873 0.35401964 -0.05336353
-0.71699506 -0.3834671 0.057817005 0.43757507 0.32042274 -0.28826916 -0.30583304 -0.34522647
-0.08587686 0.18392557 -0.66318077 -0.9879561 -0.14011095 0.25751933 -0.12347937 -0.26443478
-0.083747 -0.4335884 0.13176198 -0.40636638 0.3695657 0.6903009 0.34209007 -0.35385412
0.3053475 -0.8819809 -0.7419871 -0.4231331 -0.19354591 -0.82044685 0.5392989 -0.047099672
0.26674384 0.32346475 -0.3631863 0.7668276 0.1222583 0.12532684 -0.30089113 -0.27338767
0.013148974 -0.2649278 -0.25132054 0.1966125 0.3649814 -0.20102212 -0.56123346 -0.13343653
-0.31976178 -0.566699 0.05726211 0.6475259 0.03740918 0.33531857 0.9575268 -0.3331874
0.08345617 -0.36280409 -0.31768644 0.0026859897 0.7715739 0.05565877 -0.07593939 -0.15709132
0.054875642 -0.53588676 -0.06394945 -0.21980011 0.48898786 0.12215217 -0.36442643 0.06218457
-0.112801634 -0.59810734 0.17418416 0.26923928 1.0561124 0.039762545 0.08406912 -0.5000305
0.49055257 0.30953836 -0.14817953 -0.08796308 -0.048315424 0.70419306 -0.014602746 0.021185206
-0.18310913 0.056202292 0.2262677 0.02973872 0.15167095 0.39306852 0.21013553 0.48096472
-0.13828903 -0.004823622 0.08875743 0.57114744 0.88638335 0.21153226 -0.1817918 -0.09261697
-0.7425009 -0.302149 -0.7475852 0.18946336 0.24015217 -0.84837955 -0.45690614 0.154592
-0.23532914 -0.36039853 0.14990388 0.74066466 -0.018162264 0.062629476 0.038389605 0.13848665
1.1352733 0.86888486 0.46800104 -0.21751642 0.22772342 0.5708941 0.75908166 -0.13916227
0.6371669 0.039032586 0.15282848 0.6216215 -0.604941 -0.031732086 -0.11155561 0.5386969
0.37029234 -0.21491987 -0.38805053 -0.56354713 0.53738445 -0.37583882 -0.05727759 -0.22687314
0.66305226 -0.67506367 -0.3190568 -0.42453066 -0.5846958 -0.0040884945 -0.34945992 0.19897796
0.23254447 -0.37407163 -0.59540045 0.7008621 0.7227092 0.11010983 0.078067824 0.43732482
0.7780424 -0.499371 0.042276952 0.18472289 0.31423336 1.0752875 0.20658347 -0.48745304
-0.41005594 -0.047941364 1.0545229 0.1526569 -0.5997794 -0.02423885 -0.09356575 -0.5147373
-0.45012766 0.39586532 0.49792615 0.3133404 0.4427874 -0.13331883 0.32675228 0.08804033
0.29538122 -0.64066 -0.050675236 0.05320849 -0.29683974 -0.0481603 0.18053463 0.29125085
0.20022364 0.7716527 1.21044 -0.3805158 -0.26368725 -0.08261114 0.021291735 -0.26745513
0.896704 0.9575168 0.6920497 0.4399532 -0.21437785 -0.40897813 0.10525454 0.19047794
-0.35915145 -0.3540108 1.0378983 0.5677864 0.05198799 0.35077792 0.37375855 -0.4206193

v.v_net.0.bias f4 [64]
00000000: eef6 d8bb 7d50 50be 6547 05bf 54e5 633f
00000010: 2a5a 9dbe dc24 463b 5842 47bd fd39 b2be
00000020: 49e5 713e 3d1d 0fbf a5ab 15bf 013e 843e
00000030: 1e20 003f d59b 5dbf d7a7 2ebe 4e7f cc3d
00000040: 01fe 69be dcd2 f2be 1291 263f 833d 993e
00000050: 8732 243e 65b8 183b 4735 943e a39c 193f
00000060: 956d 8e3d 830e 4f3d 09a7 55be 9b0c 3fbd
00000070: 9832 2f3d fe4a 15bf fbfd 003f bfa0 83be
00000080: 90f3 6f3f bbd9 4f3f a532 5d3e aa5a 12be
00000090: 407f cabe 46b8 fdbe b1de 923d b029 1a3f
000000a0: e7ca 96be e6a8 4d3d 1f6f cf3d 4f2b f83d
000000b0: cb42 e9bd badf 623e 8d0d 203f 94c7 c4be
000000c0: 9ad8 993f a042 003f 0086 fa3e ef3d 83bc
000000d0: 5055 50bf bede 3abe 5af5 20be 7b7a 013e
000000e0: d568 1fbe 5273 973d 668d b3ba 2492 d93a
000000f0: 8abe 723e 08d9 c9bd e342 efbb 2dee adbd
-0.006621233 -0.20343204 -0.52062064 0.890218 -0.30732852 0.0030234372 -0.048647255 -0.34809867
0.23622622 -0.5590399 -0.58465034 0.25828555 0.50049007 -0.86565906 -0.17056213 0.09985219
-0.22850801 -0.47426498 0.6506511 0.29929742 0.160349 0.0023303267 0.28946897 0.60004634
0.06954495 0.05055095 -0.208645 -0.04664288 0.04277286 -0.58317554 0.50387543 -0.25708577
0.9373102 0.81191605 0.2160135 -0.14292398 -0.3955021 -0.49554652 0.07171381 0.6021986
-0.29451677 0.050209902 0.101286165 0.121176355 -0.11389693 0.22155657 0.62520677 -0.38433516
1.2019227 0.5010166 0.4893036 -0.016020743 -0.81380177 -0.18249032 -0.15718594 0.12644379
-0.15567334 0.073950425 -0.0013698756 0.001659934 0.23705497 -0.098558486 -0.0073016747 -0.08492694

v.v_net.2.weight f4 [64, 64]
00000000: d257 f8be 440d cfbd 2ce2 c43c 40af 383f
00000010: 7e4f 653e f20c 0dbf 5e23 8a3e 0cc2 bc3d
00000020: c02c 4abd 69ed 14bf ae3c bebc cb3d 81bd
00000030: 02cc 133e c9ba c7be 4475 7a3e 0bf7 de3e
00000040: 025d 88be 2773 f2bd fa9d a93e b9e9 99be
00000050: 0025 333f 5244 6ebe c33c 583e dcf6 0c3e
00000060: c839 123f 8770 293e ed45 1c3f d2cd 5a3e
00000070: 7e92 23bd 0492 84bf 129d c03e b141 4fbc
00000080: 6124 1b3f 1704 0e3f 56bd 193f e771 d03e
00000090: ef92 babe 090b a7be af40 a1bd fc47 b43e
000000a0: 7082 32bf 4a1b 27be 1874 e83e 171c 123e
000000b0: 2e1e 883e 0882 88be c3e6 2d3d bb8c 36bf
000000c0: e01f ec3e c252 e53e dc5e fe3e a4d4 0e3c
000000d0: 3c0d 39bf 27f4 28be 39a7 483c fe8d 83bc
000000e0: 33f9 a0be 3c7f a63e a1da f8bc 1e1f e5be
000000f0: 7fa0 c1be 1abe fabc 1bcc 8bbe 7a1c 07bf
00000100: 50be 073f 67ce 683e 3ed6 6b3e b2f5 01bf
00000110: 70c1 12bd 486f c0bd 1f33 d0be 728a 25be
00000120: 9311 3cbc bbab a53e 50c7 d73d a03d 073f
00000130: 9511 92be 13fc e33e 0245 debe 708f 5dbf
00000140: f1f9 59be 0980 b03e 2405 9dbe 39a9 dabd
00000150: 3840 2dbf c6b6 80be 5f51 d43e 546e aebe
00000160: 1c7f 09bf 1542 e2be 98f9 4dbe 6096 f2bd
00000170: d274 883e d305 bc3e 67e4 97be 5e74 ee3c
00000180: 6931 e0be e727 e8be 65ca 0abf 8b8c 483e
00000190: d44c 183f 531b 8a3d 4c7c 09be 2e70 8bbe
000001a0: 9a0b 2c3d 655f 29bd 575c aabe 669a 6ebd
000001b0: d302 89be 797d 4c3e 6702 babd 896c e13e
000001c0: 8c36 c2be 5514 a6be 0179 fabe 28f9 333d
000001d0: e813 e03e 4a8a f93e 75f9 debe 38ad 84be
000001e0: 66ff 7a3d 7830 37be 4a07 5c3e ac3a a9be
000001f0: 2a06 e13e 1f83 653e 304f 4f3f 1178 943e
00000200: 8c1f a6be 5be8 6dbd 9bf6 423e 6f89 893e
00000210: 7ac5 b03e 0b3f 86be a6ad 9c3e 924d 00be
00000220: 23a1 84be 6b5e 2abe 359a 453a c16e 523d
00000230: e2fe 803e 5385 b7be ef0a 573e 84a1 083f
00000240: 7886 64be bfa2 6bbe 68d5 e83d 71e6 643e
00000250: 68b9 d53e 68b1 4cbe 90b3 94be 4b56 a43e
00000260: e5e8 913d 65f7 75bd bdb6 c93e 89c4 ee3e
00000270: 2a57 f83e ddb5 6dbe 1f64 523e 9274 d4bc
00000280: 4e73 033f 09fb acbd 80e5 933e 54e0 24be
00000290: 0e1b 0f3e ff78 1bbf d581 88bd 41b9 d23e
000002a0: 4cae 40be f4b6 ee3e f1a0 cb3e 187d 7d3d
000002b0: 28be a83c 98a8 b53d 5b8b 8b3e 6bd3 88be
000002c0: fcbf fe3e a591 613e f30c 893e dfd1 b03c
000002d0: 3b2e aebe f77c debc a861 963e 7e1c 2d3f
000002e0: 1264 983d 6d8c b03e e21b b03e d2ee 023f
000002f0: 94b5 70be 58ba 68be bc2c a4be c9d4 fdbe
00000300: 6e69 09bf ff14 e6be cc23 88be 7812 0f3f
00000310: 82ae 58be 8fa6 7fbe 2f7d 5c3e b160 a2be
00000320: d699 923e 309f e3be 2ea2 71be 4411 8b3d
00000330: d1e2 843e 2fb7 73be 967d 673f f71e d93e
00000340: 66c8 bfbd 1c8a 3abe 96d8 823e e363 613e
00000350: 2bc8 d13d 299f 0dbe 9c64 ecbe 631e 2c3f
00000360: f28c c93d 39ea b4bd d7b3 31be b372 ef3e
00000370: 6b51 da3b 48eb 1ebf 43ed ba3d 81ec 1b3d
00000380: c026 393e 14e5 1b3f 4af7 973e 2390 76bd
00000390: 8f5a 53be 768d 2ebf 074c 19bd ae8a 3c3d
000003a0: 928a 11bf b598 65be 8155 113f 7e2e 62be
000003b0: 67a8 453e 8c28 2bbb 0056 153e 62d5 c9be
000003c0: 7057 9d3e 733b 983e 4034 913e 3067 5f3e
000003d0: de61 3abf e3c7 91be 26fa 2e3f 4a0d 993e
000003e0: ad1c 293e 5794 d43e bc7c f03d 6a96 983d
000003f0: 06bc c5be e607 9abe 9745 5dbe be85 3bbf
-0.48504502 -0.10109952 0.024033628 0.7214241 0.22393605 -0.5509788 0.26980108 0.09216699
-0.049359083 -0.5817476 -0.023222294 -0.06310614 0.14433292 -0.39009693 0.24458796 0.43547854
-0.2663346 -0.1183837 0.3312834 -0.3006113 0.6997833 -0.2326825 0.21116929 0.13766044
0.5711942 0.16546832 0.610442 0.21367577 -0.039934628 -1.035706 0.37619835 -0.012649939
0.60602385 0.5547499 0.6005453 0.407119 -0.36440226 -0.32625607 -0.078736655 0.3521117
-0.6973028 -0.16319004 0.45401073 0.14268528 0.26585525 -0.26661706 0.0424564 -0.7130849
0.4611807 0.44789702 0.49681747 0.00871769 -0.7228582 -0.16499387 0.0122469 -0.016058918
-0.31440124 0.32518947 -0.030377688 -0.44750303 -0.3781776 -0.030608226 -0.27304158 -0.52777827
0.5302477 0.22734986 0.23030946 -0.50765526 -0.035829008 -0.09396225 -0.40664002 -0.16166094
-0.011478799 0.32357582 0.10536063 0.5282841 -0.2852904 0.44528255 -0.43412024 -0.86546993
-0.21286751 0.34472683 -0.30667984 -0.10676808 -0.67676115 -0.25139445 0.4146833 -0.3406855
-0.5370958 -0.44191042 -0.20114744 -0.11845088 0.26651627 0.36723194 -0.29666445 0.029108223
-0.43787697 -0.45342943 -0.5421508 0.19584863 0.5949223 0.06743493 -0.13426322 -0.27234024
0.04200325 -0.04135074 -0.33273575 -0.058252715 -0.26759967 0.19969739 -0.090824895 0.44028118
-0.3793224 -0.32437387 -0.48920444 0.043938786 0.43765187 0.4873832 -0.43549696 -0.25913405
0.061278723 -0.17889583 0.21487156 -0.33052576 0.43950015 0.224133 0.80980206 0.28997853
-0.32445943 -0.05808292 0.19039385 0.26862666 0.34525663 -0.26219973 0.30601233 -0.1252959
-0.25904188 -0.1663758 0.0007537932 0.051375154 0.2519446 -0.35843906 0.21000265 0.53371453
-0.22316921 -0.23011301 0.11368829 0.22353531 0.41743016 -0.1998955 -0.29043245 0.32097086
0.07124499 -0.060050387 0.3939723 0.4663432 0.48504 -0.23213907 0.20546006 -0.025934491
0.51347816 -0.08446319 0.28886032 -0.161012 0.13975164 -0.607315 -0.066653885 0.41156963
-0.18816489 0.46623957 0.39771226 0.061886877 0.020598486 0.08870047 0.27254757 -0.267238
0.49755847 0.22028215 0.26767692 0.02158445 -0.34019646 -0.027159197 0.2937138 0.676216
0.07440962 0.34482136 0.34396273 0.5114566 -0.23506767 -0.22727334 -0.3206538 -0.49576405
-0.536765 -0.44937894 -0.2658981 0.55887556 -0.2116032 -0.24965881 0.21532129 -0.31714395
0.28632993 -0.44457388 -0.23597023 0.067904025 0.25954297 -0.23800348 0.90426004 0.42406437
-0.09364395 -0.18216747 0.25555867 0.2201076 0.10243257 -0.13830246 -0.4617051 0.67233866
0.09841336 -0.08833737 -0.1735376 0.46767196 0.006662538 -0.6207776 0.09127285 0.038067345
0.18081188 0.6089642 0.29680854 -0.060196053 -0.20640014 -0.681846 -0.03742602 0.046030693
-0.56852067 -0.22421534 0.56771094 -0.22088048 0.19302522 -0.0026116697 0.14583588 -0.3942061
0.30730772 0.29732856 0.28360176 0.21816707 -0.72805583 -0.28472814 0.68350446 0.2989295
0.16514845 0.41519424 0.11742541 0.07450564 -0.38620013 -0.3008415 -0.21608578 -0.7325095

v.v_net.2.bias f4 [64]
00000000: dd5d da3e 2767 8dbe 2f94 123e 3483 693e
00000010: 706d ed3e bd2e 863e cf4f 9bbe 9300 8abd
00000020: e041 323e 5815 af3e 7271 673e 0425 66be
00000030: 4b9c b23e c0f6 a03e 611a b2bd 4975 76be
00000040: 826f 93be 6943 acbd 137a b1be 8e69 dcbe
00000050: fcf6 823e d3e0 aa3e 56d6 15be e038 393e
00000060: fe88 e2be 959d 58be 936e 943e 0d76 81bd
00000070: 8585 0d3e 558b 5d3c 5a7e db3d 01f0 683e
00000080: 3d22 e2be fcff dbbd 9b44 c53e fcdb 653e
00000090: bc2b b63e dfb5 bdbe 68f8 b2be 2554 b13e
000000a0: 5ed6 d4be 3f23 f1be 6d04 913e c5ce be3d
000000b0: f596 883e 09e7 50bc 2baf 343e af27 acbe
000000c0: 56af 203e 0ba1 96bd ed32 69be 5f4f c13e
000000d0: 2c82 e63e 070f 99be afe4 85be f4cf afbc
000000e0: 5a27 b3be 94ce bebe de47 023e 9c93 823e
000000f0: 541a d43e c6df e03e fa11 b3bd a8f6 da3e
0.42649737 -0.27617761 0.1431434 0.22803956 0.46372557 0.26207533 -0.30334327 -0.06738391
0.17407942 0.3419597 0.2260187 -0.22475058 0.34884867 0.31438255 -0.086964376 -0.24068178
-0.2879601 -0.08411295 -0.34663448 -0.43049282 0.2557906 0.33374652 -0.14632544 0.18088102
-0.44245142 -0.21153863 0.2899061 -0.063213445 0.13820465 0.013521989 0.10717459 0.22747804
-0.44166747 -0.107421845 0.38528904 0.22447199 0.35580242 -0.3705282 -0.34955144 0.3463451
-0.415698 -0.47097203 0.2832369 0.09316782 0.2667767 -0.012750396 0.17644946 -0.33624026
0.15691885 -0.07354935 -0.22773333 0.37755868 0.45021188 -0.29894277 -0.26151034 -0.021461464
-0.3499096 -0.37266982 0.12722728 0.25503242 0.41426337 0.43920726 -0.08743663 0.4276631

v.v_net.4.weight f4 [1, 64]
00000000: 2b60 7640 9598 6dc0 75ea 6640 0794 5940
00000010: 904e 5d40 1acc 86c0 2f5e 4cc0 b8b6 8440
00000020: d2b6 6940 f735 5840 fde4 89c0 a29e 8740
00000030: dcb8 7d40 562d 5b40 5c35 8e40 fce6 57c0
00000040: 3c12 60c0 73db 71c0 23d3 8740 67e9 8040
00000050: 9433 6240 484e 6c40 9935 6ec0 978a 73c0
00000060: 610a 5ec0 8f2d 55c0 6fe2 5440 d80a 7540
00000070: 265d 6e40 2456 6540 f153 7540 d798 6140
00000080: c2dd 85c0 8353 87c0 5805 6640 f173 85c0
00000090: acf7 6340 1618 8440 107a 5fc0 6d74 5940
000000a0: dff8 64c0 92ce 6ec0 351f 6140 9d56 7cc0
000000b0: 902a 6240 2387 6e40 4386 83c0 3ee5 5ec0
000000c0: 4221 5c40 8f5c 71c0 52e0 7e40 c63e 7740
000000d0: 4fa9 5b40 dadb 5bc0 8cb3 57c0 8b71 60c0
000000e0: b4bf 62c0 d90d 5fc0 f2a5 75c0 05db 5740
000000f0: 74c3 8dc0 7396 5f40 39b9 60c0 c1fd 8040
3.8496196 -3.7124379 3.6080601 3.3996599 3.45792 -4.2124147 -3.1932485 4.1473045
3.6517835 3.3782938 -4.3092027 4.2381144 3.964408 3.424642 4.4440136 -3.3734732
-3.501113 -3.779019 4.2445235 4.0284915 3.534398 3.692278 -3.7220213 -3.8053339
-3.4693835 -3.3309057 3.3263204 3.8287868 3.7244353 3.5833826 3.8332484 3.5249536
-4.18332 -4.2289443 3.5940762 -4.170403 3.5619917 4.12794 -3.491825 3.397731
-3.57769 -3.731358 3.5175297 -3.9427865 3.5338478 3.726998 -4.1101394 -3.4827418
3.43953 -3.7712743 3.9824414 3.8632064 3.4322088 -3.4352937 -3.3703337 -3.50693
-3.5429506 -3.4852202 -3.8382535 3.372743 -4.430109 3.4935577 -3.511305 4.030976
