tmp/experiments/RN4 False,True,True/pyt_network_save/model save47000.pt (torch_old, 314943 bytes, 33 tensors)

pi.pi_net.0.weight f4 [64, 5]
0	0xbe19a36b	-0.15003745
1	0xbeb4a1ba	-0.35279638
2	0x3dd1c44d	0.102425195
3	0x3efecb4c	0.49764478
4	0xbdd410bb	-0.103547536
5	0x3ec8c0f6	0.39209718
6	0xbdbc73c0	-0.09201765
7	0xbee6bdc7	-0.45066664
8	0xbe5abecc	-0.21361846
9	0x3d48e137	0.049042907
10	0x3f09d537	0.53840965
11	0xbe0eb7d9	-0.1393732
12	0x3efcd25c	0.4937924
13	0xbe9e3f47	-0.30907652
14	0x3ecdb1b2	0.40174633
15	0xbcb2edb3	-0.02184186
16	0xbe2dff74	-0.16991979
17	0xbeadbe62	-0.33934313
18	0xbebf84c7	-0.3740599
19	0x3e2389cd	0.15970536
20	0x3ee45c6f	0.4460177
21	0x3eb3705c	0.3504666
22	0x3e4539c4	0.19260317
23	0xbe3b234d	-0.18275185
24	0xbceade62	-0.028670494
25	0xbe9b2bdf	-0.30306908
26	0x3ecf8434	0.4053055
27	0x3dc2ee81	0.09518147
28	0xbf075c09	-0.5287481
29	0xbe2867f9	-0.16445912
30	0xbf3d1df9	-0.7387386
31	0xbeccfa9b	-0.40034947
32	0x3e525db0	0.20543551
33	0x3e63471e	0.22195098
34	0xbe4b75c6	-0.19869146
35	0x3eb6a4bf	0.35672566
36	0xbf1f966d	-0.62338907
37	0xbf18b5bb	-0.596523
38	0x3f09f487	0.53888744
39	0x3e4d7bf0	0.2006681
40	0xbeaf546e	-0.34244102
41	0xbcd2db87	-0.025739444
42	0x3e9128cc	0.28351438
43	0xbe82882f	-0.25494525
44	0xbe62aee9	-0.22137035
45	0xbe4ce593	-0.2000945
46	0x3c53123e	0.012882767
47	0x3e8848ec	0.26618135
48	0x3e355011	0.17706324
49	0xbee74170	-0.45167112
50	0x3eaca3a1	0.3371859
51	0xbe36aa37	-0.1783837
52	0x3ab2306a	0.0013594751
53	0x3d22d9de	0.039758556
54	0x3dd24a0b	0.10268029
55	0x3d2f4f3b	0.04280017
56	0x3e43b3e7	0.19111596
57	0x3ce75ffa	0.028244007
58	0x3e96c24a	0.29445106
59	0x3e03f3ad	0.12885924
60	0xbf2f0532	-0.683673
61	0x3e3cb777	0.18429361
62	0x3eaea2c6	0.3410856
63	0xbe705fd1	-0.23474051
64	0x3eb2eb48	0.3494513
65	0xbececde7	-0.40391466
66	0x3de8d965	0.1136959
67	0xbf23a934	-0.6393006
68	0x3e3c59b9	0.18393601
69	0xbe05f5fc	-0.13082117
70	0xbeb0ffa0	-0.34570026
71	0xbef45511	-0.4772115
72	0xbea0a79d	-0.3137788
73	0xbdfba273	-0.12286844
74	0x3e783937	0.24240576
75	0xbe803da2	-0.25047022
76	0xbe39fc80	-0.18162727
77	0x3e6f55f8	0.23372638
78	0x3f0c31ba	0.54763377
79	0xbe21e4b6	-0.15809903
80	0xbf25d446	-0.6477703
81	0x3daab0f3	0.08334532
82	0x3e9a3e95	0.3012587
83	0xbc54920c	-0.012974273
84	0xbecbf665	-0.39836422
85	0xbe44576d	-0.19173975
86	0xbbe7c554	-0.007073084
87	0x3ea02a0b	0.31282076
88	0x3d6462c0	0.055758238
89	0xbf1936cd	-0.59849244
90	0xbe6be560	-0.23036718
91	0xbe1a19ea	-0.15048948
92	0x3c9c506e	0.01908132
93	0x3ee476b9	0.44621828
94	0x3d52e3b6	0.051486693
95	0x3ee10452	0.4394861
96	0x3dde2c20	0.1084826
97	0xbc78226c	-0.015144926
98	0x3e32cb36	0.17460331
99	0x3d9d85ee	0.07691561
100	0x3ecbdaf2	0.3981548
101	0xbe4c8724	-0.19973427
102	0xbdb36f8b	-0.087615095
103	0x3e4609a6	0.19339618
104	0x3d75e719	0.060034845
105	0x3f6fdff4	0.937011
106	0x3e46e898	0.19424665
107	0x3cd2c0fd	0.02572679
108	0x3e456f0f	0.19280647
109	0xbefb4732	-0.49077755
110	0x3e8a799b	0.27045903
111	0xbc9674c0	-0.018366218
112	0xbe1b53ef	-0.15168737
113	0x3e2103d0	0.1572411
114	0x3eb051c8	0.34437394
115	0x3ed7888b	0.42096362
116	0xbbb4b64d	-0.005514896
117	0x3e2441a5	0.16040666
118	0xbd132aea	-0.035929598
119	0x3e74e52a	0.23915544
120	0xbf3d0f82	-0.7385179
121	0xbcdee4eb	-0.027208766
122	0xbecf182e	-0.40448135
123	0xbd28e187	-0.041230705
124	0x3d1c2e39	0.03813002
125	0xbe0cac2d	-0.13737555
126	0x3e199549	0.14998354
127	0x3e06938b	0.1314222
128	0xbda9bcda	-0.08287974
129	0xbf1aca0e	-0.6046456
130	0x3ef55e86	0.47923678
131	0x3e26b015	0.16278107
132	0x3da21968	0.07915002
133	0x3e5d81b7	0.21631514
134	0x3bfbc45c	0.00768332
135	0x3dc5f3b2	0.09665622
136	0x3ed40e24	0.41417038
137	0x3e57eee4	0.21087223
138	0xbecde4b0	-0.40213537
139	0xbe9a1a1e	-0.3009805
140	0xbe3bbcf2	-0.18333796
141	0x3de037f9	0.10948176
142	0xbe32e0c9	-0.17468561
143	0xbebe4da3	-0.37168607
144	0x3de2ab62	0.11067845
145	0xbe83759f	-0.25675675
146	0x3eb74b2f	0.35799548
147	0xbcec6df6	-0.028861027
148	0x3eddd64e	0.43327564
149	0xbe86d8e2	-0.26337343
150	0x3dddc979	0.108294435
151	0x3f9300e4	1.1484647
152	0x3e78f2d4	0.24311382
153	0x3ebec594	0.37260115
154	0x3ba3f1b6	0.0050031794
155	0xbe3130ba	-0.17303744
156	0xbe9bfaf5	-0.30464903
157	0xbf0ae52f	-0.54255956
158	0x3ec34723	0.3814021
159	0xbcab72b1	-0.020928713
160	0xbe482ac7	-0.19547568
161	0xbebc1684	-0.36735928
162	0x3f2d1e9d	0.6762484
163	0x3db8f31f	0.09030747
164	0xbdde74b6	-0.108621046
165	0xbec20830	-0.37896872
166	0xbec406fc	-0.3828658
167	0xbcae2595	-0.021258155
168	0x3db9a839	0.09065289
169	0xbdd38888	-0.10328776
170	0x3f46c747	0.77647823
171	0x3e9936b1	0.2992454
172	0x3f062b83	0.52410144
173	0xbedf6ee2	-0.43639284
174	0xbdfe628b	-0.12421139
175	0xbf607382	-0.8767625
176	0xbd796590	-0.060887873
177	0x3d43dacc	0.047816083
178	0xbec2a46a	-0.38016063
179	0x3dcbe47d	0.0995569
180	0x3cf8999a	0.03034668
181	0x3ee3c123	0.4448329
182	0xbe6707c4	-0.22561556
183	0x3ee86f7f	0.45397565
184	0x3f07af1f	0.5300159
185	0xbec20a07	-0.37898275
186	0x3f1604c4	0.5860102
187	0x3ef8294a	0.48469
188	0xbe31991c	-0.17343563
189	0xbe7255dc	-0.23665565
190	0x3eee4ce6	0.46543044
191	0xbc587c21	-0.013213188
192	0xbe8df86e	-0.277286
193	0x3ee547c2	0.4478131
194	0x3c26fd9e	0.010192303
195	0x3d35236b	0.04422323
196	0x3c1ff54d	0.009763074
197	0x3f12b5c8	0.57308626
198	0xbf23e9b3	-0.6402847
199	0x3e676758	0.22598016
200	0x3dcc696d	0.09981046
201	0xbec559d9	-0.3854511
202	0x3e1974c2	0.14985946
203	0xbc6c7a7e	-0.014433501
204	0xbe0b0cf6	-0.13579163
205	0xbf55d3ee	-0.83526504
206	0xbec03da3	-0.37547025
207	0xbbec1809	-0.0072050137
208	0x3e3509eb	0.17679565
209	0xbe36a3f1	-0.17835976
210	0xbea4655e	-0.32108587
211	0xbe70dfcc	-0.23522872
212	0x3d8672b5	0.065648474
213	0xbeab2d14	-0.3343283
214	0x3e8b5300	0.2721176
215	0x3f4c7880	0.7987137
216	0x3fb84307	1.4395455
217	0x3e707523	0.23482184
218	0xbe5da5d6	-0.21645293
219	0x3d868122	0.06567599
220	0x3ea5f775	0.32415357
221	0xbd812c00	-0.063072205
222	0x3eed90ed	0.46399632
223	0xbd812596	-0.06305997
224	0xbdbe1b86	-0.092825934
225	0xbda5cebe	-0.080960736
226	0xbd964e4a	-0.07339151
227	0xbb89fe79	-0.0042112437
228	0x3e81f780	0.2538414
229	0x3e73a314	0.23792678
230	0xbf10940e	-0.56475914
231	0xbf05b46b	-0.5222842
232	0x3ebede4e	0.3727898
233	0xbf121540	-0.57063675
234	0x3c310f1f	0.010806828
235	0xbd3654eb	-0.044514578
236	0x3e18447b	0.14869873
237	0xbdaa5a3c	-0.08317992
238	0xbe475b3b	-0.19468395
239	0xbdf3e214	-0.11908355
240	0x3ef1d261	0.4723082
241	0xbe677aee	-0.22605488
242	0x3f4ffb47	0.81242794
243	0xbdab86ed	-0.083753444
244	0x3de04a8a	0.10951717
245	0x3e25aabf	0.16178416
246	0x3efdaf7c	0.49547946
247	0x3e4c17c8	0.19930947
248	0xbf042f58	-0.5163474
249	0xbea7eb07	-0.327965
250	0x3cbcecfe	0.023062225
251	0x3c1d31dc	0.009594407
252	0x3d4b1514	0.04958065
253	0x3ccf4f23	0.02530629
254	0xbc976972	-0.018482897
255	0xbf1405c5	-0.57821304

pi.pi_net.0.bias f4 [64]
0	0x3da71694	0.08158603
1	0x3dea2fb1	0.11434878
2	0xbea78270	-0.32716703
3	0x3e8077a3	0.25091276
4	0xbbc46e12	-0.0059945667
5	0x3e424b3c	0.18974012
6	0x3da8b389	0.082373686
7	0xbed28f44	-0.41124928
8	0x3e9fc8a4	0.31207764
9	0xbd888a01	-0.06666947
10	0xbf0e9d69	-0.5570894
11	0xbef2e43a	-0.47439748
12	0x3da6a199	0.08136291
13	0x3ebd0b6c	0.36922777
14	0xbec312a6	-0.38100165
15	0xbe2e1c0b	-0.17002885
16	0x3eda038a	0.42580825
17	0x3b16e103	0.00230223
18	0xbe915730	-0.2838683
19	0xbe6636a3	-0.2248178
20	0xbe4ff01d	-0.2030644
21	0xbe9933c2	-0.299223
22	0xbe9ac360	-0.30227184
23	0xbe091d83	-0.13390164
24	0x3e1534fd	0.14570995
25	0xbe866f7d	-0.26256934
26	0xbed9a224	-0.42506516
27	0x3ca7f938	0.020504579
28	0x3ef745e3	0.48295507
29	0xbe2a1162	-0.16608194
30	0x3f38e5e1	0.7222577
31	0x3e199731	0.14999081
32	0xbe0e1e38	-0.13878715
33	0xbe3f16d7	-0.18661056
34	0xbe15447b	-0.14576904
35	0x3e95029d	0.29103556
36	0x3ec15881	0.37762836
37	0x3e81209d	0.25220194
38	0xbe70ae44	-0.23503977
39	0xbe66d462	-0.22541955
40	0x3e2fbb40	0.17161274
41	0x3df44398	0.11926955
42	0x3e76e3bf	0.24110316
43	0x3f04836d	0.5176304
44	0xbdfc2b78	-0.123129785
45	0xbe4d0580	-0.2002163
46	0xbe7b6a75	-0.24552329
47	0xbcc8c8be	-0.024509784
48	0xbe7d46ed	-0.24734087
49	0x3dc7e522	0.097605005
50	0xbdb58907	-0.088640265
51	0x3e9d6c0c	0.30746496
52	0x3e919167	0.28431246
53	0xbc980460	-0.018556774
54	0xbedfdd7f	-0.43723676
55	0x3dfa11f1	0.12210453
56	0xbf4b282c	-0.7935817
57	0xbdb4cec1	-0.08828498
58	0x3dc89944	0.09794858
59	0xbddcb4d4	-0.10776678
60	0xbde693d2	-0.11258663
61	0x3c9cde76	0.019149046
62	0x3eaaf47a	0.33389646
63	0xbdd61cee	-0.10454737

pi.pi_net.2.weight f4 [64, 64]
0	0xbf312b85	-0.6920703
1	0x3eb27795	0.3485686
2	0x3ed46de2	0.41490084
3	0x3e9fbec8	0.31200242
4	0xbe05ee15	-0.13079102
5	0xbabe44d1	-0.0014516358
6	0xbf04f4d4	-0.5193608
7	0xbe77f85e	-0.24215838
8	0xbdad7a2e	-0.084705696
9	0xbec649ec	-0.38728273
10	0xbea99f21	-0.33129218
11	0xbce7bca6	-0.028288197
12	0xbe471ff4	-0.19445783
13	0xbe0a2e8f	-0.13494323
14	0xbd113b0d	-0.035456706
15	0xbe72759e	-0.2367768
16	0xbbe51394	-0.0069908593
17	0x3e13fd14	0.1445201
18	0xbe6b9909	-0.23007597
19	0x3f192ed6	0.5983709
20	0x3e00d200	0.12580109
21	0x3f43fca8	0.765574
22	0x3e595e6c	0.21227425
23	0x3e9e5d04	0.3093034
24	0xbe56c6db	-0.20974295
25	0x3e7c5ce8	0.24644816
26	0x3e8695e7	0.2628624
27	0xbe984978	-0.29743552
28	0xbe37a1c3	-0.17932801
29	0xbe78ad9e	-0.2428498
30	0x3f056c5c	0.5211847
31	0xbe65bdfd	-0.22435756
32	0xbe291c9f	-0.16514824
33	0xbe9294e3	-0.28629217
34	0x3f90b6f5	1.1305834
35	0xbf102e8e	-0.56321037
36	0x3e2a76c6	0.16646871
37	0x3dade9ce	0.0849186
38	0x3e9e9533	0.30973205
39	0xbeac3d76	-0.3364064
40	0xbe48b511	-0.19600321
41	0xbf0debd3	-0.55437964
42	0x3d83cd57	0.0643565
43	0x3d1b8e4c	0.0379775
44	0xbdd8300e	-0.10556041
45	0x3f01db36	0.50725114
46	0x3e9b3461	0.303134
47	0x3e24d7e0	0.16097975
48	0xbe595f6c	-0.21227807
49	0x3e473ac5	0.19456013
50	0x3d66e5a6	0.056371354
51	0xbe919a92	-0.2843824
52	0xbca70cde	-0.020391878
53	0x3c2bf2ec	0.010494929
54	0x3d7455f8	0.0596523
55	0x3e3b57e2	0.18295243
56	0xbe80437c	-0.25051486
57	0xbe89e727	-0.26934168
58	0x3ed7bb10	0.42134905
59	0xbeb34587	-0.35013983
60	0x3d0730bf	0.033005472
61	0xbdf4b047	-0.11947685
62	0x3dcb888e	0.09938155
63	0x3e89fb8e	0.26949733
64	0x3ed18270	0.40919828
65	0x3e21b1f6	0.15790543
66	0xbe60277e	-0.21890065
67	0xbe92726a	-0.28602916
68	0xbf33d6e1	-0.70249754
69	0x3ebb4872	0.3657871
70	0x3f0a80ae	0.541026
71	0x3e805114	0.25061858
72	0x3e313c5c	0.17308182
73	0x3eebdba7	0.4606602
74	0xbdd34b63	-0.10317113
75	0xbd86438d	-0.06555853
76	0xbd2a571e	-0.041586988
77	0xbe9e32db	-0.30898175
78	0xbde64bd8	-0.11244935
79	0x3d2f85c0	0.042852163
80	0xbc0d8eb8	-0.008639984
81	0x3de108a6	0.10987978
82	0x3e91f361	0.28505996
83	0xbef3bd32	-0.47605282
84	0x3dc0bf06	0.09411435
85	0xbe462fb0	-0.19354129
86	0xbd7d645e	-0.061863296
87	0xbf240c88	-0.6408162
88	0x3c40777a	0.011747235
89	0xbeb2e1ac	-0.349378
90	0xbf061d85	-0.52388793
91	0x3cb37e11	0.0219107
92	0x3e919dd1	0.28440717
93	0xbe93168a	-0.28728133
94	0xbedf2334	-0.43581545
95	0x3ca0154e	0.019541409
96	0x3de35fbf	0.111022465
97	0x3e358e16	0.17729983
98	0xbf40cb2c	-0.75310016
99	0xbe309491	-0.17244174
100	0xbea51516	-0.3224265
101	0xbedb485d	-0.42828646
102	0xbeb28f5d	-0.34875003
103	0x3eab4c42	0.33456618
104	0x3e86d7ef	0.2633662
105	0x3f4b1297	0.7932524
106	0xbc995196	-0.018715661
107	0xbedba5a3	-0.42899808
108	0xbe8d6c45	-0.27621666
109	0x3dc4eeba	0.09615846
110	0x3e987c3f	0.29782292
111	0xbda5b25d	-0.08090661
112	0xbce46483	-0.027879959
113	0xbe2e39dc	-0.17014259
114	0x3e13015e	0.1435599
115	0xbcf97339	-0.03045045
116	0x3e9b738b	0.3036159
117	0xbd4ad541	-0.04951978
118	0x3eaf3778	0.34222007
119	0x3ef82f2a	0.48473483
120	0x3ea120ca	0.3147033
121	0x3d878fc7	0.0661922
122	0xbecdb178	-0.4017446
123	0xbea1f168	-0.3162949
124	0x3dd8a58a	0.10578449
125	0x3e04fa53	0.12986116
126	0xbe5aba9a	-0.21360245
127	0xbe930a78	-0.28718925
128	0x3e378ef0	0.1792562
129	0xbef3a4d3	-0.47586688
130	0x3c48250f	0.012215867
131	0xbf09bdca	-0.5380522
132	0x3e1c445c	0.15260452
133	0xbec016de	-0.37517446
134	0xbc7271f2	-0.0147976745
135	0x3da38f02	0.07986261
136	0xbe8c455e	-0.27396673
137	0xbd96e519	-0.07367916
138	0xbe11b40c	-0.14228839
139	0x3e190015	0.14941438
140	0x3e562584	0.20912749
141	0x3cc6b962	0.02425832
142	0x3e756926	0.23965892
143	0x3e682209	0.22669233
144	0x3e41afa4	0.18914658
145	0xbe831506	-0.25601977
146	0x3dbbb709	0.091657706
147	0x3dba86f8	0.091077745
148	0x3dcb9303	0.0994015
149	0xbd7aca89	-0.06122831
150	0x3ea22e6b	0.3167604
151	0x3dc35350	0.09537375
152	0xbe43442a	-0.19068971
153	0xbec0387b	-0.3754309
154	0x3dfc44f4	0.12317839
155	0xbeab731e	-0.33486265
156	0xbe015c8a	-0.12632957
157	0x3e3364c4	0.17518908
158	0xbd4536c4	-0.04814793
159	0x3ebd38db	0.3695744
160	0xbebcbc0d	-0.3686222
161	0x3de42674	0.11140147
162	0xbdec1ac1	-0.115285404
163	0xbefee791	-0.49786046
164	0x3e3ccf65	0.1843849
165	0x3efc69fc	0.4929961
166	0x3f1228b2	0.57093346
167	0xbeead3e5	-0.45864788
168	0x3e9c82c2	0.3056851
169	0x3e13c890	0.14431977
170	0xbc19e620	-0.009393245
171	0x3e6b1016	0.22955355
172	0x3af29870	0.0018508565
173	0x3e81498d	0.25251427
174	0xbeb3cbfd	-0.35116568
175	0xbf55daef	-0.8353719
176	0xbdcd9489	-0.100380965
177	0xbefd5b3b	-0.49483666
178	0xbee383e4	-0.44436562
179	0x3eadd31a	0.3395012
180	0xbe90b331	-0.28261712
181	0x3e3daee8	0.18523753
182	0xbcb326c8	-0.021869078
183	0xbeebbabb	-0.46040902
184	0xbedc79c5	-0.43061653
185	0x3e758ca4	0.23979431
186	0x3d2c13c6	0.042011045
187	0x3cb71b6b	0.022351941
188	0x3e75ae56	0.23992285
189	0xbe71cea2	-0.2361398
190	0x3d46ae7f	0.048506256
191	0xbe9d4afe	-0.30721277
192	0xbef393c2	-0.47573668
193	0x3eb5ebb6	0.35531396
194	0x3cf270a6	0.02959473
195	0xbda60dbd	-0.08108089
196	0xbe441113	-0.19147138
197	0xbea88384	-0.32912838
198	0x3e66a616	0.22524294
199	0x3e24939a	0.1607193
200	0xbda34a7b	-0.079731904
201	0x3f0f71cb	0.5603301
202	0x3e74f464	0.23921353
203	0x3d806a58	0.062702835
204	0xbefca286	-0.49342746
205	0xbed7ed51	-0.42173246
206	0x3f1b3593	0.6062862
207	0x3eaa6a1e	0.33284086
208	0x3a024475	0.00049693073
209	0xbf238b81	-0.6388474
210	0x3de09149	0.10965211
211	0xbed607b5	-0.41802755
212	0x3d7f2077	0.06228682
213	0xbf047eae	-0.517558
214	0xbe1d563c	-0.15364927
215	0xbe878847	-0.2647116
216	0x3e0b9538	0.13631141
217	0x3c7f726a	0.015591243
218	0x3cfd2857	0.030903025
219	0xbf035572	-0.51302254
220	0xbecfbab2	-0.40572125
221	0x3e6b2515	0.22963364
222	0xbebd3849	-0.36957005
223	0x3e3a8e5d	0.1821837
224	0x3d91abbd	0.071128346
225	0x3e745e08	0.23863995
226	0xbee94792	-0.45562416
227	0x3ea80dd8	0.32823062
228	0xbe973325	-0.29531208
229	0x3e012c2e	0.1261451
230	0xbc571f7d	-0.013130066
231	0x3e3e3df7	0.18578325
232	0xbe57b3c0	-0.21064663
233	0x3f0c32f2	0.54765236
234	0x3d0a18c1	0.033715013
235	0xbe540465	-0.20704801
236	0x3e81e7ea	0.2537225
237	0x3ea838a3	0.3285571
238	0x3d34f693	0.044180464
239	0x3e57857a	0.21047011
240	0x3e9d9abd	0.30782118
241	0xbe893e2b	-0.26805243
242	0x3d7de87c	0.061989293
243	0xbe258ae1	-0.1616626
244	0xbd475cd3	-0.04867251
245	0xbf061059	-0.52368695
246	0x3e301255	0.17194493
247	0xbf21da18	-0.6322341
248	0x3f145fa9	0.57958466
249	0x3e830be1	0.25595
250	0xbe233c8d	-0.15941067
251	0x3e091289	0.13385977
252	0x3e4af38a	0.19819465
253	0xbe1b1884	-0.1514607
254	0xbf440444	-0.7656901
255	0x3baa927d	0.005205451

pi.pi_net.2.bias f4 [64]
0	0x3dedfad1	0.11620105
1	0xbe9efb23	-0.31050977
2	0x3dc00e3f	0.09377717
3	0xbec74c21	-0.3892527
4	0x3e9cefc4	0.30651677
5	0xbe24e366	-0.1610237
6	0xbeeb0dbb	-0.45908913
7	0xbda035dc	-0.07822773
8	0x3e403a9c	0.18772358
9	0x3e29aa94	0.16568977
10	0xbe413b6c	-0.18870324
11	0x3e9763c1	0.29568294
12	0xbd57d162	-0.052689917
13	0xbe441128	-0.1914717
14	0x3f3a2ebb	0.72727555
15	0x3d12fd98	0.035886377
16	0x3d80b5ee	0.062847
17	0xbdf1ae86	-0.11800866
18	0xbc99b704	-0.018764026
19	0x3e68a9e2	0.22721055
20	0xbd6c30d8	-0.05766377
21	0xbda89581	-0.082316406
22	0xbe25ef96	-0.16204676
23	0x3ea1159e	0.31461805
24	0x3dc51aef	0.09624278
25	0xbde2e07a	-0.11077972
26	0xbe65369a	-0.2238411
27	0x3b8ad1a6	0.004236418
28	0xbd8308d4	-0.06398168
29	0xbc8d8276	-0.017274123
30	0x3dcab56f	0.09897887
31	0xbe000e34	-0.12505418
32	0xbd1fe02c	-0.039032146
33	0xbe4e4fce	-0.2014763
34	0xbdf0c916	-0.11757104
35	0xbb9af232	-0.004728579
36	0x3cd4da60	0.025983036
37	0xbeb17d98	-0.34666133
38	0xbebb6ba8	-0.36605573
39	0x3dea3d57	0.11437481
40	0xbd837bf2	-0.06420125
41	0xbf366cba	-0.71259654
42	0x3d054188	0.0325332
43	0xbc85512c	-0.016274057
44	0xbf368967	-0.7130341
45	0xbe8baa14	-0.27278197
46	0xbe603b79	-0.21897687
47	0xbd0cb0cb	-0.03434829
48	0x3e90622c	0.281999
49	0x3e2468c6	0.16055593
50	0xbe8a27bd	-0.26983443
51	0x3ce55175	0.027992943
52	0xbe0bc96c	-0.13651055
53	0xbda5b5bd	-0.080913045
54	0xbc83f174	-0.016106345
55	0xbebb3a2a	-0.36567813
56	0x3e308218	0.17237127
57	0x3f42af38	0.7604861
58	0xbddbf2b8	-0.10739654
59	0x3e00ebcc	0.1258995
60	0x3d2e816e	0.042603903
61	0xbe8fa943	-0.28058824
62	0xbe1317a7	-0.14364491
63	0x3f07ce8d	0.53049546

pi.pi_net.4.weight f4 [256, 64]
0	0xbe823a7d	-0.25435248
1	0x3d8adb90	0.067801595
2	0x3d888851	0.06666625
3	0x3e8cdec3	0.27513704
4	0xbc0f9462	-0.008763405
5	0x3e71cc58	0.23613107
6	0x3e8f8d82	0.2803765
7	0xbd905af2	-0.070485964
8	0x3cca0615	0.024661103
9	0xbd4acbf6	-0.04951092
10	0x3deeb318	0.11655253
11	0xbee37d20	-0.444314
12	0x3d1ad99b	0.03780518
13	0x3e739062	0.23785546
14	0xbe997799	-0.29974058
15	0xbe4a9bf9	-0.19786061
16	0xbdc9ba9f	-0.09850048
17	0x3ddd2b96	0.10799329
18	0x3c051ef9	0.00812506
19	0xbec1c0c8	-0.37842393
20	0x3e53cfd0	0.20684743
21	0x3e380643	0.17971139
22	0x3d87b127	0.06625586
23	0xbe4885eb	-0.19582336
24	0x3daa3a70	0.08311927
25	0x3e67ece5	0.22648962
26	0x3ec4ab58	0.38411975
27	0x3dfe267c	0.12409684
28	0x3e8c2f46	0.27379817
29	0xbdafaace	-0.085775
30	0x3e6c326c	0.2306611
31	0x3dd75382	0.10513975
32	0x3e851f10	0.2600026
33	0x3eadf2bc	0.33974254
34	0x3d17ede6	0.037092112
35	0xbe290ebd	-0.16509528
36	0xbcf6f115	-0.030144254
37	0x3d8945a4	0.06702736
38	0x3e8a0712	0.2695852
39	0xbeb5d67d	-0.35515204
40	0x3d56627f	0.052340027
41	0x3e14ebac	0.14543027
42	0xbdf061bf	-0.117373936
43	0x3e22532e	0.15852043
44	0x3ee7785c	0.45209014
45	0x3e84bb7c	0.2592429
46	0x3e568e64	0.20952755
47	0xbe0eac93	-0.1393302
48	0xbe89f369	-0.2694352
49	0xbe908d97	-0.28233024
50	0xbe17a2b2	-0.14808157
51	0x3e722f8f	0.23650955
52	0x3e2d159c	0.16902775
53	0x3d65e3b6	0.056125365
54	0x3ea9d4eb	0.33170256
55	0x3a9bc856	0.0011885266
56	0xbe4c6cfb	-0.19963448
57	0xbe854f3a	-0.26037008
58	0x3e2cf165	0.1688896
59	0x3c8bd738	0.017070398
60	0xbe54b7b0	-0.20773196
61	0x3e3c5f52	0.18395737
62	0xbe820a7f	-0.25398633
63	0xbde1f0cd	-0.11032257
64	0x3e385290	0.18000245
65	0xbe2bfc5e	-0.16795489
66	0x3eba9678	0.36442924
67	0x39d6fc8f	0.00041005432
68	0xbf13f8ea	-0.5780169
69	0xbe1069c9	-0.14102854
70	0x3e37da23	0.17954306
71	0xbe997160	-0.2996931
72	0xbe00a7aa	-0.12563959
73	0x3d0c289f	0.034218427
74	0xbc9f24c0	-0.019426703
75	0xbdb0ee7e	-0.08639239
76	0x3c9f5e70	0.019454211
77	0xbe2152a4	-0.15754181
78	0xbe0a3483	-0.13496594
79	0xbbdfc86c	-0.006829312
80	0x3dbdb3ae	0.09262787
81	0x3da44c14	0.08022323
82	0xbe5e338f	-0.21699356
83	0xbe05215f	-0.13001011
84	0x3cfb0ec4	0.03064669
85	0x3d3d7ab3	0.046259593
86	0x3d5dc543	0.0541432
87	0xbdd193bd	-0.10233257
88	0xbe571f7e	-0.21008107
89	0xbded4b6e	-0.11586653
90	0x3e98bf04	0.29833233
91	0xbeff2d27	-0.49839136
92	0x3e9b3767	0.30315706
93	0xbeb1e29a	-0.34743196
94	0xbc7c8799	-0.015413188
95	0xbe4dc226	-0.20093593
96	0xbc53e7d9	-0.012933695
97	0x3eba0dde	0.36338705
98	0x3dcbb7f4	0.09947196
99	0x3e726e43	0.23674874
100	0xbe0f0247	-0.13965712
101	0x3e8fd540	0.28092384
102	0xbd09eeb7	-0.03367492
103	0x3e09b959	0.13449611
104	0xbdd6a0b2	-0.10479869
105	0xbe07fff7	-0.13281237
106	0x3e206546	0.15663633
107	0x3de54198	0.11194152
108	0xbcb0f511	-0.021601232
109	0x3d988a4d	0.07448254
110	0xbde10af1	-0.10988415
111	0xbea5de2b	-0.32396063
112	0xbe0ef9c5	-0.13962467
113	0xbd97e5a8	-0.0741685
114	0x3dfc5dda	0.12322588
115	0xbd762b01	-0.060099605
116	0x3e6507d4	0.22366267
117	0x3e8e7a1d	0.2782754
118	0xbda059f8	-0.0782966
119	0x3e83425e	0.25636572
120	0x3d289a59	0.041162822
121	0xbd4f5a57	-0.050623264
122	0x3cfa6b85	0.030568847
123	0x3e0d3e2a	0.13793245
124	0xbebf219a	-0.37330323
125	0x3dd5ec58	0.104454696
126	0xbeb1bb57	-0.3471324
127	0xbe3e162f	-0.1856315
128	0x3ddc27ee	0.107498035
129	0x3e23f818	0.16012609
130	0xbd6b038e	-0.057376437
131	0xbd22d685	-0.039755363
132	0x3d3355ab	0.04378287
133	0xbcee2a6a	-0.029072959
134	0x3d0233e4	0.031787768
135	0x3e86f324	0.26357377
136	0x3dd477fa	0.10374446
137	0x3d2e3efd	0.04254054
138	0xbe722f1a	-0.2365078
139	0xbe8b2aa5	-0.27180973
140	0x3e89087a	0.2676428
141	0xbf11d0dc	-0.5695932
142	0x3c7952d8	0.015217505
143	0x3e2ddb05	0.1697808
144	0xbe8696b4	-0.26286852
145	0xbe6db78b	-0.23214547
146	0x3de2885c	0.11061165
147	0xbca1e6b3	-0.019763326
148	0xbdb1d215	-0.08682648
149	0x3edd047b	0.4316748
150	0xbe0823f9	-0.13294972
151	0xbdb14bc0	-0.08657026
152	0x3f28f503	0.6599886
153	0xbe328e69	-0.17437138
154	0x3f16104f	0.58618635
155	0xbefa340a	-0.48867828
156	0x3e99bfb3	0.30029067
157	0x3e3fa79c	0.18716282
158	0x3eecd159	0.4625347
159	0x3f43e40c	0.76519847
160	0x3ed71cc3	0.4201413
161	0x3dca55fa	0.0987968
162	0xbdd2a231	-0.10284842
163	0xbdba8742	-0.0910783
164	0xbea01208	-0.31263757
165	0xbe66baab	-0.22532146
166	0xbc199126	-0.009372985
167	0xbecfd334	-0.40590823
168	0xbedfc866	-0.4370758
169	0x395ebd63	0.00021242122
170	0xbd3aceb6	-0.04560729
171	0xbe5d80a2	-0.21631101
172	0xbd31aec7	-0.04337957
173	0x3e093a72	0.13401201
174	0x3d9d5215	0.076816715
175	0xbf293d16	-0.66108835
176	0x3d8c73c9	0.06858022
177	0x3da3245f	0.079659216
178	0x3eb89bd8	0.360564
179	0x3e2ed7b2	0.17074469
180	0xbe52ca5a	-0.20585003
181	0x3f001c31	0.50043017
182	0x3e0447ff	0.1291809
183	0xbe0306e3	-0.12795596
184	0x3e44a6ac	0.19204205
185	0xbe22d3bc	-0.15901083
186	0x3f136255	0.5757192
187	0xbe8b10ce	-0.27161258
188	0xbedac837	-0.42730877
189	0x3e8b7ee0	0.27245235
190	0xbe131efb	-0.14367287
191	0x3e652359	0.22376765
192	0x3f34fcd5	0.7069829
193	0xbf7c3e18	-0.9853225
194	0x3ecf503d	0.40490904
195	0xbf306d12	-0.6891643
196	0x3f2f33ab	0.68438214
197	0xbf79b146	-0.9753612
198	0xbf2b7551	-0.66975886
199	0x3e3a71a3	0.18207411
200	0x3f755fbd	0.9584921
201	0x3f84c398	1.037219
202	0xbea432eb	-0.32070097
203	0x3f064c51	0.524602
204	0x3f595c06	0.8490604
205	0xbedd2d1c	-0.43198478
206	0x3f20ca67	0.6280884
207	0x3f484756	0.7823385
208	0x3bdb7c7f	0.0066981907
209	0xbee030b1	-0.4378715
210	0xbece8924	-0.40339005
211	0x3f587b9a	0.845636
212	0xbf199238	-0.5998874
213	0xbf1e5db5	-0.61861736
214	0xbf76608b	-0.9624106
215	0x3f265737	0.6497683
216	0x3e97c249	0.29640415
217	0xbf52e5fd	-0.82382184
218	0xbe64342b	-0.22285526
219	0x3f221465	0.6331237
220	0x3d008357	0.031375255
221	0x3f5aa19b	0.8540284
222	0x3f899d3e	1.0751112
223	0xbeccd32f	-0.4000487
224	0x3f8a8fa0	1.0825081
225	0xbecf36e0	-0.40471554
226	0xbf65abcb	-0.8971526
227	0x3f515fb8	0.8178668
228	0x3ef7e423	0.48416242
229	0xbf5df517	-0.867021
230	0xbf6c8b94	-0.9240048
231	0x3f31431a	0.69243014
232	0x3f5453c3	0.8294031
233	0xbf27e2a2	-0.6558019
234	0x3f816e58	1.0111799
235	0xbf883400	-1.0640869
236	0xbf15257a	-0.5826031
237	0xbf60fd17	-0.87886184
238	0xbf5ccd80	-0.8625107
239	0x3d84bf01	0.064817436
240	0x3f6e66af	0.9312543
241	0x3f558773	0.83409804
242	0x3de10ca3	0.109887384
243	0xbf53c72c	-0.8272579
244	0xbf72c009	-0.9482427
245	0x3e7c3cfa	0.24632636
246	0xbf10f57c	-0.5662458
247	0xbf5ff824	-0.8748801
248	0x3f31d393	0.6946346
249	0x3f290aea	0.6603228
250	0x3ef49451	0.47769406
251	0xbf4fec20	-0.81219673
252	0x3e881c99	0.26584318
253	0xbebe5418	-0.37173533
254	0xbf65ec00	-0.8981323
255	0x3f0ab207	0.541779

pi.pi_net.4.bias f4 [256]
0	0xbe2bb741	-0.16769125
1	0x3d23acfa	0.039959885
2	0x3c47f913	0.01220538
3	0x3f522e36	0.8210176
4	0xbe822e8b	-0.25426134
5	0xbe35266c	-0.17690438
6	0x3f3f3662	0.74692357
7	0xbe80c0c8	-0.2514708
8	0xbe4b3201	-0.19843294
9	0xbe3a2bb7	-0.18180738
10	0xbe6e0b1c	-0.23246425
11	0x3f3c7138	0.7361026
12	0x3f3dcdbb	0.74142045
13	0xbe581e82	-0.21105388
14	0xbe541e90	-0.20714784
15	0xbe014997	-0.12625729
16	0xbd31626c	-0.043306753
17	0xbd0cdbab	-0.03438918
18	0xbe815b67	-0.25265047
19	0x3f5309b6	0.8243669
20	0xbe1d8fe4	-0.15386921
21	0xbe387c6c	-0.18016213
22	0xbe535bd2	-0.20640495
23	0xbe4ea21e	-0.2017903
24	0xbe4c4071	-0.19946457
25	0x3f2c77fc	0.6737058
26	0xbe6c5965	-0.23080976
27	0x3f2e1655	0.68002826
28	0x3f4fca5f	0.8116817
29	0xbe62b1bd	-0.22138114
30	0xbe643225	-0.22284754
31	0xbe9afc7d	-0.30270758
32	0xbd141774	-0.03615518
33	0x3f40b911	0.7528239
34	0xbcc8d410	-0.024515182
35	0xbe07af7b	-0.13250534
36	0xbe36f739	-0.17867745
37	0x3d156328	0.036471516
38	0xbe1e4b54	-0.15458423
39	0xbe4bd961	-0.19907142
40	0x3f3c245e	0.7349299
41	0xbe716e6d	-0.2357728
42	0xbdb404a0	-0.08789945
43	0xbe33e83f	-0.17569064
44	0xbe1ea450	-0.15492368
45	0x3d4b899e	0.04969179
46	0xbe3a58f0	-0.1819799
47	0x3f3aec38	0.7301669
48	0xbdfae432	-0.12250556
49	0xbdd35bce	-0.10320245
50	0x3c21ce8e	0.009875907
51	0x3f3cd5da	0.7376381
52	0xbd276824	-0.0408708
53	0xbe365a67	-0.17807923
54	0xbe13851d	-0.14406247
55	0xbe13fd80	-0.14452171
56	0xbd1af2e4	-0.037829295
57	0x3f38c0ab	0.7216899
58	0xbdfbbd12	-0.12291922
59	0x3f338165	0.70119315
60	0xbe62f036	-0.22161946
61	0xbe4fe099	-0.20300521
62	0xbe24aea7	-0.1608225
63	0x3f35902d	0.7092312
64	0xbe4f6444	-0.20253092
65	0xbdd97da4	-0.10619667
66	0xbe2597aa	-0.16171136
67	0x3f379927	0.71718067
68	0x3f531555	0.82454425
69	0x3f28f493	0.6599819
70	0x3f6299fe	0.88516223
71	0xbe00180e	-0.12509176
72	0x3f4aa5fd	0.7915953
73	0xbe82f81b	-0.25579914
74	0xbe5b7fbd	-0.21435447
75	0x3d8d9062	0.069123045
76	0xbdc0d76e	-0.0941609
77	0x3d290f1d	0.04127418
78	0xbe415ac2	-0.18882278
79	0xbe893a79	-0.26802424
80	0xbe78e4e1	-0.2430606
81	0xbdb81132	-0.08987655
82	0x3f4242cd	0.7588318
83	0x3f26afce	0.65112007
84	0xbe38d8b0	-0.1805141
85	0x3db2196d	0.08696256
86	0xbe3b4525	-0.18288095
87	0xbe8cdc6c	-0.2751192
88	0x3f20cb5e	0.62810314
89	0xbe38eafb	-0.18058388
90	0x3f4f0704	0.8087008
91	0xbd0952a0	-0.033526063
92	0xbe007755	-0.12545522
93	0x3f69ce01	0.9132996
94	0xbe279523	-0.16365485
95	0xbddb293f	-0.107012264
96	0x3f255597	0.64583725
97	0x3f5633ea	0.83672965
98	0xbe02626b	-0.12732856
99	0xbca512a2	-0.020150486
100	0x3e6c3ba2	0.23069623
101	0xbe41ac5c	-0.18913406
102	0xbba166ec	-0.0049255993
103	0xbe7cac0d	-0.24675007
104	0x3f3867fe	0.7203368
105	0xbe36e3ef	-0.17860387
106	0x3f43a640	0.7642555
107	0xbe74b3db	-0.23896734
108	0xbd8d8506	-0.06910138
109	0xbe56818c	-0.20947856
110	0xbdc19cdc	-0.09453747
111	0xbe731d10	-0.23741555
112	0x3dc2d68d	0.095135786
113	0xbe5c2496	-0.21498331
114	0xbe512a9e	-0.20426413
115	0x3f368f08	0.71312
116	0x3f43892a	0.7638117
117	0xbdc9c37f	-0.09851741
118	0xbe7f9d38	-0.24962318
119	0xbe896840	-0.2683735
120	0x3f5d9de1	0.8656903
121	0x3e9eda9b	0.31026158
122	0x3f2d92bd	0.6780203
123	0xbc32c01d	-0.010910061
124	0xbe074cdc	-0.13212913
125	0xbde4618c	-0.11151418
126	0xbe57b8dc	-0.21066612
127	0xbe6521f2	-0.2237623
128	0xbd68894a	-0.056771554
129	0xbe5c39cf	-0.21506427
130	0xbe4f39fd	-0.20236965
131	0xbe41c74e	-0.18923685
132	0xbe50a44a	-0.20375171
133	0x3f401e7b	0.7504651
134	0xbda9a1ee	-0.08282839
135	0xbe4c609f	-0.19958733
136	0xbe0bdae5	-0.1365772
137	0xbc442b1c	-0.011973169
138	0x3f47998f	0.77968687
139	0x3f40f3ef	0.75372213
140	0xbdafa3bc	-0.08576152
141	0x3f3edb9f	0.74553865
142	0x3d393616	0.045217596
143	0xbd7c58d2	-0.061608143
144	0x3db9745f	0.09055399
145	0xbe77cbaa	-0.24198785
146	0x3d9bb0f7	0.07602113
147	0x3f3933eb	0.72344846
148	0x3e7ba952	0.2457631
149	0xbe546fdf	-0.207458
150	0xbe0c62dc	-0.13709587
151	0xbe83309f	-0.25623032
152	0xbe027749	-0.12740816
153	0xbe2fb6ae	-0.1715953
154	0x3f23683f	0.6383094
155	0xbe5f506b	-0.21808021
156	0xbdc5f4b0	-0.09665811
157	0xbe18259f	-0.14858101
158	0xbe439a4b	-0.19101827
159	0xbcf65cbf	-0.030073522
160	0x3f4de992	0.80434525
161	0x3d63cfd9	0.05561814
162	0x3d623d2d	0.055234123
163	0xbe3abb91	-0.18235613
164	0x3f45f8ed	0.77332956
165	0xbe869332	-0.26284176
166	0xbdf58f25	-0.11990193
167	0xbe6275b0	-0.22115207
168	0x3f372554	0.71541333
169	0x3f3d09e3	0.7384321
170	0xbd5558fd	-0.05208682
171	0x3f468a18	0.77554464
172	0x3f45d388	0.77275896
173	0x3f4fe482	0.8120805
174	0x3f44ca44	0.7687113
175	0xbe4e57a2	-0.20150617
176	0x3f24095c	0.6407678
177	0x3d4e6dc8	0.050397664
178	0xbe484ab5	-0.19559748
179	0xbe51f064	-0.20501858
180	0x3bc494eb	0.0059991977
181	0x3f471eb2	0.7778121
182	0x3f2e3039	0.6804233
183	0xbd95716a	-0.07297023
184	0x3f5ee3d3	0.8706638
185	0x3f393a70	0.72354794
186	0xbe3c52b0	-0.18390918
187	0xbe26cd6d	-0.16289301
188	0xbe8d6fa9	-0.27624252
189	0xbe3782a4	-0.17920929
190	0xbe2320a2	-0.15930417
191	0xbe01bbe0	-0.12669325
192	0x3f46865d	0.7754877
193	0xbe8432aa	-0.25819904
194	0xbe1dff2a	-0.15429369
195	0xbcf3f475	-0.029779652
196	0x3db42729	0.08796532
197	0x3f42619c	0.7593019
198	0xbe357f80	-0.17724419
199	0xbdfb53a7	-0.12271815
200	0x3f3aa872	0.7291328
201	0x3de9b541	0.114115246
202	0xbdf7c3e9	-0.12097914
203	0x3f3e1ba9	0.74260956
204	0x3f39aeb3	0.72532195
205	0xbe630451	-0.22169615
206	0xbe86e899	-0.26349333
207	0x3f2dd085	0.678963
208	0xbd574991	-0.052560393
209	0x3f2ec327	0.6826653
210	0xbdf44521	-0.11927248
211	0xbe6325fb	-0.22182457
212	0x3d6e66e7	0.058203604
213	0xbe6709bb	-0.22562306
214	0xbe3f516f	-0.18683408
215	0xbe2eec42	-0.17082313
216	0xbe5caa00	-0.21549225
217	0x3f47ef7d	0.78099805
218	0xb9c75637	-0.00038020473
219	0xbdbf2920	-0.09334016
220	0xbe4db8e5	-0.20090063
221	0xbe168bdd	-0.14701791
222	0x3d8348be	0.06410359
223	0xbe1a3983	-0.15061001
224	0xbd62e4c6	-0.055393957
225	0xbe43fc6e	-0.19139263
226	0xbdd2db12	-0.102956906
227	0xbe06531c	-0.13117641
228	0xbe8529b9	-0.26008394
229	0x3f5769a0	0.84145546
230	0xbd1d61ab	-0.03842322
231	0x3f36d1fb	0.71414155
232	0x3f49f6d2	0.7889224
233	0xbd796645	-0.060888547
234	0xbe22d657	-0.15902077
235	0x3b06a393	0.0020544275
236	0x3d5544f3	0.05206771
237	0xbde75fb5	-0.112975515
238	0x3f34f910	0.7069254
239	0xbe14769a	-0.14498368
240	0x3f2ee782	0.68322
241	0x3f40752d	0.75178796
242	0xbe2b55a6	-0.16731891
243	0xbeb336cb	-0.3500274
244	0x3c2a7e18	0.01040604
245	0x3d85fb8e	0.06542121
246	0xbe3f4ff5	-0.18682845
247	0xbe1c414c	-0.15259284
248	0xbe32da1f	-0.17466019
249	0xbe8dc1b5	-0.2768685
250	0x3f317ef9	0.6933437
251	0x3f533b45	0.82512313
252	0xbe28e2d5	-0.1649278
253	0x3f22e653	0.63632697
254	0xbe664226	-0.22486171
255	0x3f4d2165	0.8012908

v.v_net.0.weight f4 [64, 5]
0	0xbf4d8638	-0.80282927
1	0xbe71420e	-0.23560354
2	0xbbb4d706	-0.005518797
3	0x3e9ecddb	0.3101643
4	0x3e67a9f6	0.22623429
5	0xbcc24190	-0.023712903
6	0xbf4c3283	-0.79764575
7	0x3ecd8df7	0.40147373
8	0x3f6adf1b	0.9174668
9	0x3f825251	1.0181371
10	0xbeed1854	-0.46307623
11	0xbf4f6ef0	-0.8102865
12	0xbd2d0b3f	-0.042247053
13	0x3d68670c	0.0567389
14	0xbe42de7e	-0.19030187
15	0x3f12f25b	0.57401055
16	0x3f749919	0.9554611
17	0x3eae69ed	0.3406519
18	0xbd10fa29	-0.03539482
19	0x3ee6ab10	0.45052385
20	0x3ee7b3ab	0.45254263
21	0xbea1198c	-0.31464803
22	0x3eccddec	0.40013063
23	0x3ea29080	0.3175087
24	0x3e059153	0.13043718
25	0xbf7215aa	-0.94564307
26	0x3d4a215c	0.04934822
27	0x3d7af4df	0.061268684
28	0xbc1c0b18	-0.009524129
29	0x3e30ad65	0.17253645
30	0x3f435525	0.76301795
31	0xb8248f8c	-3.9234335e-05
32	0xbde4384f	-0.111435525
33	0x3d60c6f4	0.054877236
34	0x3f45518a	0.77077544
35	0x3f1758a3	0.59119624
36	0xbe38e4f5	-0.1805609
37	0x3e4bb401	0.19892885
38	0x3eb287f7	0.34869358
39	0xbd3625b1	-0.04446954
40	0xbf417b82	-0.7557908
41	0xbec37ea1	-0.38182548
42	0x3d228714	0.0396796
43	0x3ecb8322	0.39748484
44	0x3e932797	0.28741142
45	0xbea703fa	-0.3262022
46	0xbea9e2bb	-0.33180794
47	0xbec26d2f	-0.37973925
48	0xbe197847	-0.14987288
49	0x3de8618b	0.1134673
50	0xbf32d271	-0.6985236
51	0xbf859243	-1.043526
52	0xbe2060d9	-0.15661944
53	0x3e86c2f2	0.26320606
54	0xbdce10ea	-0.1006182
55	0xbea208a9	-0.31647232
56	0xbdbd881f	-0.09254479
57	0xbedb1f1d	-0.42797175
58	0x3deefd4c	0.11669406
59	0xbecdfa9c	-0.40230262
60	0x3eda9694	0.42693007
61	0x3f3d8d16	0.74043405
62	0x3eb403a6	0.35159034
63	0xbec117e9	-0.37713555
64	0x3e7e073e	0.2480745
65	0xbf6b7a56	-0.91983545
66	0xbf40690c	-0.7516029
67	0xbefdbc08	-0.4955752
68	0xbea82ee7	-0.32848284
69	0xbf5cab33	-0.8619873
70	0x3f140ab0	0.5782881
71	0xbd674823	-0.05646528
72	0x3e80181b	0.2501839
73	0x3ea3b568	0.3197434
74	0xbeaf89c1	-0.34284785
75	0x3f506d0f	0.8141641
76	0x3de39352	0.111120835
77	0x3e03d493	0.1287406
78	0xbe8a2e18	-0.26988292
79	0xbe821666	-0.25407714
80	0x3dafc848	0.085831225
81	0xbe6eb73b	-0.23312084
82	0xbe586ccb	-0.21135251
83	0x3e4a142b	0.19734256
84	0x3ec36164	0.3816024
85	0xbe60454b	-0.21901433
86	0xbf126dd9	-0.57198864
87	0xbe37c8e0	-0.17947721
88	0xbece89f5	-0.40339628
89	0xbf1c7665	-0.61118156
90	0x3d59f4be	0.05321192
91	0x3f1eb58a	0.61995757
92	0x3dbe1af4	0.09282485
93	0x3ed2d879	0.4118078
94	0x3f7d2685	0.988869
95	0xbebd32d0	-0.3695283
96	0x3da88692	0.08228792
97	0xbeb1adc5	-0.34702888
98	0xbe9dda0c	-0.3083042
99	0xbb07d3df	-0.002072565
100	0x3f4f405c	0.8095758
101	0x3d2f3b92	0.04278142
102	0xbd9a3551	-0.075297005
103	0xbe0f9454	-0.14021426
104	0x3d8ea19d	0.06964419
105	0xbf114f00	-0.5676117
106	0xbd4dbb8a	-0.05022768
107	0xbe5edcf3	-0.21763973
108	0x3ef28240	0.47364998
109	0x3dd1c16f	0.10241973
110	0xbecb7af0	-0.3974223
111	0x3d7636b8	0.060110778
112	0xbdd5d752	-0.1044146
113	0xbf1495b0	-0.58040905
114	0x3e25b334	0.16181642
115	0x3ebde039	0.3708513
116	0x3f92bccb	1.1463865
117	0x3d897e83	0.06713583
118	0x3e0eef5b	0.13958494
119	0xbef60c32	-0.4805618
120	0x3f05487f	0.52063745
121	0x3e932744	0.28740895
122	0xbe1e3bc9	-0.15452494
123	0xbd94fbbd	-0.07274578
124	0xbcf242dd	-0.029572899
125	0x3f3ee2b5	0.7456468
126	0xbcd35292	-0.025796209
127	0x3ca9ea35	0.020741561
128	0xbe22ab26	-0.158856
129	0x3d946e01	0.07247544
130	0x3e88cc3c	0.26718318
131	0x3cf712a2	0.030160252
132	0x3e13233b	0.14368908
133	0x3ec5caee	0.38631386
134	0x3e637667	0.22213136
135	0x3f08b6ba	0.5340382
136	0xbdf5c24b	-0.11999949
137	0xbbc40c09	-0.00598288
138	0x3dc0a35b	0.094061576
139	0x3f102eab	0.5632121
140	0x3f6cbe78	0.9247813
141	0x3e4dbfda	0.20092717
142	0xbe2b11fc	-0.16706079
143	0xbd9d4e15	-0.076809086
144	0xbf406067	-0.751471
145	0xbebfbb3e	-0.37447542
146	0xbf3d89a3	-0.7403814
147	0x3e356347	0.17713653
148	0x3e79b42a	0.24385133
149	0xbf58f73f	-0.8475227
150	0xbefc3be4	-0.49264443
151	0x3e181ffe	0.14855954
152	0xbe6eaa4d	-0.23307152
153	0xbebb50bd	-0.36585036
154	0x3e06a866	0.13150176
155	0x3f47ee68	0.78098154
156	0xbc91f6c8	-0.01781787
157	0x3d7f537e	0.062335484
158	0x3d419f62	0.04727114
159	0x3e12647f	0.14296149
160	0x3f95dc6e	1.1707895
161	0x3f6d158d	0.9261101
162	0x3efc1684	0.49235928
163	0xbe625d39	-0.22105874
164	0x3e46a17b	0.19397537
165	0x3f2c4305	0.67289764
166	0x3f4447f2	0.7667228
167	0xbe12503d	-0.14288421
168	0x3f24efd7	0.64428467
169	0x3d33c511	0.04388911
170	0x3de90a0e	0.11378871
171	0x3f13c74e	0.5772599
172	0xbf2fd16b	-0.6867892
173	0xbddbce75	-0.10732738
174	0xbe034c91	-0.12822177
175	0x3f117dca	0.56832564
176	0x3ec140a4	0.3774463
177	0xbe46a651	-0.19399382
178	0xbeb89862	-0.3605376
179	0xbf0a0be5	-0.539244
180	0x3f195747	0.598988
181	0xbeae576c	-0.34051073
182	0xbceec853	-0.029148256
183	0xbe376949	-0.17911257
184	0x3f2ef866	0.68347776
185	0xbf2afd35	-0.66792613
186	0xbea000d8	-0.31250644
187	0xbeeb94e2	-0.46012026
188	0xbf309c07	-0.6898808
189	0xbd8e131d	-0.06937239
190	0xbeca122d	-0.39466992
191	0x3e537376	0.20649514
192	0x3e75d74e	0.24007913
193	0xbec5c7a6	-0.38628882
194	0xbf263b21	-0.64933974
195	0x3f44e2b8	0.76908445
196	0x3f3a8e0a	0.72872984
197	0x3df3d079	0.119049974
198	0x3dc5fe61	0.096676596
199	0x3ee2119e	0.44154066
200	0x3f52c0d8	0.82325506
201	0xbef75bee	-0.48312324
202	0x3d32069c	0.043463334
203	0x3e50a433	0.20375137
204	0x3ea572ba	0.32314092
205	0x3f8edf71	1.1161939
206	0x3e437117	0.19086109
207	0xbef3d6af	-0.47624728
208	0xbec0361d	-0.37541285
209	0xbcd63c00	-0.026151657
210	0x3f8c452d	1.0958611
211	0x3e0c6c3d	0.13713165
212	0xbf162441	-0.5864907
213	0x399a33b3	0.00029411688
214	0xbd951a97	-0.07280462
215	0xbf055b60	-0.5209255
216	0xbee19880	-0.4406166
217	0x3ed5f5a7	0.4178898
218	0x3efd1b51	0.49434903
219	0x3e9f68be	0.311346
220	0x3ef8e6a2	0.4861346
221	0xbe03d06d	-0.12872477
222	0x3ea02ead	0.3128561
223	0x3db84cad	0.08999
224	0x3e99b5aa	0.3002141
225	0xbf2d723f	-0.6775245
226	0xbd3d49e2	-0.04621304
227	0x3d72b29e	0.059252374
228	0xbe972f2d	-0.2952818
229	0xbd6a1fd6	-0.057159267
230	0x3d732e4f	0.059370335
231	0x3e134f54	0.1438573
232	0x3e8d58d9	0.27606848
233	0x3f71d431	0.94464403
234	0x3fa12bc7	1.2591485
235	0xbedc7204	-0.43055737
236	0xbe7e6872	-0.2484453
237	0xbda57702	-0.080793396
238	0x3c227fa8	0.009918131
239	0xbe97e542	-0.29667097
240	0x3f8b3d4d	1.0878083
241	0x3f8b6db5	1.0892855
242	0x3f41b6a4	0.7566931
243	0x3f0394d1	0.5139895
244	0xbe3d8bcd	-0.18510361
245	0xbee6ea67	-0.4510071
246	0x3daef940	0.085436344
247	0x3e440421	0.191422
248	0xbebd2d3b	-0.3694857
249	0xbeadd73f	-0.33953282
250	0x3f9d96eb	1.2311682
251	0x3f1cc5c7	0.61239284
252	0x3d114b09	0.03547195
253	0x3ea39dbd	0.31956282
254	0x3e928e3b	0.28624138
255	0xbeeb2342	-0.45925337

v.v_net.0.bias f4 [64]
0	0x3cb70777	0.022342427
1	0xbe3f0bb9	-0.18656816
2	0xbf115f60	-0.56786156
3	0x3f687f69	0.9081941
4	0xbea6ca17	-0.32576057
5	0x3cfa02ef	0.030518977
6	0xbd7b4afc	-0.061350808
7	0xbebe41ce	-0.3715958
8	0x3e8dc41e	0.27688688
9	0xbf23b9e1	-0.63955504
10	0xbf210bf7	-0.6290888
11	0x3e8b9e00	0.27268982
12	0x3f0f9286	0.5608295
13	0xbf6f2c4d	-0.9342697
14	0xbe4321c5	-0.19055851
15	0x3d9b71c7	0.07590061
16	0xbe3ec402	-0.18629459
17	0xbf026df9	-0.50949055
18	0x3f2cb4ca	0.6746336
19	0x3ea3c426	0.31985587
20	0x3e0cda4e	0.13755152
21	0x3d2bdeca	0.041960515
22	0x3e9e0a55	0.30867258
23	0x3f324ffa	0.69653285
24	0x3d12d271	0.035845224
25	0x3c7ab319	0.015301489
26	0xbe67ad97	-0.22624813
27	0xbd6552c3	-0.05598713
28	0x3c3cc7df	0.011522262
29	0xbf165ff0	-0.5874014
30	0x3f09ae20	0.5378132
31	0xbe8d689e	-0.2761888
32	0x3f7c0f47	0.9846081
33	0x3f519786	0.8187183
34	0x3e5e9f67	0.21740495
35	0xbe2ef92e	-0.17087242
36	0xbed0ad8b	-0.40757403
37	0xbf018562	-0.5059415
38	0x3da6e4d9	0.08149118
39	0x3f1881fe	0.5957335
40	0xbea7896a	-0.32722026
41	0x3c9b84bf	0.018984197
42	0x3d9c8b76	0.076437876
43	0x3e33e174	0.17566472
44	0xbe06398a	-0.13107887
45	0x3e754242	0.23951057
46	0x3f14d1e1	0.5813275
47	0xbebfa654	-0.37431586
48	0x3fadfc3f	1.3592604
49	0x3f09b88f	0.5379724
50	0x3f0753bb	0.5286214
51	0x3b49a7b4	0.0030770125
52	0xbf6f8d31	-0.93574816
53	0xbe54fcd0	-0.20799565
54	0xbe317661	-0.17330314
55	0x3e2d8d12	0.16948345
56	0xbe3963fe	-0.1810455
57	0x3d39b671	0.045340005
58	0x3d32317b	0.04350422
59	0xbce00747	-0.02734722
60	0x3e855e0d	0.26048318
61	0xbd813e11	-0.06310666
62	0x3c9bcc9e	0.019018468
63	0xbd810917	-0.06300562

v.v_net.2.weight f4 [64, 64]
0	0xbef6ff14	-0.48241484
1	0xbda55619	-0.080730624
2	0xbcdb5dde	-0.026778158
3	0x3f47a3ec	0.779845
4	0x3e583a2e	0.21115944
5	0xbf0af59e	-0.5428103
6	0x3ea0a1ca	0.31373435
7	0x3d7907a3	0.0607983
8	0xbc7d8932	-0.015474604
9	0xbf1fc398	-0.6240783
10	0xbd8877a1	-0.066634424
11	0xbda46963	-0.080279134
12	0x3e4e3731	0.20138241
13	0xbf0517d6	-0.51989496
14	0x3e85aa96	0.2610671
15	0x3ee3fd3b	0.44529137
16	0xbe92c1e6	-0.28663558
17	0xbe5fd48e	-0.21858427
18	0x3edb21e8	0.42799306
19	0xbe92751a	-0.28604966
20	0x3f3c3087	0.73511547
21	0xbe6857a1	-0.22689678
22	0x3e7bf2d8	0.24604356
23	0x3e30ab59	0.17252864
24	0x3f1904a5	0.5977271
25	0x3e4e6e05	0.20159157
26	0x3f1f4a2a	0.6222254
27	0x3e7b9881	0.24569894
28	0xbd75c50c	-0.06000237
29	0xbf8e144d	-1.1099945
30	0x3ed384b4	0.41312182
31	0xbcf88640	-0.030337453
32	0x3f269a52	0.65079224
33	0x3f17630e	0.5913552
34	0x3f1e06e0	0.6172924
35	0x3ebebe32	0.37254483
36	0xbec3e09b	-0.38257298
37	0xbedb75d3	-0.4286333
38	0xbdcb3746	-0.09922652
39	0x3ed75929	0.4206021
40	0xbf37b00b	-0.71752995
41	0xbe33b801	-0.1755066
42	0x3ee69cac	0.45041406
43	0x3e335057	0.17511116
44	0x3e94fb89	0.29098156
45	0xbe7a6c84	-0.24455458
46	0x3dea5f73	0.11443987
47	0xbf4b0d15	-0.79316837
48	0x3f00e016	0.5034193
49	0x3ef06d62	0.46958452
50	0x3f0f1b6b	0.5590121
51	0xbc810ec6	-0.015754115
52	0xbf47cad0	-0.7804384
53	0xbe2bc55a	-0.16774502
54	0x3d3fe679	0.046850655
55	0x3d5708a8	0.05249849
56	0xbea85e9d	-0.32884684
57	0x3eb02302	0.3440171
58	0xbc14b91d	-0.009077338
59	0xbee9188a	-0.45526534
60	0xbec010a4	-0.37512696
61	0xb9d7d640	-0.00041167624
62	0xbe93a145	-0.28833976
63	0xbf14fbc1	-0.58196646
64	0x3f081978	0.5316386
65	0x3e563c18	0.20921361
66	0x3e92b6bb	0.28655037
67	0xbf11ccea	-0.569533
68	0xbc960658	-0.018313572
69	0xbdcc61fa	-0.09979625
70	0xbee56a5f	-0.44807717
71	0xbdfc62cf	-0.12323534
72	0xbd3899be	-0.045068495
73	0x3ebe121f	0.371232
74	0x3e1f4c61	0.1555648
75	0x3f0b09d1	0.54311854
76	0xbeb25e6e	-0.3483767
77	0x3f14c1f6	0.5810846
78	0xbed72fa8	-0.42028546
79	0xbf61781f	-0.88073915
80	0xbe3d11dc	-0.18463844
81	0x3ee26e30	0.4422469
82	0xbed07820	-0.40716648
83	0xbe0072ac	-0.12543744
84	0xbf37c9e8	-0.7179246
85	0xbe818165	-0.25294033
86	0x3ebff996	0.37495106
87	0xbec3e5a0	-0.38261127
88	0xbf118a94	-0.5685208
89	0xbef775ed	-0.48332158
90	0xbe561560	-0.20906591
91	0xbe165679	-0.14681424
92	0x3e912fde	0.28356832
93	0x3ee723ec	0.45144594
94	0xbeae7806	-0.34075946
95	0x3d636d90	0.05552441
96	0xbefa5cec	-0.4889902
97	0xbefdf2ab	-0.49599203
98	0xbf0fea31	-0.5621672
99	0x3e6b4302	0.2297478
100	0x3f1ec753	0.62022895
101	0x3e285c20	0.16441393
102	0xbdf40e33	-0.11916771
103	0xbeaf1109	-0.34192684
104	0x3d8ee1a4	0.06976631
105	0xbcf10a5f	-0.02942389
106	0xbea89938	-0.32929397
107	0xbdba4c04	-0.0909653
108	0xbe949185	-0.29017273
109	0x3e2c6083	0.16833691
110	0xbe290bec	-0.16508454
111	0x3f0441b7	0.5166277
112	0xbedae473	-0.42752418
113	0xbeb5172e	-0.35369247
114	0xbf0e2b92	-0.55535233
115	0x3d979693	0.07401767
116	0x3eff92a8	0.49916577
117	0x3efd70d7	0.49500152
118	0xbef07266	-0.4696228
119	0xbea9d637	-0.33171245
120	0x3dabe2e0	0.08392882
121	0xbe49fb9f	-0.19724892
122	0x3e4756c3	0.1946669
123	0xbea6de39	-0.32591417
124	0x3edd05ab	0.43168387
125	0x3e541bfa	0.20713797
126	0x3f539ecd	0.82664186
127	0x3eb19b7f	0.34688947
128	0xbeabd08c	-0.33557546
129	0xbd55cfc1	-0.052200083
130	0x3e0bf37b	0.13667099
131	0x3ea730c0	0.3265438
132	0x3ea423e3	0.3205863
133	0xbe87efd5	-0.26550165
134	0x3eacb0e3	0.33728704
135	0xbe2a1481	-0.16609384
136	0xbe712cca	-0.23552242
137	0xbe59179c	-0.21200413
138	0xbd4597c9	-0.048240457
139	0x3d40a789	0.047034774
140	0x3e9f424d	0.3110527
141	0xbeff9618	-0.499192
142	0x3e3108dc	0.17288536
143	0x3f0e9c5f	0.55707353
144	0xbe83a985	-0.2571527
145	0xbea80c06	-0.32821673
146	0x3e5bf256	0.21479163
147	0x3e7e60f7	0.24841677
148	0x3eeb78ea	0.45990688
149	0xbe55e9b9	-0.2088994
150	0xbe7ef5f8	-0.24898517
151	0x3eba1636	0.3634507
152	0x3dd7aba2	0.10530783
153	0xbc814109	-0.015778081
154	0x3ec8efe6	0.39245528
155	0x3ef7a2b1	0.4836631
156	0x3ef5b112	0.47986656
157	0xbea14591	-0.31498387
158	0x3e7fb5c6	0.24971685
159	0xbd6cc616	-0.057806097
160	0x3f103636	0.5633272
161	0xbd25c6e5	-0.040472884
162	0x3ea062f2	0.3132549
163	0xbe3c7dc4	-0.18407351
164	0x3de2715b	0.11056777
165	0xbf31730f	-0.6931619
166	0xbd8d4aba	-0.068990186
167	0x3ef2b5a9	0.4740422
168	0xbe615a03	-0.22006993
169	0x3eed0415	0.46292177
170	0x3ece1d3d	0.40256682
171	0x3dacbed6	0.084348366
172	0x3d06d58f	0.03291851
173	0x3e02315e	0.12714145
174	0x3eac2327	0.3362057
175	0xbea9fc1a	-0.3320015
176	0x3f0b8e1a	0.54513705
177	0x3e820b90	0.25399446
178	0x3ea93eb3	0.33055648
179	0xbc52d1f4	-0.01286744
180	0xbecbd364	-0.39809716
181	0xbd39864a	-0.045294084
182	0x3ea23731	0.31682733
183	0x3f3c63db	0.7358987
184	0x3d60f6fa	0.054923035
185	0x3ebb992b	0.36640295
186	0x3eb5804a	0.3544944
187	0x3f043719	0.5164657
188	0xbe605f0c	-0.21911258
189	0xbe6a5272	-0.22883013
190	0xbeaf33fb	-0.34219345
191	0xbf0bea4b	-0.5465438
192	0xbf0c713e	-0.54860294
193	0xbedfb47d	-0.4369239
194	0xbeb1c42a	-0.34719974
195	0x3f24ed94	0.64425015
196	0xbe7d9c97	-0.24766766
197	0xbe82add7	-0.25523254
198	0x3e834ff9	0.25646952
199	0xbec1f6b1	-0.37883523
200	0x3ea4c34a	0.32180244
201	0xbf046288	-0.51712847
202	0xbe9fa663	-0.3118163
203	0x3d803d3a	0.06261678
204	0x3eb13090	0.34607363
205	0xbec3e50a	-0.3826068
206	0x3f5f410a	0.87208617
207	0x3eeafb43	0.45894822
208	0xbe1642cb	-0.14673917
209	0xbe929616	-0.2863013
210	0x3eb559bb	0.3542002
211	0x3e83072c	0.2559141
212	0x3e2be8c9	0.16788019
213	0xbe102dfe	-0.14080045
214	0xbecf7730	-0.4052062
215	0x3f3d9aac	0.74064136
216	0x3e1cdd9b	0.15318911
217	0xbcd2cf4f	-0.025733618
218	0xbe2ffe7b	-0.1718692
219	0x3efca980	0.49348068
220	0xbb04d289	-0.002026709
221	0xbf38c674	-0.72177815
222	0x3e22e743	0.15908532
223	0xbc61bcd3	-0.013777929
224	0x3e83da64	0.25752556
225	0x3f2d4461	0.6768246
226	0x3eade1a1	0.33961204
227	0xbdbf642c	-0.09345278
228	0xbe83decf	-0.25755927
229	0xbf497c36	-0.78705156
230	0xbd402258	-0.046907753
231	0x3e0ab0ad	0.13543959
232	0xbf1e9278	-0.61942244
233	0xbe6c134d	-0.23054238
234	0x3f13caa3	0.57731074
235	0xbe3fffcc	-0.18749923
236	0x3e58d96f	0.21176694
237	0x3d3d566f	0.046225008
238	0x3e636c98	0.22209394
239	0xbef8a929	-0.4856656
240	0x3ec3597f	0.38154218
241	0x3eb37e07	0.3505709
242	0x3ebcdb2a	0.3688596
243	0x3e31cb1b	0.17362635
244	0xbf503dbf	-0.8134422
245	0xbe9dc300	-0.30812836
246	0x3f36d583	0.71419543
247	0x3ebca96f	0.36848018
248	0x3e079ab3	0.13242607
249	0x3ee56b90	0.44808626
250	0x3e0aaf44	0.13543421
251	0x3da17d06	0.078851745
252	0xbebadc0a	-0.36496
253	0xbe99eb1d	-0.3006219
254	0xbe7ba2bb	-0.24573795
255	0xbf4f25dd	-0.8091715

v.v_net.2.bias f4 [64]
0	0x3eeeb99e	0.4662599
1	0xbea534fb	-0.32266983
2	0x3e420098	0.18945539
3	0x3e99ee7c	0.30064762
4	0x3efc44a5	0.49271122
5	0x3e92d0db	0.2867497
6	0xbeb30e11	-0.3497167
7	0xbd7e677c	-0.06211041
8	0x3e823041	0.2542744
9	0x3ecc0c22	0.39853007
10	0x3e7e525f	0.2483611
11	0xbe73ecdb	-0.23820822
12	0x3ed65a41	0.41865733
13	0x3eb4f404	0.3534242
14	0xbdb1c890	-0.086808324
15	0xbe943f42	-0.28954512
16	0xbeba8bbc	-0.36434734
17	0xbe1867e7	-0.14883386
18	0xbebf13a1	-0.37319663
19	0xbef07fd1	-0.46972516
20	0x3ea196ad	0.3156027
21	0x3ec8e68c	0.39238393
22	0xbe567f9b	-0.20947115
23	0x3e38d541	0.180501
24	0xbeedfa44	-0.4648
25	0xbe9edb93	-0.31026897
26	0x3ea9409a	0.330571
27	0xbd5be12e	-0.053681545
28	0x3e297eeb	0.16552322
29	0x3d5a3b37	0.053279128
30	0x3e2a171f	0.16610382
31	0x3e966231	0.2937179
32	0xbeea16c1	-0.45720485
33	0xbe251a4c	-0.16123313
34	0x3ed56f36	0.4168641
35	0x3e7dccb6	0.24785122
36	0x3ec565a6	0.38554114
37	0xbeca452f	-0.39505908
38	0xbec1fae4	-0.37886727
39	0x3ec7ad82	0.38999563
40	0xbede64e5	-0.4343635
41	0xbef9e1b0	-0.48804998
42	0x3ea2e1bd	0.3181285
43	0x3d8fd8b9	0.070237584
44	0x3e941046	0.28918666
45	0x3d263347	0.040576246
46	0x3e4c6350	0.1995976
47	0xbec93305	-0.39296737
48	0x3e82eb94	0.25570357
49	0xbe0ea474	-0.13929921
50	0xbe811db8	-0.25217986
51	0x3ed37eaa	0.41307575
52	0x3ee70018	0.4511726
53	0xbebd3387	-0.36953375
54	0xbea8a112	-0.32935387
55	0xbcd57cab	-0.026060423
56	0xbec27100	-0.37976837
57	0xbecaa414	-0.39578307
58	0x3e064239	0.131112
59	0x3ea38de2	0.31944185
60	0x3ee1a931	0.44074395
61	0x3eedb28d	0.46425286
62	0xbe0ec1e3	-0.1394115
63	0x3ee59ecc	0.44847715

v.v_net.4.weight f4 [1, 64]
0	0x4074e96b	3.8267467
1	0xc06c21d8	-3.6895657
2	0x406573ae	3.5851855
3	0x40581d4b	3.376788
4	0x405bd7cc	3.4350462
5	0xc088da03	-4.2766128
6	0xc04ae772	-3.1703763
7	0x4083b53f	4.115875
8	0x40684024	3.6289148
9	0x4056bf39	3.3554213
10	0xc08b7a84	-4.3587055
11	0x4088ccce	4.2750006
12	0x407c4221	3.9415362
13	0x4059b699	3.4017699
14	0x408d4d69	4.4156995
15	0xc056703e	-3.3506007
16	0xc05e9b7c	-3.47824
17	0xc07064d0	-3.756153
18	0x408a14d5	4.315043
19	0x4083bb9f	4.116653
20	0x4060bccf	3.511524
21	0x406ad786	3.6694045
22	0xc06cbda0	-3.6990738
23	0xc072b4b9	-3.7922804
24	0xc05c939e	-3.4465098
25	0xc053b6e9	-3.308039
26	0x40536bb2	3.3034482
27	0x4073c4c4	3.8088846
28	0x406ce6aa	3.7015786
29	0x4063a40e	3.556888
30	0x4073dcff	3.8103635
31	0x406021f9	3.5020735
32	0xc0852257	-4.160442
33	0xc0869688	-4.2058754
34	0x40648e96	3.5712028
35	0xc086a0bb	-4.2071204
36	0x406280f0	3.5391197
37	0x4086993d	4.206206
38	0xc05e034c	-3.4689512
39	0x4057fdb3	3.3748596
40	0xc063821c	-3.5548162
41	0xc06d57ce	-3.7084842
42	0x405fa879	3.4946578
43	0xc079a656	-3.9007773
44	0x4060b3d4	3.5109758
45	0x406cebe0	3.7018967
46	0xc0843c9f	-4.1324
47	0xc05d6e7f	-3.4598691
48	0x405aaa84	3.4166574
49	0xc06fe5ce	-3.7484012
50	0x40811c48	4.0347023
51	0x4075c80a	3.8403344
52	0x405a328c	3.4093351
53	0xc05a651a	-3.4124207
54	0xc0563cce	-3.3474612
55	0xc05e7df1	-3.4764369
56	0xc06148f8	-3.5200787
57	0xc05d9716	-3.4623466
58	0xc07652f0	-3.848812
59	0x40566446	3.3498702
60	0xc0906ff1	-4.5136647
61	0x405e1fb5	3.4706852
62	0xc05f42c1	-3.4884493
63	0x40804261	4.008103
