tmp/experiments/RN4 False,True,True/pyt_network_save/model save51000.pt (torch_old, 314943 bytes, 33 tensors)

pi.pi_net.0.weight f4 [64, 5]
0	0xbe19fe34	-0.15038377
1	0xbeaaf314	-0.3338858
2	0x3e06c5a6	0.13161334
3	0x3f0f3854	0.55945325
4	0xbd5ebcdd	-0.054379333
5	0x3ecbc072	0.39795262
6	0xbdab4b32	-0.08363952
7	0xbeec5608	-0.46159387
8	0xbe600a57	-0.21878944
9	0x3d00ef39	0.03147814
10	0x3ed72a69	0.42024544
11	0xbe853ab4	-0.2602135
12	0x3ecabf09	0.39598873
13	0xbed8a356	-0.42312115
14	0x3e9383f9	0.28811625
15	0x3d31744d	0.043323804
16	0xbdc95e95	-0.09832493
17	0xbe904a03	-0.28181466
18	0xbea49ecb	-0.321524
19	0x3e6ab590	0.22920823
20	0x3eab76fd	0.33489218
21	0x3e6d45bf	0.23171137
22	0x3df420e6	0.119203374
23	0xbe9e42c5	-0.30910316
24	0xbdfb796f	-0.12279021
25	0xbe8cecba	-0.27524358
26	0x3ed9b50a	0.42520934
27	0x3dc37a85	0.09544853
28	0xbf0daaa6	-0.55338514
29	0xbe27a624	-0.16371971
30	0xbf21ca18	-0.63198996
31	0xbe9d9d7a	-0.30784208
32	0x3e84c432	0.25930935
33	0x3e9f0f59	0.31066397
34	0xbde674e2	-0.112527624
35	0x3ec41a75	0.38301435
36	0xbf162674	-0.58652425
37	0xbf0ed493	-0.5579311
38	0x3f196a8a	0.5992819
39	0x3e792ea8	0.24334204
40	0xbe972e19	-0.29527357
41	0x3cce26fb	0.025165072
42	0x3ea60a26	0.32429618
43	0xbe6f8126	-0.2338911
44	0xbe30941d	-0.17244
45	0xbe6f9fdd	-0.23400827
46	0xbcd4614e	-0.025925305
47	0x3e5fd0d5	0.21857007
48	0x3dfa13fc	0.12210843
49	0xbefb275f	-0.49053475
50	0x3e99a574	0.30009043
51	0xbe590d8c	-0.21196574
52	0xbc4d9846	-0.012548512
53	0x3d0bde84	0.034147754
54	0x3d910f19	0.07082958
55	0xbbe6477e	-0.0070275655
56	0x3e0c8052	0.13720825
57	0xbc3c87d8	-0.011506997
58	0x3e894de9	0.26817253
59	0x3da89e74	0.082333475
60	0xbf366299	-0.712442
61	0x3e2bf9da	0.1679453
62	0x3ea79a7c	0.3273505
63	0xbe82b3bd	-0.25527754
64	0x3eb2b987	0.3490717
65	0xbe915ef4	-0.28392756
66	0x3e728a15	0.23685487
67	0xbf0a669c	-0.5406282
68	0x3e9b9176	0.30384415
69	0xbbbb5384	-0.005716743
70	0xbeafc722	-0.34331614
71	0xbeeb0e9f	-0.45909593
72	0xbe9a7f1e	-0.30175108
73	0xbd80068e	-0.0625125
74	0x3e8b8766	0.27251738
75	0xbe7fb37f	-0.24970816
76	0xbe370d7f	-0.17876242
77	0x3e739b08	0.23789608
78	0x3f185371	0.5950232
79	0xbe0c8c11	-0.13725306
80	0xbf1d0d7d	-0.61348706
81	0x3df159bd	0.11784694
82	0x3ea4c8d6	0.32184476
83	0xbc01c147	-0.007919616
84	0xbeb93baa	-0.36178333
85	0xbe50f213	-0.20404844
86	0xbca618b3	-0.02027545
87	0x3e92c7ff	0.2866821
88	0x3c505b1e	0.0127170365
89	0xbf1e887b	-0.61927
90	0xbe4e946f	-0.2017381
91	0xbdff5763	-0.124678396
92	0x3d414dd5	0.047193367
93	0x3f01404c	0.50488734
94	0x3da47407	0.08029943
95	0x3ebf6a78	0.37385917
96	0x3d0da885	0.03458454
97	0xbd9365a4	-0.07197121
98	0x3defe2b0	0.11713159
99	0x3b62456c	0.0034526242
100	0x3ed026a0	0.4065447
101	0xbe4823a4	-0.19544846
102	0xbdabd323	-0.083898805
103	0x3e61e56b	0.22060172
104	0x3d89e21a	0.067325786
105	0x3f55c07c	0.8349683
106	0x3db7dc0f	0.0897752
107	0xbd66ceec	-0.05634968
108	0x3dc7f357	0.0976321
109	0xbf198544	-0.5996897
110	0x3e66eebc	0.22552007
111	0xbd89f180	-0.067355156
112	0xbe414606	-0.18874368
113	0x3e0e4373	0.13892917
114	0x3e980fdc	0.296996
115	0x3e9d31e3	0.30702123
116	0xbdf5b069	-0.11996538
117	0x3d82db14	0.06389442
118	0xbe173f40	-0.14770222
119	0x3e0111e1	0.12604477
120	0xbf293ec7	-0.66111416
121	0x3d43bd2f	0.04778784
122	0xbeb5cbd6	-0.35507077
123	0x3d121fb5	0.03567477
124	0x3dca5f27	0.0988143
125	0xbda7465a	-0.08167715
126	0x3e43393d	0.19064803
127	0x3e0a9abb	0.13535587
128	0xbda27fab	-0.07934507
129	0xbf18a7e2	-0.5963117
130	0x3ed1c87d	0.40973273
131	0x3dbbb1e7	0.091647916
132	0x3d16d5cb	0.036824983
133	0x3e2350ee	0.15948841
134	0xbd60758e	-0.05479961
135	0x3da11d96	0.07866971
136	0x3ec434ca	0.38321525
137	0x3e400ddc	0.18755287
138	0xbef2f0b9	-0.47449282
139	0xbeaf7d9c	-0.3427552
140	0xbe094efb	-0.13409035
141	0x3e2a8f95	0.16656335
142	0xbe09c60a	-0.13454452
143	0xbeb300a9	-0.3496144
144	0x3e18d615	0.14925416
145	0xbe86f570	-0.2635913
146	0x3eb28681	0.34868243
147	0xbd41d775	-0.047324616
148	0x3ee17e0c	0.4404148
149	0xbe8e911a	-0.2784508
150	0x3e838653	0.2568842
151	0x3f9abb2d	1.2088372
152	0x3e87ff6d	0.26562062
153	0x3ebe9bf9	0.37228373
154	0xbc9b82ae	-0.018983211
155	0xbd822868	-0.06355363
156	0xbe45af59	-0.19305171
157	0xbee629e1	-0.44953826
158	0x3f0765d3	0.52889746
159	0x3da6131b	0.08109113
160	0xbe8a1896	-0.26971883
161	0xbedf6e6e	-0.4363894
162	0x3f1cd0f5	0.61256343
163	0xbb840add	-0.0040296153
164	0xbe2a306a	-0.16620031
165	0xbec5fc61	-0.38669112
166	0xbeb22314	-0.34792387
167	0x3c3ed29b	0.011646892
168	0x3e1c2bfe	0.15251157
169	0xbd944647	-0.07239967
170	0x3f284183	0.6572496
171	0x3e4b2a07	0.19840251
172	0x3ee27494	0.44229567
173	0xbf10acbd	-0.5651358
174	0xbe61b3be	-0.22041222
175	0xbf514593	-0.81746787
176	0x3b4d7131	0.0031347985
177	0x3db2e99a	0.08735962
178	0xbea8a2fb	-0.32936844
179	0x3e22488c	0.15847987
180	0x3d3a5192	0.045487948
181	0x3ef0e74c	0.47051466
182	0xbe2800f7	-0.16406618
183	0x3f02c32f	0.51079077
184	0x3f158bf6	0.5841669
185	0xbec79779	-0.38982752
186	0x3f0d55c2	0.5520898
187	0x3eee97af	0.466001
188	0xbe70d450	-0.23518491
189	0xbe8ecb55	-0.27889505
190	0x3edc70e1	0.4305487
191	0xbd45b839	-0.04827139
192	0xbe9477e5	-0.28997722
193	0x3ee1c1f1	0.44093278
194	0xbc0417d9	-0.008062326
195	0x3bcab7be	0.0061864546
196	0xbd2d5bf9	-0.04232404
197	0x3f03cbc8	0.5148282
198	0xbf3c1c7d	-0.7348097
199	0x3e260df4	0.1621626
200	0x3e24f8f0	0.16110587
201	0xbea0ea40	-0.3142872
202	0x3e400a71	0.18753983
203	0x3d303f76	0.04302927
204	0xbdbf8771	-0.09352005
205	0xbf3fbcdd	-0.7489756
206	0xbe9484c3	-0.2900754
207	0x3d4b89dd	0.049692024
208	0x3e90d770	0.28289366
209	0xbdbc0e3b	-0.09182402
210	0xbe9672d1	-0.29384473
211	0xbe455a63	-0.19272761
212	0x3de050c5	0.109529056
213	0xbe9a5cc1	-0.3014889
214	0x3ea8c131	0.32959893
215	0x3f451426	0.7698387
216	0x3fb327bd	1.3996502
217	0x3e526caf	0.20549272
218	0xbe8ad42b	-0.27114996
219	0x3c7efd02	0.015563251
220	0x3e512fa3	0.20428328
221	0xbe3d45b3	-0.1848362
222	0x3eb6f07f	0.3573036
223	0xbe4bf025	-0.19915827
224	0xbe668fa1	-0.22515728
225	0xbdae937f	-0.085242264
226	0xbda1d725	-0.07902364
227	0xbc38862e	-0.01126246
228	0x3e8e6ff6	0.27819794
229	0x3e6bf77a	0.23043624
230	0xbecf7ed4	-0.4052645
231	0xbeba314a	-0.3636573
232	0x3efbffec	0.4921869
233	0xbebeebb6	-0.37289208
234	0x3e0f0ce8	0.13969767
235	0xbbe03b43	-0.006843002
236	0x3e2dcd11	0.16972758
237	0xbd8d148d	-0.068886854
238	0xbe5dc096	-0.21655497
239	0xbe02b52e	-0.12764427
240	0x3eb87bf6	0.36032075
241	0xbeb6cc7c	-0.35702884
242	0x3f3115b4	0.6917374
243	0xbe473d17	-0.19456898
244	0xbce7eb95	-0.028310576
245	0x3e0ab481	0.1354542
246	0x3eeaea40	0.45881844
247	0x3e28c783	0.16482358
248	0xbf18fde7	-0.59762424
249	0xbec11b85	-0.37716308
250	0xbbc3ea96	-0.0059788926
251	0xbcd062bc	-0.025437705
252	0x3d14abd5	0.036296684
253	0x3c8cff96	0.017211717
254	0xbcdc642a	-0.02690323
255	0xbf096cee	-0.5368184

pi.pi_net.0.bias f4 [64]
0	0x3e00d3e4	0.1258083
1	0x3e0350ef	0.12823842
2	0xbedfc547	-0.43705198
3	0x3ea78117	0.32715675
4	0xbdda76a6	-0.10667162
5	0x3e48ba82	0.19602397
6	0x3e2bbe1b	0.16771738
7	0xbeb6cec8	-0.35704637
8	0x3eb81da1	0.35960105
9	0xbddc15b8	-0.1074633
10	0xbf17e40a	-0.59332335
11	0xbf0712e3	-0.52763194
12	0x3d3c9a17	0.04604539
13	0x3efc4268	0.49269414
14	0xbeb6e99d	-0.35725108
15	0xbe101e9f	-0.14074181
16	0x3eec1c36	0.46115273
17	0x3a134c06	0.00056189334
18	0xbe8554ad	-0.26041165
19	0xbe9759c6	-0.2956068
20	0xbe514b9a	-0.20438996
21	0xbec765f3	-0.3894497
22	0xbeaeb617	-0.341233
23	0xbe752b15	-0.23942216
24	0x3e5aa4d0	0.21351933
25	0xbe77a301	-0.24183275
26	0xbefaf69a	-0.49016267
27	0xbc259d70	-0.010108337
28	0x3f07db0e	0.53068626
29	0xbe37b53a	-0.17940226
30	0x3f480854	0.7813771
31	0x3e7dbaa5	0.2477823
32	0xbe440286	-0.19141588
33	0xbdff66a7	-0.12470751
34	0xbe71dab1	-0.2361858
35	0x3eb29831	0.34881738
36	0x3ecccc26	0.39999503
37	0x3e59a5f8	0.21254718
38	0xbe8b086a	-0.27154857
39	0xbe90d231	-0.28285363
40	0x3e729266	0.23688659
41	0x3e492a2d	0.19644995
42	0x3e97e9af	0.29670474
43	0x3ef49fa9	0.4777806
44	0xbe6e7862	-0.2328811
45	0xbe59c89a	-0.2126793
46	0xbdad0e94	-0.08450046
47	0xbce583c4	-0.028016932
48	0xbec4872b	-0.38384375
49	0x3d6150d1	0.055008713
50	0xbdec7c22	-0.11547114
51	0x3eb647aa	0.3560155
52	0x3ea93cec	0.33054292
53	0xbdf7cceb	-0.12099632
54	0xbee7eebb	-0.45299324
55	0x3d869d4c	0.06572971
56	0xbf5a859b	-0.85360116
57	0xbe09f929	-0.13473953
58	0x3cc678b0	0.02422747
59	0xbdac7291	-0.08420289
60	0xbe34a3df	-0.17640637
61	0xbd807eed	-0.06274209
62	0x3e7792f3	0.2417715
63	0xbdb375ef	-0.087627284

pi.pi_net.2.weight f4 [64, 64]
0	0xbf3bbd73	-0.7333595
1	0x3ec94a07	0.3931429
2	0x3eebd42c	0.46060312
3	0x3ea4091a	0.32038194
4	0xbd9895c3	-0.0745044
5	0x3c3f38dc	0.011671271
6	0xbf07dff9	-0.5307613
7	0xbe65322e	-0.22382423
8	0xbde3e261	-0.11127163
9	0xbea12240	-0.31471443
10	0xbe9b9f7a	-0.30395108
11	0x3c50dff3	0.012748706
12	0xbe67d890	-0.22641206
13	0xbe407eae	-0.18798324
14	0xbc267507	-0.010159737
15	0xbe912f47	-0.28356382
16	0xbd070c2e	-0.0329706
17	0x3e696c1c	0.22795147
18	0xbe5e6775	-0.21719153
19	0x3f25f600	0.6482849
20	0x3e18eda3	0.14934401
21	0x3f4ccb63	0.79997844
22	0x3e75d902	0.24008563
23	0x3ea68a36	0.32527322
24	0xbe6b296f	-0.22965024
25	0x3e8f2f2e	0.27965683
26	0x3e9c7720	0.30559635
27	0xbe4a5360	-0.19758368
28	0xbe5715f8	-0.21004474
29	0xbe880813	-0.2656866
30	0x3efc7a66	0.49312133
31	0xbead21bf	-0.3381481
32	0xbdd8e4fe	-0.10590552
33	0xbe88575a	-0.26629144
34	0x3fa2b593	1.2711662
35	0xbf180f87	-0.5939869
36	0x3e0c10dc	0.13678306
37	0x3d84ad1d	0.06478331
38	0x3ea82a06	0.3284456
39	0xbe94e584	-0.29081357
40	0xbe58db57	-0.21177422
41	0xbf1339dd	-0.5751017
42	0x3cfe6382	0.031053308
43	0x3c297ecb	0.010345171
44	0xbd11682e	-0.035499744
45	0x3ef62fde	0.48083395
46	0x3eaeadcc	0.34116971
47	0x3e531315	0.20612748
48	0xbe0c6af3	-0.13712673
49	0x3e8fdf82	0.2810021
50	0x3dd1d023	0.10244777
51	0xbea312d8	-0.31850314
52	0xbd07536f	-0.033038553
53	0x3c39f558	0.011349998
54	0x3db4b159	0.08822889
55	0x3e922e49	0.28550938
56	0xbe62d743	-0.22152428
57	0xbeab7851	-0.33490232
58	0x3ecd4cc2	0.40097624
59	0xbea879c3	-0.32905397
60	0x3d87de31	0.066341765
61	0xb9e8f196	-0.00044430484
62	0x3daccf23	0.08437946
63	0x3e9c1cd4	0.30490744
64	0x3ef5bf8d	0.47997704
65	0x3d95e8c3	0.073197864
66	0xbe9c00ac	-0.30469263
67	0xbea8ac97	-0.32944176
68	0xbf3d4e06	-0.7394718
69	0x3ec7d74f	0.39031455
70	0x3f15a949	0.58461434
71	0x3e3c7a1a	0.18405953
72	0x3e72146c	0.23640603
73	0x3ec348e6	0.38141555
74	0xbe2f0f43	-0.17095666
75	0xbe01cf0f	-0.12676643
76	0x3cae3eed	0.02127024
77	0xbe650cef	-0.22368215
78	0xbe396e61	-0.18108512
79	0x3e03762c	0.12838048
80	0x3d6c18a4	0.057640687
81	0x3c77a3df	0.0151147535
82	0x3e85a1cb	0.261
83	0xbf0a3311	-0.5398417
84	0x3d00e4d9	0.031468246
85	0xbe81e438	-0.2536943
86	0xbe044645	-0.1291743
87	0xbf37bf97	-0.7177672
88	0xbbe6e3e8	-0.0070462115
89	0xbed2f951	-0.41205838
90	0xbf165201	-0.5871888
91	0xbced3119	-0.028954076
92	0x3eb35379	0.35024622
93	0xbe5d9261	-0.2163787
94	0xbebc8150	-0.36817408
95	0x3e14a2fc	0.14515299
96	0x3cf5a0d6	0.02998392
97	0x3de46381	0.11151791
98	0xbf6393bf	-0.8889732
99	0xbe07c3a5	-0.13258226
100	0xbe81a83b	-0.25323662
101	0xbeb8cd82	-0.3609429
102	0xbec94749	-0.393122
103	0x3e7db614	0.24776489
104	0x3ea041c6	0.3130018
105	0x3f4e49c9	0.8058134
106	0x3cc73ccf	0.024320988
107	0xbeb84324	-0.35988724
108	0xbebb0ba3	-0.36532316
109	0x3da317b6	0.07963507
110	0x3e5fbe73	0.21849994
111	0xbe2380cb	-0.159671
112	0xbde1ec68	-0.11031419
113	0xbe5d4a84	-0.21610457
114	0x3d837180	0.06418133
115	0x3d019ad7	0.031641807
116	0x3ebd63be	0.3699016
117	0xbaeaafd9	-0.001790519
118	0x3e8deb7e	0.2771873
119	0x3ec2429e	0.3794145
120	0x3e7cacf9	0.24675359
121	0x3e1426db	0.14467947
122	0xbea9070b	-0.33013186
123	0xbec6eaa3	-0.3885089
124	0x3d5f5d92	0.054532595
125	0xba5733d3	-0.00082093215
126	0xbe17681d	-0.1478581
127	0xbeb9d93d	-0.36298552
128	0x3e5be510	0.21474099
129	0xbefd2704	-0.4944383
130	0x3d668cc6	0.056286596
131	0xbf0eaa76	-0.5572885
132	0x3ddcb406	0.10776524
133	0xbed96afe	-0.4246444
134	0x3b783db8	0.0037878584
135	0x3e0aa295	0.13538583
136	0xbead81f2	-0.33888203
137	0xbdcdaba7	-0.10042506
138	0xbda3f207	-0.080051474
139	0x3e51f44c	0.20503348
140	0x3e770170	0.24121642
141	0xbcb323c2	-0.021867637
142	0x3e9753f9	0.29556254
143	0x3e9d1946	0.30683345
144	0x3e02fc18	0.12791479
145	0xbe9a88a6	-0.3018238
146	0x3e1e0e1e	0.15435073
147	0x3e0abbb8	0.13548172
148	0x3e0e2589	0.13881506
149	0xbd952f33	-0.07284393
150	0x3ec186dd	0.37798205
151	0x3e0cbca3	0.13743834
152	0xbe14ac03	-0.14518742
153	0xbeb699db	-0.35664257
154	0x3e306732	0.17226866
155	0xbec92513	-0.39286098
156	0xbe3b7c33	-0.18309097
157	0x3e1f43f0	0.1555326
158	0xbdd68601	-0.10474778
159	0x3edf4e5c	0.4361447
160	0xbeb54033	-0.35400543
161	0x3e23103f	0.15924166
162	0xbe29fd29	-0.16600479
163	0xbefb4bd8	-0.49081302
164	0x3e094312	0.13404492
165	0x3edf59bb	0.43623146
166	0x3f1c3deb	0.6103198
167	0xbed8540c	-0.42251623
168	0x3e52ec2f	0.2059791
169	0x3e3573f4	0.17720014
170	0x3bc759c5	0.0060836994
171	0x3e326900	0.17422867
172	0xbc325a43	-0.010885778
173	0x3e9fd441	0.31216624
174	0xbe9edb07	-0.3102648
175	0xbf5ba5a5	-0.8579963
176	0xbe011630	-0.1260612
177	0xbf0cc6d5	-0.54990894
178	0xbebe7ae9	-0.37203148
179	0x3e933161	0.2874861
180	0xbea83f06	-0.32860583
181	0x3e1392b4	0.14411432
182	0x3d1f97bb	0.03896306
183	0xbf067bc2	-0.5253259
184	0xbebf59c1	-0.37373164
185	0x3e91149e	0.28336042
186	0xbbf95234	-0.0076086763
187	0x3d8ac2bf	0.06775426
188	0x3e6abfe3	0.22924761
189	0xbe90ea66	-0.28303832
190	0xbc31a716	-0.010843059
191	0xbe8de7ad	-0.27715817
192	0xbec44ab3	-0.3833824
193	0x3e85093c	0.25983608
194	0xbd9ee717	-0.07758921
195	0xbdcafec0	-0.09911871
196	0xbe85f43d	-0.26162902
197	0xbeb1280e	-0.34600872
198	0x3e600de5	0.218803
199	0x3dd6df58	0.10491818
200	0xbd0e9e47	-0.034818914
201	0x3eeb339b	0.4593781
202	0x3e2988aa	0.1655604
203	0x3c54eefa	0.01299643
204	0xbedb686a	-0.428531
205	0xbea3361e	-0.31877226
206	0x3f07c88f	0.53040403
207	0x3ed8c6a0	0.4233904
208	0x3d70ca47	0.058786657
209	0xbf43431f	-0.76274294
210	0x3dec3e07	0.11535268
211	0xbee98eef	-0.45616862
212	0x3c602d71	0.013682709
213	0xbf18651e	-0.5952929
214	0xbe4bf505	-0.19917686
215	0xbea30bd0	-0.3184495
216	0x3e34c6e8	0.17654002
217	0xbd94c282	-0.07263662
218	0xbcf77393	-0.030206477
219	0xbf27072e	-0.6524533
220	0xbeababa9	-0.33529404
221	0x3eb51335	0.35366216
222	0xbe964c20	-0.29354954
223	0x3ea2c95f	0.3179426
224	0xbce3ffcf	-0.02783194
225	0x3e25a5d1	0.16176535
226	0xbf226618	-0.6343703
227	0x3eb4a2d3	0.35280475
228	0xbe577901	-0.21042253
229	0x3e4727c9	0.1944877
230	0xbc76d6e7	-0.015065885
231	0x3d8869ff	0.06660842
232	0xbe539c95	-0.206652
233	0x3f054496	0.5205778
234	0x3d91c33b	0.071173154
235	0xbe048510	-0.12941384
236	0x3e079ed6	0.13244185
237	0x3ecde1ce	0.40211338
238	0xbd7bcc7f	-0.06147432
239	0x3e026a55	0.12735875
240	0x3e40ac13	0.18815641
241	0xbed51875	-0.41620222
242	0xbd082d0d	-0.03324609
243	0xbde1e180	-0.11029339
244	0xbd493cd2	-0.04913027
245	0xbef5590d	-0.47919503
246	0x3de12790	0.10993874
247	0xbf4b5387	-0.7942433
248	0x3f014da9	0.50509125
249	0x3eb21934	0.34784853
250	0xbda195ca	-0.07889898
251	0x3d665dfc	0.056241974
252	0x3e21098b	0.15726297
253	0xbea5115a	-0.322398
254	0xbf370344	-0.7148936
255	0xbdd01cf1	-0.1016177

pi.pi_net.2.bias f4 [64]
0	0x3db492fe	0.08817099
1	0xbe7a7deb	-0.24462096
2	0x3d11ffb0	0.035644233
3	0xbea17187	-0.31531927
4	0x3e9593a6	0.2921421
5	0xbe279a38	-0.16367424
6	0xbeba1ed7	-0.36351654
7	0xbd6ca623	-0.057775628
8	0x3e468c2d	0.1938941
9	0x3e7276c7	0.23678122
10	0xbe992094	-0.29907668
11	0x3e864a38	0.262285
12	0xbdc73e53	-0.09728684
13	0xbd8b13fe	-0.067909226
14	0x3f16cba5	0.58904487
15	0xbc3f40bb	-0.011673148
16	0xbb9670db	-0.00459109
17	0xbd836a09	-0.06416709
18	0xbcfa7e67	-0.030577851
19	0x3e1497a5	0.14510973
20	0xbcb463fb	-0.02202033
21	0x39cdb402	0.00039234763
22	0xbda7cde0	-0.081935644
23	0x3e58fa7c	0.21189302
24	0x3e0ca183	0.13733487
25	0xbd4da7d1	-0.05020887
26	0xbe90df96	-0.28295583
27	0xbd427b78	-0.04748103
28	0xbddfb85c	-0.10923836
29	0xbcb12ea2	-0.021628682
30	0x3b0ce04e	0.0021496
31	0xbdc22f51	-0.09481681
32	0xbe11b314	-0.14228469
33	0xbe760f8c	-0.24029368
34	0xbcf4d749	-0.029887812
35	0x3d56b87a	0.052422024
36	0x3c9967ad	0.018726194
37	0xbe71e7e2	-0.23623613
38	0xbef24cfc	-0.4732436
39	0x3d72c7fa	0.059272744
40	0xbe07bbcf	-0.13255237
41	0xbf32502a	-0.6965357
42	0xbd5a89f3	-0.053354215
43	0x3d4fc08e	0.050720744
44	0xbf48cbfa	-0.78436244
45	0xbe11422d	-0.141854
46	0xbe2f1e91	-0.17101504
47	0xbcbbd62c	-0.022929274
48	0x3e44f6f0	0.19234824
49	0x3dd084dd	0.10181592
50	0xbe9d6dc4	-0.30747807
51	0x3c2656d5	0.010152538
52	0xbe395b0c	-0.18101138
53	0xbe26e964	-0.16299969
54	0xbd535d53	-0.051602673
55	0xbe8c33b0	-0.27383184
56	0x3e88d43d	0.26724425
57	0x3f44e87e	0.76917255
58	0xbd735cfd	-0.059414852
59	0x3e024796	0.1272262
60	0x3d67dd5a	0.05660758
61	0xbeb77865	-0.3583404
62	0xbe04f9bd	-0.12985893
63	0x3ed0acad	0.4075674

pi.pi_net.4.weight f4 [256, 64]
0	0xbe8239e8	-0.25434804
1	0x3d8ad991	0.06779779
2	0x3d8885cb	0.06666144
3	0x3e8cdece	0.27513736
4	0xbc0fb10f	-0.008770241
5	0x3e71cb10	0.23612618
6	0x3e8f8e04	0.28038037
7	0xbd905d9f	-0.07049107
8	0x3cc9f8f1	0.024654837
9	0xbd4ad219	-0.04951677
10	0x3deeb5fc	0.116558045
11	0xbee37dbf	-0.44431874
12	0x3d1ae007	0.037811305
13	0x3e738f2f	0.23785089
14	0xbe997843	-0.29974565
15	0xbe4a9ab7	-0.19785582
16	0xbdc9b958	-0.09849805
17	0x3ddd2982	0.107989326
18	0x3c05371a	0.008130813
19	0xbec1c099	-0.37842253
20	0x3e53d10e	0.20685217
21	0x3e380658	0.1797117
22	0x3d87b273	0.06625833
23	0xbe48851c	-0.19582027
24	0x3daa3793	0.08311381
25	0x3e67eba9	0.22648491
26	0x3ec4abfd	0.38412467
27	0x3dfe2967	0.124102406
28	0x3e8c2fe4	0.27380288
29	0xbdafad1c	-0.0857794
30	0x3e6c339d	0.23066564
31	0x3dd75679	0.1051454
32	0x3e851fb5	0.26000753
33	0x3eadf33c	0.33974636
34	0x3d17e7de	0.03708636
35	0xbe290fd8	-0.1650995
36	0xbcf6e61a	-0.030139018
37	0x3d89489c	0.06703302
38	0x3e8a07bb	0.26959023
39	0xbeb5d5e4	-0.35514748
40	0x3d566815	0.052345354
41	0x3e14ed0e	0.14543554
42	0xbdf05ec9	-0.11736829
43	0x3e2251d3	0.15851526
44	0x3ee77905	0.45209518
45	0x3e84bb22	0.2592402
46	0x3e568d7e	0.20952412
47	0xbe0eab7f	-0.13932608
48	0xbe89f338	-0.26943374
49	0xbe908e00	-0.28233337
50	0xbe17a154	-0.14807636
51	0x3e722e49	0.23650469
52	0x3e2d16f2	0.16903284
53	0x3d65ea03	0.056131374
54	0x3ea9d54f	0.33170554
55	0x3a9c43f6	0.0011922109
56	0xbe4c6e54	-0.19963962
57	0xbe854fe3	-0.2603751
58	0x3e2cf29b	0.16889422
59	0x3c8bc946	0.017063748
60	0xbe54b7d5	-0.20773251
61	0x3e3c60b4	0.18396264
62	0xbe8209e2	-0.25398165
63	0xbde1f3c9	-0.110328265
64	0x3e38569c	0.18001789
65	0xbe2bfd86	-0.1679593
66	0x3eba94d0	0.3644166
67	0x39e767be	0.00044137047
68	0xbf13fa1b	-0.57803506
69	0xbe106e43	-0.14104562
70	0x3e37e11c	0.17956966
71	0xbe9972e9	-0.29970482
72	0xbe00aeac	-0.12566632
73	0x3d0c0a23	0.034189355
74	0xbc9ed634	-0.01938925
75	0xbdb0fead	-0.086423256
76	0x3c9facce	0.01949158
77	0xbe21566a	-0.1575562
78	0xbe0a3bdf	-0.13499402
79	0xbbdef66d	-0.0068042786
80	0x3dbdaad7	0.09261101
81	0x3da44b71	0.08022202
82	0xbe5e2de2	-0.2169719
83	0xbe0525bf	-0.1300268
84	0x3cfb492c	0.03067454
85	0x3d3d9052	0.046280213
86	0x3d5dc47e	0.054142468
87	0xbdd19b0b	-0.1023465
88	0xbe572664	-0.21010739
89	0xbded52de	-0.11588071
90	0x3e98c1d2	0.29835373
91	0xbeff2a7a	-0.49837095
92	0x3e9b3a07	0.3031771
93	0xbeb1e2f5	-0.34743467
94	0xbc7c4e32	-0.015399503
95	0xbe4dbad4	-0.200908
96	0xbc53497b	-0.012895937
97	0x3eba1070	0.36340666
98	0x3dcbac5a	0.09944983
99	0x3e726f99	0.23675384
100	0xbe0eff64	-0.13964611
101	0x3e8fd801	0.28094485
102	0xbd09c911	-0.033639017
103	0x3e09b971	0.13449647
104	0xbdd69705	-0.104780234
105	0xbe07f899	-0.13278426
106	0x3e206c67	0.15666352
107	0x3de5325c	0.11191246
108	0xbcb0a51e	-0.021563109
109	0x3d989273	0.07449808
110	0xbde10d4e	-0.10988866
111	0xbea5dd09	-0.323952
112	0xbe0efb25	-0.13962992
113	0xbd97e7a2	-0.07417227
114	0x3dfc6e3a	0.123257115
115	0xbd765048	-0.060135156
116	0x3e650eee	0.22368976
117	0x3e8e7c7e	0.27829355
118	0xbda04d74	-0.07827273
119	0x3e834447	0.2563803
120	0x3d2876f2	0.04112906
121	0xbd4f8052	-0.050659485
122	0x3cfab8f0	0.030605763
123	0x3e0d36d0	0.1379044
124	0xbebf2364	-0.37331688
125	0x3dd5fcc7	0.10448604
126	0xbeb1b8f9	-0.34711435
127	0xbe3e1d8b	-0.18565957
128	0x3ddc321e	0.107517466
129	0x3e23f541	0.16011526
130	0xbd6b1aa6	-0.05739846
131	0xbd22c5e5	-0.03973951
132	0x3d333608	0.0437527
133	0xbcee5d31	-0.029097172
134	0x3d025036	0.031814776
135	0x3e86f103	0.26355752
136	0x3dd46afa	0.10371967
137	0x3d2e2350	0.042514145
138	0xbe722931	-0.23648526
139	0xbe8b2d3a	-0.27182943
140	0x3e890b18	0.26766276
141	0xbf11d1c3	-0.56960696
142	0x3c78c812	0.015184419
143	0x3e2ddfea	0.16979948
144	0xbe86961c	-0.262864
145	0xbe6dba7c	-0.2321567
146	0x3de29370	0.11063278
147	0xbca2007b	-0.01977562
148	0xbdb1c63d	-0.08680389
149	0x3edd04de	0.43167776
150	0xbe082213	-0.13294248
151	0xbdb14afb	-0.086568795
152	0x3f28f3f9	0.6599727
153	0xbe3292d6	-0.17438826
154	0x3f161163	0.5862028
155	0xbefa3176	-0.4886586
156	0x3e99c234	0.30030978
157	0x3e3fa426	0.18714961
158	0x3eecd33e	0.46254915
159	0x3f43e524	0.76521516
160	0x3ed71f68	0.4201615
161	0x3dca6205	0.09881977
162	0xbdd2adae	-0.10287033
163	0xbdba8c72	-0.09108819
164	0xbea0100c	-0.31262243
165	0xbe66b49c	-0.22529835
166	0xbc1906fe	-0.009340046
167	0xbecfd1a0	-0.4058962
168	0xbedfc64c	-0.43705976
169	0x3980fc8d	0.00024602227
170	0xbd3aafe2	-0.04557789
171	0xbe5d8666	-0.216333
172	0xbd318f03	-0.043349277
173	0x3e0939f8	0.1340102
174	0x3d9d4cc7	0.0768066
175	0xbf293c45	-0.6610759
176	0x3d8c729f	0.068578
177	0x3da31f93	0.07965007
178	0x3eb89e85	0.3605844
179	0x3e2ed1e4	0.17072254
180	0xbe52c47f	-0.2058277
181	0x3f001d36	0.5004457
182	0x3e044c21	0.12919666
183	0xbe03039b	-0.12794344
184	0x3e44a0d8	0.19201982
185	0xbe22d9e5	-0.15903433
186	0x3f136351	0.5757342
187	0xbe8b137c	-0.27163303
188	0xbedac8fe	-0.4273147
189	0x3e8b8191	0.2724729
190	0xbe13197e	-0.14365193
191	0x3e651d34	0.22374421
192	0x3f47316d	0.7780979
193	0xbf876bbe	-1.0579755
194	0x3ef23c7e	0.47311777
195	0xbf429726	-0.76011884
196	0x3f415a46	0.7552837
197	0xbf861d3f	-1.0477675
198	0xbf3da0fc	-0.7407377
199	0x3dbdb723	0.09263446
200	0x3f83ea8d	1.0305954
201	0x3f8e15df	1.1100425
202	0xbebbf222	-0.3670817
203	0x3f1876d0	0.59556293
204	0x3f589421	0.84601027
205	0xbefb4acc	-0.49080503
206	0x3f32f678	0.6990733
207	0x3f5a6ba5	0.853205
208	0xbc931efa	-0.017959107
209	0xbf01a798	-0.5064635
210	0xbeec1bb5	-0.4611489
211	0x3f6a942c	0.9163234
212	0xbf1f9b0e	-0.6234597
213	0xbf2355e5	-0.6380294
214	0xbf6ff5c2	-0.9373437
215	0x3f3879c8	0.72060823
216	0x3ea7da18	0.3278358
217	0xbf65d7fa	-0.8978268
218	0xbe966acd	-0.29378358
219	0x3f32df8f	0.69872373
220	0x3d15d529	0.03658024
221	0x3f575e73	0.84128493
222	0x3f90dd57	1.1317548
223	0xbee6d764	-0.45086205
224	0x3f84abac	1.036489
225	0xbef3be27	-0.47606012
226	0xbf76de78	-0.9643321
227	0x3f5168e0	0.8180065
228	0x3f0d7df6	0.55270326
229	0xbf6d4cec	-0.926955
230	0xbf7eadda	-0.99484026
231	0x3f434579	0.7627788
232	0x3f58b5b7	0.84652275
233	0xbf3a0eca	-0.72678816
234	0x3f8474fd	1.0348202
235	0xbf914697	-1.1349667
236	0xbf27518a	-0.65358794
237	0xbf73091c	-0.94935775
238	0xbf6d9d49	-0.92818123
239	0x3db4dc73	0.0883111
240	0x3f8039af	1.0017604
241	0x3f6c0d35	0.9220765
242	0x3d1d9f5b	0.03848205
243	0xbf565ace	-0.83732307
244	0xbf80fdbe	-1.0077436
245	0x3eb81d80	0.35960007
246	0xbf0f337a	-0.5593792
247	0xbf7220c0	-0.9458122
248	0x3f43bdc3	0.7646143
249	0x3f3b36fa	0.7313076
250	0x3ed0bc1e	0.40768522
251	0xbf42f666	-0.76157224
252	0x3e85bcfe	0.26120752
253	0xbee763b8	-0.45193267
254	0xbf760e4a	-0.96115553
255	0x3f1cddf1	0.61276156

pi.pi_net.4.bias f4 [256]
0	0xbe2bb8a3	-0.16769652
1	0x3d2386ff	0.039923664
2	0x3c476e2a	0.012172261
3	0x3f645a48	0.8920026
4	0xbe8231a0	-0.25428486
5	0xbe3534ac	-0.17695874
6	0x3f4d2ad0	0.8014345
7	0xbe80cec6	-0.25157756
8	0xbe4b5068	-0.19854891
9	0xbe3a2bec	-0.18180817
10	0xbe6e1838	-0.23251426
11	0x3f5cb95c	0.86220336
12	0x3f4e0c24	0.80487275
13	0xbe58267a	-0.21108428
14	0xbe542def	-0.20720647
15	0xbe014e55	-0.12627538
16	0xbd3165c9	-0.04330996
17	0xbd0cea6c	-0.03440325
18	0xbe816c7f	-0.25278088
19	0x3f5ff3c0	0.8748131
20	0xbe1d933f	-0.15388201
21	0xbe390a2f	-0.18070291
22	0xbe536e4d	-0.20647545
23	0xbe4ea91d	-0.20181699
24	0xbe4c474e	-0.19949076
25	0x3f368bb9	0.7130695
26	0xbe6c7acf	-0.23093723
27	0x3f429301	0.7600556
28	0x3f65e141	0.89796835
29	0xbe62b50c	-0.22139376
30	0xbe643a39	-0.22287835
31	0xbe9afec7	-0.30272505
32	0xbd144c9b	-0.03620587
33	0x3f63d505	0.88996917
34	0xbcc9c737	-0.024631126
35	0xbe07b1ff	-0.13251494
36	0xbe370026	-0.1787115
37	0x3d150f5e	0.03639161
38	0xbe1e5d0a	-0.15465179
39	0xbe4c002c	-0.1992194
40	0x3f4bcd18	0.79609823
41	0xbe7170b0	-0.23578143
42	0xbdb412d7	-0.08792656
43	0xbe33efcb	-0.17571943
44	0xbe1ea996	-0.1549438
45	0x3d4ad6ab	0.04952113
46	0xbe3a64ba	-0.18202487
47	0x3f50108c	0.8127525
48	0xbdfaf4bc	-0.12253711
49	0xbdd393d7	-0.103309326
50	0x3c2078b6	0.009794405
51	0x3f7193c2	0.94366086
52	0xbd27e8fe	-0.040993683
53	0xbe3666fe	-0.17812726
54	0xbe13ac0f	-0.14421104
55	0xbe1400e2	-0.14453462
56	0xbd1d427a	-0.038393475
57	0x3f56c400	0.8389282
58	0xbdfc0856	-0.123062775
59	0x3f4d808f	0.8027429
60	0xbe62ff0a	-0.22167602
61	0xbe4fe54f	-0.20302318
62	0xbe24b3b4	-0.16084176
63	0x3f44bfa9	0.7685495
64	0xbe4fcfcc	-0.20294112
65	0xbdd9fc05	-0.10643772
66	0xbe25a613	-0.16176634
67	0x3f3c4738	0.7354617
68	0x3f5ec241	0.8701516
69	0x3f42e072	0.76123726
70	0x3f63fb2e	0.89055145
71	0xbe001bfd	-0.12510677
72	0x3f699446	0.9124187
73	0xbe830914	-0.25592864
74	0xbe5b8b87	-0.21439944
75	0x3d8d855d	0.06910203
76	0xbdc0f08d	-0.094208814
77	0x3d28b0f6	0.041184388
78	0xbe415dd4	-0.18883449
79	0xbe893afd	-0.26802817
80	0xbe78f5b9	-0.24312486
81	0xbdb8bacc	-0.09020004
82	0x3f587748	0.8455701
83	0x3f4b5386	0.7942432
84	0xbe38e002	-0.18054202
85	0x3db20cc9	0.08693845
86	0xbe3b5a78	-0.1829623
87	0xbe8cdd4f	-0.27512595
88	0x3f3cf6f7	0.7381434
89	0xbe38f894	-0.18063575
90	0x3f6cd3f3	0.9251091
91	0xbd09a8c1	-0.033608202
92	0xbe007c68	-0.12547457
93	0x3f7118fb	0.9417874
94	0xbe27968d	-0.16366024
95	0xbddb68c2	-0.1071334
96	0x3f3d6e8d	0.7399681
97	0x3f649943	0.8929636
98	0xbe026346	-0.12733182
99	0xbca534b2	-0.020166729
100	0x3e5da331	0.21644284
101	0xbe41b8fe	-0.18918225
102	0xbba9b105	-0.005178573
103	0xbe7cb5da	-0.24678746
104	0x3f571e3c	0.8403051
105	0xbe36ea19	-0.17862739
106	0x3f5cb939	0.8622013
107	0xbe74e78e	-0.23916456
108	0xbd8da23f	-0.069157116
109	0xbe5684d3	-0.20949106
110	0xbdc22bd1	-0.094810136
111	0xbe733d1c	-0.2375378
112	0x3dc266c4	0.09492257
113	0xbe5c2a6e	-0.2150056
114	0xbe514792	-0.20437458
115	0x3f5c7942	0.86122525
116	0x3f5541f2	0.8330375
117	0xbdc9cd8c	-0.09853658
118	0xbe7fa3c3	-0.24964814
119	0xbe896a5a	-0.26838952
120	0x3f55b6b4	0.8348191
121	0x3e9eaa38	0.30989242
122	0x3f26132e	0.64873016
123	0xbc32e366	-0.010918474
124	0xbe0765db	-0.13222449
125	0xbde4b30d	-0.11166964
126	0xbe57c204	-0.21070105
127	0xbe652c7c	-0.2238025
128	0xbd68d50e	-0.05684381
129	0xbe5c4dfa	-0.2151412
130	0xbe4f4b27	-0.20243512
131	0xbe41d652	-0.18929413
132	0xbe510a35	-0.2041405
133	0x3f4bcb2a	0.7960688
134	0xbda9ae17	-0.08285158
135	0xbe4c685d	-0.19961686
136	0xbe0c04e4	-0.1367374
137	0xbc4518a2	-0.012029799
138	0x3f5def5c	0.8669336
139	0x3f632d03	0.8874056
140	0xbdafb767	-0.08579903
141	0x3f5901bf	0.8476829
142	0x3d3902c1	0.045168642
143	0xbd7e570f	-0.062094744
144	0x3db91c2f	0.09038579
145	0xbe77dc28	-0.24205077
146	0x3d9b8fc0	0.075957775
147	0x3f463b56	0.7743429
148	0x3e7985a0	0.2436738
149	0xbe547090	-0.20746064
150	0xbe0c6ba6	-0.1371294
151	0xbe833bc8	-0.25631547
152	0xbe02939f	-0.12751625
153	0xbe2fc1e8	-0.17163813
154	0x3f3dc79b	0.741327
155	0xbe5f539d	-0.2180924
156	0xbdc683ee	-0.09693132
157	0xbe183b36	-0.14866337
158	0xbe439e0b	-0.19103257
159	0xbcf704d4	-0.03015367
160	0x3f5800a9	0.8437601
161	0x3d634d24	0.05549349
162	0x3d623519	0.05522642
163	0xbe3ac03b	-0.18237393
164	0x3f4d310d	0.8015297
165	0xbe86960b	-0.2628635
166	0xbdf5d908	-0.12004286
167	0xbe62b554	-0.22139484
168	0x3f4fbd85	0.8114856
169	0x3f4cd36a	0.8001009
170	0xbd5576db	-0.052115303
171	0x3f5e0bc7	0.8673672
172	0x3f5e7a9d	0.86905843
173	0x3f59e637	0.85116905
174	0x3f546428	0.82965326
175	0xbe4e891d	-0.20169492
176	0x3f4c9176	0.79909456
177	0x3d4e5bd4	0.050380543
178	0xbe484ea3	-0.19561248
179	0xbe51fced	-0.2050664
180	0x3bc0c7f5	0.0058832117
181	0x3f6bc1c3	0.9209253
182	0x3f52a0b2	0.8227645
183	0xbd95a4ce	-0.073068246
184	0x3f754367	0.9580597
185	0x3f537796	0.8260435
186	0xbe3c5443	-0.18391518
187	0xbe26f44a	-0.16304126
188	0xbe8d7079	-0.27624872
189	0xbe37934d	-0.17927285
190	0xbe232fc1	-0.15936185
191	0xbe01dda6	-0.12682208
192	0x3f64986f	0.89295095
193	0xbe843473	-0.25821266
194	0xbe1e115c	-0.1543631
195	0xbcf40466	-0.029787254
196	0x3db197cb	0.0867153
197	0x3f4e1176	0.80495393
198	0xbe358cb2	-0.17729452
199	0xbdfb7ab4	-0.12279263
200	0x3f5b5b01	0.85685736
201	0x3de99ae8	0.11406499
202	0xbdf7d106	-0.12100415
203	0x3f4381e1	0.76370054
204	0x3f57f235	0.84353954
205	0xbe6304e1	-0.2216983
206	0xbe86eb99	-0.26351622
207	0x3f4900f0	0.78517056
208	0xbd576e3b	-0.05259536
209	0x3f5374ce	0.82600105
210	0xbdf45d68	-0.11931878
211	0xbe634382	-0.22193721
212	0x3d6e1b49	0.05813149
213	0xbe671654	-0.22567111
214	0xbe3f51b9	-0.18683518
215	0xbe2f1073	-0.17096119
216	0xbe5cdca8	-0.21568549
217	0x3f5c4c48	0.86053896
218	0xba12fb9b	-0.000560695
219	0xbdbf35cb	-0.09336432
220	0xbe4dd29f	-0.20099877
221	0xbe169350	-0.14704633
222	0x3d8335ab	0.06406721
223	0xbe1a3b98	-0.15061796
224	0xbd6365e7	-0.055517104
225	0xbe440b90	-0.19145036
226	0xbdd31adc	-0.103078574
227	0xbe069154	-0.13141376
228	0xbe852a46	-0.26008815
229	0x3f697696	0.9119657
230	0xbd1d803d	-0.038452376
231	0x3f4e66e0	0.80625725
232	0x3f533890	0.8250818
233	0xbd799a7f	-0.060938355
234	0xbe23123e	-0.15924928
235	0x3b04abdd	0.002024404
236	0x3d542377	0.051791634
237	0xbde77c34	-0.11302987
238	0x3f5563bc	0.8335531
239	0xbe149122	-0.14508489
240	0x3f49c15e	0.7881068
241	0x3f56c3ab	0.83892316
242	0xbe2b5e63	-0.16735224
243	0xbeb33823	-0.35003766
244	0x3c2939c8	0.0103287175
245	0x3d85aa69	0.06526644
246	0xbe3f976b	-0.18710105
247	0xbe1c4bed	-0.15263338
248	0xbe32ddfe	-0.17467496
249	0xbe8dc575	-0.2768971
250	0x3f393dbc	0.72359824
251	0x3f699729	0.9124628
252	0xbe28ef08	-0.16497433
253	0x3f4032b7	0.75077385
254	0xbe664620	-0.22487688
255	0x3f59f1fa	0.8513485

v.v_net.0.weight f4 [64, 5]
0	0xbf509610	-0.8147898
1	0xbe65aafb	-0.22428505
2	0xbba7106a	-0.0050983923
3	0x3e9fad31	0.31186822
4	0x3e6b3b8d	0.22971936
5	0xbc3c9116	-0.011509201
6	0xbf4b97c6	-0.7952846
7	0x3ed278c0	0.4110775
8	0x3f70bdd0	0.9403963
9	0x3f87ea21	1.0618325
10	0xbef060b4	-0.4694878
11	0xbf525016	-0.8215345
12	0xbd2c6b8e	-0.04209476
13	0x3d86424f	0.06555616
14	0xbe2ec1dc	-0.17066139
15	0x3f233c9c	0.6376436
16	0x3f7be94e	0.9840287
17	0x3eb2cfe2	0.34924227
18	0xbd1c8b8c	-0.03821902
19	0x3ecdd76d	0.4020342
20	0x3ef0e4a9	0.47049454
21	0xbe9f9001	-0.31164554
22	0x3ecd0eee	0.40050453
23	0x3ea4da3a	0.32197744
24	0x3e135fe4	0.14392048
25	0xbf7519fc	-0.95742774
26	0x3d694111	0.056946818
27	0x3d822583	0.06354811
28	0xbb1d0144	-0.0023957053
29	0x3e360cfa	0.17778388
30	0x3f470bda	0.7775246
31	0x3b244b9d	0.0025069483
32	0xbddd93b5	-0.108191885
33	0x3d898f6d	0.067168094
34	0x3f4a2d1f	0.789751
35	0x3f1c4cfd	0.61054975
36	0xbe356d26	-0.17717418
37	0x3e4cb859	0.19992198
38	0x3eb21c41	0.3478718
39	0xbd148c96	-0.036266886
40	0xbf44087d	-0.7657545
41	0xbebe80c1	-0.37207606
42	0x3d20c7dc	0.0392531
43	0x3ecd28dd	0.4007024
44	0x3e90978a	0.28240615
45	0xbea962c3	-0.33083162
46	0xbeaa341d	-0.33242884
47	0xbeceafb1	-0.40368417
48	0xbe340b93	-0.1758254
49	0x3dd0f565	0.10203055
50	0xbf34a501	-0.70564276
51	0xbf874980	-1.0569305
52	0xbe19735a	-0.1498541
53	0x3e8ddd75	0.2770802
54	0xbdadc54f	-0.08484899
55	0xbeab429a	-0.3344925
56	0xbdc3d8ca	-0.095628336
57	0xbedae779	-0.42754725
58	0x3de38434	0.111092
59	0xbed04330	-0.4067626
60	0x3ee1a29d	0.44069377
61	0x3f40cd44	0.7531321
62	0x3eb6e4b3	0.3572136
63	0xbec77b1a	-0.38961107
64	0x3e62bdb1	0.22142674
65	0xbf6bc92b	-0.9210383
66	0xbf3b51e7	-0.7317185
67	0xbf151faa	-0.5825144
68	0xbec8a8da	-0.39191324
69	0xbf63f3bf	-0.890438
70	0x3f1a554b	0.60286397
71	0xbd596166	-0.053071402
72	0x3e7fbd15	0.24974473
73	0x3ea33004	0.3187257
74	0xbeaf1c1b	-0.3420113
75	0x3f546c61	0.82977873
76	0x3dd50c74	0.10402766
77	0x3e0462f8	0.12928379
78	0xbe88e636	-0.26738137
79	0xbe817cb9	-0.25290468
80	0x3de7c7ea	0.113174275
81	0xbe3f10f4	-0.18658811
82	0xbe337491	-0.17524935
83	0x3e7e8825	0.24856623
84	0x3ed4eff9	0.41589335
85	0xbe640919	-0.22269095
86	0xbf103026	-0.5632347
87	0xbe615025	-0.22003229
88	0xbeea6424	-0.45779526
89	0xbf25c2db	-0.6475045
90	0x3d823194	0.063571125
91	0x3f1c8847	0.6114544
92	0x3dffa67e	0.12482928
93	0x3ee99b05	0.45626083
94	0x3f7edbce	0.99554145
95	0xbec7406b	-0.38916335
96	0x3d9eccfa	0.0775394
97	0xbeb14550	-0.34623194
98	0xbe9e4435	-0.30911413
99	0xbc35c944	-0.011095349
100	0x3f5266d7	0.8218817
101	0x3d19d9e3	0.03756131
102	0xbd9b93d9	-0.07596559
103	0xbe0e6dad	-0.13909025
104	0x3d8ce4cc	0.06879577
105	0xbf14bbe6	-0.5809921
106	0xbd3e595c	-0.04647194
107	0xbe625e00	-0.2210617
108	0x3ef020a2	0.46899897
109	0x3dbee052	0.093201295
110	0xbed5adfa	-0.41734296
111	0x3d5cb6fd	0.05388545
112	0xbddf0a18	-0.10890597
113	0xbf14b32b	-0.5808589
114	0x3e162ebe	0.14666268
115	0x3ec8778f	0.39153716
116	0x3f941e3a	1.1571724
117	0x3d7ee79c	0.0622326
118	0x3e1bf40d	0.15229817
119	0xbf011f57	-0.50438446
120	0x3f07ff89	0.5312429
121	0x3e8f3765	0.2797195
122	0xbe1ed7ce	-0.1551201
123	0xbd957737	-0.07298129
124	0xbcfdd449	-0.030985015
125	0x3f41b547	0.7566723
126	0xbd08d605	-0.03340723
127	0x3c8518ae	0.01624712
128	0xbe26fe58	-0.16307962
129	0x3d800d33	0.062525176
130	0x3e93b4a8	0.28848767
131	0x3d17b6e4	0.037039652
132	0x3e19cda3	0.1501985
133	0x3ec9c59f	0.39408585
134	0x3e73a29e	0.23792502
135	0x3f0ca790	0.5494318
136	0xbdf114ca	-0.11771543
137	0xbc0e7d29	-0.008696833
138	0x3dc75a76	0.09734051
139	0x3f120b2f	0.57048315
140	0x3f6fe59e	0.93709743
141	0x3e43eaa1	0.19132473
142	0xbe2b2a43	-0.1671534
143	0xbda8fb9e	-0.08251117
144	0xbf3feb09	-0.7496801
145	0xbed68185	-0.4189569
146	0xbf42934b	-0.76006
147	0x3e242e65	0.16033323
148	0x3e75f7c5	0.24020298
149	0xbf5071a9	-0.8142343
150	0xbf0222eb	-0.5083453
151	0x3e173920	0.14767885
152	0xbe6db679	-0.23214139
153	0xbeb8f6f7	-0.3612592
154	0x3dfbe6d9	0.1229989
155	0x3f4be297	0.79642624
156	0xbc8d48dd	-0.017246658
157	0x3d7ce659	0.061743114
158	0x3d402ad7	0.046915855
159	0x3e14d8fa	0.14535895
160	0x3f969823	1.1765178
161	0x3f6fd308	0.93681383
162	0x3efe2daf	0.4964423
163	0xbe6b095e	-0.22952792
164	0x3e4a8a4f	0.19779323
165	0x3f3976a6	0.7244667
166	0x3f47e3c2	0.78081906
167	0xbe095ac8	-0.13413537
168	0x3f273ed1	0.65330225
169	0x3d040b9f	0.032237645
170	0x3ddc9bc8	0.107719004
171	0x3f16848c	0.58796
172	0xbf306b15	-0.68913394
173	0xbdbfa44d	-0.0935751
174	0xbde474c4	-0.11155084
175	0x3f14d258	0.5813346
176	0x3ec03e5d	0.3754758
177	0xbe40d3dd	-0.1883082
178	0xbeb57880	-0.35443497
179	0xbf047af0	-0.5175009
180	0x3f1df9be	0.617092
181	0xbeadb3ea	-0.33926326
182	0xbccdd4b2	-0.025125835
183	0xbe3c04ce	-0.18361208
184	0x3f306e11	0.6891795
185	0xbf255b81	-0.6459275
186	0xbe908327	-0.2822506
187	0xbeffea4a	-0.49983436
188	0xbf4051e7	-0.75124973
189	0xbe0d1a65	-0.137796
190	0xbed19102	-0.40930945
191	0x3e51ff2b	0.20507495
192	0x3e756693	0.2396491
193	0xbecddfbe	-0.40209764
194	0xbf2cc9d1	-0.6749545
195	0x3f518528	0.81843805
196	0x3f40357b	0.75081605
197	0x3e00b6db	0.12569754
198	0x3dd296b2	0.10282649
199	0x3ed0be03	0.40769967
200	0x3f56e2d0	0.8393984
201	0xbef7b64e	-0.48381275
202	0x3d2cbdcb	0.04217319
203	0x3e49f9a3	0.19724135
204	0x3ea80ed0	0.328238
205	0x3f904f33	1.127417
206	0x3e388857	0.1802076
207	0xbef3158b	-0.47477373
208	0xbebfd6c2	-0.37468535
209	0xbcc556a7	-0.02408917
210	0x3f8d9102	1.1059878
211	0x3e01eb45	0.12687404
212	0xbf157df5	-0.5839532
213	0xb9970a03	-0.00028808424
214	0xbd9071c1	-0.07052947
215	0xbf0814ae	-0.53156555
216	0xbedf0c08	-0.43563867
217	0x3ed622b5	0.41823354
218	0x3efee7e7	0.49786302
219	0x3e99e7b4	0.30059588
220	0x3f0126d6	0.50449884
221	0xbdffb546	-0.12485747
222	0x3e9f4604	0.31108105
223	0x3dc15ec4	0.09441903
224	0x3e9e633a	0.3093508
225	0xbf328a26	-0.6974205
226	0xbd4d1cf1	-0.05007643
227	0x3d66e909	0.056374583
228	0xbe982972	-0.2971912
229	0xbd7b2966	-0.061318778
230	0x3d3f8a37	0.04676267
231	0x3ddc7c3b	0.107658826
232	0x3e99844b	0.29983744
233	0x3f805827	1.0026902
234	0x3f9ece5e	1.2406728
235	0xbee8c477	-0.4546239
236	0xbe81bd7f	-0.25339887
237	0xbdac0e86	-0.084012076
238	0xba6a39ce	-0.0008935005
239	0xbe91cb3d	-0.2847537
240	0x3f8f0f64	1.1176572
241	0x3f8e3e10	1.111269
242	0x3f55d376	0.8352579
243	0x3f13107e	0.5744704
244	0xbe2fd80a	-0.17172256
245	0xbef2883f	-0.47369573
246	0x3da54f0f	0.0807172
247	0x3e406ac0	0.18790722
248	0xbeb9d26f	-0.3629336
249	0xbeaf3aa6	-0.34224433
250	0x3fa4d68e	1.2877977
251	0x3f21fcfe	0.6327666
252	0x3d1b3d4a	0.037900247
253	0x3e9de045	0.30835167
254	0x3e696b55	0.2279485
255	0xbef11b19	-0.47090986

v.v_net.0.bias f4 [64]
0	0x3cf238ca	0.029568095
1	0xbe4668a5	-0.19375856
2	0xbf139a89	-0.57657677
3	0x3f6ec83d	0.9327429
4	0xbea76117	-0.3269126
5	0x3d1822d7	0.0371426
6	0xbd860917	-0.065447025
7	0xbebee5b1	-0.37284616
8	0x3e949113	0.29016933
9	0xbf29f18d	-0.663842
10	0xbf236b98	-0.6383605
11	0x3e8d5044	0.276003
12	0x3f131da0	0.5746708
13	0xbf70c8c9	-0.94056374
14	0xbe3f2dc4	-0.18669802
15	0x3d950bd7	0.07277649
16	0xbe0d7a2b	-0.13816135
17	0xbf04cfca	-0.5187956
18	0x3f2f45ca	0.68465865
19	0x3ea44de9	0.3209069
20	0x3e085b07	0.13315974
21	0x3d409d61	0.04702509
22	0x3e9e05ac	0.30863702
23	0x3f36247d	0.71149427
24	0x3cec2430	0.02882585
25	0x3bf1cfa2	0.007379488
26	0xbe674e18	-0.22588384
27	0xbd774010	-0.06036383
28	0x3b305719	0.0026907383
29	0xbf1bcf80	-0.60863495
30	0x3f0b4819	0.5440689
31	0xbe8f08f9	-0.27936533
32	0x3f7e7af7	0.9940638
33	0x3f54de16	0.83151376
34	0x3e722a85	0.23649032
35	0xbe379fdf	-0.1793208
36	0xbed0df34	-0.4079529
37	0xbefb6ff0	-0.4910884
38	0x3da666d4	0.08125082
39	0x3f1c2621	0.6099568
40	0xbeab39dd	-0.33442584
41	0x3c314ac6	0.01082105
42	0x3d8dd057	0.06924503
43	0x3e3e4178	0.18579662
44	0xbe0894f0	-0.13338065
45	0x3e747f50	0.23876691
46	0x3f15374a	0.5828749
47	0xbec2679b	-0.3796967
48	0x3fb1ac7a	1.3880761
49	0x3f0ad3f4	0.54229665
50	0x3f0c5d1f	0.5482959
51	0x3bc7192f	0.006076
52	0xbf79d0c8	-0.975842
53	0xbe514ca6	-0.20439395
54	0xbe33b524	-0.17549568
55	0x3e366b48	0.17814362
56	0xbe40855a	-0.1880087
57	0x3d180911	0.03711802
58	0x3d576d4b	0.052594464
59	0xbd107806	-0.035270713
60	0x3e861bb3	0.26193008
61	0xbdabdc00	-0.08391571
62	0x3cd4272a	0.025897581
63	0xbd730e5c	-0.059339866

v.v_net.2.weight f4 [64, 64]
0	0xbefde3b6	-0.49587792
1	0xbdc469b7	-0.09590476
2	0xbd375f2c	-0.044768497
3	0x3f4cb18a	0.79958403
4	0x3e49de8b	0.197138
5	0xbf0e4de6	-0.55587614
6	0x3e99d448	0.3004477
7	0x3d3e81f6	0.04651066
8	0xbcdaf2ee	-0.026727166
9	0xbf24be92	-0.6435329
10	0xbdabc75c	-0.08387634
11	0xbd88c6b7	-0.06678527
12	0x3e60fabc	0.21970648
13	0xbf0ffaeb	-0.56242245
14	0x3e9961c3	0.299574
15	0x3eeb641e	0.4597482
16	0xbe9a8ffb	-0.30187973
17	0xbe6292f2	-0.22126368
18	0x3edae357	0.42751572
19	0xbe8b9ce0	-0.27268124
20	0x3f400fb7	0.7502398
21	0xbe7639da	-0.24045506
22	0x3e84e4d6	0.25955838
23	0x3e41d4e1	0.18928863
24	0x3f1ca381	0.6118699
25	0x3e5d9287	0.21637927
26	0x3f1bd260	0.6086788
27	0x3e6df5cf	0.232383
28	0xbd3dec39	-0.046367858
29	0xbf8d3ef5	-1.1034838
30	0x3edb1fdb	0.4279774
31	0xbd3ab2e7	-0.04558077
32	0x3f2b2895	0.668588
33	0x3f1c1075	0.6096261
34	0x3f2198f5	0.6312402
35	0x3ec5025a	0.38478357
36	0xbecbd9a0	-0.39814472
37	0xbee6d0fa	-0.4508131
38	0xbdae7c45	-0.08519796
39	0x3ee2e752	0.44317108
40	0xbf3b946b	-0.7327334
41	0xbe26cbd2	-0.16288689
42	0x3eed3e98	0.46336818
43	0x3e2734a6	0.16328678
44	0x3e8e6d04	0.27817547
45	0xbe6b312d	-0.22967978
46	0x3dd4b529	0.10386116
47	0xbf50a0ff	-0.8149566
48	0x3f057bd2	0.5214206
49	0x3ef891fd	0.4854888
50	0x3f14b0b2	0.58082116
51	0xbcf47382	-0.029840235
52	0xbf4cd2ca	-0.8000914
53	0xbe3aed17	-0.18254505
54	0x3d0d9520	0.034566045
55	0x3d41c438	0.04730627
56	0xbea75d3a	-0.32688314
57	0x3eb656e5	0.3561317
58	0xbcaee2bc	-0.02134835
59	0xbee25019	-0.44201735
60	0xbeb91080	-0.361454
61	0x3c0edd16	0.008719703
62	0xbe9a23ba	-0.30105382
63	0xbf18d0b3	-0.5969345
64	0x3f0b5577	0.54427284
65	0x3e63b13e	0.22235581
66	0x3e9c6eac	0.30553186
67	0xbf1726a8	-0.5904336
68	0xbbae837a	-0.005325732
69	0xbdb324a1	-0.08747221
70	0xbedf0586	-0.43558902
71	0xbde0e170	-0.10980499
72	0xbd0f6c64	-0.03501548
73	0x3ec8dd5c	0.39231384
74	0x3e31b2c1	0.17353345
75	0x3f07e9be	0.5309104
76	0xbebc5014	-0.36779845
77	0x3f1ec168	0.62013865
78	0xbeea16e3	-0.45720586
79	0xbf650ba6	-0.894709
80	0xbe2dac65	-0.16960295
81	0x3ee411a3	0.44544706
82	0xbed037c0	-0.40667534
83	0xbe0ccc3b	-0.13749783
84	0xbf3b8938	-0.73256254
85	0xbe75bf43	-0.23998742
86	0x3eb9b072	0.3626743
87	0xbeccc1a9	-0.399915
88	0xbf14fe53	-0.5820057
89	0xbefea975	-0.4973866
90	0xbe4982c2	-0.19678786
91	0xbe098fd9	-0.1343378
92	0x3e8abf41	0.2709904
93	0x3ee72e4b	0.45152506
94	0xbeb5bce1	-0.35495666
95	0x3d8fb241	0.07016421
96	0xbf01f6eb	-0.5076739
97	0xbf03d54d	-0.51497346
98	0xbf133415	-0.57501346
99	0x3e600a1e	0.2187886
100	0x3f22c2ac	0.63578296
101	0x3e3e0de8	0.18559992
102	0xbe07a118	-0.13245046
103	0xbebb48a7	-0.36578867
104	0x3dad6776	0.08466999
105	0xbd25a402	-0.040439613
106	0xbeae749f	-0.3407335
107	0xbda57011	-0.080780156
108	0xbe8eb6be	-0.27873796
109	0x3e1de5b8	0.15419662
110	0xbe1fc92f	-0.15604089
111	0x3f0a39cf	0.5399446
112	0xbee496b1	-0.44646218
113	0xbebd136d	-0.36928883
114	0xbf13ff6e	-0.5781163
115	0x3db2ad2f	0.087244384
116	0x3f053077	0.52027076
117	0x3f024d2a	0.50898993
118	0xbeeb18e2	-0.45917422
119	0xbea8b2b6	-0.32948846
120	0x3daa9740	0.0832963
121	0xbe5498e0	-0.20761442
122	0x3e52508b	0.20538537
123	0xbead3700	-0.33831024
124	0x3ed6a016	0.4191901
125	0x3e498b35	0.1968201
126	0x3f56831e	0.8379382
127	0x3eb96abb	0.3621424
128	0xbeb2da0f	-0.3493199
129	0xbd86d1f7	-0.06583016
130	0x3dedf4f3	0.11618986
131	0x3eb28f74	0.3487507
132	0x3e9d31e1	0.30702117
133	0xbe8eecfb	-0.27915177
134	0x3ea5712e	0.32312912
135	0xbe386d04	-0.18010336
136	0xbe7c5777	-0.2464274
137	0xbe70cab1	-0.2351482
138	0xbd8a7ad3	-0.06761708
139	0x3d746776	0.05966898
140	0x3eaa23ff	0.33230588
141	0xbf07ae93	-0.53000754
142	0x3e54f010	0.20794702
143	0x3f129256	0.5725454
144	0xbe8c48d5	-0.27399316
145	0xbea820f5	-0.32837644
146	0x3e57be34	0.2106865
147	0x3e858652	0.2607904
148	0x3ef380bd	0.47559157
149	0xbe651467	-0.22371064
150	0xbe71c2f2	-0.23609522
151	0x3ec39110	0.3819661
152	0x3df4e4d5	0.11957709
153	0xb936a3e4	-0.00017417927
154	0x3ec23587	0.37931463
155	0x3ef0932a	0.46987277
156	0x3efca33e	0.49343294
157	0xbea384e1	-0.31937316
158	0x3e8764b6	0.26444024
159	0xbd95e18a	-0.07318409
160	0x3f155fdb	0.5834939
161	0xbca8269b	-0.020526221
162	0x3ea72475	0.32645002
163	0xbe30656a	-0.17226186
164	0x3dbfdc8d	0.093682386
165	0xbf360c0a	-0.7111212
166	0xbd5dd489	-0.054157767
167	0x3eff7975	0.49897352
168	0xbe71c188	-0.23608983
169	0x3ef2d610	0.47428942
170	0x3ed4082b	0.41412482
171	0x3d96dafb	0.07365986
172	0x3cac22c2	0.021012668
173	0x3e12303f	0.14276217
174	0x3ea6e05e	0.32593054
175	0xbeb5c357	-0.35500595
176	0x3f10c1ec	0.565459
177	0x3e8ab865	0.27093807
178	0x3eb56cf8	0.354347
179	0xbcdf9c20	-0.027296126
180	0xbed74482	-0.42044455
181	0xbd766914	-0.060158804
182	0x3e9ce2d1	0.30641797
183	0x3f3bda0d	0.73379594
184	0x3d696ba7	0.05698743
185	0x3ec1001c	0.37695396
186	0x3eafcf4c	0.34337842
187	0x3f07b7f1	0.5301505
188	0xbe5305ca	-0.20607677
189	0xbe6163aa	-0.22010675
190	0xbeb53cab	-0.35397848
191	0xbf100e1d	-0.56271535
192	0xbf0f8df5	-0.56075984
193	0xbee5e1d3	-0.44898853
194	0xbebbe352	-0.3669687
195	0x3f2a796a	0.66591513
196	0xbe850c58	-0.2598598
197	0xbe88d356	-0.26723737
198	0x3e7ae1b5	0.24500163
199	0xbec89d4b	-0.39182505
200	0x3ea02be3	0.31283483
201	0xbf0a05a2	-0.53914845
202	0xbea94284	-0.3305856
203	0x3d973335	0.07382814
204	0x3ebb842a	0.3662427
205	0xbed5a47a	-0.41727048
206	0x3f675d3f	0.9037666
207	0x3ef219b3	0.47285232
208	0xbe256938	-0.16153419
209	0xbe94cf54	-0.2906443
210	0x3eb5bae6	0.35494155
211	0x3e88d904	0.2672807
212	0x3e3b4a52	0.1829007
213	0xbe1d1422	-0.15339711
214	0xbec96998	-0.39338374
215	0x3f423859	0.7586723
216	0x3e2a16a8	0.16610205
217	0xbc37a9f6	-0.011209955
218	0xbe3bc4d5	-0.18336804
219	0x3ef6d873	0.48212013
220	0x3c2557dd	0.010091749
221	0xbf39ce07	-0.7258
222	0x3e3172e1	0.17328979
223	0xbce3bcdd	-0.027800018
224	0x3e8de89d	0.27716532
225	0x3f324673	0.69638747
226	0x3eb400a2	0.35156733
227	0xbdaae5a3	-0.08344581
228	0xbe8bc89d	-0.27301493
229	0xbf4dff8c	-0.8046806
230	0xbd0babca	-0.034099378
231	0x3e247957	0.16061912
232	0xbf2240d8	-0.63380194
233	0xbe61a20f	-0.22034477
234	0x3f168a9f	0.5880527
235	0xbe492ced	-0.19646044
236	0x3e4e86d2	0.20168617
237	0x3d74dd64	0.059781447
238	0x3e5b63bc	0.21424764
239	0xbf02baff	-0.51066583
240	0x3ecd796a	0.40131694
241	0x3ebb8abf	0.36629292
242	0x3ec8f579	0.3924978
243	0x3e24d91d	0.16098447
244	0xbf55e3a7	-0.83550495
245	0xbea49515	-0.3214499
246	0x3f3481d5	0.7051061
247	0x3ebc0dac	0.3672918
248	0x3e09db7b	0.13462631
249	0x3eeabf9a	0.45849305
250	0x3e00eaee	0.12589619
251	0x3dba3dec	0.09093842
252	0xbeb4d814	-0.35321105
253	0xbe946480	-0.28982925
254	0xbe836cc7	-0.25668928
255	0xbf5363ea	-0.8257433

v.v_net.2.bias f4 [64]
0	0x3ef792f4	0.48354304
1	0xbeae518b	-0.34046587
2	0x3e555712	0.20833996
3	0x3ea38cd6	0.31943387
4	0x3f01c763	0.50694865
5	0x3e990333	0.29885253
6	0xbebb665d	-0.36601534
7	0xbd42f8d6	-0.04760059
8	0x3e901d0a	0.28147155
9	0x3ed3f7ab	0.41399893
10	0x3e810941	0.25202373
11	0xbe74d32e	-0.23908684
12	0x3ee6e605	0.45097366
13	0x3ebded6c	0.370952
14	0xbda4a583	-0.08039381
15	0xbe9e9c76	-0.30978745
16	0xbeca7c72	-0.3954807
17	0xbe3c8e48	-0.18413651
18	0xbec38658	-0.38188434
19	0xbef863f1	-0.4851375
20	0x3eabdd46	0.33567256
21	0x3ed05a21	0.40693763
22	0xbe71122b	-0.23542087
23	0x3e37df56	0.1795629
24	0xbef61b39	-0.48067644
25	0xbeabb5eb	-0.3353723
26	0x3eb2ec1f	0.3494577
27	0xbd25a313	-0.040438723
28	0x3e3c6283	0.18396954
29	0x3dbe2198	0.09283751
30	0x3e5099de	0.20371196
31	0x3ea61cb9	0.3244379
32	0xbeeb355e	-0.45939153
33	0xbe4243cd	-0.18971176
34	0x3edf3bb0	0.43600225
35	0x3e80f8ca	0.2518981
36	0x3ece44ec	0.40286958
37	0xbed43a76	-0.41450852
38	0xbec84c7d	-0.39120856
39	0x3ecfc691	0.40581182
40	0xbee716fb	-0.4513472
41	0xbf007575	-0.50179225
42	0x3eaee024	0.3415538
43	0x3d74e810	0.059791625
44	0x3e9aa588	0.30204415
45	0x3da054ae	0.07828651
46	0x3e472c72	0.19450548
47	0xbecef598	-0.40421748
48	0x3e8e3723	0.2777644
49	0xbe2ae239	-0.1668786
50	0xbe88ec52	-0.26742798
51	0x3edafc97	0.42770836
52	0x3eefa462	0.46805102
53	0xbec4b165	-0.3841659
54	0xbeb3aa3d	-0.3509082
55	0xbd19371a	-0.037406065
56	0xbec9d02c	-0.39416635
57	0xbed07924	-0.40717423
58	0x3dfae9b4	0.122516066
59	0x3eaeb6dc	0.34123886
60	0x3eed31d0	0.46327066
61	0x3ef4d2fd	0.4781722
62	0xbe2a2bff	-0.16618346
63	0x3eee738e	0.46572536

v.v_net.4.weight f4 [1, 64]
0	0x40746ef1	3.8192713
1	0xc06ba766	-3.6820922
2	0x4064f94c	3.5777159
3	0x4057a2d4	3.3693132
4	0x405b5d51	3.4275706
5	0xc0896cdf	-4.29454
6	0xc04a6cff	-3.1629026
7	0x4083590f	4.1046214
8	0x4067c5bd	3.621444
9	0x405644c0	3.3479462
10	0xc08bd05a	-4.3691835
11	0x4088e4b9	4.2779202
12	0x407bc7a5	3.9340603
13	0x40593c24	3.3942957
14	0x408c9399	4.3930173
15	0xc055f5c4	-3.3431253
16	0xc05e2108	-3.470766
17	0xc06fea5c	-3.7486792
18	0x408abba3	4.335405
19	0x408484e1	4.1412206
20	0x4060425e	3.5040507
21	0x406a5d0b	3.661929
22	0xc06c4327	-3.6915987
23	0xc071dd58	-3.7791348
24	0xc05c1923	-3.4390342
25	0xc0533c72	-3.3005643
26	0x4052f13b	3.2959735
27	0x40730e20	3.7977371
28	0x406c6cf5	3.6941502
29	0x40631e26	3.548715
30	0x40736286	3.8028884
31	0x405fa784	3.4945993
32	0xc084e4e9	-4.152943
33	0xc0865907	-4.1983676
34	0x4064141b	3.5637271
35	0xc086cc1d	-4.212416
36	0x4062067d	3.531646
37	0x4087577a	4.2294283
38	0xc05d88d1	-3.4614756
39	0x4057833b	3.3673847
40	0xc06307a1	-3.5473406
41	0xc06cdd53	-3.7010086
42	0x405f2e08	3.4871845
43	0xc078b307	-3.885927
44	0x40603964	3.5035028
45	0x406c720b	3.6944606
46	0xc0842741	-4.1297917
47	0xc05cf405	-3.4523938
48	0x405a300e	3.409183
49	0xc06f6b79	-3.7409346
50	0x40818c0b	4.048345
51	0x40754d95	3.8328602
52	0x4059b811	3.4018595
53	0xc059ea9f	-3.4049451
54	0xc055c255	-3.339986
55	0xc05dd1a4	-3.4659204
56	0xc060ce81	-3.512604
57	0xc05d1c9b	-3.454871
58	0xc075b32b	-3.8390605
59	0x4055e9d1	3.342396
60	0xc0913b00	-4.538452
61	0x405da53c	3.46321
62	0xc05ec80b	-3.4809597
63	0x40800516	4.000621
