tmp/experiments/RN0 False,True,True/pyt_network_save/model save73000.pt (torch_old, 314943 bytes, 33 tensors)

pi.pi_net.0.weight f4 [64, 5]
0.05167528 -0.23771396 0.080687374 -0.1273815 0.21986525 0.58747464 -0.5998505 0.52853733
-0.37943402 0.4515322 0.09497798 0.5057081 0.0051697344 -0.024366984 0.18569198 -0.26420048
-0.19541845 -0.3509571 0.0640453 0.540746 -0.3094612 -0.783211 -1.1573412 -0.29416913
-1.1244097 -0.22865225 0.5800786 0.069529906 0.0071600643 -0.4511245 -0.15796106 -0.0484686
-0.01129948 -0.2654615 -0.051869605 0.5479507 0.45416233 -0.0071328105 -0.38262022 -0.17349161
0.43449762 -0.07464319 -0.12490026 0.24785842 -0.41936725 -0.5138888 -0.40646565 -0.009838466
0.30769446 -0.3725478 0.12885146 -0.14100787 -0.26492658 0.70326394 -0.21268544 0.074063905
0.5021698 -0.04190654 -0.15331401 0.16857241 0.32839388 0.6531565 -0.11616623 0.1366681
-0.44275746 0.08636578 0.1803541 0.33975962 -0.15000181 0.25972736 0.5886779 0.29262272
0.13322622 -0.2688664 -0.3111992 0.054972704 0.29493234 0.08731992 -0.22618885 -0.32786003
-0.37113383 0.034842316 -0.12993522 0.19273531 0.1957242 -0.27163517 -0.24896355 0.52870363
0.018258093 -0.20581163 0.8190872 0.32558116 0.07943816 -0.23811322 -0.28044736 -0.20247868
-0.23124446 0.12622403 0.33950013 -0.09454193 0.031912472 0.25850877 0.06339872 -0.3036362
0.33352488 0.047916993 0.37422168 0.1721832 -0.50561535 0.03612059 0.24820223 0.54555786
-0.14609279 0.16559766 -0.3309854 0.6459901 0.4592874 0.13470355 0.7425745 0.74766093
-0.2608157 -0.18926667 0.21601534 -0.16814251 0.2630645 -0.48712152 -0.3309813 0.047347136
0.24212298 0.062529966 -0.5273095 -0.44604233 0.09131248 0.04991042 0.69290483 0.7619138
0.30811268 -0.349595 0.044212997 -0.19071092 -0.07362748 0.043517977 -0.57662356 0.075911894
-0.11039099 0.46791786 -0.15575151 0.1712801 -0.35253286 -0.045551583 0.34389815 0.2824038
0.53059524 -0.5422371 -0.32076705 -0.591693 -0.18160784 0.15365246 0.24609481 -0.10346539
0.11243701 -0.04887632 -0.36013508 0.06760069 0.5336049 -0.43684834 0.097969346 0.017003236
-0.023543617 0.09918205 -0.39325622 0.34228098 -0.05291274 -0.56190515 0.47662735 0.026721464
0.37255478 0.38428298 -0.009250625 -0.33043742 -0.3327092 0.014518049 0.02468851 0.32355234
-0.07719601 -0.009695307 -0.1327938 -0.17577024 -0.25189534 0.28037933 0.13879016 0.76031446
-0.47004655 -0.011432452 -0.16795105 0.17665692 0.3274044 0.46851227 -0.37525418 -0.20644942
0.35827795 0.4937105 -0.2549377 0.19731845 -0.5669038 0.0013433533 -0.02927002 -0.1910394
0.44668585 0.0069190445 0.33940226 0.40272748 -0.22325216 -0.034005683 -0.09680549 0.3752375
-0.2895956 0.56161267 0.18441479 -0.43298957 0.09563124 -0.36443204 -0.21312095 -0.111623906
0.35385612 0.6188603 -0.08324421 0.4629789 -0.17429444 -0.414204 -0.23950557 0.5275946
-0.036933146 0.22262062 -0.48369768 0.12875156 -0.43403113 0.4265096 -0.06184741 -0.12600747
0.28722686 -0.36423495 -0.14303048 0.12993583 0.059546247 -0.53410727 -1.0847561 -1.1947892
-0.2582654 -0.87215436 -1.2506281 -0.22572364 -0.18289563 -0.17677218 0.13247822 0.12855142
00000000: 75a9 533d 4a6b 73be 6c3f a53d 4c70 02be
00000010: 5b24 613e bd64 163f cd8f 19bf 394e 073f
00000020: 2d45 c2be 3b2f e73e d183 c23d 1676 013f
00000030: e066 a93b 459d c7bc 0a26 3e3e 4945 87be
00000040: c61b 48be a6b0 b3be 2f2a 833d 546e 0a3f
00000050: b371 9ebe 8480 48bf c223 94bf 569d 96be
00000060: a8ec 8fbf d123 6abe 0880 143f b265 8e3d
00000070: f99e ea3b caf9 e6be 8bc0 21be 0387 46bd
00000080: 7421 39bc 92ea 87be 3975 54bd 7f46 0c3f
00000090: f787 e83e 5aba e9bb cce6 c3be c9a7 31be
000000a0: 7976 de3e 87de 98bd b5cb ffbd 99ce 7d3e
000000b0: 4eb7 d6be 378e 03bf 441c d0be 8431 21bc
000000c0: 218a 9d3e 96be bebe a3f1 033e 5e64 10be
000000d0: 75a4 87be 1b09 343f 36ca 59be d1ae 973d
000000e0: 338e 003f 31a6 2bbd 59fe 1cbe 3f9e 2c3e
000000f0: 3e23 a83e 4435 273f 8fe8 edbd b9f2 0b3e
00000100: 1bb1 e2be 8be0 b03d bfae 383e f9f4 ad3e
00000110: 139a 19be fcfa 843e 98b3 163f a5d2 953e
00000120: 746c 083e dba8 89be 8055 9fbe 0f2b 613d
00000130: 5f01 973e c9d4 b23d 0d9e 67be 45dd a7be
00000140: 4105 bebe d1b6 0e3d bd0d 05be 685c 453e
00000150: ed6b 483e c413 8bbe 4df0 7ebe 1f59 073f
00000160: ff91 953c 49c0 52be b3af 513f 93b2 a63e
00000170: 79b0 a23d f4d3 73be cc96 8fbe 9256 4fbe
00000180: 59cb 6cbe df40 013e f6d2 ad3e 339f c1bd
00000190: a7b6 023d 435b 843e 30d7 813d 3476 9bbe
000001a0: c6c3 aa3e 9c44 443d fc99 bf3e cb50 303e
000001b0: 0270 01bf 2ff3 133d ba28 7e3e aea9 0b3f
000001c0: 5999 15be 6f92 293e eb76 a9be 9b5f 253f
000001d0: b827 eb3e baef 093e 5d19 3e3f b566 3f3f
000001e0: a389 85be 1fcf 41be 2033 5d3e 8d2d 2cbe
000001f0: 64b0 863e fe67 f9be 6276 a9be 12ef 413d
00000200: 16ef 773e b60f 803d c1fd 06bf a95f e4be
00000210: 0a02 bb3d de6e 4c3d 3662 313f c80c 433f
00000220: f2c0 9d3e 1efe b2be b018 353d b949 43be
00000230: 01ca 96bd e83f 323d 9a9d 13bf b277 9b3d
00000240: ac14 e2bd ee92 ef3e 537d 1fbe 0d64 2f3e
00000250: 307f b4be 4c94 3abd 6b13 b03e 3b97 903e
00000260: 17d5 073f 0dd0 0abf 943b a4be 3179 17bf
00000270: 68f7 39be 1257 1d3e 4700 7c3e aae5 d3bd
00000280: 6045 e63d 8932 48bd a063 b8be 3b72 8a3d
00000290: 559a 083f 96aa dfbe 27a4 c83d 5f4a 8b3c
000002a0: 8bde c0bc f51f cb3d e158 c9be 743f af3e
000002b0: 07bb 58bd 04d9 0fbf 8008 f43e f9e6 da3c
000002c0: 80bf be3e bdc0 c43e ef8f 17bc 182f a9be
000002d0: dc58 aabe 1cdd 6d3c 8f3f ca3c a7a8 a53e
000002e0: f118 9ebd 11d9 1ebc 19fb 07be 1dfd 33be
000002f0: 6df8 80be e18d 8f3e 021f 0e3e f8a3 423f
00000300: f1a9 f0be 2e4f 3bbc 5cfb 2bbe 8de5 343e
00000310: 8da1 a73e d7e0 ef3e 5121 c0be 7a67 53be
00000320: 3570 b73e 9fc7 fc3e 3287 82be d90d 4a3e
00000330: 9c20 11bf 7513 b03a aec7 efbc d59f 43be
00000340: 02b4 e43e 27b9 e23b 22c6 ad3e 4c32 ce3e
00000350: 379c 64be 8b49 0bbd f541 c6bd 211f c03e
00000360: e045 94be d9c5 0f3f 3bd7 3c3e cfb0 ddbe
00000370: 50da c33d d696 babe 613c 5abe 139b e4bd
00000380: a12c b53e a16d 1e3f f17b aabd 920b ed3e
00000390: 3e7a 32be 8c12 d4be f340 75be 7110 073f
000003a0: 3647 17bd a9f6 633e 39a7 f7be 73d7 033e
000003b0: 5439 debe 775f da3e b653 7dbd 1a08 01be
000003c0: 660f 933e 017d babe 9576 12be e60d 053e
000003d0: c4e6 733d 41bb 08bf 4ad9 8abf daee 98bf
000003e0: 5d3b 84be 8245 5fbf 9514 a0bf 1924 67be
000003f0: fe48 3bbe c403 35be 5fa8 073e fca2 033e

pi.pi_net.0.bias f4 [64]
-0.31561792 -0.55079323 0.4324056 0.118580244 -0.4572894 0.3413628 0.0147666065 -0.0028660349
-0.3759816 -0.38619778 -0.3383935 -0.08204125 -0.5879615 -0.0058810194 -0.39632744 0.5111726
0.4795059 0.15986961 -0.028747587 -0.03359098 0.48975492 0.12735 0.24932912 0.52241343
-0.22417372 0.4988774 0.01161007 -0.37223452 0.4267711 -0.42130378 -0.07523528 0.55685747
-0.35954496 0.55819565 0.45286337 -0.08646172 0.70279646 0.22341596 0.30458987 -0.31721053
-0.20887893 -0.26260322 -0.44461548 -0.043917906 -0.06944042 -0.4549976 0.50257707 0.07522781
-0.15790075 -0.5634527 -0.17622246 0.44110778 0.0014620745 0.45708492 0.15830639 -0.47767577
-0.3946222 -0.117924474 -0.32376125 -0.54763263 -0.18336666 -0.37666166 -0.29893664 0.2361716
00000000: ac98 a1be c900 0dbf 4464 dd3e 33da f23d
00000010: d621 eabe 1bc7 ae3e a3ef 713c 16d4 3bbb
00000020: a980 c0be b7bb c5be ea41 adbe 3e05 a8bd
00000030: a584 16bf 91b5 c0bb 6eeb cabe 35dc 023f
00000040: cc81 f53e dcb4 233e 0f80 ebbc b296 09bd
00000050: 28c1 fa3e 0a68 023e 2250 7f3e e3bc 053f
00000060: cc8d 65be dc6c ff3e 2a38 3e3c 8695 bebe
00000070: be81 da3e 21b5 d7be f414 9abd 368e 0e3f
00000080: 4716 b8be e9e5 0e3f b5dd e73e d812 b1bd
00000090: 78ea 333f 27c7 643e 34f3 9b3e 6b69 a2be
000000a0: 5ce4 55be ee73 86be a4a4 e3be 43e3 33bd
000000b0: c736 8ebd 72f5 e8be e4a8 003f 0a11 9a3d
000000c0: bcb0 21be 703e 10bf a973 34be e1d8 e13e
000000d0: 14a3 bf3a 0907 ea3e 121b 223e eb91 f4be
000000e0: ec0b cabe 6382 f1bd 09c4 a5be a731 0cbf
000000f0: 78c4 3bbe ccd9 c0be 390e 99be f8d6 713e

pi.pi_net.2.weight f4 [64, 64]
0.021202631 0.4200584 -0.23266035 0.02380815 0.32009304 -0.6762995 0.2293788 -0.38811842
-0.02058125 0.13306251 0.43949392 -0.19034508 -0.09746924 -0.05165019 -0.21537164 -0.10054648
0.00948776 0.23040758 0.01142922 0.28577268 -0.56398916 -0.20394786 -0.3653106 -0.13397814
0.28293577 0.48284075 -0.39108106 0.3341664 0.022728411 0.4304312 -0.36385816 0.120574735
0.43090397 -0.081397735 -0.5816129 -0.7706936 0.057445787 -0.41840464 -0.39800456 -0.37869042
-0.065566175 -0.0350277 -0.10093448 0.19756965 0.54167324 0.3308526 -1.0246404 0.05213806
1.0375792 0.31307346 0.13740957 -0.32888737 -0.43248725 -0.21134226 -0.17263135 0.30577838
0.75332844 -0.021196201 0.017289422 0.42880344 0.23746653 0.28660405 0.36429203 0.47098026
-0.24670522 -0.573525 -0.01837748 -0.12825468 0.10931205 0.6127274 0.14099932 0.3669995
-0.027143145 0.0021559298 -0.017522834 0.389028 -0.2677095 0.11719235 -0.018200148 0.04064322
0.23113775 -0.088191256 0.35259902 0.009139226 -0.010234171 -0.11107462 -0.16767725 0.12861456
-0.015084597 0.29441798 -0.15427116 -0.17434418 0.3579252 -0.27626622 0.27014685 0.048700523
-0.12476143 0.16762727 0.012912679 0.16101003 0.47330862 0.19953984 0.13967337 -0.24008076
-0.017450303 -0.123510346 -0.28598133 0.02825907 -0.31364927 -0.04382716 0.43619236 -0.27236626
0.18363817 0.007200755 -0.0076496126 -0.0714624 0.23073715 -0.15207645 0.02574661 0.018724723
-0.36721167 -0.010779793 -0.47384316 -0.117795445 -0.16803886 -0.095439926 0.4173807 0.17667541
0.00047448688 -0.115607776 -0.12302075 -0.3126165 -0.103524245 0.24182941 -0.37893835 -0.1786993
-0.89173627 -0.23703045 0.2112593 0.17045331 0.009846903 0.8607158 -0.16972561 0.6066865
0.48253584 0.1416796 0.09554887 0.11553181 0.6108557 0.62656605 0.7739476 0.3658864
-0.50397336 0.0060434476 -0.3082303 -0.032495275 -0.20097606 -0.31554928 0.43086597 0.1988597
-0.12111412 0.6166558 0.26826397 -0.4298203 0.29000634 0.4597528 0.44360304 -0.01897375
0.33471105 -0.30580568 -0.31527683 -0.41946346 0.12552963 0.023580827 0.49995792 -0.10151106
-0.60354364 -0.23131225 -0.7444103 0.5281951 0.14314505 0.69812566 0.48385462 -0.4063968
-0.09152304 0.63904387 -0.307815 -0.35555118 0.25057203 0.12394592 -0.5618909 -0.31426072
-0.681429 -0.21010855 0.50459254 0.19765791 0.23161305 -0.08302917 0.17973243 0.028795857
0.20528002 -0.5676343 -0.3290869 -0.27273428 -0.31639186 -0.5203474 -0.1446045 -0.12940106
0.61274993 -0.51636636 -0.5162935 0.18122622 0.10672045 0.2732227 -0.12273537 -0.27631822
-0.17413479 0.07877269 0.33217064 -0.706471 0.3565234 -0.47190383 -0.34644383 0.27620906
-0.115922675 0.05400611 0.089014605 -0.101871654 0.55089796 -0.06416268 0.35159573 -0.06263906
0.041629005 -0.21968967 -0.41178358 -0.07143657 -0.29862463 -0.34765962 0.15699841 -0.24544121
-0.16408336 0.29691333 0.0044474904 -0.25776064 0.043171104 0.5801349 0.06392379 -0.17922318
-0.79326516 -0.28524637 0.09429197 -0.21926485 -0.3329718 -0.6280142 -0.18789533 0.28100762
00000000: 24b1 ad3c e511 d73e 843e 6ebe 4f09 c33c
00000010: 3ce3 a33e f721 2dbf 47e2 6a3e 75b7 c6be
00000020: 029a a8bc 8a41 083e 5905 e13e d2e9 42be
00000030: f49d c7bd 268f 53bd 628a 5cbe 50eb cdbd
00000040: 8d72 1b3c f7ef 6b3e a041 3b3c cc50 923e
00000050: 9861 10bf b5d7 50be fe09 bbbe 9131 09be
00000060: f5dc 903e e736 f73e c73b c8be dc17 ab3e
00000070: ef30 ba3c 7a61 dc3e 9e4b babe e3ef f63d
00000080: 729f dc3e dbb3 a6bd 95e4 14bf 2d4c 45bf
00000090: 464c 6b3d 2239 d6be 41c7 cbbe b6e3 c1be
000000a0: 8f47 86bd 3579 0fbd bdb6 cebd b34f 4a3e
000000b0: 19ab 0a3f 8365 a93e 6b27 83bf b88e 553d
000000c0: 65cf 843f 2a4b a03e 18b5 0c3e ed63 a8be
000000d0: f86e ddbe 1b6a 58be 46c6 30be fc8e 9c3e
000000e0: 22da 403f a8a3 adbc 8ca2 8d3c 208c db3e
000000f0: 6d2a 733e c4bd 923e 7c84 ba3e 5324 f13e
00000100: 4ba0 7cbe 89d2 12bf 5e8c 96bc 3255 03be
00000110: ffde df3d b4db 1c3f 2062 103e 5ce7 bb3e
00000120: 4d5b debc 804a 0d3b 0c8c 8fbc ae2e c73e
00000130: 3811 89be 8b02 f03d 7a18 95bc 8179 263d
00000140: 60af 6c3e 9e9d b4bd dc87 b43e b1bc 153c
00000150: 39ad 27bc 177b e3bd 96b3 2bbe 89b3 033e
00000160: 6325 77bc f4bd 963e 42f9 1dbe 4887 32be
00000170: f941 b73e c472 8dbe b050 8a3e 337a 473d
00000180: ec82 ffbd 7ca6 2b3e b48f 533c d0df 243e
00000190: 8255 f23e 2c54 4c3e 8906 0f3e bbd7 75be
000001a0: f0f3 8ebc fef2 fcbd 256c 92be 917f e73c
000001b0: a396 a0be 1c84 33bd 9b54 df3e 9773 8bbe
000001c0: a50b 3c3e 50f4 eb3b 9aa9 fabb e15a 92bd
000001d0: 5c46 6c3e eeb9 1bbe 8eea d23c 9764 993c
000001e0: 2b03 bcbe bb9d 30bc 929b f2be bd3e f1bd
000001f0: 6112 2cbe 0276 c3bd ecb2 d53e 66ea 343e
00000200: 8dc4 f839 c5c3 ecbd 4ef2 fbbd 450f a0be
00000210: 8504 d4bd 21a2 773e 3504 c2be f3fc 36be
00000220: d448 64bf 1cb8 72be 5c54 583e 508b 2e3e
00000230: e854 213c df57 5c3f 8dcc 2dbe ce4f 1b3f
00000240: f00e f73e 7514 113e 20af c33d f19b ec3d
00000250: 0a61 1c3f a266 203f 6e21 463f 7655 bb3e
00000260: 6604 01bf 1d08 c63b 5dd0 9dbe c419 05bd
00000270: abcc 4dbe ad8f a1be 779a dc3e e1a1 4b3e
00000280: ae0a f8bd 28dd 1d3f e559 893e 6811 dcbe
00000290: b67b 943e b864 eb3e f01f e33e d66e 9bbc
000002a0: 3f5f ab3e 9092 9cbe f76b a1be eac3 d6be
000002b0: d78a 003e 942c c13c 7cfa ff3e 08e5 cfbd
000002c0: d681 1abf 1edd 6cbe ac91 3ebf cb37 073f
000002d0: 9e94 123e 5db8 323f cbbb f73e 3e13 d0be
000002e0: 6e70 bbbd 6198 233f ed99 9dbe ce0a b6be
000002f0: fa4a 803e 5cd7 fd3d 15d8 0fbf c8e6 a0be
00000300: 2272 2ebf b226 57be fa2c 013f d666 4a3e
00000310: f92b 6d3e 330b aabd c70b 383e 4ae5 eb3c
00000320: ed34 523e 7b50 11bf 147e a8be d4a3 8bbe
00000330: 1dfe a1be 7d35 05bf 3413 14be b681 04be
00000340: 2edd 1c3f 9630 04bf d02b 04bf 5e93 393e
00000350: 4090 da3d d9e3 8b3e af5c fbbd 9579 8dbe
00000360: 6450 32be 9353 a13d 4512 aa3e 49db 34bf
00000370: 3c8a b63e 619d f1be 1661 b1be 466b 8d3e
00000380: de68 edbd 8335 5d3d 4a4d b63d 16a2 d0bd
00000390: a607 0d3f b967 83bd 5b04 b43e e848 80bd
000003a0: 2d83 2a3d 54f6 60be 4cd5 d2be 564d 92bd
000003b0: 54e5 98be 7100 b2be 31c4 203e f154 7bbe
000003c0: 7805 28be 0605 983e 41bc 913b 34f9 83be
000003d0: 2fd4 303d b983 143f 7aea 823d 4886 37be
000003e0: 6d13 4bbf d00b 92be 261c c13d f786 60be
000003f0: 487b aabe 8ac5 20bf a267 40be 3be0 8f3e

pi.pi_net.2.bias f4 [64]
-0.27011016 0.07304057 0.4083628 0.06667637 0.03025234 0.0412135 -0.089616254 0.18905695
-0.014480256 -0.18033022 0.13139492 -0.36330363 0.3650408 0.10129844 0.0922087 -0.063500024
0.17127144 -0.1169367 0.36229423 0.06261778 0.14244856 -0.004351768 0.16252582 0.0051470404
-0.025356185 0.06357466 -0.012913309 -0.14597648 -0.049965892 -0.22186318 0.24122846 0.18108842
0.029915908 0.2081021 0.05101736 -0.25403962 -0.094624855 0.2874164 -0.01603691 0.13318245
-0.15985985 -0.044274304 0.13773641 0.2890981 -0.33585268 -0.11744106 0.14063641 -0.046583563
-0.19072253 0.18712188 0.14309467 -0.046856076 -0.011836366 0.07777218 -0.14044894 0.099309705
0.14061104 0.021923775 -0.17928718 -0.113756 -0.15380108 0.14149705 -0.11433767 -0.21024907
00000000: e14b 8abe 4b96 953d ee14 d13e 9f8d 883d
00000010: c1d3 f73c 7dcf 283d ba88 b7bd 2598 413e
00000020: 983e 6dbc 7ca8 38be 648c 063e ef02 babe
00000030: a1e6 ba3e 8e75 cf3d ead7 bc3d 4d0c 82bd
00000040: c861 2f3e 827c efbd a17e b93e c03d 803d
00000050: 09de 113e 4799 8ebb 2b6d 263e 81a8 a83b
00000060: c6b7 cfbc 6e33 823d 5892 53bc dc7a 15be
00000070: 09a9 4cbd 1a30 63be 9804 773e 3e6f 393e
00000080: 3512 f53c b818 553e 94f7 503d 7b11 82be
00000090: adca c1bd 3e28 933e d65f 83bc fb60 083e
000000a0: 4db2 23be f958 35bd c60a 0d3e ab04 943e
000000b0: e2f4 abbe f084 f0bd fe02 103e 68ce 3ebd
000000c0: c44c 43be e19c 3f3e 6987 123e 28ec 3fbd
000000d0: 51ed 41bc 0547 9f3d d9d1 0fbe e362 cb3d
000000e0: 57fc 0f3e 7d99 b33c 0f97 37be e8f8 e8bd
000000f0: 087e 1dbe 9ae4 103e de29 eabd 884b 57be

pi.pi_net.4.weight f4 [256, 64]
-2.1867814 0.80848825 1.7928989 -1.410472 1.4354502 2.2454357 -0.09965465 1.9384613
0.7473678 -2.064121 1.429481 -2.307087 1.8156476 0.24490571 -0.7233026 -1.4231722
-1.0712525 -1.8785927 1.6368219 0.97120434 0.70547026 1.8870628 1.7013766 0.3185829
1.0927866 -0.80300736 -0.39818764 0.6291541 -1.4888785 -2.2116756 -0.11657243 1.386255
1.4913827 0.61265415 -1.5373014 -2.0498235 -2.3737116 1.6568786 0.37969223 2.0435622
-0.74888116 1.7404066 2.2990186 2.1748009 -1.621429 -2.582514 0.7042439 -1.9488975
-0.3628612 1.4252391 0.18169536 -0.9699834 1.214792 2.206672 -2.2735052 1.8961319
2.0270765 -0.24263597 -2.1295328 -0.45039132 -1.0296522 0.5188148 -0.08308598 -0.15997753
-0.2762989 -0.6227926 0.95325536 -1.5387821 1.3085341 1.8319196 0.21048151 1.3603877
0.40481815 -0.65986365 1.3254479 -1.9739542 1.1641041 0.19756609 -1.4393773 -0.9072522
-0.3745121 -1.666284 1.3971461 0.8103807 0.6164329 1.3117518 1.3044375 -1.1573706
0.74526465 0.07028001 0.08768597 0.81947666 -1.1750495 -0.053089593 -1.1336566 0.03937769
0.46121487 0.5689542 0.15561414 -1.3061551 -2.0631447 -0.19644336 1.0440562 1.520288
-0.16076729 1.5269346 0.50597286 0.4239292 0.07190696 -1.9371258 -0.123345286 -0.7391947
-0.18451598 0.52387756 0.08079759 -1.0354129 1.1044894 1.071536 -0.54327095 1.5987567
1.6277853 -0.9851549 -0.13887186 -0.71548754 -0.14822301 -0.09710473 -1.1223807 0.5111364
-1.4069908 0.42851081 1.1493192 -1.0153799 0.44693235 1.7298876 0.4475397 -0.15482998
0.7796779 -0.1818573 -0.0074618985 -1.4667959 1.0403877 0.22323097 0.18205604 -1.3960686
-2.5557878 -0.37629247 1.7628657 1.1836342 0.34945357 1.5915594 -0.48656824 0.29512483
0.7302889 -1.62501 -0.7974856 0.5640069 -1.5200363 -1.422126 0.11216561 1.742252
1.4536265 -0.9727638 -1.3489944 -0.6808892 -1.3824279 1.3620737 -0.8310282 1.3268263
-1.5812246 0.30561876 1.528443 1.516808 -1.4538883 -1.1584265 -0.010187915 -0.6131332
0.21049114 1.0773507 -0.110947326 -1.3104565 0.864572 1.3649795 -1.6960291 1.425561
-0.035561603 0.8382586 -1.3301809 1.7371594 -0.00886687 1.4429183 0.006215455 1.2669749
-1.6279312 0.02950605 1.8357089 -1.7337555 1.0333366 2.2998488 0.38190606 1.7135111
0.3301752 -2.0890455 1.3587027 -2.2738166 1.6171621 0.19092089 -0.7639995 -0.99640113
-1.5940874 -1.7513044 1.6927965 1.425365 0.6504305 1.9469144 2.0415828 0.020453842
1.6507466 -1.2470864 -1.0229205 0.7377288 -1.7300764 -1.2156605 -0.71267736 0.4893756
2.004541 0.39087254 -1.0513942 -1.8464445 -1.9314085 0.8602449 0.5337419 1.9127947
-1.3414866 1.7103313 1.7403253 1.7643532 -1.0423775 -1.966764 0.81990844 -1.6235147
-0.46395928 1.691014 -0.15403007 -1.6384299 1.2472343 1.8870783 -1.9951482 2.1926484
1.597031 -0.47500283 -1.5334436 0.036383394 -0.869939 1.095564 -0.10488221 0.2887702
00000000: 3af4 0bc0 16f9 4e3f b67d e53f 598a b4bf
00000010: d5bc b73f 38b5 0f40 bd17 ccbd 801f f83f
00000020: 7f53 3f3f 8f1a 04c0 3cf9 b63f 50a7 13c0
00000030: 2467 e83f 90c8 7a3e 5c2a 39bf 822a b6bf
00000040: cd1e 89bf ba75 f0bf 6183 d13f d9a0 783f
00000050: b399 343f 468b f13f b5c6 d93f 4c1d a33e
00000060: 6ee0 8b3f e491 4dbf 40df cbbe 3e10 213f
00000070: 9293 bebf 188c 0dc0 87bd eebd ce70 b13f
00000080: a1e5 be3f e7d6 1c3f 4bc6 c4bf 4f30 03c0
00000090: e4ea 17c0 9914 d43f 0567 c23e b9c9 0240
000000a0: adb6 3fbf a5c5 de3f 1f23 1340 f02f 0b40
000000b0: fc8a cfbf e947 25c0 5449 343f 7975 f9bf
000000c0: f1c8 b9be 3c6e b63f 590e 3a3e d550 78bf
000000d0: 4e7e 9b3f 1d3a 0d40 1c81 11c0 73b4 f23f
000000e0: 9fbb 0140 9075 78be 444a 08c0 b199 e6be
000000f0: a5cb 83bf 0cd1 043f fb28 aabd 26d1 23be
00000100: 0d77 8dbe 566f 1fbf 8b08 743f d0f6 c4bf
00000110: 0c7e a73f 577c ea3f 7788 573e 2f21 ae3f
00000120: 5344 cf3e d3ec 28bf 47a8 a93f 88aa fcbf
00000130: 5d01 953f c44e 4a3e 843d b8bf ae41 68bf
00000140: 0dc0 bfbe cb48 d5bf afd5 b23f 1c75 4f3f
00000150: 8cce 1d3f 7ce7 a73f cff7 a63f b824 94bf
00000160: aac9 3e3f f7ee 8f3d b494 b33d 39c9 513f
00000170: 0668 96bf 7974 59bd a91b 91bf 804a 213d
00000180: 5b24 ec3e fca6 113f 5059 1f3e 1730 a7bf
00000190: 900a 04c0 7328 49be a2a3 853f cc98 c23f
000001a0: 2ea0 24be 9872 c33f 7087 013f 400d d93e
000001b0: f543 933d bdf3 f7bf 749c fcbd dd3b 3dbf
000001c0: c2f1 3cbe d71c 063f 3579 a53d 6988 84bf
000001d0: e95f 8d3f 1728 893f ce13 0bbf 0fa4 cc3f
000001e0: 455b d03f 1d33 7cbf 6d34 0ebe 312a 37bf
000001f0: c6c7 17be d8de c6bd 2caa 8fbf d6d9 023f
00000200: 4618 b4bf c565 db3e e41c 933f f8f7 81bf
00000210: 51d4 e43e f56c dd3f ec23 e53e c08b 1ebe
00000220: f998 473f cd38 3abe f182 f4bb f8bf bbbf
00000230: 6d2b 853f a996 643e e66c 3a3e 60b2 b2bf
00000240: 0792 23c0 68a9 c0be 95a5 e13f 5381 973f
00000250: 94eb b23e 38b8 cb3f 791f f9be 9a1a 973e
00000260: 37f4 3a3f 5400 d0bf 0428 4cbf c262 103f
00000270: 8d90 c2bf 3a08 b6bf 15b7 e53d 1d02 df3f
00000280: 6f10 ba3f 0c07 79bf d9ab acbf c14e 2ebf
00000290: 66f3 b0bf 6e58 ae3f 44be 54bf 72d5 a93f
000002a0: 9165 cabf 107a 9c3e 05a4 c33f c426 c23f
000002b0: 0319 babf 5247 94bf 36eb 26bc 4cf6 1cbf
000002c0: fd8a 573e a1e6 893f 5a38 e3bd 0abd a7bf
000002d0: 9754 5d3f a6b7 ae3f 7b17 d9bf c878 b63f
000002e0: 0ba9 11bd 1e98 563f 5e43 aabf 3d5b de3f
000002f0: 5946 11bc 8cb1 b83f 04ab cb3b 3c2c a23f
00000300: 0d60 d0bf acb6 f13c 82f8 ea3f b3eb ddbf
00000310: 6044 843f b930 1340 3189 c33e 5554 db3f
00000320: b90c a93e ecb2 05c0 f8e9 ad3f 3686 11c0
00000330: 2bff ce3f c480 433e 7995 43bf 2514 7fbf
00000340: 0e0b ccbf be2a e0bf 8ead d83f 5c72 b63f
00000350: 9d82 263f 7e34 f93f 4ba9 0240 d18e a73c
00000360: aa4b d33f 87a0 9fbf 0fef 82bf cbdb 3c3f
00000370: 2573 ddbf c39a 9bbf 0672 36bf 708f fa3e
00000380: 664a 0040 7220 c83e 1694 86bf 4b58 ecbf
00000390: 6538 f7bf 0339 5c3f 4fa3 083f 75d6 f43f
000003a0: d5b5 abbf 23ec da3f fbc2 de3f 53d6 e13f
000003b0: a06c 85bf ecbe fbbf 85e5 513f 54cf cfbf
000003c0: 128c edbe 2673 d83f 0fba 1dbe 12b8 d1bf
000003d0: 60a5 9f3f c88b f13f 0461 ffbf 5a54 0c40
000003e0: 836b cc3f 9233 f3be e147 c4bf c106 153d
000003f0: 53b4 5ebf 713b 8c3f 7ccc d6bd b0d9 933e

pi.pi_net.4.bias f4 [256]
2.0462523 1.6364822 1.4681084 1.8295636 2.439874 1.9329798 2.2729201 2.3524852
2.45149 1.7065891 2.3502288 0.24221826 1.4631188 1.4238989 2.4461389 2.0273962
2.0198307 1.7099879 1.9817111 2.3146944 2.2714744 1.9519166 2.4068017 2.4466367
2.0559416 2.5229743 2.6464026 2.468482 1.8571047 1.058468 0.31204006 2.1476264
1.8471392 2.4941869 1.9658208 2.4318864 1.2752979 2.570219 1.7032305 2.473349
2.6666145 1.738504 1.8329012 2.014328 2.1648154 1.835348 2.7261784 2.293984
2.064745 2.4274094 1.2556599 2.413722 1.7946382 1.8278325 1.8214947 2.1250973
2.3139877 2.2888155 1.9891164 2.4714708 2.3972719 0.9469444 1.9222329 1.3229675
1.6213833 1.0671144 2.5763514 1.4860185 1.4578668 1.2629709 2.671058 1.427534
1.5995926 1.962652 2.1878128 2.5646002 2.7700665 1.6486174 0.2933359 1.3175095
2.0662766 1.9726782 2.508732 2.072774 1.8416342 1.3583962 2.100786 2.3991263
2.6242473 2.0860612 2.5721288 1.8829634 2.309945 2.1721265 1.8575382 2.1456168
2.4053915 2.4089746 2.373722 2.632262 2.1397064 2.341245 2.1514292 1.9709235
1.5740467 2.0826068 2.3835142 1.9450223 1.9791899 2.6915808 1.8421764 2.546712
1.300695 2.1347344 1.3679515 1.8828503 1.8381553 2.4977412 1.4528886 2.6095054
2.5861006 2.4570246 1.6002924 1.332897 2.0828485 1.9174956 2.4111445 1.8181978
2.4946089 1.32264 2.5317554 1.779295 1.964456 1.6302214 2.3668263 1.5367938
2.0737057 2.1644826 1.7362845 2.2269776 2.2970133 1.9940726 2.5726159 1.8077514
1.0608082 2.2660954 2.2359767 0.846509 2.2441947 0.4074854 1.102835 2.6046538
2.3142796 2.2117562 1.0443535 1.3345457 2.5006738 2.1953597 2.0109978 2.26684
2.3270988 1.9511425 0.83633006 1.6190115 1.7018895 1.9523833 2.2918792 2.453872
0.96365154 1.6795484 2.0764217 1.4808784 2.6167548 2.0639462 1.701901 2.478292
2.4818487 2.503877 1.8705803 0.3375491 2.462591 2.6604795 2.4708645 1.3228213
2.2926264 2.049011 2.6435385 2.5476146 2.1756682 2.1113937 1.9602474 1.8428271
1.5229136 2.5770037 2.363383 1.4826158 2.1973994 1.3208225 2.5685298 1.6611806
2.4612715 2.3351028 2.290156 1.8420624 1.8751354 2.0702856 1.3473217 1.3853406
0.21753842 2.4456098 2.2110567 2.3818362 2.5384896 1.8346466 2.004615 1.5337555
1.9697746 2.5952613 1.9398497 2.0941837 1.8737223 1.4423637 2.6508782 2.4735444
0.27923927 2.1256285 1.7225177 2.0744073 2.075034 1.8068277 1.9265082 2.415894
1.3204501 2.30154 2.328773 2.4396443 1.6603509 2.0661983 1.3909123 2.6057494
2.3893187 0.83708763 2.233939 2.3707056 2.274031 2.4589527 2.0212245 1.3497844
1.8239698 1.3369443 1.9297783 2.5452025 2.2589753 1.8206648 1.6730661 2.3147993
00000000: ccf5 0240 4078 d13f faea bb3f 242f ea3f
00000010: e526 1c40 e26b f73f 8677 1140 1e8f 1640
00000020: 36e5 1c40 8371 da3f 266a 1640 1008 783e
00000030: 7a47 bb3f 5242 b63f 8a8d 1c40 dcc0 0140
00000040: e844 0140 e2e0 da3f b6a8 fd3f f423 1440
00000050: d65f 1140 67d8 f93f 0a09 1a40 b295 1c40
00000060: 8c94 0340 6978 2140 a95e 2940 9cfb 1d40
00000070: 9bb5 ed3f e17b 873f b7c3 9f3e b672 0940
00000080: 0f6f ec3f c2a0 1f40 04a0 fb3f 07a4 1b40
00000090: f63c a33f 787e 2440 7503 da3f 5a4b 1e40
000000a0: d0a9 2a40 4d87 de3f 829c ea3f c0ea 0040
000000b0: 568c 0a40 afec ea3f b579 2e40 a2d0 1240
000000c0: c824 0440 ad5a 1b40 77b9 a03f 6c7a 1a40
000000d0: b4b6 e53f 6af6 e93f bd26 e93f 9801 0840
000000e0: 6018 1440 f47b 1240 5e9b fe3f 942c 1e40
000000f0: e76c 1940 f36a 723f ba0b f63f 0057 a93f
00000100: 7d89 cf3f 3497 883f f1e2 2440 db35 be3f
00000110: 619b ba3f 08a9 a13f 9df2 2a40 6fb9 b63f
00000120: 73bf cc3f 2e38 fb3f 2005 0c40 6922 2440
00000130: c548 3140 e505 d33f 2030 963e 27a4 a83f
00000140: e03d 0440 b880 fc3f 118f 2040 54a8 0440
00000150: abba eb3f eddf ad3f 4773 0640 498b 1940
00000160: abf3 2740 0782 0540 c29d 2440 f204 f13f
00000170: 24d6 1340 1f04 0b40 d0c3 ed3f c951 0940
00000180: eff1 1940 a42c 1a40 10eb 1740 fb76 2840
00000190: f3f0 0840 f5d6 1540 04b1 0940 3947 fc3f
000001a0: 5d7a c93f 6e49 0540 7f8b 1840 7ef6 f83f
000001b0: 1856 fd3f dc42 2c40 70cc eb3f 54fd 2240
000001c0: 2c7d a63f 7d9f 0840 0919 af3f 3d01 f13f
000001d0: ac48 eb3f feda 1f40 41f8 b93f 2302 2740
000001e0: ac82 2540 e43f 1d40 62d6 cc3f 5e9c aa3f
000001f0: 644d 0540 7f70 f53f 3150 1a40 b5ba e83f
00000200: aca7 1f40 444c a93f 4808 2240 f0bf e33f
00000210: 4b73 fb3f 18ab d03f 157a 1740 a9b5 c43f
00000220: 98b7 0440 e286 0a40 923e de3f cd86 0e40
00000230: 4402 1340 c53d ff3f bda5 2440 6664 e73f
00000240: 90c8 873f b507 1140 3e1a 0f40 d0b4 583f
00000250: e3a0 0f40 eda1 d03e b329 8d3f a6b2 2640
00000260: 281d 1440 6a8d 0d40 60ad 853f 65d2 aa3f
00000270: 0a0b 2040 c680 0c40 30b4 0040 e813 1140
00000280: 30ef 1440 0abf f93f ba19 563f c53b cf3f
00000290: 84d7 d93f b2e7 f93f 26ae 1240 3d0c 1d40
000002a0: deb1 763f 71fb d63f 18e4 0440 6c8d bd3f
000002b0: e978 2740 b217 0440 e4d7 d93f 569c 1e40
000002c0: 9cd6 1e40 853f 2040 2d6f ef3f 3cd3 ac3e
000002d0: 179b 1d40 4c45 2a40 a522 1e40 3552 a93f
000002e0: 64ba 1240 ff22 0340 bc2f 2940 1e0c 2340
000002f0: 263e 0b40 1321 0740 63e9 fa3f c2e1 eb3f
00000300: d5ee c23f a1ed 2440 ab41 1740 5bc6 bd3f
00000310: 31a2 0c40 b610 a93f cb62 2440 91a1 d43f
00000320: 7985 1d40 5372 1540 ea91 1240 b3c8 eb3f
00000330: 7004 f03f 8f7f 0440 0a75 ac3f d752 b13f
00000340: 64c2 5e3e df84 1c40 f481 0d40 0170 1840
00000350: 9d76 2240 b3d5 ea3f 9d4b 0040 1a52 c43f
00000360: 9321 fc3f c318 2640 ff4c f83f 1b07 0640
00000370: 22d6 ef3f 609f b83f fda7 2940 8d4e 1e40
00000380: 73f8 8e3e 4c0a 0840 767b dc3f 17c3 0440
00000390: 5bcd 0440 2146 e73f d297 f63f 029e 1a40
000003a0: 8204 a93f 6e4c 1340 9e0a 1540 2223 1c40
000003b0: 6186 d43f 983c 0440 6a09 b23f 99c4 2640
000003c0: 99ea 1840 604b 563f dbf8 0e40 a4b9 1740
000003d0: b989 1140 7b5f 1d40 be5b 0140 bcc5 ac3f
000003e0: d877 e93f fe20 ab3f fa02 f73f 99e4 2240
000003f0: 0d93 1040 8b0b e93f 0827 d63f ac25 1440

v.v_net.0.weight f4 [64, 5]
0.14099117 -0.31199884 -0.06394605 0.17916259 0.12940714 -0.3449413 0.052151874 0.16539675
-0.025602559 -0.51863176 -0.8427021 -0.2940973 -0.41819656 0.20782265 -0.17947401 -0.66971314
-0.30393225 0.054047897 0.07137369 -0.25244474 0.63241094 0.3013402 -0.16050348 0.38616377
-0.3237844 0.22450581 0.67563593 0.2339774 -0.06930032 -0.13168503 0.33537117 0.42548698
0.045143243 0.016087275 -0.14535922 0.73763615 0.76517105 0.1625203 -0.15381794 0.038167305
-0.83104557 -0.70001006 -0.22084701 0.38242915 0.09493579 -1.0569097 -0.54152364 -0.04314117
0.2951012 -0.058318265 0.652714 0.6546262 0.0080071185 0.22473171 0.34462014 -0.25799602
-0.70374376 -0.19850546 0.2734375 0.01891729 0.5549402 0.29676068 0.16223697 0.038693942
-0.19427252 -0.9789174 -0.8285463 0.14793082 0.088229604 0.12508325 0.8052584 0.44894487
0.32807317 -0.041912396 -0.22621247 -0.31886107 -1.0001019 0.21420433 0.02795242 0.1450812
-0.68442357 -0.35711908 -0.110278256 -0.36629754 0.00022766442 0.07564346 -0.35474166 -0.07707475
-0.23796159 -0.3066731 0.39873743 0.22330561 0.47368148 0.037794575 0.1056352 -0.2333142
-0.8881863 0.10430037 -0.1304143 0.08195645 0.29485455 -0.10839468 -0.189253 -0.19805682
0.06934862 -0.49660778 -0.39024973 -0.42450836 -0.0079396 -0.3505485 0.6271189 0.19111472
0.25464037 -0.2681532 0.41244754 0.8673 0.58078676 -0.099051796 -0.3259295 0.3906535
-0.48683545 0.039435923 0.03820526 -0.5825137 0.14626352 -0.29955146 -0.6989847 0.15865766
0.3213386 -0.30210415 1.0315294 0.084385544 -0.19293374 -0.0027150633 0.26468247 0.23039606
0.64294946 0.051971216 -0.29442543 -0.06685668 -0.37566778 -0.5984613 0.26016656 0.03658572
-0.20881201 -0.43617806 -0.48157573 -0.18224171 0.24344625 0.1687325 0.372186 0.46927062
0.25775594 0.11309231 0.25218007 0.60489994 -0.22644958 0.051780533 0.4207954 -0.103733316
0.7850529 0.16927238 0.113542855 0.06766878 0.19637889 0.49251178 0.14274591 0.29706347
-0.029943183 -0.16370286 -0.7180723 -0.7382779 0.54817075 0.42674798 -0.31799808 0.5237806
0.24179594 -0.09526479 0.09311815 0.105054714 -0.40641272 -0.45961076 -0.04681731 0.025528893
0.028596934 0.66693753 0.55519146 -0.51020855 -0.14890702 0.532742 0.44292742 0.8290242
-0.063072555 -0.0052404306 -0.08520774 0.70687383 0.20759803 -0.13043402 0.0045544566 0.006351798
0.08333691 -0.19603202 -0.030855095 0.06878367 0.2254067 -0.7212859 -0.3766834 -0.39975956
0.07531787 -0.027775997 0.29651782 0.6688068 0.3100348 -0.17966598 0.108125955 0.2085691
0.31964093 -0.48394567 0.45136514 0.22848421 0.07026417 -0.8375899 0.5515364 -0.35967818
-0.07532773 0.5716295 0.4714634 -0.2494803 -0.4387984 0.6168834 0.3493213 0.5016606
0.4107906 -0.077298105 -0.12306735 0.74202275 0.7238981 -0.22005448 0.23484504 -0.14397016
-0.5838376 -0.57234216 0.09227725 -0.062263843 0.114236034 0.5124878 0.8808563 0.065120295
0.16345954 -0.67433506 -0.45643058 -0.5880209 -0.069145896 -0.040850703 0.20424867 0.5311939
00000000: fd5f 103e 50be 9fbe 26f6 82bd 6676 373e
00000010: 4e83 043e 259c b0be 349d 553d c45d 293e
00000020: 75bc d1bc 0dc5 04bf 53bb 57bf ec93 96be
00000030: dc1d d6be 76cf 543e 09c8 37be 5272 2bbf
00000040: 029d 9bbe 5461 5d3d 5f2c 923d 7040 81be
00000050: afe5 213f 4349 9a3e 065b 24be 42b7 c53e
00000060: 12c7 a5be dae4 653e 7af6 2c3f c697 6f3e
00000070: 54ed 8dbd 71d8 06be c5b5 ab3e 6ed9 d93e
00000080: 1fe8 383d 76c9 833c 0cd9 14be b9d5 3c3f
00000090: 40e2 433f b96b 263e 7382 1dbe 5255 1c3d
000000a0: 67bf 54bf dc33 33bf b825 62be c1cd c33e
000000b0: b26d c23d d148 87bf 4ba1 0abf ccb4 30bd
000000c0: 8117 973e 22df 6ebd 4418 273f 9595 273f
000000d0: 4a30 033c 1220 663e 0d72 b03e 0e18 84be
000000e0: 8d28 34bf 0445 4bbe 0000 8c3e 6ff8 9a3c
000000f0: 9010 0e3f 04f1 973e 7321 263e 8a7d 1e3d
00000100: 60ef 46be 559a 7abf 9c1b 54bf 2d7b 173e
00000110: b9b1 b43d d315 003e 6a25 4e3f 1adc e53e
00000120: 35f9 a73e 55ac 2bbd 3ea4 67be c241 a3be
00000130: 5703 80bf 6158 5b3e 79fc e43c 2b90 143e
00000140: 6236 2fbf 50d8 b6be 91d9 e1bd 5a8b bbbe
00000150: 34b9 6e39 f5ea 9a3d b3a0 b5be 5ed9 9dbd
00000160: 34ac 73be 4204 9dbe 5027 cc3e 3aaa 643e
00000170: 6186 f23e 7cce 1a3d 4557 d83d ebe9 6ebe
00000180: 2d60 63bf 6f9b d53d 548b 05be c9d8 a73d
00000190: 2df7 963e 08fe ddbd 8acb 41be 68cf 4abe
000001a0: a606 8e3d 6043 febe d0ce c7be 2959 d9be
000001b0: 1915 02bc 187b b3be dd8a 203f 94b3 433e
000001c0: 3960 823e 604b 89be 532c d33e 5f07 5e3f
000001d0: 71ae 143f abdb cabd 3be0 a6be bc03 c83e
000001e0: 7f42 f9be 9087 213d 1e7d 1c3d 9e1f 15bf
000001f0: 1bc6 153e cf5e 99be a9f0 32bf 2777 223e
00000200: 7e86 a43e 65ad 9abe 2809 843f 54d2 ac3d
00000210: 6c90 45be 34ef 31bb 7684 873e f2ec 6b3e
00000220: 5698 243f c5df 543d eebe 96be 28ec 88bd
00000230: 8757 c0be c234 19bf 8d34 853e e8da 153d
00000240: d1d2 55be bb52 dfbe 1891 f6be 929d 3abe
00000250: f949 793e 36c8 2c3e 2a8f be3e 3d44 f03e
00000260: 96f8 833e f19c e73d bf1d 813e b9da 1a3f
00000270: 66e2 67be d317 543d 7f72 d73e 2272 d4bd
00000280: 3af9 483f bd55 2d3e 2889 e83d ee95 8a3d
00000290: 8c17 493e 812a fc3e fc2b 123e b418 983e
000002a0: 684b f5bc b9a1 27be 96d3 37bf c8ff 3cbf
000002b0: eb54 0c3f b67e da3e a5d0 a2be 7c16 063f
000002c0: 5b99 773e 301a c3bd bbb4 be3d ed26 d73d
000002d0: 5415 d0be 1a52 ebbe 82c3 3fbd f821 d13c
000002e0: 1e44 ea3c 6bbc 2a3f 0721 0e3f 079d 02bf
000002f0: 157b 18be c861 083f 62c7 e23e ee3a 543f
00000300: 2f2c 81bd ebb7 abbb 6581 aebd aff5 343f
00000310: 9494 543e 7f90 05be 8d3d 953b be22 d03b
00000320: 8bac aa3d 9ebc 48be d3c3 fcbc 74de 8c3d
00000330: 04d1 663e 31a6 38bf a6dc c0be 49ad ccbe
00000340: 4140 9a3d 7d8a e3bc 2fd1 973e ec36 2b3f
00000350: e2bc 9e3e 5cfa 37be 2471 dd3d 2393 553e
00000360: faa7 a33e bac7 f7be 5519 e73e c4f7 693e
00000370: a9e6 8f3d 4b6c 56bf 7d31 0d3f bd27 b8be
00000380: 6d45 9abd 5056 123f a763 f13e c477 7fbe
00000390: 2faa e0be 12ec 1d3f 3eda b23e d46c 003f
000003a0: 2553 d23e 784e 9ebd bc0a fcbd 34f5 3d3f
000003b0: 6351 393f f655 61be 387b 703e ea6c 13be
000003c0: 6276 15bf 0485 12bf dbfb bc3d 5f08 7fbd
000003d0: 95f4 e93d 6732 033f cc7f 613f ca5d 853d
000003e0: f061 273e 39a1 2cbf 45b1 e9be 8a88 16bf
000003f0: 5d9c 8dbd 1153 27bd 9026 513e 53fc 073f

v.v_net.0.bias f4 [64]
-0.44100013 -0.4217401 -0.4473885 -0.42100316 0.46741098 0.50163275 0.5174622 0.43091074
-0.44049412 -0.4308164 0.44005424 -0.40008977 0.4735469 -0.53913665 0.4664457 -0.5622276
-0.45604956 -0.37757942 0.40684465 -0.46104866 0.3338924 -0.4149338 0.42471614 0.4848269
-0.38803977 -0.49073982 0.5565893 0.49370176 -0.33673045 -0.46696085 0.45659265 0.33002982
0.43349588 0.4991509 -0.58009845 0.50180227 -0.47677827 0.49145484 0.49481118 0.5144435
-0.36093232 -0.47169635 0.4606757 0.47158295 -0.45677975 0.47493055 0.426784 0.4792745
-0.51192284 0.5286545 -0.5131737 0.48180038 0.47071984 -0.607103 -0.42368934 0.25012475
0.4818223 -0.5263181 0.3603069 -0.42851135 -0.41614679 -0.46732873 0.5102792 0.39817125
00000000: c5ca e1be 52ee d7be 1b10 e5be ba8d d7be
00000010: 7e50 ef3e 016b 003f 6778 043f 55a0 dc3e
00000020: 7288 e1be f893 dcbe ca4e e13e 91d8 ccbe
00000030: bd74 f23e dc04 0abf f9d1 ee3e 26ee 0fbf
00000040: 547f e9be 1752 c1be f14d d03e 920e ecbe
00000050: f2f3 aa3e 3472 d4be 6574 d93e 3b3b f83e
00000060: 26ad c6be 4042 fbbe a37c 0e3f 7ac6 fc3e
00000070: ef67 acbe 7e15 efbe 83c6 e93e abf9 a83e
00000080: 2cf3 dd3e b590 ff3e 5581 14bf 1d76 003f
00000090: 481c f4be f89f fb3e e457 fd3e 92b2 033f
000000a0: 1fcc b8be 2f82 f1be afdd eb3e 5273 f13e
000000b0: 09df e9be 192a f33e 6f83 da3e 7863 f53e
000000c0: 600d 03bf e755 073f 5a5f 03bf 8aae f63e
000000d0: 3102 f13e 1a6b 1bbf cfed d8be 5a10 803e
000000e0: 6ab1 f63e c8bc 06bf 257a b83e d765 dbbe
000000f0: 3111 d5be b645 efbe a8a1 023f 1add cb3e

v.v_net.2.weight f4 [64, 64]
0.30850512 -0.0022595746 0.53585166 0.3587861 -0.3834925 -0.5060707 -0.6298054 -0.3406245
0.42450252 0.18100388 -0.38339907 0.0437428 -0.7622606 0.5979048 -0.2807368 0.24677221
-0.00439095 0.06367349 0.044396035 0.18642111 -0.38312152 0.32400092 -0.09697454 -0.36769226
0.27929702 0.5343665 -0.5052323 -0.44079188 0.5974795 0.22664523 -0.25570163 -0.383103
-0.48759568 -0.61871463 -0.075345285 -0.15360045 0.13851468 -0.35342273 -0.3883925 -0.38019726
0.22716697 0.2987899 -0.6133033 -0.059222586 0.15585996 -0.32654625 -0.04779576 -0.6917544
0.29360703 -0.10365866 0.10867584 -0.36247113 -0.13021234 0.5173065 0.16588537 0.011555314
-0.5083982 0.20031059 -0.32176396 0.38943297 0.31362608 0.25200474 -0.05483606 -0.20500764
0.20812848 0.3246812 -0.0004810246 0.6703973 -0.45764577 -0.5077872 -0.19666733 -0.6503781
0.59714335 0.38763407 -0.29595593 0.2621774 -0.4610809 0.11837693 -0.47646084 0.35260782
-0.18037674 0.09714769 -0.27701557 0.6158384 0.12562013 -0.2250042 -0.27746192 -0.24827234
0.37972832 0.31528622 -0.28961217 -0.50266 0.006473186 0.2491133 -0.005276537 -0.20094217
-0.4028121 -0.34674522 0.3774183 -0.82312334 0.21980758 -0.8369602 -0.35091972 -0.518416
-0.454795 0.54020506 -0.45455912 -0.15834518 0.26079503 -0.2518148 -0.4376683 -0.33776727
0.1785556 -0.55877084 0.26540452 -0.012320549 -0.23304337 0.1379539 0.16385031 -0.13982958
-0.19081844 0.45715085 -0.30534685 0.5709232 0.1815981 0.54550195 -0.36294663 -0.31881005
0.16239406 0.66409427 -0.015341356 0.1195437 -0.66045374 -0.16115963 -0.57991844 -0.2626638
0.050875828 0.33546662 -0.068880446 0.42770323 -0.36645457 0.2682743 0.14198202 0.13797432
0.8206669 0.0101188375 -0.08027249 0.898603 -0.08927782 0.4177836 -0.45160258 -0.33875144
0.36163566 0.5100151 -0.4990544 -0.5232203 0.14624855 0.46016645 -0.30114168 -0.05037642
-0.39040518 -0.4101993 0.11181949 -0.23530194 0.51281303 -0.0806091 -0.41260457 -0.5633626
-0.023334986 -0.3212286 -0.3944048 -0.19699366 0.17360006 -0.17770396 -0.31406993 -0.37818685
0.39322537 -0.6290207 0.6117191 -0.89345974 -0.34465876 0.22284527 0.2428315 -0.054291613
-0.0162273 0.31714705 -0.14521651 0.27010718 0.16608547 0.5872245 -0.50778866 -0.008334614
0.30688512 -0.21185583 0.31250292 0.06298217 -0.61354905 -0.4556524 -0.25037673 -0.09844232
0.7440432 0.30625618 -0.3933351 0.48748362 -0.51428044 0.51946896 -0.1964764 0.7535319
-0.047539845 0.22398543 -0.51060784 -0.06841167 -0.33543098 0.35958266 -0.26204348 -0.24686158
0.49562496 0.25538895 -0.5030563 -0.40401578 0.22952774 0.36784798 -0.23383638 -0.36248162
-0.0979469 -0.34008098 0.33071825 -0.33837256 0.5036589 -0.6288764 -0.18054602 -0.21699028
0.20248397 0.2544163 -0.1584417 -0.42902407 0.3379238 -0.014809439 -0.17090118 -0.07800281
0.54999554 -0.28048748 0.2911921 -0.15491198 -0.37490255 0.49638283 0.37304297 -0.73964715
-0.3737452 0.11107636 -0.2559729 0.18034676 0.27913415 0.28391245 -0.20703693 -0.25257432
00000000: 62f4 9d3e 5f15 14bb 932d 093f d0b2 b73e
00000010: 2159 c4be d98d 01bf ed3a 21bf 5666 aebe
00000020: 6558 d93e 1559 393e e24c c4be a62b 333d
00000030: 8323 43bf 4a10 193f bcbc 8fbe dbb1 7c3e
00000040: f5e1 8fbb 3f67 823d 9ed8 353d 2de5 3e3e
00000050: 8128 c4be 73e3 a53e 969a c6bd 2942 bcbe
00000060: 0500 8f3e 3ecc 083f e756 01bf 79af e1be
00000070: 6bf4 183f b015 683e 53eb 82be 1426 c4be
00000080: 24a6 f9be 1564 1ebf a14e 9abd 7049 1dbe
00000090: cbd6 0d3e d3f3 b4be 62db c6be 37a9 c2be
000000a0: 759e 683e fdfa 983e 7201 1dbf 6293 72bd
000000b0: c199 1f3e 1231 a7be 7dc5 43bd d116 31bf
000000c0: a953 963e fe4a d4bd 7091 de3d d195 b9be
000000d0: 6256 05be 336e 043f dbdd 293e 8052 3d3c
000000e0: 6226 02bf 381e 4d3e 3fbe a4be c263 c73e
000000f0: 9993 a03e c406 813e c79b 60bd 86ed 51be
00000100: a21f 553e 9d3c a63e 0732 fcb9 289f 2b3f
00000110: 8c50 eabe 58fe 01bf 2963 49be 2e7f 26bf
00000120: 63de 183f f977 c63e 8987 97be 1e3c 863e
00000130: cc12 ecbe 9b6f f23d adf2 f3be 0389 b43e
00000140: aeb4 38be 5ef5 c63d fcd4 8dbe 96a7 1d3f
00000150: 90a2 003e 8067 66be 7d0f 8ebe 1b3b 7ebe
00000160: c06b c23e 326d a13e 0c48 94be 53ae 00bf
00000170: 051d d43b 8f17 7f3e cde6 acbb c9c3 4dbe
00000180: 633d cebe 9788 b1be f93c c13e 36b8 52bf
00000190: 3d15 613e 0643 56bf c0ab b3be e9b6 04bf
000001a0: e4da e8be e14a 0a3f f9bb e8be 3d25 22be
000001b0: ed86 853e dfed 80be 0f16 e0be d5ef acbe
000001c0: 47d7 363e 9b0b 0fbf 1ae3 873e 21dc 49bc
000001d0: eca2 6ebe ca43 0d3e 60c8 273e 7c2f 0fbe
000001e0: e965 43be ad0f ea3e 6c56 9cbe 0628 123f
000001f0: daf4 393e 04a6 0b3f 24d4 b9be 123b a3be
00000200: a14a 263e 1502 2a3f 505a 7bbc 54d3 f43d
00000210: 7f13 29bf 0807 25be 8975 14bf df7b 86be
00000220: 2c63 503d 48c2 ab3e 3111 8dbd ebfb da3e
00000230: ef9f bbbe 405b 893e bc63 113e 2449 0d3e
00000240: 3a17 523f 7bc9 253c e765 a4bd d90a 663f
00000250: 4ad7 b6bd bbe7 d53e 7438 e7be d470 adbe
00000260: 4f28 b93e 5990 023f 0f84 ffbe c4f1 05bf
00000270: 2ec2 153e f09a eb3e 3e2f 9abe 8157 4ebd
00000280: 30e3 c7be a505 d2be 9e01 e53d fef2 70be
00000290: b747 033f 6216 a5bd e840 d3be 8838 10bf
000002a0: 0329 bfbc 1378 a4be 6def c9be b5b8 49be
000002b0: 37c4 313e 07f8 35be c6cd a0be b5a1 c1be
000002c0: d654 c93e 8007 21bf 9f99 1c3f c7b9 64bf
000002d0: 1d77 b0be 8d31 643e d2a8 783e e260 5ebd
000002e0: 1def 84bc 1961 a23e a3b3 14be 7d4b 8a3e
000002f0: 4f12 2a3e 5854 163f 70fe 01bf e88d 08bc
00000300: 0c20 9d3e bcf0 58be 6200 a03e ccfc 803d
00000310: 8d11 1dbf 454b e9be 6131 80be 219c c9bd
00000320: 9d79 3e3f 9ccd 9c3e 3863 c9be 7497 f93e
00000330: e2a7 03bf ebfb 043f 1c31 49be 77e7 403f
00000340: 24b9 42bd 705c 653e 32b7 02bf 6b1b 8cbd
00000350: 9cbd abbe 381b b83e 902a 86be 48c9 7cbe
00000360: 8ec2 fd3e 57c2 823e 4cc8 00bf 28db cebe
00000370: 5209 6b3e 9256 bc3e ce72 6fbe 3197 b9be
00000380: 6298 c8bd 181f aebe e753 a93e 2b3f adbe
00000390: caef 003f 0bfe 20bf 0ee1 38be b332 5ebe
000003a0: f557 4f3e da42 823e 8a3e 22be 0ba9 dbbe
000003b0: 5904 ad3e 4aa3 72bc b800 2fbe f0bf 9fbd
000003c0: 82cc 0c3f 0e9c 8fbe 2217 953e 3fa1 1ebe
000003d0: 3af3 bfbe e425 fe3e 7dff be3e 8459 3dbf
000003e0: 885b bfbe 017c e33d e10e 83be d2ac 383e
000003f0: acea 8e3e f95c 913e 7d01 54be 6c51 81be

v.v_net.2.bias f4 [64]
-0.30602944 -0.21939954 -0.31850752 -0.32826796 -0.2793624 -0.32102752 0.29034108 -0.23876055
-0.29988742 0.2784317 -0.25808257 -0.22459188 0.22781579 0.26172754 -0.2826748 0.2519467
-0.26572034 0.29360327 0.24635759 -0.28261548 0.2503522 -0.24161035 -0.31362128 -0.2592309
-0.23721154 -0.278398 0.34326574 -0.26038545 0.26885363 0.29279727 0.2665568 -0.23941949
0.24214774 0.22571953 0.24955924 -0.25355458 0.2654594 0.30717704 -0.3104026 -0.2930665
-0.22162537 -0.29407135 0.3407283 -0.28163794 0.24970984 -0.30005983 0.25871035 0.28260767
-0.27956903 -0.28175178 0.3296398 -0.28796458 -0.26036742 -0.2774128 0.28343165 0.20695788
-0.31815585 0.2920473 -0.29021567 0.28115678 -0.3001671 -0.3161507 0.25036472 0.22590479
00000000: e4af 9cbe 46aa 60be 6b13 a3be bd12 a8be
00000010: 9708 8fbe b85d a4be 96a7 943e a57d 74be
00000020: d88a 99be 9a8e 8e3e 6623 84be 6afb 65be
00000030: 8b48 693e 2701 863e c0ba 90be 28ff 803e
00000040: 7f0c 88be 2b53 963e 2a45 7c3e fab2 90be
00000050: 2a2e 803e b468 77be f892 a0be eab9 84be
00000060: 95e7 72be 2f8a 8ebe 87c0 af3e 3e51 85be
00000070: 2fa7 893e 86e9 953e 227a 883e 622a 75be
00000080: 94f5 773e 0523 673e 758c 7f3e e8d1 81be
00000090: 4bea 873e 4f46 9d3e 17ed 9ebe d00c 96be
000000a0: c3f1 62be 8590 96be f173 ae3e d932 90be
000000b0: f0b3 7f3e 71a1 99be af75 843e f4b1 903e
000000c0: ac23 8fbe c541 90be 8cc6 a83e 1870 93be
000000d0: e14e 85be 0d09 8ebe f41d 913e c4ec 533e
000000e0: 53e5 a2be 3987 953e 2697 94be c8f3 8f3e
000000f0: 81af 99be 81de a1be ce2f 803e 9653 673e

v.v_net.4.weight f4 [1, 64]
3.2928362 3.949554 3.1490734 3.0226662 3.0283089 3.1578484 -3.077431 3.1527743
3.074935 -2.9778214 3.2696083 3.2321212 -3.6559114 -3.342141 3.2331378 -3.2252579
3.3268883 -3.427642 -3.5230381 3.2982683 -3.22189 3.3842995 3.0361032 2.9566646
3.3966067 3.170292 -3.1253307 3.3859499 -3.0352244 -3.3680198 -3.526 3.0575075
-3.3084712 -3.3164485 -3.291523 3.2820911 -3.4341977 -3.0612624 3.1941535 3.237362
3.1861014 3.1079717 -2.971887 3.273449 -3.4333973 3.169635 -3.0786145 -3.1946824
2.9755526 3.0981305 -3.2138972 3.3807702 2.9814072 3.0734673 -2.98854 -3.3675594
3.1391828 -3.3653104 3.247775 -3.291074 3.169517 3.3367329 -3.4577694 -3.5354156
00000000: d4bd 5240 7ec5 7c40 6b8a 4940 5d73 4140
00000010: d0cf 4140 301a 4a40 a1f4 44c0 0ec7 4940
00000020: bccb 4440 a094 3ec0 4341 5140 13db 4e40
00000030: 74fa 69c0 a3e5 55c0 bbeb 4e40 a06a 4ec0
00000040: bdeb 5440 7d5e 5bc0 7579 61c0 d416 5340
00000050: 7233 4ec0 5d98 5840 844f 4240 fe39 3d40
00000060: 0162 5940 10e6 4a40 6b05 48c0 67b3 5840
00000070: 1e41 42c0 a38d 57c0 fca9 61c0 34ae 4340
00000080: febd 53c0 b140 54c0 50a8 52c0 c80d 5240
00000090: e5c9 5bc0 b9eb 43c0 036d 4c40 f030 4f40
000000a0: 16e9 4b40 02e9 4640 6633 3ec0 3080 5140
000000b0: c8bc 5bc0 4ddb 4a40 0508 45c0 ad75 4cc0
000000c0: 746f 3e40 c547 4640 7eb0 4dc0 8a5e 5840
000000d0: 60cf 3e40 b0b3 4440 3d44 3fc0 1886 57c0
000000e0: 5fe8 4840 3f61 57c0 8cdb 4f40 f5a0 52c0
000000f0: 5ed9 4a40 088d 5540 184c 5dc0 4044 62c0
