tmp/experiments/RN0 False,True,True/pyt_network_save/model save89000.pt (torch_old, 314943 bytes, 33 tensors)

pi.pi_net.0.weight f4 [64, 5]
000000 5a 38 0a 3d bd 6e 89 be fc 31 9d 3d a6 de 84 bd
       0.033745147 -0.268423 0.076755494 -0.06487779
000010 f0 af 54 3e 1d d2 1d 3f 01 3f 1b bf 63 ca 11 3f
       0.2077024 0.6164873 -0.6064301 0.5694944
000020 18 68 88 be 08 a8 02 3f d4 87 32 3e 6a d1 17 3f
       -0.26641917 0.51037645 0.17434627 0.59303916
000030 84 c3 6c 3d 29 e7 c9 bc 06 ff 6f 3e 97 fe 98 be
       0.057803646 -0.024646359 0.23437127 -0.29881737
000040 45 de 5f be 81 a8 a3 be 6e 4f da 3d 5f 78 06 3f
       -0.21862133 -0.31964496 0.10659681 0.5252742
000050 83 31 04 bf 81 d4 54 bf fc 16 94 bf 99 00 49 be
       -0.5163805 -0.83136755 -1.1569514 -0.19629134
000060 ed 9b 82 bf bd e3 82 be 3f 14 09 3f c9 6d 8c bc
       -1.0203835 -0.25564376 0.5354652 -0.017142193
000070 5c bc 00 be 35 f8 02 bf e0 3c 0b be a3 cf 1d 3d
       -0.12571853 -0.51159984 -0.1359744 0.038528096
000080 af 97 47 3d 62 00 94 be 12 b6 00 bd c5 21 11 3f
       0.04872864 -0.28906542 -0.031423636 0.56692153
000090 dd 86 d9 3e 8d be 90 bd 1c 32 00 bf 2d 91 41 be
       0.42485705 -0.07067595 -0.5007646 -0.18903036
0000a0 ee e0 de 3e 80 66 af bd 45 44 1f be 65 ba 69 3e
       0.43530983 -0.08564472 -0.15553387 0.2282501
0000b0 ff 8c d5 be 3d e1 03 bf a5 ce b9 be 36 64 f3 3c
       -0.41709134 -0.5151556 -0.3629047 0.02971087
0000c0 6f 11 da 3e a5 f3 b8 be be 2c 45 3e 3c 4d 02 be
       0.42591426 -0.36123386 0.19255349 -0.12724775
0000d0 22 95 69 be 2e 31 56 3f 4a 7c 31 be 34 84 02 3e
       -0.22810796 0.8366879 -0.17332569 0.12745744
0000e0 74 7b 03 3f 2c 86 ef bc 7f 98 08 be 5b 6d 7e 3e
       0.5136025 -0.029238783 -0.13339423 0.24846403
0000f0 f3 08 ac 3e 70 f5 22 3f 47 6e 09 be 94 0b 09 3e
       0.33600578 0.6365576 -0.13420974 0.13383323
000100 76 a0 c3 be 6c 98 2e 3e 2a 57 8c 3e 3a bc c0 3e
       -0.3820836 0.17050332 0.2741025 0.37643605
000110 57 11 3b bd c6 22 9c 3e 29 72 11 3f 3e e5 84 3e
       -0.045670833 0.3049528 0.5681482 0.25956148
000120 53 9c ad 3d 0e 38 88 be e8 0d 89 be 45 a3 e9 3c
       0.08477082 -0.26605266 -0.26768422 0.028520236
000130 a6 04 99 3e 6b d9 9b 3c 04 75 a7 be ca 76 c5 be
       0.2988636 0.019024571 -0.32706463 -0.3856719
000140 2f d5 ca be 43 4c 0d 3d fb 5c 51 be 03 4f b5 3d
       -0.3961577 0.034496557 -0.20445625 0.08852961
000150 9e 6c 9d 3d ed 23 9a be 9a ea a1 be 4d af 06 3f
       0.07686733 -0.30105534 -0.316243 0.5261124
000160 e0 b6 0c 3d 5a 42 7a be 3e d7 40 3f 5f 35 81 3e
       0.03435409 -0.24439374 0.75328434 0.2523603
000170 86 c5 da bc b3 a8 ad be 74 f2 9a be 05 c9 3b be
       -0.026705515 -0.3391777 -0.30263102 -0.18338402
000180 68 b6 8a be 42 17 11 3e 52 05 bd 3e 20 61 f1 bd
       -0.2709229 0.14169028 0.36918122 -0.11786103
000190 45 ad a5 bc 88 7c 45 3e b4 c1 82 3b 2d 05 e7 be
       -0.020224223 0.19285786 0.0039903764 -0.45121136
0001a0 75 f8 85 3e f7 86 ea 3a 5f 48 af 3e 4f 7a c0 3d
       0.2616612 0.0017893006 0.34234902 0.093983285
0001b0 c5 08 29 bf bb 34 85 bc 80 84 8d 3e eb ed 03 3f
       -0.66029006 -0.016260495 0.27640152 0.5153491
0001c0 47 6d 54 be 42 dd d3 3d bd 60 a6 be 69 da 2b 3f
       -0.20744811 0.10344936 -0.3249568 0.6713014
0001d0 17 6f a3 3e cd 40 94 bc fe fc 25 3f 67 b8 22 3f
       0.31920692 -0.018097306 0.6483916 0.63562626
0001e0 6e bc 7c be 6a 80 41 be cf 90 94 3e a8 c1 9c bd
       -0.24681255 -0.18896642 0.2901673 -0.076541245
0001f0 98 5d a3 3e 63 e7 e5 be 7b b7 8b be 38 9c cb 3d
       0.31907344 -0.44903097 -0.27288422 0.09941906
000200 68 bf 7a 3e d7 f4 03 bc b7 36 0e bf 5f 8f e8 be
       0.24487078 -0.00805398 -0.5555224 -0.45421883
000210 a4 65 f2 3d 59 ec e3 3d cc c1 2e 3f aa bd 31 3f
       0.11835793 0.11129064 0.6826446 0.6943003
000220 34 55 81 3e c9 27 d2 be df 34 14 3d c1 36 2d be
       0.25260317 -0.4104598 0.036183234 -0.16915418
000230 1a 28 b3 3b 61 63 09 3e c2 2b 04 bf 92 a6 d1 3d
       0.005467427 0.13416816 -0.5162927 0.10236849
000240 97 cb 93 bd 33 a5 ec 3e e5 09 23 be c6 a9 41 3e
       -0.07216566 0.46219787 -0.15921743 0.1891242
000250 dc 2c 92 be cb dd 0c bd 60 6e b3 3e 00 5b 7b 3e
       -0.2854985 -0.034391206 0.35045147 0.24546432
000260 0d 44 ef 3e 41 a0 21 bf 12 0e ad be d4 5a f9 be
       0.46731606 -0.63135153 -0.33799797 -0.4870211
000270 60 11 ab bd ed 09 82 3e 8b ac 7b 3e da a1 d9 bd
       -0.083529234 0.25398198 0.24577539 -0.10626574
000280 74 f4 10 3e b2 d4 e7 bc 56 27 8e be 76 d9 58 3e
       0.14155751 -0.028299663 -0.27764386 0.21176705
000290 5f 72 19 3f 87 72 ee be c0 3c f5 3d 74 1f 8f 3d
       0.5994014 -0.46571752 0.11974478 0.06988421
0002a0 94 f4 4c bd 1c 37 9a 3d 6c 4a c3 be 4c c6 c2 3e
       -0.050037935 0.075300425 -0.38142717 0.38041914
0002b0 66 50 7b bd 9e 21 20 bf 86 0c e4 3e fa 3b 06 3e
       -0.06135597 -0.62551296 0.44540805 0.13108817
0002c0 87 20 cb 3e e9 1c c7 3e b6 ec 04 bd 00 2d 86 be
       0.39673254 0.38889244 -0.032452308 -0.26206207
0002d0 6e bc 97 be 90 e0 5a 3d 9d e3 b2 3d ea f8 a3 3e
       -0.29635948 0.053436816 0.0873482 0.32025844
0002e0 68 34 b6 bd 71 35 05 3e 51 09 31 bd 6e af d5 bc
       -0.088967144 0.13008668 -0.043221775 -0.026084628
0002f0 17 07 71 bd 24 10 dc 3e 28 fe a4 3d 06 98 35 3f
       -0.058844652 0.42981064 0.08056289 0.70935094
000300 78 ef 0f bf 8e 8d 2a be 1e 1b 82 be 31 63 06 3e
       -0.56224775 -0.16655561 -0.25411314 0.13123776
000310 b2 41 8e 3e 20 b4 cd 3e e8 3f e1 be b2 aa 57 be
       0.27784497 0.40176487 -0.4399407 -0.21061209
000320 cc 74 cb 3e 5e 61 06 3f 3d ed 84 be 48 b5 33 3e
       0.39737546 0.5249232 -0.25962248 0.17549622
000330 8f e6 02 bf d7 c3 b1 bd de 9f d6 bd 62 71 87 be
       -0.51133054 -0.086799316 -0.10479711 -0.26453692
000340 aa 97 c8 3e 5c e1 9f bd f7 57 c4 3e f1 71 d8 3e
       0.3917821 -0.07806656 0.38348362 0.4227443
000350 80 03 7b be 76 e2 4c bd b0 7f 74 bd 87 d0 8e 3e
       -0.24513054 -0.050020657 -0.059692085 0.2789347
000360 00 b9 d6 be d8 0e e7 3e dd 52 0f 3e 22 28 00 bf
       -0.4193802 0.45128512 0.13996454 -0.5006124
000370 e5 59 2f 3e 0c 60 96 be 57 60 f6 bd 3d 8f 7e 3d
       0.17124136 -0.29370153 -0.12030094 0.06214832
000380 f5 72 dc 3e 34 4b 0b 3f ae d7 43 be 4c 10 b0 3e
       0.43056455 0.54411626 -0.19125244 0.34387434
000390 b2 4e 67 be 73 10 e1 be 51 d0 5e be 92 09 08 3f
       -0.22588614 -0.43957862 -0.21759154 0.53139603
0003a0 5c 2e 8b bd 1a f6 12 3e 1f 55 f1 be c8 68 c6 3d
       -0.06795952 0.14351693 -0.47135255 0.09687954
0003b0 c2 9a f8 be cc ff d8 3e e5 40 72 bc 6a cf e9 bd
       -0.4855557 0.42382658 -0.01478598 -0.11416514
0003c0 62 b4 8c 3e 26 34 b3 be 5b e8 15 be 85 57 4f 3e
       0.2748137 -0.35000724 -0.14639418 0.2024823
0003d0 3c 63 9c 3d 24 44 37 bf 9c ec 91 bf f0 21 9d bf
       0.07636115 -0.7158835 -1.1400332 -1.2275982
0003e0 14 57 58 be 7e 70 4e bf 4a cc a2 bf 2c 59 3d be
       -0.21126968 -0.806404 -1.2718594 -0.18491048
0003f0 91 fc cd bd 87 97 ed bd 4c e0 20 3e 81 7a 7f 3d
       -0.10057939 -0.11601167 0.15710562 0.06237269

pi.pi_net.0.bias f4 [64]
000000 ec c9 cb be 56 98 23 bf 0e 6b fe 3e 1e 80 e3 3d
       -0.39802492 -0.6390432 0.4969105 0.11108421
000010 d6 b8 08 bf 91 08 bc 3e 97 bb 05 3e d5 b9 f7 bb
       -0.5340704 0.36725286 0.13059841 -0.0075599947
000020 49 48 db be 66 e9 b1 be 76 87 b9 be d0 4e 9d bd
       -0.42828587 -0.3474838 -0.3623616 -0.07681048
000030 b5 04 20 bf 3c 40 37 3d 92 cd ed be 53 ec 0c 3f
       -0.6250718 0.044738993 -0.464459 0.550481
000040 b0 9c f7 3e 6e 66 6a 3d b7 70 01 be 4c 36 9b bd
       0.4836173 0.05722659 -0.12640654 -0.07578716
000050 20 67 e1 3e 2d 4d 02 3e e7 69 54 3e f4 0f e0 3e
       0.4402399 0.12724753 0.20743524 0.4376217
000060 d6 8f 5d be 0a 0a 15 3f 01 48 21 bd f4 3e f3 be
       -0.216369 0.58218443 -0.03937531 -0.47508967
000070 91 66 0d 3f 9e 7d ef be cf fe 02 be 27 db 33 3f
       0.5523463 -0.46775526 -0.12792514 0.70256275
000080 1b 2a d7 be de ab 12 3f 8f 57 07 3f aa 97 a8 bd
       -0.4202431 0.572935 0.5286798 -0.082320526
000090 d1 21 44 3f 34 be 98 3e 23 57 a5 3e 31 cd ba be
       0.766141 0.29832613 0.32293043 -0.36484674
0000a0 ca ac 24 be 4d f4 bd be 2c 19 db be 51 54 66 be
       -0.16081539 -0.3710045 -0.42792642 -0.22493102
0000b0 d9 0b 89 bd a2 0b 18 bf 3e b2 0c 3f 16 43 8a bc
       -0.06691713 -0.5939275 0.54959476 -0.016877692
0000c0 e7 c7 26 be 57 27 26 bf 34 be 04 be cb 97 de 3e
       -0.16287194 -0.6490378 -0.12963182 0.43475184
0000d0 e5 fe 88 3b cc 94 08 3f 3c 28 42 3d 12 f7 0a bf
       0.0041807764 0.53352046 0.04740165 -0.5428325
0000e0 3d df f5 be fd cf d2 bd 30 e1 84 be db 34 31 bf
       -0.4802188 -0.10293577 -0.25953054 -0.69221276
0000f0 08 37 93 be 0f e2 e3 be f2 6c ca be 28 bd 74 3e
       -0.28752923 -0.44508407 -0.39536244 0.23900282

pi.pi_net.2.weight f4 [64, 64]
000000 9e c1 fb bd e2 4d f6 3e 3e b7 09 be 4f bb 0e 3d
       -0.12292789 0.48106295 -0.13448808 0.0348466
000010 0f 9e 61 3e 02 1a 52 bf fc 5b 0f 3e 11 c5 09 bf
       0.22032951 -0.82070935 0.13999933 -0.53816324
000020 e7 28 01 be 7d a2 21 3d c5 29 0b 3f f5 23 3d be
       -0.1261326 0.0394616 0.5436061 -0.18470748
000030 e8 80 29 be 65 ad 35 3d 78 8c a0 be 88 81 e1 bd
       -0.1655308 0.044354815 -0.3135717 -0.11011034
000040 83 71 f4 3d 8d 08 6a 3e 42 68 b8 bd 2b a6 a0 3e
       0.11935713 0.22854824 -0.090042606 0.31376776
000050 ba 8b f5 be f2 78 9c be 05 93 86 be 38 9e 0d bd
       -0.47958165 -0.30561024 -0.26284042 -0.034574717
000060 9c f5 bd 3e d7 b2 16 3f 7e 50 8e be db e2 26 3e
       0.37101448 0.5886664 -0.27795786 0.16297476
000070 ac df 97 3d 0c cb c9 3e ed 72 d6 be b7 5f 63 3e
       0.07415709 0.39412725 -0.41884556 0.22204481
000080 a3 ce da 3e 48 81 78 3c 40 b2 18 bf 54 a6 30 bf
       0.42735776 0.015167542 -0.5964699 -0.69003797
000090 f9 33 21 3e 35 60 9e be 0f 45 0e bf 8d e1 fc be
       0.15742482 -0.30932775 -0.55574125 -0.49390832
0000a0 d0 bc 10 be a8 19 dc bd 58 ec 40 be bf a8 2a 3e
       -0.14134526 -0.10747081 -0.18840158 0.16665934
0000b0 6d 9b 18 3f 77 01 8f 3e b0 69 6a bf 62 13 04 3e
       0.5961216 0.27930805 -0.91567516 0.12898019
0000c0 b4 f5 81 3f 39 64 5a 3e d1 70 33 3d e0 b8 d7 be
       1.0153108 0.21327294 0.043808762 -0.42133236
0000d0 cb 4a 08 bf a8 e3 4a bd 47 b0 cb bd 98 69 6f 3e
       -0.53239125 -0.049533516 -0.099457316 0.23380125
0000e0 9f 4c 2d 3f c1 26 17 3d ed d0 a7 bd e5 bf a7 3e
       0.6769504 0.036902193 -0.08194146 0.3276359
0000f0 7d 10 9a 3d c4 bc 1d 3e fe 42 bb 3e 00 44 11 3f
       0.07522676 0.1540404 0.36574548 0.56744385
000100 f0 e4 32 be 0a 23 2a bf bc aa 74 bd ff 29 1f be
       -0.17470145 -0.66459715 -0.059733137 -0.15543364
000110 20 8d 1b 3e b9 a4 31 3f 23 15 68 3e 00 57 cc 3e
       0.15190554 0.6939197 0.22664313 0.39910126
000120 8c 2d 93 bc f7 46 1a 3d 03 fd 5c be 87 3b b8 3e
       -0.017966054 0.037665334 -0.21580891 0.35982916
000130 1d 85 af be 0d 04 91 3d 85 f9 47 bd a0 42 2f 3e
       -0.34281245 0.07080851 -0.048821945 0.17115259
000140 77 31 99 3e df 86 9b bd 27 50 97 3e e1 fa de bd
       0.2992055 -0.07594084 0.2955334 -0.10887695
000150 dd 84 af bc 56 db 3b 3d 56 ba 8c be 1e 12 ae 3d
       -0.021425659 0.045863472 -0.27485913 0.08499549
000160 28 9c 85 3d 45 7a 87 3e a0 7b 1d be 09 20 bc be
       0.06523925 0.26460472 -0.1537919 -0.3674319
000170 f0 94 c2 3e 81 a5 59 be 76 aa 9d 3e a9 90 d2 bb
       0.38004255 -0.21254541 0.30794114 -0.0064259362
000180 ce 12 47 be d2 d7 15 3e e3 0f 40 3e 21 e4 c1 3d
       -0.19440767 0.1463311 0.1875606 0.0946734
000190 da 81 d8 3e 5a 66 6b 3e bb d6 6b 3e 45 09 38 be
       0.4228657 0.22988263 0.23031132 -0.17972286
0001a0 71 8b 51 bd f7 bd 8f be af e3 84 be f8 86 04 be
       -0.051158372 -0.2807462 -0.2595496 -0.12942111
0001b0 54 87 a0 be 3d 71 c6 bd af 2a b5 3e d0 d5 b6 be
       -0.31353247 -0.09689567 0.35384127 -0.3571
0001c0 68 17 91 3d 5b 77 48 3d d6 6a 40 3d 83 54 95 3d
       0.070845425 0.04894195 0.046976887 0.0729151
0001d0 40 de 6f 3e 23 20 48 be d5 45 9f bd ad fb 95 bd
       0.23424625 -0.19543509 -0.07776991 -0.07323394
0001e0 ab 2f eb be 10 87 73 bd 73 18 dd be ff 39 9e bd
       -0.45934805 -0.059454978 -0.43182716 -0.077259056
0001f0 16 0f 92 be 72 86 06 be 1e fe 3c 3e 76 fe e8 3d
       -0.28527135 -0.13137224 0.18456313 0.113766596
000200 43 3e 55 3d 5f 6a 21 be b5 8b 61 be 59 5d 9e be
       0.05206133 -0.15763234 -0.2202595 -0.30930594
000210 36 bc 90 bc 67 da 36 3e a4 4c 9c be 84 72 5b be
       -0.017667871 0.17856751 -0.30527222 -0.21430403
000220 d2 f5 50 bf b7 b5 0c be ae ba 75 3e 9f 20 b4 3d
       -0.8162509 -0.13741194 0.23996994 0.087952845
000230 46 06 35 3c c7 45 44 3f 34 b4 fb bd 85 d2 15 3f
       0.011048859 0.7666897 -0.122902304 0.5852435
000240 6f 07 ce 3e f5 4f d9 3d 20 43 14 3c 3a ac 03 3e
       0.40240046 0.10610954 0.009049207 0.12858668
000250 4b 48 07 3f 82 79 16 3f fc 6a 2d 3f 64 04 90 3e
       0.52844685 0.58779156 0.6774137 0.2812835
000260 0e 54 e5 be c4 4d 8d bd 9a f6 a2 be ca 06 5d bd
       -0.4479069 -0.06899598 -0.31828767 -0.053961553
000270 98 20 d3 bd 4d 0b 88 be 13 32 ee 3e 07 74 1e 3e
       -0.10308951 -0.26571122 0.4652258 0.15473948
000280 10 6f f9 bd 02 30 0a 3f 22 e9 92 3e c1 2b 03 bf
       -0.121793866 0.53979504 0.2869349 -0.5123864
000290 35 ea 55 3e b1 4b a0 3e ee d8 cc 3e 12 80 85 3d
       0.20890124 0.31307748 0.40009254 0.06518568
0002a0 1e 23 b0 3e 71 db cf be f0 8e 8f be 13 96 0f bf
       0.34401792 -0.40597108 -0.2803874 -0.5608837
0002b0 74 0d 3f 3e 29 9a 8f 3d 0f 49 de 3e d2 40 01 be
       0.18657476 0.070118256 0.43415114 -0.12622383
0002c0 02 48 23 bf ed bc 11 be 4b 71 26 bf d1 af f2 3e
       -0.6378175 -0.14232226 -0.6501662 0.47399762
0002d0 8b c2 2a 3e 57 b5 20 3f 33 f8 cb 3e a1 02 c4 be
       0.16675775 0.627767 0.39837798 -0.38283256
0002e0 81 34 98 bd 00 8b 10 3f 0a 6e 5d be 16 fa 84 be
       -0.07431889 0.564621 -0.21624008 -0.2597205
0002f0 0a 3a b6 3e 48 bc 65 3e f6 35 0e bf b6 50 ae be
       0.35591155 0.22435105 -0.5555109 -0.34045953
000300 c3 4c 2e bf a7 7b 83 be be 99 fe 3e 4b 4e 76 3e
       -0.6808588 -0.25680277 0.4972667 0.24053304
000310 3c 5e 6b 3e 84 fe 78 3c 55 e5 4e 3e 6f 9d cb 3d
       0.22985166 0.0151974 0.2020467 0.099421374
000320 25 9a 3f 3e 0b 75 10 bf 82 75 da be 4b 38 a2 be
       0.18711145 -0.56428593 -0.42667776 -0.31683573
000330 1b aa b7 be 4a 0b 06 bf 3f 62 52 be b1 a5 4f bc
       -0.35871968 -0.52360976 -0.2054529 -0.012673781
000340 e6 85 21 3f e8 a3 f2 be 7b 0f f2 be ac 94 38 3e
       0.6309494 -0.47390676 -0.47277436 0.18025464
000350 5a 86 01 3e 1b f4 ad 3e a8 44 1a be 79 81 8f be
       0.12648907 0.339753 -0.15065253 -0.28028467
000360 17 de e9 bd 9d 73 d3 3d bf 8c 86 3e 23 40 45 bf
       -0.114193134 0.10324786 0.26279256 -0.7705099
000370 24 bc a0 3e 3d c6 d3 be 19 53 99 be a8 b3 85 3e
       0.3139354 -0.4136218 -0.2994621 0.2611363
000380 06 a7 3b be 9b c9 99 3d 5e 0f 20 3e 00 cb dc bd
       -0.18325433 0.07509156 0.15630862 -0.10780907
000390 b6 f2 09 3f ac 8d 2c bc fd ab c4 3e c6 79 68 bd
       0.5388597 -0.010531824 0.38412467 -0.056756757
0003a0 08 92 55 3c d1 05 c2 be 46 93 e9 be 2f c7 55 be
       0.013035305 -0.37895063 -0.45620173 -0.20876764
0003b0 4e 2a bb be 22 8a d8 be 23 c1 1b 3e 1d fd 7e be
       -0.36555713 -0.42292887 0.15210395 -0.24901243
0003c0 d7 7b 7d be f2 35 98 3e 85 c0 5c 3c a2 5c 50 be
       -0.24754272 0.29728657 0.013473635 -0.20347837
0003d0 ef 94 6a 3d 4a c8 17 3f 71 56 f5 bd 0b 68 92 be
       0.05727094 0.5928999 -0.11979378 -0.28595003
0003e0 58 7b 64 bf 43 08 94 be b3 1c c5 3d 02 1b 4f be
       -0.8925071 -0.28912553 0.096246146 -0.20225146
0003f0 e1 43 ac be fc 9b 29 bf a6 b7 9b be 2b 0d 18 3e
       -0.33645537 -0.6625364 -0.3041355 0.14848773

pi.pi_net.2.bias f4 [64]
000000 b6 80 2e be 89 81 02 3d 8f 93 a3 3e fc 63 86 3d
       -0.17041287 0.031861816 0.31948516 0.06562039
000010 19 f7 11 3e 43 86 ba 3d 51 76 48 3c 39 3c 62 3e
       0.14254417 0.0910764 0.01223524 0.22093286
000020 4a f1 3a 3d bf 0c 21 bd 51 62 38 3e e4 2e 74 be
       0.045640267 -0.039318796 0.18006255 -0.23846012
000030 b0 b4 e2 3e 32 fe 69 3d 90 41 ca 3e 77 2c 4e 3c
       0.4427848 0.057127185 0.39503145 0.012583843
000040 5f 80 47 3d de 92 8c bc 3c 0f ae 3e 81 e2 73 3c
       0.04870641 -0.017159875 0.33995998 0.014885546
000050 98 a8 4e 3e d2 56 71 bd b1 62 58 3e 00 dd d0 3c
       0.20181501 -0.05892069 0.21131398 0.025496006
000060 6c f0 f0 bd 32 cc 67 3d 3c 1e 78 bc d8 2a 07 3d
       -0.11764607 0.05659122 -0.015143927 0.032999843
000070 a5 21 cc bd 9d b8 75 be c3 55 79 3e 31 56 17 3e
       -0.09967355 -0.23996206 0.24349122 0.14778973
000080 21 58 35 3d b0 94 53 3e 4c fc 4e 3d a8 41 90 be
       0.0442735 0.20662189 0.050533578 -0.28175092
000090 19 0c 63 bd e8 11 8f 3e 02 4d 3d 3d 6e 1c c6 3c
       -0.05543146 0.2794335 0.04621602 0.024183478
0000a0 62 5a 89 bd f2 6f 5c be 76 01 8e 3d e9 bb e1 3e
       -0.06706692 -0.21527079 0.069338724 0.44088677
0000b0 4a 31 d3 be ac a3 0c be 79 92 a2 3e 30 86 c9 bd
       -0.41248542 -0.13734311 0.31752375 -0.09840047
0000c0 39 03 fa bd 72 b5 9e 3d 4b 47 12 3e e8 ad 5f bd
       -0.12207646 0.07749452 0.14285009 -0.05460921
0000d0 8d fb 43 bd 0a ba ba 3d 4a d6 d6 bd bd f9 04 3e
       -0.04784732 0.091175154 -0.10490091 0.12985893
0000e0 08 df 6b 3d ac cc 65 bd 04 3b 47 be 9d cc eb bc
       0.057585746 -0.056103393 -0.19456106 -0.02878409
0000f0 3a 83 d6 bd 6b 5c 52 3e 91 b9 1e be 2c 5f 4d bd
       -0.10474248 0.20543067 -0.15500475 -0.05013959

pi.pi_net.4.weight f4 [256, 64]
000000 6a 06 24 c0 7e 98 97 3f 56 d3 0a 40 0f 2c 85 bf
       -2.5628915 1.1843412 2.169149 -1.0404071
000010 fc a3 e7 3f d5 d8 27 40 34 72 f3 be 61 4e 14 40
       1.8096919 2.6226094 -0.47548068 2.3172839
000020 d3 b5 8b 3f 23 df ee bf ad 57 d7 3f 23 c0 2b c0
       1.0914863 -1.8661846 1.6823632 -2.683602
000030 2d 3d 0c 40 e4 1a 1f 3f 99 90 ad be a3 24 e7 bf
       2.1912339 0.62150407 -0.33899382 -1.8058056
000040 12 17 b7 bf d8 a6 e4 bf 55 db 00 40 6c 99 a6 3f
       -1.4303916 -1.7863417 2.013387 1.3015571
000050 f4 9b 89 3f 7a 3a 11 40 28 69 05 40 23 fd 2f 3f
       1.0750718 2.2691941 2.0845432 0.6874563
000060 a4 a5 65 3f d7 5a 1c bf a1 d0 30 be 82 61 ec 3e
       0.8970587 -0.6107611 -0.17267086 0.46168143
000070 76 9e d5 bf 48 d2 30 c0 3b d9 84 3e f1 89 de 3f
       -1.6688983 -2.7628345 0.25946984 1.7385846
000080 7b b4 ee 3f 76 cc 84 3f 8d bd f1 bf c1 8b 23 c0
       1.8648828 1.0374897 -1.8885971 -2.555405
000090 b4 c7 21 c0 ef fc 01 40 52 04 25 bb d4 e3 1a 40
       -2.527814 2.0310628 -0.0025179577 2.4201555
0000a0 6e 85 5b bf 65 ad b0 3f be a0 28 40 e3 ce 23 40
       -0.8575047 1.3802916 2.634811 2.5595024
0000b0 1c b5 ff bf 18 5b 3d c0 4a 68 8a 3f 68 89 19 c0
       -1.9977145 -2.958685 1.0813076 -2.3990116
0000c0 a5 71 1d bf 71 27 e7 3f 11 84 73 3e 2d bc a9 bf
       -0.6150153 1.8058912 0.23780848 -1.3260552
0000d0 04 75 65 3f 9a 60 27 40 9c ab 2c c0 3b 15 0f 40
       0.89631677 2.615271 -2.6979742 2.2356708
0000e0 28 7b 09 40 2a 0a 0e 3e 16 85 26 c0 98 93 5c be
       2.1481419 0.13871065 -2.601873 -0.21540678
0000f0 a5 d7 9e bf cc 6a 3c 3f c8 d4 cd bd 45 5b 0f 3e
       -1.240956 0.7360046 -0.100503504 0.1399966
000100 39 25 4e be 3f 07 32 bf de 28 61 3f ff 6f ce bf
       -0.20131387 -0.69542307 0.87952983 -1.6127928
000110 45 1c 9e 3f a4 3f e4 3f 3d 8b 91 3e cb bf a4 3f
       1.2352377 1.7831922 0.28426543 1.287103
000120 6c 2c a9 3e 9e ca 3b bf 68 ce a2 3f 19 4b f3 bf
       0.33041704 -0.73356044 1.271924 -1.9007293
000130 a3 50 8c 3f 2d 2f fd 3d 47 5b bf bf 37 f0 54 bf
       1.0962108 0.12362514 -1.4949731 -0.8317904
000140 0e 1b e0 be 09 7b cd bf 16 75 a9 3f cc bd 3c 3f
       -0.4377064 -1.6053172 1.3238857 0.7372711
000150 ce ee 0a 3f 84 44 9f 3f 69 db 9d 3f 7f 4b 8b bf
       0.5427064 1.2442784 1.2332584 -1.0882415
000160 f2 c2 51 3f 69 99 71 bb 1a 0a 61 3c e2 92 5d 3f
       0.8193809 -0.0036865121 0.013735319 0.8655225
000170 8c cc 8d bf 28 86 fb bd 32 91 9a bf 7f a9 0f bd
       -1.1078048 -0.12281448 -1.207556 -0.035073753
000180 bc 4d c2 3e b2 69 14 3f 4d 95 6e 3e 98 ac ad bf
       0.37949932 0.5797378 0.23299141 -1.3568296
000190 5f cf 07 c0 12 37 8d be 52 eb 8e 3f a4 3d b9 3f
       -2.122032 -0.27581078 1.1165564 1.4471936
0001a0 b7 9c 6e be e7 f6 cc 3f 04 cd 07 3f ac cc c8 3e
       -0.2330197 1.6012849 0.53047204 0.39218652
0001b0 7d 24 16 3e 3e 9b ee bf c9 02 4a be 7e 97 46 bf
       0.14662357 -1.8641126 -0.19727625 -0.7757491
0001c0 05 a8 1a be 26 99 e3 3e 6a 13 03 3e e1 23 76 bf
       -0.15103157 0.4445278 0.12800375 -0.96148497
0001d0 63 b5 96 3f 5f 3c 92 3f 45 66 19 bf 09 4a c3 3f
       1.1774105 1.1424674 -0.59921676 1.5256969
0001e0 59 16 c7 3f 28 34 87 bf da 87 4c be 30 f5 43 bf
       1.5553695 -1.0562792 -0.19973698 -0.76546
0001f0 ec 3a 99 bd 4d a1 c4 bc 06 34 86 bf 8f a4 df 3e
       -0.074819416 -0.024002695 -1.0484626 0.43680236
000200 95 18 cf bf f2 c7 23 3f 3b 16 ae 3f 3b 59 4d bf
       -1.6179377 0.6397697 1.3600534 -0.8021428
000210 b5 47 39 3f 6d 08 f9 3f 8b 4f 72 3e af c5 f5 3d
       0.7237504 1.9455696 0.23663156 0.12000596
000220 61 4b 90 3f 5c 1f 03 3e 2a 9a db be e9 c4 d6 bf
       1.1273004 0.12804931 -0.42891055 -1.6778842
000230 7e f0 93 3f f5 4d dd 3e 12 13 c9 3e 7b cc cd bf
       1.1557767 0.4322354 0.39272362 -1.6078027
000240 3e d9 37 c0 ea 41 3a bd 57 a9 fc 3f 40 f0 b2 3f
       -2.8726344 -0.045473017 1.9739178 1.3979568
000250 06 b3 1d 3f df 39 e7 3f 96 cd c3 be 8d ce 3d 3f
       0.61601293 1.8064536 -0.38242787 0.74143296
000260 17 25 c0 3e 2d af b4 bf c1 81 4d bf fb 21 10 3e
       0.37528297 -1.411596 -0.80276114 0.14075463
000270 7e ae e9 bf 9f 30 ee bf ed 62 a5 3e 52 cc fa 3f
       -1.8256376 -1.8608588 0.32302037 1.9593604
000280 68 23 d5 3f 02 72 90 bf 1e 28 c8 bf 2d eb 84 bf
       1.665143 -1.1284792 -1.5637243 -1.038427
000290 b2 c5 e7 bf a6 e4 c8 3f 7c cb 85 bf ff 86 c7 3f
       -1.8107207 1.5694778 -1.0452724 1.5588073
0002a0 dc b9 fb bf 5a 33 bf 3d ae 9a f7 3f 7f 3f dd 3f
       -1.9666095 0.093359664 1.934408 1.7285002
0002b0 cc 12 d5 bf 43 82 b3 bf 9e f7 4d 3e b5 66 74 bf
       -1.6646361 -1.4024128 0.2011399 -0.9546922
0002c0 c1 7d 96 bc 0a 7d a9 3f e2 61 c5 bc 54 12 c2 bf
       -0.018370511 1.3241284 -0.024094526 -1.5161843
0002d0 40 16 1f 3f 29 ea e6 3f d6 d0 07 c0 ec ce c5 3f
       0.62143326 1.804021 -2.1221213 1.5453773
0002e0 10 c8 d7 be 8d d1 86 3f 13 1a d9 bf a1 0d fa 3f
       -0.42144823 1.05327 -1.6961082 1.9535409
0002f0 42 b5 a3 be cc 93 f3 3f 41 2a d9 3e 0e 44 c0 3f
       -0.31974226 1.9029479 0.4241505 1.5020769
000300 ad e6 c0 bf ed 34 bc bd 4a 7e db 3f 6a 9a 03 c0
       -1.5070397 -0.09189782 1.7147915 -2.0562997
000310 b2 18 74 3f b6 00 0d 40 48 d2 00 3f 76 81 cc 3f
       0.9535018 2.2031684 0.50320864 1.5977008
000320 72 e7 d7 3e ad 17 13 c0 d8 4a a5 3f a3 cf 09 c0
       0.42168766 -2.29832 1.2913465 -2.1532981
000330 d8 5e c2 3f ed aa b3 3d bf 98 62 bf 16 f9 59 bf
       1.5185194 0.08772836 -0.8851432 -0.851457
000340 95 87 da bf 4f 20 f1 bf 66 47 c9 3f 39 9a ac 3f
       -1.7072626 -1.8837985 1.5724914 1.3484565
000350 b6 fc 16 3f dd 80 e8 3f 5c aa f7 3f d6 3e 68 3e
       0.58979356 1.8164326 1.9348865 0.2268022
000360 16 09 fb 3f 2e a4 8d bf 02 35 35 bf 13 ad 4b 3f
       1.9612148 -1.1065729 -0.7078401 0.79560965
000370 6e 0a cf bf 4a 65 ae bf 03 83 55 bf 61 1c c8 3e
       -1.6175058 -1.3624661 -0.83403033 0.3908415
000380 aa f8 f0 3f aa 27 18 3f 79 96 0f bf 1d 09 fc bf
       1.8825886 0.5943552 -0.5608898 -1.9690281
000390 51 65 0b c0 f9 95 3c 3f d8 2c 4b 3f 5a ef f0 3f
       -2.1780589 0.7366634 0.793653 1.8823044
0003a0 44 ab c9 bf 75 21 f3 3f 9f fd ee 3f f7 9c d2 3f
       -1.5755391 1.8994585 1.8671149 1.6454152
0003b0 e2 cb 6b bf 1f 5e ee bf e3 53 33 3f e0 ba cf bf
       -0.92107975 -1.8622473 0.70049876 -1.6228905
0003c0 45 5e ab be e4 27 c9 3f 85 58 d6 bc a6 2a c4 bf
       -0.3347036 1.5715299 -0.026165256 -1.5325515
0003d0 5e 75 a2 3f cb 6c 05 40 e9 70 04 c0 bd 72 14 40
       1.2692068 2.0847652 -2.0693915 2.319503
0003e0 c2 75 c6 3f fe 7f 18 bf c5 f4 d1 bf f2 20 6a be
       1.5504687 -0.595703 -1.6402823 -0.2286413
0003f0 fe 3f 84 bf c9 01 ab 3f 1a 50 42 3e e6 1e 82 3e
       -1.0332029 1.335992 0.18975869 0.254142

pi.pi_net.4.bias f4 [256]
000000 02 0a 1b 40 e6 16 c8 3f af e3 d6 3f d2 b4 da 3f
       2.4224858 1.5631988 1.6788234 1.7086432
000010 58 cb 39 40 df 7d f0 3f 32 d9 38 40 25 4d 38 40
       2.903036 1.8788413 2.8882565 2.8797085
000020 d5 fc 3d 40 6a b7 d0 3f f8 d1 32 40 10 08 78 3e
       2.9685566 1.6305974 2.7940655 0.24221826
000030 ea ee dd 3f 79 4f d9 3f c9 1e 3c 40 d2 1e 00 40
       1.7338536 1.6977378 2.939379 2.0018811
000040 93 68 fd 3f 2e 44 ba 3f d1 69 f8 3f 4d bf 31 40
       1.9797539 1.4552057 1.9407293 2.777301
000050 d7 a1 35 40 36 27 11 40 40 3d 3a 40 00 47 3c 40
       2.838003 2.2680182 2.9099884 2.9418335
000060 ee 53 02 40 af 48 3a 40 0a ea 4a 40 32 68 3d 40
       2.0363727 2.9106863 3.1705346 2.9594846
000070 6d 3e e8 3f 4d 25 87 3f b7 c3 9f 3e ee 9d 2c 40
       1.8144051 1.0558258 0.31204006 2.6971393
000080 68 c7 e6 3f 63 1e 47 40 9c 45 f4 3f 69 07 36 40
       1.8029604 3.1112297 1.9083743 2.8442023
000090 76 b1 ca 3f 54 3a 46 40 96 64 d9 3f fd da 3f 40
       1.5835407 3.09731 1.6983821 2.997741
0000a0 5d b3 4d 40 fc 2f d6 3f 0b a1 db 3f d7 82 00 40
       3.2140725 1.6733394 1.7158521 2.0079858
0000b0 dc f6 28 40 49 c5 d6 3f 95 59 48 40 01 4d 2e 40
       2.640067 1.6778957 3.1304677 2.72345
0000c0 61 54 fe 3f c4 b6 44 40 aa 47 a0 3f 6b ce 3b 40
       1.98695 3.0736551 1.252187 2.9344738
0000d0 81 be e4 3f 97 3c e7 3f 3b 55 db 3f a5 8a 07 40
       1.7870637 1.8065366 1.7135385 2.1178372
0000e0 76 89 34 40 c6 e4 19 40 20 7b ec 3f 1f 62 38 40
       2.82089 2.4045882 1.8475075 2.8809888
0000f0 fa 1a 3e 40 34 c1 6c 3f bd f2 e6 3f 80 e5 d0 3f
       2.9703965 0.92482305 1.8042828 1.6320038
000100 35 68 c6 3f ce b2 86 3f 06 ea 47 40 4c fe dd 3f
       1.5500551 1.0523317 3.1236587 1.734323
000110 08 50 ad 3f ef 7f c4 3f b2 68 4b 40 30 bd d0 3f
       1.3540049 1.5351542 3.178265 1.6307735
000120 b1 ce c1 3f bf 84 fb 3f e7 cf 3a 40 a4 e7 46 40
       1.5141202 1.9649886 2.9189394 3.1078882
000130 33 2d 55 40 e7 df c8 3f 20 30 96 3e 30 06 ca 3f
       3.3308837 1.569333 0.2933359 1.5783138
000140 d3 a0 0b 40 9d 9e f3 3f fb d7 42 40 be 46 07 40
       2.181691 1.903278 3.0444324 2.1136928
000150 29 3f 0c 40 b1 a3 d3 3f c5 72 1f 40 67 18 40 40
       2.191355 1.653433 2.49138 3.0014894
000160 a9 f0 46 40 89 5b 04 40 08 91 3e 40 51 74 e7 3f
       3.1084387 2.0680869 2.977602 1.8082372
000170 43 e9 33 40 bc e7 22 40 55 35 ea 3f 4b b1 0b 40
       2.8111122 2.545394 1.8297526 2.182696
000180 2a 24 40 40 10 e6 39 40 e2 7d 39 40 0b ba 45 40
       3.0022073 2.904667 2.8983083 3.0894802
000190 ba d5 2a 40 70 f4 35 40 b6 67 26 40 9d b1 f7 3f
       2.6692948 2.8430443 2.60008 1.9351078
0001a0 f6 4e be 3f f4 b2 03 40 4b 7f 39 40 f3 81 f3 3f
       1.4867847 2.0577974 2.8983943 1.9024032
0001b0 07 45 ee 3f 7b d3 4c 40 fa ee e0 3f 46 e6 3f 40
       1.8614815 3.2004077 1.757293 2.9984298
0001c0 64 d5 cf 3f 3e 40 24 40 c2 47 cf 3f 7f 5b dc 3f
       1.6236997 2.566421 1.6193774 1.7215422
0001d0 07 fa dc 3f 06 2f 41 40 f0 d9 df 3f f5 00 42 40
       1.7263802 3.018495 1.7488384 3.0313084
0001e0 82 cd 4a 40 e3 2a 39 40 6f 82 c1 3f e3 82 c9 3f
       3.1687932 2.8932426 1.511793 1.5743068
0001f0 6c 2c 06 40 00 fa ea 3f 93 67 35 40 d5 fe d3 3f
       2.0964613 1.8357544 2.8344467 1.6562144
000200 b6 0b 44 40 04 90 d0 3f 17 8a 43 40 58 7e cb 3f
       3.0632148 1.629395 3.0553033 1.5897932
000210 35 95 15 40 cf 4f c2 3f 2e d8 37 40 55 7f e3 3f
       2.3372319 1.5180606 2.8725696 1.7773234
000220 d1 d5 03 40 5b 8b 08 40 14 b6 be 3f 7d ae 38 40
       2.0599253 2.1335056 1.4899316 2.88565
000230 54 76 30 40 88 68 f8 3f de f4 42 40 2b 23 0a 40
       2.7572222 1.94069 3.0461955 2.1583965
000240 90 c8 87 3f 4b b9 2f 40 6c 3f 2b 40 d4 98 58 3f
       1.0608082 2.7456844 2.675746 0.846082
000250 fb fe 37 40 ed a1 d0 3e de d2 8a 3f 1a a2 44 40
       2.8749378 0.4074854 1.0845602 3.072394
000260 19 8f 32 40 8e 5d 2d 40 56 eb 84 3f 63 f8 cd 3f
       2.789984 2.7088351 1.0384319 1.6091427
000270 a3 cd 40 40 79 79 2a 40 c0 a0 16 40 51 f9 36 40
       3.012551 2.663664 2.3535614 2.858967
000280 a5 a8 36 40 f0 a4 f2 3f ee fb 55 3f a9 6d bb 3f
       2.8540432 1.8956585 0.8358754 1.4642841
000290 34 83 cf 3f 94 fc f1 3f 53 1b 30 40 30 c4 49 40
       1.6211915 1.8905206 2.7516677 3.1525993
0002a0 44 85 76 3f 0c 5b d2 3f 5d 71 21 40 ec d2 e2 3f
       0.962971 1.6434035 2.5225441 1.7720618
0002b0 de ef 44 40 37 2b 00 40 9d 5f cf 3f 9d ca 41 40
       3.0771403 2.0026376 1.6201054 3.0279915
0002c0 d3 57 3d 40 f3 da 44 40 34 3c ed 3f 3c d3 ac 3e
       2.9584854 3.0758636 1.8533998 0.3375491
0002d0 ec 8c 3f 40 e1 37 46 40 14 f5 37 40 a1 d3 cd 3f
       2.9929762 3.0971606 2.8743334 1.6080209
0002e0 f6 b8 39 40 72 84 01 40 32 be 4e 40 95 01 4b 40
       2.9019141 2.0237088 3.2303586 3.1719716
0002f0 b7 be 2c 40 1b b6 02 40 6b b6 e0 3f 98 be e5 3f
       2.6991403 2.0423648 1.755567 1.794879
000300 8a 9e d9 3f 81 fe 43 40 46 cf 3d 40 d5 da d8 3f
       1.7001507 3.0624087 2.965776 1.6941782
000310 67 f7 32 40 14 75 a4 3f d4 04 46 40 d9 0e cb 3f
       2.7963502 1.284823 3.0940447 1.5863906
000320 00 94 3e 40 90 13 3d 40 d0 c5 30 40 fe 96 0a 40
       2.9777832 2.954319 2.7620735 2.1654658
000330 f9 4e d5 3f 16 b0 20 40 64 8e dc 3f 37 35 b1 3f
       1.6664726 2.5107474 1.7230954 1.3844365
000340 8c c3 5e 3e 82 8d 40 40 41 c5 0e 40 b6 50 3f 40
       0.21754283 3.008637 2.2307894 2.9893012
000350 30 ad 3d 40 a2 c9 13 40 33 24 22 40 9e a9 c2 3f
       2.9636955 2.3091817 2.5334594 1.5208013
000360 a0 6e f6 3f 32 f2 41 40 68 64 f1 3f 98 63 26 40
       1.925251 3.0304074 1.8858767 2.5998287
000370 b3 7c e9 3f 24 92 d5 3f b0 a3 46 40 71 74 46 40
       1.824118 1.6685224 3.1037407 3.100857
000380 0c f7 8e 3e f7 c3 0d 40 73 ce cf 3f a7 b0 02 40
       0.27922857 2.2150857 1.6234878 2.042032
000390 ba 2f e6 3f 00 7b 0c 40 79 65 f1 3f 7b 45 41 40
       1.7983315 2.1950073 1.8859092 3.0198658
0003a0 33 8f 79 3f 0c b6 39 40 9e 94 34 40 ed d2 24 40
       0.9748413 2.9017363 2.8215709 2.575374
0003b0 ba d5 c9 3f 94 da 01 40 94 58 b1 3f 5a 35 4e 40
       1.5768349 2.028966 1.3855157 3.2220063
0003c0 d7 50 3a 40 54 41 56 3f 25 ec 33 40 8b 99 3d 40
       2.911184 0.8369343 2.811288 2.9624965
0003d0 be f2 37 40 1a f4 3e 40 57 2e f4 3f c5 61 ce 3f
       2.8741908 2.9836488 1.9076642 1.6123587
0003e0 4a 79 0c 40 36 3c ce 3f 8b 74 09 40 55 9e 43 40
       2.194903 1.6112125 2.1477382 3.0565388
0003f0 c5 78 37 40 58 9c df 3f 72 5b c1 3f a7 86 36 40
       2.8667462 1.7469587 1.5106032 2.8519685

v.v_net.0.weight f4 [64, 5]
000000 26 0d 11 3e ac a4 9f be 5b 41 78 bd 17 59 3a 3e
       0.14165172 -0.31180322 -0.060609203 0.18198048
000010 50 17 06 3e 3d 45 b0 be 1e 6b 56 3d ed ca 2c 3e
       0.1309483 -0.34427825 0.05234825 0.16874285
000020 47 95 ba bc b2 5f 04 bf 60 8d 57 bf a3 78 96 be
       -0.02277626 -0.5170852 -0.84200096 -0.29388914
000030 94 54 d4 be 24 d6 57 3e 29 1d 36 be 36 53 2b bf
       -0.41470778 0.21077782 -0.17784561 -0.66923845
000040 d1 8a 9b be 3c f7 67 3d d3 93 96 3d b1 ab 80 be
       -0.30379346 0.056632265 0.07352414 -0.2513099
000050 e7 99 21 3f d4 1a 9a 3e 5b 61 29 be ee 86 c3 3e
       0.6312546 0.30098593 -0.16541044 0.3818888
000060 b2 13 a7 be c8 2e 65 3e f9 e8 2c 3f f8 0b 6c 3e
       -0.32632214 0.22381127 0.6754299 0.2305144
000070 71 ee 93 bd 68 7f 08 be f6 44 ab 3e 91 b7 d9 3e
       -0.072232135 -0.13329852 0.3345105 0.42522863
000080 75 5f 28 3d 32 f2 4e 3c 5a da 16 be d0 d6 3c 3f
       0.04110666 0.012630986 -0.14731732 0.7376528
000090 8c e2 43 3f 39 89 26 3e 0a 6b 1d be df 81 1c 3d
       0.7651756 0.16263284 -0.15372863 0.038209792
0000a0 fb 99 54 bf d8 28 33 bf 5a 16 5f be 46 16 c5 3e
       -0.83047456 -0.699842 -0.2178587 0.38493556
0000b0 7e 30 c5 3d a1 40 87 bf 92 9c 0a bf bb 8b 2a bd
       0.0962839 -1.0566598 -0.5414516 -0.041637164
0000c0 1e b8 97 3e 87 58 6c bd fe 02 27 3f 70 8f 27 3f
       0.29632658 -0.057701614 0.6523894 0.65453243
0000d0 16 97 c8 3b 53 8a 64 3e 4b 0a b0 3e 49 44 84 be
       0.0061215265 0.22318392 0.34382853 -0.25833347
0000e0 f1 2e 34 bf ef 43 4d be 0f 2e 8b 3e 73 3d 94 3c
       -0.70384127 -0.20045446 0.27183577 0.018095708
0000f0 c8 04 0e 3f 42 ea 97 3e 25 fc 24 3e 92 c8 1a 3d
       0.55476046 0.29670912 0.1611181 0.037788935
000100 d7 64 47 be df 4a 7a bf 2a 03 54 bf 22 a8 1c 3e
       -0.19472061 -0.97770494 -0.8281733 0.15298513
000110 48 bd bd 3d cb ca 02 3e 3b fd 4d 3f 66 c4 e5 3e
       0.09264618 0.12772672 0.80464524 0.44876403
000120 93 5b a6 3e d7 8c 36 bd a4 1d 69 be de 59 a2 be
       0.3249174 -0.04456791 -0.22765213 -0.31709188
000130 93 e1 7f bf 65 c5 61 3e b5 83 09 3d 8d 44 18 3e
       -0.99953574 0.22047956 0.03357287 0.148699
000140 50 20 2f bf 84 cb b6 be d2 dc dd bd a0 b9 ba be
       -0.6840868 -0.35702145 -0.10833134 -0.36469746
000150 0d 68 89 3a 57 96 9b 3d 4f 94 b5 be 1b f7 99 bd
       0.001048328 0.075970344 -0.35464713 -0.07517835
000160 07 14 72 be d2 9b 9c be 23 2a cc 3e d3 ab 64 3e
       -0.23640452 -0.3058763 0.39875898 0.2233117
000170 67 99 f2 3e 52 47 1b 3d 09 74 d8 3d 4e 3e 6e be
       0.47382662 0.037909813 0.10569007 -0.23265955
000180 7d 53 63 bf 20 65 dc 3d eb ad 02 be 32 fa aa 3d
       -0.8879927 0.107614756 -0.12761657 0.08348502
000190 6c da 96 3e 18 1f de bd 3a 2a 43 be 3d ec 4b be
       0.29463518 -0.108457744 -0.19059077 -0.19914337
0001a0 03 ea 8c 3d 92 21 fe be 15 c5 c7 be b6 8e d8 be
       0.06880572 -0.49634987 -0.3901755 -0.4229638
0001b0 0b e3 da bb e2 27 b3 be 53 7d 20 3f 08 a4 43 3e
       -0.0066798977 -0.34991366 0.6269123 0.19105542
0001c0 2b ba 81 3e 0e d2 89 be 3f e9 d2 3e a7 df 5d 3f
       0.25337347 -0.26918072 0.41193578 0.8666939
0001d0 bd a2 14 3f 84 43 d1 bd ff 38 a8 be 0f 49 c7 3e
       0.5806082 -0.10217956 -0.32855985 0.38922927
0001e0 6b 50 f9 be c5 67 21 3d 7a af 19 3d 94 43 15 bf
       -0.48694167 0.039405603 0.037520863 -0.5830624
0001f0 1c 80 15 3e c4 c8 98 be b2 d9 32 bf 30 75 27 3e
       0.14599651 -0.29840672 -0.69863427 0.16353297
000200 de b2 a6 3e b6 63 99 be 26 00 84 3f b9 a8 ac 3d
       0.3255834 -0.29958886 1.0312545 0.08430619
000210 cc 3c 47 be df b5 84 bb f2 2b 87 3e 48 53 6b 3e
       -0.19456786 -0.004050001 0.26400715 0.22980988
000220 0a 8d 24 3f 33 63 48 3d 70 0e 98 be 11 c0 8b bd
       0.6427771 0.04892273 -0.29698515 -0.06823743
000230 8d c0 bf be a4 1d 19 bf 12 b6 87 3e 3a 51 27 3d
       -0.37451592 -0.59810853 0.26506096 0.040848948
000240 da 3b 53 be 48 e6 de be a0 70 f6 be 24 98 36 be
       -0.206283 -0.43535066 -0.481328 -0.17831475
000250 7e b9 7c 3e b4 b7 2e 3e 19 62 be 3e 31 37 f0 3e
       0.24680135 0.17062265 0.37184218 0.46917108
000260 0b f5 82 3e 2a 47 e4 3d 20 b0 80 3e 16 c9 1a 3f
       0.25577578 0.11146386 0.25134373 0.6046308
000270 be f6 67 be f8 85 4d 3d dd c6 d6 3e 13 cd d5 bd
       -0.22652718 0.05017659 0.41948596 -0.104395054
000280 5f cf 48 3f 3a 24 2d 3e 85 de e1 3d 0d f7 84 3d
       0.78441423 0.1690835 0.1102877 0.06492434
000290 9c 8f 47 3e d4 2e fc 3e 6e 2e 12 3e aa 35 98 3e
       0.19488376 0.49254477 0.14275524 0.29728442
0002a0 ea da f3 bc ba 8b 27 be 81 98 37 bf 03 ee 3c bf
       -0.029767472 -0.16361895 -0.7171708 -0.7380068
0002b0 10 66 0d 3f b6 53 dc 3e 21 c5 a1 be d4 eb 05 3f
       0.5523386 0.43032616 -0.3159571 0.5231297
0002c0 dd 66 77 3e e5 dc c9 bd 34 00 b9 3d 7c 09 d4 3d
       0.24160333 -0.098565854 0.09033242 0.103533715
0002d0 32 fb cf be 9c 4a eb be 67 bc 3a bd 60 48 d9 3c
       -0.40621334 -0.4595536 -0.04558983 0.026523769
0002e0 d7 51 ee 3c 24 8b 2a 3f 5a 12 0e 3f 84 8d 03 bf
       0.029091759 0.6661856 0.5549675 -0.5138781
0002f0 c9 ac 1b be 1f f0 07 3f 18 85 e2 3e 39 31 54 3f
       -0.15202631 0.5310077 0.44242167 0.8288761
000300 d4 bc 86 bd 9f 00 f6 bb 8b f8 b0 bd f4 ae 34 3f
       -0.06578985 -0.0075073983 -0.08641156 0.7057946
000310 5a 3e 54 3e ab 5f 0a be 64 8a fb 39 3d ca 81 3b
       0.2072691 -0.13513057 0.0004797756 0.0039608763
000320 88 22 ab 3d aa ab 48 be d8 8e f1 bc 51 25 8f 3d
       0.08356196 -0.19596735 -0.029487059 0.069895394
000330 d1 62 67 3e 87 9c 38 bf 21 d7 c0 be 4c 33 cc be
       0.22596289 -0.7211384 -0.3766413 -0.39882886
000340 81 c9 9b 3d 8f 85 e0 bc 3d b5 97 3e ea 32 2b 3f
       0.07606793 -0.027407436 0.2963046 0.66874564
000350 fe 11 9e 3e c0 0f 39 be 52 5c dc 3d 27 dc 54 3e
       0.30873102 -0.18072414 0.10759796 0.20787106
000360 d6 8c a3 3e 4e 8f f9 be 8c 97 e5 3e db 4e 68 3e
       0.31943387 -0.48742145 0.44842184 0.22686331
000370 5c 00 90 3d 66 6b 56 bf c6 46 0d 3f d8 05 b8 be
       0.070313185 -0.83757627 0.55186117 -0.35941958
000380 56 04 9a bd 11 1d 12 3f 3e 41 f1 3e 88 d2 81 be
       -0.07520358 0.570756 0.47120088 -0.25355935
000390 5a 74 e2 be 00 6a 1d 3f cf 84 b2 3e 30 60 00 3f
       -0.44229394 0.6148987 0.3486695 0.5014677
0003a0 10 a2 d0 3e 85 04 a4 bd 24 29 ff bd 5a f0 3d 3f
       0.40748644 -0.080086745 -0.12459019 0.7419487
0003b0 02 50 39 3f 48 d5 61 be 7c 15 70 3e 03 9e 13 be
       0.7238771 -0.22054017 0.23445696 -0.14415745
0003c0 39 47 15 bf 01 77 12 bf 4f 43 c4 3d 85 af 72 bd
       -0.583118 -0.57212836 0.095831506 -0.05924942
0003d0 53 5e ed 3d 2f f6 02 3f a8 6d 61 3f 22 70 79 3d
       0.115902565 0.51156896 0.8805795 0.060897954
0003e0 b5 aa 23 3e 40 29 2d bf c0 64 e9 be 47 7d 16 bf
       0.15983088 -0.6764107 -0.4558468 -0.5878491
0003f0 05 63 87 bd a9 df 1c bd 2a 8f 52 3e 03 b6 07 3f
       -0.06610683 -0.038299236 0.20562425 0.530121

v.v_net.0.bias f4 [64]
000000 25 ce df be 60 f0 d5 be fa fd e2 be 98 fd d5 be
       -0.43711963 -0.41784954 -0.44334394 -0.4179504
000010 bf 7b ec 3e 86 c7 fe 3e 21 49 03 3f b5 b2 dc 3e
       0.4618816 0.497616 0.5128346 0.43105093
000020 aa bd df be ae a5 db be 82 26 e0 3e 6a 0a ce be
       -0.4369939 -0.4289984 0.4377938 -0.4024232
000030 fa c1 f1 3e ac 90 08 bf 28 ef ec 3e cb 2a 0e bf
       0.47218305 -0.5334575 0.46276212 -0.55534047
000040 cb 4d e8 be 2d 28 c0 be a3 65 d0 3e 24 15 ea be
       -0.4537185 -0.37530652 0.40702543 -0.45719254
000050 37 1f aa 3e ac 7d d3 be a1 aa d8 3e 6d 5c f6 3e
       0.3322694 -0.41306818 0.4231768 0.4811739
000060 8f 1b c7 be bd 71 f8 be 88 fb 0d 3f 0a f3 fa 3e
       -0.38888213 -0.48524275 0.5546193 0.4901355
000070 d7 94 a9 be 15 c6 ec be ff 8f e8 3e 19 fc a7 3e
       -0.33121368 -0.46244875 0.4542236 0.32809523
000080 2e 02 dc 3e bc b4 ff 3e fb 48 13 bf b3 f4 fe 3e
       0.42970413 0.49942577 -0.57533234 0.49796066
000090 a2 58 f3 be 65 74 f9 3e 5c b4 fb 3e 50 56 02 3f
       -0.4752856 0.48721614 0.4916104 0.5091295
0000a0 ba f2 b7 be da ec f0 be 38 0e eb 3e 03 63 ef 3e
       -0.35927373 -0.47055703 0.45909286 0.46755227
0000b0 33 aa e9 be a2 c5 f0 3e 6f 8b d8 3e c8 14 f5 3e
       -0.45637664 0.47025782 0.4229388 0.47867417
0000c0 b7 ff 01 bf d8 19 06 3f 50 76 02 bf 71 f8 f3 3e
       -0.50780815 0.52383184 -0.5096178 0.47650483
0000d0 4a bc f1 3e 7f 71 1a bf 87 49 d7 be ef b7 80 3e
       0.47213966 -0.6032943 -0.42048284 0.2514033
0000e0 05 31 f7 3e 3d a1 05 bf 5a 72 b7 3e fb a3 d9 be
       0.48279586 -0.52199155 0.3582943 -0.4250792
0000f0 26 56 d4 be ac b7 ec be 46 a0 01 3f 4e 3b cc 3e
       -0.41471976 -0.4623388 0.5063518 0.39888996

v.v_net.2.weight f4 [64, 64]
000000 62 f4 9d 3e 5f 15 14 bb 93 2d 09 3f d0 b2 b7 3e
       0.30850512 -0.0022595746 0.53585166 0.3587861
000010 21 59 c4 be d9 8d 01 bf ed 3a 21 bf 56 66 ae be
       -0.3834925 -0.5060707 -0.6298054 -0.3406245
000020 65 58 d9 3e 15 59 39 3e e2 4c c4 be a6 2b 33 3d
       0.42450252 0.18100388 -0.38339907 0.0437428
000030 83 23 43 bf 4a 10 19 3f bc bc 8f be db b1 7c 3e
       -0.7622606 0.5979048 -0.2807368 0.24677221
000040 f5 e1 8f bb 3f 67 82 3d 9e d8 35 3d 2d e5 3e 3e
       -0.00439095 0.06367349 0.044396035 0.18642111
000050 81 28 c4 be 73 e3 a5 3e 96 9a c6 bd 29 42 bc be
       -0.38312152 0.32400092 -0.09697454 -0.36769226
000060 05 00 8f 3e 3e cc 08 3f e7 56 01 bf 79 af e1 be
       0.27929702 0.5343665 -0.5052323 -0.44079188
000070 6b f4 18 3f b0 15 68 3e 53 eb 82 be 14 26 c4 be
       0.5974795 0.22664523 -0.25570163 -0.383103
000080 24 a6 f9 be 15 64 1e bf a1 4e 9a bd 70 49 1d be
       -0.48759568 -0.61871463 -0.075345285 -0.15360045
000090 cb d6 0d 3e d3 f3 b4 be 62 db c6 be 37 a9 c2 be
       0.13851468 -0.35342273 -0.3883925 -0.38019726
0000a0 75 9e 68 3e fd fa 98 3e 72 01 1d bf 62 93 72 bd
       0.22716697 0.2987899 -0.6133033 -0.059222586
0000b0 c1 99 1f 3e 12 31 a7 be 7d c5 43 bd d1 16 31 bf
       0.15585996 -0.32654625 -0.04779576 -0.6917544
0000c0 a9 53 96 3e fe 4a d4 bd 70 91 de 3d d1 95 b9 be
       0.29360703 -0.10365866 0.10867584 -0.36247113
0000d0 62 56 05 be 33 6e 04 3f db dd 29 3e 80 52 3d 3c
       -0.13021234 0.5173065 0.16588537 0.011555314
0000e0 62 26 02 bf 38 1e 4d 3e 3f be a4 be c2 63 c7 3e
       -0.5083982 0.20031059 -0.32176396 0.38943297
0000f0 99 93 a0 3e c4 06 81 3e c7 9b 60 bd 86 ed 51 be
       0.31362608 0.25200474 -0.05483606 -0.20500764
000100 a2 1f 55 3e 9d 3c a6 3e 07 32 fc b9 28 9f 2b 3f
       0.20812848 0.3246812 -0.0004810246 0.6703973
000110 8c 50 ea be 58 fe 01 bf 29 63 49 be 2e 7f 26 bf
       -0.45764577 -0.5077872 -0.19666733 -0.6503781
000120 63 de 18 3f f9 77 c6 3e 89 87 97 be 1e 3c 86 3e
       0.59714335 0.38763407 -0.29595593 0.2621774
000130 cc 12 ec be 9b 6f f2 3d ad f2 f3 be 03 89 b4 3e
       -0.4610809 0.11837693 -0.47646084 0.35260782
000140 ae b4 38 be 5e f5 c6 3d fc d4 8d be 96 a7 1d 3f
       -0.18037674 0.09714769 -0.27701557 0.6158384
000150 90 a2 00 3e 80 67 66 be 7d 0f 8e be 1b 3b 7e be
       0.12562013 -0.2250042 -0.27746192 -0.24827234
000160 c0 6b c2 3e 32 6d a1 3e 0c 48 94 be 53 ae 00 bf
       0.37972832 0.31528622 -0.28961217 -0.50266
000170 05 1d d4 3b 8f 17 7f 3e cd e6 ac bb c9 c3 4d be
       0.006473186 0.2491133 -0.005276537 -0.20094217
000180 63 3d ce be 97 88 b1 be f9 3c c1 3e 36 b8 52 bf
       -0.4028121 -0.34674522 0.3774183 -0.82312334
000190 3d 15 61 3e 06 43 56 bf c0 ab b3 be e9 b6 04 bf
       0.21980758 -0.8369602 -0.35091972 -0.518416
0001a0 e4 da e8 be e1 4a 0a 3f f9 bb e8 be 3d 25 22 be
       -0.454795 0.54020506 -0.45455912 -0.15834518
0001b0 ed 86 85 3e df ed 80 be 0f 16 e0 be d5 ef ac be
       0.26079503 -0.2518148 -0.4376683 -0.33776727
0001c0 47 d7 36 3e 9b 0b 0f bf 1a e3 87 3e 21 dc 49 bc
       0.1785556 -0.55877084 0.26540452 -0.012320549
0001d0 ec a2 6e be ca 43 0d 3e 60 c8 27 3e 7c 2f 0f be
       -0.23304337 0.1379539 0.16385031 -0.13982958
0001e0 e9 65 43 be ad 0f ea 3e 6c 56 9c be 06 28 12 3f
       -0.19081844 0.45715085 -0.30534685 0.5709232
0001f0 da f4 39 3e 04 a6 0b 3f 24 d4 b9 be 12 3b a3 be
       0.1815981 0.54550195 -0.36294663 -0.31881005
000200 a1 4a 26 3e 15 02 2a 3f 50 5a 7b bc 54 d3 f4 3d
       0.16239406 0.66409427 -0.015341356 0.1195437
000210 7f 13 29 bf 08 07 25 be 89 75 14 bf df 7b 86 be
       -0.66045374 -0.16115963 -0.57991844 -0.2626638
000220 2c 63 50 3d 48 c2 ab 3e 31 11 8d bd eb fb da 3e
       0.050875828 0.33546662 -0.068880446 0.42770323
000230 ef 9f bb be 40 5b 89 3e bc 63 11 3e 24 49 0d 3e
       -0.36645457 0.2682743 0.14198202 0.13797432
000240 3a 17 52 3f 7b c9 25 3c e7 65 a4 bd d9 0a 66 3f
       0.8206669 0.0101188375 -0.08027249 0.898603
000250 4a d7 b6 bd bb e7 d5 3e 74 38 e7 be d4 70 ad be
       -0.08927782 0.4177836 -0.45160258 -0.33875144
000260 4f 28 b9 3e 59 90 02 3f 0f 84 ff be c4 f1 05 bf
       0.36163566 0.5100151 -0.4990544 -0.5232203
000270 2e c2 15 3e f0 9a eb 3e 3e 2f 9a be 81 57 4e bd
       0.14624855 0.46016645 -0.30114168 -0.05037642
000280 30 e3 c7 be a5 05 d2 be 9e 01 e5 3d fe f2 70 be
       -0.39040518 -0.4101993 0.11181949 -0.23530194
000290 b7 47 03 3f 62 16 a5 bd e8 40 d3 be 88 38 10 bf
       0.51281303 -0.0806091 -0.41260457 -0.5633626
0002a0 03 29 bf bc 13 78 a4 be 6d ef c9 be b5 b8 49 be
       -0.023334986 -0.3212286 -0.3944048 -0.19699366
0002b0 37 c4 31 3e 07 f8 35 be c6 cd a0 be b5 a1 c1 be
       0.17360006 -0.17770396 -0.31406993 -0.37818685
0002c0 d6 54 c9 3e 80 07 21 bf 9f 99 1c 3f c7 b9 64 bf
       0.39322537 -0.6290207 0.6117191 -0.89345974
0002d0 1d 77 b0 be 8d 31 64 3e d2 a8 78 3e e2 60 5e bd
       -0.34465876 0.22284527 0.2428315 -0.054291613
0002e0 1d ef 84 bc 19 61 a2 3e a3 b3 14 be 7d 4b 8a 3e
       -0.0162273 0.31714705 -0.14521651 0.27010718
0002f0 4f 12 2a 3e 58 54 16 3f 70 fe 01 bf e8 8d 08 bc
       0.16608547 0.5872245 -0.50778866 -0.008334614
000300 0c 20 9d 3e bc f0 58 be 62 00 a0 3e cc fc 80 3d
       0.30688512 -0.21185583 0.31250292 0.06298217
000310 8d 11 1d bf 45 4b e9 be 61 31 80 be 21 9c c9 bd
       -0.61354905 -0.4556524 -0.25037673 -0.09844232
000320 9d 79 3e 3f 9c cd 9c 3e 38 63 c9 be 74 97 f9 3e
       0.7440432 0.30625618 -0.3933351 0.48748362
000330 e2 a7 03 bf eb fb 04 3f 1c 31 49 be 77 e7 40 3f
       -0.51428044 0.51946896 -0.1964764 0.7535319
000340 24 b9 42 bd 70 5c 65 3e 32 b7 02 bf 6b 1b 8c bd
       -0.047539845 0.22398543 -0.51060784 -0.06841167
000350 9c bd ab be 38 1b b8 3e 90 2a 86 be 48 c9 7c be
       -0.33543098 0.35958266 -0.26204348 -0.24686158
000360 8e c2 fd 3e 57 c2 82 3e 4c c8 00 bf 28 db ce be
       0.49562496 0.25538895 -0.5030563 -0.40401578
000370 52 09 6b 3e 92 56 bc 3e ce 72 6f be 31 97 b9 be
       0.22952774 0.36784798 -0.23383638 -0.36248162
000380 62 98 c8 bd 18 1f ae be e7 53 a9 3e 2b 3f ad be
       -0.0979469 -0.34008098 0.33071825 -0.33837256
000390 ca ef 00 3f 0b fe 20 bf 0e e1 38 be b3 32 5e be
       0.5036589 -0.6288764 -0.18054602 -0.21699028
0003a0 f5 57 4f 3e da 42 82 3e 8a 3e 22 be 0b a9 db be
       0.20248397 0.2544163 -0.1584417 -0.42902407
0003b0 59 04 ad 3e 4a a3 72 bc b8 00 2f be f0 bf 9f bd
       0.3379238 -0.014809439 -0.17090118 -0.07800281
0003c0 82 cc 0c 3f 0e 9c 8f be 22 17 95 3e 3f a1 1e be
       0.54999554 -0.28048748 0.2911921 -0.15491198
0003d0 3a f3 bf be e4 25 fe 3e 7d ff be 3e 84 59 3d bf
       -0.37490255 0.49638283 0.37304297 -0.73964715
0003e0 88 5b bf be 01 7c e3 3d e1 0e 83 be d2 ac 38 3e
       -0.3737452 0.11107636 -0.2559729 0.18034676
0003f0 ac ea 8e 3e f9 5c 91 3e 7d 01 54 be 6c 51 81 be
       0.27913415 0.28391245 -0.20703693 -0.25257432

v.v_net.2.bias f4 [64]
000000 e4 af 9c be 46 aa 60 be 6b 13 a3 be bd 12 a8 be
       -0.30602944 -0.21939954 -0.31850752 -0.32826796
000010 97 08 8f be b8 5d a4 be 96 a7 94 3e a5 7d 74 be
       -0.2793624 -0.32102752 0.29034108 -0.23876055
000020 d8 8a 99 be 9a 8e 8e 3e 66 23 84 be 6a fb 65 be
       -0.29988742 0.2784317 -0.25808257 -0.22459188
000030 8b 48 69 3e 27 01 86 3e c0 ba 90 be 28 ff 80 3e
       0.22781579 0.26172754 -0.2826748 0.2519467
000040 7f 0c 88 be 2b 53 96 3e 2a 45 7c 3e fa b2 90 be
       -0.26572034 0.29360327 0.24635759 -0.28261548
000050 2a 2e 80 3e b4 68 77 be f8 92 a0 be ea b9 84 be
       0.2503522 -0.24161035 -0.31362128 -0.2592309
000060 95 e7 72 be 2f 8a 8e be 87 c0 af 3e 3e 51 85 be
       -0.23721154 -0.278398 0.34326574 -0.26038545
000070 2f a7 89 3e 86 e9 95 3e 22 7a 88 3e 62 2a 75 be
       0.26885363 0.29279727 0.2665568 -0.23941949
000080 94 f5 77 3e 05 23 67 3e 75 8c 7f 3e e8 d1 81 be
       0.24214774 0.22571953 0.24955924 -0.25355458
000090 4b ea 87 3e 4f 46 9d 3e 17 ed 9e be d0 0c 96 be
       0.2654594 0.30717704 -0.3104026 -0.2930665
0000a0 fc 8e 5b be 85 90 96 be f1 73 ae 3e d9 32 90 be
       -0.21441263 -0.29407135 0.3407283 -0.28163794
0000b0 f0 b3 7f 3e 71 a1 99 be af 75 84 3e f4 b1 90 3e
       0.24970984 -0.30005983 0.25871035 0.28260767
0000c0 ac 23 8f be c5 41 90 be 8c c6 a8 3e 18 70 93 be
       -0.27956903 -0.28175178 0.3296398 -0.28796458
0000d0 e1 4e 85 be 0d 09 8e be f4 1d 91 3e c4 ec 53 3e
       -0.26036742 -0.2774128 0.28343165 0.20695788
0000e0 53 e5 a2 be 39 87 95 3e 26 97 94 be c8 f3 8f 3e
       -0.31815585 0.2920473 -0.29021567 0.28115678
0000f0 81 af 99 be 81 de a1 be ce 2f 80 3e 96 53 67 3e
       -0.3001671 -0.3161507 0.25036472 0.22590479

v.v_net.4.weight f4 [1, 64]
000000 5d 51 4b 40 2b 59 75 40 f3 1d 42 40 e5 06 3a 40
       3.176841 3.8335674 3.033078 2.9066708
000010 59 63 3a 40 b9 ad 42 40 29 88 3d c0 97 5a 42 40
       2.9123137 3.0418532 -2.9614356 3.0367792
000020 45 5f 3d 40 29 28 37 c0 cb d4 49 40 9b 6e 47 40
       2.9589398 -2.8618262 3.1536129 3.1161258
000030 fd 8d 62 c0 2b 79 4e c0 43 7f 47 40 29 fe 46 c0
       -3.5399163 -3.2261455 3.1171424 -3.1092627
000040 45 7f 4d 40 05 f2 53 c0 fd 0c 5a c0 5d aa 4b 40
       3.210893 -3.3116467 -3.4070427 3.1822731
000050 fb c6 46 c0 e5 2b 51 40 0d e3 3a 40 87 cd 35 40
       -3.1058948 3.268304 2.920108 2.8406694
000060 89 f5 51 40 99 79 43 40 f3 98 40 c0 ef 46 51 40
       3.2806113 3.0542967 -3.0093353 3.2699544
000070 a7 d4 3a c0 2b 21 50 c0 85 3d 5a c0 bd 41 3c 40
       -2.9192293 -3.2520244 -3.4100049 2.9415123
000080 87 51 4c c0 39 d4 4c c0 d9 3b 4b c0 51 a1 4a 40
       -3.192476 -3.200453 -3.1755278 3.166096
000090 6d 5d 54 c0 41 7f 3c c0 8b 00 45 40 79 c4 47 40
       -3.3182023 -2.945267 3.0781581 3.1213667
0000a0 9f 7c 44 40 8b 7c 3f 40 ef c6 36 c0 b9 13 4a 40
       3.0701063 2.9919765 -2.855892 3.1574538
0000b0 51 50 54 c0 d5 6e 43 40 8d 9b 3d c0 35 09 45 c0
       -3.3174021 3.0536397 -2.962619 -3.078687
0000c0 fd 02 37 40 4d db 3e 40 07 44 46 c0 13 f2 50 40
       2.8595574 2.982135 -3.097902 3.264775
0000d0 e9 62 37 40 39 47 3d 40 c5 d7 37 c0 a1 19 50 c0
       2.865412 2.957472 -2.8725445 -3.2515643
0000e0 e7 7b 41 40 c7 f4 4f c0 15 6f 48 40 7d 34 4b c0
       3.0231874 -3.249315 3.13178 -3.1750786
0000f0 e7 6c 43 40 91 20 4e 40 a1 df 55 c0 c9 d7 5a c0
       3.0535219 3.2207377 -3.3417742 -3.4194205
