tmp/experiments/RN0 False,True,True/pyt_network_save/model save12000.pt (torch_old, 314943 bytes, 33 tensors)

pi.pi_net.0.weight f4 [64, 5]
000000 d1 cc 03 3d dc 22 01 bd cd e8 85 3e de c8 00 bc
       0.03217775 -0.031527385 0.26154175 -0.0078603905
000010 1a 03 a1 3e b1 8a d6 3e ba ff fe be 44 cc 2a 3f
       0.3144768 0.41902688 -0.4980448 0.66717935
000020 9e de d4 be 9a b0 d2 3e 1c 28 17 bc 65 c8 1b 3e
       -0.41576093 0.4115036 -0.009225871 0.15213163
000030 5e 29 8f be 64 b4 62 be 23 b1 86 3d 6d ad a2 bd
       -0.27961248 -0.22139126 0.06576755 -0.079432346
000040 58 8d 70 3c 53 ea b9 be 4a 0a 2b 3e ec 59 00 3f
       0.0146821365 -0.36311588 0.16703144 0.5013721
000050 77 b3 b9 bd 2c a2 21 bf 0d 53 17 bf d2 28 72 be
       -0.09067433 -0.6313808 -0.591111 -0.23648384
000060 1d 37 85 bf 1e a5 0a be 6f df f5 3e 5f 63 3b 3c
       -1.0407444 -0.1353955 0.4802203 0.011437266
000070 ba 2a 50 3c 73 e7 94 be b6 ac 5a bd f0 32 f8 bd
       0.012705499 -0.29082832 -0.053387366 -0.121190906
000080 45 8d e3 3b c6 9c 25 be c2 a5 84 3d 91 12 e6 3e
       0.006944331 -0.16173086 0.06476928 0.4493604
000090 96 f1 af 3e 1f cd 20 3d c5 38 8d be d7 72 73 3c
       0.34364003 0.03925812 -0.27582374 0.014858923
0000a0 36 51 9b 3e f3 e2 8c bb 77 b8 2b bd ce 27 ba 3e
       0.30335397 -0.0042995154 -0.041923966 0.36358494
0000b0 c7 c4 2c be f9 3a 91 be 7d 88 31 bd c8 6d d0 3d
       -0.1687194 -0.28365305 -0.043343056 0.10177189
0000c0 41 a3 a2 3e d9 25 e1 be 82 68 22 3d ef 1c 1c be
       0.31765178 -0.43974188 0.039650448 -0.15245412
0000d0 8d 83 ab be 13 8b 01 3f 0b 9f 08 bf 81 2d b4 3d
       -0.33498803 0.50602835 -0.5336768 0.08797742
0000e0 1c ce c7 3e 6b 14 85 bd 03 8e 5e be 22 c8 10 3e
       0.39024436 -0.06498035 -0.2173386 0.14138845
0000f0 f5 73 30 3e a1 ea 31 3f d2 c1 fa 3c 1c a7 ec 3d
       0.17231734 0.6949864 0.030609999 0.11555311
000100 f6 fa ce be b8 c2 5f bd 01 61 de 3d 56 16 51 3e
       -0.40425843 -0.054629058 0.10858346 0.20418677
000110 1b 46 e7 be a9 e4 8f bc eb 56 b9 3e af 5d 88 3e
       -0.45170674 -0.017565088 0.36199126 0.26633975
000120 19 fa 61 3e b6 46 8e be d5 72 61 be 04 17 92 bc
       0.22068061 -0.27788323 -0.22016461 -0.01783324
000130 d1 89 e4 bb a2 b2 ab bd 87 84 cc be 3c 7d 99 be
       -0.006974437 -0.08383681 -0.3994486 -0.2997836
000140 44 c9 b9 be d8 e8 dd bd c4 ae c1 be ed f6 ad 3b
       -0.36286366 -0.10835427 -0.37828648 0.005308977
000150 f5 40 59 3d 32 ac a5 be 1b 54 4d be ca fa e9 3e
       0.053040463 -0.32357937 -0.20051615 0.4569915
000160 e1 96 78 3d 2f ee 05 be 12 06 db 3e 45 84 25 3e
       0.060690764 -0.13079141 0.4277807 0.16163738
000170 f4 97 4a 3c 71 e3 9c be e2 f9 98 be 47 4d a5 bd
       0.01236533 -0.30642274 -0.29878145 -0.0807138
000180 75 dd 67 bd 89 c8 10 3e 78 d0 85 3e 0c 7d 5f be
       -0.056607682 0.14138998 0.26135612 -0.21825045
000190 9b e6 16 bc 14 6f 6f 3c 81 39 91 bd 1a a9 9d be
       -0.009210254 0.014613885 -0.07091046 -0.30793077
0001a0 71 e8 d4 3e 2c 66 03 bd 1b 4f 46 3e 3c 28 0b 3e
       0.4158359 -0.03207986 0.19366114 0.13589567
0001b0 9b a5 ce be 76 f4 7b 3e f8 92 32 3d f6 9d 88 3e
       -0.40360722 0.24604973 0.04359719 0.26683015
0001c0 83 8e 9d be 48 25 b6 bc bd b0 81 be a7 f4 c6 3e
       -0.3077279 -0.022234574 -0.25330153 0.3885853
0001d0 28 3b 6b 3e fa b9 98 be cd 14 f2 3e a0 00 1c 3f
       0.22971785 -0.2982939 0.47281495 0.60938454
0001e0 af e1 00 be 7a db 94 bd f7 ec 72 3e 8e fa cf bd
       -0.12586091 -0.07268424 0.23723207 -0.101552114
0001f0 54 8b 5a 3e 5d 43 92 be 3e ef 9e be 66 76 5b bd
       0.21342212 -0.2856702 -0.31041902 -0.05357971
000200 33 80 a0 3e a4 dd ab 3d 36 59 b8 be 51 e1 50 be
       0.31347808 0.08391884 -0.36005563 -0.20398451
000210 ac d4 79 3e 51 ce 53 3e 79 f7 30 3f db 85 fb 3e
       0.24397534 0.20684172 0.69127613 0.4912556
000220 16 b1 a8 3e d2 d7 82 be 46 46 18 ba 88 c0 46 be
       0.32947606 -0.25555283 -0.00058088114 -0.19409382
000230 57 ad 10 be 7e 5a a5 be 1a fc 6e bf 52 bc 65 be
       -0.14128624 -0.32295603 -0.93353426 -0.2243512
000240 da e4 b1 be 41 3b b6 3e 34 8b 0c be 3f 77 36 3e
       -0.34744912 0.35592082 -0.13724977 0.17818926
000250 19 2e 08 bf fb 83 16 be f2 03 1e 3e 3c 3f 4e 3e
       -0.5319534 -0.14698784 0.15431193 0.2014131
000260 e6 5e 16 3f ed e9 04 bf 0e 3e 21 be c2 60 0a bf
       0.58738554 -0.5191944 -0.15746328 -0.5405389
000270 95 67 a1 be 47 04 5e 3b cf b8 52 3e 62 76 f8 bd
       -0.3152434 0.0033877061 0.20578311 -0.12131955
000280 e8 e6 3f 3d 98 9d b4 3d da 97 8a be eb 6a 88 bc
       0.04685107 0.08819121 -0.2706898 -0.016652545
000290 36 f0 99 3e 38 24 8c be 1b 18 44 3d 4a 49 89 bd
       0.3006608 -0.27371383 0.04787455 -0.06703432
0002a0 bf 76 6c ba 8c fb 01 3e f8 fa 8a be 78 0b 48 3e
       -0.000902038 0.12693614 -0.271446 0.19535625
0002b0 8c 54 3d be bf 0b 13 bf 30 4a 16 3f 7d 74 41 be
       -0.18489283 -0.574398 0.5870695 -0.18892093
0002c0 7d a0 54 3e c3 65 9e 3e bd 8e 82 bb 33 83 81 be
       0.20764346 0.30937013 -0.003984301 -0.2529541
0002d0 b1 8f a6 be 7d 49 4a be 5d 34 80 be 94 ed 51 3e
       -0.32531503 -0.19754596 -0.2503995 0.20500785
0002e0 cc e1 33 be 79 f0 06 3e f5 d5 17 be 87 9c b4 be
       -0.17566603 0.1317767 -0.14827712 -0.3527567
0002f0 ed 7a d2 be de e2 0d 3e 0f 43 97 3d 07 38 f5 3e
       -0.4110941 0.13856074 0.07385837 0.47894308
000300 85 d7 23 bf 3e b8 c8 bd 7f 64 da bd 6c 60 05 3c
       -0.6400073 -0.098007664 -0.10663699 0.008140665
000310 c4 b5 a8 3e f0 2f 23 3f 42 e4 3f be 50 20 79 bd
       0.32951176 0.6374502 -0.18739417 -0.06082183
000320 ea 3c 0f 3e 92 6e 87 3e 4f 58 b6 be 02 7b 7f bc
       0.1398808 0.26451546 -0.3561425 -0.015593292
000330 7a ae 33 bf 85 6a f6 3c 39 5f 70 3e 9d d6 78 3d
       -0.70188105 0.03008009 0.23473825 0.060751546
000340 15 de 41 3f 60 8d 7e 3e 09 7e 8d 3e f8 68 e6 3e
       0.75729495 0.24858618 0.2763522 0.4500196
000350 36 eb 2e bb f9 a5 81 3d 2c f4 46 3c e2 22 5a 3e
       -0.002669049 0.06330485 0.012143176 0.21302369
000360 4d 88 be be 36 2f 0c 3f 7e 88 45 3e 17 a4 d8 be
       -0.37213364 0.5475954 0.19290349 -0.4231269
000370 fa 5b 99 3e 4c d0 19 be 95 42 06 be ab 20 70 be
       0.29952985 -0.15020865 -0.13111337 -0.23449962
000380 6f dc 34 3e 94 94 df 3e 8d 15 d6 bd cd d7 03 3f
       0.17662214 0.43668044 -0.10453329 0.5150116
000390 83 0a 06 be 22 96 98 be 07 59 a2 be 6b a5 9e 3e
       -0.13089947 -0.29802042 -0.31708547 0.3098558
0003a0 cb e5 4f be b9 ee fe 3d 0a c3 b2 be 14 35 cf 3b
       -0.20302503 0.124478765 -0.34914428 0.006323466
0003b0 3c 86 c8 be 02 20 04 3f 58 58 4a bb 0a 56 b4 bc
       -0.39164913 0.5161134 -0.003087541 -0.022013683
0003c0 5b 9d 9f 3e 20 b6 9d be 01 25 49 be 96 5a 8c bd
       0.3117474 -0.30803013 -0.19643022 -0.068532154
0003d0 78 d2 17 be 3c 8a b4 be 4e a5 80 bf 63 85 1c bf
       -0.14826381 -0.35261714 -1.0050447 -0.6114103
0003e0 3e 72 c6 3a 33 b4 3d bf af 3d 37 bf 3d f6 38 3d
       0.0015140248 -0.7410309 -0.71578497 0.045156706
0003f0 93 be 76 3d 19 02 1b 3e 7f 4c a8 3e 67 fa 3f 3d
       0.06024034 0.15137519 0.32870862 0.04686966

pi.pi_net.0.bias f4 [64]
000000 52 52 bf 3c 4a b9 4c be 93 29 55 bd 96 b6 53 3d
       0.023354683 -0.19992557 -0.0520416 0.0516878
000010 f2 9a 82 be e6 ca e0 3d c2 c9 bb bd 54 a6 88 3d
       -0.2550884 0.109762 -0.091693416 0.066723496
000020 ad f9 43 be 4f 5b 87 bd bb b9 75 be 82 d5 55 bd
       -0.19138213 -0.066092126 -0.23996632 -0.05220557
000030 86 7d 72 be ea 5a 50 bc 68 1e c8 bd 5a 7d 03 3e
       -0.23680696 -0.012716988 -0.097714245 0.12840787
000040 86 9b 9d 3d bf 84 0b 3e 43 30 84 3d 37 22 a2 bd
       0.07695679 0.13624857 0.06454518 -0.07916682
000050 f2 af 04 3e 3f 5e 18 3e 86 85 58 bd a6 a2 7c 3e
       0.12957743 0.14879702 -0.052861713 0.2467142
000060 44 25 a5 bd ed 15 2d 3e 7a 33 53 3d 62 b9 61 bc
       -0.080637485 0.16902895 0.051562764 -0.013777109
000070 01 a7 1f 3d 77 fd 7c bd a4 93 f8 3c 7b 01 08 3e
       0.038977627 -0.06176516 0.030343838 0.13281815
000080 6e c1 f1 bd 30 20 35 3e 36 e6 37 3e 85 ef ab 3c
       -0.11804472 0.1768806 0.17958912 0.020988235
000090 aa d5 18 3e e5 bc f8 3c c5 70 43 3d 19 9f 17 bd
       0.14925256 0.03036351 0.047714967 -0.03701696
0000a0 53 63 ba bd 68 81 38 3d f3 7f 51 bd 3c 5a 17 be
       -0.09100976 0.045045286 -0.051147413 -0.14780515
0000b0 b1 13 de 3d e1 aa 3e be 33 dc 4f 3e a6 eb 50 3e
       0.108435996 -0.18619873 0.20298843 0.20402393
0000c0 7a ed 98 be 70 4b 02 bf 14 ba cb bd 03 0e 81 3d
       -0.2986868 -0.5089636 -0.09947601 0.06301501
0000d0 55 9c dd 3c cc 4e ea 3d bd e4 5d 3e 88 0b 0c be
       0.027052084 0.114408106 0.21669288 -0.13676274
0000e0 cf a0 34 3c da 2d 8d bc 97 84 3f be c3 19 28 be
       0.011024668 -0.017233778 -0.18702923 -0.16416077
0000f0 6f b8 01 bd 36 a5 0e bd ee 7c 45 be 88 20 13 3d
       -0.03167003 -0.034825526 -0.19285938 0.035919696

pi.pi_net.2.weight f4 [64, 64]
000000 63 d8 96 be 1d 49 9f be 8a 43 17 3e 48 7f b1 3d
       -0.29461965 -0.31110469 0.14771858 0.08666855
000010 98 e5 c5 3e 14 d6 99 be ab b2 a3 3e 39 1d d4 be
       0.3865173 -0.3004614 0.3197225 -0.41428545
000020 87 29 27 be d0 5c 55 3d c8 5b a0 3e 16 07 19 be
       -0.16324435 0.052090466 0.31320024 -0.1494411
000030 df e3 48 be 12 96 c1 bc 0c 24 bc bd de e9 41 3e
       -0.19618176 -0.02363113 -0.09186563 0.1893687
000040 9a 97 36 3e 57 7e 37 3e fd 0a a2 bd db 76 5c 3c
       0.17831269 0.17919289 -0.07912252 0.013456072
000050 88 5f e6 bd 84 e5 b3 bd 8f c6 f6 bc 08 64 79 be
       -0.1124869 -0.08784011 -0.030123977 -0.24354565
000060 31 54 33 3e b6 32 d6 3e 88 1b e1 be 7b b6 17 3e
       0.17512585 0.41835564 -0.43966317 0.14815705
000070 4d a2 b4 3e ad d1 13 3e f0 60 c5 be 52 3b 98 3e
       0.35280076 0.14435454 -0.3855052 0.29732758
000080 8c 31 47 bd b6 f1 cb 3d 03 e5 87 be 1f 49 19 bf
       -0.048631236 0.09958212 -0.2654191 -0.598772
000090 96 50 1e 3e fc 9b 84 be 13 ea 61 3c ac a0 16 bf
       0.15460429 -0.25900257 0.013788718 -0.58838916
0000a0 24 82 21 3d 31 0a 46 be 1f a2 4f be 8b df a7 3d
       0.039430752 -0.19339825 -0.20276688 0.08196934
0000b0 0f d8 b6 3e 2a 64 6d 3e 52 8c 89 be 86 15 a7 bd
       0.35711715 0.23182741 -0.26864868 -0.08158402
0000c0 30 ee 5c 3f 4f da 86 3e 6d 9b f2 3d 8b 92 13 3e
       0.86300945 0.2633843 0.11846051 0.1441137
0000d0 ea af 14 be fa 66 b2 3c a1 02 47 bd f8 0c 43 3e
       -0.14520231 0.021777619 -0.04858649 0.19047916
0000e0 34 ee 81 3e 0d 46 37 be 02 e2 cd 3d c1 6b 0c 3e
       0.25377047 -0.17897816 0.10052873 0.1371298
0000f0 21 d2 e2 ba d9 0e 11 3e 82 e1 5a 3e ba 60 4a 3e
       -0.0017305055 0.1416582 0.21375087 0.19763461
000100 d9 b8 26 bc 3d bf b6 bd 6f ac 48 3e 13 e8 4f be
       -0.010175907 -0.089231946 0.19597028 -0.20303373
000110 cb 15 8e 3e 46 71 a6 3e 69 de 68 3e 7e dc 98 3e
       0.27751002 0.32508296 0.22741093 0.29855722
000120 1a d5 fb 3c a8 75 98 bd 9e 63 02 3e 14 be 84 3e
       0.030741263 -0.07444316 0.12733313 0.25926268
000130 c2 56 df bd 73 de 0c 3e 50 8d bb 3e 83 f5 c7 3c
       -0.109052196 0.13756733 0.3663125 0.024409061
000140 a8 85 9f 3d 51 76 80 be e9 12 87 3e ca 79 6e bd
       0.07789165 -0.25090268 0.26381615 -0.058221616
000150 ea 23 1d be ec 08 98 be b7 6b c1 bd 72 b8 3c bc
       -0.15345731 -0.29694307 -0.09444373 -0.011518585
000160 7d 9a 78 3e 0c ba 74 bd b7 2c 37 bd c6 7a 00 be
       0.24277683 -0.05974774 -0.044720378 -0.12546834
000170 3a 9e d1 3e 03 66 83 3d 05 6f 35 3e 47 98 67 be
       0.4094103 0.064159416 0.17718132 -0.22616683
000180 b1 ad 97 3e 1b 51 86 3d 82 f6 b9 3d 71 ae ba bd
       0.29624704 0.065584384 0.09080221 -0.09115303
000190 b5 5b b7 3e b0 b1 84 3e f2 9b 8c 3d a0 0e 5f be
       0.35812154 0.25916815 0.06865682 -0.21782923
0001a0 cc e0 9b 3d 95 13 33 be 1c 61 45 be b4 f2 75 bd
       0.07611236 -0.17487939 -0.19275326 -0.060045913
0001b0 68 ca 0e bd 27 d2 29 3d 25 30 82 3d 3e e2 c8 be
       -0.034861 0.041460183 0.06356839 -0.3923511
0001c0 36 69 b2 3e 72 ce 1b 3e f1 1c 9f bd 8d 0b f1 bd
       0.34845895 0.15215471 -0.07769192 -0.11769781
0001d0 41 5f ce 3c 4f 8c 5d be 83 4f 90 bb 7c f7 98 3e
       0.025191905 -0.21635555 -0.00440401 0.29876316
0001e0 95 2b e5 bd b4 96 95 bd 80 cc a4 be ca 7f 96 3d
       -0.11189953 -0.07304135 -0.3218727 0.073485926
0001f0 c9 27 fa be f7 98 14 be 3f d1 ba 3e b5 c6 40 3d
       -0.4885848 -0.14511476 0.36487767 0.0470645
000200 6f 33 91 bc af fb 9b 3e 05 8b 6f bb cc e7 89 be
       -0.01772472 0.30465457 -0.0036551368 -0.2693466
000210 f1 4b 55 3e 90 ef 84 3d 19 18 d0 bc ab d3 2a be
       0.2082975 0.064910054 -0.025402116 -0.16682307
000220 82 0f 99 be cc 12 ce be d2 3c f7 3e ae bd f0 bb
       -0.29894644 -0.40248716 0.4828859 -0.0073468303
000230 71 aa cf 3d 74 a3 ca 3e 83 85 06 3d 1c 13 7d 3e
       0.10139931 0.3957783 0.03284217 0.24714321
000240 90 04 24 3e 93 79 6f be 7e 73 38 bc 05 1f 78 3e
       0.16017365 -0.2338622 -0.011258004 0.24230583
000250 13 ac fe 3e b9 d8 89 3e 52 48 da 3e ab f9 a7 bd
       0.49740657 0.2692316 0.426333 -0.08201917
000260 cf bb 50 bd b5 5b ce be 72 f2 56 be da 46 6b be
       -0.05096036 -0.40304342 -0.20990923 -0.22976246
000270 fa 76 9f bc 98 bd 42 3e 37 ed 8f 3e 5a 62 03 be
       -0.019465912 0.19017637 0.28110668 -0.12830487
000280 1d cb 1c 3d d8 b1 0f 3d 9a 89 2b be 18 52 9c be
       0.03827964 0.035081714 -0.1675171 -0.30531383
000290 ab 4d a6 bd 39 72 90 3e 1b a5 a0 3d 0e e5 35 3e
       -0.08120283 0.28212145 0.07843991 0.17763159
0002a0 5c 18 4f 3e ff fd e7 be 21 e9 1c be 9c e8 b8 bc
       0.20224136 -0.4531097 -0.15323307 -0.022571854
0002b0 34 18 cc bc 98 ba ef 3e d7 7e 24 3e e5 1e db be
       -0.024913885 0.46822047 0.1606401 -0.42797008
0002c0 2f f2 00 be b0 87 78 3e 6a 49 3c be 46 5b 00 3e
       -0.12592386 0.2427051 -0.1838738 0.12534818
0002d0 ca b6 8a 3d 0d 72 8c 3e 52 7b dd bd 68 73 88 bb
       0.067731455 0.27430764 -0.10814537 -0.004164148
0002e0 6b 50 4d be 5f 64 4a 3e 1f 36 a6 3d f5 21 35 bd
       -0.20050208 0.19764851 0.081157915 -0.044221837
0002f0 bd a5 2a 3e c1 9f 85 3d 75 41 24 be ac a0 2a bf
       0.16664787 0.06524611 -0.16040595 -0.66651416
000300 38 a9 aa bd 37 3c 08 bd d4 66 36 be 1e 2f da 3d
       -0.08333057 -0.03326055 -0.17812663 0.10653518
000310 7b 64 71 bd 62 b0 38 be 95 48 5d bd bf 09 f4 bd
       -0.058933716 -0.18036035 -0.054024298 -0.119159214
000320 93 ed 99 3d a2 2c 02 be 8b dc c2 be ae 1c 36 be
       0.07516017 -0.12712339 -0.38058886 -0.17784378
000330 61 aa 6d bd 6c e3 a2 be cf b8 52 3d 64 b4 8b be
       -0.058023814 -0.31814134 0.05144578 -0.27286065
000340 b1 4c 91 3e bd f6 4e be 12 c0 d2 be 22 28 61 3e
       0.28378823 -0.2021131 -0.41162163 0.21987966
000350 84 72 3f be 77 7a 1b 3e f8 2b 8d be 44 d0 da bd
       -0.18696028 0.15183435 -0.27572608 -0.10684255
000360 d5 df 01 be 5e e6 27 bd fc 4f 00 3f a4 63 8b be
       -0.12683041 -0.04099118 0.50122046 -0.27224457
000370 d7 cd 57 be fb 73 be be b9 6c ac bc e3 a7 1c 3e
       -0.21074615 -0.3719786 -0.021047937 0.15298419
000380 e4 76 fd bd d3 f5 34 bd ac ea 0d bc 12 89 6a 3e
       -0.12376192 -0.04417975 -0.008661907 0.2290385
000390 0b 44 9b 3d bb 38 ce be 33 ad b0 3d 02 2f b4 3d
       0.075813375 -0.40277657 0.08626785 0.087980285
0003a0 19 d6 b7 bd b8 5d 84 3e ac a1 20 be 70 12 83 bd
       -0.08976383 0.25852752 -0.15686673 -0.06400001
0003b0 ec e9 89 3d d8 07 59 be 97 99 a0 3d c9 54 51 3e
       0.0673407 -0.21194398 0.07841795 0.20442499
0003c0 34 2a 21 be 49 72 5a 3e 97 04 25 3e 40 f6 fb be
       -0.15738755 0.21332659 0.16115032 -0.4921131
0003d0 e2 0e a1 3c 4c ee 14 3e 26 43 a7 3d 7e 14 d9 3c
       0.019660417 0.14544028 0.081671044 0.02649903
0003e0 cf 46 26 be 88 9f fe bd 58 c3 5c be df 06 f0 3d
       -0.16237949 -0.12432772 -0.21558893 0.117200606
0003f0 9d ef 87 bd 71 c2 bd bd fa bb 88 bd ce 48 29 be
       -0.066374995 -0.092656024 -0.06676479 -0.16531679

pi.pi_net.2.bias f4 [64]
000000 f1 1e 45 be de 19 9e bd bb 11 d9 bd 8b ac cc 3c
       -0.19250084 -0.077197775 -0.10599085 0.024984619
000010 1f 93 e9 3d 48 2c 6c 3d c7 c6 7e 3d 05 fd d2 3d
       0.11405014 0.057659417 0.062201288 0.10302166
000020 8e 47 27 3d b5 57 5c be 63 c1 e5 3d 4f 52 3c 3c
       0.040839724 -0.21517833 0.11218526 0.011494233
000030 1a b9 2f 3e 93 93 01 bc 11 51 ac bc d9 43 90 be
       0.17160454 -0.00790872 -0.02103475 -0.28176764
000040 5b 9b 50 3d dd 5a a6 bd 60 54 b5 3a f8 1b 31 bd
       0.05092941 -0.081227995 0.001383435 -0.043239564
000050 02 c4 b7 3c c4 f7 31 3e 37 01 27 3e 50 ed 6d bd
       0.022432331 0.17379671 0.16309057 -0.058087647
000060 16 15 24 3b 18 eb f7 3c db 50 26 3d 01 d9 0f 3a
       0.0025036982 0.030263469 0.040604454 0.0005487353
000070 cb ba 54 bd 6c 5b 77 be b0 83 fb 3d c4 13 da 3d
       -0.051935952 -0.24155968 0.12280977 0.10648301
000080 5b d5 8e 3c 18 79 cb 3d 8c ba 7a bd 7c 95 a1 bd
       0.01743572 0.09935206 -0.06121306 -0.0788984
000090 f6 11 08 bd ea 80 12 3e ca 16 34 3e 50 4a 1c 3e
       -0.033220254 0.1430699 0.17586818 0.15262723
0000a0 1c 86 c2 be 75 3d 79 3d 18 e6 07 3e e2 55 8d 3e
       -0.37992942 0.060849626 0.13271368 0.27604586
0000b0 f8 7e 3a be c3 e5 84 3d b7 f9 f4 bd 98 97 bd 3c
       -0.18212497 0.06489136 -0.11961692 0.023143575
0000c0 66 87 3a 3e 34 a9 4e 3e a3 f0 66 3e 4d d4 16 3e
       0.18215713 0.20181733 0.22552733 0.14729424
0000d0 17 13 98 3d a9 a6 6a 3c bf 13 a3 bd cd a6 de 3d
       0.07425516 0.014321961 -0.07962751 0.108716585
0000e0 cd ba 1b 3e a2 8d bd bd 88 32 6d be 29 1b 53 3b
       0.15207978 -0.0925553 -0.23163807 0.0032212234
0000f0 8d 4c 50 3b d9 38 38 3e dd 5f e4 bd 6c 48 ed bd
       0.003178391 0.17990436 -0.11151097 -0.11586079

pi.pi_net.4.weight f4 [256, 64]
000000 7b 29 85 be c9 05 a1 3e 7d 2b 86 3e 93 ca 97 be
       -0.2600821 0.31449726 0.26205054 -0.2964674
000010 98 9a be bd 7e 68 07 3f 81 68 c5 3e cc 4d 71 3e
       -0.0930683 0.5289382 0.38556293 0.23564833
000020 d1 d9 0c 3e 47 b3 3a 3e fe 69 9d bd 02 b8 c6 be
       0.13754965 0.18232451 -0.07686232 -0.38812262
000030 28 5e bc bd c2 41 99 be 47 c9 96 be 09 4c 17 3e
       -0.091976464 -0.29932982 -0.29450437 0.14775099
000040 52 07 6f be 1c 0b 4b bd 2b 58 91 3e 25 fb dd 3e
       -0.23342636 -0.04957114 0.2838758 0.4335567
000050 27 6e 4b be b1 a5 21 bd 1c a6 ff bd 7f 0f 22 be
       -0.19866239 -0.039464656 -0.12482855 -0.15826224
000060 e2 80 87 be 7d 4e a4 be 86 f4 90 be 5e 80 99 3e
       -0.26465517 -0.32091132 -0.28311557 0.2998075
000070 06 59 8f be 0e 97 fc bd 90 0c 90 3b 5a 99 a3 3e
       -0.27997607 -0.12333499 0.004396029 0.31952935
000080 38 a2 6c 3e 49 81 17 bf 3e e9 97 be 89 16 29 be
       0.23108757 -0.5918165 -0.29670137 -0.16512503
000090 f5 f3 f5 be 16 e3 c2 bd 23 5a f6 3d 8e 00 b2 3d
       -0.48037687 -0.095159695 0.12028911 0.08691512
0000a0 94 99 0f 3d d6 84 8e 3e 5c 59 54 3e 23 04 dc 3e
       0.035058573 0.2783572 0.20737213 0.42971906
0000b0 94 15 e2 3d 3b cf 2d bf 1e e6 02 3e b8 07 3d 3d
       0.11039272 -0.67894334 0.12783095 0.04614994
0000c0 8c 02 73 be 9d 0b 19 bd 38 a1 b9 3e d4 61 8c be
       -0.2373144 -0.03736459 0.36255813 -0.27418387
0000d0 95 b4 89 be 6a bb d6 3e ba 8b c7 be 4d 83 13 ba
       -0.26895586 0.4193986 -0.3897379 -0.00056271703
0000e0 6b 55 89 3e 5a 4a c0 3e 28 8b 5d be 8f cc 46 3e
       0.2682298 0.37556726 -0.21635115 0.1941397
0000f0 a7 88 65 be aa c8 3a bd 7a ae 03 3e f3 46 1f 3e
       -0.2241541 -0.045601524 0.12859526 0.15554409
000100 23 16 97 bd b6 76 80 3e 44 3e 0e 3e cf ce 1c be
       -0.07377269 0.2509057 0.1389094 -0.15313266
000110 2b bb 04 bd 2b 37 ea 3e 51 d8 16 3f 97 d0 9c bd
       -0.03240506 0.45745215 0.5892382 -0.07656973
000120 a6 a4 c4 bd 11 ba d6 bc d8 26 ad 3e e1 06 d8 be
       -0.09601717 -0.02621177 0.33818698 -0.42192748
000130 34 54 52 be 9e 12 c0 bd b7 3e 0a be 97 be 2f be
       -0.20539933 -0.09378551 -0.13500486 -0.17162548
000140 95 4a ac be fd 02 7e be a1 a3 f7 3d 69 d8 eb 3e
       -0.33650652 -0.24805827 0.120917566 0.46063545
000150 b2 4f b0 bd d2 48 3f 3e 26 ce 64 3c 91 67 69 3d
       -0.08608951 0.18680122 0.013965165 0.056983534
000160 af e8 86 be 0f d1 f6 be 9b 3f 3d be f9 44 98 3e
       -0.26349398 -0.48206374 -0.18481295 0.29740122
000170 16 95 ce be 29 bd d3 bd 17 b5 26 bd b6 04 ab 3e
       -0.4034812 -0.10338814 -0.040700044 0.33402032
000180 64 a1 ac 3c c8 02 ec be 30 f2 69 be 87 a2 aa be
       0.02107305 -0.46095872 -0.22846293 -0.33327124
000190 39 06 19 bf 36 ee 7c 3e a5 d2 69 3e 23 fb 02 3e
       -0.5977512 0.24700245 0.22834261 0.12791114
0001a0 99 b7 7a be bb 7c 45 3e b4 7c 16 3e d2 5e df 3e
       -0.244841 0.19285862 0.14696008 0.4362703
0001b0 64 76 0f be b2 cd d4 be c1 cc f8 bd f9 9e 70 3e
       -0.14010006 -0.41563183 -0.12148429 0.23498143
0001c0 19 e6 d0 bd ff f0 ba bd 3d 70 4b 3e ef b5 da be
       -0.10200138 -0.091279976 0.19867034 -0.4271693
0001d0 d3 c0 af bd 3d ed 3d 3e f1 82 1a be 45 31 79 3e
       -0.085817 0.1854753 -0.15089013 0.24335201
0001e0 2e 05 f6 3d 6e ef b8 3e 35 0d af be 41 ba 72 3e
       0.12012707 0.3612017 -0.34189764 0.23703863
0001f0 68 7d 3f be a3 f2 82 3e ee 76 03 be 2f 05 1e 3e
       -0.18700182 0.25575742 -0.12838337 0.15431665
000200 6e 49 90 be b6 cc 05 3f a5 7e a9 3e 9d a4 04 bf
       -0.28181022 0.5226549 0.33104435 -0.5181368
000210 85 af 2d be 66 d4 91 3e 1c 51 bd 3e c6 ed 49 3e
       -0.16961487 0.2848236 0.36975944 0.1971961
000220 22 a2 9a bc 2f 71 67 be 1f 50 99 3d 5b 06 76 be
       -0.01887614 -0.2260177 0.07485985 -0.24025862
000230 5f 4e 5a 3b 3a 71 4f bd 54 7b 1a be fa e9 c7 be
       0.0033310873 -0.05064509 -0.15086108 -0.39045697
000240 0d 2a 15 bf 1d 9e 1d be 11 28 e2 3e eb c6 ca 3e
       -0.5826729 -0.15392347 0.44171193 0.39604887
000250 01 8a 2f be 50 d1 ee 3e 39 6f 43 3d c3 5a 65 3d
       -0.17142488 0.46644068 0.047713492 0.05599476
000260 26 00 cd be 9c 33 0a bf 1d cd bd be 20 bc f5 3e
       -0.40039176 -0.53985 -0.37070552 0.4799509
000270 d9 a5 71 be 60 c0 80 be 5c 3d 09 3c 11 f2 23 3f
       -0.23598422 -0.2514677 0.008376446 0.6404124
000280 5c 0e e1 3e eb cc 10 bf f6 de 56 be c9 3e af 3a
       0.43956268 -0.5656268 -0.2098349 0.0013370152
000290 00 10 87 be f9 e4 91 3e 89 e5 be 3d 3a 5b 1a 3d
       -0.26379395 0.28495005 0.09321124 0.037684657
0002a0 f7 72 1b be ff 81 80 3e 34 80 a8 3e d4 fa c8 3d
       -0.15180574 0.2509918 0.3291031 0.09813467
0002b0 1d 4c a7 be 7f 86 0b bf 35 02 bc be 70 81 12 3f
       -0.32675257 -0.545021 -0.36720434 0.57228756
0002c0 63 46 31 3d 88 55 30 3d 44 9c 2d 3e 9f 2f d9 be
       0.043280017 0.04305032 0.16954142 -0.42419145
0002d0 9c ae ea 3c 01 f2 4a 3e b8 5d b0 be 77 bf 22 3e
       0.028647713 0.1981888 -0.34446502 0.1589335
0002e0 b8 2e 60 be 2f c5 fd 3d 1a 1c 55 be 7d cf 20 3f
       -0.21892822 0.123911254 -0.20811501 0.628166
0002f0 50 d5 55 bd 9a ad 05 3e 8c 98 1f be 9c 66 94 3e
       -0.052205384 0.13054505 -0.15585536 0.28984535
000300 75 dd dc be 30 c3 9b 3d c9 2a bb 3e f3 63 b6 be
       -0.43137708 0.076055884 0.3655608 -0.3562313
000310 75 53 c4 be c5 26 88 3e f7 bc a0 3e 07 00 80 3e
       -0.38344923 0.2659208 0.3139417 0.2500002
000320 b8 0d 43 be b2 3f b1 bc 1f 45 6c 3e 98 d8 18 bf
       -0.19048202 -0.021636818 0.23073243 -0.59705496
000330 00 a1 89 bc 1c 60 6f bd 7a e2 b6 be 25 13 30 3d
       -0.016800404 -0.058441266 -0.35719663 0.042987008
000340 1c d2 a3 be 62 cc f0 bd 1e c0 08 bd 06 ba 04 3f
       -0.31996238 -0.11757733 -0.033386342 0.5184635
000350 df 4e 88 be 92 19 b4 3e 42 fc 3f 3e ef aa 1d be
       -0.26622674 0.3517576 0.18748572 -0.15397237
000360 61 b2 c5 be ec ce 5e be 1a 2f e2 be 71 f8 cd 3e
       -0.38612655 -0.21758622 -0.4417656 0.40228608
000370 a4 d1 c8 be c7 e5 e0 3d d0 85 3b be 3e 07 da 3d
       -0.39222443 0.109813266 -0.18312764 0.106459126
000380 2c 2a 14 3f ce a2 66 be bd 86 ad be 16 78 0c bd
       0.5787685 -0.22523043 -0.3389186 -0.03429421
000390 96 df 93 be 82 cf 14 bc 81 f0 10 3e 2e 2b 7c 3e
       -0.2888152 -0.009082677 0.14154245 0.24625847
0003a0 f5 dd fb bd 28 b4 07 3e 87 6b 63 3e e6 71 1b 3e
       -0.12298194 0.13252318 0.22208987 0.15180168
0003b0 58 41 61 3d 5e c8 b7 be 62 de 6b 3e 14 25 9d 3e
       0.054993957 -0.35895056 0.23034051 0.3069235
0003c0 e3 79 f4 bd 71 3c 1f 3e 29 55 db 3e 03 6a f1 be
       -0.119373105 0.155504 0.4283841 -0.47151193
0003d0 22 40 98 be b2 98 8d 3e d5 d5 7e be 66 87 09 3f
       -0.2973643 0.2765556 -0.24886258 0.53722227
0003e0 24 51 10 3d a0 45 da 3d 2e 50 ff bd 9a e5 06 3f
       0.03523363 0.10657811 -0.12466465 0.52694094
0003f0 88 e3 cf be e0 a5 9d 3d f1 10 31 be fa ae 93 3e
       -0.4060328 0.07697654 -0.17291619 0.28844434

pi.pi_net.4.bias f4 [256]
000000 23 1e 1a 3e 95 aa 93 3e 47 f3 b0 3e 71 3a 4c 3e
       0.15050559 0.2884108 0.34560606 0.19944169
000010 33 94 7a 3e b3 42 93 3e f1 41 e7 3d 67 7d 81 3e
       0.24470596 0.28761825 0.11291874 0.25290987
000020 56 18 8e 3e 70 73 5e 3e 6a 0c 10 3e 51 43 67 3e
       0.27752942 0.21723723 0.14067236 0.22584273
000030 9e 22 ba 3e e4 75 93 3e 9c 57 9c 3e 2a ea 67 3e
       0.36354536 0.2880088 0.3053559 0.2264792
000040 4c d4 a2 3e 87 e5 80 3e 39 d7 9a 3e 2f b5 83 3e
       0.31802595 0.25175115 0.30242327 0.2572417
000050 1f dd 52 3e cb d3 62 3e 15 26 55 3e be 90 80 3e
       0.20592164 0.22151105 0.20815308 0.2511043
000060 c3 f4 72 3e 65 12 fd 3d 3f e3 92 3d b0 20 f4 3d
       0.23726182 0.12357024 0.0717225 0.11920297
000070 d0 86 13 3e c6 8d 76 3e a1 af 46 3e 88 8d 5f 3e
       0.14406896 0.2407752 0.19402935 0.21831334
000080 de a4 89 3e 85 b5 7c 3e b5 2c 52 3e 79 8b 4f 3e
       0.26883596 0.24678619 0.20524867 0.20268048
000090 d4 47 55 3e 2f 24 15 3e a2 c5 d1 3e a3 33 22 3d
       0.20828182 0.14564584 0.40971094 0.039600026
0000a0 b3 20 1b 3e b2 2c 51 3e 52 9a 4b 3e 27 aa 78 3e
       0.15149193 0.20427206 0.19883087 0.24283658
0000b0 13 29 cc 3d ef 88 8a 3e d5 6c 22 3e 99 b6 49 3e
       0.09968772 0.27057597 0.15861829 0.19698562
0000c0 43 dc ac 3e 0f 0d bb 3d dd a8 49 3e 0c ec 6a 3e
       0.33761796 0.0913335 0.19693322 0.22941607
0000d0 74 5d 80 3e 19 e4 59 3e 89 f8 33 3e 47 af 03 3e
       0.250713 0.21278419 0.17575277 0.12859832
0000e0 4a f2 9c bc 07 3e 26 3e a1 6c 2e 3e c9 74 70 3e
       -0.019158501 0.16234599 0.17033626 0.2348205
0000f0 17 16 58 3e bf 24 70 3e b8 20 28 3e 68 52 5b 3e
       0.21102177 0.23451518 0.16418731 0.21418154
000100 59 33 3c 3e be 69 57 3e 83 fe 31 3e 21 d3 8a 3e
       0.18378963 0.21036431 0.17382245 0.27114204
000110 ea 94 1e 3e 94 e8 72 3e 46 eb 7d 3e e0 95 6c 3e
       0.15486494 0.23721534 0.24796781 0.23104048
000120 09 31 09 3e 4c 32 4c 3e 62 fb 42 3e 9d 0e 8d 3e
       0.13397612 0.19941062 0.19041207 0.27550212
000130 cb 6f bb 3e 01 71 64 3e 55 25 61 3e 81 77 bc 3d
       0.3660873 0.22308733 0.21986897 0.09202481
000140 73 3c 5a 3e 43 04 ac 3e 1f 90 60 3e 45 99 2a 3e
       0.21312122 0.33597 0.21929978 0.1666003
000150 47 02 8d 3e 44 1b 7f 3e 1d 07 6a 3e b8 65 7b 3e
       0.275408 0.24912745 0.22854276 0.24550521
000160 2e e3 50 3e 6e 61 4e 3e 5d 4f 8c 3e 0f 9a 6a 3e
       0.20399162 0.20154354 0.274043 0.22910331
000170 74 9a 25 3e b2 7f 61 3e 97 79 85 3e e3 3d 37 3e
       0.161722 0.22021368 0.26069328 0.17894702
000180 d6 e4 87 3e 69 83 7f 3e 1e 84 8a 3e 2d c4 1a 3e
       0.26541775 0.24952473 0.27053922 0.15113898
000190 9c 91 0e 3e 19 94 6e 3e f4 70 c2 3c 25 81 67 3e
       0.13922733 0.23298682 0.0237355 0.22607858
0001a0 04 07 e7 3d 1a 81 71 3e 32 6e 46 3e a3 07 8d 3e
       0.11280635 0.23584405 0.19377974 0.2754489
0001b0 c0 1f 7d 3e 09 2d 00 3e 8f 80 81 3e 20 b6 1c 3e
       0.24719143 0.1251718 0.25293395 0.1530385
0001c0 2e 56 4c 3e 12 c9 67 3e d4 25 2e 3e c1 3d 7c 3e
       0.1995475 0.22635296 0.17006618 0.24632932
0001d0 b8 d1 f5 3d cd 57 05 3e 61 b8 b3 3e c4 33 ea 3d
       0.12002891 0.13021775 0.35101607 0.11435655
0001e0 71 b9 49 3e 81 76 1d 3e fb 86 9a 3e 49 5a 00 3e
       0.19699647 0.15377237 0.30181107 0.12534441
0001f0 6f db 21 3e c1 a7 52 3e 14 eb b8 3d a2 66 58 3e
       0.15806364 0.20571806 0.090292126 0.21132901
000200 1c ba 04 3e 19 2f 57 3e 1c 7f a8 3e 56 92 67 3e
       0.1296162 0.2101406 0.32909477 0.22614416
000210 b9 3e 94 3e 3e 0d 21 3e ed a0 b0 3d 29 8a a5 3e
       0.28954104 0.15727708 0.08624444 0.3233197
000220 89 4a 24 3e fb b2 91 3e b8 92 87 3e 25 65 86 3e
       0.16044058 0.28456864 0.26479125 0.26249042
000230 48 47 dc 3d 09 d5 65 3e 15 76 2a 3e cc 1c 63 3e
       0.10755783 0.22444548 0.16646607 0.22178954
000240 26 91 80 3e 90 e7 27 3e f0 a7 21 3e 9a 53 86 3e
       0.2511074 0.16396928 0.1578672 0.26235658
000250 0b 7a 24 3e cc 53 5e 3e 5e 9f 90 3e 35 91 67 3e
       0.1606218 0.21711653 0.28246588 0.22613986
000260 1a d0 58 3e 23 0f 2c 3e 97 a9 8c 3e 82 ed 92 3e
       0.21173134 0.16802649 0.27473137 0.2869683
000270 30 25 60 3e b0 1d 9d 3e ad 12 96 3e 48 60 72 3e
       0.21889186 0.30686712 0.29311123 0.23669541
000280 27 51 fd 3d 58 6d 68 3e 3f 82 60 3e 6f 80 33 3e
       0.12368994 0.22697961 0.21924685 0.17529462
000290 3a 60 8b 3e b2 b1 8a 3e 60 86 83 3e 8f 97 2f 3e
       0.27221853 0.27088696 0.25688457 0.17147659
0002a0 07 35 2f 3e 0a 92 6a 3e 6e 53 04 3e 1e 60 5f 3e
       0.17110072 0.22907272 0.12922451 0.2181401
0002b0 2a 62 70 3e 7e a4 3e 3e ec a0 5f 3e 4b df 8e 3e
       0.23474947 0.18617436 0.2183873 0.27904734
0002c0 4e 2a e9 3d d7 82 61 3e db 93 39 3e a0 4e 47 3e
       0.11385022 0.22022568 0.18122809 0.19463587
0002d0 16 63 f4 3d ff a5 56 3e d6 03 56 3e d2 3b 44 3e
       0.11932962 0.2096176 0.20899901 0.19163445
0002e0 bb b6 89 3e 30 7c 84 3d cf 57 5b 3e 5f d3 18 3e
       0.26897225 0.064689994 0.21420215 0.14924382
0002f0 62 8f 02 3e a5 dc 84 3e 34 29 9d 3e 11 c0 10 3e
       0.12750009 0.25949588 0.30695498 0.14135768
000300 a5 6f 8e 3e ee b2 38 3e 74 54 4d 3e bd 1d 89 3e
       0.27819553 0.18037006 0.20051748 0.267805
000310 43 6c 30 3e 6f 45 6c 3e 11 92 1c 3e a2 ba 81 3e
       0.17228799 0.23073362 0.15290095 0.25337702
000320 71 d4 95 3e 94 46 a4 3e a0 c3 72 3e 37 ef 74 3e
       0.29263642 0.32085097 0.23707438 0.23919378
000330 64 21 53 3e bb 5a 75 3e 41 86 68 3e c3 88 86 3e
       0.20618206 0.23960392 0.22707464 0.26276216
000340 cf ab 9f 3e 3a 8e 2e 3e 9b e2 e0 3d a0 b8 25 3e
       0.31185767 0.17046443 0.109807216 0.1618371
000350 f6 75 c7 3d 8b d6 3e 3e 95 da 81 3e 18 ab ae 3e
       0.09739296 0.18636529 0.25362077 0.3411491
000360 07 98 31 3e 4f d5 20 3e a8 67 6f 3e f0 4f 70 3e
       0.1734315 0.15706371 0.23379385 0.23467994
000370 7b d7 87 3e c6 a8 7e 3e f3 a9 18 3e cf a2 25 3e
       0.26531586 0.2486907 0.1490858 0.16175388
000380 12 49 71 3e a2 c7 30 3e a8 b8 82 3e 08 37 81 3e
       0.2356303 0.17263654 0.25531507 0.25237298
000390 f6 4d 1b 3e 62 df 92 3e ac 9f 2c 3e 3e 3e f7 3d
       0.15166458 0.28686053 0.16857785 0.12072419
0003a0 cb b9 3d 3e a4 05 45 3e c2 d6 c8 3d 10 b0 79 3e
       0.18527906 0.19240433 0.09806587 0.24383569
0003b0 14 e2 2c 3e a3 c9 83 3e 33 2d ce 3e 68 81 a7 3e
       0.16883117 0.25739774 0.4026886 0.32715917
0003c0 f9 3d b6 3d 4d 21 5c 3e 4a 90 71 3e a1 de 93 3e
       0.08898539 0.21497078 0.23590198 0.2888079
0003d0 b9 64 0a 3e 57 63 75 3e 65 d0 86 3e 94 ea 81 3e
       0.13514985 0.23963676 0.26330867 0.2537428
0003e0 5e c7 94 3e d7 85 32 3e 95 48 6f 3e fa 54 10 3e
       0.29058355 0.17433868 0.23367532 0.14094916
0003f0 c9 bd 10 3e 2f d6 42 3e a5 50 7e 3e b5 65 44 3e
       0.14134897 0.19027017 0.24835451 0.19179423

v.v_net.0.weight f4 [64, 5]
000000 d6 0c 22 3e 26 2f 9b be da a3 a7 bd 87 f6 25 3e
       0.15825209 -0.3030941 -0.08185549 0.16207324
000010 bc 63 f6 3d f0 49 a7 be d1 d5 85 3d 0f 56 17 3e
       0.120307416 -0.32673597 0.06534923 0.14778922
000020 2a 02 30 bd 5f f3 07 bf f7 ef 52 bf a5 ab 90 be
       -0.042970814 -0.5310573 -0.8239741 -0.28255954
000030 cb 3b df be 13 1b 44 3e ed e8 3f be 77 5e 26 bf
       -0.43600306 0.19150953 -0.18741198 -0.6498789
000040 11 4e 95 be 43 52 0f 3d 10 2c 5d 3d ed 8b 85 be
       -0.29161122 0.03499056 0.0539971 -0.26083317
000050 6b e1 1c 3f 97 50 95 3e 52 3d 11 be 73 73 ce 3e
       0.6128146 0.29163048 -0.14183548 0.40322456
000060 75 96 a2 be 55 3a 53 3e 86 a5 2a 3f 5c cd 80 3e
       -0.31755415 0.2062772 0.6665882 0.25156677
000070 9b 00 5a bd da a4 00 be 10 f4 a1 3e c5 3b d5 3e
       -0.053223234 -0.12562886 0.31631517 0.41647163
000080 c1 6c 81 3d 76 a3 05 3d d9 fb 0e be 5d df 38 3f
       0.06319571 0.03262659 -0.1396326 0.72215825
000090 80 74 41 3f 61 ea 35 3e 81 78 0e be 37 28 3d 3d
       0.7556839 0.1776519 -0.13913156 0.04618093
0000a0 59 80 50 bf 9d 61 31 bf f9 14 73 be 34 c2 bb 3e
       -0.81445843 -0.6928957 -0.23738469 0.36671603
0000b0 f1 89 b4 3d c5 03 85 bf 5d 42 08 bf 32 18 78 bd
       0.08815373 -1.0391775 -0.5322626 -0.06056995
0000c0 c5 d0 8e 3e c5 6f 86 bd f2 43 22 3f e7 86 24 3f
       0.27893654 -0.06564287 0.63384926 0.64268345
0000d0 9e 37 da 3c 8e f9 77 3e 7d 72 b5 3e 81 86 79 be
       0.026637848 0.24216291 0.3543891 -0.24367715
0000e0 00 23 32 bf 3e 0c 59 be 26 6a 85 3e d3 06 5a 3c
       -0.69584656 -0.21196076 0.26057547 0.013307291
0000f0 ee 2f 09 3f 61 f1 92 3e 31 91 38 3e 6a a9 61 3d
       0.5358876 0.28699782 0.18024136 0.055093206
000100 35 a4 40 be ba cb 76 bf cb 8e 52 bf a0 69 09 3e
       -0.1881264 -0.9640461 -0.82249135 0.13419199
000110 a7 6b 9b 3d c4 5d f9 3d 39 83 49 3f 4d 69 e1 3e
       0.075888924 0.121760875 0.78715855 0.4402565
000120 65 fb b0 3e d5 ff d1 bc de 84 60 be 45 5e 9b be
       0.345668 -0.025634686 -0.21925685 -0.3034536
000130 65 86 7e bf 1b 1a 4d 3e ff 59 81 3c 70 87 12 3e
       -0.9942382 0.2002949 0.015789984 0.14309478
000140 e7 ab 2a bf ee 35 b1 be ce 62 02 be bf a3 c3 be
       -0.6666855 -0.34611458 -0.12733003 -0.38210866
000150 7b eb fc bb ec 77 b6 3d 43 f3 b1 be 1c 4d b4 bd
       -0.007718501 0.08909592 -0.34755906 -0.0880377
000160 6e 5e 7d be c1 d7 9d be 73 e1 c2 3e 25 01 59 3e
       -0.24743053 -0.3082867 0.3806263 0.21191843
000170 01 df fb 3e 13 20 62 3d 81 53 ed 3d f1 e0 5d be
       0.49193576 0.05520637 0.11588193 -0.2166784
000180 d2 f8 60 bf 56 4a b5 3d 6d 7a 14 be 28 e1 9a 3d
       -0.8787967 0.08852069 -0.14499827 0.075624764
000190 90 c8 8e 3e 0a d0 ef bd 01 35 30 be 65 52 39 be
       0.27887392 -0.11709602 -0.1720772 -0.18097837
0001a0 4f 31 a4 3d 0a 86 f4 be e3 6b c1 be fd 04 e3 be
       0.08017217 -0.47758514 -0.37777624 -0.44339743
0001b0 f1 07 d3 bc 32 f5 b8 be d2 28 1c 3f 70 47 39 3e
       -0.025760623 -0.3612457 0.60999787 0.18093657
0001c0 8e bc 8a 3e 8d 97 81 be e1 ae d6 3e df bd 59 3f
       0.2709698 -0.25310937 0.41930297 0.85055345
0001d0 06 0f 12 3f d1 97 a9 bd e4 21 9f be 95 d8 cb 3e
       0.57054174 -0.0828091 -0.31080544 0.39813676
0001e0 ab 19 f1 be 43 15 48 3d 81 b5 b9 3c 40 e6 18 bf
       -0.47089896 0.0488484 0.022669556 -0.59726334
0001f0 59 0d 0e 3e e2 3f 91 be f5 bb 30 bf e4 f3 12 3e
       0.13872279 -0.2836905 -0.690368 0.1435085
000200 f5 61 9d 3e 5a 56 9d be cb 87 81 3f 42 c5 93 3d
       0.30738798 -0.30729944 1.0119566 0.07215358
000210 ce 6a 32 be c7 c5 6b 3c aa d2 8b 3e 6d 20 5a 3e
       -0.17423555 0.0143904155 0.2730916 0.21301432
000220 a9 8b 22 3f 1c 07 8d 3d 00 c9 8e be 5d 9c 79 bd
       0.63494354 0.06886122 -0.27887726 -0.060940135
000230 9a 33 b8 be 59 b6 16 bf 30 2e 7a 3e 34 e9 af 3c
       -0.3597687 -0.5887199 0.24431682 0.021473505
000240 05 63 5e be 76 80 d6 be 1e c5 f2 be 4b 73 4b be
       -0.2171746 -0.41894883 -0.47416013 -0.198682
000250 61 c3 69 3e ea 8b 27 3e 2d 43 b5 3e 4a 69 ea 3e
       0.22828437 0.16361967 0.35402814 0.45783454
000260 4a 3d 8d 3e 4f 4d 05 3e 0e 01 86 3e 66 87 16 3f
       0.27585822 0.13017772 0.2617268 0.5880035
000270 2c 1b 70 be 67 4b 8c 3d 31 71 df 3e 54 b1 c5 bd
       -0.23447865 0.06850319 0.43641046 -0.09652963
000280 d8 85 44 3f ba 47 22 3e 5f 5d 05 3e a4 89 aa 3d
       0.7676673 0.15847674 0.130239 0.08327034
000290 7b 20 51 3e 58 0c f2 3e 2d e5 07 3e 50 ab a1 3e
       0.20422547 0.47275043 0.13271017 0.31576014
0002a0 0a 64 54 bc 60 43 21 be da c3 33 bf 54 bd 3a bf
       -0.012963304 -0.15748358 -0.7022072 -0.7294514
0002b0 03 ca 07 3f f3 cd d1 3e d4 ee a7 be a8 8b 01 3f
       0.5304262 0.4097744 -0.327994 0.50603724
0002c0 cc 5a 6d 3e 81 a3 a0 bd d6 d4 dd 3d da 5c e3 3d
       0.23179168 -0.07843686 0.10831611 0.111016944
0002d0 80 b7 c6 be 97 47 e6 be 40 a6 84 bd b2 c5 11 3c
       -0.38811874 -0.44976494 -0.06477022 0.008897232
0002e0 96 97 af 3c 08 16 26 3f db f9 0a 3f ba fa fb be
       0.021434586 0.64877367 0.542875 -0.49214727
0002f0 22 c0 06 be 52 2d 0b 3f 9d 74 d9 3e 4b b0 51 3f
       -0.1315923 0.5436603 0.4247178 0.81909627
000300 ee 80 38 bd 74 ac 3a 3c cf 6b 9e bd ea 37 30 3f
       -0.045044832 0.011393655 -0.077354066 0.6883532
000310 cd e0 4a 3e 4d b1 e6 bd 30 ce a9 3c a7 08 47 3c
       0.19812317 -0.11264286 0.0207282 0.012148059
000320 79 c8 c6 3d 94 f5 42 be b2 96 2e bd 49 21 71 3d
       0.09706206 -0.19038993 -0.042624183 0.058869634
000330 33 f2 64 3e a5 d6 33 bf 6a fb ba be 9d e3 d5 be
       0.22358017 -0.70249397 -0.3651994 -0.41775218
000340 11 4c 70 3d 59 2e 14 bd 75 5d 8e 3e 90 6f 28 3f
       0.058666293 -0.036177013 0.27805677 0.6579523
000350 02 f4 a7 3e 9d f6 26 be 35 e3 ed 3d 2f 8f 42 3e
       0.3280335 -0.16305013 0.11615602 0.18999933
000360 30 d2 9d 3e 38 7a ee be a6 c7 ef 3e 69 6a 73 3e
       0.30824423 -0.4657762 0.46832007 0.23771061
000370 f3 69 b2 3d 7b df 53 bf 8f f8 08 3f 4d f5 bf be
       0.087116145 -0.8276288 0.5350427 -0.37491837
000380 fb 4a a9 bd ac 65 0d 3f f5 8d ea 3e 7f 0c 6c be
       -0.082662545 0.55233264 0.4581143 -0.23051642
000390 7f 7e d7 be 7b b8 20 3f 82 e1 a9 3e c4 bc fb 3e
       -0.42088696 0.62781495 0.3317986 0.49167454
0003a0 f7 05 db 3e da cc 7b bd 97 08 ed bd 96 c6 39 3f
       0.42777988 -0.06147466 -0.11573904 0.72568643
0003b0 5b 1d 37 3f fc 5a 51 be cb 19 7f 3e 59 da 0d be
       0.7152917 -0.20444864 0.24912183 -0.13852824
0003c0 10 72 10 bf 1b dd 0f bf 76 9d 95 3d eb ca a3 bd
       -0.56424046 -0.56196755 0.07305424 -0.07997688
0003d0 11 a3 d9 3d 5d 18 fe 3e 0a 65 60 3f 33 c6 a5 3d
       0.106268056 0.49627963 0.87654173 0.08094444
0003e0 d1 a2 36 3e 11 6a 2b bf d2 83 e0 be f0 49 14 bf
       0.17835547 -0.6695872 -0.4385057 -0.5792532
0003f0 3d 59 b0 bd 37 d5 66 bd 77 36 4b 3e 68 49 03 3f
       -0.08610771 -0.05635568 0.19844995 0.51283884

v.v_net.0.bias f4 [64]
000000 55 2b d6 be 53 5b cc be 21 bc d9 be ff 91 cb be
       -0.41829935 -0.39913425 -0.42526343 -0.39759824
000010 13 f8 e3 3e 6f bd f5 3e 73 ec fd 3e 1c 5a d2 3e
       0.44525203 0.4799609 0.4959446 0.41084373
000020 24 c2 d6 be 96 75 d1 be f3 52 d5 3e 15 ba c3 be
       -0.41944993 -0.40910023 0.41664848 -0.38227907
000030 15 5b e7 3e 0c 6c 05 bf 92 98 e3 3e e2 66 0b bf
       0.45186678 -0.5211799 0.4445234 -0.5445386
000040 ba 64 de be f0 1b b9 be 8c 87 c4 3e 4b d2 e1 be
       -0.43436223 -0.36154127 0.38384664 -0.44105753
000050 1d 58 9f 3e 03 40 c8 be 56 b4 ce 3e 8d 7c ed 3e
       0.31121913 -0.39111337 0.4037196 0.46384087
000060 01 30 bc be a8 5c f1 be 77 a7 08 3f 91 ef f1 3e
       -0.36755374 -0.47141004 0.5338053 0.47253087
000070 77 eb a1 be 0d a8 e4 be 72 05 de 3e 15 06 9e 3e
       -0.31624958 -0.44659463 0.4336353 0.30864015
000080 ae 0a d3 3e 39 32 f4 3e fd c5 0e bf ba 1f f6 3e
       0.41219085 0.47694567 -0.55770856 0.4807108
000090 f5 de e8 be 59 1d f0 3e c2 c5 f1 3e bb 60 fc 3e
       -0.45482603 0.4689739 0.4722119 0.4929255
0000a0 b4 4d b0 be b3 13 e6 be 42 54 e0 3e d3 c2 e5 3e
       -0.34434283 -0.44936904 0.43814284 0.44875202
0000b0 4e 29 df be 9f 0b e7 3e c4 a3 cf 3e cb 33 eb 3e
       -0.435862 0.45126054 0.4055463 0.45937952
0000c0 c7 3a fa be 40 2e 02 3f 72 0e fc be 82 75 eb 3e
       -0.4887297 0.5085182 -0.4922977 0.4598809
0000d0 50 79 e4 3e 9b ee 15 bf 51 6c cd be 80 e7 67 3e
       0.44623804 -0.5856721 -0.401217 0.22646904
0000e0 97 27 eb 3e b5 ea 00 bf 99 b0 af 3e 04 f9 cf be
       0.45928642 -0.50358135 0.3431442 -0.4061967
0000f0 8d cc c9 be 19 63 e4 be 38 b1 fa 3e 92 bc c2 3e
       -0.39413872 -0.44606856 0.48963332 0.38034493

v.v_net.2.weight f4 [64, 64]
000000 67 25 9b 3e 61 81 a8 b9 c6 5d 07 3f 70 e0 b4 3e
       0.30301973 -0.00032139852 0.5287746 0.35327482
000010 39 8c c1 be d2 04 00 bf 73 bc 1f bf f9 4a ab be
       -0.37802294 -0.50007355 -0.62396926 -0.33455637
000020 e4 72 d6 3e 91 4f 33 3e ae 15 c5 be 86 ac 1b 3d
       0.4188453 0.17510821 -0.38493103 0.038006328
000030 d9 9f 41 bf 90 98 17 3f a0 a9 8c be 40 fc 76 3e
       -0.75634533 0.59217167 -0.27473164 0.24119663
000040 64 fa 10 bc 70 cd 85 3d 5a cf 4d 3d 72 41 39 3e
       -0.00884876 0.06533325 0.050246574 0.18091372
000050 30 63 c1 be 6b 22 a6 3e fd 82 bb bd 04 2c b9 be
       -0.37770987 0.32448134 -0.091558434 -0.36166394
000060 24 2d 8f 3e e1 4f 07 3f 25 a2 ff be 3f cc de be
       0.27964127 0.5285626 -0.49928394 -0.43515202
000070 a5 d4 17 3f 40 57 62 3e 10 2a 83 be bd 82 c2 be
       0.59308845 0.22103596 -0.2561803 -0.3799037
000080 56 f0 f6 be 1e ca 1c bf 42 7c a6 bd 97 64 17 be
       -0.48230237 -0.61245906 -0.08129169 -0.14784466
000090 f1 c0 07 3e 60 8e b4 be e4 f0 c3 be 97 a1 bf be
       0.13257195 -0.35264874 -0.38269722 -0.3742797
0000a0 13 70 63 3e 2d 74 95 3e 3e 55 1b bf e5 4d 7e bd
       0.22210722 0.29190198 -0.60676944 -0.062086005
0000b0 03 49 21 3e d1 c2 a4 be af bf 29 bd 2c a9 2f bf
       0.15750508 -0.32179883 -0.04144257 -0.6861751
0000c0 15 60 93 3e dc 7e ca bd 9f ca d2 3d 91 a1 b6 be
       0.28784242 -0.09887478 0.10292553 -0.3567014
0000d0 e6 25 05 be c8 00 03 3f 3d 48 24 3e a4 9d 80 3c
       -0.13002738 0.5117307 0.16043182 0.015700169
0000e0 9b b4 00 bf d1 1c 47 3e 41 c1 a1 be c2 81 c4 3e
       -0.5027558 0.19444586 -0.31592754 0.38380247
0000f0 4c b9 9d 3e 59 16 7c 3e ed 05 49 bd 3c a8 53 be
       0.30805433 0.246179 -0.049077917 -0.20669645
000100 c7 63 4b 3e 8f 32 ab 3e fb 46 27 bc 49 6c 29 3f
       0.19862281 0.3343701 -0.010209794 0.66180855
000110 aa 83 e5 be 22 10 ff be ab ae 3f be a5 0e 24 bf
       -0.44827014 -0.49816996 -0.18718974 -0.64084846
000120 22 70 16 3f df a2 c1 3e 91 4c 9c be 9e 55 81 3e
       0.5876485 0.37819573 -0.30527166 0.25260633
000130 f0 2a e7 be 53 4c df 3d 36 ff ee be ed c2 af 3e
       -0.45149946 0.109032296 -0.46679085 0.34328404
000140 14 86 3f be 36 56 da 3d 19 b7 89 be f1 47 1b 3f
       -0.1870349 0.10660975 -0.26897505 0.6065665
000150 bc 21 0a 3e 0c a1 5d be 7b 35 8a be fa df 74 be
       0.13489431 -0.21643466 -0.26993927 -0.23913565
000160 ee 75 c5 3e 54 be 9c 3e 76 b2 8f be d6 86 fc be
       0.38566536 0.3061396 -0.28065842 -0.49321622
000170 ea f7 ba ba b4 58 75 3e 35 2d 5b bc d0 9b 48 be
       -0.0014264558 0.23959619 -0.013377477 -0.19590688
000180 f6 3b ca be e5 91 ac be d5 85 bc 3e cb 6d 50 bf
       -0.39498872 -0.3370506 0.36820856 -0.8141753
000190 42 68 57 3e 82 9e 56 bf cc dc ae be 5d 53 02 bf
       0.21035865 -0.83835614 -0.3415283 -0.5090845
0001a0 96 b7 ed be 1d ca 07 3f ec cf e3 be c6 4e 2c be
       -0.46429127 0.53042775 -0.4449457 -0.16826925
0001b0 6b 27 89 3e 54 12 7a be 11 0d db be 16 2f a8 be
       0.26787886 -0.24421054 -0.42783406 -0.32848424
0001c0 f7 3a 2d 3e 3c a3 0c bf 5e 07 83 3e 6c d4 50 bb
       0.16917025 -0.54936576 0.25591558 -0.0031864895
0001d0 da a1 72 be 7a a4 03 3e 28 9a 1e 3e 5d ad 06 be
       -0.23694554 0.12855712 0.15488493 -0.1315207
0001e0 cd fc 39 be 6b 5c e5 3e ba 8b 97 be 35 d4 0f 3f
       -0.18162842 0.44797072 -0.2959879 0.5618318
0001f0 37 55 30 3e 48 3c 09 3f 51 1b b5 be 93 28 a8 be
       0.17220007 0.53607607 -0.35372403 -0.32843456
000200 6c 0a 1b 3e 1b 61 2c 3f 81 ad dc bc 4f d5 df 3d
       0.15140694 0.6733567 -0.026938202 0.10929357
000210 bd 4f 26 bf cc 78 19 be 82 9d 11 bf 10 b5 80 be
       -0.6496542 -0.14987487 -0.5688096 -0.2513814
000220 a8 b6 22 3d 1e 06 a6 3e 0a 1c 9f bd f1 42 d5 3e
       0.039724976 0.32426542 -0.0776902 0.41652635
000230 1f e4 b5 be 46 b1 83 3e 4a 09 1d 3e 0f 10 02 3e
       -0.35525605 0.25721186 0.15335575 0.12701438
000240 24 2e 50 3f 0f d6 9e 3c 39 d1 92 bd 79 48 63 3f
       0.81320405 0.01938918 -0.07168812 0.8878246
000250 51 ca a0 bd d0 06 da 3e 0c 94 e2 be 90 c7 a7 be
       -0.07851089 0.42583323 -0.44253576 -0.32769442
000260 be 42 bc 3e 6d 85 ff 3e cb fb f9 be db 1b 03 bf
       0.3676967 0.49906483 -0.48824915 -0.5121438
000270 97 15 0c 3e e9 e9 e5 3e bb 13 9e be 4d a0 38 bd
       0.13680111 0.44905022 -0.30874428 -0.04507475
000280 4e 32 c3 be 80 2d cc be 02 3f ce 3d ac 1e 66 be
       -0.38124317 -0.39878464 0.100706115 -0.22472638
000290 16 70 00 3f 7e 91 a4 bd f5 9b cd be d8 63 0d bf
       0.5017103 -0.08035563 -0.40158048 -0.55230474
0002a0 8d b2 0b bd ee 65 aa be 5c 1d c4 be 09 64 53 be
       -0.034105826 -0.3328089 -0.3830365 -0.20643629
0002b0 f5 b6 37 3e eb 23 2c be ec ec 9a be a2 11 bc be
       0.17940886 -0.16810577 -0.30258882 -0.36732203
0002c0 24 ae c3 3e 49 4d 1e bf e6 c1 19 3f 63 f0 61 bf
       0.38218796 -0.6183668 0.6006149 -0.88257426
0002d0 3b d3 b1 be 0b ef 58 3e da 5c 6e 3e 2b 01 37 bd
       -0.3473147 0.21184938 0.23277608 -0.04467885
0002e0 29 9d b2 bb 6d c3 9c 3e f2 46 09 be 5e ca 84 3e
       -0.005450864 0.30617848 -0.1340597 0.25935644
0002f0 f0 d0 1e 3e 12 81 13 3f ea 61 fe be ea f0 91 bc
       0.15509391 0.5761882 -0.49684078 -0.017815072
000300 1a e6 97 3e 7a 33 51 be fe 79 9a 3e dc 16 5c 3d
       0.2966774 -0.20429793 0.30171198 0.053732738
000310 96 77 1a bf 15 ed e3 be 3b b4 75 be e5 1d b4 bd
       -0.60338724 -0.44516817 -0.23994534 -0.087947644
000320 b2 cc 3b 3f e2 65 97 3e 1b 0d cd be a6 4d f4 3e
       0.73359215 0.29569918 -0.4004906 0.4771549
000330 4a fa 00 bf 6a 49 02 3f 5e 61 3e be 4b 3e 3e 3f
       -0.5038191 0.5089327 -0.1859183 0.743138
000340 e2 57 5e bd 1c 39 6d 3e 1c 9f 00 bf d1 9c a0 bd
       -0.05428303 0.23166317 -0.5024278 -0.0784241
000350 07 9c a6 be cb 58 bb 3e 9e 1b 82 be 56 3a 72 be
       -0.32540914 0.3659118 -0.25411695 -0.23655066
000360 4e a6 ff 3e 7a 0e 7b 3e 6a 64 fc be e3 86 c9 be
       0.49931568 0.24517241 -0.4929536 -0.39360723
000370 45 b5 62 3e 02 05 b7 3e c7 4c 75 be 29 1e b7 be
       0.22139461 0.35746008 -0.2395507 -0.35765198
000380 3a c7 b7 bd 62 ac a8 be 0c df a3 3e 6c 3a a8 be
       -0.08973546 -0.32944018 0.3200611 -0.32857072
000390 ff 8e fc 3e be db 20 bf 96 47 2e be 66 7d 53 be
       0.49327847 -0.628353 -0.17019495 -0.20653304
0003a0 cc 2e 45 3e 18 79 79 3e 49 7e 17 be cb b7 df be
       0.19256133 0.243626 -0.14794268 -0.4369491
0003b0 9b 6c af 3e e7 2b d7 bb 7f 31 24 be d6 ce 8a bd
       0.34262547 -0.006566513 -0.16034506 -0.06777732
0003c0 6a 22 0a 3f 35 83 8a be b0 c1 8f 3e 5e 3c 14 be
       0.5395876 -0.27053228 0.2807746 -0.14476153
0003d0 b2 b4 c0 be bc cf f8 3e 1d 30 ba 3e fc 32 3b bf
       -0.3763786 0.4859599 0.36364833 -0.7312467
0003e0 d2 41 ba be c5 56 ce 3d d7 55 7b be da 83 2e 3e
       -0.36378342 0.10075144 -0.24544464 0.17042485
0003f0 18 a1 89 3e 4f 11 8c 3e 39 7f 49 be 28 4e 85 be
       0.26880717 0.27356955 -0.19677438 -0.2603619

v.v_net.2.bias f4 [64]
000000 98 48 99 be c7 2a 57 be af 2b 9d be 24 48 a2 be
       -0.29938197 -0.21012412 -0.3069739 -0.31695664
000010 bb 8c 89 be 96 c9 9e be 04 3c 90 3e e2 3d 71 be
       -0.2686518 -0.31013173 0.28170788 -0.23558763
000020 ce a5 94 be 62 9d 8a 3e 18 28 7c be d7 60 60 be
       -0.2903275 0.270732 -0.2462467 -0.21911941
000030 0a 42 60 3e a5 68 84 3e 1a 74 8e be f7 1f 76 3e
       0.21900192 0.25861087 -0.27822953 0.24035631
000040 4a 12 84 be 60 83 8d 3e 0e cb 72 3e 71 95 8c be
       -0.25795203 0.27639294 0.23710272 -0.27457765
000050 ca 4e 77 3e d1 39 72 be cf b0 9b be ea b9 84 be
       0.2415115 -0.23654868 -0.30408332 -0.2592309
000060 3e 21 70 be 68 c2 8b be 08 55 a5 3e 22 14 83 be
       -0.23450181 -0.27296758 0.32291436 -0.25601298
000070 f3 41 85 3e 0d 8a 8f 3e 77 3e 82 3e ec 52 73 be
       0.26026878 0.28035012 0.25438282 -0.23762101
000080 b4 4d 72 3e f5 80 5f 3e 62 bb 75 3e 53 0b 7c be
       0.23662454 0.21826537 0.23997262 -0.24613695
000090 99 a0 82 3e 24 08 97 3e 52 c6 9a be a5 f6 91 be
       0.2551315 0.29498398 -0.3022943 -0.28508487
0000a0 a0 0f 5f be 48 45 91 be b6 6b a9 3e b8 d8 86 be
       -0.21783304 -0.2837317 0.3308999 -0.26337218
0000b0 b6 8d 75 3e f5 28 93 be 67 df 7e 3e 6d 10 8c 3e
       0.2397984 -0.28742185 0.24889909 0.27356282
0000c0 c6 8f 8b be 05 3e 8d be fe 3f 9f 3e 48 9b 8c be
       -0.27258128 -0.2758638 0.3110351 -0.2746222
0000d0 be 20 80 be fc 2f 89 be fa 3e 8d 3e 7c c7 4e 3e
       -0.2502498 -0.26794422 0.2758711 0.20193285
0000e0 8d 62 9c be df bc 90 3e 3b 6f 8f be 80 1c 8d 3e
       -0.30543938 0.28269097 -0.2801455 0.27560806
0000f0 43 85 94 be 6a c3 98 be 74 15 7a 3e 71 0f 5f 3e
       -0.2900792 -0.2983659 0.24422246 0.21783234

v.v_net.4.weight f4 [1, 64]
000000 a9 6f 54 40 e7 78 7e 40 79 3c 4b 40 a5 25 43 40
       3.3193152 3.9761293 3.175566 3.0491726
000010 23 82 43 40 30 cc 4b 40 e5 a6 46 c0 17 79 4b 40
       3.054818 3.1843376 -3.1039364 3.1792657
000020 05 7e 46 40 e1 46 40 c0 16 f3 52 40 ff 8c 50 40
       3.1014416 -3.004326 3.2960868 3.2586057
000030 fa ac 6b c0 c2 97 57 c0 9f 9d 50 40 8a 1c 50 c0
       -3.6824327 -3.3686376 3.2596204 -3.251742
000040 e7 9d 56 40 78 10 5d c0 82 2b 63 c0 aa c8 54 40
       3.3533876 -3.4541302 -3.5495305 3.3247476
000050 61 e5 4f c0 48 4a 5a 40 dd 01 44 40 46 ec 3e 40
       -3.2483752 3.4107838 3.0626137 2.983171
000060 cc 13 5b 40 12 98 4c 40 88 b7 49 c0 42 65 5a 40
       3.4230833 3.1967816 -3.1518269 3.4124303
000070 75 f3 43 c0 8b 3f 59 c0 0c 5c 63 c0 75 60 45 40
       -3.0617344 -3.3945034 -3.552493 3.0840123
000080 16 70 55 c0 f3 f2 55 c0 25 5a 54 c0 99 bf 53 40
       -3.3349662 -3.3429534 -3.318002 3.3085692
000090 d2 7b 5d c0 f7 9d 45 c0 0e 1f 4e 40 c9 e2 50 40
       -3.4606824 -3.0877664 3.2206454 3.2638419
0000a0 21 9b 4d 40 33 9b 48 40 91 e5 3f c0 09 32 53 40
       3.2125933 3.1344726 -2.9983866 3.299929
0000b0 ae 6e 5d c0 4f 8d 4c 40 3b ba 46 c0 b5 27 4e c0
       -3.4598804 3.1961248 -3.1051166 -3.2211735
0000c0 b7 21 40 40 e9 f9 47 40 6e 62 4f c0 87 10 5a 40
       3.0020578 3.1246283 -3.2403827 3.4072587
0000d0 a9 81 40 40 f3 65 46 40 87 f6 40 c0 fd 37 59 c0
       3.0079138 3.0999725 -3.0150468 -3.3940423
0000e0 73 9a 4a 40 2e 13 59 c0 76 8d 51 40 d3 52 54 c0
       3.1656768 -3.3917956 3.274259 -3.3175552
0000f0 60 8b 4c 40 33 3f 57 40 07 fe 5e c0 33 f6 63 c0
       3.1960068 3.3632324 -3.4842546 -3.5619018
