tmp/experiments/RN0 False,True,True/pyt_network_save/model save90000.pt (torch_old, 314943 bytes, 33 tensors)

pi.pi_net.0.weight f4 [64, 5]
0	0x3c6f0bdd	0.014590231
1	0xbe908dec	-0.28233278
2	0x3dc2ba1b	0.09508153
3	0xbd5e4208	-0.05426219
4	0x3e619032	0.22027662
5	0x3f1c6839	0.6109653
6	0xbf1df79b	-0.6170594
7	0x3f10521c	0.5637529
8	0xbe8c6e53	-0.2742792
9	0x3f01f099	0.5075775
10	0x3e2fa06b	0.17151038
11	0x3f1212d4	0.5705998
12	0x3d27c945	0.04096343
13	0xbcde24c2	-0.027117137
14	0x3e711609	0.23543562
15	0xbeaf1902	-0.34198767
16	0xbe7ff02c	-0.24993962
17	0xbe9fde77	-0.31224415
18	0x3df82ac0	0.12117529
19	0x3f0c2d9c	0.54757094
20	0xbf03e8fa	-0.5152737
21	0xbf572c8e	-0.8405236
22	0xbf947371	-1.159773
23	0xbe54bdb9	-0.20775498
24	0xbf8378ab	-1.02712
25	0xbe7c10d2	-0.24615791
26	0x3f0d0e11	0.5509959
27	0xbbbd86bd	-0.0057838843
28	0xbdd647f8	-0.10462946
29	0xbef86f65	-0.48522487
30	0xbe0264da	-0.12733784
31	0x3d28c0df	0.04119956
32	0x3cbc7ce4	0.023008771
33	0xbea0c51f	-0.3140039
34	0xbd798136	-0.06091424
35	0x3f11204b	0.566899
36	0x3edfb2bf	0.4369106
37	0xbd800004	-0.06250003
38	0xbef2b817	-0.47406074
39	0xbe24689e	-0.16055533
40	0x3ee18da4	0.44053376
41	0xbdb57f10	-0.08862126
42	0xbe23dab7	-0.16001402
43	0x3e5b208e	0.21399137
44	0xbedcc202	-0.43116766
45	0xbef9f4ad	-0.48819485
46	0xbeaf3223	-0.3421794
47	0x3cd207bb	0.025638452
48	0x3ec52363	0.3850356
49	0xbed3bfec	-0.41357362
50	0x3e3f1ab5	0.18662532
51	0xbe06f4bf	-0.131793
52	0xbe676211	-0.22596003
53	0x3f51e524	0.81990266
54	0xbe3e51ed	-0.1858594
55	0x3dc3470b	0.09535035
56	0x3efc7656	0.49309033
57	0xbc83ccbd	-0.016088838
58	0xbdc20b6a	-0.09474833
59	0x3e95b989	0.29243115
60	0x3eab0d66	0.3340866
61	0x3f223d8e	0.63375175
62	0xbdfd69df	-0.12373709
63	0x3e1ca230	0.15296245
64	0xbeb7d06b	-0.35901198
65	0x3e291fc2	0.16516021
66	0x3e8ba78a	0.2727626
67	0x3ec4cd7a	0.38438016
68	0xbd27fb8e	-0.041011386
69	0x3ea227ed	0.31671086
70	0x3f152877	0.5826487
71	0x3e8a6dd0	0.27036905
72	0x3da02e66	0.0782135
73	0xbe8bbc90	-0.272923
74	0xbe8f9992	-0.28046852
75	0x3d20b9e4	0.03923978
76	0x3ea49c1e	0.32150358
77	0x3d32d936	0.04366418
78	0xbe9be870	-0.30450773
79	0xbeb7e9ba	-0.35920507
80	0xbec469cb	-0.38361964
81	0x3cfe956e	0.031077113
82	0xbe6b62d7	-0.22986923
83	0x3d74b224	0.0597402
84	0x3d598ae0	0.053110957
85	0xbe97b1b8	-0.29627776
86	0xbe96e91b	-0.2947472
87	0x3f0bd07c	0.54614997
88	0x3d1e9017	0.038711634
89	0xbe786ea2	-0.24260953
90	0x3f4176d7	0.7557196
91	0x3e824893	0.25445995
92	0xbcd4a672	-0.025958274
93	0xbea8e1fd	-0.32984915
94	0xbe90893d	-0.28229704
95	0xbe41627b	-0.18885224
96	0xbe8c58f5	-0.2741162
97	0x3e039f08	0.12853634
98	0x3eafa377	0.343044
99	0xbe203aee	-0.1564748
100	0xbcccf502	-0.025019173
101	0x3e3ebe17	0.18627201
102	0x3c79b3c2	0.0152406115
103	0xbed040d8	-0.40674472
104	0x3ea21a0b	0.31660494
105	0x3cc9e75a	0.02464645
106	0x3ebaf9b5	0.36518636
107	0x3dc05afe	0.093923554
108	0xbf236542	-0.6382638
109	0xbbc8993d	-0.006121783
110	0x3e8d957e	0.27653116
111	0x3f048173	0.51760024
112	0xbe4a54ad	-0.19758864
113	0x3df7ce96	0.1209995
114	0xbe99dc2d	-0.30050793
115	0x3f2abe09	0.6669622
116	0x3eaa1b96	0.3322417
117	0xbb58cac5	-0.0033079844
118	0x3f2ad3e7	0.6672959
119	0x3f2680ae	0.650401
120	0xbe806b94	-0.25082076
121	0xbe581abb	-0.21103947
122	0x3e85faf0	0.26168013
123	0xbdcad027	-0.09902983
124	0x3e98bec3	0.2983304
125	0xbee67e1d	-0.45018092
126	0xbe886dfc	-0.2664641
127	0x3de5a839	0.112137266
128	0x3e72facd	0.23728485
129	0xbc90598a	-0.01762082
130	0xbf1334ac	-0.57502246
131	0xbef6c37c	-0.48196018
132	0x3df1e02f	0.11810338
133	0x3dce162c	0.10062823
134	0x3f2a5367	0.6653351
135	0x3f2fa738	0.6861453
136	0x3e7b87a5	0.24563463
137	0xbecd22d4	-0.40065634
138	0x3d42ad4b	0.047528546
139	0xbe1bb92e	-0.15207359
140	0x3c8b9e5f	0.01704329
141	0x3e096f37	0.13421331
142	0xbf07fbee	-0.5311879
143	0x3db620b1	0.08892954
144	0xbdb529cb	-0.08845862
145	0x3ef41d15	0.47678438
146	0xbe09e00a	-0.1346437
147	0x3e4dec40	0.20109653
148	0xbe9567ee	-0.29180855
149	0xbd4861ba	-0.048921324
150	0x3ebd92c8	0.37026048
151	0x3e865cf1	0.26242784
152	0x3efa975d	0.48943606
153	0xbf1901e6	-0.5976852
154	0xbe99404d	-0.2993187
155	0xbef65d69	-0.4811814
156	0xbdb33ceb	-0.087518536
157	0x3e67ee12	0.2264941
158	0x3e636872	0.22207811
159	0xbdf8bedd	-0.12145779
160	0x3e07e027	0.13269101
161	0xbd23df1a	-0.040007688
162	0xbe8a2d48	-0.26987672
163	0x3e5788cd	0.21048279
164	0x3f1a074a	0.6016737
165	0xbeee8d38	-0.46592116
166	0x3e0595a6	0.13045368
167	0x3da555bb	0.080729924
168	0xbd21af6c	-0.039473936
169	0x3dac40b9	0.08410782
170	0xbec17400	-0.37783813
171	0x3ec4c659	0.38432577
172	0xbd71da0e	-0.059045844
173	0xbf1927ae	-0.5982617
174	0x3ef05989	0.4694331
175	0x3e069100	0.1314125
176	0x3ed197e9	0.4093621
177	0x3ed606d1	0.41802076
178	0xbaf6cbde	-0.0018829068
179	0xbe6b630a	-0.22986999
180	0xbe9431a0	-0.2894411
181	0x3d4c3683	0.049856674
182	0x3d666c36	0.05625554
183	0x3e95e7f7	0.29278538
184	0xbde8fc78	-0.113762796
185	0x3dc8b328	0.09799796
186	0xbdb753e3	-0.08951547
187	0xbceeed62	-0.029165927
188	0xbd059900	-0.032616615
189	0x3ef402da	0.47658426
190	0x3da9d4b2	0.082925215
191	0x3f397adf	0.7245311
192	0xbf0bc0a0	-0.545908
193	0xbe100fa2	-0.14068463
194	0xbe65266e	-0.22377941
195	0x3e11fe91	0.14257266
196	0x3e950e5f	0.29112527
197	0x3ed685bf	0.41898915
198	0xbed35bbc	-0.41280925
199	0xbe4523d1	-0.19251944
200	0x3ed8475d	0.42241946
201	0x3f0cb208	0.54959154
202	0xbe87b1f9	-0.2650297
203	0x3e2f24bf	0.17103861
204	0xbf02f30a	-0.511521
205	0xbdd6e4c7	-0.104928546
206	0xbde17c09	-0.11009986
207	0xbe7c3aad	-0.24631758
208	0x3ec879f2	0.39155537
209	0xbd9eb1d8	-0.07748765
210	0x3ec498c6	0.38397807
211	0x3eddf82c	0.43353403
212	0xbe4bf159	-0.19916286
213	0xbc076dc7	-0.008265919
214	0xbcaed656	-0.021342438
215	0x3e954f1d	0.2916192
216	0xbed30d8d	-0.41221276
217	0x3ed0b9d3	0.40766773
218	0x3df23d62	0.11828114
219	0xbf0bce60	-0.5461178
220	0x3e2c8aba	0.16849795
221	0xbe966245	-0.2937185
222	0xbdcbdc3e	-0.09954117
223	0x3d848f60	0.06472659
224	0x3ee60cca	0.44931632
225	0x3f0e168b	0.5550315
226	0xbe40e52f	-0.18837427
227	0x3ea2662b	0.31718573
228	0xbe78582f	-0.2425239
229	0xbeed6b13	-0.46370754
230	0xbe64d58d	-0.22347088
231	0x3f0a8d2d	0.5412167
232	0xbd1f7fab	-0.038940113
233	0x3e382d52	0.17986038
234	0xbed9f775	-0.42571607
235	0x3dbc7bf7	0.09203332
236	0xbef4e58e	-0.47831386
237	0x3edbfb9f	0.4296541
238	0xbcc228e6	-0.023701143
239	0xbe00f688	-0.12594044
240	0x3e89d5c5	0.26920906
241	0xbeb954dc	-0.36197555
242	0xbe3cbb75	-0.18430884
243	0x3e1e64b8	0.15468109
244	0x3d0b90a3	0.034073483
245	0xbf36a054	-0.7133839
246	0xbf9354ac	-1.1510215
247	0xbf9dd228	-1.232976
248	0xbe66083a	-0.22464076
249	0xbf50a5db	-0.81503075
250	0xbfa6b400	-1.3023682
251	0xbe4e8b98	-0.20170438
252	0xbda831f9	-0.082126565
253	0xbdc74489	-0.09729869
254	0x3e2fea80	0.17179298
255	0x3d8f9ddb	0.070125304

pi.pi_net.0.bias f4 [64]
0	0xbed9639a	-0.42458802
1	0xbf25a401	-0.64703375
2	0x3eff0537	0.49808666
3	0x3d8ecff4	0.06973258
4	0xbf04f731	-0.51939684
5	0x3ec2bae1	0.38033202
6	0x3e1e0670	0.15432143
7	0xbbd6a02a	-0.0065498548
8	0xbed38f08	-0.41320062
9	0xbe9ba687	-0.30400488
10	0xbeba22bc	-0.36354625
11	0xbde29a60	-0.11064601
12	0xbf21397e	-0.6297835
13	0x3d1b7f4f	0.037963208
14	0xbee35dfb	-0.4440764
15	0x3f135ae1	0.57560545
16	0x3f013fa6	0.50487745
17	0x3d6d7590	0.057973444
18	0xbdfa5404	-0.12223056
19	0xbda92032	-0.08258094
20	0x3ed51a5b	0.4162167
21	0x3e0e24b2	0.13881186
22	0x3e596407	0.21229564
23	0x3ed6c49f	0.41946885
24	0xbe6518eb	-0.22372787
25	0x3f143a5f	0.5790157
26	0xbd7fc670	-0.062445104
27	0xbef979ea	-0.48725826
28	0x3f112687	0.56699413
29	0xbee61d27	-0.44944116
30	0xbe025934	-0.12729341
31	0x3f36a5a8	0.7134652
32	0xbedecd3b	-0.43515953
33	0x3f103f8c	0.56346965
34	0x3f04c9a8	0.51870203
35	0xbdb093a9	-0.08621914
36	0x3f498959	0.787252
37	0x3e7fca67	0.24979554
38	0x3ea9d665	0.33171383
39	0xbebdcda9	-0.3707097
40	0xbe026120	-0.12732363
41	0xbec4ccde	-0.3843755
42	0xbedcb411	-0.4310613
43	0xbe5ac7c7	-0.21365272
44	0xbd909ea5	-0.07061509
45	0xbf13e131	-0.5776549
46	0x3f0c2a06	0.5475162
47	0xbcad775d	-0.02117508
48	0xbe19e512	-0.1502879
49	0xbf21b151	-0.6316119
50	0xbe2a1295	-0.16608651
51	0x3ee75b5d	0.45186892
52	0x3c823724	0.015895434
53	0x3f0a1cac	0.5395
54	0x3d1367a9	0.03598753
55	0xbf10ba2e	-0.5653409
56	0xbf0117c6	-0.504269
57	0xbdf39755	-0.11894099
58	0xbe793826	-0.24337825
59	0xbf323796	-0.6961607
60	0xbe869034	-0.26281893
61	0xbed79f80	-0.42113876
62	0xbed23742	-0.41057783
63	0x3e6cdbb1	0.2313068

pi.pi_net.2.weight f4 [64, 64]
0	0xbdfc48dd	-0.12318585
1	0x3effd87c	0.49969852
2	0xbe099a71	-0.13437821
3	0x3d05e8d5	0.03269275
4	0x3e62f67d	0.2216434
5	0xbf520372	-0.8203651
6	0x3e10e9c2	0.14151672
7	0xbf09b1ed	-0.5378712
8	0xbe04216f	-0.12903379
9	0x3d235a4e	0.039881043
10	0x3f09c549	0.5381666
11	0xbe386891	-0.18008639
12	0xbe2381ad	-0.15967436
13	0x3d40ffdd	0.04711901
14	0xbe9dc19c	-0.30811775
15	0xbdee137f	-0.11624812
16	0x3de1e3be	0.110297665
17	0x3e6dec1d	0.23234601
18	0xbdc15942	-0.09440853
19	0x3ea0c419	0.3139961
20	0xbef50957	-0.47858688
21	0xbe99e71e	-0.3005914
22	0xbe875f5b	-0.26439938
23	0xbd134374	-0.035953
24	0x3ec3c2c6	0.38234538
25	0x3f155e55	0.58347064
26	0xbe8990c4	-0.2686826
27	0x3e234a5d	0.15946336
28	0x3d89478b	0.06703099
29	0x3ecb4b55	0.3970591
30	0xbed3b73b	-0.4135073
31	0x3e62a244	0.22132212
32	0x3edac1f9	0.42726114
33	0x3c67b8ba	0.014143163
34	0xbf17da7d	-0.5931776
35	0xbf2cd3b6	-0.67510545
36	0x3e203037	0.15643393
37	0xbe9ea1a9	-0.30982712
38	0xbf125e2a	-0.5717493
39	0xbef9ef7b	-0.48815522
40	0xbe12f0cb	-0.14349668
41	0xbde59a5f	-0.112110846
42	0xbe3a395f	-0.18185948
43	0x3e2c4a11	0.16825129
44	0x3f1770cb	0.59156483
45	0x3e9072e9	0.2821267
46	0xbf6aa02e	-0.91650665
47	0x3dff53b2	0.124671355
48	0x3f8119d2	1.0086005
49	0x3e5bc2bc	0.21461004
50	0x3d38497b	0.04499195
51	0xbedfedf7	-0.4373624
52	0xbf07f335	-0.5310548
53	0xbd5ea762	-0.054358847
54	0xbdd277d2	-0.1027676
55	0x3e7f4834	0.24929887
56	0x3f2df74d	0.67955476
57	0x3d245419	0.040119264
58	0xbda6eae1	-0.08150268
59	0x3ea8b047	0.3294699
60	0x3d9d0216	0.076664135
61	0x3e1d5227	0.1536337
62	0x3ebcaabb	0.36849007
63	0x3f0f871d	0.5606554
64	0xbe33079a	-0.17483369
65	0xbf288758	-0.6583152
66	0xbd6e6ba4	-0.058208123
67	0xbe39b444	-0.18135172
68	0x3e1a1754	0.15047961
69	0x3f32dcb8	0.6986804
70	0x3e6c333a	0.23066416
71	0x3ed3af9d	0.4134492
72	0xbc9dd757	-0.019267721
73	0x3d0f0746	0.034919046
74	0xbe6bb38f	-0.23017715
75	0x3eb84bd2	0.35995346
76	0xbeb03f47	-0.34423277
77	0x3d95083e	0.07276963
78	0xbd1f6f88	-0.038924724
79	0x3e3854ad	0.18001051
80	0x3e958de3	0.29209813
81	0xbd91fc8c	-0.071282476
82	0x3e9ed269	0.31019905
83	0xbdf799cb	-0.120898806
84	0xbc9a9892	-0.01887158
85	0x3d75ecbe	0.060040228
86	0xbe8b6e1b	-0.2723244
87	0x3db0987a	0.086228326
88	0x3d7605c9	0.06006411
89	0x3e86d206	0.2633211
90	0xbe30552a	-0.17219988
91	0xbeb9f767	-0.36321566
92	0x3ec210cf	0.3790345
93	0xbe504b8e	-0.20341322
94	0x3ea8c305	0.32961288
95	0xbbcc616a	-0.0062371986
96	0xbe53b161	-0.20673133
97	0x3e164dc9	0.1467811
98	0x3e42c8ed	0.1902196
99	0x3dca753b	0.09885641
100	0x3ed8cb64	0.42342675
101	0x3e6c22c5	0.23060139
102	0x3e702f37	0.23455511
103	0xbe307262	-0.17231134
104	0xbd21154d	-0.039326955
105	0xbe9135af	-0.2836127
106	0xbe86e900	-0.2634964
107	0xbdde1541	-0.108438976
108	0xbea0fba9	-0.31442
109	0xbdbd5c59	-0.092461295
110	0x3eb4ed39	0.35337237
111	0xbead1157	-0.33802292
112	0x3d911988	0.07084948
113	0x3d429113	0.047501635
114	0x3d367a2b	0.044550102
115	0x3da955e9	0.08268339
116	0x3e74e502	0.23915485
117	0xbe4a0886	-0.19729814
118	0xbd9dbbf3	-0.07701864
119	0xbd482bfd	-0.048870075
120	0xbeec1f16	-0.46117467
121	0xbd873bbb	-0.066031896
122	0xbedde29f	-0.4333696
123	0xbd9e8542	-0.07740261
124	0xbe92a576	-0.28641862
125	0xbe075e86	-0.13219652
126	0x3e3a13db	0.18171637
127	0x3dd6f90d	0.104967214
128	0x3cc0d459	0.023538755
129	0xbe0f1115	-0.1397136
130	0xbe48e315	-0.19617875
131	0xbea86e63	-0.32896718
132	0xbd0250ad	-0.03181522
133	0x3e392869	0.18081822
134	0xbe9db345	-0.30800834
135	0xbe3a8387	-0.18214236
136	0xbf565967	-0.8373017
137	0xbe29065e	-0.16506335
138	0x3e670011	0.22558619
139	0x3de58390	0.11206734
140	0xbbb81c8b	-0.005618637
141	0x3f4962c3	0.78666323
142	0xbe012d4d	-0.12614937
143	0x3f1cb4ef	0.6121358
144	0x3ed59141	0.41712382
145	0x3daf97b0	0.08573854
146	0x3d257838	0.040397853
147	0x3db0fc22	0.086418405
148	0x3f0fd4c3	0.56184024
149	0x3f192744	0.5982554
150	0x3f34c81e	0.70617855
151	0x3e97ccfc	0.29648578
152	0xbef23d46	-0.47312373
153	0xbd62ac94	-0.055340365
154	0xbead2f18	-0.33824992
155	0xbd8223ca	-0.063544825
156	0xbda13010	-0.07870495
157	0xbe8e4d5a	-0.2779339
158	0x3ef41bf4	0.47677577
159	0x3e324cf0	0.17412162
160	0xbe03841b	-0.12843363
161	0x3f0fe31c	0.56205916
162	0x3ea5fce5	0.32419506
163	0xbef27364	-0.4735366
164	0x3e6bdda6	0.23033771
165	0x3ea9a36a	0.33132488
166	0x3ed138ba	0.4086359
167	0x3d6244e8	0.055241495
168	0x3eb58c53	0.3545862
169	0xbee12aca	-0.43977958
170	0xbe952526	-0.29129905
171	0xbf0f67fb	-0.56018037
172	0x3e4598e1	0.192966
173	0x3d678d8e	0.05653148
174	0x3eebfb54	0.46090186
175	0xbde43568	-0.11142999
176	0xbf24be30	-0.64352703
177	0xbe211bf9	-0.15733327
178	0xbf2d0509	-0.6758581
179	0x3f00135a	0.5002953
180	0x3e2b713a	0.16742411
181	0x3f26a776	0.65099275
182	0x3ed67a77	0.41890308
183	0xbebdef26	-0.37096518
184	0xbdc8dc16	-0.09807603
185	0x3f12f998	0.574121
186	0xbe6e59e9	-0.23276486
187	0xbe908757	-0.28228256
188	0x3eab4503	0.3345109
189	0x3e49c58d	0.19704266
190	0xbf17752a	-0.59163153
191	0xbeab4b01	-0.3345566
192	0xbf2e2f22	-0.6804067
193	0xbe89aa63	-0.26887807
194	0x3efd7ab1	0.4950767
195	0x3e6a880f	0.22903465
196	0x3e6d0bad	0.23148985
197	0x3d0139a3	0.031549107
198	0x3e5c0692	0.21486881
199	0x3dd665b5	0.10468618
200	0x3e44156e	0.191488
201	0xbf0ffc8f	-0.5624475
202	0xbee0b768	-0.43889928
203	0xbea32c7e	-0.31869882
204	0xbeb093dd	-0.3448781
205	0xbf068b5a	-0.52556384
206	0xbe3b1d31	-0.18272854
207	0xbbf96d05	-0.007611873
208	0x3f1c3914	0.61024594
209	0xbeec944e	-0.46206897
210	0xbeeffe85	-0.4687387
211	0x3e347bf6	0.17625412
212	0x3dffe8a4	0.124955446
213	0x3eb490df	0.35266778
214	0xbe1961c3	-0.149787
215	0xbe914500	-0.28372955
216	0xbded11ff	-0.11575698
217	0x3dc2d38c	0.095130056
218	0x3e837184	0.25672543
219	0xbf442ef0	-0.7663412
220	0x3e9e2dca	0.3089431
221	0xbec97e4e	-0.39354175
222	0xbe92c96c	-0.28669298
223	0x3e846d2f	0.2586455
224	0xbe4e50f6	-0.20148072
225	0x3d9841e1	0.074344404
226	0x3e2024d8	0.15639055
227	0xbdcff0fd	-0.10153387
228	0x3f092b30	0.53581524
229	0xbc80cbad	-0.01572212
230	0x3ec7d859	0.39032248
231	0xbd0a2005	-0.033721942
232	0x3c954bf8	0.018224701
233	0xbec1aa12	-0.37825066
234	0xbee6bc4b	-0.4506553
235	0xbe478990	-0.1948607
236	0xbec24a19	-0.37947157
237	0xbed130c8	-0.4085753
238	0x3e1f4080	0.15551949
239	0xbe77b908	-0.24191678
240	0xbe872527	-0.26395532
241	0x3e990994	0.2989012
242	0x3c7b70be	0.015346704
243	0xbe49ec2b	-0.19718997
244	0x3d97917c	0.07400796
245	0x3f17c026	0.5927757
246	0xbdfe8029	-0.12426788
247	0xbe8df26e	-0.27724022
248	0xbf65abba	-0.8971516
249	0xbe9854cb	-0.29752192
250	0x3dc89be7	0.09795361
251	0xbe4afe0c	-0.19823474
252	0xbeaa56ff	-0.33269498
253	0xbf291d0a	-0.66059935
254	0xbe9a8f0d	-0.30187264
255	0x3e0392ae	0.12848923

pi.pi_net.2.bias f4 [64]
0	0xbe30009f	-0.17187737
1	0x3d0a5937	0.03377649
2	0x3eb05abd	0.34444228
3	0x3d829081	0.06375218
4	0x3e165bb2	0.14683416
5	0x3dc871ad	0.09787307
6	0xbc269282	-0.010166766
7	0x3e54260f	0.20717643
8	0x3cd2c2bf	0.025727628
9	0xbd37dcf8	-0.044888467
10	0x3e35b6b8	0.17745483
11	0xbe8a50e7	-0.2701485
12	0x3edc71c3	0.43055543
13	0x3d49e03a	0.049286105
14	0x3ebb7e69	0.3661988
15	0x3adeeb03	0.0017007295
16	0x3cccddcb	0.025008103
17	0xbc6706c1	-0.014100731
18	0x3e8dfd4a	0.27732307
19	0x3d255c3e	0.040371172
20	0x3e5fad3a	0.21843424
21	0xbd06cb4b	-0.03290872
22	0x3e459604	0.19295508
23	0x3ce07525	0.027399609
24	0xbe097e47	-0.13427077
25	0x3c35ddd9	0.011100256
26	0xbd18bb52	-0.037288018
27	0x3cf1afb0	0.02950272
28	0xbda98392	-0.08277048
29	0xbe895aed	-0.26827183
30	0x3e5c02e6	0.2148548
31	0x3e20f3d1	0.15718009
32	0x3d320499	0.043461416
33	0x3e24bc9b	0.16087572
34	0x3d623a46	0.055231355
35	0xbe8e1fc8	-0.27758622
36	0xbdbf17b4	-0.09330693
37	0x3e577efe	0.21044537
38	0x3d185ebe	0.03719973
39	0x3d5a593a	0.05330775
40	0xbd9b989a	-0.07597466
41	0xbe5d605c	-0.2161879
42	0x3dc60489	0.09668834
43	0x3ee9be00	0.4565277
44	0xbe9e6955	-0.30939737
45	0xbdefba9e	-0.11705516
46	0x3e96be59	0.294421
47	0xbde947ce	-0.11390649
48	0xbe21cdfc	-0.15801233
49	0x3dae9511	0.08524526
50	0x3dc9cead	0.098538734
51	0xbcdf6f6f	-0.027274815
52	0xbce14b8d	-0.027501846
53	0x3dd2268b	0.10261258
54	0xbe0aef7c	-0.13567919
55	0x3e063cc2	0.13109115
56	0x3d90fd99	0.0707962
57	0xbd33fca2	-0.0439421
58	0xbe5ab001	-0.21356203
59	0xbca7c854	-0.020481266
60	0xbdf439ae	-0.11925064
61	0x3e2a6203	0.16638951
62	0xbe0c17cb	-0.13680951
63	0xbd063ee4	-0.03277482

pi.pi_net.4.weight f4 [256, 64]
0	0xc024be05	-2.5740979
1	0x3f995d2c	1.1981559
2	0x400bb975	2.1831944
3	0xbf8389e4	-1.0276456
4	0x3fe96557	1.8234051
5	0x4028be88	2.636629
6	0xbefa7f59	-0.48925284
7	0x401572ed	2.3351395
8	0x3f8d2fae	1.1030176
9	0xbfef6735	-1.8703371
10	0x3fd9d470	1.7017956
11	0xc02ca6cd	-2.6976807
12	0x400d2961	2.2056506
13	0x3f21f576	0.6326517
14	0xbea65fa5	-0.32494846
15	0xbfe8b74e	-1.818094
16	0xbfb8cc66	-1.4437377
17	0xbfe2f3d6	-1.7730663
18	0x4001c2d9	2.0275176
19	0x3fa818b6	1.3132541
20	0x3f8b5365	1.0884825
21	0x4012121f	2.282356
22	0x4006a38a	2.1037316
23	0x3f320269	0.6953493
24	0x3f65729e	0.89628017
25	0xbf1dd167	-0.6164765
26	0xbe36e3c4	-0.17860323
27	0x3eeb17f5	0.45916715
28	0xbfd60443	-1.672005
29	0xc0315fc0	-2.771469
30	0x3e8b4ee2	0.2720862
31	0x3fe025aa	1.7511494
32	0x3ff03504	1.8766179
33	0x3f8950a3	1.0727733
34	0xbff2fed5	-1.8984019
35	0xc024a660	-2.5726547
36	0xc0227533	-2.5384033
37	0x40031250	2.0479927
38	0xbc791557	-0.015202842
39	0x401bb437	2.4328744
40	0xbf5f7cd5	-0.87299854
41	0x3faee259	1.3662826
42	0x402952ed	2.6456864
43	0x4024b108	2.5733051
44	0xc000bd3b	-2.0115497
45	0xc03e56fd	-2.9740593
46	0x3f8c315a	1.0952561
47	0xc01a6418	-2.4123592
48	0xbf20e756	-0.6285299
49	0x3fe7a38e	1.8096788
50	0x3e7e398f	0.24826644
51	0xbfab6e67	-1.3393067
52	0x3f644b69	0.89177567
53	0x4027c885	2.6216137
54	0xc02d16b2	-2.7045102
55	0x400fe477	2.2483194
56	0x4009645b	2.1467502
57	0x3e198951	0.14993788
58	0xc026e325	-2.6076138
59	0xbe4e32c6	-0.20136556
60	0xbf9eba34	-1.2400575
61	0x3f3d2aff	0.7389373
62	0xbdc4bc63	-0.096062444
63	0x3e1d5c31	0.153672
64	0xbe4e8191	-0.20166613
65	0xbf3225cd	-0.6958893
66	0x3f610256	0.8789419
67	0xbfce82ef	-1.6133708
68	0x3f9e090b	1.234651
69	0x3fe42f35	1.7826906
70	0x3e919869	0.28436592
71	0x3fa4ac90	1.2865162
72	0x3ea8df45	0.3298284
73	0xbf3bf134	-0.7341492
74	0x3fa2c409	1.2716075
75	0xbff33813	-1.9001487
76	0x3f8c3d72	1.0956252
77	0x3dfbf9f4	0.12303534
78	0xbfbf6e89	-1.4955608
79	0xbf54e371	-0.8315955
80	0xbee027cd	-0.43780366
81	0xbfcd8913	-1.6057457
82	0x3fa961d6	1.3232982
83	0x3f3c973a	0.73668253
84	0x3f0ac836	0.5421175
85	0x3f9f4788	1.2443705
86	0x3f9dc82a	1.232671
87	0xbf8b3bed	-1.0877663
88	0x3f51e97b	0.8199689
89	0xbb8c2cb6	-0.004277791
90	0x3c575b5b	0.013144339
91	0x3f5d6e74	0.86496663
92	0xbf8dbe2c	-1.1073661
93	0xbdfc8164	-0.12329367
94	0xbf9a9c06	-1.2078865
95	0xbd113a7e	-0.035456173
96	0x3ec2221b	0.37916645
97	0x3f1447ce	0.57922065
98	0x3e6e3ba9	0.23264946
99	0xbfada7bc	-1.3566813
100	0xc007d705	-2.1224988
101	0xbe8d7c52	-0.2763391
102	0x3f8efb62	1.1170466
103	0x3fb93872	1.4470351
104	0xbe6f3764	-0.23360974
105	0x3fcd0a26	1.6018722
106	0x3f07dcdb	0.53071374
107	0x3ec88146	0.39161128
108	0x3e16b2ab	0.14716594
109	0xbfee87fb	-1.8635248
110	0xbe4a9d76	-0.19786629
111	0xbf4672bf	-0.7751884
112	0xbe1a8128	-0.15088332
113	0x3ee3e2dc	0.44509017
114	0x3e0399af	0.12851594
115	0xbf75fd50	-0.9608965
116	0x3f96c87c	1.1779933
117	0x3f924eb1	1.1430265
118	0xbf198c24	-0.5997946
119	0x3fc33705	1.5251166
120	0x3fc705b6	1.5548618
121	0xbf872fc1	-1.0561448
122	0xbe4d2200	-0.20032501
123	0xbf441a2e	-0.7660245
124	0xbd989ed8	-0.07452172
125	0xbcbfd477	-0.02341674
126	0xbf862115	-1.0478846
127	0x3edf574a	0.43621284
128	0xbfd9588e	-1.698015
129	0x3f38286e	0.7193669
130	0x3fb845b7	1.4396275
131	0xbf3908ba	-0.7227894
132	0x3f5116ce	0.8167542
133	0x40019cbf	2.025192
134	0x3e209e16	0.15685305
135	0x3e8d1746	0.2755682
136	0x3fabdc43	1.3426594
137	0x3e819023	0.2530528
138	0xbefb2ccf	-0.49057624
139	0xbfe0f4dd	-1.7574726
140	0x3f9f719f	1.245655
141	0x3f06793f	0.52528757
142	0x3ef1d12e	0.47229904
143	0xbfd7f36e	-1.6871164
144	0xc03d0754	-2.9535723
145	0x3d1ba392	0.03799779
146	0x40037ea6	2.054605
147	0x3fbd3a45	1.4783407
148	0x3f36fcee	0.7147969
149	0x3ff166ed	1.8859535
150	0xbe7e91c8	-0.24860299
151	0x3f56e241	0.83938986
152	0x3e7ce1b0	0.24695468
153	0xbfbc3ec7	-1.4706658
154	0xbf69d82f	-0.91345495
155	0x3d209318	0.03920278
156	0xbff3a9e7	-1.9036225
157	0xbffa9a69	-1.9578372
158	0x3ece2c2f	0.40268084
159	0x40027933	2.0386474
160	0x3fdf5183	1.744675
161	0xbf951833	-1.164801
162	0xbfd22749	-1.6418239
163	0xbf90c21d	-1.1309239
164	0xbff40b46	-1.906594
165	0x3fd4d29e	1.6626775
166	0xbf8ffae3	-1.124844
167	0x3fd1b030	1.6381893
168	0xc000afff	-2.010742
169	0x3c61bad6	0.013777455
170	0x4001ba07	2.0269792
171	0x3fe77bb3	1.8084625
172	0xbfdf68f7	-1.7453908
173	0xbfc3bcac	-1.5291953
174	0x3e9007ed	0.28131047
175	0xbf85414c	-1.0410552
176	0xbdc99e0b	-0.098445974
177	0x3fb470d9	1.4096938
178	0xbd8d9c20	-0.06914544
179	0xbfcc4b76	-1.5960529
180	0x3f054ddc	0.5207193
181	0x3ff3d9a2	1.9050791
182	0xc00e3009	-2.2216818
183	0x3fd74b27	1.681981
184	0xbf03a874	-0.51428914
185	0x3f911176	1.1333454
186	0xbfe5cbc5	-1.795281
187	0x40021dd7	2.0330713
188	0xbed7963c	-0.42106807
189	0x40005f7d	2.0058281
190	0x3f067dcd	0.52535707
191	0x3fca8e4a	1.5824673
192	0xbfc0e6fe	-1.5070493
193	0xbdbc54c1	-0.09195853
194	0x3fdb7d1d	1.7147557
195	0xc0039aee	-2.0563312
196	0x3f741621	0.95346266
197	0x400d0037	2.203138
198	0x3f00d335	0.50322276
199	0x3fcc8049	1.597665
200	0x3ed7e16b	0.42164168
201	0xc0131834	-2.2983522
202	0x3fa54a41	1.2913285
203	0xc009cf1e	-2.1532664
204	0x3fc25dab	1.5184835
205	0x3db388b5	0.08766309
206	0xbf629b5e	-0.8851832
207	0xbf59f7fc	-0.8514402
208	0xbfda8765	-1.7072569
209	0xbff1212f	-1.8838252
210	0x3fc94639	1.5724555
211	0x3fac990c	1.3484206
212	0x3f16fa24	0.58975434
213	0x3fe88116	1.8164394
214	0x3ff7a92f	1.9348506
215	0x3e6845aa	0.22682825
216	0x3ffb0a42	1.9612505
217	0xbf8da559	-1.1066085
218	0xbf353784	-0.70787835
219	0x3f4baacd	0.79557496
220	0xbfcf0992	-1.6174796
221	0xbfae65bf	-1.36248
222	0xbf55846b	-0.8340518
223	0x3ec817ee	0.39080757
224	0x3ff0f7fa	1.8825676
225	0x3f182552	0.59431946
226	0xbf0f9801	-0.56091315
227	0xbffc0866	-1.9690063
228	0xc00b6597	-2.1780756
229	0x3f3c93bb	0.7366292
230	0x3f4b2f11	0.7936869
231	0x3ff0ef4d	1.8823029
232	0xbfc9ac70	-1.5755749
233	0x3ff322a2	1.8994944
234	0x3feefd33	1.867102
235	0x3fd29bcb	1.6453794
236	0xbf6bc97d	-0.9210432
237	0xbfee5cf2	-1.8622115
238	0x3f335147	0.70045894
239	0xbfcfb9b9	-1.6228553
240	0xbeab5bb4	-0.334684
241	0x3fc928eb	1.5715612
242	0xbcd5fb4c	-0.026120804
243	0xbfc42979	-1.5325156
244	0x3fa27688	1.2692423
245	0x40056d3b	2.084792
246	0xc0047166	-2.0694213
247	0x40147239	2.3194716
248	0x3fc674d9	1.5504409
249	0xbf187fdd	-0.59570104
250	0xbfd1f5ec	-1.6403174
251	0xbe6a30c0	-0.22870159
252	0xbf843fb7	-1.0331944
253	0x3fab02e9	1.3360263
254	0x3e425d8d	0.18981
255	0x3e82184c	0.25409162

pi.pi_net.4.bias f4 [256]
0	0x401bf04c	2.4365416
1	0x3fc803a2	1.5626109
2	0x3fe1130d	1.7583939
3	0x3fdab3a5	1.7086073
4	0x4039878a	2.8988976
5	0x3ff07dce	1.8788393
6	0x4038a179	2.8848555
7	0x4037c7ef	2.871578
8	0x403de13f	2.966873
9	0x3fd0b35a	1.6304734
10	0x4032c902	2.7935185
11	0x3e780810	0.24221826
12	0x3fdaddd3	1.7098945
13	0x3fd8bcac	1.6932578
14	0x403bb542	2.932938
15	0x40001ed2	2.0018811
16	0x3ffd6893	1.9797539
17	0x3fba442e	1.4552057
18	0x3ff8618a	1.9404767
19	0x4030dbc8	2.7634144
20	0x403551e2	2.8331227
21	0x4012c2a1	2.2931292
22	0x403a18b9	2.907759
23	0x403bdf3b	2.9355
24	0x40024eba	2.036055
25	0x403a2dbf	2.9090421
26	0x404ab227	3.1671236
27	0x403d634d	2.9591858
28	0x3fe83e56	1.8144023
29	0x3f87251d	1.0558201
30	0x3e9fc3b7	0.31204006
31	0x402c735a	2.6945405
32	0x3fe6c768	1.8029604
33	0x4046c181	3.1055605
34	0x3ff4459c	1.9083743
35	0x4035d4be	2.8411098
36	0x3fcbbd30	1.591711
37	0x4046235b	3.095908
38	0x3fd9610f	1.6982745
39	0x403f97c9	2.9936392
40	0x404d8c17	3.2116754
41	0x3fd62dce	1.6732728
42	0x3fdb9e3a	1.7157662
43	0x400082d7	2.0079858
44	0x4028f62c	2.6400251
45	0x3fd6c4a4	1.677876
46	0x40482ac2	3.1276097
47	0x402d79ba	2.7105546
48	0x3ffe53ae	1.9869287
49	0x404457f7	3.067869
50	0x3fa04318	1.2520475
51	0x403a876f	2.9145162
52	0x3fe4be81	1.7870637
53	0x3fe6fe0c	1.8046279
54	0x3fdb547b	1.7135156
55	0x40077c4d	2.1169617
56	0x40332ef6	2.7997413
57	0x4019d70b	2.4037502
58	0x3fec79d2	1.8474677
59	0x40385ebe	2.8807826
60	0x403d9893	2.9624374
61	0x3f6cc133	0.924823
62	0x3fe6ed95	1.8041254
63	0x3fcf8586	1.6212623
64	0x3fc653fb	1.5494379
65	0x3f86b2ce	1.0523317
66	0x4047d6cf	3.1224859
67	0x3fdd278e	1.7277696
68	0x3fad4f62	1.3539851
69	0x3fc48c35	1.5355288
70	0x404b50b5	3.176801
71	0x3fd712b9	1.6802589
72	0x3fc1c77f	1.5139006
73	0x3ffb84bf	1.9649886
74	0x403abf34	2.91792
75	0x4046a68d	3.1039155
76	0x4054e7ad	3.3266404
77	0x3fc8ca54	1.5686746
78	0x3e963020	0.2933359
79	0x3fcf574c	1.6198516
80	0x400b9616	2.1810355
81	0x3ff39e56	1.9032695
82	0x40428e80	3.0399475
83	0x400746b7	2.113691
84	0x400b5e27	2.1776216
85	0x3fd6672d	1.6750237
86	0x401f72a6	2.4913726
87	0x40408c9b	3.0085819
88	0x40471455	3.110616
89	0x40045b89	2.0680869
90	0x403e7d4d	2.9763978
91	0x3fe77204	1.808167
92	0x4033b391	2.8078349
93	0x402299cf	2.5406377
94	0x3fea354f	1.8297518
95	0x400bb14b	2.182696
96	0x40400641	3.0003817
97	0x4039e635	2.9046757
98	0x403913f6	2.8918433
99	0x4045a4f5	3.0881932
100	0x402d80f1	2.710995
101	0x4036c470	2.8557396
102	0x40263c30	2.5974236
103	0x3ff7b17f	1.9351043
104	0x3fbe3549	1.4860011
105	0x4003b2f4	2.0577974
106	0x40392e7b	2.893462
107	0x3ff3818d	1.9023911
108	0x3fee414e	1.861368
109	0x404ccf8d	3.200168
110	0x3fe0ed3f	1.7572402
111	0x403fa6ea	2.9945626
112	0x3fd7d6c5	1.6862417
113	0x402318d1	2.5483897
114	0x3fcfd57d	1.6237026
115	0x3fdc5499	1.7213317
116	0x3fdcee8f	1.7260302
117	0x40411857	3.0171106
118	0x3fdbf21f	1.7183264
119	0x4041f686	3.0306716
120	0x404a68a8	3.1626377
121	0x403902fb	2.890807
122	0x3fc17cee	1.511625
123	0x3fc7a965	1.559857
124	0x40062c6c	2.0964613
125	0x3feaf991	1.8357412
126	0x40355a9d	2.8336556
127	0x3fd3fbeb	1.6561254
128	0x4043e423	3.0607994
129	0x3fd1e944	1.6399312
130	0x40431f10	3.048771
131	0x3fcb7a8f	1.5896777
132	0x4014c34a	2.3244195
133	0x3fc24a3a	1.5178902
134	0x4037d9e1	2.8726733
135	0x3fe7ac64	1.8099484
136	0x4003c21d	2.0587227
137	0x400886fb	2.1332386
138	0x3fbeb5fd	1.4899288
139	0x403985ae	2.8987842
140	0x403040de	2.7539592
141	0x3ff86886	1.9406898
142	0x4042cf7a	3.0439134
143	0x4009ceb4	2.1532412
144	0x3f87c890	1.0608082
145	0x402f06b0	2.7347832
146	0x402b324e	2.6749454
147	0x3f5898d4	0.846082
148	0x4037b4f9	2.8704207
149	0x3ed0a1ed	0.4074854
150	0x3f8ad2de	1.0845602
151	0x40449b0d	3.0719635
152	0x4031d62e	2.7786975
153	0x402db05a	2.7138886
154	0x3f84eb56	1.0384319
155	0x3fcbc411	1.591921
156	0x40404d4b	3.0047176
157	0x402a64d8	2.662405
158	0x40159351	2.3371165
159	0x40366241	2.849747
160	0x40366da9	2.8504431
161	0x3ff2a4c1	1.8956529
162	0x3f55fbea	0.83587515
163	0x3fbb6d7a	1.4642785
164	0x3fcf7186	1.620652
165	0x3ff1f499	1.890277
166	0x402fa1cc	2.7442503
167	0x4049555d	3.1458352
168	0x3f768533	0.96296996
169	0x3fd2427b	1.6426538
170	0x402019ad	2.5015671
171	0x3fdf0b44	1.7425313
172	0x4044dc77	3.075956
173	0x40002b37	2.0026376
174	0x3fcf44be	1.6192853
175	0x404121fe	3.0176997
176	0x403d2330	2.9552727
177	0x4044a960	3.0728378
178	0x3fed3c2a	1.8533986
179	0x3eacd33c	0.3375491
180	0x403f6c7e	2.9909968
181	0x4045e5c3	3.0921485
182	0x4037e76b	2.8734996
183	0x3fccbf75	1.5995928
184	0x40396c15	2.8972218
185	0x40018472	2.0237088
186	0x404e78b8	3.226118
187	0x404a7d83	3.1639106
188	0x402c4ff1	2.6923792
189	0x4002b4da	2.0422883
190	0x3fe0b61c	1.7555575
191	0x3fe5be69	1.7948734
192	0x3fdab198	1.7085447
193	0x4043be2b	3.058482
194	0x403d8609	2.9613059
195	0x3fd91f0b	1.6962599
196	0x4032affa	2.7919908
197	0x3fa471d5	1.2847239
198	0x4045fc88	3.0935383
199	0x3fcb03d1	1.586054
200	0x403f6636	2.9906135
201	0x403ce4e0	2.9514694
202	0x40301189	2.7510703
203	0x400b47a4	2.1762476
204	0x3fd54edc	1.6664691
205	0x401fcf4d	2.4970276
206	0x3fd9d803	1.7019047
207	0x3fb13324	1.3843732
208	0x3e5ec38c	0.21754283
209	0x40405b7b	3.0055835
210	0x400ebed3	2.230397
211	0x403f32e3	2.9874809
212	0x403d9844	2.9624186
213	0x40126542	2.2874303
214	0x4022198a	2.5328088
215	0x3fc2a8c9	1.5207759
216	0x3ff66ea0	1.925251
217	0x4041cbd8	3.0280666
218	0x3ff16391	1.885851
219	0x40252818	2.5805721
220	0x3fe97c32	1.8241026
221	0x3fd23950	1.642374
222	0x40468df5	3.1024144
223	0x4046335f	3.0968854
224	0x3e8ef70b	0.27922854
225	0x400c8726	2.1957488
226	0x3fcfb400	1.6226807
227	0x4002b071	2.0420191
228	0x3fe62f46	1.7983177
229	0x400cbac9	2.1989005
230	0x3ff163b1	1.8858548
231	0x4040c528	3.0120335
232	0x3f798f33	0.9748413
233	0x403a3e2c	2.9100447
234	0x4033da95	2.8102162
235	0x4024d061	2.5752184
236	0x3fc9d039	1.576667
237	0x4001da94	2.028966
238	0x3fb1541e	1.3853796
239	0x404df9b0	3.2183647
240	0x403a3e5d	2.9100564
241	0x3f564154	0.8369343
242	0x40347591	2.8196757
243	0x403d4265	2.9571774
244	0x4036e282	2.857575
245	0x403e7b64	2.9762812
246	0x3ff4262e	1.9074152
247	0x3fcc410a	1.5957348
248	0x400eabd2	2.229237
249	0x3fd34595	1.650561
250	0x4009308f	2.1435888
251	0x40436fd6	3.053701
252	0x40372558	2.8616543
253	0x3fdf93f2	1.7467024
254	0x3fc14923	1.5100445
255	0x403651a1	2.8487322

v.v_net.0.weight f4 [64, 5]
0	0x3e110d26	0.14165172
1	0xbe9fa4ac	-0.31180322
2	0xbd78415b	-0.060609203
3	0x3e3a5917	0.18198048
4	0x3e061750	0.1309483
5	0xbeb0453d	-0.34427825
6	0x3d566b1e	0.05234825
7	0x3e2ccaed	0.16874285
8	0xbcba9547	-0.02277626
9	0xbf045fb2	-0.5170852
10	0xbf578d60	-0.84200096
11	0xbe9678a3	-0.29388914
12	0xbed45494	-0.41470778
13	0x3e57d624	0.21077782
14	0xbe361d29	-0.17784561
15	0xbf2b5336	-0.66923845
16	0xbe9b8ad1	-0.30379346
17	0x3d67f73c	0.056632265
18	0x3d9693d3	0.07352414
19	0xbe80abb1	-0.2513099
20	0x3f2199e7	0.6312546
21	0x3e9a1ad4	0.30098593
22	0xbe29615b	-0.16541044
23	0x3ec386ee	0.3818888
24	0xbea713b2	-0.32632214
25	0x3e652ec8	0.22381127
26	0x3f2ce8f9	0.6754299
27	0x3e6c0bf8	0.2305144
28	0xbd93ee71	-0.072232135
29	0xbe087f68	-0.13329852
30	0x3eab44f6	0.3345105
31	0x3ed9b791	0.42522863
32	0x3d285f75	0.04110666
33	0x3c4ef232	0.012630986
34	0xbe16da5a	-0.14731732
35	0x3f3cd6d0	0.7376528
36	0x3f43e28c	0.7651756
37	0x3e268939	0.16263284
38	0xbe1d6b0a	-0.15372863
39	0x3d1c81df	0.038209792
40	0xbf5499fb	-0.83047456
41	0xbf3328d8	-0.699842
42	0xbe5f165a	-0.2178587
43	0x3ec51646	0.38493556
44	0x3dc5307e	0.0962839
45	0xbf8740a1	-1.0566598
46	0xbf0a9c92	-0.5414516
47	0xbd2a8bbb	-0.041637164
48	0x3e97b81e	0.29632658
49	0xbd6c5887	-0.057701614
50	0x3f2702fe	0.6523894
51	0x3f278f70	0.65453243
52	0x3bc89716	0.0061215265
53	0x3e648a53	0.22318392
54	0x3eb00a4b	0.34382853
55	0xbe844449	-0.25833347
56	0xbf342ef1	-0.70384127
57	0xbe4d43ef	-0.20045446
58	0x3e8b2e0f	0.27183577
59	0x3c943d73	0.018095708
60	0x3f0e04c8	0.55476046
61	0x3e97ea42	0.29670912
62	0x3e24fc25	0.1611181
63	0x3d1ac892	0.037788935
64	0xbe4764d7	-0.19472061
65	0xbf7a4adf	-0.97770494
66	0xbf54032a	-0.8281733
67	0x3e1ca822	0.15298513
68	0x3dbdbd48	0.09264618
69	0x3e02cacb	0.12772672
70	0x3f4dfd3b	0.80464524
71	0x3ee5c466	0.44876403
72	0x3ea65b93	0.3249174
73	0xbd368cd7	-0.04456791
74	0xbe691da4	-0.22765213
75	0xbea259de	-0.31709188
76	0xbf7fe193	-0.99953574
77	0x3e61c565	0.22047956
78	0x3d0983b5	0.03357287
79	0x3e18448d	0.148699
80	0xbf2f2050	-0.6840868
81	0xbeb6cb84	-0.35702145
82	0xbddddcd2	-0.10833134
83	0xbebab9a0	-0.36469746
84	0x3a89680d	0.001048328
85	0x3d9b9657	0.075970344
86	0xbeb5944f	-0.35464713
87	0xbd99f71b	-0.07517835
88	0xbe721407	-0.23640452
89	0xbe9c9bd2	-0.3058763
90	0x3ecc2a23	0.39875898
91	0x3e64abd3	0.2233117
92	0x3ef29967	0.47382662
93	0x3d1b4752	0.037909813
94	0x3dd87409	0.10569007
95	0xbe6e3e4e	-0.23265955
96	0xbf63537d	-0.8879927
97	0x3ddc6520	0.107614756
98	0xbe02adeb	-0.12761657
99	0x3daafa32	0.08348502
100	0x3e96da6c	0.29463518
101	0xbdde1f18	-0.108457744
102	0xbe432a3a	-0.19059077
103	0xbe4bec3d	-0.19914337
104	0x3d8cea03	0.06880572
105	0xbefe2192	-0.49634987
106	0xbec7c515	-0.3901755
107	0xbed88eb6	-0.4229638
108	0xbbdae30b	-0.0066798977
109	0xbeb327e2	-0.34991366
110	0x3f207d53	0.6269123
111	0x3e43a408	0.19105542
112	0x3e81ba2b	0.25337347
113	0xbe89d20e	-0.26918072
114	0x3ed2e93f	0.41193578
115	0x3f5ddfa7	0.8666939
116	0x3f14a2bd	0.5806082
117	0xbdd14384	-0.10217956
118	0xbea838ff	-0.32855985
119	0x3ec7490f	0.38922927
120	0xbef9506b	-0.48694167
121	0x3d2167c5	0.039405603
122	0x3d19af7a	0.037520863
123	0xbf154394	-0.5830624
124	0x3e15801c	0.14599651
125	0xbe98c8c4	-0.29840672
126	0xbf32d9b2	-0.69863427
127	0x3e277530	0.16353297
128	0x3ea6b2de	0.3255834
129	0xbe9963b6	-0.29958886
130	0x3f840026	1.0312545
131	0x3daca8b9	0.08430619
132	0xbe473ccc	-0.19456786
133	0xbb84b5df	-0.004050001
134	0x3e872bf2	0.26400715
135	0x3e6b5348	0.22980988
136	0x3f248d0a	0.6427771
137	0x3d486333	0.04892273
138	0xbe980e70	-0.29698515
139	0xbd8bc011	-0.06823743
140	0xbebfc08d	-0.37451592
141	0xbf191da4	-0.59810853
142	0x3e87b612	0.26506096
143	0x3d27513a	0.040848948
144	0xbe533bda	-0.206283
145	0xbedee648	-0.43535066
146	0xbef670a0	-0.481328
147	0xbe369824	-0.17831475
148	0x3e7cb97e	0.24680135
149	0x3e2eb7b4	0.17062265
150	0x3ebe6219	0.37184218
151	0x3ef03731	0.46917108
152	0x3e82f50b	0.25577578
153	0x3de4472a	0.11146386
154	0x3e80b020	0.25134373
155	0x3f1ac916	0.6046308
156	0xbe67f6be	-0.22652718
157	0x3d4d85f8	0.05017659
158	0x3ed6c6dd	0.41948596
159	0xbdd5cd13	-0.104395054
160	0x3f48cf5f	0.78441423
161	0x3e2d243a	0.1690835
162	0x3de1de85	0.1102877
163	0x3d84f70d	0.06492434
164	0x3e478f9c	0.19488376
165	0x3efc2ed4	0.49254477
166	0x3e122e6e	0.14275524
167	0x3e9835aa	0.29728442
168	0xbcf3daea	-0.029767472
169	0xbe278bba	-0.16361895
170	0xbf379881	-0.7171708
171	0xbf3cee03	-0.7380068
172	0x3f0d6610	0.5523386
173	0x3edc53b6	0.43032616
174	0xbea1c521	-0.3159571
175	0x3f05ebd4	0.5231297
176	0x3e7766dd	0.24160333
177	0xbdc9dce5	-0.098565854
178	0x3db90034	0.09033242
179	0x3dd4097c	0.103533715
180	0xbecffb32	-0.40621334
181	0xbeeb4a9c	-0.4595536
182	0xbd3abc67	-0.04558983
183	0x3cd94860	0.026523769
184	0x3cee51d7	0.029091759
185	0x3f2a8b24	0.6661856
186	0x3f0e125a	0.5549675
187	0xbf038d84	-0.5138781
188	0xbe1bacc9	-0.15202631
189	0x3f07f01f	0.5310077
190	0x3ee28518	0.44242167
191	0x3f543139	0.8288761
192	0xbd86bcd4	-0.06578985
193	0xbbf6009f	-0.0075073983
194	0xbdb0f88b	-0.08641156
195	0x3f34aef4	0.7057946
196	0x3e543e5a	0.2072691
197	0xbe0a5fab	-0.13513057
198	0x39fb8a64	0.0004797756
199	0x3b81ca3d	0.0039608763
200	0x3dab2288	0.08356196
201	0xbe48abaa	-0.19596735
202	0xbcf18ed8	-0.029487059
203	0x3d8f2551	0.069895394
204	0x3e6762d1	0.22596289
205	0xbf389c87	-0.7211384
206	0xbec0d721	-0.3766413
207	0xbecc334c	-0.39882886
208	0x3d9bc981	0.07606793
209	0xbce0858f	-0.027407436
210	0x3e97b53d	0.2963046
211	0x3f2b32ea	0.66874564
212	0x3e9e11fe	0.30873102
213	0xbe390fc0	-0.18072414
214	0x3ddc5c52	0.10759796
215	0x3e54dc27	0.20787106
216	0x3ea38cd6	0.31943387
217	0xbef98f4e	-0.48742145
218	0x3ee5978c	0.44842184
219	0x3e684edb	0.22686331
220	0x3d90005c	0.070313185
221	0xbf566b66	-0.83757627
222	0x3f0d46c6	0.55186117
223	0xbeb805d8	-0.35941958
224	0xbd9a0456	-0.07520358
225	0x3f121d11	0.570756
226	0x3ef1413e	0.47120088
227	0xbe81d288	-0.25355935
228	0xbee2745a	-0.44229394
229	0x3f1d6a00	0.6148987
230	0x3eb284cf	0.3486695
231	0x3f006030	0.5014677
232	0x3ed0a210	0.40748644
233	0xbda40485	-0.080086745
234	0xbdff2924	-0.12459019
235	0x3f3df05a	0.7419487
236	0x3f395002	0.7238771
237	0xbe61d548	-0.22054017
238	0x3e70157c	0.23445696
239	0xbe139e03	-0.14415745
240	0xbf154739	-0.583118
241	0xbf127701	-0.57212836
242	0x3dc4434f	0.095831506
243	0xbd72af85	-0.05924942
244	0x3ded5e53	0.115902565
245	0x3f02f62f	0.51156896
246	0x3f616da8	0.8805795
247	0x3d797022	0.060897954
248	0x3e23aab5	0.15983088
249	0xbf2d2940	-0.6764107
250	0xbee964c0	-0.4558468
251	0xbf167d47	-0.5878491
252	0xbd876305	-0.06610683
253	0xbd1cdfa9	-0.038299236
254	0x3e528f2a	0.20562425
255	0x3f07b603	0.530121

v.v_net.0.bias f4 [64]
0	0xbedfce25	-0.43711963
1	0xbed5f060	-0.41784954
2	0xbee2fdfa	-0.44334394
3	0xbed5fd98	-0.4179504
4	0x3eec7bbf	0.4618816
5	0x3efec786	0.497616
6	0x3f034921	0.5128346
7	0x3edcb2b5	0.43105093
8	0xbedfbdaa	-0.4369939
9	0xbedba5ae	-0.4289984
10	0x3ee02682	0.4377938
11	0xbece0a6a	-0.4024232
12	0x3ef1c1fa	0.47218305
13	0xbf0890ac	-0.5334575
14	0x3eecef28	0.46276212
15	0xbf0e2acb	-0.55534047
16	0xbee84dcb	-0.4537185
17	0xbec0282d	-0.37530652
18	0x3ed065a3	0.40702543
19	0xbeea1524	-0.45719254
20	0x3eaa1f37	0.3322694
21	0xbed37dac	-0.41306818
22	0x3ed8aaa1	0.4231768
23	0x3ef65c6d	0.4811739
24	0xbec71b8f	-0.38888213
25	0xbef871bd	-0.48524275
26	0x3f0dfb88	0.5546193
27	0x3efaf30a	0.4901355
28	0xbea994d7	-0.33121368
29	0xbeecc615	-0.46244875
30	0x3ee88fff	0.4542236
31	0x3ea7fc19	0.32809523
32	0x3edc022e	0.42970413
33	0x3effb4bc	0.49942577
34	0xbf1348fb	-0.57533234
35	0x3efef4b3	0.49796066
36	0xbef358a2	-0.4752856
37	0x3ef97465	0.48721614
38	0x3efbb45c	0.4916104
39	0x3f025650	0.5091295
40	0xbeb7f2ba	-0.35927373
41	0xbef0ecda	-0.47055703
42	0x3eeb0e38	0.45909286
43	0x3eef6303	0.46755227
44	0xbee9aa33	-0.45637664
45	0x3ef0c5a2	0.47025782
46	0x3ed88b6f	0.4229388
47	0x3ef514c8	0.47867417
48	0xbf01ffb7	-0.50780815
49	0x3f0619d8	0.52383184
50	0xbf027650	-0.5096178
51	0x3ef3f871	0.47650483
52	0x3ef1bc4a	0.47213966
53	0xbf1a717f	-0.6032943
54	0xbed74987	-0.42048284
55	0x3e80b7ef	0.2514033
56	0x3ef73105	0.48279586
57	0xbf05a13d	-0.52199155
58	0x3eb7725a	0.3582943
59	0xbed9a3fb	-0.4250792
60	0xbed45626	-0.41471976
61	0xbeecb7ac	-0.4623388
62	0x3f01a046	0.5063518
63	0x3ecc3b4e	0.39888996

v.v_net.2.weight f4 [64, 64]
0	0x3e9df462	0.30850512
1	0xbb14155f	-0.0022595746
2	0x3f092d93	0.53585166
3	0x3eb7b2d0	0.3587861
4	0xbec45921	-0.3834925
5	0xbf018dd9	-0.5060707
6	0xbf213aed	-0.6298054
7	0xbeae6656	-0.3406245
8	0x3ed95865	0.42450252
9	0x3e395915	0.18100388
10	0xbec44ce2	-0.38339907
11	0x3d332ba6	0.0437428
12	0xbf432383	-0.7622606
13	0x3f19104a	0.5979048
14	0xbe8fbcbc	-0.2807368
15	0x3e7cb1db	0.24677221
16	0xbb8fe1f5	-0.00439095
17	0x3d82673f	0.06367349
18	0x3d35d89e	0.044396035
19	0x3e3ee52d	0.18642111
20	0xbec42881	-0.38312152
21	0x3ea5e373	0.32400092
22	0xbdc69a96	-0.09697454
23	0xbebc4229	-0.36769226
24	0x3e8f0005	0.27929702
25	0x3f08cc3e	0.5343665
26	0xbf0156e7	-0.5052323
27	0xbee1af79	-0.44079188
28	0x3f18f46b	0.5974795
29	0x3e6815b0	0.22664523
30	0xbe82eb53	-0.25570163
31	0xbec42614	-0.383103
32	0xbef9a624	-0.48759568
33	0xbf1e6415	-0.61871463
34	0xbd9a4ea1	-0.075345285
35	0xbe1d4970	-0.15360045
36	0x3e0dd6cb	0.13851468
37	0xbeb4f3d3	-0.35342273
38	0xbec6db62	-0.3883925
39	0xbec2a937	-0.38019726
40	0x3e689e75	0.22716697
41	0x3e98fafd	0.2987899
42	0xbf1d0172	-0.6133033
43	0xbd729362	-0.059222586
44	0x3e1f99c1	0.15585996
45	0xbea73112	-0.32654625
46	0xbd43c57d	-0.04779576
47	0xbf3116d1	-0.6917544
48	0x3e9653a9	0.29360703
49	0xbdd44afe	-0.10365866
50	0x3dde9170	0.10867584
51	0xbeb995d1	-0.36247113
52	0xbe055662	-0.13021234
53	0x3f046e33	0.5173065
54	0x3e29dddb	0.16588537
55	0x3c3d5280	0.011555314
56	0xbf022662	-0.5083982
57	0x3e4d1e38	0.20031059
58	0xbea4be3f	-0.32176396
59	0x3ec763c2	0.38943297
60	0x3ea09399	0.31362608
61	0x3e8106c4	0.25200474
62	0xbd609bc7	-0.05483606
63	0xbe51ed86	-0.20500764
64	0x3e551fa2	0.20812848
65	0x3ea63c9d	0.3246812
66	0xb9fc3207	-0.0004810246
67	0x3f2b9f28	0.6703973
68	0xbeea508c	-0.45764577
69	0xbf01fe58	-0.5077872
70	0xbe496329	-0.19666733
71	0xbf267f2e	-0.6503781
72	0x3f18de63	0.59714335
73	0x3ec677f9	0.38763407
74	0xbe978789	-0.29595593
75	0x3e863c1e	0.2621774
76	0xbeec12cc	-0.4610809
77	0x3df26f9b	0.11837693
78	0xbef3f2ad	-0.47646084
79	0x3eb48903	0.35260782
80	0xbe38b4ae	-0.18037674
81	0x3dc6f55e	0.09714769
82	0xbe8dd4fc	-0.27701557
83	0x3f1da796	0.6158384
84	0x3e00a290	0.12562013
85	0xbe666780	-0.2250042
86	0xbe8e0f7d	-0.27746192
87	0xbe7e3b1b	-0.24827234
88	0x3ec26bc0	0.37972832
89	0x3ea16d32	0.31528622
90	0xbe94480c	-0.28961217
91	0xbf00ae53	-0.50266
92	0x3bd41d05	0.006473186
93	0x3e7f178f	0.2491133
94	0xbbace6cd	-0.005276537
95	0xbe4dc3c9	-0.20094217
96	0xbece3d63	-0.4028121
97	0xbeb18897	-0.34674522
98	0x3ec13cf9	0.3774183
99	0xbf52b836	-0.82312334
100	0x3e61153d	0.21980758
101	0xbf564306	-0.8369602
102	0xbeb3abc0	-0.35091972
103	0xbf04b6e9	-0.518416
104	0xbee8dae4	-0.454795
105	0x3f0a4ae1	0.54020506
106	0xbee8bbf9	-0.45455912
107	0xbe22253d	-0.15834518
108	0x3e8586ed	0.26079503
109	0xbe80eddf	-0.2518148
110	0xbee0160f	-0.4376683
111	0xbeacefd5	-0.33776727
112	0x3e36d747	0.1785556
113	0xbf0f0b9b	-0.55877084
114	0x3e87e31a	0.26540452
115	0xbc49dc21	-0.012320549
116	0xbe6ea2ec	-0.23304337
117	0x3e0d43ca	0.1379539
118	0x3e27c860	0.16385031
119	0xbe0f2f7c	-0.13982958
120	0xbe4365e9	-0.19081844
121	0x3eea0fad	0.45715085
122	0xbe9c566c	-0.30534685
123	0x3f122806	0.5709232
124	0x3e39f4da	0.1815981
125	0x3f0ba604	0.54550195
126	0xbeb9d424	-0.36294663
127	0xbea33b12	-0.31881005
128	0x3e264aa1	0.16239406
129	0x3f2a0215	0.66409427
130	0xbc7b5a50	-0.015341356
131	0x3df4d354	0.1195437
132	0xbf29137f	-0.66045374
133	0xbe250708	-0.16115963
134	0xbf147589	-0.57991844
135	0xbe867bdf	-0.2626638
136	0x3d50632c	0.050875828
137	0x3eabc248	0.33546662
138	0xbd8d1131	-0.068880446
139	0x3edafbeb	0.42770323
140	0xbebb9fef	-0.36645457
141	0x3e895b40	0.2682743
142	0x3e1163bc	0.14198202
143	0x3e0d4924	0.13797432
144	0x3f52173a	0.8206669
145	0x3c25c97b	0.0101188375
146	0xbda465e7	-0.08027249
147	0x3f660ad9	0.898603
148	0xbdb6d74a	-0.08927782
149	0x3ed5e7bb	0.4177836
150	0xbee73874	-0.45160258
151	0xbead70d4	-0.33875144
152	0x3eb9284f	0.36163566
153	0x3f029059	0.5100151
154	0xbeff840f	-0.4990544
155	0xbf05f1c4	-0.5232203
156	0x3e15c22e	0.14624855
157	0x3eeb9af0	0.46016645
158	0xbe9a2f3e	-0.30114168
159	0xbd4e5781	-0.05037642
160	0xbec7e330	-0.39040518
161	0xbed205a5	-0.4101993
162	0x3de5019e	0.11181949
163	0xbe70f2fe	-0.23530194
164	0x3f0347b7	0.51281303
165	0xbda51662	-0.0806091
166	0xbed340e8	-0.41260457
167	0xbf103888	-0.5633626
168	0xbcbf2903	-0.023334986
169	0xbea47813	-0.3212286
170	0xbec9ef6d	-0.3944048
171	0xbe49b8b5	-0.19699366
172	0x3e31c437	0.17360006
173	0xbe35f807	-0.17770396
174	0xbea0cdc6	-0.31406993
175	0xbec1a1b5	-0.37818685
176	0x3ec954d6	0.39322537
177	0xbf210780	-0.6290207
178	0x3f1c999f	0.6117191
179	0xbf64b9c7	-0.89345974
180	0xbeb0771d	-0.34465876
181	0x3e64318d	0.22284527
182	0x3e78a8d2	0.2428315
183	0xbd5e60e2	-0.054291613
184	0xbc84ef1d	-0.0162273
185	0x3ea26119	0.31714705
186	0xbe14b3a3	-0.14521651
187	0x3e8a4b7d	0.27010718
188	0x3e2a124f	0.16608547
189	0x3f165458	0.5872245
190	0xbf01fe70	-0.50778866
191	0xbc088de8	-0.008334614
192	0x3e9d200c	0.30688512
193	0xbe58f0bc	-0.21185583
194	0x3ea00062	0.31250292
195	0x3d80fccc	0.06298217
196	0xbf1d118d	-0.61354905
197	0xbee94b45	-0.4556524
198	0xbe803161	-0.25037673
199	0xbdc99c21	-0.09844232
200	0x3f3e799d	0.7440432
201	0x3e9ccd9c	0.30625618
202	0xbec96338	-0.3933351
203	0x3ef99774	0.48748362
204	0xbf03a7e2	-0.51428044
205	0x3f04fbeb	0.51946896
206	0xbe49311c	-0.1964764
207	0x3f40e777	0.7535319
208	0xbd42b924	-0.047539845
209	0x3e655c70	0.22398543
210	0xbf02b732	-0.51060784
211	0xbd8c1b6b	-0.06841167
212	0xbeabbd9c	-0.33543098
213	0x3eb81b38	0.35958266
214	0xbe862a90	-0.26204348
215	0xbe7cc948	-0.24686158
216	0x3efdc28e	0.49562496
217	0x3e82c257	0.25538895
218	0xbf00c84c	-0.5030563
219	0xbecedb28	-0.40401578
220	0x3e6b0952	0.22952774
221	0x3ebc5692	0.36784798
222	0xbe6f72ce	-0.23383638
223	0xbeb99731	-0.36248162
224	0xbdc89862	-0.0979469
225	0xbeae1f18	-0.34008098
226	0x3ea953e7	0.33071825
227	0xbead3f2b	-0.33837256
228	0x3f00efca	0.5036589
229	0xbf20fe0b	-0.6288764
230	0xbe38e10e	-0.18054602
231	0xbe5e32b3	-0.21699028
232	0x3e4f57f5	0.20248397
233	0x3e8242da	0.2544163
234	0xbe223e8a	-0.1584417
235	0xbedba90b	-0.42902407
236	0x3ead0459	0.3379238
237	0xbc72a34a	-0.014809439
238	0xbe2f00b8	-0.17090118
239	0xbd9fbff0	-0.07800281
240	0x3f0ccc82	0.54999554
241	0xbe8f9c0e	-0.28048748
242	0x3e951722	0.2911921
243	0xbe1ea13f	-0.15491198
244	0xbebff33a	-0.37490255
245	0x3efe25e4	0.49638283
246	0x3ebeff7d	0.37304297
247	0xbf3d5984	-0.73964715
248	0xbebf5b88	-0.3737452
249	0x3de37c01	0.11107636
250	0xbe830ee1	-0.2559729
251	0x3e38acd2	0.18034676
252	0x3e8eeaac	0.27913415
253	0x3e915cf9	0.28391245
254	0xbe54017d	-0.20703693
255	0xbe81516c	-0.25257432

v.v_net.2.bias f4 [64]
0	0xbe9cafe4	-0.30602944
1	0xbe60aa46	-0.21939954
2	0xbea3136b	-0.31850752
3	0xbea812bd	-0.32826796
4	0xbe8f0897	-0.2793624
5	0xbea45db8	-0.32102752
6	0x3e94a796	0.29034108
7	0xbe747da5	-0.23876055
8	0xbe998ad8	-0.29988742
9	0x3e8e8e9a	0.2784317
10	0xbe842366	-0.25808257
11	0xbe65fb6a	-0.22459188
12	0x3e69488b	0.22781579
13	0x3e860127	0.26172754
14	0xbe90bac0	-0.2826748
15	0x3e80ff28	0.2519467
16	0xbe880c7f	-0.26572034
17	0x3e96532b	0.29360327
18	0x3e7c452a	0.24635759
19	0xbe90b2fa	-0.28261548
20	0x3e802e2a	0.2503522
21	0xbe7768b4	-0.24161035
22	0xbea092f8	-0.31362128
23	0xbe84b9ea	-0.2592309
24	0xbe72e795	-0.23721154
25	0xbe8e8a2f	-0.278398
26	0x3eafc087	0.34326574
27	0xbe85513e	-0.26038545
28	0x3e89a72f	0.26885363
29	0x3e95e986	0.29279727
30	0x3e887a22	0.2665568
31	0xbe752a62	-0.23941949
32	0x3e77f594	0.24214774
33	0x3e672305	0.22571953
34	0x3e7f8c75	0.24955924
35	0xbe81d1e8	-0.25355458
36	0x3e87ea4b	0.2654594
37	0x3e9d464f	0.30717704
38	0xbe9eed17	-0.3104026
39	0xbe960cd0	-0.2930665
40	0xbe5b8efc	-0.21441263
41	0xbe969085	-0.29407135
42	0x3eae73f1	0.3407283
43	0xbe9032d9	-0.28163794
44	0x3e7fb3f0	0.24970984
45	0xbe99a171	-0.30005983
46	0x3e8475af	0.25871035
47	0x3e90b1f4	0.28260767
48	0xbe8f23ac	-0.27956903
49	0xbe9041c5	-0.28175178
50	0x3ea8c68c	0.3296398
51	0xbe937018	-0.28796458
52	0xbe854ee1	-0.26036742
53	0xbe8e090d	-0.2774128
54	0x3e911df4	0.28343165
55	0x3e53ecc4	0.20695788
56	0xbea2e553	-0.31815585
57	0x3e958739	0.2920473
58	0xbe949726	-0.29021567
59	0x3e8ff3c8	0.28115678
60	0xbe99af81	-0.3001671
61	0xbea1de81	-0.3161507
62	0x3e802fce	0.25036472
63	0x3e675396	0.22590479

v.v_net.4.weight f4 [1, 64]
0	0x405827e2	3.3774343
1	0x408117e1	4.034165
2	0x404ef478	3.2336712
3	0x4046dd6a	3.107264
4	0x404739de	3.112907
5	0x404f843e	3.2424464
6	0xc04a5eae	-3.1620288
7	0x404f311c	3.2373724
8	0x404a35ca	3.159533
9	0xc043feae	-3.0624194
10	0x4056ab50	3.354206
11	0x40544520	3.316719
12	0xc06f6482	-3.7405095
13	0xc05b4fb0	-3.4267387
14	0x405455c8	3.3177357
15	0xc053d4ae	-3.309856
16	0x405a55ca	3.4114861
17	0xc060c88a	-3.51224
18	0xc066e382	-3.607636
19	0x405880e2	3.3828664
20	0xc0539d80	-3.306488
21	0x405e026a	3.4688973
22	0x4047b992	3.1207013
23	0x4042a40c	3.0412626
24	0x405ecc0e	3.4812045
25	0x4050501e	3.25489
26	0xc04d6f78	-3.2099285
27	0x405e1d74	3.4705477
28	0xc047ab2c	-3.1198225
29	0xc05cf7b0	-3.4526176
30	0xc067140a	-3.610598
31	0x40491842	3.1421056
32	0xc059280c	-3.3930693
33	0xc059aabe	-3.4010463
34	0xc058125e	-3.376121
35	0x405777d6	3.3666892
36	0xc06133f2	-3.5187955
37	0xc04955c6	-3.1458602
38	0x4051d710	3.2787514
39	0x40549afe	3.32196
40	0x40515324	3.2706995
41	0x404c5310	3.1925697
42	0xc0439d74	-3.0564852
43	0x4056ea3e	3.358047
44	0xc06126d6	-3.5179954
45	0x4050455a	3.254233
46	0xc04a7212	-3.1632123
47	0xc051dfba	-3.2792802
48	0x4043d982	3.0601506
49	0x404bb1d2	3.1827283
50	0xc0531a8c	-3.2984953
51	0x405dc898	3.4653683
52	0x4044396e	3.0660052
53	0x404a1dbe	3.1580653
54	0xc044ae4a	-3.0731378
55	0xc05cf026	-3.4521575
56	0x404e526c	3.2237806
57	0xc05ccb4c	-3.4499083
58	0x4055459a	3.3323731
59	0xc0580b02	-3.3756719
60	0x4050436c	3.254115
61	0x405af716	3.421331
62	0xc062b626	-3.5423675
63	0xc067ae4e	-3.6200137
