tmp/experiments/RN0 False,True,True/pyt_network_save/model save71000.pt (torch_old, 314943 bytes, 33 tensors)

pi.pi_net.0.weight f4 [64, 5]
000000 b3 46 e1 3c 63 b3 4f be 27 e4 c0 3d 41 3d da bd
       0.027499532 -0.20283274 0.094185166 -0.106562145
000010 38 f3 63 3e 88 99 0d 3f 2d 3b 12 bf ec 10 0c 3f
       0.2226075 0.55312395 -0.57121545 0.5471332
000020 c4 68 ba be 39 58 ed 3e c9 a6 e0 3d 89 47 ef 3e
       -0.36408055 0.4635637 0.10969312 0.46734264
000030 b9 cd 8b bc a5 1b 45 bd e6 db 29 3e aa 76 7e be
       -0.01706587 -0.048122067 0.16587791 -0.24849954
000040 06 eb 18 be 3a ff a9 be ee ac b8 3d c9 62 0f 3f
       -0.14933404 -0.33202535 0.09017359 0.5601011
000050 41 7a 80 be 38 e4 3d bf a5 78 95 bf 28 a4 bd be
       -0.25093272 -0.7417636 -1.1677443 -0.37039304
000060 c3 46 96 bf 77 94 3b be 15 3f 0c 3f eb 23 50 3d
       -1.1740345 -0.18318354 0.54783756 0.050815504
000070 38 54 f0 bc b1 d9 f7 be 19 67 0c be 96 c5 85 bd
       -0.029337034 -0.48408273 -0.13711204 -0.06531827
000080 34 eb ad ba 8c bf 80 be 08 3f f6 bc 40 12 0b 3f
       -0.0013268949 -0.2514614 -0.030059353 0.5432472
000090 a8 ff de 3e fb af 4f bc f6 8f cd be 09 36 3e be
       0.43554425 -0.012676234 -0.40148896 -0.185753
0000a0 61 c4 cd 3e 17 db 9d bd ef 77 08 be 32 90 61 3e
       0.40188888 -0.07707804 -0.13327001 0.22027662
0000b0 41 45 de be d2 0d f8 be 2a d5 b8 be 47 d8 0d 3c
       -0.43412212 -0.48448044 -0.3610013 0.008657522
0000c0 cf b7 92 3e 2b 98 c2 be fa b1 d0 3d 07 93 18 be
       0.2865586 -0.3800672 0.10190196 -0.14899836
0000d0 ad fa 9c be 51 c7 2a 3f e3 6c 75 be 57 b0 78 3d
       -0.3066 0.6671038 -0.23967318 0.060715046
0000e0 96 c7 f7 3e 0e 6d c3 bc 18 e7 19 be 9b f6 30 3e
       0.4839446 -0.023855712 -0.15029562 0.17281573
0000f0 d4 00 a2 3e 69 ac 26 3f 9c 97 cf bd c6 0e 11 3e
       0.31641257 0.6510683 -0.10136339 0.14165792
000100 d5 12 e0 be b4 ca 9d 3d 39 2e 4e 3e c6 45 b1 3e
       -0.43764368 0.07704678 0.2013482 0.34623545
000110 96 b2 41 be 1c 17 66 3e 8f fa 11 3f 47 2d 91 3e
       -0.18915781 0.22469753 0.5702295 0.28354856
000120 35 8a 0b 3e a9 5c 8c be e8 82 9f be 1f 2b b3 3d
       0.1362694 -0.27414444 -0.3115456 0.08748459
000130 55 2f 8c 3e e4 fe a8 3d 78 5e 75 be 2f 9f a9 be
       0.2737986 0.082517415 -0.23961818 -0.3312926
000140 7b 35 ab be fa db 94 3d 72 da cc bd 59 9a 4c 3e
       -0.3343924 0.0726852 -0.10002603 0.19980754
000150 e9 4b 57 3e 14 c5 93 be 55 db 5d be 24 26 09 3f
       0.21025051 -0.28861296 -0.216657 0.5357382
000160 50 24 c6 3c e0 e9 60 be 33 74 43 3f fc 2b a0 3e
       0.024187237 -0.21964216 0.7634918 0.31283557
000170 ad 7f 86 3d c9 8a 8a be 91 57 9a be d6 d3 6c be
       0.06567321 -0.2705901 -0.30144933 -0.23127684
000180 c6 45 70 be 38 75 ce 3d c5 73 a5 3e bf 25 dc bd
       -0.23464116 0.100809515 0.32314888 -0.10749387
000190 87 eb 4d 3d a6 b7 7c 3e e1 9e 70 3d 6c 63 96 be
       0.050273445 0.24679431 0.05874527 -0.29372728
0001a0 b5 2a aa 3e c3 84 83 3d ea e8 b6 3e dd 7c 42 3e
       0.33235708 0.06421807 0.35724574 0.18992944
0001b0 cb 7c fc be 02 f5 6e 3d 59 5c 80 3e c9 e0 08 3f
       -0.4931396 0.058339126 0.25070456 0.53467995
0001c0 95 26 1a be 6c 41 0a 3e 51 fb b6 be c2 c3 19 3f
       -0.1505378 0.13501519 -0.35738614 0.6006433
0001d0 6b fa d8 3e 8a 7b 01 3e 3f 42 53 3f aa 0c 4f 3f
       0.42378554 0.12644783 0.8252296 0.808787
0001e0 65 b2 8b be 8d 62 6b be 3e 84 43 3e df 1d 25 be
       -0.27284542 -0.22986813 0.19093415 -0.16124676
0001f0 8c 50 88 3e e3 24 f0 be 4a 4c a7 be 88 6b 02 3d
       0.26623952 -0.46903142 -0.3267539 0.03184083
000200 6a 95 81 3e 06 f1 44 3d 69 5a 0d bf 64 8e da be
       0.25309306 0.04808142 -0.5521608 -0.4268676
000210 55 8b c9 3d fb 5d 91 3d 54 44 35 3f b2 7c 3f 3f
       0.098410286 0.070980035 0.70807385 0.74799645
000220 aa a0 a7 3e ed bc ab be ca 0b 09 3d 2a c2 4c be
       0.32739764 -0.33542576 0.03345851 -0.19995943
000230 50 38 2d bd 44 67 a3 3c c4 9b 14 bf d1 4c 9e 3d
       -0.042290032 0.019946702 -0.5805018 0.07729495
000240 27 3c d7 bd 8a 58 e6 3e 89 ef 30 be de e2 22 3e
       -0.1050952 0.44989425 -0.17278875 0.15906855
000250 5a 54 b9 be 4a b6 a7 bd 69 ee 93 3e 11 3c 85 3e
       -0.36197168 -0.08189066 0.2889283 0.2602239
000260 75 71 05 3f ab 87 0e bf 2e b9 aa be 88 b4 10 bf
       0.52126247 -0.5567576 -0.33344406 -0.5652547
000270 c5 ca 3e be 90 11 1c 3e 81 de 81 3e 08 1d e5 bd
       -0.18632038 0.15241075 0.2536507 -0.11187178
000280 d5 c6 c0 3d 36 5f e3 bb 1c d9 a9 be 5f 6c c6 3d
       0.09412924 -0.0069388403 -0.33173454 0.09688639
000290 fe c0 0e 3f 4e 43 d4 be 9d 13 e4 3d a3 97 75 3c
       0.5576323 -0.414576 0.111365534 0.014989766
0002a0 13 85 2a bc 18 f9 c3 3d 9f d3 b3 be 08 fc a7 3e
       -0.010407704 0.09568995 -0.35122392 0.32809472
0002b0 1f ed 07 bd 08 c0 06 bf 29 17 00 3f d3 60 88 bc
       -0.03318512 -0.52636766 0.5003534 -0.016647732
0002c0 50 34 b9 3e 59 68 c5 3e 1e f6 d9 bc ba 14 ac be
       0.36172724 0.38556173 -0.026606616 -0.33609563
0002d0 43 2e 99 be 25 03 35 3c 7f 46 db 3c 8f c0 a1 3e
       -0.29918107 0.011048113 0.026767014 0.31592223
0002e0 4a 69 73 bd ed 03 06 3d 42 a5 c1 bd dd 1c 00 be
       -0.059426583 0.032718588 -0.094553486 -0.1251101
0002f0 11 74 39 be cd 61 a9 3e 3f d1 38 3e 50 c1 3c 3f
       -0.18110682 0.3308243 0.18048571 0.7373247
000300 ef cc f1 be a8 11 97 bc c7 60 2f be da b2 10 3e
       -0.47226664 -0.018441036 -0.17126761 0.14130726
000310 5c 66 9e 3e d7 b3 ee 3e c2 01 c3 be 28 ba 52 be
       0.3093747 0.46621582 -0.3808728 -0.20578825
000320 20 b3 c2 3e 8a f5 f0 3e 4e 96 83 be f2 20 3b 3e
       0.38027287 0.4706233 -0.2570061 0.18274286
000330 c7 ec 12 bf 6e 0e f5 bc ec 7a 8e bc e9 5d 4e be
       -0.57392544 -0.029914107 -0.017392598 -0.20153011
000340 8b 18 db 3e ac 63 5c bc 9d 92 ab 3e 38 ab c7 3e
       0.42792162 -0.013451498 0.33510295 0.38997817
000350 62 eb 65 be 1b ad 36 bd 87 63 d1 bd 37 f2 87 3e
       -0.22453073 -0.04459868 -0.102240615 0.26551983
000360 64 03 b4 be aa 41 f9 3e e9 04 06 3e 12 da f6 be
       -0.35158837 0.4868291 0.1308781 -0.4821325
000370 ae 6d c2 3d c6 b5 a1 be c2 e1 3d be 72 6f a7 bd
       0.09493576 -0.31583995 -0.18543151 -0.081755534
000380 20 8b bf 3e 22 64 15 3f 3d ac d7 bd 37 aa e3 3e
       0.3741083 0.58355916 -0.10530899 0.444658
000390 f5 63 55 be 6f 62 e8 be a5 5b 3a be 45 01 03 3f
       -0.20838912 -0.453876 -0.18199022 0.5117381
0003a0 15 c5 1b bd 6e 6d 51 3e 86 11 00 bf f8 7a c6 3d
       -0.03802975 0.204519 -0.5002674 0.09691423
0003b0 06 51 d2 be 20 e0 db 3e 42 43 78 bd 82 fe 0b be
       -0.4107744 0.4294443 -0.060611017 -0.13671306
0003c0 3f e7 8c 3e bb 13 b0 be dc 97 2f be cf af c0 3d
       0.27520177 -0.34390053 -0.17147774 0.09408533
0003d0 d2 80 c3 3c 98 25 f1 be 35 22 84 bf b8 ae 9a bf
       0.023865137 -0.47098994 -1.0322939 -1.208457
0003e0 a8 57 ad be 53 7e 6c bf 98 de 9b bf b8 9b 36 be
       -0.3385594 -0.92380255 -1.2177305 -0.1783284
0003f0 42 37 0d be eb 20 d2 bd e0 5f 3b 3e bd 1b 1f 3e
       -0.1379061 -0.10260185 0.18298292 0.15537925

pi.pi_net.0.bias f4 [64]
000000 71 99 a2 be c4 a2 0c bf 7d 88 da 3e 16 d1 18 3e
       -0.31757692 -0.5493586 0.42682257 0.1492351
000010 d4 33 c5 be e2 1f a8 3e 09 43 26 3d 1e 2e 7b bc
       -0.38516104 0.32836825 0.040591273 -0.015330819
000020 c5 20 c2 be 34 db a3 be c3 b3 b3 be 2b 48 db bd
       -0.37915626 -0.32003176 -0.35098085 -0.10707124
000030 8a d2 1c bf e8 1a 1e bc f9 55 d9 be 56 91 fe 3e
       -0.6125876 -0.00964997 -0.42448404 0.49720258
000040 c9 d9 0d 3f 30 47 1e 3e 11 53 84 bd 1d 66 5b bd
       0.5541044 0.15456843 -0.06461156 -0.05356418
000050 78 35 f6 3e 16 cb e2 3d 29 03 6e 3e c1 ca e9 3e
       0.48087668 0.11073892 0.23243393 0.456625
000060 91 b4 5a be 1c 50 04 3f 65 98 c8 3c 4e 81 c5 be
       -0.21357943 0.5168474 0.02448673 -0.38575214
000070 dd a6 e0 3e b8 54 e7 be 7c d1 f5 bd 5f a8 13 3f
       0.43877307 -0.45181823 -0.120028466 0.5767879
000080 eb 0a ad be d9 3e 11 3f af 3c ec 3e 1d a2 00 be
       -0.33797392 0.5673652 0.46140048 -0.12561841
000090 4d 14 39 3f 12 81 89 3e 74 95 97 3e 90 11 b6 be
       0.722966 0.26856285 0.2960621 -0.35560274
0000a0 11 9e 60 be 0c 15 92 be 55 f4 ec be 30 25 fc bd
       -0.21935298 -0.28531682 -0.4628016 -0.123117805
0000b0 b3 dd 2a bd b4 26 f7 be 75 25 00 3f a4 5d 72 3d
       -0.041715335 -0.48271716 0.50057155 0.059171334
0000c0 23 c5 f5 bd bf 20 fa be 60 14 0f be 65 4f dd 3e
       -0.120004915 -0.48853108 -0.13972616 0.43224636
0000d0 6c 78 71 bc a5 b1 f0 3e d8 b4 1b 3e b3 7d 0b bf
       -0.0147381835 0.47010532 0.15205705 -0.54488677
0000e0 f1 12 cf be 5a 43 09 be 8b 31 85 be 65 dc 17 bf
       -0.4044414 -0.13404599 -0.2601436 -0.5932067
0000f0 eb b7 56 be 96 21 c7 be c6 82 ab be 06 d7 83 3e
       -0.20968597 -0.38892812 -0.3349821 0.25749987

pi.pi_net.2.weight f4 [64, 64]
000000 33 7c 81 3d 5b d1 b6 3e 7b 92 95 be 74 b4 a2 bd
       0.06322517 0.357066 -0.29213318 -0.07944575
000010 86 32 c0 3e 9d 87 28 bf b8 45 98 3e 70 ef e2 be
       0.37538546 -0.6583193 0.2974069 -0.443233
000020 e2 7d 4d 3d 75 df 44 3e fe 97 e9 3e 2b 2d 83 be
       0.05016888 0.19225867 0.45623773 -0.25620398
000030 9d 4b e9 bc 3c 11 ee bd b8 17 17 be 19 9b 12 be
       -0.028478438 -0.11624381 -0.14755142 -0.14316978
000040 31 f7 55 bd e5 38 85 3e b2 a7 30 bd 41 76 ad 3e
       -0.052237693 0.2601997 -0.043128677 0.33879283
000050 73 e0 1f bf 03 c3 6e be 37 ab d5 be 2f b6 44 be
       -0.6245186 -0.23316579 -0.4173219 -0.19210123
000060 52 de ab 3e 8b 1c d8 3e 04 75 e8 be 33 65 9b 3e
       0.33568054 0.42209277 -0.45401776 0.30350646
000070 d7 e5 24 3d e6 48 fb 3e e6 26 9a be 5a cc 97 3d
       0.040258255 0.49079055 -0.30107802 0.07412024
000080 1e 55 b8 3e 3d f0 0d be 11 e1 25 bf eb c5 35 bf
       0.3600244 -0.13861175 -0.6479655 -0.71005124
000090 d8 d7 c1 3a ae 7c f4 be d3 73 e5 be ef 78 9d be
       0.0014789058 -0.47751373 -0.4481493 -0.30756328
0000a0 f2 0a 67 3c 1c 7f 83 bd d8 a1 31 bd a1 45 68 3e
       0.014101731 -0.064207286 -0.043367237 0.22682811
0000b0 70 9c ed 3e ee e6 d1 3e 7c e2 87 bf 72 e0 a6 3c
       0.46408415 0.40996498 -1.0615993 0.020370696
0000c0 93 7f 83 3f ab e2 bb 3e b2 0b 46 3e dd 5c c4 be
       1.0273308 0.3669637 0.19340399 -0.383521
0000d0 dd 06 b8 be 1a 7c 71 be 82 d3 6f be 50 64 bc 3e
       -0.35942736 -0.23582497 -0.23420528 0.36795282
0000e0 2e f1 35 3f 14 d4 ab bd 91 df 94 3d d1 fb f9 3e
       0.71071136 -0.0839006 0.072692044 0.48824933
0000f0 91 10 96 3e f5 95 b0 3e 06 fd db 3e 49 3b d2 3e
       0.29309514 0.34489408 0.4296648 0.41060856
000100 bb 95 6c be 02 78 09 bf 1b c6 f9 bc 2c 07 05 be
       -0.23103993 -0.5369874 -0.030489972 -0.12991017
000110 58 4f e6 3d 62 fa 14 3f f0 ca 20 3e f8 47 b7 3e
       0.11245602 0.58194554 0.15702415 0.35797095
000120 f7 fb 90 bb 21 b6 25 3c 98 d0 a6 3a 62 81 ba 3e
       -0.004424568 0.010114224 0.0012726961 0.36426836
000130 44 88 9c be 14 6b d4 3d 7f 30 8e bc 8d ab e2 3c
       -0.30572712 0.10371986 -0.01735711 0.027669692
000140 dd 25 5a 3e e9 37 dd bd 24 8a b1 3e 47 85 9c 3c
       0.21303506 -0.1080168 0.34675705 0.01910652
000150 91 f9 aa bc 06 2d 05 be 95 16 3e be 7e 8a fd 3d
       -0.020870956 -0.13005456 -0.18563302 0.12379931
000160 b3 e7 27 bc 8a 46 9c 3e 4d 12 29 be 0d 97 32 be
       -0.0102481125 0.30522567 -0.16510887 -0.17440434
000170 e2 3e bf 3e ba 4e 81 be 3e e5 80 3e e4 9f 41 3d
       0.37352663 -0.25255376 0.25174898 0.047271624
000180 1f 4e 08 be f8 82 13 3e 2c 39 e1 bb 9e 3b 04 3e
       -0.13311051 0.1440543 -0.0068732705 0.12913367
000190 e7 be eb 3e 07 b1 65 3e 21 9b fa 3d 67 0c 8c be
       0.46044084 0.22430812 0.1223662 -0.27353212
0001a0 f8 ac af bc a4 0d fa bd 79 10 a0 be 9f c1 80 3d
       -0.021444783 -0.12209633 -0.31262568 0.0628693
0001b0 2d 36 93 be 6a 64 9d bc 1a 3c d2 3e 70 e0 71 be
       -0.2875227 -0.01921292 0.4106148 -0.23620772
0001c0 a1 3a 63 3e 2c 16 51 3c e5 9e f7 ba 62 8c b3 bd
       0.22190334 0.012761634 -0.0018891959 -0.0876701
0001d0 4a 40 4e 3e 35 ca 2f be b0 74 97 3c 5c d3 28 3d
       0.20141712 -0.1716698 0.018488258 0.041217193
0001e0 29 7b be be c1 db 55 bd 0e ac ef be 46 79 d4 bd
       -0.3720334 -0.052211527 -0.46810955 -0.103746936
0001f0 21 5a 2a be fe 27 9d bd 40 24 dd 3e 40 88 55 3e
       -0.16635944 -0.076736435 0.4319172 0.20852757
000200 e0 40 79 3d ff 42 8c bd bf d7 43 be 80 66 8d be
       0.060852885 -0.06848716 -0.1912527 -0.27617264
000210 3a 00 dd bd 4d a8 3f 3e 76 66 c6 be ae ca 6d be
       -0.10791059 0.18716545 -0.38750046 -0.23221847
000220 66 f4 5b bf c6 f2 31 be c0 62 85 3e 9c c8 40 3e
       -0.859198 -0.17377767 0.26051903 0.18826526
000230 e1 67 6e 3d ab 90 5d 3f e5 0a 3d be 44 68 0b 3f
       0.058204535 0.8654887 -0.18461187 0.5445597
000240 de 73 d4 3e 90 7f d5 3d d0 0d 20 3d d5 7d 1d 3e
       0.4149465 0.10424721 0.039075673 0.15380032
000250 00 7c 0a 3f 82 d2 14 3f f4 bc 36 3f 1e 65 b6 3e
       0.5409546 0.5813371 0.7138207 0.3562402
000260 57 38 e4 be 50 cf 5d bd 1d c3 84 be 9b a2 69 bd
       -0.44574234 -0.054152787 -0.2593011 -0.05703984
000270 03 09 80 be 8a db 7e be 6d 86 c7 3e 85 d5 b9 3d
       -0.25006875 -0.24888435 0.38969746 0.09073929
000280 be 86 84 bd aa 71 08 3f 28 06 59 3e a8 d6 df be
       -0.064710125 0.5329844 0.21193755 -0.43718457
000290 95 a5 4e 3e 92 08 ce 3e e0 92 c6 3e 39 6d 71 3a
       0.20180352 0.40240914 0.38783932 0.0009209696
0002a0 0c f4 9a 3e 33 bc 82 be 5a 0e 80 be b7 93 e6 be
       0.30264318 -0.2553421 -0.2501095 -0.45034572
0002b0 af f2 2e 3e 8d 5e 1e 3d cd 49 e0 3e e8 18 20 be
       0.17084764 0.03866439 0.43806306 -0.15634501
0002c0 1d e3 13 bf 16 63 5c be 4b 4a 2e bf d7 7c ee 3e
       -0.5776842 -0.21522173 -0.6808211 0.4657962
0002d0 aa cb cf 3d 2f 0a 24 3f 59 d6 d7 3e 61 98 b8 be
       0.10146268 0.6407804 0.42155722 -0.36053756
0002e0 6b 54 09 bd 10 16 32 3f 04 b0 93 be f8 1f 8f be
       -0.033527773 0.69564915 -0.28845227 -0.27954078
0002f0 9f 7c 9b 3e 63 be 3f 3e 5b 65 03 bf 49 2c b4 be
       0.30368516 0.1872497 -0.5132653 -0.35190037
000300 9d 0d 2d bf 7b 66 04 be 36 da 07 3f 42 5b 67 3e
       -0.675989 -0.12929718 0.5306734 0.22593406
000310 e0 03 54 3e 3b c8 bb bd 14 30 06 3e 11 f0 2f 3d
       0.20704603 -0.0916905 0.13104278 0.042953555
000320 39 2f 22 3e fc 01 19 bf 11 e1 b3 be 64 2c 7a be
       0.15838327 -0.5976865 -0.3513265 -0.24430996
000330 83 16 b2 be ae 44 f6 be e0 79 18 be d4 c4 00 be
       -0.347828 -0.48099273 -0.14890242 -0.12575084
000340 a9 c1 25 3f ba ff 07 bf 04 36 00 bf 22 73 21 3e
       0.64748627 -0.5312458 -0.5008242 0.15766576
000350 fd e2 0c 3e 56 3c 93 3e ad 0b e7 bd b2 c0 7b be
       0.13758464 0.2875697 -0.11281524 -0.24585226
000360 29 9c 37 be 69 42 61 3d af 7d b4 3e a4 af 2f bf
       -0.17930664 0.054994974 0.3525214 -0.6862738
000370 bf f6 93 3e ca eb fc be 26 dc b1 be 11 1c 6b 3e
       0.2889919 -0.49398643 -0.34738272 0.22959925
000380 5d 5c ac bd 40 a8 92 3d 83 b1 f7 3d 79 7d cf bd
       -0.084160544 0.071609974 0.120944045 -0.10131354
000390 f3 f7 11 3f 42 ba 0e 3d d9 51 b7 3e d8 73 9a bd
       0.57018965 0.034845598 0.35804632 -0.07541627
0003a0 8f 07 b2 3b 02 24 62 be ab dc de be 1c e0 d1 bd
       0.00543303 -0.22084048 -0.4352773 -0.102478236
0003b0 e7 94 90 be 89 b3 ba be 3b b9 1f 3e 14 72 63 be
       -0.28238603 -0.364651 0.15598004 -0.22211486
0003c0 08 49 2a be 57 b3 8c 3e a1 9f b4 bc 34 e6 78 be
       -0.16629422 0.27480575 -0.022048773 -0.24306566
0003d0 0e 1e eb 3c dd fb 10 3f e6 18 cc 3d e1 3e 57 be
       0.028700855 0.5663431 0.099656865 -0.2102008
0003e0 3f c2 3f bf b2 5e 87 be 70 0e 8e 3d eb b5 7b be
       -0.7490577 -0.26439434 0.069363475 -0.24581115
0003f0 7a f5 be be aa db 25 bf 86 b1 76 be da 52 8f 3e
       -0.3729666 -0.64788306 -0.24091157 0.27992898

pi.pi_net.2.bias f4 [64]
000000 c6 a1 a6 be 18 ec 7d 3d d4 62 ab 3e 47 f2 b3 3d
       -0.32545298 0.061992735 0.33473837 0.08786445
000010 73 c1 9e 3c 40 a8 e1 3d 35 66 7d bd 3f 12 d6 3d
       0.019379353 0.11018419 -0.06186505 0.10452699
000020 1b ad a6 bc 17 c9 25 be f7 b4 1e 3e 7a b3 b2 be
       -0.020346215 -0.16189991 0.1549872 -0.34902555
000030 e9 cc a2 3e de 78 20 3e aa c4 be 3d 43 c4 d1 bd
       0.3179696 0.15671107 0.093148544 -0.10242512
000040 c9 8f 11 3e 90 5c de bd 50 53 a2 3e a7 ed 37 3d
       0.14215006 -0.10857499 0.31704187 0.044904377
000050 15 17 10 3e a5 75 a3 bc 9f a1 c5 3d a5 f1 18 3a
       0.14071305 -0.019953558 0.096499674 0.00058343477
000060 55 4c 92 bd 44 b4 d2 3d dc cc d0 bc 8a db a9 bd
       -0.071434654 0.10288289 -0.02548831 -0.08293827
000070 d2 ad a0 bd f2 b9 62 be d0 bf 30 3e b6 95 60 3e
       -0.078456536 -0.22141245 0.1726067 0.2193211
000080 da db 3d 3d 26 fd 38 3e 62 26 f3 3c a3 bb 61 be
       0.046352245 0.18065318 0.029681388 -0.22044234
000090 ad 2f a5 bd 2c 06 92 3e 40 f3 81 bd ba fd 0e 3e
       -0.08065734 0.28520334 -0.063452244 0.13963977
0000a0 33 ef 16 be 98 a9 4d bd 7e 9f db 3d 2d c6 7c 3e
       -0.14739685 -0.050210565 0.1072378 0.24684973
0000b0 02 41 9e be a0 f8 33 be ed 73 3d 3e 8e f4 ce bc
       -0.30908972 -0.17575312 0.18501253 -0.025263097
0000c0 55 48 59 be 8c 90 83 3e d8 26 e0 3d af 5d c9 bd
       -0.21218999 0.25696218 0.10944909 -0.09832322
0000d0 b0 4b 10 bc 92 19 b4 3d 4c 16 06 be 25 f0 ba 3d
       -0.008807108 0.0879394 -0.13094443 0.09127835
0000e0 91 dc 25 3e fc a8 51 3c c4 8b 3e be 6a 5e 0f be
       0.1619742 0.012796637 -0.18608004 -0.1400086
0000f0 ad 1b c9 bd 64 a2 26 3e 70 c0 fe bd 7d 54 5e be
       -0.09819732 0.16272885 -0.12439048 -0.21711917

pi.pi_net.4.weight f4 [256, 64]
000000 ef 75 0a c0 fb e7 48 3f 82 81 e2 3f de e7 b7 bf
       -2.163448 0.78478974 1.7695773 -1.4367635
000010 5a f5 b6 3f d6 44 0e 40 ca 4f 9c bd 5a 8b f5 3f
       1.4293625 2.2229514 -0.07632406 1.9183152
000020 1e 17 35 3f 50 d2 04 c0 8f 1e b5 3f 79 28 12 c0
       0.707384 -2.0753365 1.4149951 -2.2837203
000030 fa 6f e5 3f 53 e4 60 3e e5 a6 3f bf 56 10 b3 bf
       1.7924798 0.21962099 -0.74864036 -1.398936
000040 77 00 89 bf 57 16 ee bf 59 86 ce 3f eb 37 72 3f
       -1.0703267 -1.8600568 1.613475 0.94616574
000050 6e 1c 2e 3f f4 28 ee 3f b3 aa d7 3f 54 c7 9d 3e
       0.6801213 1.8606248 1.6848968 0.30816138
000060 0b ac 8e 3f 78 6a 51 bf eb 33 cf be 25 0d 27 3f
       1.1146253 -0.81803083 -0.40469298 0.6525443
000070 97 ca c0 bf db 56 0c c0 e6 64 0f be d8 57 ae 3f
       -1.5061826 -2.1928012 -0.14003333 1.3620558
000080 1d 93 bb 3f 8f a1 16 3f df c6 c0 bf 7b ea 01 c0
       1.465427 0.5884027 -1.5060691 -2.0299366
000090 77 d9 16 c0 52 15 d1 3f 86 13 cf 3e f7 e0 00 40
       -2.357023 1.6334631 0.40444583 2.0137308
0000a0 87 0d 3d bf 10 08 e3 3f 3c ca 11 40 1b d0 09 40
       -0.73848766 1.7736835 2.2779684 2.1533267
0000b0 7d 85 cc bf 39 cc 23 c0 8b 3a 2e 3f 31 c9 f6 bf
       -1.5978237 -2.5593398 0.6805808 -1.9280149
0000c0 0f ae ad be 74 70 b3 3f 1a c4 4b 3e e9 32 72 bf
       -0.3392186 1.4018693 0.19899026 -0.9460893
0000d0 64 56 9d 3f 31 84 0c 40 2f 16 10 c0 09 ce ee 3f
       1.2291989 2.1955683 -2.251354 1.8656627
0000e0 d3 d9 00 40 63 52 88 be 3e ba 06 c0 7c 87 ec be
       2.013295 -0.26625356 -2.1051173 -0.46197116
0000f0 de f4 7f bf 6a e8 00 3f 6d 92 a0 bd b7 a3 13 be
       -0.9998301 0.50354636 -0.078404285 -0.14417921
000100 20 4a 99 be 9b 76 19 bf c0 f0 79 3f c3 02 c2 bf
       -0.29939365 -0.599466 0.9763298 -1.5157093
000110 31 73 aa 3f 1c 7f ed 3f 0f a3 3f 3e 93 25 b1 3f
       1.3316404 1.8554416 0.18714546 1.3839592
000120 fb 95 db 3e 23 90 22 bf b6 db ab 3f 76 9d ff bf
       0.42887864 -0.63501185 1.3426425 -1.9969928
000130 f3 ee 97 3f cd f4 61 3e 8b 0f b9 bf b0 40 6e bf
       1.1869797 0.2206604 -1.4457868 -0.93067455
000140 8a 55 b4 be 86 f4 d7 bf 7d c8 b5 3f eb 63 55 3f
       -0.3522151 -1.6871498 1.4201809 0.8335559
000150 9d b6 23 3f 90 00 ab 3f c2 bf a9 3f 6c 0e 97 bf
       0.6395052 1.3359547 1.3261645 -1.1801276
000160 60 de 38 3f e9 38 bf 3d 2b da e2 3d ad fe 4b 3f
       0.7221432 0.093370266 0.110767685 0.7968548
000170 30 27 99 bf 31 63 14 bd f2 de 8d bf 1b 9f 80 3d
       -1.1965084 -0.03622741 -1.1083663 0.06280347
000180 5b ea f8 3e 25 4a 16 3f 33 94 04 3e b3 fa a4 bf
       0.486163 0.58706886 0.12947159 -1.2889007
000190 17 78 03 c0 62 a6 30 be d8 af 82 3f 94 95 c5 3f
       -2.0542047 -0.1725097 1.0209913 1.5436273
0001a0 ac c9 0c be 46 78 c0 3f 92 45 02 3f 56 da d4 3e
       -0.13748807 1.5036705 0.50887406 0.41572827
0001b0 b9 7b 3c 3d f7 e6 fa bf d6 52 cd bd 1d a0 3b bf
       0.04601643 -1.9601735 -0.10025565 -0.7329119
0001c0 15 8b 54 be ba 04 0c 3f 28 71 84 3d ab 7b 87 bf
       -0.2075618 0.5469471 0.06466895 -1.0584615
0001d0 98 6b 8a 3f b7 67 86 3f 57 71 09 bf f4 95 cf 3f
       1.0814085 1.0500401 -0.5368857 1.6217637
0001e0 74 4c d3 3f 8d 3f 76 bf 43 76 09 be bf 13 39 bf
       1.6507707 -0.9619072 -0.1342402 -0.72295755
0001f0 48 37 30 be 10 25 f5 bd 76 ed 92 bf 68 b8 08 3f
       -0.17208588 -0.1196996 -1.1478717 0.5340638
000200 e3 f6 b7 bf 77 d1 ea 3e 10 fb 96 3f 64 31 7d bf
       -1.4372219 0.45862934 1.1795368 -0.9890349
000210 6f 03 cc 3e 57 4c e1 3f 07 ab d5 3e c7 f5 46 be
       0.3984637 1.7601422 0.41732046 -0.19429694
000220 f1 ac 38 3f aa f5 81 be 1f ed 2a bd b9 94 bf bf
       0.7213889 -0.2538274 -0.041730043 -1.4967262
000230 f4 eb 89 3f d3 50 7b 3e 36 63 59 3e c2 90 b6 bf
       1.0775132 0.2454255 0.21229252 -1.4262927
000240 db 85 25 c0 78 c9 ad be e1 61 e5 3f b1 47 9b 3f
       -2.586295 -0.3394277 1.7920495 1.2131253
000250 80 81 91 3e 11 91 cf 3f 4b d2 fc be d4 9e a6 3e
       0.28419113 1.6216146 -0.4937919 0.3254305
000260 b9 68 48 3f 81 db d5 bf 80 4f 55 bf f4 a4 08 3f
       0.78284794 -1.6707612 -0.8332443 0.533767
000270 ed fe bd bf 6e ea b9 bf 6e c5 11 3e d7 b4 e2 3f
       -1.4843422 -1.4524667 0.1423547 1.7711438
000280 b2 f5 bd 3f 7a 4f 6d bf 06 85 b0 bf 7d 13 36 bf
       1.4840605 -0.92699397 -1.3790596 -0.71123487
000290 60 d8 b4 bf ee 41 b2 3f 2e 7b 5c bf 52 eb aa 3f
       -1.4128532 1.392637 -0.8612546 1.3353064
0002a0 01 8d ce bf 17 db 8d 3e 01 83 c7 3f 3c 05 c6 3f
       -1.6136781 0.27706215 1.5586854 1.5470347
0002b0 0c f8 bd bf 95 24 98 bf 2c c7 8b 3c de b4 24 bf
       -1.4841323 -1.1886164 0.017062746 -0.6433848
0002c0 f9 94 38 3e 2b c5 8d 3f 10 96 30 bd 56 9b ab bf
       0.18025579 1.1075796 -0.04311186 -1.340678
0002d0 45 bf 5d 3f 57 9d b2 3f 84 f6 dc bf 69 a9 af 3f
       0.8661998 1.3954266 -1.7262731 1.3723575
0002e0 eb c9 88 bd 6b 56 5e 3f 0d 22 ae bf c0 e1 e1 3f
       -0.06679138 0.86850613 -1.3604141 1.7647018
0002f0 17 fd 7f 3d 49 92 bc 3f c3 4e 16 3d da 15 9e 3f
       0.062497225 1.4732143 0.036696207 1.2350419
000300 16 b8 d2 bf f5 9c 44 3d 87 50 ed 3f 2d 0d e0 bf
       -1.6462429 0.04800125 1.85402 -1.7504021
000310 fb 1c 82 3f e9 59 14 40 6a 29 ba 3e 51 b8 dd 3f
       1.0165094 2.3179877 0.3635972 1.7321874
000320 74 4a 99 3e 33 a7 06 c0 95 f7 af 3f b5 b1 12 c0
       0.29939616 -2.103955 1.3747431 -2.2920964
000330 28 7f d1 3f df c2 55 3e 71 ff 3e bf 67 de 81 bf
       1.636693 0.20875119 -0.7460852 -1.0145997
000340 fa 83 cd bf 33 72 df bf 98 ff da 3f 24 ae b8 3f
       -1.6055901 -1.7456726 1.7109251 1.4428144
000350 87 2c 25 3f d5 b2 fb 3f ca 0f 04 40 13 b8 17 3d
       0.6452107 1.966395 2.0634637 0.03704078
000360 58 36 d6 3f 48 6c a4 bf 43 22 85 bf cb 2d 38 3f
       1.6735334 -1.2845545 -1.0401081 0.71944875
000370 82 25 d8 bf fe e7 9d bf 89 c0 31 bf 91 df 01 3f
       -1.6886446 -1.2336423 -0.6943441 0.5073176
000380 74 81 01 40 24 01 d3 3e 1e 54 89 bf c3 b8 ee bf
       2.0235262 0.41211808 -1.0728796 -1.8650135
000390 ad 7a f9 bf 56 ef 60 3f 5d f0 03 3f f6 ac f5 3f
       -1.9490563 0.878652 0.5153864 1.9193408
0003a0 b2 c8 ad bf e4 74 e0 3f da 16 e1 3f ef 29 e4 3f
       -1.3576872 1.7535672 1.7585099 1.7825297
0003b0 60 c5 87 bf c7 1b fe bf 75 55 56 3f 56 1f d2 bf
       -1.0607109 -1.9852227 0.8372415 -1.6415813
0003c0 52 e0 f6 be 93 cb da 3f d0 4b e1 bd cc 12 d4 bf
       -0.48218018 1.7093376 -0.11000788 -1.6568236
0003d0 79 d3 a7 3f d1 aa f3 3f f8 d8 00 c0 3f 6e 0c 40
       1.3111411 1.9036504 -2.0132427 2.194229
0003e0 77 3e d0 3f 45 cb e9 be 26 98 c6 bf ff 6a b2 3c
       1.6269063 -0.45662895 -1.5515182 0.021779535
0003f0 16 d4 57 bf f8 58 8e 3f dd 0b bd bd de 49 70 3e
       -0.8430799 1.1120901 -0.09230778 0.23465678

pi.pi_net.4.bias f4 [256]
000000 98 77 01 40 1c 6b d4 3f 94 c9 bf 3f 1f 87 ec 3f
       2.0229244 1.6595187 1.4983392 1.8478736
000010 4c be 1e 40 0c 40 fc 3f b7 d3 11 40 56 2c 0b 40
       2.4803648 1.9707046 2.278547 2.174581
000020 30 d1 1b 40 cc 4d df 3f 98 5d 18 40 10 08 78 3e
       2.4346428 1.7445617 2.3807125 0.24221826
000030 54 d4 b6 3f c0 0d b7 3f 3c 90 20 40 18 35 05 40
       1.4283547 1.4301071 2.5088034 2.0813656
000040 d0 dc 06 40 a8 df d9 3f d8 4e 01 40 8f fb 07 40
       2.1072273 1.702138 2.0204372 2.124729
000050 54 ec 15 40 6d d1 eb 3f 94 8d 1a 40 c8 5d 1e 40
       2.3425493 1.8423287 2.4148912 2.474474
000060 bc 82 00 40 b7 b9 22 40 8b d8 1f 40 19 09 1d 40
       2.0079794 2.5425851 2.4975917 2.4536803
000070 0b 62 f5 3f e1 7b 87 3f b7 c3 9f 3e 70 71 08 40
       1.9170545 1.058468 0.31204006 2.1319237
000080 77 b8 ed 3f 71 f1 1e 40 e7 70 03 40 3f 96 19 40
       1.8571919 2.4834864 2.053766 2.3997953
000090 1e 9f a1 3f 97 a1 21 40 b9 ed e5 3f 96 eb 13 40
       1.2626684 2.5254877 1.7963172 2.311254
0000a0 75 85 29 40 80 eb e0 3f cc 25 ed 3f ce 80 03 40
       2.6487706 1.7571869 1.852716 2.0547366
0000b0 98 9f 08 40 d8 ea e4 3f 35 96 21 40 62 0d 11 40
       2.1347408 1.7884169 2.524793 2.2664418
0000c0 f7 4e 06 40 f2 14 19 40 77 b9 a0 3f 12 f5 14 40
       2.0985696 2.3919034 1.2556599 2.327458
0000d0 1a 08 e8 3f fc d3 e6 3f f9 14 e4 3f b1 cb 03 40
       1.8127472 1.8033442 1.78189 2.0593073
0000e0 46 bb 07 40 17 e9 07 40 50 d8 fc 3f 37 9e 11 40
       2.1208053 2.1236017 1.9753513 2.2752817
0000f0 fc ef 13 40 e1 ea 75 3f 04 be e9 3f 7c fc a3 3f
       2.3115225 0.9606152 1.8261113 1.2811427
000100 f5 e4 d1 3f ca 61 8a 3f 62 db 23 40 cd 38 bc 3f
       1.6397997 1.0811093 2.560265 1.4704834
000110 fa 68 be 3f 49 a2 9e 3f 07 e6 22 40 d5 36 b3 3f
       1.4875786 1.2393275 2.5452898 1.4001108
000120 e8 66 d0 3f c0 38 00 40 8f 73 0d 40 32 be 23 40
       1.6281404 2.0034637 2.2101781 2.5584836
000130 87 5f 2f 40 61 ed d6 3f 20 30 96 3e c8 4d a1 3f
       2.7402055 1.6791192 0.2933359 1.2601862
000140 28 81 03 40 9f 70 01 40 6d 92 1c 40 a9 3a 05 40
       2.054758 2.0224988 2.4464371 2.0817053
000150 ae 54 ec 3f d7 28 ad 3f c5 ea fc 3f 3f 92 14 40
       1.8463342 1.3528088 1.9759146 2.3214262
000160 df 88 1b 40 39 02 07 40 27 12 14 40 90 cf f4 3f
       2.430229 2.1095107 2.313608 1.9125843
000170 82 9a 0d 40 bd 50 0b 40 89 c0 ee 3f 5f fc 0b 40
       2.2125554 2.1768029 1.8652507 2.1872785
000180 c0 57 14 40 ec cb 0e 40 41 e6 16 40 90 e4 25 40
       2.3178558 2.2311964 2.3578036 2.5920753
000190 90 41 02 40 fe c6 12 40 c4 29 0a 40 9b 73 ff 3f
       2.0352516 2.2933955 2.1587992 1.9957155
0001a0 c6 1e ce 3f fd cd 08 40 24 88 13 40 4c c2 fc 3f
       1.6103141 2.1375725 2.3051844 1.9746795
0001b0 a7 21 f9 3f 6d f4 28 40 ca 02 f6 3f 71 98 18 40
       1.9463395 2.6399186 1.9219601 2.3843043
0001c0 d4 64 a4 3f 3d c1 0b 40 18 bb ac 3f 9c a1 e6 3f
       1.284327 2.1836693 1.3494596 1.8018069
0001d0 d4 5a dc 3f d8 ed 1f 40 7f 3b bf 3f 9c 1f 1d 40
       1.7215219 2.4988918 1.4940032 2.4550543
0001e0 6f 55 1b 40 b8 b9 1d 40 5c 8f cf 3f 6b 28 a0 3f
       2.4270895 2.4644604 1.6215625 1.2512335
0001f0 c2 70 07 40 7e f7 ff 3f 0a 98 1b 40 2b 9a de 3f
       2.1162572 1.9997404 2.4311547 1.7390798
000200 cf 4c 1e 40 66 a8 af 3f 8f c6 17 40 73 60 de 3f
       2.473438 1.3723266 2.371494 1.7373184
000210 57 96 f6 3f 4d 70 d3 3f dc 21 0a 40 a1 6c bf 3f
       1.926463 1.6518646 2.1583166 1.4955026
000220 17 e0 f6 3f c7 2b 0c 40 da 70 e0 3f c5 13 11 40
       1.9287137 2.190172 1.753444 2.2668316
000230 84 9b 08 40 41 8f 00 40 e7 09 1b 40 b5 a3 e1 3f
       2.134492 2.0087435 2.4224794 1.7628084
000240 90 c8 87 3f 1d af 11 40 54 28 07 40 e2 b4 58 3f
       1.0608082 2.276313 2.1118364 0.84651005
000250 cb b3 0e 40 ed a1 d0 3e da f8 90 3f c5 5a 1f 40
       2.2297237 0.4074854 1.1325943 2.4899151
000260 d7 1b 17 40 ad cd 10 40 cc c1 85 3f e1 ae a4 3f
       2.3610742 2.2625535 1.0449767 1.2865869
000270 6b 28 19 40 a9 dd 07 40 16 21 ff 3f 3c 42 0d 40
       2.393092 2.122904 1.9931972 2.2071676
000280 f2 3f 18 40 a6 8d fd 3f ba 19 56 3f e4 6f d5 3f
       2.378903 1.9808853 0.83633006 1.6674771
000290 59 cf dc 3f 44 41 fa 3f 78 b4 0a 40 b5 06 19 40
       1.7250777 1.9551167 2.167265 2.3910344
0002a0 de b1 76 3f ea 48 d9 3f d0 e1 02 40 20 5b b8 3f
       0.96365154 1.6975377 2.0450325 1.4402809
0002b0 73 96 23 40 e6 f0 08 40 a9 d8 de 3f 84 14 1e 40
       2.5560577 2.1397033 1.740987 2.4700022
0002c0 61 e6 1b 40 ca 54 19 40 53 a0 f0 3f 3c d3 ac 3e
       2.4359362 2.3958 1.8798927 0.3375491
0002d0 a1 28 1e 40 97 44 20 40 5e 6e 1e 40 f3 5e a2 3f
       2.4712298 2.5041864 2.4754863 1.2685226
0002e0 90 e2 11 40 dc 76 08 40 d7 da 1d 40 38 55 21 40
       2.2794533 2.1322546 2.466482 2.5208263
0002f0 26 bc 0c 40 3b a5 ff 3f 0e e7 ed 3f d9 d1 f2 3f
       2.1989837 1.9972299 1.8586137 1.897029
000300 bb aa b3 3f 25 fa 1d 40 a1 3d 18 40 e0 9e b4 3f
       1.4036478 2.4683926 2.3787615 1.4110985
000310 f6 a0 0f 40 f3 14 a9 3f e9 eb 1b 40 5b d0 d7 3f
       2.2441993 1.3209518 2.4362738 1.686046
000320 97 da 1a 40 9a 3f 1a 40 03 18 05 40 13 b9 e7 3f
       2.4195917 2.410132 2.0795906 1.8103355
000330 9f de e9 3f f8 01 03 40 6c 84 a9 3f d7 52 b1 3f
       1.8271064 2.0469952 1.3243537 1.3853406
000340 64 c2 5e 3e ae e7 1b 40 4f 5d 0e 40 9c 5c 16 40
       0.21753842 2.4360156 2.224445 2.3494024
000350 6b 87 21 40 19 08 df 3f cc 89 01 40 de 52 c4 3f
       2.5238903 1.7424346 2.0240355 1.5337789
000360 d8 7d 02 40 57 2a 23 40 b2 f1 00 40 9c cc f9 3f
       2.038931 2.5494592 2.014752 1.9515567
000370 c1 55 f4 3f ae 4c b7 3f bf a1 1f 40 2c 28 1c 40
       1.908867 1.4320276 2.4942472 2.439952
000380 73 f8 8e 3e d5 af 07 40 63 8a e0 3f 1d ec 08 40
       0.27923927 2.120107 1.7542232 2.1394112
000390 f3 5a f1 3f 56 af e2 3f f7 26 fa 3f 80 5e 19 40
       1.885588 1.7709758 1.9543141 2.3963928
0003a0 da 71 b0 3f 1e fd 13 40 aa e8 12 40 45 a4 0d 40
       1.3784745 2.312324 2.2954507 2.2131512
0003b0 e6 c8 da 3f af 74 0a 40 6c 09 b2 3f 5c 96 25 40
       1.7092559 2.1633718 1.3909125 2.5873022
0003c0 f9 69 15 40 60 4b 56 3f de bb 05 40 af 4a 16 40
       2.334593 0.83708763 2.0895915 2.3483083
0003d0 cd 89 0f 40 09 4e 15 40 32 3a 00 40 49 d5 aa 3f
       2.2427857 2.332888 2.003552 1.334634
0003e0 7b 0f e6 3f 26 3b a6 3f c3 ca ef 3f db 9a 1c 40
       1.7973474 1.2986801 1.8733753 2.4469516
0003f0 dd c5 0d 40 76 53 ee 3f b1 a3 e0 3f 8b 88 14 40
       2.2152016 1.861922 1.7549955 2.320834

v.v_net.0.weight f4 [64, 5]
000000 fd 5f 10 3e 50 be 9f be 26 f6 82 bd 66 76 37 3e
       0.14099117 -0.31199884 -0.06394605 0.17916259
000010 4e 83 04 3e 25 9c b0 be 34 9d 55 3d c4 5d 29 3e
       0.12940714 -0.3449413 0.052151874 0.16539675
000020 75 bc d1 bc 0d c5 04 bf 53 bb 57 bf ec 93 96 be
       -0.025602559 -0.51863176 -0.8427021 -0.2940973
000030 dc 1d d6 be 76 cf 54 3e 09 c8 37 be 52 72 2b bf
       -0.41819656 0.20782265 -0.17947401 -0.66971314
000040 02 9d 9b be 54 61 5d 3d 5f 2c 92 3d 70 40 81 be
       -0.30393225 0.054047897 0.07137369 -0.25244474
000050 af e5 21 3f 43 49 9a 3e 06 5b 24 be 42 b7 c5 3e
       0.63241094 0.3013402 -0.16050348 0.38616377
000060 12 c7 a5 be da e4 65 3e 7a f6 2c 3f c6 97 6f 3e
       -0.3237844 0.22450581 0.67563593 0.2339774
000070 54 ed 8d bd 71 d8 06 be c5 b5 ab 3e 6e d9 d9 3e
       -0.06930032 -0.13168503 0.33537117 0.42548698
000080 1f e8 38 3d 76 c9 83 3c 0c d9 14 be b9 d5 3c 3f
       0.045143243 0.016087275 -0.14535922 0.73763615
000090 40 e2 43 3f b9 6b 26 3e 73 82 1d be 52 55 1c 3d
       0.76517105 0.1625203 -0.15381794 0.038167305
0000a0 67 bf 54 bf dc 33 33 bf b8 25 62 be c1 cd c3 3e
       -0.83104557 -0.70001006 -0.22084701 0.38242915
0000b0 b2 6d c2 3d d1 48 87 bf 4b a1 0a bf cc b4 30 bd
       0.09493579 -1.0569097 -0.54152364 -0.04314117
0000c0 81 17 97 3e 22 df 6e bd 44 18 27 3f 95 95 27 3f
       0.2951012 -0.058318265 0.652714 0.6546262
0000d0 4a 30 03 3c 12 20 66 3e 0d 72 b0 3e 0e 18 84 be
       0.0080071185 0.22473171 0.34462014 -0.25799602
0000e0 8d 28 34 bf 04 45 4b be 00 00 8c 3e 6f f8 9a 3c
       -0.70374376 -0.19850546 0.2734375 0.01891729
0000f0 90 10 0e 3f 04 f1 97 3e 73 21 26 3e 8a 7d 1e 3d
       0.5549402 0.29676068 0.16223697 0.038693942
000100 60 ef 46 be 55 9a 7a bf 9c 1b 54 bf 2d 7b 17 3e
       -0.19427252 -0.9789174 -0.8285463 0.14793082
000110 b9 b1 b4 3d d3 15 00 3e 6a 25 4e 3f 1a dc e5 3e
       0.088229604 0.12508325 0.8052584 0.44894487
000120 35 f9 a7 3e 55 ac 2b bd 3e a4 67 be c2 41 a3 be
       0.32807317 -0.041912396 -0.22621247 -0.31886107
000130 57 03 80 bf 61 58 5b 3e 79 fc e4 3c 2b 90 14 3e
       -1.0001019 0.21420433 0.02795242 0.1450812
000140 62 36 2f bf 50 d8 b6 be 91 d9 e1 bd 5a 8b bb be
       -0.68442357 -0.35711908 -0.110278256 -0.36629754
000150 34 b9 6e 39 f5 ea 9a 3d b3 a0 b5 be 5e d9 9d bd
       0.00022766442 0.07564346 -0.35474166 -0.07707475
000160 34 ac 73 be 42 04 9d be 50 27 cc 3e 3a aa 64 3e
       -0.23796159 -0.3066731 0.39873743 0.22330561
000170 61 86 f2 3e 7c ce 1a 3d 45 57 d8 3d eb e9 6e be
       0.47368148 0.037794575 0.1056352 -0.2333142
000180 2d 60 63 bf 6f 9b d5 3d 54 8b 05 be c9 d8 a7 3d
       -0.8881863 0.10430037 -0.1304143 0.08195645
000190 2d f7 96 3e 08 fe dd bd 8a cb 41 be 68 cf 4a be
       0.29485455 -0.10839468 -0.189253 -0.19805682
0001a0 a6 06 8e 3d 60 43 fe be d0 ce c7 be 29 59 d9 be
       0.06934862 -0.49660778 -0.39024973 -0.42450836
0001b0 19 15 02 bc 18 7b b3 be dd 8a 20 3f 94 b3 43 3e
       -0.0079396 -0.3505485 0.6271189 0.19111472
0001c0 39 60 82 3e 60 4b 89 be 53 2c d3 3e 5f 07 5e 3f
       0.25464037 -0.2681532 0.41244754 0.8673
0001d0 71 ae 14 3f ab db ca bd 3b e0 a6 be bc 03 c8 3e
       0.58078676 -0.099051796 -0.3259295 0.3906535
0001e0 7f 42 f9 be 90 87 21 3d 1e 7d 1c 3d 9e 1f 15 bf
       -0.48683545 0.039435923 0.03820526 -0.5825137
0001f0 1b c6 15 3e cf 5e 99 be a9 f0 32 bf 27 77 22 3e
       0.14626352 -0.29955146 -0.6989847 0.15865766
000200 7e 86 a4 3e 65 ad 9a be 28 09 84 3f 54 d2 ac 3d
       0.3213386 -0.30210415 1.0315294 0.084385544
000210 6c 90 45 be 34 ef 31 bb 76 84 87 3e f2 ec 6b 3e
       -0.19293374 -0.0027150633 0.26468247 0.23039606
000220 56 98 24 3f c5 df 54 3d ee be 96 be 28 ec 88 bd
       0.64294946 0.051971216 -0.29442543 -0.06685668
000230 87 57 c0 be c2 34 19 bf 8d 34 85 3e e8 da 15 3d
       -0.37566778 -0.5984613 0.26016656 0.03658572
000240 d1 d2 55 be bb 52 df be 18 91 f6 be 92 9d 3a be
       -0.20881201 -0.43617806 -0.48157573 -0.18224171
000250 f9 49 79 3e 36 c8 2c 3e 2a 8f be 3e 3d 44 f0 3e
       0.24344625 0.1687325 0.372186 0.46927062
000260 96 f8 83 3e f1 9c e7 3d bf 1d 81 3e b9 da 1a 3f
       0.25775594 0.11309231 0.25218007 0.60489994
000270 66 e2 67 be d3 17 54 3d 7f 72 d7 3e 22 72 d4 bd
       -0.22644958 0.051780533 0.4207954 -0.103733316
000280 3a f9 48 3f bd 55 2d 3e 28 89 e8 3d ee 95 8a 3d
       0.7850529 0.16927238 0.113542855 0.06766878
000290 8c 17 49 3e 81 2a fc 3e fc 2b 12 3e b4 18 98 3e
       0.19637889 0.49251178 0.14274591 0.29706347
0002a0 68 4b f5 bc b9 a1 27 be 96 d3 37 bf c8 ff 3c bf
       -0.029943183 -0.16370286 -0.7180723 -0.7382779
0002b0 eb 54 0c 3f b6 7e da 3e a5 d0 a2 be 7c 16 06 3f
       0.54817075 0.42674798 -0.31799808 0.5237806
0002c0 5b 99 77 3e 30 1a c3 bd bb b4 be 3d ed 26 d7 3d
       0.24179594 -0.09526479 0.09311815 0.105054714
0002d0 54 15 d0 be 1a 52 eb be 82 c3 3f bd f8 21 d1 3c
       -0.40641272 -0.45961076 -0.04681731 0.025528893
0002e0 1e 44 ea 3c 6b bc 2a 3f 07 21 0e 3f 07 9d 02 bf
       0.028596934 0.66693753 0.55519146 -0.51020855
0002f0 15 7b 18 be c8 61 08 3f 62 c7 e2 3e ee 3a 54 3f
       -0.14890702 0.532742 0.44292742 0.8290242
000300 2f 2c 81 bd eb b7 ab bb 65 81 ae bd af f5 34 3f
       -0.063072555 -0.0052404306 -0.08520774 0.70687383
000310 94 94 54 3e 7f 90 05 be 8d 3d 95 3b be 22 d0 3b
       0.20759803 -0.13043402 0.0045544566 0.006351798
000320 8b ac aa 3d 9e bc 48 be d3 c3 fc bc 74 de 8c 3d
       0.08333691 -0.19603202 -0.030855095 0.06878367
000330 04 d1 66 3e 31 a6 38 bf a6 dc c0 be 49 ad cc be
       0.2254067 -0.7212859 -0.3766834 -0.39975956
000340 41 40 9a 3d 7d 8a e3 bc 2f d1 97 3e ec 36 2b 3f
       0.07531787 -0.027775997 0.29651782 0.6688068
000350 e2 bc 9e 3e 5c fa 37 be 24 71 dd 3d 23 93 55 3e
       0.3100348 -0.17966598 0.108125955 0.2085691
000360 fa a7 a3 3e ba c7 f7 be 55 19 e7 3e c4 f7 69 3e
       0.31964093 -0.48394567 0.45136514 0.22848421
000370 a9 e6 8f 3d 4b 6c 56 bf 7d 31 0d 3f bd 27 b8 be
       0.07026417 -0.8375899 0.5515364 -0.35967818
000380 6d 45 9a bd 50 56 12 3f a7 63 f1 3e c4 77 7f be
       -0.07532773 0.5716295 0.4714634 -0.2494803
000390 2f aa e0 be 12 ec 1d 3f 3e da b2 3e d4 6c 00 3f
       -0.4387984 0.6168834 0.3493213 0.5016606
0003a0 25 53 d2 3e 78 4e 9e bd bc 0a fc bd 34 f5 3d 3f
       0.4107906 -0.077298105 -0.12306735 0.74202275
0003b0 63 51 39 3f f6 55 61 be 38 7b 70 3e ea 6c 13 be
       0.7238981 -0.22005448 0.23484504 -0.14397016
0003c0 62 76 15 bf 04 85 12 bf db fb bc 3d 5f 08 7f bd
       -0.5838376 -0.57234216 0.09227725 -0.062263843
0003d0 95 f4 e9 3d 67 32 03 3f cc 7f 61 3f ca 5d 85 3d
       0.114236034 0.5124878 0.8808563 0.065120295
0003e0 f0 61 27 3e 39 a1 2c bf 45 b1 e9 be 8a 88 16 bf
       0.16345954 -0.67433506 -0.45643058 -0.5880209
0003f0 5d 9c 8d bd 11 53 27 bd 90 26 51 3e 53 fc 07 3f
       -0.069145896 -0.040850703 0.20424867 0.5311939

v.v_net.0.bias f4 [64]
000000 c5 ca e1 be 52 ee d7 be 1b 10 e5 be ba 8d d7 be
       -0.44100013 -0.4217401 -0.4473885 -0.42100316
000010 7e 50 ef 3e 01 6b 00 3f 67 78 04 3f 55 a0 dc 3e
       0.46741098 0.50163275 0.5174622 0.43091074
000020 72 88 e1 be f8 93 dc be ca 4e e1 3e 91 d8 cc be
       -0.44049412 -0.4308164 0.44005424 -0.40008977
000030 bd 74 f2 3e dc 04 0a bf f9 d1 ee 3e 26 ee 0f bf
       0.4735469 -0.53913665 0.4664457 -0.5622276
000040 54 7f e9 be 17 52 c1 be f1 4d d0 3e 92 0e ec be
       -0.45604956 -0.37757942 0.40684465 -0.46104866
000050 f2 f3 aa 3e 34 72 d4 be 65 74 d9 3e 3b 3b f8 3e
       0.3338924 -0.4149338 0.42471614 0.4848269
000060 26 ad c6 be 40 42 fb be a3 7c 0e 3f 7a c6 fc 3e
       -0.38803977 -0.49073982 0.5565893 0.49370176
000070 ef 67 ac be 7e 15 ef be 83 c6 e9 3e ab f9 a8 3e
       -0.33673045 -0.46696085 0.45659265 0.33002982
000080 2c f3 dd 3e b5 90 ff 3e 55 81 14 bf 1d 76 00 3f
       0.43349588 0.4991509 -0.58009845 0.50180227
000090 48 1c f4 be f8 9f fb 3e e4 57 fd 3e 92 b2 03 3f
       -0.47677827 0.49145484 0.49481118 0.5144435
0000a0 1f cc b8 be 2f 82 f1 be af dd eb 3e 52 73 f1 3e
       -0.36093232 -0.47169635 0.4606757 0.47158295
0000b0 09 df e9 be 19 2a f3 3e 6f 83 da 3e 78 63 f5 3e
       -0.45677975 0.47493055 0.426784 0.4792745
0000c0 60 0d 03 bf e7 55 07 3f 5a 5f 03 bf 8a ae f6 3e
       -0.51192284 0.5286545 -0.5131737 0.48180038
0000d0 31 02 f1 3e 1a 6b 1b bf cf ed d8 be 5a 10 80 3e
       0.47071984 -0.607103 -0.42368934 0.25012475
0000e0 6a b1 f6 3e c8 bc 06 bf 25 7a b8 3e d7 65 db be
       0.4818223 -0.5263181 0.3603069 -0.42851135
0000f0 31 11 d5 be b6 45 ef be a8 a1 02 3f 1a dd cb 3e
       -0.41614679 -0.46732873 0.5102792 0.39817125

v.v_net.2.weight f4 [64, 64]
000000 62 f4 9d 3e 5f 15 14 bb 93 2d 09 3f d0 b2 b7 3e
       0.30850512 -0.0022595746 0.53585166 0.3587861
000010 21 59 c4 be d9 8d 01 bf ed 3a 21 bf 56 66 ae be
       -0.3834925 -0.5060707 -0.6298054 -0.3406245
000020 65 58 d9 3e 15 59 39 3e e2 4c c4 be a6 2b 33 3d
       0.42450252 0.18100388 -0.38339907 0.0437428
000030 83 23 43 bf 4a 10 19 3f bc bc 8f be db b1 7c 3e
       -0.7622606 0.5979048 -0.2807368 0.24677221
000040 f5 e1 8f bb 3f 67 82 3d 9e d8 35 3d 2d e5 3e 3e
       -0.00439095 0.06367349 0.044396035 0.18642111
000050 81 28 c4 be 73 e3 a5 3e 96 9a c6 bd 29 42 bc be
       -0.38312152 0.32400092 -0.09697454 -0.36769226
000060 05 00 8f 3e 3e cc 08 3f e7 56 01 bf 79 af e1 be
       0.27929702 0.5343665 -0.5052323 -0.44079188
000070 6b f4 18 3f b0 15 68 3e 53 eb 82 be 14 26 c4 be
       0.5974795 0.22664523 -0.25570163 -0.383103
000080 24 a6 f9 be 15 64 1e bf a1 4e 9a bd 70 49 1d be
       -0.48759568 -0.61871463 -0.075345285 -0.15360045
000090 cb d6 0d 3e d3 f3 b4 be 62 db c6 be 37 a9 c2 be
       0.13851468 -0.35342273 -0.3883925 -0.38019726
0000a0 75 9e 68 3e fd fa 98 3e 72 01 1d bf 62 93 72 bd
       0.22716697 0.2987899 -0.6133033 -0.059222586
0000b0 c1 99 1f 3e 12 31 a7 be 7d c5 43 bd d1 16 31 bf
       0.15585996 -0.32654625 -0.04779576 -0.6917544
0000c0 a9 53 96 3e fe 4a d4 bd 70 91 de 3d d1 95 b9 be
       0.29360703 -0.10365866 0.10867584 -0.36247113
0000d0 62 56 05 be 33 6e 04 3f db dd 29 3e 80 52 3d 3c
       -0.13021234 0.5173065 0.16588537 0.011555314
0000e0 62 26 02 bf 38 1e 4d 3e 3f be a4 be c2 63 c7 3e
       -0.5083982 0.20031059 -0.32176396 0.38943297
0000f0 99 93 a0 3e c4 06 81 3e c7 9b 60 bd 86 ed 51 be
       0.31362608 0.25200474 -0.05483606 -0.20500764
000100 a2 1f 55 3e 9d 3c a6 3e 07 32 fc b9 28 9f 2b 3f
       0.20812848 0.3246812 -0.0004810246 0.6703973
000110 8c 50 ea be 58 fe 01 bf 29 63 49 be 2e 7f 26 bf
       -0.45764577 -0.5077872 -0.19666733 -0.6503781
000120 63 de 18 3f f9 77 c6 3e 89 87 97 be 1e 3c 86 3e
       0.59714335 0.38763407 -0.29595593 0.2621774
000130 cc 12 ec be 9b 6f f2 3d ad f2 f3 be 03 89 b4 3e
       -0.4610809 0.11837693 -0.47646084 0.35260782
000140 ae b4 38 be 5e f5 c6 3d fc d4 8d be 96 a7 1d 3f
       -0.18037674 0.09714769 -0.27701557 0.6158384
000150 90 a2 00 3e 80 67 66 be 7d 0f 8e be 1b 3b 7e be
       0.12562013 -0.2250042 -0.27746192 -0.24827234
000160 c0 6b c2 3e 32 6d a1 3e 0c 48 94 be 53 ae 00 bf
       0.37972832 0.31528622 -0.28961217 -0.50266
000170 05 1d d4 3b 8f 17 7f 3e cd e6 ac bb c9 c3 4d be
       0.006473186 0.2491133 -0.005276537 -0.20094217
000180 63 3d ce be 97 88 b1 be f9 3c c1 3e 36 b8 52 bf
       -0.4028121 -0.34674522 0.3774183 -0.82312334
000190 3d 15 61 3e 06 43 56 bf c0 ab b3 be e9 b6 04 bf
       0.21980758 -0.8369602 -0.35091972 -0.518416
0001a0 e4 da e8 be e1 4a 0a 3f f9 bb e8 be 3d 25 22 be
       -0.454795 0.54020506 -0.45455912 -0.15834518
0001b0 ed 86 85 3e df ed 80 be 0f 16 e0 be d5 ef ac be
       0.26079503 -0.2518148 -0.4376683 -0.33776727
0001c0 47 d7 36 3e 9b 0b 0f bf 1a e3 87 3e 21 dc 49 bc
       0.1785556 -0.55877084 0.26540452 -0.012320549
0001d0 ec a2 6e be ca 43 0d 3e 60 c8 27 3e 7c 2f 0f be
       -0.23304337 0.1379539 0.16385031 -0.13982958
0001e0 e9 65 43 be ad 0f ea 3e 6c 56 9c be 06 28 12 3f
       -0.19081844 0.45715085 -0.30534685 0.5709232
0001f0 da f4 39 3e 04 a6 0b 3f 24 d4 b9 be 12 3b a3 be
       0.1815981 0.54550195 -0.36294663 -0.31881005
000200 a1 4a 26 3e 15 02 2a 3f 50 5a 7b bc 54 d3 f4 3d
       0.16239406 0.66409427 -0.015341356 0.1195437
000210 7f 13 29 bf 08 07 25 be 89 75 14 bf df 7b 86 be
       -0.66045374 -0.16115963 -0.57991844 -0.2626638
000220 2c 63 50 3d 48 c2 ab 3e 31 11 8d bd eb fb da 3e
       0.050875828 0.33546662 -0.068880446 0.42770323
000230 ef 9f bb be 40 5b 89 3e bc 63 11 3e 24 49 0d 3e
       -0.36645457 0.2682743 0.14198202 0.13797432
000240 3a 17 52 3f 7b c9 25 3c e7 65 a4 bd d9 0a 66 3f
       0.8206669 0.0101188375 -0.08027249 0.898603
000250 4a d7 b6 bd bb e7 d5 3e 74 38 e7 be d4 70 ad be
       -0.08927782 0.4177836 -0.45160258 -0.33875144
000260 4f 28 b9 3e 59 90 02 3f 0f 84 ff be c4 f1 05 bf
       0.36163566 0.5100151 -0.4990544 -0.5232203
000270 2e c2 15 3e f0 9a eb 3e 3e 2f 9a be 81 57 4e bd
       0.14624855 0.46016645 -0.30114168 -0.05037642
000280 30 e3 c7 be a5 05 d2 be 9e 01 e5 3d fe f2 70 be
       -0.39040518 -0.4101993 0.11181949 -0.23530194
000290 b7 47 03 3f 62 16 a5 bd e8 40 d3 be 88 38 10 bf
       0.51281303 -0.0806091 -0.41260457 -0.5633626
0002a0 03 29 bf bc 13 78 a4 be 6d ef c9 be b5 b8 49 be
       -0.023334986 -0.3212286 -0.3944048 -0.19699366
0002b0 37 c4 31 3e 07 f8 35 be c6 cd a0 be b5 a1 c1 be
       0.17360006 -0.17770396 -0.31406993 -0.37818685
0002c0 d6 54 c9 3e 80 07 21 bf 9f 99 1c 3f c7 b9 64 bf
       0.39322537 -0.6290207 0.6117191 -0.89345974
0002d0 1d 77 b0 be 8d 31 64 3e d2 a8 78 3e e2 60 5e bd
       -0.34465876 0.22284527 0.2428315 -0.054291613
0002e0 1d ef 84 bc 19 61 a2 3e a3 b3 14 be 7d 4b 8a 3e
       -0.0162273 0.31714705 -0.14521651 0.27010718
0002f0 4f 12 2a 3e 58 54 16 3f 70 fe 01 bf e8 8d 08 bc
       0.16608547 0.5872245 -0.50778866 -0.008334614
000300 0c 20 9d 3e bc f0 58 be 62 00 a0 3e cc fc 80 3d
       0.30688512 -0.21185583 0.31250292 0.06298217
000310 8d 11 1d bf 45 4b e9 be 61 31 80 be 21 9c c9 bd
       -0.61354905 -0.4556524 -0.25037673 -0.09844232
000320 9d 79 3e 3f 9c cd 9c 3e 38 63 c9 be 74 97 f9 3e
       0.7440432 0.30625618 -0.3933351 0.48748362
000330 e2 a7 03 bf eb fb 04 3f 1c 31 49 be 77 e7 40 3f
       -0.51428044 0.51946896 -0.1964764 0.7535319
000340 24 b9 42 bd 70 5c 65 3e 32 b7 02 bf 6b 1b 8c bd
       -0.047539845 0.22398543 -0.51060784 -0.06841167
000350 9c bd ab be 38 1b b8 3e 90 2a 86 be 48 c9 7c be
       -0.33543098 0.35958266 -0.26204348 -0.24686158
000360 8e c2 fd 3e 57 c2 82 3e 4c c8 00 bf 28 db ce be
       0.49562496 0.25538895 -0.5030563 -0.40401578
000370 52 09 6b 3e 92 56 bc 3e ce 72 6f be 31 97 b9 be
       0.22952774 0.36784798 -0.23383638 -0.36248162
000380 62 98 c8 bd 18 1f ae be e7 53 a9 3e 2b 3f ad be
       -0.0979469 -0.34008098 0.33071825 -0.33837256
000390 ca ef 00 3f 0b fe 20 bf 0e e1 38 be b3 32 5e be
       0.5036589 -0.6288764 -0.18054602 -0.21699028
0003a0 f5 57 4f 3e da 42 82 3e 8a 3e 22 be 0b a9 db be
       0.20248397 0.2544163 -0.1584417 -0.42902407
0003b0 59 04 ad 3e 4a a3 72 bc b8 00 2f be f0 bf 9f bd
       0.3379238 -0.014809439 -0.17090118 -0.07800281
0003c0 82 cc 0c 3f 0e 9c 8f be 22 17 95 3e 3f a1 1e be
       0.54999554 -0.28048748 0.2911921 -0.15491198
0003d0 3a f3 bf be e4 25 fe 3e 7d ff be 3e 84 59 3d bf
       -0.37490255 0.49638283 0.37304297 -0.73964715
0003e0 88 5b bf be 01 7c e3 3d e1 0e 83 be d2 ac 38 3e
       -0.3737452 0.11107636 -0.2559729 0.18034676
0003f0 ac ea 8e 3e f9 5c 91 3e 7d 01 54 be 6c 51 81 be
       0.27913415 0.28391245 -0.20703693 -0.25257432

v.v_net.2.bias f4 [64]
000000 e4 af 9c be 46 aa 60 be 6b 13 a3 be bd 12 a8 be
       -0.30602944 -0.21939954 -0.31850752 -0.32826796
000010 97 08 8f be b8 5d a4 be 96 a7 94 3e a5 7d 74 be
       -0.2793624 -0.32102752 0.29034108 -0.23876055
000020 d8 8a 99 be 9a 8e 8e 3e 66 23 84 be 6a fb 65 be
       -0.29988742 0.2784317 -0.25808257 -0.22459188
000030 8b 48 69 3e 27 01 86 3e c0 ba 90 be 28 ff 80 3e
       0.22781579 0.26172754 -0.2826748 0.2519467
000040 7f 0c 88 be 2b 53 96 3e 2a 45 7c 3e fa b2 90 be
       -0.26572034 0.29360327 0.24635759 -0.28261548
000050 2a 2e 80 3e b4 68 77 be f8 92 a0 be ea b9 84 be
       0.2503522 -0.24161035 -0.31362128 -0.2592309
000060 95 e7 72 be 2f 8a 8e be 87 c0 af 3e 3e 51 85 be
       -0.23721154 -0.278398 0.34326574 -0.26038545
000070 2f a7 89 3e 86 e9 95 3e 22 7a 88 3e 62 2a 75 be
       0.26885363 0.29279727 0.2665568 -0.23941949
000080 94 f5 77 3e 05 23 67 3e 75 8c 7f 3e e8 d1 81 be
       0.24214774 0.22571953 0.24955924 -0.25355458
000090 4b ea 87 3e 4f 46 9d 3e 17 ed 9e be d0 0c 96 be
       0.2654594 0.30717704 -0.3104026 -0.2930665
0000a0 c3 f1 62 be 85 90 96 be f1 73 ae 3e d9 32 90 be
       -0.22162537 -0.29407135 0.3407283 -0.28163794
0000b0 f0 b3 7f 3e 71 a1 99 be af 75 84 3e f4 b1 90 3e
       0.24970984 -0.30005983 0.25871035 0.28260767
0000c0 ac 23 8f be c5 41 90 be 8c c6 a8 3e 18 70 93 be
       -0.27956903 -0.28175178 0.3296398 -0.28796458
0000d0 e1 4e 85 be 0d 09 8e be f4 1d 91 3e c4 ec 53 3e
       -0.26036742 -0.2774128 0.28343165 0.20695788
0000e0 53 e5 a2 be 39 87 95 3e 26 97 94 be c8 f3 8f 3e
       -0.31815585 0.2920473 -0.29021567 0.28115678
0000f0 81 af 99 be 81 de a1 be ce 2f 80 3e 96 53 67 3e
       -0.3001671 -0.3161507 0.25036472 0.22590479

v.v_net.4.weight f4 [1, 64]
000000 4a 38 41 40 f4 3f 6b 40 e1 04 38 40 d3 ed 2f 40
       3.0190606 3.6757784 2.8752978 2.7488906
000010 46 4a 30 40 a6 94 38 40 17 6f 33 c0 84 41 38 40
       2.7545333 2.8840728 -2.8036554 2.8789988
000020 32 46 33 40 16 0f 2d c0 b9 bb 3f 40 89 55 3d 40
       2.8011594 -2.7040458 2.9958327 2.9583457
000030 ea 74 58 c0 19 60 44 c0 31 66 3d 40 16 e5 3c c0
       -3.3821359 -3.0683653 2.9593623 -2.9514823
000040 33 66 43 40 f3 d8 49 c0 eb f3 4f c0 4a 91 41 40
       3.0531127 -3.1538665 -3.2492626 3.0244927
000050 e8 ad 3c c0 d3 12 47 40 fa c9 30 40 74 b4 2b 40
       -2.9481144 3.110524 2.7623277 2.682889
000060 77 dc 47 40 86 60 39 40 e1 7f 36 c0 dd 2d 47 40
       3.122831 2.8965163 -2.851555 3.1121743
000070 94 bb 30 c0 19 08 46 c0 72 24 50 c0 aa 28 32 40
       -2.7614489 -3.0942442 -3.2522244 2.783732
000080 74 38 42 c0 27 bb 42 c0 c6 22 41 c0 3e 88 40 40
       -3.0346956 -3.0426729 -3.0177474 3.0083156
000090 5b 44 4a c0 2f 66 32 c0 79 e7 3a 40 66 ab 3d 40
       -3.160422 -2.7874868 2.920378 2.9635863
0000a0 8c 63 3a 40 78 63 35 40 dc ad 2c c0 a6 fa 3f 40
       2.9123259 2.834196 -2.6981115 2.9996734
0000b0 3e 37 4a c0 c3 55 39 40 7b 82 33 c0 23 f0 3a c0
       -3.1596217 2.8958595 -2.804839 -2.9209068
0000c0 ea e9 2c 40 3b c2 34 40 f4 2a 3c c0 00 d9 46 40
       2.701777 2.824355 -2.9401217 3.1069946
0000d0 d6 49 2d 40 26 2e 33 40 b3 be 2d c0 8e 00 46 c0
       2.7076316 2.7996917 -2.7147644 -3.0937839
0000e0 d5 62 37 40 b5 db 45 c0 02 56 3e 40 6b 1b 41 c0
       2.8654072 -3.0915349 2.9739995 -3.0172985
0000f0 d4 53 39 40 7e 07 44 40 8e c6 4b c0 b6 be 50 c0
       2.8957415 3.0629573 -3.1839938 -3.26164
