tmp/experiments/RN1 False,True,True/pyt_network_save/model save60000.pt (torch_old, 314943 bytes, 33 tensors)

pi.pi_net.0.weight f4 [64, 5]
00000000: 0232 61bf b95c 58bf 3840 68bf 64be 54be
00000010: d684 8cbe a533 003f 18e2 79bd 9f65 d6be
00000020: 9ae2 19bf c67c 54bf b524 b6be 5574 efbe
00000030: 1dc6 d23c 6d77 d0bc e153 6b3e 2779 06bf
00000040: f684 d83d f959 15bf c9e6 1cbe ba68 4c3f
00000050: 94fc 6bbe 150d cdbe 8ce1 a43c c9d4 613e
00000060: 00ea d5bc bb92 f8bd cb8e 963b b1b2 503e
00000070: 264f ad3e ccc8 f3be 7c22 c4be 8d33 47be
00000080: 8e60 363e 9a52 c4be 8211 f23e 2eaf 113f
00000090: cfb9 27be 74a2 e13d 18d0 593e 3499 3cba
000000a0: 6294 c63e 790f c13d fa5e f93d 1fb9 0d38
000000b0: 1e6e 9abe ddb6 c8bd 2c72 c3be 4ad5 463d
000000c0: 1cbf 61be 6fc9 cb3e cf8b b63d 756e f73e
000000d0: 857d cb3b 1523 0d3e b0c9 f5bd 18a3 15bc
000000e0: cb97 9fbd 2f8e 823d eaf1 073f f2cc 96be
000000f0: 34d2 0f3d 35f4 efbe 0550 0c3f 79ca 0abe
00000100: 09c1 95bb 81a0 d73e ee86 543e c2dc ac3d
00000110: a6d4 903d e191 7cbe 2ab6 5b3d 1c07 16bd
00000120: 9c1f 47bf 64b8 a83d 3ea0 b43e 8329 80bd
00000130: 6cfc febe 7595 9f3e 407b d9be fb6b a63e
00000140: 7d9d 19bf ade2 14be f918 373e b9e7 42be
00000150: d4a3 d23e d919 423f bd02 e7bd b352 ab3d
00000160: 2b67 bb3e 7e9a ffbe 5b70 373e 2dc2 d7bd
00000170: 4089 6cbd ff5c 923e a9ce 273e 203e 36bd
00000180: 418a cb3e e06c 03be db9a ca3d c49c c3bd
00000190: 84bf abbe a026 6cbe d44e 823d 43aa 87be
000001a0: 1886 4c3f d752 353d a8a5 19bd a214 43be
000001b0: 39e0 153f 77f2 e83d 29c9 913d 6846 0ebf
000001c0: 3eb6 893e 150e ee3c fe7d 013d 6411 2c3f
000001d0: 7fca 813e 8fe8 6ebe fb1f c53e 4ec8 0abf
000001e0: 79bd d9bb 7ef6 7e3e 742e 893e c94d 113e
000001f0: 5ee6 49be d2ba 1bbf 89ea 2cbe 89d3 14be
00000200: 697a a7be 3432 353f bd57 fdbe 3c3b 55be
00000210: 810c cc3b 5173 82bd 24e6 f83e e122 b83e
00000220: cfa4 89bc f6f4 713f 0ec1 1cbe 46f4 633e
00000230: c087 cc3e a4b0 4ebd 793e e6be 36ae c23e
00000240: df25 b93d 5590 71be 5fe0 93be b59f a7bd
00000250: 0a5c f93d 33ae df3e a19f 87be 1fcd ad3e
00000260: cb62 41bd 2482 0f3e c9ac 67be 2038 873d
00000270: d5c2 ffbe 8efa 953d d4dc 393d c8fa c23e
00000280: bc43 94be e55f b2be 889a 44bf d259 49bc
00000290: cc86 45bf 4e79 93bd 19d7 363f 78bf 23bf
000002a0: be93 513e 2fc2 0fbe c52e 683e c8f4 9f3e
000002b0: aeae ae3c 9161 92be bea0 94be c22b 2bbf
000002c0: 1ffa 64bd 1d93 71be cd64 27be a005 0f3f
000002d0: 3707 48bf 052c 0dbe 767b e8be 04d1 653e
000002e0: c933 103f 1483 933e b2fb adbc 8537 c5bc
000002f0: cbc2 3d3e e6db c8be deee 833e 07b7 cabe
00000300: 00d5 7cbf 1240 823e 6c32 0fbf 1e91 dbbe
00000310: 3e7d 0dbf b0f5 5ebf fbe7 ccbe 7d35 a7be
00000320: f560 5d3e 2116 0ebe 0614 613e a863 843e
00000330: 0998 acbd b2f9 903e 69c5 f93e f261 bf3f
00000340: b5a2 b13e 671a 5d3e 4436 d53e 1797 9c3d
00000350: 4036 323e 03f0 6e3e fd87 93be 098d d83d
00000360: bc95 b2be 2063 843e b884 683e bb21 543e
00000370: e749 7a3e 7ea7 b4bd 3068 a1be bf6e 333e
00000380: c190 d43e 7595 9ebc f988 e03e 5e19 f3be
00000390: 6e9f 7bbe 9831 663e c80f 9f3d 6fdc fb3e
000003a0: d433 57bc 5475 2dbe d472 b7be 2e4d f8be
000003b0: 903a a7be 4458 453e ebd4 73be aeb6 b13e
000003c0: d3ed d3be 5c17 7b3e 5472 243e 7a23 e7be
000003d0: ef69 a93d 8bb7 84be 515b 92bd 140b d2be
000003e0: 016c 693e 1143 b13e 9473 e5be 32ef 48be
000003f0: 9ea6 c83e 3747 96be f25c b9be 622b f93d
-0.8796693 -0.84516484 -0.9072299 -0.20775753 -0.27445096 0.50078803 -0.061006635 -0.41874406
-0.6011139 -0.8300289 -0.3557488 -0.46768442 0.025729233 -0.025447572 0.22981216 -0.52528614
0.10572235 -0.5834041 -0.15322413 0.798473 -0.2304557 -0.40049043 0.02012708 0.22053827
-0.026112556 -0.121373616 0.004594659 0.20380665 0.33849448 -0.47614133 -0.3830756 -0.19453259
0.1781027 -0.3834427 0.47278982 0.5690793 -0.16379474 0.110173136 0.21270788 -0.000719446
0.38785082 0.09426779 0.121763185 3.3789427e-05 -0.30162138 -0.098005034 -0.38173044 0.048543252
-0.22045559 0.3980212 0.08913385 0.4832646 0.0062100315 0.13782914 -0.120013595 -0.009133123
-0.07792624 0.063747756 0.53103507 -0.29453236 0.035112575 -0.46866003 0.548096 -0.135538
-0.0045701307 0.42114642 0.20754597 0.08440544 0.070718095 -0.24665023 0.053640522 -0.036627874
-0.7778261 0.08238295 0.35278505 -0.06257918 -0.49801958 0.31168714 -0.42476845 0.32504258
-0.60005933 -0.14539595 0.1788062 -0.19033708 0.41140616 0.7582069 -0.11279819 0.08365383
0.36602148 -0.49922556 0.17913954 -0.10535083 -0.05774808 0.28586575 0.16387428 -0.04449284
0.39753917 -0.12834501 0.098928176 -0.09551385 -0.33544552 -0.2306161 0.063626915 -0.26497087
0.7989211 0.044268455 -0.037511498 -0.1905084 0.5854526 0.113743715 0.071184464 -0.5557618
0.26896852 0.02905945 0.031614296 0.67214036 0.25349805 -0.23330902 0.38500962 -0.5421189
-0.0066449014 0.24898717 0.26793253 0.14189829 -0.19716784 -0.6083194 -0.16886343 -0.1453382
-0.3271058 0.7077973 -0.49481001 -0.20823377 0.0062270765 -0.06369651 0.48613083 0.3596411
-0.01680222 0.94514406 -0.1530802 0.22261152 0.3994732 -0.050461426 -0.44969538 0.38023537
0.090404265 -0.23590215 -0.2888212 -0.081847586 0.12175758 0.4368759 -0.26488975 0.33945557
-0.047213357 0.14014488 -0.22624506 0.06602502 -0.49953333 0.0732318 0.045376614 0.38081956
-0.28957927 -0.34838787 -0.76798296 -0.012289481 -0.7715881 -0.072008714 0.7142196 -0.63964033
0.20466515 -0.14038919 0.22674091 0.3124144 0.021323528 -0.28590062 -0.29028887 -0.66863644
-0.055902597 -0.23591276 -0.16347046 0.5586796 -0.7813601 -0.13786323 -0.45406693 0.22443014
0.5632902 0.28810942 -0.021238182 -0.024074325 0.18531339 -0.3923027 0.2576818 -0.39592764
-0.9876251 0.25439507 -0.5593631 -0.42884153 -0.5526923 -0.8709364 -0.40020737 -0.32657996
0.21619017 -0.13875629 0.21980295 0.25857282 -0.08427436 0.28315502 0.48783424 1.4951766
0.34694448 0.21592103 0.41642964 0.076460056 0.17403507 0.23333745 -0.28814688 0.10573775
-0.34879863 0.25856876 0.22706878 0.20715992 0.24442254 -0.08821009 -0.315248 0.17522715
0.41516688 -0.019358376 0.43854502 -0.4748029 -0.24572536 0.22479856 0.07766682 0.49191615
-0.013134915 -0.16939288 -0.35829794 -0.48496383 -0.32661867 0.19271952 -0.2381169 0.34709686
-0.41392383 0.2452063 0.16059238 -0.45144254 0.08272158 -0.25921282 -0.071463235 -0.41024077
0.22795106 0.3462148 -0.44814742 -0.19622496 0.3918962 -0.29351208 -0.36203724 0.12166478

pi.pi_net.0.bias f4 [64]
00000000: 9cd7 eabe 4d6e 08be e2aa cdbc 73c8 c53d
00000010: 183c 253f 85a0 fd3d 0ed5 48be ce86 e4be
00000020: 342f 4dbe adc7 c9be e9d5 9abe 019d 833c
00000030: 7c3a 8bbe 9f7d 38be 7b08 543e 4a14 80be
00000040: 9003 b33d 4fcb 5a3e 580e 143e 90f2 cf3e
00000050: 4387 80be 84b6 d1bc 57be 0ebf b7b9 20bd
00000060: 1a1d 02bf fb34 ec3d 85d2 d83d 1834 b63d
00000070: 9595 953c 7127 1dbd 146d e43e ac4f 12bd
00000080: 9d8c 8abe 59aa 763e 12a7 803e abb0 f9bd
00000090: 93e1 b5bc 17de 8f3d 8a9d 00be c85d 9bbe
000000a0: 6f39 22be 47be 853e be62 433d 16e3 09be
000000b0: 7782 edbe dd2e 853e d470 d13d c318 d8bd
000000c0: aaf8 a1be 52fc 933d 1795 dc3e f780 443e
000000d0: d949 67be 6692 36be 0875 ca3e 5d5c 53be
000000e0: 46c3 ae3c ec3a 63be 4f04 4abe 3679 0ebe
000000f0: d4fe cfbe c710 8cbe f7cf bebd cad7 8fbe
-0.45867622 -0.13323326 -0.025105897 0.09657373 0.6454482 0.12384132 -0.19612524 -0.44634098
-0.20037538 -0.39410153 -0.30241325 0.016066076 -0.27193058 -0.1801667 0.2070636 -0.2501548
0.08740914 0.21366619 0.14458597 0.40614748 -0.25103197 -0.025599726 -0.55759186 -0.03923961
-0.50825655 0.11533543 0.105870284 0.08896655 0.018259803 -0.038367692 0.4461447 -0.035720512
-0.27060404 0.2408842 0.25127465 -0.121919 -0.022202289 0.07024782 -0.12560096 -0.30344987
-0.15842222 0.26121733 0.04770159 -0.13465533 -0.463886 0.26012316 0.102265984 -0.10551598
-0.31635028 0.07225861 0.43082497 0.19189821 -0.22586764 -0.17829284 0.39542413 -0.20640703
0.021333348 -0.22190446 -0.19728206 -0.13913426 -0.40624106 -0.2735655 -0.0931701 -0.2809432

pi.pi_net.2.weight f4 [64, 64]
00000000: caff 473e df1c 8cbe 4dd0 673e 1082 b53e
00000010: 2b75 123e 28c0 60be 976e c23e 3129 95bd
00000020: 3783 06be fa39 f13d 8bb3 bbbe b3b9 88bd
00000030: e8b5 2e3f 76a6 4dbe d6d7 283e c937 c93e
00000040: e984 b33e f1dc 9abe 3a32 cabd a78a d9be
00000050: 9d9e 2f3e bd31 e4be f3b1 fabb dd18 36bf
00000060: b388 ec39 d9e8 043f 2ef5 753d 4a5b 36bd
00000070: 32d8 93bd 9e70 be3e 2327 06be 64e5 ff3e
00000080: 9fa6 0cbe c2a6 22bf 73fa 163e a753 5cbd
00000090: d0d2 9d3e b95a 87be 3e1b 77be f295 e2bd
000000a0: 021a 87bc 08c7 a93d a807 2e3e 6d7f b93e
000000b0: 0daf b23e 8bc8 03be a1eb fcbe 0252 403f
000000c0: 36a4 f73d 1091 b6bd 66b2 8c3e 60b4 b4be
000000d0: 4fa1 c43d c060 903e 5ee7 c83e 76ef 403e
000000e0: a550 d0be 1957 bbbe d19c 12bf 2a4b 8c3e
000000f0: 8e39 de3e 7362 babe 9d6c e8bd bb3a f7bd
00000100: a709 86be 3bc8 5e3d 2a0f f93d 7653 f9bd
00000110: 969c 04be 9c9f 14bf 2359 a03e ec07 003e
00000120: 2b56 1cbb eda6 d13d 0c0a 0a3f f9a8 ddbd
00000130: 20ae 733e 14ca 413e 347a 93bd f662 fc3e
00000140: 9c66 323e 119f d63e 43b2 fcbd 5884 adbe
00000150: f98d 2b3f 67bc f7bb 87df a93e 5e8e ba3c
00000160: 3ceb 243f 57b3 e6bd 6be1 f4be 1435 443d
00000170: 4cd2 4a3e e841 52be 6bbb 1ebc 5fbe e03d
00000180: 5550 80be 40cb d8be ea3a 85bd 3a4c f13d
00000190: 4f65 783e f7d8 b9be 6222 08bf d406 c4be
000001a0: 7f24 95be 627c 013e 5972 76be c60e bc3d
000001b0: 95c9 913e f3b2 5f3c 242b 033d bf5e dabd
000001c0: 0666 8abe c25e 773e fcba 81bf f106 13bf
000001d0: cbdd 8a3e 41c8 263c c57c 36be ab20 8a3e
000001e0: 3905 e93d f3df 9f3e 41c9 e23c c6be 6fbe
000001f0: 6a8d d93e 37e2 313e e575 443d 22e0 1dbe
00000200: 1ef5 51bc d6bd 603b 41d1 b73e 6924 c83d
00000210: 7fb8 d8be 8252 cb3d d2b6 953e 1e3e e0be
00000220: 75bf dbbe b873 133f 8de4 8abd bb53 0dbb
00000230: 8fdd 0e3e 66e8 debe 3c90 54be f641 043f
00000240: c539 cf3e 2f31 a4be fa22 b1bd a85d a1be
00000250: fb15 e13e 5d76 b73e a120 b83e 68ba 223e
00000260: 605b 413e f3fe 133e 9c1e e2bb 6f5d e1bc
00000270: 315d af3e 6bad 97be 9b60 00be 2f1c e8bd
00000280: a10e e9bc 26f5 07bb 547e 39bf 8ac3 c13e
00000290: 8267 313f b46d 9e3d 1193 6d3e 2a0c 853e
000002a0: 17d8 01be 70c2 263e a2b5 6abf 5974 e23d
000002b0: 4d80 f93e a278 973d 6126 febe c68d c43e
000002c0: a811 c83e 2000 fa3e 23f6 e0bd c1ae 98be
000002d0: 804b 573d afc5 9c3d 389a 8d3d 1f04 0a3f
000002e0: d66a 963e 8a10 acbe 6dd8 f0bd 9894 9d3e
000002f0: 01d2 d8be ae65 413d 0a26 af3e 9892 113e
00000300: a512 823d eb51 2a3f 5b9e 043e bf11 13bf
00000310: fcae 3fbf 4141 d13d 87a8 c7be 75bd d1be
00000320: 1741 3d3e 96d3 93bd 93f2 ec3d 5e03 1e3d
00000330: dab1 9e3e f33a b2bd c592 f9bc 7b20 aabe
00000340: 713d 49be 0b54 0b3e 96a2 00be 762e 5fbe
00000350: 0c73 8cbe 0148 f83c de62 0f3f b785 703e
00000360: b692 783e b1bf 8cbe c85f 29bf 0e95 8abe
00000370: 97ee 35be f73d 3fbe 2f7d 60be c465 52be
00000380: 7702 203d 6267 b13d ae3a 7fbe 2f74 cfbd
00000390: 00b9 4ebe 56db 323e e8de 023f d47e b73c
000003a0: d4dc 72be d976 6cbd 5094 7cbe b371 61be
000003b0: f640 a9be 7eab afbe fc54 0c3e 7d83 f5be
000003c0: 7646 c33e b2bd 02be 47b9 3b3e cb92 e73e
000003d0: 1438 48be 0145 1d3a f957 463d 2ee9 c53e
000003e0: 9900 e73e e0dc 0f3f 4adf e13e 15b5 c13d
000003f0: 70e3 fe3d 98f2 ce3d b582 b7be 7d3e 053f
0.1953117 -0.27365777 0.22638054 0.35450792 0.14302509 -0.21948302 0.37974998 -0.07283247
-0.13135992 0.11778636 -0.36660418 -0.06676044 0.68246317 -0.20083031 0.16488585 0.39300373
0.3506234 -0.3024669 -0.09872861 -0.42488596 0.1715035 -0.44569197 -0.0076506077 -0.7113169
0.00045115277 0.519178 0.060048275 -0.044520654 -0.0721897 0.37195295 -0.13100867 0.499797
-0.13735436 -0.635357 0.14743976 -0.053790715 0.308249 -0.26436403 -0.24131486 -0.11063756
-0.016491894 0.08289915 0.16995108 0.3623003 0.34899178 -0.1286947 -0.4939852 0.75125134
0.120918676 -0.08914387 0.27479857 -0.35293865 0.0960108 0.28198814 0.3923902 0.18841347
-0.40686527 -0.36589888 -0.5727053 0.27401096 0.43403286 -0.36403236 -0.11348841 -0.12071749
-0.2617924 0.054390173 0.121610954 -0.12174122 -0.12950358 -0.58056045 0.31318006 0.12503022
-0.002385507 0.10236917 0.5392158 -0.108232446 0.23796892 0.18924743 -0.07201043 0.4929425
0.17421955 0.41918233 -0.12338688 -0.33890033 0.6701351 -0.007560301 0.3317835 0.022772964
0.6442144 -0.11264675 -0.4782823 0.04790218 0.19806784 -0.20532954 -0.009688239 0.109738104
-0.25061288 -0.42342567 -0.065053776 0.11782117 0.24257396 -0.36298344 -0.53177464 -0.3828646
-0.29129407 0.12645105 -0.24067058 0.09182505 0.28474107 0.013653505 0.032023564 -0.10662603
-0.27030963 0.24157241 -1.0135188 -0.57432467 0.2712234 0.01017958 -0.17821033 0.2697805
0.11377949 0.31225547 0.027683856 -0.23412618 0.42490703 0.1737145 0.047963995 -0.15417531
-0.012814788 0.0034292839 0.35901836 0.0977257 -0.4232826 0.099278465 0.29241043 -0.43797392
-0.42919508 0.5759845 -0.06781874 -0.00215648 0.13951705 -0.4353668 -0.20758146 0.5166315
0.40473762 -0.32068774 -0.086492494 -0.31516767 0.43962082 0.35832492 0.35962394 0.15891421
0.18882513 0.14452724 -0.0069006216 -0.027510373 0.34250787 -0.29624495 -0.12536852 -0.113335006
-0.028449358 -0.0020745485 -0.72458386 0.37844497 0.69298565 0.07735768 0.23200633 0.25985843
-0.12680088 0.1628511 -0.916834 0.11057348 0.48730698 0.07396056 -0.49638656 0.38389415
0.3907597 0.4882822 -0.10984447 -0.29820827 0.052562237 0.07654893 0.069141805 0.5391254
0.29378384 -0.33606368 -0.1176003 0.3077743 -0.4234772 0.04721611 0.3420871 0.14216077
0.063512124 0.66531247 0.12951033 -0.57448953 -0.7487638 0.10217524 -0.38995764 -0.40964857
0.18481861 -0.07218091 0.11569705 0.03857743 0.30995065 -0.0870265 -0.030465493 -0.33227906
-0.19652344 0.13606279 -0.12562022 -0.21795067 -0.27431524 0.030307772 0.56010234 0.23488508
0.24274716 -0.2749 -0.66161776 -0.27066845 -0.17766796 -0.18675981 -0.21922754 -0.20546633
0.03906485 0.08662297 -0.24924728 -0.10129582 -0.2018776 0.17466483 0.5112138 0.022399344
-0.23717052 -0.05773053 -0.24665952 -0.22016029 -0.33057374 -0.34310526 0.13704294 -0.4795188
0.38139695 -0.12767676 0.18332396 0.45229182 -0.19552642 0.0005999357 0.04842374 0.38654464
0.45117643 0.56196404 0.4411567 0.09458367 0.12445724 0.10104865 -0.3584191 0.52048475

pi.pi_net.2.bias f4 [64]
00000000: a3f5 023d 7544 9e3d 45b1 2dbe bada e5bd
00000010: cb00 f43d 5d33 a53c b8a2 d1bd 6a45 0e3d
00000020: 6ac8 0b3e 26d0 32bd 21f5 a8bd 0ce8 9c3d
00000030: 0bdf 33be 9e6f 69bc 5655 d4bd a1c4 a7bc
00000040: d2cc cd3d be48 2d3e 61b7 533d 76bf d53d
00000050: ddc1 0d3e 006c 5d3e f9e8 123d a87a 37bc
00000060: f0ce 9d3d 2339 a2bd 9277 88be 18bc eb3d
00000070: 3e68 3d3e 017f 783e 61b9 443d f33f 26be
00000080: dc39 5c3e 6933 09bd 3f28 583d 1f55 2e3d
00000090: 3507 e7b9 a8c7 b93d 0b81 8abe fc6a 803d
000000a0: fadf 383e 3f3c ac3d 4f4a 53bd fd61 a8bd
000000b0: 0462 0bbe c18b 043d 3b03 72be 7e94 13be
000000c0: 56f7 bfbc ba2a 04bd 05ed d5bb 3c5a 043e
000000d0: 745f 5abe 8db4 803e b860 b03c ab3d 22be
000000e0: 5721 5abc 290b 42be f78a 63bd fee5 26be
000000f0: be66 15be 931c 5c3c ee8a 933d 15b3 9d3d
0.03197254 0.07727901 -0.16962154 -0.112233594 0.11914214 0.020166093 -0.10236114 0.034734167
0.1365067 -0.043655537 -0.0824988 0.07661447 -0.17565553 -0.014247803 -0.10367839 -0.020479502
0.10048832 0.1692228 0.051688556 0.10436909 0.13843484 0.2162323 0.03586671 -0.011198677
0.07705486 -0.07921054 -0.26653725 0.115104854 0.18496796 0.24267198 0.048028354 -0.16235332
0.21506447 -0.033496294 0.052772757 0.042561647 -0.00044065123 0.090712845 -0.27051577 0.06270406
0.1805419 0.084099285 -0.051584538 -0.08221815 -0.13611609 0.032359842 -0.23634045 -0.14412114
-0.023433369 -0.03226731 -0.006528499 0.12925047 -0.21325475 0.2513775 0.021530494 -0.15843837
-0.013313613 -0.1894957 -0.05555245 -0.16298673 -0.14589974 0.013434547 0.07204233 0.07700173

pi.pi_net.4.weight f4 [256, 64]
00000000: 7abd 423f 89d1 cd3e beb3 e7be 384c 19bf
00000010: 6f8c 03bc f3db 06be 805c 673e bf7c 7a3f
00000020: c90c d83e 4658 ae3e 8100 cb3e 1e5d 5c3e
00000030: 94ce 2bbe 6591 9e3e df5a 503f 6bb1 303f
00000040: f827 44be c41f d53d e065 64be 4612 273e
00000050: 8371 663f cdf4 013f 71fd d1be 06f0 4bbe
00000060: ef41 283f 6c9b e7bd cb64 51bc 2242 5bbf
00000070: 1b2c 47bf 336e eabe af86 2dbe 387b 06bf
00000080: 8d62 91bf b041 593e 70fc 8bbe 82ca ea3e
00000090: 6166 66bf 2664 c5be 7c80 193e 6ec7 c03d
000000a0: 2ae0 6ebe 56b6 4bbe e329 d2bd 67f5 203b
000000b0: 7b1d b1bd daf8 c63c e2c7 003e 5016 b13e
000000c0: e8a9 003f ee54 18bd 8169 06bf 66e4 963e
000000d0: 30cc 003f f2a0 55bf e672 43bf ee3b debd
000000e0: f1cb b13d 26e5 6e3e 3b19 ecbe a844 e43e
000000f0: ba60 1e3f 60c8 043f c928 2dbf 7cb0 fe3d
00000100: d8dd b13e 558a 0d3f 74f7 15bf 4ff2 cabe
00000110: 3127 613e c99e 6a3e 7667 0f3d 00dc 413f
00000120: 5f28 4a3f c64a 413e 62c6 c43e 6927 033f
00000130: d4f8 52be 257e f23c e308 053e 257e 863e
00000140: aa9f c1bd 2d91 283e a484 31be 95fe 78bd
00000150: 052e 033f 3494 e53e bcf5 22bf 8699 a8be
00000160: dd18 353f 1279 1fbf 7b70 85bd a515 76bf
00000170: cbf8 2cbf 3ea6 dbbc 1d4a 853c b783 e3be
00000180: 2ab3 79bf f1d2 773e cfd1 09bf 54b2 05be
00000190: f125 61bf 9d57 b1bd cc88 6cbd 6659 03bd
000001a0: 100e ffbb 0eb8 9abe 95bf 093f e5a9 dabd
000001b0: 59fc 00bf 550e fb3e 68d3 2b3e fb3d 453d
000001c0: 467e a13d ff61 3c3e 085b f6be 8402 3e3c
000001d0: 9885 9f3e c8d9 84bf b866 65bf 7a45 87bd
000001e0: 31e5 273e 0f1f 7b3e f94b 15bf 5646 c03e
000001f0: 1552 a23e a147 a23e dae5 e1be d82d 873d
00000200: ad39 1fbf 9d7e b33d ea2a 093d af55 4f3d
00000210: 7bcc 653e a2fd 993e cd8f 843f f8e0 24bc
00000220: 5a39 bdbe 49ca 8cbf a016 65bf 7221 2c3f
00000230: 28a7 55be db18 edbe 5dda 2fbf 6362 f1be
00000240: 1410 b63f b4a1 0fbf 838a 28bf 43e1 9d3d
00000250: 458f bdbe f624 aa3f 4aff d23f a32c 6d3f
00000260: cd1b 9ebf 06b3 7f3e 0c04 9bbf 9da2 a13f
00000270: 8daf b83f 279e a43f 3e02 913f ba54 da3d
00000280: c127 703f 2cb2 c0bf fe5c 353f f86c ff3e
00000290: 691f 9f3d cb41 243f 0785 bcbf febf 543f
000002a0: 0f2a 773f 2c3c f9be 5231 5cbe 7918 b13f
000002b0: 1f20 0abf 9d6a c73c d531 9bbf 57b7 a8be
000002c0: fc9e 35bf 7659 49bf 2ed2 cb3f e338 03bf
000002d0: 093b 193f 933b 763f 26f4 343f d8d1 24bf
000002e0: e9f8 12bf 2315 7ebf 921f 8f3f b72b a9bf
000002f0: 58c0 19bf 7e5e 8ebf 8170 a23f 6f35 abbf
00000300: 8ecd aa3e b336 213f 377a 1fbf 5f8d b2be
00000310: 1d94 94bd 5e20 b5bc 5c85 2fbd c2d2 933f
00000320: 0fb4 dd3e 100e 0a3e f3cf b83e b70c 083f
00000330: 5823 fb3d 560c 4abd 8931 b23e 1c3e 153f
00000340: 2026 9dbe f749 513e c31c 26be 0318 64bd
00000350: cacc 483f 0691 c33e 19fb 32bf cbdc 19bf
00000360: 69ce 0d3f 9f27 2cbf a56a 703b d6d8 66bf
00000370: 570f 67bf 7dfc 96be ccbd 4cbe b715 29be
00000380: 0d44 80bf 3314 d63e 29e1 9fbe 1697 a03e
00000390: 886f 3fbf 319f 68be b671 dabc aaf1 293d
000003a0: 4c41 9bbe eead abbd 824a 393f 9a2e 04bd
000003b0: 9df6 0cbf eff0 1a3e aa71 693f a1b6 57bd
000003c0: 88f7 7d3e 6897 8ebd 3d78 20bf b790 693e
000003d0: 304b 013d dec8 72bf 8685 59bf e0a5 bebe
000003e0: 47c1 be3d a1c5 7c3e 7998 d1be c747 fb3e
000003f0: d41c dc3e 43cc 113f 35a5 46bf f484 563e
0.7607037 0.40198925 -0.4525432 -0.59881926 -0.008029087 -0.13169841 0.2259388 0.978466
0.42197254 0.34051722 0.39648822 0.21519896 -0.16778022 0.30970302 0.8138866 0.6902072
-0.19155872 0.104064494 -0.22304487 0.16315565 0.90016955 0.5076416 -0.41013673 -0.1991578
0.65725607 -0.11308941 -0.012780379 -0.85647786 -0.77801675 -0.457872 -0.16945909 -0.52531767
-1.13582 0.21216464 -0.27341032 0.45857626 -0.8999997 -0.3855297 0.14990419 0.09413038
-0.233277 -0.19893774 -0.102618955 0.0024560334 -0.08648201 0.024288584 0.12576249 0.34587336
0.50259256 -0.03719037 -0.52504736 0.2947113 0.50311565 -0.8344871 -0.76347196 -0.108512744
0.08681477 0.233296 -0.46113 0.4458363 0.61866343 0.5186825 -0.6764036 0.124360055
0.34739566 0.552892 -0.5858071 -0.39637992 0.21987607 0.22912134 0.035010777 0.7572632
0.7896785 0.1887618 0.38432604 0.5123201 -0.20602733 0.029601166 0.12991671 0.26268116
-0.09454282 0.1646163 -0.17335755 -0.060789663 0.51242095 0.44839633 -0.6365621 -0.3292963
0.70741063 -0.62294114 -0.065155946 -0.96126777 -0.6756713 -0.026812669 0.016270692 -0.44436428
-0.9753901 0.24201562 -0.5383577 -0.13056308 -0.8794852 -0.08659289 -0.057747647 -0.03206768
-0.007783659 -0.30218548 0.53807956 -0.10676936 -0.5038505 0.49034372 0.16779864 0.048154812
0.07885413 0.18396758 -0.48116326 0.011597279 0.3115661 -1.0378962 -0.8960986 -0.066050485
0.16396023 0.24523567 -0.5831905 0.37553662 0.3170325 0.31695274 -0.44120675 0.06600541
-0.6219738 0.08764384 0.03348819 0.050618824 0.22441284 0.3007632 1.0356385 -0.010063402
-0.36957818 -1.0999233 -0.8948765 0.67238533 -0.20864546 -0.46308026 -0.6869257 -0.47145376
1.4223657 -0.56106114 -0.6583635 0.07708981 -0.37023368 1.329253 1.6484158 0.92646235
-1.2352234 0.24970636 -1.211061 1.2627751 1.4428574 1.2860764 1.1328809 0.106606916
0.9381066 -1.5054374 0.7084502 0.49887824 0.07769663 0.6416289 -1.4728097 0.83105457
0.9654855 -0.4867872 -0.21503189 1.3835593 -0.5395526 0.02434283 -1.2124583 -0.32952377
-0.70945716 -0.7865213 1.5923517 -0.5125868 0.59855705 0.96184653 0.7068504 -0.64382696
-0.57411057 -0.99251 1.118151 -1.3216466 -0.6005912 -1.1122587 1.2690583 -1.3375682
0.3335995 0.6297409 -0.6229586 -0.34873483 -0.07254813 -0.02211016 -0.04285179 1.1548693
0.43301436 0.13481927 0.36096153 0.531444 0.12262601 -0.04932817 0.34803417 0.58297896
-0.3069315 0.20438372 -0.16221909 -0.05568696 0.78437483 0.38196582 -0.69914395 -0.6010253
0.5539308 -0.67247957 0.003668466 -0.90174615 -0.9025778 -0.29489508 -0.19994277 -0.1651219
-1.0020767 0.41812286 -0.3122647 0.3136527 -0.7477956 -0.22716977 -0.02666555 0.041490234
-0.30323255 -0.08382784 0.72379315 -0.032271005 -0.550638 0.15130971 0.9118906 -0.052664403
0.24801457 -0.06962472 -0.6268347 0.2280911 0.031565845 -0.9483775 -0.84969366 -0.37235928
0.093142085 0.24684764 -0.4093664 0.490782 0.42990744 0.56952304 -0.77595836 0.20949155

pi.pi_net.4.bias f4 [256]
00000000: c812 47bd a381 c1bd 148d 9c3f 7020 62be
00000010: aa4c 14be 6113 b13f 5977 27be 24fd b23f
00000020: 0abf b43f 30d6 bc3f d47a be3f 2e21 fdbd
00000030: f3ad edbd 9695 aa3f 3664 75be 0849 a23f
00000040: 1458 4dbe 4c73 0dbe 6770 773f ee84 e1bd
00000050: 4b11 b33f bcc2 a43f d6ed a63f d2a7 953f
00000060: cb64 ae3f 1369 f9bd e7f7 933f a353 26be
00000070: 8806 1dbe 0e48 163c dec2 84be 6ddb a53f
00000080: b16e b93f 936a 9d3f bfb7 a73f 521e 70be
00000090: a664 dcbd cf3e a63f 9eb5 993f 7416 803f
000000a0: 9bac 8cbd 71a7 aa3f ccd1 38be ab88 b53f
000000b0: 9d50 963f 016a dd3c de99 903f 6479 4f3f
000000c0: e50e 8b3f 35dd 24be 45d3 ac3f bfbc b2bb
000000d0: 03ca a0bc e512 a53f 9c52 913f 1ef7 d9bd
000000e0: e138 7d3d c126 34be a445 a9be c7a0 07bd
000000f0: 7fb9 163e 9c6d 9c3f c370 a53f bd3c 85be
00000100: 7f21 88bc 280c b03f 85e0 4ebe f362 27be
00000110: 23a3 403e 9c48 46be 875c 193e 9045 903f
00000120: 2ba8 acbe e1a0 8b3d 2dc9 20be 78f1 a73f
00000130: ece2 a2be 6afc 963f 1904 72bd ae8c c7bd
00000140: 38a6 993f e06f 893f 97e8 9a3f 6fb9 89be
00000150: 66fb ab3f c7a5 ff3d 677c d4bd 7fc2 4dbd
00000160: e3f1 153e c43c 05be e6fd fabd d670 a63f
00000170: 43ef bb3f f2e6 a13c ee0f 9c3f db53 ebbc
00000180: 0d5c f7bd 6751 fdbd 7eb7 ac3f 70b1 bc3f
00000190: 8222 33be 7fad 54be b050 923f 3683 cfbd
000001a0: 52a3 883f 9812 9e3f cc41 9e3f 4341 1e3f
000001b0: d313 363f 46d0 943f 2706 63be 6896 a93f
000001c0: ed2a 4abe 87f3 a73f f3dc b43f 1e52 72ba
000001d0: 76f2 9b3f f9b0 89be a17d 21be bde5 933f
000001e0: 55f9 ae3f 2a15 893f 1179 ecbd f8ed a23f
000001f0: a832 903f 09ea cbbe b5dc 85bd ad53 a33f
00000200: 8163 923d 8cb5 21bc 1c30 9d3f 113e 9b3f
00000210: 07c2 38be 0553 b5bd 5a7d cdbd 8205 bcbd
00000220: 723d 9a3f 2854 13bd 6925 923f 0b04 b13f
00000230: d883 fbba e6f7 ac3f e30d b03f 5d2b a33f
00000240: 44da b13f 5975 8c3f a9f9 8e3d 4e28 c13f
00000250: 8fdf b73f 839b 9d3f 6bd5 763f dad2 aa3f
00000260: 38e2 473f ec9d b53f 7c10 993f 16e4 8bbd
00000270: 78be 9a3f 9481 e1bd 038d 813f 6c6b a93f
00000280: de1e d3bd f23c 8d3f 6afd 0bbe ab24 92bd
00000290: 4ccc 9d3f 3846 8e3f a4a8 af3f a185 943f
000002a0: f61d a93f 023b 4fbe 67ec 9c3f 8a54 78bc
000002b0: 5f11 903f 7b07 a3bd 8e51 bd3f faf5 aa3f
000002c0: 4fed 9f3f cbb3 8f3f f9e0 843d cc92 bd3c
000002d0: 7499 b0bd b328 a43f 5ae1 613f 52dc b33f
000002e0: b369 0ebe 7d14 a3bd e245 a43f 1f3c 9c3f
000002f0: f0c3 9d3f 0bc7 cc3d 104c 21be e848 a73f
00000300: 7c5f 9f3f 07b8 9f3f 338a 52be 1a65 19be
00000310: 5c5c ab3f d514 a13f 4951 a13f 24be 983f
00000320: bcd2 6fbd 03c8 943f 5d27 a73f 2263 36be
00000330: ff64 8e3f 8107 2abe 02cb ecbc 6b83 a63f
00000340: dbc4 72bd 2345 0a3e 0599 a53f 412b 75bb
00000350: 6fe8 b23f c45f aa3f 0237 953f 8f5b b23f
00000360: dd4d a23f 7623 883d a414 a73f 017b 95bc
00000370: df21 08be 1544 853f 1601 e3bd 55db 54be
00000380: f55b 21be 228a a93f a857 debd 1c78 813f
00000390: 728e 52bc cf12 9c3f d244 9f3f 775c 3dbe
000003a0: e6cf 74bd 999f ed3d c321 a03f 5f55 b73f
000003b0: 5248 2abe dcd4 01bd 3fca 99be 4934 b03f
000003c0: 8a00 463d f25f 9e3f 55c1 7abd 12a2 5fbe
000003d0: 7958 963f 80c2 8e3f 1f1c 7abd 2be4 25be
000003e0: 0b5e a23f 2c89 a53f 0e79 a13f 09bc 4cbe
000003f0: 1c5b a93f c8cc a93f ba88 ac3f 2184 953f
-0.048601896 -0.09448554 1.2230554 -0.22082686 -0.1448237 1.3834039 -0.16354121 1.3983502
1.41208 1.4752865 1.4881234 -0.12359844 -0.11605444 1.33269 -0.23964009 1.2678537
-0.2005313 -0.13813514 0.9665589 -0.110116825 1.3989652 1.2871928 1.3041332 1.169184
1.362451 -0.121782444 1.1560029 -0.16242842 -0.15334523 0.009172453 -0.25929922 1.2957588
1.4486905 1.2298149 1.310295 -0.23449066 -0.10761385 1.2987918 1.200855 1.0006852
-0.068688594 1.3332349 -0.18048781 1.4182333 1.1743351 0.027028086 1.1296957 0.810446
1.086392 -0.16100009 1.3501974 -0.005454629 -0.019627577 1.2896391 1.1353335 -0.10642837
0.061821822 -0.17592908 -0.33060944 -0.033112314 0.14719199 1.222095 1.2925037 -0.26022902
-0.016617535 1.375371 -0.20202835 -0.1634634 0.18812232 -0.19363636 0.14976703 1.1271229
-0.33722052 0.068177946 -0.15701742 1.3120565 -0.31813753 1.1795781 -0.05908594 -0.097436294
1.2003851 1.0737267 1.2102231 -0.26899287 1.3436096 0.124827914 -0.1037529 -0.050234314
0.14643054 -0.13011461 -0.122554585 1.3003185 1.4682392 0.019763444 1.2192361 -0.028726509
-0.12078104 -0.12369042 1.3493497 1.474165 -0.17493632 -0.20769309 1.1430874 -0.101324484
1.0674841 1.2349424 1.236383 0.6181833 0.71124 1.162606 -0.22170316 1.3249025
-0.19742937 1.3121194 1.4129928 -0.0009243804 1.2183368 -0.26892832 -0.1577058 1.1554486
1.366984 1.0709584 -0.11546529 1.2728872 1.1265459 -0.39826992 -0.06536237 1.2759911
0.07147885 -0.009869944 1.2280307 1.2128316 -0.18042766 -0.08853725 -0.100336745 -0.09180738
1.2050002 -0.03596893 1.1417667 1.3829359 -0.0019189073 1.3513153 1.3754238 1.2747608
1.3894734 1.0973312 0.06981213 1.5090425 1.43651 1.2313083 0.964194 1.3345597
0.7807956 1.4188819 1.1958156 -0.06830613 1.2089376 -0.11011043 1.0121158 1.3235908
-0.10308622 1.1034224 -0.13670889 -0.071359 1.2327971 1.1115179 1.372334 1.160328
1.3212268 -0.20237353 1.2259644 -0.015156874 1.1255301 -0.07960411 1.4790514 1.3356316
1.2494296 1.1226743 0.06488223 0.023141287 -0.08623019 1.282492 0.88234484 1.4051611
-0.13907509 -0.07962892 1.2833827 1.2205848 1.232542 0.09998902 -0.15751672 1.3069124
1.2451015 1.2478036 -0.20560531 -0.14979973 1.3387561 1.2584482 1.2602931 1.1933026
-0.05855058 1.1623539 1.3058888 -0.17811254 1.1124572 -0.16604425 -0.028905395 1.3008856
-0.059269767 0.13502936 1.2937323 -0.0037409815 1.3977183 1.3310475 1.1657412 1.3934191
1.2680012 0.06647389 1.3053174 -0.01824713 -0.13294171 1.0411402 -0.110841915 -0.20786794
-0.15757735 1.324528 -0.10856563 1.011478 -0.012851344 1.219324 1.2442877 -0.18492304
-0.05976858 0.116027065 1.2510303 1.4322928 -0.1662915 -0.03169714 -0.30037114 1.3765956
0.048340358 1.237303 -0.061219532 -0.21839169 1.174575 1.1153107 -0.061061975 -0.1620032
1.268495 1.2932487 1.2615068 -0.19993605 1.3230929 1.3265619 1.3479226 1.1680948

v.v_net.0.weight f4 [64, 5]
00000000: 793b 19bf 1294 e4be a3dd 423e ba8c 1b3e
00000010: 2f23 093b 8f12 b73e c72a 87be 0375 9e3b
00000020: 5614 1f3f 97c1 543e ad3f 6c3e f3b9 c93d
00000030: 30cc 06be c8eb d5be 3d75 1dbd 2bac 67bf
00000040: 9e9b c9bd 1b48 cb3d 03df b23d 9740 d23d
00000050: 8e0e c83c c9da 77be 9885 de3e a045 e63d
00000060: 675c bb3e 79d9 a4be 525a cdbe 7ad2 103d
00000070: b807 113f 6ef9 1a3f 5abf adbf 38d5 f8bd
00000080: 59f9 0c3d 8955 c83e a81d 233d 6625 c03e
00000090: 7461 5e3e 73a8 85bd 18eb 1a3d 527e 11bf
000000a0: ad7c 3abf 76f0 b1be 0713 d03d 4cc7 d03e
000000b0: 73dd e23e 1dca 24bf aa96 5ebe 9062 1b3e
000000c0: a513 713e aeff 0bbe 702d 573f ed7e 673d
000000d0: 22f0 c43d f7e8 6fbf c1b6 babf be17 86bf
000000e0: 6de5 88bf 287d 033b f1e9 91bb 3768 6fbf
000000f0: ee9c 61bf c37a 7bbf bfa5 833e f9f7 e4bd
00000100: 8de8 a1be bb70 803f cb85 cd3f 0974 503f
00000110: 3c27 413b d37a c73e 5fca 163f 4603 db3e
00000120: 2ca3 9dbe 347a 72be fcb1 b03d 1b33 4bbf
00000130: f548 e5bd 7bcb 3fbb 0867 dd3e 61ec 433d
00000140: 3a6c 893e 9ca2 05bf f235 af3e 61af 2e3f
00000150: 3237 443e c84c cc3e a833 d63e a474 82bf
00000160: 0f0c b03d 8dca 96be f21e febe f682 a4be
00000170: 30b4 983e b9d7 cd3c f169 8e3e 1be9 69bf
00000180: 3bd3 94bf 8a41 843d 1d57 2dbe 25db 71bf
00000190: 781a 333f 1957 1d3f efd6 a63e 2d8a 343e
000001a0: c349 993f e943 153f 4ac8 7d3e 80c8 183d
000001b0: f4a8 29be 47cf 07be 17e9 133f d96f e13d
000001c0: a849 efbd ef85 0abe 52a8 bcbe 4e1c 313e
000001d0: c8cf 47bf 9f60 fcbe fe58 b2bc 7517 bdbe
000001e0: 8e3e 2f3f e530 713e a3b0 e3bd 3aa1 d43c
000001f0: b512 33be 11ef ea3d aa88 2ebe 2c48 143f
00000200: 3b1c 713e 560f 433c 349c 4b3f f673 a93e
00000210: 9fd2 82be 6de6 dc3e 7549 18bf 12e7 12bf
00000220: 0d13 a8be cecb ab3e 7cbf 97bc b63f a5bd
00000230: d20c 2f3f 1140 7f3f a442 ba3e fb81 553e
00000240: c438 043f b3ad 353f a216 cdbe fac1 7e3e
00000250: 364c 413e df0b c03d e028 4fbf c828 f93d
00000260: 33bb 0bbe 2c83 e63e 72fb d2bd ae11 423f
00000270: 58c2 f23c 2b98 f8bc 9d42 f1bb 369b 86be
00000280: dd2b 3bbf ff0f a13d 0155 ca3e 3906 bd3d
00000290: 4948 03bd ec1a cabe 3a70 9ebe 6508 c83d
000002a0: bfaa 11be 1ac5 a43e 18ff 833f 7153 8abd
000002b0: 6488 fd3c 550e 0dbe dfa5 0dbd 2fc6 82bd
000002c0: cd27 c23e e2dc 93be 5a9a c2be bc70 bfbe
000002d0: 0fd9 1d3e f7d9 663f 9381 e83e 2249 413e
000002e0: 307d ee3e 9f5f 8ebf a9dc eebd 3d71 9dbd
000002f0: d2b4 963e d0ed e03d a91a 1b3e de59 e8bc
00000300: 1c23 303e 16b1 8e3e 3367 923e 3fee 3d3f
00000310: df76 46be 6c96 4abe 5e2d b63c 0cd1 a73d
00000320: 4af0 02bf 54c5 32be 4fc0 873d 94fe 9d3d
00000330: f9e4 13bc f843 6c3f 7713 4b3f 730c cb3e
00000340: 943e 2fbf 7fab 063f 2e85 2fbf 372b 54bf
00000350: 3787 d3be 24ab 64bd c128 1cbf ed69 4abf
00000360: 144c e8be 8d65 ab3e 1f5e 373e 105c 2d3d
00000370: 0c4c 27bf 3f34 16bd 85d9 cbbd cbe2 803d
00000380: bc34 be3d d1d1 863e e0bf 54be 5ec1 37bf
00000390: 4411 133e cea4 703e c736 27bf 9a38 bebe
000003a0: ff6c 8b3e 191f a33b 4541 133f 9c10 30bf
000003b0: 20ad 0c3e 21aa 9e3d fe73 5abe 8edc 873e
000003c0: 125f eabe 97f0 e3be ea21 3a3e e204 99bd
000003d0: 7bef 4f3e 6eb3 863e 7d97 81be 89c0 f3bd
000003e0: 9286 413f f9bc 453e 45b1 80bf c6f1 60be
000003f0: 9840 d73e fec1 d63d 9974 a7bd 8471 0a3f
-0.59856373 -0.4464422 0.1902986 0.15190402 0.0020925512 0.35756347 -0.26399824 0.004835726
0.62140405 0.20776974 0.23071165 0.0984992 -0.13163829 -0.4178145 -0.038441885 -0.9049708
-0.09844135 0.099258624 0.08733942 0.10266226 0.024421003 -0.24204554 0.434613 0.11243749
0.36593935 -0.32197168 -0.4010797 0.035356976 0.566524 0.6053685 -1.3574021 -0.12150043
0.034417484 0.39127758 0.039823204 0.37528533 0.21716863 -0.0652627 0.03782186 -0.56833375
-0.7284649 -0.3475377 0.10159879 0.4077705 0.44309577 -0.643709 -0.21737161 0.15174317
0.2354265 -0.13671753 0.8405371 0.05651753 0.09616114 -0.9371485 -1.4587022 -1.0475996
-1.0695015 0.0020063613 -0.004452937 -0.93518394 -0.8813008 -0.98234195 0.25712392 -0.111801095
-0.31622735 1.0034403 1.6056455 0.81427056 0.0029472848 0.38960895 0.58902544 0.42775935
-0.30788553 -0.2367943 0.08627698 -0.79374856 -0.11195556 -0.002926557 0.4324267 0.04783285
0.26840383 -0.5220125 0.34220845 0.68236357 0.1916168 0.3990233 0.41836286 -1.0191846
0.0859605 -0.2945141 -0.49632984 -0.32131165 0.29824972 0.025127279 0.27815202 -0.91371316
-1.1626962 0.06457813 -0.16927762 -0.94475013 0.69962263 0.61461025 0.32585856 0.17630835
1.1975635 0.5830675 0.24783435 0.037300587 -0.16568357 -0.13262664 0.5777754 0.11007661
-0.11683971 -0.13527654 -0.36847168 0.17295954 -0.78051424 -0.49292466 -0.02177095 -0.3693196
0.68454826 0.23553808 -0.11117675 0.025955785 -0.17487605 0.114713795 -0.1704432 0.57922626
0.23545925 0.011905512 0.7953522 0.33096284 -0.25551316 0.4314455 -0.59487087 -0.57383835
-0.32827035 0.33553928 -0.018523924 -0.080687925 0.6837894 0.9970713 0.36378968 0.20850365
0.5164912 0.7096817 -0.4005633 0.24878684 0.18876728 0.09377264 -0.80921745 0.121659815
-0.1364563 0.4502195 -0.10301866 0.7580823 0.029633686 -0.030345997 -0.0073626773 -0.26290292
-0.73113805 0.07864379 0.39517978 0.092297025 -0.03205136 -0.39473665 -0.30944997 0.09767226
-0.1422529 0.32181627 1.0312223 -0.067541964 0.030948825 -0.13774998 -0.034582015 -0.06385457
0.3792099 -0.28879458 -0.38008386 -0.37390697 0.15414833 0.9017634 0.45411357 0.18875554
0.46579885 -1.1122931 -0.11663181 -0.07687614 0.2943483 0.10982859 0.15146889 -0.028363165
0.17200893 0.2786948 0.2859436 0.7419166 -0.19381283 -0.19783944 0.02223843 0.081941694
-0.511479 -0.17458087 0.06628477 0.077145725 -0.009026759 0.9229121 0.79326576 0.39657936
-0.6845486 0.5260543 -0.6856259 -0.8287844 -0.41314098 -0.055827275 -0.60999686 -0.7906788
-0.45370543 0.33475915 0.17906998 0.042324126 -0.65350413 -0.03667092 -0.09953598 0.06293257
0.09287402 0.26331952 -0.2077632 -0.7177943 0.14362055 0.23500368 -0.6531796 -0.3715256
0.27231595 0.0049780724 0.5752147 -0.68775344 0.13737917 0.07747293 -0.2133331 0.26535457
-0.45775658 -0.44519493 0.18177 -0.074716344 0.20306198 0.2630877 -0.2531089 -0.119019575
0.75595963 0.19310369 -1.0054098 -0.21967229 0.4204147 0.1048622 -0.08176536 0.5407946

v.v_net.0.bias f4 [64]
00000000: e4c3 9ebd 5dde e6be 4e54 233e 90c8 f7bd
00000010: 9247 f7be bf90 05bf e7c3 88be 26a1 763e
00000020: 1a68 08be 5eab a93c c24a 083e 779c dcbe
00000030: 13be aabe e04a ca3f 8c14 21bd 7340 5dbd
00000040: 0063 8bbd 4a94 103f 2d5c e0bd 0cdf c2be
00000050: 3687 da3e 6aba cdbb d093 8a3e 1b04 64bf
00000060: 6841 163e 42d9 59be 4f62 013e b5d1 1e3e
00000070: c57a 143f 3002 02bd 5a5e 82be f5a6 4a3e
00000080: 9260 68be 58f5 88be 29be 713e 5af8 4a3d
00000090: 314a 0c3f 8d7f 44be aee7 07bf 0755 81bd
000000a0: 5c70 ad3d cae1 3e3f e4ad 3dbf 7dd2 0abe
000000b0: aeb7 40be 1389 a53e 2780 e7bd 3620 c0bc
000000c0: 391e 4ebe 6bd7 18bf ca96 49be e405 153e
000000d0: f3d1 92be 5c6c a83d 3165 a8bd c57f 40be
000000e0: 4b87 f63d 6db2 ecbe dd33 2cbe a661 39be
000000f0: b318 263e 0305 76bd 997a 7cbe 2030 28bf
-0.07752207 -0.45091525 0.15950128 -0.12098801 -0.4829679 -0.5217399 -0.26711962 0.24084911
-0.13320962 0.020711597 0.13309768 -0.43088123 -0.3334814 1.58041 -0.039326236 -0.05401654
-0.06805992 0.5647627 -0.10955081 -0.38060796 0.42681283 -0.006278326 0.27065897 -0.89068764
0.14673388 -0.21274284 0.12635158 0.15509684 0.5799983 -0.031740367 -0.2546261 0.19790252
-0.22693089 -0.26749682 0.23607697 0.049553253 0.5480071 -0.19189282 -0.5308789 -0.06315046
0.084686965 0.74563277 -0.7409346 -0.13556857 -0.18820068 0.32331142 -0.1130374 -0.02345286
-0.20128717 -0.597037 -0.19686428 0.14553028 -0.28675804 0.08223793 -0.08222426 -0.1879874
0.12037524 -0.46229878 -0.1681666 -0.18103656 0.1622036 -0.060063373 -0.24656142 -0.6569843

v.v_net.2.weight f4 [64, 64]
00000000: 7a37 723f eb57 883e f322 a5be 7543 153f
00000010: 16a8 7f3e 7954 d3bc c3a6 153f ec4c 0bbe
00000020: ff79 10be 0141 4b3e 8aa9 733e 7ad1 4c3f
00000030: 48d0 e63e 8449 12bf c1e4 cb3e f9d6 1cbf
00000040: eaea 743e 2e2e 26bf a11c 953e a72a ec3e
00000050: 21c6 02bf 3081 f4be 9f6a 23bf 4e60 1d3f
00000060: f239 17bf 1ac0 1b3f 1b94 20bf 8840 30bf
00000070: 7bee 1abf cd12 36bf 86c5 9c3f ba96 95bf
00000080: 9b17 3b3f 7371 193f 35d7 25bf 3659 cebe
00000090: cb23 f8be c982 123f 47de 073f 3bb4 c03e
000000a0: c4db c93e 29c8 67bf eb7e f73e 73ed 0d3f
000000b0: def9 713f 0e09 2abd 165c 3bbd e15e 8fbe
000000c0: 3113 913f bc0f ca3e 9d18 443f 1a25 ffbe
000000d0: e7e7 c63e 2588 23bf 1965 1a3f 6b2d f63e
000000e0: c9db 0dbf 73b3 92bd 20ce 353f 207f 8a3f
000000f0: bc82 9bbe 9060 4f3d b9f8 113f fe00 843f
00000100: 2e9f 473f fd7b 3b3f 0440 f6be 95f1 d43e
00000110: 8150 aa3e 503a d1bc ccd0 cc3e 5185 283e
00000120: 775a 763c c80a 753f 5c0b 5bbe 4ac2 cd3e
00000130: 95d6 b93e 25aa 87bf aba0 dc3d c101 87be
00000140: 3218 173f 64c1 703e 9ba9 17bd 00da 4a3e
00000150: a4e4 04bf a0cb 61be f6d2 11bf 7513 9c3e
00000160: 93b9 fdbe e5ae 783e 9621 5d3e aa77 2abe
00000170: 3e8b d1be aff0 863b e236 393f d822 21bf
00000180: d0d4 3c3f 4153 b23e 2095 1cbf b41f 4abe
00000190: 2e20 ae3d 6cf6 3e3f d495 ca3e 81e3 0f3e
000001a0: 4970 853d a070 00bf 9721 a43e ee72 c93e
000001b0: af3f 0b3f 6437 ff3d 9f05 a0be 581a 86be
000001c0: be56 863e a6d1 f23e ff16 4f3f aac4 25bf
000001d0: 2574 0c3f 0d77 4abf 1b17 713e 24a8 033f
000001e0: 36c3 11bf 1365 683c 2642 fb3d 0f54 663f
000001f0: 0cb1 04be af3a 2e3e d512 bf3c ecc6 233f
00000200: 3f56 a3bf 24f6 c5be 7572 333f 4085 8fbf
00000210: 45d2 0bbf ae51 d1bd 37f0 60bf 31b4 4a3e
00000220: 4f39 81be 8a4e 56bf dcae ccbe 91eb 15bf
00000230: 18a5 1cbf 60ab e93e b0d4 303f d001 5e3e
00000240: f4ea cebe 0235 d43e 0763 0cbf db63 3ebf
00000250: a7bd 563f 9ec2 603f 830e e43e 42fa 27bf
00000260: d09d 813f 5f03 10bf d94c 8d3f c74f 0a3f
00000270: 8923 f43e ada1 033f 6dbc 84bf 7444 4a3f
00000280: 56b6 87be 30fe 68bf 0d21 723f 8275 0a3f
00000290: d00b 0a3e 1e58 47bf 6c5b 03bf c27e bcbe
000002a0: 9026 abbe 43de dd3e 8803 3ebf 4436 83bf
000002b0: fcb7 0fbf 1cd7 833e 23c6 52be 4de2 153e
000002c0: 555e 2abf 4abf f4be 99fc 4abf 756d 393f
000002d0: 169b f7be 820a 273f e42b 76bf 33d8 ecbe
000002e0: c8f8 483f 34ad 913e 102f 2bbf edd2 24bf
000002f0: 4dbf 023e dd0a 583d 9b95 1abf 2839 13bf
00000300: 20f6 95be f989 f9be f27b afbd bda1 5abf
00000310: 66d2 53bf 2555 9dbe 3ae5 61bf 3060 123f
00000320: 642f 0fbe 0e8f f1be a7c2 d5be 3115 05bf
00000330: a500 49bf 6368 593f 4e52 ef3e c1de 683f
00000340: 42c9 afbe ebc9 213f 3273 d2be b28f 3abf
00000350: 852c e33e be02 3e3f 8ad4 263f 83d3 12bf
00000360: a374 2b3f 73b4 f73c e694 2a3f e1a3 123d
00000370: c48e d73e 8926 6d3f a49b 84bf c7d0 bb3e
00000380: a129 87be c18e 1dbf 347b 5c3f 7538 b03c
00000390: f67e 663e 7362 4ebf f6e4 19bf 883a 14bf
000003a0: c1fe b53e 0abd 833f 945a e2be b6fc efbe
000003b0: decf 95bf dd11 bebe c547 3dbe 17cc b8bd
000003c0: 6926 43bf 34d1 20bf 23e8 3cbf 2259 2e3f
000003d0: 04aa b5be 5a9d e13e 5793 16bf 4acf 45bf
000003e0: 1546 1d3f 1c35 b33e d325 60be 8da3 08bf
000003f0: cd1a ae3e 9f51 5d3e af09 f3be 2f3d 76be
0.946159 0.26629576 -0.32253227 0.58306056 0.24966463 -0.025797116 0.58457583 -0.13603562
-0.14109038 0.19849016 0.23795143 0.80007136 0.4508078 -0.57143426 0.39822963 -0.6126552
0.23917738 -0.64914215 0.29123405 0.4612629 -0.5108357 -0.47754812 -0.63834566 0.61475074
-0.5907279 0.6084 -0.6272599 -0.68848467 -0.6052014 -0.7112244 1.2247779 -1.1686623
0.73082894 0.59938735 -0.64781505 -0.40302438 -0.48464808 0.5723081 0.53073543 0.37637505
0.3942548 -0.90539795 0.48339018 0.55440444 0.9452189 -0.04151254 -0.045742117 -0.28002074
1.1333982 0.3946513 0.76600057 -0.49832994 0.38848802 -0.63879615 0.6031051 0.48081526
-0.5541349 -0.071631335 0.71017647 1.0820045 -0.3037318 0.0506292 0.57020146 1.0312803
0.77977264 0.73236066 -0.48095715 0.41590562 0.33264545 -0.0255405 0.4000305 0.16457106
0.015036217 0.95719576 -0.21391052 0.40187293 0.36296526 -1.0598799 0.107728325 -0.26368526
0.59021294 0.23511273 -0.037026983 0.19809723 -0.5191138 -0.22050333 -0.56962526 0.30483595
-0.49555644 0.24285467 0.21594843 -0.1664721 -0.40926546 0.004118047 0.7234937 -0.6294379
0.73762226 0.34829143 -0.61165047 -0.19738656 0.085022315 0.7459476 0.39567435 0.1405163
0.06515557 -0.5017185 0.32056877 0.39345497 0.5439405 0.12461737 -0.3125429 -0.26191974
0.26238054 0.47425574 0.80894464 -0.6475321 0.5486472 -0.7908791 0.2354397 0.5142844
-0.56938493 0.014184254 0.12268476 0.89972013 -0.12958163 0.17014574 0.02332441 0.63975406
-1.2760695 -0.38664353 0.7009652 -1.121254 -0.5461772 -0.10220657 -0.8786654 0.197953
-0.25239035 -0.8371359 -0.39977157 -0.5856257 -0.61189413 0.4563856 0.69074535 0.21680379
-0.4041363 0.41446692 -0.54838604 -0.7437112 0.83883137 0.8779696 0.44542322 -0.6561624
1.0126286 -0.56255144 1.1039077 0.5402798 0.4768336 0.5141857 -1.0370003 0.790107
-0.265063 -0.9101286 0.9458168 0.5408555 0.13481069 -0.7786883 -0.51311374 -0.3681546
-0.33427858 0.43333635 -0.7422414 -1.0250936 -0.5614011 0.25750053 -0.20583396 0.14637108
-0.6655019 -0.47802192 -0.79291683 0.72432643 -0.4836051 0.6525041 -0.9616072 -0.46258697
0.7850461 0.28452456 -0.66868687 -0.6438435 0.12768288 0.052744735 -0.6038453 -0.5750909
-0.2928934 -0.48738077 -0.085685626 -0.85403043 -0.8274292 -0.30729023 -0.88240397 0.5717802
-0.13982922 -0.47179455 -0.4175007 -0.5198546 -0.7851661 0.84924906 0.4674248 0.90964895
-0.34333235 0.6319873 -0.41103512 -0.7287551 0.44369903 0.74222934 0.6516806 -0.5735399
0.6697485 0.030237412 0.6663345 0.03580082 0.4210111 0.92636925 -1.0359998 0.36682722
-0.26398948 -0.6154595 0.86125493 0.021511296 0.22509369 -0.8061897 -0.6011499 -0.5790181
0.35545924 1.0292065 -0.4420973 -0.4687249 -1.1704061 -0.37123004 -0.18484409 -0.09023302
-0.76230484 -0.6281922 -0.7379171 0.68104756 -0.35481274 0.44065362 -0.5881857 -0.77269423
0.6143506 0.35001457 -0.21889429 -0.5337456 0.34004822 0.21613167 -0.47468325 -0.24046777

v.v_net.2.bias f4 [64]
00000000: 1aac 23bf edb0 f1be 9769 2c3f 0780 1c3f
00000010: 067b 10bf 5bfa 17bf c5dc 133f f72a 2b3f
00000020: e880 273f ed2e 1cbf 4413 1c3f 59f9 053f
00000030: 88fb 22bf 3fac 293f 3d36 163f b1bf 31be
00000040: 3caa 073f 3ad6 25bf 6a39 2e3f ae3d 15bf
00000050: 6e0a 2d3f 4463 20bf 1ae3 cbbd 9e8a 673e
00000060: deae 30bf edcc 32bf d832 253f 658b 0ebf
00000070: c42c 1a3f f342 1f3f c5b3 29bf fdf3 1b3f
00000080: 511c f9be 55b6 21bf ddf4 22bf 53d3 193f
00000090: 230a 21bf 80ab e43e 0301 28bf 06aa 113d
000000a0: 4747 29bf d96e 29bf b159 063f e6f1 173f
000000b0: 256e 14bf 4cd7 eebe 7522 1cbf 6765 2a3f
000000c0: f2d6 163f 6a02 23bf caa7 303f df7f 21bf
000000d0: e5ce 1c3f 0872 39bf 586c 1cbf 914a 173f
000000e0: 3958 38bf 69c1 1ebf 3e63 013f 8864 0b3f
000000f0: 3893 13bf 612b 1fbf 69e0 71be 01f5 27bf
-0.6393448 -0.47205296 0.6734862 0.61132854 -0.5643772 -0.5936639 0.5775874 0.66862434
0.6543107 -0.61009103 0.60966897 0.523336 -0.63665056 0.6627845 0.5867651 -0.1735828
0.5299413 -0.6478001 0.68056357 -0.5829724 0.6759404 -0.6265147 -0.099554256 0.22611472
-0.69016826 -0.6984394 0.64530706 -0.5568145 0.60224557 0.6221153 -0.6628993 0.6091917
-0.48654416 -0.6316884 -0.6365488 0.6008808 -0.6290609 0.44662094 -0.65626544 0.035562538
-0.66124386 -0.66184765 0.5248061 0.5935348 -0.5798057 -0.46648633 -0.6099008 0.6656098
0.5892173 -0.6367556 0.69006026 -0.6308574 0.61253196 -0.7243962 -0.6110282 0.59098154
-0.7200962 -0.6201387 0.50542057 0.54450274 -0.57646513 -0.62175566 -0.23620762 -0.6560822

v.v_net.4.weight f4 [1, 64]
00000000: 83b7 9140 8dc8 8d40 835b 8dc0 a17b 89c0
00000010: 7511 9540 1b87 9240 5340 8bc0 358e 88c0
00000020: 6d63 90c0 b5d1 8a40 ed71 99c0 cfb5 8ac0
00000030: bd78 8f40 d351 86c0 d398 94c0 ca39 8b40
00000040: 5937 8fc0 cf40 8740 23eb 88c0 d124 9e40
00000050: b16b 88c0 5f9f 8f40 2227 9840 17b7 8cc0
00000060: 8538 8c40 5f38 8740 19b1 8ac0 5545 9040
00000070: 85a4 8fc0 1dfa 87c0 9d90 8b40 5508 8cc0
00000080: 93e4 8f40 b52b 8d40 b748 8740 8d14 96c0
00000090: ff5f 8840 6b92 8ac0 6f31 8b40 ac38 bc40
000000a0: dbd6 8a40 677f 8840 d53b 87c0 a1a4 97c0
000000b0: 7313 8e40 755a 9040 3799 9f40 d191 87c0
000000c0: 7194 89c0 d76f 8840 2ba7 8ac0 316a 8a40
000000d0: ff20 90c0 0755 8f40 6f81 8a40 7deb 87c0
000000e0: 875e 8940 6d9a 8a40 bb60 98c0 d90c 90c0
000000f0: 53e9 8c40 9fab 8b40 7900 9740 110c 8840
4.5536513 4.4307313 -4.417421 -4.2963414 4.658381 4.5789924 -4.351602 -4.2673593
-4.512137 4.338099 -4.795157 -4.3346934 4.4834886 -4.1974883 -4.6436553 4.3508043
-4.4755063 4.226661 -4.278703 4.941994 -4.263146 4.4882045 4.754777 -4.39735
4.3818994 4.225631 -4.3341184 4.5084634 -4.488833 -4.2492814 4.361403 -4.376017
4.496652 4.4115853 4.2276263 -4.6900086 4.2617183 -4.3303733 4.3497844 5.881918
4.3387275 4.265552 -4.2260537 -4.7388463 4.439874 4.511042 4.987453 -4.23655
-4.2993703 4.2636523 -4.3329062 4.325463 -4.504028 4.4791293 4.3283 -4.247496
4.292789 4.331351 -4.761808 -4.5015683 4.403482 4.3647 4.7188077 4.251473
