tmp/experiments/RN1 False,True,True/pyt_network_save/model save33000.pt (torch_old, 314943 bytes, 33 tensors)

pi.pi_net.0.weight f4 [64, 5]
000000 bf 51 44 bf 4d 09 39 bf b3 82 61 bf f2 25 96 be
       -0.76687235 -0.72279817 -0.88090056 -0.29325825
000010 39 d5 c1 be 56 33 ea 3e e9 e4 88 bd 01 ab c8 be
       -0.37857988 0.4574229 -0.06684286 -0.39192966
000020 c3 56 28 bf 6b c6 43 bf c6 01 bc be 75 fc e2 be
       -0.6575739 -0.76474637 -0.36720103 -0.44333234
000030 e6 c8 16 3d 43 93 90 bd 7f 31 1e 3e 89 00 0f bf
       0.036812685 -0.07059338 0.15448569 -0.5586019
000040 b7 aa 15 3e ae b2 0c bf 9f 09 2e be f6 3e 42 3f
       0.14615904 -0.54960144 -0.16995858 0.7587732
000050 5a 8c 93 be 13 a5 e9 be 84 2f 27 bd 83 55 1a 3e
       -0.28818017 -0.45633754 -0.0408168 0.15071683
000060 33 21 af bc 3d 87 e2 bd a9 72 83 bd 1c c1 02 3e
       -0.021378135 -0.11060951 -0.06418354 0.12768978
000070 21 a3 9e 3e f6 d3 d7 be fe 4d bb be 21 2d 35 be
       0.30983832 -0.421539 -0.3658294 -0.17692997
000080 c6 87 42 3e d4 1f bb be 17 ea dd 3e 62 f0 0e 3f
       0.18997106 -0.3654772 0.4334266 0.55835545
000090 2d 36 2e be eb 57 07 3e be 1d 3b 3e 6a e2 6a bd
       -0.17012854 0.13217132 0.18273064 -0.05734483
0000a0 f6 79 d9 3e 2d fa f6 3d 15 02 16 3e 40 2a c1 3d
       0.4247586 0.12059436 0.14649232 0.09431887
0000b0 a0 07 6f be b2 30 d1 3d 84 a4 6f be 85 0c 37 3e
       -0.23342752 0.10214366 -0.23402601 0.1787587
0000c0 d7 41 47 bd f1 fe f6 3e aa bc a1 3d 15 ef e0 3e
       -0.048646774 0.4824138 0.07897313 0.43932405
0000d0 8c 7b b7 bc 69 c6 34 3e 2c 07 01 be 71 03 f6 bc
       -0.022397779 0.17653812 -0.12600392 -0.030030938
0000e0 38 25 f9 bd 7c 93 47 bc 5d 81 e0 3e 6a 94 90 be
       -0.12165302 -0.012181159 0.43848696 -0.2823823
0000f0 6e d6 00 3e 3c 6f db be 4b 8d 0b 3f 46 a4 89 bd
       0.12581798 -0.42858303 0.5451247 -0.06720786
000100 05 9c 86 3b 5b f0 e3 3e 04 1e 49 3e 02 58 99 3d
       0.0041079544 0.44519314 0.19640356 0.07487489
000110 84 e0 20 3e 72 a2 57 be e5 3d 23 be c5 90 d2 bd
       0.15710646 -0.21058062 -0.1594158 -0.10281519
000120 83 3c 5c bf a7 b5 ec bd 3a 85 3b 3e b8 71 97 3d
       -0.86029834 -0.11558085 0.1831254 0.07394737
000130 8f e2 cd be cc 44 c3 3e 66 7c a2 be b9 e5 be 3e
       -0.40211913 0.38138425 -0.31735533 0.3728464
000140 d0 f3 16 bf 5e 5c 14 be 28 97 30 3e c2 e2 1e be
       -0.5896578 -0.1448836 0.17245162 -0.15516189
000150 4b 5d c6 3e d4 95 05 3f f9 10 97 be ea 93 84 bd
       0.38743052 0.52181745 -0.29505137 -0.06473525
000160 03 23 2e 3e 00 43 21 bf a3 c8 ed bc 45 21 2b be
       0.17005543 -0.6299286 -0.029026335 -0.1671191
000170 9f f9 cb bd d1 24 11 3e 72 9a a9 3c 37 a7 6f be
       -0.09959721 0.141742 0.020703528 -0.23403631
000180 13 35 84 3e d1 bc 71 be f1 bf c5 3c 56 42 1d be
       0.25821742 -0.23607184 0.024139376 -0.15357336
000190 6d e8 7b be ab 53 2f be e9 98 e6 3d fa a9 2c be
       -0.24600382 -0.1712176 0.11259634 -0.16861716
0001a0 78 8b 53 3f d0 f7 8a be 17 d2 5f be 11 9e a2 be
       0.8263469 -0.2714219 -0.21857487 -0.3176122
0001b0 99 f1 b0 3e 30 65 02 be ff e1 8d 3e ed 4a c4 be
       0.34559324 -0.12733912 0.27711484 -0.38338414
0001c0 95 c2 d1 3e 9e 2f 43 3e 5a 0a 08 3e e8 df 27 3f
       0.40968767 0.19061133 0.13285199 0.6557603
0001d0 bb c0 83 3e b7 52 6a be b3 34 be 3e 6c ad 00 bf
       0.2573298 -0.22883116 0.3714958 -0.5026462
0001e0 5d 17 b1 ba 6a 8b 77 3e cd c6 8a 3e e0 9c 36 3e
       -0.0013510991 0.24174276 0.27104798 0.1783328
0001f0 db c2 5e be 93 fe 23 bf a7 11 22 be 66 1f 1a be
       -0.21754019 -0.64060324 -0.15827046 -0.1505104
000200 60 96 b7 be 4a d5 21 3f e8 de 10 bf 88 8d 6f be
       -0.35856915 0.6321608 -0.5659013 -0.23393834
000210 c5 b1 0b bd 3c d2 ed bd 9e 37 cf 3e ff 79 04 3f
       -0.03410508 -0.11612365 0.4047212 0.5174865
000220 00 0a 07 3d be a0 84 3f 0c f8 06 3c 9e db a0 3e
       0.03296852 1.0361555 0.00823785 0.31417555
000230 36 8d 9b 3e 17 bc e2 bc a8 d2 c5 be 55 0b 8a 3e
       0.30381173 -0.027677579 -0.3863728 0.2696177
000240 dc d0 9b 3c a7 74 d3 be d0 d0 9d be fa 3b f9 bd
       0.01902049 -0.41299936 -0.30823374 -0.12169643
000250 42 a7 74 3d 8e 5b 9a 3e b1 23 a8 be 4a f5 4a 3e
       0.059729822 0.30147976 -0.3283973 0.19820133
000260 ac 69 1f be f0 0a 9f 3d 4d f0 66 be 3e 52 a3 bc
       -0.15567654 0.07765758 -0.22552605 -0.019936677
000270 3e 5f 02 bf e8 04 65 3d 1b 32 48 3d d9 cf 9a 3e
       -0.5092658 0.055912882 0.04887591 0.302367
000280 59 c2 bb be 4a d6 d9 be 48 64 5b bf 31 93 e3 bd
       -0.36671713 -0.42546302 -0.8569989 -0.11112059
000290 27 5d 46 bf e0 e0 3c be 35 40 28 3f 52 44 2a bf
       -0.7748589 -0.18445158 0.6572297 -0.665105
0002a0 fc 13 f7 3d 4d 6d 1d be a3 78 01 3e 31 11 92 3e
       0.120643586 -0.15373726 0.12643676 0.2852874
0002b0 be 6d 1a 3d a3 69 c7 be 08 26 88 be 38 34 18 bf
       0.037702315 -0.38947782 -0.26591516 -0.5945468
0002c0 51 c0 a5 bb 52 7c 3f be 52 56 d5 bd 6c de 12 3f
       -0.0050583263 -0.18699768 -0.10416855 0.5737064
0002d0 b7 9e 47 bf d8 4b 00 be 7b 1c e8 be a4 ab 48 3e
       -0.77976555 -0.12528932 -0.4533423 0.19596726
0002e0 bd 35 07 3f 7a 50 86 3e db 2c 9f bd 39 29 86 bd
       0.52816373 0.26233274 -0.077722274 -0.06550831
0002f0 91 2d d9 3d fc f2 ca be 9a 17 0a 3e 9b 66 dd be
       0.10604394 -0.39638507 0.13485566 -0.43242344
000300 12 07 88 bf dd 18 89 3d 4b ba 27 bf c2 cb b7 be
       -1.0627158 0.066941954 -0.65518636 -0.35897642
000310 f6 a1 f1 be 63 c6 5b bf 88 ce ec be 16 ab b0 be
       -0.4719388 -0.8584959 -0.4625132 -0.34505528
000320 4b bd 48 3e 14 94 46 be 5c 95 1d 3e 88 d2 8f 3e
       0.1960346 -0.19392425 0.15389007 0.2809031
000330 54 70 f9 bd 8d 89 8e 3e e8 80 d6 3e 08 3a c4 3f
       -0.12179628 0.27839318 0.41895223 1.533021
000340 30 36 d2 3e 7e 63 83 3e 73 38 8b 3e 63 c7 c5 3a
       0.41056967 0.25661844 0.27191505 0.0015089329
000350 a8 50 d3 3d f3 e9 15 3e c9 7b b5 be b8 e5 83 bd
       0.10318118 0.14640026 -0.35446003 -0.064403
000360 e8 38 ce be c4 4b 69 3e b9 02 12 3e f7 22 8e 3d
       -0.4027779 0.22782809 0.14258851 0.06940263
000370 11 ff 5d 3e 8d 99 fc bc 0c 58 8a be 85 66 38 3e
       0.21679331 -0.030834937 -0.270203 0.18007858
000380 d9 8a bd 3e 95 c4 1a be 71 3f c9 3e 01 73 fd be
       0.37019995 -0.15114053 0.39306214 -0.49501804
000390 fd 1e 8d be 46 88 33 3e 83 03 ba 3d d0 e8 fb 3e
       -0.27562705 0.17532453 0.09082701 0.4920106
0003a0 0f 86 2c 3c aa 2a 38 be 15 f8 a1 be 43 e4 d2 be
       0.010530009 -0.17985025 -0.31634584 -0.41189775
0003b0 32 82 8c be e4 1f 63 3e 6a c7 1d be 2f 32 b7 3e
       -0.2744308 0.22180134 -0.15408102 0.35780475
0003c0 f0 d5 a3 be d9 69 85 3e e7 68 09 3e b6 76 a9 be
       -0.3199916 0.26057318 0.13418923 -0.33098382
0003d0 a2 58 cf 3d 09 04 9c be c7 6a 72 bc 6a 4f ad be
       0.10124327 -0.3047183 -0.0147959655 -0.3384965
0003e0 43 8c 66 3e 2c 3f b5 3e db 09 89 be d1 b9 31 be
       0.22514443 0.3539976 -0.26765332 -0.1735604
0003f0 f5 4a c6 3e 1f a8 41 be e5 c1 65 be d2 b1 0a 3e
       0.38729063 -0.1891179 -0.22437246 0.13544396

pi.pi_net.0.bias f4 [64]
000000 09 e5 a1 be 9b 9d df bd 9e c4 39 bd 59 10 be 3d
       -0.31620052 -0.10918733 -0.045353524 0.09280462
000010 fa 40 f3 3e e1 1c 0f bd 07 4c 2c be bb db b1 be
       0.4751051 -0.03493965 -0.16825877 -0.34737954
000020 09 1b a7 bd b8 1d 71 be 85 5c 88 be 13 18 91 bd
       -0.081594534 -0.23546493 -0.26633087 -0.0708467
000030 cb 80 3a be 50 68 d1 bd 75 f0 3b 3e ea f0 16 be
       -0.18213193 -0.10224974 0.18353446 -0.14740339
000040 1f 41 89 3d 79 d0 aa 3d 25 85 dd 3d 44 0c 86 3e
       0.06701874 0.08340544 0.10816411 0.26181233
000050 ce d0 2b be 35 e4 cf bd f3 2d a8 be 0a 11 04 3c
       -0.16778871 -0.10150949 -0.32847556 0.008060703
000060 38 73 cf be df 39 e8 3d dd dd 68 3d 2b 0d ac 3d
       -0.40517592 0.11339163 0.05685221 0.08400949
000070 84 db 92 3d 95 b9 32 3c 0b 7c 50 3e 10 fd dd bb
       0.071707755 0.010908504 0.20359819 -0.006774552
000080 6c ed 88 be 46 7a 40 3e 68 ef 3c 3e 72 f1 f6 bd
       -0.2674364 0.18796644 0.18450701 -0.12057771
000090 ee 86 58 bd 5c 07 ab bc e3 c9 98 bd d7 27 26 be
       -0.052863054 -0.020877533 -0.07460382 -0.16226135
0000a0 55 9a 0a be dd 20 01 3e dc 86 88 3d 32 bb e4 bd
       -0.13535435 0.12610193 0.066663474 -0.11168517
0000b0 81 59 8e be 55 04 59 3e 08 1c f4 3d 2d 96 8b bd
       -0.2780266 0.21193059 0.11919409 -0.06815753
0000c0 74 40 87 be 90 3c af 3d a1 52 66 3e c5 7a bd 3d
       -0.2641636 0.08556473 0.22492458 0.09251932
0000d0 53 bf 8a be d7 95 eb bd 9f fc 60 3e 1a 9c 03 be
       -0.27099094 -0.11503189 0.21971367 -0.12852517
0000e0 a8 14 92 3d b1 f3 2c be a6 56 3c be 6a 83 cf bd
       0.07132846 -0.16889836 -0.18392429 -0.10132487
0000f0 c1 75 98 be 6c 92 4b be 0e 6e 08 bd b7 ca 69 be
       -0.2977734 -0.19880074 -0.03330808 -0.22831236

pi.pi_net.2.weight f4 [64, 64]
000000 40 57 80 3e 9b ba 6b be a4 fc 60 3e b1 6d a9 3e
       0.25066566 -0.23020403 0.21971375 0.330915
000010 88 23 04 3c 82 6b 64 be 46 f0 c1 3e 62 d9 a5 3d
       0.008065112 -0.22306636 0.37878627 0.08098103
000020 00 08 b9 bd d8 fc 82 3e 4c dc f6 bd 15 9d 53 bd
       -0.09034729 0.2558353 -0.12053737 -0.051663477
000030 27 cd 32 3f 93 2d 20 be c8 00 5f 3e 7a 49 d2 3e
       0.6984429 -0.15642385 0.21777642 0.41071683
000040 1b 1b 7c 3e bc 34 cb be 55 25 d7 bd b1 ea 11 bf
       0.24619715 -0.3968867 -0.105051674 -0.56998736
000050 35 ed ad 3d 1f 82 ca be 70 10 0d 3e 15 c9 fc be
       0.08492509 -0.395524 0.13775802 -0.49372163
000060 02 ab ef 3d 76 16 b8 3e e4 6f dc bd 37 9a c3 bd
       0.11702539 0.35954636 -0.10763529 -0.095508985
000070 04 32 dd 3d ed 49 6f 3e 69 bd 91 be cd 43 ad 3e
       0.10800555 0.23368044 -0.2846482 0.3384079
000080 44 2e a8 bd 1a 15 1f bf bb f6 ad 3c 7d 0c 80 bd
       -0.082119495 -0.62141573 0.021235814 -0.06252382
000090 4c eb b3 3e 2b 47 5b be e7 0d 40 be a5 59 71 bd
       0.35140455 -0.21413867 -0.18755303 -0.058923382
0000a0 c4 c2 8f 3d 21 a7 f0 3c 15 12 ee 3d 2c ba a3 3e
       0.070195705 0.029376568 0.116245426 0.31977975
0000b0 f5 6e 0d 3f 5d 22 62 be 33 52 1d bf 2e 66 30 3f
       0.5524743 -0.22083421 -0.6145355 0.68905914
0000c0 65 72 0a 3e aa 16 bb bd d9 11 fa 3d 47 33 b9 be
       0.135202 -0.09135182 0.122104354 -0.36171934
0000d0 52 10 9a 3d eb f9 4b 3e 52 6a c7 3e 8c e3 1f 3e
       0.07522644 0.19919555 0.38948303 0.15614146
0000e0 6a 3e 67 be ba ba 81 be 88 7d c4 be d2 a6 7f 3e
       -0.22582403 -0.25337774 -0.38377023 0.2496598
0000f0 de 08 0b 3f 14 b2 a5 be 95 d5 76 3d 2c bd 15 bc
       0.54310405 -0.32362425 0.06026228 -0.00913934
000100 e7 5c 34 be 96 a5 3b 3e 0b de 8f 3e cd 6a 49 bd
       -0.17613564 0.18324885 0.28099093 -0.04917412
000110 cd e5 2e 3d 87 63 d2 be d5 c4 f9 3e c6 58 5c bd
       0.042699624 -0.41091558 0.48782983 -0.0537956
000120 4f 52 2c be 70 fe 0b 3e 97 c0 8e 3e b0 a6 ef bd
       -0.16828273 0.13671279 0.2788131 -0.11701715
000130 3f 34 a5 3e be 6d 0a bd 5f 5e 5e bc 56 85 1c 3f
       0.32266423 -0.033796065 -0.0135723045 0.61140954
000140 76 70 bb 3e 1c 8d cf 3e 30 a3 bc bd f0 39 ca be
       0.36609238 0.40537345 -0.09210813 -0.39497328
000150 9c 40 ff 3e 2e a2 ac bc a2 b8 b9 3e b7 44 58 be
       0.4985398 -0.021073427 0.36273676 -0.21119963
000160 ab 0b e4 3e 1e 12 b2 3d 2b a7 6f be 5b b5 86 bd
       0.44540152 0.08694862 -0.23403613 -0.065775596
000170 d5 98 ab 3d 09 d2 2d 3d 0e 47 76 3b 3a f7 6b 3e
       0.0837876 0.042436633 0.0037578973 0.23043528
000180 d6 b0 21 be 3a 20 f9 be f0 dd 1e be a2 bd 97 3e
       -0.15790114 -0.486574 -0.1551435 0.29636866
000190 d5 e6 d4 3e c9 a7 b0 be 1f a9 d9 be b8 e2 94 be
       0.4158236 -0.3450301 -0.42511842 -0.29079223
0001a0 03 9e fa be 13 79 13 3d 9e 09 e6 be 9e 4a d2 3d
       -0.48948678 0.036004137 -0.44929212 0.10268138
0001b0 69 8a 43 3e 3c 44 b6 3a 1e 96 42 be 26 4a 8f 3d
       0.19095768 0.0013905833 -0.19002578 0.069965646
0001c0 a3 71 19 be 41 5e bb 3e bb 17 38 bf ce 71 0e bf
       -0.14984755 0.36595348 -0.7191121 -0.556424
0001d0 27 4f 3f 3e e4 77 76 3d 07 69 bc 3d c9 94 a1 3e
       0.18682538 0.06017293 0.0919972 0.31558827
0001e0 a8 36 93 3d 19 d5 80 3d e5 b4 4c bd 7e 75 72 bd
       0.07188159 0.06290645 -0.049977202 -0.05919408
0001f0 a4 4f 9f 3d 67 b5 da 3b 8b 02 cc bd 94 c1 2f be
       0.07778862 0.006674457 -0.099614225 -0.17163688
000200 13 86 77 be 06 60 66 be ee 53 0c 3d 9d b0 2f be
       -0.24172239 -0.22497568 0.03425973 -0.17157216
000210 69 da c6 be 3e ff 98 bd 13 ca ef 3d 78 16 e8 be
       -0.3883851 -0.074705586 0.117084645 -0.45329642
000220 8c 0d 09 3c dc ac fb 3e 76 cc db 3d 8d 48 af bd
       0.008365046 0.4915532 0.10732357 -0.0855876
000230 53 ac 98 3e bf 91 9b 3d 59 65 39 bf 55 38 f5 3e
       0.29818973 0.07596158 -0.7242027 0.4789454
000240 10 5b c4 3e 3e 7a 90 be 42 06 25 be a7 3f 0f be
       0.38350725 -0.28218263 -0.16115668 -0.13989125
000250 43 65 f5 3e 4e 1a 8c 3d 4f 6b a9 3e a6 f0 ce 3e
       0.4792882 0.06840955 0.33089682 0.40417975
000260 b4 75 c3 3e 0b 8f 34 be 22 3e 56 be aa 49 80 3e
       0.38175738 -0.17632692 -0.2092214 0.250562
000270 73 f4 47 3e 51 72 de be 48 08 4c bd d9 5d 21 be
       0.19526844 -0.43446591 -0.049812585 -0.15758456
000280 71 cd 86 be cc d4 08 be 88 cd 12 bf 9f 28 f9 3b
       -0.26328614 -0.13362426 -0.57344866 0.0076037194
000290 ea eb 18 3e ed f1 23 be 1e 43 ad bc ab 69 b7 3c
       0.14933744 -0.16010256 -0.021150168 0.022389254
0002a0 c9 a3 fc 3d c3 fc ce 3e c3 1e 17 bf 88 aa c9 3d
       0.12335927 0.40427217 -0.59031314 0.098469794
0002b0 3e 52 ae 3e da 3d 76 bd 9b 8c 9b be 97 41 10 3e
       0.3404712 -0.06011758 -0.3038071 0.1408752
0002c0 89 b1 82 3e 49 1f 9e 3e 00 d8 34 be d1 c1 20 bd
       0.25526074 0.30883244 -0.17660522 -0.039247338
0002d0 24 0e a4 3d 84 26 84 bb 5d cf 76 bd 49 61 08 3f
       0.080105096 -0.0040329117 -0.06025635 0.53273445
0002e0 74 d2 ca 3e 43 20 e1 bd 3d 17 ef 3d 4c 75 43 3e
       0.39613688 -0.109924816 0.11674354 0.19087714
0002f0 18 f4 3e be 7c 8a 7a 3e e9 15 42 3e 01 9a 8c 3e
       -0.18647802 0.2446689 0.1895367 0.27461246
000300 3d 9a 86 bd c5 c1 f9 3e 54 b0 9b bc 1d d0 e3 be
       -0.06572387 0.48780647 -0.019004978 -0.44494715
000310 27 e6 4e bf ec f2 14 ba 21 13 fa be b4 96 a5 be
       -0.80819935 -0.000568195 -0.4884272 -0.3234154
000320 31 dd a4 3e f1 81 2e be ed 70 2f 3e 03 b9 62 3d
       0.32200006 -0.17041756 0.17132922 0.055352222
000330 32 bf 1f 3e a4 7b a6 3d 19 bc 25 be a8 83 e5 be
       0.15600279 0.08129051 -0.16185035 -0.44827008
000340 5b 0b 45 be bc 71 11 3e 54 b7 98 3d 3a 3f 70 bd
       -0.19242613 0.14203542 0.07456842 -0.058654048
000350 ba 2d 00 be bd 32 bc 3d d8 90 d8 3e 7b 2c 95 3e
       -0.12517443 0.09189365 0.42298007 0.29135498
000360 f7 da a0 3e 72 2b 85 be dd 1f 08 bf 4d ff e1 bd
       0.31417057 -0.2600971 -0.5317362 -0.11035023
000370 20 72 d2 ba 30 bd e8 bd 72 9e d3 bd e8 a5 8c bd
       -0.001605574 -0.1136421 -0.103329554 -0.068675816
000380 bf df c8 bd 06 95 39 3e 7a ad c1 bd 04 f9 63 be
       -0.09808301 0.18123254 -0.09456916 -0.2226296
000390 45 03 b6 be 38 20 8e 3d 45 1b b6 3e e6 9e ea bd
       -0.3554937 0.06939739 0.3556768 -0.11456089
0003a0 a7 a5 55 be 1d e2 a6 3d a9 22 54 bd 1e 46 10 be
       -0.20863973 0.081485964 -0.051790867 -0.14089248
0003b0 ef 46 d2 be 23 03 2e be 03 82 8f 3e 4a 85 1e bf
       -0.41069743 -0.16993384 0.2802888 -0.6192213
0003c0 c6 b5 5b 3e 64 10 be bd fd c1 96 3c 91 be ec 3e
       0.2145606 -0.0928047 0.018403048 0.4623914
0003d0 2d f4 58 be 79 46 a5 bd c0 4a 35 bd 2b 5e 37 3e
       -0.21186896 -0.08070082 -0.04426074 0.17907016
0003e0 2d bc 5e 3e ff 38 01 3f 08 5f a6 3e 6c 0e c6 bd
       0.21751471 0.50477594 0.32494378 -0.096707195
0003f0 14 26 9d 3e 83 2c 6e 3d eb c0 75 be 56 b3 ab 3e
       0.30693114 0.05814792 -0.23999374 0.3353526

pi.pi_net.2.bias f4 [64]
000000 6c fb e2 bc 9a 9f 6b bb 81 f0 38 3d f4 c6 48 3c
       -0.027707778 -0.0035953284 0.045151237 0.012254465
000010 7b f7 b0 3d d5 10 df bd cf af dc bd 0d d7 97 bd
       0.08640953 -0.10891882 -0.1077572 -0.074140646
000020 e0 1f 7b 3d a0 d8 04 bc c2 d1 14 be 49 c5 35 3d
       0.061309695 -0.008108288 -0.14533141 0.0443776
000030 d8 50 56 bb 59 fd a5 bc c1 f4 e7 bd f0 5c da bd
       -0.0032701995 -0.020262407 -0.1132598 -0.10662258
000040 0d 32 35 3e e2 83 ec 3d 89 42 51 3b 95 b6 e8 bc
       0.17694874 0.11548592 0.0031930527 -0.028407374
000050 16 ad 85 3c 57 3d 78 3d 8a ac 1f 3d 95 b9 a2 3d
       0.016317885 0.060605373 0.038982905 0.07945553
000060 3c 24 a8 3d 65 1c 08 3d 67 db 5a be fa 18 97 3d
       0.08210036 0.033230204 -0.21372758 0.07377811
000070 65 87 99 3d af 48 cb 3d 73 36 9e bd 2a 7d 5f bd
       0.074965276 0.09925973 -0.07725229 -0.054562725
000080 b4 f9 11 3e 18 ca 99 bd b1 ac 9a 3d 1b 13 39 3b
       0.1425541 -0.075092494 0.075524695 0.0028240148
000090 0f 50 23 3e 01 f4 f3 3d 5a c9 ae bd 56 3d 85 bc
       0.15948509 0.119117744 -0.085344985 -0.016264599
0000a0 68 08 0b 3e fa 67 9c bc f1 79 90 bd 07 90 b1 bd
       0.13577425 -0.019092549 -0.070545085 -0.08670049
0000b0 8a ec 6d bd c1 3b 05 3d f5 c6 1e bd 06 7b 3b be
       -0.05808691 0.03252769 -0.03876396 -0.18308648
0000c0 d8 9c 81 bd dc cc 2f be fc 7e 14 3b 86 c9 ef 3d
       -0.06328744 -0.17167991 0.0022658696 0.117083594
0000d0 27 fc 46 be af 49 6c 3e 7a ab 6b 3d 35 50 09 be
       -0.19432126 0.23074983 0.05753658 -0.13409503
0000e0 aa d6 1b 3b 20 14 96 bd 82 73 40 3d 8e 6a 74 bd
       0.0023779073 -0.07328057 0.046985157 -0.05967193
0000f0 57 cc 41 bd 12 47 0d 3d fd db 25 bb 0a a3 07 bd
       -0.047314014 0.034491606 -0.0025308125 -0.03311447

pi.pi_net.4.weight f4 [256, 64]
000000 35 56 02 3f 28 a3 12 3e 4b 29 c2 be 32 1b 82 be
       0.5091279 0.14320052 -0.3792213 -0.25411373
000010 af f3 a7 be ca 9d ce 3d d5 9a 16 be ff 2f 00 3f
       -0.32803103 0.100886896 -0.14707501 0.50073236
000020 3b 00 f7 3e 57 5e b7 3e 73 db c7 3e 9d 26 00 be
       0.48242363 0.35814163 0.39034614 -0.1251473
000030 4d 1b cf 3d b5 8c a4 3e 1d 3c 24 3f 8a 4e df 3e
       0.10112629 0.321386 0.64154226 0.43614608
000040 c4 5b c2 be cb ae ee bd b5 2c 0c 3d 8e f4 b1 3b
       -0.37960637 -0.11654433 0.034222323 0.0054307645
000050 8a ad 0f 3f 67 e3 a1 3e 9f d8 8a 3d b2 6e 67 be
       0.56124175 0.31618807 0.067795984 -0.2260082
000060 00 a2 a5 3e 1e e4 0a bd be 20 a6 3e 26 db 69 be
       0.3235016 -0.033908956 0.32446855 -0.22837505
000070 7b 6d b2 be 85 17 7a be 0c a9 ef 3d 0d 2d 3f be
       -0.34849152 -0.24423034 0.11702165 -0.1866953
000080 83 c9 2a bf 72 84 53 3d fe c9 db be cb 60 3b 3e
       -0.6671373 0.05163998 -0.42927545 0.18298642
000090 d7 c4 1e bf 0a a7 f1 be 86 c8 18 3e 07 aa 4a 3e
       -0.62019104 -0.47197753 0.14920244 0.19791423
0000a0 f2 76 92 be 32 ad 85 be e6 a6 88 3d 82 b0 17 be
       -0.28606373 -0.261087 0.06672458 -0.14813426
0000b0 20 a3 63 3c e6 58 58 3d 22 09 12 3e 85 d1 08 3f
       0.0138938725 0.052819155 0.14261296 0.534447
0000c0 8e 4c c1 3e 2c c6 a5 3e 6a 5c 91 be a9 05 f4 bc
       0.3775372 0.32377756 -0.2839082 -0.029787855
0000d0 e3 b5 d6 3e 76 43 f2 be ac 26 e2 be c4 23 2e 3e
       0.41935644 -0.47317094 -0.4417013 0.17005831
0000e0 49 0d 5b be 6b cf 3b 3d 17 a6 d7 bd 4e 58 00 3f
       -0.21391787 0.045852106 -0.10529726 0.5013474
0000f0 a8 a1 aa 3e df 4f 4c 3e ee 54 fc be f1 1d 82 be
       0.3332646 0.19952343 -0.49283546 -0.25413468
000100 bf 58 d6 3e 3d 07 c4 3e 5a 8a d4 be b4 33 48 bc
       0.41864583 0.38286772 -0.41511804 -0.012219358
000110 59 49 2e be 96 38 91 3e e6 bb aa be d5 2e bb 3e
       -0.17020167 0.28363484 -0.3334648 0.36559168
000120 df 7a 3d 3f 1b 75 d3 3e 7d e5 02 3f e7 60 09 3e
       0.7401561 0.41300282 0.5113142 0.13415872
000130 79 7f a1 3d ab bc 30 3e 32 54 a7 3e 27 94 84 3e
       0.078856416 0.17259471 0.32681423 0.2589428
000140 2c e9 57 be 65 46 f9 bd 94 9a b6 bd 97 b1 93 be
       -0.21085042 -0.1217163 -0.08916202 -0.28846428
000150 a3 29 0b 3e b9 34 25 bd 4b 0c 10 be 6e cb d9 be
       0.13590102 -0.040333483 -0.1406719 -0.42538017
000160 32 72 a9 3e 3f 6c 9a be 22 62 ae 3e a1 51 b6 be
       0.33094937 -0.3016071 0.34059244 -0.35609153
000170 40 39 89 be 53 c4 b0 bd ae 53 16 3e d4 9a 89 bd
       -0.2680149 -0.08631196 0.14680359 -0.06718984
000180 4f cd e6 be 61 ef 19 3d 55 f7 48 bf 99 0e 7e be
       -0.45078513 0.037581805 -0.785024 -0.24810256
000190 f3 59 d4 be 0a 63 84 be 44 ca 97 3e 96 0d 49 be
       -0.41474876 -0.2585681 0.29646504 -0.19634089
0001a0 4b 38 07 be d7 74 87 3b 09 89 07 3f 1b 47 06 bf
       -0.13205068 0.0041338014 0.52943474 -0.5245225
0001b0 b3 35 96 be 6b 73 6d 3e 7c 5b cf 3e 60 bc 3e 3e
       -0.29337844 0.2318856 0.40499485 0.18626547
0001c0 a2 f7 50 3e d5 c6 14 3f e0 1d 97 be 56 9e a6 be
       0.20406964 0.58115894 -0.2951498 -0.32542676
0001d0 17 4c 10 3e a5 bc 2a bf 8e e6 0c bf e4 7d 7d 3e
       0.14091526 -0.666941 -0.550393 0.24755055
0001e0 72 40 13 be ae 8f 6a bc 05 2a 1b be 0b 1f 0b 3f
       -0.14380053 -0.0143164825 -0.15152748 0.5434424
0001f0 4d 94 44 3e 86 35 5d 3e 99 89 c3 be 89 00 9f be
       0.19197197 0.21602449 -0.38190916 -0.31055096
000200 0e 5c 2a be 92 f5 d0 be d7 3e 17 3f 48 48 e2 3e
       -0.16636679 -0.40812355 0.5908026 0.4419577
000210 4c 39 b0 be 34 cf b7 3d 9b af 55 3f 1b c0 9a bc
       -0.34418714 0.08975068 0.8347108 -0.018890431
000220 95 ef 42 bf 00 5a 14 bf c5 7f 86 be 27 b4 51 bd
       -0.76146823 -0.5794983 -0.26269355 -0.051197197
000230 65 08 93 3e 9a d6 5d 3e 40 ba 5c bd c2 0b 13 3e
       0.28717342 0.21663895 -0.05388856 0.14359954
000240 51 20 35 3f 6d a4 54 bf 7e 3e 44 bf f6 c1 18 bf
       0.70752436 -0.83063394 -0.76657856 -0.5967096
000250 c9 98 4e bf 72 cd 2f 3f 4d f0 7e 3f 4c 86 07 3f
       -0.8070188 0.6867286 0.9958542 0.52939296
000260 a7 02 28 bf 2c 0f f7 3d a0 b3 12 bf f7 8f 20 3f
       -0.6562905 0.12063441 -0.57305336 0.6271967
000270 ff d8 50 3f 2e 96 25 3f 8f 8b 80 3f db 65 5d 3f
       0.8158111 0.6468228 1.004259 0.86483544
000280 05 b3 84 3e 82 23 5a bf 88 b6 b6 3e 52 58 7d 3e
       0.2591783 -0.8521043 0.35686135 0.24740723
000290 57 00 a5 3e 0e 01 a3 3c d4 fc 54 bf 38 2d 94 3e
       0.32226822 0.019897964 -0.83198285 0.2894075
0002a0 ba e4 02 3f b3 e4 64 3d 6c 33 9d be 28 de 61 3f
       0.5113026 0.055882167 -0.30703294 0.8822961
0002b0 bd 47 f2 be 2c a8 8b bd 82 95 12 bf b3 37 bb 3d
       -0.47320357 -0.068191856 -0.5725938 0.09141483
0002c0 60 6d 1b be fe 91 cc bc 5c 17 81 3f 54 ef 5b bf
       -0.15178442 -0.024971958 1.0085254 -0.8591206
0002d0 41 df 3d 3f 30 3f 08 3f b4 d5 05 3f 87 dc 26 bb
       0.74168783 0.53221416 0.5227921 -0.0025461034
0002e0 69 d3 15 bf b6 2a 31 bf 60 ea 2f 3f 96 97 31 bf
       -0.5852571 -0.69205797 0.68717 -0.69371927
0002f0 13 ee c6 be 3d 4c 0b bf b7 9d 4d 3f 40 14 4f bf
       -0.3885351 -0.54413205 0.8031878 -0.80890274
000300 80 bc 4d 3e ef 85 b3 3e 93 62 03 bf f0 d5 f4 bc
       0.20091438 0.3506312 -0.5132229 -0.02988717
000310 38 d4 c0 be 4a 1d 21 3e c8 df 07 bf 0d a4 22 3f
       -0.3766191 0.15733829 -0.5307584 0.6353157
000320 fe d5 aa 3e c6 d1 b2 3e 2a 02 c7 3e 7e db 5f 3e
       0.33366388 0.3492567 0.3886884 0.21861073
000330 70 ac b6 3e 71 13 81 3c c0 47 9e 3e e0 0d c6 3e
       0.35678434 0.01575634 0.30914116 0.3868246
000340 fb 80 e8 be 3a 68 51 bc a9 47 89 3d 57 44 5e be
       -0.45410904 -0.012781197 0.06703121 -0.21705757
000350 e9 1f f2 3e 32 2d c8 3d 5d e1 81 be 70 0e 21 bf
       0.4728997 0.09774245 -0.2536725 -0.62912655
000360 36 a1 76 3e 79 7e e9 be 12 ac b5 3e ed e1 9c be
       0.24084935 -0.45604303 0.35482842 -0.30641118
000370 e0 74 c8 be 7e 33 01 be bf 0b 88 bc fb 2f 15 3e
       -0.3915167 -0.12617299 -0.016607163 0.14569084
000380 f1 7f fd be 2d 5f 87 3e 89 0e f4 be 27 ae e2 3d
       -0.49511674 0.264398 -0.4766734 0.11068373
000390 55 7f c0 be 0f f7 84 be 85 ec db 3d ca 7d 0f 3e
       -0.37597147 -0.2596974 0.10738472 0.14012828
0003a0 4d 06 b3 be 8c 50 56 3d 88 b6 52 3f d2 c3 ba be
       -0.34965745 0.05232291 0.8230977 -0.36477524
0003b0 5b 76 c6 be 91 10 17 3b ac 46 7b 3f 42 bd 83 3d
       -0.38762173 0.0023050646 0.9815471 0.064325824
0003c0 ba 3f 5e 3e 0a ff 8c 3e 9b 92 f0 be e6 32 fc bd
       0.21703997 0.2753833 -0.4698685 -0.123143956
0003d0 7b e6 87 bd f2 8f 1d bf 65 28 0e bf 43 4d f2 bd
       -0.066357575 -0.6154777 -0.5553039 -0.11831143
0003e0 c5 f2 24 be 3b e6 9b 3d 8d c2 9c bd b1 21 1a 3f
       -0.16108234 0.07612272 -0.07654295 0.6020766
0003f0 69 c3 84 3e dd 03 a1 3e 2e 2e 2b bf b5 d8 0b be
       0.25930336 0.3144826 -0.6686734 -0.13656886

pi.pi_net.4.bias f4 [256]
000000 01 54 c6 be 08 cc f0 be 6c 23 16 3f da 12 08 bf
       -0.38735965 -0.47030663 0.586478 -0.53153765
000010 b4 3c d1 be ca 31 1f 3f 01 79 e6 be 97 78 43 3f
       -0.40866625 0.6218535 -0.45014194 0.7635588
000020 b6 0f 2f 3f 62 9d 31 3f 43 c5 32 3f 62 a6 d8 be
       0.6838335 0.6938077 0.6983225 -0.4231444
000030 9f 09 e0 be c9 21 25 3f 59 70 ff be b3 a9 33 3f
       -0.4375734 0.6450468 -0.49890402 0.70180815
000040 26 ae 01 bf 0d 0b d0 be 9d 86 20 3f 65 56 db be
       -0.50656354 -0.4063343 0.62705404 -0.4283935
000050 f1 65 2e 3f 9c 02 41 3f d8 ac 20 3f d3 0c 1c 3f
       0.681243 0.75394607 0.6276374 0.6095707
000060 22 38 15 3f af 2e df be bc a6 31 3f a0 3f df be
       0.58288777 -0.43590304 0.6939504 -0.4360323
000070 3b 17 0a bf a4 70 c4 be c1 ce fb be 1b f9 20 3f
       -0.53941697 -0.38367188 -0.49181178 0.62880105
000080 f8 4a 2f 3f 31 b2 29 3f 0c 8d 3c 3f ba aa d1 be
       0.6847377 0.66287524 0.7365272 -0.40950567
000090 ca f3 cf be 03 63 14 3f a3 a1 36 3f d5 7c 16 3f
       -0.40615684 0.5796358 0.7134039 0.5878423
0000a0 0c 14 c9 be f8 57 0f 3f 14 67 be be bf 06 4c 3f
       -0.39273107 0.55993605 -0.37188017 0.79697794
0000b0 2a d8 1a 3f a8 81 a6 be 9a 86 24 3f 19 18 29 3f
       0.6048609 -0.32520795 0.64267886 0.66052395
0000c0 51 7a 0d 3f 53 0b 01 bf 38 bf 32 3f be 95 bb be
       0.55264765 -0.50407904 0.69823027 -0.36637682
0000d0 1a f8 a4 be bc 83 1d 3f 64 26 33 3f 2b af b7 be
       -0.32220536 0.61529136 0.69980454 -0.3587583
0000e0 0e 4b b0 be e9 74 ed be bf ee fe be 48 76 d3 be
       -0.34432262 -0.46378258 -0.49791524 -0.4130118
0000f0 8c d4 58 be 6a 62 2b 3f 8b 8e 3b 3f 37 dd f0 be
       -0.2117483 0.6694704 0.7326438 -0.47043774
000100 65 06 ba be d1 1a 33 3f 19 fb 03 bf 91 2f 03 bf
       -0.36333004 0.69962794 -0.5155502 -0.51244456
000110 3c 46 8c be 17 7a e3 be 81 f4 65 be 9c 07 03 3f
       -0.27397335 -0.44429085 -0.22456552 0.51183486
000120 6e 3e fe be a5 a7 a1 be a0 b1 06 bf 18 b1 34 3f
       -0.49657005 -0.31573215 -0.52614784 0.70582724
000130 27 74 01 bf 74 f8 13 3f 54 05 c5 be a3 1a e6 be
       -0.5056786 0.57800984 -0.38480628 -0.44942197
000140 cb b1 25 3f 98 2f 2e 3f 0e c1 04 3f dc c5 09 bf
       0.64724416 0.6804137 0.5185708 -0.53817534
000150 bf e3 03 3f 09 e2 67 be a6 d1 cc be fb b0 ae be
       0.5151939 -0.2264482 -0.400037 -0.341194
000160 2a 5e 55 be 0b 9f d9 be 17 36 c8 be d8 bc 2c 3f
       -0.20836702 -0.42504153 -0.39103767 0.6747565
000170 04 f9 21 3f 58 c8 86 be c9 d9 29 3f e2 33 d9 be
       0.6327059 -0.26324725 0.6634794 -0.42422396
000180 c8 59 a6 be 0a 4d cb be 39 3a 05 3f b8 ab 30 3f
       -0.32490373 -0.39707214 0.52041966 0.6901202
000190 f0 3f f8 be 5f 80 f7 be ed 55 3c 3f 6a 99 ca be
       -0.4848628 -0.48340127 0.7356861 -0.3957017
0001a0 a0 ff 09 3f 50 40 0c 3f f5 23 17 3f 28 2e 03 3f
       0.5390568 0.54785633 0.5903924 0.51242304
0001b0 9a 61 fd 3e 0d 6f fd 3e 37 f0 f2 be c1 e8 1d 3f
       0.49488527 0.49498788 -0.47448894 0.6168328
0001c0 2e ea d6 be f6 62 1b 3f 4d fd 30 3f 4d fd c7 be
       -0.4197554 0.6069788 0.69136506 -0.3906044
0001d0 9d 3b 1f 3f 5f 68 fa be 68 34 d4 be bc 0b 17 3f
       0.6220034 -0.48907754 -0.41446233 0.5900228
0001e0 12 01 48 3f c4 be 26 3f ad da de be 41 4d 18 3f
       0.78126633 0.65134835 -0.4352621 0.5949288
0001f0 e7 24 0d 3f 92 90 10 bf 8c 07 e0 be db 37 3b 3f
       0.55134434 -0.56470597 -0.43755758 0.73132104
000200 07 63 65 3e 48 3a bf be ad 9f 15 3f bf 1c 15 3f
       0.22401057 -0.37349153 0.5844677 0.5824699
000210 d9 40 03 bf 1b 36 d4 be e3 fb f8 be 8a 47 ab be
       -0.51270825 -0.4144753 -0.48629674 -0.33453017
000220 0d 47 1b 3f 3d a9 da be 6e aa 3a 3f 2d 0c 43 3f
       0.6065529 -0.42707244 0.72916305 0.76190454
000230 79 44 d6 be 59 ed 4b 3f 7c 92 15 3f 42 ea 33 3f
       -0.41849115 0.7965904 0.5842664 0.70279324
000240 c4 d6 20 3f 11 13 dd 3e 47 91 ba be 6e 1a 4e 3f
       0.62827706 0.4317861 -0.36438963 0.8050908
000250 3e 46 38 3f 67 7a 13 3f 72 d4 fe 3e a0 4a 1e 3f
       0.7198218 0.57608646 0.49771458 0.6183262
000260 95 a6 08 3f 1e 7d 24 3f 45 f5 08 3f df c0 df be
       0.53379184 0.64253414 0.5349925 -0.43701836
000270 b3 a5 2e 3f 2d 36 05 bf c3 22 26 3f 9d d0 2c 3f
       0.68221587 -0.5203579 0.6489679 0.6750582
000280 73 c2 a8 be 0a ec 2b 3f dc 88 df be ec 2d cb be
       -0.32960853 0.6715704 -0.43659103 -0.39683473
000290 65 1d 2b 3f 63 a7 19 3f fb 6f 2a 3f 41 30 16 3f
       0.6684173 0.60021037 0.6657712 0.5866738
0002a0 2d 6b 2e 3f 1d e9 fa be 73 21 14 3f 77 21 b2 be
       0.6813229 -0.49005976 0.5786354 -0.34791157
0002b0 00 b2 34 3f 9a 7d b1 be 56 2e 4c 3f 6e ca 16 3f
       0.70584106 -0.3466614 0.79758203 0.58902633
0002c0 6f ff 28 3f a6 d9 1d 3f ca b6 81 be 89 50 ba be
       0.6601476 0.6166023 -0.2533477 -0.36389568
0002d0 f0 08 a4 be 7d 25 43 3f 81 03 fe 3e 3f 2a 1a 3f
       -0.3203807 0.7622908 0.49612048 0.6022071
0002e0 b1 a9 e8 be b3 4c e6 be 7f 9e 15 3f 3f da 18 3f
       -0.45441964 -0.44980392 0.5844497 0.5970802
0002f0 84 86 0f 3f 78 9e 9f be de eb c7 be 80 ba 40 3f
       0.5606463 -0.3117559 -0.3904714 0.75284576
000300 6d f3 3e 3f 31 8c 1b 3f f4 7c 09 bf 37 41 d1 be
       0.7459019 0.6076079 -0.5370629 -0.40870067
000310 76 9b 0b 3f 62 9d 32 3f a5 77 1b 3f b0 fb 0d 3f
       0.5453409 0.697714 0.6072944 0.5546217
000320 e2 4c ee be f0 ee 22 3f 0b 65 28 3f 41 0e f1 be
       -0.46543032 0.6364584 0.6577918 -0.47081187
000330 e3 bd 1b 3f 15 37 d7 be 6d 93 c8 be 0a e9 0a 3f
       0.6083662 -0.42034212 -0.39174977 0.5426184
000340 c2 98 bd be ca d2 66 be 46 6c 17 3f 49 e1 83 be
       -0.37030607 -0.22541347 0.5914959 -0.25757816
000350 53 ce 1e 3f 4c d8 1b 3f c8 8b 22 3f dc 76 21 3f
       0.62033576 0.6087692 0.6349454 0.6307199
000360 a2 c6 13 3f 82 1d af be e6 de 18 3f 76 82 da be
       0.57724965 -0.342022 0.59715116 -0.4267766
000370 28 33 cb be 9f 82 0e 3f cb 5a cc be 75 e1 f4 be
       -0.39687467 0.5566806 -0.3991302 -0.4782826
000380 4b c8 db be 00 fb 2c 3f 0e 17 dd be eb e1 23 3f
       -0.4292625 0.67570496 -0.43181652 0.640166
000390 28 dc a4 be 2d 70 23 3f ca 29 03 3f 9d 2f f4 be
       -0.32199216 0.6384304 0.5123564 -0.47692576
0003a0 43 84 db be c1 b1 5f be 36 46 1d 3f 4a 53 34 3f
       -0.42874345 -0.21845151 0.6143526 0.7043959
0003b0 65 4f 04 bf 8d 6d ae be e0 ca 15 bf 58 ce 30 3f
       -0.51683646 -0.34067956 -0.5851269 0.69064856
0003c0 0c ff a0 be ce af 28 3f e6 0f e1 be e3 36 f8 be
       -0.31444585 0.65893257 -0.43957442 -0.48479375
0003d0 19 e6 18 3f 1c 34 fc 3e 0a 59 b7 be 7d e9 03 bf
       0.597261 0.49258506 -0.3581012 -0.5152815
0003e0 cf 42 20 3f 41 06 23 3f 2b 92 17 3f 8e 5a fe be
       0.6260194 0.6368142 0.5920741 -0.49678463
0003f0 f0 7b 34 3f 02 b2 1d 3f e4 85 2e 3f 0e e8 1a 3f
       0.70501614 0.61599743 0.6817305 0.6051034

v.v_net.0.weight f4 [64, 5]
000000 dc 4c 16 bf 7c 7b e5 be 9d 88 49 3e 29 e7 bc 3d
       -0.5871103 -0.44820774 0.1968102 0.09223778
000010 cf 84 d9 ba f9 22 7c 3e b2 9c 99 be 18 0d d3 bb
       -0.0016595366 0.24622716 -0.30002362 -0.00644077
000020 e5 29 25 3f 0f a0 3e 3e 12 69 b6 3e 47 fd 76 3e
       0.6451705 0.18615745 0.35627037 0.24120055
000030 0b af 85 bd 69 ad db be af 73 46 3d 83 7d 5f bf
       -0.065275274 -0.4290574 0.04845017 -0.8730089
000040 8b 17 ee bd 68 d8 ae 3d 17 a2 5d 3d 6b 71 b3 3d
       -0.11625584 0.0853737 0.05410966 0.08761867
000050 77 e3 6f bd e3 1c 8c be 40 1c de 3e 57 c6 15 3e
       -0.058566537 -0.2736579 0.43380928 0.14626442
000060 91 a5 b2 3e a1 8d b9 be e1 91 d9 be 66 7d 90 3c
       0.34891942 -0.36240867 -0.4249411 0.01763792
000070 e8 f0 11 3f f3 84 0b 3f 16 0f aa bf fd 70 14 be
       0.5700822 0.5449974 -1.3285854 -0.14496227
000080 14 17 07 3d 13 07 ca 3e c8 f5 42 3c 13 d5 ca 3e
       0.032980993 0.39458522 0.011899419 0.39615688
000090 3d 46 87 3e d6 bf 24 bd 4b b2 a8 3d a7 cc e7 be
       0.26420775 -0.04022201 0.08237132 -0.45273325
0000a0 b3 11 60 bf 09 a1 fc be 38 6b ec 3b 26 1d a1 3e
       -0.87527007 -0.4934161 0.00721493 0.3146755
0000b0 3f b8 a7 3e 3e 24 15 bf 54 d1 60 be 82 c1 13 3e
       0.32757756 -0.58258426 -0.21954852 0.14429286
0000c0 51 44 4d 3e 90 0a 22 be 50 7a 07 3f 74 0b 29 bd
       0.20045592 -0.15824342 0.5292101 -0.04127069
0000d0 a9 d8 80 3d 46 8c 63 bf 33 25 ae bf f7 16 61 bf
       0.06291325 -0.88885915 -1.3605102 -0.87925667
0000e0 18 e5 7c bf 5c c3 44 3d 57 a2 87 3c 20 bb 5b bf
       -0.9878707 0.04803787 0.016556902 -0.85832405
0000f0 b9 18 35 bf 6f 78 6d bf a8 21 9a 3e ca ef be bc
       -0.7074085 -0.9276189 0.30103803 -0.0233077
000100 8a cf b5 bd 0b 55 74 3f e6 e3 b9 3f 9d 7e 24 3f
       -0.088774756 0.95442265 1.4522674 0.64255697
000110 07 8b 09 be 7c fe bf 3e 44 d8 16 3f e1 34 d4 3e
       -0.13431941 0.37498844 0.58923745 0.41446593
000120 97 92 ad be 86 f6 51 be b0 22 af 3d 9e 0f 46 bf
       -0.33900902 -0.20504197 0.08551538 -0.7736758
000130 f5 eb 2b be 5d 50 f5 bc 1a 10 cd 3e 5d 69 26 3c
       -0.16789229 -0.029945547 0.40051347 0.0101569565
000140 bb 24 54 3d fb 85 14 bf 69 96 7f 3e 97 04 fe 3e
       0.05179284 -0.5801694 0.2495972 0.49612877
000150 aa 95 b6 3d c6 a7 da 3e af 74 da 3e bf 27 82 bf
       0.08915265 0.42706126 0.42667148 -1.016838
000160 c2 a2 a0 3d 99 25 8f be ad 78 fa be 6d 4e ce be
       0.078435436 -0.27958372 -0.48920193 -0.4029421
000170 85 6e 5b 3e 78 b5 27 bd f7 78 57 3e 8f 2f 3a bf
       0.21428879 -0.040944546 0.21042238 -0.7272882
000180 ca e5 88 bf 3c 36 03 3e 64 49 1c be 37 98 64 bf
       -1.0695126 0.12813658 -0.15262371 -0.8929476
000190 42 c3 cd 3e d0 24 a8 3e 2d 43 d7 3d 43 5c 93 3e
       0.40188032 0.32840586 0.1051086 0.28781328
0001a0 8e 87 a5 3f 61 7c 08 3f a3 a4 7f 3e 5d b2 74 3d
       1.2931993 0.5331479 0.24965148 0.059740413
0001b0 d3 b8 c2 bd 86 78 e3 bd d2 6f 0f 3f 5e 69 55 3e
       -0.09507909 -0.111069724 0.5603 0.20840976
0001c0 c8 38 58 bd f9 87 8b bd 96 4c 92 be 1c 19 40 3e
       -0.052788526 -0.06813044 -0.28574055 0.18759578
0001d0 56 a4 20 bf c8 04 8e be 54 1d 06 bd 46 2a fe be
       -0.62750757 -0.27738023 -0.032742813 -0.49641627
0001e0 f7 f0 1d 3f 7b 88 84 3e d1 ae c6 bd 02 aa 5e 3d
       0.6169581 0.25885376 -0.09701312 0.05436135
0001f0 91 12 0f be 64 56 11 3d 90 50 00 be 8b ff 12 3f
       -0.13971926 0.03548278 -0.12530732 0.5742118
000200 13 82 05 3e f4 dd 68 3d 6e ff 3a 3f 57 c9 bd 3e
       0.130379 0.056852296 0.73046005 0.37067673
000210 0d a1 5f be 60 a5 f9 3e 8b 64 0e bf bf 99 fe be
       -0.2183878 0.48758984 -0.55622166 -0.49726674
000220 78 37 9b be de e5 b0 3e f5 a4 9b bd 62 16 ab bd
       -0.30315757 0.34550375 -0.075998224 -0.083538786
000230 10 08 13 3f f5 ee 68 3f ff 15 6e 3e b1 6b 2c 3e
       0.5743418 0.9098962 0.23250578 0.16837956
000240 6f 8e 00 3f 9b 92 16 3f 83 f8 d9 be c5 9f 86 3e
       0.50217336 0.5881745 -0.42572412 0.2629377
000250 62 37 68 3e 4e 0d e7 3d d0 a0 47 bf 56 a8 a0 3d
       0.22677377 0.112818345 -0.77979755 0.078446075
000260 74 d3 2a be 26 99 dd 3e d0 ed fd bd 68 90 3b 3f
       -0.16682225 0.43280905 -0.12398875 0.7326722
000270 21 1e a2 3d 22 f9 4b bb 47 1e 66 3c ef 3f 6f be
       0.07915903 -0.0031123837 0.014045305 -0.23364232
000280 4c 3e 2e bf 42 6c 41 bb 64 cd a6 3e 95 aa 7e 3d
       -0.6806381 -0.002951399 0.32578576 0.0621744
000290 15 54 9c bd 74 5a b4 be c6 c2 b5 be e4 0e 8e 3d
       -0.07633225 -0.3522526 -0.35500163 0.06936434
0002a0 b9 09 1a be 19 af 98 3e dd 0c 78 3f 12 16 68 bd
       -0.15042771 0.2982109 0.9689463 -0.056661673
0002b0 bb 07 19 3d 87 aa 01 be dc e7 8d bb e5 81 c9 3d
       0.037360888 -0.12662707 -0.0043306183 0.098392285
0002c0 bd f8 0c 3f 76 0d 01 be 5f b3 6f be 32 97 a7 be
       0.55067044 -0.12602791 -0.23408268 -0.3273254
0002d0 66 06 6d 3d dd 6c 3a 3f c3 7d 91 3e 6c 7c 7c 3e
       0.05786743 0.7282236 0.2841626 0.24656838
0002e0 0c 8c 07 3f 23 82 88 bf 47 17 0e be 78 ab af bd
       0.5294807 -1.0664715 -0.13876067 -0.08577627
0002f0 f9 1c 94 3e 72 fe a8 3d b3 66 33 3d ce a5 8c bd
       0.28928354 0.082516566 0.043799113 -0.06867562
000300 ba 17 31 3e 5a 05 a4 3e 29 d9 84 3e 96 71 d9 3e
       0.17294207 0.32035333 0.2594693 0.42469472
000310 20 21 85 be 7e 44 98 be 8c 7f a8 bd c0 e7 38 bc
       -0.26001835 -0.29739755 -0.08227453 -0.011285722
000320 8b 1c e2 be 62 ff 26 be 4e 5e 73 3d df de cb 3c
       -0.44162402 -0.16308358 0.059416108 0.024886547
000330 0e a9 d3 bc bb 96 5c 3f b6 fd 17 3f 1c c3 76 3e
       -0.025837447 0.86167496 0.5937151 0.24097866
000340 11 ea 57 bf 51 f6 b9 3e 50 95 08 bf 8a d0 29 bf
       -0.8434153 0.36320737 -0.5335283 -0.6633383
000350 24 6b 8e be 67 3a bb bd 64 ea 20 bf 23 83 42 bf
       -0.27816117 -0.09141999 -0.6285765 -0.7598135
000360 e1 8c f7 be 41 e0 a7 3e 11 0f 1a 3e fc 27 98 3c
       -0.4834967 0.3278828 0.1504481 0.018573754
000370 73 cf 14 bf 70 44 56 bd 3a 43 00 be 9f e5 f7 3c
       -0.5812904 -0.05231136 -0.12525645 0.030260859
000380 ee fa 65 3d c4 72 8f 3e f6 30 30 be c0 2c 3c bf
       0.05614751 0.28017247 -0.17206177 -0.73505783
000390 e0 ff f4 3c a0 29 21 3e 63 c9 0c bf 93 fa e9 be
       0.029907167 0.15738535 -0.5499479 -0.45698985
0003a0 50 82 33 3e 9e b3 e9 3c 3b 33 0c 3f 40 ae 22 bf
       0.17530179 0.028528031 0.5476567 -0.63547134
0003b0 6a 63 a1 3d 94 17 eb 3b e2 54 71 be 42 7c 78 3e
       0.0788029 0.0071744416 -0.23567536 0.2426615
0003c0 90 cc c3 be 7e 78 ea be 25 51 28 3e 71 4e 03 be
       -0.38242006 -0.45795053 0.16437204 -0.12822892
0003d0 be 78 2f 3e ea b4 49 3e 28 cb 92 be ac 67 01 be
       0.17135903 0.1969792 -0.2867062 -0.12637204
0003e0 12 c2 4a 3f 18 d9 22 3e e6 08 76 bf 20 82 77 be
       0.7920238 0.15903127 -0.9610733 -0.24170732
0003f0 7e 02 d9 3e a1 9d bc 3d 5a b7 e5 bd f3 ea fc 3e
       0.42384714 0.09209753 -0.11216612 0.49398002

v.v_net.0.bias f4 [64]
000000 5c 16 f4 bd 03 f6 e8 be c5 54 49 3e 04 15 23 be
       -0.11918327 -0.45500192 0.19661243 -0.15925986
000010 78 a4 eb be c8 b6 f1 be cb 6b 8b be ac b2 5b 3e
       -0.46023917 -0.47209764 -0.27230677 0.21454877
000020 3d 68 5c be 75 73 02 bb 7e 8b 07 bd 2e f9 13 bf
       -0.21524139 -0.0019905244 -0.033092014 -0.57802093
000030 74 c4 ea be 36 21 ae 3f fd e1 9f bc bf 77 31 bd
       -0.45853007 1.3603885 -0.01951694 -0.04332709
000040 58 3d 3c be 5a 98 04 3f 40 88 23 be 57 7d 02 bf
       -0.18382776 0.5179497 -0.15969944 -0.50972503
000050 c3 10 b4 3e 9e 87 09 3d 53 e2 8d 3e 03 a6 4e bf
       0.35169038 0.0335766 0.27711734 -0.80722064
000060 6a 1c 18 3e c6 30 41 be 78 1d 21 3e e6 3c 04 3e
       0.14854589 -0.18866262 0.15733898 0.12913856
000070 17 81 26 3f 94 cb 1a bd 7a 76 81 be 6f 95 48 3e
       0.65040725 -0.037791803 -0.25285703 0.19588254
000080 3b 91 74 be d6 33 83 be 28 08 73 3e 70 e7 87 3e
       -0.23883526 -0.25625485 0.2373358 0.2654376
000090 40 68 04 3f 7e 41 43 be 50 87 05 bf 52 29 08 be
       0.5172157 -0.19067952 -0.52159595 -0.13297012
0000a0 9b 60 92 3d d8 04 2b 3f 58 86 3d bf e0 26 2b be
       0.07147332 0.66804266 -0.7403312 -0.16714048
0000b0 6a 18 45 be 45 c7 b2 3e cd f4 01 be 5d 98 65 bd
       -0.19247594 0.34917656 -0.1269104 -0.056053508
0000c0 66 d8 57 be 7e a4 11 bf 84 68 56 be 12 cc 28 3e
       -0.21078643 -0.5689162 -0.20938307 0.16484097
0000d0 fc b0 b6 be 0a 60 b9 3d 77 d8 fd bd fb 52 4c be
       -0.35681903 0.09051521 -0.12394803 -0.1995353
0000e0 f5 5d 03 3e 67 55 aa be ef 48 5f be a7 4d 41 be
       0.1282881 -0.33268282 -0.21805166 -0.18877278
0000f0 ce 8a 30 3e ca 5e 0b bd df da 89 be 8b 60 32 bf
       0.1724045 -0.034025945 -0.26924798 -0.6967856

v.v_net.2.weight f4 [64, 64]
000000 4c 64 43 3f 74 ac 16 3e 51 19 09 bf 88 e3 d4 3e
       0.76324916 0.14714223 -0.53554255 0.41579843
000010 0e f5 50 3e 21 70 56 3d f1 b9 ce 3e 04 c1 01 bf
       0.20405981 0.05235303 0.40376237 -0.50685143
000020 6d f3 f9 3d d1 a2 9d bd bf ad c4 3d c2 48 29 3f
       0.12204633 -0.076970704 0.09603452 0.66126645
000030 26 a3 a2 3e c6 cb dd be ed 52 a2 3e 94 c5 f2 be
       0.31765097 -0.4331953 0.31703892 -0.47416365
000040 45 7d fe 3e 34 8d 24 bf fb f3 80 3e 26 24 a5 3e
       0.49704948 -0.6427796 0.25186142 0.32254142
000050 2e 2d be be ea 43 d2 be 23 9d 1c bf ef 9a f3 3e
       -0.37143844 -0.4106744 -0.6117727 0.47579142
000060 6e 81 d1 be c1 d5 3c 3f b2 dc 16 bf 95 83 0b bf
       -0.4091906 0.7376366 -0.58930504 -0.54497653
000070 06 43 ef be 06 67 eb be f3 87 7d 3f 91 78 81 bf
       -0.46730822 -0.45977038 0.9903557 -1.0114919
000080 f9 fb 55 3f 63 71 e1 3e a1 68 ea be ce 56 0d bf
       0.83587605 0.4403182 -0.4578295 -0.5521058
000090 64 2e b1 be 04 27 c5 3e f3 c1 d9 3e 05 48 71 3e
       -0.34605706 0.3850633 0.42530784 0.2356263
0000a0 82 06 f9 3e 09 4a 43 bf ee 97 b0 3e 2a 1c bb 3e
       0.48637778 -0.76284844 0.34490913 0.36544925
0000b0 f9 19 44 3f 13 a2 94 bd 52 92 2b 3e bd ae b4 bd
       0.7660213 -0.07257476 0.16755036 -0.08822391
0000c0 d0 25 79 3f 37 47 84 3e 57 43 0e 3f 9a 20 98 be
       0.9732332 0.25835583 0.555715 -0.29712373
0000d0 49 50 7f 3e e6 f6 ee be 0a 75 d5 3e 0e a3 a5 3e
       0.2493297 -0.46672744 0.41690856 0.32350963
0000e0 a3 c8 ba be 95 c3 8d 3d b5 1a 3a 3f c3 ad 55 3f
       -0.364812 0.0692207 0.72697 0.83468264
0000f0 ce b1 be be 66 63 4b 3e e4 dc cc 3e 84 84 64 3f
       -0.3724503 0.19862136 0.40012276 0.892647
000100 cd 89 41 3f e0 28 37 3f 99 ab 09 bf 60 e3 d4 3e
       0.7560089 0.71546745 -0.5377746 0.41579723
000110 e2 03 ea 3e 4e 81 28 3e 18 31 af 3e 73 a3 06 be
       0.45706087 0.16455576 0.34217143 -0.13148288
000120 66 16 f3 3e 13 86 0b 3f dd ca 5e be a6 9c c5 3e
       0.47478026 0.54501456 -0.21757074 0.38596076
000130 f8 2a b7 3e 09 4e 85 bf 1a 78 67 3e c2 b3 9b be
       0.3577497 -1.041444 0.22604409 -0.30410582
000140 31 52 2a 3f 88 51 9e 3d 02 5f 43 3d 88 5f 3b 3e
       0.66531664 0.077303946 0.04769803 0.18298161
000150 74 34 01 bf 85 5f 99 be 9f cd 17 bf ce 47 93 3e
       -0.5047066 -0.29955688 -0.5929813 0.2876572
000160 c6 f5 fe be df 7b 2f 3e e6 f9 2a 3d a3 36 3b be
       -0.49796885 0.17137097 0.041742228 -0.18282561
000170 ff f2 c9 be ec 8a 2c 3d 0a 6f 12 3f 6f 01 23 bf
       -0.39443204 0.042124674 0.5720068 -0.6367406
000180 cc 16 3f 3f 65 39 b8 3e 25 d6 11 bf 04 4f 66 be
       0.7464416 0.3598129 -0.56967384 -0.2249108
000190 3f a4 cc 3d a1 70 33 3f a5 f7 de 3e 56 ef 0a 3e
       0.09992265 0.70093733 0.43548313 0.13567862
0001a0 ff c6 41 3d 90 60 f5 be 95 be 9b 3e 58 2c bd 3e
       0.047308918 -0.47925234 0.3041884 0.36947894
0001b0 c7 cb 05 3f ca 43 67 3e f0 99 2c be dd 99 21 bd
       0.52264065 0.22584453 -0.16855597 -0.039453376
0001c0 c7 11 89 3e 54 09 ea 3e bb d2 3e 3f 8c 02 11 bf
       0.26771376 0.45710242 0.745403 -0.5664451
0001d0 2c e3 08 3f 2b 21 05 bf 93 ef 49 3e 15 27 02 3f
       0.53471637 -0.52003735 0.19720297 0.50840884
0001e0 9a da 11 bf 41 81 22 3c 76 ee 67 3e 7a 2c 3c 3f
       -0.56974185 0.009918512 0.2264956 0.73505366
0001f0 1e 67 42 be 8b fb 2f 3e 3a 14 05 3b 51 83 1f 3f
       -0.18984649 0.171858 0.0020306245 0.6230975
000200 0a 8a 8d bf 10 94 8c be b7 eb 5e 3f 71 04 6a bf
       -1.1057751 -0.27456713 0.8707842 -0.9141303
000210 2b 6e ed be f0 86 f7 bd c0 81 30 bf 90 bd de 3e
       -0.46373114 -0.12086284 -0.6894798 0.43504
000220 9b 48 c9 be bc 6d 16 bf 2c 62 a6 be 64 75 03 bf
       -0.39313206 -0.5876119 -0.32496774 -0.51351
000230 7c 93 09 bf f7 13 c6 3e 67 fe 43 3f b3 7a d3 3d
       -0.5374067 0.38687107 0.7656006 0.103261374
000240 bd 79 13 bf ff e0 af 3e a1 58 f3 be 4d f9 2b bf
       -0.5760763 0.34351346 -0.47528556 -0.6717728
000250 29 57 44 3f 2c 5e 4a 3f 9c 6c c9 3e 14 ad 15 bf
       0.76695496 0.79049945 0.39340675 -0.5846722
000260 ce 93 55 3f 3e c5 29 bf d8 a4 83 3f fb 8c d5 3e
       0.8342866 -0.6631659 1.0284681 0.41709122
000270 24 e1 cf 3e 57 0e 97 3e d6 a4 53 bf 2f 03 1d 3f
       0.40601456 0.29503128 -0.82673395 0.6133298
000280 b1 61 9e be e3 f2 46 bf a2 73 46 3f 2a 0e 22 3f
       -0.30933908 -0.77714366 0.7752019 0.6330286
000290 6e 28 81 3d 9e 2e 13 bf 4e 79 d2 be 87 ab 8d be
       0.063065395 -0.5749301 -0.41108173 -0.27669927
0002a0 c5 eb de be 4b 07 b5 3e 24 da 2b bf ee 2d 52 bf
       -0.43539253 0.35357127 -0.6712973 -0.82101333
0002b0 ba e2 d3 be 72 8a 86 3e 3c 59 ad be ca 79 cb bc
       -0.41383916 0.262775 -0.33857143 -0.024838347
0002c0 a7 3e 09 bf 5a fb bd be 41 9e 13 bf 84 6b 10 3f
       -0.53611225 -0.3710583 -0.5766335 0.56414056
0002d0 86 d7 d2 be ee 8c 0d 3f 64 c2 4c bf cc c6 ae be
       -0.41180056 0.55293167 -0.79984117 -0.34136045
0002e0 16 73 1a 3f 99 d6 56 3e 5a 37 28 bf 78 00 cc be
       0.6033186 0.209803 -0.6570946 -0.39844108
0002f0 4f f2 1c 3e ad ed 30 bd 6a b6 e3 be 35 f9 00 bf
       0.15326808 -0.043195415 -0.44475108 -0.5038026
000300 87 4c 4e be 6b a2 dd be 73 dc 28 3c 09 45 3e bf
       -0.2014638 -0.43287978 0.010306465 -0.7432409
000310 f4 4d 4b bf 05 96 ab be 97 16 41 bf 35 ac 38 3f
       -0.7941582 -0.33512893 -0.75425094 0.7213777
000320 e5 2a 72 be de 6d bb be 90 06 c4 be f8 29 fa be
       -0.23649175 -0.3660726 -0.38286257 -0.48860145
000330 ac fb 40 bf 35 af 51 3f 6d c7 06 3f 23 bd 59 3f
       -0.7538402 0.8190797 0.5264805 0.85054225
000340 57 b6 e6 be 12 6f 1b 3f 65 d7 d7 be 75 9c 32 bf
       -0.4506099 0.60716355 -0.4215652 -0.69769984
000350 6f ff d2 3e d4 3b 3a 3f 8f 7f 25 3f 43 dc 0a bf
       0.41210505 0.7274754 0.64647764 -0.5424234
000360 af 9f 11 3f 7b cd e9 bc a9 55 29 3f 4b 17 3f bd
       0.5688428 -0.028540364 0.6614633 -0.046653073
000370 85 cb c7 3e b5 77 46 3f d6 4d 64 bf d9 e2 8c 3e
       0.3902246 0.7752641 -0.8918127 0.2751682
000380 af 92 8b be 5a 7b 0b bf 17 09 40 3f a5 b8 b8 3d
       -0.27260348 -0.54485095 0.7501387 0.09019593
000390 0a 8b 46 3e 7d 04 2c bf d4 9c 0b bf 6d 33 09 bf
       0.19388977 -0.6719435 -0.54536176 -0.53594095
0003a0 08 09 95 3e 83 75 7e 3f b6 7d d2 be b3 cc b8 be
       0.29108453 0.9939806 -0.41111535 -0.36093673
0003b0 03 6b 8a bf 4f d5 d1 be 5c 1d 8b be 8e d7 3d be
       -1.0813907 -0.40983054 -0.27170837 -0.18539259
0003c0 45 71 32 bf 1e 96 13 bf 2a 1f 1d bf c5 e1 14 3f
       -0.69704086 -0.57650936 -0.6137568 0.58156997
0003d0 60 77 a5 be 62 38 d9 3e d7 4b fc be 16 41 33 bf
       -0.32317638 0.4242583 -0.4927661 -0.7002119
0003e0 57 3c fe 3e 75 75 a1 3e b6 db 81 be 24 60 be be
       0.4965541 0.31534925 -0.2536294 -0.37182724
0003f0 a0 b8 cb 3e b7 ab 20 3e 16 cc c7 be 10 6d 56 be
       0.39789295 0.15690504 -0.39022893 -0.20940042

v.v_net.2.bias f4 [64]
000000 02 45 00 bf 9c f9 e7 be c6 af 1a 3f 12 c9 14 3f
       -0.501053 -0.45307624 0.6042446 0.5811931
000010 69 50 07 bf c7 58 0b bf f8 84 eb 3e 86 4c 21 3f
       -0.5285707 -0.5443234 0.45999885 0.6300739
000020 9e 80 f9 3e a3 a7 10 bf 88 da f1 3e ca b1 e9 3e
       0.4873094 -0.56505793 0.4723704 0.45643455
000030 6d a5 13 bf 8c c1 18 3f 93 61 08 3f df 9a 1c be
       -0.57674295 0.5967033 0.53273886 -0.15293454
000040 4a a8 e5 3e 41 0a 0a bf 10 d8 1c 3f cc 14 ee be
       0.44854957 -0.53921896 0.61267185 -0.46500242
000050 d7 3b 20 3f 56 91 0c bf cc 42 b6 bd 33 c0 47 3e
       0.6259131 -0.54909265 -0.08899459 0.19506912
000060 20 d9 1e bf da fb 1e bf e3 e2 13 3f bf 63 03 bf
       -0.62050056 -0.62103045 0.57768077 -0.51324075
000070 1a e7 0a 3f 4c 8d 15 3f 8b 2b 1a bf 9b d0 09 3f
       0.54258883 0.58418727 -0.6022269 0.5383393
000080 26 75 ca be 52 1e 0e bf 2d 24 0f bf 56 8f 0c 3f
       -0.39542502 -0.55515015 -0.55914575 0.54906213
000090 92 66 fd be 47 20 d5 3e 95 91 18 bf c0 fa 58 3d
       -0.49492317 0.41626188 -0.5959714 0.05297351
0000a0 5e df 1d bf b0 45 1a bf db 1a fc 3e af e0 0a 3f
       -0.61668956 -0.60262585 0.4923924 0.5424909
0000b0 f6 27 05 bf b3 89 b3 be 83 25 0e bf 97 bf 1c 3f
       -0.520141 -0.35065994 -0.5552599 0.6122984
0000c0 c4 69 0b 3f 06 85 12 bf f7 0b 22 3f 20 12 11 bf
       0.5445826 -0.5723423 0.63299507 -0.5666828
0000d0 cf 36 0a 3f 17 69 23 bf 6f 8e 05 bf 85 b4 06 3f
       0.5398988 -0.6383223 -0.5217046 0.526192
0000e0 e4 98 22 bf d4 de 0e bf 28 d9 dc 3e 31 f0 e2 3e
       -0.6351454 -0.5580876 0.43134427 0.44323877
0000f0 70 56 09 bf 47 0f 01 bf c0 aa 85 be fe 05 20 bf
       -0.5364752 -0.50413936 -0.26106834 -0.62509143

v.v_net.4.weight f4 [1, 64]
000000 b3 5a 90 40 b6 6b 8c 40 b3 fe 8b c0 d0 1e 88 c0
       4.5110717 4.3881483 -4.374841 -4.2537613
000010 a5 b4 93 40 4b 2a 91 40 82 e3 89 c0 65 31 87 c0
       4.6158013 4.5364127 -4.309022 -4.2247796
000020 97 06 8f c0 e5 74 89 40 17 15 98 c0 ff 58 89 c0
       -4.4695544 4.2955194 -4.7525744 -4.292114
000030 ed 1b 8e 40 03 f5 84 c0 03 3c 93 c0 08 62 8b 40
       4.440909 -4.1549087 -4.6010756 4.3557167
000040 84 da 8d c0 fa e3 85 40 53 8e 87 c0 01 c8 9c 40
       -4.4329243 4.184079 -4.2361236 4.8994145
000050 e1 0e 87 c0 8f 42 8e 40 7e d4 96 40 c8 68 8b c0
       -4.2205663 4.445625 4.713439 -4.3565407
000060 b5 db 8a 40 8f db 85 40 49 54 89 c0 83 e8 8e 40
       4.3393197 4.1830516 -4.2915387 4.465883
000070 b5 47 8e c0 4d 9d 86 c0 cd 33 8a 40 85 ab 8a c0
       -4.4462533 -4.2067018 4.3188233 -4.3334374
000080 bb 87 8e 40 e5 ce 8b 40 e7 eb 85 40 bc b7 94 c0
       4.4540687 4.3690057 4.1850467 -4.6474285
000090 2e 03 87 40 b6 35 89 c0 9f d4 89 40 01 ed b7 40
       4.219138 -4.2878065 4.3072047 5.747681
0000a0 0b 7a 89 40 97 22 87 40 05 df 85 c0 d1 47 96 c0
       4.296148 4.2229724 -4.183474 -4.6962667
0000b0 a3 b6 8c 40 ea fd 8e 40 67 3c 9e 40 01 35 86 c0
       4.3972945 4.4684954 4.9448733 -4.19397
0000c0 a1 37 88 c0 07 13 87 40 5b 4a 89 c0 60 0d 89 40
       -4.2567906 4.2210727 -4.2903266 4.2828827
0000d0 2f c4 8e c0 37 f8 8d 40 9f 24 89 40 ad 8e 86 c0
       -4.461448 4.4365497 4.2857203 -4.2049165
0000e0 b7 01 88 40 9d 3d 89 40 e9 03 97 c0 ff af 8e c0
       4.2502093 4.288771 -4.7192273 -4.458984
0000f0 83 8c 8b 40 c4 4e 8a 40 1e a8 95 40 41 af 86 40
       4.3609023 4.322115 4.676772 4.2088933
