tmp/experiments/RN1 False,True,True/pyt_network_save/model save85000.pt (torch_old, 314943 bytes, 33 tensors)

pi.pi_net.0.weight f4 [64, 5]
-0.74293816 -0.5791873 -0.47721043 0.04410845 -0.045122765 0.64703804 0.16614425 -0.22470215
-0.47504082 -0.7708103 -0.45866627 -0.41838834 0.096821375 0.021118432 0.23565906 -0.5319814
0.14785148 -0.5188535 -0.060286943 0.880692 -0.19358325 -0.3448783 0.105391674 0.18646991
-0.047063213 -0.20465715 -0.036750033 0.14300424 0.20813486 -0.6211027 -0.37152106 -0.15969075
0.23399594 -0.2724506 0.582641 0.6155735 -0.12854208 0.14847732 0.27084836 0.08285667
0.39234057 0.04831368 0.052427035 -0.054615412 -0.30604112 -0.10661478 -0.37958458 0.05953961
-0.13403441 0.48344356 0.066863 0.3710488 -0.11859424 0.07944472 -0.15117234 -0.0070441463
-0.026811453 0.109690934 0.55667716 -0.29188433 0.07774408 -0.46057528 0.552415 -0.010924683
0.13964847 0.5129023 0.1869717 0.050387762 0.08947009 -0.20445466 0.00594646 0.03352849
-0.6746186 0.14976479 0.376661 -0.003177928 -0.44686192 0.39323455 -0.2687478 0.4908493
-0.5330893 -0.08884313 0.26473233 -0.06390154 0.5565603 0.72588634 -0.14730042 0.07748346
0.28661844 -0.56253356 0.071253374 -0.16243774 -0.07448051 0.33900473 0.14158574 0.13639586
0.4402768 -0.0698225 0.06798849 -0.111290306 -0.31695974 -0.24482341 0.069533624 -0.17565161
0.8822866 -0.016735105 -0.09880002 -0.18020196 0.619164 0.11731624 0.1296319 -0.44025135
0.36827782 0.26955682 0.25604498 0.6472595 0.19199874 -0.3059411 0.29058617 -0.6329636
-0.02201997 0.173636 0.18053281 0.13721906 -0.18771715 -0.5729864 -0.09013386 -0.05325443
-0.20444101 0.82545346 -0.433481 -0.12596747 0.11848617 0.07758114 0.6424015 0.33339363
-0.2039879 0.72966826 -0.23904979 0.19930658 0.34954116 -0.044931624 -0.40081358 0.4560323
0.112794146 -0.29637572 -0.30883756 -0.04722091 0.21212862 0.5259774 -0.29039592 0.22305563
-0.14918558 -0.030337453 -0.3776025 -0.0074216602 -0.56275797 0.06487385 0.11441373 0.44016254
-0.045710128 -0.02332976 -0.4240884 0.1584043 -0.7641957 -0.083870634 0.7273693 -0.62484354
0.137116 -0.2379076 0.15919596 0.29702473 -0.019522717 -0.42821386 -0.4289859 -0.63010985
0.012989818 -0.14411482 -0.019540317 0.7064712 -0.7996657 -0.084814385 -0.37485632 0.34450358
0.6611692 0.27008703 0.0021783768 -0.031355947 0.10231742 -0.49368495 0.33593205 -0.17685479
-0.7645876 0.36693093 -0.49217853 -0.22878559 -0.17263502 -0.41552368 -0.09569447 -0.20240937
0.23556115 -0.21245664 0.15421548 0.26853052 -0.067182355 0.034830905 0.08973076 0.9812044
0.11088271 0.09998587 0.2926996 -0.065331355 0.053349536 0.04725899 -0.4548459 0.10463588
-0.3873751 0.27458042 0.27020437 0.28402427 0.23944919 -0.08786247 -0.2935513 0.28145033
0.5252017 -0.0013923238 0.41965485 -0.49165478 -0.28921476 0.14070153 0.057452165 0.46553212
-0.093212865 -0.31331477 -0.5112572 -0.40921777 -0.25607282 0.29570797 -0.08837367 0.50574625
-0.3970458 0.2140761 0.13062142 -0.40019122 0.12034848 -0.304955 -0.044493277 -0.38306594
0.276983 0.370383 -0.3929789 -0.14794448 0.3973833 -0.32984948 -0.3730509 0.09832717
00000000: 3231 3ebf 9e45 14bf ed54 f4be 10ab 343d
00000010: a6d2 38bd 49a4 253f b821 2a3e 5218 66be
00000020: 8d38 f3be d353 45bf 4ed6 eabe ff36 d6be
00000030: 494a c63d 9000 ad3c 9c50 713e ef2f 08bf
00000040: 6166 173e 95d3 04bf 71ef 76bd 0875 613f
00000050: b03a 46be e393 b0be 97d7 d73d f8f1 3e3e
00000060: 5bc5 40bd a591 51be 3487 16bd b46f 123e
00000070: 4e21 553e 9600 1fbf 0238 bebe f985 23be
00000080: a29c 6f3e a57e 8bbe f627 153f 3a96 1d3f
00000090: 89a0 03be 700a 183e a3ac 8a3e c2b0 a93d
000000a0: dde0 c83e 91e4 453d bbbd 563d 69b4 5fbd
000000b0: 6cb1 9cbe da58 dabd e958 c2be cedf 733d
000000c0: 5140 09be ea85 f73e 78ef 883d 1cfa bd3e
000000d0: 89e1 f2bd eab3 a23d eccc 1abe 95d2 e6bb
000000e0: b1a3 dbbc a4a5 e03d 6582 0e3f dd71 95be
000000f0: 4a38 9f3d 86d0 ebbe 126b 0d3f 71fd 32bc
00000100: 0200 0f3e 914d 033f 8275 3f3e 6663 4e3d
00000110: 183c b73d 905c 51be 86da c23b 2c55 093d
00000120: ceb3 2cbf f15b 193e b6d9 c03e c944 50bb
00000130: 16cb e4be 0a56 c93e 5099 89be 9950 fb3e
00000140: 8a78 08bf 63f3 b5bd ff8a 873e d0de 82bd
00000150: bc7a 0e3f b0d3 393f ecd5 16be a6af 9e3d
00000160: a7bf 923e 3302 10bf 4aed 913d 1456 26be
00000170: 3d89 98bd 0792 ad3e dafb 103e 5bab 0b3e
00000180: f66b e13e 19ff 8ebd 8d3d 8b3d 2cec e3bd
00000190: 8c48 a2be fdb2 7abe a567 8e3d 04de 33be
000001a0: 89dd 613f 0f18 89bc aa57 cabd dd86 38be
000001b0: 8881 1e3f 7f43 f03d 3abe 043e a068 e1be
000001c0: e98e bc3e 5a03 8a3e 5418 833e ccb2 253f
000001d0: 519b 443e 50a4 9cbe b6c7 943e e709 22bf
000001e0: 3963 b4bc a3cd 313e 98dd 383e 2783 0c3e
000001f0: ed38 40be 3daf 12bf 1a98 b8bd 5121 5abd
00000200: fc58 51be eb50 533f 39f1 ddbe 9efd 00be
00000210: e1a8 f23d dce2 9e3d 6d74 243f 92b2 aa3e
00000220: 34e2 50be 8acb 3a3f 78c9 74be 0617 4c3e
00000230: 0ff7 b23e 390a 38bd 7037 cdbe 117d e93e
00000240: 9e00 e73d 8fbe 97be f51f 9ebe b76a 41bd
00000250: 3f38 593e 74a6 063f c6ae 94be b268 643e
00000260: 1bc4 18be 4086 f8bc 1d55 c1be 6631 f3bb
00000270: e810 10bf 95dc 843d bf51 ea3d fc5c e13e
00000280: 8b3a 3bbd 0e1e bfbc 1d22 d9be bd34 223e
00000290: 54a2 43bf 5ec4 abbd e034 3a3f bff5 1fbf
000002a0: 2368 0c3e 0d9e 73be 4404 233e a013 983e
000002b0: 1bee 9fbc d93e dbbe 0aa4 dbbe e14e 21bf
000002c0: 3fd3 543c d692 13be 0413 a0bc 4cdb 343f
000002d0: e4b6 4cbf 2ab3 adbd 2bed bfbe c662 b03e
000002e0: 6242 293f d948 8a3e 19c3 0e3b 186f 00bd
000002f0: cc8b d13d 46c4 fcbe 49ff ab3e 6c19 35be
00000300: 03bc 43bf 5fde bb3e d3fe fbbe c546 6abe
00000310: 3cc7 30be 85bf d4be 76fb c3bd 6744 4fbe
00000320: f136 713e 3c8e 59be aaea 1d3e d57c 893e
00000330: e796 89bd daaa 0e3d c3c4 b73d 3630 7b3f
00000340: 7916 e33d 64c5 cc3d b9dc 953e 72cc 85bd
00000350: 0b85 5a3d a592 413d 90e1 e8be 564b d63d
00000360: 0756 c6be ce95 8c3e 3a58 8a3e a16b 913e
00000370: 2b32 753e 3df1 b3bd 5b4c 96be 421a 903e
00000380: 9e73 063f a27e b6ba 00dd d63e 2dba fbbe
00000390: f513 94be 1014 103e f652 6b3d 3a5a ee3e
000003a0: 63e6 bebd cb6a a0be c0e1 02bf fe84 d1be
000003b0: fa1b 83be 0967 973e 41fd b4bd 9678 013f
000003c0: 9649 cbbe c436 5b3e 9fc1 053e dde5 ccbe
000003d0: 4479 f63d 1023 9cbe 953e 36bd 3821 c4be
000003e0: b7d0 8d3e d7a2 bd3e 8834 c9be c27e 17be
000003f0: d375 cb3e 08e2 a8be 8700 bfbe c15f c93d

pi.pi_net.0.bias f4 [64]
-0.29839358 0.10832347 0.19207169 0.20260486 0.74593234 0.13443731 -0.14018022 -0.57092774
-0.3373295 -0.38048643 -0.5380608 0.0573851 -0.34109226 -0.37415612 0.44993123 -0.2045538
0.15619102 0.15175998 0.14258137 0.36804524 -0.29513595 -0.13607928 -0.4548519 -0.14839037
-0.71105975 0.24721652 0.19123772 -0.25539356 0.06024766 -0.04226071 0.29408637 -0.101595186
0.005157578 0.2970892 0.29047 -0.015545967 0.11346465 0.13356031 0.099335246 0.036659207
-0.37310284 -0.05278973 -0.13313662 -0.29028445 -0.49659994 0.26797497 0.07444395 -0.0028758785
-0.33553535 0.18924941 0.5398335 0.13715431 -0.42052892 -0.10616217 0.51383865 -0.2744197
0.0841797 -0.3340153 -0.30791953 -0.036679894 -0.628099 -0.4408253 -0.14060932 -0.4176597
00000000: 0bc7 98be b2d8 dd3d 71ae 443e a677 4f3e
00000010: 6cf5 3e3f efa9 093e 678b 0fbe 5228 12bf
00000020: 74b6 acbe 1ecf c2be 5abe 09bf a30c 6b3d
00000030: a5a3 aebe 6491 bfbe 635d e63e 8d76 51be
00000040: 8af0 1f3e f866 1b3e da00 123e 6d70 bc3e
00000050: 0f1c 97be 5e58 0bbe 59e2 e8be a5f3 17be
00000060: 0308 36bf 5426 7d3e d2d3 433e f2c2 82be
00000070: 40c6 763d 9119 2dbd 7d92 963e 2311 d0bd
00000080: e600 a93b 131c 983e 7cb8 943e 83b4 7ebc
00000090: 2860 e83d 09c4 083e 4770 cb3d f727 163d
000000a0: 5607 bfbe 0b3a 58bd f754 08be 2aa0 94be
000000b0: 5942 febe 0434 893e 1276 983d 3c79 3cbb
000000c0: 4acb abbe 99ca 413e 8732 0a3f 2e72 0c3e
000000d0: 914f d7be 8d6b d9bd ee8a 033f bd80 8cbe
000000e0: 6866 ac3d 0e04 abbe a1a7 9dbe a83d 16bd
000000f0: 19cb 20bf dbb3 e1be e4fb 0fbe 7ed7 d5be

pi.pi_net.2.weight f4 [64, 64]
0.104463704 -0.40666926 0.33014172 0.6304503 0.25706875 -0.18467747 0.43888205 -0.1308099
-0.2599871 0.051035944 -0.4889482 -0.04041983 0.6307008 -0.34967896 0.29797557 0.35277778
0.48608986 -0.32224235 0.1369961 -0.34321475 0.26384062 -0.40842938 -0.054325607 -0.99561054
-0.11572645 0.880916 0.216101 -0.048872855 0.104473315 0.48604807 -0.04913772 0.5579319
-0.20285422 -0.5959113 0.10354379 0.12341233 0.6089731 -0.25871077 -0.26949644 -0.18412495
-0.13854823 0.15092257 -0.08500219 0.30568796 0.29924053 0.010564806 -0.5864387 0.93635243
-0.01932073 0.19005474 0.32197875 -0.44224256 0.042621423 0.20375556 0.4907532 0.10943478
-0.4308248 -0.5346052 -0.8499725 0.18903944 0.34505358 -0.5115831 -0.060217276 -0.28387326
-0.04202826 0.21597119 0.28421023 -0.19881858 -0.30664572 -0.4737611 0.34352106 0.3035985
0.027068833 0.31020758 0.6608557 -0.124700576 0.43519711 0.22264518 -0.07629619 0.64301205
0.0037111568 0.27013925 -0.2918685 -0.5521445 0.8311648 0.049752593 0.4550075 0.05491784
0.8348436 -0.20822375 -0.5612359 -0.10863759 0.24302042 -0.12879975 -0.068834156 0.1947127
-0.04859286 -0.637881 -0.20883703 0.085968934 0.20066081 -0.16550708 -0.35703707 -0.17256765
-0.118028164 -0.079284035 -0.0768344 0.20453177 0.3652781 -0.2575875 -0.055929333 -0.10971229
-0.16455421 0.09274572 -1.1440033 -0.5728591 0.5698424 0.1618705 -0.37186366 0.44926715
0.11718528 0.4079597 0.09826415 -0.05218149 0.69693804 0.29484802 0.12793304 -0.010485823
-0.116731726 -0.040481694 0.38387287 0.42220148 -0.2516879 0.24812225 0.12692222 -0.630794
-0.5821501 0.5019481 -0.23233564 -0.05863711 -0.030725086 -0.66622925 0.06613239 0.4092788
0.45505032 -0.33391523 0.0006346016 -0.22681801 0.34348473 0.4086765 0.24835251 0.08583247
-0.02356519 0.3684493 0.07489479 -0.08937418 0.35733154 -0.2345282 0.037464213 -0.12432375
-0.07446308 0.10224235 -0.7271978 0.5296095 1.0981967 0.13066004 0.24486274 0.19668333
-0.21013132 0.21163185 -1.1212964 -0.11745025 0.37250513 0.1911401 -0.43805218 0.30712053
0.2542335 0.83892554 0.04587736 -0.23917054 -0.11431013 0.0011945209 0.16932492 0.4477264
0.32646787 -0.4927939 -0.28989434 0.2022463 -0.66505665 -0.23820628 0.24330965 -0.028084405
-0.16596471 0.5446526 0.041019898 -0.57179385 -0.5188949 0.29367784 -0.63250214 -0.63163847
0.030806152 -0.29006335 -0.04776128 0.24102597 0.02718674 -0.22124581 0.03458428 -0.5408907
-0.06843114 0.24594715 0.118624866 -0.007518683 -0.5918798 0.14656776 0.34960112 0.2046675
-0.03473265 -0.21432693 -0.6299533 -0.20875992 -0.07727832 -0.34433517 -0.022183878 -0.4435308
-0.15000582 0.28389716 0.085227765 -0.19436342 -0.15845649 0.48258403 0.34885272 -0.19310603
-0.5497917 0.14770667 -0.3720373 -0.4989761 -0.6092563 0.031006195 0.372319 -0.53797513
0.17246754 -0.05378448 0.36326575 0.68170893 -0.44693246 -0.07933693 0.2511372 0.24371712
0.8269068 0.3312213 0.40837952 -0.038366184 -0.10010574 -0.13470902 -0.40688443 0.15235732
00000000: 11f1 d53d f436 d0be 5608 a93e 3165 213f
00000010: 849e 833e 171c 3dbe 26b5 e03e 08f3 05be
00000020: 071d 85be 110b 513d 6b57 fabe 438f 25bd
00000030: 9c75 213f 1f09 b3be 4190 983e 4a9f b43e
00000040: c5e0 f83e f3fc a4be b548 0c3e d8b9 afbe
00000050: 1e16 873e a81d d1be 8784 5ebd 55e0 7ebf
00000060: fd01 edbd b683 613f 9549 5d3e e72e 48bd
00000070: 1bf6 d53d 4bdb f83e a244 49bd a0d4 0e3f
00000080: 04b9 4fbe a58d 18bf c40e d43d 9bbf fc3d
00000090: a9e5 1b3f bd75 84be 70fb 89be 408b 3cbe
000000a0: 96df 0dbe 728b 1a3e a115 aebd 2283 9c3e
000000b0: 0e36 993e 0218 2d3c d920 16bf cbb4 6f3f
000000c0: 8246 9ebc b69d 423e 66da a43e 9e6d e2be
000000d0: cd93 2e3d 4ca5 503e 0144 fb3e 581f e03d
000000e0: 1195 dcbe e3db 08bf cc97 59bf 8e93 413e
000000f0: ddaa b03e 1cf7 02bf 64a6 76bd d657 91be
00000100: d325 2cbd 8d27 5d3e 0184 913e 1997 4bbe
00000110: ab00 9dbe d190 f2be fee1 af3e 4371 9b3e
00000120: 75bf dd3c 87d3 9e3e d72d 293f 0463 ffbd
00000130: 28d2 de3e 19fd 633e 2d41 9cbd 709c 243f
00000140: e136 733b b14f 8a3e ca6f 95be 5859 0dbf
00000150: 37c7 543f 60c9 4b3d bef6 e83e 87f1 603d
00000160: 4fb8 553f 9b38 55be 28ad 0fbf 637d debd
00000170: 58da 783e 15e4 03be ecf8 8cbd c462 473e
00000180: 4f09 47bd 2b4c 23bf 60d9 55be 7b10 b03d
00000190: 077a 4d3e b07a 29be 90cd b6be 93b5 30be
000001a0: c0b8 f1bd ab5f a2bd 5b5b 9dbd c770 513e
000001b0: bb05 bb3e 82e2 83be 2816 65bd d6b0 e0bd
000001c0: e680 28be 78f1 bd3d b36e 92bf e5a6 12bf
000001d0: 31e1 113f 61c1 253e ea64 bebe 5806 e63e
000001e0: d6fe ef3d 18e0 d03e b73e c93d 42bc 55bd
000001f0: 886a 323f 52f6 963e e100 033e bbcc 2bbc
00000200: 0b11 efbd 22d0 25bd fc8a c43e cb2a d83e
00000210: 3ddd 80be c213 7e3e e6f7 013e b77b 21bf
00000220: ca07 15bf ac7f 003f 65e9 6dbe 772d 70bd
00000230: 2db3 fbbc 008e 2abf 6b70 873d fe8c d13e
00000240: 5bfc e83e f0f6 aabe 645b 263a fb42 68be
00000250: 3bdd af3e 0c3e d13e 1f50 7e3e efc8 af3d
00000260: c90b c1bc 63a5 bc3e 7162 993d cf09 b7bd
00000270: 29f4 b63e 2928 70be 1374 193d 739d febd
00000280: 1980 98bd 7064 d13d a329 3abf 7d94 073f
00000290: b691 8c3f bfcb 053e 4cbd 7a3e 5b67 493e
000002a0: aa2c 57be 05b6 583e a486 8fbf c289 f0bd
000002b0: feb8 be3e 3bba 433e 6048 e0be e73e 9d3e
000002c0: e52a 823e d3c3 563f e6e9 3b3d 1fe9 74be
000002d0: 6e1b eabd 7891 9c3a 8363 2d3e 653c e53e
000002e0: cc26 a73e 7b4f fcbe 086d 94be a719 4f3e
000002f0: 2741 2abf 59ec 73be 2a26 793e 4411 e6bc
00000300: a7f2 29be 5a6e 0b3f 7b04 283d 1561 12bf
00000310: 4cd6 04bf f15c 963e a9eb 21bf 0fb3 21bf
00000320: 2f5d fc3c 2f83 94be 55a1 43bd 83cf 763e
00000330: bab6 de3c 438e 62be 3fa8 0d3d d077 0abf
00000340: a025 8cbd 92d9 7b3e 98f1 f23d 495f f6bb
00000350: 6f85 17bf dc15 163e ebfe b23e 5b94 513e
00000360: d343 0ebd 8578 5bbe 9f44 21bf 29c5 55be
00000370: 1944 9ebd b34c b0be f7ba b5bc 7816 e3be
00000380: 209b 19be f85a 913e e58b ae3d 3407 47be
00000390: 6b42 22be 4115 f73e d39c b23e 96bd 45be
000003a0: 26bf 0cbf 6b40 173e ac7b bebe cc79 ffbe
000003b0: 39f8 1bbf b400 fe3c 99a0 be3e bdb8 09bf
000003c0: 559b 303e 1d4d 5cbd f8fd b93e 7a84 2e3f
000003d0: 55d4 e4be 667b a2bd 0e95 803e fb90 793e
000003e0: 2ab0 533f d795 a93e 1f17 d13e dc25 1dbd
000003f0: 3d04 cdbd 29f1 09be 2853 d0be 8f03 1c3e

pi.pi_net.2.bias f4 [64]
0.14632937 -0.14571242 -0.03145328 0.14537108 0.22276716 -0.044906396 -0.0566963 0.03341122
0.084425524 0.12800208 0.13419159 0.13553451 0.05354059 0.13829616 -0.12134298 0.17206119
-0.112476364 0.22368933 -0.047810942 -0.06537382 -0.035326082 0.024858631 -0.12856987 -0.18646958
0.12656032 -0.12939408 0.053969257 -0.051067702 0.4153058 0.35590747 0.026725944 -0.035217207
0.30866012 -0.041882064 0.16666763 -0.009983338 -0.077474356 -0.12289144 -0.31339478 -0.12651995
0.1651144 0.19961412 -0.3432677 -0.16372243 0.029546222 0.03828478 -0.3418029 -0.16664608
-0.05909924 0.15026386 -0.15098971 0.15903771 -0.18336394 0.2917601 0.057796806 0.048909485
-0.12601808 -0.026929041 -0.08269729 0.0032456894 -0.06209198 0.15188642 -0.0021114966 0.096036896
00000000: 5ed7 153e a335 15be 28d5 00bd 28dc 143e
00000010: 131d 643e c5ef 37bd 613a 68bd 34da 083d
00000020: 4ae7 ac3d fa12 033e 8569 093e 8fc9 0a3e
00000030: 614d 5b3d 829d 0d3e ab82 f8bd cf30 303e
00000040: 025a e6bd d10e 653e 68d5 43bd b6e2 85bd
00000050: 15b2 10bd 54a4 cb3c d2a7 03be e2f1 3ebe
00000060: 0799 013e e27f 04be de0e 5d3d 5e2c 51bd
00000070: f6a2 d43e 8139 b63e 5ef0 da3c eb3f 10bd
00000080: b308 9e3e 878c 2bbd ebaa 2a3e 2891 23bc
00000090: e0aa 9ebd 82ae fbbd 4875 a0be 728e 01be
000000a0: c013 293e a567 4c3e c9c0 afbe daa6 27be
000000b0: eb0a f23c 80d0 1c3d ca00 afbe 45a5 2abe
000000c0: 0b12 72bd c5de 193e 0c9d 1abe c8da 223e
000000d0: c2c3 3bbe 9461 953e 58bc 6c3d 5055 483d
000000e0: e20a 01be 4b9a dcbc 325d a9bd a2b5 543b
000000f0: 2954 7ebd 1d88 1b3e 0961 0abb feae c43d

pi.pi_net.4.weight f4 [256, 64]
1.1329529 0.098757036 -0.05317179 -0.7893112 0.42499503 -0.5297389 0.3050326 0.8233314
0.6452454 0.6900555 0.62779456 0.6391555 -0.04915274 0.14013305 1.2021164 0.8463036
-0.47992587 0.54055417 -0.16242886 0.59119046 1.1138854 0.01602352 -0.8313012 -0.66200316
1.0893527 -0.4782286 0.15772556 -1.2723862 -0.25257197 0.022511493 -0.5670146 -0.95533454
-0.72194403 0.48340246 0.14981946 0.14810191 -1.0142915 -0.9219132 -0.44100136 -0.39293003
0.18304247 0.20303962 -0.18788691 -0.26787746 -0.46300092 -0.42605755 -0.3445888 -0.13218479
0.92526555 0.23520966 -0.9544986 0.72363764 0.07672756 -1.2620822 -1.1848817 0.40289888
0.46504456 0.62922806 -0.9668704 -0.0018055296 1.0592252 0.51764166 -0.25645432 0.56131744
0.55719036 0.4616284 -0.6266331 -0.63920623 0.64430463 0.07710453 0.23275894 0.5970773
1.1815082 0.04751064 0.8533108 0.9319445 -0.5166861 0.014035392 0.014183663 0.64055145
-0.22675465 0.64669025 -0.36167905 0.4357556 0.57721907 0.050468754 -1.0640268 -0.82690984
1.1289451 -1.2309042 0.053692985 -1.3939939 -0.18449774 0.47750357 0.2627752 -0.8652477
-1.1339803 0.30834237 -0.1077071 -0.24236722 -1.5247995 -0.6506416 -0.56385106 -0.5869664
0.4146209 0.059572298 0.42575985 0.55579853 -1.036995 0.46339622 -0.2940073 -0.38821638
0.18325152 0.29740003 -0.6557873 0.3151645 -0.07393367 -1.5282145 -1.3142848 0.13851306
0.3423402 0.5867263 -1.0195283 -0.06346984 0.47531897 0.31362295 -0.00447593 0.50183773
-1.0773389 -0.26969537 -0.41069943 0.077393524 0.7115292 0.65724266 0.50914544 -0.543758
0.12408427 -1.5553743 -1.2333556 1.1822389 -0.6838574 -0.79467905 -1.227934 -0.9524424
1.0492723 -0.044123862 -0.34057325 0.5857492 -0.32752115 1.6311896 1.1549124 0.6925963
-0.9457993 0.1975454 -1.5054874 0.9243207 1.9867834 1.8098879 1.6281056 -0.27533898
1.437972 -1.7114751 1.1732383 0.085138395 0.11686531 0.8213173 -1.9814396 1.2680831
1.61862 -0.62527615 0.21243241 1.8645126 -0.82095075 0.22731307 -1.7338725 -0.7343428
-1.2375582 -0.3378237 1.2909541 -0.11443093 0.3750303 1.5878645 1.1414447 -0.85328096
-0.6008012 -0.65226626 0.6071078 -1.8413428 -1.0878434 -1.5438523 1.7704577 -0.8715621
0.4691785 0.39275572 -0.45811608 -0.68645763 0.27980557 -0.24990962 0.12021983 1.0548809
0.78632355 0.045046717 0.776914 0.8860892 -0.020804966 -0.16348512 0.47597992 0.815351
-0.5679551 0.5790824 -0.21588634 0.35813606 1.0419046 0.12717399 -1.0608827 -1.0052471
0.90951407 -1.1906183 -0.031606603 -1.2580522 -0.5565768 0.14871193 -0.5001335 -0.5226215
-0.90223324 0.64306676 0.044503022 0.20721306 -1.1935745 -0.68740344 -0.48663875 -0.42803678
0.067138664 0.2271553 0.94275266 0.3367614 -1.013036 -0.063644126 0.47974938 -0.44732508
0.55711895 0.02049468 -0.78676 0.59642047 -0.32810193 -1.3856988 -1.238466 -0.038569503
0.49397695 0.52958375 -0.76968515 0.039818462 0.7659106 0.39300436 -0.40036702 0.5809843
00000000: 9a04 913f 2141 ca3d aaca 59bd 4c10 4abf
00000010: f398 d93e f89c 07bf 3c2d 9c3e d9c5 523f
00000020: cd2e 253f 7aa7 303f 25b7 203f b29f 233f
00000030: 6254 49bd 0a7f 0f3e f3de 993f 5aa7 583f
00000040: d8b8 f5be c261 0a3f c053 26be 4258 173f
00000050: cc93 8e3f c243 833c 28d0 54bf 0a79 29bf
00000060: e96f 8b3f 61da f4be cf82 213e 8ddd a2bf
00000070: 1d51 81be 066a b83c de27 11bf ce90 74bf
00000080: 53d1 38bf 8780 f73e 466a 193e 07a8 173e
00000090: 4ed4 81bf 8102 6cbf eeca e1be 202e c9be
000000a0: 7c6f 3b3e 9ee9 4f3e 6d65 40be 3c27 89be
000000b0: 750e edbe 3724 dabe f16d b0be 735b 07be
000000c0: 34de 6c3f cdda 703e 055a 74bf 5140 393f
000000d0: 5723 9d3d e98b a1bf 34aa 97bf c348 ce3e
000000e0: 521a ee3e 1715 213f d284 77bf 85a7 ecba
000000f0: b194 873f 2a84 043f fb4d 83be 80b2 0f3f
00000100: 07a4 0e3f 8f5a ec3e 076b 20bf 05a3 23bf
00000110: 26f1 243f fbe8 9d3d 5c58 6e3e 0fda 183f
00000120: a93b 973f 849a 423d 9472 5a3f ea93 6e3f
00000130: 8a45 04bf b3f4 653c 9862 683c 2efb 233f
00000140: 5f32 68be 7e8d 253f ff2d b9be 5c1b df3e
00000150: a1c4 133f 53b8 4e3d 0832 88bf 5db0 53bf
00000160: 4681 903f 458e 9dbf 2ded 5b3d 646e b2bf
00000170: faec 3cbe 597b f43e 798a 863e e080 5dbf
00000180: 4426 91bf 0ddf 9d3e 8a95 dcbd 1d2f 78be
00000190: a12c c3bf 7390 26bf 8b58 10bf 6e43 16bf
000001a0: 3149 d43e 1502 743d 32fd d93e d048 0e3f
000001b0: 41bc 84bf 4542 ed3e 2088 96be 4cc4 c6be
000001c0: 49a6 3b3e d144 983e ade1 27bf 3e5d a13e
000001d0: 896a 97bd 889c c3bf 7c3a a8bf 5ed6 0d3e
000001e0: 3747 af3e b233 163f e77f 82bf 7afc 81bd
000001f0: 025d f33e 3093 a03e d2aa 92bb 7078 003f
00000200: 3ee6 89bf 8315 8abe 3247 d2be 7f80 9e3d
00000210: c726 363f 0e41 283f 5b57 023f b933 0bbf
00000220: e51f fe3d 8116 c7bf 99de 9dbf 9b53 973f
00000230: 4711 2fbf 1670 4bbf f12c 9dbf 44d3 73bf
00000240: 8e4e 863f 39bb 34bd 9e5f aebe a9f3 153f
00000250: dab0 a7be d2ca d03f 2bd4 933f fe4d 313f
00000260: e71f 72bf 5749 4a3e d0b3 c0bf 48a0 6c3f
00000270: eb4e fe3f 68aa e73f c465 d03f 3bf9 8cbe
00000280: 770f b83f 9e11 dbbf ac2c 963f 0a5d ae3d
00000290: 1457 ef3d da41 523f d09f fdbf 8c50 a23f
000002a0: f12e cf3f 1912 20bf e287 593e 59a8 ee3f
000002b0: d429 52bf c2c4 683e 89ef ddbf e4fd 3bbf
000002c0: 4f68 9ebf 3af7 acbe fc3d a53f c35a eabd
000002d0: f903 c03e 253f cb3f dc1a 923f 9f70 5abf
000002e0: 1cce 19bf ecfa 26bf 6b6b 1b3f 1fb1 ebbf
000002f0: 743e 8bbf f49c c5bf 5c9e e23f b21e 5fbf
00000300: 2a38 f03e 4717 c93e 318e eabe b0bb 2fbf
00000310: ad42 8f3e 4fe8 7fbe d035 f63d 5606 873f
00000320: 804c 493f e882 383d d6e3 463f bed6 623f
00000330: 2d6f aabc a568 27be a4b3 f33e d8ba 503f
00000340: 8165 11bf bf3e 143f 4f11 5dbe 9c5d b73e
00000350: 215d 853f e639 023e 01cb 87bf f0ab 80bf
00000360: ead5 683f 2e66 98bf ed75 01bd db07 a1bf
00000370: d17b 0ebf f147 183e c008 00bf 86ca 05bf
00000380: c2f8 66bf 06a0 243f cd48 363d a92f 543e
00000390: 0dc7 98bf acf9 2fbf b728 f9be a327 dbbe
000003a0: ff7f 893d 669b 683e 3d58 713f fd6b ac3e
000003b0: 2aab 81bf da57 82bd b6a1 f53e cb07 e5be
000003c0: 599f 0e3f 76e4 a73c 1a69 49bf 03af 183f
000003d0: fafc a7be 945e b1bf 0e86 9ebf 0efb 1dbd
000003e0: 8cea fc3e cd92 073f 160a 45bf af18 233d
000003f0: b812 443f de37 c93e e8fc ccbe 63bb 143f

pi.pi_net.4.bias f4 [256]
0.37591782 0.32603544 1.7443911 0.13366185 0.23396419 2.1324067 0.5674736 1.9991987
1.8045323 2.1519806 1.9479162 0.36626658 0.24192987 1.6875334 0.16445236 1.874985
0.22384167 0.35049614 0.8623096 0.26226065 1.9804542 1.5562022 1.7160246 1.5356789
1.9093916 0.22721931 1.7133797 0.23620482 0.27568597 0.33410066 0.14642332 1.9633273
2.011791 1.6000558 1.604901 0.44846693 0.34741038 1.6525631 1.7898706 0.847827
0.4392873 2.0525045 0.32225603 2.1597593 1.8058589 0.45271242 1.4902912 0.67412645
1.0389475 0.09833094 2.1471267 0.2988148 0.26850608 1.9076407 1.1618636 0.43771902
0.49789798 0.30074403 0.15797484 0.42061734 0.68589675 1.9028717 1.9649566 0.020788815
0.32051617 2.0748749 0.25716656 0.25792855 0.5172735 0.33423537 0.5600796 1.788107
0.18275684 0.6281662 0.15519455 2.0135987 0.3902009 1.7729354 0.27818382 0.33013394
1.5177478 1.3898162 1.6148852 -0.005087572 1.529164 0.53432316 0.4187023 0.38474718
0.73948365 0.24052276 0.24795476 1.9927028 1.980211 0.42955178 1.7664638 0.33921874
0.4386843 0.124963075 1.651298 2.0580056 0.14675339 0.35742766 1.6983496 0.3831886
1.3504946 1.7751564 1.8836861 0.51392704 0.61449605 1.873904 0.16096051 1.8022004
0.36818054 1.8709682 1.8956665 0.38894102 1.5682889 0.037331052 0.23346558 1.5673913
1.8481407 1.3734356 0.33779734 1.984365 1.4433959 0.14905986 0.4183378 1.9811372
0.06762238 0.4370864 1.8253438 1.5920233 0.37521532 0.37888554 0.30782804 0.37247655
1.4610543 0.32912257 1.2338469 1.7994466 0.45218906 2.1488717 1.8823596 1.8636068
1.7722853 1.3804979 0.47418746 2.2249012 2.0877016 1.9176687 1.3991064 1.9125503
0.8376788 2.0698752 1.8033136 0.5531524 1.5598075 0.22776331 1.3664899 1.7475044
0.31688693 1.5005245 0.4202247 0.4193363 1.7310734 1.5966038 2.0211284 1.494299
2.007302 0.24298604 1.5354886 0.40781435 1.2206222 0.394429 1.9969838 2.0708034
1.8214316 1.8436186 0.525614 0.31992412 0.28589046 1.9133885 1.2199512 2.094835
0.3342162 0.1430855 1.7613167 1.9808292 1.8720171 0.5079422 0.24957137 1.8755198
1.5903869 1.8104938 0.10431674 0.123444766 1.7464871 1.914991 1.9855381 1.8143318
0.3553857 1.7357612 1.8748981 0.2604026 1.5272648 0.15413001 0.39314702 1.9848635
0.44939017 0.7031976 1.9727907 0.32028064 2.0294023 1.8635995 1.542089 1.9897838
1.5214812 0.56792325 1.8312942 0.41462582 0.46178073 1.3915342 0.345115 0.2308382
0.40664762 1.6328363 0.25102535 1.343084 0.40090764 1.6713576 1.7723507 0.3393712
0.37950003 0.6107691 1.8779216 1.9250029 0.15842967 0.37538177 0.12907061 2.0467718
0.5511938 1.5909449 0.41559926 0.31546605 1.4846909 1.8218602 0.40551412 0.035109133
1.6300565 1.9344283 1.9457046 0.23480473 1.9671463 2.0623198 2.0118935 1.7808073
00000000: 4d78 c03e 1eee a63e 3548 df3f a7de 083e
00000010: 4f94 6f3e 5a79 0840 f345 113f bee5 ff3f
00000020: eafa e63f 0dba 0940 5155 f93f 4b87 bb3e
00000030: 77bc 773e 1801 d83f 3366 283e 82ff ef3f
00000040: c036 653e 3b74 b33e 52c0 5c3f 0747 863e
00000050: 867f fd3f a231 c73f b2a6 db3f 2091 c43f
00000060: f266 f43f 2eac 683e 0750 db3f addf 713e
00000070: b626 8d3e 3e0f ab3e ffef 153e 4f4e fb3f
00000080: 2fc1 0040 a1ce cc3f 656d cd3f 759d e53e
00000090: c6df b13e 3087 d33f 7b1a e53f 310b 593f
000000a0: 44ea e03e 3c5c 0340 befe a43e 7f39 0a40
000000b0: 6226 e73f ecc9 e73e ddc1 be3f 8d93 2c3f
000000c0: 3bfc 843f bb61 c93d 866a 0940 41fe 983e
000000d0: a179 893e 922d f43f f2b7 943f b51c e03e
000000e0: 7cec fe3e 1ffb 993e 28c4 213e 285b d73e
000000f0: ee96 2f3f 4d91 f33f b383 fb3f 4e4d aa3c
00000100: b21a a43e c0ca 0440 56ab 833e 360f 843e
00000110: 096c 043f e620 ab3e 6061 0f3f b1e0 e43f
00000120: 9c24 3b3e 80cf 203f 52eb 1e3e cdde 0040
00000130: 6ac8 c73e 8cef e23f 1c6e 8e3e 5107 a93e
00000140: 8f45 c23f 7fe5 b13f 8fb4 ce3f a6b5 a6bb
00000150: a5bb c33f 67c9 083f 2660 d63e 95fd c43e
00000160: cd4e 3d3f 994b 763e dae7 7d3e e310 ff3f
00000170: 8e77 fd3f 36ee db3e 7c1b e23f 14ae ad3e
00000180: 3b9b e03e a4ec ff3d bc5d d33f 5db6 0340
00000190: 8546 163e c200 b73e 8563 d93f 4c31 c43e
000001a0: 02dd ac3f 5338 e33f a01c f13f b990 033f
000001b0: 9d4f 1d3f 16dc ef3f d5d2 243e 81ae e63f
000001c0: 2982 bc3e e37b ef3f 33a5 f23f 4723 c73e
000001d0: b1bd c83f 72e8 183d 9a11 6f3e 47a0 c83f
000001e0: e08f ec3f bdcc af3f c6f3 ac3e acff fd3f
000001f0: 32c1 b83f 26a3 183e 5f30 d63e e795 fd3f
00000200: 9a7d 8a3d cac9 df3e dea4 e93f 6bc7 cb3f
00000210: 391c c03e 49fd c13e a39b 9d3e 3fb5 be3e
00000220: d403 bb3f c182 a83e b2ee 9d3f 4454 e63f
00000230: 5385 e73e 1d87 0940 29f1 f03f ab8a ee3f
00000240: 3fda e23f 28b4 b03f b3c8 f23e c864 0e40
00000250: e79c 0540 2b76 f53f eb15 b33f 73ce f43f
00000260: 1e72 563f d678 0440 fbd2 e63f 659b 0d3f
00000270: c6a7 c73f c93a 693e 24e9 ae3f 39ae df3f
00000280: 013f a23e 3011 c03f b127 d73e 3fb3 d63e
00000290: d093 dd3f 835d cc3f 2b5a 0140 3145 bf3f
000002a0: a377 0040 55d1 783e e48a c43f 0bcd d03e
000002b0: 593d 9c3f 99f2 c93e 2a9d ff3f 0b88 0440
000002c0: ac24 e93f b2fb eb3f a48e 063f 18cd a33e
000002d0: 3c60 923e eae9 f43f 5c27 9c3f c711 0640
000002e0: 631e ab3e 0185 123e d372 e13f d08b fd3f
000002f0: 429e ef3f 8008 023f a38f 7f3e 0811 f03f
00000300: cc91 cb3f 43be e73f 04a4 d53d 9cd0 fc3d
00000310: e48c df3f 6d1e f53f 1d26 fe3f 063c e83f
00000320: 1df5 b53e 6c2d de3f a9fc ef3f 7d53 853e
00000330: 6a7d c33f 42d4 1d3e 914a c93e 0210 fe3f
00000340: 7816 e63e c204 343f 6884 fc3f d3fb a33e
00000350: bae1 0140 6e8a ee3f 2c63 c53f 3cb1 fe3f
00000360: e5bf c23f 6b63 113f d967 ea3f d649 d43e
00000370: 866e ec3e cb1d b23f eab2 b03e d960 6c3e
00000380: 1e34 d03e c800 d13f 6586 803e 2dea ab3f
00000390: c443 cd3e 0cef d53f 63dc e23f 10c2 ad3e
000003a0: d44d c23e 5d5b 1c3f bc5f f03f 7f66 f63f
000003b0: 633b 223e 0a32 c03e 162b 043e 4ffe 0240
000003c0: 091b 0d3f 15a4 cb3f 6dc9 d43e c484 a13e
000003d0: 5a0a be3f b732 e93f 8c9f cf3e 98ce 0f3d
000003e0: b1a5 d03f 599b f73f d90c f93f a770 703e
000003f0: 73cb fb3f 0cfd 0340 ddc2 0040 7ef1 e33f

v.v_net.0.weight f4 [64, 5]
-0.6233647 -0.45638254 0.19400866 0.14472324 0.0250227 0.44221362 -0.2260819 -0.009660251
0.5895612 0.19921184 0.13485293 0.02562075 -0.12009233 -0.3832212 -0.0121787535 -0.9302604
-0.12084412 0.09161714 0.051836893 0.10990869 0.10126811 -0.20011851 0.41951644 0.0872569
0.3562965 -0.32616884 -0.38727638 0.023258751 0.5585209 0.61141366 -1.3673799 -0.1324065
0.023935232 0.33891642 0.055009328 0.3501079 0.18166777 -0.038882032 0.04493673 -0.59722656
-0.64456624 -0.23579808 0.14324833 0.40042377 0.48240477 -0.6874202 -0.25115934 0.13865626
0.2026584 -0.12320419 1.0183679 0.11686675 0.034174662 -1.0571307 -1.562555 -1.2905965
-1.1831359 -0.037194632 0.06607646 -0.93840706 -1.1499172 -1.0311271 0.18732001 -0.19338687
-0.5525663 1.0780542 1.7685364 0.80819964 -0.13215217 0.1989027 0.6092191 0.44614017
-0.29463848 -0.20466553 0.06843362 -0.87367123 -0.08440443 0.010105925 0.4521911 0.05826283
0.12624604 -0.5773153 0.45534533 0.86583513 0.24673636 0.3997608 0.40984276 -1.0091054
0.10005544 -0.26331714 -0.39330947 -0.221322 0.36167663 0.010281362 0.3112348 -1.1610606
-1.2927657 -0.00038903538 -0.11434752 -0.9355968 0.9724977 0.81233644 0.45853573 0.06034373
1.1292775 0.619138 0.27137128 0.02076727 -0.17603052 -0.15532795 0.6041857 0.098602004
-0.10439088 -0.1615305 -0.40543926 0.16256066 -0.8992049 -0.5809497 0.13296875 -0.16300935
0.72290736 0.2418928 -0.11925468 0.029615132 -0.19923128 0.041442443 -0.18326448 0.6453445
0.30561695 0.10197304 0.8103863 0.31811687 -0.29696518 0.37539196 -0.6411198 -0.6359936
-0.36022878 0.33979806 0.0077842185 -0.04381888 0.8560205 1.1318228 0.453757 0.10674851
0.4191994 0.79902744 -0.35338336 0.2414307 0.17260367 0.06321459 -0.78610915 0.12310757
-0.13323039 0.4438573 -0.09733999 0.7337642 0.02113894 -0.036961336 -0.0010232085 -0.2642412
-0.7370416 0.08235593 0.37101716 0.08566949 -0.03533231 -0.3749498 -0.30780688 0.10295535
-0.15299398 0.32375416 1.0692815 -0.04841086 0.034258716 -0.11050814 -0.05660171 -0.02994026
0.36870414 -0.19004679 -0.23574863 -0.28873977 0.31431234 1.0786033 0.5555366 0.051726352
0.35164067 -1.130728 -0.12576917 -0.07741184 0.25784603 0.12682848 0.24035884 0.021970512
0.1601829 0.25629124 0.28551006 0.8575057 -0.14790219 -0.10390838 0.08797493 0.12910296
-0.56339264 -0.21024583 0.06579243 0.06251685 0.009781989 1.0637622 0.84706044 0.3727493
-0.674157 0.5949405 -0.89980966 -1.0059716 -0.45491934 0.09613987 -0.50764906 -0.804792
-0.46028852 0.3288874 0.1578865 0.061321378 -0.698774 -0.054284874 -0.08418327 0.072470285
0.1292165 0.31762582 -0.21989042 -0.66315144 0.18629101 0.31391436 -0.69205457 -0.3794015
0.25792205 0.003992069 0.5915265 -0.6934449 0.16293184 0.08127449 -0.26039636 0.22685078
-0.50066227 -0.45649904 0.1970222 -0.048865296 0.2391385 0.30540928 -0.22272693 -0.13737921
0.71534127 0.18652657 -1.0337082 -0.23245262 0.40509677 0.07498255 -0.060997445 0.58269876
00000000: d494 1fbf f9aa e9be 35aa 463e 5432 143e
00000010: 68fc cc3c d369 e23e 0382 67be 0846 1ebc
00000020: 7ced 163f 30fe 4b3e e316 0a3e 9be2 d13c
00000030: f8f2 f5bd 9235 c4be 6589 47bc 8c25 6ebf
00000040: 1f7d f7bd c4a1 bb3d ec52 543d cf17 e13d
00000050: a865 cf3d deeb 4cbe dcca d63e bfb3 b23d
00000060: 7f6c b63e 9aff a6be 1749 c6be 2389 be3c
00000070: 3afb 0e3f 9b85 1c3f 4e06 afbf 9295 07be
00000080: d213 c43c 7486 ad3e 7651 613d 5841 b33e
00000090: 1e07 3a3e c442 1fbd 940f 383d d7e3 18bf
000000a0: 4b02 25bf 0d75 71be b1af 123e 5804 cd3e
000000b0: c2fd f63e c5fa 2fbf f597 80be e8fb 0d3e
000000c0: af85 4f3e 7a52 fcbd e159 823f d657 ef3d
000000d0: bbfa 0b3d 0f50 87bf cd01 c8bf 4432 a5bf
000000e0: ff70 97bf 6659 18bd 1853 873d 723b 70bf
000000f0: 7d30 93bf f9fb 83bf d1d0 3f3e 3507 46be
00000100: fc74 0dbf aefd 893f 675f e23f 2ce6 4e3f
00000110: e652 07be 26ad 4b3e c8f5 1b3f 7c6c e43e
00000120: dbda 96be d793 51be ed26 8c3d eba8 5fbf
00000130: 3bdc acbd 5293 253c 9885 e73e 01a5 6e3d
00000140: a446 013e efca 13bf 0623 e93e 5fa7 5d3f
00000150: 75a8 7c3e 73ad cc3e e9d6 d13e 5e2a 81bf
00000160: dee9 cc3d 81d1 86be dc5f c9be 3ca2 62be
00000170: ae2d b93e 2873 283c 2b5a 9f3e a29d 94bf
00000180: 5979 a5bf 72f7 cbb9 082f eabd 4683 6fbf
00000190: 9cf5 783f 48f5 4f3f 32c5 ea3e fd2a 773d
000001a0: 2a8c 903f d47f 1e3f 2df1 8a3e 1f20 aa3c
000001b0: 5841 34be 4a0e 1fbe eaab 1a3f d9ef c93d
000001c0: e3ca d5bd 4068 25be bc95 cfbe 4d76 263e
000001d0: 4b32 66bf 1fb9 14bf f628 083e eceb 26be
000001e0: 7510 393f bfb2 773e cc3b f4bd 6f9b f23c
000001f0: 4903 4cbe 8dbf 293d afa9 3bbe 4c35 253f
00000200: d379 9c3e 3ed7 d03d 7a75 4f3f 37e0 a23e
00000210: d20b 98be 6033 c03e 6d20 24bf 7ad0 22bf
00000220: e86f b8be 03fa ad3e c212 ff3b 6d7b 33bd
00000230: 2924 5b3f 92df 903f d652 e83e f69e da3d
00000240: 4ea1 d63e 108d 4c3f aaee b4be 9c39 773e
00000250: 04bf 303e a776 813d 733e 49bf d21f fc3d
00000260: 8c6d 08be 4441 e33e 305a c7bd f8d7 3b3f
00000270: 922b ad3c c564 17bd 2e1d 86ba 9f4a 87be
00000280: c2ae 3cbf 3aaa a83d f6f5 bd3e 7c73 af3d
00000290: 9db8 10bd 6cf9 bfbe dd98 9dbe 41da d23d
000002a0: 74aa 1cbe 1bc3 a53e 37de 883f 774a 46bd
000002b0: de52 0c3d 1752 e2bd 32d7 67bd 4745 f5bc
000002c0: cac6 bc3e a09b 42be 1768 71be b3d5 93be
000002d0: 8ced a03e ac0f 8a3f a637 0e3f 03df 533d
000002e0: 3f0a b43e b2bb 90bf a2c9 00be 198a 9ebd
000002f0: 6504 843e 53df 013e a120 763e 81fb b33c
00000300: fc06 243e 9b38 833e 602e 923e 7e85 5b3f
00000310: ac73 17be ebcd d4bd 332c b43d 9133 043e
00000320: 803a 10bf af4a 57be 2ebe 863d d608 803d
00000330: a344 203c 5c29 883f f4d8 583f ffd8 be3e
00000340: 8e95 2cbf 054e 183f ed59 66bf adc3 80bf
00000350: 30eb e8be fbe4 c43d 4af5 01bf d906 4ebf
00000360: f0aa ebbe ee63 a83e 00ad 213e 202c 7b3d
00000370: dae2 32bf d159 5ebd 4768 acbd 4d6b 943d
00000380: 5551 043e da9f a23e f42a 61be 4bc4 29bf
00000390: 12c3 3e3e 62b9 a03e 7d2a 31bf ea40 c2be
000003a0: 5c0e 843e e7cf 823b 486e 173f 9b85 31bf
000003b0: 9bd7 263e 3d73 a63d ac52 85be 924b 683e
000003c0: 672b 00bf 3eba e9be 30c0 493e fa26 48bd
000003d0: b9e0 743e 9b5e 9c3e 8712 64be 23ad 0cbe
000003e0: 9b20 373f d200 3f3e 8d50 84bf 0f08 6ebe
000003f0: d868 cf3e 7490 993d 75d8 79bd bf2b 153f

v.v_net.0.bias f4 [64]
-0.03460594 -0.4693222 0.20751308 -0.09185911 -0.5037919 -0.5660121 -0.25597635 0.34354448
-0.15385367 0.038721226 0.21100366 -0.4325447 -0.23708275 1.8448129 -0.07047859 -0.06879639
-0.0831587 0.61132646 -0.09677124 -0.4015854 0.5221786 -0.03969904 0.3381695 -1.0492963
0.12827605 -0.2117515 0.062299475 0.1882179 0.6542989 -0.036875397 -0.25745237 0.1941955
-0.30766663 -0.2644791 0.2256576 0.05939208 0.6820104 -0.1832594 -0.5442957 -0.0075516384
0.09898443 0.7885286 -0.861177 -0.09671128 -0.1676018 0.31715134 -0.19514394 0.019816494
-0.16734596 -0.6318231 -0.17386225 0.12135769 -0.30959857 0.11625936 -0.04756516 -0.14814034
0.10386036 -0.5005451 -0.1332137 -0.17471808 0.1491343 -0.106985874 -0.23314977 -0.77461517
00000000: f5be 0dbd 004b f0be 4f7e 543e a120 bcbd
00000010: 82f8 00bf 2be6 10bf 550f 83be 10e5 af3e
00000020: d18b 1dbe 269a 1e3d 5811 583e 8076 ddbe
00000030: d2c5 72be d422 ec3f 1457 90bd 1fe5 8cbd
00000040: 1c4f aabd e47f 1c3f 0030 c6bd 9a9c cdbe
00000050: 7fad 053f 769b 22bd 8d24 ad3e 574f 86bf
00000060: cc5a 033e 63d5 58be bc2d 7f3d 31bc 403e
00000070: 2280 273f a80a 17bd ccd0 83be 2fdb 463e
00000080: 7b86 9dbe ce69 87be c912 673e 1c45 733d
00000090: 3c98 2e3f 5aa8 3bbe f756 0bbf bc73 f7bb
000000a0: 59b8 ca3d 03dd 493f 1976 5cbf 9010 c6bd
000000b0: ce9f 2bbe a961 a23e d0d3 47be 3356 a23c
000000c0: bd5c 2bbe 29bf 21bf f208 32be 618a f83d
000000d0: b483 9ebe 6319 ee3d afd3 42bd 1ab2 17be
000000e0: beb4 d43d b923 00bf 2c69 08be 4ce9 32be
000000f0: a9b6 183e 691b dbbd d0be 6ebe 2e4d 46bf

v.v_net.2.weight f4 [64, 64]
1.0067263 0.31498733 -0.24599582 0.60259944 0.29898554 -0.086253494 0.6550209 -0.19256493
-0.18129581 0.18923444 0.23868969 0.79745734 0.45289227 -0.56636643 0.4752239 -0.66474295
0.21434124 -0.70111257 0.23942739 0.45834225 -0.5072323 -0.38930836 -0.5603162 0.61129254
-0.66212225 0.55828303 -0.53572065 -0.76274836 -0.60164887 -0.80670315 1.31784 -1.2146422
0.70783395 0.64534473 -0.71498954 -0.3598753 -0.4815324 0.6489831 0.58651555 0.40695176
0.31888208 -0.9043851 0.47968936 0.6291853 1.004768 -0.13213909 -0.09624879 -0.32865217
1.1768979 0.4290804 0.84783494 -0.56325006 0.3852975 -0.5504563 0.6764514 0.5218073
-0.63529116 -0.0721474 0.65186435 1.1753643 -0.26067585 -0.0052838693 0.48271322 1.0277615
0.7619567 0.6947355 -0.47741246 0.41717985 0.25442812 -0.17426223 0.41521743 0.17132893
0.00631762 0.93347645 -0.26354504 0.37968257 0.33371964 -1.0473354 0.00077515957 -0.2064211
0.6479231 0.3004464 -0.1963548 0.17603026 -0.49819282 -0.302388 -0.62276894 0.28956705
-0.48825625 0.33054194 0.20521805 -0.10774137 -0.3912032 0.056161147 0.84032387 -0.69037306
0.74711186 0.3352142 -0.61818147 -0.26196158 0.10323763 0.7612123 0.35854056 0.106409065
0.14042275 -0.48485208 0.30385298 0.39320192 0.5473306 0.028103368 -0.41652277 -0.26651347
0.24516274 0.4579196 0.81371987 -0.6831459 0.52515453 -0.72323054 0.24729638 0.49937242
-0.5558906 0.07104964 0.12778483 0.98296857 -0.21613918 0.19425243 0.05208334 0.6214499
-1.3071535 -0.34979454 0.59951645 -1.1222744 -0.51881516 0.048851524 -0.91768575 0.19245379
-0.2544163 -0.791882 -0.3476127 -0.5287572 -0.5593596 0.3971959 0.6557672 0.22246426
-0.42583653 0.3957627 -0.54414254 -0.6866085 0.7812805 0.84462357 0.35169354 -0.5984055
1.065564 -0.5628889 1.0914589 0.5571363 0.41923106 0.609328 -1.1063914 0.82901216
-0.20529683 -0.9176532 0.9842454 0.5342026 0.077554844 -0.83397543 -0.4972663 -0.38047564
-0.31201172 0.37759885 -0.6844312 -1.0772761 -0.59130377 0.27964994 -0.19624233 0.1361207
-0.67248285 -0.43794563 -0.85174376 0.7553729 -0.4264409 0.5037589 -1.013437 -0.46670818
0.86124754 0.232524 -0.6433886 -0.7115494 0.12475699 0.06312934 -0.55238503 -0.51751256
-0.33556476 -0.5285305 -0.1306236 -0.84480375 -0.86770076 -0.33665273 -0.9200042 0.54253864
-0.10719719 -0.44649518 -0.43468753 -0.5360197 -0.8044803 0.864103 0.4326513 0.94945246
-0.31518644 0.6734453 -0.37407413 -0.7447464 0.4592797 0.71101224 0.6057713 -0.58927095
0.7095035 0.065729 0.64909863 0.07104959 0.43683332 0.9599496 -1.0717186 0.3680294
-0.23690063 -0.6512034 0.89946705 -0.009616106 0.2411063 -0.8422269 -0.63924074 -0.61686563
0.39292184 1.045988 -0.4577463 -0.5095315 -1.2092295 -0.33075446 -0.14651078 -0.051135734
-0.80023277 -0.6614974 -0.7770673 0.71948093 -0.37057173 0.41584423 -0.63063407 -0.80973864
0.6495845 0.36730716 -0.18814321 -0.56899637 0.3015334 0.24875857 -0.44276047 -0.25617146
00000000: 68dc 803f 0546 a13e 54e6 7bbe f543 1a3f
00000010: a214 993e aca5 b0bd 73af 273f be2f 45be
00000020: 9ca5 39be acc6 413e 126b 743e 2a26 4c3f
00000030: 7fe1 e73e 64fd 10bf 8c50 f33e 982c 2abf
00000040: 457c 5b3e 1d7c 33bf 742c 753e d6ab ea3e
00000050: fad9 01bf 6d53 c7be e270 0fbf ab7d 1c3f
00000060: d880 29bf a3eb 0e3f fd24 09bf 7a43 43bf
00000070: a905 1abf 1984 4ebf fbae a83f 6579 9bbf
00000080: 9b34 353f 5035 253f 8e09 37bf 9341 b8be
00000090: 6a8b f6be c223 263f e225 163f fb5b d03e
000000a0: 8344 a33e c885 67bf d899 f53e 4a12 213f
000000b0: 3d9c 803f 784f 07be 161e c5bd 1945 a8be
000000c0: 97a4 963f 6db0 db3e b60b 593f 2831 10bf
000000d0: b745 c53e b4ea 0cbf eb2b 2d3f 2a95 053f
000000e0: 71a2 22bf 04c2 93bd 95e0 263f 5672 963f
000000f0: 4e77 85be 4f24 adbb 3026 f73e b08d 833f
00000100: 980f 433f 30da 313f 686f f4be 9998 d53e
00000110: 6744 823e cc71 32be 6197 d43e da70 2f3e
00000120: 0a04 cf3b 50f8 6e3f 60ef 86be c165 c23e
00000130: 4ddd aa3e 160f 86bf 1434 4b3a 0e60 53be
00000140: 4ade 253f 1cd4 993e 3c11 49be 4741 343e
00000150: 2113 ffbe 9ad2 9abe c96d 1fbf 2242 943e
00000160: b9fc f9be cb3c a93e ae24 523e 82a7 dcbd
00000170: c94b c8be 3b09 663d 771f 573f 4abc 30bf
00000180: b942 3f3f 32a1 ab3e 2441 1ebf d41f 86be
00000190: 406e d33d cfde 423f a192 b73e ffec d93d
000001a0: fbca 0f3e 883e f8be 9e92 9b3e c351 c93e
000001b0: dc1d 0c3f 0939 e63c 7942 d5be 7474 88be
000001c0: f10b 7b3e 7074 ea3e f24f 503f a6e2 2ebf
000001d0: 8770 063f a325 39bf 433b 7d3e bead ff3e
000001e0: d94e 0ebf 7982 913d 07da 023e d4a3 7b3f
000001f0: 9753 5dbe 1cea 463e 5755 553d 5717 1f3f
00000200: ce50 a7bf 4518 b3be e979 193f b0a6 8fbf
00000210: 12d1 04bf 8918 483d 74ed 6abf 9b12 453e
00000220: da42 82be c7b8 4abf 4bfa b1be a25c 07bf
00000230: 3132 0fbf 435d cb3e 5ce0 273f accd 633e
00000240: 3f07 dabe 69a1 ca3e ed4c 0bbf 93c5 2fbf
00000250: 0002 483f 4039 583f 2d11 b43e 1a31 19bf
00000260: 6764 883f 7d19 10bf edb4 8b3f 7ca0 0e3f
00000270: 74a5 d63e ebfc 1b3f 3c9e 8dbf 243a 543f
00000280: 5539 52be 52eb 6abf 82f7 7b3f 80c1 083f
00000290: 13d5 9e3d 6a7f 55bf b099 febe b4cd c2be
000002a0: 00c0 9fbe a354 c13e e236 2fbf 2fe4 89bf
000002b0: af5f 17bf 472e 8f3e c0f3 48be 3a63 0b3e
000002c0: d627 2cbf 693a e0be e10b 5abf 1e60 413f
000002d0: 7656 dabe 58f6 003f 4eb8 81bf 60f4 eebe
000002e0: b87a 5c3f c51a 6e3e 1eb5 24bf 1a28 36bf
000002f0: 9880 ff3d f549 813d 1b69 0dbf b47b 04bf
00000300: 25cf abbe c64d 07bf 31c2 05be 0f45 58bf
00000310: a321 5ebf bf5d acbe 6585 6bbf d0e3 0a3f
00000320: 338a dbbd 049b e4be 5d8f debe 9638 09bf
00000330: 6cf2 4dbf db35 5d3f 7984 dd3e 510f 733f
00000340: 1e60 a1be e966 2c3f a586 bfbe b3a7 3ebf
00000350: b526 eb3e e604 363f d413 1b3f 76da 16bf
00000360: 05a2 353f ed9c 863d 542b 263f 7382 913d
00000370: 9ea8 df3e 42bf 753f 132e 89bf 596e bc3e
00000380: 1496 72be 44b5 26bf 7943 663f df8c 1dbc
00000390: 92e4 763e 2f9c 57bf 48a5 23bf e8ea 1dbf
000003a0: 0d2d c93e efe2 853f b95d eabe a870 02bf
000003b0: 08c8 9abf a658 a9be ec06 16be b473 51bd
000003c0: 0edc 4cbf e557 29bf e2ed 46bf e72f 383f
000003d0: 94bb bdbe 89e9 d43e 3c71 21bf 084b 4fbf
000003e0: 2b4b 263f af0f bc3e 9da8 40be bfa9 11bf
000003f0: 9662 9a3e 91ba 7e3e 80b1 e2be e828 83be

v.v_net.2.bias f4 [64]
-0.6341836 -0.45995212 0.61417705 0.62611234 -0.5777717 -0.48445883 0.5823402 0.7314424
0.5522734 -0.5562995 0.58357334 0.53152776 -0.5308638 0.57166433 0.48551846 -0.17808515
0.617173 -0.632107 0.59208554 -0.5084723 0.5784573 -0.5472089 -0.10545598 0.22113353
-0.5856164 -0.6030277 0.55812424 -0.5033262 0.6195441 0.5412559 -0.55525976 0.6256104
-0.53512067 -0.6599162 -0.51169175 0.6170665 -0.52594066 0.44272497 -0.696352 0.024994282
-0.695314 -0.56038576 0.44769195 0.61806774 -0.4840351 -0.536129 -0.5434892 0.69475514
0.6049937 -0.64449215 0.7398961 -0.6330763 0.6196731 -0.6090678 -0.5073457 0.6243251
-0.609297 -0.63436055 0.518851 0.5885775 -0.60396683 -0.6381599 -0.15080926 -0.5869792
00000000: db59 22bf d87e ebbe b53a 1d3f e648 203f
00000010: d9e8 13bf fd0a f8be 3f14 153f cf3f 3b3f
00000020: ca61 0d3f a569 0ebf 1065 153f 3412 083f
00000030: b1e6 07bf 9858 123f e095 f83e f45b 36be
00000040: 0dff 1d3f c4d1 21bf eb92 173f 3e2b 02bf
00000050: c715 143f e215 0cbf 4ef9 d7bd d470 623e
00000060: f5ea 15bf 0660 1abf 3be1 0e3f fcd9 00bf
00000070: 719a 1e3f bf8f 0a3f 8125 0ebf 0128 203f
00000080: abfd 08bf 45f0 28bf 3bfe 02bf 12f8 1d3f
00000090: 0ca4 06bf d9ac e23e 2044 32bf cfc0 cc3c
000000a0: 1900 32bf 7175 0fbf e137 e53e b039 1e3f
000000b0: 73d3 f7be c03f 09bf 1c22 0bbf 79db 313f
000000c0: dee0 1a3f 70fd 24bf d569 3d3f 4a11 22bf
000000d0: e5a2 1e3f deeb 1bbf 68e1 01bf c5d3 1f3f
000000e0: e3fa 1bbf 7465 22bf 6bd3 043f 04ad 163f
000000f0: 929d 1abf 725e 23bf be6d 1abe 4544 16bf

v.v_net.4.weight f4 [1, 64]
4.5919523 4.469034 -4.455722 -4.3346424 4.696682 4.6172934 -4.389903 -4.3056602
-4.5504384 4.3764 -4.8334575 -4.3729944 4.52179 -4.23579 -4.6819563 4.375514
-4.5138073 4.264962 -4.3170047 4.9802957 -4.3014474 4.526506 4.8116107 -4.435372
4.4202003 4.2639327 -4.3724194 4.5467644 -4.527134 -4.287583 4.399704 -4.414318
4.534953 4.4498863 4.2659273 -4.7283096 4.3000193 -4.3686514 4.3880854 6.05343
4.3770285 4.3038535 -4.2643547 -4.7771473 4.478175 4.549344 5.025754 -4.274851
-4.3376713 4.3019533 -4.371207 4.363764 -4.542329 4.5174303 4.3666015 -4.285797
4.33109 4.369652 -4.800109 -4.5398693 4.441783 4.403001 4.7536144 4.289774
00000000: 46f1 9240 5402 8f40 4695 8ec0 64b5 8ac0
00000010: 384b 9640 dec0 9340 167a 8cc0 f8c7 89c0
00000020: 319d 91c0 780b 8c40 afab 9ac0 92ef 8bc0
00000030: 81b2 9040 978b 87c0 96d2 95c0 3604 8c40
00000040: 1c71 90c0 927a 8840 e724 8ac0 955e 9f40
00000050: 75a5 89c0 23d9 9040 b7f8 9940 91ee 8dc0
00000060: 4872 8d40 2372 8840 dcea 8bc0 187f 9140
00000070: 48de 90c0 e133 89c0 60ca 8c40 1842 8dc0
00000080: 561e 9140 7865 8e40 7a82 8840 504e 97c0
00000090: c299 8940 fecb 8bc0 326b 8c40 b3b5 c140
000000a0: 9e10 8c40 2bb9 8940 9875 88c0 64de 98c0
000000b0: 364d 8f40 3a94 9140 fad2 a040 94cb 88c0
000000c0: 34ce 8ac0 9aa9 8940 eee0 8bc0 f4a3 8b40
000000d0: c25a 91c0 ca8e 9040 33bb 8b40 4025 89c0
000000e0: 4a98 8a40 30d4 8b40 7e9a 99c0 9c46 91c0
000000f0: 1623 8e40 62e5 8c40 9c1d 9840 d445 8940
