tmp/experiments/RN1 False,True,True/pyt_network_save/model save90000.pt (torch_old, 314943 bytes, 33 tensors)

pi.pi_net.0.weight f4 [64, 5]
000000 8f 1f 4c bf 64 29 15 bf 94 a6 04 bf 09 9b 3b 3d
       -0.79735655 -0.5826628 -0.5181668 0.04580215
000010 6c 7f 3e bd 2e e4 38 3f 3d 98 74 3e c3 70 35 be
       -0.046508238 0.72223175 0.238862 -0.17718796
000020 83 ee d2 be 73 86 36 bf 13 27 ed be 8f 83 e4 be
       -0.41197595 -0.71298903 -0.46318874 -0.4463162
000030 b9 57 75 3d f8 96 b1 3b 32 98 6e 3e a2 f6 0c bf
       0.059898112 0.005419608 0.23300245 -0.5506383
000040 87 a3 ba 3d 50 db 11 bf 02 80 ca bd ce 15 5a 3f
       0.091132216 -0.5697527 -0.09887697 0.8518952
000050 af c5 8e be ed 69 df be 26 24 4f 3d 82 60 df 3d
       -0.27885196 -0.43635502 0.050571583 0.10907079
000060 c2 c7 df bd e2 b4 2b be bc de c7 3c b3 47 49 3e
       -0.10926773 -0.1676822 0.0243982 0.19656257
000070 65 84 83 3e e0 9d 12 bf c7 37 d4 be 5e 91 64 be
       0.25686947 -0.5727215 -0.41448805 -0.22321078
000080 0d ae 32 3e f8 49 a4 be d2 ed 0a 3f 47 fc 0e 3f
       0.17449208 -0.32087684 0.54269135 0.55853695
000090 a0 f9 39 be 61 09 ae 3d c2 43 6c 3e 64 04 c9 3c
       -0.1816163 0.08497883 0.23072723 0.024538226
0000a0 50 06 e0 3e 20 b1 ef 3d 60 d5 e1 3d 12 ce 28 3b
       0.43754816 0.11703706 0.11027026 0.0025757593
0000b0 e9 97 81 be ef 8a e1 bd 76 da c7 be 14 49 0d 3d
       -0.2531121 -0.110128276 -0.3903386 0.03449352
0000c0 ee 04 24 be a0 86 f5 3e 23 ee 86 3d fc 8d c9 3e
       -0.16017506 0.47954273 0.0658839 0.39366138
0000d0 03 91 d1 bd b7 ac b2 3d 80 89 1e be ae 97 8a bb
       -0.10232737 0.08724349 -0.1548214 -0.0042295074
0000e0 29 06 94 bb eb 6d 03 3e d1 ba 19 3f 19 ff 8a be
       -0.004517336 0.12834899 0.60050684 -0.2714775
0000f0 37 c6 fc 3d a9 9d cd be cf 7e 1e 3f e4 fb 53 3d
       0.12342494 -0.40159348 0.61912245 0.051753893
000100 71 5f 54 3e 48 f4 f3 3e 2f 2a 37 3e 1a 84 23 3d
       0.20739533 0.4764731 0.17887186 0.039920904
000110 9a 37 91 3d 0b 71 6d be cf 68 6a 3d c7 5a 53 3d
       0.07090683 -0.23187654 0.05722886 0.051600244
000120 f9 3f 27 bf 2a 89 42 3e 52 cd d8 3e a9 d3 04 bd
       -0.6533199 0.18997636 0.42344147 -0.032428417
000130 5a c1 fd be ab 46 b6 3e 95 70 9a be be d0 f0 3e
       -0.49561578 0.3560079 -0.30164018 0.47034258
000140 b3 22 13 bf 9e 25 0b be 8a a4 6f 3e 65 03 bf bd
       -0.5747482 -0.13588569 0.2340261 -0.09326819
000150 4f 65 08 3f f3 3c 1f 3f e5 10 70 be 32 5b b5 bc
       0.53279585 0.62202376 -0.23443945 -0.022138212
000160 ed 4e 72 3e 77 5b 29 bf eb ca 91 bc e6 be 80 be
       0.2366292 -0.6615519 -0.017796954 -0.25145644
000170 7a ef 17 be 6e 06 86 3e 84 e4 a0 3d 45 3f 60 3e
       -0.14837447 0.2617678 0.07856086 0.21899135
000180 e9 1d 0b 3f 9d b3 80 3d ec ed 27 3e f5 27 b9 bc
       0.54342514 0.062842585 0.16399354 -0.02260206
000190 d4 d7 b0 be c7 4e 92 be e3 8e 07 3d 23 1c 54 be
       -0.34539664 -0.28575727 0.03309525 -0.20713858
0001a0 2f 64 5b 3f 78 98 f4 bc e6 d9 06 be ce 9f 5a be
       0.85699743 -0.029857859 -0.13169059 -0.21350023
0001b0 45 a9 1e 3f d5 84 d2 3d fc 42 2c 3e 77 29 d5 be
       0.61977035 0.10279242 0.16822428 -0.41633198
0001c0 db 75 be 3e 02 0f a4 3e 9e 49 93 3e 5a 33 2e 3f
       0.37199292 0.320427 0.28767103 0.68047106
0001d0 6d 93 81 3e 0e 42 7d be 5b dc aa 3e dc 96 18 bf
       0.2530779 -0.24732229 0.33371243 -0.59605193
0001e0 18 c2 51 bc 4f 37 5e 3e 49 21 5f 3e 21 5a 30 3e
       -0.012802623 0.21700786 0.21790041 0.17221881
0001f0 13 01 2f be 44 2e 19 bf bf cb 13 be 5f c0 cb bd
       -0.17090254 -0.5983622 -0.14433192 -0.09948801
000200 3e 1c 75 be 49 ec 4b 3f 8b 0d 05 bf 40 6b 65 be
       -0.23936555 0.7965742 -0.5197379 -0.22404194
000210 39 e7 2d 3d 19 ee 12 3b f0 19 12 3f 86 40 9d 3e
       0.04245684 0.002241975 0.5707083 0.3071329
000220 96 5e 6c be df 6b 36 3f e5 eb 94 be 42 ff 28 3e
       -0.23082957 0.7125835 -0.29086223 0.16503623
000230 63 eb 9d 3e 5b ee cb bd 47 2c eb be df e7 e0 3e
       0.30843648 -0.09957572 -0.45932218 0.43926904
000240 ff c7 a1 3d 25 9b b3 be 64 38 c0 be 78 1c d0 bd
       0.07899474 -0.35079303 -0.37543023 -0.1016168
000250 78 c4 1e 3e 67 cd f9 3e 80 4b 9f be 18 d6 6d 3e
       0.15504634 0.48789522 -0.3111229 0.23226202
000260 47 8c f8 bd ac 32 07 bd b0 84 c3 be 3c 71 b1 bd
       -0.12136131 -0.03300731 -0.3818717 -0.08664176
000270 43 76 24 bf d2 39 0e bc 17 e5 e7 3c 47 44 c4 3e
       -0.64242953 -0.008680778 0.02830748 0.3833334
000280 7c 3c 6b 3c 24 a1 c5 3c 46 c6 c8 be e8 9c 3f 3e
       0.014357682 0.02412469 -0.3921377 0.18712199
000290 69 ce 35 bf a5 c1 40 bd df 0f 44 3f dc a5 17 bf
       -0.7101808 -0.047059674 0.7658672 -0.59237456
0002a0 81 4b 37 3e 37 9f 63 be b4 31 3c 3e 5f d0 aa 3e
       0.17899896 -0.22228704 0.18378335 0.333621
0002b0 d4 3f 6d 3c bf c8 cc be b4 0c d2 be c9 91 2e bf
       0.01448055 -0.39996907 -0.41025317 -0.681912
0002c0 a1 f0 83 bd ca 17 67 be a4 ed ac bd 66 df 27 3f
       -0.06442381 -0.22567669 -0.08443764 0.65575254
0002d0 7d c4 52 bf 00 f0 0a be 58 c2 d8 be d0 c3 a0 3e
       -0.8233107 -0.13568115 -0.42335773 0.31399393
0002e0 bc 8d 23 3f 8c 21 be 3e 15 96 d8 3d b7 fe 6c 3d
       0.63888144 0.3713497 0.10575501 0.057860103
0002f0 47 cd 3a 3e e8 95 d2 be 1c c6 ce 3e a9 e3 02 be
       0.1824237 -0.41129994 0.4038552 -0.12782158
000300 c4 42 3d bf 80 a9 d8 3e da 0b e0 be 68 48 5f be
       -0.7393 0.42316818 -0.43759042 -0.21804965
000310 22 62 1e be 72 b2 d2 be 86 05 97 bd ad 6a 32 be
       -0.15467122 -0.41151768 -0.073741004 -0.17423506
000320 7f 76 35 3e 4a 69 7c be 19 87 ed 3d 86 ed 63 3e
       0.17720984 -0.2464954 0.115980335 0.22258577
000330 bc 82 f1 bd 09 d0 b5 3d 2d 02 15 3e a6 76 85 3f
       -0.11792514 0.0887757 0.14551611 1.0426834
000340 89 e3 0c 3e 10 95 11 3e d8 32 5d 3e fe 70 c7 bd
       0.13758673 0.14217019 0.21601427 -0.097383484
000350 65 58 d6 3c 1b 53 11 bc 58 1c 04 bf 21 84 d1 3b
       0.026165197 -0.008869912 -0.5160575 0.006393925
000360 78 2f f2 be a7 a2 46 3e e2 0c 4c 3e 4c 5a 5d 3e
       -0.4730184 0.19397984 0.1992679 0.21616477
000370 c2 6e 72 3e 45 87 ed bd 66 85 ac be bc 5e 89 3e
       0.23675063 -0.11598066 -0.33695525 0.2683009
000380 45 ee 02 3f ab 9e 05 3d e2 da e0 3e 5a d6 ee be
       0.5114482 0.03262202 0.43916994 -0.46647912
000390 17 e3 93 be f0 c9 1e 3e be a7 b3 3d 51 c7 00 3f
       -0.28884193 0.1550672 0.08772229 0.5030413
0003a0 bc 74 88 bd 32 03 92 be d4 33 fe be 5d 6a e0 be
       -0.0666289 -0.28518063 -0.49648917 -0.4383115
0003b0 29 bc 9b be 6d 1f 83 3e 58 37 fd bd 5e 39 f7 3e
       -0.30416992 0.25609913 -0.123640716 0.48285955
0003c0 c2 82 b7 be 6b 55 85 3e d6 e0 40 3e 47 fc c0 be
       -0.35841948 0.2604173 0.18835768 -0.37692472
0003d0 62 0a 1e 3e d3 7b 87 be a0 c0 2b bd 33 42 c2 be
       0.15433648 -0.26461658 -0.04193175 -0.3794113
0003e0 75 02 a0 3e 6c 97 cc 3e 4c f7 cb be c3 27 10 be
       0.31251875 0.39959276 -0.3983711 -0.14077668
0003f0 6d c7 d7 3e d5 98 b1 be 31 d7 be be 07 23 15 3e
       0.42144337 -0.34686914 -0.37273553 0.14564143

pi.pi_net.0.bias f4 [64]
000000 75 b8 85 be d4 74 42 3e 96 6a 28 3e 19 4f 06 3e
       -0.26117292 0.18989879 0.1644691 0.13116111
000010 df 4c 27 3f 6e 06 59 3e b3 b9 52 be 03 2e 1f bf
       0.6535167 0.21193859 -0.20578651 -0.62179583
000020 db ba 83 be f0 96 cd be dd 6e 03 bf cf 1f cf 3d
       -0.25728497 -0.4015422 -0.5134104 0.10113489
000030 b5 2b 8e be 28 b0 be be 97 ed eb 3e 12 d7 84 be
       -0.2776772 -0.37243772 0.46079704 -0.25945336
000040 1b 48 c3 3d 82 aa b0 3d a8 27 5b 3d 68 9d e9 3e
       0.095352374 0.08626272 0.053504616 0.45627904
000050 5c 39 ae be 2e 42 30 be bf af e7 be 05 71 a9 bd
       -0.34028137 -0.17212746 -0.4525127 -0.0827351
000060 bd 76 28 bf 89 66 37 3e 2a 84 b8 3d a1 14 9f be
       -0.6580618 0.17910208 0.09009583 -0.31070426
000070 00 ce 59 3c 04 d3 d4 bd 0a 6e a1 3e ab 68 31 be
       0.013293743 -0.103918105 0.31529266 -0.17325084
000080 1c ab b2 3d 79 72 af 3e 86 75 a7 3e cf ed c6 bd
       0.08724043 0.34267023 0.3270685 -0.09713327
000090 7a c9 79 3d 05 ad 70 3e 93 75 20 3e 50 a4 bf 3d
       0.06098316 0.23503502 0.15669851 0.09357512
0000a0 4e 87 c8 be 63 3c 0a bd e5 a6 fd bd ef d3 bc be
       -0.3916573 -0.033748996 -0.12385348 -0.36880443
0000b0 65 e7 08 bf 2d 59 83 3e 71 44 e4 3d 7d 19 57 bd
       -0.5347808 0.25653973 0.11145867 -0.052514542
0000c0 74 b5 88 be 22 e3 26 3e ef 78 0b 3f 32 00 5c 3e
       -0.26700938 0.16297582 0.54481405 0.2148445
0000d0 25 b6 00 bf 0f 04 b9 bd 64 c5 c3 3e 56 39 84 be
       -0.5027793 -0.09033977 0.38236535 -0.25824994
0000e0 8a 1d 32 3e ce a9 8b be b5 22 7f be e9 a3 54 bd
       0.17394081 -0.27277988 -0.24915583 -0.05191413
0000f0 ac 02 33 bf c8 d3 d1 be 7a fc 52 be d6 7f b2 be
       -0.6992595 -0.4098189 -0.20604125 -0.34863156

pi.pi_net.2.weight f4 [64, 64]
000000 85 53 07 3e 77 66 c6 be 21 88 ba 3e a6 43 1f 3f
       0.13215454 -0.3875005 0.36431983 0.622126
000010 fd af 76 3e 97 f2 1b be f2 f7 f4 3e 4e f2 22 be
       0.24090572 -0.1522926 0.47845417 -0.15912744
000020 90 a9 64 be fe e7 a7 3d 17 c7 f8 be 37 05 a0 bd
       -0.22330308 0.08198546 -0.48589393 -0.07813495
000030 51 8f 23 3f 86 d2 c7 be a4 1b 8b 3e 1e 06 c8 3e
       0.6389056 -0.39027804 0.27169526 0.39067167
000040 61 7c e7 3e 14 7d b5 be 0a e7 6e 3d df f8 bd be
       0.4521208 -0.3544699 0.058325805 -0.37103936
000050 56 2f 8c 3e 04 1c f1 be bf 0b 87 bd 6e a0 88 bf
       0.27379864 -0.47091687 -0.06594037 -1.0673959
000060 a6 b7 de bd 84 b8 61 3f 64 01 39 3e 6e f4 99 bd
       -0.10874872 0.88172174 0.18066937 -0.075173244
000070 70 c7 f5 3c 12 5f f2 3e f2 b3 e3 bc 99 27 15 3f
       0.030002326 0.47338158 -0.027795766 0.58263546
000080 de aa 34 be 78 4a 21 bf df 22 15 3e 2c d0 33 3e
       -0.17643306 -0.63004255 0.14564084 0.1755988
000090 fb bd 1b 3f e3 e9 8a be fb b0 6b be 91 76 1c be
       0.6083676 -0.27131566 -0.23016731 -0.15279604
0000a0 b2 ba 12 be c4 9c e9 3d 87 9b 70 bd cf 61 9c 3e
       -0.14329031 0.11406854 -0.058742072 0.30543372
0000b0 f6 8b 8c 3e b6 68 31 3c fc 5f 12 bf 66 63 75 3f
       0.27450532 0.010828188 -0.5717771 0.95854795
0000c0 2b b0 a8 3c 0b d8 21 3e 66 cf b7 3e e6 8f f3 be
       0.020591816 0.1580507 0.3590042 -0.47570723
0000d0 e2 47 83 3d 6a 8d 7d 3e 47 a4 e4 3e 35 4c 0c 3e
       0.06410195 0.24760976 0.44656584 0.13700946
0000e0 c5 62 e6 be 4a b9 03 bf 1d 34 5c bf 2a 6e 6a 3e
       -0.4499723 -0.51454604 -0.8601702 0.22893587
0000f0 c2 af b5 3e fd 21 f8 be 85 2f ee bd 04 6a 85 be
       0.35485655 -0.4846343 -0.116301574 -0.26057446
000100 9b 1b c5 bb b2 bc 8d 3e b6 8c 96 3e a3 da 82 be
       -0.0060152537 0.27683026 0.2940423 -0.25557432
000110 16 1b d6 be 23 a9 de be d6 75 a6 3e c1 95 61 3e
       -0.4181754 -0.43488416 0.32511777 0.22029783
000120 53 64 23 3e 8f 0c ae 3e 50 f4 30 3f 6e 24 16 be
       0.1595624 0.33993956 0.6912279 -0.14662334
000130 91 05 b6 3e 0e 46 55 3e a3 8b e5 bd b8 8f 1d 3f
       0.35551122 0.20827505 -0.11208274 0.6154742
000140 5f 58 31 bd 1a 09 46 3e d2 97 db be cf c6 15 bf
       -0.043297168 0.1933941 -0.42889267 -0.5850648
000150 e3 e3 50 3f de fe 24 bb cd 63 bc 3e bb 6f 99 3d
       0.8159773 -0.0025176327 0.36794892 0.07492014
000160 c5 92 64 3f 1b 71 6d be fb 61 1a bf 54 57 2c be
       0.8928645 -0.23187678 -0.60305756 -0.16830188
000170 2a 0f 1b 3e 9b 84 7b be d2 59 a4 bc 0c c7 21 3e
       0.15142503 -0.24562304 -0.02006236 0.15798587
000180 8c c3 85 bb b3 2a 25 bf d2 5a 16 be 53 e1 20 bc
       -0.004082149 -0.6451828 -0.14683083 -0.0098193465
000190 3a ec 07 3e 6f b8 b3 bd 26 64 9d be e7 13 08 be
       0.13273707 -0.08775412 -0.3074047 -0.13288842
0001a0 c8 09 20 be 81 99 f5 bd 9c 7a 32 bd 6a e5 ba 3d
       -0.15628731 -0.11992169 -0.04357396 0.091257885
0001b0 b0 e4 9c 3e 80 12 41 be d1 5d 1c 3c 73 31 29 be
       0.30643225 -0.18854713 0.009543852 -0.1652277
0001c0 94 d2 a0 bd 5a 69 44 3c b3 8e 8f bf 29 cf 05 bf
       -0.078526646 0.011988008 -1.1215423 -0.52269226
0001d0 04 ec 18 3f 8f 57 51 3e 9d 41 f2 be 10 66 f8 3e
       0.5973513 0.20443557 -0.47315684 0.48515368
0001e0 b8 f2 66 3e e9 d9 e1 3e d9 cc e2 3d 97 e6 07 bd
       0.22553527 0.44111565 0.11074228 -0.033178892
0001f0 2a b9 3c 3f 92 c2 ae 3e f4 43 d0 3c 51 4b b4 3c
       0.7372004 0.3413282 0.025423028 0.02200857
000200 b1 be 42 be 13 0a 1e be 40 4d 9c 3e f0 9d e6 3e
       -0.19018055 -0.1543353 0.30527687 0.45042372
000210 14 ce 66 be 79 17 23 3e 66 e2 2a 3d bd fd 17 bf
       -0.2253955 0.15926923 0.041719817 -0.5937155
000220 c0 be 0e bf 05 1e d8 3e 50 33 8e be 8a ca e8 3a
       -0.5575981 0.42210403 -0.27773523 0.0017760557
000230 a1 18 fb bc e4 f1 1f bf d0 3c 30 3e 30 eb ac 3e
       -0.030651392 -0.6247847 0.17210698 0.33773184
000240 ae a5 ff 3e 67 5b 8d be d2 b2 28 3d 15 48 1a be
       0.4993109 -0.27608797 0.04118616 -0.1506656
000250 b4 00 8a 3e 59 c4 de 3e 79 3c a2 3e 01 2e fe 3d
       0.2695366 0.43509176 0.31686762 0.12411118
000260 e4 6c d2 bd d9 a1 c4 3e 46 4d da 3d cf 38 28 bd
       -0.102746755 0.3840473 0.1065927 -0.041069802
000270 5e 99 dd 3e c3 cf 98 be c5 14 c0 bb 2b 36 4a be
       0.43281072 -0.2984601 -0.005861851 -0.19747226
000280 d3 2a 14 be 17 32 41 3e d9 a0 3b bf 7e bd f4 3e
       -0.14469461 0.18866764 -0.7329231 0.4780082
000290 22 05 87 3f 4f 04 46 3e 62 2a 48 3e 98 a4 00 3e
       1.0548441 0.19337581 0.19547418 0.12562788
0002a0 41 3f 94 be 00 76 8e 3e c0 2a 99 bf 2a 56 28 be
       -0.2895451 0.27824402 -1.1966171 -0.16439119
0002b0 94 76 c9 3e 6a f9 63 3e c3 15 02 bf a6 e5 8b 3e
       0.3934828 0.22263113 -0.50814456 0.27323645
0002c0 1b 7c 22 3e 53 95 68 3f bc 82 e8 3c b4 c9 5a be
       0.15867655 0.9085285 0.028382652 -0.21366006
0002d0 ef 3c 4e be f2 2b b5 bd dc 82 5b 3e 09 0b bc 3e
       -0.20140432 -0.088462725 0.21436638 0.3672717
0002e0 70 a5 cb 3e f9 ba 0c bf 2a 56 a6 be 8d f9 e6 3d
       0.39774656 -0.549728 -0.32487613 0.11278067
0002f0 6e 1d 3d bf 76 d8 a4 be 55 47 92 3e 59 04 c7 bd
       -0.7387303 -0.32196397 0.28570047 -0.09717626
000300 fc d4 40 be 70 90 03 3f 51 e2 da bc 98 4d 09 bf
       -0.18831247 0.5139227 -0.026719244 -0.53634024
000310 50 65 00 bf 24 37 8b 3e 58 44 3f bf 9f 03 1f bf
       -0.5015459 0.27190506 -0.7471366 -0.621149
000320 94 2f c2 3c 47 3d a8 be 8a 31 77 bd b2 ac 9c 3e
       0.023704328 -0.3285925 -0.06034998 0.30600506
000330 a1 e0 84 bd b3 74 4f be 5b 5e bd 3d af f1 27 bf
       -0.06488157 -0.20259361 0.092465125 -0.65603155
000340 0b 8a 7b bd ac 2f 95 3e 5e 39 43 3e 98 50 bb 3c
       -0.061410945 0.29137933 0.19064853 0.022865579
000350 49 b2 28 bf 16 6c 65 3e 53 7c ab 3e b1 29 71 3e
       -0.6589704 0.22404513 0.3349329 0.2355106
000360 d3 20 80 bd d8 83 4b be 80 f3 1b bf 90 44 85 be
       -0.06256261 -0.19874513 -0.60918427 -0.26028872
000370 ba de c7 3b cf 74 ae be f2 1f 91 3c c0 dc ed be
       0.006099549 -0.34073493 0.017715428 -0.4645748
000380 21 9b 23 be d8 f6 ac 3e 86 8f 86 3d 22 bc 56 be
       -0.15977146 0.33782077 0.06570344 -0.20970204
000390 08 d2 0e be 8d a0 ef 3e 60 4f bd 3e 9b 46 51 be
       -0.13947308 0.46802178 0.3697462 -0.2043709
0003a0 87 2b 12 bf c1 3a 27 3e 97 36 cb be 0a d9 03 bf
       -0.5709767 0.16331007 -0.39690086 -0.5150305
0003b0 a4 51 13 bf e3 03 b4 3d 18 54 aa 3e cf bb 12 bf
       -0.5754645 0.08789804 0.33267283 -0.57317823
0003c0 de 43 c4 3d 02 6d 87 3c e7 4c 9e 3e 20 ef 2a 3f
       0.09583257 0.016531471 0.30918047 0.66771126
0003d0 d8 ba f7 be d4 36 2c be a6 01 8a 3e 56 63 54 3e
       -0.48384738 -0.1681779 0.26954383 0.20741019
0003e0 ce e1 72 3f c2 23 9c 3e 35 ee ca 3e 69 fe 0f be
       0.948758 0.3049603 0.39634863 -0.14061894
0003f0 03 b9 04 be 1d d0 33 be ed 4f a5 be 63 46 ee 3d
       -0.12961201 -0.17559858 -0.3228754 0.11634519

pi.pi_net.2.bias f4 [64]
000000 5b 2d f5 3d 23 68 39 be e0 cd 2f 3d 58 4c 33 3e
       0.119715415 -0.18106131 0.042920947 0.17509592
000010 0a a6 d9 3d 10 f3 9b 3c 43 7a 3e bd d2 b5 3d 3d
       0.106273726 0.0190368 -0.046503317 0.046315975
000020 c5 71 82 bd 59 b3 08 3e b2 71 95 3d 29 cb b9 3b
       -0.06369356 0.13349666 0.07297076 0.0056699705
000030 81 82 07 3e 26 7e c8 3d 8e af 2a be 56 79 8b 3d
       0.13233377 0.09789686 -0.16668531 0.06810252
000040 fc 31 67 bd ce 48 82 3e c4 e1 4e bd 0a 55 97 bc
       -0.056444153 0.2544617 -0.050508276 -0.018473167
000050 e5 7b 9c bd 56 6a 38 3d 24 46 d7 bd 9c 69 17 be
       -0.076408185 0.045023285 -0.10511425 -0.1478638
000060 d7 95 28 3e ed d2 bf bd d6 a8 81 3c c3 47 25 bd
       0.1646341 -0.09366403 0.015827578 -0.04035164
000070 e6 26 c6 3e 52 39 a6 3e b4 3c 22 3e 93 30 4c 3d
       0.38701552 0.32465607 0.15843469 0.04985101
000080 e1 2f 9f 3e 4b 43 e2 bd d3 00 b8 3d 27 d5 af bd
       0.31091216 -0.11047991 0.08984532 -0.085855775
000090 fb 36 a8 bc 31 17 0a 3d c4 72 97 be f0 a1 f7 bd
       -0.02053403 0.033713523 -0.29579747 -0.12091434
0000a0 db 7d 0b 3e 7d 05 48 3e 8e f6 aa be ab 8e 58 be
       0.13622229 0.19533344 -0.3339123 -0.21148174
0000b0 76 b3 db 3c 59 ff 37 bd fa c3 9e be 3c aa 16 be
       0.026818972 -0.044921253 -0.31008893 -0.14713377
0000c0 be 93 1e be 60 9c 69 bc d6 dc 2e be 7f c9 8e 3e
       -0.15486047 -0.014258474 -0.1707643 0.27888104
0000d0 90 1b 18 be c4 4c cc 3e d7 ea 32 3e c4 c5 89 3d
       -0.14854264 0.39902318 0.17472397 0.06727174
0000e0 0d 10 48 be 74 2d ca bd 83 c7 55 bd fe 03 a0 bd
       -0.19537373 -0.09871951 -0.052192222 -0.078132614
0000f0 06 bc f4 bd 74 4a 04 3e c6 6d e0 bc 82 7b 37 3e
       -0.11949925 0.12919027 -0.027396094 0.17918208

pi.pi_net.4.weight f4 [256, 64]
000000 a4 ca 91 3f 8d 3f a5 3d 8e d7 80 bd be 44 34 bf
       1.1389966 0.08068762 -0.06291114 -0.7041739
000010 04 d5 e2 3e 51 0b 0d bf 59 de 8d 3e 78 13 3d 3f
       0.44303143 -0.5509539 0.277087 0.7385783
000020 28 a6 23 3f 3d af 34 3f c8 35 29 3f a7 49 26 3f
       0.6392541 0.7057989 0.6609769 0.64956135
000030 2a 4f 26 bd 9c 59 33 3e 82 80 99 3f a6 72 4a 3f
       -0.04060284 0.17514652 1.1992342 0.7908119
000040 72 d2 fe be b9 f1 0e 3f d6 c1 29 be f5 75 1d 3f
       -0.49769932 0.5583759 -0.16577849 0.61508113
000050 bf 6f 7f 3f 2a be 0e bc b6 72 59 bf 04 3f 2e bf
       0.99779886 -0.008712331 -0.8494066 -0.68064904
000060 f1 ac 8d 3f d2 a8 f4 be 75 9f 33 3e f6 96 a4 bf
       1.1068403 -0.4778505 0.17541297 -1.285857
000070 34 86 72 be ad 5d 2b bc c1 57 0c bf da f9 7a bf
       -0.23684007 -0.010459346 -0.548214 -0.98037493
000080 db d0 21 bf ab 23 f6 3e 25 49 2c 3e 67 16 13 3d
       -0.63209313 0.48074088 0.16824777 0.035910036
000090 15 d1 7e bf c6 d6 70 bf 84 af 02 bf 2f 41 c9 be
       -0.99537784 -0.9407772 -0.51049066 -0.39307544
0000a0 3c 7a 51 3e b5 f3 6a 3e 78 77 52 be aa 9a 8d be
       0.20456785 0.2294453 -0.20553386 -0.27657062
0000b0 44 bc dc be 8f 76 e2 be 83 d1 bb be a8 4d d9 bd
       -0.43112385 -0.44231078 -0.36683282 -0.10610515
0000c0 90 97 69 3f d6 ad 81 3e ab 8d 79 bf 08 ed 3d 3f
       0.9124689 0.2532794 -0.97481793 0.74189806
0000d0 9e 78 eb 3d f4 d4 95 bf 0d 0f 91 bf 89 57 d5 3e
       0.11497615 -1.1705613 -1.1332718 0.41668347
0000e0 fe 73 dc 3e 42 7c 26 3f bc b2 81 bf 17 53 28 bd
       0.43057245 0.6503335 -1.013267 -0.041094866
0000f0 49 c1 89 3f 3c d4 09 3f 94 1b 70 be 73 73 14 3f
       1.0762111 0.5383947 -0.2344802 0.5798866
000100 3b 56 36 3f 8a 3d 9e 3e 46 d8 e7 be dd c4 03 bf
       0.7122533 0.30906326 -0.4528219 -0.51472265
000110 ba 87 47 3f 44 50 ba bd 74 b4 ac 3e 00 65 16 3f
       0.7794148 -0.09097341 0.33731425 0.58747864
000120 4e 24 87 3f d2 27 56 3e 15 20 7d 3f 65 4d 85 3f
       1.0557954 0.20913628 0.9887708 1.0414244
000130 77 fd e4 be 6e ee 02 3e a7 24 83 bc b3 ff 3f 3f
       -0.44724628 0.12786266 -0.016008688 0.7499954
000140 2a 6f bf be b9 bc 4d 3f 79 9a 09 bf 95 ad 17 3f
       -0.373895 0.8036609 -0.5375133 0.5924924
000150 5a 76 14 3f 9f e5 be bd 89 c1 9a bf d7 1a 7b bf
       0.5799309 -0.093211405 -1.2090312 -0.9808783
000160 2b 00 a4 3f 16 e5 b1 bf e3 26 50 3e b9 5e c6 bf
       1.2812551 -1.3898036 0.20327334 -1.5497657
000170 e5 e2 05 bd 08 01 f6 3e 5e f2 96 3e d7 e2 6e bf
       -0.032687087 0.48047662 0.29481786 -0.9331488
000180 31 28 82 bf 56 98 8a 3e 79 04 0f 3d 61 70 ac be
       -1.0168515 0.27069348 0.034916375 -0.33679488
000190 ad 54 c8 bf 23 45 48 bf 39 02 04 bf a0 b3 48 bf
       -1.5650841 -0.78230494 -0.5156589 -0.78399086
0001a0 e2 09 12 3f 68 bf 68 3e 94 f3 8a 3e 56 ad dc 3e
       0.5704633 0.22729266 0.2713896 0.43100995
0001b0 51 53 69 bf 69 9e c0 3e f6 03 d8 be 9e 17 92 be
       -0.91142756 0.37620857 -0.42190522 -0.28533643
0001c0 84 69 bf 3d 0e b1 6e 3e a3 c4 54 bf f6 75 f4 3e
       0.093462974 0.23309729 -0.83112544 0.47746247
0001d0 c9 02 90 3d d3 74 b1 bf 46 c8 ad bf c2 ff 96 3e
       0.07031781 -1.3863777 -1.3576744 0.29492003
0001e0 de a6 2e 3e 8c 51 38 3f d9 9a 94 bf e5 5b 52 be
       0.17055842 0.7199943 -1.1609756 -0.20542867
0001f0 d1 46 1b 3f 16 ba f9 3e 8d 71 16 3e 5f f3 27 3f
       0.6065493 0.48774785 0.14691754 0.6560573
000200 23 90 9c bf d6 d1 d4 be 9d 5e da be 95 f3 74 3e
       -1.2231487 -0.41566342 -0.4265031 0.23921044
000210 0a 0b 4c 3f b2 1d 3b 3f 8d ae d0 3e 90 4f 36 bf
       0.79704344 0.73092186 0.40758172 -0.7121515
000220 dd 93 fa 3d 44 1c c7 bf 91 3a 9d bf d6 23 9a 3f
       0.12235234 -1.5555501 -1.2283498 1.2042186
000230 d9 b2 46 bf 2c ff 49 bf 07 c1 af bf 4d 10 8b bf
       -0.7761665 -0.78904986 -1.3730782 -1.086435
000240 61 b4 5d 3f 07 f5 cd 3d 0c 7a c5 be 58 7c 3d 3f
       0.8660336 0.10056501 -0.38569677 0.7401786
000250 42 88 fa be f3 66 c1 3f cc f1 80 3f d8 1e 12 3f
       -0.4893208 1.5109543 1.007379 0.57078314
000260 33 3e 4c bf c4 b8 f9 3d c5 d6 ad bf 7e 63 42 3f
       -0.7978241 0.12193444 -1.3581167 0.75933063
000270 dd 69 08 40 a4 95 fc 3f 1f 1a e3 3f 16 27 a1 be
       2.1314614 1.9733167 1.7742347 -0.31475133
000280 8b 00 cb 3f 33 a6 df bf a3 09 a8 3f 8e 54 a0 bd
       1.5859541 -1.7472595 1.3127941 -0.078286275
000290 5c 4d e9 3d f2 ae 49 3f b6 f1 03 c0 ba f3 b4 3f
       0.11391708 0.7878257 -2.0616279 1.413688
0002a0 fd e4 e0 3f 91 dc 24 bf 39 ca fa 3c b0 71 01 40
       1.7569882 -0.6439906 0.030614005 2.022564
0002b0 0f 0c 2c bf c2 74 9a 3d 82 19 f3 bf f6 89 1e bf
       -0.672059 0.07541801 -1.8992159 -0.6192926
0002c0 bb 7f af bf a2 ad 41 be e7 4a 8f 3f 50 ee 3d 3d
       -1.3710855 -0.18913892 1.1194733 0.04636985
0002d0 cc aa f5 3e 89 5e de 3f af ae a4 3f 28 ec 3f bf
       0.4798187 1.73726 1.2865809 -0.7496972
0002e0 b7 51 3d bf ed d7 f8 be ce 38 eb 3e 86 ea fe bf
       -0.7395281 -0.48602238 0.45941776 -1.9915321
0002f0 ac 0f a0 bf 7e 4b aa bf 78 a4 f5 3f 8a fc 31 bf
       -1.2504783 -1.3304288 1.9190817 -0.6952597
000300 e8 cd 0d 3f 9b 73 9f 3e 8f f6 cb be e7 fc 1a bf
       0.55392313 0.31142887 -0.39836547 -0.6054215
000310 09 09 ba 3e 10 fa aa be f3 68 1c 3e a5 2f 87 3f
       0.36335018 -0.33393908 0.1527441 1.0561415
000320 28 e5 5c 3f ba 68 02 3e 3f bf 80 3f bf 3d 75 3f
       0.86287165 0.12735263 1.0058364 0.9579734
000330 e4 fb 9a 3d 9d 08 7c 3c 8a b2 0d 3f 2b 20 7e 3f
       0.075675756 0.015382913 0.55350554 0.99267834
000340 17 44 26 bf 30 c5 28 3f a4 a4 ab be 77 40 de 3e
       -0.64947647 0.65925884 -0.33524048 0.43408558
000350 02 7c 95 3f 4f bd 32 3d 4b 40 92 bf a3 f0 8a bf
       1.1678469 0.04363757 -1.1425871 -1.0854686
000360 82 57 7d 3f a6 3b a6 bf 6d 28 4c 3d c9 25 ab bf
       0.9896165 -1.2986953 0.04984324 -1.3370906
000370 f0 f9 f4 be 74 01 43 3e 47 d8 01 bf 0d e9 29 bf
       -0.47846937 0.19043523 -0.5072064 -0.6637123
000380 db ce 4d bf 13 de 2b 3f da c7 00 3e b2 26 3f 3e
       -0.8039376 0.67135733 0.12576237 0.18667105
000390 be 48 a4 bf ca 43 5e bf 24 58 2b bf 2c e7 fc be
       -1.2834699 -0.8682219 -0.66931367 -0.4939512
0003a0 56 e8 12 3e 3b 51 9d 3e a7 39 5c 3f a5 52 82 3e
       0.14346442 0.30726036 0.8602547 0.25453678
0003b0 a5 2b 77 bf 59 a7 1a be 61 a4 d3 3e da 57 ac be
       -0.9655097 -0.151029 0.4133635 -0.33660775
0003c0 fd 6a 1e 3f 21 ab bc 3d 83 be 5d bf 42 4d 2d 3f
       0.61882 0.09212328 -0.8661882 0.6769601
0003d0 a2 bc 79 be 6e 22 9d bf 0a 66 ab bf c4 c7 53 3d
       -0.24388364 -1.2276132 -1.3390515 0.051704183
0003e0 0c 41 e3 3e 68 f1 1c 3f 05 c8 5b bf 3b bc cd bc
       0.44385564 0.61305857 -0.8585208 -0.02511417
0003f0 30 90 5b 3f 13 10 ff 3e fa e6 a0 be 14 57 29 3f
       0.8576689 0.4981695 -0.3142622 0.66148496

pi.pi_net.4.bias f4 [256]
000000 ce a0 c9 3e 34 b4 f4 3e 6f cb f1 3f 43 54 5b 3e
       0.39380497 0.47793734 1.8890208 0.21418862
000010 71 17 c1 3e 38 60 15 40 1b d9 15 3f 90 27 0c 40
       0.37713197 2.3339977 0.585344 2.1899147
000020 7f c9 0b 40 0b 66 11 40 d1 e8 ed 3f 8b ef f8 3e
       2.1841733 2.2718532 1.8586675 0.48620257
000030 4b d6 95 3e 77 a9 cf 3f eb 9d 89 3e 52 a8 ee 3f
       0.29265055 1.6223592 0.26878294 1.8645117
000040 6e 29 94 3e 2a b8 03 3f 0f 48 6f 3f 65 eb e5 3e
       0.28937858 0.5145289 0.9346933 0.44906154
000050 d8 7c 0a 40 27 ce dd 3f c2 83 01 40 d6 27 d9 3f
       2.1638699 1.7328538 2.0236669 1.6965282
000060 95 6d 07 40 f7 e6 9f 3e 79 84 df 3f 32 bf 11 3f
       2.1160634 0.312309 1.7462302 0.56932366
000070 bf b6 a7 3e d6 93 bf 3e e9 89 53 3e 5c 72 06 40
       0.32756612 0.37417477 0.20658077 2.10073
000080 6c 15 13 40 0f c5 d1 3f 10 32 d4 3f aa c0 02 3f
       2.2981825 1.6388263 1.6577778 0.5107523
000090 72 cf f4 3e 10 4b d4 3f 8a 53 04 40 57 55 7f 3f
       0.47814518 1.6585407 2.0675988 0.99739593
0000a0 c3 62 e3 3e 64 8e 08 40 14 12 bd 3e 9b 49 14 40
       0.44411287 2.1336908 0.36927855 2.3169925
0000b0 6a d7 ec 3f 38 d4 22 3f 1a 3e bf 3f 14 d4 2b 3f
       1.8503239 0.6360507 1.4940827 0.6712048
0000c0 50 50 7a 3f 19 b8 5c 3e ed ed 0e 40 d7 e2 ea 3e
       0.977788 0.21554603 2.2332718 0.4587619
0000d0 99 eb b5 3e 9d 39 07 40 3c 5b 98 3f 25 7b 06 3f
       0.3553131 2.1128914 1.1902843 0.52531654
0000e0 ee 0e 33 3f 61 6b f7 3e 70 37 b2 3e e0 67 00 3f
       0.69944656 0.4832411 0.3480792 0.501585
0000f0 58 9d 3f 3f 05 b8 08 40 ef 0b 05 40 1f d2 af 3d
       0.7484946 2.1362317 2.0788534 0.08584999
000100 c7 ac 14 3f 1e bf 04 40 33 3e b7 3e 6d 2c 0e 3f
       0.5807614 2.0741649 0.35789642 0.5553654
000110 91 b6 26 3f a6 fc ba 3e 59 3b 49 3f 09 84 f1 3f
       0.65122324 0.3652088 0.7860618 1.8868419
000120 cf 34 8d 3e 77 eb 2c 3f 97 d8 42 3e d1 e6 0b 40
       0.27579352 0.6754679 0.19027935 2.185963
000130 f8 b9 c9 3e f6 70 f8 3f 0c 16 ba 3e 67 3c 10 3f
       0.39399695 1.9409473 0.36344945 0.56342167
000140 00 f9 cb 3f d6 75 b6 3f 38 c8 c6 3f 16 51 d8 3d
       1.5935364 1.4254711 1.5529852 0.10562341
000150 f0 5b d1 3f 29 61 2e 3f 7f d6 11 3f 4a a7 02 3f
       1.6356182 0.68117005 0.5696792 0.5103651
000160 09 c8 20 3f 76 fd e5 3e f7 e0 a0 3e 4c 89 02 40
       0.6280523 0.44919938 0.31421635 2.03963
000170 bb bc 0e 40 ac d7 ef 3e a4 12 f1 3f 57 ec cb 3e
       2.2302692 0.46844232 1.8833814 0.3982875
000180 90 13 20 3f 48 46 5e 3e 4a 10 d3 3f 6f ab 00 40
       0.6252985 0.21706498 1.6489346 2.0104635
000190 7a 52 6a 3e e7 49 d7 3e bf 54 e2 3f d6 01 02 3f
       0.22883025 0.4204857 1.7682112 0.5078405
0001a0 0a 81 aa 3f 4a 0b ed 3f 67 20 03 40 f1 76 0f 3f
       1.332063 1.851907 2.0488527 0.56040865
0001b0 8c 5d 1e 3f 4e e8 00 40 0b d6 8e 3e d0 c5 ee 3f
       0.6186149 2.0141788 0.27897677 1.8654118
0001c0 9b d6 09 3f bd e9 08 40 3d 72 0b 40 f2 cd 01 3f
       0.53843087 2.1392663 2.1788476 0.5070487
0001d0 19 e5 c4 3f ff 30 05 3e 7b e2 57 3e 75 6e cd 3f
       1.5382415 0.13006972 0.21082489 1.6049334
0001e0 f3 56 ee 3f 9a a5 a5 3f f3 eb 03 3f b7 ca 04 40
       1.8620285 1.2941163 0.51531905 2.0748727
0001f0 3d 9e bf 3f 6f 2a 80 3e 8f c8 1c 3f 6b fa 0a 40
       1.4970165 0.25032374 0.6124353 2.1715343
000200 ea 72 26 3e bf 56 0a 3f 00 b6 fe 3f 93 ed c7 3f
       0.16254774 0.54038614 1.9899292 1.5619377
000210 96 f9 ed 3e 24 ec 21 3f 2f a3 65 3e 77 68 d6 3e
       0.4647948 0.63250947 0.22425531 0.41876575
000220 17 a2 c3 3f e2 25 e8 3e e6 40 99 3f ae 2d e3 3f
       1.5283841 0.45341402 1.197293 1.7748315
000230 b8 1f ee 3e f9 16 11 40 23 41 03 40 17 b5 07 40
       0.46508574 2.2670271 2.0508506 2.1204278
000240 72 ec da 3f b2 a9 b2 3f a7 3c 12 3f 49 38 1c 40
       1.7103407 1.3958037 0.571238 2.4409354
000250 af a9 0d 40 54 2f 01 40 40 46 be 3f 2a 85 fe 3f
       2.2134817 2.0185137 1.4865189 1.9884388
000260 06 9b 46 3f 90 82 0d 40 fb b5 fa 3f 43 4f 45 3f
       0.77580297 2.211094 1.9586786 0.7707407
000270 91 57 c4 3f d4 85 aa 3e 5f a3 b3 3f 4d ff f1 3f
       1.5339223 0.33305228 1.4034232 1.8906037
000280 b3 1c b9 3e 26 6d cf 3f 06 4f 1f 3f 2a a6 da 3e
       0.36154708 1.6205184 0.62229955 0.42704898
000290 4e d1 e5 3f b2 31 cb 3f c0 5b 0d 40 0c 36 ba 3f
       1.79545 1.5874541 2.208725 1.4547744
0002a0 06 8f 08 40 d5 d0 ce 3e a0 50 d1 3f e6 0f d6 3e
       2.1337295 0.403937 1.635273 0.41809005
0002b0 98 5e 9a 3f 22 32 ed 3e 4b 7a 0e 40 96 fc 03 40
       1.2060118 0.4632731 2.2262142 2.0622916
0002c0 1c f7 01 40 5d 6c f4 3f 48 75 1b 3f 26 2d fe 3e
       2.0307074 1.909557 0.6072583 0.4964382
0002d0 ac 7b dc 3e dc 03 06 40 e6 ae 99 3f bf 40 08 40
       0.43063104 2.0939856 1.20065 2.1289518
0002e0 72 49 d2 3e ec b1 5a 3e 1f b5 db 3f 83 8c 05 40
       0.4107166 0.21356934 1.7164649 2.0867012
0002f0 dd a1 f8 3f 17 1f 28 3f b9 4d bf 3e 93 a5 01 40
       1.9424397 0.6567244 0.37363985 2.0257308
000300 3a d8 d8 3f 7b e5 ff 3f af 4a 24 3e 32 8f 20 3e
       1.6940987 1.9991907 0.16044115 0.15679625
000310 d2 68 05 40 25 18 03 40 15 dd 01 40 cb 3c fc 3f
       2.0845227 2.0483487 2.0291188 1.9706053
000320 95 c7 03 3f 51 f6 fd 3f 9a 25 e4 3f 90 0c fe 3e
       0.51476413 1.9840795 1.7823975 0.4961896
000330 50 c9 c6 3f 17 4b 61 3e bb b8 1b 3f 23 eb 07 40
       1.5530186 0.22001301 0.6082875 2.1237266
000340 c9 6f 15 3f a8 a7 3d 3f 86 f0 0c 40 f6 04 ee 3e
       0.58373696 0.7408395 2.2021804 0.4648816
000350 07 0e 0c 40 6d 27 fe 3f 4e d2 d5 3f 4d e9 05 40
       2.1883562 1.9855782 1.6704805 2.0923645
000360 e3 a2 c1 3f f9 d2 49 3f d9 48 02 40 79 75 05 3f
       1.5127834 0.78837544 2.0356963 0.52132374
000370 20 50 2f 3f b8 3e b7 3f a1 90 b1 3e 09 db e7 3e
       0.68481636 1.4316015 0.34680656 0.45284298
000380 e3 5e d7 3e 64 20 d6 3f 5e ba 99 3e 49 69 af 3f
       0.4206458 1.6728635 0.30025 1.3704005
000390 74 cd 30 3f 8b 2e d7 3f 89 bd da 3f 69 fa f0 3e
       0.69063497 1.6811079 1.7089092 0.47066048
0003a0 42 2b 18 3f 46 52 58 3f 2c 4c 02 40 49 52 fd 3f
       0.59441006 0.8450054 2.0358992 1.9790736
0003b0 af 0f a1 3e 9b 63 01 3f 17 18 b2 3e 1b 36 0d 40
       0.31457278 0.5054261 0.34784004 2.2064273
0003c0 92 61 32 3f f1 2a de 3f c5 c7 23 3f 41 a2 ce 3e
       0.6968013 1.7356855 0.639767 0.40358165
0003d0 13 58 bc 3f 8d 72 f3 3f d6 16 f3 3e 00 86 c9 3d
       1.4714378 1.9019333 0.4747836 0.098400116
0003e0 b1 db c7 3f 7d fc 02 40 cc fb 02 40 ee c8 d2 3e
       1.561392 2.0466607 2.0466185 0.41168922
0003f0 a6 d9 0e 40 71 32 09 40 52 73 0a 40 a3 f1 e9 3f
       2.2320342 2.1437037 2.1632886 1.8276867

v.v_net.0.weight f4 [64, 5]
000000 7d 1c 26 bf d1 a4 ea be e1 38 1e 3e 3d 92 e6 3d
       -0.6488722 -0.4582887 0.15451385 0.112583615
000010 00 c2 30 3c 30 ce ee 3e bd 28 69 be 51 1a 49 bc
       0.010788441 0.46641684 -0.22769447 -0.012274341
000020 b3 31 14 3f bc c7 4a 3e 1f 94 77 3d 60 7c 0e bd
       0.57888335 0.19802755 0.060443994 -0.034786582
000030 8a 49 ca bd f6 8d ad be ed 4b 2e 3c b2 24 72 bf
       -0.09877308 -0.3389737 0.010638219 -0.9458724
000040 e2 5d 05 be 5f 10 80 3d 0c a2 f3 3c 81 e2 c7 3d
       -0.13024095 0.062531225 0.029740356 0.09759999
000050 b8 ea 01 3e 54 98 4c be ec 6b d8 3e fb 27 b9 3d
       0.12687194 -0.19979984 0.42269838 0.09040829
000060 06 c7 b7 3e fc 4a 9b be 91 a9 c1 be ee 70 35 3d
       0.3589403 -0.30330646 -0.3782468 0.04429715
000070 51 0d 15 3f cb a5 23 3f e1 f4 b0 bf 30 b0 0a be
       0.58223444 0.63924855 -1.3824731 -0.13543773
000080 53 fc 9f 3c 55 54 a6 3e 8f 82 7c 3d f9 13 ab 3e
       0.019529497 0.32486215 0.061647948 0.33413675
000090 d2 ea 26 3e 0a 39 6f bd 09 cc 45 3d b0 12 19 bf
       0.16300514 -0.058404006 0.048290286 -0.5979414
0000a0 c5 cb 1c bf 9b 3b 4d be 6e 4a 33 3e 2f a0 cf 3e
       -0.6124843 -0.20042269 0.17508861 0.40551898
0000b0 34 70 ff 3e 6d ea 35 bf 5e fc 86 be 1b 09 e3 3d
       0.49890292 -0.7106083 -0.26364416 0.11085721
0000c0 0e 89 3a 3e 4e e9 07 be 81 02 84 3f 09 49 e9 3d
       0.18216345 -0.13272592 1.0313264 0.113908835
0000d0 d8 61 cf 3c 47 93 8a bf 4c 76 c9 bf 77 b3 a1 bf
       0.02531521 -1.0826195 -1.5739226 -1.2632893
0000e0 ba c3 91 bf b1 06 96 bc 69 7f c6 3c 89 d2 80 bf
       -1.1387856 -0.018313738 0.024230676 -1.006425
0000f0 e6 b1 92 bf 56 c9 7e bf ef 58 47 3e 53 fa 56 be
       -1.146054 -0.99525964 0.19467519 -0.20993929
000100 a9 c3 25 bf 44 e9 8f 3f 91 ec ed 3f 74 e3 59 3f
       -0.6475168 1.1243062 1.8587819 0.8511269
000110 36 28 a8 bd 59 3f 6b 3e 42 fa 21 3f ed 96 e7 3e
       -0.08210795 0.22973384 0.6327249 0.45232335
000120 dc e3 7d be 09 ea 28 be 00 59 bd 3d d7 6b 62 bf
       -0.24793953 -0.16495527 0.09245491 -0.884458
000130 d1 5d c6 bd bf 9a b1 3c f9 8d e3 3e a6 b1 42 3d
       -0.09685863 0.021680234 0.44444254 0.0475327
000140 ba 1e 1a 3e 7a 52 08 bf 17 17 f2 3e 10 7a 64 3f
       0.15050784 -0.5325085 0.4728324 0.8924875
000150 c0 24 7e 3e be cc c7 3e f1 e9 d2 3e ff fb 82 bf
       0.24818707 0.39023393 0.41194108 -1.0233153
000160 c9 6c b5 3d f6 44 8a be db 58 b4 be 15 3a 5a be
       0.0885864 -0.27005738 -0.3522404 -0.21311219
000170 84 78 c6 3e 90 e2 b1 3c 7a b6 a2 3e 7c 4d 91 bf
       0.3876382 0.021714479 0.31779844 -1.1351771
000180 59 70 a0 bf b6 3c 37 3c d5 07 22 be 2e d2 7f bf
       -1.2534286 0.011183908 -0.158233 -0.99930084
000190 66 4b 76 3f 85 2f 4b 3f 04 4e df 3e 6f 5f be 3d
       0.962088 0.79369384 0.4361421 0.09295546
0001a0 d3 3a 97 3f 86 b0 23 3f 14 13 8d 3e d3 4d 39 3d
       1.1814827 0.6394123 0.27553618 0.045240235
0001b0 9f 28 1f be fb 4c 17 be 8f be 15 3f 88 b7 f7 3d
       -0.1554284 -0.1477546 0.58493894 0.12095553
0001c0 96 f0 f1 bd ff 44 2f be 6e 8c d4 be 03 a8 4e 3e
       -0.11813466 -0.17116164 -0.4151339 0.20181279
0001d0 e3 d9 68 bf 8d 79 0d bf a5 38 13 3e 11 4b 30 be
       -0.9095747 -0.55263597 0.14377077 -0.17216136
0001e0 74 27 3f 3f 9d 80 7c 3e 00 32 e2 bd 5a f2 1d 3d
       0.74669576 0.24658437 -0.11044693 0.038561203
0001f0 96 39 4b be 14 94 3d 3d 04 0b 25 be 88 ce 25 3f
       -0.19846186 0.046283796 -0.16117483 0.64768267
000200 ca d4 98 3e da 98 c8 3d 85 70 54 3f bb 66 a1 3e
       0.29849845 0.09794779 0.8298419 0.3152369
000210 4d 93 96 be 44 72 ba 3e 43 bc 26 bf cf dc 29 bf
       -0.29409257 0.36415303 -0.65131015 -0.6635255
000220 20 b3 b7 be ad 53 a8 3e d5 23 4e 3c 53 b0 07 bd
       -0.3587885 0.3287634 0.012581785 -0.03312714
000230 81 2c 58 3f 24 80 8e 3f b5 fd e4 3e 97 27 09 3e
       0.8444291 1.1132855 0.44724813 0.13394009
000240 13 cf ec 3e 53 3e 51 3f 7d 25 b4 be 3d 01 75 3e
       0.46251735 0.81735724 -0.3518485 0.23926254
000250 db c9 23 3e f4 7c 3a 3d 44 99 4c bf 74 69 d5 3d
       0.1599497 0.04552932 -0.79921365 0.10420504
000260 a5 62 0e be e8 7a db 3e c0 64 de bd e9 e8 3f 3f
       -0.13904817 0.42867208 -0.1085906 0.7496477
000270 81 07 08 3d 01 4b 12 bd 8b d8 55 3c 65 31 81 be
       0.03321028 -0.03571606 0.013052116 -0.25232998
000280 83 30 34 bf b2 73 42 3d c1 c2 c2 3e 2d 3b ca 3d
       -0.70386523 0.047473617 0.3803921 0.09874568
000290 32 9c b0 bc 0d 6e cb be 60 9a a6 be c6 a7 c9 3d
       -0.021558855 -0.397324 -0.32539654 0.09846453
0002a0 e0 74 28 be 55 88 9f 3e ac b7 8a 3f 1e a9 39 bd
       -0.16450834 0.311587 1.0837302 -0.0453273
0002b0 1f 57 22 3d 0e b3 cf bd ee 24 7b bd bb 2a 94 bd
       0.039633866 -0.10141574 -0.061314516 -0.07234713
0002c0 48 27 bd 3e f1 59 41 be e9 a2 65 be 31 71 90 be
       0.36944032 -0.18881966 -0.22425427 -0.28211358
0002d0 35 1f 98 3e 0a e5 88 3f 36 ce 05 3f 04 31 89 3d
       0.2971131 1.0694897 0.5226778 0.06698802
0002e0 b7 b1 c8 3e 36 e8 92 bf 28 7a 07 be 97 c4 ad bd
       0.39198086 -1.1477115 -0.13230193 -0.08484762
0002f0 b3 50 76 3e 95 65 00 3e e1 ac 88 3e e1 fe d7 3c
       0.24054222 0.1253875 0.26694396 0.026366653
000300 83 b2 29 3e 5b 9f 83 3e 78 9b 95 3e 02 60 61 3f
       0.16572003 0.25707516 0.29220176 0.8803712
000310 5a 98 df bd 7a 8b fd bd 20 18 b8 3d da d8 15 3e
       -0.10917731 -0.12380119 0.089889765 0.14633504
000320 91 7d 15 bf 4b 7c 60 be ba 34 0a 3d 16 f1 23 3d
       -0.58394724 -0.21922414 0.03374169 0.04002484
000330 90 0e 6c bb 4e e1 81 3f 5d f0 5b 3f 42 ca c3 3e
       -0.0036019422 1.0146883 0.8591364 0.38240248
000340 ed e4 20 bf c7 a9 24 3f 63 2c 62 bf d4 d3 7c bf
       -0.62849313 0.6432156 -0.8834898 -0.98760724
000350 54 c0 d9 be 58 76 9a 3d a3 35 0d bf 07 c5 54 bf
       -0.42529547 0.075421035 -0.5515997 -0.8311314
000360 b9 c8 ef be 28 c1 9c 3e e3 ae 11 3e 55 f0 6b 3d
       -0.46832827 0.30616117 0.1422687 0.057602245
000370 d3 6b 38 bf 7c bd 69 bd a5 90 ac bd 92 5e 9a 3d
       -0.72039527 -0.057065472 -0.08426026 0.07537569
000380 c1 44 10 3e c9 bd 92 3e 9b f4 83 be e3 d9 25 bf
       0.14088728 0.2866042 -0.25772557 -0.64785594
000390 de 7c 30 3e d2 c2 94 3e 52 9b 29 bf 17 b9 c8 be
       0.17235133 0.29054886 -0.66252625 -0.39203712
0003a0 a3 b0 9c 3e 3a 9f 44 3d e9 61 1e 3f 8c 28 39 bf
       0.30603513 0.048003413 0.6186815 -0.72327495
0003b0 0f 68 25 3e e5 d2 1d 3e 3b e7 4d be ac ed 81 3e
       0.16152976 0.15412481 -0.20107739 0.25376642
0003c0 22 55 08 bf 87 b5 ec be 30 08 39 3e 9b 36 56 bd
       -0.532549 -0.46232244 0.1806953 -0.05229817
0003d0 85 83 77 3e e9 7e a6 3e c4 79 66 be b6 6f 04 be
       0.24171264 0.325187 -0.22507387 -0.1293324
0003e0 c1 eb 36 3f db 82 48 3e 32 f7 86 bf 45 53 72 be
       0.7145348 0.19581167 -1.0544188 -0.23664577
0003f0 1c 2e c8 3e d4 d6 86 3d d1 b0 6f bd 46 88 19 3f
       0.3909768 0.06583944 -0.058518235 0.5997356

v.v_net.0.bias f4 [64]
000000 a0 2c 60 bd 78 6d eb be 71 f1 1e 3e a1 c3 ee bd
       -0.054730058 -0.45981956 0.1552179 -0.11658407
000010 ce f4 fb be ba 2c 0c bf 85 51 90 be 5b 61 ae 3e
       -0.4921021 -0.5475575 -0.28187194 0.3405865
000020 db 2c e9 bd d0 e5 1e 3c 98 59 6f 3e 63 c2 b1 be
       -0.113855086 0.009698346 0.23374021 -0.34718618
000030 70 31 1d be b7 4f f7 3f a1 ee 49 bd 67 d0 c7 bd
       -0.1535089 1.9321202 -0.04929984 -0.097565465
000040 a7 c5 5a bd ca 90 19 3f e3 d6 c4 bd 63 e6 a4 be
       -0.053411152 0.59986556 -0.09611299 -0.3220702
000050 90 43 ef 3e 32 77 8e bc 5d b7 ba 3e 1c 9d 85 bf
       0.46731234 -0.017390821 0.3646802 -1.0438571
000060 a7 87 1b 3e 97 e3 56 be fc b2 98 3d b8 9f 33 3e
       0.15188466 -0.20985256 0.074560136 0.17541397
000070 7f 88 19 3f a5 d8 8f bc 2a 68 95 be 10 e2 64 3e
       0.599739 -0.017559359 -0.29181033 0.22351861
000080 99 29 b5 be 16 13 99 be 5a 19 7f 3e f1 19 89 3d
       -0.353833 -0.29897374 0.24912015 0.06694401
000090 b3 ba 24 3f 1b 29 58 be d5 24 07 bf 01 46 0d 3d
       0.6434738 -0.2110943 -0.52790576 0.03449059
0000a0 03 cc 97 3d 23 bf 4b 3f 06 a8 4f bf 63 02 fc bd
       0.07411959 0.79588526 -0.8111576 -0.12305143
0000b0 6f 93 41 be f7 e1 94 3e d7 bf 67 be 56 dd d0 3c
       -0.18903898 0.29078647 -0.22631775 0.025496166
0000c0 2c e0 42 be 13 93 20 bf c1 76 49 be 99 61 11 3e
       -0.19030827 -0.6272442 -0.19674207 0.14197387
0000d0 74 65 7e be 2f ca b6 3d 0b f5 89 bd 65 cb 1c be
       -0.24843389 0.08925282 -0.06736191 -0.15311964
0000e0 c0 80 fb 3d 2c 3f 09 bf 4f 4b 28 be d2 fc 51 be
       0.122804165 -0.5361202 -0.16434978 -0.205066
0000f0 04 04 35 3e a7 b0 7d bd b9 ad 61 be d4 f2 36 bf
       0.17677313 -0.061936047 -0.22038926 -0.71464276

v.v_net.2.weight f4 [64, 64]
000000 74 fa 81 3f d8 6a a6 3e 7f 3e 73 be 92 21 19 3f
       1.0154557 0.3250339 -0.23754309 0.5981685
000010 a3 e3 9d 3e ad c1 a0 bd 4f c8 29 3f f1 cf 49 be
       0.30837736 -0.07849441 0.6632127 -0.1970823
000020 16 66 44 be a1 70 3c 3e 36 c3 7d 3e da 76 4e 3f
       -0.19179568 0.1840234 0.24781498 0.80650103
000030 8a 9a ec 3e 33 49 13 bf bc 73 f7 3e 03 df 2c bf
       0.46211654 -0.5753357 0.48330486 -0.6752779
000040 5b 6a 51 3e 21 0d 36 bf a2 49 6a 3e b2 4b ef 3e
       0.20450728 -0.71113783 0.22879651 0.46737438
000050 3e 28 04 bf f1 da c2 be ab f1 0c bf 79 cc 1e 3f
       -0.51623905 -0.38057664 -0.55056256 0.6203075
000060 8c 6b 2b bf 7f 4c 0c 3f 1d 99 06 bf 8a ca 45 bf
       -0.6696098 0.54804224 -0.5257738 -0.77262175
000070 20 55 1c bf ec a7 4f bf 87 84 a9 3f 8d bb 9a bf
       -0.6106739 -0.81115603 1.3243569 -1.2088486
000080 de da 33 3f 62 cb 27 3f 56 59 39 bf 1b d7 b2 be
       0.7025584 0.6554471 -0.7240194 -0.34929737
000090 28 2a fb be 56 b9 27 3f 39 a1 18 3f 90 2f d4 3e
       -0.490556 0.65517175 0.59621006 0.41442537
0000a0 b2 d1 9e 3e 61 d9 69 bf 1f 37 fa 3e a5 92 22 3f
       0.3101936 -0.9134732 0.4887018 0.6350501
0000b0 37 d0 81 3f f3 d1 11 be 49 90 da bd 47 91 ad be
       1.0141667 -0.14240246 -0.106720515 -0.338999
0000c0 73 f1 97 3f 7c d3 e0 3e 6d 0d 5b 3f df 8c 12 bf
       1.187056 0.4391135 0.8556736 -0.572462
0000d0 6c e3 c9 3e 13 92 0c bf 17 5d 2f 3f 9d e6 07 3f
       0.39431322 -0.5491039 0.6850142 0.5308626
0000e0 e7 c4 23 bf 2d 6f a6 bd c1 c6 24 3f 80 71 97 3f
       -0.63972324 -0.08126674 0.64365774 1.1831512
0000f0 49 ca 80 be 35 b5 84 bc 75 ca f1 3e 3b b5 84 3f
       -0.2515433 -0.016199687 0.47224775 1.0367807
000100 2b 4f 4b 3f 85 2e 3b 3f 17 99 e6 be 3d 9a e0 3e
       0.79417676 0.7311786 -0.45038673 0.43867674
000110 bc 9a 9b 3e 90 fd 00 be 7b be e6 3e ed 27 f4 3d
       0.3039149 -0.12596726 0.450672 0.11921678
000120 90 06 d8 bc a5 ea 6e 3f da a3 6e be ee a7 d4 3e
       -0.026370317 0.9332679 -0.23304692 0.4153437
000130 39 81 bc 3e 64 ef 8a bf 7b d9 5a 3d 49 02 74 be
       0.3681734 -1.0854306 0.05343006 -0.23828997
000140 ba d1 1d 3f b6 5a 80 3e cf b6 5f be 4c 19 59 3e
       0.6164814 0.25069207 -0.2184708 0.21201056
000150 45 d5 08 bf 11 13 87 be 24 85 28 bf bd 67 a7 3e
       -0.53450423 -0.26381734 -0.65828156 0.32696334
000160 f1 81 07 bf 7c 74 9c 3e 02 64 55 3e 56 ad 16 be
       -0.5293265 0.3055762 0.20838931 -0.1471456
000170 bd 22 db be d8 9b 46 3d 7c 3a 62 3f 86 15 3d bf
       -0.4279994 0.048488468 0.8837049 -0.7386097
000180 38 a3 4b 3f 9c 56 c1 3e fd eb 27 bf cd cb 79 be
       0.7954593 0.3776139 -0.65594465 -0.2439415
000190 3c f1 87 3d 72 52 4c 3f 92 e6 ce 3e c2 f8 b1 3d
       0.06637809 0.798133 0.40410286 0.08690025
0001a0 54 53 a2 3d 6c 81 05 bf d0 91 ae 3e 74 8c db 3e
       0.0792605 -0.5215061 0.3409562 0.42880595
0001b0 41 d0 15 3f fa af 85 bb 5d 82 cc be 34 ed 92 be
       0.58520895 -0.004079816 -0.3994321 -0.28696597
0001c0 3f f7 90 3e 5d 7d fd 3e 7a 3e 5a 3f 50 c5 37 bf
       0.28313634 0.49509707 0.8525158 -0.7178545
0001d0 23 88 0f 3f 0f c6 29 bf 9c e5 8b 3e c3 5b 08 3f
       0.56067103 -0.6631784 0.27323616 0.5326502
0001e0 c4 21 15 bf 1f 7e 2d 3d 53 66 06 3e a2 87 82 3f
       -0.5825465 0.042356607 0.13124971 1.0197642
0001f0 af 86 71 be 9c 51 26 3e b1 c7 0b 3d ab 86 28 3f
       -0.23586534 0.16242069 0.034125987 0.65830487
000200 e4 24 af bf cd 8b cd be 2c 5f 0d 3f d0 4d 92 bf
       -1.3683133 -0.40145722 0.55223346 -1.1429996
000210 46 85 0e bf b5 48 7d 3d 57 82 78 bf 3c 34 5f 3e
       -0.5567211 0.061836917 -0.9707388 0.2179727
000220 59 a4 46 be 87 a3 58 bf 61 de ce be 4a a6 15 bf
       -0.19398631 -0.8462452 -0.40404037 -0.5845686
000230 6d 6b 1d bf 5e c5 e7 3e 96 38 25 3f 4a ea 8a 3e
       -0.61492044 0.45267767 0.6453947 0.27131873
000240 fc f6 bf be c4 b6 e0 3e 46 e3 f9 be 25 0e 3e bf
       -0.37493122 0.4388944 -0.48806208 -0.7424033
000250 d8 42 56 3f c3 4d 4b 3f 21 e8 a5 3e 01 6f 27 bf
       0.83695745 0.7941553 0.32403663 -0.65403754
000260 8b c1 8f 3f a0 00 04 bf bd 87 83 3f 1d ee 1b 3f
       1.123094 -0.51563454 1.0275799 0.6091021
000270 66 0c f3 3e c9 58 25 3f d0 6d 96 bf 03 87 5a 3f
       0.47470397 0.645886 -1.1752262 0.8536226
000280 50 ac 7b be 73 fc 79 bf 93 fb 84 3f da 05 f9 3e
       -0.24577451 -0.9765083 1.0389274 0.48637277
000290 38 56 08 3e 17 ab 63 bf 7a 48 0a bf 20 ec ac be
       0.1331414 -0.8893294 -0.5401684 -0.337739
0002a0 f2 ad 8f be b8 20 de 3e b3 6e 3d bf 00 d8 90 bf
       -0.28062397 0.43384337 -0.7399704 -1.1315918
0002b0 75 1d 25 bf d1 8f a8 3e 91 6d 12 be fd 0a 47 3e
       -0.6449807 0.32922223 -0.14299609 0.19437785
0002c0 ba 75 3a bf 33 90 fc be 7e 0d 6a bf 37 a5 51 3f
       -0.72835886 -0.49328765 -0.9142684 0.8189272
0002d0 e2 de f6 be 60 8c fd 3e 7e c1 88 bf a0 29 05 bf
       -0.4821692 0.4952116 -1.0684049 -0.5201664
0002e0 1c 72 64 3f 38 b7 93 3e 28 13 19 bf 4f bd 46 bf
       0.8923662 0.28850722 -0.59794855 -0.7763261
0002f0 f0 9a b7 3d b9 0f f0 3d 60 2d fb be 16 bd 12 bf
       0.08965099 0.11721749 -0.49058056 -0.5731977
000300 bc c6 ae be 48 7f 09 bf a4 d6 0a be 34 8c 57 bf
       -0.34135997 -0.5370984 -0.13558441 -0.8419831
000310 43 06 60 bf 12 33 af be 2d ef 6c bf 5d d2 0b 3f
       -0.87509555 -0.3421865 -0.92552453 0.54617864
000320 94 10 c6 bd 6c dd e2 be 90 c8 e4 be be 59 0c bf
       -0.09671131 -0.44309556 -0.44684267 -0.54824436
000330 c1 0a 51 bf c7 5b 60 3f f0 9d da 3e 6f 7a 75 3f
       -0.81657034 0.8764004 0.42698622 0.95889944
000340 b8 a1 9b be 76 a8 2e 3f c7 a4 ba be c1 c9 41 bf
       -0.3039682 0.682258 -0.3645384 -0.7569848
000350 b1 6d f1 3e 30 52 34 3f 74 76 19 3f 42 fd 19 bf
       0.47154 0.7043791 0.5994637 -0.60152066
000360 7a d9 36 3f a4 a0 9b 3d 7c 01 24 3f d6 90 a2 3d
       0.7142559 0.07598999 0.64064765 0.079377815
000370 30 ee e5 3e 45 46 76 3f 88 b2 89 bf be b2 ba 3e
       0.44908285 0.9620097 -1.0757608 0.36464494
000380 1c 8d 70 be 5d 09 29 bf 10 f1 67 3f 44 87 9b bc
       -0.23491329 -0.6602991 0.9060221 -0.018985398
000390 50 b7 81 3e 79 8a 58 bf 7e af 25 bf 26 fd 1e bf
       0.2533517 -0.8458629 -0.64720905 -0.62105024
0003a0 5d 6b cc 3e e7 71 87 3f 3b a4 f0 be 9e 38 03 bf
       0.39925662 1.0581635 -0.47000298 -0.51258266
0003b0 1e a7 9b bf ae 98 a4 be 09 8a 0c be 83 0d 2c bd
       -1.2160375 -0.32147735 -0.13724531 -0.042005073
0003c0 c4 0b 4f bf 6a fd 2b bf b4 3b 48 bf e2 db 39 3f
       -0.8087733 -0.67183554 -0.782161 0.7260114
0003d0 9b 01 c4 be f2 ad d4 3e 97 c6 22 bf 4e f3 50 bf
       -0.38282475 0.4153896 -0.63584274 -0.81621253
0003e0 bd d2 26 3f 72 4a c2 3e 0c ba 3a be 6c ef 12 bf
       0.6516531 0.37947422 -0.18235034 -0.5739658
0003f0 6c 18 97 3e c2 4b 84 3e 29 1c de be aa 6e 89 be
       0.2951082 0.2583905 -0.4338086 -0.26842242

v.v_net.2.bias f4 [64]
000000 7d a5 24 bf 06 0b ff be 94 6d 2b 3f fd 6e 23 3f
       -0.64315015 -0.49813098 0.6696408 0.6384123
000010 6e 49 15 bf 40 56 09 bf 9d c3 18 3f b6 30 3d 3f
       -0.5831517 -0.5364723 0.5967348 0.7390245
000020 62 e3 1b 3f 3c 33 1a bf 3e f0 21 3f ef f6 09 3f
       0.60893834 -0.6023443 0.63257205 0.53892416
000030 60 17 1a bf 86 0f 1e 3f 01 98 0a 3f 72 1b 50 be
       -0.6019192 0.61742437 0.5413819 -0.2032297
000040 b7 2b 21 3f 74 07 2d bf 5b f6 21 3f e8 03 16 bf
       0.6295733 -0.675895 0.63266534 -0.5859971
000050 1a 44 26 3f 6a b1 20 bf b5 f5 0d be 9f 1b 7d 3e
       0.64947665 -0.6277071 -0.13863261 0.24717568
000060 34 11 22 bf 40 e5 2a bf c1 6a 1d 3f 6a 7e 13 bf
       -0.633075 -0.6675606 0.6149102 -0.5761477
000070 7d 37 22 3f 35 42 14 3f 8d ad 1d bf 59 67 22 3f
       0.6336592 0.57913524 -0.6159294 0.63438946
000080 7c 4e 17 bf d9 da 2b bf 05 96 0c bf 77 c3 21 3f
       -0.5910413 -0.6713081 -0.5491641 0.6318888
000090 41 19 10 bf 14 9d f3 3e bb 48 34 bf c8 74 6c 3c
       -0.56288534 0.4758078 -0.7042348 0.01443214
0000a0 9c 4b 36 bf d5 95 19 bf 41 d9 f8 3e b8 ac 20 3f
       -0.7120912 -0.5999425 0.48603252 0.6276355
0000b0 23 81 0b bf 41 c6 17 bf f8 94 12 bf 6c 0e 34 3f
       -0.5449392 -0.59286886 -0.5725856 0.70334506
0000c0 15 f1 1c 3f 3a da 27 bf cf ce 3f 3f bc 26 24 bf
       0.6130536 -0.6556736 0.7492494 -0.64121604
0000d0 2c 5c 22 3f c7 ef 24 bf c9 91 0b bf d8 f8 21 3f
       0.63421893 -0.6442837 -0.54519325 0.6327033
0000e0 c8 82 26 bf 55 6f 24 bf 53 a7 07 3f a0 05 21 3f
       -0.65043306 -0.6423238 0.5298969 0.6289921
0000f0 79 50 1f bf 87 56 37 bf c7 c3 2f be c0 96 22 bf
       -0.62232167 -0.71616405 -0.17164527 -0.63511276

v.v_net.4.weight f4 [1, 64]
000000 bb 88 93 40 ca 99 8f 40 bb 2c 8f c0 d9 4c 8b c0
       4.6104407 4.487523 -4.4742103 -4.353131
000010 ad e2 96 40 53 58 94 40 8b 11 8d c0 6d 5f 8a c0
       4.7151704 4.635782 -4.4083915 -4.3241487
000020 a6 34 92 c0 ed a2 8c 40 24 43 9b c0 07 87 8c c0
       -4.568927 4.3948884 -4.851946 -4.391483
000030 f6 49 91 40 0c 23 88 c0 0b 6a 96 c0 5b 73 8c 40
       4.5402784 -4.254278 -4.7004447 4.3890815
000040 91 08 91 c0 07 12 89 40 5c bc 8a c0 0a f6 9f 40
       -4.5322957 4.2834506 -4.335493 4.998784
000050 ea 3c 8a c0 98 70 91 40 48 63 99 40 d8 84 8e c0
       -4.319936 4.5449944 4.7933693 -4.4537163
000060 bd 09 8e 40 98 09 89 40 51 82 8c c0 8d 16 92 40
       4.4386888 4.282421 -4.390908 4.565253
000070 bd 75 91 c0 56 cb 89 c0 d5 61 8d 40 8d d9 8d c0
       -4.5456223 -4.3060713 4.4181924 -4.4328065
000080 cb b5 91 40 ed fc 8e 40 ef 19 89 40 c5 e5 97 c0
       4.5534415 4.4683747 4.2844157 -4.746798
000090 37 31 8a 40 71 63 8c c0 a7 02 8d 40 52 ee c0 40
       4.3185077 -4.387139 4.406574 6.029092
0000a0 13 a8 8c 40 a0 50 8a 40 0d 0d 89 c0 d9 75 99 c0
       4.395517 4.322342 -4.282843 -4.7956357
0000b0 ab e4 8f 40 af 2b 92 40 6f 6a a1 40 09 63 89 c0
       4.4966636 4.5678325 5.0442424 -4.2933393
0000c0 a9 65 8b c0 0f 41 8a 40 63 78 8c c0 69 3b 8c 40
       -4.3561597 4.3204417 -4.3896956 4.382252
0000d0 37 f2 91 c0 3f 26 91 40 a8 52 8c 40 b5 bc 89 c0
       -4.5608172 4.5359187 4.38509 -4.3042855
0000e0 bf 2f 8b 40 a5 6b 8c 40 f3 31 9a c0 11 de 91 c0
       4.3495784 4.38814 -4.8185973 -4.5583577
0000f0 8b ba 8e 40 d7 7c 8d 40 5b a4 98 40 49 dd 89 40
       4.4602714 4.4214892 4.770063 4.3082623
