tmp/experiments/RN1 False,True,True/pyt_network_save/model save84000.pt (torch_old, 314943 bytes, 33 tensors)

pi.pi_net.0.weight f4 [64, 5]
00000000: 813f 31bf 815a 10bf 0c0e f8be 6a81 653d
00000010: b46c 0abd 8354 223f 8c67 1f3e 6745 5bbe
00000020: 973d f2be 7737 44bf 459d dbbe d953 cbbe
00000030: 7e71 ce3d a9e0 213d d8c9 833e 33d2 03bf
00000040: 72f6 233e f9ec 07bf 7c8f 6dbd 6d8f 623f
00000050: d312 38be 6702 a9be e405 ee3d 918b 533e
00000060: 3a65 06bd f486 45be 5fc2 e9bc ee1c 2f3e
00000070: 248b 6e3e b851 18bf 870a aebe ab1d 07be
00000080: ebf9 743e 101e 85be 933c 1a3f c089 1f3f
00000090: 1033 01be 5cfe 0a3e bb0e 833e aca3 923d
000000a0: ca45 c73e dafe 533d 79f4 9b3d 2c0a 4fbd
000000b0: d7cd 98be 5341 95bd 8a71 b7be 02d6 823d
000000c0: c4f4 03be aac8 fe3e 7a68 4b3d 446c b83e
000000d0: c4d3 f0bd e5c4 8e3d 3024 24be f183 b23b
000000e0: 1e4e 5ebc 2775 053e d7b5 0f3f 0a2a 94be
000000f0: 5ad9 9a3d e65f eabe 2636 0d3f 095f fcbc
00000100: 2a0c 0a3e f98e fa3e 6f26 2d3e 136d 293d
00000110: 28e1 913d 3a98 64be 4b62 fe3c 079a 533d
00000120: 25d3 2cbf 7731 1a3e 3ca6 c53e f05f 9c3c
00000130: 9b33 dbbe a768 cb3e 8fd6 89be a502 013f
00000140: 0c5a 03bf 405e 8dbd 3574 873e aca0 70bd
00000150: 6deb 103f a2b2 3f3f a18e f7bd 079e e63d
00000160: fc24 a13e 70f0 08bf b402 d73d fce2 11be
00000170: d1ce 9dbd 747f b33e e9bd 163e 8168 f73d
00000180: e2ac df3e 6886 5ebd aab7 903d bf58 e5bd
00000190: af15 9cbe 54be 71be 67b5 693d 745c 3abe
000001a0: 95d4 613f e2af aa3c c57f 89bd fe55 34be
000001b0: e7da 1e3f f165 023e 7eee 173e 8d28 dcbe
000001c0: b478 ba3e 8799 823e 7778 823e e7d4 1e3f
000001d0: bb7b 2d3e e728 9ebe 1ff9 8c3e c23d 27bf
000001e0: f0dc 44bd 2ebe 183e c3ad 2a3e 334c e33d
000001f0: 5a11 5abe 31d5 0ebf 463c 9ebd a67e 85bd
00000200: ec6f 50be 3343 543f a8b0 d1be 45fd d8bd
00000210: bcc8 e13d 368b a43d 6928 263f f96e 993e
00000220: 6e19 64be b0fc 353f fc3c 85be 12b7 303e
00000230: 6495 c43e 8619 a4bc 9036 cfbe 5e7d e83e
00000240: 45f6 f73d e11e 8bbe 8805 97be 63a3 78bd
00000250: b7bb 563e de77 073f 4259 9cbe 59f1 5b3e
00000260: 733a 09be ed2d 8dbc b0fc bdbe d9ec a53c
00000270: be69 0bbf d358 763d b520 f13d ae6b e63e
00000280: 77a5 e3bc ec00 ccbc b8d1 d2be 1f6d 403e
00000290: bc81 3cbf 60b7 d2bd 4ce7 363f fd9f 20bf
000002a0: 22b7 093e c4b5 7dbe 452e 183e 56c1 943e
000002b0: 8152 debb 82ea d2be d175 dbbe a2f7 17bf
000002c0: 4613 313d 6e74 08be 15ac bb3a fe0d 3c3f
000002d0: a3d2 45bf 883d 80bd 4518 bebe be8e b53e
000002e0: a1c3 2d3f 5474 7a3e 5d47 a0bc f537 e2bc
000002f0: 3fbf ce3d e186 febe b25f b63e f64f 26be
00000300: 6eb5 3dbf 5ed5 c63e 74c4 eebe 41db 44be
00000310: 0ebf 25be dcc0 d0be a841 9ebd 490c 34be
00000320: 94a1 6a3e 526a 60be 3843 153e 0c5c 813e
00000330: a20a a0bd aa1a 90bb d9e6 663d 7e24 763f
00000340: 90e2 9e3d a6c9 863d c0ff 963e e651 80bd
00000350: 461e 8c3d ca86 633d 58a5 e4be 5e2e 0a3e
00000360: cc34 bbbe 2828 8c3e fb1c 8b3e a1bb 943e
00000370: b141 813e 76fe a2bd e8b2 9ebe af48 8a3e
00000380: 6e10 043f d40a f5bc 9825 cc3e 16d5 04bf
00000390: 481f 98be 836c ff3d da06 113d d680 e53e
000003a0: 08b3 babd f48d a1be 30f9 04bf 121a c9be
000003b0: 8430 78be 7c6b 943e bf92 b4bd 3018 033f
000003c0: cf60 dbbe 7857 3c3e e509 dd3d b939 d7be
000003d0: 90c7 d43d dedf 8fbe cae2 c2bc a46a c2be
000003e0: 50dd 953e b4d2 c43e 0536 d1be a79e 22be
000003f0: 84d5 d03e aa95 a3be cf71 bbbe 5e4a a03d
-0.69237524 -0.563881 -0.48448217 0.056031622 -0.033795074 0.63410205 0.15566844 -0.21413194
-0.47312614 -0.7664713 -0.42893425 -0.39712408 0.10080241 0.039520893 0.25739932 -0.51492614
0.1601198 -0.53095967 -0.057998165 0.885001 -0.17975931 -0.33009645 0.11622217 0.20658709
-0.03281138 -0.19289762 -0.028535066 0.1710088 0.23295265 -0.5949969 -0.33992407 -0.13194911
0.23923461 -0.25999498 0.6024868 0.62319565 -0.12617135 0.13573593 0.25597176 0.07160124
0.38920432 0.051756717 0.07614989 -0.05054681 -0.29844543 -0.0728785 -0.3582881 0.06388475
-0.1288634 0.4976247 0.049660183 0.360201 -0.11759141 0.069711484 -0.1602943 0.0054478575
-0.013568429 0.13032971 0.5613684 -0.28938323 0.07560988 -0.4577629 0.5516075 -0.030807035
0.13481203 0.48937204 0.16909193 0.041363787 0.07123023 -0.22323695 0.03105273 0.051660564
-0.6750968 0.15057932 0.3860339 0.019088715 -0.4281281 0.3972828 -0.26921508 0.5039466
-0.51309276 -0.069027424 0.26455846 -0.05874698 0.5660923 0.7488195 -0.12087751 0.1126061
0.3147353 -0.5349188 0.104985625 -0.14246744 -0.07705463 0.35058177 0.14720882 0.120804794
0.43686587 -0.0543274 0.07066281 -0.111985676 -0.30485293 -0.2360776 0.057057764 -0.1819933
0.88215 0.02083582 -0.06713823 -0.17610928 0.6205277 0.127342 0.14837071 -0.42999688
0.36420214 0.25507757 0.25482532 0.62043613 0.1694173 -0.3089058 0.27533814 -0.6532861
-0.048062265 0.14916298 0.16667847 0.11098518 -0.21295682 -0.55794054 -0.0772634 -0.06518297
-0.20355195 0.8291504 -0.4095509 -0.10595182 0.11024615 0.08034365 0.6490541 0.29967478
-0.22275326 0.71088696 -0.2602309 0.17257336 0.38395226 -0.020031702 -0.40471315 0.45408148
0.12107519 -0.27171996 -0.29496408 -0.060702693 0.20970045 0.5291728 -0.30536848 0.21478786
-0.13401203 -0.017233813 -0.37106848 0.02025454 -0.54458225 0.060143303 0.117738165 0.45004028
-0.02778886 -0.024902783 -0.41175628 0.18791626 -0.7363546 -0.10288882 0.7144668 -0.6274412
0.13448766 -0.2477637 0.148614 0.29053754 -0.0067847376 -0.4119454 -0.42863324 -0.5936223
0.04323127 -0.13325664 0.0014318252 0.7345885 -0.7727453 -0.06261736 -0.3712789 0.35460466
0.6787663 0.24458438 -0.019565279 -0.027614573 0.10095071 -0.4971228 0.35619885 -0.1624144
-0.74104965 0.3883466 -0.46634257 -0.19224264 -0.16186163 -0.4077214 -0.07727367 -0.17582811
0.229132 -0.21915558 0.14576423 0.2526554 -0.07814528 -0.00439771 0.056372497 0.9614943
0.07758057 0.0658143 0.29491997 -0.06265621 0.06841712 0.055548467 -0.44657397 0.1349425
-0.36563718 0.27374387 0.27170548 0.290494 0.2524543 -0.07958691 -0.3099587 0.27008578
0.5158757 -0.02991239 0.39872432 -0.51887643 -0.29711366 0.12471869 0.035406925 0.44824857
-0.09116179 -0.31553614 -0.5194273 -0.39277703 -0.24237257 0.28988254 -0.08817052 0.5120878
-0.42847297 0.18392742 0.10792903 -0.42036226 0.10389626 -0.28100485 -0.023789782 -0.37971985
0.2927041 0.38442004 -0.40861526 -0.15880834 0.407879 -0.31950122 -0.36610267 0.078266844

pi.pi_net.0.bias f4 [64]
00000000: 3cd9 98be a183 d43d 68fe 503e 2195 583e
00000010: 85fa 423f 3a02 0c3e 42da f5bd 1d82 12bf
00000020: 0762 aabe 809b bcbe 07a0 0bbf be6b 633d
00000030: b181 b3be a53e c5be 9d77 ea3e 145e 47be
00000040: d1bb 2b3e 8363 303e 363d 173e df00 ba3e
00000050: 1a61 94be f40e fbbd 0aa6 e5be 0231 29be
00000060: e72a 3bbf 8181 833e 96ad 4f3e 25c8 86be
00000070: f63c 993d 993b 1fbd 1625 953e 8cdb c8bd
00000080: 2844 3bba 4ca5 963e 16c4 963e 465f b43b
00000090: 0b64 ff3d b124 ed3d 6f0f d93d 968b 053d
000000a0: 5b2e c6be 6b6b 8ebd 7b5f 07be f14e 91be
000000b0: 8a54 fabe 9ad4 853e f365 8f3d f8bc 2d3b
000000c0: 47d3 b9be 22dd 543e d038 083f be15 013e
000000d0: 8372 d7be 73d1 e1bd 0348 033f b7eb 88be
000000e0: 66db 983d ce02 b5be 68d6 a5be ba0c 19bd
000000f0: f2a5 21bf 6a2f dfbe 94d9 01be 2dba e0be
-0.29853237 0.10376669 0.20409548 0.21150638 0.7616351 0.13672724 -0.1200452 -0.5722979
-0.33277914 -0.36837387 -0.5454106 0.055522673 -0.35059884 -0.38524356 0.45794383 -0.19469482
0.16770865 0.1722546 0.14769444 0.3632879 -0.28980333 -0.122587115 -0.4485324 -0.16522601
-0.7311234 0.2568474 0.20281062 -0.26324573 0.074823305 -0.038875196 0.29129857 -0.098075
-0.000714364 0.29422987 0.29446477 0.0055045215 0.124702536 0.11579264 0.10598647 0.032603823
-0.3870724 -0.06954082 -0.13220017 -0.2838054 -0.48892623 0.26138765 0.07001867 0.002651034
-0.36294004 0.2078748 0.5321169 0.1260595 -0.42079553 -0.110262774 0.51281756 -0.26742336
0.07463722 -0.35353702 -0.3239014 -0.037365653 -0.6314384 -0.43590862 -0.12680656 -0.4389204

pi.pi_net.2.weight f4 [64, 64]
00000000: 7798 053e 63e1 b7be 05f3 b23e fdbc 223f
00000010: 04a0 6b3e 2617 2ebe c48c e53e eae6 14be
00000020: dc68 76be bfa0 963d 6f29 edbe 2ac3 a2bd
00000030: 26f7 213f 4e3d bdbe 7c26 933e 842a b83e
00000040: f0f3 e53e 610d b5be 1e49 d53d b1d7 bbbe
00000050: 72c8 8f3e de2f debe b476 63bd f827 79bf
00000060: fbff c0bd 7d01 5d3f f1cd 383e 5eb6 b9bd
00000070: ffc9 a83d 17ab fb3e efc0 f2bc 9d01 123f
00000080: dccc 2cbe 87da 1abf c8fe d33d b78a 063e
00000090: 05be 1f3f 3e86 82be 9a10 6ebe 1ef7 19be
000000a0: 4a64 05be ebdc e53d ed2a 76bd c441 933e
000000b0: 7c5c 9e3e 5c13 843c 14cb 0ebf af9a 683f
000000c0: ccf0 3e3c fe71 333e 7368 a43e daf8 e9be
000000d0: 4ddc 763d 1ac3 713e 0151 eb3e 65e9 0c3e
000000e0: bd90 d2be 8d70 02bf fc3e 55bf b6ff 5c3e
000000f0: ecd9 b83e dc08 fdbe 2d9e a7bd 973f 87be
00000100: 2ec2 68bd c607 4e3e 3b1d 8f3e 5dcd 36be
00000110: 43b8 92be fdb4 f9be d8ee b53e 1520 a03e
00000120: 2ff0 0e3c 69f8 983e cc60 233f 201a f0bd
00000130: fe8e d63e ede9 623e 1681 4dbd 94b8 263f
00000140: 127c 8d3c a995 903e 5415 8dbe 83ec 09bf
00000150: b004 593f 92e0 7d3d 154d ee3e 39ce 253d
00000160: d7e3 4f3f 67b6 42be f5e1 0bbf 443c cdbd
00000170: 2400 853e bdcf d1bd af20 a5bd 9d9f 6a3e
00000180: 7c58 80bd 744c 23bf 4a38 65be 4bdc d73d
00000190: 2581 673e 71cf 38be daab bcbe d769 3ebe
000001a0: 1c2c 0abe 5686 86bd 93a9 b7bd fee2 603e
000001b0: c799 c23e 2462 74be 61d9 98bd f1c0 c6bd
000001c0: 7060 3bbe 98fd e93d 84d0 93bf 6622 17bf
000001d0: f184 0c3f 4008 173e b3c7 b6be bffb de3e
000001e0: 593b ce3d f28a c83e c9ea a33d 80b9 83bd
000001f0: 9234 2b3f 4aa3 8c3e eac3 163e 6204 d5bc
00000200: 30d9 ddbd 4f15 0ebd 5d1e cb3e d42d ca3e
00000210: cb6e 84be 3cf0 843e 253f 0b3e 1ee3 21bf
00000220: ff64 13bf 12ea 023f 6b92 6abe ac4a 81bd
00000230: 4713 71bc ad49 2dbf b7a4 433d 130d db3e
00000240: 8880 e63e 1096 acbe 2c6f a6bb 9a79 71be
00000250: 1696 b13e d90c cd3e 6f92 823e 40d6 a93d
00000260: 7b78 6bbc b4c5 b63e 4759 893d e816 babd
00000270: 365d b23e fb90 7cbe 358a 233d 90df f4bd
00000280: 145d 89bd d961 ae3d e6fc 38bf 4b5b 013f
00000290: 17cd 893f dfeb 0e3e e372 7f3e b222 523e
000002a0: 3cda 4dbe 31a7 503e 3043 8ebf a436 f3bd
000002b0: f0e7 b73e e905 343e 25f4 dbbe e5da a03e
000002c0: 4a9a 853e d86b 513f ccad 6f3d b3d8 66be
000002d0: dd42 d6bd 6a66 f03b 08f1 263e c8d3 e93e
000002e0: bc3d a63e adf8 f6be 86d0 8fbe 4d56 5a3e
000002f0: 7cf3 27bf 6f58 66be 5fc9 6f3e 56f8 8dbc
00000300: 20bd 13be aa7c 0e3f 1dc5 973d 0a78 13bf
00000310: 1055 09bf 533d 9b3e 7acc 0abf 3564 25bf
00000320: ef6c 283d 6079 85be 48d7 15bd bb28 533e
00000330: 39f5 633d bf39 74be f8f1 033c 8515 fabe
00000340: ca14 93bd b02c 4c3e f227 ae3d a038 05bd
00000350: 77ae 08bf 07b8 cd3d c18f bb3e 7b8c 363e
00000360: 517a 86bc ba6c 57be 1244 24bf fdb6 4dbe
00000370: 3226 04be 321b a7be 3dd4 8ebc a903 d4be
00000380: 7a09 0abe 382d 803e 9bab a43d d773 31be
00000390: d37d 1ebe f325 dc3e 56d6 b33e 3ccb 2fbe
000003a0: b4ef 0abf ae72 073e a56f b8be 5787 fcbe
000003b0: 0ed8 1dbf a8e1 2f3c 866f c73e 9714 02bf
000003c0: 8a1d 543e 9d27 97bd 96e0 c43e 8e57 263f
000003d0: f5a7 d8be 5dcc 08bd 1c3b 6a3e db9c 8c3e
000003e0: 151f 453f 4ef0 ae3e c2c4 ce3e 7ffe ee3b
000003f0: 2936 b4bd 5daf f0bd 9f80 edbe 26bb 2b3e
0.13046442 -0.35914144 0.34951034 0.63569623 0.2301026 -0.17001018 0.44833958 -0.14541212
-0.24063438 0.07354879 -0.46320674 -0.07947381 0.63267744 -0.36960834 0.287403 0.35969937
0.44912672 -0.3536177 0.104143366 -0.36687997 0.28082615 -0.43395895 -0.055533126 -0.9732661
-0.094238244 0.86330396 0.1804731 -0.09067987 0.08241653 0.4915397 -0.029633014 0.5703371
-0.16875023 -0.60489696 0.1035133 0.13138853 0.6239932 -0.25493044 -0.2324852 -0.15035674
-0.13026538 0.112237774 -0.06009953 0.28761113 0.30929935 0.016122513 -0.5577862 0.9086103
0.01165409 0.17523953 0.32110938 -0.4569767 0.06026869 0.23609582 0.4596024 0.13760908
-0.41126052 -0.5095299 -0.8329923 0.21581921 0.3610376 -0.49420822 -0.081844665 -0.26415703
-0.05682581 0.20120153 0.2795199 -0.17851777 -0.28656206 -0.48770896 0.35533786 0.31274477
0.008724256 0.29877022 0.63819575 -0.11723733 0.4190597 0.22159548 -0.050171934 0.65125394
0.017271075 0.28239182 -0.27555335 -0.53876513 0.8477278 0.061981745 0.46543184 0.040479872
0.8120703 -0.19014893 -0.5464166 -0.100212604 0.2597667 -0.10244701 -0.080628745 0.2291245
-0.06266877 -0.63788533 -0.22384754 0.105400644 0.22607858 -0.18047883 -0.36849862 -0.18595062
-0.13493389 -0.06568591 -0.089678906 0.2196159 0.38007948 -0.23865563 -0.07463337 -0.097047694
-0.18298507 0.11425322 -1.1548009 -0.5903686 0.5489035 0.14749241 -0.35699233 0.43551442
0.100699134 0.39168507 0.08003766 -0.06431866 0.6687709 0.2746833 0.14723173 -0.026003066
-0.10832441 -0.03468829 0.39671603 0.3948809 -0.25865778 0.25964534 0.13598306 -0.6323718
-0.5757598 0.5113841 -0.22907417 -0.06313071 -0.014714069 -0.67690545 0.047764506 0.42783412
0.45019937 -0.3370824 -0.0050791707 -0.23581544 0.3468482 0.40048864 0.25502345 0.08292818
-0.0143719865 0.3569771 0.067064814 -0.090864 0.3483674 -0.2466468 0.039926726 -0.11956704
-0.06707206 0.08514757 -0.7226089 0.50529927 1.0765713 0.13957165 0.2494617 0.20521048
-0.20102781 0.20376278 -1.1114254 -0.11875656 0.35919142 0.1758038 -0.42959705 0.31417003
0.26094276 0.8180518 0.058515355 -0.22543602 -0.10461972 0.0073364275 0.16302884 0.4566939
0.32468975 -0.482366 -0.28088778 0.21321984 -0.656059 -0.22494672 0.2341666 -0.01733033
-0.14427614 0.5565897 0.07410643 -0.5760504 -0.5364542 0.30320224 -0.54218256 -0.6460603
0.041119512 -0.26069164 -0.03658226 0.20621006 0.055653784 -0.23850153 0.008053295 -0.48844543
-0.071816996 0.19938922 0.08503713 -0.032524705 -0.5339121 0.10044866 0.36633113 0.17827027
-0.016415747 -0.2103757 -0.6416637 -0.20089336 -0.12905195 -0.32637936 -0.017435187 -0.41409042
-0.13480178 0.250345 0.08040544 -0.17329346 -0.15477686 0.42997703 0.35124463 -0.17167372
-0.5427201 0.1322734 -0.36022678 -0.49322006 -0.616578 0.010734953 0.38952273 -0.5081267
0.20714393 -0.073806025 0.38452595 0.6497735 -0.4231564 -0.03339802 0.22874111 0.2746342
0.7700055 0.34167713 0.4038449 0.007293522 -0.08799393 -0.11752198 -0.46387193 0.1677061

pi.pi_net.2.bias f4 [64]
00000000: d49f fa3d 78b3 05be a536 20bd 01e2 fd3d
00000010: b36d 7a3e e28e 54bd 6e05 bcbd 9471 e73c
00000020: a48c 9e3d 64f9 2f3e 114a 143e a777 3f3e
00000030: 0001 673d eec5 3d3e 4e21 09be b815 4c3e
00000040: 5f7e bebd a3ab 313e 0c6b c7bc bf91 32bd
00000050: f302 f7bc f8c3 713d 3933 0bbe 71c4 1dbe
00000060: 0569 073e 41d8 17be bf4b b73c 92e7 02bd
00000070: 7ade bc3e 7b30 c13e d1f3 7e3c d9e3 69bd
00000080: ca34 913e f921 08bd 4701 173e 7179 f4bc
00000090: 2062 9abd dac8 ecbd b4d2 8abe 9bf6 1abe
000000a0: 4dc7 2a3e 603f 453e 9b36 aabe 7014 3abe
000000b0: 3230 2c3c 96b6 db3c 4d9b b3be bf8e 3fbe
000000c0: 512d 73bd 233e 083e aaca 12be b551 193e
000000d0: 269f 4fbe 1124 873e 25eb 293d 3a02 3b3d
000000e0: cb2f b1bd 9949 9ebd a0e8 adbd e4db 72bc
000000f0: 8851 47bd 3266 2d3e c74f 3dbd 8c00 733d
0.12237516 -0.13056743 -0.039114613 0.123966224 0.2445591 -0.051894076 -0.09180723 0.0282524
0.07741669 0.17184979 0.14481379 0.18697987 0.056397438 0.18532535 -0.13391611 0.1993016
-0.09301447 0.1735063 -0.024343036 -0.043596026 -0.030152773 0.05902478 -0.13593759 -0.15406968
0.13223656 -0.14828588 0.022374986 -0.031959124 0.36888486 0.377323 0.01556106 -0.057102058
0.28360587 -0.033235524 0.14746581 -0.029843064 -0.07538247 -0.11561747 -0.2711388 -0.15133135
0.1667759 0.19262457 -0.33244786 -0.18171859 0.0105095375 0.026820462 -0.35079423 -0.18706797
-0.05936939 0.13304953 -0.14335123 0.14972575 -0.20275554 0.26394704 0.041484017 0.04565642
-0.08651694 -0.077288814 -0.08491635 -0.014822934 -0.04866174 0.16933516 -0.04621866 0.059326693

pi.pi_net.4.weight f4 [256, 64]
00000000: 14e0 8c3f cdc7 033e 63f2 4cbd e968 48bf
00000010: 6193 c93e 1136 febe ff6f 943e 583a 4d3f
00000020: ae6b 263f 415c 283f 0c94 123f a798 1b3f
00000030: e367 83bd ae3b b93d 9491 963f 4538 4d3f
00000040: 28c0 e5be 9567 023f 26eb 0cbe 3b54 103f
00000050: 9970 8a3f 0f8a 283d 41f2 4cbf a944 21bf
00000060: b57f 873f 74f0 ecbe 83a8 013e 57ed 9ebf
00000070: 46d2 92be 63d0 66bc 129b 0bbf 4dd3 6abf
00000080: c3c3 42bf 5b37 f13e fac4 f23d d205 073e
00000090: 56a3 76bf 43a3 5fbf 501b cdbe 40ec b1be
000000a0: 0ea8 183e 7f34 293e 1a07 20be 859b 78be
000000b0: 094d ecbe c7ce cbbe e04a 9bbe a8a2 07be
000000c0: 7cf4 673f d65e 4d3e 238c 6cbf 825e 313f
000000d0: 5309 a33d 876d 9ebf 3b12 93bf 68f5 c23e
000000e0: ed91 f23e 6c1a 193f 342e 6fbf e899 e6b9
000000f0: 5a7e 833f d11d f93e 836c 92be 7bfd 073f
00000100: 5254 053f 9731 fe3e 9245 1bbf 4a1b 27bf
00000110: 86be 1b3f 97d8 e93d aa1c 823e b4f2 1b3f
00000120: 0b56 923f e71a 3abc 5ed4 4f3f 7a61 653f
00000130: 0b9a 01bf a7de f9bc 9dcc 313d 54f5 193f
00000140: f371 43be 8a9e 1c3f 102d b1be 7a97 cc3e
00000150: d03c 0e3f 9299 b23d 2a8d 83bf e4fb 49bf
00000160: b9ba 8b3f 5c0a 9abf 69bf 913c 8d8c adbf
00000170: 2a98 64be 45fc da3e 6870 863e d23b 54bf
00000180: fe13 8ebf d691 8b3e 941b 13be 0be5 5ebe
00000190: 7687 bebf 3d9b 1cbf 9078 10bf c201 0dbf
000001a0: 4eb2 c13e 14f2 bd3b e31f f13e 7b7b 063f
000001b0: 209c 85bf 3d16 023f b830 7dbe eb7a c2be
000001c0: 37f6 2e3e f0e4 853e 41fb 1ebf 1386 8e3e
000001d0: 871c 98bd ce8e bcbf f4a3 a3bf 21c9 d73d
000001e0: fd3d b33e 9c0e 0d3f c2b4 7bbf 78b6 e4bc
000001f0: ad8a d83e 1a68 893e 3ea7 25bd f46b ed3e
00000200: 3794 8bbf 29a2 91be b96e dabe 2611 ba3d
00000210: 30f3 393f 9026 2f3f b06a 033f c4b2 0dbf
00000220: a63a 0e3e 8d2e c7bf 2e3c a0bf 093a 993f
00000230: 3db3 33bf 8f4e 50bf 231b 9fbf af64 75bf
00000240: 8f69 843f f917 f4bc ba50 b1be 0766 193f
00000250: 781b acbe 2ef5 d33f 74fc 913f 1a75 2d3f
00000260: a387 73bf 8601 383e dedf bebf 3872 6f3f
00000270: 881b 0040 ec95 e93f 545c d23f 05fe 8dbe
00000280: 5b63 ba3f e0ba ddbf 8a0e 983f 0169 953d
00000290: aa11 d13d 1a74 503f f2de ffbf ab0a a33f
000002a0: 2d52 cf3f c1d7 1ebf 5f13 663e 2b9c f03f
000002b0: 390b 55bf 5898 843e 68d9 dfbf 5fd6 40bf
000002c0: 8c6e a0bf ba59 a5be ae14 a43f b6a7 cfbd
000002d0: 8681 a83e fb37 cd3f 681b 943f 8059 69bf
000002e0: 90f4 24bf 4233 23bf dfa2 173f 617f edbf
000002f0: 7b1d 8dbf 7b37 c8bf e97d e43f c945 63bf
00000300: 6590 f13e 6873 c23e 51d0 e9be bbf5 27bf
00000310: 85de 953e 114a 85be 5a00 d73d fe83 843f
00000320: aa3f 4c3f d3fd 5e3d 163a 423f 401f 663f
00000330: 020e c4bc 9765 40be 3e84 ef3e 0270 4e3f
00000340: 65af 14bf 748c 173f 07ea 3dbe 1197 bc3e
00000350: 0dfd 803f b5dc f03d d75c 89bf 395d 82bf
00000360: 4b01 6c3f d9fc 95bf 8b36 99bc dc6f a2bf
00000370: 98da 0abf cf75 2b3e 8801 f8be e14a 08bf
00000380: 65b4 5dbf e1b0 243f fb3d 6b3d 4ad4 443e
00000390: e475 95bf 6a12 30bf 1c41 05bf 49d3 d6be
000003a0: df72 a23d 216d 723e 4618 6e3f f870 b13e
000003b0: 278e 80bf bd99 9ebd 04ba ed3e f72b eabe
000003c0: 48ca 0b3f 1e9a e83c aac5 4cbf e601 1c3f
000003d0: 22a6 aebe fea5 b0bf e23c 9fbf 88a7 cbbc
000003e0: b504 033f 69d7 0a3f f13b 47bf 2df5 f03c
000003f0: 4b2a 463f e303 cc3e 688d c7be 49da 173f
1.1005883 0.12869187 -0.050035845 -0.7828508 0.39370254 -0.49650624 0.28991696 0.8016715
0.65008056 0.6576577 0.5725715 0.60779804 -0.06416299 0.09044586 1.1763177 0.80163985
-0.44873166 0.50939304 -0.13761577 0.56378525 1.0815612 0.041147288 -0.8005715 -0.6299539
1.0585848 -0.462772 0.12661938 -1.241618 -0.2867605 -0.014087769 -0.54533494 -0.9172867
-0.7607996 0.47112545 0.118539765 0.13185814 -0.9634298 -0.8735849 -0.400599 -0.34750557
0.14907858 0.16523932 -0.15627709 -0.24278076 -0.46152523 -0.39806196 -0.30330563 -0.13245642
0.9060743 0.20055708 -0.9240133 0.6928483 0.07960763 -1.2377175 -1.1489938 0.38077855
0.47376958 0.5980594 -0.93429875 -0.00043983688 1.0272934 0.4865556 -0.28598413 0.53121156
0.5208179 0.4964721 -0.6065303 -0.65276015 0.6083759 0.11418264 0.25412494 0.6091721
1.1432508 -0.011358953 0.8118342 0.8960186 -0.50625676 -0.030501677 0.043408025 0.60139966
-0.19086437 0.6117941 -0.34604692 0.39959317 0.5556154 0.087206975 -1.0277455 -0.7889998
1.0916358 -1.2034411 0.017791467 -1.3558518 -0.22323671 0.4277059 0.26257634 -0.8290378
-1.1099851 0.27259701 -0.14365989 -0.2176706 -1.4885089 -0.61174375 -0.56433964 -0.5508081
0.37831348 0.00579668 0.4709464 0.52532166 -1.043827 0.5081518 -0.24725616 -0.37984404
0.17086111 0.26151228 -0.62102133 0.27836666 -0.07427316 -1.473108 -1.278441 0.10536409
0.3500823 0.5510042 -0.9832269 -0.02791904 0.422933 0.26837236 -0.040442698 0.46371424
-1.0904607 -0.2844403 -0.426626 0.09085302 0.726367 0.68418217 0.5133467 -0.553509
0.1388956 -1.5561081 -1.2518365 1.1970836 -0.7019537 -0.8136987 -1.2430156 -0.95856756
1.0344714 -0.029796587 -0.34631902 0.59921306 -0.33614707 1.6559198 1.1405168 0.6775681
-0.9512884 0.17969331 -1.4912069 0.9353366 2.0016804 1.8248878 1.6434426 -0.27732864
1.4561571 -1.7322655 1.1879437 0.072954185 0.10208447 0.81427157 -1.9989913 1.2737631
1.6196953 -0.62047964 0.22468327 1.8797659 -0.8322025 0.2589748 -1.7488222 -0.75327104
-1.2533736 -0.32295018 1.2818811 -0.1013941 0.3291132 1.6032709 1.1570864 -0.9115219
-0.6443567 -0.6375009 0.59232897 -1.8554498 -1.1024622 -1.5641931 1.7850925 -0.8877836
0.47180477 0.37978673 -0.45666745 -0.6560933 0.2927133 -0.2603307 0.10498114 1.0352781
0.79784644 0.054441284 0.7586988 0.89891434 -0.02393246 -0.18788753 0.4678058 0.8063966
-0.5808013 0.5919869 -0.18546306 0.36834005 1.0077225 0.117608465 -1.0731457 -1.0184699
0.9218947 -1.1717788 -0.018702766 -1.2690387 -0.542398 0.16744159 -0.48438668 -0.53239256
-0.86603385 0.64332396 0.057432156 0.19221607 -1.1676602 -0.687781 -0.52052474 -0.41958073
0.07932066 0.23674442 0.9300579 0.346565 -1.0043381 -0.07744167 0.4643098 -0.45736668
0.5460553 0.028393801 -0.7998911 0.60940397 -0.34111124 -1.3800657 -1.2440455 -0.024860159
0.5117906 0.5423494 -0.7782584 0.029413784 0.77408284 0.39846715 -0.38975072 0.5931745

pi.pi_net.4.bias f4 [256]
00000000: 1170 b03e f28c 943e c32f e13f e015 163e
00000010: 44c4 873e 3c91 0640 298c f33e 8a52 0040
00000020: 6c4c e93f 8470 0040 2e61 fa3f 19c0 b23e
00000030: 6ceb 7d3e 9efd d83f 74dc 1a3e 850d f13f
00000040: 61a3 3c3e bed6 9f3e 726f 5d3f 5c15 823e
00000050: 1e78 fa3f b883 cb3f 75d3 dd3f d37e c73f
00000060: a721 f23f b884 733e d2a8 dc3f 090b 503e
00000070: 49a7 723e 3781 933e a1cf 053e 7e4f fb3f
00000080: 49fb 0040 50fc cd3f 18d6 cf3f 863a dd3e
00000090: 8eb9 a73e a98d d53f 94a6 e33f 5148 5a3f
000000a0: 4550 bb3e 17d0 fd3f d305 883e 8fcf 0940
000000b0: 4105 dc3f e672 d93e d166 c03f eb97 2c3f
000000c0: 1082 853f a03d ba3d 869a 0740 8b9a 9c3e
000000d0: 108a 8f3e 5e9d ee3f 168e 953f 77ef f23e
000000e0: a32b de3e 8dd3 963e fc64 203e 6dc2 dd3e
000000f0: 7b05 283f 53d9 e83f 0fc5 ef3f 1ece b43c
00000100: 840b b23e 52fb 0340 9b63 953e 887d 893e
00000110: bd3e f23e 3344 a43e a1e9 093f 87b7 d73f
00000120: 7116 143e bb7f 253f 0160 df3d a9ed 0040
00000130: ea68 b13e db9c dd3f 4276 8d3e 26a2 883e
00000140: 1d67 c33f 1d51 af3f af88 d13f a3a4 d0bc
00000150: 3577 c63f a9c4 0a3f cb80 e73e ca9b be3e
00000160: d7f6 383f 7982 823e 15c2 913e aee2 f73f
00000170: 2109 fb3f 1f45 e33e 4724 d53f f72c bf3e
00000180: 72bb cb3e 2b56 123e c17b d33f 4055 0440
00000190: 807f 243e f5dc 9c3e 4bc6 da3f 5c80 a53e
000001a0: 7f0f ad3f 11e4 da3f fd48 eb3f b490 033f
000001b0: 004c 1d3f fb2f eb3f f644 043e c307 e73f
000001c0: a449 913e aa02 ed3f 454e f13f ded3 b43e
000001d0: 87bf ca3f 20c2 253d eecb 8a3e 5bd2 ca3f
000001e0: 6c79 ed3f a9b5 af3f f3f3 b33e bcd3 f63f
000001f0: 59d5 bb3f e35e 1c3e 3a9a da3e a065 fe3f
00000200: 302c cbbc 4b3d cf3e 66e3 df3f 87f8 cd3f
00000210: 4a0d b03e 38ba bf3e 6a60 b03e 1d28 a03e
00000220: 5fec bd3f b2f9 943e a53b 9e3f 6b16 e73f
00000230: 5696 dd3e dbd7 0840 8397 f23f 1e27 e83f
00000240: b92b e53f ccec b33f 8926 d03e b656 0f40
00000250: 5e9b fb3f 274d ee3f d835 b33f e84a f73f
00000260: 4bd4 583f eece 0340 526e e83f 0ef0 073f
00000270: 8a75 c93f 0e68 613e 7c3b b03f ec02 df3f
00000280: db02 a23e f45f c13f 7876 dd3e 5eb8 af3e
00000290: 0981 db3f 292d ce3f 488c 0240 d43e c13f
000002a0: 2bc8 f73f 4360 013e ed8f c63f 417d a73e
000002b0: e2ce 9c3f 78c1 a63e c654 fb3f 7d42 0140
000002c0: 1a5c ec3f 9687 ec3f 50c6 f53e fa49 af3e
000002d0: effa 9e3e dcb8 e23f 73d8 9e3f 8086 0640
000002e0: 39d4 ac3e 05ad 043e 822a e03f 3022 f73f
000002f0: 45dd ed3f 963f 043f c6d7 7f3e d886 ef3f
00000300: f2a8 ce3f 724d e33f c863 16bc ef05 123e
00000310: f64f e13f 047b ec3f 9a45 fe3f e2b7 e13f
00000320: 58ec b13e fc67 dd3f dc38 f03f d2d4 7b3e
00000330: 7a0e c53f defe 2c3e 3f08 be3e b4ad fe3f
00000340: 2cd6 d53e 8b3f 063f f9e7 f73f b8fc a83e
00000350: 8d10 0140 6e41 ed3f f970 c83f 6b05 fe3f
00000360: e04c c53f 2cb9 133f 42d7 e83f 5a9e ca3e
00000370: 541c e63e 3c7a b23f 26a9 403e e54b 3c3e
00000380: b736 a73e 0a22 d33f 7462 6d3e ed8a ad3f
00000390: 192c da3e a387 d63f e7cc e33f a4e2 a73e
000003a0: 9463 b23e 9468 0b3f 1398 ef3f 0a83 f53f
000003b0: 3db2 843d f6d1 b33e 3d23 1d3e adf5 0140
000003c0: 880f 0a3f 2d26 cd3f 81da e03e b407 a53e
000003d0: a075 bf3f 0dbf e13f 1d80 a53e 0cd9 2d3d
000003e0: 80d9 d03f 80f0 f73f 8443 f43f 9278 753e
000003f0: feb8 fc3f e7e5 0440 ffe3 ff3f d7d5 da3f
0.344605 0.29013783 1.7592701 0.14656782 0.26516926 2.1026144 0.4756787 2.0050378
1.8226447 2.0068674 1.9560907 0.34912184 0.24796838 1.6952398 0.15123159 1.8832251
0.18421699 0.31218523 0.8649818 0.2540692 1.9567907 1.5899572 1.7330157 1.5585579
1.891652 0.23781097 1.723902 0.2031671 0.23696627 0.2880952 0.13067485 1.9633634
2.0153372 1.6092625 1.6237211 0.43208712 0.32758754 1.6683856 1.7785211 0.85266596
0.36584678 1.9829129 0.26566944 2.1532934 1.7189103 0.42470473 1.5031377 0.6741931
1.0430317 0.09093785 2.1188064 0.30586657 0.2803502 1.8641775 1.1683986 0.47448322
0.43392667 0.29458275 0.15663522 0.43312398 0.6563336 1.8191322 1.8732013 0.02207094
0.3477441 2.0622144 0.29177555 0.26853585 0.4731349 0.32083282 0.53872114 1.6852883
0.14461686 0.64648026 0.10906983 2.0145056 0.34650356 1.7313493 0.27629286 0.2668621
1.5265843 1.3696629 1.6369838 -0.02546913 1.5505129 0.5420633 0.4521545 0.37228233
0.7225165 0.25490168 0.28468385 1.9366052 1.9612161 0.44388673 1.6651696 0.37338993
0.39791447 0.14290683 1.6522142 2.0677032 0.16064262 0.30637327 1.7091764 0.32324493
1.3520354 1.710085 1.8381649 0.51392674 0.6144409 1.8374017 0.12916932 1.8049244
0.28376496 1.8516438 1.8852011 0.35317892 1.58397 0.040468335 0.2710871 1.5845445
1.855268 1.3727313 0.35147056 1.9283366 1.4674484 0.15270571 0.4269579 1.9874763
-0.024801344 0.4047645 1.7491271 1.609147 0.3438514 0.3744676 0.34448558 0.31280604
1.483776 0.29096752 1.2361952 1.8053716 0.4327876 2.1381748 1.8952488 1.8136938
1.7903968 1.405664 0.406544 2.2396674 1.9656789 1.8617295 1.4000807 1.9319735
0.84698933 2.059505 1.8158667 0.5310067 1.5738995 0.2201235 1.3768153 1.7422767
0.31642804 1.5107408 0.43254447 0.34320349 1.7148753 1.6107532 2.039812 1.5097299
1.9357961 0.12634377 1.5512673 0.3271275 1.2250636 0.3256948 1.9635246 2.0196831
1.8465607 1.8478878 0.48002863 0.34236127 0.31050822 1.7712665 1.2409805 2.1019592
0.33755663 0.12956627 1.7512972 1.9307308 1.8583151 0.51659524 0.24984655 1.8713026
1.6145308 1.775801 -0.009179063 0.14260076 1.7602527 1.8475041 1.9864991 1.7634242
0.34750628 1.7297359 1.8767352 0.24592903 1.5395043 0.16894099 0.37115666 1.989676
0.41764963 0.5244071 1.9367667 0.3300531 2.0166352 1.8535593 1.5659477 1.9845403
1.5414085 0.57704425 1.8190691 0.39573938 0.44943488 1.3943553 0.18814525 0.18388326
0.32658932 1.6494763 0.23182088 1.3558022 0.4261177 1.6760143 1.7796906 0.327901
0.34841597 0.5445645 1.8718284 1.9180615 0.06479309 0.35121125 0.15345474 2.0306199
0.5392995 1.6027275 0.43916705 0.3223244 1.4957771 1.7636429 0.32324305 0.04244332
1.6316376 1.937027 1.9083104 0.23971775 1.9743955 2.0765321 1.9991454 1.7096509

v.v_net.0.weight f4 [64, 5]
00000000: 5daf 1ebf 9b0a ecbe 8cdf 473e 1692 023e
00000010: e111 923c 3baa de3e 2f56 67be 0742 2dbc
00000020: 2f41 1b3f 5d62 4f3e 43f2 0f3e c923 f03c
00000030: 1225 f3bd 6f8b c8be 3265 32bb 65d1 6ebf
00000040: 7a2a 00be 662d bb3d dcad 2e3d 7f14 d43d
00000050: 85cf c23d b263 4bbe 1aff d63e 5909 dd3d
00000060: a2c4 b93e fccd a5be c0f5 c2be 1ef1 d53c
00000070: fe7f 133f 47d3 1d3f 4739 b0bf 320e 12be
00000080: 2b21 983c aab3 a53e f780 363d e49e b23e
00000090: 7720 3f3e 7267 29bd a703 1c3d d03c 17bf
000000a0: 3008 25bf dc48 74be 6b83 133e e544 d43e
000000b0: 1db0 f63e 1212 30bf eb43 82be b1e4 0d3e
000000c0: dd52 443e 59e2 05be 3f2a 803f adb2 e43d
000000d0: 1eb8 033d 8621 86bf f63a c8bf 6115 a2bf
000000e0: e784 95bf 4d28 1dbd 1050 f73c eb8e 77bf
000000f0: 1657 91bf 06be 82bf 7389 473e 9b86 37be
00000100: 1dec 05bf c479 883f 773b e03f ce13 4f3f
00000110: 4f46 f0bd c48d 703e 6d02 1b3f a430 e63e
00000120: b141 98be f19c 42be eee8 9f3d f4fe 5fbf
00000130: e35d adbd e459 723c b516 e93e df0f 763d
00000140: 09e7 1a3e de80 11bf 353f ed3e 76af 593f
00000150: 9328 743e 387a cd3e 2bab d03e 85c7 80bf
00000160: 6353 aa3d 13c5 8abe 8e97 d0be a2d3 67be
00000170: 1724 b83e a426 073d c5a3 a13e 734b 91bf
00000180: a720 a3bf e640 8cb9 3d29 1abe d195 77bf
00000190: fa9d 733f 48d7 4b3f 0c07 e73e 128b ba3d
000001a0: 35e7 933f 7161 1e3f d55c 8d3e 6df1 bf3c
000001b0: 94b9 21be 5ab3 17be 962e 1b3f e698 c13d
000001c0: 176a e0bd b098 32be e430 cfbe 368d 183e
000001d0: 6b60 65bf bfaf 12bf 0f99 e43d cf3b 4abe
000001e0: 9cf8 383f a108 7c3e c35c f4bd cc9d 283d
000001f0: 578c 47be 5617 5d3d a46f 3dbe 34ac 253f
00000200: a0d6 963e be53 be3d a4e7 4e3f 5498 a43e
00000210: b125 98be 7de0 c83e eecc 23bf 5644 21bf
00000220: 4225 b9be 4de3 ae3e 193b 4cbc 6dd6 43bd
00000230: 6248 543f ec1e 8e3f adcd ea3e 44ab 0b3e
00000240: 52ea e73e 788e 4b3f ed42 b4be f69e 773e
00000250: ccdd 3f3e 5d4e 8e3d 5e7d 4abf 08e3 f83d
00000260: b116 07be 526f e23e 56a1 ccbd cd7e 3c3f
00000270: 138c c13c 3641 1ebd 2e67 393b 14d9 86be
00000280: 6224 3fbf a224 ad3d aa9e bc3e 9715 cb3d
00000290: 95d1 1dbd ce11 c1be 2a97 9ebe 396b d53d
000002a0: 6681 20be 8ceb a53e 7553 893f b76d 2ebd
000002b0: da0e 133d 8f65 cbbd 32f2 4bbd 2465 5fbc
000002c0: a7da be3e 9c39 42be 42c4 82be bb80 94be
000002d0: 9bc7 983e 09b4 873f 5eb2 0b3f 4156 a43d
000002e0: 48b3 c43e ed90 91bf 54ac 08be 2884 a5bd
000002f0: 964e 7c3e dd7d f43d 7450 6e3e 01bd ab3c
00000300: 4450 233e cef0 8b3e a4fd 933e f3f0 5d3f
00000310: 2070 16be 5e8d d3bd cd1d 9f3d 6a2b 043e
00000320: bd70 0fbf 6e47 59be 3f5c 883d c1fa 4d3d
00000330: bb9a 053b 5d1c 863f 819f 553f 0f24 b93e
00000340: 35ea 2dbf c1bb 183f 6beb 5fbf 9dff 7bbf
00000350: 573d e6be 3bb9 863d c937 0abf 8b88 4ebf
00000360: e59b eebe 7204 a83e 9374 113e 96ca 5f3d
00000370: 770f 33bf ca9d 73bd 6e02 b3bd 9bb8 633d
00000380: 0e8b fb3d 8267 a13e 75eb 62be a84b 2abf
00000390: fb90 353e bd4d a23e 0343 32bf cdfe bebe
000003a0: b63e 853e 1c23 d13c 320b 193f 3701 33bf
000003b0: 79c6 213e 7a7a 983d 82a0 83be 78de 723e
000003c0: c27f febe 5a5c ebbe 38ea 493e ffb8 86bd
000003d0: a329 723e bec9 993e 4bb9 61be 575f 0abe
000003e0: 6dc6 3c3f 0e03 453e 3b7f 84bf d07a 72be
000003f0: 1223 d03e 2524 823d 3ba6 89bd 75b2 153f
-0.61986333 -0.4610184 0.1951887 0.1275104 0.017830791 0.4348925 -0.2259147 -0.010574824
0.6064634 0.20252366 0.1405726 0.029313939 -0.11872305 -0.3916888 -0.0027220962 -0.9328826
-0.12516204 0.091395184 0.042646274 0.10355472 0.095122375 -0.1986225 0.41991502 0.107927985
0.3628283 -0.32383716 -0.38078117 0.02611595 0.57617176 0.6165051 -1.376748 -0.14263228
0.018570503 0.32363635 0.044556584 0.3488685 0.18664728 -0.04135842 0.03808942 -0.5907717
-0.6446562 -0.23855919 0.144056 0.41458812 0.4818124 -0.68777573 -0.25442442 0.1385677
0.19172235 -0.13074626 1.0012892 0.11166892 0.03215801 -1.047898 -1.5642993 -1.2662774
-1.1681184 -0.038368512 0.030189544 -0.9670245 -1.1354702 -1.021424 0.19486026 -0.17922442
-0.52313405 1.066216 1.7518147 0.80889595 -0.1173216 0.2349158 0.60550576 0.44958985
-0.2973762 -0.19005181 0.078081 -0.874984 -0.08465173 0.014791939 0.45525137 0.06007373
0.15127195 -0.5683726 0.46337286 0.8503336 0.23843603 0.40132308 0.4075559 -1.0060889
0.08316686 -0.2710348 -0.40740627 -0.22639325 0.35965034 0.032995835 0.3157026 -1.135115
-1.274434 -0.00026751234 -0.15054794 -0.96712977 0.9516293 0.7962537 0.45122564 0.09108557
1.1554934 0.61867434 0.27609888 0.02343055 -0.15793449 -0.14814511 0.6061796 0.09452991
-0.10957735 -0.17441058 -0.40466988 0.14897618 -0.8960025 -0.5729942 0.11162006 -0.19749378
0.7225435 0.24612667 -0.119317554 0.04116611 -0.19487129 0.053977333 -0.18499619 0.64715886
0.2946062 0.09293316 0.80822206 0.32147467 -0.29716256 0.3923377 -0.6398457 -0.629949
-0.36161238 0.34157792 -0.012465262 -0.047811914 0.8292295 1.1103187 0.45860043 0.13639551
0.4529596 0.79514265 -0.3520731 0.24181733 0.18736953 0.0694854 -0.79097545 0.12152678
-0.1319225 0.44225556 -0.0999171 0.7363098 0.023626363 -0.03863641 0.002829026 -0.26337492
-0.7466489 0.08454253 0.368398 0.09916227 -0.03852995 -0.37708896 -0.30974704 0.10420842
-0.15674362 0.3240627 1.0728594 -0.0425851 0.035902835 -0.0993148 -0.049791522 -0.013634954
0.37276193 -0.18967289 -0.25540358 -0.29004464 0.29839787 1.0601817 0.5456904 0.08024264
0.3841803 -1.1372353 -0.13346988 -0.080818474 0.24639353 0.11938069 0.23272878 0.020964148
0.15948588 0.27332157 0.2890445 0.86695784 -0.1469121 -0.10329698 0.07769356 0.12907186
-0.560314 -0.21218655 0.066582195 0.050287966 0.0020386416 1.0477406 0.8344651 0.36160323
-0.67935497 0.5966149 -0.87468594 -0.9843691 -0.44968674 0.06578299 -0.5399137 -0.806771
-0.46603313 0.32815892 0.14204626 0.05463656 -0.6994547 -0.05947665 -0.08740698 0.055595975
0.12282382 0.31524283 -0.22160132 -0.6652169 0.17731087 0.31699935 -0.696335 -0.37303773
0.26024407 0.025529437 0.5978271 -0.6992373 0.15798368 0.074452356 -0.25708395 0.23717678
-0.49706846 -0.45968896 0.19718254 -0.06578254 0.23648696 0.3003673 -0.2204334 -0.13512932
0.73740274 0.19239447 -1.0351328 -0.23679662 0.40651757 0.0635455 -0.06721159 0.5847543

v.v_net.0.bias f4 [64]
00000000: 3fa3 2fbd bc1b eebe 654e 493e 0dde c7bd
00000010: ec6a ffbe 4c16 0fbf ceb2 88be 1179 b03e
00000020: ef9e 1cbe c322 083d f85e 523e aa7d d4be
00000030: 0f8f 6ebe d42b e83f 399f 85bd 4200 8ebd
00000040: ced0 95bd c24c 1b3f d41a c1bd 5700 c3be
00000050: cbb4 003f a747 02bd 23e5 a93e d764 83bf
00000060: e1e0 093e b9ae 56be b774 933d 1fa0 383e
00000070: af3f 213f 8d04 01bd dab8 84be ad7a 4a3e
00000080: 388d 99be 7482 89be 4a4f 6e3e 583a 5b3d
00000090: 41b9 273f acb9 43be 8e94 0abf b639 5fbb
000000a0: c879 c23d 391e 443f c16b 55bf dcc2 d9bd
000000b0: 550e 35be 00fa 9e3e 16e9 41be d862 823a
000000c0: de40 34be d76a 20bf d3ec 38be 96fc 033e
000000d0: 0ac5 99be 5561 cf3d 5d40 6abd e1c0 26be
000000e0: 0496 e43d 5b3c 00bf 9878 11be 6f86 39be
000000f0: d5b7 1b3e dcb1 c1bd cad4 6cbe d34c 3cbf
-0.042880293 -0.46505535 0.19658811 -0.0975915 -0.49886262 -0.558934 -0.26698917 0.34467366
-0.15295003 0.033236276 0.2054404 -0.41502124 -0.2329676 1.8138375 -0.0652451 -0.06933643
-0.07315217 0.60664 -0.09428945 -0.38086197 0.5027587 -0.031806614 0.3318263 -1.0265149
0.1346469 -0.20965089 0.07199996 0.18029831 0.629878 -0.03149848 -0.2592228 0.1977336
-0.29990554 -0.2685734 0.23272434 0.053522438 0.6551705 -0.19113797 -0.54132926 -0.0034061498
0.09495884 0.76608616 -0.83367544 -0.106328696 -0.17681248 0.3105011 -0.18936571 0.0009947671
-0.1760287 -0.62663025 -0.18059091 0.12889323 -0.3003314 0.101259865 -0.057190288 -0.16284515
0.11161426 -0.50092095 -0.14206159 -0.18117689 0.15206845 -0.09457752 -0.23128048 -0.73554724

v.v_net.2.weight f4 [64, 64]
00000000: aa5f 7d3f 8e61 973e 53cd 87be c4bc 1a3f
00000010: 29b9 8f3e c42f d1bd c2df 223f a798 3ebe
00000020: f6da 23be 653f 4a3e 8e27 5e3e 7c97 463f
00000030: f3c6 dc3e d56d 0bbf e957 e93e d8c6 24bf
00000040: 553c 723e 9b60 2ebf d087 853e fe8e df3e
00000050: b194 f8be dd11 d1be e346 14bf 3cf0 163f
00000060: ef17 25bf 2a93 143f b73b 0ebf 6d0a 3ebf
00000070: 0b76 14bf 3a49 4abf 0080 a63f d046 9cbf
00000080: d97e 333f 51f3 1f3f 3103 32bf c694 c3be
00000090: da6d ebbe a9cf 213f 482f 113f 1a0f ca3e
000000a0: ee00 ad3e e6fe 61bf f97a ea3e 1fae 1d3f
000000b0: 9128 7c3f f304 e6bd 9bf1 99bd e9cd 9ebe
000000c0: 1f10 943f 9811 d13e 4e95 543f e252 0bbf
000000d0: 0525 ba3e e0df 10bf e7af 283f 4eae 003f
000000e0: f9b7 1ebf 9b41 4ebd d55f 2b3f fd28 943f
000000f0: 8fa8 8ebe ea9a 853c a4dd 003f f1c6 803f
00000100: 64ce 413f 72a6 2d3f ed7b febe 58d1 d33e
00000110: addd 6e3e b4a4 4abe cdbd ce3e fe09 483e
00000120: fcf7 9e3c 8d54 863f 1f78 8dbe 60de ba3e
00000130: 27a3 a33e fa0b 84bf df34 3fbd df02 40be
00000140: 3e32 2a3f 4ffb a13e b84e 3abe 740c 253e
00000150: b95a f7be bf2e a5be 2182 1ebf 345e 8c3e
00000160: ab3d f3be 01f2 b13e 2a0d 603e a409 aebd
00000170: a474 c0be d777 933d a7e5 543f 6d0d 2cbf
00000180: b4b7 3f3f 9ba1 a33e d396 1abf 1113 8fbe
00000190: 13b7 f23d 64ca 3f3f e7cd ab3e 8247 9b3d
000001a0: 455d 303e 94d1 f0be 18b6 933e a3e4 c83e
000001b0: 601d 083f 8443 253d c745 d1be 1d92 86be
000001c0: 1fb8 6c3e 7b79 e23e 10ec 4e3f b082 2cbf
000001d0: a4a3 023f c75b 3fbf e340 743e 035f f83e
000001e0: 9213 0abf 1ba1 ab3d 8466 1f3e 3d47 7a3f
000001f0: 8a34 6fbe 1f52 573e 9a41 6e3d 9438 1b3f
00000200: f569 a5bf 417b aabe 3aa7 213f 60a7 8fbf
00000210: b30e 01bf 3679 663d 7a04 65bf 5495 403e
00000220: 4dfc 8ebe d277 59bf 9e12 a6be 5e7d 01bf
00000230: 1460 09bf 6c8a bf3e 99ac 313f 83c5 4a3e
00000240: 0978 e7be e829 c23e 0e15 12bf 60e6 29bf
00000250: 6b19 423f c108 5f3f 7173 c73e bb50 13bf
00000260: 3dea 853f a709 17bf c6cd 8e3f 0b06 083f
00000270: 24db ca3e d3de 123f c194 8abf 7665 563f
00000280: a322 4dbe e589 65bf d395 753f 435b 103f
00000290: 718b 5f3d 59be 4fbf 917c f4be 694d bdbe
000002a0: f44e aebe eeae b53e 1951 29bf 74db 88bf
000002b0: 6f2a 11bf d97a 833e b92e 66be 26f7 f43d
000002c0: 7e10 27bf c7db d5be e352 55bf 6da7 3b3f
000002d0: 6d84 cebe 8bee 0c3f 1acf 7dbf 7bd0 e3be
000002e0: 1d0c 553f 8436 563e 0f2d 2ebf cd6b 30bf
000002f0: 7c01 1b3e 167e 123d a9cf 13bf 9531 fdbe
00000300: 4172 a7be 3f70 05bf f609 f1bd e543 58bf
00000310: b8b9 5bbf 48ac a8be 04b4 68bf 490a 0a3f
00000320: 6239 ecbd bb12 e9be 785f dcbe 243b 08bf
00000330: 5bd3 4cbf 1f44 5c3f 04e0 e43e 567c 703f
00000340: 3673 a5be e007 2a3f db76 c4be e7ac 3dbf
00000350: 0734 e93e 9d34 393f 6afb 1d3f 59e3 15bf
00000360: b0e3 323f 59a8 643d 0e88 283f a0d0 753d
00000370: 5eb2 dd3e 9b29 723f 75d2 87bf c92b be3e
00000380: cb4e 6cbe df61 24bf f53d 633f 786c f73a
00000390: 28fc 723e 1dd7 54bf c728 21bf 997e 1cbf
000003a0: d4f8 c23e 5363 853f 426b e8be 2adf 00bf
000003b0: 445a 99bf ef10 afbe aac9 20be bcd2 70bd
000003c0: e07d 4abf 32a8 27bf 6d33 44bf 95ac 353f
000003d0: 09c5 bbbe 6553 da3e 3cd6 1ebf e5d5 4cbf
000003e0: c41c 233f abe0 b93e a6cc 4dbe fdec 0ebf
000003f0: 34a4 9f3e dae7 743e 01e8 e7be 0f36 81be
0.98974097 0.29566616 -0.26523837 0.60444283 0.28070953 -0.10214189 0.6362268 -0.1861292
-0.16001496 0.19750746 0.21694776 0.77574897 0.43120536 -0.54464465 0.45574883 -0.6436591
0.23655827 -0.6811616 0.2608018 0.43663782 -0.48550943 -0.4083394 -0.57920665 0.5896032
-0.64489645 0.58037055 -0.5555987 -0.7423466 -0.5799262 -0.79017985 1.3007812 -1.220911
0.7011543 0.62480646 -0.6953612 -0.38199443 -0.45982248 0.6320749 0.5671277 0.39464647
0.33789772 -0.8827957 0.45796946 0.6159381 0.984994 -0.11231413 -0.07516786 -0.31016472
1.156742 0.40833735 0.8304032 -0.54423344 0.3635637 -0.56591606 0.65893406 0.5026597
-0.6199947 -0.050355535 0.66943103 1.1575009 -0.27862975 0.01630922 0.50338197 1.0060712
0.7570555 0.678321 -0.49703923 0.41370654 0.2332675 -0.19789392 0.40379182 0.19535062
0.019405358 1.0494553 -0.27630708 0.36497784 0.31960413 -1.0316155 -0.04668128 -0.18751095
0.66482913 0.31637046 -0.18194091 0.16118032 -0.48311403 -0.32262227 -0.6191731 0.2741562
-0.47507986 0.34754947 0.21880022 -0.084979326 -0.3758899 0.07200592 0.8316292 -0.67207986
0.74889684 0.31959233 -0.6038639 -0.27944234 0.11851325 0.749182 0.3355553 0.075819984
0.1722308 -0.47034895 0.28849864 0.39236936 0.5316982 0.04034759 -0.40873548 -0.2628335
0.23117112 0.44233307 0.8082895 -0.67386913 0.51030946 -0.74749416 0.23852877 0.48509988
-0.5393611 0.08380338 0.1556645 0.9776495 -0.23359886 0.2102742 0.05816803 0.60633206
-1.292296 -0.3329716 0.6314579 -1.1222954 -0.50413054 0.05626794 -0.89459956 0.18806964
-0.27926865 -0.84948456 -0.3243608 -0.5058192 -0.5366223 0.37410295 0.6940399 0.19801907
-0.45208767 0.37922597 -0.57063377 -0.6636715 0.75820035 0.8712273 0.38955262 -0.5754506
1.0462109 -0.58999103 1.1156547 0.5313422 0.39620316 0.5737125 -1.0826646 0.8374857
-0.20032744 -0.89663535 0.9593174 0.56389254 0.05457634 -0.8114982 -0.47751287 -0.36973122
-0.3404461 0.35485023 -0.6613937 -1.0691972 -0.56705374 0.25679663 -0.22478761 0.11961202
-0.6525954 -0.4176924 -0.833296 0.73302346 -0.40335408 0.5505149 -0.99144137 -0.44494995
0.8322161 0.20919234 -0.68037504 -0.6891449 0.15137285 0.035764776 -0.5773874 -0.4945189
-0.32704356 -0.521244 -0.11769478 -0.844786 -0.8583026 -0.3294394 -0.9089968 0.53921944
-0.115343824 -0.45522103 -0.43041587 -0.5321524 -0.8001 0.86041445 0.4470216 0.9393972
-0.3231446 0.66418266 -0.3837193 -0.74091953 0.45547506 0.72345906 0.6171175 -0.5855003
0.69878674 0.05582461 0.658326 0.060013413 0.43300146 0.94594735 -1.0611101 0.3714278
-0.23076932 -0.6421184 0.88766414 0.0018876931 0.23729002 -0.83140737 -0.62952846 -0.6113067
0.38080466 1.0420936 -0.4539433 -0.5034052 -1.1980672 -0.34192607 -0.15701929 -0.058794722
-0.7909832 -0.6549102 -0.7664097 0.70966464 -0.36673763 0.4264175 -0.62045646 -0.8001388
0.6371577 0.3630422 -0.20097598 -0.55830365 0.31179965 0.2391657 -0.45294192 -0.25236556

v.v_net.2.bias f4 [64]
00000000: f3c9 1cbf ad6d e3be 1f50 173f 6157 1f3f
00000010: b024 12bf 5630 efbe fe85 0c3f 0f8b 393f
00000020: c2e1 093f 3b54 0abf 7aa3 113f 19bf 053f
00000030: 0d73 02bf 5c3f 0c3f 22eb ef3e 2750 39be
00000040: 4ce4 1a3f 9c52 1dbf 3215 123f c5c1 fcbe
00000050: 9a4c 0f3f e4a8 07bf 920b e4bd fa18 5e3e
00000060: e71c 11bf cd81 16bf 5df8 093f bb85 f9be
00000070: e6c1 183f cb1e 063f d3f6 08bf 5b17 1e3f
00000080: 335c 05bf 38f5 26bf 4dc9 fcbe d351 1b3f
00000090: e90b 03bf 9f65 dc3e 511b 30bf 8cda b83c
000000a0: f0c8 2fbf ce41 0abf 89ac da3e d240 1a3f
000000b0: 1df8 eebe ef1b 06bf b767 05bf 3ab9 2d3f
000000c0: e727 1b3f 34cd 24bf 9441 3b3f cd29 1dbf
000000d0: 4d16 1a3f d14e 15bf 2fb3 fabe db1f 1e3f
000000e0: 45bc 16bf 6b10 1fbf fe8f 023f 4fc0 123f
000000f0: 1725 19bf 8ec4 1fbf 351a 19be 25fb 10bf
-0.6124565 -0.44419613 0.5910663 0.62242705 -0.5708723 -0.46716565 0.54891956 0.7247781
0.53860104 -0.54034775 0.5689007 0.52244717 -0.50956804 0.5478418 0.4685908 -0.18096982
0.60504603 -0.61454177 0.5706359 -0.49366584 0.5597626 -0.5299208 -0.11135019 0.21689215
-0.56684726 -0.5879181 0.538946 -0.4873484 0.59670866 0.52390736 -0.53501624 0.6175439
-0.5209381 -0.65217924 -0.4937233 0.6067173 -0.5119005 0.4304628 -0.6879168 0.022565149
-0.6866598 -0.5400666 0.4270976 0.6025516 -0.4667367 -0.52386373 -0.5211138 0.6786076
0.6060776 -0.64375615 0.7314694 -0.6139191 0.6019028 -0.5832339 -0.4896483 0.6176736
-0.58881027 -0.62134427 0.51000965 0.5732469 -0.5982222 -0.62409294 -0.14951403 -0.56633216

v.v_net.4.weight f4 [1, 64]
00000000: 7e5c 9340 8c6d 8f40 7e00 8fc0 9c20 8bc0
00000010: 70b6 9640 162c 9440 4ee5 8cc0 3033 8ac0
00000020: 6908 92c0 b076 8c40 e716 9bc0 ca5a 8cc0
00000030: b91d 9140 cff6 87c0 ce3d 96c0 3680 8c40
00000040: 54dc 90c0 cae5 8840 1f90 8ac0 cdc9 9f40
00000050: ad10 8ac0 5b44 9140 84e8 9940 745a 8ec0
00000060: 80dd 8d40 5bdd 8840 1456 8cc0 50ea 9140
00000070: 8049 91c0 199f 89c0 9835 8d40 50ad 8dc0
00000080: 8e89 9140 b0d0 8e40 b2ed 8840 88b9 97c0
00000090: fa04 8a40 4137 8cc0 6ad6 8c40 4349 c140
000000a0: d67b 8c40 6324 8a40 d0e0 88c0 9c49 99c0
000000b0: 6eb8 8f40 72ff 9140 323e a140 cc36 89c0
000000c0: 6c39 8bc0 d214 8a40 264c 8cc0 2c0f 8c40
000000d0: fac5 91c0 02fa 9040 6b26 8c40 7890 89c0
000000e0: 8203 8b40 683f 8c40 b605 9ac0 d4b1 91c0
000000f0: 4e8e 8e40 9a50 8d40 3195 9840 0cb1 8940
4.6050406 4.4821224 -4.46881 -4.3477306 4.70977 4.6303816 -4.4029913 -4.3187485
-4.5635266 4.389488 -4.8465457 -4.3860826 4.5348783 -4.248878 -4.6950445 4.3906507
-4.5268955 4.2780504 -4.330093 4.993384 -4.3145356 4.539594 4.8096333 -4.4485416
4.4332886 4.277021 -4.3855076 4.5598526 -4.540222 -4.300671 4.412792 -4.4274063
4.5480413 4.4629745 4.2790155 -4.741398 4.3131075 -4.381745 4.4011736 6.040193
4.3901167 4.3169417 -4.277443 -4.7902355 4.4912634 4.5624323 5.038842 -4.287939
-4.3507595 4.3150415 -4.3842955 4.376852 -4.555417 4.5305185 4.3796897 -4.2988853
4.344178 4.38274 -4.813197 -4.5529575 4.454871 4.416089 4.768212 4.302862
