tmp/experiments/RN1 False,True,True/pyt_network_save/model save24000.pt (torch_old, 314943 bytes, 33 tensors)

pi.pi_net.0.weight f4 [64, 5]
0	0xbf429d92	-0.76021683
1	0xbf3ca6b5	-0.73691875
2	0xbf5b9263	-0.85770243
3	0xbeaffbd2	-0.3437181
4	0xbece3634	-0.4027573
5	0x3eeefe50	0.466784
6	0xbd2c0709	-0.041998897
7	0xbea19c46	-0.3156454
8	0xbf2dd7f8	-0.6790767
9	0xbf2fe228	-0.6870446
10	0xbebedff7	-0.37280247
11	0xbef7532f	-0.48305652
12	0xbc770269	-0.015076258
13	0xbe0611e5	-0.13092764
14	0x3d75c59a	0.0600029
15	0xbefb3790	-0.49065828
16	0x3e2a6c26	0.16642818
17	0xbf0827fb	-0.53186005
18	0xbe247e47	-0.16063796
19	0x3f3f1dff	0.74655145
20	0xbe38837c	-0.18018907
21	0xbede6f4d	-0.4344429
22	0xbc1458fc	-0.009054419
23	0x3e17f167	0.14838181
24	0xbb97fe50	-0.0046384707
25	0xbd9989dd	-0.074969985
26	0xbd10f8ca	-0.035393514
27	0x3e2225d2	0.1583474
28	0x3ea3aa96	0.31966084
29	0xbebb4028	-0.36572385
30	0xbeaa0929	-0.33210114
31	0xbe18a8df	-0.14908169
32	0x3e42e7f9	0.19033803
33	0xbea7da44	-0.3278371
34	0x3ed3533e	0.41274446
35	0x3ef4f525	0.4784328
36	0xbe534bc4	-0.20634371
37	0x3d9a5812	0.07536329
38	0x3e1550cf	0.14581607
39	0xbdb7702e	-0.089569435
40	0x3eb04a33	0.3443161
41	0x3df4babe	0.11949681
42	0x3e1dffd0	0.15429616
43	0x3de68057	0.11254948
44	0xbe501727	-0.20321332
45	0x3d945f57	0.07244747
46	0xbe61beb9	-0.22045411
47	0x3e1ae974	0.15128118
48	0xbc9b62d9	-0.018968033
49	0x3ef55c33	0.47921905
50	0x3c213b0e	0.00984074
51	0x3ee66d88	0.4500544
52	0xbc284b43	-0.01027185
53	0x3e63a309	0.22230162
54	0xbdadd423	-0.084877275
55	0x3bc2f46d	0.005949548
56	0xbd72d294	-0.059282854
57	0x3d83e304	0.06439784
58	0x3efbb4a3	0.49161252
59	0xbe49544d	-0.19661064
60	0x3e0699ab	0.13144557
61	0xbec04366	-0.3755142
62	0x3f101812	0.5628673
63	0xbbd45d93	-0.0064808815
64	0x3cc9a9de	0.024617132
65	0x3ed4a887	0.41534826
66	0x3e773640	0.24141788
67	0x3e237714	0.15963393
68	0x3e7b9364	0.24567944
69	0xbdfa5eaf	-0.12225091
70	0xbe07f1e8	-0.13275874
71	0xbdf8f22b	-0.12155565
72	0xbf6874d9	-0.90803295
73	0xbe4f23f1	-0.20228554
74	0x3e148bbc	0.1450643
75	0x3db43acb	0.08800276
76	0xbeba0c83	-0.3633767
77	0x3ec46f0f	0.3836598
78	0xbe8d5605	-0.2760469
79	0x3ebe610d	0.3718342
80	0xbf0647cc	-0.52453303
81	0xbdd0a643	-0.10187962
82	0x3e4a24ab	0.1974055
83	0xbdc80333	-0.09766235
84	0x3ec8fea8	0.39256787
85	0x3f0b0982	0.5431138
86	0xbe9df50f	-0.30851027
87	0xbcda6846	-0.02666105
88	0x3e0580ce	0.13037416
89	0xbf1e848c	-0.61921
90	0xbd15a5bb	-0.036535006
91	0xbe6455ad	-0.22298308
92	0xbdd901a3	-0.10596015
93	0x3d600a38	0.054697245
94	0xbcf3b8b8	-0.029751167
95	0xbe2edb74	-0.17075902
96	0x3e8b9982	0.27265555
97	0xbe3f141c	-0.18660015
98	0x3ca7475d	0.02041977
99	0xbdedcdcc	-0.11611518
100	0xbe8246cf	-0.25444648
101	0xbe1f0dc1	-0.1553259
102	0x3dcceb1a	0.100057796
103	0xbdfe5457	-0.1241843
104	0x3f4f66cb	0.81016225
105	0xbe9f8c28	-0.31161618
106	0xbe8c1e02	-0.27366644
107	0xbea9a7b2	-0.33135754
108	0x3e7c9bd3	0.24668817
109	0xbe3ac422	-0.18238881
110	0x3e6673d9	0.2250513
111	0xbebfd985	-0.37470642
112	0x3ec3aaf4	0.38216364
113	0x3e6440d8	0.22290361
114	0x3de039ce	0.10948525
115	0x3f1a2bb7	0.60222954
116	0x3e7ca33b	0.24671642
117	0xbe731552	-0.23738602
118	0x3eaf6c96	0.34262532
119	0xbef906c4	-0.48637974
120	0xbdaf6e4f	-0.085659616
121	0x3e701ac2	0.23447707
122	0x3e85881f	0.26080415
123	0x3e48e7ef	0.19619726
124	0xbe549618	-0.20760381
125	0xbf137e5a	-0.5761467
126	0xbe18303c	-0.1486215
127	0xbe284c10	-0.16435266
128	0xbeb01e3f	-0.34398076
129	0x3f19770e	0.5994729
130	0xbee67ec8	-0.450186
131	0xbe55e793	-0.2088912
132	0x3a3a1f80	0.0007100031
133	0xbdc3617b	-0.09540077
134	0x3ecfc28d	0.40578118
135	0x3f02b278	0.5105357
136	0x3d47bd09	0.048764262
137	0x3f811b46	1.0086448
138	0x3d9a9e8c	0.07549772
139	0x3eaf3b4c	0.34224927
140	0x3e9831c0	0.29725456
141	0xbd6d1cf4	-0.05788894
142	0xbec19d53	-0.3781534
143	0x3e562ed2	0.20916298
144	0x3bd9855a	0.006638211
145	0xbeafff6e	-0.34374565
146	0xbeafccfb	-0.34336075
147	0xbdfaf02c	-0.122528404
148	0x3d6e368d	0.058157492
149	0x3e8699a3	0.2628909
150	0xbe7713e3	-0.2412868
151	0x3e7ce8a2	0.24698117
152	0xbdaad33c	-0.08341071
153	0x3e03e8bd	0.12881751
154	0xbe1fceec	-0.15606278
155	0x3c098fba	0.0083960835
156	0xbf06abf4	-0.5260613
157	0x3d58160c	0.0527554
158	0x3d8e8f5c	0.069609374
159	0x3e8ea614	0.27861083
160	0xbeabc084	-0.33545315
161	0xbece1826	-0.402528
162	0xbf41961d	-0.7561968
163	0xbe088e4a	-0.13335529
164	0xbf3f145b	-0.74640435
165	0xbe498dc1	-0.19682981
166	0x3f1f3ed9	0.6220527
167	0xbf2ab499	-0.6668182
168	0x3d997aba	0.07494111
169	0xbe244d8d	-0.16045208
170	0x3df062d1	0.11737598
171	0x3e865717	0.2623832
172	0x3d081e7e	0.033232205
173	0xbee9d796	-0.45672292
174	0xbe8c50c6	-0.27405375
175	0xbf12106b	-0.570563
176	0xbc5c37bc	-0.0134410225
177	0xbe59d4b2	-0.21272543
178	0xbdb2a180	-0.0872221
179	0x3f097778	0.5369792
180	0xbf33708b	-0.700936
181	0xbddafc6a	-0.106926754
182	0xbee3b9e1	-0.44477752
183	0x3e6dc16c	0.23218316
184	0x3f03ff12	0.5156108
185	0x3e7d145f	0.24714802
186	0xbdb86f8c	-0.09005651
187	0xbd73da6a	-0.059534468
188	0x3d8b5a58	0.06804341
189	0xbebcdef3	-0.36888847
190	0x3e1d0588	0.15334141
191	0xbed6f787	-0.41985723
192	0xbf811ede	-1.0087545
193	0xbc87d4c0	-0.01658094
194	0xbf278f18	-0.6545272
195	0xbeb26e2a	-0.34849674
196	0xbef164cb	-0.4714721
197	0xbf4b44a0	-0.7940159
198	0xbefe3f24	-0.49657547
199	0xbeb45c3c	-0.3522662
200	0x3e1e322b	0.15448825
201	0xbe44fb2b	-0.19236438
202	0x3e0cd989	0.13754858
203	0x3ea6acb1	0.32553628
204	0xbde7d87d	-0.11320589
205	0x3e851896	0.2599532
206	0x3ed3c560	0.41361523
207	0x3fbc2bb8	1.4700842
208	0x3ee9da81	0.45674518
209	0x3e8d3cb9	0.2758539
210	0x3e6c1de9	0.23058285
211	0xbc264db6	-0.010150364
212	0x3db2a1c7	0.08722263
213	0x3dc7b262	0.09750821
214	0xbeaf9883	-0.34296045
215	0x3d8ee526	0.069773
216	0xbe7a2c10	-0.24430871
217	0x3eaf64ca	0.34256583
218	0x3e843a14	0.2582556
219	0x3e2e39e3	0.1701427
220	0x3e125a1f	0.14292191
221	0xbda02546	-0.07819609
222	0xbeb1ec5b	-0.34750637
223	0x3e1dbdd6	0.15404448
224	0x3e9bcf60	0.30431652
225	0xbdac595a	-0.0841548
226	0x3ecf7c73	0.40524635
227	0xbedc9f48	-0.43090272
228	0xbe8d9373	-0.27651557
229	0x3e6f49c9	0.2336799
230	0x3d7c3e8f	0.061583098
231	0x3ee9747f	0.45596692
232	0x3c86493a	0.016392339
233	0xbe5777d6	-0.21041808
234	0xbe9bcef5	-0.30431333
235	0xbec207e6	-0.3789665
236	0xbe80434e	-0.2505135
237	0x3e5e0c1b	0.21684305
238	0xbdf11863	-0.117722295
239	0x3eadd95b	0.33954892
240	0xbeb4ca98	-0.35310817
241	0x3e8257b2	0.2545753
242	0x3dd1b74e	0.10240041
243	0xbe9d4a10	-0.30720568
244	0x3d8bc81c	0.06825277
245	0xbe6acd30	-0.22929835
246	0x3bb1093a	0.005402711
247	0xbea4c534	-0.32181704
248	0x3e5bb87d	0.21457095
249	0x3eb28f32	0.34874874
250	0xbe2f0908	-0.17093289
251	0xbe04b3f1	-0.12959267
252	0x3eeb5ce2	0.459693
253	0xbde61284	-0.11234
254	0xbe211252	-0.15729645
255	0x3e0379d2	0.1283944

pi.pi_net.0.bias f4 [64]
0	0xbeb75314	-0.3580557
1	0xbd80932e	-0.06278072
2	0xbdbd6657	-0.092480354
3	0x3dcdb9de	0.10045217
4	0x3ecb6f6c	0.39733446
5	0xbd6a8408	-0.05725482
6	0xbe341dc7	-0.17589484
7	0xbeb88e0e	-0.3604588
8	0xbcc56789	-0.024097221
9	0xbe50ec21	-0.20402576
10	0xbe619d84	-0.22032744
11	0xbc91bfeb	-0.017791709
12	0xbe0f5879	-0.13998593
13	0xbcaf96c6	-0.021434199
14	0x3e147cc2	0.14500716
15	0xbe0be5d2	-0.13661888
16	0x3d8cbc80	0.06871891
17	0x3d892de4	0.06698206
18	0x3d934f7c	0.07192895
19	0x3e87c5f9	0.2651823
20	0xbe2199bd	-0.15781303
21	0xbe1595fa	-0.14607993
22	0xbe8a2a5d	-0.26985446
23	0x3d0ae731	0.033911888
24	0xbeb6d21b	-0.35707173
25	0x3da210b8	0.07913345
26	0xbbf5bc24	-0.0074992348
27	0x3de12e90	0.10995209
28	0x3d8f60d2	0.07000889
29	0xbd88cdfc	-0.066799134
30	0x3e5b31a4	0.21405655
31	0xbd6485da	-0.055791713
32	0xbe86f508	-0.2635882
33	0x3e2caf59	0.16863765
34	0x3e3662d0	0.17811131
35	0xbe2fe386	-0.17176637
36	0xbdb40153	-0.08789315
37	0xbd0d4209	-0.034486804
38	0xbd8eed32	-0.06978835
39	0xbe34b6a4	-0.17647797
40	0xbe013c3e	-0.12620637
41	0x3e12748e	0.14302275
42	0x3d9d8338	0.076910436
43	0xbc0e2b52	-0.008677321
44	0xbe9a50c7	-0.30139753
45	0x3e68a4e8	0.22719157
46	0x3e118e69	0.14214481
47	0xbdb85b2b	-0.09001764
48	0xbe819932	-0.2531219
49	0x3daae949	0.08345277
50	0x3e58773e	0.21139237
51	0x3db0a2b1	0.08624781
52	0xbe9633fe	-0.29336542
53	0xbdd43519	-0.1036169
54	0x3e67a4d3	0.22621469
55	0xbdd04b97	-0.101706676
56	0x3de2f2bc	0.11081454
57	0xbe33e39b	-0.17567293
58	0xbe055b03	-0.13023
59	0xbded8d53	-0.11599221
60	0xbe8fc685	-0.28081146
61	0xbe50d025	-0.20391901
62	0xbd97ce6a	-0.07412417
63	0xbe40d326	-0.18830547

pi.pi_net.2.weight f4 [64, 64]
0	0x3e8a8630	0.27055502
1	0xbe6337c6	-0.22189245
2	0x3e4c7688	0.19967091
3	0x3ec511f3	0.38490257
4	0xbe013231	-0.12616803
5	0xbe7d622c	-0.24744481
6	0x3eb87b68	0.36031651
7	0x3e0c7e54	0.13720065
8	0xbd6c79c2	-0.057733305
9	0x3e95a9a8	0.29231
10	0x3c68596c	0.014181476
11	0x3ac44061	0.00149728
12	0x3f28efe6	0.65991056
13	0xbdf0e247	-0.11761909
14	0x3e5c3caa	0.21507517
15	0x3e9800e2	0.29688174
16	0x3e65d97b	0.22446243
17	0xbed45b9f	-0.4147615
18	0xbe7240c2	-0.23657516
19	0xbf0b333d	-0.5437506
20	0x3dc62e15	0.09676758
21	0xbecd9534	-0.40152895
22	0x3e35b980	0.17746544
23	0xbeca8f40	-0.39562416
24	0x3e80297d	0.25031653
25	0x3e9654e9	0.29361656
26	0xbe2f5767	-0.17123185
27	0xbddf71ee	-0.10910402
28	0x3df2a733	0.11848297
29	0x3e588887	0.21145831
30	0xbe79a8a2	-0.24380735
31	0x3e8c5dca	0.27415305
32	0xbd82962d	-0.063763
33	0xbf04babc	-0.51847434
34	0xbdcc6594	-0.09980312
35	0xbca61f3c	-0.020278566
36	0x3ebb3847	0.36566374
37	0xbe72b5e6	-0.23702201
38	0xbe2d8b6d	-0.16947718
39	0xbd2afd28	-0.041745335
40	0x3dd422d2	0.10358204
41	0x3be56710	0.0070008114
42	0x3d9ad6ff	0.075605385
43	0x3eb4fe75	0.35350385
44	0x3f17a80d	0.592408
45	0xbe093126	-0.13397655
46	0xbf19b5c6	-0.6004299
47	0x3f1c4d51	0.61055475
48	0x3e134032	0.14379957
49	0x3c472c65	0.012156581
50	0x3cdd1c68	0.026991084
51	0xbebfd194	-0.37464583
52	0x3d8fc209	0.07019431
53	0x3e3988a1	0.18118526
54	0x3ec9f563	0.39445028
55	0x3e47ae47	0.19500075
56	0xbe2b6e26	-0.16741237
57	0xbe53865c	-0.20656723
58	0xbe89f198	-0.26942134
59	0x3e3a5200	0.18195343
60	0x3f0908df	0.5352916
61	0xbea824d7	-0.32840607
62	0x3d194b2f	0.037425216
63	0x3cc2a2ed	0.02375933
64	0xbe456afd	-0.19279094
65	0x3e2c814c	0.16846198
66	0x3e8a1c5a	0.26974756
67	0xbde7b44f	-0.11313688
68	0x3db16dbd	0.08663509
69	0xbe9c8bfc	-0.3057555
70	0x3ee66532	0.4499908
71	0xbde6790d	-0.11253557
72	0xbe210ed0	-0.15728307
73	0x3d9d3136	0.07675402
74	0x3e9098ab	0.28241476
75	0xbd26c074	-0.04071088
76	0x3eb29c16	0.3488471
77	0xbc8c138c	-0.017099164
78	0xbd135f55	-0.035979588
79	0x3f04ff36	0.5195192
80	0x3ebefd9a	0.37302858
81	0x3ed5a4c8	0.4172728
82	0xbe0cdcf5	-0.13756163
83	0xbebb16ab	-0.36540732
84	0x3edc98ee	0.43085426
85	0xbd0846b4	-0.033270553
86	0x3ec06a52	0.37581116
87	0xbe3cff6c	-0.1845681
88	0x3ef58438	0.47952437
89	0x3d06153c	0.032735094
90	0xbe7c51fa	-0.24640647
91	0xbd4d7e4c	-0.050169274
92	0x39a9dbb6	0.0003239789
93	0x3ccbcbd9	0.024877476
94	0x3dae124f	0.08499586
95	0x3e5b1ea8	0.21398413
96	0xbe32582a	-0.17416444
97	0xbeee08bf	-0.46491048
98	0xbe3f9db0	-0.18712497
99	0x3e65281b	0.2237858
100	0x3ec94de1	0.3931723
101	0xbeaeea37	-0.34163067
102	0xbee142f1	-0.43996385
103	0xbe9d5af6	-0.3073346
104	0xbee0d3c0	-0.43911552
105	0x3d529429	0.051410828
106	0xbebcd73c	-0.3688296
107	0x3e26832e	0.16260979
108	0x3da733df	0.081641905
109	0x3be67b21	0.007033721
110	0xbe382e8a	-0.17986503
111	0x3d50c1e1	0.050966147
112	0xbe441941	-0.19150259
113	0x3eba5ff9	0.36401346
114	0xbf236ece	-0.6384095
115	0xbeb7e953	-0.359202
116	0x3e3184d5	0.17335828
117	0xbdb622d9	-0.088933654
118	0x3e078855	0.132356
119	0x3e983bf1	0.29733232
120	0x3d904339	0.07044072
121	0x3deca3cc	0.11554679
122	0x3cb31a20	0.021863043
123	0xbdc25397	-0.094886
124	0x3d1e7f30	0.038695514
125	0x3c569986	0.013098126
126	0xbdfda513	-0.12385001
127	0xbdfeec1e	-0.124473795
128	0xbe93bb8f	-0.28854033
129	0xbe3d4633	-0.1848381
130	0xbd0bfa80	-0.034174442
131	0xbe848952	-0.25886017
132	0xbec3d7a0	-0.38250446
133	0xbd70bf6e	-0.05877631
134	0x3cc8da67	0.024518205
135	0xbf043cff	-0.5165557
136	0x3de43897	0.11143606
137	0x3ebcc613	0.3686987
138	0x3e1a4352	0.15064743
139	0xbe224f32	-0.15850523
140	0x3e737238	0.2377404
141	0x3e262fcd	0.16229172
142	0xbf41d31c	-0.7571275
143	0x3ec269b8	0.37971282
144	0x3e97fd56	0.29685467
145	0xbe50233d	-0.20325942
146	0xbe1e4aea	-0.15458265
147	0xbd822e94	-0.0635654
148	0x3eab7555	0.33487955
149	0x3ad9251e	0.0016566848
150	0x3e822aa3	0.25423154
151	0x3f01d117	0.5070967
152	0x3ebcc636	0.36869973
153	0xbeab366e	-0.33439964
154	0xbea8c57a	-0.32963163
155	0x3e82b401	0.25527957
156	0x3dec1fda	0.11529513
157	0xbf08c476	-0.53424776
158	0x3d124be6	0.035716914
159	0xbe86e9a5	-0.26350132
160	0xbe90450c	-0.2817768
161	0xbd72ec6a	-0.059307493
162	0xbef2ba06	-0.4740755
163	0xbdf054c5	-0.117349185
164	0x3cfa1fa0	0.030532658
165	0xbdd8ae8b	-0.105801664
166	0xbc207cf4	-0.009795416
167	0x3b7215a5	0.003693917
168	0x3d924a6d	0.07143102
169	0x3ecdeff1	0.40222123
170	0xbee63bd6	-0.44967526
171	0xbb1d4534	-0.0023997547
172	0x3e702db5	0.23454936
173	0xbcb68079	-0.022278057
174	0xbe554e06	-0.20830545
175	0x3d465bdc	0.048427448
176	0x3e722e75	0.23650534
177	0x3e6e8cc1	0.23295881
178	0xbdb4c74e	-0.08827077
179	0x3e070267	0.1318451
180	0x3d180187	0.03711083
181	0xbdad1cb4	-0.0845274
182	0xbd8a1bd9	-0.06743593
183	0x3eecdbcf	0.4626145
184	0x3ef4af3b	0.4778994
185	0xbc1e55fa	-0.009664053
186	0x3e8a031d	0.269555
187	0x3e0a9c4d	0.13536187
188	0xbe495c49	-0.1966411
189	0x3ea0b432	0.31387478
190	0x3db5f42f	0.08884465
191	0x3e8a0035	0.26953283
192	0xbdd396f5	-0.10331527
193	0x3ef2b14b	0.4740089
194	0x3c477b18	0.012175344
195	0xbed0d2b2	-0.40785748
196	0xbf094955	-0.5362752
197	0x3d512529	0.05106083
198	0xbf01d232	-0.5071136
199	0xbeedb252	-0.4642511
200	0x3e76b0d0	0.24090886
201	0xbeaa7aab	-0.33296713
202	0xbb88bd6b	-0.004172971
203	0x3dafa6d1	0.085767396
204	0x3d9f1448	0.0776754
205	0x3b998a0b	0.0046856455
206	0xbe0d9071	-0.13824631
207	0xbf0ac86d	-0.54212075
208	0xbe2fa087	-0.1715108
209	0x3e2d2cdc	0.16911644
210	0x3e1f4c40	0.15556431
211	0x3d4ce608	0.050024062
212	0xbe5fae9e	-0.21843955
213	0x3de0a277	0.10968488
214	0x3e7b3531	0.2453201
215	0x3e1a8bbc	0.15092367
216	0x3d99c49c	0.075082034
217	0xbda7ef58	-0.08199948
218	0xbed0e490	-0.4079938
219	0xbdbb43d7	-0.09143799
220	0xbbbeec21	-0.0058264886
221	0xbd99d747	-0.07511764
222	0xbbec7b47	-0.0072168442
223	0xbd5d46b0	-0.05402249
224	0xbe07285e	-0.13198993
225	0x3e83eff8	0.2576902
226	0x3da8592f	0.082201354
227	0xbe82544e	-0.25454944
228	0xbe970431	-0.29495385
229	0x3dd389a2	0.10328986
230	0x3ea74fe2	0.32678133
231	0xbe148a57	-0.14505897
232	0xbead06d6	-0.33794278
233	0x3df20ca5	0.11818818
234	0x3d7cb534	0.061696246
235	0xbe63efdc	-0.22259468
236	0xbf051428	-0.5198388
237	0xbda9851a	-0.0827734
238	0x3e9d0624	0.30668747
239	0xbf1a6d91	-0.60323435
240	0x3e4de8ea	0.20108381
241	0xbe00328b	-0.1251928
242	0x3e1f6701	0.15566637
243	0x3f100925	0.56263953
244	0xbe8c1f53	-0.27367648
245	0xbdf393c1	-0.11893416
246	0xbd039603	-0.032125484
247	0x3ddb1456	0.10697238
248	0x3e448594	0.19191581
249	0x3eb78931	0.35846856
250	0x3e20a4f7	0.15687929
251	0xbdd67f05	-0.10473446
252	0x3e50d2cd	0.20392914
253	0xbb50f2cb	-0.0031882997
254	0xbe7f5997	-0.2493652
255	0x3e4133ef	0.18867467

pi.pi_net.2.bias f4 [64]
0	0xbd4de2f4	-0.050265267
1	0x3c5a19e9	0.0133118415
2	0x3ddb77e1	0.107162245
3	0x3d6873ac	0.05675094
4	0x3e1318d9	0.14364947
5	0xbd8f9c55	-0.0701224
6	0x3c52bfb0	0.012863085
7	0xbda0450c	-0.0782567
8	0xbc2d60ee	-0.010582192
9	0xbbd62762	-0.0065354565
10	0xbe2b8f0b	-0.16753785
11	0x3cf88365	0.030336091
12	0xbdcca00f	-0.09991466
13	0xbdc4717f	-0.0959196
14	0xbe0f2f38	-0.13982856
15	0xbe26627f	-0.16248511
16	0x3e84d258	0.2594173
17	0x3d5b1d54	0.053494766
18	0xbd0a2dee	-0.03373521
19	0x3d2367d1	0.03989393
20	0xbb99b81b	-0.0046911365
21	0x3d1fb366	0.038989447
22	0x3d0b3f3a	0.033995844
23	0x3e238215	0.15967591
24	0x3ca51445	0.020151267
25	0xbb0d540f	-0.0021564995
26	0xbea019cb	-0.31269678
27	0x3d83ad33	0.064295195
28	0x3d898356	0.067145035
29	0x3dc17d9d	0.09447787
30	0xbda6cd95	-0.081446804
31	0x3c6bc6ef	0.014390691
32	0x3e469ef6	0.19396576
33	0xbd9a3236	-0.07529108
34	0x3e314a11	0.1731341
35	0xbd38b3b4	-0.045093253
36	0x3e8c3436	0.27383584
37	0x3dd30274	0.10303202
38	0xbd734a4d	-0.05939703
39	0xbdba3467	-0.09092026
40	0x3e2349ea	0.15946165
41	0x3e051d67	0.12999497
42	0xbcc28621	-0.023745598
43	0xbdcd222e	-0.10016285
44	0xbdab0aba	-0.08351655
45	0x3ae3a823	0.0017368834
46	0xbcbc9d47	-0.023024214
47	0xbe5b7073	-0.21429615
48	0xbd9a0320	-0.07520127
49	0xbde42fab	-0.111419044
50	0x3cc4ff5e	0.02404755
51	0x3d4bbe23	0.049741875
52	0xbdc79111	-0.09744466
53	0x3e74ede4	0.23918873
54	0x3dcb3c04	0.099235564
55	0xbe06a483	-0.13148694
56	0xbd334af1	-0.04377264
57	0xbda8051b	-0.08204099
58	0x3da97233	0.08273735
59	0xbe0d2a23	-0.13785605
60	0xbde7f056	-0.11325137
61	0x3ca15966	0.019695949
62	0x3d2ffe1b	0.042966943
63	0xbc9cff06	-0.019164573

pi.pi_net.4.weight f4 [256, 64]
0	0x3efdb7ad	0.49554196
1	0x3e055403	0.13020329
2	0xbec3fe05	-0.3827974
3	0xbe7eb02c	-0.24871892
4	0xbea2ee3d	-0.31822386
5	0x3dcf08e1	0.101091154
6	0xbe1c9e7c	-0.15294832
7	0x3efab1f7	0.489639
8	0x3efbe346	0.49196833
9	0x3eb528d0	0.353827
10	0x3ec1e6af	0.3787131
11	0xbdf8e2e3	-0.1215265
12	0x3dbcef77	0.09225362
13	0x3e9f25dc	0.31083572
14	0x3f22a86c	0.6353824
15	0x3ed907d6	0.4238879
16	0xbec0a37f	-0.37624738
17	0xbddf2eb6	-0.10897581
18	0x3d2afb73	0.041743707
19	0x3c8aae4a	0.01692881
20	0x3f0f20b5	0.5590928
21	0x3ea1c154	0.3159281
22	0x3d86199f	0.065478556
23	0xbe5bae86	-0.21453294
24	0x3ea4a835	0.32159582
25	0xbceee700	-0.029162884
26	0x3ea14bc5	0.3150312
27	0xbe69fcfc	-0.22850412
28	0xbeb2bbc5	-0.34908882
29	0xbe7a3ac6	-0.24436483
30	0x3df20947	0.11818176
31	0xbe42284e	-0.18960688
32	0xbf29e7a6	-0.6636909
33	0x3d566c5a	0.052349426
34	0xbed5ec7e	-0.41781992
35	0x3e30a911	0.17251994
36	0xbf1bd161	-0.6086636
37	0xbeebabeb	-0.460296
38	0x3e16b17d	0.14716144
39	0x3e535ad2	0.20640114
40	0xbe8fae2b	-0.28062567
41	0xbe8908ae	-0.26764435
42	0x3da1150f	0.07865345
43	0xbe104a59	-0.14090861
44	0x3cae8fe5	0.021308849
45	0x3d5ee6ea	0.054419436
46	0x3e0f9230	0.1402061
47	0x3f089f2f	0.53367895
48	0x3ebb85a8	0.3662541
49	0x3ea523f0	0.3225398
50	0xbe92fb56	-0.2870738
51	0xbccecd41	-0.025244357
52	0x3ed7e503	0.4216691
53	0xbeec4db9	-0.46153048
54	0xbedf3da1	-0.43601707
55	0x3e22c369	0.15894856
56	0xbe56750d	-0.20943089
57	0x3d5092dd	0.05092131
58	0xbddbf48d	-0.10740004
59	0x3efa3838	0.48871017
60	0x3ea743d6	0.32668942
61	0x3e3fd5bc	0.18733877
62	0xbef5ee52	-0.48033386
63	0xbe81a04f	-0.25317618
64	0x3ecc8a0f	0.3994908
65	0x3ebadd02	0.3649674
66	0xbed7a5c1	-0.42118648
67	0xb9f7a716	-0.00047236
68	0xbe1eb5ae	-0.15498993
69	0x3e93f3a4	0.2889682
70	0xbeb038dc	-0.3441838
71	0x3eb28c24	0.34872544
72	0x3f412dd5	0.7546056
73	0x3ece4131	0.40284112
74	0x3efc7d5b	0.4931439
75	0x3e0acd46	0.13554868
76	0x3d86831e	0.06567977
77	0x3e1fe0e6	0.15613136
78	0x3ea10024	0.3144542
79	0x3e766061	0.24060203
80	0xbe5530d7	-0.20819412
81	0xbde59d54	-0.112116486
82	0xbda17ea8	-0.07885486
83	0xbe8a71a7	-0.27039835
84	0x3e02b15b	0.12762968
85	0xbd34b239	-0.04411528
86	0xbe1799e3	-0.14804797
87	0xbed0d281	-0.40785602
88	0x3ea67d61	0.32517532
89	0xbe9871ef	-0.29774424
90	0x3ea6b242	0.32557875
91	0xbeb8ae48	-0.36070466
92	0xbe8bde6e	-0.27318138
93	0xbdbb482c	-0.09144625
94	0x3e1d4ed6	0.15362105
95	0xbd8b7fd5	-0.068114914
96	0xbee4762a	-0.44621402
97	0x3d249b94	0.040187433
98	0xbf4459de	-0.76699626
99	0xbe878642	-0.26469618
100	0xbecb00f9	-0.3964918
101	0xbe75f218	-0.24018133
102	0x3e97804e	0.29590076
103	0xbe3b53eb	-0.18293731
104	0xbe021d21	-0.12706424
105	0xbbe34434	-0.0069356207
106	0x3f0becce	0.5465821
107	0xbf0314e8	-0.51203775
108	0xbe8f9768	-0.280452
109	0x3e73b910	0.23801064
110	0x3ecf65d8	0.40507388
111	0x3e41e2af	0.18934129
112	0x3e3fa42c	0.1871497
113	0x3f1582aa	0.584025
114	0xbe9adb29	-0.3024533
115	0xbea30405	-0.31839004
116	0x3e18ffb9	0.149413
117	0xbf2634ef	-0.6492452
118	0xbf09ef48	-0.5388074
119	0x3e6bc76b	0.2302529
120	0xbe0f1839	-0.13974084
121	0xbc1f931b	-0.0097396625
122	0xbe225b23	-0.15855078
123	0x3f065567	0.52474064
124	0x3e37ab46	0.1793643
125	0x3e4af38c	0.19819468
126	0xbeb9fa90	-0.36323977
127	0xbe9cab1c	-0.30599296
128	0x3e05839a	0.13038483
129	0xbe69ac56	-0.22819647
130	0x3e5950e9	0.21222271
131	0x3d6579c8	0.056024343
132	0xbf1b208f	-0.60596555
133	0x3ea7cd58	0.32773852
134	0x3ed6f419	0.41983107
135	0x3eba3292	0.36366707
136	0xbedd0518	-0.4316795
137	0xbe950c91	-0.2911115
138	0x3dc9e2e0	0.09857726
139	0x3e1bacdc	0.1520266
140	0x3f1d22c5	0.6138118
141	0x3f0e4161	0.5556851
142	0x3ea7bed9	0.32762793
143	0x3f00ffec	0.50390506
144	0x3eb17a25	0.346635
145	0xbf3d1225	-0.7385581
146	0xbf154274	-0.58304524
147	0xbf1f41f0	-0.6220999
148	0xbeb4f925	-0.35346332
149	0x3ea3f5b8	0.32023406
150	0x3f209ac7	0.6273617
151	0x3e0c9aa7	0.1373087
152	0xbe8c54d7	-0.27408478
153	0x3eb3b084	0.35095608
154	0xbe5ac10c	-0.21362704
155	0x3e858871	0.2608066
156	0x3ee59e5d	0.44847384
157	0x3e900990	0.28132296
158	0x3f1cb4b1	0.61213213
159	0x3f041a1e	0.5160235
160	0xbdd5256e	-0.1040753
161	0xbef29f2a	-0.47387058
162	0x3d7fa879	0.062416527
163	0x3f0a4636	0.54013383
164	0xbd198210	-0.037477553
165	0xbe5e3ddc	-0.21703285
166	0xbeeef5cd	-0.46671906
167	0x3ec086b6	0.37602776
168	0x3e294071	0.16528489
169	0xbe15c441	-0.14625646
170	0xbebc0bb1	-0.3672767
171	0x3f11c93c	0.56947684
172	0xbed87619	-0.422776
173	0xbefcb7f9	-0.4935911
174	0xbe550777	-0.20803629
175	0x3ebb6a75	0.36604658
176	0x3e58c4fe	0.21168897
177	0x3ea9ac68	0.33139348
178	0x3f2284f5	0.63484126
179	0xbeef38b1	-0.4672294
180	0x3e9b7c9a	0.303685
181	0x3e2f1691	0.17098452
182	0x3e18d1e5	0.14923818
183	0x3e713d69	0.23558582
184	0xbee2de11	-0.44310048
185	0xbf1a78f1	-0.6034079
186	0x3ea194c8	0.31558824
187	0xbe9b27f5	-0.30303922
188	0x3c530c31	0.012881325
189	0xbe5bef48	-0.21477997
190	0x3f09db65	0.53850394
191	0xbee12d27	-0.4397976
192	0x3e3d58f1	0.1849096
193	0x3eabdec4	0.33568394
194	0xbf04751c	-0.51741195
195	0xbcbdb027	-0.023155285
196	0xbebab001	-0.36462405
197	0x3e21a71d	0.15786405
198	0xbf09aeb9	-0.5378223
199	0x3f1f5257	0.62235016
200	0x3eb0c6fd	0.34526816
201	0x3eb00366	0.34377593
202	0x3ebfc410	0.3745427
203	0x3e635063	0.22198634
204	0x3eb14393	0.34621868
205	0x3b39a2e0	0.002832584
206	0x3e9a65b1	0.3015571
207	0x3ebe8d7e	0.37217325
208	0xbee6c666	-0.4507324
209	0xbb802d9b	-0.0039116866
210	0x3d9be3e0	0.07611823
211	0xbe4fe1a5	-0.2030092
212	0x3ef09e7a	0.46995908
213	0x3dc240b9	0.09485001
214	0xbe844f04	-0.25841534
215	0xbf1d930f	-0.6155252
216	0x3e742f07	0.23846065
217	0xbee71916	-0.45136327
218	0x3eafadaa	0.34312183
219	0xbe9e1fbc	-0.30883586
220	0xbec9cd97	-0.39414665
221	0xbe0378b1	-0.12839009
222	0xbc7421a1	-0.014900596
223	0x3e11dff8	0.14245594
224	0xbefba66c	-0.49150407
225	0x3e88b64b	0.26701578
226	0xbeece0b7	-0.46265194
227	0x3dc8764a	0.09788187
228	0xbeb93f55	-0.3618113
229	0xbe7b527d	-0.24543186
230	0x3ddc146d	0.107460834
231	0x3e193565	0.14961775
232	0xbeb05b12	-0.3444448
233	0x3d39c525	0.045354027
234	0x3f563d8f	0.8368768
235	0xbeb67d01	-0.35642245
236	0xbec1ec1a	-0.37875444
237	0x3b7f76b1	0.0038980658
238	0x3f7b2fa9	0.981196
239	0x3d82185b	0.06352302
240	0x3e512e9e	0.2042794
241	0x3e8c74e3	0.27432927
242	0xbef32c03	-0.47494516
243	0xbdf0b404	-0.11753085
244	0xbd815033	-0.06314125
245	0xbf1a3023	-0.602297
246	0xbf0c7717	-0.54869217
247	0xbe06fa33	-0.13181381
248	0xbe1fa7c3	-0.1559134
249	0x3da6af13	0.081388615
250	0xbda3e882	-0.08003332
251	0x3f16454f	0.58699507
252	0x3e80bd59	0.2514446
253	0x3e99adc1	0.30015376
254	0xbf275767	-0.6536774
255	0xbe087a57	-0.13327919

pi.pi_net.4.bias f4 [256]
0	0xbec0640d	-0.37576333
1	0xbee7698a	-0.45197707
2	0x3e6910b1	0.22760274
3	0xbf04765e	-0.51743114
4	0xbecb6397	-0.3972442
5	0x3ee85e74	0.45384562
6	0xbedd884b	-0.43268046
7	0x3f017a9c	0.5057771
8	0x3ec379ff	0.38179013
9	0x3f05b939	0.5223575
10	0x3ebed96c	0.37275255
11	0xbecfcb47	-0.40584776
12	0xbed89425	-0.42300525
13	0x3ed0eb5b	0.40804562
14	0xbef42e9e	-0.47691816
15	0x3eccec4c	0.4002403
16	0xbef233ff	-0.47305295
17	0xbec6c4be	-0.38821977
18	0x3ed6a0fa	0.4191969
19	0xbecdc715	-0.4019095
20	0x3ed65f7a	0.41869718
21	0x3eca8432	0.39553982
22	0x3ec2ef9c	0.38073432
23	0x3ebe7e8f	0.37205932
24	0x3e975f39	0.29564837
25	0xbed2b386	-0.4115259
26	0x3eac390a	0.33637267
27	0xbecfd1c6	-0.40589732
28	0xbf065824	-0.5247824
29	0xbebe77e1	-0.37200835
30	0xbef37dc7	-0.47556898
31	0x3ec9566f	0.39323756
32	0x3f05e9d5	0.52309924
33	0x3ea0b5e9	0.31388786
34	0x3e921a83	0.28535852
35	0xbec057b9	-0.37566927
36	0xbec81437	-0.39077923
37	0x3f05d87a	0.5228344
38	0x3edf7689	0.43645123
39	0x3e8a6bcd	0.2703537
40	0xbebd5a7d	-0.369831
41	0x3ee3c256	0.44484204
42	0xbeba7336	-0.36416024
43	0x3eddd53e	0.43326753
44	0x3ee3d4f1	0.444984
45	0xbe9bb5d9	-0.30412176
46	0x3ee31f44	0.4435979
47	0x3ea9c7f2	0.3316036
48	0x3ea3165f	0.31853005
49	0xbef8bf0c	-0.48583257
50	0x3ed82cf1	0.42221788
51	0xbeb00da6	-0.34385413
52	0xbe96e934	-0.29474795
53	0x3ebb0fb2	0.36535412
54	0x3ed4813f	0.41504857
55	0xbeabafa4	-0.3353244
56	0xbea31131	-0.31849054
57	0xbee23328	-0.44179654
58	0xbef80a7e	-0.48445505
59	0xbec94d6a	-0.39316875
60	0xbe437aff	-0.19089888
61	0x3eb0936b	0.3448747
62	0x3efe5bb1	0.4967933
63	0xbee49d44	-0.44651234
64	0xbeb0d4ba	-0.34537297
65	0x3ececdec	0.4039148
66	0xbefa580b	-0.48895296
67	0xbef4222d	-0.47682324
68	0xbe723d5c	-0.23656219
69	0xbed37367	-0.41298983
70	0xbe4e178d	-0.20126171
71	0x3ebf9bd0	0.37423563
72	0xbef1077d	-0.47076026
73	0xbe9cdbdf	-0.30636498
74	0xbf04e9e4	-0.5191939
75	0x3efbb28e	0.49159664
76	0xbef7b7f1	-0.48382524
77	0x3ec0ff02	0.37694556
78	0xbeb6d5c6	-0.3570997
79	0xbed8cc83	-0.4234353
80	0x3ee26de8	0.44224477
81	0x3f0df19c	0.5544679
82	0x3ea084a6	0.31351203
83	0xbf039a6b	-0.514075
84	0x3ed6d577	0.41959736
85	0xbe5ba93b	-0.21451275
86	0xbec2eddf	-0.38072106
87	0xbea057af	-0.31316897
88	0xbe34ffad	-0.17675658
89	0xbed1077d	-0.40826026
90	0xbec01732	-0.37517697
91	0x3eeb02ee	0.45900673
92	0x3ed38d02	0.41318518
93	0xbe7c43fb	-0.24635307
94	0x3ea0d86c	0.31415117
95	0xbecbd80b	-0.39813265
96	0xbe9b3067	-0.30310366
97	0xbebe6c12	-0.37191826
98	0x3e8de244	0.2771169
99	0x3ed0073b	0.40630516
100	0xbeef1932	-0.4669891
101	0xbef27230	-0.47352743
102	0x3edb3791	0.4281583
103	0xbebb2e56	-0.3655879
104	0x3e0a4585	0.13503082
105	0x3eaf48f6	0.34235352
106	0x3ecf48f9	0.4048536
107	0x3ea357a3	0.319028
108	0x3e5a45be	0.21315667
109	0x3e9348e0	0.28766537
110	0xbee80890	-0.45319033
111	0x3e578708	0.21047604
112	0xbec8f754	-0.39251196
113	0x3ee1eb40	0.44124794
114	0x3ed00acf	0.40633246
115	0xbec25184	-0.37952816
116	0x3ea0c66f	0.31401393
117	0xbeee05f2	-0.4648891
118	0xbec6e263	-0.38844594
119	0x3eb74245	0.35792747
120	0x3eb4f14e	0.3534035
121	0x3e847a7c	0.25874698
122	0xbed3f16a	-0.41395122
123	0x3ec46584	0.383587
124	0x3ea3fede	0.32030386
125	0xbf0c1440	-0.547184
126	0xbed4d67a	-0.41569883
127	0x3ec97768	0.39348912
128	0x3e85d548	0.26139283
129	0xbeb6eedc	-0.3572911
130	0x3eabb072	0.33533055
131	0x3e8acf4c	0.2711128
132	0xbeff3392	-0.49844033
133	0xbecb95ad	-0.3976263
134	0xbeea61f2	-0.4577785
135	0xbe9e40c3	-0.30908784
136	0x3e927351	0.28603604
137	0xbecdd9cf	-0.40205237
138	0x3ec14aec	0.37752473
139	0x3ec705fe	0.3887176
140	0xbec5d958	-0.38642383
141	0x3f0dcba6	0.5538887
142	0x3ec3ccb1	0.38242105
143	0x3eb9e26e	0.36305565
144	0x3eb10d16	0.34580296
145	0x3e9c72d7	0.30556366
146	0xbeb05af4	-0.34444392
147	0x3eeca021	0.4621592
148	0x3f01514d	0.5051468
149	0x3ec8879f	0.3916597
150	0x3eb04f7e	0.34435648
151	0x3eb6a59a	0.3567322
152	0x3ee20e4e	0.4415154
153	0x3eaf0ecb	0.34190974
154	0x3e8205de	0.253951
155	0xbed5bc26	-0.41745108
156	0x3ed5a737	0.41729137
157	0xbefbd5ed	-0.4918665
158	0x3eb21de4	0.3478843
159	0x3eca8120	0.3955164
160	0xbe9c5b8e	-0.305386
161	0x3ea3bfa6	0.31982154
162	0xbed256ae	-0.41081756
163	0xbec5d65a	-0.386401
164	0x3e93b746	0.28850764
165	0x3ed100bb	0.4082087
166	0x3e979d5e	0.2961225
167	0x3ea918b9	0.33026674
168	0x3ee2fdcb	0.44334254
169	0xbef4001e	-0.4765634
170	0x3eaeab66	0.34115142
171	0xbea95b31	-0.33077386
172	0x3ee7b8bd	0.45258132
173	0xbea6c8f2	-0.32575184
174	0x3eec5392	0.4615751
175	0x3eaf0805	0.34185806
176	0x3ecdf0ae	0.40222687
177	0x3ebac070	0.36474943
178	0xbe74ddae	-0.23912689
179	0xbeaf8776	-0.34283036
180	0xbe96e9ee	-0.2947535
181	0x3f028f53	0.50999945
182	0x3e69ad40	0.22819996
183	0x3eada432	0.33914334
184	0xbed80a0b	-0.42195162
185	0xbed6c01b	-0.4194344
186	0x3ec56c8d	0.3855938
187	0x3eca2d94	0.39487898
188	0x3ebb6a98	0.36604762
189	0xbe9a0f5d	-0.30089846
190	0xbeb45ef1	-0.35228685
191	0x3f020d07	0.5080113
192	0x3edb7f8b	0.42870745
193	0x3ecfd658	0.4059322
194	0xbf04dd5d	-0.51900274
195	0xbec86bea	-0.39144832
196	0x3ec397cf	0.38201758
197	0x3f039999	0.51406246
198	0x3e97e650	0.29667902
199	0x3eb623d2	0.35574204
200	0xbee1dab9	-0.44112185
201	0x3eba32fb	0.3636702
202	0x3ed9a661	0.4250975
203	0xbee599e2	-0.44843966
204	0x3e717f6e	0.23583767
205	0xbec7c6e2	-0.39018923
206	0xbebf1d75	-0.3732716
207	0x3e99a1f1	0.30006364
208	0xbeb47787	-0.35247442
209	0xbe48e236	-0.19617543
210	0x3ea67df8	0.32517982
211	0xbe63f4e1	-0.22261383
212	0x3ecf63f3	0.40505943
213	0x3ea47970	0.321239
214	0x3ec0e6f0	0.3767619
215	0x3ea49c41	0.32150462
216	0x3ec6a16b	0.38795027
217	0xbea4d4c3	-0.32193574
218	0x3eeb5413	0.4596258
219	0xbecbc801	-0.39801028
220	0xbec0d3ea	-0.37661678
221	0x3eb8dd86	0.3610651
222	0xbec1c101	-0.37842563
223	0xbee97492	-0.4559675
224	0xbed0d4de	-0.40787405
225	0x3eb47c62	0.35251147
226	0xbed29285	-0.4112741
227	0x3eb3a6e6	0.3508827
228	0xbe9ef71b	-0.31047902
229	0x3ebdce9c	0.37071693
230	0x3eaa5fe6	0.3327629
231	0xbee92f22	-0.45543772
232	0xbece98f1	-0.4035106
233	0xbe3c4ffb	-0.18389885
234	0x3ecaafb3	0.39587173
235	0x3ebc7a3d	0.3681201
236	0xbef813c2	-0.48452574
237	0xbea599d4	-0.32343924
238	0xbf0ff64d	-0.562352
239	0x3eddcaba	0.4331873
240	0xbe9b79ba	-0.30366307
241	0x3eb1826a	0.3466981
242	0xbed74956	-0.42048138
243	0xbef06750	-0.4695382
244	0x3ed0fda3	0.4081851
245	0x3eb934ad	0.36173
246	0xbea5662d	-0.32304516
247	0xbefe3efa	-0.49657422
248	0x3ecb2952	0.39679962
249	0x3f073d18	0.52827597
250	0x3edabe1e	0.42723173
251	0xbef300ea	-0.47461635
252	0x3ea826d1	0.32842115
253	0x3eefa328	0.46804166
254	0x3eca6f30	0.39537954
255	0x3ed09cec	0.40744722

v.v_net.0.weight f4 [64, 5]
0	0xbf15e3ad	-0.5855053
1	0xbee4bfb6	-0.44677514
2	0x3e40f133	0.1884201
3	0x3d996ee6	0.07491855
4	0xbc4e2407	-0.012581832
5	0x3e5c661b	0.21523325
6	0xbea4c282	-0.32179648
7	0xbc8dfb65	-0.017331788
8	0x3f253775	0.64537746
9	0x3e2ed6ea	0.1707417
10	0x3ec1e1cf	0.3786759
11	0x3e8750c2	0.264288
12	0xbd698262	-0.05700911
13	0xbed06b9a	-0.40707093
14	0x3d6c4128	0.057679325
15	0xbf5c0afa	-0.8595425
16	0xbdef2b05	-0.11678127
17	0x3daa68fd	0.08320806
18	0x3d60d329	0.054888878
19	0x3dbcca12	0.09218229
20	0xbda393b1	-0.07987154
21	0xbe8e6d13	-0.27817592
22	0x3ee5abbe	0.4485759
23	0x3e2cd703	0.16878895
24	0x3eb6ae71	0.35679963
25	0xbeb4f2bd	-0.35341445
26	0xbecd25fb	-0.4006804
27	0x3d4544cb	0.04816131
28	0x3f163e59	0.58688885
29	0x3f09b62c	0.537936
30	0xbfa5e100	-1.295929
31	0xbe0dfd47	-0.13866149
32	0x3d60fe80	0.05493021
33	0x3ed7f399	0.42178038
34	0x3d1f10ac	0.03883426
35	0x3ec1b04d	0.3782982
36	0x3e8346bc	0.25639904
37	0xbd841ccb	-0.06450804
38	0x3db3e9f1	0.08784855
39	0xbeeb79dc	-0.4599141
40	0xbf5e8286	-0.8691791
41	0xbf017d99	-0.5058227
42	0x3c77f0b3	0.015133071
43	0x3ea3a5cb	0.31962427
44	0x3eacb214	0.33729613
45	0xbf0d2641	-0.55136496
46	0xbe5ee31e	-0.21766326
47	0x3e1151a1	0.14191295
48	0x3e447e4d	0.19188805
49	0xbe2b08a2	-0.16702512
50	0x3eb92c51	0.36166623
51	0xbe10010a	-0.14062896
52	0xbbb3ac68	-0.005483199
53	0xbf62fc71	-0.88666445
54	0xbf9e9364	-1.238873
55	0xbf552c44	-0.8327067
56	0xbf722774	-0.9459145
57	0xbc2b17da	-0.010442698
58	0xbcda0ab5	-0.026616434
59	0xbf5d2a4c	-0.86392665
60	0xbf2e4d0a	-0.680863
61	0xbf6a6e72	-0.91574776
62	0x3e970a66	0.2950012
63	0xbc161ad2	-0.009161668
64	0xbd6c735d	-0.057727206
65	0x3f6bd839	0.92126805
66	0x3fad77a1	1.3552133
67	0x3f288090	0.6582117
68	0xbdbc5607	-0.09196096
69	0x3edd6e79	0.43248346
70	0x3f1a0ee3	0.60178965
71	0x3ed01947	0.40644285
72	0xbeab7fbc	-0.3349589
73	0xbe3b0991	-0.18265368
74	0x3dd30108	0.10302931
75	0xbf3af41b	-0.73028725
76	0xbe221ce0	-0.15831327
77	0xbbcbd6e6	-0.0062206862
78	0x3ed3c5ac	0.4136175
79	0x3d0623c0	0.032748938
80	0xbd9c73dc	-0.07639286
81	0xbf20eb77	-0.6285929
82	0x3e3c4469	0.18385471
83	0x3ee1f687	0.44133398
84	0x3c1aa144	0.009437863
85	0x3edc572d	0.4303526
86	0x3ed6ddf7	0.4196622
87	0xbf84f8e2	-1.0388453
88	0x3d636a2c	0.055521175
89	0xbe93e447	-0.288851
90	0xbeed9ed0	-0.46410227
91	0xbed6ce56	-0.41954297
92	0x3e5666cc	0.20937651
93	0xbd2c3f91	-0.04205281
94	0x3e56ec2d	0.20988531
95	0xbf2e1add	-0.6800974
96	0xbf83ffe9	-1.0312473
97	0x3d77d4d8	0.060505718
98	0xbe431ac8	-0.19053185
99	0xbf6525ba	-0.8951069
100	0x3ed0105e	0.40637487
101	0x3e94d909	0.29071835
102	0x3e07557d	0.13216205
103	0x3eac5d77	0.33665058
104	0x3fa5f538	1.296546
105	0x3f03bc51	0.51459223
106	0x3e8222a7	0.25417063
107	0x3d9dde71	0.07708443
108	0xbd98935f	-0.07449984
109	0xbdc84ff0	-0.09780872
110	0x3f08c4ed	0.53425485
111	0x3e50ae30	0.20378947
112	0xbd97a945	-0.074053325
113	0xbd95dab9	-0.07317109
114	0xbe9b9366	-0.30385894
115	0x3e26266e	0.16225597
116	0xbf1619e6	-0.5863327
117	0xbea7c752	-0.32769257
118	0xbe02aeac	-0.12761945
119	0xbf14c801	-0.5811768
120	0x3f126465	0.5718444
121	0x3e7e72cd	0.2484848
122	0xbdf06cac	-0.117394775
123	0x3d2e40f9	0.04254243
124	0xbe1d3701	-0.15353014
125	0xbdfb718a	-0.12277515
126	0xbdead52c	-0.114664406
127	0x3f0ac46e	0.5420598
128	0x3d01d4b9	0.03169701
129	0xbccc6601	-0.024950983
130	0x3f31e18f	0.694848
131	0x3ebe8824	0.37213242
132	0xbe696012	-0.22790554
133	0x3ef76c01	0.48324588
134	0xbf100737	-0.5626101
135	0xbef29017	-0.47375557
136	0xbe97d2b3	-0.29652938
137	0x3ea87b06	0.3290636
138	0xbde54136	-0.111940786
139	0xbdd7653e	-0.10517357
140	0x3f0c8c18	0.54901266
141	0x3f61a2e0	0.8813915
142	0x3eaa7269	0.33290413
143	0x3e747fd2	0.23876885
144	0x3f0c9e1a	0.54928744
145	0x3f07b66a	0.53012717
146	0xbee76ce2	-0.45200258
147	0x3e8299a0	0.25507832
148	0x3e6f7893	0.23385839
149	0x3de8df01	0.113706596
150	0xbf3da50a	-0.74079955
151	0x3db00d33	0.085962676
152	0xbe18a66c	-0.14907235
153	0x3ee738ac	0.45160425
154	0xbdca5355	-0.098791756
155	0x3f303396	0.68828714
156	0x3d93203c	0.071838826
157	0xbcce2035	-0.025161842
158	0xba3122b3	-0.0006757185
159	0xbe832293	-0.25612316
160	0xbf29dde0	-0.6635418
161	0xbca53d27	-0.020170761
162	0x3ea3ac23	0.31967267
163	0x3d8a3ffd	0.06750486
164	0xbd85a64e	-0.06525861
165	0xbe9d35a2	-0.3070498
166	0xbeb3d240	-0.35121346
167	0x3dba1085	0.09085182
168	0xbe048836	-0.12942585
169	0x3ea59c09	0.32345608
170	0x3f6c1763	0.92223185
171	0xbd978de9	-0.07400114
172	0x3c57067e	0.013124106
173	0xbe15a8e4	-0.14615208
174	0xbcd3ef63	-0.025870984
175	0x3eb9a729	0.36260346
176	0x3f2f48fb	0.68470734
177	0x3c2889b7	0.01028674
178	0xbe2ac78d	-0.16677685
179	0xbe6e30d8	-0.2326082
180	0x3d6d82ec	0.057986185
181	0x3f2e0b43	0.67985934
182	0x3eb2b326	0.34902304
183	0x3eaa2991	0.33234838
184	0x3f16f0a2	0.58960927
185	0xbf839257	-1.0279034
186	0xbe03f2d6	-0.12885603
187	0xbd821c9d	-0.06353114
188	0x3ea09067	0.3136017
189	0x3ddd56bd	0.1080756
190	0x3c667bf1	0.014067636
191	0xbdac0d4f	-0.08400976
192	0x3e39fc6c	0.18162698
193	0x3eac8c3c	0.3370074
194	0x3e84beee	0.25926918
195	0x3eb87d5b	0.3603314
196	0xbe88eb7d	-0.26742163
197	0xbea6a9ca	-0.32551414
198	0xbddc0574	-0.107432276
199	0xbd159216	-0.03651627
200	0xbed32389	-0.4123805
201	0xbe1bf179	-0.15228833
202	0x3d624e20	0.055250287
203	0x3b58ca37	0.0033079514
204	0xbd244d95	-0.04011305
205	0x3f5dd4b2	0.8665267
206	0x3eeffa84	0.46870816
207	0x3e2422e5	0.16028936
208	0xbf5754bc	-0.8411367
209	0x3eb38e6b	0.35069594
210	0xbefcd843	-0.49383745
211	0xbf189b91	-0.59612375
212	0xbeb51768	-0.3536942
213	0xbe422af6	-0.18961701
214	0xbf32110e	-0.69557273
215	0xbf3dc3eb	-0.7412707
216	0xbefaeedb	-0.49010357
217	0x3eaa80ca	0.33301383
218	0x3e20eabe	0.15714547
219	0x3cc0af08	0.023520961
220	0xbf09a651	-0.53769404
221	0xbd21081c	-0.039314374
222	0xbde071cd	-0.10959206
223	0x3d3b9d1d	0.04580413
224	0x3d9197fa	0.07109065
225	0x3e9c198d	0.30488244
226	0xbe21f092	-0.15814427
227	0xbf42baf3	-0.7606651
228	0xbbf48762	-0.007462428
229	0x3e0765cf	0.1322243
230	0xbf0e1364	-0.5549834
231	0xbf055a6b	-0.5209109
232	0x3def9db7	0.117000036
233	0x3c3c4941	0.0114920745
234	0x3f08ebcc	0.534848
235	0xbf1916af	-0.5980024
236	0x3d7267a9	0.05918089
237	0xbc366559	-0.011132562
238	0xbe78f4a1	-0.24312069
239	0x3e7281ba	0.236823
240	0xbeb1471a	-0.3462456
241	0xbee7946c	-0.45230424
242	0x3e329869	0.17440952
243	0xbdff8e0f	-0.124782674
244	0x3e315840	0.17318821
245	0x3e457cbb	0.19285862
246	0xbe911c29	-0.28341797
247	0xbddd9909	-0.10820205
248	0x3f4ea71b	0.8072373
249	0x3e1f67be	0.15566918
250	0xbf6caab8	-0.92447996
251	0xbe6e26a7	-0.23256932
252	0x3ee4be03	0.44676217
253	0x3dd5c97c	0.10438821
254	0xbdcc5b7c	-0.09978387
255	0x3eecb86c	0.46234453

v.v_net.0.bias f4 [64]
0	0xbdf106bb	-0.11768862
1	0xbeef6880	-0.46759415
2	0x3e43a62a	0.19106355
3	0xbe257f18	-0.16161764
4	0xbee61580	-0.44938278
5	0xbed505d6	-0.41606015
6	0xbe82d85a	-0.25555688
7	0x3e3c22d2	0.18372658
8	0xbe542cfc	-0.20720285
9	0xbbe44830	-0.0069666132
10	0xbe1aad83	-0.15105252
11	0xbf18e08c	-0.5971763
12	0xbeffe0fd	-0.4997634
13	0x3fa1c76b	1.2638983
14	0xbcaee859	-0.021351026
15	0xbca4d9b9	-0.02012335
16	0xbe68df76	-0.22741494
17	0x3f00868a	0.5020529
18	0xbe281a0f	-0.1641619
19	0xbf082a19	-0.53189236
20	0x3eb433c4	0.35195744
21	0x3d499fc6	0.049224637
22	0x3e819d18	0.25315166
23	0xbf44d3f8	-0.7688594
24	0x3e05e970	0.1307733
25	0xbe1731a8	-0.14765036
26	0x3e1efa91	0.15525271
27	0x3dd9e98b	0.10640248
28	0x3f2a565a	0.6653801
29	0xbd5dee07	-0.05418208
30	0xbe6fd983	-0.23422818
31	0x3e34e1fd	0.17664333
32	0xbe770965	-0.24124677
33	0xbe73421d	-0.23755689
34	0x3e5e3915	0.21701463
35	0x3ebd26af	0.36943576
36	0x3efc4af9	0.4927595
37	0xbe2ed868	-0.1707474
38	0xbf0427f0	-0.5162344
39	0xbe1cdfd9	-0.15319766
40	0x3d8759d1	0.06608928
41	0x3f13aa7a	0.57682
42	0xbf350a36	-0.70718706
43	0xbe28c46e	-0.16481182
44	0xbe32cdcb	-0.17461316
45	0x3eb7654c	0.3581947
46	0xbe36ab0d	-0.17838688
47	0xbda9caef	-0.0829066
48	0xbe4c5e64	-0.19957882
49	0xbf0cf0ea	-0.55055106
50	0xbe46b642	-0.19405463
51	0x3e155e6e	0.14586803
52	0xbecbb652	-0.39787537
53	0x3e3eafbc	0.18621725
54	0xbe07f2a1	-0.1327615
55	0xbe27380d	-0.16329975
56	0x3dea09c7	0.11427646
57	0xbe724fa9	-0.236632
58	0xbe6d242a	-0.23158327
59	0xbe32bf9c	-0.17455906
60	0x3e218db9	0.15776719
61	0xbd23a2f6	-0.039950334
62	0xbe7ac29b	-0.24488299
63	0xbf27b5c4	-0.6551173

v.v_net.2.weight f4 [64, 64]
0	0x3f1386ee	0.5762776
1	0xbd2918c4	-0.041283384
2	0xbeb16a8b	-0.34651598
3	0x3e797860	0.24362326
4	0x3da460ef	0.08026301
5	0x3dffaa3a	0.1248364
6	0x3e789489	0.24275412
7	0xbecb7fbc	-0.3974589
8	0xbbf6db31	-0.007533454
9	0xbe813d25	-0.25241962
10	0xbdda4784	-0.10658172
11	0x3eeb2e4d	0.45933762
12	0x3df98c9c	0.12185022
13	0xbe6c0760	-0.23049688
14	0x3d9d0968	0.0766781
15	0xbe84d0f8	-0.2594068
16	0x3eac39b5	0.33637777
17	0xbf1219ec	-0.57070804
18	0x3d9d26a5	0.076733865
19	0x3df71c7c	0.1206598
20	0xbe2cec06	-0.16886911
21	0xbe743ce3	-0.23851351
22	0xbee151bf	-0.4400768
23	0x3e8bce0f	0.27305648
24	0xbe6b0dcb	-0.2295448
25	0x3f5dcbf0	0.8663931
26	0xbee2fbee	-0.44332832
27	0xbea33ed6	-0.31883878
28	0xbe87dbf3	-0.26534995
29	0xbe886b9b	-0.26644596
30	0x3f475a59	0.77872235
31	0xbf5ab3d5	-0.8543065
32	0x3f23cd4e	0.63985145
33	0x3e81d492	0.2535749
34	0xbe89b7f4	-0.26898158
35	0xbebd467a	-0.36967832
36	0xbe135557	-0.14388023
37	0x3e65e7cb	0.22451703
38	0x3e7e4d3c	0.2483415
39	0x3d11889f	0.035530683
40	0x3f24a6f5	0.64317256
41	0xbf0faf4f	-0.56126875
42	0x3e11fa15	0.14255555
43	0x3e414867	0.18875276
44	0x3f11cbfe	0.5695189
45	0xbe7ff697	-0.2499641
46	0x3e7ea75c	0.2486853
47	0xbdadaaa0	-0.0847981
48	0x3f488713	0.78331107
49	0x3d7f227f	0.062288757
50	0x3ec01fa3	0.37524137
51	0xbdb05b6b	-0.086111866
52	0x3d3fcd1a	0.04682646
53	0xbe966bae	-0.29379028
54	0x3e5fbcb1	0.21849324
55	0x3e0bc1c2	0.13648131
56	0xbe3af0ca	-0.18255916
57	0x3e8aaa34	0.2708298
58	0x3f133b16	0.57512033
59	0x3f22073c	0.6329229
60	0xbe74b079	-0.23895444
61	0x3edae0d3	0.42749652
62	0x3e5e74eb	0.21724288
63	0x3f30c634	0.69052434
64	0x3f220ca2	0.63300526
65	0x3f1675af	0.5877332
66	0xbedf37aa	-0.43597156
67	0x3e9a7f13	0.30175075
68	0x3ed03e98	0.40672755
69	0x3e5a4640	0.21315861
70	0x3e656622	0.22402242
71	0xbd965e93	-0.07342257
72	0x3ecdb178	0.4017446
73	0x3ede6131	0.43433526
74	0xbeb81656	-0.3595454
75	0x3e77c43c	0.24195951
76	0x3e62ba00	0.22141266
77	0xbf655029	-0.8957544
78	0x3d420258	0.047365516
79	0xbe171908	-0.14755642
80	0x3f135680	0.57553864
81	0x3d9536fe	0.072858796
82	0xbd6cda6b	-0.057825487
83	0x3d20bb37	0.039241042
84	0xbeb8c7c8	-0.3608992
85	0xbe3f2e4b	-0.18670003
86	0xbef90a39	-0.48640612
87	0x3e11bc0e	0.14231893
88	0xbec55b17	-0.3854606
89	0x3e9eca45	0.31013694
90	0x3dec046d	0.11524282
91	0x3d256df5	0.040388066
92	0xbe801c8c	-0.2502178
93	0x3e18f1f7	0.14936052
94	0x3ecbc596	0.39799184
95	0xbf0aac3a	-0.54169047
96	0x3f1c1cb7	0.60981315
97	0x3e75cbea	0.24003568
98	0xbedf1c17	-0.43576118
99	0xbdd49418	-0.10379809
100	0x3e79e56e	0.24403927
101	0x3f1667fa	0.58752406
102	0x3ea3bad7	0.31978485
103	0xbbec39c5	-0.007209035
104	0x3e58b206	0.2116166
105	0xbeaa9ca1	-0.33322623
106	0x3e23466b	0.15944831
107	0x3e856e2a	0.2606061
108	0x3ec5414e	0.38526386
109	0x3d602763	0.054725062
110	0xbdde488b	-0.1085368
111	0xbd3d9eaf	-0.04629391
112	0x3e1309f4	0.14359266
113	0x3ea2f822	0.31829935
114	0x3f212dc4	0.6296046
115	0xbecf48ea	-0.40485317
116	0x3ec7e6d8	0.39043307
117	0xbec013bd	-0.3751506
118	0x3d616afe	0.055033676
119	0x3ec273d2	0.3797899
120	0xbee74776	-0.45171708
121	0x3e181f11	0.14855601
122	0x3e09b701	0.13448717
123	0x3f12b33d	0.57304746
124	0xbdde5072	-0.108551875
125	0x3eb546d2	0.35405594
126	0xbdef7e59	-0.11694021
127	0x3ef5245c	0.47879303
128	0xbf86ebfe	-1.0540769
129	0xbe85c4f4	-0.26126826
130	0x3f594775	0.8487466
131	0xbf5c75f6	-0.86117494
132	0xbee3c3a8	-0.4448521
133	0xbe28b5ca	-0.16475597
134	0xbf26fb39	-0.65227085
135	0x3ed306ff	0.41216275
136	0xbebf5d9a	-0.373761
137	0xbf11f874	-0.57019734
138	0xbe82780a	-0.25482208
139	0xbee37d40	-0.44431496
140	0xbef1ebc8	-0.472502
141	0x3ea247bd	0.31695357
142	0x3f4cd5fe	0.80014026
143	0x3d483b12	0.04888446
144	0xbf0f872e	-0.5606564
145	0x3ea61722	0.32439524
146	0xbed960e5	-0.42456737
147	0xbf1a37f8	-0.6024165
148	0x3f328462	0.6973325
149	0x3f3f5302	0.74736035
150	0x3eb1020f	0.34571883
151	0xbf03f00e	-0.5153817
152	0x3f47e79d	0.7808779
153	0xbf31ab1a	-0.69401705
154	0x3f7728ef	0.96546835
155	0x3ece8971	0.40339234
156	0x3eac47cf	0.33648536
157	0x3e73880d	0.23782368
158	0xbf48dd5c	-0.7846277
159	0x3f114b4a	0.56755507
160	0xbe83c5a9	-0.2573674
161	0xbf37f5a5	-0.718592
162	0x3f38a0de	0.72120464
163	0x3f138b8c	0.57634807
164	0xbbcd38d9	-0.0062628803
165	0xbf0a1015	-0.5393079
166	0xbec15e59	-0.37767294
167	0xbe5bf9af	-0.21481965
168	0xbee1152c	-0.43961465
169	0x3e9592f3	0.29213676
170	0xbf1a0990	-0.6017084
171	0xbf47270e	-0.7779397
172	0xbeb67a17	-0.35640022
173	0x3e8cf7e4	0.27532876
174	0xbea850c6	-0.32874125
175	0x3c4a6926	0.012354171
176	0xbef434d1	-0.47696546
177	0xbeb4cddb	-0.35313305
178	0xbf07273b	-0.52794236
179	0x3f032bfc	0.5123899
180	0xbeaf4fc4	-0.34240544
181	0x3f0005b9	0.5000873
182	0xbf3ee425	-0.7456687
183	0xbe936820	-0.2879038
184	0x3f0b862a	0.54501593
185	0x3e0f2818	0.13980138
186	0xbf1dbeb2	-0.616191
187	0xbeba3d90	-0.36375093
188	0x3df3f423	0.119118
189	0xbdcbd751	-0.09953178
190	0xbec9a59e	-0.39384168
191	0xbede5a0e	-0.4342808
192	0xbc680824	-0.014162097
193	0xbe81eaf7	-0.25374576
194	0xbe2ccc1b	-0.16874735
195	0xbf11fab6	-0.5702318
196	0xbf29246b	-0.66071194
197	0xbecd0aa3	-0.40047178
198	0xbf17c9c6	-0.59292257
199	0x3f1d2a2b	0.6139247
200	0xbddf0553	-0.108896874
201	0xbe580429	-0.21095337
202	0xbe28f842	-0.16500953
203	0xbe8b14fe	-0.27164453
204	0xbf0b0e7d	-0.5431898
205	0x3f19fa66	0.601477
206	0x3f3b64fe	0.73200977
207	0x3f25c09c	0.64747024
208	0xbe9391a2	-0.28822047
209	0x3f01d226	0.50711286
210	0xbe77b2d0	-0.24189305
211	0xbef6204b	-0.48071513
212	0x3e4704d9	0.19435443
213	0x3f0ff48c	0.56232524
214	0x3ef14a65	0.4712707
215	0xbea67e26	-0.3251812
216	0x3ec4dabf	0.3844814
217	0xbde0a3b2	-0.109687224
218	0x3eff9dcd	0.4992508
219	0xbe72ab33	-0.2369812
220	0x3e317f1d	0.17333646
221	0x3f16cdc0	0.589077
222	0xbf300279	-0.6875377
223	0x3debc54a	0.11512239
224	0xbda5aff3	-0.080902
225	0xbeb2abd5	-0.34896722
226	0x3f0f10dc	0.558851
227	0xbdccbd21	-0.09997011
228	0xbcbc8114	-0.023010768
229	0xbf032b92	-0.5123836
230	0xbebd18c0	-0.36932945
231	0xbea7b468	-0.32754827
232	0x3e2a1f5f	0.1661353
233	0x3f47aeba	0.78000987
234	0xbe468d4d	-0.1938984
235	0xbe3b4f8f	-0.18292068
236	0xbf616e96	-0.88059366
237	0xbe9918b2	-0.29901654
238	0xbe8f18ae	-0.27948517
239	0xbe366e92	-0.17815617
240	0xbeff9cec	-0.4992441
241	0xbec5dffa	-0.38647443
242	0xbedd235f	-0.43191049
243	0x3ebef8e4	0.37299263
244	0xbdd8bf67	-0.10583382
245	0x3e7ee76a	0.24892965
246	0xbe96f466	-0.29483336
247	0xbf01e57c	-0.5074079
248	0x3e9ee566	0.31034392
249	0x3dc8ca25	0.09804181
250	0xbdc89eb6	-0.09795897
251	0xbe38aff6	-0.18035874
252	0x3e874c03	0.2642518
253	0xbd8af585	-0.067851104
254	0xbe4f36ba	-0.2023572
255	0x3bff7bbc	0.0077967327

v.v_net.2.bias f4 [64]
0	0xbe98a796	-0.29815358
1	0xbe9d29a5	-0.30695835
2	0x3f08bca9	0.5341287
3	0x3eba0ada	0.36336404
4	0xbef7eed6	-0.48424405
5	0xbec24a9c	-0.37947547
6	0x3e805c54	0.2507044
7	0x3f1866eb	0.5953204
8	0x3ea2478e	0.31695217
9	0xbec32b34	-0.381189
10	0x3e937c46	0.2880575
11	0x3e92ca79	0.286701
12	0xbf0413e5	-0.51592857
13	0x3f045d0c	0.5170448
14	0x3ebd60d3	0.36987934
15	0xbdf1b0f5	-0.1180133
16	0x3e8c10a8	0.27356458
17	0xbeafbaa5	-0.34322086
18	0x3f0f44d8	0.5596442
19	0xbe8d0daf	-0.27549502
20	0x3f137326	0.5759758
21	0xbea6bb4e	-0.32564777
22	0xbd9f074d	-0.077650644
23	0x3df18b8f	0.11794197
24	0xbecc6a8b	-0.39925036
25	0xbedbfcb2	-0.4296623
26	0x3ec30887	0.38092443
27	0xbeb27b4b	-0.3485969
28	0x3eb0c8ab	0.34528098
29	0x3f08c152	0.53419983
30	0xbf0f7856	-0.56042993
31	0x3ec10fc3	0.37707338
32	0xbe74cc99	-0.23906173
33	0xbef14c56	-0.47128552
34	0xbeb54267	-0.35402223
35	0x3eadd8d5	0.33954492
36	0xbea20172	-0.31641728
37	0x3e93994f	0.28827903
38	0xbf0d1cf3	-0.551223
39	0x3d9443a2	0.072394624
40	0xbf07421d	-0.52835256
41	0xbf0d2bab	-0.5514476
42	0x3ee3bfe7	0.44482347
43	0x3f002545	0.5005687
44	0xbea94116	-0.3305747
45	0xbe4e4ee5	-0.20147283
46	0xbefb2f6b	-0.49059615
47	0x3eefb7ca	0.46819907
48	0x3f020bc1	0.50799185
49	0xbf09ffcb	-0.53905934
50	0x3f0c74ed	0.54865915
51	0xbeaff722	-0.34368235
52	0x3ed149ee	0.40876716
53	0xbf130a8f	-0.57437986
54	0xbe9d36ad	-0.30705777
55	0x3ee04657	0.43803665
56	0xbed6a7cd	-0.41924897
57	0xbefb6152	-0.49097687
58	0x3ea35496	0.3190047
59	0x3e9160e0	0.28394222
60	0xbefaf50b	-0.49015078
61	0xbea7b3af	-0.32754275
62	0xbe2299bb	-0.15878956
63	0xbf114498	-0.5674529

v.v_net.4.weight f4 [1, 64]
0	0x408dcb5d	4.4310746
1	0x4089dc63	4.3081527
2	0xc0896f5a	-4.2948427
3	0xc0858f78	-4.1737633
4	0x4091254c	4.535803
5	0x408e9af2	4.456414
6	0xc087542c	-4.229025
7	0xc084a20c	-4.144781
8	0xc08c7743	-4.3895583
9	0x4086e58e	4.215522
10	0xc09585cf	-4.672584
11	0xc086c9a8	-4.2121162
12	0x408b8c94	4.3609104
13	0xc08265aa	-4.07491
14	0xc090acab	-4.5210776
15	0x4089b2db	4.303083
16	0xc08b4b38	-4.352932
17	0x408354a8	4.104084
18	0xc084fefa	-4.156125
19	0x409a38ab	4.8194175
20	0xc0847f88	-4.140568
21	0x408bb338	4.3656273
22	0x409409d6	4.6262007
23	0xc088eb7f	-4.278747
24	0x40884c5f	4.2593226
25	0x40834c39	4.1030545
26	0xc086c4f0	-4.21154
27	0x408c592b	4.385885
28	0xc08bb85e	-4.3662558
29	0xc0840df4	-4.1267033
30	0x4087a474	4.238825
31	0xc0881c2c	-4.253439
32	0x408bf88e	4.374091
33	0x40893f8c	4.289007
34	0x40835c8f	4.1050487
35	0xc0922863	-4.56743
36	0x408473d8	4.139141
37	0xc086a6b0	-4.2078476
38	0x40874546	4.227206
39	0x40b33574	5.600275
40	0x4086eab2	4.2161493
41	0x4084933e	4.142974
42	0xc0834fac	-4.1034756
43	0xc093b878	-4.616268
44	0x408a274a	4.317296
45	0x408c6fa2	4.388627
46	0x409bad0e	4.864875
47	0xc083a5a8	-4.1139717
48	0xc085a848	-4.176792
49	0x408483af	4.1410747
50	0xc086bb02	-4.210328
51	0x40867e08	4.2028847
52	0xc08c34d6	-4.3814497
53	0x408b68de	4.356551
54	0x40869549	4.2057233
55	0xc083ff54	-4.124918
56	0x4085725f	4.1702113
57	0x4086ae44	4.2087727
58	0xc0947490	-4.639229
59	0xc08c20d5	-4.379008
60	0x4088fd2a	4.280904
61	0x4087bf7f	4.242126
62	0x40931973	4.5968566
63	0x40841fe8	4.128895
