tmp/experiments/RN1 False,True,True/pyt_network_save/model save9000.pt (torch_old, 314943 bytes, 33 tensors)

pi.pi_net.0.weight f4 [64, 5]
000000 92 69 1f bf 6a a4 1b bf a4 c2 ec be d6 69 39 bd
       -0.6227046 -0.6079775 -0.4624225 -0.04526695
000010 4a 17 c1 be e7 c9 99 3e 81 4e 1f be c0 b9 4b be
       -0.3771308 0.30036852 -0.1555729 -0.19895077
000020 c1 0c 37 bf c9 75 42 bf 0b 07 69 be c3 c1 d0 be
       -0.71503836 -0.75960976 -0.22756593 -0.40772828
000030 35 fc 8d bc 9d 0d d6 bd ef f5 9f bc 8c 17 d5 be
       -0.017332176 -0.10451815 -0.01952645 -0.41619527
000040 fc b7 40 3e ea 6a 18 bf 82 5c 58 be 13 47 23 3f
       0.18820184 -0.5953814 -0.21129039 0.63780326
000050 07 99 36 be 9f b1 12 bf 40 50 cb bd 55 60 b0 bd
       -0.17831813 -0.5730228 -0.09927416 -0.08612124
000060 a6 b4 4a be c6 8f 48 be 24 ed e3 bd 27 b2 16 3e
       -0.19795474 -0.19586095 -0.11129215 0.14716397
000070 74 4e 93 3e 2e 28 bf be 1b 17 60 be 9b 9b 52 bd
       0.28770792 -0.37335342 -0.21883814 -0.05141793
000080 9b d7 69 3e 0f 15 8f be c0 f2 d1 3e 4f 7b c3 3e
       0.22836153 -0.27945754 0.41005516 0.38180014
000090 04 9f 5f be 6d 5e a4 3d ba 44 3e 3e ea e2 a5 bd
       -0.21838003 0.08025823 0.18580905 -0.08099921
0000a0 26 ca 45 3e 9a 1f 73 3c cd 16 1e 3e b2 c5 db 3d
       0.19315395 0.014839077 0.15438385 0.10731067
0000b0 ff 09 16 be c9 21 10 3e 45 94 69 bd cd 61 59 3e
       -0.1465225 0.14075388 -0.057026166 0.21228714
0000c0 6b a8 38 3e 07 e1 22 3f 6d aa c6 3c 88 cc fb 3e
       0.18032996 0.63624614 0.024251187 0.49179482
0000d0 c0 54 51 3b 2f 24 ab 3e d0 be 31 3d 94 3f 4b be
       0.0031941384 0.33426043 0.043394864 -0.19848472
0000e0 94 2f 44 be 07 7e f3 3a 11 26 e3 3e a8 4b 5a be
       -0.19158775 0.0018576988 0.4436498 -0.21317923
0000f0 9c ab 19 3e 94 a0 a9 be f4 8e 11 3f fa cd 5c 3d
       0.1500687 -0.33130324 0.56858754 0.053907372
000100 33 f4 9d 3c 62 80 9e 3e db 6d 5d 3e 41 8e 65 3e
       0.019281482 0.30957323 0.21623938 0.22417547
000110 0a 39 82 3e ca db 0a 3d ec 54 18 be 15 fe 36 be
       0.25434142 0.033901013 -0.14876145 -0.17870362
000120 6c ce 6c bf 6a 6f 87 be 2f bd a1 bd 84 c0 63 3e
       -0.92502475 -0.2645219 -0.07897412 0.22241408
000130 c3 43 70 be b5 ad e1 3e 08 a0 2f be bd 42 d5 3e
       -0.23463349 0.4407784 -0.17150891 0.4165248
000140 05 f7 e0 be 06 aa 92 bd fc 28 1f 3e 66 e1 d9 bd
       -0.4393846 -0.07161336 0.15542978 -0.106386945
000150 0d 4b ae 3e 3f 1b dc 3e ec 04 f1 be 3a b7 96 bd
       0.34041634 0.42989537 -0.47074068 -0.073591664
000160 f5 4c 42 bd 74 42 4f bf 1a 69 9c bd 91 10 9a be
       -0.047436673 -0.80960774 -0.07637234 -0.30090764
000170 b3 10 d0 bd 58 e2 9f ba cc e5 21 be 78 49 26 be
       -0.10159435 -0.0012198193 -0.15810317 -0.16238964
000180 b0 01 7d 3e 8c 7d 51 be 78 27 0f bb 18 34 ab bd
       0.24707675 -0.20458049 -0.0021843594 -0.083595455
000190 17 19 7f bd ac 84 7a 3c 11 e4 32 3e c3 2f d4 bb
       -0.062279787 0.0152904205 0.17469813 -0.00647542
0001a0 10 4e 63 3f 25 9b d6 be c2 20 a1 be 8c 35 69 be
       0.8879099 -0.4191524 -0.31470305 -0.22774333
0001b0 ed 1c 8b 3e 8d e2 32 be 37 e7 17 3e c6 7d c0 be
       0.27170506 -0.17469235 0.14834295 -0.37595958
0001c0 5a 43 b5 3e b2 af 84 3e 29 8d e4 3d da a4 04 3f
       0.35402948 0.25915295 0.11159737 0.51814044
0001d0 5b f3 57 3e 9c 6a 51 be fe 01 b1 3e 3c 9a d3 be
       0.21088926 -0.20450824 0.34571832 -0.4132861
0001e0 05 ab 4c be 09 b7 5a 3e 72 61 9c 3e e8 ab 95 3e
       -0.19987114 0.21358885 0.30543095 0.29232717
0001f0 8a 65 d1 bd 52 52 f9 be cf c8 f1 bd b9 4b 6e be
       -0.10224445 -0.48695618 -0.11805879 -0.23271073
000200 c7 ac c4 be e2 6f fb 3e 61 af a8 be 75 2e 30 be
       -0.3841307 0.49108797 -0.32946303 -0.17205222
000210 56 42 de bc f4 e9 0f be 23 e4 a8 3e 02 42 f3 3e
       -0.02713124 -0.1405409 0.32986555 0.47511297
000220 5e 9a 38 3d ea 44 4c 3f 39 cd ee 3b 7c de f6 3e
       0.04506909 0.79792655 0.007287648 0.48216617
000230 81 8b 6f 3e 33 fd 1b be c5 c8 c1 be 18 c7 d8 3d
       0.2339306 -0.15233307 -0.37848487 0.10584849
000240 6a 7d 81 bd 5f c7 5a be b3 a1 aa be 95 69 1c be
       -0.06322749 -0.21365117 -0.33326492 -0.15274651
000250 f4 da 11 3d c2 a2 5e 3e 12 18 89 be 8a 3a 4c 3e
       0.0356092 0.21741775 -0.26776177 0.19944206
000260 ff 75 09 be 27 10 90 3d 2b 31 18 be 5d 02 67 3d
       -0.13423918 0.07034331 -0.14862506 0.05639874
000270 a4 21 05 bf 08 f2 1e 3c 72 1e 26 3d fe be 74 3e
       -0.52004457 0.009701259 0.04055638 0.23900983
000280 3d 6c b1 be 48 10 c1 be b0 71 ac be 3c be 8e bc
       -0.34652892 -0.37707734 -0.33680487 -0.017424695
000290 59 8d 44 bf cf c2 74 be a6 7d 0d 3f 2e c7 30 bf
       -0.7677818 -0.23902439 0.5526985 -0.69053924
0002a0 82 28 ff ba 24 5b 27 be f4 10 6c 3b 57 32 05 3e
       -0.0019467028 -0.16343361 0.0036020847 0.13007484
0002b0 bc 50 95 bc e2 5b 14 bf d2 bb ae be 31 5c e2 be
       -0.018226974 -0.579527 -0.3412767 -0.4421096
0002c0 bd c0 88 3d 2a 33 55 be 86 cb 54 bd a0 31 06 3f
       0.06677387 -0.20820299 -0.051951908 0.5241947
0002d0 c6 f6 0f bf de aa 3d bd 0a ec f2 be 26 f9 7a 3e
       -0.5623592 -0.04630553 -0.4744571 0.24509105
0002e0 fd cf ee 3e 42 52 52 3e d8 07 bb bd 55 f2 22 bb
       0.46643057 0.20539191 -0.091323555 -0.002486368
0002f0 50 fe b1 3d 64 33 a4 be 08 1d c1 3d 23 68 e0 be
       0.086910844 -0.32070458 0.094293654 -0.4382945
000300 09 97 2d bf dc 41 70 3d 1e bd 27 bf 8a ae a0 be
       -0.67808586 0.05865656 -0.65522945 -0.31383163
000310 7f af db be f3 ef c9 be 26 e9 a8 be 2e 28 cf be
       -0.4290733 -0.3944088 -0.32990378 -0.40460342
000320 ac db ba 3d f4 a6 46 be c5 84 f9 3d 99 1d b2 3e
       0.0912393 -0.19399625 0.12183527 0.34788206
000330 4b 29 ca bd eb de 62 3e 52 22 c0 3e d9 f9 8f 3f
       -0.09871157 0.22155349 0.37526184 1.1248122
000340 03 b9 8b 3e 32 e2 97 3e 5a 2e af 3d 2a 05 d5 bd
       0.2728959 0.2966476 0.08553763 -0.104013756
000350 91 16 81 3d 91 2e 4b 3d d8 14 b5 be 51 3e 45 bd
       0.06303132 0.049604956 -0.35367465 -0.048155133
000360 af aa b8 be 5a 5a 29 3e 6f b6 c6 3d 5b b4 c6 bd
       -0.3606772 0.16538373 0.09702765 -0.09702369
000370 b7 8c 32 3e 29 01 97 bc 8d 93 a3 be c9 d4 5a 3e
       0.17436491 -0.01843317 -0.3194851 0.21370234
000380 b7 4a 96 3e a9 f6 8e bd 80 4a bf 3e 73 2d f4 be
       0.29353878 -0.069806404 0.37361526 -0.47690925
000390 4c 99 ac be cf c6 4c 3e b9 c7 ad bc 08 11 bf 3e
       -0.33710706 0.19997714 -0.0212134 0.3731768
0003a0 80 7f d4 3b b5 f6 81 be 4c c9 98 be 46 d8 84 be
       0.0064849257 -0.25383535 -0.29841077 -0.25946254
0003b0 99 88 18 be ae a0 85 3e b1 5d 25 bd 03 5f bc 3e
       -0.14895858 0.2609915 -0.040372554 0.36791238
0003c0 40 26 7b be 52 63 c0 3e 51 d9 43 3e 3a 42 35 be
       -0.2452631 0.37575775 0.19125868 -0.17701045
0003d0 39 bc 4a 3e 50 a6 30 be 39 1a 8a 3c 10 34 cd be
       0.19798364 -0.17250943 0.016858207 -0.40078783
0003e0 5a bf 2c 3e 3a 67 6e 3e 06 fa db bd ee af fe bd
       0.1686987 0.23281565 -0.107410476 -0.124359
0003f0 c8 c2 f5 3e c5 9a f0 bd 64 38 00 be 75 dd 87 3c
       0.4800017 -0.1174827 -0.12521511 0.016585091

pi.pi_net.0.bias f4 [64]
000000 58 40 9b be a8 14 09 be 02 8c b7 bd 96 d3 73 3d
       -0.30322528 -0.13386786 -0.08962251 0.059527956
000010 33 64 0e 3e 3e 40 95 bd 83 93 b6 bd 2d de 5e be
       0.1390541 -0.07287644 -0.089148544 -0.21764441
000020 3e fe 51 bd af 4f 31 3d d0 80 b3 bd e1 d8 a0 bd
       -0.051267855 0.043288883 -0.087648034 -0.07853866
000030 ad cd c2 bb ee c3 82 3d 71 dc 15 3d c0 35 79 3a
       -0.0059449286 0.06385027 0.036587182 0.00095066056
000040 a9 1f 5d 3d 37 81 03 be 5f e5 45 bd 70 0e db 3d
       0.05398527 -0.1284226 -0.04831445 0.10696113
000050 ef 30 bd bc 7b 01 19 be bf 19 1b be aa c3 18 3d
       -0.023094622 -0.14941971 -0.1514654 0.037295975
000060 f8 6f 6c be 95 27 39 3d 6e b3 55 bd 91 3e 26 3e
       -0.23089588 0.045203764 -0.05217307 0.16234805
000070 be a5 5c bd 97 72 bb bd 57 c7 7c 3d 25 c6 2b bd
       -0.053869 -0.09152716 0.061713543 -0.041937012
000080 dd ee 84 be 98 bd 14 3d 91 7b da 3c 0c 3e 09 be
       -0.25963488 0.036313623 0.02667025 -0.13402575
000090 f9 99 ad bd eb 8a ec 3b 0c 49 a9 bd 90 d4 33 be
       -0.084766336 0.0072187087 -0.08265886 -0.17561555
0000a0 92 d3 c0 bb d2 bf 1d 3e df 91 18 3d 96 eb ce bd
       -0.005884596 0.15405205 0.03724849 -0.10103528
0000b0 fc 64 16 be 14 7b a6 3d f7 cf 27 3d a4 a4 da 3b
       -0.1468696 0.08128944 0.040969815 0.0066724587
0000c0 91 66 97 bd e5 eb ed 3c dd 99 d1 3d b0 a4 3e bc
       -0.0739261 0.029043147 0.10234425 -0.011635944
0000d0 84 0b da bd 44 47 eb bb f4 f7 e3 3d ad 12 1d 3c
       -0.10646728 -0.0071801264 0.11131278 0.009586972
0000e0 d3 84 35 3d 2f e8 f5 bd 39 5b d4 bd eb e4 f4 bb
       0.044316124 -0.12007176 -0.10368962 -0.007473578
0000f0 02 bb 2a be a1 b3 37 bd fc b7 c1 bd fd dc 47 39
       -0.166729 -0.04484904 -0.0945892 0.00019060443

pi.pi_net.2.weight f4 [64, 64]
000000 b5 82 8c 3e 39 41 3c be c5 0b 6b 3e b0 91 49 3e
       0.27443472 -0.18384255 0.22953708 0.19684482
000010 57 e6 5b bd b0 cb b4 bd 87 81 10 3d f1 29 f4 3d
       -0.053686466 -0.08827913 0.035279777 0.11922062
000020 c5 65 cb bd 50 18 3f 3e 21 8e e3 bc d0 c3 88 3d
       -0.099315204 0.18661618 -0.027777733 0.06677973
000030 6f af 0b 3f c3 8c 1e be 42 b8 88 3e b6 6c b6 3d
       0.54564565 -0.15483384 0.26703078 0.08907454
000040 26 d7 62 bd 7f 8f b0 be 75 25 39 be 28 89 ea be
       -0.055380963 -0.3448448 -0.18080695 -0.45807767
000050 a4 e1 45 bd 90 5b bd be 95 09 53 3d 92 b1 32 be
       -0.04831089 -0.3698392 0.05152281 -0.1745055
000060 f6 2d 5b 3e 0d f5 82 3e 27 ec 4b be 18 f7 0e be
       0.21404251 0.25577584 -0.19914304 -0.13961446
000070 fc 52 64 3e 13 b8 76 3e 00 45 cc bd c5 0f 95 3e
       0.22297281 0.24093656 -0.09974098 0.29113594
000080 ed d4 49 bd 13 92 aa be 23 6e 76 bd 58 53 4c be
       -0.049275327 -0.3331457 -0.06016363 -0.19953668
000090 51 bc a4 3e ba ac 80 bd f0 68 12 be 42 f3 f3 bc
       0.32174924 -0.06282945 -0.14297843 -0.02977908
0000a0 68 22 bf 3d 58 9a dc bb 36 e5 74 3e 9b 75 b4 3e
       0.09332734 -0.0067322664 0.23915562 0.35245976
0000b0 de 33 04 3f 3c b0 17 be 4c 98 02 bf 31 a1 b5 3e
       0.51641643 -0.14813322 -0.51013637 0.35474542
0000c0 76 6c 53 3d 12 a4 17 3d b9 ef 08 bc c1 65 14 bd
       0.05161711 0.037021704 -0.008357936 -0.036229853
0000d0 f9 82 c2 3d 1b 70 59 bd 13 d1 9a 3e fd 2b c1 bc
       0.09497637 -0.053085428 0.30237636 -0.023580546
0000e0 ef c7 1a be 16 4c 31 bd a7 03 4a be c0 5e b1 3d
       -0.15115331 -0.04328545 -0.19727956 0.0866065
0000f0 37 a0 09 3f 30 ca a4 be 96 b6 b1 3d 21 ec d8 bb
       0.53760093 -0.32185507 0.08677404 -0.0066199456
000100 8a cb 46 bd 7d 4a b1 3e bd b5 db 3e a6 0b 97 bd
       -0.048533954 0.34627143 0.42912093 -0.07375269
000110 f7 16 92 3e 2e 8e 73 be 2f e6 a1 3e 8a 60 17 be
       0.28533146 -0.23784706 0.3162093 -0.1478292
000120 44 51 a7 be bb 24 21 be 17 c2 b5 3d ad dd 93 bd
       -0.32679188 -0.15736668 0.0887491 -0.07220016
000130 84 ca d4 3d 45 c7 43 be 80 b0 1f 3e 9d 4f 32 3e
       0.10390189 -0.19118984 0.15594673 0.17413183
000140 43 35 b4 3d 64 b2 1e 3f f1 b3 86 3d e5 6c 36 be
       0.08799221 0.6199095 0.0657729 -0.17814977
000150 b6 28 36 3e 21 aa f3 3d 8a da 00 3e b0 dd 20 be
       0.17788967 0.11897684 0.12583366 -0.15709567
000160 7b 97 85 3e e2 49 29 3e ab b7 fe bd 91 2b 5d be
       0.26092133 0.1653209 -0.12437376 -0.2159865
000170 6b 36 7e 3e 0a 54 3c 3e 2d 64 7b 3e ac 0a b1 3e
       0.24825446 0.18391433 0.24549933 0.34578454
000180 e4 14 b8 bc 45 75 2a be 77 46 f3 bc a6 d1 7e 3e
       -0.022470899 -0.16646297 -0.029696686 0.24884662
000190 cd 9a 01 3f ee 7e 0a be 42 e9 8c be 4d 2a 1b be
       0.5062683 -0.13524982 -0.27521712 -0.15152855
0001a0 58 d0 18 bf 62 79 d7 bd 70 e2 1d be 2c 2a 52 3e
       -0.5969291 -0.10521199 -0.1541841 0.205239
0001b0 ec d9 23 bd 2e 04 5b 3e 8e 6d ff bd cd df 96 be
       -0.04000275 0.21388313 -0.12472068 -0.2946762
0001c0 4c 7e d1 be 6b 99 fc 3e 7a c9 31 bf c4 da 2c be
       -0.4091667 0.493358 -0.69448054 -0.16880327
0001d0 70 12 88 bc 73 e5 ab be fc 74 4d bc 79 99 35 3d
       -0.016610354 -0.33573493 -0.012540098 0.044335816
0001e0 4d 6f ec bb e9 d0 05 3e e2 2e b4 bd 12 32 bd bd
       -0.0072154165 0.13067974 -0.08798005 -0.09238066
0001f0 46 c9 22 3d e0 09 de bd 2f 06 77 3d 75 3b 9a be
       0.03974273 -0.10841727 0.06030863 -0.30123487
000200 c9 58 51 be 25 23 e9 3d 71 92 58 3d 08 c0 6e be
       -0.20444025 0.113836564 0.052874032 -0.23315442
000210 55 4c b8 bd e3 d8 bd bd a7 63 c1 bc 5a e6 04 bf
       -0.08998934 -0.092698835 -0.023607088 -0.5191399
000220 47 91 ab bc a0 da 68 3d a6 ca 2e be 41 ca 83 be
       -0.020943297 0.056849122 -0.17069492 -0.25740245
000230 88 39 8e bb b0 ab 8a 3c d6 de a6 be 3e 40 33 3e
       -0.0043403544 0.01692757 -0.32591885 0.17504975
000240 88 25 68 3d 95 cb 74 bb 20 55 77 bc ed 5c 28 3a
       0.056676418 -0.003735279 -0.015095979 0.00064225384
000250 ad 66 69 3d 56 08 97 3d bb e1 84 3d e5 22 05 3f
       0.056982685 0.07374637 0.06488367 0.5200637
000260 84 82 1f 3e e7 6d 4d be 42 a5 6f be 41 19 ac 3d
       0.15577132 -0.20061456 -0.23402885 0.08403254
000270 fa 12 c3 3e c9 89 ec be 5d 5e 1d 3e c2 12 48 be
       0.38100415 -0.46198872 0.15368028 -0.19538406
000280 0c b6 32 be 6f fc c9 3d c2 22 21 be e4 70 31 be
       -0.17452258 0.09862601 -0.15735915 -0.1732822
000290 f4 e6 fc bc c2 29 ac 3d 3b c5 3c 3e a5 7f 12 3e
       -0.030871846 0.08406402 0.18434612 0.14306505
0002a0 12 58 56 be d9 66 4e 3e 7d d4 46 be 98 36 47 3d
       -0.20932034 0.20156421 -0.19416995 0.04863605
0002b0 cd 7b 81 3d a4 67 37 3e 5e a3 fb bd da e1 33 be
       0.06322441 0.1791063 -0.12287019 -0.17566624
0002c0 bc c0 ab 3d 6e b2 d9 3d d3 19 51 bb 2c 83 6f 3e
       0.083863705 0.10629736 -0.0031906262 0.23389882
0002d0 c0 24 e9 bd 41 a6 12 be eb db 7d be 78 ce 90 3e
       -0.11383963 -0.14321233 -0.24790923 0.28282523
0002e0 60 c4 d0 3e 4d 20 09 bb 04 8c 63 3d fe e3 4c 3e
       0.40774822 -0.0020923794 0.05555345 0.20008847
0002f0 27 ed 33 be 1c 84 7e 3e b6 b3 31 3e f2 cd 95 bc
       -0.17570935 0.24855083 0.1735371 -0.018286679
000300 06 63 da bc 88 5b 02 3f 56 df a6 3d 79 24 94 be
       -0.026658546 0.50920916 0.08148067 -0.28934076
000310 3b a6 d5 be 47 86 56 3d a2 e8 5e be c0 3c ce be
       -0.41728386 0.05237415 -0.2176843 -0.40280724
000320 e1 16 40 3e 6a e5 a5 be 3d 98 9b bd fb 0d f6 3d
       0.18758728 -0.32401592 -0.075973965 0.12014385
000330 f8 62 11 3e 67 69 53 bd ae a4 e9 bd 49 ad d9 be
       0.1419791 -0.05161419 -0.11408363 -0.4251502
000340 1c d7 2c 3d 20 16 4d 3e b3 cd 55 3e 42 aa 75 bd
       0.04219733 0.20027971 0.2087925 -0.059976824
000350 eb ca 2c be 53 5e 39 3e 08 38 a7 3e 4a e7 ee bd
       -0.16874282 0.18102388 0.32659936 -0.11665209
000360 fc 7e 69 3d 85 23 1b 3d 07 ca 83 be 88 90 0d be
       0.057005867 0.03787567 -0.25740072 -0.13824666
000370 41 d0 39 bc 3e 3f 54 3c 01 df b9 bd a5 4d 96 3d
       -0.0113411555 0.012954531 -0.09075738 0.07339028
000380 c5 63 88 bd 01 d3 c7 3d a2 15 09 3d 23 b7 45 bd
       -0.066596545 0.09757043 0.033467896 -0.048270356
000390 f4 a3 38 be 3e c1 a2 3c 43 48 c2 3e d6 02 a2 bd
       -0.18031293 0.019867536 0.37945756 -0.07910697
0003a0 dd e5 9e be 37 d3 68 3d a1 07 f0 3c 0c 2d 3e be
       -0.31034747 0.056842055 0.029300513 -0.18571872
0003b0 6c 2f ee be b6 76 0f be 39 63 ed 3d e1 d9 7e be
       -0.46520555 -0.14010128 0.11591191 -0.24887802
0003c0 2b df 92 3e 99 89 11 be c2 df 17 3e 93 59 a4 3e
       0.2868589 -0.14212646 0.1483145 0.3209959
0003d0 19 f5 75 be 92 40 02 bb 53 ff 27 bc a7 14 85 3e
       -0.24019279 -0.0019874913 -0.010253745 0.2599232
0003e0 05 97 67 3d 10 d7 88 3e 52 91 06 3d 14 b3 73 3c
       0.056540508 0.2672658 0.032853432 0.0148742385
0003f0 c8 01 4a 3e e3 da f3 bb 37 b5 53 be aa ee 18 3e
       0.19727242 -0.007441865 -0.20674597 0.14934793

pi.pi_net.2.bias f4 [64]
000000 73 11 44 bd 89 f4 f2 bd 08 0f 84 3d 8c b0 dd bc
       -0.047868203 -0.11863048 0.064481795 -0.027061723
000010 b5 6b 3a 3d 7e b2 e3 bc 9f a2 51 3d 93 a8 2d bd
       0.045512874 -0.027795073 0.05118048 -0.042397093
000020 35 26 f1 bd 46 82 20 bd 2e e8 c8 bd b8 0a 53 3d
       -0.117748655 -0.03918674 -0.0980991 0.051523894
000030 12 d2 22 3b 93 3c 31 bd 94 ba 0d be 2a 61 84 bd
       0.002484445 -0.04327066 -0.13840705 -0.06463845
000040 f9 02 34 3e 31 74 87 3c d6 f9 cf bd 86 eb 80 bd
       0.17579259 0.016534897 -0.10155074 -0.062949225
000050 99 8c 80 3c 0f cc 35 3d ca 61 6f 3d 54 91 7b 3e
       0.015692042 0.04438406 0.05844287 0.24567157
000060 b5 cb 37 3c 9f 88 17 3d 11 cb 5e bd 9a 6a cd 3d
       0.011218001 0.036995526 -0.054392878 0.10030098
000070 f3 55 c9 3d 3e 8d f7 3d 74 26 64 bd 6b bc 7b 3d
       0.09830847 0.12087487 -0.055700734 0.061458986
000080 03 37 de 3d f9 cf d0 bd bd 78 21 3e 42 f9 df 3d
       0.108503364 -0.10195918 0.15768714 0.10936214
000090 80 e8 c6 3d 0d ba 82 3d 43 58 d8 bd aa 33 65 bd
       0.097123146 0.063831426 -0.105637096 -0.055957474
0000a0 84 ba 94 3d e2 d0 1a 3d d8 5a 09 be 1b 08 dc 3d
       0.072621375 0.037796862 -0.1341356 0.107437335
0000b0 d1 2e 0e be 43 59 82 bd 6f b2 e6 bd ca 95 f5 bd
       -0.13885047 -0.063646816 -0.11264502 -0.119914606
0000c0 b3 04 ec 3c 5e 73 ea bc db 5a a4 3d 6e 5c 3c 3d
       0.028810835 -0.028619464 0.08025142 0.045986585
0000d0 9a ff 0b be d8 38 55 3e 04 c1 35 3c 1f c1 a3 3c
       -0.13671723 0.20822465 0.011093382 0.019989548
0000e0 c3 37 a4 bc 35 ac 42 be d9 37 df 3d ba d8 02 be
       -0.02004612 -0.19011004 0.10899324 -0.12777987
0000f0 b3 f2 bf bd f8 8f 9d bc 69 be d1 3d d5 94 fe bc
       -0.09372463 -0.019233689 0.10241396 -0.031076828

pi.pi_net.4.weight f4 [256, 64]
000000 fa 01 ba 3e d8 03 17 3e 08 fc ab be 80 5d 51 be
       0.36329633 0.1474756 -0.33590722 -0.20445824
000010 17 65 01 be 4f a8 4c 3c b1 09 06 be fd a5 bf 3e
       -0.12636219 0.0124913 -0.13089634 0.37431327
000020 1b 0d e5 3e 0b 62 c3 3e aa af 32 3e a1 31 a6 bd
       0.4473656 0.38160738 0.17449823 -0.08114935
000030 3e 3b 73 bd 2f af 39 3e 54 29 06 3f 17 20 5d 3e
       -0.05938267 0.18133233 0.5240681 0.21594273
000040 78 f1 9b be cf 3d e7 3b cd 82 3d 3d 21 60 33 3e
       -0.30457664 0.0070569287 0.04626732 0.17517139
000050 a8 4f ff 3e 2f 2c 5b 3e bb f2 9f 3c 81 24 22 be
       0.4986546 0.21403573 0.019524923 -0.15834238
000060 88 2a b8 3e 86 78 92 3c bb 75 82 3e f4 b3 88 be
       0.3596995 0.017879736 0.25480446 -0.26699793
000070 9e cb b8 be 99 24 87 be e1 bb 8b 3c e3 b0 8e be
       -0.36092848 -0.2639511 0.017057361 -0.2786933
000080 45 d1 1b bf 67 a9 a5 3d 36 0e 95 be ef 66 cd 3d
       -0.60866195 0.080889516 -0.29112405 0.10029399
000090 43 78 e0 be ae a7 85 be db 83 5f 3e 74 f1 e1 3d
       -0.43841752 -0.26104492 0.21827643 0.11032382
0000a0 e8 f7 0d be e4 43 2c be af ed 8f 3d 8e ca ed bd
       -0.138641 -0.16822773 0.070277564 -0.116109
0000b0 e9 1e a7 3c d6 62 af 3a de 77 dd 3d 1c a6 da 3e
       0.020400481 0.0013380896 0.108138785 0.42704856
0000c0 8d 06 90 3e 42 db 3e 3e 08 19 86 be b9 07 e3 3d
       0.28129998 0.18638328 -0.26190972 0.11085457
0000d0 20 77 d0 3e 53 34 cc be 72 26 d1 be b6 e0 05 3d
       0.40715885 -0.3988367 -0.40849644 0.032685004
0000e0 c7 63 7c bd 45 d5 fe 3d 1e ba d7 bd a4 ad dc 3e
       -0.061618593 0.12443022 -0.10533546 0.43101227
0000f0 5e 14 4e 3e e4 63 fb 3d 9f dc c8 be 7b 45 33 be
       0.20124957 0.12274912 -0.3923082 -0.17506973
000100 70 a9 8d 3e b0 1d 9b 3e 59 86 a6 be b3 c3 8a 3c
       0.27668333 0.30296087 -0.32524374 0.01693902
000110 f1 6e 22 bd a7 28 77 3e 25 59 8e be 99 8a 78 3e
       -0.039656583 0.24136601 -0.27802387 0.24271621
000120 ea 6c 29 3f e1 96 be 3e 79 e7 b5 3e 13 c9 41 3e
       0.66181815 0.37224486 0.35528162 0.1892436
000130 e3 0b 54 bc ea 96 c8 3d 54 42 61 3e 7d 72 00 3e
       -0.012942287 0.097944096 0.21997958 0.12543674
000140 e7 19 af bd dd 62 90 bd 47 c1 03 be 7f ec 4d be
       -0.08549862 -0.07050107 -0.12866698 -0.20109747
000150 a7 27 98 3d 14 33 a2 bd 1c 6c 11 be 2f 3a 96 be
       0.07429438 -0.07919899 -0.14201397 -0.29341266
000160 f6 81 90 3e 2d 07 5d be 36 15 59 3e ae 78 b0 be
       0.28224152 -0.21584769 0.21199498 -0.3446707
000170 a2 39 72 be 62 33 84 bd fe bb d2 3d 57 5d 9f bd
       -0.23654798 -0.06455113 0.10289763 -0.07781475
000180 a0 9d aa be cf 8e 83 3c 4c c9 25 bf 20 23 8e be
       -0.33323383 0.016059307 -0.6476028 -0.27761173
000190 3c b0 87 be 1a 59 eb bd b5 09 97 3e 08 b9 5f be
       -0.26501644 -0.11491604 0.29499593 -0.21847928
0001a0 ba 41 3a bd f4 8d f4 3c ab 99 fb 3e d3 cb dc be
       -0.045472838 0.029852845 0.49140677 -0.43124256
0001b0 05 a3 62 be 2d 29 17 3e 93 0e a5 3e 67 e7 22 3e
       -0.221325 0.14761801 0.32237682 0.15908585
0001c0 d8 73 1f 3e 13 5a 00 3f a4 6d 6b be be 30 83 be
       0.15571535 0.5013744 -0.22991043 -0.25623125
0001d0 1a cb 1d 3e 82 43 07 bf 77 97 e2 be b4 3d 34 3e
       0.15409508 -0.52837384 -0.44256184 0.17601663
0001e0 18 28 88 bd 5d bc f7 bb 1c 49 e1 bd 7e 0e d1 3e
       -0.06648272 -0.0075602964 -0.11000273 0.4083137
0001f0 f3 68 d0 3d e1 1c 32 3e d1 0f 79 be 11 41 94 be
       0.101762675 0.17393829 -0.2432244 -0.28955892
000200 d4 51 a7 3e 3c f4 20 3c 09 7d 76 be 5c 06 6c 3e
       0.32679617 0.009823855 -0.24071135 0.23049301
000210 8e 4a 97 be d7 c2 77 3e fc c1 1f 3a 03 de 90 3e
       -0.29549068 0.24195419 0.00060942746 0.28294381
000220 07 8c bc bc 59 6b 75 bd c9 da 3b 3e d2 9b a3 3e
       -0.023015989 -0.059916828 0.18345179 0.3195482
000230 91 21 1b 3e fe cb 12 3e 45 b1 e2 3e c7 8b c1 3e
       0.15149523 0.1433563 0.4427587 0.37801954
000240 19 e0 64 bd 83 12 96 be 6b 92 1b be 96 34 76 be
       -0.05587778 -0.29310998 -0.15192573 -0.24043497
000250 49 a4 24 bc 9c 41 e4 bd cd 86 4b 3e b4 f3 40 be
       -0.010048934 -0.111453265 0.19875641 -0.18842965
000260 4b 21 37 3e c7 7a 80 bd c2 0e 67 3e 65 cb 28 be
       0.17883794 -0.06273418 0.22564223 -0.16483839
000270 8c 61 ae 3c d4 0c 10 be cb 14 88 3e 9b ef 72 3d
       0.021286748 -0.14067394 0.26578364 0.059310537
000280 16 f1 08 bf 96 a8 36 bd c8 2c 5c be d3 63 d8 3d
       -0.5349287 -0.04459437 -0.21501458 0.10565915
000290 6a a5 5b be f2 bc 1a 3d 42 b2 30 bd f8 23 85 3e
       -0.21449819 0.03777785 -0.04313875 0.26004004
0002a0 47 d2 74 3d 42 9f d8 bd c6 77 a0 3d 99 aa c0 3c
       0.05977085 -0.10577251 0.07835345 0.023518847
0002b0 35 76 c9 be 73 06 16 be 2a 07 50 3e b6 8c c7 3d
       -0.39347997 -0.14650898 0.20315233 0.09743635
0002c0 9b a3 01 3e 86 24 db 3e 67 eb 5f 3e 0d fe 23 ba
       0.12660067 0.42801303 0.21867143 -0.0006255813
0002d0 95 58 d0 bd ba 95 6d be d2 59 a5 be a6 fa b8 bd
       -0.10173146 -0.23201647 -0.3229509 -0.090321824
0002e0 69 db 26 3d 4c f4 28 be a4 30 d0 bd 8a 7a 12 bd
       0.04073659 -0.16499442 -0.101655275 -0.035761394
0002f0 06 71 99 3d 5f de e7 bd 44 c9 2d 3e 98 ab ac ba
       0.07492261 -0.11321711 0.16971308 -0.0013173698
000300 73 e3 19 3e c3 5b a3 3e ac ff fd be 09 0b a2 bc
       0.15028171 0.31905946 -0.49609125 -0.019780653
000310 a1 13 a8 be 2d 43 10 3e bb d1 04 bf 16 fd 18 3f
       -0.32827476 0.14088126 -0.51882523 0.5976118
000320 07 d8 a2 3e a3 86 ae 3e 03 fa a8 3e c6 19 6f 3e
       0.3180544 0.34087095 0.33003244 0.23349676
000330 de 94 a6 3e 8d b5 64 bc d7 2b 8e 3e d0 22 af 3e
       0.32535452 -0.013959301 0.27767822 0.34206247
000340 d6 84 d3 be 41 98 b9 3b ed b9 80 3d 13 5a 3f be
       -0.41312283 0.005663902 0.062854625 -0.18686704
000350 26 5d ea 3e 27 68 b1 3d 5d 3a 83 be b4 2b 14 bf
       0.45774192 0.086624436 -0.25630465 -0.57879186
000360 e5 bf 69 3e 5a 40 da be ff f2 9e 3e 47 77 9c be
       0.22827108 -0.4262722 0.31044766 -0.3055975
000370 77 bf c4 be 25 0b f8 bd 05 06 0b bd 37 24 0f 3e
       -0.38427326 -0.12111501 -0.033941288 0.13978659
000380 d2 e6 ea be 03 5e 85 3e c1 ee d9 be a3 3a c2 3d
       -0.45879227 0.26048288 -0.42564967 0.0948384
000390 9e f1 a2 be 1e 11 53 be 14 da dd 3d 1a 04 0d 3e
       -0.31824964 -0.20611998 0.10832611 0.13771096
0003a0 77 b2 a2 be 60 94 78 3d 6a 29 52 3f 8f 83 ab be
       -0.31776783 0.060688376 0.8209444 -0.3349881
0003b0 40 57 bc be d4 e6 ae bc a4 47 75 3f d4 b6 5b 3d
       -0.36785316 -0.021350302 0.9581244 0.053641155
0003c0 6d d0 49 3e e8 69 7b 3e 8c 57 e8 be c2 12 d2 bd
       0.19708414 0.24552119 -0.45379293 -0.10257484
0003d0 91 45 81 bd 99 1e 10 bf 69 f6 06 bf 16 48 13 be
       -0.06312097 -0.5629669 -0.5271974 -0.14382967
0003e0 18 3e 0b be 54 08 a9 3d da 82 88 bd 23 23 0d 3f
       -0.13597906 0.082535416 -0.06665583 0.5513174
0003f0 db 0a 6e 3e 30 af 95 3e 15 d1 1d bf 40 a2 04 be
       0.23246329 0.2923522 -0.6164716 -0.12952518

pi.pi_net.4.bias f4 [256]
000000 3d 9e 9f be 8e 54 a9 be 64 ae 2c be 54 ad f3 be
       -0.31175414 -0.33072323 -0.168634 -0.47593176
000010 10 c7 64 be 0e 98 86 bc f6 8f 43 be 6f ce 66 3c
       -0.22341561 -0.016429927 -0.19097885 0.014087304
000020 6f b2 3d be 8b 1b 60 3e c7 a8 1f be 36 06 38 be
       -0.18525098 0.21885507 -0.15591727 -0.1797112
000030 20 a3 8b be e7 de 74 be 57 a7 90 be 04 36 e0 bc
       -0.27272892 -0.23913155 -0.2825267 -0.027369507
000040 bd 21 c2 be ab 6f 8b be e1 72 9a be 8c a2 53 be
       -0.37916365 -0.27233633 -0.3016577 -0.20667475
000050 8f 92 fd 3d 9f be d9 3d c1 a1 b2 bd d4 f3 e8 bd
       0.123814695 0.10632061 -0.08722258 -0.113746315
000060 c7 70 af bd 42 73 97 be 3f 48 c5 be 61 25 89 be
       -0.085664324 -0.29580122 -0.38531682 -0.2678633
000070 4d 62 d6 be ba f4 a6 be a3 e9 d8 be 32 de e1 bd
       -0.41871873 -0.32608587 -0.4236575 -0.110287085
000080 8d d6 f2 3d c9 d2 83 be c7 bb 6e be ad 6d 2d be
       0.118573286 -0.25746754 -0.23313819 -0.16936369
000090 e9 28 a2 be 5c 27 54 3e 99 68 7e bd fd c0 bb be
       -0.31671837 0.2071814 -0.06211147 -0.36670676
0000a0 57 7a 4a be 2a 3b 1c 3e 22 2c 31 be d4 64 27 3b
       -0.19773231 0.15256944 -0.17301992 0.0025542276
0000b0 ac 45 0a bd 5f 45 a3 bc a2 f2 ff bd 21 9b 22 be
       -0.03375785 -0.01993054 -0.124974504 -0.1587949
0000c0 5e 47 4b 3e 10 05 c6 be dc 85 0e bc 6c c8 45 3c
       0.19851443 -0.38675737 -0.008698907 0.01207171
0000d0 bc e4 0b 3d 2d 35 1c be 2a a9 1a be a4 19 c7 bd
       0.034153685 -0.1525466 -0.15103593 -0.097216874
0000e0 e6 22 f8 bc 14 63 b1 be 2b 80 e3 be af e9 36 be
       -0.030290078 -0.34645903 -0.44433722 -0.1786258
0000f0 ea cb 9e 3d 2f 97 56 be fb d0 f1 bb f9 27 99 be
       0.07753737 -0.2095611 -0.0073796487 -0.2991331
000100 7e f6 e0 bc 9e 01 ec bd 0f 98 cd be 4b d4 a4 be
       -0.027461287 -0.11523746 -0.40155074 -0.32193217
000110 73 f8 4a 3e 43 bc 8a be 46 f6 0e 3e 9a 65 12 be
       0.19821338 -0.27096757 0.13961133 -0.1429657
000120 b6 25 af be 9f ed c0 bb 85 b4 ea be 26 3d 08 3e
       -0.3420846 -0.0058877016 -0.4584085 0.13304576
000130 70 27 d9 be 42 41 37 bd f6 19 22 be 53 d9 2f be
       -0.424129 -0.04473997 -0.15830216 -0.17172746
000140 b1 af a1 bd 01 83 9c 3e 9f ea a4 be ad 73 68 be
       -0.078948386 0.30568698 -0.32210252 -0.22700377
000150 aa e7 c9 3d ae 07 c2 bd 03 62 89 be 5a ff fe 3c
       0.098586395 -0.09474121 -0.2683259 0.03112762
000160 ec 1b 6a 3e ab b9 a0 be 7a 5f 3e be 10 5b e2 3c
       0.22862214 -0.31391653 -0.18591109 0.027631313
000170 36 46 ca bd 3b 69 a1 3d bb f7 bd bb e7 be 63 be
       -0.09876673 0.07881399 -0.005797354 -0.22240792
000180 fd ff bf 3b 93 8b e0 bd 75 1b cc be 08 88 55 bd
       0.0058593736 -0.10964122 -0.39864698 -0.052131683
000190 a2 49 c8 be 75 9a c5 be f0 69 3a be 2f 11 fa bd
       -0.39118677 -0.38594404 -0.18204474 -0.12210309
0001a0 d5 ed 94 bd f6 8f b6 3d b4 0e 4b bd 78 aa 4a be
       -0.07271925 0.08914177 -0.04957457 -0.19791591
0001b0 d2 de c6 bd dd 71 00 be 2a 39 8c be 74 77 d9 be
       -0.09710468 -0.12543435 -0.27387363 -0.42473948
0001c0 80 0d 68 be bc 4c 3d bd 18 1c db bd 36 19 b9 be
       -0.226614 -0.046215758 -0.10698718 -0.36152047
0001d0 5c 75 11 be a1 eb d4 be f8 02 2a be 1c 70 65 be
       -0.14204925 -0.4158602 -0.16602695 -0.22406048
0001e0 d3 24 05 bd 47 8e 1a be ff a8 7e be 5f 8f 6a 3d
       -0.03250582 -0.15093337 -0.24869154 0.057265636
0001f0 cc a6 20 be a7 f3 fb be ad f6 b1 be 88 22 af bd
       -0.15688628 -0.4920933 -0.3475851 -0.08551508
000200 04 95 5b 3e 0c c3 65 be ca 68 6f bd 59 91 9a be
       0.21443564 -0.22437686 -0.058449544 -0.30189016
000210 32 df eb be f4 ad 2b be 48 42 98 be 68 ac 89 bc
       -0.46068722 -0.16765577 -0.2973807 -0.016805843
000220 a1 e2 c3 bd 39 2f d6 bd be 29 90 be 18 e5 a4 be
       -0.095647104 -0.10458226 -0.28156847 -0.32206035
000230 b6 08 c3 bd d5 56 a7 3a f3 16 fe bd af 66 2d bd
       -0.09523146 0.0012766967 -0.12406721 -0.042334255
000240 5c cb 35 be 62 fb ea be 23 26 38 be 84 d0 c2 bd
       -0.17753357 -0.45894915 -0.17983298 -0.095124274
000250 ea 09 e6 3d e3 33 da bd 22 c8 d7 be f1 8d d0 bd
       0.1123236 -0.10654428 -0.42144877 -0.10183323
000260 ed ac 06 3e 38 4e 73 be 58 4c 5d be cc b5 a1 be
       0.13151903 -0.23760307 -0.21611154 -0.31584013
000270 fe d4 3a bd fc 48 d2 be 23 45 5a be 5f 24 cf 3c
       -0.04561328 -0.41071308 -0.21315436 0.025285898
000280 71 6f 3d be 04 03 1f be fa 2e 58 be 39 f6 74 be
       -0.18499543 -0.15528494 -0.2111167 -0.23922051
000290 2b 81 02 bb 59 bb 17 be 09 c2 4c be b9 72 4e be
       -0.0019913416 -0.14817561 -0.19995894 -0.2016095
0002a0 31 ae a9 3d 19 44 d7 be 5d f9 1e be a3 69 84 be
       0.082851775 -0.42044142 -0.15524812 -0.25861844
0002b0 8c e0 26 bd e6 c7 61 be fa a3 46 be 27 79 93 be
       -0.04074149 -0.22048911 -0.1939849 -0.2880337
0002c0 9d ea 90 bc 99 03 f6 bc 11 0d 6e 3d f3 ac 86 bd
       -0.017689997 -0.030031012 0.05811793 -0.06575956
0002d0 9e 15 d7 3d 4a 38 67 3c ae 7d de be 66 22 56 be
       0.1050217 0.014112541 -0.4345526 -0.2091156
0002e0 ff bb 7d be 0d 8d 08 be 8a 31 c0 bd 18 29 8c bd
       -0.24778746 -0.13335057 -0.09384449 -0.068437755
0002f0 46 15 54 be a3 45 1b be 3b 5f 0c be cf a9 96 bd
       -0.2071124 -0.15163283 -0.13708203 -0.07356607
000300 b6 20 51 3d e8 63 0d bd f1 80 f1 be 85 35 50 be
       0.051056586 -0.034519106 -0.47168687 -0.20332916
000310 f0 9b 98 bc ed 88 20 3d 9e 35 66 be 24 b7 dc bc
       -0.018629044 0.039193083 -0.22481391 -0.026942797
000320 e9 dc 43 be e8 66 d5 bd 8e e2 39 3c 86 60 b8 be
       -0.1912724 -0.104200184 0.011345519 -0.36011142
000330 e9 12 ee be 9c df 35 be e7 0e 5a be 75 66 bd be
       -0.46498802 -0.17761081 -0.21294747 -0.3699223
000340 72 6f 46 be 5a d9 b9 3d 1e 55 d8 bd fe 75 8d 3d
       -0.1937845 0.0907466 -0.1056311 0.06907271
000350 d0 b6 5b be 71 26 65 bd ef 18 47 bd 96 b8 ce bd
       -0.21456456 -0.055944864 -0.048607763 -0.10093801
000360 81 47 61 3e 64 39 12 bd df 89 56 bd 9d ee be 39
       0.21999933 -0.035699263 -0.052377578 0.00036417405
000370 a9 26 0c be 47 8e 89 be a7 79 24 be 60 a6 ac be
       -0.13686623 -0.26866361 -0.16062032 -0.33720684
000380 38 08 a2 be 2e e8 70 be a2 fb de bd ca 87 cb be
       -0.31646895 -0.2352607 -0.10887839 -0.39752036
000390 a5 db 47 be 62 ef e7 bc 5e 54 0e be e7 0f c0 be
       -0.19517381 -0.028312389 -0.13899371 -0.37512133
0003a0 ad 9a 3e be 53 62 53 3e 17 fe 67 bd 9c 55 e2 bc
       -0.18613692 0.20642976 -0.056638803 -0.027628712
0003b0 20 ba bf be 14 0e 47 bd 1b 43 03 bf 2f 45 26 3d
       -0.3744669 -0.04859741 -0.5127427 0.040593322
0003c0 40 9c 9e be cf 38 be be ac 5a 9b be 50 37 c6 be
       -0.30978584 -0.37152717 -0.30342615 -0.38714075
0003d0 2c ff 39 3d ea 1a ae bc e5 3e 61 3d 72 4c d1 be
       0.045409366 -0.021253068 0.05499162 -0.40878636
0003e0 91 91 b8 bc bd 5c f3 3d 38 ca 69 b9 92 bd d9 be
       -0.022530349 0.11882923 -0.00022295944 -0.42527443
0003f0 dd d3 46 bd d3 eb b9 3c bd 4a 38 be 48 b1 5c bc
       -0.048541892 0.022695458 -0.1799726 -0.0134700015

v.v_net.0.weight f4 [64, 5]
000000 b2 41 19 bf 6c f0 ee be 44 38 fd 3d 4b e3 66 3d
       -0.5986587 -0.46667802 0.123642474 0.056369107
000010 db d2 36 3c f8 bc c1 3d 93 aa c8 be 98 47 9d bd
       0.01115867 0.09459871 -0.39192638 -0.07679671
000020 47 4e 17 3f 0c cd 1c 3d 31 75 e6 3e 9a 09 c2 3e
       0.59103817 0.038281485 0.45011285 0.3789795
000030 a5 99 c0 3c 2b 7a 92 be b9 47 3a 3e 0d 31 5a bf
       0.023510763 -0.28608832 0.18191423 -0.85231096
000040 00 95 0b be 1b 34 04 3d ac 49 65 3d 05 84 0f 3e
       -0.13631058 0.032276254 0.055978462 0.14015205
000050 b7 fe 26 be 3f cd 9f be 73 c8 e4 3e 23 ba 23 3e
       -0.16308104 -0.31211278 0.4468418 0.15988974
000060 4d d3 87 3e 19 c9 e8 be b4 00 ea be d3 f7 b8 3b
       0.26528397 -0.45465925 -0.4570366 0.0056447773
000070 e7 01 f4 3e c5 05 ae 3e 9f 53 a1 bf 75 0c 2e be
       0.476577 0.33988777 -1.2603644 -0.1699694
000080 d3 70 10 3d 87 ab d9 3e 22 7c 20 3d e2 ce c7 3e
       0.035263848 0.42513677 0.039180882 0.39025027
000090 89 6f ad 3e 07 55 73 bc a0 87 4b 3e 73 5f bd be
       0.33874157 -0.014851815 0.19875956 -0.36986884
0000a0 81 2e 63 bf 84 00 15 bf 11 be 39 bd ac b9 8b 3e
       -0.88742834 -0.5820391 -0.045347277 0.27290094
0000b0 8d cd 98 3e ec 67 04 bf b0 6a 7b be 41 d2 af 3d
       0.29844323 -0.5172107 -0.24552417 0.085850246
0000c0 52 a8 05 3e 6d 59 56 be de 82 1c 3e ec 53 8e be
       0.1305249 -0.2093255 0.15284297 -0.27798402
0000d0 8f c6 d4 bd b6 39 30 bf 90 9e 41 bf 10 a0 4f bf
       -0.103894345 -0.6883806 -0.7563257 -0.8110361
0000e0 01 02 73 bf 75 d3 2c be 4e b8 f2 bd f2 a1 31 bf
       -0.9492493 -0.1687754 -0.118515596 -0.69387734
0000f0 bc bf 15 bf ef 12 4d bf ff 13 c7 3e 3b 40 fb 3d
       -0.5849569 -0.80107015 0.38882443 0.1226811
000100 a8 c8 d6 3d 69 5e 33 3f 32 52 83 3f 85 71 1d 3f
       0.10487491 0.70065933 1.0259459 0.6150134
000110 c4 a6 22 3d 3e f0 06 3f 85 97 2d 3f e2 94 eb 3e
       0.03970982 0.5271033 0.67809325 0.46012026
000120 16 50 55 be 8c 6b 27 be 89 ad 39 3d b9 c2 29 bf
       -0.20831332 -0.1634962 0.04533151 -0.6631275
000130 02 e5 4f be bd 46 96 bc b2 86 be 3e fa 96 36 bb
       -0.20302203 -0.018344278 0.3721214 -0.0027860985
000140 79 dc 4d be 8e 8e 1f bf 9d 3b 1e 3e a6 33 df 3e
       -0.20103635 -0.62326896 0.15452428 0.43594092
000150 c0 1e e0 bb ef 62 07 3f 14 19 ed 3e 27 2d 81 bf
       -0.006839603 0.52885336 0.46308196 -1.0091904
000160 4e 52 bd 3d 6b e1 37 be f9 f1 e4 be c8 a3 f8 be
       0.09244214 -0.17957084 -0.4471586 -0.48562455
000170 1c 91 24 3e 60 06 cc bd c8 ca 21 3e 54 96 2c bf
       0.1607098 -0.099621534 0.15800011 -0.6741688
000180 9c 8c 86 bf 83 e8 10 be 3d 46 a9 be be e0 48 bf
       -1.051166 -0.14151196 -0.330614 -0.7846793
000190 0c dd 04 3f e6 36 bb 3e 40 2a b1 3e 3f 00 ec 3e
       0.5189979 0.36565322 0.34602547 0.46093938
0001a0 71 08 8d 3f 11 95 f9 3e 18 ce 8a 3e f2 17 11 3e
       1.1018201 0.4874654 0.27110362 0.1416929
0001b0 37 00 32 bd 7f f9 e0 bd da 25 01 3f b5 ff 8a 3e
       -0.043457236 -0.109850876 0.5044838 0.27148214
0001c0 07 f6 38 bd 64 77 9f 3b 25 c2 73 be 2c f4 1a 3e
       -0.045156505 0.0048665274 -0.23804529 0.15132207
0001d0 44 b3 03 bf 7b d3 b1 be a3 dd 60 be 38 f6 0e bf
       -0.5144541 -0.3473166 -0.21959548 -0.5584445
0001e0 ab 6c 00 3f 48 33 8b 3e bf 0c d1 bd e6 4a a4 3d
       0.50165814 0.27187562 -0.10207509 0.08022098
0001f0 f9 3b 0a be d5 b1 c8 be ef aa 60 be 3c e2 c2 3e
       -0.1349944 -0.39198175 -0.21940206 0.38063228
000200 9f 5f 19 be fa 68 f8 bd fa fc 20 3f dd 28 c8 3e
       -0.14977883 -0.12129398 0.6288601 0.39093676
000210 de 05 5a be 67 6b 02 3f 42 3a 15 bf e2 15 dd be
       -0.212913 0.5094513 -0.5829202 -0.43180758
000220 26 73 8f be 09 b9 8e 3e a4 1d 04 be 8e dc 6f bd
       -0.2801754 0.27875546 -0.12901932 -0.058559947
000230 86 da f9 3e 56 85 4e 3f e5 e6 f7 3e 4c 56 ea 3e
       0.48799533 0.80672204 0.48418346 0.45768964
000240 7b e6 19 3f 4d ad d3 3e 57 71 fa be 88 29 76 3e
       0.6011731 0.41343156 -0.48914596 0.2403928
000250 ee ea 7c 3e 37 6a a1 3d 03 ec 2e bf 7d f6 49 3d
       0.24698994 0.07881587 -0.68328875 0.049307335
000260 65 7d 27 be 6f a6 da 3e fb 58 fb bd 0e 21 1e 3f
       -0.16356428 0.42705104 -0.12272831 0.6176919
000270 45 60 e5 3d 41 e8 76 bc 68 94 30 3d 8e e3 67 be
       0.112000026 -0.015070022 0.04311028 -0.22645399
000280 91 e6 23 bf 4e e7 a3 bd 26 b6 90 3e 85 2d ec 3c
       -0.6402369 -0.08003102 0.28263968 0.0288303
000290 d8 3d c8 bd ab 84 6a be b6 2f c6 be 63 08 b7 3d
       -0.09777421 -0.22902171 -0.38708276 0.089371465
0002a0 b4 8c 23 be 64 db 9c 3e 85 42 55 3f 2a 60 9a bd
       -0.15971643 0.30636132 0.83304626 -0.07537873
0002b0 d8 96 ee 3b 07 7a 13 be fb e8 23 bd a7 af 0a 3f
       0.0072811656 -0.14402018 -0.04001711 0.54174274
0002c0 79 54 2a 3f c3 e8 78 3c ad 6e 85 be 2d 2f 9b be
       0.66535145 0.0151922135 -0.26061 -0.3030943
0002d0 7e f9 97 3d c0 25 24 3f d6 c4 e8 3e f1 94 f1 3e
       0.07420634 0.641201 0.45462674 0.47183946
0002e0 c1 92 06 3f 10 fe 79 bf 42 3c 21 be d6 d5 a5 bd
       0.5256768 -0.97653294 -0.15745643 -0.080974266
0002f0 1b 2e 9b 3e 35 08 ce 3d 4e be ea bd bf f3 37 be
       0.30308613 0.10060159 -0.11462079 -0.17964076
000300 5d bc 06 3e 0b 4e 7a 3e d5 6a 94 3d 0f 1e 9b 3e
       0.13157792 0.24443834 0.07246939 0.3029637
000310 49 9b 5a be 8c a5 9a be 6d bd 51 bd fa 5a e6 3c
       -0.21348299 -0.30204427 -0.05120604 0.028119553
000320 d8 7c ce be b8 c9 37 be fd 96 51 bd 78 e4 2b bd
       -0.40329623 -0.17948043 -0.051169384 -0.04196593
000330 22 9a a7 bc 9f 84 5d 3f 5f 00 aa 3e 45 66 e5 3c
       -0.020459238 0.8653049 0.33203408 0.028002867
000340 75 cc 49 bf 54 5c 97 3e 70 9d ed be be 9a 08 bf
       -0.788276 0.29562628 -0.46409178 -0.5336112
000350 6a 46 05 bf ea bd d7 be 0d f4 35 bf a9 50 3c bf
       -0.5206057 -0.4213708 -0.71075517 -0.7356058
000360 17 68 0a bf c2 63 90 3e bc 2d f1 3d bc db 05 bc
       -0.5406508 0.2820111 0.11776301 -0.008170065
000370 31 46 ed be 1a b4 4d bd 63 02 f7 bd f2 7f d6 3c
       -0.46342614 -0.050220586 -0.12061002 0.026184056
000380 c6 45 88 3d 6d 48 d2 3e ab fa d0 bd 46 aa 3f bf
       0.06653933 0.4107088 -0.10204061 -0.7486919
000390 86 9e 72 3c 70 de 5b 3e ae 22 0b bf a7 6f 1f bf
       0.014808303 0.21471572 -0.5434979 -0.6227974
0003a0 9b 61 1a 3d d7 0a ed bc a4 62 00 3f 29 54 0d bf
       0.03769074 -0.028935833 0.50150514 -0.55206543
0003b0 61 de 7d 3b ec a5 8a bd 86 f3 99 be 3c f4 48 3e
       0.0038737284 -0.06769928 -0.30068606 0.19624418
0003c0 2d 3c 93 be 36 ca ee be 31 22 1c 3e 09 b8 21 be
       -0.28756848 -0.4663865 0.15247418 -0.1579286
0003d0 85 aa 2e 3e b9 1e 21 3e 95 0f 90 be bc 6e a1 bd
       0.17057236 0.15734376 -0.28136888 -0.07882449
0003e0 74 58 51 3f 8f c3 96 3d 15 f9 62 bf f2 c4 88 be
       0.81775594 0.073615186 -0.8866132 -0.26712757
0003f0 9d c9 d6 3e e9 1d 74 3d 67 e6 0c be 85 ae d8 3e
       0.41950694 0.059598837 -0.13759767 0.42320648

v.v_net.0.bias f4 [64]
000000 e0 5e 51 be da 2d e0 be e6 7f 7b 3e 0c 1d 77 be
       -0.20446348 -0.43784982 0.24560508 -0.24132174
000010 d0 cc c6 be 3e 4d ad be 96 45 99 be e5 09 79 3e
       -0.38828135 -0.33847994 -0.29935902 0.2432018
000020 bf 94 8a be ec d3 9c bd 55 90 b6 be 0c 49 38 bf
       -0.2706661 -0.076576084 -0.35656992 -0.7198646
000030 56 96 f0 be 05 ad 5e 3f 28 ff 31 3e 80 39 54 bd
       -0.46989697 0.86982757 0.1738249 -0.05181265
000040 90 2d 6b be 8e e6 e8 3e 58 a3 54 be 4b b9 29 bf
       -0.229666 0.454884 -0.20765436 -0.6629836
000050 7c b0 00 3f 03 b1 08 3e d5 5e 95 3e 86 eb 33 bf
       0.50269294 0.13348775 0.29173914 -0.70281255
000060 85 9f 2f 3e b7 bd 95 be c0 cc 50 3e ae 21 89 bb
       0.17150696 -0.29246303 0.20390606 -0.004184923
000070 97 a8 25 3f 2f 47 d8 bc 17 0b 87 be e1 f0 56 3e
       0.6471037 -0.02640113 -0.26375648 0.20990326
000080 0a 4e 92 be ca 71 84 be 6f 11 81 3e 4b 1f b6 3e
       -0.28575164 -0.25868064 0.25208613 0.3557075
000090 35 42 02 3f 8c 27 58 be 14 c1 e8 be e5 b7 0d be
       0.50882274 -0.21108836 -0.45459807 -0.13839681
0000a0 5d 9a aa bd 9f 8c ee 3e f7 d0 34 bf 01 ac 64 be
       -0.08330224 0.4659166 -0.70631355 -0.2233124
0000b0 9e ba 54 be 0d 48 ac 3e 66 2a 83 be 48 51 14 be
       -0.20774314 0.3364872 -0.25618285 -0.14484131
0000c0 6c 7f 77 be 61 00 ec be 5e 52 7d be 88 df 42 3e
       -0.24169701 -0.4609404 -0.24738452 0.19030583
0000d0 f2 8f 09 bf 7b 12 80 3e b8 eb 44 be ec 72 52 be
       -0.5373527 0.250141 -0.19230545 -0.20551652
0000e0 b0 5a 19 3e 59 03 0a 3b 27 b9 94 be a2 70 58 be
       0.14976001 0.0021059124 -0.2904751 -0.21136716
0000f0 ee 7f 52 3e 05 50 7e be 53 b0 8f be 5c 4e 26 bf
       0.20556614 -0.24835213 -0.28064212 -0.64963317

v.v_net.2.weight f4 [64, 64]
000000 cd f4 f3 3e 6e 94 57 be a6 fb 5e be 6f d2 1e 3e
       0.47647706 -0.21052715 -0.21775684 0.15509962
000010 ae 1d 17 bc 48 58 5a bc 21 73 1d 3e f6 8a aa be
       -0.009223385 -0.013326712 0.1537595 -0.33309144
000020 65 13 b1 bd bb a2 c3 be 6d 0e 5b be 02 b5 ae 3e
       -0.08646277 -0.3821009 -0.21392222 0.34122473
000030 42 d6 80 3c 10 b2 dd bd 88 ec 6d 3e 64 77 c5 bd
       0.015727166 -0.10824978 0.23234761 -0.096419126
000040 4e 77 5c 3e 8f 56 1a bf 69 82 06 bc cd 03 42 3b
       0.21529886 -0.6028833 -0.008209803 0.0029604316
000050 70 e2 63 bd 3e fa 11 be 51 6c b2 be 97 16 1e 3e
       -0.05563587 -0.14255616 -0.34848264 0.15438305
000060 f6 60 1a be 2f 8c 28 3f ee 1b d7 be 16 c5 8e be
       -0.1507605 0.65838903 -0.42013496 -0.2788474
000070 64 65 16 be e0 4e 90 be bd a1 1f 3f b3 5f 4a bf
       -0.14687115 -0.28185177 0.6235617 -0.79052275
000080 4c c6 06 3f e2 9e 24 3e 83 94 2c be bc 32 88 be
       0.52646327 0.16076234 -0.16853528 -0.26601207
000090 59 90 e6 bc f0 8d 11 3e f2 f3 f1 3d b8 ea 98 bd
       -0.028145002 0.14214301 0.11814107 -0.07466644
0000a0 48 88 0c 3f 3d ae e1 be 70 40 c5 3c e0 a0 c7 3d
       0.5489545 -0.44078246 0.024078578 0.09747481
0000b0 4f 96 ec 3e 58 6e a7 be 95 71 49 3e 09 40 d0 bd
       0.46208426 -0.32701373 0.19672234 -0.10168464
0000c0 85 8d 2f 3f e8 da 02 be 72 b6 94 3e 69 91 49 3d
       0.68575317 -0.12778819 0.29045445 0.04921094
0000d0 c0 0a 8d bd 3c 68 36 be 5b 90 d0 3d 21 c5 1c 3d
       -0.06886816 -0.178132 0.101837836 0.038273934
0000e0 2e d8 e7 bd d9 7d bc 3e 78 dd fe 3e 5d 23 fa 3e
       -0.1132053 0.36814764 0.49778342 0.48855105
0000f0 32 cd 39 be a9 00 bf 3e 56 67 ee 3d 3f 92 12 3f
       -0.18144682 0.3730519 0.116408035 0.57254404
000100 4f 41 1a 3f 73 fb f9 3e 99 62 be be 2c 18 8d 3e
       0.60255903 0.48824653 -0.371846 0.27557504
000110 cd 08 e8 3e cd 73 39 3e 53 21 3b 3e ed 92 c0 bd
       0.45319214 0.1811058 0.18274431 -0.09403024
000120 e7 f8 cd 3e 73 56 ac 3e f2 e0 cb be cc 62 46 3e
       0.4022896 0.33659706 -0.39820057 0.19373626
000130 92 93 41 3e 15 fb 57 bf f3 4c 50 3e 47 c6 98 bd
       0.1890395 -0.84367496 0.20341854 -0.074596934
000140 e8 12 09 3f 97 ac a4 bd d8 61 82 bd 33 da 0a bc
       0.53544474 -0.080407314 -0.063663185 -0.008474874
000150 3f 3a a2 be a8 32 1e be 60 97 f2 be ce b8 be 3d
       -0.31685063 -0.15449011 -0.47381115 0.093125924
000160 c3 d0 c2 be 4b 4a 40 3e 67 e1 58 3d 01 79 e7 3d
       -0.38049898 0.1877834 0.052949335 0.113023765
000170 e1 72 4e be d9 f0 fd 3d 09 42 8f 3e dd 23 0d bf
       -0.2016101 0.12399454 0.27980068 -0.5513285
000180 b5 64 0f 3f 72 87 69 3e f4 a0 c6 be 71 da a0 bd
       0.5601304 0.22805575 -0.38794672 -0.078541644
000190 d3 96 94 3e a6 c7 0e 3f 54 dd 8a 3e 4c 2d 44 bd
       0.2902132 0.5577339 0.27121985 -0.04789476
0001a0 d8 f0 2a 3e 72 23 8f be 00 8b e2 3d 5d 07 7a 3e
       0.16693437 -0.2795673 0.110616684 0.24416871
0001b0 d7 e0 ae 3e 8e 09 8d bd f3 82 8c bd 67 2b 58 3a
       0.34155914 -0.06886588 -0.06860914 0.00082462135
0001c0 56 34 fb 3d d2 1c 57 3e 1a 30 1c 3f a7 5d a4 be
       0.12265842 0.21007088 0.610109 -0.321027
0001d0 5f 28 b0 3e b3 8f a4 be 2f 41 9e ba 4e e6 b1 3e
       0.344058 -0.32140884 -0.001207387 0.3474602
0001e0 3e f8 df be 30 e1 35 3e 3f b9 0a 3e 39 82 e7 3e
       -0.4374408 0.17761683 0.13547228 0.4521654
0001f0 f7 cb f3 bd ce 83 a4 3e 89 1d 0f be f5 6a dc 3e
       -0.119041376 0.3213181 -0.1397611 0.43050352
000200 5b 3f 5b bf ea 16 a0 bd dd cf 25 3f 56 ca 24 bf
       -0.8564355 -0.078168705 0.647703 -0.6437124
000210 72 b8 b9 be 51 f2 7c be a8 61 ea be 4c ce 62 3e
       -0.36273533 -0.24701811 -0.4577763 0.22149009
000220 c2 c5 40 be 7f 05 ae be a2 c7 92 bd f7 e1 84 be
       -0.18825439 -0.33988568 -0.07166983 -0.25953647
000230 c7 b0 96 be cd 70 06 3e 27 17 2a 3f f5 a2 20 be
       -0.29431745 0.13128968 0.6644158 -0.15687163
000240 f7 a5 c7 be ac c6 95 3e 18 13 6d be 82 e3 d5 be
       -0.3899381 0.29253137 -0.23151815 -0.41775137
000250 cf 47 03 3f 74 4d 08 3f 80 76 19 3e d2 2a a9 be
       0.51281446 0.53243184 0.1498661 -0.33040482
000260 bb 80 15 3f 27 f1 ed be 93 4a 49 3f 64 f9 fa 3e
       0.5839955 -0.46473047 0.78629416 0.49018395
000270 5d 22 1b 3e 74 71 ed 3c 3f dd 0e bf ce 16 be 3e
       0.15149827 0.028984763 -0.55806345 0.37126774
000280 1b 8b 23 bd 80 59 07 bf cf ac 01 3f 3b 66 cb 3e
       -0.039927583 -0.5287094 0.5065431 0.39726433
000290 91 26 43 be 1e 49 b0 be cf 78 4c be 6b 0b 00 bd
       -0.1905768 -0.34430784 -0.1996796 -0.03126089
0002a0 28 73 7a be 0b 1f de 3d fc 39 d5 be fd 5c 15 bf
       -0.24457991 0.10845765 -0.416458 -0.58345014
0002b0 57 63 19 be f8 da dd 3e f9 18 03 be fb f6 67 3e
       -0.14979301 0.43331122 -0.12802495 0.2265281
0002c0 9c 53 92 be 99 e0 31 be 1f dc a6 be 79 93 99 3e
       -0.28579414 -0.17370833 -0.32589814 0.29995325
0002d0 8e 8f 21 be cb af 9d 3e 71 5d 08 bf f2 bd c3 bd
       -0.15777418 0.30798182 -0.5326758 -0.095577136
0002e0 d5 65 a9 3e c1 04 2b bd 1d 94 d8 be d2 aa 0a be
       0.33085504 -0.04175258 -0.423005 -0.13541725
0002f0 0e e1 a1 bd 7b 3a 91 bc b2 ef 4d be db 24 7f be
       -0.07904254 -0.017728081 -0.20110968 -0.24916403
000300 57 48 d8 3d f4 46 a2 bd 69 a0 a2 be d3 13 ed be
       0.10560673 -0.079236895 -0.31763008 -0.46304187
000310 61 40 1d bf 3b e7 9e be 15 ce fb be 32 5d 0a 3f
       -0.6142636 -0.3103579 -0.49180666 0.54048455
000320 23 b9 ac bc 51 09 53 bd f5 e5 0b bd 89 d3 08 be
       -0.021084374 -0.051522557 -0.03415485 -0.13361944
000330 d9 c3 d6 be bd b2 eb 3e 14 cd 13 3f 2e 3a e3 3e
       -0.41946295 0.46034804 0.577348 0.44380325
000340 b2 a4 1f be 03 cd 0f 3f 32 b3 10 be 7c a2 af be
       -0.1559017 0.561722 -0.14130858 -0.34303653
000350 b9 64 72 3d 0c 0d e5 3e 76 29 bc 3e a7 f3 3e be
       0.059178088 0.44736516 0.36750382 -0.18647633
000360 9c e0 93 3e 86 9b ef 3d 09 8a f0 3e 58 44 8a be
       0.288823 0.116995856 0.46980312 -0.27005267
000370 0b 37 10 3d 6f 2d 04 3f 1a ad 02 bf bf 80 2b 3d
       0.035208743 0.51631826 -0.5104538 0.04187083
000380 2d b8 5e 3d 08 1f 78 be b5 8f e0 3e 0e 4e 5e be
       0.054374862 -0.24230587 0.4385964 -0.21709463
000390 f0 f2 22 be d6 6b d6 be 00 8c 6d be b4 43 4a be
       -0.15912986 -0.41879147 -0.23197937 -0.19752389
0003a0 5a 91 8f 3e f9 f8 23 3f fe 3a 63 bd 2c c3 97 bd
       0.28040582 0.6405178 -0.05547618 -0.07410273
0003b0 3d c0 40 bf 13 b2 55 be 78 83 69 be 15 88 16 be
       -0.7529333 -0.20868711 -0.22804058 -0.14700349
0003c0 28 a9 c4 be 8c d4 4d be 32 1c a6 be f6 33 5a 3e
       -0.38410306 -0.20100611 -0.32443386 0.21308884
0003d0 24 24 fa 3c e1 d5 e4 3d 81 27 1f be 1b 54 ca be
       0.030534811 0.11173607 -0.15542413 -0.39517292
0003e0 cf 91 5c 3e a1 f7 cb bc 02 22 3d bc 7b ee 20 bc
       0.21539997 -0.024898352 -0.011543753 -0.009822483
0003f0 8d fe 44 3e fd be f4 bc 51 42 b7 bd c2 80 15 3e
       0.19237728 -0.029876227 -0.08948196 0.14599898

v.v_net.2.bias f4 [64]
000000 54 ed 31 be 0c 6d 81 be 88 e6 b1 3e af b4 61 3e
       -0.1737569 -0.2527851 0.34746194 0.22041582
000010 ad 8b 6c be 60 2c 61 be b8 9f f6 3d 20 33 b3 3e
       -0.23100157 -0.21989584 0.12042183 0.34999943
000020 9b 8f 6f 3e 3c d6 83 be 91 c0 43 3e bb 60 5d 3e
       0.23394625 -0.25749385 0.19116427 0.21618931
000030 48 f8 a1 be d7 40 ac 3e 83 16 61 3e 99 ce 18 be
       -0.31634736 0.3364322 0.21981244 -0.14922561
000040 bf ca 3a 3e 67 25 68 be b3 40 a5 3e 8c 09 32 be
       0.18241404 -0.22670518 0.32275924 -0.17386454
000050 bf 50 a2 3e f1 32 40 be 25 d6 b1 bd e9 5b 18 3e
       0.3170223 -0.18769433 -0.08683423 0.14878811
000060 63 c1 8b be 6c bb 92 be 7a 08 6c 3e 67 12 6f be
       -0.2729598 -0.28658617 0.23050109 -0.23346864
000070 85 fa 76 3e 42 b0 97 3e 2c 46 ca be 27 b3 60 3e
       0.24119003 0.29626662 -0.39506662 0.21943341
000080 e8 b1 30 be d7 70 88 be 22 ec 63 be c8 7e 5f 3e
       -0.17255366 -0.2664859 -0.22258046 0.21825707
000090 24 c0 69 be 65 ed 81 3e 28 7c b8 be 0c f2 97 3d
       -0.22827202 0.2537643 -0.36032224 0.07419214
0000a0 4b a9 a8 be 5b 9f 8f be c7 42 c1 3e fb e8 99 3e
       -0.3294166 -0.28051266 0.3774626 0.30060562
0000b0 08 fc 3d be db 39 18 be e6 db 4a be 78 eb 97 3e
       -0.18553174 -0.1486582 -0.19810447 0.29671836
0000c0 b6 9a 87 3e da 3f 81 be 95 4a a0 3e e3 5f 4e be
       0.26485223 -0.25244027 0.31306902 -0.20153765
0000d0 1a fe 65 3e b9 40 aa be 6b 6a 34 be 40 04 88 3e
       0.22460213 -0.33252504 -0.1761872 0.26565742
0000e0 96 4f 8a be e3 38 82 be 17 e9 2b 3e 72 f4 51 3e
       -0.27013844 -0.25434026 0.16788135 0.20503405
0000f0 32 07 8e be c4 ed 71 be e9 d1 18 be 10 11 aa be
       -0.27739865 -0.23625857 -0.14923824 -0.33216143
